runs/lift_30-15-28-00/nn/last_lift_ep_75_rew_-347.05615.pth (torch, 654677 bytes, 36 tensors)

value_mean_std.running_mean f8 [1]
-1442.5234624200298
00000000: da5a 8806 188a 96c0

value_mean_std.running_var f8 [1]
3076436.4782088
00000000: 2af2 353d aa78 4741

value_mean_std.count f8 []
76801.0
00000000: 0000 0000 10c0 f240

running_mean_std.running_mean f8 [39]
0.0 1.4999609385172257 1.2999657414139003 0.4999869795057421 0.3999894703587177 2.899925291735362 0.4999869795057421 2.262394075461119
2.4696067876848793 0.4999869795057421 0.31249184349070225 0.31249187382698146 0.0 0.9999739590114842 0.0 0.0
0.0 0.0 0.0 0.0 -0.012587350698961641 0.0016726185662626432 9.80974305020947 0.0
0.0 0.0 0.0 0.0 0.0 0.0 0.0 0.0
0.0 0.0 0.0 0.0 0.0 0.0 0.12499674487643553
00000000: 0000 0000 0000 0000 dd57 830a d7ff f73f
00000010: 84b0 94e0 a8cc f43f 80ca 5963 c9ff df3f
00000020: ecd7 7b6f 6d99 d93f ebc5 0608 0c33 0740
00000030: 80ca 5963 c9ff df3f 4528 a610 6219 0240
00000040: 7bb0 1834 c1c1 0340 80ca 5963 c9ff df3f
00000050: d8cb 03ca ddff d33f b791 96ea ddff d33f
00000060: 0000 0000 0000 0000 80ca 5963 c9ff ef3f
00000070: 0000 0000 0000 0000 0000 0000 0000 0000
00000080: 0000 0000 0000 0000 0000 0000 0000 0000
00000090: 0000 0000 0000 0000 0000 0000 0000 0000
000000a0: b338 c39c 65c7 89bf a725 9c82 7867 5b3f
000000b0: 3ca0 1da4 969e 2340 0000 0000 0000 0000
000000c0: 0000 0000 0000 0000 0000 0000 0000 0000
000000d0: 0000 0000 0000 0000 0000 0000 0000 0000
000000e0: 0000 0000 0000 0000 0000 0000 0000 0000
000000f0: 0000 0000 0000 0000 0000 0000 0000 0000
00000100: 0000 0000 0000 0000 0000 0000 0000 0000
00000110: 0000 0000 0000 0000 0000 0000 0000 0000
00000120: 0000 0000 0000 0000 0000 0000 0000 0000
00000130: 80ca 5963 c9ff bf3f

running_mean_std.running_var f8 [39]
2.6040988515924042e-05 8.463168687731677e-05 7.004908562138729e-05 3.255106611163438e-05 3.020743581795135e-05 0.00024504012126713357 3.255106611163438e-05 1.359760638437358
0.9979068672950239 3.255106611163438e-05 0.34556329586349005 0.33972860569750096 2.6040988515924042e-05 5.208129889876527e-05 2.6040988515924042e-05 2.6040988515924042e-05
2.6040988515924042e-05 2.6040988515924042e-05 2.6040988515924042e-05 2.6040988515924042e-05 0.5909619203430339 0.5576852554533832 0.002532058142451672 2.6040988515924042e-05
2.6040988515924042e-05 2.6040988515924042e-05 2.6040988515924042e-05 2.6040988515924042e-05 2.6040988515924042e-05 2.6040988515924042e-05 2.6040988515924042e-05 2.6040988515924042e-05
2.6040988515924042e-05 2.6040988515924042e-05 2.6040988515924042e-05 2.6040988515924042e-05 2.6040988515924042e-05 2.6040988515924042e-05 2.644786836565601e-05
00000000: c5ac c01a 534e fb3e e61a 334f 892f 163f
00000010: ec87 9f20 ea5c 123f 3b6f 7d1d ee10 013f
00000020: 3b8b d52e bfac ff3e bed7 9a4e 170f 303f
00000030: 3b6f 7d1d ee10 013f e19f 075f 94c1 f53f
00000040: d18c ef61 daee ef3f 3b6f 7d1d ee10 013f
00000050: 59a0 9b83 b51d d63f ee21 bf0c 1dbe d53f
00000060: c5ac c01a 534e fb3e b0b9 d4cd 3b4e 0b3f
00000070: c5ac c01a 534e fb3e c5ac c01a 534e fb3e
00000080: c5ac c01a 534e fb3e c5ac c01a 534e fb3e
00000090: c5ac c01a 534e fb3e c5ac c01a 534e fb3e
000000a0: 00c0 21f9 28e9 e23f 2947 b4bf 8ed8 e13f
000000b0: 9093 3a5d 1cbe 643f c5ac c01a 534e fb3e
000000c0: c5ac c01a 534e fb3e c5ac c01a 534e fb3e
000000d0: c5ac c01a 534e fb3e c5ac c01a 534e fb3e
000000e0: c5ac c01a 534e fb3e c5ac c01a 534e fb3e
000000f0: c5ac c01a 534e fb3e c5ac c01a 534e fb3e
00000100: c5ac c01a 534e fb3e c5ac c01a 534e fb3e
00000110: c5ac c01a 534e fb3e c5ac c01a 534e fb3e
00000120: c5ac c01a 534e fb3e c5ac c01a 534e fb3e
00000130: f54f c4ac 8bbb fb3e

running_mean_std.count f8 []
38401.0
00000000: 0000 0000 20c0 e240

a2c_network.sigma f4 [24]
0.008357427 -0.0029386138 0.10849383 0.043483317 0.048260055 0.028535383 -0.011131422 0.07553118
0.019838627 0.005136734 0.11685024 0.07974386 0.0041223667 0.0034281053 -0.008335732 0.004382481
-0.0793184 -0.0463402 -0.0004176404 0.018679833 0.0018469808 0.028807582 0.012904964 -0.05741727
00000000: 97ed 083c c295 40bb 0332 de3d 901b 323d
00000010: 56ac 453d 09c3 e93c 9160 36bc 17b0 9a3d
00000020: 9e84 a23c 0c52 a83b 2e4f ef3d c050 a33d
00000030: eb14 873b 10aa 603b 9892 08bc ea9a 8f3b
00000040: af71 a2bd 39cf 3dbd bff6 dab9 7306 993c
00000050: 6416 f23a e1fd eb3c 586f 533c 5f2e 6bbd

a2c_network.actor_mlp.0.weight f4 [256, 39]
-0.050500125 0.06471666 -0.021732543 0.08905504 0.16463284 0.114290774 -0.04833969 0.09792866
0.04008163 0.10298258 -0.10048236 -0.15797073 -0.061867196 -0.10112263 0.13139138 0.046121925
0.066327244 0.050642315 -0.002785585 0.12531762 -0.11987044 0.013150752 -0.087537184 0.049375832
-0.055145297 0.04906587 -0.033361334 0.13280898 -0.09490826 -0.095500104 -0.09550587 0.1440261
0.053362884 0.15408342 -0.13214995 -0.15882729 -0.12527846 -0.107716456 0.08650011 0.05733802
0.109010994 -0.10673152 -0.13311726 0.061005116 -0.08879482 0.07322957 -0.046560835 0.07614709
-0.14837047 -0.0812494 0.045749683 0.033852298 -0.064837046 0.095447496 0.10885659 -0.116120666
-0.08548732 0.14662325 -0.05403244 -0.053786755 -0.1571583 -0.11581346 0.0400006 -0.021135822
-0.11623478 0.0037560768 -0.10938057 -0.13585219 -0.088176586 -0.14014609 -0.10195968 0.16006552
0.030244198 0.049345043 -0.149349 -0.10516797 -0.053299587 0.001118281 -0.14090016 -0.086498134
-0.11336285 -0.017151197 -0.07717719 -0.028589565 -0.12610218 -0.10714665 -0.111056715 -0.07240642
-0.124979734 0.121571854 -0.031779677 0.12021494 0.049893063 -0.13559604 0.11081431 -0.04405843
-0.06138129 -0.13291764 -0.14993656 0.037864193 -0.052447833 0.06234159 -0.13141131 0.1188838
-0.11754266 -0.027649863 0.033445917 0.08266644 0.1292731 0.14587021 -0.12696916 0.040299013
-0.06887527 -0.017547613 -0.11985433 0.1458541 -0.13514012 0.085580684 0.08688574 0.08264343
-0.05632641 0.17580198 0.065930635 0.050845057 -0.12174515 0.08879808 0.006223653 -0.08073559
0.12750433 0.035700377 -0.058126062 -0.08104709 -0.0076470347 0.08940936 -0.040918157 -0.0913651
-0.054834742 -0.12221786 0.05789297 0.15486057 -0.1507511 0.03718987 0.08272088 0.029035935
-0.057025578 0.083577625 0.08414945 0.059876274 -0.028137943 -0.042402137 0.017130656 -0.028287293
-0.047718357 0.10235501 0.13761406 0.014260854 -0.03585219 -0.03881058 -0.05070493 -0.0017321712
0.004625807 -0.18689731 -0.09932204 0.101628356 0.029973662 -0.048193235 -0.07752018 -0.0702402
-0.14343749 -0.09296891 0.054075945 0.10210117 0.07393074 -0.14154433 -0.09629506 -0.025270887
0.1561413 0.024344426 -0.08334769 0.066247456 -0.060989857 -0.10364385 0.11687549 -0.07281055
-0.03210037 -0.15929617 0.10716907 0.12131863 0.058358412 -0.11165322 -0.15803686 -0.13005272
0.119407594 0.07687844 0.09484302 0.08388631 0.027070861 -0.015019333 -0.13537481 -0.15078227
-0.16318406 0.05195391 -0.08747885 -0.0375364 -0.10575114 -0.04394174 -0.11801948 -0.10463024
0.03959691 -0.047589507 0.09885402 -0.051370513 -0.11746476 -0.028252838 -0.077621706 -0.0504113
-0.14823957 0.0762399 -0.11148194 0.08048324 0.07266363 0.11440079 -0.12282662 0.11516365
-0.07570084 0.059418622 0.15037869 -0.02258317 -0.0012383453 -0.036866393 -0.13370453 0.07684596
-0.15896207 0.085769705 0.1198119 0.17043696 -0.018768182 -0.11249808 0.05506886 0.10745883
-0.14030686 -0.02486817 -0.08062772 0.005064491 -0.07602573 -0.064533 -0.0508341 -0.1331275
0.13138635 0.13424042 -0.02511915 -0.018235724 -0.065351486 -0.14460577 -0.16543806 0.060497988
00000000: 38d9 4ebd 2b8a 843d 7208 b2bc 7d62 b63d
00000010: 8395 283e 4811 ea3d d7ff 45bd d28e c83d
00000020: a32c 243d 88e8 d23d b2c9 cdbd 14c3 21be
00000030: 7568 7dbd 6219 cfbd 768b 063e 58ea 3c3d
00000040: 94d6 873d 516e 4f3d 5c8e 36bb 4353 003e
00000050: a27e f5bd 4076 573c b246 b3bd 503e 4a3d
00000060: 09e0 61bd 4bf9 483d e5a5 08bd 14ff 073e
00000070: 435f c2bd 8f95 c3bd 9598 c3bd 947b 133e
00000080: 0a93 5a3d 0bc8 1d3e 5152 07be 9fa3 22be
00000090: ff48 00be 729a dcbd f826 b13d 46db 6a3d
000000a0: 2841 df3d 0e96 dabd e44f 08be 80e0 793d
000000b0: 0fda b5bd 63f9 953d 93b6 3ebd 01f3 9b3d
000000c0: 6eee 17be 1666 a6bd 0564 3b3d b5a8 0a3d
000000d0: 49c9 84bd fa79 c33d 34f0 de3d acd0 edbd
000000e0: fa13 afbd 6824 163e 1f51 5dbd 804f 5cbd
000000f0: 1bee 20be 9b2f edbd abd7 233d 0825 adbc
00000100: 800c eebd 8328 763b ec02 e0bd d61c 0bbe
00000110: ed95 b4bd 7582 0fbe 3dd0 d0bd 37e8 233e
00000120: aec2 f73c 071e 4a3d f2ee 18be 4e62 d7bd
00000130: ab50 5abd 4993 923a 2248 10be ef25 b1bd
00000140: c82a e8bd ab80 8cbc 130f 9ebd aa34 eabc
00000150: ee20 01be b46f dbbd b471 e3bd d149 94bd
00000160: 60f5 ffbd aafa f83d 682b 02bd 4033 f63d
00000170: ab5c 4c3d b0d9 0abe 9df2 e23d 9d76 34bd
00000180: f36a 7bbd 901b 08be f888 19be 7c17 1b3d
00000190: 8ad3 56bd e559 7f3d b090 06be 5a79 f33d
000001a0: 35ba f0bd f781 e2bc 96fe 083d 064d a93d
000001b0: 2b60 043e 005f 153e 3404 02be 9410 253d
000001c0: 7a0e 8dbd 03c0 8fbc 3076 f5bd c75a 153e
000001d0: 2c62 0abe ed44 af3d 27f1 b13d f540 a93d
000001e0: 86b6 66bd 6f05 343e a406 873d e842 503d
000001f0: 8555 f9bd c5db b53d c9ef cb3b b358 a5bd
00000200: 7f90 023e 8f3a 123d 9815 6ebd 04fc a5bd
00000210: fa93 fabb 411c b73d cc99 27bd a01d bbbd
00000220: 659a 60bd 5b4d fabd 2e21 6d3d c593 1e3e
00000230: 7f5e 1abe 6854 183d 9169 a93d c5dc ed3c
00000240: a793 69bd bf2a ab3d 8c56 ac3d d340 753d
00000250: 8b81 e6bc ddad 2dbd 9755 8c3c c1ba e7bc
00000260: 5374 43bd 819f d13d b3ea 0c3e 5ba6 693c
00000270: bfd9 12bd d8f7 1ebd f9af 4fbd 050a e3ba
00000280: 1594 973b 0262 3fbe 5b69 cbbd 8722 d03d
00000290: 538b f53c 4566 45bd e6c2 9ebd 18da 8fbd
000002a0: 47e1 12be 7c66 bebd bd7e 5d3d 6b1a d13d
000002b0: 0069 973d fff0 10be 5836 c5bd e404 cfbc
000002c0: 81e3 1f3e f66d c73c 32b2 aabd bfac 873d
000002d0: 80d0 79bd 3a43 d4bd 6b5c ef3d b31d 95bd
000002e0: ad7b 03bd 891e 23be 757b db3d e775 f83d
000002f0: 3b09 6f3d 72aa e4bd 6ad4 21be 8a2c 05be
00000300: f88b f43d 7272 9d3d 0f3d c23d 96cc ab3d
00000310: b6c3 dd3c a613 76bc b29f 0abe ab66 1abe
00000320: b919 27be a0cd 543d 1c28 b3bd c5bf 19bd
00000330: 0e94 d8bd 41fc 33bd 32b4 f1bd 6148 d6bd
00000340: 5f30 223d 37ed 42bd fa73 ca3d e369 52bd
00000350: 5d91 f0bd 7f72 e7bc 21f8 9ebd 147c 4ebd
00000360: 1dcc 17be aa23 9c3d a550 e4bd 66d4 a43d
00000370: abd0 943d f64a ea3d 868c fbbd ebda eb3d
00000380: 0b09 9bbd f160 733d dffc 193e 5700 b9bc
00000390: f94f a2ba 3701 17bd d7e9 08be 6a61 9d3d
000003a0: f4c6 22be 07a8 af3d f15f f53d 0787 2e3e
000003b0: bbbf 99bc 6565 e6bd e38f 613d 6013 dc3d
000003c0: 9aac 0fbe 55b8 cbbc 2520 a5bd 08f4 a53b
000003d0: 61b3 9bbd e129 84bd 6b37 50bd 9352 08be
000003e0: 258a 063e 5276 093e adc6 cdbc 1663 95bc
000003f0: 00d7 85bd 8913 14be 9868 29be bdcc 773d

a2c_network.actor_mlp.0.bias f4 [256]
0.026087811 -0.030162549 -0.021559544 0.042930387 -0.065402634 -0.01342902 0.02397952 0.048991945
-0.058038477 0.017742142 -0.011023427 -0.012261281 0.010055554 0.029950513 -0.025185399 -0.030772531
0.01993877 0.007086222 0.018731637 -0.021940753 0.007252048 -0.01241509 -0.008613722 -0.020358315
0.01131073 0.008309705 0.025769783 0.0022899327 0.055397987 -0.00072609435 0.019945588 -0.0070141056
0.026985321 0.031265937 0.035232704 -0.035478663 -0.02144718 -0.0573629 0.023910657 -0.016817903
-0.007920022 -0.039683007 -0.056767803 0.01848893 -0.028288025 0.008932344 -0.023870362 0.011993218
-0.04632962 -0.03329578 -0.024809921 0.063142866 0.024943722 0.028534032 -0.015687872 0.0155223375
0.015132689 -0.012674215 -0.009987841 -0.024098873 -0.043345623 -0.0282132 0.01011355 0.030313486
-0.023863325 0.014744425 -0.02699134 -0.032944474 0.00227761 -0.00850108 -0.019244378 -0.028307818
0.020153565 0.053197406 0.012900542 -0.00047463793 0.045795012 0.047325943 -0.04418311 -0.016160546
-0.023357632 0.027005987 -0.034386463 0.028064504 0.0163762 -0.021339415 0.023338243 -0.049055696
0.0027901235 0.046462134 -0.027838444 -0.038391553 0.034556996 0.020003757 0.033324286 0.014139136
-0.047954015 -0.024053002 -0.005605447 -0.010815603 0.021001222 0.019832969 0.017889034 0.016510757
0.016938802 -0.018978288 0.025010407 0.012256016 -0.041202124 0.0063778223 -0.022578172 -0.052053805
-0.028819991 0.051589653 -0.022764804 0.023917574 0.02386622 -0.02718787 -0.011729367 -0.016093547
0.007369379 -0.010837868 -0.023207663 -0.023882668 -0.003411039 -0.018434614 0.022962043 0.021780051
0.058328807 -0.012384206 -0.04347036 -0.011800309 5.0909308e-05 0.0003255514 -0.0086052315 0.025354994
0.02498492 -0.06364651 -0.022547556 0.016383298 -0.016692704 0.027530441 0.041134592 0.043917235
0.062301096 -0.05422366 -0.0204983 0.04204267 0.024896298 -0.01742948 0.03480619 0.008323492
0.048241194 -0.022613617 0.04379004 0.05682187 -0.039720155 0.027109375 -0.02364647 -0.025384612
-0.039906226 -0.022009257 -0.021758921 0.023722779 -0.0058211056 0.025658455 -0.0071863094 0.0041759014
-0.0015479581 -0.007918295 0.017239535 0.02204528 -0.0032071634 0.032741208 0.05457722 -0.013766705
0.032204803 -0.0022877369 -0.033126872 -0.03509183 -0.038639814 0.04027725 0.0033337 0.012616459
0.015891215 0.02072062 -0.0020285347 -0.008419619 -0.044256713 -0.013329967 0.031020544 -0.0013803212
0.04008257 -0.009402679 0.057125855 -0.013338717 0.041684076 -0.043905035 -0.018629272 -0.020054614
0.06446235 -0.040083878 0.054469258 0.013981597 -0.035000104 -0.041977454 -0.02461529 0.03386511
-0.0053974413 -0.0027147238 0.006683516 -0.018850258 -0.038443085 0.027715383 0.028889112 -0.018240886
-0.042223938 -0.04074126 0.052787714 0.03415496 0.01340179 0.03030756 0.06709219 0.0334797
-0.0040794318 0.038982615 -0.0116662355 -0.034232795 0.011674595 0.024447046 -0.005277526 0.010357797
-0.026854264 0.009255428 0.00060254626 0.030501567 0.025117394 0.007912175 0.0019184648 -0.046979662
0.020059355 -0.006565687 0.0261735 0.010256069 -0.0019727072 0.055728126 0.02854172 -0.03890231
-0.010184433 0.02218137 -0.036978453 0.034541786 -0.028054474 0.018776981 0.010173 -0.026346339
00000000: 1bb6 d53c 7317 f7bc a49d b0bc c6d7 2f3d
00000010: d1f1 85bd 6405 5cbc b370 c43c c7ab 483d
00000020: c1b9 6dbd f857 913c 9b9b 34bc 8ae3 48bc
00000030: 0dc0 243c c75a f53c 9c51 cebc ad16 fcbc
00000040: a256 a33c 8a33 e83b 1773 993c 18bd b3bc
00000050: 96a2 ed3b a968 4bbc 9220 0dbc 7bc6 a6bc
00000060: a450 393c 6e25 083c 271b d33c b212 163b
00000070: 00e9 623d 5e57 3eba ee64 a33c 95d6 e5bb
00000080: 5210 dd3c b610 003d 2b50 103d 1352 11bd
00000090: ffb1 afbc 5cf5 6abd 48e0 c33c b3c5 89bc
000000a0: fbc2 01bc a68a 22bd 5b85 68bd 1976 973c
000000b0: 4abc e7bc f758 123c c78b c3bc 347f 443c
000000c0: 21c4 3dbd 2861 08bd 2d3e cbbc 0c51 813d
000000d0: c756 cc3c 34c0 e93c da83 80bc 6751 7e3c
000000e0: 19ef 773c 83a7 4fbc 0ba4 23bc 006b c5bc
000000f0: 2e8b 31bd 5e1f e7bc 4eb3 253c fd53 f83c
00000100: 057d c3bc 9a92 713c f11c ddbc c9f0 06bd
00000110: f443 153b 1d48 0bbc 63a6 9dbc cce5 e7bc
00000120: 1719 a53c 86e5 593d cb5c 533c d3d8 f8b9
00000130: 8d93 3b3d d9d8 413d 59f9 34bd 1f63 84bc
00000140: 8158 bfbc a93b dd3c d2d8 0cbd 88e7 e53c
00000150: 6127 863c ffcf aebc d82f bf3c a0ee 48bd
00000160: 81da 363b 144f 3e3d 730d e4bc 7640 1dbd
00000170: a38b 0d3d ebde a33c 0c7f 083d d6a7 673c
00000180: 6e6b 44bd cd0a c5bc e6ad b7bb ed33 31bc
00000190: c10a ac3c c078 a23c 068c 923c 9141 873c
000001a0: 3ec3 8a3c 5b78 9bbc a0e2 cc3c 75cd 483c
000001b0: 8fc3 28bd 0dfd d03b dcf5 b8bc 5f36 55bd
000001c0: e717 ecbc ac4f 533d 417d babc caee c33c
000001d0: 1783 c33c 19b9 debc 882c 40bc 9dd6 83bc
000001e0: d57a f13b 5091 31bc ff1d bebc 96a5 c3bc
000001f0: bd8b 5fbb 3004 97bc e51a bc3c 146c b23c
00000200: 30ea 6e3d 20e7 4abc fa0d 32bd 1556 41bc
00000210: 7487 5538 c5ae aa39 f5fc 0cbc 47b5 cf3c
00000220: 2dad cc3c 1a59 82bd a7b5 b8bc 4436 863c
00000230: 23bf 88bc 8587 e13c bf7c 283d 8fe2 333d
00000240: 6f2f 7f3d a119 5ebd 0dec a7bc ef34 2c3d
00000250: 52f3 cb3c 45c8 8ebc ef90 0e3d 415f 083c
00000260: 8f98 453d 3140 b9bc 2f5d 333d 0dbe 683d
00000270: 9ab1 22bd 7b14 de3c 3eb6 c1bc 64f3 cfbc
00000280: b674 23bd c24c b4bc c43f b2bc 4656 c23c
00000290: f9be bebb ae31 d23c 227b ebbb 00d6 883b
000002a0: dbe4 caba bdbb 01bc ed39 8d3c 4e98 b43c
000002b0: 462f 52bb a51b 063d 5d8c 5f3d bf8d 61bc
000002c0: 2fe9 033d dbed 15bb 0bb0 07bd 73bc 0fbd
000002d0: c844 1ebd c2f9 243d 347a 5a3b 44b5 4e3c
000002e0: 4b2e 823c 4abe a93c 2af1 04bb 71f2 09bc
000002f0: 8746 35bd ef65 5abc cc1e fe3c e5eb b4ba
00000300: 9f2d 243d b20d 1abc cdfc 693d a28a 5abc
00000310: ecbc 2a3d c4d5 33bd 6a9c 98bc 9349 a4bc
00000320: d604 843d fe2e 24bd 281b 5f3d 1113 653c
00000330: 455c 0fbd 8df0 2bbd 01a6 c9bc 24b6 0a3d
00000340: 05dd b0bb 82e9 31bb 6501 db3b db6b 9abc
00000350: 7f76 1dbd 5f0b e33c dca8 ec3c e96d 95bc
00000360: 02f3 2cbd 4fe0 26bd ee37 583d 12e6 0b3d
00000370: 2e93 5b3c 8f47 f83c a167 893d 0322 093d
00000380: c1ac 85bb 3cac 1f3d bd23 3fbc b037 0cbd
00000390: cd46 3f3c 2c45 c83c 19ef acbb c0b3 293c
000003a0: 79fd dbbc 14a4 173c 32f4 1d3a 6cde f93c
000003b0: fec2 cd3c 11a2 013c ff74 fb3a bf6d 40bd
000003c0: 8453 a43c f924 d7bb cf69 d63c 1209 283c
000003d0: 8948 01bb 2d43 643d 53d0 e93c 0758 1fbd
000003e0: 9cdc 26bc b4b5 b53c b876 17bd b07b 0d3d
000003f0: 7fd2 e5bc 2fd2 993c a8ac 263c 47d4 d7bc

a2c_network.actor_mlp.2.weight f4 [128, 256]
0.008400581 -0.020500919 0.024274567 -0.019333178 -0.06776795 0.055588413 -0.06103268 -0.04074416
-0.02702148 -0.062769994 -0.036367245 -0.03642381 0.021055337 -0.06637526 -0.03848235 -0.03569681
-0.06939355 -0.00075743755 -0.016761541 0.033763293 0.054000538 -0.054061398 -0.023661874 0.022277137
0.022205908 0.02919576 -0.0007742709 0.017859545 -0.054239612 -0.06308051 -0.05140833 -0.064978436
-0.08122943 -0.054742552 0.033876047 0.01608128 0.02689368 -0.023193222 -0.00890858 0.046260666
-0.03676191 0.040149253 0.018149588 -0.0035442854 0.08089818 -0.00032314245 -0.044317655 0.07836443
0.009181172 0.052043896 -0.016298603 -0.040405873 0.0473314 -0.0045265933 0.051939424 -0.012023314
0.029910069 -0.04492783 -0.0026629576 0.05987458 -0.021596637 0.049962893 0.022128977 0.03198691
0.045907512 -0.034453515 0.0017960389 0.0468053 -0.0400048 -0.072605714 0.04866252 -0.042631302
-0.04883618 0.02134238 0.012046654 -0.03302232 -0.008611719 0.047578707 -0.049087293 0.05138015
0.025329087 -0.05804427 -0.064701416 -0.028604094 0.054004543 -0.02335782 -0.050850306 -0.010065897
0.05323014 -0.0020059044 0.08446777 0.0675408 0.051934183 -0.032366473 -0.05205502 -0.053438388
-0.020886008 -0.04044244 0.017835576 0.030616263 0.026502619 -0.0883699 -0.051031046 -0.013154955
0.0018514474 0.054354783 -0.04155026 0.047682405 -0.022029227 0.0018359871 0.005467013 -0.03613136
-0.025991268 -0.043900862 -0.0052414685 -0.03664697 -0.045273565 -0.017451797 -0.073364116 -0.016976273
-0.06605811 0.07415895 -0.01776889 0.051264085 -0.05005319 0.031026492 -0.06111232 0.008247117
0.042143565 -0.07243302 0.025212286 -0.0011696419 -0.032584663 -0.007296695 0.0615587 -0.03241212
0.05443806 0.003426588 0.05993392 -0.015380581 0.019239297 -0.014156725 0.05637232 -0.059072796
-0.014662751 -0.0049850326 -0.045881808 0.009731011 0.017461428 0.036486696 -0.036100503 0.03386319
-0.03883159 0.060984872 -0.0497915 -0.053110402 0.019651731 -0.0070320875 0.024084575 0.058685895
0.053359054 0.03189756 -0.041291077 -0.010586447 0.010047567 -0.08278455 0.033722024 0.050498094
-0.032139435 -0.03456342 -0.06518801 0.010047917 0.02511074 -0.020621842 0.035109323 -0.0018819435
0.007454546 0.04623052 -0.024739578 -0.035370957 0.028671945 -0.040621005 0.050685566 -0.02858324
0.054488584 -0.012980492 -0.032078475 -0.04365506 0.032404352 -0.03709882 -0.006478513 0.043076113
-0.049265865 -0.053855453 0.015939252 -0.025254844 -0.04215187 0.035554297 -0.060247462 -0.002546049
-0.044176165 0.013770292 0.013288071 0.02264724 0.025669592 -0.009399354 -0.010890296 0.049837857
-0.019721253 0.022510137 -0.049811736 -0.03898014 -0.025260314 -0.043090984 0.0029474446 -0.025926609
0.0031448936 0.05531715 -0.009652102 0.0131672 -0.010001939 0.04022546 0.040687397 0.010765594
0.04991991 -0.004298979 0.008963664 -0.036165003 -0.023837602 0.06258014 -0.03689377 -0.07829614
-0.007950286 0.015816033 -0.009669015 -0.003975265 0.023074836 0.03773691 -0.04704085 0.016673895
0.017921615 -0.025300764 0.011225594 -0.0038702656 0.0035895244 0.04313017 0.033082798 0.05578025
0.037068192 0.011899602 0.020777835 -0.040121906 0.042455442 -0.004951117 0.01596331 -0.026082532
00000000: 97a2 093c 8bf1 a7bc 75db c63c 9d60 9ebc
00000010: ecc9 8abd adb0 633d 67fd 79bd 59e3 26bd
00000020: 275c ddbc 8e8d 80bd d2f5 14bd 2231 15bd
00000030: 3e7c ac3c c1ef 87bd ab9f 1dbd d136 12bd
00000040: 351e 8ebd c68e 46ba 804f 89bc 614b 0a3d
00000050: ab2f 5d3d 7c6f 5dbd 8cd6 c1bc 8b7e b63c
00000060: 2ae9 b53c f22b ef3c 71f8 4aba 2e4e 923c
00000070: 5b2a 5ebd 5b30 81bd 8b91 52bd 6a13 85bd
00000080: 9e5b a6bd ba39 60bd 9cc1 0a3d e3bc 833c
00000090: 2350 dc3c b6ff bdbc 4bf5 11bc d37b 3d3d
000000a0: a893 16bd 8b73 243d 72ae 943c 3e47 68bb
000000b0: f2ad a53d 726b a9b9 6e86 35bd 887d a03d
000000c0: a06c 163c fb2b 553d a684 85bc a180 25bd
000000d0: 92de 413d d153 94bb 6fbe 543d 6ffd 44bc
000000e0: f605 f53c 3f06 38bd 0485 2ebb 0c3f 753d
000000f0: 6eeb b0bc e4a5 4c3d d447 b53c b504 033d
00000100: 8409 3c3d 211f 0dbd 1169 eb3a eab6 3f3d
00000110: 13dc 23bd 4eb2 94bd 5a52 473d 299e 2ebd
00000120: 7208 48bd 37d6 ae3c 545f 453c 6a42 07bd
00000130: 2b18 0dbc e4e1 423d c20f 49bd fe73 523d
00000140: f27e cf3c d4bf 6dbd 2d82 84bd 2253 eabc
00000150: de33 5d3d e658 bfbc 6948 50bd 6feb 24bc
00000160: d907 5a3d 7e75 03bb 70fd ac3d d552 8a3d
00000170: f0b8 543d b592 04bd a537 55bd 36e2 5abd
00000180: 2219 abbc f9a6 25bd ea1b 923c f5ce fa3c
00000190: 051c d93c 47fb b4bd ee05 51bd e187 57bc
000001a0: 44ac f23a 1fa3 5e3d 9b30 2abd a04e 433d
000001b0: a376 b4bc 81a5 f03a a124 b33b 7afe 13bd
000001c0: a4eb d4bc 64d1 33bd a0c0 abbb 221b 16bd
000001d0: c670 39bd 12f7 8ebc ed3f 96bd d311 8bbc
000001e0: 7949 87bd a6e0 973d 1090 91bc 4afa 513d
000001f0: 9304 4dbd 452b fe3c e950 7abd ea1e 073c
00000200: bb9e 2c3d c357 94bd ff89 ce3c ab4e 99ba
00000210: 7f77 05bd 1d19 efbb fa24 7c3d 92c2 04bd
00000220: 71fa 5e3d 9b90 603b 457d 753d d5fe 7bbc
00000230: bb9b 9d3c 9cf1 67bc a9e6 663d 51f6 71bd
00000240: 093c 70bc 7c59 a3bb 90ee 3bbd d26e 1f3c
00000250: 450b 8f3c 1373 153d 1fde 13bd 21b4 0a3d
00000260: e00d 1fbd 46cb 793d 2cf2 4bbd 4b8a 59bd
00000270: abfc a03c 6d6d e6bb 044d c53c 9f60 703d
00000280: 068f 5a3d 04a7 023d d520 29bd c772 2dbc
00000290: 8d9e 243c f28a a9bd 1b20 0a3d 17d7 4e3d
000002a0: a4a4 03bd 5f92 0dbd 4b81 85bd 05a0 243c
000002b0: 0ab5 cd3c 23ef a8bc cbce 0f3d 8cab f6ba
000002c0: 4445 f43b 375c 3d3d a8aa cabc 23e1 10bd
000002d0: 6de1 ea3c 3662 26bd ab9b 4f3d 6627 eabc
000002e0: 6c2f 5f3d 21ac 54bc b864 03bd a6cf 32bd
000002f0: 6dba 043d eff4 17bd b549 d4bb 9470 303d
00000300: 01cb 49bd 8997 5cbd 0993 823c 3fe3 cebc
00000310: 70a7 2cbd 62a1 113d 0bc6 76bd 9ddb 26bb
00000320: 11f2 34bd ca9c 613c 36b6 593c b486 b93c
00000330: 0949 d23c c0ff 19bc 366d 32bc c822 4c3d
00000340: 778e a1bc 2e67 b83c 6407 4cbd a4a9 1fbd
00000350: b8ee cebc 2c80 30bd ea29 413b 0a64 d4bc
00000360: 8f1a 4e3b 3c94 623d da23 1ebc 3dbb 573c
00000370: 2cdf 23bc 74c3 243d d4a7 263d 2d62 303c
00000380: d278 4c3d 73de 8cbb 55dc 123c c121 14bd
00000390: 1347 c3bc 042a 803d ec1d 17bd ba59 a0bd
000003a0: eb41 02bc a090 813c ca6a 1ebc f142 82bb
000003b0: 7007 bd3c 0592 1a3d e8ad 40bd b197 883c
000003c0: 5ad0 923c 8c43 cfbc 8eeb 373c 48a4 7dbb
000003d0: 3a3e 6b3b 43a9 303d d481 073d d579 643d
000003e0: d1d4 173d 8cf6 423c 4736 aa3c de56 24bd
000003f0: c2e5 2d3d fb3c a2bb 7dc5 823c 09ab d5bc

a2c_network.actor_mlp.2.bias f4 [128]
-0.038304597 0.03323503 -0.0037315376 0.031160433 -0.047530245 -0.013307268 -0.045596518 0.031215055
-0.04972381 0.018114353 0.015310725 0.03561808 0.03279178 -0.018048024 0.03352114 0.016375765
-0.014587565 -0.03415078 0.030806795 -0.042457636 -0.05085078 0.02845238 0.01153423 0.020754892
0.033218816 0.02027294 -0.032843433 -0.027992954 0.037675478 -0.019457877 -0.030981017 -0.04089649
0.018356305 -0.043749273 0.02412197 0.03284316 4.457203e-05 0.018886944 0.008606148 -0.042561017
-0.028193735 -0.045558993 -0.020477816 -0.04355704 0.021324245 -0.015525762 -0.014943233 0.028671555
0.018359216 -0.02668485 -0.010371197 0.044920653 0.0004199157 -0.011609228 -0.020778835 0.014664967
0.015447045 -0.036089897 -0.048494287 0.033433855 0.009662748 0.0035917691 0.0018613464 0.035720795
0.03662468 0.037434343 0.03753833 0.024660688 -0.036363516 0.02187539 0.02367952 -0.010155085
-0.033585917 -0.013722869 -0.0009584199 0.030022392 0.018344171 0.0017311951 0.030509101 -0.021444475
0.028114548 -0.020962188 -0.018936245 0.004369085 -0.03170746 0.038916443 -0.040743858 -0.031499844
0.023283834 -0.0015825636 0.022676107 -0.022305606 0.03593968 0.02548009 0.021114863 -0.030778633
0.034446012 -0.025483416 0.03583485 -0.017269513 -0.019594973 0.03314454 0.03849856 0.008380794
0.029788991 0.028034437 0.005151115 -0.005150127 -0.024355825 -0.03257555 0.039692678 -0.018064773
-0.021209987 0.015092542 0.009841443 0.01757546 0.014042728 0.017010953 -0.006560917 -0.041567616
-0.044465583 -0.04085724 0.035023637 -0.011727479 0.0031072733 -0.009002784 0.037197817 -0.0021253303
00000000: 48e5 1cbd 7421 083d d08c 74bb 2a44 ff3c
00000010: 13af 42bd ba06 5abc 6ac3 3abd b7b6 ff3c
00000020: 32ab 4bbd 8d64 943c d6d9 7a3c 44e4 113d
00000030: ac50 063d 73d9 93bc 774d 093d 7826 863c
00000040: af00 6fbc b0e1 0bbd 885e fc3c 0fe8 2dbd
00000050: e848 50bd f714 e93c 11fa 3c3c 2a06 aa3c
00000060: 7410 083d 7013 a63c d686 06bd 7b51 e5bc
00000070: 9a51 1a3d 2066 9fbc e7cb fdbc 1483 27bd
00000080: f65f 963c 7032 33bd 709b c53c 8d86 063d
00000090: daf2 3a38 cbb8 9a3c cd00 0d3c 7654 2ebd
000000a0: 8cf6 e6bc 119c 3abd 18c1 a7bc de68 32bd
000000b0: 2fb0 ae3c c45f 7ebc 76d4 74bc 9ce0 ea3c
000000c0: 1166 963c 309a dabc f4eb 29bc b8fe 373d
000000d0: 2228 dc39 a234 3ebc 6038 aabc 5445 703c
000000e0: 9a15 7d3c 00d3 13bd f2a1 46bd f0f1 083d
000000f0: 8150 1e3c e363 6b3b 6cf8 f33a f84f 123d
00000100: c303 163d c154 193d cbc1 193d 3605 ca3c
00000110: e9f1 14bd 0534 b33c 8dfb c13c 8361 26bc
00000120: 6391 09bd e2d5 60bc 793e 7bba 85f1 f53c
00000130: 8446 963c 45e9 e23a 39ee f93c 53ac afbc
00000140: 7b50 e63c e5b8 abbc 2f20 9bbc 8b2a 8f3b
00000150: aedf 01bd d966 1f3d 08e3 26bd fb05 01bd
00000160: bdbd be3c 066e cfba 3ec3 b93c 3fba b6bc
00000170: 7c35 133d 9fbb d03c 14f9 ac3c 7923 fcbc
00000180: 4317 0d3d 99c2 d0bc 90c7 123d cb78 8dbc
00000190: a385 a0bc 92c2 073d abb0 1d3d 994f 093c
000001a0: 0b08 f43c 7aa8 e53c afca a83b 66c2 a8bb
000001b0: de85 c7bc f16d 05bd ca94 223d 93fc 93bc
000001c0: 91c0 adbc b646 773c 013e 213c 69fa 8f3c
000001d0: 7813 663c 8e5a 8b3c f6fc d6bb ce42 2abd
000001e0: 8b21 36bd ec59 27bd f274 0f3d 9d24 40bc
000001f0: 65a3 4b3b 6a80 13bc bd5c 183d 2049 0bbb

a2c_network.actor_mlp.4.weight f4 [64, 128]
0.014320682 0.0026802623 -0.005606043 0.09015062 0.013903119 0.0012109162 -0.055265427 0.0033733386
-0.09136374 0.07958978 -0.049677473 0.064935386 0.0907993 0.039111186 0.09833862 -0.051888656
0.0079465145 0.028333193 -0.05982237 -0.10118647 0.005304261 0.08796539 0.053338476 0.032301635
0.058091972 0.04951068 -0.08213215 -0.083589375 0.076921046 -0.037233718 -0.00025534473 -0.04273227
0.03107518 -0.008146261 0.054638606 -0.00312908 0.031993665 -0.019281328 0.05240779 -0.009035211
0.0684188 -0.08928262 -0.03352506 0.038082946 -0.07142457 -0.04503517 0.033707462 -0.025289088
-0.035876688 -0.006729705 0.06214363 0.024233185 -0.00826341 -0.09255826 -0.024349716 0.052388005
-0.07441162 0.07088199 -0.013876985 0.083381966 0.0143211335 -0.08699258 0.031231621 -0.051146124
0.035385914 0.013930866 -0.06174973 0.026725138 -0.063851416 0.048823804 -0.01982305 -0.04493608
-0.08385254 -0.05533232 0.07776203 0.09302483 0.038223214 -0.08246897 0.030717513 -0.05166184
0.05139003 0.07265459 0.053585734 0.010930124 -0.020432575 -0.0284134 -0.057095665 -0.055852648
0.04457899 0.06757704 -0.007153668 0.09082776 0.045323223 -0.030974064 0.06543779 -0.07820133
0.020770157 -0.05390048 0.05081776 0.0038312185 -0.006549125 -0.006280876 -0.047480546 -0.025295528
0.0461327 -0.020292403 -0.018327529 0.05664726 -0.004178122 0.03087998 0.059986368 -0.05103176
-0.014601646 -0.07179713 0.05533803 0.06109988 -0.057617616 0.07382527 -0.03137586 0.01731132
0.00041058354 0.005071095 0.046477303 0.017700238 -0.054767244 -0.06879858 0.07962435 0.027638463
0.014333156 -0.00084955356 -0.026093144 -0.09921667 0.08738563 -0.057345822 0.0025701488 -0.055943586
0.100433156 -0.04332164 0.015431171 -0.0070479983 0.050345432 0.08605278 0.018024767 -0.02103834
0.050280824 0.040931366 -0.08487359 0.02293614 0.09604455 -0.08202779 -0.05524482 -0.050863255
0.042287175 -0.07858402 0.021142868 -0.062409148 0.045498464 -0.038136017 0.052142113 -0.029007882
-0.036820464 0.027735515 -0.015546256 -0.0699062 -0.0767903 -0.05800987 -0.046445787 0.07697558
0.041649677 -0.034571894 -0.03305105 0.104000606 -0.08614129 0.07650292 0.0054825363 -0.088880084
0.043476917 0.0721288 0.04469573 -0.052813582 -0.043236427 0.0018115496 -0.0642432 0.01985934
-0.06026081 0.025701221 0.0072466657 0.04336423 -0.09048239 -0.057013724 0.04049343 -0.052425362
0.040951088 -0.091644846 -0.004518274 0.008546733 0.11069553 0.051250715 0.028889306 -0.006558146
0.040953744 0.066377625 -0.069068894 -0.097951055 -0.0067332825 -0.08503269 -0.009417536 0.019597666
0.05231306 0.07195064 -0.07668825 0.09118243 -0.052218933 -0.10654878 -0.004556359 0.036088876
-0.022516942 -0.010910489 -0.010302636 -0.014759937 -0.053191308 0.030976871 0.02862814 -0.00486556
0.023490716 0.061625753 -0.023720449 -0.011624587 0.08226996 -0.01439978 0.046271067 0.09408937
-0.10441175 -0.038401894 -0.063323565 0.024355382 0.074730605 0.055559885 -0.056100685 0.036426906
0.07343594 -0.049402755 0.037795253 -0.005347416 0.010418744 -0.023566155 0.046966854 0.06991864
0.021847067 0.026061673 -0.09538556 -0.084900975 -0.039372295 -0.048428863 -0.028350579 0.07830233
00000000: 4ba1 6a3c 57a7 2f3b e6b2 b7bb e3a0 b83d
00000010: e8c9 633c 9bb7 9e3a 005e 62bd 3b13 5d3b
00000020: ea1c bbbd f7ff a23d 9b7a 4bbd d8fc 843d
00000030: fcf4 b93d 0d33 203d c265 c93d 3389 54bd
00000040: 1932 023c 031b e83c 4d08 75bd da3a cfbd
00000050: 5ecf ad3b 3327 b43d 7279 5a3d b84e 043d
00000060: d9f1 6d3d b6cb 4a3d e734 a8bd e830 abbd
00000070: c888 9d3d 6282 18bd cadf 85b9 0808 2fbd
00000080: 6091 fe3c e577 05bc bbcc 5f3d 4011 4dbb
00000090: ca0b 033d e0f3 9dbc 8da9 563d 6c08 14bc
000000a0: 281f 8c3d ced9 b6bd 9351 09bd ddfc 1b3d
000000b0: 0c47 92bd cc76 38bd d610 0a3d 102b cfbc
000000c0: 6ff3 12bd db84 dcbb 528a 7e3d ac84 c63c
000000d0: 4163 07bc 2f8f bdbd 0e79 c7bc ce94 563d
000000e0: 1f65 98bd 942a 913d 4b5c 63bc 2ac4 aa3d
000000f0: 30a3 6a3c 2a29 b2bd 75d9 ff3c 997e 51bd
00000100: d2f0 103d 493e 643c 49ed 7cbd adee da3c
00000110: 88c4 82bd 78fb 473d f363 a2bc e50e 38bd
00000120: e1ba abbd 25a4 62bd b341 9f3d cd83 be3d
00000130: f28f 1c3d 7ee5 a8bd 4ba3 fb3c 5e9b 53bd
00000140: 5a7e 523d eecb 943d b77c 5b3d 4314 333c
00000150: 3762 a7bc 38c3 e8bc 25dd 69bd bfc5 64bd
00000160: 7698 363d d565 8a3d 5169 eabb e803 ba3d
00000170: d8a4 393d 52bd fdbc 3f04 863d 0528 a0bd
00000180: 2d26 aa3c c0c6 5cbd 4926 503d 2e15 7b3b
00000190: 0b9a d6bb cfcf cdbb f67a 42bd 9138 cfbc
000001a0: a4f5 3c3d 413c a6bc 9d23 96bc f506 683d
000001b0: a1e8 88bb 03f8 fc3c 44b4 753d ae06 51bd
000001c0: be3b 6fbc 600a 93bd 21aa 623d de43 7a3d
000001d0: 7300 6cbd b431 973d f983 00bd 78d0 8d3c
000001e0: 9743 d739 6e2b a63b fc5e 3e3d 1700 913c
000001f0: 9e53 60bd 45e6 8cbd 1712 a33d 0f6a e23c
00000200: 9dd5 6a3c 93b4 5eba 4ac1 d5bc 1c32 cbbd
00000210: 3df7 b23d 74e3 6abd f16f 283b 1a25 65bd
00000220: e6af cd3d 0872 31bd 06d3 7c3c e5f2 e6bb
00000230: 0337 4e3d 713c b03d ada8 933c 9958 acbc
00000240: 44f3 4d3d a6a7 273d 34d2 adbd 92e4 bb3c
00000250: 01b3 c43d 30fe a7bd 6448 62bd fd55 50bd
00000260: 5135 2d3d a9f0 a0bd cf33 ad3c bca0 7fbd
00000270: 995c 3a3d 8334 1cbd f892 553d f0a1 edbc
00000280: 0ed1 16bd 9735 e33c b9b5 7ebc fb2a 8fbd
00000290: 3c44 9dbd c29b 6dbd f03d 3ebd 5fa5 9d3d
000002a0: da98 2a3d 429b 0dbd 8a60 07bd 45fe d43d
000002b0: d86a b0bd 90ad 9c3d d9a6 b33b c306 b6bd
000002c0: da14 323d 44b8 933d df12 373d 0e53 58bd
000002d0: ae18 31bd 8571 ed3a f091 83bd 0eb0 a23c
000002e0: 0ad4 76bd 5e8b d23c 7075 ed3b b19e 313d
000002f0: d54e b9bd 3987 69bd 70dc 253d fabb 56bd
00000300: 54bc 273d 4bb0 bbbd 080e 94bb 9907 0c3c
00000310: 57b4 e23d 45ec 513d 44a9 ec3c b7e5 d6bb
00000320: 1dbf 273d fef0 873d fe73 8dbd 909a c8bd
00000330: dea2 dcbb 9e25 aebd 024c 1abc 498b a03c
00000340: 3846 563d db5a 933d bb0e 9dbd dbbd ba3d
00000350: 85e3 55bd 3f36 dabd 824d 95bb eed1 133d
00000360: 7375 b8bc e8c1 32bc 63cc 28bc aad3 71bc
00000370: 21df 59bd 35c3 fd3c 9085 ea3c 476f 9fbb
00000380: 9a6f c03c 496b 7c3d 6351 c2bc 0d75 3ebc
00000390: 277d a83d 0eed 6bbc bb86 3d3d edb1 c03d
000003a0: d4d5 d5bd 4e4b 1dbd c9af 81bd f084 c73c
000003b0: 5c0c 993d c392 633d d5c9 65bd 6134 153d
000003c0: 9565 963d 8b5a 4abd 32cf 1a3d 6039 afbb
000003d0: 61b3 2a3c cf0d c1bc 5160 403d 8131 8f3d
000003e0: 9ff8 b23c 4a7f d53c 8159 c3bd 90e0 adbd
000003f0: d844 21bd 585d 46bd 793f e8bc f95c a03d

a2c_network.actor_mlp.4.bias f4 [64]
0.045985177 -0.050776437 -0.042101443 -0.029870301 0.019866036 -0.04597497 -0.026805697 -0.00046238504
-0.013065813 -0.048799887 -0.059351783 0.041378293 -0.013610934 -0.059644856 -0.050747298 0.03693154
-0.050258562 0.041934364 0.0285493 -0.0131406 0.03219472 -0.020548822 -0.0037206 -0.05591801
0.027694225 -0.043308884 -0.009859979 0.040433474 -0.04999854 -0.041407924 0.04153132 -0.028631842
0.029384773 -0.054571908 -0.03331808 -0.031207219 -0.054643385 -0.06415625 0.041399684 -0.05601889
0.04587876 -0.053134527 0.034227785 -0.0045865932 0.042970747 0.04142473 0.04556567 0.03575071
0.036228146 -0.049843658 0.04298767 -0.043388437 -0.059514727 0.02885164 0.0032220944 0.033958476
0.025488228 0.031260587 -0.04508772 0.025072364 -0.05133081 -0.01977221 -0.05932788 -0.04321812
00000000: f45a 3c3d f4fa 4fbd 9072 2cbd 90b2 f4bc
00000010: 19be a23c 4050 3cbd 9f97 dbbc 456c f2b9
00000020: fe11 56bc 64e2 47bd db1a 73bd 497c 293d
00000030: 6500 5fbc 2a4e 74bd 66dc 4fbd 8745 173d
00000040: ecdb 4dbd 5ec3 2b3d 39e0 e93c ac4b 57bc
00000050: 9cde 033d 0156 a8bc 4fd5 73bb 490a 65bd
00000060: 00df e23c a864 31bd c08b 21bc 929d 253d
00000070: 45cb 4cbd 5b9b 29bd bf1c 2a3d 538d eabc
00000080: 56b8 f03c cb86 5fbd 8a78 08bd 48a6 ffbc
00000090: bed1 5fbd 5a64 83bd b792 293d 1074 65bd
000000a0: 5eeb 3b3d 97a3 59bd 6f32 0c3d 224b 96bb
000000b0: 1802 303d faac 293d 11a3 3a3d 566f 123d
000000c0: f763 143d dd28 4cbd d713 303d 13b8 31bd
000000d0: b7c5 73bd 465a ec3c c629 533b 0b18 0b3d
000000e0: b0cc d03c 1a0b 003d e7ad 38bd 8f64 cd3c
000000f0: 4140 52bd 54f9 a1bc cb01 73bd 7c05 31bd

a2c_network.value.weight f4 [1, 64]
-0.060300317 0.07349436 0.093037955 0.01648682 -0.007100849 0.08550117 0.018126775 0.0034878466
-0.0033971025 0.09989664 0.10151062 -0.05840392 -0.0023260275 0.13314754 0.079034425 -0.059514362
0.1114268 -0.10635861 -0.049898736 0.0040560476 -0.040034965 0.022201046 0.010436943 0.13398771
-0.030953253 0.0896343 -0.002518965 -0.10692633 0.09146934 0.104476966 -0.117343105 0.025799459
-0.021391038 0.09288472 0.052076712 0.027653506 0.12485444 0.13599743 -0.07789872 0.11092843
-0.03274345 0.1344234 -0.085753 0.0033045558 -0.053608667 -0.1280476 -0.1245406 -0.08319673
-0.031851426 0.080002226 -0.12115502 0.08260518 0.09515307 -0.032190636 0.00043131234 -0.0416227
-0.031227015 -0.05364267 0.088278025 -0.039369397 0.100232564 0.004837758 0.12537524 0.01796064
00000000: 77fd 76bd 3684 963d af8a be3d 5e0f 873c
00000010: 3dae e8bb 3d1b af3d 9a7e 943c 5b94 643b
00000020: eca1 5ebb 9c96 cc3d cde4 cf3d f338 6fbd
00000030: 4470 18bb d457 083e cddc a13d 55c5 73bd
00000040: bc33 e43d 8bd2 d9bd 9e62 4cbd 98e8 843b
00000050: b4fb 23bd f8de b53c b6ff 2a3c 1334 093e
00000060: ad91 fdbc 3092 b73d 3815 25bb 31fc dabd
00000070: 4754 bb3d 05f8 d53d 9551 f0bd 6359 d33c
00000080: 423c afbc 583a be3d 644e 553d 9b89 e23c
00000090: afb3 ff3d e942 0b3e 5d89 9fbd 722e e33d
000000a0: ff1d 06bd 4aa6 093e 459f afbd 3f91 583b
000000b0: c394 5bbd e91e 03be 240f ffbd 0c63 aabd
000000c0: a476 02bd 35d8 a33d 2020 f8bd e82c a93d
000000d0: 9ddf c23d 54da 03bd c321 e239 907c 2abd
000000e0: cccf ffbc 6bb8 5bbd 1ccb b43d ce41 21bd
000000f0: bb46 cd3d 0e86 9e3b 5e62 003e 3122 933c

a2c_network.mu.weight f4 [24, 64]
-0.068422824 -0.049297705 -0.055663332 -0.0788468 -0.0753318 0.086752206 -0.003892649 0.07814406
0.009501275 0.034226947 -0.14211488 0.023348445 0.027561031 -0.034535866 -0.07908358 0.028187254
-0.13928972 0.061917573 0.038584728 -0.11068884 0.08960467 -0.10726141 0.04979081 -0.119206615
-0.106803685 -0.0069349906 -0.02110664 0.12226146 -0.08830536 0.091028035 0.05298979 -0.016132694
0.030922638 -0.0008089026 0.049626283 -0.019266346 0.07739102 -0.13788791 -0.02873461 -0.07838899
-0.061293967 -0.1275763 -0.059411008 0.044136748 -0.006047032 -0.06952488 0.08529262 0.13094716
0.061851725 -0.10464676 0.14139156 -0.024101622 -0.04112551 0.019434994 0.10333077 -0.053296354
-0.0840751 0.06982915 -0.12853669 -0.03656833 -0.045953795 0.068719186 -0.073240936 -0.026905002
-0.12564093 0.0974625 -0.0772961 0.012909204 0.011803734 -0.004923831 0.038047906 0.02101148
-0.06336622 -0.07354859 0.14523879 -0.13040975 -0.033866998 0.093785584 0.0026400227 -0.030259468
0.04468457 -0.05131954 0.04068961 -0.031652622 0.019741515 -0.11275172 0.008002839 0.12421755
0.039356764 0.03127033 0.020185752 0.09084702 0.007877738 0.10349314 0.08187019 -0.010670925
0.058858816 0.06449403 -0.01434788 -0.08286445 0.0117381485 0.13582495 0.045509983 0.13234639
-0.106357954 -0.087795496 -0.05940914 -0.109545246 0.07207353 -0.049661674 -0.091003224 -0.026099505
-0.042692747 0.027565666 0.048806522 -0.039170347 0.076372236 0.00295242 0.06694976 -0.010239847
0.046625998 -0.12172646 0.10306152 0.08207082 0.14233987 0.012403251 0.038402356 0.1330147
-0.097366214 -0.002265596 0.035882153 -0.059438415 0.08582642 0.08995343 0.08361962 0.06177349
0.03535745 0.038738057 0.08953289 0.011661466 0.0061610285 0.008612799 0.016617864 -0.10718009
0.07443024 0.10832226 0.025080757 0.016528623 -0.022854133 -0.094457634 -0.09777593 -0.08455556
-0.06029778 -0.10318992 0.03523378 0.12092396 -0.02669078 0.085663065 0.066149786 0.088438235
0.046793845 0.10167162 0.07717911 -0.0485833 0.03192415 0.082529664 -0.098159455 -0.06906201
0.072548926 -0.04628957 -0.06996065 -0.02714688 -0.0024375538 -0.055337444 -0.08862758 -0.09156594
-0.07059549 0.11355245 0.030496234 -0.07356347 0.12256313 0.07821136 -0.0037868456 0.0050568623
-0.071971856 -0.041346695 0.10011779 -0.06893546 0.011900611 0.069774546 -0.07990024 0.019876905
0.04630144 0.10990604 -0.08067874 -0.0627042 0.05423288 0.026804732 0.09855367 0.05094217
0.08773284 0.106467776 -0.046651173 0.079843245 0.04644612 -0.06633783 -0.0542741 0.04989651
0.05724103 0.044656698 -0.0720817 -0.09285234 0.052175067 -0.070309795 0.014293892 -0.0044236467
0.12525922 0.07901505 0.118059285 0.09412965 -0.10640367 0.08992256 0.114788316 0.055087164
-0.007127781 -0.08383101 -0.111356825 0.08854859 0.028008338 -0.11043625 0.08801634 0.097332455
0.032903146 0.062999725 -0.10039671 -0.06393915 -0.09799892 -0.1000537 0.015982883 -0.005629308
-0.030511167 -0.00025255702 0.06940855 0.08124463 -0.075018756 0.08126623 -0.05152883 0.072106384
-0.05274528 -0.07623751 0.006162663 -0.024866108 0.0004857386 -0.03330644 -0.039912015 -0.090952024
00000000: 4421 8cbd 64ec 49bd 3cff 63bd 6e7a a1bd
00000010: 8f47 9abd 24ab b13d d01b 7fbb fe09 a03d
00000020: 3cab 1b3c 8e31 0c3d 9086 11be 3d45 bf3c
00000030: acc7 e13c 7b75 0dbd 92f6 a1bd f5e8 e63c
00000040: f7a1 0ebe 489d 7d3d 050b 1e3d d5b0 e2bd
00000050: a782 b73d dfab dbbd 73f1 4b3d 9922 f4bd
00000060: e4bb dabd eb3e e3bb d5e7 acbc 3764 fa3d
00000070: 71d9 b4bd e86c ba3d d20b 593d b628 84bc
00000080: 7951 fd3c 890c 54ba ee44 4b3d 75d4 9dbc
00000090: 2f7f 9e3d 7d32 0dbe d864 ebbc 688a a0bd
000000a0: 620f 7bbd 5da3 02be f558 73bd bcc8 343d
000000b0: 2e26 c6bb 0f63 8ebd e6ad ae3d 0317 063e
000000c0: 3c58 7d3d 0a51 d6bd f3c8 103e c470 c5bc
000000d0: 3973 28bd 2336 9f3c 159f d33d 474d 5abd
000000e0: 912f acbd 9602 8f3d 1f9f 03be acc8 15bd
000000f0: 0c3a 3cbd a5bc 8c3d 58ff 95bd e167 dcbc
00000100: 04a8 00be 6b9a c73d 6b4d 9ebd 2081 533c
00000110: 7364 413c 1758 a1bb 1fd8 1b3d 4420 ac3c
00000120: 26c6 81bd a5a0 96bd 7ab9 143e 228a 05be
00000130: 1fb8 0abd a812 c03d 3b04 2d3b b4e2 f7bc
00000140: 2b07 373d 7034 52bd 26aa 263d 2ea6 01bd
00000150: f5b8 a13c 60ea e6bd 571e 033c c565 fe3d
00000160: 8f34 213d 5115 003d 975c a53c 010e ba3d
00000170: a111 013c 36f4 d33d 8fab a73d 1ad5 2ebc
00000180: f115 713d 7215 843d 5f13 6bbc d6b4 a9bd
00000190: 5d51 403c b215 0b3e ad68 3a3d d085 073e
000001a0: 33d2 d9bd 20ce b3bd 0057 73bd 4259 e0bd
000001b0: 499b 933d 0a6a 4bbd e65f babd a1ce d5bc
000001c0: 97de 2ebd 64d1 e13c 59e9 473d 1671 20bd
000001d0: 0c69 9c3d 637d 413b f51c 893d 08c5 27bc
000001e0: e7fa 3e3d b94b f9bd eb11 d33d bf14 a83d
000001f0: 8bc1 113e 0137 4b3c ca4b 1d3d 0135 083e
00000200: f067 c7bd 657a 14bb 2af9 123d b275 73bd
00000210: c3c5 af3d 8139 b83d c340 ab3d 3306 7d3d
00000220: f9d2 103d ccab 1e3d 055d b73d bc0f 3f3c
00000230: 74e2 c93b b31c 0d3c 3022 883c 3c81 dbbd
00000240: e26e 983d 10d8 dd3d 2976 cd3c 0967 873c
00000250: 9738 bbbc 0173 c1bd bf3e c8bd 772b adbd
00000260: cefa 76bd 3d55 d3bd 4c51 103d fba6 f73d
00000270: 9fa6 dabc 1e70 af3d 8a79 873d 1b1f b53d
00000280: e7aa 3f3d 3639 d03d 1510 9e3d 48ff 46bd
00000290: e6c2 023d 5005 a93d d307 c9bd 6270 8dbd
000002a0: 8894 943d 229a 3dbd 8747 8fbd 2263 debc
000002b0: 5ebf 1fbb 84a9 62bd 6082 b5bd ec86 bbbd
000002c0: 5e94 90bd 308e e83d 3dd3 f93c 72a8 96bd
000002d0: 6102 fb3d 472d a03d ba2c 78bb 09b4 a53b
000002e0: fb65 93bd 275b 29bd 8e0a cd3d 092e 8dbd
000002f0: c8fa 423c f5e5 8e3d bda2 a3bd e4d4 a23c
00000300: 94a6 3d3d 6b16 e13d e53a a5bd 0f6b 80bd
00000310: 4c23 5e3d 9995 db3c 82d6 c93d bda8 503d
00000320: 46ad b33d c70b da3d 4d15 3fbd db84 a33d
00000330: 493e 3e3d 21dc 87bd 854e 5ebd 4860 4c3d
00000340: 9275 6a3d f1e9 363d 929f 93bd 5e29 bebd
00000350: 86b5 553d 95fe 8fbd ee30 6a3c 3df4 90bb
00000360: f443 003e a4d2 a13d 11c9 f13d 0cc7 c03d
00000370: 2bea d9bd 5229 b83d 2316 eb3d 14a3 613d
00000380: 2990 e9bb 98af abbd 0c0f e4bd f758 b53d
00000390: be71 e53c 672c e2bd e941 b43d 3d56 c73d
000003a0: 73c5 063d 0006 813d ca9c cdbd 87f2 82bd
000003b0: a8b3 c8bd f4e8 ccbd 89ee 823c 0f76 b8bb
000003c0: 8ef2 f9bc a169 84b9 1226 8e3d 9663 a63d
000003d0: 6fa3 99bd e96e a63d e50f 53bd 83ac 933d
000003e0: 6f0b 58bd 6922 9cbd 2af0 c93b 02b4 cbbc
000003f0: bbaa fe39 556c 08bd c87a 23bd 0e45 babd

a2c_network.mu.bias f4 [24]
0.039033443 -0.04694128 -0.009479475 0.01732678 0.050378457 0.01181845 0.039806508 -0.02097713
-0.02373962 0.005998471 -0.029478911 0.0015828379 -0.0021605517 -0.026451455 0.003040602 -0.00034328733
-0.006222939 -0.03316341 0.0038108747 0.0038117103 0.022695784 -0.004982769 -0.012406628 0.014819784
00000000: 88e1 1f3d 8045 40bd cd4f 1bbc e4f0 8d3c
00000010: a459 4e3d 2ca2 413c 260c 233d 3bd8 abbc
00000020: 9779 c2bc d28e c43b c27d f1bc 3a77 cf3a
00000030: 0b98 0dbb b9b0 d8bc d644 473b 3ffb b3b9
00000040: cce9 cbbb 5bd6 07bd debf 793b e3cd 793b
00000050: 82ec b93c 7f46 a3bb 2b45 4bbc aece 723c

exp_avg f4 [24]
-0.008962157 0.01523137 0.0040527373 0.016269198 -0.016221752 -0.00017077201 0.009670627 -0.005779881
-0.018505841 0.018230882 -0.0133817075 0.0036707155 -0.002729393 0.005187145 -0.022526572 0.0029200965
9.5701136e-05 -0.0050250674 0.0057319426 0.014453867 0.0030700408 0.0088132955 0.02932685 -0.0030410583
00000000: 03d6 12bc ff8c 793c d3cc 843b fb46 853c
00000010: 7be3 84bc 4311 33b9 8d71 1e3c 2865 bdbb
00000020: 9099 97bc ee58 953c f33e 5bbc 6390 703b
00000030: 9edf 32bb edf8 a93b a589 b8bc 175f 3f3b
00000040: 28b3 c838 52a9 a4bb 05d3 bb3b eacf 6c3c
00000050: bd32 493b a465 103c dd3e f03c 7e4c 47bb

exp_avg_sq f4 [24]
0.0006314884 0.00072908687 0.00062865723 0.00066447863 0.0006275024 0.000637408 0.00065976975 0.00075011665
0.0006499395 0.000606519 0.0005788994 0.0007091179 0.0009097468 0.00055004295 0.0006397246 0.00058531435
0.0006321125 0.0008781523 0.0005893152 0.00066708017 0.00068745 0.00079158455 0.00072160404 0.00061014935
00000000: 788a 253a 3120 3f3a 79cc 243a 6830 2e3a
00000010: f97e 243a ba17 273a 66f4 2c3a 7aa3 443a
00000020: b460 2a3a cdfe 1e3a 48c1 173a 19e4 393a
00000030: 137c 6e3a c230 103a 31b3 273a c86f 193a
00000040: 5ab4 253a ce33 663a 467c 1a3a fede 2e3a
00000050: fd35 343a 5782 4f3a 072a 3d3a 6ef2 1f3a

exp_avg f4 [256, 39]
0.0 -1.2406172e-05 -1.1804864e-05 -6.1645233e-06 -5.1355437e-06 -1.4468767e-05 -6.1645233e-06 -0.0019530314
-0.0016391987 -6.1645233e-06 0.0016411559 0.0016551936 0.0 -1.0206619e-05 0.0 0.0
0.0 0.0 0.0 0.0 3.6103287e-05 -4.938758e-06 -1.5760877e-05 0.0
0.0 0.0 0.0 0.0 0.0 0.0 0.0 0.0
0.0 0.0 0.0 0.0 0.0 0.0 -1.6652159e-06 0.0
-1.2385889e-06 -1.178255e-06 -6.151353e-07 -5.127036e-07 -1.4446031e-06 -6.151353e-07 -0.00019488113 -0.00016358872
-6.151353e-07 0.00016378389 0.00016518404 0.0 -1.0185694e-06 0.0 0.0 0.0
0.0 0.0 0.0 3.6042472e-06 -4.9304373e-07 -1.5741138e-06 0.0 0.0
0.0 0.0 0.0 0.0 0.0 0.0 0.0 0.0
0.0 0.0 0.0 0.0 0.0 -1.6615827e-07 0.0 7.0690157e-06
6.7258457e-06 3.5120781e-06 2.9261907e-06 8.244283e-06 3.5120781e-06 0.0011126682 0.0009339082 3.5120781e-06
-0.00093502254 -0.0009430189 0.0 5.815087e-06 0.0 0.0 0.0 0.0
0.0 0.0 -2.057111e-05 2.8140314e-06 8.980528e-06 0.0 0.0 0.0
0.0 0.0 0.0 0.0 0.0 0.0 0.0 0.0
0.0 0.0 0.0 0.0 9.4870194e-07 0.0 -1.2086794e-06 -1.150241e-06
-6.007185e-07 -5.003432e-07 -1.4095949e-06 -6.007185e-07 -0.00019032409 -0.00015972981 -6.007185e-07 0.00015992054
0.00016128898 0.0 -9.945687e-07 0.0 0.0 0.0 0.0 0.0
0.0 3.5174673e-06 -4.8117306e-07 -1.5353389e-06 0.0 0.0 0.0 0.0
0.0 0.0 0.0 0.0 0.0 0.0 0.0 0.0
0.0 0.0 0.0 -1.6227521e-07 0.0 8.774184e-07 8.3488067e-07 4.3594585e-07
3.6320458e-07 1.0232591e-06 4.3594585e-07 0.00013812933 0.00011593177 4.3594585e-07 -0.000116070136 -0.00011706311
0.0 7.217914e-07 0.0 0.0 0.0 0.0 0.0 0.0
-2.5533172e-06 3.4928175e-07 1.1142419e-06 0.0 0.0 0.0 0.0 0.0
0.0 0.0 0.0 0.0 0.0 0.0 0.0 0.0
0.0 0.0 1.1776219e-07 0.0 1.0055751e-06 9.565089e-07 4.9942855e-07 4.1622783e-07
1.1727194e-06 4.9942855e-07 0.0001582061 0.00013280341 4.9942855e-07 -0.00013296178 -0.00013409846 0.0
8.269803e-07 0.0 0.0 0.0 0.0 0.0 0.0 -2.9260116e-06
4.002646e-07 1.2771194e-06 0.0 0.0 0.0 0.0 0.0 0.0
0.0 0.0 0.0 0.0 0.0 0.0 0.0 0.0
0.0 1.3490367e-07 0.0 -1.6552957e-06 -1.575131e-06 -8.225798e-07 -6.852129e-07 -1.9305198e-06
-8.225798e-07 -0.00026060137 -0.00021872192 -8.225798e-07 0.00021898301 0.00022085637 0.0 -1.3619352e-06
0.0 0.0 0.0 0.0 0.0 0.0 4.8171682e-06 -6.589655e-07
00000000: 0000 0000 1a24 50b7 810d 46b7 dad8 ceb6
00000010: fc51 acb6 e2be 72b7 dad8 ceb6 dcfc ffba
00000020: 62da d6ba dad8 ceb6 0e1c d73a 15f3 d83a
00000030: 0000 0000 183d 2bb7 0000 0000 0000 0000
00000040: 0000 0000 0000 0000 0000 0000 0000 0000
00000050: 9c6d 1738 9cb7 a5b6 3a36 84b7 0000 0000
00000060: 0000 0000 0000 0000 0000 0000 0000 0000
00000070: 0000 0000 0000 0000 0000 0000 0000 0000
00000080: 0000 0000 0000 0000 0000 0000 0000 0000
00000090: 0000 0000 0000 0000 6280 dfb5 0000 0000
000000a0: 973d a6b5 8924 9eb5 c71f 25b5 b9a0 09b5
000000b0: 2fe4 c1b5 c71f 25b5 0159 4cb9 0389 2bb9
000000c0: c71f 25b5 67bd 2b39 4135 2d39 0000 0000
000000d0: c7b5 88b5 0000 0000 0000 0000 0000 0000
000000e0: 0000 0000 0000 0000 0000 0000 7fe0 7136
000000f0: b559 04b5 2346 d3b5 0000 0000 0000 0000
00000100: 0000 0000 0000 0000 0000 0000 0000 0000
00000110: 0000 0000 0000 0000 0000 0000 0000 0000
00000120: 0000 0000 0000 0000 0000 0000 0000 0000
00000130: 0000 0000 3d69 32b4 0000 0000 6232 ed36
00000140: 93ae e136 0bb1 6b36 935f 4436 ed50 0a37
00000150: 0bb1 6b36 f3d6 913a 85d1 743a 0bb1 6b36
00000160: 4d1c 75ba ed34 77ba 0000 0000 381f c336
00000170: 0000 0000 0000 0000 0000 0000 0000 0000
00000180: 0000 0000 0000 0000 1f90 acb7 b1d8 3c36
00000190: 13ab 1637 0000 0000 0000 0000 0000 0000
000001a0: 0000 0000 0000 0000 0000 0000 0000 0000
000001b0: 0000 0000 0000 0000 0000 0000 0000 0000
000001c0: 0000 0000 0000 0000 0000 0000 0000 0000
000001d0: 4daa 7e35 0000 0000 e839 a2b5 fb61 9ab5
000001e0: 1041 21b5 534f 06b5 5031 bdb5 1041 21b5
000001f0: bc91 47b9 257d 27b9 1041 21b5 58b0 2739
00000200: ae1f 2939 0000 0000 1f7d 85b5 0000 0000
00000210: 0000 0000 0000 0000 0000 0000 0000 0000
00000220: 0000 0000 a10d 6c36 f629 01b5 d811 ceb5
00000230: 0000 0000 0000 0000 0000 0000 0000 0000
00000240: 0000 0000 0000 0000 0000 0000 0000 0000
00000250: 0000 0000 0000 0000 0000 0000 0000 0000
00000260: 0000 0000 0000 0000 0000 0000 df3d 2eb4
00000270: 0000 0000 bc87 6b35 901c 6035 f10b ea34
00000280: 75fe c234 ea56 8935 f10b ea34 cfd6 1039
00000290: 6520 f338 f10b ea34 ae6a f3b8 c77f f5b8
000002a0: 0000 0000 21c1 4135 0000 0000 0000 0000
000002b0: 0000 0000 0000 0000 0000 0000 0000 0000
000002c0: a859 2bb6 eb84 bb34 0f8d 9535 0000 0000
000002d0: 0000 0000 0000 0000 0000 0000 0000 0000
000002e0: 0000 0000 0000 0000 0000 0000 0000 0000
000002f0: 0000 0000 0000 0000 0000 0000 0000 0000
00000300: 0000 0000 0000 0000 73e4 fc33 0000 0000
00000310: 4cf7 8635 6561 8035 7810 0635 eb75 df34
00000320: 5566 9d35 7810 0635 20e4 2539 2541 0b39
00000330: 7810 0635 a86b 0bb9 c89c 0cb9 0000 0000
00000340: a7fd 5d35 0000 0000 0000 0000 0000 0000
00000350: 0000 0000 0000 0000 0000 0000 7f5c 44b6
00000360: f3e3 d634 7d69 ab35 0000 0000 0000 0000
00000370: 0000 0000 0000 0000 0000 0000 0000 0000
00000380: 0000 0000 0000 0000 0000 0000 0000 0000
00000390: 0000 0000 0000 0000 0000 0000 0000 0000
000003a0: 0000 0000 0ada 1034 0000 0000 872b deb5
000003b0: 1769 d3b5 41cf 5cb5 79ef 37b5 148e 01b6
000003c0: 41cf 5cb5 53a1 88b9 b858 65b9 41cf 5cb5
000003d0: ce9e 6539 ae95 6739 0000 0000 bdcb b6b5
000003e0: 0000 0000 0000 0000 0000 0000 0000 0000
000003f0: 0000 0000 0000 0000 29a3 a136 c4e3 30b5
