runs/lift_30-15-28-00/nn/lift.pth (torch, 651493 bytes, 36 tensors)

value_mean_std.running_mean f8 [1]
000000 29 00 da 41 c3 82 8c c0
       -912.3453404456424

value_mean_std.running_var f8 [1]
000000 3f ac f1 76 2c 1c 39 41
       1645612.4646251348

value_mean_std.count f8 []
000000 00 00 00 00 20 00 ee 40
       61441.0

running_mean_std.running_mean f8 [39]
000000 00 00 00 00 00 00 00 00 e7 05 3a cd cc ff f7 3f
       0.0 1.4999511734644047
000010 18 cb cc 00 a0 cc f4 3f 39 5d 4d bc bb ff df 3f
       1.2999572783707602 0.49998372448813516
000020 ca 1a 72 83 62 99 d9 3f 12 95 1d 22 02 33 07 40
       0.3999868663453695 2.8999064126279643
000030 39 5d 4d bc bb ff df 3f 60 8c 72 ba bd 9f 00 40
       0.49998372448813516 2.077998596783388
000040 c0 b9 6e c4 33 b2 02 40 39 5d 4d bc bb ff df 3f
       2.337012800816609 0.49998372448813516
000050 af ca 5b 99 ca ff d8 3f e1 a5 ae ba ca ff d8 3f
       0.3906122682230188 0.390612299258093
000060 00 00 00 00 00 00 00 00 39 5d 4d bc bb ff ef 3f
       0.0 0.9999674489762703
000070 00 00 00 00 00 00 00 00 00 00 00 00 00 00 00 00
       0.0 0.0
000080 00 00 00 00 00 00 00 00 00 00 00 00 00 00 00 00
       0.0 0.0
000090 00 00 00 00 00 00 00 00 00 00 00 00 00 00 00 00
       0.0 0.0
0000a0 e1 e1 1a 66 e3 2c 85 bf bd f8 11 94 97 82 56 3f
       -0.010339523843286126 0.0013739090211682258
0000b0 d3 e3 36 45 8e 9e 23 40 00 00 00 00 00 00 00 00
       9.809679186773712 0.0
0000c0 00 00 00 00 00 00 00 00 00 00 00 00 00 00 00 00
       0.0 0.0
0000d0 00 00 00 00 00 00 00 00 00 00 00 00 00 00 00 00
       0.0 0.0
0000e0 00 00 00 00 00 00 00 00 00 00 00 00 00 00 00 00
       0.0 0.0
0000f0 00 00 00 00 00 00 00 00 00 00 00 00 00 00 00 00
       0.0 0.0
000100 00 00 00 00 00 00 00 00 00 00 00 00 00 00 00 00
       0.0 0.0
000110 00 00 00 00 00 00 00 00 00 00 00 00 00 00 00 00
       0.0 0.0
000120 00 00 00 00 00 00 00 00 00 00 00 00 00 00 00 00
       0.0 0.0
000130 39 5d 4d bc bb ff bf 3f
       0.12499593112203379

running_mean_std.running_var f8 [39]
000000 4e cb b1 a8 ec 10 01 3f 1b 1c 0d 9d 57 bb 1b 3f
       3.2551023729696275e-05 0.00010578844309093486
000010 5d 11 a8 b6 14 f4 16 3f 6e d7 d9 b8 1e 55 05 3f
       8.756042885955024e-05 4.068851476983394e-05
000020 79 65 c6 e0 ed cb 03 3f 06 43 40 ea cc 12 34 3f
       3.775901504638862e-05 0.00030629637535732645
000030 6e d7 d9 b8 1e 55 05 3f ba d1 c3 6c 8e 79 f8 3f
       4.068851476983394e-05 1.529676842558827
000040 ce c2 1e a2 2d 8d f2 3f 6e d7 d9 b8 1e 55 05 3f
       1.1594673474138975 4.068851476983394e-05
000050 7a 6c b2 c1 22 b1 d9 3f 70 4d 84 5f a4 39 d9 3f
       0.4014365092822981 0.3941431935101809
000060 4e cb b1 a8 ec 10 01 3f dd fd a8 74 da 10 11 3f
       3.2551023729696275e-05 6.510098789024679e-05
000070 4e cb b1 a8 ec 10 01 3f 4e cb b1 a8 ec 10 01 3f
       3.2551023729696275e-05 3.2551023729696275e-05
000080 4e cb b1 a8 ec 10 01 3f 4e cb b1 a8 ec 10 01 3f
       3.2551023729696275e-05 3.2551023729696275e-05
000090 4e cb b1 a8 ec 10 01 3f 4e cb b1 a8 ec 10 01 3f
       3.2551023729696275e-05 3.2551023729696275e-05
0000a0 be fc e2 25 34 a3 e7 3f e5 0e 9f fb a7 4e e6 3f
       0.7386723270391469 0.697101584861653
0000b0 8e f0 be 71 8d ed 69 3f 4e cb b1 a8 ec 10 01 3f
       0.0031650316795702243 3.2551023729696275e-05
0000c0 4e cb b1 a8 ec 10 01 3f 4e cb b1 a8 ec 10 01 3f
       3.2551023729696275e-05 3.2551023729696275e-05
0000d0 4e cb b1 a8 ec 10 01 3f 4e cb b1 a8 ec 10 01 3f
       3.2551023729696275e-05 3.2551023729696275e-05
0000e0 4e cb b1 a8 ec 10 01 3f 4e cb b1 a8 ec 10 01 3f
       3.2551023729696275e-05 3.2551023729696275e-05
0000f0 4e cb b1 a8 ec 10 01 3f 4e cb b1 a8 ec 10 01 3f
       3.2551023729696275e-05 3.2551023729696275e-05
000100 4e cb b1 a8 ec 10 01 3f 4e cb b1 a8 ec 10 01 3f
       3.2551023729696275e-05 3.2551023729696275e-05
000110 4e cb b1 a8 ec 10 01 3f 4e cb b1 a8 ec 10 01 3f
       3.2551023729696275e-05 3.2551023729696275e-05
000120 4e cb b1 a8 ec 10 01 3f 4e cb b1 a8 ec 10 01 3f
       3.2551023729696275e-05 3.2551023729696275e-05
000130 1c 4c b4 c9 2f 55 01 3f
       3.305961691970496e-05

running_mean_std.count f8 []
000000 00 00 00 00 40 00 de 40
       30721.0

a2c_network.sigma f4 [24]
000000 56 7c 6c bc 70 c5 14 3c 92 62 09 3d e2 d2 17 3d
       -0.014433941 0.009080276 0.03354127 0.037066348
000010 bd cd 6e bb d9 f1 0d bc 37 7d 05 ba c1 2d ac 3c
       -0.0036438548 -0.008663618 -0.0005092206 0.02101791
000020 35 d4 c7 3c fc a4 53 3c f7 99 f3 3d 9f ca 55 3d
       0.02439318 0.012917753 0.11894601 0.052195188
000030 9e 25 50 3d 13 93 aa bc 25 32 bb 3b 36 0c e7 3c
       0.050817125 -0.020822084 0.005712765 0.028204065
000040 f0 ea ca bd 69 c2 e3 bc c8 f5 d7 3b 1e 5a 39 3d
       -0.09908092 -0.027802663 0.0065905787 0.045251958
000050 44 33 7f 3b c9 7f 45 3d 70 b3 a9 3c 9e b0 1f bd
       0.0038940469 0.04821757 0.020715445 -0.038986795

a2c_network.actor_mlp.0.weight f4 [256, 39]
000000 38 d9 4e bd 63 7a 82 3d c3 36 ba bc 1f 5c b4 3d
       -0.050500125 0.06371 -0.02273119 0.08806633
000010 e8 90 27 3e e8 f5 e7 3d 89 0c 4a bd 79 5e c6 3d
       0.16363871 0.113262 -0.04932836 0.09685988
000020 f1 75 1f 3d 2a e2 d0 3d db 4c cb bd ab 7d 20 be
       0.038930837 0.10199387 -0.099267684 -0.15672939
000030 75 68 7d bd 50 2c d1 bd 76 8b 06 3e 58 ea 3c 3d
       -0.061867196 -0.1021353 0.13139138 0.046121925
000040 94 d6 87 3d 51 6e 4f 3d 5c 8e 36 bb 43 53 00 3e
       0.066327244 0.050642315 -0.002785585 0.12531762
000050 7c 68 f5 bd 7e 54 57 3c 58 66 b5 bd 50 3e 4a 3d
       -0.119828194 0.013142703 -0.08857411 0.049375832
000060 09 e0 61 bd 4b f9 48 3d e5 a5 08 bd 14 ff 07 3e
       -0.055145297 0.04906587 -0.033361334 0.13280898
000070 43 5f c2 bd 8f 95 c3 bd 95 98 c3 bd 94 7b 13 3e
       -0.09490826 -0.095500104 -0.09550587 0.1440261
000080 0a 93 5a 3d 0b c8 1d 3e 51 52 07 be 9f a3 22 be
       0.053362884 0.15408342 -0.13214995 -0.15882729
000090 ff 48 00 be 72 9a dc bd d8 27 af 3d 46 db 6a 3d
       -0.12527846 -0.107716456 0.085525215 0.05733802
0000a0 c5 b6 de 3d 7e 23 db bd b3 8f 08 be 0d e0 78 3d
       0.10874704 -0.10700129 -0.13336067 0.060760546
0000b0 68 68 b6 bd ce 79 95 3d f1 db 3f bd 2d 4e 9b 3d
       -0.08906633 0.07298623 -0.04684061 0.0758327
0000c0 3d 2e 18 be ae af a5 bd b2 0c 3d 3d b5 a8 0a 3d
       -0.14861389 -0.08090149 0.046154685 0.033852298
0000d0 fd 4d 85 bd fa 79 c3 3d 34 f0 de 3d ac d0 ed bd
       -0.06509016 0.095447496 0.10885659 -0.116120666
0000e0 fa 13 af bd 68 24 16 3e 1f 51 5d bd 69 47 5c bd
       -0.08548732 0.14662325 -0.05403244 -0.05377904
0000f0 76 ee 20 be 7b c3 ed bd ab d7 23 3d 08 25 ad bc
       -0.15715966 -0.116095506 0.0400006 -0.021135822
000100 80 0c ee bd 83 28 76 3b ec 02 e0 bd d6 1c 0b be
       -0.11623478 0.0037560768 -0.10938057 -0.13585219
000110 ed 95 b4 bd 75 82 0f be 3d d0 d0 bd 37 e8 23 3e
       -0.088176586 -0.14014609 -0.10195968 0.16006552
000120 ae c2 f7 3c 07 1e 4a 3d f2 ee 18 be 4e 62 d7 bd
       0.030244198 0.049345043 -0.149349 -0.10516797
000130 ab 50 5a bd eb ce 66 3a 22 48 10 be ab 1a b4 bd
       -0.053299587 0.0008804637 -0.14090016 -0.08794149
000140 7d 24 eb bd 5b ab 97 bc 25 d9 a0 bd 92 22 f6 bc
       -0.11481569 -0.018514326 -0.07853917 -0.030045781
000150 4d 86 02 be 20 96 de bd 4c d5 e6 bd 76 14 97 bd
       -0.12746544 -0.10868478 -0.11271152 -0.073769495
000160 39 5a fc bd a0 76 fc 3d 68 2b 02 bd 07 57 f3 3d
       -0.12321896 0.123273134 -0.031779677 0.118818335
000170 ab 5c 4c 3d b0 d9 0a be 9d f2 e2 3d 9d 76 34 bd
       0.049893063 -0.13559604 0.11081431 -0.04405843
000180 f3 6a 7b bd 90 1b 08 be 18 79 19 be 2b 07 1b 3d
       -0.06138129 -0.13291764 -0.149876 0.037848633
000190 b3 f0 5c bd e5 59 7f 3d b0 90 06 be 5a 79 f3 3d
       -0.053940486 0.06234159 -0.13141131 0.1188838
0001a0 35 ba f0 bd f7 81 e2 bc 96 fe 08 3d 06 4d a9 3d
       -0.11754266 -0.027649863 0.033445917 0.08266644
0001b0 2b 60 04 3e 00 5f 15 3e 34 04 02 be 94 10 25 3d
       0.1292731 0.14587021 -0.12696916 0.040299013
0001c0 7a 0e 8d bd 03 c0 8f bc 30 76 f5 bd c7 5a 15 3e
       -0.06887527 -0.017547613 -0.11985433 0.1458541
0001d0 56 c2 0b be ed 44 af 3d 56 3d ab 3d 31 8e a2 3d
       -0.13648352 0.085580684 0.08361308 0.07937277
0001e0 6d 75 73 bd 51 d4 30 3e f3 31 80 3d 01 84 43 3d
       -0.059438158 0.17268492 0.06259527 0.04773331
0001f0 bc 87 00 be 4a 8c ad 3d 1e f1 4b 3b 96 36 9c bd
       -0.12551779 0.08474024 0.003111906 -0.07627599
000200 e3 28 07 3e 8f 3a 12 3d 93 3d 7b bd 04 fc a5 bd
       0.13199191 0.035700377 -0.06133802 -0.08104709
000210 fa 93 fa bb 41 1c b7 3d cc 99 27 bd a0 1d bb bd
       -0.0076470347 0.08940936 -0.040918157 -0.0913651
000220 65 9a 60 bd 2b 15 fa bd 77 0a 6d 3d d9 15 1b 3e
       -0.054834742 -0.12211069 0.05787131 0.15145053
000230 7f 5e 1a be 68 54 18 3d 91 69 a9 3d c5 dc ed 3c
       -0.1507511 0.03718987 0.08272088 0.029035935
000240 a7 93 69 bd bf 2a ab 3d 8c 56 ac 3d d3 40 75 3d
       -0.057025578 0.083577625 0.08414945 0.059876274
000250 8b 81 e6 bc dd ad 2d bd 97 55 8c 3c c1 ba e7 bc
       -0.028137943 -0.042402137 0.017130656 -0.028287293
000260 53 74 43 bd 81 9f d1 3d b3 ea 0c 3e 34 9c 37 3c
       -0.047718357 0.10235501 0.13761406 0.011206675
000270 bf d9 12 bd 31 f4 f7 bc 22 b0 2c bd 5e 70 d0 3b
       -0.03585219 -0.030267807 -0.04216016 0.0063610515
000280 9b 94 50 3c b2 78 36 be 33 d6 ba bd 5d 5b e1 3d
       0.012730743 -0.17819479 -0.091228865 0.11003754
000290 80 ce 20 3d e1 3f 24 bd 1b 8e b3 bd f0 c9 a5 bd
       0.039259434 -0.040099982 -0.08767339 -0.08095157
0002a0 47 e1 12 be 5b 47 ad bd bd 7e 5d 3d 6b 1a d1 3d
       -0.14343749 -0.084608756 0.054075945 0.10210117
0002b0 00 69 97 3d ff f0 10 be 58 36 c5 bd e4 04 cf bc
       0.07393074 -0.14154433 -0.09629506 -0.025270887
0002c0 f5 a3 1f 3e 44 d0 c7 3c 43 71 98 bd bf ac 87 3d
       0.15589888 0.024391301 -0.07443478 0.066247456
0002d0 80 d0 79 bd 3a 43 d4 bd 6b 5c ef 3d b3 1d 95 bd
       -0.060989857 -0.10364385 0.11687549 -0.07281055
0002e0 ad 7b 03 bd 89 1e 23 be 75 7b db 3d e7 75 f8 3d
       -0.03210037 -0.15929617 0.10716907 0.12131863
0002f0 3b 09 6f 3d 72 aa e4 bd 6a d4 21 be 8a 2c 05 be
       0.058358412 -0.11165322 -0.15803686 -0.13005272
000300 f8 8b f4 3d 72 72 9d 3d cf 7f d2 3d 96 cc ab 3d
       0.119407594 0.07687844 0.10278284 0.08388631
000310 fa 99 cb 3c f5 46 8d bc 87 c7 0c be 81 8f 1c be
       0.024853695 -0.017245749 -0.13747989 -0.15289117
000320 64 69 29 be 46 2e 4c 3d 36 44 b7 bd 24 11 23 bd
       -0.1654411 0.049848817 -0.08948557 -0.03981127
000330 c3 e3 dc bd 61 3b 29 bd 24 2a ec bd 61 48 d6 bd
       -0.107856296 -0.041316394 -0.11531475 -0.10463024
000340 80 4e 19 3d 37 ed 42 bd fa 73 ca 3d e3 69 52 bd
       0.03742838 -0.047589507 0.09885402 -0.051370513
000350 5d 91 f0 bd 7f 72 e7 bc 21 f8 9e bd 5f 43 4e bd
       -0.11746476 -0.028252838 -0.077621706 -0.05035722
000360 3c cf 17 be 14 67 97 3d a5 50 e4 bd 66 d4 a4 3d
       -0.14825147 0.073927075 -0.11148194 0.08048324
000370 ab d0 94 3d f6 4a ea 3d 86 8c fb bd eb da eb 3d
       0.07266363 0.11440079 -0.12282662 0.11516365
000380 0b 09 9b bd f1 60 73 3d df fc 19 3e 57 00 b9 bc
       -0.07570084 0.059418622 0.15037869 -0.02258317
000390 f9 4f a2 ba 37 01 17 bd d7 e9 08 be 6a 61 9d 3d
       -0.0012383453 -0.036866393 -0.13370453 0.07684596
0003a0 f4 c6 22 be b1 6b ab 3d f1 5f f5 3d 27 78 2f 3e
       -0.15896207 0.0837015 0.1198119 0.17135678
0003b0 99 27 92 bc c5 a2 e4 bd 4b 14 65 3d 49 fa dd 3d
       -0.017841147 -0.11163858 0.055927556 0.10838754
0003c0 4f cb 0e be b2 8b c1 bc e6 67 a2 bd e0 1d c2 3b
       -0.13944744 -0.023626182 -0.07929973 0.0059239715
0003d0 a6 7b 9e bd 32 de 86 bd 6b 37 50 bd fa 69 07 be
       -0.07738428 -0.06585349 -0.0508341 -0.1322402
0003e0 25 8a 06 3e 52 76 09 3e ad c6 cd bc 16 63 95 bc
       0.13138635 0.13424042 -0.02511915 -0.018235724
0003f0 00 d7 85 bd 89 13 14 be 60 7d 29 be 05 dc 77 3d
       -0.065351486 -0.14460577 -0.16551733 0.06051256

a2c_network.actor_mlp.0.bias f4 [256]
000000 f7 a5 c8 3c 51 f5 fc bc 5d b7 c2 bc ad 5d 13 3d
       0.0244932 -0.030878695 -0.023769075 0.035978008
000010 6f af 3f bd 9a cc 90 bc dc dd d2 3c 63 f5 13 3d
       -0.046798166 -0.017675687 0.025740556 0.03612269
000020 ea 32 5e bd 14 09 ab 3c dc c9 57 bc 6c 44 24 bc
       -0.054247774 0.020878352 -0.013170686 -0.010026079
000030 93 f4 8d 3a b4 ea dd 3c 36 8d cc bc 65 45 f6 bc
       0.0010830335 0.027089454 -0.024969678 -0.030062387
000040 83 6a b3 3c 18 05 38 3c 97 e2 b6 3c 5b 42 bd bc
       0.021901375 0.011231683 0.022324843 -0.02310293
000050 69 da de 3b 0d 12 49 bc db 36 1a bb a9 1e dd bc
       0.006800939 -0.01227237 -0.0023531232 -0.026992159
000060 a8 88 37 3c ea 0c 63 3b 15 1f ea 3c f6 56 1f 3b
       0.011202015 0.0034645149 0.028579274 0.0024313307
000070 b1 87 28 3d f7 d5 0c 3b 8e e3 9b 3c 8a 92 9b b9
       0.04114503 0.0021489838 0.019029405 -0.00029673084
000080 4a d4 d9 3c 4c c2 f6 3c 68 49 e9 3c 8a 75 13 bd
       0.026590485 0.030121945 0.028477386 -0.036000766
000090 17 13 af bc b8 d7 38 bd 0e 61 d0 3c ed 34 a6 bc
       -0.021371407 -0.0451276 0.025436904 -0.020288909
0000a0 7a 0b 83 bc 14 d4 1a bd 96 83 3b bd e5 93 38 3c
       -0.015996683 -0.03779991 -0.045779787 0.01126573
0000b0 dd 5f d4 bc 2c 9c 7f 3c 6c 48 a4 bc 3c 2e 5e 3b
       -0.025924617 0.015601199 -0.020054065 0.003390207
0000c0 05 68 25 bd 26 04 02 bd e9 b3 dc bc 86 15 59 3d
       -0.040382404 -0.031742238 -0.026941257 0.052999042
0000d0 ff 39 f8 3c a6 69 dd 3c 4b 71 8a bc b9 19 04 3c
       0.030301092 0.027027916 -0.016899725 0.008062773
0000e0 80 c6 98 3c 67 70 99 bc bd 89 5d bb ac a5 e1 bc
       0.01864934 -0.018730355 -0.0033804022 -0.027544819
0000f0 6d b5 19 bd b0 ee ba bc 15 71 d0 3b 09 71 e2 3c
       -0.037526537 -0.022818893 0.0063611367 0.02764179
000100 ce 75 87 bc 4e 41 9a 3c 59 c9 dd bc fa 22 f8 bc
       -0.016535666 0.018829968 -0.02707355 -0.030290116
000110 e7 d3 79 3a a5 9a ea bb 79 af 8e bc 15 aa e6 bc
       0.0009530172 -0.0071595483 -0.017417656 -0.028157273
000120 5c 93 ae 3c 88 36 3a 3d f7 05 54 3c 20 8b 17 bc
       0.0213105 0.04546216 0.012940875 -0.009249479
000130 bc 10 18 3d d0 e9 20 3d b8 95 23 bd 31 5e a2 bc
       0.037125334 0.03928548 -0.039937705 -0.019820305
000140 f4 c2 bb bc 2a 85 cc 3c e4 fc a1 bc 37 98 f1 3c
       -0.02292011 0.024965841 -0.019773908 0.029491527
000150 1c db 21 3c 92 9d a7 bc 4a 49 90 3c 0e 65 23 bd
       0.0098789 -0.020460878 0.017613072 -0.039891295
000160 63 40 83 38 e4 23 19 3d 4d cc dc bc 9f 20 08 bd
       6.25856e-05 0.037387744 -0.026952887 -0.033234235
000170 ab c8 02 3d 82 a4 d3 3c 2d 63 ff 3c 44 ab a9 3b
       0.031929653 0.02583528 0.03117522 0.005177887
000180 58 c9 25 bd 20 b6 d3 bc 30 f1 ff ba c1 f0 5d bc
       -0.04047522 -0.02584368 -0.0019526836 -0.01354617
000190 dc 74 b5 3c 41 67 a2 3c ba 23 c7 3c af 40 8c 3c
       0.02215045 0.019824626 0.024309028 0.017120687
0001a0 cd a6 ab 3c 60 e5 9d bc bd 41 ba 3c cb 57 d1 3b
       0.02095356 -0.019274414 0.022736425 0.0063886396
0001b0 95 01 0d bd 77 83 fc ba 3e d3 ba bc d9 86 21 bd
       -0.034425337 -0.0019265254 -0.022805806 -0.03943524
0001c0 70 92 db bc 65 0a 1c 3d 1d c9 df bc 86 b7 af 3c
       -0.026803225 0.03809585 -0.027317578 0.021449815
0001d0 3b 2a d1 3c 74 ad c6 bc b9 86 18 bc 14 57 17 bc
       0.025532832 -0.02425263 -0.009309464 -0.00923707
0001e0 7f 36 49 3c 5e 56 65 bc b7 a1 07 bd 94 b3 c7 bc
       0.012281059 -0.013997642 -0.033113208 -0.024377622
0001f0 20 61 ad 3b e6 5f b4 bc 7d db a7 3c 6d 7e cb 3c
       0.005291119 -0.022018384 0.020490402 0.024840558
000200 4d 24 35 3d ce 23 e4 bb 27 9f 17 bd e2 1b 95 bb
       0.044224072 -0.006962276 -0.037017014 -0.004550443
000210 06 68 14 bc 1c 30 dd bb bb 38 5c bc 5b 53 dd 3c
       -0.009058004 -0.00675012 -0.01344126 0.027017286
000220 08 41 8d 3c 0a 01 4a bd 92 47 b3 bc 26 fc 8d 3c
       0.017242923 -0.049317397 -0.021884713 0.017332148
000230 b9 95 a9 bc 47 51 dc 3c 8a c1 13 3d c1 27 25 3d
       -0.020701276 0.026894225 0.036073245 0.040321115
000240 c7 45 52 3d f4 e5 27 bd ef c2 96 bc dd 5c 06 3d
       0.051336076 -0.040990785 -0.018403498 0.032803405
000250 9a e0 c9 3c 2b 47 b3 bb 79 50 fc 3c 61 b1 00 3c
       0.024643231 -0.0054711304 0.030800091 0.00785479
000260 64 f6 03 3d 32 4b c1 bc db 8a d6 3c e7 11 39 3d
       0.0322174 -0.023595426 0.026189258 0.04518309
000270 f1 82 15 bd 5a 1e c8 3c a2 01 c3 bc 14 af f2 bc
       -0.03650183 0.024428535 -0.02380449 -0.0296245
000280 ab 80 07 bd a5 fc a3 bc e3 0f b6 bc 28 e3 c4 3c
       -0.03308169 -0.020017931 -0.022224372 0.024034098
000290 91 a9 03 bc be 7a d3 3c a0 c6 81 bb fa 96 27 bb
       -0.008036033 0.025815364 -0.0039604455 -0.0025572167
0002a0 07 49 6d 3a a7 10 ca ba dc da 90 3c 72 7c a4 3c
       0.00090517144 -0.001541634 0.017682485 0.020078871
0002b0 75 3b ee bb bf c5 0a 3d 38 99 21 3d eb 2b a1 bc
       -0.0072702714 0.03387999 0.03945276 -0.019674262
0002c0 ed e8 f5 3c 00 f0 08 bc 08 6c f4 bc ee 2d 02 bd
       0.030018294 -0.008358002 -0.02983667 -0.031782083
0002d0 14 06 14 bd e2 4d 03 3d 2b d4 a1 b9 62 13 95 3c
       -0.03613861 0.032056697 -0.0003086639 0.018197719
0002e0 f7 53 41 3c 13 24 cb 3c b6 ff 16 3a 57 b8 8c bc
       0.011799804 0.024797475 0.000576015 -0.017177744
0002f0 c0 b5 28 bd af 1c e4 bb 2b 69 eb 3c 2d 75 88 bb
       -0.041188955 -0.006961427 0.028736671 -0.004164359
000300 67 ab 1a 3d 56 9b 2f bc f9 04 4e 3d 80 16 7d bc
       0.03776112 -0.010718187 0.05029771 -0.015447259
000310 b5 fc 22 3d 1f 04 17 bd 1b 92 95 bc 0e 45 ab bc
       0.03979178 -0.036869165 -0.018258145 -0.020906951
000320 6f 6e 4a 3d 82 4e 00 bd 15 e5 29 3d 3b 90 65 3c
       0.049421724 -0.03132487 0.041478235 0.014011438
000330 fe f2 1c bd b0 ee 03 bd ab 0a ea bc 8f 1b e5 3c
       -0.038317673 -0.032210052 -0.02856954 0.027967243
000340 ed 75 16 bb c4 c7 8f bb b4 64 37 3b 69 68 a4 bc
       -0.0022958473 -0.0043878276 0.0027983608 -0.020069318
000350 e3 00 00 bd 53 68 e6 3c 7d f3 e0 3c 0e 98 c9 bc
       -0.031250846 0.028125918 0.027459854 -0.024608638
000360 02 cd 15 bd c1 46 08 bd 76 da 1c 3d d8 b3 02 3d
       -0.036572464 -0.0332706 0.038294278 0.031909794
000370 20 12 8e 3c 3e 9a 0b 3d bf c5 4b 3d eb 49 df 3c
       0.017342627 0.034082644 0.049749132 0.027256927
000380 69 2c 63 bb 90 d2 f2 3c 71 d7 52 bc bb 57 bf bc
       -0.0034663922 0.02964142 -0.012868748 -0.023357263
000390 b8 76 00 3c 87 3d 99 3c 15 05 0f bc db 13 36 3c
       0.007840805 0.018706096 -0.008729239 0.011113132
0003a0 d0 a8 df bc 6b c4 00 3b 3d 7e ca 3b 92 4d e9 3c
       -0.027302176 0.0019648324 0.0061795996 0.028479371
0003b0 87 95 d3 3c 59 3d a4 3b 2a 31 a2 3b 93 d4 19 bd
       0.025828136 0.005012196 0.0049497085 -0.037556242
0003c0 b7 fc a8 3c 6e 54 12 bc c3 b7 dd 3c 96 e9 8c 3c
       0.020628316 -0.008931262 0.027065163 0.017201226
0003d0 32 3f 30 3b 0a 92 38 3d ae a5 e6 3c 8c 21 d2 bc
       0.0026893136 0.04506115 0.028155174 -0.025650762
0003e0 43 a7 7a bc 17 c8 c0 3c 91 89 f6 bc 37 57 f0 3c
       -0.015298667 0.02353291 -0.030094894 0.029338462
0003f0 3d 3b fc bc 71 0d d3 3c 5b 12 a2 3c 3e 12 de bc
       -0.030789966 0.025763245 0.019784143 -0.027108308

a2c_network.actor_mlp.2.weight f4 [128, 256]
000000 9b 1a 7b 3c f9 d6 8e bc 72 97 9a 3c e5 ad d3 bc
       0.015326167 -0.017436491 0.018871043 -0.025839755
000010 1f a9 74 bd 77 cb 69 3d 8c e4 7b bd b2 56 49 bd
       -0.0597316 0.057078805 -0.061497256 -0.049154945
000020 18 e8 ce bc 34 2b 83 bd 69 1d 16 bd c6 a4 11 bd
       -0.025257155 -0.06404725 -0.03664914 -0.03555753
000030 f8 31 9a 3c 01 d8 8a bd 54 ef 1b bd b9 32 05 bd
       0.018822655 -0.06779481 -0.038070038 -0.032519076
000040 cc e0 89 bd f2 7f b6 b9 04 2d 8f bc 17 ea 02 3d
       -0.0673233 -0.00034809072 -0.01747752 0.031961527
000050 4f a7 5e 3d 89 9e 46 bd 5a 0b cf bc 6c b5 b0 3c
       0.054358777 -0.048491035 -0.025273968 0.021570884
000060 58 8a e7 3c 3d 56 d6 3c 7d 90 a2 ba 65 f8 8d 3c
       0.02826421 0.026164168 -0.001240268 0.017330358
000070 60 27 6f bd 2b 94 76 bd 75 26 3a bd 64 b7 80 bd
       -0.05838716 -0.060199898 -0.04544683 -0.06284979
000080 4d 87 98 bd a3 f6 6d bd f2 94 f3 3c aa db 9d 3c
       -0.074476816 -0.05809654 0.029734109 0.019269783
000090 3f 8b 9c 3c c8 5c 93 bc eb f8 24 bc 23 c4 3d 3d
       0.019109366 -0.017988577 -0.010069112 0.04632963
0000a0 6d 97 20 bd 62 7f 2a 3d 9c 24 b8 3c 08 31 d0 bb
       -0.03920691 0.041625388 0.022478394 -0.006353501
0000b0 4b ea 99 3d 97 78 89 39 e5 6f 28 bd c6 27 96 3d
       0.07515391 0.00026220523 -0.041122336 0.07331805
0000c0 82 ab 6d 3c c9 ea 61 3d 27 00 47 bc 86 88 32 bd
       0.014506223 0.05515555 -0.012146032 -0.04358723
0000d0 09 a6 39 3d c0 6c a7 bb 0c aa 38 3d 0d 14 41 bc
       0.04532436 -0.0051093996 0.045084044 -0.011784566
0000e0 77 a3 e3 3c 12 38 38 bd e2 cf 66 bb a2 60 72 3d
       0.027787907 -0.044975348 -0.0035219123 0.059174187
0000f0 d7 f0 87 bc c6 c0 51 3d e0 38 c2 3c 5b 09 f8 3c
       -0.016594334 0.051209234 0.02370876 0.030277899
000100 e6 b7 3c 3d 0e 86 eb bc 3d 67 b5 3a 56 81 49 3d
       0.046073817 -0.028750446 0.0013839972 0.04919561
000110 c9 10 25 bd be 04 8b bd 35 0a 41 3d 5c b4 32 bd
       -0.04029921 -0.06788014 0.047128875 -0.043629035
000120 06 08 2e bd cf 35 80 3c 6f 3f 35 3c f7 56 03 bd
       -0.04248812 0.015650658 0.011062487 -0.032065358
000130 4f 00 90 bc 86 ea 1f 3d 47 0e 38 bd 68 c7 42 3d
       -0.017578272 0.03904202 -0.04493549 0.04755345
000140 3a 7b 9d 3c 5e f6 58 bd c2 3b 78 bd ca fd f7 bc
       0.019223798 -0.05296933 -0.060603864 -0.030272383
000150 30 82 5c 3d 51 bb c1 bc bb 9a 4f bd e4 b4 e8 bb
       0.053835094 -0.02364889 -0.05068467 -0.007101642
000160 29 a5 4b 3d 72 54 e0 ba 77 4e a6 3d 58 bc 93 3d
       0.049718056 -0.001711501 0.08120435 0.07213658
000170 d1 37 48 3d 88 49 06 bd bf b5 61 bd e1 52 5e bd
       0.048881356 -0.03278497 -0.055104967 -0.05427826
000180 bf d6 99 bc 1d 23 21 bd 17 9e 94 3c 52 6b cd 3c
       -0.018779157 -0.039340127 0.01814179 0.025075588
000190 88 66 fa 3c 9b 72 aa bd e7 9d 58 bd f4 f2 5b bc
       0.030566469 -0.083226405 -0.052884962 -0.013424624
0001a0 b9 9c c0 3b 86 d0 78 3d 3d 23 0a bd 07 1d 48 3d
       0.005878058 0.06074574 -0.033725012 0.048855808
0001b0 96 4e af bc 8c 67 06 ba 53 03 94 ba 4d a4 e4 bc
       -0.021399777 -0.0005127124 -0.0011292495 -0.027910376
0001c0 97 b6 c7 bc 02 b7 4d bd b9 ec 4e bb d2 66 1b bd
       -0.024379058 -0.050223358 -0.0031574203 -0.037939854
0001d0 bc 05 3d bd 8c 67 b1 bc 95 10 8c bd bb 4b 8a bc
       -0.046148047 -0.02165582 -0.068391 -0.016881814
0001e0 b2 45 80 bd 94 25 8e 3d 98 e4 92 bc 09 87 3b 3d
       -0.06263293 0.06940761 -0.017931268 0.045783076
0001f0 bf d7 4f bd 86 bd cf 3c 0a 0e 7a bd ed 7a 36 3c
       -0.05074286 0.025358927 -0.061048545 0.011137706
000200 01 d6 18 3d 14 74 8c bd 14 b4 f5 3c 74 d9 1a ba
       0.037313465 -0.06858078 0.029993095 -0.0005907037
000210 22 cf 07 bd fb 9a 4c bc 3e 96 77 3d bc 7b 13 bd
       -0.03315652 -0.012488122 0.060446016 -0.036006674
000220 23 b1 5a 3d d8 2f ff 3b 33 94 5f 3d 6e 1d 71 bc
       0.053391587 0.007787686 0.054584693 -0.014716489
000230 c5 d2 a8 3c 74 61 22 bc 9d e5 58 3d ef 9c 7f bd
       0.020608315 -0.00991093 0.05295335 -0.062405523
000240 67 7f 94 bc dc ea 6d bb 7f 52 3d bd 09 f9 c2 3b
       -0.018127156 -0.0036303317 -0.046221253 0.0059500975
000250 10 12 aa 3c 2a c7 15 3d 77 eb 1d bd 90 b9 05 3d
       0.020760566 0.03656689 -0.038554635 0.03264767
000260 a8 3c 27 bd d3 46 68 3d 36 25 58 bd 78 ee 59 bd
       -0.04082933 0.05670817 -0.052769862 -0.053205937
000270 73 3c ca 3c 64 37 2a bc 12 c4 c5 3c 50 1e 71 3d
       0.024687028 -0.010389183 0.024141345 0.0588668
000280 2c 5f 6b 3d 28 b0 08 3d 7a 22 39 bd d0 6e 11 bc
       0.05746381 0.03337112 -0.045198895 -0.008876517
000290 c3 42 0b 3c 55 3b 9f bd dd 34 06 3d b3 8d 48 3d
       0.008499804 -0.077749886 0.032765258 0.04896326
0002a0 d4 90 01 bd 29 87 06 bd 78 53 73 bd e5 9c b8 3b
       -0.03163226 -0.032843743 -0.059405774 0.0056339377
0002b0 70 af b9 3c 69 47 aa bc 02 a7 09 3d 98 67 b8 bb
       0.022666663 -0.020786004 0.033606537 -0.0056275837
0002c0 fc e1 b4 3b 4c 98 3a 3d e0 5f b6 bc 10 6d 0d bd
       0.0055201035 0.045555398 -0.022262514 -0.03452784
0002d0 a4 41 f4 3c e0 39 3c bd 4f 7f 32 3d fa 66 d7 bc
       0.029816456 -0.04595363 0.043578442 -0.02629422
0002e0 8c 8f 68 3d 32 32 57 bc ac 27 03 bd 54 27 2e bd
       0.056777522 -0.013134526 -0.032020256 -0.042517975
0002f0 d1 39 11 3d d0 c0 19 bd d5 c7 a8 bb 93 38 34 3d
       0.03545553 -0.037537396 -0.005150775 0.043999266
000300 84 29 57 bd b5 f6 56 bd 7e 60 7c 3c 49 bd c0 bc
       -0.052529827 -0.052481372 0.015403865 -0.023527758
000310 8c 48 37 bd 8f ad 25 3d cc 8b 6e bd 6f 2e 1d bc
       -0.04474692 0.04044872 -0.05823879 -0.00959359
000320 37 3d 40 bd 22 ab 66 3c 6a 75 0c 3c 31 b6 a9 3c
       -0.04693338 0.014078887 0.008572916 0.020716758
000330 09 68 d3 3c a7 12 aa bb 6b 23 da bb c2 d0 36 3d
       0.025806444 -0.005190212 -0.006657054 0.04463268
000340 2b ff 81 bc da 9b c7 3c 25 17 41 bd 82 0e 38 bd
       -0.015868744 0.024366308 -0.047141213 -0.04493571
000350 37 0b bd bc 7b 63 2d bd fb 19 b9 3a 42 fa db bc
       -0.023076637 -0.0423312 0.0014122123 -0.02685273
000360 26 f3 02 3c db 01 71 3d bd bc 68 bc 85 d7 2c 3c
       0.007992541 0.05883966 -0.014205155 0.010549431
000370 e3 a9 21 bc 8c 4a 20 3d a2 54 20 3d f6 1d ba 3b
       -0.009867164 0.039133593 0.039143212 0.005679841
000380 45 4e 4b 3d 4c fd 78 bb 58 04 a1 3b ad df 0d bd
       0.04963519 -0.0037992774 0.004913848 -0.034637142
000390 26 af f6 bc f0 fd 72 3d a3 e6 13 bd 55 be 99 bd
       -0.030112814 0.059324205 -0.036108624 -0.07507006
0003a0 05 8d 26 bc 60 74 83 3c 5e ba 25 bc 1b ba c7 b9
       -0.010165458 0.016046703 -0.010115234 -0.00038094897
0003b0 42 69 a7 3c b2 79 0d 3d 27 e5 38 bd 89 2a ba 3c
       0.020435933 0.034539886 -0.04514041 0.02272536
0003c0 ba 9b 9b 3c 12 41 de bc 02 99 26 3c 03 7f 4c bb
       0.018995155 -0.027130637 0.010168316 -0.0031203635
0003d0 15 9d 50 3b 02 8e 1a 3d 9b d5 13 3d f5 44 6e 3d
       0.003183191 0.037733085 0.036092382 0.05817123
0003e0 65 e8 02 3d f2 0f 8d 3c 1e c9 c1 3c 5e 6a 2e bd
       0.03195991 0.017219517 0.02365547 -0.04258191
0003f0 a6 78 2c 3d 9e 1b be bb 50 ec 91 3c 73 c6 ef bc
       0.042107247 -0.005801632 0.017812878 -0.029269433

a2c_network.actor_mlp.2.bias f4 [128]
000000 63 bc db bc e7 9c e8 3c 09 50 bf 3a d8 50 d1 3c
       -0.026823228 0.02839513 0.0014595996 0.025551245
000010 34 fd 03 bd 61 79 75 bc ff c1 fa bc a8 69 d3 3c
       -0.032223895 -0.014982552 -0.030610083 0.025807217
000020 3d 54 22 bd 61 b8 86 3c ad a3 95 3c e5 eb df 3c
       -0.039631117 0.01644534 0.018266523 0.027334163
000030 4b da d2 3c bf eb b7 bc 2f c7 fe 3c 5d 50 c4 3c
       0.025738856 -0.02245128 0.031100838 0.023964101
000040 fb 47 b3 bc 80 b5 d5 bc 21 6e cc 3c 0a 2d 03 bd
       -0.021884909 -0.026087523 0.024954857 -0.032025374
000050 32 4f 12 bd 24 98 fa 3c c7 56 ac 3c 91 fe 90 3c
       -0.035720058 0.030590124 0.021037472 0.017699512
000060 c7 c2 de 3c d0 38 81 3c 04 e7 d2 bc 1a e2 f3 bc
       0.027192486 0.01577416 -0.025744922 -0.0297709
000070 69 ac e6 3c 9b c9 99 bb 1d 07 eb bc bc d1 fd bc
       0.028158383 -0.0046932227 -0.028689915 -0.030983798
000080 a4 2e c9 3c 50 28 00 bd 9e 97 b0 3c 86 19 f4 3c
       0.024558373 -0.031288445 0.021556672 0.029797327
000090 21 c0 70 b8 34 45 c6 3c 41 3f 2d 3c 2a da f9 bc
       -5.7399393e-05 0.02420292 0.010574163 -0.030499537
0000a0 ef 49 b1 bc 23 27 f7 bc b8 b0 93 bc 90 0f e0 bc
       -0.0216417 -0.030170029 -0.018028602 -0.02735117
0000b0 02 f3 eb 3c 14 05 8c bc 78 a3 b3 bc 8f f0 cb 3c
       0.028802399 -0.017092265 -0.021928534 0.02489498
0000c0 86 c7 35 3c d2 7f d0 bc ca e9 3b bc 86 44 06 3d
       0.011094933 -0.025451574 -0.011469314 0.032780193
0000d0 f6 55 0a 3c 1f 54 a3 bc e7 2f a5 bc 56 ae ba 3c
       0.008443346 -0.019937573 -0.020164443 0.022788208
0000e0 91 92 98 3c 62 f3 df bc e8 8d 1b bd 98 71 e9 3c
       0.018624576 -0.027337734 -0.03797713 0.028496549
0000f0 c8 c6 59 3c 88 2d bb 3b 3d a9 6b bb a2 9e ef 3c
       0.013292022 0.005712215 -0.0035959028 0.029250447
000100 63 eb e7 3c 87 73 e4 3c b1 f6 ec 3c 56 f3 c1 3c
       0.028310483 0.027887119 0.028926225 0.023675602
000110 13 15 00 bd d9 e6 d3 3c 86 f7 00 3d 10 3a 25 bb
       -0.031270098 0.025866913 0.031486057 -0.002521161
000120 d6 bd 02 bd 76 53 a0 bc 0f 77 72 ba 70 60 fc 3c
       -0.031919323 -0.019571047 -0.00092493085 0.030807704
000130 ff 65 3f 3c cd 47 ec 39 a1 72 e1 3c 44 af a9 bc
       0.011682033 0.00045066923 0.02752048 -0.020713456
000140 6e 15 f4 3c ae 3a d1 bc 85 ff 68 bc 5e 4b c7 3b
       0.029795375 -0.025540676 -0.014221077 0.0060819825
000150 06 c3 ea bc 2d 46 f5 3c 8a 4b 05 bd a4 83 c8 bc
       -0.028657448 0.029940689 -0.032542743 -0.024476834
000160 19 8c bd 3c bf f2 ed bb fa 71 a5 3c f3 6d a0 bc
       0.023138093 -0.0072616036 0.02019595 -0.019583678
000170 50 0a e8 3c a6 77 ed 3c 87 2f c4 3c 60 24 ca bc
       0.02832523 0.028987717 0.023948444 -0.024675548
000180 c1 6d f4 3c ae f3 e7 bc 9e bd e7 3c 0b 90 81 bc
       0.029837491 -0.028314438 0.028288659 -0.015815755
000190 ab 58 fd bc 81 4e df 3c a5 b6 0b 3d b4 cd fb 3b
       -0.03092607 0.027259113 0.03410973 0.007684434
0001a0 fe 42 c1 3c 52 74 f6 3c c7 79 06 3c 8f 50 f1 bb
       0.023591515 0.030084763 0.008207745 -0.0073643397
0001b0 ca ab a8 bc 77 0d f9 bc 2f 69 f4 3c 65 3e c4 bc
       -0.020589728 -0.030401928 0.029835312 -0.023955533
0001c0 3e da b3 bc 47 23 87 3c a5 65 77 3c 28 e0 95 3c
       -0.021954652 0.016496314 0.015099918 0.018295363
0001d0 91 ff ad 3c 88 52 b4 3c 47 5a 26 bc bc a0 df bc
       0.021240028 0.02201201 -0.01015336 -0.027298324
0001e0 15 37 ff bc aa b7 fe bc bb 04 de 3c 9b 6f 7f bc
       -0.031154195 -0.031093437 0.027101865 -0.015590574
0001f0 a3 2a ad bb 5d 57 79 bc 7f bf ec 3c 05 76 52 bb
       -0.0052846237 -0.015218583 0.028899906 -0.0032113802

a2c_network.actor_mlp.4.weight f4 [64, 128]
000000 da 9f 99 3c 1a e1 cf 3a 64 84 cb bb d8 d1 b9 3d
       0.018752981 0.0015859932 -0.0062108506 0.09073228
000010 1c 73 9c 3c 1c 67 17 3b 0a a2 4f bd b7 b1 1c 3b
       0.019097857 0.002310223 -0.050691642 0.0023909637
000020 91 0b b2 bd d9 68 aa 3d ba 04 4b bd f9 61 84 3d
       -0.08693612 0.08320779 -0.049565054 0.06463999
000030 d6 77 b9 3d c4 da 1e 3d 1b be c5 3d 69 24 4f bd
       0.0905606 0.03878285 0.096554 -0.050571833
000040 75 96 17 3c 5b a9 03 3d 23 85 7c bd ec 4b c6 bd
       0.00925218 0.03214393 -0.061650407 -0.0968245
000050 87 a4 4d 3c 61 6d b4 3d b1 d3 60 3d 30 42 01 3d
       0.012551433 0.08809925 0.054889385 0.031557262
000060 95 5c 71 3d 29 78 4e 3d 3f 8e a0 bd 34 82 ac bd
       0.058926184 0.050407562 -0.07839631 -0.08423272
000070 be 65 99 3d bf 92 0d bd 34 af 68 3a 13 c2 26 bd
       0.07490109 -0.034563776 0.0008876205 -0.040712427
000080 73 6f 06 3d c3 3d 5c bb 69 5c 69 3d cb 52 1d bb
       0.03282113 -0.0033606149 0.056972895 -0.0024005647
000090 56 cc fb 3c 46 db 97 bc 39 79 59 3d 25 b9 91 bb
       0.030737083 -0.018537175 0.053094123 -0.00444712
0000a0 9d 23 90 3d 16 cb aa bd c3 67 06 bd 3b f1 34 3d
       0.07038043 -0.08339517 -0.0328138 0.044175368
0000b0 15 4f 91 bd c4 f3 3c bd 69 93 16 3d b6 e3 dd bc
       -0.07095162 -0.04613091 0.036761675 -0.02708612
0000c0 1f 36 17 bd 19 91 af bb 2b f1 81 3d 69 f5 ae 3c
       -0.03691685 -0.005357873 0.06344827 0.021357255
0000d0 03 4b a9 bb c4 86 bc bd fc 10 cc bc 1e 17 61 3d
       -0.005166413 -0.09205392 -0.024910443 0.054953687
0000e0 a2 21 94 bd 51 05 98 3d 32 0a 16 bc 1e ae a6 3d
       -0.072329774 0.07422889 -0.009157704 0.08138679
0000f0 20 09 82 3c fe 7a b7 bd a4 03 fb 3c c1 a5 52 bd
       0.015873492 -0.08959006 0.030641384 -0.051427606
000100 93 13 08 3d 72 af 3a 3c 1c a4 84 bd d1 08 da 3c
       0.033221792 0.0113943685 -0.06476614 0.026615532
000110 a5 7a 7a bd 43 28 50 3d b0 ff ab bc 48 4f 3c bd
       -0.06115212 0.050819647 -0.020995945 -0.045974046
000120 bb 39 a8 bd a8 61 60 bd 9d c4 a3 3d 5c 9a be 3d
       -0.08214136 -0.054780632 0.079964854 0.093067855
000130 73 a3 19 3d c3 39 a2 bd 4d 13 fe 3c 50 a4 56 bd
       0.037509393 -0.079211734 0.031015063 -0.052402794
000140 09 b8 58 3d b0 9d 92 3d 22 1e 5f 3d 2c 70 4f 3c
       0.052909885 0.07158983 0.054472096 0.012661021
000150 37 e6 a0 bc 9d f9 00 bd cc 9d 61 bd 52 94 5c bd
       -0.019641025 -0.03148805 -0.055082127 -0.053852387
000160 c5 17 39 3d 6e fb 89 3d 4e 4b f9 bb bc 48 b9 3d
       0.045188684 0.067374095 -0.007607854 0.09047076
000170 f8 02 37 3d fe 6d fb bc f8 7c 87 3d a6 84 9c bd
       0.044680566 -0.030692097 0.06615633 -0.07642488
000180 89 bf a5 3c 25 b3 5e bd a0 79 46 3d aa 93 28 3b
       0.020232933 -0.054370064 0.048455834 0.002572278
000190 39 a0 ae bb 86 6f 03 bc 20 f1 4c bd 65 4c c8 bc
       -0.0053291586 -0.008022195 -0.050034642 -0.02445049
0001a0 30 7d 3c 3d 56 e4 9e bc 49 89 a7 bc 13 a3 81 3d
       0.046017826 -0.019395988 -0.020451205 0.06329932
0001b0 95 72 5d bb c5 1a 02 3d 88 d9 67 3d 77 16 4b bd
       -0.003379022 0.03176381 0.05660394 -0.04958197
0001c0 73 76 66 bc 4d 66 91 bd 40 ed 59 3d 6f 24 80 3d
       -0.014066326 -0.070995905 0.053204775 0.06256949
0001d0 0e 6e 67 bd 36 4b 95 3d 3b e7 f3 bc 81 49 c2 3c
       -0.05650144 0.07289736 -0.029773345 0.02371669
0001e0 22 d2 cb 3b f8 c0 18 3c 9f f0 36 3d b3 76 8d 3c
       0.006220118 0.009323351 0.044663068 0.017268514
0001f0 3c 2e 5e bd a2 06 98 bd 08 2b 9e 3d 6c 09 e6 3c
       -0.05424331 -0.0742314 0.07723051 0.028080665
000200 03 e1 01 3c 71 5e a0 3a ad f9 c7 bc f3 0c ca bd
       0.007927182 0.0012235177 -0.024411047 -0.09865751
000210 b4 71 a4 3d 48 95 78 bd 68 c7 6e bb e3 05 5b bd
       0.080295 -0.06068924 -0.0036434773 -0.05347241
000220 9d b1 bf 3d f6 f2 3f bd 1a 4c 8e 3c 0f 63 b0 bb
       0.09360049 -0.046862565 0.017370272 -0.0053829025
000230 ed 7d 57 3d 69 f1 b0 3d 99 4f ba 3c ec 16 aa bc
       0.052610327 0.08639795 0.022743033 -0.020762883
000240 46 9d 36 3d 06 d0 0e 3d 24 32 a6 bd 0d 92 7f 3c
       0.04458358 0.034866355 -0.08115032 0.015598786
000250 28 7a b1 3d a6 53 a3 bd 7a 69 58 bd 12 cf 52 bd
       0.086658776 -0.07974939 -0.052834965 -0.05146701
000260 1d cf 31 3d 5c 71 a5 bd e0 83 80 3c 16 c0 82 bd
       0.04341041 -0.08078262 0.015687883 -0.06384294
000270 02 07 45 3d 43 7d 2b bd a6 ee 4d 3d 87 60 06 bd
       0.048102386 -0.041867506 0.05027642 -0.0328069
000280 9c 64 18 bd 21 97 ac 3c bd 61 8a bc 67 b4 8b bd
       -0.037205324 0.021068158 -0.016892308 -0.068215184
000290 38 c8 97 bd 80 81 62 bd 73 4d 3f bd 12 63 90 3d
       -0.074112356 -0.055299282 -0.04670472 0.07050146
0002a0 7b 19 1d 3d 35 ce 2c bd 90 08 0a bd c9 d9 c5 3d
       0.03835438 -0.04218884 -0.033699572 0.0966068
0002b0 53 76 ae bd 66 4f 9a 3d 5b 0f 79 3b 8b de b0 bd
       -0.08518662 0.07534675 0.0038003537 -0.08636197
0002c0 54 12 3f 3d 70 66 90 3d 74 c4 38 3d d2 c0 43 bd
       0.04664834 0.070507884 0.045109227 -0.04779131
0002d0 fb df 2a bd 08 67 89 b9 e9 e4 83 bd 11 c3 b5 3c
       -0.04171751 -0.0002620744 -0.064401455 0.022187741
0002e0 28 9f 80 bd 8e 9c a6 3c 23 9b f2 39 71 7c 42 3d
       -0.06280357 0.020338323 0.00046273423 0.047481958
0002f0 10 e8 b7 bd de 87 6b bd 4d f2 2a 3d da 15 4f bd
       -0.08979809 -0.05750262 0.041734982 -0.05055795
000300 1a f3 35 3d c0 c5 b3 bd 65 ab 3e b9 cc 49 2d 3c
       0.044421293 -0.08777952 -0.00018183661 0.010576677
000310 93 5c d9 3d bb 03 57 3d 25 00 0a 3d 26 db 8a bb
       0.1061336 0.052493792 0.033691544 -0.0042375503
000320 2c d9 17 3d 37 af 87 3d a9 15 8d bd 85 bc c2 bd
       0.037072346 0.066252165 -0.06888897 -0.095086135
000330 20 f8 e5 bb 78 a6 b5 bd 3f 98 02 bc 77 d6 99 3c
       -0.007018104 -0.08869642 -0.007970869 0.018779023
000340 0b a7 5b 3d 02 a6 8b 3d a9 4b 9d bd 3c e0 b8 3d
       0.0536261 0.06818773 -0.07680447 0.09027144
000350 ba cf 5f bd ea 08 d2 bd fd 20 0e bc 6a ef 05 3d
       -0.054641463 -0.102556065 -0.008674857 0.032699026
000360 d8 2f b5 bc 17 07 36 bc 03 93 36 bc ef c9 65 bc
       -0.02211754 -0.011110089 -0.011143449 -0.0140251955
000370 3e 8c 51 bd f7 bb 04 3d b2 c5 eb 3c 28 11 04 bc
       -0.051159136 0.03240582 0.028780792 -0.008060731
000380 0b 98 cf 3c 5d 76 72 3d d3 cf 9e bc 45 f1 29 bc
       0.025341054 0.05919491 -0.019386208 -0.010372465
000390 e4 87 9f 3d a2 0a 32 bc 3e b8 54 3d bd 7e bb 3d
       0.07789591 -0.010866793 0.05193352 0.09155033
0003a0 c2 3f d5 bd 0c 34 19 bd 8d 13 7f bd df d4 a6 3c
       -0.104125515 -0.03740315 -0.062274504 0.020365177
0003b0 96 f1 95 3d 13 38 52 3d 89 1c 51 bd db 83 05 3d
       0.073214695 0.051323008 -0.051052604 0.03259645
0003c0 3e e7 93 3d 70 7d 44 bd 41 38 29 3d 58 06 ab bb
       0.0722184 -0.04797119 0.041313414 -0.005219262
0003d0 3c 30 2b 3c 0e 9f 9c bc a6 8a 38 3d 9e 98 7e 3d
       0.010448512 -0.019118812 0.0450541 0.062157266
0003e0 a4 e6 67 3c 2c 9e 9f 3c 48 8b bc bd 42 27 a9 bd
       0.01415411 0.019484602 -0.09206253 -0.08259441
0003f0 60 ff 30 bd cf ae 5c bd 15 75 c1 bc 06 52 9d 3d
       -0.043212295 -0.053877648 -0.0236154 0.0768166

a2c_network.actor_mlp.4.bias f4 [64]
000000 82 ad ff 3c 38 de 0d bd f4 05 ee bc d0 b2 ae bc
       0.031210665 -0.034635752 -0.029055573 -0.021325499
000010 4f 1a 48 3c 7e 66 e2 bc 48 e3 b4 bc 2b fe a7 3a
       0.012213304 -0.027636763 -0.022081032 0.0012816837
000020 bd 5c 49 bc 42 67 03 bd 6a 12 2d bd 1b ec 12 3d
       -0.012290177 -0.032080896 -0.04225389 0.0358697
000030 b9 b6 89 3a 37 f8 1c bd ae 5c fa bc bd 5f de 3c
       0.0010506726 -0.038322654 -0.030561771 0.027145261
000040 ec ff 0a bd 5c 74 ed 3c 1a 5c 7c 3c 83 ef 9d bc
       -0.033935472 0.028986149 0.015402818 -0.019279247
000050 bf e1 c4 3c 70 4f 83 bc 15 8a a4 3b 6d d3 0c bd
       0.024033425 -0.01602909 0.0050213435 -0.03438132
000060 bc c3 2d 3c 99 75 ea bc 85 0a 81 bc 4e 28 d5 3c
       0.010605749 -0.028620528 -0.015752086 0.026020195
000070 ed 42 fc bc 79 eb cb bc 56 18 da 3c eb a2 d8 bc
       -0.030793631 -0.024892556 0.026622932 -0.026444873
000080 dd 7d bf 3c d5 9a 09 bd 07 92 b3 bc 19 3e e6 bc
       0.023375446 -0.033594925 -0.021920217 -0.028105782
000090 e9 e8 07 bd c6 87 22 bd 44 97 00 3d af 6b 16 bd
       -0.033181105 -0.039680265 0.03139426 -0.03672379
0000a0 ee f7 27 3d dc ce 0d bd ba 8d d3 3c 47 01 1c 3c
       0.04100793 -0.034621105 0.025824416 0.009521789
0000b0 c1 54 de 3c 2f 57 fc 3c 2d e3 09 3d fb 6e c9 3c
       0.027140023 0.030803291 0.033663917 0.024589052
0000c0 cb a8 dd 3c fd 93 06 bd 72 d8 fe 3c 85 d0 d9 bc
       0.027058026 -0.032855976 0.031109069 -0.026588688
0000d0 78 e9 13 bd 74 53 b3 3c 22 93 ce 3a bf aa 9b 3c
       -0.036111325 0.02189038 0.0015760402 0.019002317
0000e0 95 5e 68 3c 2b be c0 3c e2 3d 0c bd c9 e7 9f 3c
       0.014182706 0.02352818 -0.034238704 0.019519703
0000f0 ac f0 09 bd d2 12 2b bc 45 0f 1a bd e0 f2 25 bd
       -0.03367679 -0.010441499 -0.03761222 -0.040514827

a2c_network.value.weight f4 [1, 64]
000000 09 f9 7b bd 3b 00 8f 3d 7c db bd 3d 3f d9 ab 3c
       -0.061516795 0.06982466 0.09270379 0.020977614
000010 cb 71 7c bc d1 15 b7 3d 22 b5 af 3c 6a 4e 72 3c
       -0.01540799 0.08939708 0.021448676 0.014789203
000020 f1 d0 e1 3b be 24 ca 3d 93 f0 c3 3d 60 18 79 bd
       0.006891363 0.09870289 0.0956737 -0.06081426
000030 a3 c1 d8 3b 46 b2 00 3e 17 e8 9a 3d 3e 7d 8d bd
       0.00661488 0.12568006 0.07563799 -0.06908654
000040 68 f0 dd 3d 76 6f e3 bd 95 e2 59 bd 22 e3 19 3c
       0.108368695 -0.11105244 -0.0531946 0.009392532
000050 3e 4c 2d bd 0b 10 01 3d 00 d0 8c 3c 41 3f 04 3e
       -0.04230904 0.03150944 0.017189026 0.12914754
000060 06 6d 24 bd 1b e0 c1 3d 5e 63 a2 bb 96 a6 e3 bd
       -0.040143035 0.09466573 -0.004955693 -0.11115758
000070 d6 b4 b2 3d a0 0f d8 3d 80 4c fc bd b2 e6 de 3c
       0.08725898 0.10549855 -0.12319279 0.027209613
000080 c9 d4 cc bc e9 31 b4 3d bf cd 72 3d f6 7b 2f 3d
       -0.025003808 0.08798582 0.059278246 0.042842828
000090 7f 2b f7 3d 2e e2 00 3e 4c 09 a1 bd 3d 54 d9 3d
       0.12068843 0.1258628 -0.07863101 0.1061177
0000a0 c0 b5 f9 bc 47 56 03 3e 18 7d c1 bd ba 32 77 3c
       -0.030482173 0.12825881 -0.09447688 0.015087778
0000b0 9e be 88 bd 89 28 06 be 71 11 00 be c8 60 b1 bd
       -0.06676982 -0.131014 -0.12506653 -0.08661038
0000c0 a2 c1 f8 bc 24 4c a4 3d 4f 32 fe bd 71 e4 a5 3d
       -0.030365769 0.08022335 -0.12411939 0.08100212
0000d0 f1 15 b6 3d 2b 3f 35 bd b3 0c f1 3b 9a 75 56 bd
       0.08890904 -0.044249695 0.00735625 -0.052358247
0000e0 80 23 2e bd ec 35 6e bd df b3 b0 3d e2 39 4e bd
       -0.042514324 -0.058156893 0.08628058 -0.05034817
0000f0 10 df c3 3d 80 a2 cb 3c 2f d6 f1 3d f4 fd 37 3c
       0.0956403 0.02485776 0.118084304 0.011229981

a2c_network.mu.weight f4 [24, 64]
000000 ae da 9b bd a8 82 20 bd b0 95 3a bd e5 70 95 bd
       -0.07610069 -0.039187104 -0.04555291 -0.072969235
000010 41 6a a6 bd 85 79 ce 3d 36 0d c9 bb 88 13 a9 3d
       -0.08125735 0.10081772 -0.006135608 0.082556784
000020 5f b6 90 3c a0 63 3a 3d 37 14 05 be ba de 75 3c
       0.017665086 0.045505166 -0.12995993 0.015006715
000030 7f db 46 3d 18 6b ae bc 97 70 8b bd 05 04 ae 3c
       0.04854917 -0.0212913 -0.06808584 0.021242151
000040 be 6f 01 be 92 e9 55 3d 54 d8 0a 3d 12 d0 dc bd
       -0.12640283 0.052224703 0.033897713 -0.10781874
000050 29 c4 ad 3d 13 43 ea bd f8 c5 70 3d a9 d4 d9 bd
       0.0848468 -0.11438575 0.058782548 -0.10636265
000060 a3 39 ef bd 29 9a 8e 3b ef 74 c9 bc 8e 08 e8 3d
       -0.11680915 0.0043518734 -0.024591891 0.11329757
000070 ff e1 9b bd c5 05 d9 3d 53 07 37 3d 24 32 17 bc
       -0.07611465 0.105968036 0.04468472 -0.009228263
000080 fa 5b 05 3d 0e 98 4a 3c ac 7f 79 3d 73 07 8b bc
       0.03255842 0.012365354 0.060912773 -0.016971326
000090 e7 e1 bb 3d 78 c9 ff bd 55 80 10 bd 1a 8d 87 bd
       0.09173947 -0.12489599 -0.035278637 -0.0661871
0000a0 04 ac 89 bd f0 dc ed bd 78 c6 86 bd 00 fc 87 3d
       -0.067222625 -0.11614406 -0.06580824 0.06639862
0000b0 c4 75 86 bc d1 fe a2 bd 9d eb 9f 3d 08 df ff 3d
       -0.016413577 -0.079587586 0.078086115 0.12493712
0000c0 20 f2 6d 3d 24 e5 c0 bd 28 e8 0a 3e 3e 0b 3c bc
       0.058092237 -0.09418705 0.13565123 -0.01147729
0000d0 a0 41 ec bc 2e f1 b1 3c 35 c8 df 3d 92 19 79 bd
       -0.028839886 0.021721449 0.10926858 -0.0608154
0000e0 31 01 b7 bd 78 e9 81 3d 94 23 f2 bd c6 5d 19 bd
       -0.08935774 0.06343359 -0.11823192 -0.037442945
0000f0 d9 23 05 bd 64 d2 b9 3d 8e 47 79 bd 5e ef 84 bc
       -0.03250489 0.09073332 -0.060859255 -0.01622742
000100 54 84 00 be 6a 74 c0 3d 92 23 a6 bd 0b c2 19 3c
       -0.12550479 0.09397204 -0.08112253 0.009384642
000110 d1 e8 93 3c 19 3b 09 bc 09 5b 39 3d 3d e4 ac 3c
       0.018055351 -0.008375906 0.045252834 0.021104926
000120 a8 9a 8b bd a0 bd 9d bd eb 12 10 3e db 46 05 be
       -0.06816608 -0.07702184 0.14069717 -0.1301531
000130 5d 33 4d bd 34 ea b2 3d a5 d7 f3 ba 77 45 ef bc
       -0.050097812 0.08736077 -0.0018603696 -0.029207928
000140 f1 11 25 3d 33 a9 4c bd 4e 02 35 3d f9 4e 1b bd
       0.040300313 -0.04996605 0.04419165 -0.03791711
000150 54 f7 a5 3c 6f fe e5 bd d7 77 8c 3b dc 79 f3 3d
       0.020259537 -0.1123017 0.004286747 0.11888477
000160 76 7b 30 3d 09 d2 ee 3c 9d 91 af 3c 1c f1 bf 3d
       0.04308649 0.029152887 0.021431739 0.0937216
000170 3a e8 4a 3b b1 f8 cd 3d f3 d1 ad 3d 28 95 4c bc
       0.0030961172 0.100572 0.0848731 -0.0124867335
000180 74 94 68 3d fb f9 72 3d cc 0e 8d bc e7 5e a6 bd
       0.0567822 0.05932043 -0.01721897 -0.0812357
000190 4b fb ca 3b 24 cc 03 3e c7 38 40 3d d7 ca 02 3e
       0.0061945072 0.12870842 0.046929147 0.1277269
0001a0 32 bf dc bd c4 ef be bd b1 bd 76 bd 74 be 03 be
       -0.10778655 -0.093230754 -0.060239498 -0.12865621
0001b0 6a cb 92 3d 5d 30 43 bd e3 53 b8 bd e2 7b cd bc
       0.071677044 -0.047653545 -0.09000375 -0.025083486
0001c0 4a e5 2c bd 2a 45 d1 3c e8 70 4f 3d 56 7b 30 bd
       -0.042210855 0.025545675 0.050644785 -0.043086372
0001d0 a3 9a 91 3d 03 c6 a0 ba ca 14 91 3d fb 9f 2f bc
       0.07109573 -0.0012266043 0.07084043 -0.010719295
0001e0 44 53 3e 3d a2 df fd bd d4 41 d0 3d 30 85 a9 3d
       0.046466127 -0.1239617 0.10168806 0.082773566
0001f0 c3 4e 0d 3e 4f 1a cb 3b 1b 7d 05 3d 48 af 05 3e
       0.13799576 0.0061982046 0.032590013 0.13055146
000200 9b da c1 bd 73 3a 00 bc 53 65 04 3d 3b 19 83 bd
       -0.09465524 -0.007826435 0.032323193 -0.06401297
000210 7d 0d c2 3d 15 e2 ad 3d 94 09 b0 3d cf 06 72 3d
       0.09475229 0.08490387 0.08595577 0.059088524
000220 c8 c1 16 3d 49 ec 06 3d 29 88 a9 3d b0 e1 87 3c
       0.036805898 0.032940183 0.082779236 0.016587108
000230 11 e1 e3 bb d9 08 ac 3a 6c a8 35 3c e0 50 d8 bd
       -0.0069543202 0.0013125195 0.011087518 -0.10562301
000240 7f 47 8b 3d 75 33 ec 3d 29 76 d4 3c 5b d4 44 3c
       0.06800746 0.11533252 0.02593525 0.01201352
000250 c6 78 b1 bc 48 d4 c4 bd 17 7a e7 bd f2 53 bc bd
       -0.021664035 -0.09610802 -0.11302584 -0.09195699
000260 da 12 72 bd 09 8d e1 bd 5c e7 15 3d da f8 01 3e
       -0.05910001 -0.110132284 0.036597595 0.12692586
000270 89 1e 08 bd 3b 2f a2 3d ad 7e 8e 3d b3 86 b6 3d
       -0.033232246 0.07919165 0.06957755 0.089124106
000280 dd ad 50 3d 03 e2 c4 3d dc a1 9b 3d 50 64 64 bd
       0.05094706 0.09613421 0.075992316 -0.055759728
000290 67 58 c8 3c 96 d1 9a 3d b5 d8 c6 bd cb 50 9d bd
       0.024456216 0.075595066 -0.09709302 -0.07681426
0002a0 c0 01 a1 3d 3a 43 55 bd 89 ef 87 bd 53 4f e1 bc
       0.07861662 -0.052066065 -0.066374846 -0.027503645
0002b0 54 ca 39 3b 7e ce 4a bd 4e e2 ae bd cd 0f b9 bd
       0.0028349357 -0.049513333 -0.08539258 -0.09036217
0002c0 c1 71 90 bd e8 3d de 3d 6a d0 0b 3d f0 63 a8 bd
       -0.07052947 0.108516514 0.034134306 -0.082221866
0002d0 47 b6 f0 3d 3f d8 9c 3d b8 e4 28 bc a6 57 16 3c
       0.11753517 0.07658433 -0.010308437 0.00917617
0002e0 25 f9 99 bd 34 65 1f bd af 39 c3 3d 29 2a 95 bd
       -0.07518224 -0.038914874 0.09532487 -0.07283432
0002f0 92 c8 77 3b 30 c2 91 3d 09 bf b0 bd d9 2c 49 3c
       0.0037808758 0.071171165 -0.08630187 0.012278759
000300 0e 85 29 3d 7a b7 f0 3d 44 e7 99 bd 04 ae 7b bd
       0.041386656 0.117537454 -0.075148135 -0.06144525
000310 f4 af 4e 3d b9 23 12 3d 93 76 cd 3d 28 67 62 3d
       0.05046077 0.0356786 0.10032382 0.05527416
000320 4a 2c c5 3d f1 a0 eb 3d 87 96 1b bd 4e e7 94 3d
       0.09627588 0.115053065 -0.03798535 0.0727068
000330 fd 79 65 3d 82 61 6f bd 26 13 44 bd b2 13 38 3d
       0.05602454 -0.0584426 -0.047869824 0.044940658
000340 22 e8 86 3d ad 83 14 3d ae bb 95 bd f4 df b4 bd
       0.065872446 0.03625839 -0.07311188 -0.08831778
000350 d6 a1 49 3d dd a9 9b bd 38 18 e2 3c 48 06 84 3b
       0.049226604 -0.07600758 0.027599439 0.004029069
000360 9e b4 f9 3d 1f 53 b5 3d f4 41 ee 3d 26 14 b3 3d
       0.12192653 0.08853745 0.11633673 0.087440774
000370 2d 0a ca bd ed 66 cc 3d 03 bd df 3d 54 37 80 3d
       -0.09865222 0.09980569 0.10924723 0.06260553
000380 e5 61 2c bc 6d 4d 9c bd 19 59 db bd 4b 8d cb 3d
       -0.010521387 -0.07631955 -0.107103534 0.09939059
000390 d5 ed 17 3d 50 61 d3 bd b7 d5 ab 3d 3b 5e d9 3d
       0.03709205 -0.10321295 0.08390372 0.10613676
0003a0 4e b7 cd 3c 94 59 8f 3d 52 cd de bd 57 9e 7b bd
       0.02511182 0.069995075 -0.108790055 -0.0614303
0003b0 07 4b db bd aa 09 df bd 50 06 28 3c be e3 1c bc
       -0.1070767 -0.10890515 0.010255411 -0.009575782
0003c0 a5 21 06 bd 15 f3 de 3b b2 a2 83 3d 6d 37 bb 3d
       -0.03274693 0.00680388 0.06427516 0.09141431
0003d0 59 20 8c bd ab e1 a6 3d b4 4a 2c bd 14 77 8a 3d
       -0.06842107 0.081485115 -0.04206343 0.067609936
0003e0 e4 f4 68 bd ff 89 a7 bd 73 43 64 3c 54 b9 cd bc
       -0.05687417 -0.081806175 0.013932097 -0.025112785
0003f0 1f 63 21 3c ef f9 fe bc 81 0d 04 bd ec 4b a9 bd
       0.0098502925 -0.031125037 -0.03223944 -0.08266434

a2c_network.mu.bias f4 [24]
000000 3a 24 d6 3c e2 55 17 bd 7b 9d e0 ba b5 e8 3c 3c
       0.026140321 -0.03694714 -0.0017136777 0.011530091
000010 ea c6 e1 3c a3 11 2b bc 0b 58 d0 3c 5d 96 d0 bb
       0.02756067 -0.010441217 0.025432607 -0.006365581
000020 57 e1 66 bc 75 e2 51 3b cf e1 c8 bc 1e 05 69 3b
       -0.014091811 0.0032025848 -0.024521736 0.0035556029
000030 27 ac 96 3b 3c b8 cc bc df db 4c 3c a6 93 a4 bb
       0.004598159 -0.024990194 0.012503593 -0.005022484
000040 1b fb c3 bb be a0 94 bc 04 98 6e ba 6b 41 37 bc
       -0.005980862 -0.018143054 -0.00091016316 -0.01118503
000050 d1 f3 d6 3c 82 dc b3 3a 1b 1c d1 bc 71 93 6d 3c
       0.026239308 0.0013722333 -0.025526097 0.014500485

exp_avg f4 [24]
000000 ca 4a 13 bb 36 c8 f3 bb 9e 51 0f 3c 85 7b a9 bb
       -0.0022474998 -0.0074396385 0.008747486 -0.0051721954
000010 6e 65 6b 3b 01 4a 08 bb 57 4b 55 ba b1 2c 83 bb
       0.003591861 -0.0020796063 -0.00081365317 -0.0040031304
000020 81 e3 b1 3b 37 29 49 3a b9 a8 0e bb f4 82 21 3c
       0.005428732 0.0007673683 -0.0021768047 0.009857882
000030 87 f3 be ba 10 4e 6b 3a d5 58 70 bb c3 6c e4 bb
       -0.0014568426 0.0008976171 -0.0036674042 -0.006970973
000040 d3 d4 45 bb 30 b4 cd 3a 7a 3b e8 3b 2a 08 8e 3a
       -0.0030186668 0.0015693959 0.0070871683 0.0010836173
000050 5b fd 0a ba 7a c2 69 39 0b a9 12 bb 02 52 63 3b
       -0.0005302035 0.0002229306 -0.002237859 0.0034686332

exp_avg_sq f4 [24]
000000 a2 a9 25 3a 03 a7 4a 3a f7 5b 01 3a eb a6 1e 3a
       0.0006319528 0.0007730575 0.00049346633 0.00060520944
000010 24 03 1b 3a 1d 1a 33 3a e8 bb 17 3a d7 26 2d 3a
       0.0005913249 0.0006832199 0.0005788193 0.0006605214
000020 23 3b 30 3a d9 70 1b 3a 75 77 f0 39 52 38 1e 3a
       0.0006722679 0.00059295964 0.0004586537 0.0006035614
000030 f1 c4 18 3a 45 8c fe 39 6e 13 2a 3a 2c 44 0c 3a
       0.00058276864 0.00048551164 0.00064878806 0.00053507346
000040 21 7c 09 3a 58 47 61 3a c7 ca 16 3a c1 78 0c 3a
       0.0005244632 0.00085937 0.0005752262 0.000535857
000050 e4 bb f6 39 49 19 3b 3a 7a a6 2a 3a c7 b8 14 3a
       0.00047060766 0.00071372517 0.00065097923 0.0005673286
