runs/lift_30-17-13-32/nn/last_lift_ep_75_rew_-78.72923.pth (torch, 654621 bytes, 36 tensors)

value_mean_std.running_mean f8 [1]
00000000: 2085 f9d3 e3d4 79c0
-413.30562207669027

value_mean_std.running_var f8 [1]
00000000: a376 9497 f154 2441
666232.796054561

value_mean_std.count f8 []
00000000: 0000 0000 04c0 1241
307201.0

running_mean_std.running_mean f8 [39]
00000000: 0000 0000 0000 0000 a1ba 93c2 f5ff f73f
00000010: 26d0 1980 c3cc f43f d5f8 c458 f2ff df3f
00000020: f4fa d033 8e99 d93f 0606 f5b9 2933 0740
00000030: d5f8 c458 f2ff df3f ed05 f270 f965 f83f
00000040: fbb1 d862 7e07 ff3f d5f8 c458 f2ff df3f
00000050: deb0 6770 f7ff e33f b3db 9e81 f7ff e33f
00000060: 0000 0000 0000 0000 d5f8 c458 f2ff ef3f
00000070: 0000 0000 0000 0000 0000 0000 0000 0000
00000080: 0000 0000 0000 0000 0000 0000 0000 0000
00000090: 0000 0000 0000 0000 0000 0000 0000 0000
000000a0: f51f 5ac5 3476 6dbf f0f8 3888 ba50 3f3f
000000b0: 1bb1 fcc0 af9e 2340 0000 0000 0000 0000
000000c0: 0000 0000 0000 0000 0000 0000 0000 0000
000000d0: 0000 0000 0000 0000 0000 0000 0000 0000
000000e0: 0000 0000 0000 0000 0000 0000 0000 0000
000000f0: 0000 0000 0000 0000 0000 0000 0000 0000
00000100: 0000 0000 0000 0000 0000 0000 0000 0000
00000110: 0000 0000 0000 0000 0000 0000 0000 0000
00000120: 0000 0000 0000 0000 0000 0000 0000 0000
00000130: d5f8 c458 f2ff bf3f
0.0 1.4999902344385776 1.2999911312044872 0.4999967448128591 0.3999972826021996 2.899981930532479 0.4999967448128591 1.524896088784199
1.9393295155706471 0.4999967448128591 0.6249959178362834 0.624995949902646 0.0 0.9999934896257182 0.0 0.0
0.0 0.0 0.0 0.0 -0.0035964041406408805 0.000477834262912937 9.809934645506067 0.0
0.0 0.0 0.0 0.0 0.0 0.0 0.0 0.0
0.0 0.0 0.0 0.0 0.0 0.0 0.12499918620321478

running_mean_std.running_var f8 [39]
00000000: 0d56 4f0e 764e db3e bf52 ed5d b92f f63e
00000010: 5f13 1266 105d f23e 2b1c 1f54 0811 e13e
00000020: 5ec0 8f51 edac df3e c686 cc3b 3e0f 103f
00000030: 2b1c 1f54 0811 e13e ecef d780 e919 fa3f
00000040: d656 97fa 9eed f63f 2b1c 1f54 0811 e13e
00000050: be5f 7321 b7ba df3f 5b76 1272 87fb de3f
00000060: 0d56 4f0e 764e db3e c56f 053b 704e eb3e
00000070: 0d56 4f0e 764e db3e 0d56 4f0e 764e db3e
00000080: 0d56 4f0e 764e db3e 0d56 4f0e 764e db3e
00000090: 0d56 4f0e 764e db3e 0d56 4f0e 764e db3e
000000a0: aecc bfdb 40e8 f23f 0b95 4df1 50d8 f13f
000000b0: 12a7 4031 51be 443f 0d56 4f0e 764e db3e
000000c0: 0d56 4f0e 764e db3e 0d56 4f0e 764e db3e
000000d0: 0d56 4f0e 764e db3e 0d56 4f0e 764e db3e
000000e0: 0d56 4f0e 764e db3e 0d56 4f0e 764e db3e
000000f0: 0d56 4f0e 764e db3e 0d56 4f0e 764e db3e
00000100: 0d56 4f0e 764e db3e 0d56 4f0e 764e db3e
00000110: 0d56 4f0e 764e db3e 0d56 4f0e 764e db3e
00000120: 0d56 4f0e 764e db3e 0d56 4f0e 764e db3e
00000130: 5444 eeb7 afbb db3e
6.510374281417438e-06 2.1158621048416754e-05 1.751282832575544e-05 8.137957255528464e-06 7.55202679501862e-06 6.126229613958719e-05 8.137957255528464e-06 1.6313262017201806
1.433012942191842 8.137957255528464e-06 0.4957712008158487 0.48410211696486777 6.510374281417438e-06 1.3020706177861618e-05 6.510374281417438e-06 6.510374281417438e-06
6.510374281417438e-06 6.510374281417438e-06 6.510374281417438e-06 6.510374281417438e-06 1.1817024787858759 1.115311567869244 0.0006330391356687856 6.510374281417438e-06
6.510374281417438e-06 6.510374281417438e-06 6.510374281417438e-06 6.510374281417438e-06 6.510374281417438e-06 6.510374281417438e-06 6.510374281417438e-06 6.510374281417438e-06
6.510374281417438e-06 6.510374281417438e-06 6.510374281417438e-06 6.510374281417438e-06 6.510374281417438e-06 6.510374281417438e-06 6.612098217299406e-06

running_mean_std.count f8 []
00000000: 0000 0000 08c0 0241
153601.0

a2c_network.sigma f4 [24]
00000000: 084b c13b b897 d43a 059a a73c 264d 42bc
00000010: 3d9b 493b ac92 e53b 345c cd3a a84a 043d
00000020: e505 b1bb c3b8 f9bb 9af4 cdbb 2d2d d4bb
00000030: 74d5 60bb 3a95 92bb 7c5b d638 cec2 20bc
00000040: 69d6 493c 9bf3 49bb b1d0 8ebc 7660 8b3b
00000050: 2e15 c7bc e6b0 7cbb b243 4d3b 7d0b abbc
0.005898837 0.0016219532 0.020459184 -0.011859214 0.0030762695 0.00700601 0.0015667737 0.03229776
-0.005402314 -0.0076209023 -0.0062852623 -0.006475112 -0.0034306915 -0.0044733556 0.000102213555 -0.00981207
0.012319186 -0.0030815366 -0.017433496 0.0042534424 -0.024302091 -0.0038557588 0.0031320867 -0.020879501

a2c_network.actor_mlp.0.weight f4 [256, 39]
00000000: 38d9 4ebd 45cc 883d 98ca a0bc 9ad9 b93d
00000010: 675b 2a3e 719c ee3d bc11 3fbd 7f41 b23d
00000020: 5f59 0f3d a55f d63d 009f eabd 1b88 2abe
00000030: 7568 7dbd 053b cbbd 768b 063e 58ea 3c3d
00000040: 94d6 873d 516e 4f3d 5c8e 36bb 4353 003e
00000050: f0a7 e5bd a540 3b3c 7e3d aebd 503e 4a3d
00000060: 09e0 61bd 4bf9 483d e5a5 08bd 14ff 073e
00000070: 435f c2bd 8f95 c3bd 9598 c3bd 947b 133e
00000080: 0a93 5a3d 0bc8 1d3e 5152 07be 9fa3 22be
00000090: ff48 00be 729a dcbd 9a66 b43d 46db 6a3d
000000a0: da35 c83d 57aa f1bd befb 12be 2aea 4e3d
000000b0: e480 cdbd c9a1 803d d33c 3ebd 6bb5 503d
000000c0: 479a 22be b865 aebd 9bcc f73c b5a8 0a3d
000000d0: ec12 9bbd fa79 c33d 34f0 de3d acd0 edbd
000000e0: fa13 afbd 6824 163e 1f51 5dbd c4dc 6dbd
000000f0: 5299 21be b3e4 02be abd7 233d 0825 adbc
00000100: 800c eebd 8328 763b ec02 e0bd d61c 0bbe
00000110: ed95 b4bd 7582 0fbe 3dd0 d0bd 37e8 233e
00000120: aec2 f73c 071e 4a3d f2ee 18be 4e62 d7bd
00000130: ab50 5abd ac0f 14bc 2248 10be 363e b6bd
00000140: cf4f edbd d523 9bbc 5ed7 a1bd 884b 00bd
00000150: 7bf5 02be 7efa 07be 59aa d8bd 8ef2 97bd
00000160: e95b ffbd 02a9 103e 682b 02bd 9bc7 f13d
00000170: ab5c 4c3d b0d9 0abe 9df2 e23d 9d76 34bd
00000180: f36a 7bbd 901b 08be be9f 16be 1ca5 4b3d
00000190: edab 63bd e559 7f3d b090 06be 5a79 f33d
000001a0: 35ba f0bd f781 e2bc 96fe 083d 064d a93d
000001b0: 2b60 043e 005f 153e 3404 02be 9410 253d
000001c0: 7a0e 8dbd 03c0 8fbc 3076 f5bd c75a 153e
000001d0: 2100 0cbe ed44 af3d 8b30 ac3d 2c8b a33d
000001e0: 764b 74bd 58b0 303e 7caa 813d 06ae 423d
000001f0: 41c3 07be 84fd d43d 938f 3e3b deb2 97bd
00000200: 623b 1a3e 8f3a 123d da95 7abd 04fc a5bd
00000210: fa93 fabb 411c b73d cc99 27bd a01d bbbd
00000220: 659a 60bd f358 f2bd f093 7d3d 9340 1c3e
00000230: 7f5e 1abe 6854 183d 9169 a93d c5dc ed3c
00000240: a793 69bd bf2a ab3d 8c56 ac3d d340 753d
00000250: 8b81 e6bc ddad 2dbd 9755 8c3c c1ba e7bc
00000260: 5374 43bd 819f d13d b3ea 0c3e a40a 313c
00000270: bfd9 12bd 0ce6 afbc acce 08bd 1fdf 7e3c
00000280: a312 b33c dda8 2dbe 6b01 a8bd bf94 053e
00000290: 2138 c93c 342c fdbc 0763 b0bd decf e4bd
000002a0: 47e1 12be 8ae0 9abd bd7e 5d3d 6b1a d13d
000002b0: 0069 973d fff0 10be 5836 c5bd e404 cfbc
000002c0: f707 203e aaca 4a3c 9881 87bd bfac 873d
000002d0: 80d0 79bd 3a43 d4bd 6b5c ef3d b31d 95bd
000002e0: ad7b 03bd 891e 23be 757b db3d e775 f83d
000002f0: 3b09 6f3d 72aa e4bd 6ad4 21be 8a2c 05be
00000300: f88b f43d 7272 9d3d 6d8c e53d 96cc ab3d
00000310: 784f cd3c 5a93 8bbc c0a4 0bbe ca7d 1bbe
00000320: 0983 29be e3b9 503d 6e32 bbbd 5be5 95bd
00000330: ca9d dabd 0b14 1fbd 5aa6 04be 6148 d6bd
00000340: 6bc9 1b3d 37ed 42bd fa73 ca3d e369 52bd
00000350: 5d91 f0bd 7f72 e7bc 21f8 9ebd a6d3 54bd
00000360: 1f70 1abe 7240 963d a550 e4bd 66d4 a43d
00000370: abd0 943d f64a ea3d 868c fbbd ebda eb3d
00000380: 0b09 9bbd f160 733d dffc 193e 5700 b9bc
00000390: f94f a2ba 3701 17bd d7e9 08be 6a61 9d3d
000003a0: f4c6 22be 984e ae3d f15f f53d 2ddd 2a3e
000003b0: ba08 b7bc ea2a edbd 32e4 533d d880 d43d
000003c0: 990f 13be f0ad 89bd 6888 b9bd 0b69 e63a
000003d0: d4f8 c7bd a492 3ebd 6b37 50bd 40dc 0bbe
000003e0: 258a 063e 5276 093e adc6 cdbc 1663 95bc
000003f0: 00d7 85bd 8913 14be f21b 1bbe 1aba 9e3d
-0.050500125 0.06679586 -0.019627854 0.09074707 0.1663643 0.116509326 -0.046647772 0.08703899
0.03499734 0.104674615 -0.11456108 -0.16653483 -0.061867196 -0.099233665 0.13139138 0.046121925
0.066327244 0.050642315 -0.002785585 0.12531762 -0.11213672 0.011428987 -0.085078225 0.049375832
-0.055145297 0.04906587 -0.033361334 0.13280898 -0.09490826 -0.095500104 -0.09550587 0.1440261
0.053362884 0.15408342 -0.13214995 -0.15882729 -0.12527846 -0.107716456 0.08808632 0.05733802
0.09775896 -0.11800068 -0.14353845 0.050516285 -0.100343496 0.06280858 -0.046444725 0.050954264
-0.15879165 -0.08515495 0.03024893 0.033852298 -0.075719684 0.095447496 0.10885659 -0.116120666
-0.08548732 0.14662325 -0.05403244 -0.058071867 -0.15781143 -0.12782554 0.0400006 -0.021135822
-0.11623478 0.0037560768 -0.10938057 -0.13585219 -0.088176586 -0.14014609 -0.10195968 0.16006552
0.030244198 0.049345043 -0.149349 -0.10516797 -0.053299587 -0.00903694 -0.14090016 -0.088985845
-0.11587488 -0.018937984 -0.07902406 -0.031322032 -0.12788956 -0.13279149 -0.10579366 -0.074193105
-0.12468702 0.14126971 -0.031779677 0.1180565 0.049893063 -0.13559604 0.11081431 -0.04405843
-0.06138129 -0.13291764 -0.14709374 0.049718007 -0.055583883 0.06234159 -0.13141131 0.1188838
-0.11754266 -0.027649863 0.033445917 0.08266644 0.1292731 0.14587021 -0.12696916 0.040299013
-0.06887527 -0.017547613 -0.11985433 0.1458541 -0.13671924 0.085580684 0.08407696 0.07985529
-0.059642278 0.1725477 0.063313454 0.047529243 -0.13258077 0.10399917 0.0029077276 -0.07407163
0.15061715 0.035700377 -0.061178066 -0.08104709 -0.0076470347 0.08940936 -0.040918157 -0.0913651
-0.054834742 -0.11833372 0.061908662 0.15259008 -0.1507511 0.03718987 0.08272088 0.029035935
-0.057025578 0.083577625 0.08414945 0.059876274 -0.028137943 -0.042402137 0.017130656 -0.028287293
-0.047718357 0.10235501 0.13761406 0.01080576 -0.03585219 -0.021472 -0.033400223 0.015556126
0.021859473 -0.16958947 -0.082033955 0.13045023 0.024562897 -0.030904867 -0.08612638 -0.1117246
-0.14343749 -0.07562359 0.054075945 0.10210117 0.07393074 -0.14154433 -0.09629506 -0.025270887
0.15628038 0.01237742 -0.06616515 0.066247456 -0.060989857 -0.10364385 0.11687549 -0.07281055
-0.03210037 -0.15929617 0.10716907 0.12131863 0.058358412 -0.11165322 -0.15803686 -0.13005272
0.119407594 0.07687844 0.11208425 0.08388631 0.025062308 -0.017038036 -0.13637066 -0.15184703
-0.16553892 0.050958525 -0.09140478 -0.07319137 -0.10674627 -0.038837474 -0.12954083 -0.10463024
0.038033884 -0.047589507 0.09885402 -0.051370513 -0.11746476 -0.028252838 -0.077621706 -0.051959656
-0.15081833 0.07336511 -0.11148194 0.08048324 0.07266363 0.11440079 -0.12282662 0.11516365
-0.07570084 0.059418622 0.15037869 -0.02258317 -0.0012383453 -0.036866393 -0.13370453 0.07684596
-0.15896207 0.08511084 0.1198119 0.16685934 -0.022343028 -0.11580451 0.051731296 0.103761375
-0.14361419 -0.06722629 -0.090592206 0.0017578913 -0.09764257 -0.046526566 -0.0508341 -0.13658237
0.13138635 0.13424042 -0.02511915 -0.018235724 -0.065351486 -0.14460577 -0.15147379 0.0775034

a2c_network.actor_mlp.0.bias f4 [256]
00000000: 8379 083d 2044 56bd bfb9 00bd e2e4 423d
00000010: 8516 21bd 1ac6 d9bc 687f 993c c261 033d
00000020: 988b 11bd be38 513d 055d 21bd 08ac 97bc
00000030: 1d8c 1b3d 7b33 f33c 58e5 54bd 9438 57bd
00000040: 9e78 e13c c599 4a3b 1bc7 acbb 7f71 8abc
00000050: 8d0c 2abc 706b 173c ee5e 413b fe58 50bd
00000060: cc67 e83b e445 d1bc 6f13 c53a 9dda 5e3c
00000070: f2e8 383d a196 dc3c 5d89 d03c e14b b7bb
00000080: d30f 4e3d 09c1 4c3d 938c 2b3d 81c6 30bd
00000090: 6962 f3bc bfcd 5ebd 162f 013d d7ed 32bd
000000a0: c11e 2dbd 5cd5 8cbc 8229 60bd b7f2 4dbc
000000b0: 721e 36bd f9f0 ef3c 88b5 13bd 6724 c13c
000000c0: 2e48 26bd dc68 debc d3fd b3bc f1ec 3e3d
000000d0: d606 d33c b3bb 133d 4b32 00bd 766e 03bc
000000e0: 79ed 59bc 5d64 943c e434 1e3c 9e8a 51bd
000000f0: d38d 45bd 2800 4ebc 4ff2 c4bb 17c4 0d3d
00000100: 8e57 3dbd d755 563d 7faa 3fbd bdae 3cbd
00000110: 7890 53bd 15de e23b 4a80 48bc af44 2bbd
00000120: 59cb 0f3d 1c77 183d 365c 9f3c cd6b 1dbc
00000130: d18f 4d3d 9f89 543d e8bb 56bd 6205 9abb
00000140: 682b 42bd e794 3d3d 6e47 c73c a95f 0b3d
00000150: a924 69bc bf78 d9bc 0f2f cebc 3abb cdbc
00000160: 7ae3 39bc fd43 9abc bf1e 38bd 89b3 4fbd
00000170: 228b 5f3d d304 463d 2a01 2e3d 9251 15bd
00000180: b78d c0bc 1ef5 abbc b847 97bc 2dde 5dbc
00000190: c879 423d 766e c43b 9cad 0a3d bb65 203d
000001a0: 761d 5f3c 42a4 0cbd 5d57 343d a747 22bd
000001b0: a6c5 2bbd 93d8 963b e308 50bd 1db2 28bd
000001c0: 3856 67bc fdfb 2a3d a268 4ebd 4915 2b3d
000001d0: 8577 4d3d 2932 f9bc f14c bbbb 941f 2ebd
000001e0: 6943 ca3b 192a 87bc ae37 20bd a32f 583b
000001f0: 235c 25bc 874b 00bd 9363 debb b81a 403d
00000200: e4bc 403d 1e52 1dbb bb13 b5bc f80a 6d3c
00000210: e067 4dbd 02cb 96bb 5f6e 0cbb 75fc ed3c
00000220: be3d bd3b 5eb8 0fbd ddd1 1dbd 110e 3d3d
00000230: e7fe 35bd 5744 4f3d a0fd 6b3d 1f64 313d
00000240: 3853 2e3d d78e 6abc 6a42 983c bf5d 01bc
00000250: e96c e93c 4cf1 503c f93f 693d 1269 8a3c
00000260: e6fc 123b 0007 47bd 5a05 753c 2aaf eb39
00000270: edbe 49bd cec1 223d e18e f1bc 0d12 063c
00000280: 9c3a 4cbd 2d22 e8bc 6059 38bd e5b7 5bbc
00000290: 13c3 4cbc bca9 613d d3e8 b33c 4fb8 2dbd
000002a0: 8337 f93b 0812 673c 8c7b 423d aaa5 1b3d
000002b0: 4ddc bdbc 965f 093c ffbb e93c 815e 45bd
000002c0: 36a5 503d a04e 06bc dd54 cdbc 78ef 41bd
000002d0: 783c c9bc f984 523d 6e19 02bd 1d2d 3b3d
000002e0: d9c6 bdba e936 443d 9f80 213c 4a63 6bbc
000002f0: 8b24 23bd 594a 733c f85b 4d3d 19b8 20bd
00000300: 57c1 4a3d 9872 efbc 36d3 833c 0b77 fabc
00000310: e792 433d 5732 19bd c83f 8fbb f6e1 49bd
00000320: 269d e33c eab6 3ebd 06b3 473d ac59 473c
00000330: 708d a2bc 5709 d3bc 2e1a 45bc 5c3b dc3c
00000340: 8915 8d3c 7ed9 e3bc f0ef b5bc b1c6 1fbd
00000350: d898 5abc cc04 083d 6701 2b3d 38dc 843b
00000360: 03dd bebc fe0c 53bd 924a 553d ee51 1f3d
00000370: 4b85 013d 131d 0c3d c553 373c 956e 4dbc
00000380: ab2b 8a3b 3737 9fbc 6293 05bd 14d9 1ebc
00000390: 3f0a cabc 8891 aabc 918b f23c 9011 a23b
000003a0: f331 40bd 2ba1 babc 6825 623c 6fb0 f63c
000003b0: 44cb 6e3c 4604 773c aa5d 53bb e5b2 4ebd
000003c0: 21f9 f03b 7cb7 99bb 872d 2f3d 7de7 423d
000003d0: b669 b73b 2558 1e3d ea2b 493d 1086 073d
000003e0: cbe0 51bd 58c5 433d 381f 003d 2219 8f3b
000003f0: 9262 f03c c165 1c3d c409 253d de91 c8bc
0.033319008 -0.052311063 -0.03142714 0.04758156 -0.039328117 -0.02658372 0.01873751 0.03207565
-0.035533518 0.051079504 -0.03939535 -0.018514648 0.03797542 0.029687634 -0.05197653 -0.05254419
0.027523335 0.0030914408 -0.0052727587 -0.016899822 -0.010378969 0.009241924 0.0029506045 -0.05086612
0.0070924517 -0.025546022 0.0015035699 0.013601926 0.04514403 0.026927294 0.025456125 -0.0055937623
0.05030806 0.04998878 0.04188211 -0.043158058 -0.029710012 -0.054395434 0.031539045 -0.043683853
-0.042265657 -0.017191581 -0.054727085 -0.012570075 -0.04446263 0.02928971 -0.036061794 0.023576928
-0.04059618 -0.02714961 -0.021971619 0.046612684 0.025760096 0.036067676 -0.031297963 -0.008021941
-0.013301247 0.018114263 0.009656165 -0.051157586 -0.048230957 -0.012573279 -0.0060103307 0.034610834
-0.046226077 0.052327957 -0.046793457 -0.04606508 -0.051651448 0.006923447 -0.012237618 -0.04181355
0.035106037 0.037222967 0.01945315 -0.009608221 0.050185982 0.05188906 -0.052425295 -0.0047003487
-0.047404677 0.046284582 0.024326053 0.034026776 -0.014229932 -0.026546834 -0.025168924 -0.02511369
-0.011345739 -0.018831247 -0.044951197 -0.050708327 0.054576047 0.048344444 0.04248158 -0.036454745
-0.023505075 -0.020990904 -0.018466815 -0.01354174 0.04747942 0.0059946133 0.033856973 0.039159518
0.013617864 -0.034336336 0.04402863 -0.039619114 -0.04193654 0.0046034544 -0.050789725 -0.041185487
-0.014119677 0.04174422 -0.050392754 0.041768346 0.05016281 -0.030419426 -0.0057159592 -0.042510584
0.0061725867 -0.016499566 -0.0391156 0.0032987378 -0.010092768 -0.03132203 -0.0067867725 0.04690048
0.04705514 -0.0024005244 -0.022104135 0.014467947 -0.05014789 -0.004601837 -0.002142809 0.029051045
0.0057751825 -0.035087936 -0.03853022 0.046155993 -0.044432547 0.050602283 0.057614923 0.043308374
0.042559832 -0.014316282 0.018586356 -0.007895886 0.028494315 0.012752842 0.056945775 0.016895805
0.0022428571 -0.04859066 0.014954889 0.000449532 -0.049254347 0.039735608 -0.029487075 0.008183015
-0.04986058 -0.028336609 -0.04500711 -0.013410543 -0.012497681 0.055093512 0.021961605 -0.0424121
0.0076054945 0.01410342 0.047481105 0.037999786 -0.023176337 0.008384606 0.028532026 -0.04818583
0.050938807 -0.008197457 -0.02506488 -0.047347516 -0.024564967 0.051396344 -0.031762533 0.04569732
-0.0014478817 0.04790393 0.009857326 -0.014366934 -0.039829772 0.014849269 0.050136536 -0.03923807
0.04950079 -0.029229447 0.016091924 -0.030574342 0.04774752 -0.037401523 -0.004371617 -0.04928776
0.027784895 -0.04656116 0.048754714 0.012167376 -0.019842833 -0.02576129 -0.0120301675 0.026883774
0.017222183 -0.02781367 -0.022209138 -0.039007846 -0.013342105 0.0332077 0.041749384 0.0040545724
-0.023298746 -0.051526062 0.05207307 0.038896494 0.03162126 0.034207415 0.011189406 -0.012538572
0.0042166314 -0.019435508 -0.03261126 -0.00969531 -0.024663089 -0.020821348 0.029607566 0.0049459413
-0.046922635 -0.022781929 0.013802864 0.030113427 0.0145748295 0.015076702 -0.0032251873 -0.050463576
0.007353917 -0.0046910625 0.042768028 0.047584046 0.0055973185 0.03865828 0.049114145 0.033086836
-0.05123977 0.047795624 0.031279773 0.0043670097 0.029343877 0.038182978 0.040292516 -0.024483617

a2c_network.actor_mlp.2.weight f4 [128, 256]
00000000: 3451 de3c d3f2 d6bb ce00 083d 5b71 f1bc
00000010: 4ba1 82bd 078d 893d 4788 34bd e1ea 43bd
00000020: 78cf 14bd a413 b7bd 2b62 91bc 9af3 3bbd
00000030: bf4f 8c3c 6c35 92bd ad7d cebc d188 8dbc
00000040: ad26 91bd 081b c93b a2e5 12bc c999 0c3d
00000050: 827c 843d 60b8 71bd 4a06 20bd 073f da3c
00000060: 1714 0c3d 7203 fd3c 6cc3 27bc 3dfa 103c
00000070: 8fd9 83bd 3899 8cbd 70f9 27bd a2b7 86bd
00000080: b980 a3bd abcf 70bd e406 bc3c 82d6 b33c
00000090: db7a d03c 7c90 36bc f65b 8dbc 4553 553d
000000a0: 129d 08bd 7f2e 2b3d 8068 ec3c 6378 96ba
000000b0: 2974 a93d 3daf fb3b c43b 2abd 8f65 993d
000000c0: cf99 9c3c a5d9 3c3d df2f 63bb da74 3bbd
000000d0: 1495 543d c088 b4bc 4f8a 3b3d 1a12 2a3c
000000e0: df00 323d aa2d 66bd fbad 14ba 2d9b 813d
000000f0: 7c2e dcbb 4405 373d 99e2 333c 1d4b 053d
00000100: 57a1 6c3d b556 1bbd 259f c53b 285a 823d
00000110: 03c3 a1bc ab39 9ebd 6e05 693d ec01 3dbd
00000120: 71ea 03bd c297 c23c 6c4a 263b 1f7e 7cbc
00000130: 7231 78bc 707b 0d3d 7ec2 30bd cc80 463d
00000140: c3d7 cb3c 14cb 73bd 6d54 8dbd 6561 04bd
00000150: 6997 833d ccb1 6dbc 9a03 30bd 347b e6b9
00000160: 2376 683d ba02 623c 3af3 ab3d 2a83 ae3d
00000170: 080a 183d 55d9 03bd b48e 83bd a9fb 3cbd
00000180: 4961 a5bb f00e 5cbd 802b 043d 1c81 ad3c
00000190: bbed da3c b1a7 96bd eb61 53bd b802 bdbc
000001a0: 5460 463c fa70 9a3d 57d4 16bd 76c3 4e3d
000001b0: 0475 a5bc c3b1 413c 4e95 613a 150d 8ebc
000001c0: aefc 7ebc b28b 54bd fc08 883c 3aaf 66bd
000001d0: 67f4 6abd 211e debc d32b 8bbd 6320 233c
000001e0: 8968 6fbd 2812 a53d 7b08 acbc 8a4f fb3c
000001f0: 36e3 3dbd 9a62 173d ad0e 84bd 72b4 b1b8
00000200: 1d9e 253d b4c3 9fbd 6095 a13c a751 a3bc
00000210: 34f0 e1bc 48a8 76bc 2eac 803d cb59 03bd
00000220: 447c 5b3d 9f82 833b 3574 843d 919d 96bc
00000230: 55b3 113d 1adb 96bc a35f 3f3d e033 86bd
00000240: 5b3d 73bc 50c1 b0bc 60ab 38bd e2c6 c43c
00000250: 33d5 8c3c f3d8 f13c c3d0 0ebd 272a e83c
00000260: d8e8 1fbd 372b 913d 998e 81bd ae63 5bbd
00000270: fb75 113d 73ba 82bc 4c25 2a3d cc0b 4f3d
00000280: 5265 8a3d 97da 0f3d 74fb 21bd ccc3 543b
00000290: ced7 f13b 1e78 a7bd fad5 cc3c 6ff7 963d
000002a0: a640 27bd f170 3abd 0bf7 98bd bdde afba
000002b0: 0848 103d 5b05 76bc 9e1a 133d d5f2 8b3b
000002c0: 7996 8b3b 2c3a 443d bed1 07bd 08df b6bc
000002d0: 392a 1f3d 77e8 67bd b5aa 3b3d 6ac5 a5bc
000002e0: c29a 8d3d fc8c afbc 1a8e 19bd eb6a 18bd
000002f0: 908d 003d e628 3cbd f07d 7abc 1748 6b3d
00000300: 8137 87bd dd71 1fbd c3c6 4c3c 65e1 f1bc
00000310: a709 3cbd 4d4d 203d 0500 83bd b1f4 2b3b
00000320: 8883 65bd e2d6 693c dda8 d33b 82e0 063c
00000330: 91ad e13c 8789 4e3a 3e05 a8bb 1259 103d
00000340: f9f3 e0bc ef08 053d 3f25 3dbd b9d5 fabc
00000350: 46a0 19bd 1028 39bd c4d2 0fbb 1875 26bd
00000360: d55c 593c 9542 903d 32ed 9bbc 26e6 febb
00000370: af64 08bc ed78 1d3d 7b03 1e3d 166e 2b3c
00000380: 6774 233d 7b78 213c 2143 323b 9b93 03bd
00000390: 88aa c5bc f8db 8e3d 1c2f 3fbd 252a 91bd
000003a0: d2cd 07bc 75ba 013d fcbe 75bc 0dc3 afbb
000003b0: 8530 013d ba21 b83c cecf 42bd 1573 003d
000003c0: f0b4 733c d85c c1bc e9fe 84bb 3262 9ebc
000003d0: 1ea2 76bc dc41 033d 4a63 f43c 21a2 693d
000003e0: 18d2 083d 2c68 793c c330 ab3c 2188 7dbd
000003f0: ebc4 b73c caaa 33bc a385 a63c 16e9 1dbd
0.02713833 -0.0065597086 0.033203892 -0.029472997 -0.063784204 0.06716352 -0.044075277 -0.04783142
-0.03633067 -0.08939293 -0.017747005 -0.045886613 0.01712787 -0.07139096 -0.025206411 -0.017277153
-0.07087455 0.0061372556 -0.008965882 0.03432635 0.064690605 -0.059013724 -0.039068498 0.026641382
0.034198847 0.030885432 -0.010239463 0.008848724 -0.064379804 -0.06865162 -0.041009367 -0.06577994
-0.07983536 -0.058791798 0.022952504 0.021952871 0.025449207 -0.011142846 -0.017255764 0.052081365
-0.03335292 0.04179239 0.028858423 -0.001147997 0.08274109 0.007680802 -0.041560903 0.07490074
0.01911631 0.046106 -0.0034665985 -0.045765735 0.051899984 -0.022037864 0.0457862 0.010380292
0.043457862 -0.056195892 -0.0005671677 0.063284256 -0.0067194086 0.044682756 0.010979318 0.032542337
0.057771053 -0.037924487 0.0060309344 0.06364852 -0.01974631 -0.07725843 0.056889944 -0.04614441
-0.032206003 0.023754004 0.0025373949 -0.015410929 -0.015148507 0.034541547 -0.043154232 0.048462674
0.024883157 -0.059519842 -0.069008686 -0.032319445 0.064253636 -0.014507722 -0.042972185 -0.00043960812
0.05675329 0.013794595 0.08396001 0.08521111 0.03711894 -0.032189686 -0.06423703 -0.04613844
-0.0050469977 -0.053725183 0.032268047 0.021179728 0.026724687 -0.07356203 -0.051607054 -0.023072585
0.012107927 0.0754108 -0.036823597 0.050479375 -0.020197399 0.011822167 0.0008605317 -0.017340222
-0.015563173 -0.051891036 0.016605847 -0.056319453 -0.057361986 -0.027113976 -0.06795468 0.009956452
-0.058449302 0.08060104 -0.021000138 0.030677576 -0.046359263 0.03695927 -0.06448112 -8.473628e-05
0.04043399 -0.07800999 0.019724548 -0.019936396 -0.027580358 -0.01505477 0.06282841 -0.032068055
0.053585306 0.004013374 0.06467477 -0.01838568 0.035571415 -0.018415023 0.046722066 -0.06552863
-0.014846171 -0.021576554 -0.04508531 0.024020616 0.017191505 0.029522395 -0.03486706 0.028340412
-0.039040416 0.07088321 -0.063260265 -0.05356186 0.035512906 -0.015958047 0.041539475 0.05054836
0.067576066 0.035120573 -0.039546445 0.0032465337 0.0073804623 -0.081772074 0.025004376 0.07371413
-0.040833138 -0.045517866 -0.07468995 -0.0013417822 0.035224944 -0.015015925 0.035914056 0.004270891
0.004259881 0.04790704 -0.03315901 -0.022323146 0.038858626 -0.05661818 0.045817096 -0.020235736
0.06914283 -0.021429531 -0.037489034 -0.03721134 0.031385005 -0.04593744 -0.015288815 0.057441797
-0.066023834 -0.038926948 0.01249856 -0.029526422 -0.045907643 0.03913622 -0.06396488 0.0026238377
-0.05603364 0.014272423 0.006459339 0.008232238 0.027548583 0.00078787695 -0.005127578 0.035241194
-0.027460085 0.032479223 -0.0461781 -0.030619489 -0.037506364 -0.045204222 -0.0021945694 -0.040639013
0.013266762 0.070439495 -0.019034002 -0.0077789007 -0.008324786 0.038445402 0.038577538 0.010463258
0.03990593 0.009855385 0.0027200656 -0.03212319 -0.024129167 0.069755495 -0.046675786 -0.070881166
-0.0082888175 0.03167196 -0.0149991475 -0.005363828 0.031540412 0.02247702 -0.04756146 0.03135975
0.014874682 -0.023603842 -0.004058708 -0.019333933 -0.0150533 0.03204523 0.029832501 0.057039384
0.033403486 0.01522259 0.020897275 -0.0618974 0.022432765 -0.010966012 0.020327395 -0.038552366

a2c_network.actor_mlp.2.bias f4 [128]
00000000: b924 03bd 3e15 fdba ee3d 843c 1fb0 103d
00000010: 2b9e 07bd 28de 12bd 94e6 19bd 1f33 363d
00000020: 1d2f 7b3b 1ff5 143d b5c2 f33b 4b38 123d
00000030: c5d3 303d b3b1 8b3a a4ed b8bb 68de 303d
00000040: a78f 1fbd e763 14bd bbd5 ec3c 3f53 fabc
00000050: 1707 18bd 2778 c73c 41d8 133d 1f32 1d3c
00000060: 0f03 123d ae6d af3c 11f9 24bd 48de 0ebd
00000070: 119c e83a 186a 0abd da29 c13c 6dff 15bd
00000080: b45d b4b9 bddd 16bd 8415 e838 2ac5 5b38
00000090: 3493 763c 097d acbc c65b d13a 6298 08bd
000000a0: 70ef 16bd f1dc 1dbd 765c 2dbd 8eea 25bd
000000b0: e2f4 533c ba8a a4bc 25d8 b6bc 0382 343d
000000c0: 0a15 ec3c e854 0fbd 89d5 e7bc fae9 373d
000000d0: 7f95 55bb b47c bebc 3059 23bd 3f11 8fbc
000000e0: a3bc 3c3d 1eac 8cbb 6440 f13b d6a1 083d
000000f0: c6e4 b43c ec78 2b3b 3fdf d9bc 331a bc3c
00000100: 0731 373c 767a 2f3d 1c4a 3b3d 1f1a 253d
00000110: ebed 84bc 3239 83bc 4778 ea3c 3368 953b
00000120: aad6 e2bc 0fa6 233c b2c3 00bd 02b9 333c
00000130: a116 fd3c 3a0a ec3c d2bf 2a3d 4663 17bd
00000140: 8091 403d 680d d6bb ec85 1dbd 1e02 2c3d
00000150: bc24 03bd 3ff4 833c 5a74 75bc 9d3f 1dbd
00000160: 6170 873c 8aa1 1ebb 1aab 2f3d bb8f 1cbd
00000170: 1a8b 1d3d 1a05 383d 2bd8 3c3d d411 22bd
00000180: 1f4b 443d 6909 10bd 3957 383d 3f52 7cbc
00000190: 5384 16bb 3392 1c3d 277e e23c d989 50bc
000001a0: e8f6 1b3d bb03 21bc e98c c23c cdb1 e8bc
000001b0: 8b07 c93b 061d 16bc c277 393d 79a9 0dbd
000001c0: 0c5a 2cbd d81e 223d 67e6 2abc 659d 3f3d
000001d0: 5d5f 223d 26a8 093d 62c4 c1bc 14c8 d5bc
000001e0: 9d82 32bd 51af 06bd 6f38 fa3c 9cb5 09bd
000001f0: 1328 193d 73b3 27bd 021b 403d 82b3 4cbc
-0.032017443 -0.0019308699 0.016142812 0.035324212 -0.033109825 -0.035856396 -0.037573412 0.044482347
0.0038327642 0.03636658 0.0074389824 0.035698216 0.04317071 0.0010657817 -0.0056435633 0.043180853
-0.038955357 -0.036228087 0.028910508 -0.030557273 -0.037116136 0.024349285 0.036094908 0.009594469
0.03564745 0.021414604 -0.04027659 -0.034879953 0.0017746707 -0.033792585 0.023579527 -0.036620546
-0.0003440209 -0.03683256 0.0001106663 5.2397292e-05 0.015049744 -0.021055715 0.0015972785 -0.03334845
-0.03684944 -0.038540784 -0.042324506 -0.040506892 0.012936803 -0.020085681 -0.022319863 0.0440693
0.028818626 -0.034993082 -0.028300064 0.04490087 -0.0032590327 -0.023252822 -0.039879978 -0.017464278
0.046078335 -0.004292979 0.0073624123 0.033357464 0.022081744 0.0026164604 -0.02659571 0.022961712
0.011181123 0.042841397 0.045724973 0.040308114 -0.01622673 -0.016018484 0.028621806 0.0045595407
-0.02769025 0.009988322 -0.03143663 0.010969402 0.03089458 0.02881347 0.04168684 -0.03695991
0.04701376 -0.00653236 -0.038457796 0.041994207 -0.032017455 0.016107677 -0.014981354 -0.038390744
0.016533079 -0.0024205172 0.042887785 -0.03822301 0.038462736 0.04492674 0.04610459 -0.039567783
0.047923204 -0.035165224 0.045005057 -0.015400468 -0.0022967055 0.038225364 0.027648045 -0.012728178
0.038077265 -0.00982755 0.023748832 -0.028405095 0.0061349324 -0.009162193 0.045280226 -0.03458545
-0.042078063 0.039580196 -0.010430909 0.046780962 0.039641727 0.033607624 -0.023653213 -0.026096381
-0.043581594 -0.03288204 0.030544488 -0.03362046 0.037391733 -0.04094262 0.046900757 -0.01249397

a2c_network.actor_mlp.4.weight f4 [64, 128]
00000000: 0932 1e3d 3f37 9abc 0570 7fbc f35e 9d3d
00000010: 9670 353d ffbd 8f39 fbb9 01bd 3ebf 02bc
00000020: 9567 9dbd b8f6 a23d 915f 71bd 9971 583d
00000030: 578c 963d 75f6 d93c fbbc b03d 18a6 62bd
00000040: faa2 8c3c e667 593d 2932 98bd 4544 a5bd
00000050: 38bc d93c 4de2 8f3d 2589 693d e8b6 223d
00000060: 488b 073d 4fe0 5a3d 8288 83bd ab32 99bd
00000070: c465 af3d cc26 ebbc a20c 2bbc ed08 d1bc
00000080: d320 d13c f867 ca3c 0cc1 ac3d 2520 bcbb
00000090: 5f11 5f3c b43d 4abc f638 643d 8a54 5a3c
000000a0: 3974 ba3d f494 61bd 0a4a e5bc 8cbb 6c3d
000000b0: 40f2 c4bd 5556 c7bc 3ace 303d da5b 52bd
000000c0: db0b 7ebd bf5c 1bbc 211e 9a3d 1004 a039
000000d0: 3a61 40bc 7e3f 8cbd 841c 19bc 7745 513d
000000e0: c360 a6bd e3e6 9f3d 6d39 d1bb ada5 813d
000000f0: dc8c e13b 015f a4bd ffa4 353d 58cc 87bd
00000100: 49af dc3c 2e20 88bc ebfc a0bd 73b0 5f3c
00000110: fcc5 25bd 9b60 7d3d b759 08bd e375 90bd
00000120: f999 93bd 8307 5fbd 37fd 983d 870e b53d
00000130: 48a8 1d3d 74bd adbd fcbe 233c 61de 34bd
00000140: 61f2 093d 173d 873d e1f9 483d eb3f bc3a
00000150: d488 e9bb 30a3 06bd 595c 57bd 5c20 29bd
00000160: 50ad 483d 59ec aa3d b0d5 9fbc 97bf c73d
00000170: 1362 c93c 35ee 1ebd 41ea 443d 81b2 72bd
00000180: 42d9 383b 65bc 46bd 4af1 d03c 2800 613c
00000190: b9b8 cb3b 18a0 03bd 6e47 8ebd f506 12bc
000001a0: a434 1b3d ccff 79bc 215b 38bd 9f4e 9c3d
000001b0: b9c8 fdbb 6905 bc3c 247a 063d 93fe e9bc
000001c0: 5d67 34bc 5a16 b7bd 2506 3d3d 0cfa 553d
000001d0: f77a 99bd c7eb 443d e9bd abbc cf86 663d
000001e0: 7531 0c3d 56d7 d73c e91d bc3c 2eca d93c
000001f0: 0e87 6ebd 153c 59bd d62d 743d 9ffc b13c
00000200: 8a60 ebbc 45b3 b33b f673 5db9 9065 60bd
00000210: 4338 f93c 7696 99bd a239 3fbd de71 74bc
00000220: d120 c43d fd71 50bc 67c0 463b ea7c e73c
00000230: 8d62 c33d 71dc ed3d e777 1c3d 4e55 843c
00000240: 0ea3 9f3c a970 65bb a7c5 5ebd 2e14 bbbc
00000250: 0d21 0d3d 5167 40bd 9268 f1bc 3083 66bd
00000260: 2ba8 b63d 85d2 28bd 7c22 cbbc 80c7 abbd
00000270: 616a 473d a2e6 a0bd 0246 7c3d 5c63 9fbd
00000280: 16bc 67bd 0053 d1bc b407 e2bc 8c9e 99bd
00000290: 8452 4bbd a02a b0bd 3e24 8dbd 58eb e33c
000002a0: fa86 b03b 64fa a8bd a3ad 8dbd c4f8 243d
000002b0: 11ec 4cbd 8566 333d 1526 d7bc 643a 34bd
000002c0: 08a0 873d c4b9 4b3d ca6f b43c 687b ae3a
000002d0: 2354 87bd d9c9 a5bc 8b39 b3bd 407c a1bb
000002e0: 8eaa e4bc 5c45 ff3c df36 bbba 2034 a03d
000002f0: 207c 85bd c63d a8bd 95fc bb3c dc6c b2bc
00000300: 7261 4f3d 6388 37bd 2c59 433d b1e6 343d
00000310: df52 833d 0980 e43c 3a9b 8d3d 1e49 803c
00000320: 0c58 bbbb 2350 743d 7cd2 aabd 9f22 d6bd
00000330: 6288 ea3c 3224 5fbd 5484 0f3d eb0d 62bc
00000340: 8a20 b93d a065 963d 9e37 dbbd a437 eb3d
00000350: 5f0a c6bd f84f bcbd fdf4 19bc 9f4e d0bb
00000360: 6781 ccbc 5ac5 2cbd 03e0 f83c 19b5 37bd
00000370: bd52 2bbc 7adb 7c3d 6916 8e3d 7637 3dbd
00000380: a817 7b3d 11f1 103d 926f 813c e481 2abd
00000390: b28a 2f3d 9e0b d13c e194 c03d 51a7 693d
000003a0: 288c 88bd 444e 42bd c3d4 31bd a512 22bc
000003b0: e2eb b43d dae4 8d3d 6773 413b e062 ee3a
000003c0: db06 0e3d 5a1e ecbc eacb e43b d6c4 923c
000003d0: b457 263d 1738 9c3b 1a91 d73c 64e1 0f3c
000003e0: bf3c 13bd 17f3 d8bc 2e87 43bd f344 edbd
000003f0: f5e4 dbba 17af a9bd 95ec ac3c e9cb 973d
0.038621936 -0.018825172 -0.015590672 0.07684126 0.044296823 0.00027416644 -0.031671505 -0.007980166
-0.07685772 0.07957214 -0.05892903 0.05284271 0.073509865 0.026606778 0.08629795 -0.05533418
0.017167557 0.0530776 -0.07431442 -0.08069662 0.026579008 0.07025585 0.057015557 0.039725214
0.033091813 0.053436574 -0.06422521 -0.07480367 0.08564332 -0.028705023 -0.010440024 -0.025516951
0.025528347 0.02470778 0.08435258 -0.0057411366 0.013614981 -0.012343813 0.055718385 0.01332582
0.09104199 -0.055073693 -0.027989406 0.057796046 -0.09616518 -0.024333159 0.043165423 -0.051357128
-0.062023025 -0.009482562 0.07525278 0.00030520605 -0.011741931 -0.06848048 -0.009345178 0.051091637
-0.081239246 0.0780771 -0.0063850195 0.06330428 0.006883247 -0.08025933 0.044346806 -0.06630772
0.026939051 -0.016616907 -0.0786074 0.013652909 -0.040472016 0.06185971 -0.033288684 -0.07053735
-0.07207102 -0.054450523 0.07470172 0.088406615 0.038490564 -0.08483401 0.009994265 -0.04415739
0.033678416 0.06603449 0.049066428 0.0014362311 -0.007126907 -0.03287047 -0.052578304 -0.041290626
0.04899341 0.08345861 -0.019511074 0.0975334 0.024582898 -0.03880139 0.048074964 -0.059252266
0.0028205668 -0.04851951 0.02550568 0.013732947 0.006217089 -0.0321351 -0.06947218 -0.0089127915
0.037892 -0.015258741 -0.045008782 0.07632183 -0.0077448753 0.022951799 0.032831326 -0.028563773
-0.011010972 -0.0893981 0.046148438 0.052240416 -0.07494157 0.048076417 -0.02096458 0.056280907
0.034226853 0.026347797 0.022963481 0.026585665 -0.058234267 -0.053035814 0.059614025 0.021726904
-0.028732557 0.005484017 -0.00021119401 -0.054784358 0.030422335 -0.07499401 -0.046685822 -0.014919726
0.09576572 -0.012722489 0.0030327083 0.028257806 0.095402814 0.116143115 0.038200285 0.016153958
0.01948693 -0.0035009778 -0.054387715 -0.02283677 0.034455348 -0.04697353 -0.029468808 -0.056277454
0.08918794 -0.041216392 -0.024796717 -0.08387661 0.048685435 -0.0785649 0.061590202 -0.07782623
-0.056575857 -0.025552273 -0.027591564 -0.075009435 -0.04963924 -0.0860188 -0.06891678 0.027822182
0.005387184 -0.08250883 -0.06917884 0.040276304 -0.050029818 0.043798942 -0.026263276 -0.044001
0.066223204 0.049737707 0.022025961 0.0013311924 -0.06607845 -0.02023785 -0.0875121 -0.004928142
-0.027913358 0.031161003 -0.0014283321 0.07822442 -0.065178156 -0.08214907 0.022947589 -0.021780424
0.05063004 -0.044807803 0.047692463 0.044165317 0.06412291 0.027893083 0.06914373 0.015659865
-0.005717283 0.059646737 -0.08340928 -0.10455822 0.028629486 -0.054477878 0.035038307 -0.013797264
0.090394095 0.07343602 -0.107039675 0.11485222 -0.09669947 -0.0919494 -0.009396789 -0.0063570286
-0.024964048 -0.042180397 0.030380255 -0.044850443 -0.010456738 0.061732747 0.06937868 -0.04619547
0.061301857 0.03538615 0.015800271 -0.04162778 0.04285688 0.025518235 0.094033964 0.05704433
-0.06667358 -0.04743792 -0.043415796 -0.0098921405 0.088340536 0.069284156 0.0029518248 0.0018187426
0.034674507 -0.028823067 0.0069823163 0.017916124 0.040610984 0.0047674286 0.026314307 0.008781765
-0.035946604 -0.026483102 -0.04773634 -0.11585417 -0.0016776609 -0.08285349 0.021108905 0.0741194

a2c_network.actor_mlp.4.bias f4 [64]
00000000: 58f7 6d3c d959 6f3b 83f7 b4bc ec7a c1bc
00000010: 4505 cbba a153 d2bc 4606 9cbc 81f6 e03c
00000020: b915 b1bc 06b9 953a f47f febb d9d5 0d3c
00000030: 5438 49bc 86af edbc 6af3 80bc 7f57 183d
00000040: 56f5 16bd 07b7 a43c 2e06 123c 17be 33bb
00000050: 104a 003d 3b51 aebc bc25 9dbb 6f32 11bd
00000060: c072 d23c f9b0 04bd 5919 433c 508b d93c
00000070: 26bd 32bc e87f 04bd 617d d53c f8ca 70bc
00000080: 596d 06bc d478 e6bc 2f36 6fbc 0e9d 32bb
00000090: 3082 12bd 7296 02bd ae50 1c3d e463 063c
000000a0: c203 6c3a 3a0b ffbb 1e56 053d de12 8fbc
000000b0: 1fbf c33c 618f 2c3d e61f 163d 17b2 253c
000000c0: 987b 163d 87a4 00bd 22fc 993c 6883 a4bc
000000d0: 00cc d3bc 18fb ff3c 5b9d 55bc 2d3b 083d
000000e0: 8772 2d3d ac1b 873c 7bdb 76bc 8c79 063d
000000f0: 9270 07bd 84b5 61bb 371a 34bc 129d dcbc
0.014524303 0.003652206 -0.022090679 -0.023618184 -0.0015489241 -0.025674643 -0.01904596 0.027461292
-0.021616803 0.0011422939 -0.007766718 0.008656942 -0.012281496 -0.02901436 -0.015741069 0.037192818
-0.036855064 0.020106805 0.008912606 -0.0027426535 0.03132063 -0.021278968 -0.004795758 -0.035448488
0.025689483 -0.032395337 0.011907899 0.026555687 -0.010909354 -0.032348543 0.026060762 -0.014696829
-0.008204781 -0.028133787 -0.014600321 -0.0027254256 -0.035768688 -0.031881757 0.03816288 0.008202527
0.00090032455 -0.0077833207 0.03255283 -0.017465051 0.023894845 0.042128924 0.036651514 0.010113261
0.036738962 -0.031406906 0.018796984 -0.02008219 -0.02585411 0.03124766 -0.013038005 0.03325956
0.04234555 0.016492687 -0.015066977 0.03283076 -0.03306634 -0.0034440467 -0.010992578 -0.026930366

a2c_network.value.weight f4 [1, 64]
00000000: c5ed b5bd 2b35 db3d 9392 e73d 961b 163d
00000010: d8c8 eabb a29c ce3d 0c61 103d 6a2a 2abc
00000020: 7130 343d cab8 ef3d 5a7a df3d 89ba a6bd
00000030: 7077 583c c2bd 0e3e ce82 c23d f34b abbd
00000040: d38b 0c3e 762b 09be edf3 abbd e72a f8bb
00000050: a43e 36bd d984 3f3d 0743 273b 3942 183e
00000060: eaa5 3bbd 66eb eb3d 6878 c93c 441a 0bbe
00000070: 08f3 cc3d 24d2 ed3d f686 12be 1143 063d
00000080: 40fe 86bc 2e20 d73d 9dff af3d ba08 f33c
00000090: c2a5 0d3e ba4b 113e d030 cebd d6e1 e83d
000000a0: 1bd8 45bd 68f7 243e 1982 e6bd b18d 7a3b
000000b0: 9f35 afbd 239d 18be 1286 1bbe 5769 f4bd
000000c0: 0619 39bd 3482 ce3d 2838 27be 3872 ad3d
000000d0: 414e d63d 5cad 84bd 6ccb 9abb b9d4 91bd
000000e0: 8e88 5abd 5e48 b0bd f88b ef3d 7e81 74bd
000000f0: c660 c83d f873 853c aaaa 123e 9298 113d
-0.088832416 0.107035 0.11307254 0.0366474 -0.0071650557 0.10088469 0.0352488 -0.010386089
0.04399151 0.117051676 0.109120086 -0.081410475 0.01321207 0.13939574 0.09497605 -0.083640955
0.13725214 -0.13395485 -0.083961345 -0.0075734737 -0.044493333 0.046757553 0.002552213 0.14869012
-0.045812525 0.11519508 0.024593547 -0.13584238 0.10007292 0.11612347 -0.14309296 0.032778803
-0.016478658 0.10504185 0.08593676 0.029667247 0.13832763 0.14189044 -0.10067904 0.113712
-0.048301797 0.16110003 -0.11255283 0.0038231427 -0.08555149 -0.14903693 -0.15187863 -0.119341545
-0.04518988 0.10083428 -0.16330016 0.08469051 0.104641445 -0.06478378 -0.004723957 -0.07120652
-0.053352885 -0.08607553 0.11696619 -0.059693806 0.09784083 0.01629065 0.14322916 0.035545893

a2c_network.mu.weight f4 [24, 64]
00000000: 1cec b5bd ede0 cdbc 8919 06bb 4abf 1cbd
00000010: f85b a2bd cdba 0b3e 71d1 eb3c 8f1e 353d
00000020: e040 393d 3833 533d 26a9 febd 6697 d43b
00000030: 83c8 be3d f454 be3c 3685 60bd 5ac9 bdbc
00000040: d242 9abd 1b9d 513d 6dd0 ed3c 2447 a8bd
00000050: 0ac1 3f3d 2a95 b4bd 746e a03d 7255 70bd
00000060: 1ae0 12be 10d7 183d 4f9c 34bd fd2c 9c3d
00000070: f200 65bd 51f7 093e 5dba f53b b7d2 033d
00000080: 447c 4e3d b4d1 743d 3313 813d e4b5 d63c
00000090: 2bac 053e ab02 b1bd e957 a2bd 19c3 89bd
000000a0: 6458 81bd 1796 c5bd cce4 ccbd 4ce0 393d
000000b0: 46af 3ebd ce5d 01be 235e 0e3d 7f4e f03d
000000c0: 65af a13c 739d 89bd 50da 053e 164b e53c
000000d0: 71cd 363c 27bb 8bbc 730f 003e ee55 aabd
000000e0: 421f d9bd 7561 383d c624 c9bd 7236 89bd
000000f0: 268f 043b f0bf e73d 6de3 46bd 57f9 a63c
00000100: 322b fcbd e723 b73d cee0 e5bd 6e5d dbbb
00000110: bb51 8d3c 3cbe 3abd 99c4 503c 70e1 023d
00000120: 34ae c3bd db18 a9bd 235d 0c3e 9d5c 02be
00000130: 9720 69bd 6c18 5b3d a138 03bc a88c 1dbc
00000140: 8b6a 1c3b b1e7 10bd 7d2a 1b3d bf7b 91bd
00000150: f4c5 4e3d d2db 06be 0f34 23bd e13d a63d
00000160: 0992 923d 889b 5cbc fcc5 153d f2d1 f93d
00000170: 2571 cbbc 1ca6 623d 80db e03d eefe 32bd
00000180: 12ba 6c3d 4dd5 e33c fabb 2bbd 3543 cfbd
00000190: 7c52 29bd 9990 b13d ddbe 9c3d f723 f13d
000001a0: 5aca bdbd fb82 ccbd e652 58bc f7d3 0cbe
000001b0: 3696 8e3d 1bab 40bc cfcb 77bd 08a7 b5bc
000001c0: e911 3fbc d7fc 8dbc 8727 593d a430 b8bd
000001d0: 6c28 313d d926 933c 53c1 543d f225 013d
000001e0: 6768 9c3d f8ed e9bd 5402 ab3d 4fef d63d
000001f0: cb80 b53d 6edb 61bc e1e5 373c ca5c c43d
00000200: 75f2 9ebd 87e1 15bd 3029 533d edd9 2abd
00000210: e001 e93d b0a0 e13d 0d5d f43d d026 103d
00000220: b260 813d 275e be3b 597c 643d d818 1c3d
00000230: 4413 693c b8db 893c a20b 04bc 3372 08be
00000240: d135 b13d ab9e f43d 06d7 443d eae0 213d
00000250: 14af 41bd 4b8c 96bd 8f1a adbd fbcc 95bd
00000260: 89b7 cbbd d37c b0bd 9441 9d3a f183 d13d
00000270: f1f9 14bd 01fb e13d 3bdc 253d 973a e83d
00000280: 0860 8f3d 588b f23d ad55 ad3d 8b79 fabc
00000290: c1c8 493d 29b1 c43d 1a78 fdbd 4870 cebd
000002a0: 914c cc3d 2d4b 97bd 109e d3bd b6b0 863b
000002b0: d27c a2ba 588c 9cbd a0a6 ddbd 7b8d 8ebd
000002c0: 473c cbbd 4fb8 0d3e d466 3f3d e5d6 5fbd
000002d0: d864 063e da82 2c3d 3395 883c 1977 11bd
000002e0: 01ec e1bd 4410 1cbd 7121 b53d 2140 ccbd
000002f0: 845e 083d 78f0 e93d 2463 cebd 542a 213d
00000300: 0899 173d 4cc8 083e 4176 d2bd 4388 b4bd
00000310: f536 ff3c 7609 4e3c 6892 c03d 15b1 ba3d
00000320: d9e0 ab3d 1907 0b3e 693b a1bc c53b 663d
00000330: 2b3a 713d 7575 aabd 3fc5 26bd e640 983d
00000340: 8e8a 213d 460f e23c c320 b7bd 2752 ebbd
00000350: 406d 973d 3427 b7bd 5457 123c 6c16 d0bc
00000360: 22fe 163e e5e4 983d 8c8d 163e c6c5 ea3d
00000370: 3272 cfbd cebc 9d3d 3b54 073e dee8 3a3d
00000380: ecec 0cbd f2aa d6bd 2ad6 ddbd 6129 b83d
00000390: 2b59 213c 2016 01be 0309 f03d 9429 103e
000003a0: 9237 06bb 1d3f a23d 6322 d9bd 95c9 bdbd
000003b0: c240 dcbd 4ee4 a6bd 564f 2f3d c7c8 a6bc
000003c0: 7194 afbb c478 35bc 6eb8 663d 5ad8 973d
000003d0: 3bf1 b1bd 8c50 dc3d cd17 7cbd 3727 b53d
000003e0: 6977 20bd 757a a4bd 8e92 903c 8e09 12bc
000003f0: ad61 0abc 7988 24bd a887 afbc 6776 ffbd
-0.08882925 -0.025131667 -0.0020461997 -0.038268365 -0.07927698 0.13645478 0.028786393 0.044218596
0.045227885 0.051562518 -0.12434606 0.0064877747 0.09315588 0.023233868 -0.05481454 -0.023167301
-0.07532276 0.051175218 0.02903005 -0.08216694 0.046814956 -0.08817513 0.07833567 -0.058675237
-0.143433 0.037314475 -0.04409438 0.07625768 -0.055909105 0.1347325 0.007499023 0.032183375
0.050411478 0.0597703 0.0630249 0.02620978 0.13053958 -0.08643087 -0.07926924 -0.06726665
-0.06315687 -0.09647768 -0.10004577 0.04537992 -0.046553873 -0.1263344 0.034757745 0.11733722
0.019736955 -0.06719484 0.13071561 0.027989905 0.0111573795 -0.017057015 0.12505893 -0.08317171
-0.10601665 0.045014817 -0.09821467 -0.06699838 0.0020226925 0.11315906 -0.048556734 0.020382566
-0.12312926 0.08942395 -0.11224519 -0.0066944873 0.017250886 -0.045591578 0.012742185 0.031953275
-0.09554711 -0.08256694 0.13707404 -0.12730642 -0.056915846 0.053490087 -0.008009107 -0.009616055
0.0023867215 -0.03537721 0.037882317 -0.07103681 0.05048175 -0.13169792 -0.03984457 0.08117271
0.0715676 -0.013464816 0.036565766 0.12198247 -0.024834225 0.055334195 0.10979366 -0.04370015
0.057794638 0.02781167 -0.041927315 -0.101202406 -0.04133843 0.08670158 0.07653592 0.11774438
-0.09267111 -0.0998592 -0.013203358 -0.13752733 0.06962244 -0.011759545 -0.0604971 -0.022174373
-0.011661985 -0.017332477 0.05301621 -0.089936525 0.04325144 0.01796286 0.05194218 0.031530328
0.07637101 -0.11422342 0.083500534 0.10494863 0.08862456 -0.013785226 0.011224241 0.095880106
-0.07761089 -0.036592033 0.05155295 -0.041711736 0.11377311 0.11016977 0.119318105 0.035193264
0.06317271 0.0058095637 0.05578265 0.03810963 0.014225785 0.016828403 -0.008059414 -0.13324814
0.08652843 0.11944326 0.048056625 0.039521135 -0.047286108 -0.073509775 -0.08452331 -0.073144875
-0.09947116 -0.08617558 0.0011997693 0.10230244 -0.036371175 0.11034203 0.04049323 0.113393
0.070007384 0.11842984 0.08463607 -0.030575534 0.04926372 0.09604103 -0.12376423 -0.1008001
0.099755414 -0.073873855 -0.103328824 0.004110421 -0.0012396818 -0.07643956 -0.10822797 -0.06960579
-0.09923606 0.1383984 0.046728924 -0.0546483 0.13124406 0.042116977 0.016672706 -0.03551397
-0.11031342 -0.03810145 0.08844269 -0.09973169 0.033293262 0.11422819 -0.10077503 0.039347008
0.037011176 0.13357657 -0.102764614 -0.08815052 0.031154135 0.012575498 0.09402925 0.09115807
0.08392496 0.13576926 -0.01968165 0.056209344 0.058893364 -0.083231844 -0.040715452 0.074342534
0.039438777 0.027595174 -0.08941796 -0.11490279 0.07393885 -0.08943024 0.008931953 -0.025401317
0.14745381 0.07465533 0.14702433 0.114635035 -0.10129203 0.07702027 0.13215725 0.045632236
-0.034405634 -0.10481824 -0.10831864 0.089922674 0.009847919 -0.12606096 0.11720469 0.14078361
-0.00204799 0.07922194 -0.10602262 -0.09266964 -0.10754539 -0.081490144 0.04280027 -0.02035941
-0.0053582718 -0.011076156 0.05632823 0.07414313 -0.08688589 0.107575506 -0.061546136 0.0884537
-0.03917638 -0.08031169 0.017648008 -0.008913411 -0.008446139 -0.040169213 -0.02142699 -0.12473755

a2c_network.mu.bias f4 [24]
00000000: 61b7 97bc c896 9c3a 3ba9 91bc 6f30 d63c
00000010: d10c dc3a 5802 053c 7722 1dbb a398 4d3a
00000020: 4b8c 44bb faef d7bb 0706 60bc 684f bebc
00000030: 85a1 c4bb 8e19 0dbc f3f7 58bc c295 a2bc
00000040: d8b7 4a3b d006 5f3c 05f0 d73c c4ac 3a3c
00000050: 6dd3 3a3c b36c 3e3b b6fb 9d3c c54b ca3c
-0.018520059 0.0011946792 -0.01778089 0.026146142 0.0016788488 0.008118235 -0.0023976841 0.0007842874
-0.0029990848 -0.0065898867 -0.013673312 -0.023231223 -0.0060007 -0.00861205 -0.013242709 -0.0198468
0.0030932333 0.013612464 0.026359567 0.01139373 0.011402947 0.002905649 0.019285064 0.024694333

exp_avg f4 [24]
00000000: 5146 313c bf8e 0b3c 2e43 e13b c09a 6eba
00000010: d5a5 153c 2bf3 5a3c f408 c2bb 612c 11bc
00000020: 5e5d ddbb f8d1 6dbb 0e21 bb3b faee 40b9
00000030: 7576 843b da16 743a ebe8 75bc e238 5fbb
00000040: e396 9ebb 3377 c8bb 8758 2e3c 3de2 a03c
00000050: 0877 093c bab9 f8b9 b182 9a3b f40a 18bb
0.010819987 0.00851792 0.0068744635 -0.0009102039 0.009133776 0.01336364 -0.0059214775 -0.008860678
-0.006755515 -0.0036288481 0.0057107275 -0.00018399573 0.0040424415 0.00093112665 -0.015009145 -0.0034061004
-0.0048397644 -0.0061177253 0.010641224 0.019639129 0.008390196 -0.00047440623 0.0047152867 -0.0023199888

exp_avg_sq f4 [24]
00000000: 77cb 2b3a 57d4 323a 80c9 1b3a 4b19 203a
00000010: 9054 233a 6ea3 4d3a aff9 313a 029e 223a
00000020: 7d0f 4a3a 8307 363a 8a38 313a 8311 1b3a
00000030: 175f 2d3a 142c 3a3a d77b 413a 9938 2a3a
00000040: 158b 333a de54 283a 8a07 263a 43cd 353a
00000050: 78fc 123a 5c65 2a3a 1e73 303a e0b1 163a
0.0006553451 0.0006821802 0.00059428066 0.00061072846 0.00062305573 0.00078444823 0.000678922 0.00062033546
0.00077079964 0.00069438684 0.0006760439 0.000591539 0.0006613596 0.0007101905 0.00073808193 0.0006493419
0.0006849033 0.00064213376 0.0006333521 0.00069351884 0.0005607079 0.0006500089 0.0006731021 0.00057485513

exp_avg f4 [256, 39]
00000000: 0000 0000 b097 e2b5 219d d9b5 be63 45b5
00000010: 3585 27b5 58de 0ab6 be63 45b5 ceef 91ba
00000020: cceb 5fba be63 45b5 9b52 603a 9b02 633a
00000030: 0000 0000 ba35 afb5 0000 0000 0000 0000
00000040: 0000 0000 0000 0000 0000 0000 0000 0000
00000050: ffc6 8537 0464 12b6 72e2 27b6 0000 0000
00000060: 0000 0000 0000 0000 0000 0000 0000 0000
00000070: 0000 0000 0000 0000 0000 0000 0000 0000
00000080: 0000 0000 0000 0000 0000 0000 0000 0000
00000090: 0000 0000 0000 0000 8441 4eb4 0000 0000
000000a0: 1f87 bf36 20f0 b736 e3d7 2636 d698 0d36
000000b0: e2c1 ea36 e3d7 2636 6eb4 763b f944 3d3b
000000c0: e3d7 2636 e19b 3dbb 66e1 3fbb 0000 0000
000000d0: 9a18 9436 0000 0000 0000 0000 0000 0000
000000e0: 0000 0000 0000 0000 0000 0000 1127 62b8
000000f0: c779 f736 b9e7 0d37 0000 0000 0000 0000
00000100: 0000 0000 0000 0000 0000 0000 0000 0000
00000110: 0000 0000 0000 0000 0000 0000 0000 0000
00000120: 0000 0000 0000 0000 0000 0000 0000 0000
00000130: 0000 0000 6556 2e35 0000 0000 7de9 8436
00000140: 4a4a 7f36 7890 e735 3486 c435 63e9 a236
00000150: 7890 e735 e633 2b3b 4758 033b 7890 e735
00000160: 9794 03bb 2428 05bb 0000 0000 778b 4d36
00000170: 0000 0000 0000 0000 0000 0000 0000 0000
00000180: 0000 0000 0000 0000 9ff0 1cb8 b9bc ab36
00000190: b9f3 c436 0000 0000 0000 0000 0000 0000
000001a0: 0000 0000 0000 0000 0000 0000 0000 0000
000001b0: 0000 0000 0000 0000 0000 0000 0000 0000
000001c0: 0000 0000 0000 0000 0000 0000 0000 0000
000001d0: 34f7 f134 0000 0000 ee5b 35b6 1e2c 2eb6
000001e0: 38fc 9db5 3a14 86b5 1e4b 5eb6 38fc 9db5
000001f0: 519b e9ba 7538 b3ba 38fc 9db5 bf8a b33a
00000200: 66b1 b53a 0000 0000 bb3b 0cb6 0000 0000
00000210: 0000 0000 0000 0000 0000 0000 0000 0000
00000220: 0000 0000 2b25 d637 1056 6ab6 fd5e 86b6
00000230: 0000 0000 0000 0000 0000 0000 0000 0000
00000240: 0000 0000 0000 0000 0000 0000 0000 0000
00000250: 0000 0000 0000 0000 0000 0000 0000 0000
00000260: 0000 0000 0000 0000 0000 0000 dc14 a5b4
00000270: 0000 0000 b074 50b5 e531 48b5 c996 b5b4
00000280: c01c 9ab4 4f81 7fb5 c996 b5b4 1c41 06ba
00000290: 66ff cdb9 c996 b5b4 fc5d ce39 e5d6 d039
000002a0: 0000 0000 592f 21b5 0000 0000 0000 0000
000002b0: 0000 0000 0000 0000 0000 0000 0000 0000
000002c0: 3a24 f636 b5ac 86b5 8f72 9ab5 0000 0000
000002d0: 0000 0000 0000 0000 0000 0000 0000 0000
000002e0: 0000 0000 0000 0000 0000 0000 0000 0000
000002f0: 0000 0000 0000 0000 0000 0000 0000 0000
00000300: 0000 0000 0000 0000 d5be bdb3 0000 0000
00000310: f39d 0e37 23f7 0837 ea78 7836 c3df 5236
00000320: 8fce 2e37 ea78 7836 07b4 b73b 6eef 8c3b
00000330: ea78 7836 2530 8dbb 29e1 8ebb 0000 0000
00000340: 8f8d dc36 0000 0000 0000 0000 0000 0000
00000350: 0000 0000 0000 0000 0000 0000 4666 a8b8
00000360: fa46 3837 4755 5337 0000 0000 0000 0000
00000370: 0000 0000 0000 0000 0000 0000 0000 0000
00000380: 0000 0000 0000 0000 0000 0000 0000 0000
00000390: 0000 0000 0000 0000 0000 0000 0000 0000
000003a0: 0000 0000 08d1 8135 0000 0000 9a3b 3036
000003b0: c23f 2936 fb84 9935 0a4a 8235 9602 5836
000003c0: fb84 9935 d500 e33a 9927 ae3a fb84 9935
000003d0: 8f77 aeba a48e b0ba 0000 0000 f644 0836
000003e0: 0000 0000 0000 0000 0000 0000 0000 0000
000003f0: 0000 0000 0000 0000 ae17 d0b7 78b6 6336
0.0 -1.6882459e-06 -1.621349e-06 -7.3533363e-07 -6.240619e-07 -2.0693024e-06 -7.3533363e-07 -0.001113409
-0.00085419114 -7.3533363e-07 0.0008557231 0.0008659751 0.0 -1.3054153e-06 0.0 0.0
0.0 0.0 0.0 0.0 1.59475e-05 -2.1813912e-06 -2.5016748e-06 0.0
0.0 0.0 0.0 0.0 0.0 0.0 0.0 0.0
0.0 0.0 0.0 0.0 0.0 0.0 -1.920908e-07 0.0
5.7079737e-06 5.481779e-06 2.486159e-06 2.10996e-06 6.9963144e-06 2.486159e-06 0.0037644166 0.0028880222
2.486159e-06 -0.0028932022 -0.0029278635 0.0 4.4136077e-06 0.0 0.0 0.0
0.0 0.0 0.0 -5.3918982e-05 7.3753504e-06 8.458207e-06 0.0 0.0
0.0 0.0 0.0 0.0 0.0 0.0 0.0 0.0
0.0 0.0 0.0 0.0 0.0 6.494577e-07 0.0 3.961088e-06
3.8041203e-06 1.7252887e-06 1.4642196e-06 4.855146e-06 1.7252887e-06 0.0026123463 0.002004163 1.7252887e-06
-0.002007758 -0.0020318115 0.0 3.062856e-06 0.0 0.0 0.0 0.0
0.0 0.0 -3.7417394e-05 5.1181673e-06 5.8696282e-06 0.0 0.0 0.0
0.0 0.0 0.0 0.0 0.0 0.0 0.0 0.0
0.0 0.0 0.0 0.0 4.5069612e-07 0.0 -2.7024612e-06 -2.59537e-06
-1.1770817e-06 -9.989665e-07 -3.3124302e-06 -1.1770817e-06 -0.0017822777 -0.0013673442 -1.1770817e-06 0.0013697966
0.0013862073 0.0 -2.0896393e-06 0.0 0.0 0.0 0.0 0.0
0.0 2.5528096e-05 -3.4918812e-06 -4.0045693e-06 0.0 0.0 0.0 0.0
0.0 0.0 0.0 0.0 0.0 0.0 0.0 0.0
0.0 0.0 0.0 -3.0748822e-07 0.0 -7.765584e-07 -7.457841e-07 -3.3823588e-07
-2.8705654e-07 -9.518307e-07 -3.3823588e-07 -0.00051213964 -0.00039290934 -3.3823588e-07 0.00039361406 0.0003983296
0.0 -6.0046074e-07 0.0 0.0 0.0 0.0 0.0 0.0
7.3355886e-06 -1.0034042e-06 -1.1507235e-06 0.0 0.0 0.0 0.0 0.0
0.0 0.0 0.0 0.0 0.0 0.0 0.0 0.0
0.0 0.0 -8.8357105e-08 0.0 8.500635e-06 8.163773e-06 3.702526e-06 3.1422685e-06
1.0419301e-05 3.702526e-06 0.0056061777 0.004301003 3.702526e-06 -0.004308718 -0.0043603373 0.0
6.5729905e-06 0.0 0.0 0.0 0.0 0.0 0.0 -8.029914e-05
1.098378e-05 1.2596435e-05 0.0 0.0 0.0 0.0 0.0 0.0
0.0 0.0 0.0 0.0 0.0 0.0 0.0 0.0
0.0 9.672085e-07 0.0 2.6260736e-06 2.5220074e-06 1.1438091e-06 9.707303e-07 3.2188013e-06
1.1438091e-06 0.0017318974 0.0013286948 1.1438091e-06 -0.0013310778 -0.0013470245 0.0 2.030572e-06
0.0 0.0 0.0 0.0 0.0 0.0 -2.4806559e-05 3.3931847e-06
