runs/lift_30-17-20-25/nn/last_lift_ep_100_rew_-176.24155.pth (torch, 654733 bytes, 36 tensors)

value_mean_std.running_mean f8 [1]
000000 d4 c4 d6 0e 13 69 94 c0
       -1306.2686112935671

value_mean_std.running_var f8 [1]
000000 0b 49 5d 60 a1 39 4d 41
       3830594.752846842

value_mean_std.count f8 []
000000 00 00 00 00 04 00 19 41
       409601.0

running_mean_std.running_mean f8 [39]
000000 00 00 00 00 00 00 00 00 4a fa ed 51 f8 ff f7 3f
       0.0 1.4999926758170141
000010 5b a6 12 b8 c5 cc f4 3f fd a2 92 c2 f5 ff df 3f
       1.2999932470651376 0.49999755860567047
000020 84 dc db ee 90 99 d9 3f ce f9 76 33 2c 33 07 40
       0.39999793363626446 2.8999866505321057
000030 fd a2 92 c2 f5 ff df 3f d6 6f 59 31 79 4c fe 3f
       0.49999755860567047 1.8936702659329874
000040 bc bb 49 b7 ce a2 01 40 fd a2 92 c2 f5 ff df 3f
       2.204495841920531 0.49999755860567047
000050 d0 93 73 54 f6 ff dd 3f 09 ef aa 75 f6 ff dd 3f
       0.46874769446577336 0.4687477254008035
000060 00 00 00 00 00 00 00 00 fd a2 92 c2 f5 ff ef 3f
       0.0 0.9999951172113409
000070 00 00 00 00 00 00 00 00 00 00 00 00 00 00 00 00
       0.0 0.0
000080 00 00 00 00 00 00 00 00 00 00 00 00 00 00 00 00
       0.0 0.0
000090 00 00 00 00 00 00 00 00 00 00 00 00 00 00 00 00
       0.0 0.0
0000a0 73 b7 c3 62 8c 92 80 bf d2 55 b5 57 e9 9d 51 3f
       -0.00809201885609998 0.0010752466904099156
0000b0 63 d9 bc d8 b1 9e 23 40 00 00 00 00 00 00 00 00
       9.809950612118604 0.0
0000c0 00 00 00 00 00 00 00 00 00 00 00 00 00 00 00 00
       0.0 0.0
0000d0 00 00 00 00 00 00 00 00 00 00 00 00 00 00 00 00
       0.0 0.0
0000e0 00 00 00 00 00 00 00 00 00 00 00 00 00 00 00 00
       0.0 0.0
0000f0 00 00 00 00 00 00 00 00 00 00 00 00 00 00 00 00
       0.0 0.0
000100 00 00 00 00 00 00 00 00 00 00 00 00 00 00 00 00
       0.0 0.0
000110 00 00 00 00 00 00 00 00 00 00 00 00 00 00 00 00
       0.0 0.0
000120 00 00 00 00 00 00 00 00 00 00 00 00 00 00 00 00
       0.0 0.0
000130 fd a2 92 c2 f5 ff bf 3f
       0.12499938965141762

running_mean_std.running_var f8 [39]
000000 84 72 f7 b9 da 7a d4 3e 02 80 63 07 ce a3 f0 3e
       4.882788658258493e-06 1.5869009495683713e-05
000010 03 a0 d2 61 9d 8b eb 3e ee 2c 08 c5 8f 99 d9 3e
       1.3134656052862797e-05 6.1034798624168555e-06
000020 45 ef 5b df b4 c1 d7 3e 6e ee 62 37 e2 16 08 3f
       5.664030586546001e-06 4.594686372302597e-05
000030 ee 2c 08 c5 8f 99 d9 3e 97 42 78 5f 8d 1a fa 3f
       6.1034798624168555e-06 1.6314824799812067
000040 89 19 45 a6 3c 92 f4 3f ee 2c 08 c5 8f 99 d9 3e
       1.2857023711127076 6.1034798624168555e-06
000050 0a 9e 7c e6 06 7c dc 3f aa ff cb 14 a3 ec db 3f
       0.445070004544022 0.43631817847198795
000060 84 72 f7 b9 da 7a d4 3e 19 2e 1d 73 d7 7a e4 3e
       4.882788658258493e-06 9.765553474891949e-06
000070 84 72 f7 b9 da 7a d4 3e 84 72 f7 b9 da 7a d4 3e
       4.882788658258493e-06 4.882788658258493e-06
000080 84 72 f7 b9 da 7a d4 3e 84 72 f7 b9 da 7a d4 3e
       4.882788658258493e-06 4.882788658258493e-06
000090 84 72 f7 b9 da 7a d4 3e 84 72 f7 b9 da 7a d4 3e
       4.882788658258493e-06 4.882788658258493e-06
0000a0 02 f9 a4 77 e3 5c ec 3f 0a 33 b7 83 7e c4 ea 3f
       0.8863389336400191 0.836486108071399
0000b0 3c 73 6f 64 80 1d 3f 3f 84 72 f7 b9 da 7a d4 3e
       0.0004747808893037946 4.882788658258493e-06
0000c0 84 72 f7 b9 da 7a d4 3e 84 72 f7 b9 da 7a d4 3e
       4.882788658258493e-06 4.882788658258493e-06
0000d0 84 72 f7 b9 da 7a d4 3e 84 72 f7 b9 da 7a d4 3e
       4.882788658258493e-06 4.882788658258493e-06
0000e0 84 72 f7 b9 da 7a d4 3e 84 72 f7 b9 da 7a d4 3e
       4.882788658258493e-06 4.882788658258493e-06
0000f0 84 72 f7 b9 da 7a d4 3e 84 72 f7 b9 da 7a d4 3e
       4.882788658258493e-06 4.882788658258493e-06
000100 84 72 f7 b9 da 7a d4 3e 84 72 f7 b9 da 7a d4 3e
       4.882788658258493e-06 4.882788658258493e-06
000110 84 72 f7 b9 da 7a d4 3e 84 72 f7 b9 da 7a d4 3e
       4.882788658258493e-06 4.882788658258493e-06
000120 84 72 f7 b9 da 7a d4 3e 84 72 f7 b9 da 7a d4 3e
       4.882788658258493e-06 4.882788658258493e-06
000130 4a 7e a8 0a c6 cc d4 3e
       4.959081858518417e-06

running_mean_std.count f8 []
000000 00 00 00 00 08 00 09 41
       204801.0

a2c_network.sigma f4 [24]
000000 b7 c8 38 39 5b b7 ab ba ad 6a 9b 3c 91 09 5c 3b
       0.0001762238 -0.0013100909 0.018971765 0.0033575038
000010 64 02 b6 bb 80 c7 17 bc 72 c1 d8 3b 41 84 2a 3d
       -0.005554484 -0.009263873 0.0066148574 0.041630033
000020 65 4f 45 3b 5d ab eb bc 6a 33 37 3b 8e cd b1 bc
       0.0030107137 -0.028768236 0.002795423 -0.021704461
000030 27 5e 2e bc 4e 87 33 bc df ad a1 bc 07 b4 a2 bc
       -0.010642565 -0.010957552 -0.019736229 -0.019861234
000040 ed d1 57 3c 51 ca bf bb 1b bf 19 bc f7 ea 67 bc
       0.013172609 -0.0058529754 -0.009383942 -0.014155141
000050 c7 d2 2a bc fe 14 c9 bc fb 60 6e 3c 64 b8 b7 bc
       -0.01042623 -0.024546143 0.014549489 -0.022426791

a2c_network.actor_mlp.0.weight f4 [256, 39]
000000 38 d9 4e bd 5c ab 7c 3d 13 c0 ca bc 31 23 b0 3d
       -0.050500125 0.06168686 -0.024749791 0.08600462
000010 83 67 25 3e ec d5 e3 3d 93 7e 52 bd 81 13 a7 3d
       0.16152768 0.11124787 -0.05139024 0.08158017
000020 fe d1 ef 3c 3c a9 cc 3d 18 6e de bd df a3 24 be
       0.029274937 0.099932164 -0.108608425 -0.16078137
000030 75 68 7d bd ed 5f d5 bd 76 8b 06 3e 58 ea 3c 3d
       -0.061867196 -0.10418687 0.13139138 0.046121925
000040 94 d6 87 3d 51 6e 4f 3d 5c 8e 36 bb 43 53 00 3e
       0.066327244 0.050642315 -0.002785585 0.12531762
000050 71 10 e5 bd a0 8e 39 3c fd 87 b9 bd 50 3e 4a 3d
       -0.111847766 0.011325508 -0.09059141 0.049375832
000060 09 e0 61 bd 4b f9 48 3d e5 a5 08 bd 14 ff 07 3e
       -0.055145297 0.04906587 -0.033361334 0.13280898
000070 43 5f c2 bd 8f 95 c3 bd 95 98 c3 bd 94 7b 13 3e
       -0.09490826 -0.095500104 -0.09550587 0.1440261
000080 0a 93 5a 3d 0b c8 1d 3e 51 52 07 be 9f a3 22 be
       0.053362884 0.15408342 -0.13214995 -0.15882729
000090 ff 48 00 be 72 9a dc bd be f6 aa 3d 46 db 6a 3d
       -0.12527846 -0.107716456 0.083478436 0.05733802
0000a0 e1 b7 c8 3d 17 18 f1 bd 1f b5 12 be 03 03 50 3d
       0.09800697 -0.11772173 -0.14326905 0.050784122
0000b0 e3 e9 cc bd 17 2f 81 3d 4b 2e 3d bd 20 cf 51 3d
       -0.10005548 0.0630781 -0.046186727 0.05122292
0000c0 a8 53 22 be 2c f4 ae bd 2f 8f f5 3c b5 a8 0a 3d
       -0.15852225 -0.08542666 0.029975502 0.033852298
0000d0 34 83 9a bd fa 79 c3 3d 34 f0 de 3d ac d0 ed bd
       -0.07544556 0.095447496 0.10885659 -0.116120666
0000e0 fa 13 af bd 68 24 16 3e 1f 51 5d bd 0a ee 6d bd
       -0.08548732 0.14662325 -0.05403244 -0.05808834
0000f0 6a 98 21 be d1 99 02 be ab d7 23 3d 08 25 ad bc
       -0.15780798 -0.12753989 0.0400006 -0.021135822
000100 80 0c ee bd 83 28 76 3b ec 02 e0 bd d6 1c 0b be
       -0.11623478 0.0037560768 -0.10938057 -0.13585219
000110 ed 95 b4 bd 75 82 0f be 3d d0 d0 bd 37 e8 23 3e
       -0.088176586 -0.14014609 -0.10195968 0.16006552
000120 ae c2 f7 3c 07 1e 4a 3d f2 ee 18 be 4e 62 d7 bd
       0.030244198 0.049345043 -0.149349 -0.10516797
000130 ab 50 5a bd 10 b6 0f bc 22 48 10 be 6e 38 b0 bd
       -0.053299587 -0.008771434 -0.14090016 -0.08604513
000140 5b 40 e7 bd 56 e8 83 bc 91 f2 9b bd 01 d3 e7 bc
       -0.11291572 -0.016101997 -0.07614625 -0.028298857
000150 1b 0e 00 be fa f6 04 be 1c 67 d2 bd 8e 23 92 bd
       -0.12505381 -0.12984839 -0.10273573 -0.07135688
000160 c8 e4 02 be 82 81 0d 3e 68 2b 02 bd 79 bc f7 3d
       -0.12782586 0.13818935 -0.031779677 0.12096495
000170 ab 5c 4c 3d b0 d9 0a be 9d f2 e2 3d 9d 76 34 bd
       0.049893063 -0.13559604 0.11081431 -0.04405843
000180 f3 6a 7b bd 90 1b 08 be f0 d2 16 be fc ed 4b 3d
       -0.06138129 -0.13291764 -0.14728904 0.049787506
000190 3b fb 56 bd e5 59 7f 3d b0 90 06 be 5a 79 f3 3d
       -0.052485686 0.06234159 -0.13141131 0.1188838
0001a0 35 ba f0 bd f7 81 e2 bc 96 fe 08 3d 06 4d a9 3d
       -0.11754266 -0.027649863 0.033445917 0.08266644
0001b0 2b 60 04 3e 00 5f 15 3e 34 04 02 be 94 10 25 3d
       0.1292731 0.14587021 -0.12696916 0.040299013
0001c0 7a 0e 8d bd 03 c0 8f bc 30 76 f5 bd c7 5a 15 3e
       -0.06887527 -0.017547613 -0.11985433 0.1458541
0001d0 e1 26 09 be ed 44 af 3d 73 23 ad 3d 6d 7f a4 3d
       -0.13393737 0.085580684 0.08454027 0.08032117
0001e0 21 a7 72 bd 06 19 31 3e 02 99 82 3d 5b 52 44 3d
       -0.059241418 0.17294702 0.0637684 0.047930103
0001f0 06 41 07 be 01 10 d6 3d 77 d4 58 3b 79 df 98 bd
       -0.13208398 0.10452271 0.0033085623 -0.07464499
000200 45 a6 19 3e 8f 3a 12 3d 02 d4 78 bd 04 fc a5 bd
       0.15004833 0.035700377 -0.06074906 -0.08104709
000210 fa 93 fa bb 41 1c b7 3d cc 99 27 bd a0 1d bb bd
       -0.0076470347 0.08940936 -0.040918157 -0.0913651
000220 65 9a 60 bd 57 5d f2 bd 07 96 7d 3d be c4 1c 3e
       -0.054834742 -0.118342094 0.061910655 0.15309426
000230 7f 5e 1a be 68 54 18 3d 91 69 a9 3d c5 dc ed 3c
       -0.1507511 0.03718987 0.08272088 0.029035935
000240 a7 93 69 bd bf 2a ab 3d 8c 56 ac 3d d3 40 75 3d
       -0.057025578 0.083577625 0.08414945 0.059876274
000250 8b 81 e6 bc dd ad 2d bd 97 55 8c 3c c1 ba e7 bc
       -0.028137943 -0.042402137 0.017130656 -0.028287293
000260 53 74 43 bd 81 9f d1 3d b3 ea 0c 3e bc 59 37 3c
       -0.047718357 0.10235501 0.13761406 0.011190828
000270 bf d9 12 bd 37 6b c5 bc 2a c5 13 bd f6 f1 59 3c
       -0.03585219 -0.024098976 -0.036076702 0.013302317
000280 07 49 a0 3c 07 84 30 be 1b 9f ac bd 43 25 02 3e
       0.019566072 -0.17237864 -0.084287845 0.12709527
000290 81 e5 ab 3c 62 d1 07 bd 27 a0 a7 bd b1 d5 dc bd
       0.02098346 -0.033158667 -0.081848435 -0.10782946
0002a0 47 e1 12 be d9 ea 9f bd bd 7e 5d 3d 6b 1a d1 3d
       -0.14343749 -0.078084655 0.054075945 0.10210117
0002b0 00 69 97 3d ff f0 10 be 58 36 c5 bd e4 04 cf bc
       0.07393074 -0.14154433 -0.09629506 -0.025270887
0002c0 60 1b 20 3e 43 74 4a 3c 1e de 8d bd bf ac 87 3d
       0.15635443 0.0123568205 -0.06927131 0.066247456
0002d0 80 d0 79 bd 3a 43 d4 bd 6b 5c ef 3d b3 1d 95 bd
       -0.060989857 -0.10364385 0.11687549 -0.07281055
0002e0 ad 7b 03 bd 89 1e 23 be 75 7b db 3d e7 75 f8 3d
       -0.03210037 -0.15929617 0.10716907 0.12131863
0002f0 3b 09 6f 3d 72 aa e4 bd 6a d4 21 be 8a 2c 05 be
       0.058358412 -0.11165322 -0.15803686 -0.13005272
000300 f8 8b f4 3d 72 72 9d 3d 9f 2e e1 3d 96 cc ab 3d
       0.119407594 0.07687844 0.109952204 0.08388631
000310 b0 2a d2 3c 8e 79 86 bc ad 04 0b be 65 dd 1a be
       0.02565512 -0.016415384 -0.13576002 -0.15123518
000320 b1 da 28 be 1f 3a 53 3d 3d 07 ba bd 52 ac 94 bd
       -0.16489674 0.0515691 -0.09083412 -0.0725943
000330 b8 5d d9 bd 07 99 21 bd 50 47 05 be 61 48 d6 bd
       -0.106135786 -0.03945258 -0.13015485 -0.10463024
000340 dc 51 1e 3d 37 ed 42 bd fa 73 ca 3d e3 69 52 bd
       0.038652286 -0.047589507 0.09885402 -0.051370513
000350 5d 91 f0 bd 7f 72 e7 bc 21 f8 9e bd 4d f5 54 bd
       -0.11746476 -0.028252838 -0.077621706 -0.05199175
000360 ff 6d 1a be 95 8f 97 3d a5 50 e4 bd 66 d4 a4 3d
       -0.15081023 0.07400433 -0.11148194 0.08048324
000370 ab d0 94 3d f6 4a ea 3d 86 8c fb bd eb da eb 3d
       0.07266363 0.11440079 -0.12282662 0.11516365
000380 0b 09 9b bd f1 60 73 3d df fc 19 3e 57 00 b9 bc
       -0.07570084 0.059418622 0.15037869 -0.02258317
000390 f9 4f a2 ba 37 01 17 bd d7 e9 08 be 6a 61 9d 3d
       -0.0012383453 -0.036866393 -0.13370453 0.07684596
0003a0 f4 c6 22 be 87 8b af 3d f1 5f f5 3d 26 bc 2a 3e
       -0.15896207 0.085715346 0.1198119 0.16673335
0003b0 cd c3 b7 bc f2 5d ed bd 34 76 53 3d 8a 54 d4 3d
       -0.022432232 -0.11590184 0.0516264 0.10367687
0003c0 22 29 13 be 2c e1 89 bd e3 ba b9 bd 96 a7 d9 3a
       -0.1437116 -0.06732401 -0.09068849 0.0016605731
0003d0 04 ca c7 bd 81 30 3e bd 6b 37 50 bd 9d f5 0b be
       -0.09755328 -0.046432976 -0.0508341 -0.13667913
0003e0 25 8a 06 3e 52 76 09 3e ad c6 cd bc 16 63 95 bc
       0.13138635 0.13424042 -0.02511915 -0.018235724
0003f0 00 d7 85 bd 89 13 14 be df 19 1b be bd b8 9e 3d
       -0.065351486 -0.14460577 -0.15146588 0.0775008

a2c_network.actor_mlp.0.bias f4 [256]
000000 4b 48 db 3c d2 fd 54 bd 90 60 e5 bc a3 a6 45 3d
       0.02676787 -0.051999874 -0.028000146 0.04825462
000010 7f a3 36 bd c1 1e d4 bc 0d be 98 3c 85 95 04 3d
       -0.044589516 -0.02589357 0.01864531 0.032369155
000020 0b 6c 23 bd 6c 49 4c 3d 84 87 1b bd 1e e1 c3 bc
       -0.03989796 0.049874708 -0.037971035 -0.023911055
000030 61 8d 2e 3d 74 97 dc 3c 42 0c 50 bd 4b 82 56 bd
       0.0426153 0.026927687 -0.05079294 -0.05237035
000040 33 b9 c3 3c 8c fd e2 bb 8d 93 f6 bb 95 51 40 bc
       0.02389202 -0.006927198 -0.0075249136 -0.011738201
000050 3c 78 9a bb ef e0 cc 3b 65 e1 ec ba e7 40 51 bd
       -0.00471404 0.0062524 -0.0018072544 -0.051087286
000060 7e 2c 54 3b ff bb c2 bc 47 9d 7a 3a 1f 15 47 3c
       0.0032375152 -0.023771284 0.00095601793 0.012151032
000070 0f 8e 42 3d 59 90 d3 3c b6 98 9b 3c 29 72 64 bc
       0.04749876 0.025825666 0.018993717 -0.0139432335
000080 0e 15 49 3d 79 9d 4b 3d c3 30 49 3d 8a bf 39 bd
       0.049092345 0.049710725 0.04911877 -0.04534868
000090 f9 0c e0 bc 66 da 6c bd a4 81 d4 3c bc 86 1c bd
       -0.027349936 -0.05782547 0.025940724 -0.03821443
0000a0 36 c1 22 bd a4 10 d6 bc d2 f3 6e bd 75 f2 4a bc
       -0.03973504 -0.026130982 -0.058337994 -0.012386908
0000b0 f8 f1 2e bd ca 50 ea 3c b2 60 23 bd 8a d3 f9 3c
       -0.042711228 0.028602976 -0.039887138 0.030496377
0000c0 43 96 2d bd 35 b9 c5 bc 69 2e 8a bc 65 9b 49 3d
       -0.04237963 -0.024136165 -0.016867833 0.04922046
0000d0 f9 4f da 3c 5c fd 0c 3d 86 90 b8 bc a0 26 cc bb
       0.026649462 0.03442131 -0.022529852 -0.0062301904
0000e0 81 86 36 bc 68 f5 9f 3c 1a bf 19 3c 7c d3 4d bd
       -0.011140467 0.019526199 0.009383941 -0.050250515
0000f0 29 7d 4c bd 20 58 a0 bc 6a f6 1c bb df fc 0c 3d
       -0.04992405 -0.019573271 -0.0023950585 0.034420844
000100 f1 66 44 bd 96 95 50 3d fd aa 3d bd 3e b2 39 bd
       -0.047949735 0.050923906 -0.046305645 -0.045336
000110 2b 8b 50 bd 4a a1 d2 3b c3 da 77 bc d1 e8 17 bd
       -0.05091397 0.0064279186 -0.01512784 -0.037087265
000120 7d 46 ea 3c 8c af 26 3d 2e 27 a9 3c d2 be 07 bc
       0.028598065 0.04069476 0.020648565 -0.008285241
000130 e6 b6 52 3d cc 50 5c 3d 69 43 65 bd 59 15 a0 3b
       0.051443957 0.05378799 -0.05597249 0.0048853573
000140 54 dd 3d bd 61 93 37 3d ce dd c5 3c 76 f7 0a 3d
       -0.046353653 0.044818286 0.024153616 0.033927403
000150 65 2c 69 bc 87 81 ad bc b1 d9 c5 bc cd 1b ea bc
       -0.014231776 -0.021179928 -0.024151655 -0.02857771
000160 f7 e4 c4 bb 56 ca 7e bc 5b 86 32 bd 7e 17 51 bd
       -0.00600874 -0.01555117 -0.043585163 -0.051047795
000170 33 79 61 3d b8 fc 2e 3d 14 07 23 3d 69 4b 14 bd
       0.055047225 0.04272148 0.039801672 -0.03620473
000180 1e 71 de bc 38 d2 a6 bc 7c 0b a9 bc 26 b5 b6 bb
       -0.027153548 -0.020363912 -0.020635359 -0.005575794
000190 9a eb 41 3d fe 05 0f bb 40 8b 01 3d 21 ee 1d 3d
       0.047343828 -0.002182364 0.03162694 0.038557176
0001a0 4e 4d 10 3c 14 9a 07 bd b5 14 28 3d ca 45 12 bd
       0.008807493 -0.033105925 0.041035373 -0.035711087
0001b0 26 fd 58 bd 6e dd 09 3c 85 2c 4e bd 6c 68 2c bd
       -0.052975796 0.008414609 -0.050335426 -0.042091772
0001c0 12 db 94 bc f0 1e 24 3d 50 ef 48 bd cc 79 25 3d
       -0.018170867 0.040068567 -0.04905635 0.040399358
0001d0 0f e5 43 3d 69 dd c4 bc 98 4e 75 bc 06 57 30 bd
       0.04782587 -0.024031358 -0.0149723515 -0.043051742
0001e0 54 82 cd bb 91 99 20 bc 63 f6 2d bd 73 bc 33 3c
       -0.00627164 -0.009802238 -0.0424713 0.010970223
0001f0 bd 70 59 bc 96 5d f2 bc 69 70 8c bb 03 f6 3b 3d
       -0.013271508 -0.02958564 -0.0042858613 0.045888912
000200 46 9a 61 3d bd ca d5 bb fd be b8 bc ee ac 5a 3c
       0.055078767 -0.0065244124 -0.022552008 0.013346894
000210 89 16 47 bd b7 36 81 3b d3 ef 18 bb 01 f4 c9 3c
       -0.048605476 0.00394329 -0.0023336306 0.024652483
000220 88 c9 86 3c f0 06 23 bd b5 55 17 bd 1d 99 2d 3d
       0.01645352 -0.039801538 -0.03694697 0.04238235
000230 82 99 33 bd 6e 60 4b 3d 58 c2 71 3d 24 9d 40 3d
       -0.04384757 0.04965251 0.05902323 0.04702486
000240 f3 4a 42 3d a2 43 94 bc 05 07 88 3c 77 64 c4 bb
       0.04743476 -0.018098656 0.01660491 -0.0059934217
000250 be 3d e8 3c 46 e0 09 3c 57 ba 6e 3d 88 38 80 3c
       0.028349753 0.008415287 0.058283176 0.015651956
000260 12 1e e8 3b 40 ac 3e bd ca f5 92 3c 83 41 fe 36
       0.007083663 -0.04655099 0.017939467 7.5774165e-06
000270 ae 2f 4e bd 05 90 21 3d bb fa e7 bc 5c 80 dc 3b
       -0.05033844 0.03944399 -0.0283178 0.006729169
000280 44 2b 48 bd 6d 1d e7 bc 61 e2 28 bd 32 0c 9f bb
       -0.048869386 -0.028212273 -0.041231517 -0.0048537487
000290 04 89 6e bb 38 89 5e 3d 7a aa ac 3c 42 af 25 bd
       -0.0036397586 0.05433008 0.021077383 -0.040450342
0002a0 c1 ad e5 3a 0e 67 4b 3c 8d 44 3e 3d 9c fe 19 3d
       0.0017523096 0.012414707 0.046452094 0.03759633
0002b0 4f 6c a0 bc e5 2a 09 3c 99 40 1d 3d ce 7f 40 bd
       -0.019582896 0.008372043 0.038391683 -0.046996884
0002c0 4a 56 51 3d 8f d7 e2 ba 40 24 bd bc 8d c7 3d bd
       0.051107682 -0.0017306673 -0.023088574 -0.046332885
0002d0 f5 b1 db bc aa 25 55 3d be bc fd bc 87 a5 20 3d
       -0.026818255 0.052037872 -0.030973788 0.03922036
0002e0 1b f6 c5 b8 b0 c0 3a 3d f1 cd 07 3c 82 68 35 bc
       -9.439533e-05 0.045593917 0.008288846 -0.01107228
0002f0 54 7c 41 bd fa 84 4a 3c 9f 5b 48 3d 9e 18 1e bd
       -0.04723771 0.012360806 0.0489155 -0.038597696
000300 f1 4e 4c 3d 4d b5 d6 bc bd 24 a2 3c 3c 18 f9 bc
       0.049879972 -0.026209498 0.019792909 -0.030407064
000310 dc 33 51 3d 5a 6b 1d bd d6 95 60 bb c8 7a 44 bd
       0.051074848 -0.038432457 -0.0034268997 -0.047968656
000320 46 7a f4 3c c5 79 66 bd 9a 2e 5d 3d 67 2e 03 3c
       0.02984346 -0.056268472 0.05399952 0.008006669
000330 90 d4 ba bc a5 ff f4 bc 39 ca 39 bc c5 1b e9 3c
       -0.022806436 -0.029907057 -0.011339718 0.028455624
000340 a9 3b 8b 3c f2 f4 e4 bc 30 bc b3 bc 27 9e 17 bd
       0.016996222 -0.02794883 -0.02194032 -0.03701606
000350 5b 58 3e bc d7 40 06 3d f9 78 22 3d f4 9b 18 3b
       -0.011617745 0.03277668 0.03966615 0.0023286315
000360 79 4c a6 bc 89 22 59 bd 6b 25 67 3d dd 6c 1e 3d
       -0.020300137 -0.05301145 0.05643217 0.03867804
000370 38 d5 e4 3c 28 31 1c 3d eb 6b 37 3c c2 b5 2e bc
       0.027933702 0.038132817 0.011195163 -0.010663452
000380 3f cb 4d 3c 6f bd 9a bc 29 f2 d6 bc 44 24 b1 bc
       0.012560665 -0.018889157 -0.026238518 -0.021623738
000390 ee ed c6 bc 50 da 9d bc 64 0f ff 3c 32 e6 1f bb
       -0.024283376 -0.019269139 0.031135269 -0.0024398682
0003a0 1e ed 3f bd fe db bb bc 15 d3 65 3c 53 ef d9 3c
       -0.046856992 -0.022932049 0.014027377 0.026603376
0003b0 08 51 67 3c b1 71 81 3c 79 27 5a bb 52 72 4e bd
       0.01411844 0.015801283 -0.0033287688 -0.050401993
0003c0 dc b2 f6 ba ec 54 5e 3b b7 d1 2e 3d 2a fe 3b 3d
       -0.0018821615 0.003392513 0.04268047 0.045896687
0003d0 c5 87 56 3b a0 e7 2f 3d f0 a7 47 3d 06 ef fc 3c
       0.0032734734 0.042945504 0.048744142 0.030875694
0003e0 b8 16 4d bd f3 da 3c 3d 6f 07 00 3d 7b cd 93 3b
       -0.050070494 0.046107244 0.03125709 0.004510579
0003f0 0c 72 ee 3c 47 4c 17 3d c4 99 25 3d ee 76 8e bc
       0.029107116 0.036937978 0.040429845 -0.017390694

a2c_network.actor_mlp.2.weight f4 [128, 256]
000000 c0 dd f5 3c 42 fe 1d bc d1 8e f7 3c 34 ce f9 bc
       0.030012965 -0.009643139 0.030219467 -0.030493833
000010 78 ca 7b bd 7a f8 82 3d ec e6 35 bd 36 ec 4b bd
       -0.061472386 0.063950494 -0.044409677 -0.049785815
000020 13 64 09 bd 49 6e b0 bd 25 62 ac bc 08 eb 35 bd
       -0.033542704 -0.08614785 -0.021042893 -0.044413596
000030 bb 6a 7a 3c 34 05 8e bd d9 10 e9 bc 7c d1 9d bc
       0.015284236 -0.06934586 -0.028450416 -0.019264929
000040 a9 4b 8a bd cd 55 26 3c d7 dc f0 bb 8b f4 fb 3c
       -0.06752712 0.010152292 -0.007350545 0.030756256
000050 c3 8a 7d 3d 81 30 66 bd 03 dd 11 bd 1b f4 c3 3c
       0.06189991 -0.0561986 -0.035611164 0.02392011
000060 96 1e 17 3d 17 00 e6 3c aa da 48 bc 25 f9 37 3c
       0.036894403 0.028076215 -0.012259165 0.011228834
000070 70 0c 87 bd 4c fe 86 bd c1 44 1c bd 2f 4b 81 bd
       -0.06594169 -0.06591472 -0.038151506 -0.06313168
000080 2f fb 9d bd 68 a2 67 bd b6 ee a4 3c 29 84 b4 3c
       -0.07713925 -0.056551367 0.020133357 0.022035675
000090 19 df b7 3c f9 23 12 bc 14 3c 57 bc 81 23 45 3d
       0.022445248 -0.008919709 -0.013136882 0.048129562
0000a0 05 3f 15 bd b2 5a 3a 3d d7 34 fd 3c f4 39 7d bb
       -0.036437053 0.04549665 0.030908985 -0.003863928
0000b0 71 b3 a3 3d d2 8c 0a 3c b8 05 1f bd de 39 93 3d
       0.0799321 0.008456426 -0.038823813 0.07188772
0000c0 09 93 aa 3c c1 a6 38 3d ca 65 1e bc 28 bb 44 bd
       0.020822065 0.045080904 -0.009667823 -0.04803005
0000d0 30 ef 58 3d 41 c3 9f bc dc dd 2e 3d fb 45 e6 3b
       0.052962482 -0.019502284 0.04269205 0.0070273853
0000e0 68 c9 26 3d 37 43 63 bd 0a dd fc 3a 2a c0 76 3d
       0.04071942 -0.055484023 0.0019291949 0.060241856
0000f0 05 e8 9e bb 88 15 44 3d ed ec 24 3c 09 17 06 3d
       -0.004849436 0.047872096 0.010066253 0.03273681
000100 ef 71 72 3d 18 f6 0e bd 3a c4 61 3b ec 99 78 3d
       0.059190687 -0.034902662 0.0034449236 0.060693666
000110 31 77 ba bc ff b9 98 bd 3b 84 71 3d 60 25 49 bd
       -0.022761913 -0.07457351 0.058963995 -0.04910791
000120 40 a8 ef bc 04 69 ad 3c 0c 37 c8 3a 24 f6 93 bc
       -0.029255033 0.02116824 0.0015275194 -0.018061705
000130 cd 02 8e bc 42 fa 03 3d dc 8c 29 bd 1a fc 37 3d
       -0.01733532 0.032221086 -0.0413941 0.044918157
000140 88 12 b5 3c 03 5a 69 bd d2 48 88 bd a8 8f f8 bc
       0.022103563 -0.056970607 -0.06654514 -0.030341938
000150 6c 9a 7e 3d 6b d6 8e bc fe 5a 3b bd 9f 40 f2 3a
       0.062158987 -0.017436227 -0.045741074 0.0018482393
000160 aa 56 5c 3d 03 3b 32 3c 36 8a a6 3d d9 ba ac 3d
       0.053793587 0.010878327 0.081318304 0.08434076
000170 4b ff 1d 3d ba 61 f2 bc 3e 07 7c bd a6 47 47 bd
       0.038573544 -0.029587615 -0.061530344 -0.048652314
000180 99 a5 50 bb 67 75 57 bd 4b 2f 09 3d 16 1a 93 3c
       -0.0031836985 -0.052602198 0.033492368 0.017956775
000190 49 a3 f0 3c a0 b2 90 bd 61 dd 4d bd 5e 2e a8 bc
       0.029374735 -0.0706532 -0.05025995 -0.020529922
0001a0 b4 e2 74 3c d7 bf 92 3d 1e ab 0a bd df ea 41 3d
       0.014946628 0.07165497 -0.033854596 0.04734313
0001b0 b3 33 8d bc 84 92 0c 3c b5 1c ef ba 99 fa 77 bc
       -0.017236566 0.008579854 -0.0018242808 -0.015135431
0001c0 d2 cb 59 bc 1f 0f 5b bd 83 95 50 3c 8d 92 5a bd
       -0.013293223 -0.053481217 0.012730959 -0.053362418
0001d0 5a f1 5c bd 22 20 f7 bc 4b 7a 85 bd 92 6e 3e 3c
       -0.05394111 -0.03016669 -0.06517466 0.011623042
0001e0 d4 95 62 bd 31 44 9e 3d 40 ae a6 bc 59 38 e0 3c
       -0.05531867 0.0772785 -0.02034676 0.027370619
0001f0 cc 7a 35 bd bf 33 0b 3d 05 0d 87 bd 05 4d 44 3b
       -0.04430656 0.033984896 -0.0659428 0.0029953134
000200 f1 34 1c 3d 07 11 9a bd a0 de b3 3c 98 8c 8d bc
       0.038136426 -0.07522779 0.021956742 -0.017278954
000210 98 aa fa bc 71 56 92 bc 7e 99 7c 3d bc d2 e6 bc
       -0.030598924 -0.017863484 0.06166982 -0.028176658
000220 27 63 4e 3d 8e ac dd 3b 39 47 7c 3d 9f 98 78 bc
       0.050387528 0.006764955 0.06159136 -0.015173106
000230 8a 2f 07 3d ce 20 80 bc d4 3d 3d 3d fb f3 8a bd
       0.03300432 -0.015640642 0.046201542 -0.06784817
000240 8d 22 90 bc 98 b0 98 bc 8e 7d 2e bd 63 c2 ac 3c
       -0.0175946 -0.018638894 -0.042600207 0.021088785
000250 9d b6 9e 3c 94 a3 03 3d c7 30 0b bd 22 4e e1 3c
       0.019374186 0.032138422 -0.033982065 0.027503077
000260 7c 8e 2b bd f7 33 8a 3d f5 9b 85 bd 2c 3c 65 bd
       -0.04188393 0.06748193 -0.06523887 -0.055965587
000270 f7 83 16 3d 35 e9 70 bc 75 5f 20 3d 87 33 58 3d
       0.036746945 -0.014704038 0.039153535 0.052783515
000280 b1 cc 8a 3d 44 50 09 3d b3 63 2f bd e5 44 f2 b9
       0.06777323 0.033523813 -0.04281969 -0.00046209167
000290 94 d4 86 3b 51 dd a1 bd ee 85 e6 3c bd b6 90 3d
       0.0041146968 -0.07903541 0.028140035 0.070661046
0002a0 77 76 1a bd 06 cb 2d bd 5d 7c 93 bd 2b 2a 95 3a
       -0.037710633 -0.042429946 -0.07201455 0.0011380365
0002b0 56 de 04 3d 24 2c 8e bc ea f5 06 3d 87 6b a7 3a
       0.0324386 -0.017355032 0.032949366 0.0012773135
0002c0 b6 3a c4 3b 05 dc 39 3d 50 98 05 bd 3d 1e cc bc
       0.005988444 0.045375843 -0.03261596 -0.024916762
0002d0 41 45 26 3d 9e ca 67 bd e1 a7 30 3d 70 d6 8b bc
       0.04059339 -0.056589715 0.04312885 -0.017070025
0002e0 b1 a2 87 3d 65 59 94 bc 88 48 0d bd 1c 01 23 bd
       0.06622828 -0.018109033 -0.034493 -0.03979598
0002f0 1d 48 0a 3d 3a f4 30 bd e9 7b 50 bc 4e 41 5f 3d
       0.03376018 -0.043201663 -0.012724855 0.05450564
000300 d1 2a 88 bd c0 96 2c bd d0 0d 24 3c fa 7c e9 bc
       -0.066487916 -0.042135954 0.010013059 -0.028501976
000310 04 79 3c bd e2 73 26 3d 38 28 80 bd 18 c0 9e b9
       -0.046013847 0.04063786 -0.06257671 -0.0003027923
000320 f7 5f 6e bd 4d 68 86 3c 01 5e 8c 3b 91 27 30 3c
       -0.058196988 0.016407156 0.004283667 0.010751621
000330 40 4c f2 3c 22 e5 45 3b 5c 05 07 bc 9a 1e 09 3d
       0.029577374 0.0030196388 -0.008241024 0.03347645
000340 e4 04 cb bc a6 6a f7 3c cc 4d 48 bd 21 58 09 bd
       -0.024782605 0.030202221 -0.048902318 -0.033531312
000350 d0 af 13 bd 2d 1e 2e bd 49 e5 92 39 72 dd 1a bd
       -0.03605634 -0.042509247 0.0002801812 -0.037808843
000360 30 b6 6e 3c 77 6c 92 3d f5 6d ab bc 02 80 ec bb
       0.014569804 0.07149594 -0.020926455 -0.007217408
000370 bf 95 98 bb 4e ce 19 3d 07 29 13 3d c0 d7 fb 3b
       -0.004656523 0.037550263 0.0359278 0.0076856315
000380 1c 52 16 3d 49 b3 e6 3b 7b 5a 02 ba 76 48 f0 bc
       0.0366994 0.0070404154 -0.0004972589 -0.029331427
000390 07 5d dc bc 5a 0e 89 3d 83 69 39 bd 43 8a 8b bd
       -0.026899828 0.066921905 -0.04526664 -0.06813481
0003a0 55 cd 2e bc 77 da ee 3c 19 2d 52 bc 3e dc 24 bb
       -0.010669072 0.029156907 -0.012828135 -0.0025155689
0003b0 21 73 fe 3c 00 4b ba 3c fe c7 45 bd d4 2d 05 3d
       0.031060757 0.02274084 -0.04828643 0.03251441
0003c0 0b 60 96 3c 57 30 d6 bc ce 3e 28 bb 50 c0 84 bc
       0.018356344 -0.026146097 -0.00256722 -0.016204983
0003d0 4f a8 49 bc 02 a1 f4 3c 14 e8 04 3d 3f 2c 75 3d
       -0.012308194 0.02986193 0.03244789 0.05985665
0003e0 36 d2 f9 3c 43 43 94 3c a9 c5 c0 3c 78 d8 7c bd
       0.030495744 0.01809848 0.023531752 -0.06172988
0003f0 da 55 ce 3c 25 ef ee bb e3 70 ba 3c a4 2e 2d bd
       0.025187422 -0.007291692 0.022758907 -0.042280808

a2c_network.actor_mlp.2.bias f4 [128]
000000 ca 7c ee bc 90 d0 67 bb 5a bd 9e 3c 4c 70 0d 3d
       -0.029112238 -0.0035372116 0.0193774 0.034530923
000010 24 d6 fc bc 57 1e 0a bd ad b6 0e bd 66 50 28 3d
       -0.030863829 -0.03372034 -0.034842182 0.0410923
000020 17 58 b5 3b c2 05 0b 3d 0c ae c1 3b e4 b6 04 3d
       0.005534183 0.033941038 0.0059106406 0.03240098
000030 5f c2 2b 3d ba 97 ab 3b 56 4e 62 bb 21 85 33 3d
       0.041933414 0.005236593 -0.0034531555 0.043828133
000040 8b 4e 1d bd 8f bf 10 bd 5e 29 bf 3c b1 39 e3 bc
       -0.038404983 -0.035338935 0.023335155 -0.02773747
000050 07 3e 21 bd 6e a3 bd 3c e0 c9 0d 3d 4b fa 05 3c
       -0.039365795 0.023149218 0.03461635 0.00817735
000060 4c a1 1a 3d a7 e3 b3 3c 7a cd 12 bd a8 2c fe bc
       0.03775148 0.021959139 -0.03584049 -0.031027153
000070 09 e9 9b ba 97 8f 09 bd cc 49 d2 3c 52 3b 1a bd
       -0.0011895011 -0.033584204 0.025669955 -0.03765423
000080 48 f1 86 bb 0a 05 19 bd 9b 33 14 bb 22 6b 2d bb
       -0.0041181184 -0.03735832 -0.0022613767 -0.0026461561
000090 08 c6 93 3c b2 f7 b1 bc d1 71 06 bb 80 87 e4 bc
       0.018038765 -0.021724556 -0.0020514617 -0.027896643
0000a0 3d 28 16 bd 95 5b 16 bd 67 33 30 bd 39 ef 1d bd
       -0.036659468 -0.036708433 -0.04301777 -0.03855822
0000b0 45 50 6e 3c b8 6c b3 bc 29 cf c9 bc 1c e1 28 3d
       0.014545505 -0.021902427 -0.024634914 0.041230306
0000c0 33 e3 fe 3c ac 52 02 bd 08 19 d2 bc 4e 50 36 3d
       0.031114196 -0.031817123 -0.025646701 0.04451018
0000d0 1e ce 96 bb 96 59 bb bc c2 29 1f bd 1e 2f 9d bc
       -0.004602208 -0.022869866 -0.038858183 -0.019187506
0000e0 a8 2a 3c 3d 3c 30 69 ba 1c 60 22 3c 60 d4 f8 3c
       0.045939118 -0.0008895432 0.00991061 0.030374706
0000f0 2e ab b0 3c 4f 7f 96 3a 5c 86 de bc 8b ab 9c 3c
       0.021566 0.0011482033 -0.027163677 0.019124767
000100 2a 11 91 3b ff 61 29 3d ad 38 37 3d 47 80 1a 3d
       0.004427095 0.041353222 0.044731785 0.03771999
000110 0c d6 9b bc 01 ab 9b bc e8 9e e7 3c 5f 0e ca 3b
       -0.019022964 -0.01900244 0.028274015 0.006166264
000120 85 22 cb bc 8f 38 53 3c 02 aa fe bc c1 a6 0b 3c
       -0.024796734 0.012891903 -0.031086925 0.008523644
000130 47 b5 db 3c 5d fc 02 3d 86 35 25 3d 23 04 0b bd
       0.026819838 0.031978954 0.040334247 -0.033939492
000140 1c 82 46 3d 70 12 fd ba e5 13 16 bd c1 c3 31 3d
       0.048463926 -0.0019307863 -0.036640067 0.043399576
000150 11 f8 fd bc 43 4f 24 3c 0d 2d 1b bc 35 54 16 bd
       -0.031002076 0.010028663 -0.00947119 -0.0367014
000160 f4 fd 2d 3c f8 7a a5 bb fa b5 30 3d 8a b7 0e bd
       0.010619629 -0.0050500594 0.043142296 -0.034843005
000170 a3 ee 19 3d 01 b1 38 3d 57 58 45 3d 91 99 25 bd
       0.037581097 0.04509068 0.04817995 -0.040429655
000180 53 27 3a 3d 3c d4 08 bd ee 5b 33 3d b9 77 92 bc
       0.04544766 -0.033405527 0.043788843 -0.017879354
000190 28 cf 4c bb c2 48 13 3d 97 a9 c9 3c 6d c0 85 bc
       -0.0031251404 0.03595806 0.024617 -0.016327107
0001a0 70 16 0c 3d 51 86 6e bc 4d 65 c7 3c 7a 39 e4 bc
       0.034201086 -0.014558391 0.024340296 -0.027859438
0001b0 2f 29 22 3c 80 a4 b3 bb 62 14 30 3d b6 49 0d bd
       0.009897514 -0.0054822564 0.04298819 -0.034494124
0001c0 00 2d 2b bd 81 46 2d 3d 8a 4a 5c bc 37 e2 38 3d
       -0.041790962 0.042303566 -0.013445506 0.04513761
0001d0 65 b0 17 3d 43 e3 11 3d b1 76 c4 bc a3 6c c2 bc
       0.037033457 0.035617124 -0.023982378 -0.023733443
0001e0 a4 eb 2c bd d7 9d f4 bc d7 d7 d9 3c 92 11 fa bc
       -0.042216912 -0.02986042 0.026592178 -0.030525956
0001f0 04 87 23 3d f3 32 2b bd 27 58 3c 3d a4 e3 28 bc
       0.039923683 -0.041796636 0.045982506 -0.01030818

a2c_network.actor_mlp.4.weight f4 [64, 128]
000000 c2 50 33 3d ce 38 81 bc 4e 6f 98 bc c3 63 93 3d
       0.04377819 -0.015774157 -0.018607762 0.071967624
000010 fb 35 4a 3d d1 84 aa 3b ae 82 d8 bc 51 d6 57 bc
       0.049367886 0.005203821 -0.0264295 -0.013173656
000020 b9 bc a0 bd 8a d6 98 3d 6b f9 78 bd 4b 40 41 3d
       -0.07848496 0.07462795 -0.06078474 0.047180455
000030 8c f2 8c 3d fa cd cc 3c 88 ed b6 3d 28 31 75 bd
       0.068822 0.025000561 0.08932024 -0.059861332
000040 96 11 b6 3c 8a 4c 6d 3d 1f 8b a4 bd 21 1c 9a bd
       0.022225183 0.05793432 -0.08034348 -0.075248964
000050 3e 32 00 3d 9c 53 84 3d 90 63 55 3d b5 28 2f 3d
       0.031297915 0.0646126 0.052096903 0.04276343
000060 57 58 ec 3c 36 7b 47 3d 94 48 71 bd 49 21 8d bd
       0.028850717 0.048701487 -0.058907107 -0.06891114
000070 03 de b2 3d 9e a1 c4 bc 97 a8 6b bc 0e af aa bc
       0.087337516 -0.024002846 -0.014383457 -0.020835426
000080 5e ea e1 3c e2 89 f2 3c 4c 2a b3 3d 13 8d 80 bb
       0.027577575 0.029606763 0.08748302 -0.0039230674
000090 2b 84 2f 3c 84 0c 02 bc 85 53 6d 3d b0 3d a2 3c
       0.010712664 -0.007937554 0.05794098 0.019804806
0000a0 69 5c c4 3d e0 c8 4c bd 63 72 be bc aa a0 80 3d
       0.09587938 -0.049996257 -0.023247903 0.06280644
0000b0 6a 1f ca bd 3c 68 b2 bc 71 d7 40 3d 22 ee 66 bd
       -0.09869273 -0.021778218 0.04708046 -0.056379445
0000c0 8f 9c 85 bd ea 53 77 bb 7f b4 a3 3d 34 a5 98 bb
       -0.06524002 -0.0037739226 0.07993411 -0.0046583656
0000d0 97 e6 0f bc 31 97 84 bd f8 2d 92 bb 7e 4d 62 3d
       -0.008783004 -0.0647415 -0.0044610463 0.055249684
0000e0 f3 55 af bd e0 d0 a4 3d 9a 75 e7 bb 9b 54 6e 3d
       -0.085613154 0.08047652 -0.0070635797 0.058186155
0000f0 20 01 25 3b 15 8e 9d bd 57 0a 48 3d f0 ec 91 bd
       0.0025177673 -0.076931156 0.048837986 -0.0712527
000100 1f ad a5 3c 5e 25 af bc e3 d3 aa bd a1 9a 0a 3c
       0.020224152 -0.021380123 -0.083411954 0.008459718
000110 c3 5c 16 bd 79 45 85 3d 14 56 1d bd ed 0e 90 bd
       -0.03670956 0.065073915 -0.03841217 -0.07034097
000120 32 21 89 bd c6 0b 6a bd fb 93 a2 3d 2a 37 ba 3d
       -0.06695785 -0.057140134 0.07938381 0.09092553
000130 1e 47 08 3d ad 74 b4 bd bf 0a a6 3b d6 c7 20 bd
       0.033270948 -0.08811317 0.005067199 -0.03925308
000140 38 18 ee 3c 82 a6 8f 3d 88 41 5d 3d d8 bc 36 bb
       0.029064283 0.07014181 0.054017574 -0.0027883556
000150 4a 8b 1a bb 62 f3 27 bd 67 be 3c bd b8 c7 14 bd
       -0.0023581558 -0.041003592 -0.04608002 -0.03632328
000160 0b 53 2e 3d 02 0a b1 3d 30 d5 c5 bc bf b5 d2 3d
       0.042559665 0.08644487 -0.024149507 0.102885716
000170 21 3a a0 3c 64 11 33 bd 2c 15 34 3d 39 1c 5f bd
       0.019558968 -0.043717757 0.043965504 -0.054470275
000180 2a 30 20 bb 34 81 31 bd 4e e6 a9 3c fa 03 8a 3c
       -0.002444277 -0.04333611 0.0207397 0.0168476
000190 38 f4 2b 3c ac ba 17 bd df 59 99 bd 67 ae 9b bb
       0.010495238 -0.03704326 -0.07487845 -0.004751015
0001a0 7b ab 04 3d da b0 49 bc 67 19 42 bd 9c 93 a5 3d
       0.0323901 -0.012310231 -0.047387507 0.08084795
0001b0 c7 0c a2 bb 08 86 c0 3c f5 73 e5 3c 1e a9 c2 bc
       -0.004945371 0.023501411 0.028009394 -0.023762282
0001c0 99 00 c0 bb 8c 6f be bd 4f c8 4e 3d 96 a5 41 3d
       -0.0058594462 -0.0929862 0.050483998 0.047277056
0001d0 e5 f1 a3 bd 8d c7 35 3d 04 0b 87 bc a4 5c 7b 3d
       -0.08005122 0.04437976 -0.016484745 0.061367646
0001e0 da 07 20 3d 53 46 01 3d 47 f8 8f 3c 2b 18 01 3d
       0.039069988 0.031561207 0.017574443 0.03151719
0001f0 6c 19 80 bd 99 0b 46 bd 92 6c 5f 3d b2 9e cf 3c
       -0.06254849 -0.048350904 0.0545469 0.025344227
000200 b0 c7 08 bd fe a1 b4 3b 7a a1 4f 3a 66 b5 4f bd
       -0.03339356 0.005512475 0.0007920485 -0.050710104
000210 66 4d d3 3c eb 53 a2 bd ec 18 52 bd ed dd 23 bc
       0.025793742 -0.07926162 -0.0512933 -0.010001642
000220 60 d5 c2 3d 58 07 0b bc f5 3d 12 3c 97 13 09 3d
       0.09513354 -0.008485638 0.0089259045 0.033465948
000230 c3 35 ca 3d 5c 63 eb 3d ff 0d 16 3d af df 9d 3c
       0.098735355 0.11493561 0.03663444 0.0192717
000240 10 21 78 3c c9 98 f9 bb 0c 32 43 bd 05 ef e3 bc
       0.015144601 -0.0076170904 -0.04765515 -0.027823934
000250 b4 53 fb 3c 3a 13 2d bd af 94 cf bc a1 e2 66 bd
       0.030679561 -0.042254664 -0.025339453 -0.056368474
000260 66 a3 bb 3d d8 da 19 bd cb e6 f3 bc 99 36 b7 bd
       0.09162025 -0.03756222 -0.029773137 -0.089459606
000270 d5 1e 4b 3d 3f a6 a8 bd 0c 15 82 3d bb 0b a6 bd
       0.04958995 -0.08234834 0.063516706 -0.08107706
000280 e1 58 63 bd 4f 29 f4 bc a9 4f f0 bc a6 2a 98 bd
       -0.055504683 -0.029804854 -0.02933486 -0.074300095
000290 67 81 47 bd 7f 45 b7 bd df fe 8b bd 24 c4 a5 3c
       -0.048707392 -0.08948802 -0.06835722 0.020235129
0002a0 25 e8 a3 3a 48 57 b2 bd 81 39 95 bd d4 63 12 3d
       0.0012505098 -0.08708054 -0.072863586 0.035739735
0002b0 a0 f1 4c bd f8 9f 32 3d 44 a1 eb bc 54 04 21 bd
       -0.05003512 0.04360959 -0.02876342 -0.03931077
0002c0 e8 a6 89 3d 8d 60 33 3d 91 bf 91 3c 98 d1 b5 3b
       0.06721288 0.04379325 0.017791541 0.005548667
0002d0 00 70 88 bd 70 34 b7 bc 78 b1 bb bd be 8a eb bb
       -0.06661987 -0.022363871 -0.09164709 -0.00718817
0002e0 d3 c6 cd bc cd db d9 3c b3 e2 62 bb 99 44 a9 3d
       -0.02511922 0.026594067 -0.0034619987 0.08265037
0002f0 bb 52 7d bd f3 96 a9 bd 47 c5 a2 3c ec 8d 8e bc
       -0.061846476 -0.082807444 0.01986946 -0.017401658
000300 d8 46 76 3d 8a de 26 bd 73 98 54 3d b2 ac 47 3d
       0.060126156 -0.040739574 0.0519032 0.04874868
000310 49 89 7e 3d 0f 7b d7 3c 90 c8 94 3d 25 a9 5d 3c
       0.062142644 0.026303796 0.07264817 0.013529097
000320 f9 b8 25 bc 4c f7 74 3d aa d4 b2 bd 5f ef d5 bd
       -0.010114902 0.059806153 -0.08731969 -0.10446047
000330 e0 e6 09 3d 09 93 5a bd 3f e3 1f 3d 63 58 93 bc
       0.033667445 -0.05336288 0.03903508 -0.017986482
000340 fb 4b bf 3d 5b d1 8c 3d f7 fe e3 bd bb 51 f0 3d
       0.09340664 0.06875869 -0.11132615 0.11734339
000350 d2 db cd bd c0 ca a3 bd b9 1d 8a bc c4 72 31 bc
       -0.10051693 -0.07997656 -0.016859876 -0.010830585
000360 61 3e 8b bc 47 90 30 bd e6 ea 0b 3d 05 dd 4c bd
       -0.016997518 -0.043106344 0.034159563 -0.05001547
000370 c8 d9 cb bb cc 20 84 3d e0 6c 93 3d 9d 03 4d bd
       -0.00622103 0.06451568 0.07198501 -0.050052274
000380 f4 19 87 3d 96 72 fe 3c 30 ea a0 3c fd 8f 31 bd
       0.06596747 0.031060498 0.01964292 -0.04335021
000390 61 d2 22 3d 3a 7e f2 3c ed c0 ca 3d 69 55 5d 3d
       0.039751414 0.029601205 0.09900079 0.05403653
0003a0 ab 28 7a bd 53 08 45 bd fe d0 2d bd aa 84 5f bc
       -0.06107394 -0.04810364 -0.04243564 -0.013642469
0003b0 08 d8 a9 3d b0 4a 88 3d 55 68 e8 3b af 41 06 bb
       0.08293158 0.066548705 0.0070925155 -0.0020485928
0003c0 5a 91 f5 3c 0c 51 dd bc 81 e7 8e 3b 11 a4 b3 3c
       0.029976536 -0.027016185 0.0043610935 0.021928819
0003d0 88 8f 37 3d 11 72 d0 3b 0a 4e ba 3c 33 86 70 3b
       0.044814616 0.006361254 0.02274229 0.0036701083
0003e0 22 ad 24 bd f7 c3 00 bd 2f 1e 2c bd 2b 5c f6 bd
       -0.040204175 -0.031436887 -0.042020973 -0.120292984
0003f0 a8 22 5c 3a 69 c2 b0 bd 85 99 cf 3c 67 73 92 3d
       0.0008397498 -0.08630831 0.025341759 0.071509175

a2c_network.actor_mlp.4.bias f4 [64]
000000 23 bb 20 3c 7c d2 fe 3b 95 00 af bc fb c6 cb bc
       0.009810242 0.0077765565 -0.021362582 -0.024875155
000010 4b 32 39 bb 35 91 ca bc de 88 a4 bc 3c a3 f4 3c
       -0.0028258737 -0.024727443 -0.020084795 0.029862992
000020 f3 f6 a9 bc 3d 26 ec 3b b2 bf 82 bb 6b 4a 94 3b
       -0.020747637 0.007206707 -0.003990137 0.004525473
000030 be 6a 0f bc 26 a5 dc bc 51 bd 28 bc 88 7d 11 3d
       -0.008753477 -0.026934218 -0.010299043 0.035520107
000040 9d 0d 15 bd d0 d2 6c 3c 45 3d 92 3b e5 95 8e bb
       -0.036389936 0.0144545585 0.0044628703 -0.004351365
000050 e7 44 05 3d 9c da ac bc 4e 2a 03 bc 4f b7 0e bd
       0.032536414 -0.021100335 -0.008005692 -0.034842785
000060 6c 39 cd 3c ec 67 fc bc ed 8b 84 3c 62 a9 bc 3c
       0.025051795 -0.030811273 0.016180003 0.023029987
000070 3f 93 1a bc 4a 99 e9 bc ae 98 b3 3c ea 57 84 bc
       -0.00943452 -0.028515477 0.02192339 -0.016155202
000080 91 04 26 bc 0e c5 e2 bc 80 48 38 bc 3e aa de b8
       -0.010132925 -0.027681854 -0.011247754 -0.00010617495
000090 bb 36 13 bd 7f dc 06 bd 00 47 1d 3d 3f 05 63 3c
       -0.035940867 -0.032925125 0.03839779 0.013856231
0000a0 20 c9 2b bb cb 96 1d bb a0 33 fa 3c ba 66 9c bc
       -0.002621241 -0.0024046178 0.030542195 -0.019091953
0000b0 23 99 98 3c 74 e6 23 3d bd 19 0a 3d db a3 9a 3b
       0.018627709 0.0400147 0.033715952 0.00471924
0000c0 9b 06 25 3d ef d7 fc bc 0d ec 5f 3c 83 bc 96 bc
       0.040289503 -0.030864684 0.013667119 -0.018400436
0000d0 b3 aa d1 bc 3c 38 fc 3c f2 4f 8a bc b6 5f fe 3c
       -0.025594091 0.030788533 -0.016883824 0.031051498
0000e0 c6 45 37 3d d7 9e 33 3c fa 10 28 bc ef 46 0a 3d
       0.044744276 0.010963163 -0.010257954 0.033759054
0000f0 ab 40 04 bd df 13 37 bb f6 29 11 bc c2 98 f4 bc
       -0.032288235 -0.0027935428 -0.008860102 -0.029857997

a2c_network.value.weight f4 [1, 64]
000000 fa ae b4 bd 94 9a e2 3d 95 be d8 3d e7 c1 f4 3c
       -0.08822437 0.1106464 0.10583226 0.029877616
000010 9a 2e 50 bc e8 c1 bd 3d 0d 50 ed 3c 50 3e 8e bb
       -0.012706423 0.092655 0.028968835 -0.0043409243
000020 95 3c 19 3d 0d c5 f6 3d df 83 e6 3d e8 87 ad bd
       0.03741129 0.12049303 0.11255621 -0.08473188
000030 a5 b8 9d 3b e5 b3 05 3e 49 00 a3 3d 3b c0 9d bd
       0.004813271 0.13056906 0.07959039 -0.07702681
000040 7c f6 04 3e 41 20 e7 bd 0b 4e b2 bd 37 43 60 bc
       0.12984651 -0.11285449 -0.08706292 -0.0136879
000050 aa 01 1b bd e6 6f 25 3d 13 ca 88 bb b6 0a 11 3e
       -0.037843384 0.040389918 -0.0041744797 0.14164242
000060 71 61 20 bd 70 b3 dc 3d 34 0f f7 3c 0f 2a 02 be
       -0.039155427 0.107764125 0.030158617 -0.12711357
000070 e3 1a aa 3d cb c6 de 3d 6a 26 09 be 6f 0b d5 3c
       0.083059095 0.108777605 -0.1339356 0.026006429
000080 29 0b bb bc 52 ae c9 3d c2 15 7b 3d a8 c6 ba 3c
       -0.02283247 0.09847702 0.061300047 0.022799805
000090 30 70 06 3e 05 3e 0a 3e bb 9a bf bd 8c bb ef 3d
       0.13128734 0.13500221 -0.09355684 0.117056936
0000a0 b2 56 5b bd a8 21 25 3e b1 46 d7 bd 0b a5 0f bb
       -0.053549476 0.1612612 -0.1051153 -0.0021918442
0000b0 56 e8 8e bd d7 3b 10 be f9 b6 13 be bf 43 f9 bd
       -0.06977908 -0.14085327 -0.14425267 -0.12171125
0000c0 97 50 1d bd 05 0a c0 3d 2a e1 12 be fc 9c 9c 3d
       -0.038406935 0.09376911 -0.14343706 0.0764713
0000d0 4e df c4 3d f1 0e 6d bd 7d ae 35 bc 85 02 84 bd
       0.096129045 -0.057875577 -0.0110889645 -0.06445793
0000e0 44 ff 3f bd 87 b9 95 bd db c4 ed 3d 24 30 5a bd
       -0.0468743 -0.07310777 0.11609813 -0.053268567
0000f0 7f b2 b9 3d da b5 29 3c 0e 10 0e 3e 54 fe ec 3c
       0.090672486 0.010358298 0.13873312 0.028929867

a2c_network.mu.weight f4 [24, 64]
000000 e7 1a b3 bd 39 6f cf bc 17 20 9d ba 85 5a 19 bd
       -0.087453656 -0.02532159 -0.0011987713 -0.03743984
000010 13 02 a1 bd cd 62 0c 3e f0 6b f1 3c 85 f8 31 3d
       -0.07861724 0.13709565 0.029470414 0.043449897
000020 43 58 3c 3d 47 35 50 3d 77 1f ff bd 5f 54 e7 3b
       0.04598261 0.05083206 -0.12457173 0.0070596184
000030 4e 88 c0 3d e4 ea c4 3c e5 77 58 bd 22 2d c2 bc
       0.09400998 0.024037786 -0.052848715 -0.023703162
000040 99 77 98 bd 51 5a 49 3d f4 74 ec 3c df da a6 bd
       -0.074446864 0.049158398 0.028864361 -0.08147215
000050 2e e4 3c 3d a5 ed b2 bd 77 cd a1 3d d5 e5 6c bd
       0.046116047 -0.08736733 0.079005174 -0.057836372
000060 0f 5e 13 be 0b 88 1c 3d 2c c5 36 bd c6 20 9a 3d
       -0.1439135 0.03821568 -0.04462163 0.07525782
000070 bd cb 59 bd 30 bb 0a 3e b1 e9 d7 3b 07 c8 06 3d
       -0.053172816 0.13547969 0.0065891375 0.032905605
000080 d1 5a 51 3d be ea 77 3d 8c d1 82 3d 76 54 db 3c
       0.051112 0.060526602 0.06387624 0.026773673
000090 20 80 06 3e 0a 47 af bd 07 b6 a3 bd 61 5a 8a bd
       0.13134813 -0.085584715 -0.07993703 -0.0675552
0000a0 fd a3 7f bd 87 89 c5 bd ce f2 cd bd 7f b9 3c 3d
       -0.06241225 -0.09645372 -0.10056077 0.04607534
0000b0 66 65 44 bd a0 06 02 be ef 4d 0b 3d 38 ff ef 3d
       -0.047948264 -0.1269784 0.03400987 0.11718601
0000c0 9e d0 9b 3c 64 dd 87 bd 5f 0e 03 3e 7b d0 eb 3c
       0.019020375 -0.06634024 0.12798451 0.028785935
0000d0 79 c9 43 3c 94 7d 90 bc 29 bc 00 3e 83 49 ab bd
       0.01194989 -0.017638005 0.12571777 -0.083636306
0000e0 1a 54 da bd 43 21 31 3d 86 64 c8 bd ba 4f 8a bd
       -0.10660572 0.04324461 -0.09784798 -0.06753488
0000f0 aa a1 36 3b 0f c0 e8 3d b7 bc 41 bd ce 38 ad 3c
       0.0027867355 0.11364757 -0.047299113 0.02114525
000100 78 ce fe bd 52 75 bb 3d 5f f9 e9 bd 70 4c 0f bc
       -0.124417245 0.091532364 -0.11424517 -0.008746251
000110 3b 91 78 3c 7c 51 42 bd 31 0c 2d 3c 63 b2 0a 3d
       0.015171344 -0.04744099 0.010561989 0.03386153
000120 7c ef c7 bd fb 8a a4 bd b7 06 0e 3e ba 5b 04 be
       -0.09762475 -0.08034321 0.13869749 -0.12925616
000130 a0 11 70 bd 42 be 52 3d b7 da d8 bb 1b 9d f8 bb
       -0.05861056 0.051450975 -0.0066178697 -0.007587088
000140 43 d8 96 39 88 5a 0d bd 8f 22 10 3d 78 c3 95 bd
       0.00028771357 -0.034510165 0.035189208 -0.07312673
000150 17 d3 56 3d ef f3 08 be a4 fe 2b bd 1e d5 a1 3d
       0.052447405 -0.13374303 -0.04199089 0.07901977
000160 27 7a 96 3d d0 61 7d bc a7 1b 1e 3d b7 54 fd 3d
       0.073475175 -0.015465215 0.03860059 0.12369674
000170 4b 40 c7 bc 47 f7 59 3d e3 21 e4 3d 80 8a 3b bd
       -0.02432265 0.053214338 0.11139276 -0.04578638
000180 66 0c 64 3d 15 fe d1 3c 36 f6 29 bd cf 09 d3 bd
       0.055675887 0.025633851 -0.04149457 -0.10304605
000190 b1 1d 32 bd be 22 ad 3d 44 8c a0 3d 0c 18 f5 3d
       -0.043485347 0.08453892 0.078392535 0.11967477
0001a0 4f 02 c2 bd 7e c4 c6 bd a2 79 37 bc 39 df 0e be
       -0.094730966 -0.09705447 -0.011198433 -0.1395234
0001b0 be 72 8f 3d 96 4d 21 bc 31 c0 6f bd a9 da c7 bc
       0.07004307 -0.009845158 -0.058532897 -0.024396257
0001c0 7a d3 1f bc 6c fd 9e bc 0d 00 58 3d 9b 37 bc bd
       -0.00975501 -0.01940795 0.052734423 -0.091902934
0001d0 7e 72 28 3d 0e eb a2 3c 25 bb 4b 3d ba f5 08 3d
       0.041124813 0.019887473 0.04973902 0.033437468
0001e0 cb 64 a0 3d 26 f2 e6 bd 51 62 ae 3d cd c1 da 3d
       0.07831725 -0.11276655 0.08514846 0.10681496
0001f0 83 02 b1 3d c9 b1 82 bc 58 15 5c 3c f1 bf bf 3d
       0.08643057 -0.015953915 0.013432823 0.09362782
000200 c2 da 9a bd e9 1e 18 bd 16 8f 54 3d 22 b8 28 bd
       -0.07561256 -0.037138853 0.05189427 -0.041191228
000210 df 52 e9 3d f3 ef e1 3d e6 21 f5 3d ca ef 0e 3d
       0.113927595 0.11032095 0.11969356 0.03489665
000220 83 5d 82 3d a3 98 ad 3b a5 c8 61 3d c0 09 1f 3d
       0.06365492 0.0052977367 0.05512299 0.038827658
000230 15 58 72 3c 2c a2 8c 3c e5 78 05 bc 20 b3 08 be
       0.014791508 0.017167173 -0.008146499 -0.13349581
000240 fc 41 b2 3d d3 f8 f3 3d 1d 5a 48 3d ad 4c 24 3d
       0.08703992 0.11912694 0.048914064 0.040112186
000250 98 42 43 bd aa 76 95 bd 0e 83 ab bd 20 96 94 bd
       -0.04767093 -0.07298024 -0.08374606 -0.072551966
000260 75 b0 cb bd d3 8e af bd 34 e4 55 3a db de d0 3d
       -0.09945766 -0.085721634 0.000815931 0.10198756
000270 2a ce 15 bd 6c ff e2 3d f0 1e 25 3d a5 db e8 3d
       -0.036573566 0.11083874 0.040312707 0.11370019
000280 9a 8e 90 3d e4 85 f3 3d fb d5 a6 3d 6c 41 f3 bc
       0.07058449 0.11890772 0.08146282 -0.029694282
000290 34 14 4c 3d b3 d9 c5 3d 9c a8 fd bd 6c 07 cf bd
       0.049823955 0.096606635 -0.12385675 -0.101088375
0002a0 b0 72 cd 3d 4d 83 98 bd 06 1a d4 bd 94 cd 96 3b
       0.100316405 -0.07446919 -0.10356526 0.0046021435
0002b0 13 fd 0a bb 61 28 9d bd c6 ce dd bd 16 1c 8c bd
       -0.0021207973 -0.07673717 -0.108304545 -0.068412945
0002c0 a6 a6 cb bd 6d 20 0e 3e 5d 3a 43 3d f3 4f 5d bd
       -0.09943895 0.13879557 0.04766308 -0.054031324
0002d0 8d 4d 06 3e 28 58 2b 3d 67 90 8d 3c b6 d7 11 bd
       0.13115521 0.04183212 0.01728077 -0.03560611
0002e0 3b 37 e2 bd 3f f7 16 bd dc e1 b2 3d 5e f1 cc bd
       -0.110456906 -0.036856886 0.087344855 -0.10006975
0002f0 58 8d 0a 3d 80 f2 ea 3d 88 62 d0 bd 04 30 23 3d
       0.033826202 0.114720345 -0.10175043 0.039840713
000300 20 b2 0b 3d dd 3e 0b 3e 0c 1c d8 bd 35 62 ba bd
       0.03410542 0.13598199 -0.105522245 -0.09100763
000310 19 da ea 3c e3 4a 1d 3c 67 e2 ba 3d e4 b8 bf 3d
       0.02866845 0.009600374 0.09125214 0.09361437
000320 1d f2 a5 3d 0a 2f 0d 3e db 03 8c bc 8b ad 5b 3d
       0.0810282 0.13787475 -0.017091682 0.0536323
000330 16 3b 64 3d f4 b1 b0 bd 76 96 2b bd 16 54 9d 3d
       0.05572041 -0.08627692 -0.041891538 0.07682054
000340 de 22 15 3d ce 43 f3 3c 84 82 bc bd 03 e7 f0 bd
       0.036410205 0.029695418 -0.092045814 -0.11762812
000350 f5 a4 9c 3d f2 ca bc bd e4 dd c0 3b 06 ad e8 bc
       0.076486506 -0.09218396 0.0058858264 -0.028402817
000360 6c 64 19 3e 61 a4 92 3d 99 ee 18 3e a7 59 f0 3d
       0.14979714 0.07160259 0.14934768 0.1173585
000370 ae 52 d2 bd 43 89 97 3d 87 ef 09 3e e1 1a 2f 3d
       -0.10269676 0.073992275 0.13470279 0.042750243
000380 3e 8f 18 bd 97 7c dc bd c5 8a de bd e4 b8 b1 3d
       -0.03724598 -0.10765951 -0.10866312 0.08677843
000390 5a 56 df 3b 4f 23 04 be 68 5a f5 3d ac 61 12 3e
       0.006815714 -0.12904094 0.11980134 0.14295071
0003a0 63 8a 9b bb ea e5 a5 3d 91 c5 d3 bd dd 81 c3 bd
       -0.0047467216 0.08100493 -0.10340417 -0.09546254
0003b0 34 8c d4 bd 52 07 a1 bd 5d c7 39 3d ce 0e bf bc
       -0.10378304 -0.07862724 0.045356143 -0.02332249
0003c0 33 f1 36 bb 19 e8 64 bc ed e9 68 3d c0 53 91 3d
       -0.0027914762 -0.013971352 0.056863714 0.07096052
0003d0 2e 1c b7 bd 1b 5d e1 3d b8 ed 83 bd 15 3a ba 3d
       -0.08940922 0.110040866 -0.06441826 0.090931095
0003e0 a8 f1 15 bd a9 24 a0 bd 44 e9 a4 3c e2 97 cf bb
       -0.036607414 -0.07819492 0.020130761 -0.0063352445
0003f0 9e 89 3a bc e2 60 2f bd 3f cd a3 bc 47 9f 02 be
       -0.01138535 -0.042817004 -0.01999533 -0.12756072

a2c_network.mu.bias f4 [24]
000000 ae d9 9e bc 0b 71 64 3b f6 b3 97 bc 4a 4c ef 3c
       -0.019390907 0.0034857418 -0.01851843 0.029211182
000010 4f ff 71 3b b1 66 2e 3c 60 e9 d0 ba e3 2b fd 39
       0.0036925857 0.010644601 -0.0015938692 0.0004828862
000020 82 90 15 bb 10 95 a8 bb f5 6d 5f bc 9a 5e ab bc
       -0.002282173 -0.0051447228 -0.013637056 -0.020919133
000030 37 ee f9 bb 6d 40 28 bc fe 54 63 bc 76 7e da bc
       -0.0076272744 -0.010269267 -0.013875244 -0.02667163
000040 99 99 99 3b 64 91 84 3c aa 7f de 3c e3 ec 2e 3c
       0.0046874997 0.016182609 0.027160484 0.010676595
000050 82 33 64 3c f2 3d f7 38 79 3a a9 3c 83 1b e7 3c
       0.013928296 0.00011789416 0.020657765 0.02821136

exp_avg f4 [24]
000000 53 d2 9d ba 76 48 be 3b 01 c8 7a bb ce ea 32 bb
       -0.0012040831 0.005806978 -0.0038266184 -0.00273006
000010 eb 4b 93 3a 16 1e 5b 3b a0 a6 9b bc b5 8f f6 ba
       0.0011237835 0.003343468 -0.019000351 -0.0018811139
000020 a9 7c 35 bc e9 a4 81 3a 48 d8 9c 3b 90 a7 97 39
       -0.011077085 0.0009891066 0.004786525 0.00028925808
000030 fb 3a 1b 3c 2d 02 17 bc 15 cd c3 39 40 52 18 3b
       0.009474511 -0.009216827 0.00037346096 0.0023242384
000040 75 79 20 bc 06 63 9d 3b 68 f7 96 bb b9 71 14 3c
       -0.009794583 0.0048030643 -0.00460713 0.009060317
000050 c5 96 02 3c bb 94 5a bb 02 ad 80 3b d8 c1 25 3c
       0.007970517 -0.003335281 0.003926874 0.010117017

exp_avg_sq f4 [24]
000000 c4 21 45 3a e7 ba 61 3a 8a 36 62 3a 6b 36 68 3a
       0.0007519985 0.00086109195 0.0008629343 0.00088582066
000010 0d 98 53 3a 87 f6 71 3a 7b 93 64 3a 23 aa 5f 3a
       0.00080716686 0.0009230156 0.0008719486 0.0008532127
000020 c1 27 80 3a 67 c2 67 3a 23 13 5f 3a 72 e0 4b 3a
       0.0009777473 0.0008840919 0.00085096265 0.00077772804
000030 9d b2 6e 3a f5 65 6d 3a 5e 6b 5b 3a 8a c7 62 3a
       0.0009105595 0.00090560253 0.0008370186 0.00086509495
000040 8e 85 62 3a 7c 2b 60 3a 0a e5 77 3a f6 63 83 3a
       0.0008641117 0.00085514016 0.0009456432 0.0010024298
000050 8b 3e 62 3a 17 3d 56 3a c7 1b 52 3a 04 99 50 3a
       0.00086305354 0.0008172555 0.00080150034 0.00079573714
