runs/lift_30-17-20-25/nn/lift.pth (torch, 651493 bytes, 36 tensors)

value_mean_std.running_mean f8 [1]
00000000: 7913 ef31 2d29 3ec0
-30.16084587179964

value_mean_std.running_var f8 [1]
00000000: 983f 2473 5286 c240
9484.644138842632

value_mean_std.count f8 []
00000000: 0000 0000 0880 0941
208897.0

running_mean_std.running_mean f8 [39]
00000000: 0000 0000 0000 0000 cc63 faf0 f0ff f73f
00000010: 8067 fb52 bfcc f43f 0985 f8eb ebff df3f
00000020: 4c50 fa0f 8999 d93f 654f 7a11 2533 0740
00000030: 0985 f8eb ebff df3f ee48 5f81 31d7 ea3f
00000040: 8a5b 1a42 d009 f73f 0985 f8eb ebff df3f
00000050: 962b 8d9a 60d3 eb3f 28e1 3351 066d ed3f
00000060: 0000 0000 0000 0000 0985 f8eb ebff ef3f
00000070: 0000 0000 0000 0000 0000 0000 0000 0000
00000080: 0000 0000 0000 0000 0000 0000 0000 0000
00000090: 0000 0000 0000 0000 0000 0000 0000 0000
000000a0: 5eae 1afa 4b29 d03f 93c8 d4e0 ac1b 8d3f
000000b0: da22 85d0 ab9e 2340 0000 0000 0000 0000
000000c0: 0000 0000 0000 0000 0000 0000 0000 0000
000000d0: 0000 0000 0000 0000 0000 0000 0000 0000
000000e0: 0000 0000 0000 0000 0000 0000 0000 0000
000000f0: 0000 0000 0000 0000 0000 0000 0000 0000
00000100: 0000 0000 0000 0000 0000 0000 0000 0000
00000110: 0000 0000 0000 0000 0000 0000 0000 0000
00000120: 0000 0000 0000 0000 0000 0000 0000 0000
00000130: 0985 f8eb ebff bf3f
0.0 1.4999856389242607 1.299987148426652 0.4999952129747532 0.3999960571320613 2.8999730458689776 0.4999952129747532 0.838768723182765
1.4398958761355254 0.4999952129747532 0.8695529001791893 0.9195586763371795 0.0 0.9999904259495064 0.0 0.0
0.0 0.0 0.0 0.0 0.2525205557273916 0.014212942706397313 9.809904590846987 0.0
0.0 0.0 0.0 0.0 0.0 0.0 0.0 0.0
0.0 0.0 0.0 0.0 0.0 0.0 0.1249988032436883

running_mean_std.running_var f8 [39]
00000000: 6a49 f67a 0714 e43e efcb cbfd 3e50 003f
00000010: e99f bc85 4b01 fb3e 0763 6e33 0619 e93e
00000020: 2a43 39f1 6c4a e73e 5460 df20 e99d 173f
00000030: 0763 6e33 0619 e93e ec82 ae6e ceab ed3f
00000040: ef44 3bd4 fd3e f53f 0763 6e33 0619 e93e
00000050: 90ed eb44 05cd e03f 2fb7 1367 2b35 dc3f
00000060: 6a49 f67a 0714 e43e ea57 6b2e 0114 f43e
00000070: 6a49 f67a 0714 e43e 6a49 f67a 0714 e43e
00000080: 6a49 f67a 0714 e43e 6a49 f67a 0714 e43e
00000090: 6a49 f67a 0714 e43e 6a49 f67a 0714 e43e
000000a0: fc2a 9c34 ae6f f43f 4b26 1094 a629 fa3f
000000b0: e3d8 9009 3e81 4e3f 6a49 f67a 0714 e43e
000000c0: 6a49 f67a 0714 e43e 6a49 f67a 0714 e43e
000000d0: 6a49 f67a 0714 e43e 6a49 f67a 0714 e43e
000000e0: 6a49 f67a 0714 e43e 6a49 f67a 0714 e43e
000000f0: 6a49 f67a 0714 e43e 6a49 f67a 0714 e43e
00000100: 6a49 f67a 0714 e43e 6a49 f67a 0714 e43e
00000110: 6a49 f67a 0714 e43e 6a49 f67a 0714 e43e
00000120: 6a49 f67a 0714 e43e 6a49 f67a 0714 e43e
00000130: 14cb 7d66 5764 e43e
9.574050493542294e-06 3.1115457863516045e-05 2.5754030828967134e-05 1.1967540201317165e-05 1.110588303912667e-05 9.009108927615753e-05 1.1967540201317165e-05 0.9272224580527939
1.3278787889760755 1.1967540201317165e-05 0.5250269266247631 0.44074521127810135 9.574050493542294e-06 1.914800932464176e-05 9.574050493542294e-06 9.574050493542294e-06
9.574050493542294e-06 9.574050493542294e-06 9.574050493542294e-06 9.574050493542294e-06 1.2772657446936924 1.635168627139495 0.0009309342305019698 9.574050493542294e-06
9.574050493542294e-06 9.574050493542294e-06 9.574050493542294e-06 9.574050493542294e-06 9.574050493542294e-06 9.574050493542294e-06 9.574050493542294e-06 9.574050493542294e-06
9.574050493542294e-06 9.574050493542294e-06 9.574050493542294e-06 9.574050493542294e-06 9.574050493542294e-06 9.574050493542294e-06 9.72364360027825e-06

running_mean_std.count f8 []
00000000: 0000 0000 1080 f940
104449.0

a2c_network.sigma f4 [24]
00000000: 6b31 2a3c 461f 273b c926 5e3b 3bb8 b9ba
00000010: 3c1e b63b 2e41 8ebb f594 b63a 8b84 f83b
00000020: 2c5b ebbb 4c8c 9ebb 4a0e 9a3a bc69 a738
00000030: 2f39 153c 36fe 983b ed91 b63a ecc8 9b3b
00000040: b98f f53b 87eb 103b 73b8 d6bb a87f 113c
00000050: 0d54 f5bb 1a9f 783b ec27 093c 075e 59bb
0.010387759 0.0025500818 0.003389763 -0.0014169285 0.0055578034 -0.004341266 0.0013929891 0.0075841597
-0.0071824994 -0.004838502 0.0011753526 7.982875e-05 0.009107872 0.004668976 0.0013928987 0.0047541764
0.0074939397 0.0022113041 -0.00655275 0.008880533 -0.0074868263 0.0037936629 0.0083713345 -0.0033167617

a2c_network.actor_mlp.0.weight f4 [256, 39]
00000000: 38d9 4ebd 802e 833d 4e73 b7bc 38f7 b43d
00000010: 09df 273e 6eab e83d 91d6 48bd d4e4 a83d
00000020: b7f2 f63c 437d d13d dc0c d4bd a27d 25be
00000030: 7568 7dbd 3885 d0bd 768b 063e 58ea 3c3d
00000040: 94d6 873d 516e 4f3d 5c8e 36bb 4353 003e
00000050: 7191 e8bd 24c0 253c 91b0 b4bd 503e 4a3d
00000060: 09e0 61bd 4bf9 483d e5a5 08bd 14ff 073e
00000070: 435f c2bd 8f95 c3bd 9598 c3bd 947b 133e
00000080: 0a93 5a3d 0bc8 1d3e 5152 07be 9fa3 22be
00000090: ff48 00be 729a dcbd 10bb af3d 46db 6a3d
000000a0: 0eea cd3d 2af2 ebbd 015e 10be f382 593d
000000b0: 36a1 c7bd 49dd 853d 0311 32bd 5ca8 5c3d
000000c0: 8afc 1fbe 7ede b4bd e69e d63c b5a8 0a3d
000000d0: 8197 95bd fa79 c33d 34f0 de3d acd0 edbd
000000e0: fa13 afbd 6824 163e 1f51 5dbd e8f6 71bd
000000f0: 578b 21be b29c ffbd abd7 233d 0825 adbc
00000100: 800c eebd 8328 763b ec02 e0bd d61c 0bbe
00000110: ed95 b4bd 7582 0fbe 3dd0 d0bd 37e8 233e
00000120: aec2 f73c 071e 4a3d f2ee 18be 4e62 d7bd
00000130: ab50 5abd 3ab9 d6bb 2248 10be 9e5c afbd
00000140: b364 e6bd 16c4 82bc 66a7 9bbd b2ce e3bc
00000150: ded2 ffbd 181d 03be c197 cebd 95da 91bd
00000160: c4ef 07be 4a52 0b3e 682b 02bd 024e f83d
00000170: ab5c 4c3d b0d9 0abe 9df2 e23d 9d76 34bd
00000180: f36a 7bbd 901b 08be 96ff 16be 05ff 4d3d
00000190: 0247 54bd e559 7f3d b090 06be 5a79 f33d
000001a0: 35ba f0bd f781 e2bc 96fe 083d 064d a93d
000001b0: 2b60 043e 005f 153e 3404 02be 9410 253d
000001c0: 7a0e 8dbd 03c0 8fbc 3076 f5bd c75a 153e
000001d0: 3413 09be ed44 af3d a09e a53d 44f0 9c3d
000001e0: 96db 7fbd 50c0 2d3e 7190 753d e01d 373d
000001f0: 286a 0cbe 8fdb cb3d 62c8 b138 eba2 8bbd
00000200: 66a8 1f3e 8f3a 123d b280 83bd 04fc a5bd
00000210: fa93 fabb 411c b73d cc99 27bd a01d bbbd
00000220: 659a 60bd bcae f1bd c956 7c3d fb8a 183e
00000230: 7f5e 1abe 6854 183d 9169 a93d c5dc ed3c
00000240: a793 69bd bf2a ab3d 8c56 ac3d d340 753d
00000250: 8b81 e6bc ddad 2dbd 9755 8c3c c1ba e7bc
00000260: 5374 43bd 819f d13d b3ea 0c3e 89a9 043c
00000270: bfd9 12bd 1f42 8ebc f4b9 efbc 25cb 9c3c
00000280: 00ed d03c ae39 29be 6daa a0bd 4c03 0c3e
00000290: 809a fc3c a1d0 dfbc 7cdd c3bd 25e2 f2bd
000002a0: 47e1 12be c8f1 92bd bd7e 5d3d 6b1a d13d
000002b0: 0069 973d fff0 10be 5836 c5bd e404 cfbc
000002c0: a42f 203e a6e6 563c 80c4 7bbd bfac 873d
000002d0: 80d0 79bd 3a43 d4bd 6b5c ef3d b31d 95bd
000002e0: ad7b 03bd 891e 23be 757b db3d e775 f83d
000002f0: 3b09 6f3d 72aa e4bd 6ad4 21be 8a2c 05be
00000300: f88b f43d 7272 9d3d d38f ec3d 96cc ab3d
00000310: 68f6 e43c ded0 67bc c6d2 08be 0aa6 18be
00000320: 0d83 26be bc01 5c3d aea4 b5bd ca57 90bd
00000330: dff9 d4bd a3c7 2abd 0e69 08be 6148 d6bd
00000340: 2f56 273d 37ed 42bd fa73 ca3d e369 52bd
00000350: 5d91 f0bd 7f72 e7bc 21f8 9ebd 04c1 59bd
00000360: c07f 1abe 366b 9c3d a550 e4bd 66d4 a43d
00000370: abd0 943d f64a ea3d 868c fbbd ebda eb3d
00000380: 0b09 9bbd f160 733d dffc 193e 5700 b9bc
00000390: f94f a2ba 3701 17bd d7e9 08be 6a61 9d3d
000003a0: f4c6 22be 63dc b33d f15f f53d 7f83 2c3e
000003b0: 61e4 a9bc b939 eabd 44d7 593d fbe9 d73d
000003c0: 0b97 11be f3f2 84bd 21e9 b4bd 5a5b 513b
000003d0: b316 cbbd 0fcd 4abd 6b37 50bd 594c 0abe
000003e0: 258a 063e 5276 093e adc6 cdbc 1663 95bc
000003f0: 00d7 85bd 8913 14be d914 1dbe bdee 9d3d
-0.050500125 0.064053535 -0.022393849 0.08836216 0.16393675 0.113608226 -0.04903275 0.082467705
0.030145032 0.1022897 -0.10354015 -0.16161206 -0.061867196 -0.101816595 0.13139138 0.046121925
0.066327244 0.050642315 -0.002785585 0.12531762 -0.11355866 0.010116611 -0.0882274 0.049375832
-0.055145297 0.04906587 -0.033361334 0.13280898 -0.09490826 -0.095500104 -0.09550587 0.1440261
0.053362884 0.15408342 -0.13214995 -0.15882729 -0.12527846 -0.107716456 0.08580601 0.05733802
0.10054408 -0.115207985 -0.1409836 0.0531034 -0.097475454 0.065363474 -0.043473255 0.053871498
-0.1562368 -0.088314995 0.026198816 0.033852298 -0.07304288 0.095447496 0.10885659 -0.116120666
-0.08548732 0.14662325 -0.05403244 -0.05907336 -0.1577581 -0.12481059 0.0400006 -0.021135822
-0.11623478 0.0037560768 -0.10938057 -0.13585219 -0.088176586 -0.14014609 -0.10195968 0.16006552
0.030244198 0.049345043 -0.149349 -0.10516797 -0.053299587 -0.0065528424 -0.14090016 -0.08562587
-0.112496756 -0.015962642 -0.07600288 -0.027808521 -0.124913916 -0.12804067 -0.100875385 -0.07121769
-0.13275057 0.1360561 -0.031779677 0.12124254 0.049893063 -0.13559604 0.11081431 -0.04405843
-0.06138129 -0.13291764 -0.14745936 0.050292034 -0.05182553 0.06234159 -0.13141131 0.1188838
-0.11754266 -0.027649863 0.033445917 0.08266644 0.1292731 0.14587021 -0.12696916 0.040299013
-0.06887527 -0.017547613 -0.11985433 0.1458541 -0.13386232 0.085580684 0.08086896 0.076630145
-0.062465273 0.16967893 0.059952203 0.044706225 -0.1371237 0.09953987 8.477342e-05 -0.068181835
0.15591583 0.035700377 -0.06421031 -0.08104709 -0.0076470347 0.08940936 -0.040918157 -0.0913651
-0.054834742 -0.11800906 0.061606202 0.14896767 -0.1507511 0.03718987 0.08272088 0.029035935
-0.057025578 0.083577625 0.08414945 0.059876274 -0.028137943 -0.042402137 0.017130656 -0.028287293
-0.047718357 0.10235501 0.13761406 0.008097061 -0.03585219 -0.017365513 -0.029263474 0.019139836
0.025503635 -0.1652591 -0.07845006 0.13673133 0.03083539 -0.027321162 -0.09563729 -0.1185954
-0.14343749 -0.07175022 0.054075945 0.10210117 0.07393074 -0.14154433 -0.09629506 -0.025270887
0.15643173 0.013116514 -0.061466694 0.066247456 -0.060989857 -0.10364385 0.11687549 -0.07281055
-0.03210037 -0.15929617 0.10716907 0.12131863 0.058358412 -0.11165322 -0.15803686 -0.13005272
0.119407594 0.07687844 0.1155087 0.08388631 0.027949527 -0.014148919 -0.13361654 -0.14907089
-0.1626093 0.05371259 -0.08869301 -0.070479944 -0.10399222 -0.041694295 -0.13321325 -0.10463024
0.040853675 -0.047589507 0.09885402 -0.051370513 -0.11746476 -0.028252838 -0.077621706 -0.05316259
-0.15087795 0.07637636 -0.11148194 0.08048324 0.07266363 0.11440079 -0.12282662 0.11516365
-0.07570084 0.059418622 0.15037869 -0.02258317 -0.0012383453 -0.036866393 -0.13370453 0.07684596
-0.15896207 0.0878227 0.1198119 0.16847037 -0.020738782 -0.11436791 0.05318381 0.10542675
-0.14217775 -0.064916514 -0.08833528 0.003194532 -0.09916439 -0.049511965 -0.0508341 -0.13505687
0.13138635 0.13424042 -0.02511915 -0.018235724 -0.065351486 -0.14460577 -0.15339984 0.07711551

a2c_network.actor_mlp.0.bias f4 [256]
00000000: dff1 e13c 20f4 45bd 5ee4 d2bc f3c7 2a3d
00000010: 8d72 ffbc ca87 bdbc 9c46 af3c 053a d73c
00000020: b444 04bd 0501 3f3d 257e 10bd b21a a3bc
00000030: 1c39 083d 867e c33c 24a4 43bd 52fa 44bd
00000040: 919b b83c fe82 193b 8e67 c1bb 4f67 3fbc
00000050: 9e66 05bc e81f a03b 02b6 26ba 64f6 41bd
00000060: a720 383b 0e8a b0bc 052a 70ba cb50 2b3c
00000070: 7c98 1c3d 30c9 be3c 37a5 a33c b7d6 dbbb
00000080: 8cdf 3a3d 0b24 3d3d e41a 213d b36a 1abd
00000090: 7fd2 d5bc c273 49bd 16a5 c93c ff0e 1ebd
000000a0: 3d0a 24bd 49e9 93bc 1ee6 46bd 4a0b 25bc
000000b0: eb22 1fbd f3b6 f93c 9e0d 08bd ab93 b73c
000000c0: ae38 0ebd ffd2 c0bc 6537 83bc b84d 2c3d
000000d0: 1e68 c03c 6f11 fa3c 0e01 e8bc 34cc 60bb
000000e0: 867b 1fbc c144 853c 31ef 1c3c d2c9 40bd
000000f0: a88b 33bd 796b 84bc b0fa 1cbc 8f1b 033d
00000100: fc4a 31bd 1b12 473d c6dc 30bd ddc6 29bd
00000110: 9039 46bd d17c a63b 2038 04bc a281 0dbd
00000120: 22d0 f73c ea96 0d3d 331e 6f3c b628 9ebb
00000130: 62b9 3c3d f95d 443d 035b 3fbd 7396 9bbb
00000140: 4a69 31bd 510c 2a3d 1354 b63c 90d5 fe3c
00000150: bba8 47bc 7eb3 a0bc fd35 c1bc 4122 abbc
00000160: 086c ccbb 5106 68bc 97d4 21bd 8ea7 3cbd
00000170: c25e 523d f59e 2b3d 1372 113d eca8 05bd
00000180: d4ab 8cbc 7bb3 adbc d33e 7bbc f50f 60bc
00000190: 9bfd 353d d896 8f3b 647e 053d 210d 133d
000001a0: deef 643c 5dfd f3bc e5d4 1d3d 01a4 19bd
000001b0: baef 09bd 66a9 d33b 276e 41bd d99a 0ebd
000001c0: 5418 33bc 41ae 0d3d cbaf 3bbd 17ae 143d
000001d0: 704d 3b3d 6a01 b7bc 1f86 f4bb a789 17bd
000001e0: f02f c53b c8a0 46bc 77f1 1abd 51c6 ad3b
000001f0: d838 16bc f696 e3bc 149b 4dbc b99c 2f3d
00000200: acf8 273d e929 b5bb 770f 99bc af84 413c
00000210: 6875 43bd 2c76 35bb d8d3 58b7 968b d43c
00000220: 64c2 6f3b bae0 ffbc 7743 0cbd 7e71 273d
00000230: a893 24bd 0bd9 3e3d 3753 5c3d bef0 223d
00000240: 8a2e 223d 0ad0 72bc 254e 913c d7bf 9ebb
00000250: 52c3 d13c 3f36 303c d05d 5f3d ce1e 8d3c
00000260: e854 e83a b007 36bd 8fc2 2c3c 2631 b73a
00000270: b8b3 36bd ce0c 0c3d e01e cbbc 52c9 a33b
00000280: 41dd 31bd e483 c9bc e484 28bd a552 52bc
00000290: 0456 25bc d8d8 533d 40b4 963c b6a5 1dbd
000002a0: a7a1 0a3c 796b 293c 61bf 313d 33a1 0a3d
000002b0: c015 86bc 5744 1b3c 1591 d03c 484f 3abd
000002c0: ed98 433d 8701 08bc b295 b6bc 86c1 28bd
000002d0: 157a a5bc 9d16 423d b734 efbc fa88 2c3d
000002e0: 95ab 2f3b 53a8 323d 0e42 013c 2e7d 57bc
000002f0: 623f 20bd 5617 443c 3458 393d ac95 12bd
00000300: a29b 323d 436c c0bc f002 2f3c be53 11bd
00000310: 3640 223d 4e9c 01bd 2f0b 98bb 7068 3cbd
00000320: 513a b33c 6a15 27bd 7f43 333d cfcb d93b
00000330: 1a88 8dbc 0ef1 bbbc 6fd1 f9bb b3a7 c23c
00000340: b476 663c 63f6 cabc bcc8 aebc 9369 0ebd
00000350: a102 55bc 64ae f73c edca 153d 1557 b83a
00000360: ab71 99bc ab67 42bd 611f 413d 194a 0e3d
00000370: 659f db3c 5bc2 fa3c 290e 473c 80d1 33bc
00000380: e18f c43b d1de 8dbc 434a e0bc d153 d3bb
00000390: 4668 b8bc ca64 97bc 2b94 e93c e09f 953b
000003a0: ce55 2ebd 07f8 a2bc 2f18 363c 716d c43c
000003b0: 8652 523c 98d7 293c 0fe9 78bb 2e9d 31bd
000003c0: 6eb9 323b 4855 52bb cd68 1c3d 8a39 343d
000003d0: 4c2e 0f3b a7b1 003d 7fb6 3a3d 73e3 043d
000003e0: 812e 46bd df3c 343d 0326 f63c 4855 e838
000003f0: 0a71 da3c 6be8 103d df91 1c3d a669 aabc
0.027581153 -0.04832852 -0.02574366 0.041694593 -0.031182552 -0.023136038 0.021395974 0.026272783
-0.032292083 0.04663183 -0.03527655 -0.01991019 0.03325759 0.023864042 -0.04776396 -0.048090287
0.022535117 0.0023424025 -0.0059022373 -0.0116823455 -0.008142142 0.004886616 -0.0006359519 -0.047354117
0.0028095634 -0.021550205 -0.0009161535 0.010456274 0.038231358 0.023289293 0.019976242 -0.0067089456
0.045623347 0.04617695 0.039332286 -0.037699413 -0.026101349 -0.04918266 0.024614852 -0.03858852
-0.040048826 -0.018055575 -0.0485593 -0.010073492 -0.03885166 0.030482745 -0.03321611 0.02240928
-0.034722023 -0.02353811 -0.016017625 0.042066306 0.023487147 0.030525891 -0.028320815 -0.0034301402
-0.00973404 0.016268136 0.009578512 -0.04706747 -0.04383436 -0.016164528 -0.009581253 0.032008704
-0.0432844 0.04860125 -0.043179296 -0.041449416 -0.04839474 0.0050807972 -0.008070022 -0.034547456
0.030250613 0.03456775 0.014594602 -0.0048266305 0.046075232 0.04794118 -0.046717655 -0.0047481596
-0.043313302 0.041515652 0.022256887 0.031107694 -0.012186225 -0.019616839 -0.023585314 -0.020890357
-0.0062384643 -0.014161662 -0.039509382 -0.04605823 0.0513599 0.04189964 0.03550918 -0.0326318
-0.017171778 -0.021203747 -0.015334803 -0.013675679 0.04443131 0.0043819956 0.03259124 0.035901193
0.013973204 -0.029783899 0.03853311 -0.037509922 -0.033675887 0.006459403 -0.04722419 -0.034815643
-0.010931093 0.03459001 -0.045821946 0.036298838 0.045728147 -0.022339541 -0.0074622775 -0.03699651
0.0060176775 -0.012123294 -0.037827935 0.005303182 -0.009168826 -0.027781945 -0.012549181 0.04287407
0.041008636 -0.0055286777 -0.018684132 0.011811419 -0.04771939 -0.0027688844 -1.2923927e-05 0.025945466
0.0036584372 -0.031235088 -0.034244027 0.04087972 -0.04017988 0.046593707 0.053790297 0.03978037
0.039595164 -0.014820108 0.017737458 -0.0048446464 0.025605831 0.010755121 0.054532826 0.017226603
0.0017725499 -0.044440925 0.010544433 0.0013976439 -0.044604987 0.0341919 -0.024794996 0.0049983645
-0.043423895 -0.024599023 -0.04114236 -0.012837087 -0.0100913085 0.05172047 0.018396497 -0.038488112
0.0084613925 0.010340565 0.043395404 0.033845138 -0.016367793 0.009476743 0.025459806 -0.045485765
0.047753263 -0.008301145 -0.022288177 -0.041200183 -0.020199815 0.047384847 -0.029199941 0.04212282
0.0026805152 0.043617558 0.007889284 -0.013152404 -0.039122947 0.011968454 0.045250133 -0.03578727
0.043605454 -0.023489123 0.010681853 -0.035480253 0.039612018 -0.031643204 -0.004640005 -0.045998037
0.021878393 -0.040791906 0.04376554 0.0066466103 -0.017276812 -0.022942092 -0.0076238434 0.023761606
0.014066387 -0.02477569 -0.021335952 -0.034768652 -0.013001115 0.030234523 0.03657048 0.0014064038
-0.018730959 -0.047462147 0.047149066 0.034738634 0.026809404 0.030610254 0.012149372 -0.010975242
0.005998597 -0.017318161 -0.02737916 -0.0064492007 -0.022510659 -0.018480677 0.028513035 0.0045661777
-0.0425623 -0.01989366 0.011114164 0.023977967 0.012837058 0.010366343 -0.003798071 -0.04336279
0.002727117 -0.0032094289 0.038185883 0.044000186 0.0021847663 0.031419422 0.045584198 0.032443475
-0.048384193 0.044003364 0.030047422 0.00011078507 0.02666523 0.0353779 0.03822505 -0.02080233

a2c_network.actor_mlp.2.weight f4 [128, 256]
00000000: d340 023d 877a c8bb 3e8f df3c 7761 13bd
00000010: 21fb 5bbd 4689 823d a403 35bd 5cdf 64bd
00000020: 84cf cdbc 6198 b0bd c403 c9bc 43e9 34bd
00000030: 2991 623c 2457 92bd 7513 f9bc 4931 8ebc
00000040: fc46 89bd 55dc 533c 403c 39bc a726 003d
00000050: e4b8 873d 7a64 58bd 1fff 06bd f6d4 cb3c
00000060: 8b8d 1d3d d5be d03c bc01 84bc e765 313c
00000070: 9b19 8bbd 63ae 83bd 2245 15bd 33f2 7ebd
00000080: 2c85 99bd caab 6cbd e4aa 893c 5c1e fa3c
00000090: 232d 8e3c c915 9ebb a835 7ebc 799d 463d
000000a0: 59ab 29bd 1646 4f3d 5c81 143d dccd e1bb
000000b0: 67d0 9f3d 600a 213c 622a 01bd e59f 853d
000000c0: c0fe c53c 0606 513d 5320 85ba 110b 4fbd
000000d0: cd51 543d 5408 b0bc f14f 1f3d 6905 dd3b
000000e0: 635a 2b3d c261 63bd 670b 723b 5b8b 733d
000000f0: 0f23 3dbb 9439 553d d0fa 1b3c 9733 013d
00000100: 1277 753d 65b7 e6bc 694e 743b ff3c 823d
00000110: 2b04 efbc c87c 90bd fe71 7f3d f8ea 44bd
00000120: 7bd5 dbbc f957 7a3c 0232 4eba f27e 88bc
00000130: 71c4 c5bc 1270 c23c 95ec 0dbd 36ef 203d
00000140: ddb7 a13c 8925 65bd d495 84bd 1887 fcbc
00000150: 3644 7c3d c1ef 84bc cc8b 4abd ad8c b23b
00000160: e2a5 523d 0b26 ef3b 7a7c a53d a88d b23d
00000170: 59df 153d 4f1b 03bd 9a49 85bd a99f 4bbd
00000180: 96ac abba f753 54bd 9b23 0b3d 46a8 373c
00000190: dcaa fc3c 319d 8ebd c535 51bd 1203 acbc
000001a0: 3cf1 833c 75ec 943d 7a9c ecbc 2bc2 3b3d
000001b0: 6665 40bc f83f 5c3b 0c80 81bb 7e7b 3bbc
000001c0: 1e2b 41bc cd56 6abd 6db0 4f3c c079 5fbd
000001d0: d7cb 53bd 60df f7bc 9adc 80bd 2846 983c
000001e0: 9215 60bd 02a4 933d cd44 a5bc ede7 cc3c
000001f0: 3d7b 32bd 6de0 e13c dad5 8bbd 1543 ac3b
00000200: 90bf 0f3d b719 94bd 87f6 d73c a945 7bbc
00000210: c25d 15bd 8647 a0bc 57f7 7d3d 7a73 15bd
00000220: e104 353d f615 4c3c 6550 6a3d d2b2 88bc
00000230: cebd 0e3d 56f9 6abc bb31 363d 0c75 95bd
00000240: c805 bfbc d11e 12bc 1b0b 2abd 685c 7e3c
00000250: 49d1 a03c d530 063d 8863 10bd a82a d93c
00000260: 06c0 3dbd 37ac 793d af96 88bd 06e6 6dbd
00000270: 6d97 233d 8eb6 9cbc 7e78 223d 55a1 573d
00000280: 508b 903d 50fd 0c3d 057e 3fbd 3ccf d7bb
00000290: 2578 803b 20a3 9cbd 304f f23c 0c8f 833d
000002a0: 4158 febc a647 22bd c84a 8fbd faea a4ba
000002b0: e964 013d 9541 9dbc a8db ca3c e713 9dbb
000002c0: 6d79 a13b 9cb2 353d 3bb4 f0bc d4ce bebc
000002d0: e393 333d 13f1 70bd 7506 263d 0ccd 7fbc
000002e0: 3cb2 873d 5e2c 93bc ebcf f0bc f3a3 2abd
000002f0: 23bc 0e3d 30c2 27bd 2065 5bbc 546b 5c3d
00000300: e8ff 8bbd 0eba 21bd 8a29 6f3b 5a7d fbbc
00000310: dadb 48bd 099e 303d 0c5a 7ebd f99f e9bb
00000320: 9c13 78bd 890b a83c de5b 263a 90db 093c
00000330: b102 f73c fbe8 953b 8c89 74ba 1b10 053d
00000340: 5eed b5bc c02d fe3c 5b1e 4ebd 621b 19bd
00000350: c1e6 0fbd cc1e 2cbd cb8b b0ba b8d5 0ebd
00000360: c2c2 883c 8c08 953d 40db b8bc f432 0dbc
00000370: a514 d6bb dfe3 0e3d 3e1f 033d 6039 6e3b
00000380: 16b4 1e3d 523c c13a 8135 0ebb 9959 ddbc
00000390: e976 fabc 542a 7e3d 3d58 3abd 5663 8bbd
000003a0: 99ee 30bc 7c9e ed3c 7306 55bc 79f8 0ebb
000003b0: 6f0e e33c 2ebc a43c 536d 51bd c9f7 113d
000003c0: 7d90 823c 0812 d4bc 3c25 d1bb 1a4f 18bc
000003d0: 5017 3abc 0f19 db3c fe69 083d eeb3 833d
000003e0: 634e d13c 3920 a43c 40f6 dc3c 2c98 80bd
000003f0: c921 d83c d4a6 0dbc 21d8 c13c dc36 2dbd
0.031800102 -0.006118122 0.027289983 -0.03598162 -0.053706292 0.06373839 -0.044192925 -0.055877075
-0.025123365 -0.08622814 -0.024537928 -0.04416777 0.013828554 -0.07145527 -0.030404786 -0.017357485
-0.06702992 0.012930949 -0.011305869 0.03128686 0.06627062 -0.052830197 -0.032958146 0.024881821
0.038465064 0.02548162 -0.016114108 0.010827518 -0.06791993 -0.06429746 -0.036442883 -0.062242698
-0.07496104 -0.05778102 0.01680512 0.030532055 0.017355507 -0.0048243743 -0.015515722 0.04849002
-0.041423175 0.05060395 0.03625618 -0.0068909954 0.078034215 0.009829134 -0.03153456 0.06524638
0.024169326 0.051031135 -0.0010156728 -0.050547663 0.051835824 -0.021488346 0.038894597 0.0067450297
0.041834246 -0.05551315 0.0036933066 0.05945907 -0.0028860008 0.052056864 0.009520248 0.03154334
0.059928007 -0.028163621 0.0037278181 0.0635929 -0.029176792 -0.0705505 0.06236457 -0.048075646
-0.026835194 0.015279763 -0.0007865728 -0.016662095 -0.024141522 0.02373508 -0.03464945 0.03929063
0.019740993 -0.055944 -0.0647389 -0.030826136 0.06158849 -0.016227605 -0.049449727 0.0054488988
0.05142773 0.0072982362 0.08080383 0.08718425 0.036589954 -0.032008465 -0.06508179 -0.04971281
-0.0013097699 -0.051837888 0.033969503 0.011209553 0.03084319 -0.06963576 -0.05107667 -0.020997558
0.01610624 0.07271663 -0.028883208 0.04583947 -0.011742925 0.0033607464 -0.003952032 -0.011443017
-0.011790065 -0.057211686 0.0126763405 -0.05455947 -0.05170807 -0.03025788 -0.062920764 0.01858814
-0.05470807 0.072090164 -0.020174408 0.025012935 -0.04357456 0.027572835 -0.06827898 0.0052570202
0.035094798 -0.07231467 0.02636267 -0.0153364325 -0.036466368 -0.019565355 0.06200346 -0.03648708
0.044194106 0.012456408 0.057205576 -0.01668683 0.03484898 -0.014341673 0.04448102 -0.072977155
-0.023318186 -0.00891848 -0.041514497 0.015524961 0.019631045 0.032761414 -0.03525117 0.026509598
-0.046325706 0.060955252 -0.066693656 -0.058080696 0.039939333 -0.019130018 0.03966569 0.052644093
0.07057822 0.034421265 -0.04675104 -0.0065859836 0.0039205723 -0.07648301 0.029578775 0.064237684
-0.031047942 -0.03961911 -0.06996685 -0.0012582236 0.031590376 -0.019196311 0.024762943 -0.0047936323
0.004927805 0.04435979 -0.029382816 -0.023291983 0.043842208 -0.058823656 0.0405335 -0.015612852
0.066257924 -0.017965492 -0.029396018 -0.04166026 0.03484739 -0.040956676 -0.013390809 0.053813294
-0.068359196 -0.039484076 0.0036493265 -0.03069942 -0.04903779 0.043119464 -0.062097594 -0.007129666
-0.060565576 0.020513313 0.0006346087 0.008414164 0.03015265 0.0045748926 -0.00093283574 0.032486062
-0.022207912 0.031027675 -0.050321918 -0.03737963 -0.035132173 -0.042021558 -0.0013469396 -0.034871787
0.01669443 0.07277021 -0.022565484 -0.008618105 -0.0065332227 0.034885284 0.032012217 0.0036350116
0.038745962 0.0014742708 -0.0021699371 -0.027020263 -0.030574279 0.062052086 -0.045494307 -0.06806056
-0.010799074 0.029006235 -0.013002026 -0.0021815582 0.027716843 0.020109262 -0.05112965 0.035636697
0.015938038 -0.025887504 -0.0063826125 -0.009296203 -0.011358097 0.026745347 0.033304207 0.06430803
0.025550073 0.020034896 0.02697289 -0.062790245 0.026383298 -0.008645732 0.023662629 -0.042288646

a2c_network.actor_mlp.2.bias f4 [128]
00000000: 1091 d6bc 07f4 c9ba 41e7 823c 3c0a fc3c
00000010: 21d6 d9bc 171f 04bd 3bff 01bd ea68 193d
00000020: 27f6 d03b d5af 013d 872e c03b 9d4a f53c
00000030: 826c 243d 4a34 693b f944 b0bb a13d 243d
00000040: fd7a 09bd 17b1 f5bc 585a b83c 53d7 ccbc
00000050: eb5d 06bd 8cc0 a13c b1ee 013d df11 113c
00000060: 9dac 0c3d ffe5 9c3c f132 07bd 9d2c dfbc
00000070: 59b4 3539 c3b8 f5bc 1a18 b53c d75b 0cbd
00000080: 9a3e 01bb 9028 03bd 9f97 5bba 43c3 6eba
00000090: 0aa9 7e3c f1f1 94bc 0828 323a 0c99 e9bc
000000a0: 33d5 fcbc 747f fdbc c00a 20bd 37bd 0abd
000000b0: 65e5 553c 0d49 afbc d48a a9bc 850f 1c3d
000000c0: 997e dd3c 322a f4bc 44a9 c3bc 790e 1f3d
000000d0: 5bde 68bb 2fa9 b7bc 4f25 0ebd c623 83bc
000000e0: 9444 323d be0e c3ba aa04 1e3c b130 e33c
000000f0: d576 983c e86c 3e3b 5753 c7bc 92d7 973c
00000100: 4e81 1f3c 0697 183d 1138 253d a2c5 093d
00000110: f8ba 89bc 762b 93bc 85a2 ca3c 1b0f ef3b
00000120: e7b9 b7bc ca09 273c 0643 e0bc d326 1a3c
00000130: 6db4 d33c 190d eb3c 27d3 143d 7234 05bd
00000140: 4f88 343d 9185 52bb 0868 08bd 0d77 273d
00000150: 129f e2bc 2272 593c 51b6 36bc fefa 02bd
00000160: cb4e 3d3c 7c56 2cbb ac4d 1d3d 77b8 03bd
00000170: 5661 073d a8ca 263d c60b 363d 0c89 0fbd
00000180: 6413 293d 2a66 f0bc b4a2 1f3d 9f3d 8dbc
00000190: 9960 c23a ce89 053d 6fcf b43c da46 3bbc
000001a0: ae34 053d 8d59 2fbc d5a4 c93c f299 c6bc
000001b0: 2062 ff3b cb9b c1bb 9f44 213d 0847 debc
000001c0: cc06 15bd e705 1b3d fbcd 0bbc 74c8 2b3d
000001d0: 61f4 0a3d 3e93 023d 353f a8bc 236c a6bc
000001e0: 541c 1bbd fcf8 d6bc 4f31 c63c 747d f5bc
000001f0: 51d4 133d 72e6 15bd b4bd 283d 28d9 03bc
-0.026192218 -0.0015407809 0.015979411 0.030766599 -0.026591362 -0.032256212 -0.031737547 0.03745357
0.006377 0.031661827 0.0058649215 0.029942805 0.040142544 0.0035584145 -0.005379316 0.040097836
-0.033564556 -0.02999167 0.022504017 -0.025005018 -0.03280441 0.019745134 0.031721774 0.008854358
0.034344304 0.01915264 -0.033007566 -0.027242953 0.0001732869 -0.029995328 0.02210622 -0.034267273
-0.0019721151 -0.032021105 -0.00083767803 -0.0009108076 0.015543232 -0.018181773 0.0006796126 -0.028515361
-0.03086338 -0.030944563 -0.039072752 -0.033871856 0.01305518 -0.021397138 -0.020696081 0.038100738
0.027037906 -0.029805277 -0.023884423 0.03883216 -0.0035532925 -0.02241954 -0.03470355 -0.016008269
0.043522432 -0.0014881713 0.009644667 0.027733179 0.018611351 0.0029056612 -0.024331732 0.01853541
0.0097354185 0.037253402 0.040336672 0.033635743 -0.016812786 -0.01796506 0.024735698 0.007295502
-0.022427512 0.010195205 -0.02737571 0.0094086705 0.02584287 0.028692769 0.036334183 -0.03252072
0.044075307 -0.0032123069 -0.033302337 0.04088502 -0.027663741 0.01327184 -0.011151866 -0.031977646
0.01155443 -0.0026296666 0.03840415 -0.03215834 0.03305181 0.04072061 0.04444482 -0.035042807
0.041278258 -0.02934559 0.038973525 -0.017241297 0.0014829814 0.032602124 0.022071568 -0.011430467
0.032520942 -0.010702503 0.02461473 -0.024243329 0.00779368 -0.0059084645 0.039372083 -0.02713348
-0.036383435 0.037847426 -0.008532996 0.041939214 0.033924464 0.031878702 -0.020537952 -0.020315235
-0.037868813 -0.026241772 0.024193434 -0.029967047 0.036091153 -0.036596723 0.04119654 -0.00804738

a2c_network.actor_mlp.4.weight f4 [64, 128]
00000000: 5b43 353d a79d 53bc 7f15 9ebc 4a38 923d
00000010: a496 493d 28a5 af3b b97a dabc 1054 59bc
00000020: 1f15 a7bd 75a3 983d 7446 59bd 7a6a 483d
00000030: 36d8 8b3d 493c b63c 8433 b43d 530c 74bd
00000040: 678f b73c 7862 6d3d 1e98 a1bd 239d 98bd
00000050: 8d31 ff3c 48a2 8b3d 3fd6 4e3d 2184 2e3d
00000060: b7ce ed3c ba59 473d 5580 73bd cacb 94bd
00000070: fcf3 b83d 4dae c3bc d4f8 64bc 77b4 afbc
00000080: 5c84 f83c 1648 ed3c 4f7a b93d a62a 11b9
00000090: f06c 273c 9db4 debb 6744 7b3d 0401 953c
000000a0: f3f0 c33d dadf 4cbd 7cbf c2bc ce48 813d
000000b0: 10ed cbbd c083 a4bc b21a 433d a72d 67bd
000000c0: 5a31 84bd e332 00bb 89e9 a53d f5e8 a5bb
000000d0: f596 06bc eb59 86bd 8bba 87bb 459e 653d
000000e0: 6f53 afbd fbde 983d 8b37 2cbc d753 753d
000000f0: db38 073b 7804 9abd fd6a 4d3d e25a 8fbd
00000100: 674c d73c 8e41 a6bc 01f0 aabd def8 023c
00000110: 00f7 13bd 7846 873d df19 24bd b6fc 99bd
00000120: d267 8abd f118 6bbd f92b a33d eeb7 c13d
00000130: 96f9 083d 1cc2 b3bd 1b05 c53b 1ee5 1bbd
00000140: 98d1 f93c dbda 923d 6209 613d a067 1fbb
00000150: 6e68 e5ba 2459 03bd 187d 67bd 7416 13bd
00000160: cd98 3e3d da4e b23d bbd6 c1bc d9ca d33d
00000170: 127f 9f3c 5ec3 2bbd ef27 313d f366 5ebd
00000180: 306f dcba ba20 33bd 86a6 af3c 33fc 923c
00000190: 1ff2 323c 00b0 13bd 88c1 97bd 0aee 76bb
000001a0: d6e2 063d 9ecd 2fbc 9f3d 4ebd 270e a83d
000001b0: 2e7e 26bc 5d6a 9c3c 07f6 e63c f9f7 c7bc
000001c0: 5754 c2bb 631c bcbd 3774 4c3d 25b3 3f3d
000001d0: db0b a1bd 9d24 393d 8c7e 89bc 808d 7a3d
000001e0: 2f0d 1f3d 2fe1 013d b8c4 8e3c 5793 023d
000001f0: d70e 7cbd 9478 45bd 6a50 623d cf27 bd3c
00000200: 525f febc 0c4b 623a 1b47 2d3b fd7f 56bd
00000210: ab54 ea3c fcae 9ebd 702d 47bd 8e71 55bc
00000220: ff91 cb3d 8d48 2bbc a0bb 32bb 49a0 ec3c
00000230: 8e41 c93d 8c87 f53d 4aab 173d deba 973c
00000240: 5592 8c3c 111b c0bb df8a 5ebd b4f9 cfbc
00000250: 4606 033d 1e6a 3fbd 05b3 d7bc 4f93 72bd
00000260: 16c9 bb3d 55d4 1fbd 5bf6 d8bc 6f90 aabd
00000270: d1a5 363d d9df a5bd 7cd4 823d e347 a4bd
00000280: 6117 7bbd 1a3a e1bc 861a 02bd f590 a3bd
00000290: a376 40bd 9ce0 b5bd 36fb 96bd 3d0e e93c
000002a0: 91f0 5d3b bf74 adbd fe57 92bd 8ecc 1a3d
000002b0: df81 41bd d70f 243d 18d2 f0bc b2ad 2bbd
000002c0: 677e 8b3d 17ed 3d3d b239 9c3c 5ad4 783b
000002d0: b92e 8dbd 64d1 b3bc 5950 b8bd 5b58 0ebc
000002e0: c579 cfbc 11dc 0c3d f385 1b3b 0896 a23d
000002f0: bd91 80bd b33e b0bd e5d5 9f3c 15f7 abbc
00000300: 6115 3d3d b914 31bd df68 4c3d f3f3 3d3d
00000310: b675 783d 5594 c83c 86e4 933d 43c0 a13c
00000320: bcb2 fcbb 04af 7e3d 48cf afbd aecd dfbd
00000330: 9d3a f93c 8675 55bd 1586 163d 66a9 88bc
00000340: 41af bc3d 1d4b 943d c3fc e0bd e54f f03d
00000350: 6bce cbbd ae73 c7bd de7f 99bb 11b0 10bc
00000360: c779 e0bc e276 38bd 0398 043d bcba 41bd
00000370: 8641 08bc b769 823d 7213 943d c4f4 47bd
00000380: b9a2 803d fee2 083d 3ea1 8f3c 87bb 36bd
00000390: 890f 243d ec36 de3c 22d2 c23d d02a 5c3d
000003a0: 0784 85bd 5bb6 52bd f6bd 21bd 1818 53bc
000003b0: 152d bb3d 751e 953d 522c a53b c8b0 d3b8
000003c0: cdc7 053d 74fa dcbc d56c 8e3b b0af a53c
000003d0: 97f7 2b3d 6cf1 e83b c1a3 c43c 9898 e13b
000003e0: dd09 1cbd 7430 e9bc 08a9 3cbd 1f78 f2bd
000003f0: 08cb 313a 6cd2 aebd 04cb bb3c d2c0 973d
0.04425369 -0.012916005 -0.01929736 0.071396425 0.049215928 0.0053602643 -0.026669847 -0.013264671
-0.081583254 0.07453052 -0.053045705 0.04892967 0.06828348 0.022245543 0.08798888 -0.059582066
0.022407247 0.057955235 -0.07890342 -0.074518465 0.031151557 0.06818062 0.05049729 0.042606477
0.029029233 0.048669554 -0.05944856 -0.07265432 0.09030911 -0.023886824 -0.013975341 -0.021448357
0.030336551 0.028965037 0.09056532 -0.00013844165 0.010218844 -0.006796433 0.06134453 0.01818896
0.09567442 -0.05001817 -0.023772947 0.063127145 -0.099573255 -0.020082355 0.04763288 -0.05644002
-0.064547256 -0.001956158 0.08101184 -0.005063171 -0.008214702 -0.06560119 -0.0041421107 0.05605914
-0.085608356 0.07464405 -0.010511289 0.05989441 0.0020633254 -0.075203836 0.05015086 -0.069997564
0.026281549 -0.02029493 -0.08346558 0.007993905 -0.03612423 0.06605238 -0.040063735 -0.07518904
-0.067580834 -0.057396833 0.079673715 0.0945891 0.03344115 -0.08777258 0.0060125715 -0.0380603
0.03049545 0.071706496 0.05494059 -0.002432324 -0.0017502436 -0.032067433 -0.056515783 -0.035910085
0.04653244 0.08706446 -0.023661962 0.103414245 0.019469772 -0.041934364 0.043250974 -0.0542974
-0.0016817804 -0.043732382 0.02144171 0.017942524 0.010921984 -0.03605652 -0.0740996 -0.0037678503
0.03293117 -0.010730175 -0.050351735 0.08205824 -0.0101619195 0.019093687 0.028193487 -0.024410235
-0.0059304642 -0.09185102 0.04991552 0.046801705 -0.078635894 0.045200933 -0.016783975 0.0611701
0.038830932 0.031708892 0.017427787 0.031878795 -0.06153759 -0.048210695 0.05525247 0.023090271
-0.031051312 0.00086323987 0.0026440087 -0.052368153 0.028604826 -0.07748219 -0.048627317 -0.013027562
0.09939956 -0.010454309 -0.0027272478 0.028885024 0.09826957 0.11988744 0.03702859 0.018521722
0.01715962 -0.0058626016 -0.054331657 -0.025387622 0.031988405 -0.04673206 -0.02633048 -0.059222516
0.091692135 -0.039020855 -0.026484659 -0.0832833 0.04459173 -0.08099336 0.063881844 -0.08021524
-0.061301593 -0.027493525 -0.031763576 -0.07986633 -0.04698814 -0.088807315 -0.073721334 0.028449172
0.0033865313 -0.08469533 -0.071456894 0.037792735 -0.047242995 0.04005417 -0.029397056 -0.041913696
0.06811219 0.046368685 0.01907048 0.0037968368 -0.06893677 -0.021950431 -0.089997 -0.008688058
-0.025326619 0.03438956 0.0023730963 0.079387724 -0.06277797 -0.08605709 0.019511173 -0.020991841
0.046162967 -0.043232653 0.0499047 0.046375226 0.060659133 0.024484793 0.07221322 0.019744998
-0.0077117365 0.062178627 -0.08584458 -0.10927902 0.030423457 -0.052114032 0.036748964 -0.016682338
0.092131145 0.07240889 -0.109857105 0.11733989 -0.099514805 -0.09738861 -0.0046844324 -0.00883104
-0.027401818 -0.04503525 0.032371532 -0.047297224 -0.008316403 0.0636782 0.072302714 -0.04881741
0.06281037 0.0334196 0.017532941 -0.044612434 0.040053878 0.027125798 0.09512736 0.053751767
-0.06519323 -0.05144344 -0.0394878 -0.012884162 0.09139458 0.072812 0.005040684 -0.00010094192
0.032661248 -0.026974894 0.00434647 0.020225376 0.041984167 0.007108858 0.024003865 0.0068846457
-0.038095344 -0.028465487 -0.04605964 -0.118393175 0.0006782268 -0.085362285 0.022923954 0.074098244

a2c_network.actor_mlp.4.bias f4 [64]
00000000: c280 1c3c 2f02 cf3b 53aa 97bc 1ed1 adbc
00000010: 551a d5ba 56aa b1bc a8f7 6abc 60ff bd3c
00000020: b1b0 9ebc b6a8 903b 9dbb 26bb 8ea1 003c
00000030: 0cf8 45bc e512 c1bc db84 45bc 503f 033d
00000040: a149 f3bc 117d 813c 24de fd3b 9e04 c9ba
00000050: 70c6 e43c 8655 9abc 76cc c6ba de0b ebbc
00000060: 6741 be3c 3901 d1bc 5e9e 413c a057 b13c
00000070: aa2f d8bb 0804 dbbc 98ae ab3c a439 2bbc
00000080: 820a 13bc e3ba c2bc 2d58 47bc 7103 993a
00000090: 5027 f2bc 5be5 d6bc 2f00 073d 4e3a 463c
000000a0: 512f 7c39 5b0b 94bb ee3e e13c 1d65 91bc
000000b0: c0b2 943c b2ea 0e3d 98db f23c b033 133c
000000c0: 4fd9 083d 25f4 cebc b603 693c b72d 74bc
000000d0: 29c0 adbc bbfd eb3c 6ec3 36bc ed87 e83c
000000e0: e1be 1f3d 9147 623c b716 2dbc 2c68 f33c
000000f0: e7d3 d7bc 70b0 29bb 213a ecbb 1b37 aabc
0.009552183 0.006317399 -0.018513834 -0.021217879 -0.0016258458 -0.021687668 -0.014341272 0.023193061
-0.019371362 0.004414643 -0.0025441416 0.007851018 -0.012083065 -0.02356858 -0.012055601 0.0320428
-0.029698195 0.015806707 0.0077474285 -0.0015336459 0.027926654 -0.018839609 -0.0015167135 -0.028692182
0.023224546 -0.025513278 0.011817543 0.021648228 -0.006597479 -0.02673532 0.020957276 -0.010450754
-0.008974673 -0.023770755 -0.012167019 0.0011673999 -0.029559761 -0.026232412 0.03295916 0.012098862
0.0002405022 -0.0045179552 0.027495828 -0.01774841 0.01815164 0.03489179 0.029645726 0.008984491
0.033410367 -0.025262902 0.014222076 -0.014903477 -0.021209793 0.028807512 -0.0111549925 0.028385127
0.039000396 0.013811008 -0.010564498 0.029712759 -0.02634616 -0.0025892518 -0.007209078 -0.02077823

a2c_network.value.weight f4 [1, 64]
00000000: 7c44 c8bd 2471 e93d c7bc d93d d8db f03c
00000010: a372 57bc 3f02 c03d 4881 e43c 9607 8cbb
00000020: 85f2 163d a92f fd3d 0039 ed3d ff88 b7bd
00000030: 67ff c03b 0114 083e ddc9 d03d 77f7 9dbd
00000040: fdce 043e 7ec6 11be ec7a bdbd 6dd2 6abc
00000050: 6805 1bbd b9e3 223d 30c8 a0bb e4e0 103e
00000060: 28f8 22bd 1e45 dc3d ed40 023d a5aa 04be
00000070: d0a9 dd3d 98bc de3d d12d 0bbe 8f06 d53c
00000080: c6b7 c1bc bc76 c83d 22ae bf3d 37de b33c
00000090: f43f 063e ccf4 093e e32e c0bd 3c8a f63d
000000a0: cd9c 62bd f86e 2c3e b9fb d8bd 8faa 43bb
000000b0: 8a7d a9bd 27d6 11be 799b 14be 8616 03be
000000c0: a23c 20bd 0320 bf3d 2f75 2ebe c8a7 9f3d
000000d0: a99a c93d bacc 6fbd 9255 41bc e616 84bd
000000e0: b2b6 3fbd 05ff b2bd 7d7f ff3d 5e8f 58bd
000000f0: f2e3 b93d 8f68 173c 26f2 1a3e 6986 e73c
-0.09778687 0.11398533 0.106317095 0.029401705 -0.01314989 0.093754284 0.027893677 -0.0042733653
0.03685238 0.12362606 0.115831375 -0.08961677 0.0058898213 0.13288881 0.10194752 -0.07713216
0.12969585 -0.14235875 -0.09251961 -0.014332396 -0.037846953 0.039767954 -0.0049066767 0.14148289
-0.03978744 0.107553706 0.0318002 -0.1295572 0.10823405 0.10875815 -0.13591696 0.026004104
-0.0236472 0.09788272 0.09359385 0.021956546 0.13110334 0.13472289 -0.09383943 0.12038085
-0.055325318 0.16839206 -0.10594887 -0.00298563 -0.08275898 -0.14241849 -0.14512433 -0.12801561
-0.039120324 0.093322776 -0.1703689 0.077956736 0.09843952 -0.05854485 -0.011800187 -0.0644968
-0.04680509 -0.08740047 0.12475488 -0.0528711 0.0907668 0.009241237 0.15131435 0.028262334

a2c_network.mu.weight f4 [24, 64]
00000000: d0bb b7bd 00ee d2bc 3633 8dba 816f 18bd
00000010: 6564 a1bd 503c 0d3e aefb f23c a8e0 303d
00000020: 6fc3 3c3d 2b53 523d 7326 00be a57e db3b
00000030: da84 c23d ea53 cd3c 832e 59bd 112b c6bc
00000040: ae14 98bd 002c 423d f693 f03c e0cd a6bd
00000050: 530c 3c3d 2706 b3bd 1cfc a23d 1001 6cbd
00000060: 7517 14be 257e 1e3d c334 38bd 73a8 983d
00000070: bc16 61bd 391d 0b3e 8aad b43b 8af9 073d
00000080: 19e3 513d 0074 783d e15e 863d 021a e13c
00000090: 7fb9 063e 4f03 afbd 3ddd a4bd 6254 8abd
000000a0: 3130 80bd a0b0 c5bd 9263 cfbd b641 3d3d
000000b0: b47e 56bd 4ef6 02be fd62 093d 9354 f23d
000000c0: d094 993c 989d 87bd a454 033e 9704 f13c
000000d0: 42e0 503c 46ef 94bc ea01 013e 0f19 adbd
000000e0: 0a38 dbbd b7a9 243d 1e8f cabd b947 8bbd
000000f0: 988f 493b 8c7c e93d 9eb3 45bd 2245 ae3c
00000100: 8339 ffbd c726 ba3d 9112 eabd d8ed 0ebc
00000110: 7ecc 803c 94c1 45bd 4fde 313c 8e58 0a3d
00000120: 1a96 c7bd cbe6 a6bd 4709 0e3e c412 04be
00000130: b984 74bd 6bfe 4e3d 9056 0fbc b6fa fbbb
00000140: 8a7f 0b39 1c29 0abd 7e7b 153d 0242 95bd
00000150: caeb 563d 7ec8 08be a3e0 2bbd e5f6 a13d
00000160: fcc4 963d a37f 82bc 44eb 1c3d 71c7 ff3d
00000170: 23e9 cdbc 18d5 593d 398f e73d 478f 3bbd
00000180: c063 653d b2df d43c 7305 34bd 1214 d4bd
00000190: f9bc 31bd 0778 ad3d 3745 a13d 83ea f33d
000001a0: 883a c1bd b2fb cabd 78bc 34bc e0c8 0ebe
000001b0: 0c2d 983d 4e6a 18bc c6c6 6ebd b492 c1bc
000001c0: f080 20bc cee0 9ebc 1734 603d 4294 bdbd
000001d0: bc73 263d 825d a33c 4594 4d3d 64f2 093d
000001e0: 5e73 a03d 4974 e2bd 67b7 ad3d 6408 db3d
000001f0: 086e b13d 1f41 7dbc 9be8 423c 1aaa c03d
00000200: 2778 a1bd d7b4 0ebd b822 4e3d 4021 31bd
00000210: 5417 e63d d27e e03d af36 f13d 9bbc 163d
00000220: 5658 7c3d 939d fa3b 6113 6c3d d350 153d
00000230: 3763 553c d32b 893c 191e e8bb 0522 07be
00000240: 02bf ae3d 9e4d f33d 41dd 3d3d 3aab 1a3d
00000250: fc15 3cbd a4b5 99bd bed4 b0bd 7ec6 98bd
00000260: a454 c9bd 0389 b2bd 669e 2e3b d153 d33d
00000270: 4afa 0fbd 1e30 df3d 60c5 273d 0719 e53d
00000280: d5dc 8b3d 1739 ef3d 3c30 b33d c844 03bd
00000290: daaf 433d e49d c13d 4d54 fbbd e057 cbbd
000002a0: f8a5 c83d beb1 93bd e13f d1bd e8d8 1c3b
000002b0: 750d 31bb 2144 9abd 2c9e dbbd d9ab 93bd
000002c0: b68b c8bd 7058 0c3e 4c0d 3a3d 24c7 64bd
000002d0: 82fd 053e ce01 313d ed77 753c a1e2 0bbd
000002e0: c969 dfbd 47d7 30bd 3c71 b93d b581 c9bd
000002f0: 5468 023d 3e69 e63d 8728 cbbd a945 1a3d
00000300: 4819 123d 9bfc 083e be58 d2bd 8e41 b4bd
00000310: b744 003d 43de 513c 58e8 c03d 2c37 ba3d
00000320: 411a ac3d cf7a 0b3e 60cb 9fbc 2575 643d
00000330: c686 733d c5cd a9bd 7d32 1dbd a0e3 973d
00000340: 7e5f 223d 84a8 c83c 1d14 b8bd ca32 ebbd
00000350: 4d3a 973d 3912 b7bd dc71 193c 0e21 cebc
00000360: f10b 173e cc74 993d 4bac 163e 744a ea3d
00000370: 07e5 ccbd 6141 9e3d 1156 073e 4df6 3b3d
00000380: ec6e 0cbd 8670 d6bd ffe8 dbbd 190d b93d
00000390: 2b64 243c afe9 00be 06d4 ef3d bbc2 103e
000003a0: e6e5 09bb 9225 a43d e0bd d9bd 59ef bdbd
000003b0: b9e8 e3bd 39ce a7bd decd 2e3d 3f89 a8bc
000003c0: 29e6 b5bb 2b40 33bc cdb9 5c3d abf1 983d
000003d0: 3ec0 b1bd 2e3d dc3d e899 7bbd 7cd5 b43d
000003e0: e0eb 20bd 44ce a7bd f581 943c 6bce 14bc
000003f0: 962a 06bc 5173 24bd 0b10 a9bc 235c ffbd
-0.08971369 -0.025748253 -0.0010772708 -0.037215713 -0.07880477 0.13792539 0.029661026 0.043183
0.046084817 0.051348846 -0.12514667 0.006698447 0.09497996 0.025064427 -0.053022873 -0.024190458
-0.07425819 0.047405243 0.029367428 -0.08144736 0.04591019 -0.08741408 0.07958242 -0.0576182
-0.14462073 0.03869452 -0.044972192 0.07454004 -0.05495332 0.13585366 0.0055138515 0.033196963
0.051241968 0.0606575 0.065610655 0.027478222 0.13156699 -0.08545553 -0.0805001 -0.06754376
-0.06259192 -0.09652829 -0.101264134 0.046205245 -0.052366927 -0.1278927 0.03354167 0.118325375
0.018747717 -0.066218555 0.12825257 0.029421134 0.01274878 -0.0181805 0.12598386 -0.08452045
-0.10704048 0.040200915 -0.09890579 -0.068007894 0.0030755755 0.114007086 -0.048267 0.0212732
-0.12462141 0.090894274 -0.114293225 -0.008723699 0.01572251 -0.048280314 0.010856225 0.03377586
-0.097454265 -0.08149489 0.13870727 -0.12897784 -0.059696887 0.0505356 -0.008748665 -0.007689799
0.00013303585 -0.03373061 0.036494724 -0.072879806 0.05247096 -0.13357732 -0.041962277 0.079084195
0.073617905 -0.015930003 0.038310304 0.12489212 -0.025135582 0.053181738 0.113066144 -0.045790937
0.056003332 0.025985572 -0.04395051 -0.103553906 -0.04339311 0.08470159 0.0787453 0.11909964
-0.09434992 -0.09911288 -0.011031263 -0.13943815 0.07430467 -0.009302689 -0.058295034 -0.023629524
-0.009796366 -0.019394305 0.054737177 -0.092567936 0.040637717 0.019942049 0.05019023 0.033678427
0.078345045 -0.11057336 0.08482247 0.1069496 0.08663565 -0.015457421 0.011896278 0.09407444
-0.07884245 -0.03484043 0.05032608 -0.0432446 0.11234918 0.10961689 0.11778008 0.036800962
0.06160768 0.007648179 0.05763567 0.036454033 0.013024143 0.01674453 -0.007083666 -0.13196571
0.085325256 0.11880039 0.046353582 0.03776095 -0.045919403 -0.07505348 -0.08634327 -0.074597344
-0.09830597 -0.08717539 0.0026644706 0.10318721 -0.035150804 0.108978495 0.040959716 0.11186414
0.0682923 0.11680811 0.08749434 -0.032048017 0.047775127 0.09453943 -0.122719385 -0.0992887
0.09797281 -0.07211636 -0.10217262 0.0023932997 -0.0027016078 -0.07532526 -0.10723528 -0.07210512
-0.09792273 0.13705611 0.045422837 -0.055853978 0.13084987 0.04321461 0.014982206 -0.034151677
-0.10908849 -0.043174054 0.09054801 -0.09839193 0.031837776 0.11250542 -0.09919839 0.03766409
0.03566864 0.13377611 -0.102708325 -0.08801566 0.03131553 0.012809339 0.09419316 0.090925545
0.08403445 0.13621067 -0.019506156 0.05577578 0.0594547 -0.082912005 -0.038378228 0.07416463
0.03964185 0.024494417 -0.08988211 -0.114842966 0.07384167 -0.089390226 0.009365525 -0.025162246
0.14750649 0.0749298 0.14714162 0.11439982 -0.10004621 0.07727314 0.13216425 0.045889188
-0.03428547 -0.10470681 -0.107378 0.09035701 0.0100336475 -0.12589143 0.11710362 0.14136784
-0.002104157 0.080149785 -0.10631919 -0.092741676 -0.11128373 -0.08193631 0.0426768 -0.020573257
-0.005551119 -0.010940592 0.05388813 0.074679695 -0.086792454 0.107538566 -0.061426073 0.088297814
-0.039287448 -0.08193639 0.018128375 -0.009082417 -0.008188864 -0.040149037 -0.020637533 -0.124687456

a2c_network.mu.bias f4 [24]
00000000: bd71 9dbc 573d 3a3b 13a7 82bc 43d9 d43c
00000010: 4799 6c3a 5f1b fe3b 1729 1ebb f933 883b
00000020: cd65 5bbb 8c33 75bb 2a10 46bc 0ff8 bdbc
00000030: 8159 02bc b462 0fbc 04ac 48bc d1b0 7bbc
00000040: f092 9b3a 9818 7f3c fb86 c63c 31f8 183c
00000050: abba 533c d4ae a53a a249 933c 9e7e ae3c
-0.019219274 0.002841791 -0.015948808 0.025982505 0.00090255257 0.0077547277 -0.0024133378 0.0041565862
-0.0033477426 -0.0037414758 -0.012088815 -0.023189573 -0.00795591 -0.00875156 -0.012248043 -0.015361981
0.0011869352 0.015569828 0.024234286 0.009336517 0.012922923 0.0012640604 0.017979447 0.02130061

exp_avg f4 [24]
00000000: 3a96 2138 5c6c c73b bb9b 57bb d584 513b
00000010: 2d1f a7b9 438f 333c 2659 223b 6c4d 843b
00000020: af9b beba ee9a 99bb 8d1d 4abb cc22 933a
00000030: 837a 43bb 4d1d 4c3c a99b 003b e89f 473c
00000040: 9128 31bb 6b35 8fbb 951b b23b ee5b 90b9
00000050: b599 d83b 5a04 9f39 e596 cbbb fffe 9c3b
3.85253e-05 0.0060859155 -0.003289922 0.0031970043 -0.0003187595 0.010959449 0.0024772375 0.0040375497
-0.0014542247 -0.0046876585 -0.0030840368 0.001122558 -0.0029827661 0.012458158 0.001962403 0.012184121
-0.0027032236 -0.0043703816 0.005435417 -0.00027534313 0.00661012 0.00030330085 -0.0062130564 0.00479114

exp_avg_sq f4 [24]
00000000: 077c c939 8e5c e439 e691 c839 a697 ed39
00000010: 5bc6 e239 a38b d839 d671 d739 aa76 f839
00000020: a136 eb39 9d80 dd39 ab44 e139 f360 ba39
00000030: 2cdf b139 2ba8 cd39 ff83 dd39 b49b c639
00000040: 8ca1 e539 7552 d639 3bec df39 fdb4 eb39
00000050: 4f6d d939 0166 dd39 dff1 f639 1a46 e639
0.00038430115 0.00043556507 0.00038255675 0.0004531715 0.00043253865 0.00041302768 0.0004109281 0.00047390658
0.00044863395 0.0004224823 0.00042966506 0.00035548917 0.00033926347 0.00039225942 0.0004225075 0.0003788151
0.00043798645 0.00040878696 0.0004270988 0.0004495754 0.00041470907 0.00042228404 0.00047100984 0.00043921248

exp_avg f4 [256, 39]
00000000: 0000 0000 6d55 25b7 f016 1eb7 6ebc 97b6
00000010: b5c2 7fb6 b291 47b7 6ebc 97b6 1f55 13bc
00000020: 50e8 c3bb 6ebc 97b6 79bb 1839 a985 bd3b
00000030: 0000 0000 23ba 03b7 0000 0000 0000 0000
00000040: 0000 0000 0000 0000 0000 0000 0000 0000
00000050: 25cd 193c f2e6 f33a bc67 66b7 0000 0000
00000060: 0000 0000 0000 0000 0000 0000 0000 0000
00000070: 0000 0000 0000 0000 0000 0000 0000 0000
00000080: 0000 0000 0000 0000 0000 0000 0000 0000
00000090: 0000 0000 0000 0000 8822 a0b5 0000 0000
000000a0: d20c 2237 2ef3 1a37 b7b8 9436 e6ad 7a36
000000b0: 059b 4337 b7b8 9436 c436 113c 9715 c03b
000000c0: b7b8 9436 0594 a6b9 d4ec babb 0000 0000
000000d0: 2d1c 0137 0000 0000 0000 0000 0000 0000
000000e0: 0000 0000 0000 0000 0000 0000 4c60 16bc
000000f0: 6ec1 e2ba 53d4 6137 0000 0000 0000 0000
00000100: 0000 0000 0000 0000 0000 0000 0000 0000
00000110: 0000 0000 0000 0000 0000 0000 0000 0000
00000120: 0000 0000 0000 0000 0000 0000 0000 0000
00000130: 0000 0000 1bf4 9c35 0000 0000 6351 2337
00000140: 8829 1c37 b3e2 9536 2ea4 7c36 ce22 4537
00000150: b3e2 9536 db19 123c f890 c13b b3e2 9536
00000160: ee9c 8bb9 2507 bcbb 0000 0000 e01e 0237
00000170: 0000 0000 0000 0000 0000 0000 0000 0000
00000180: 0000 0000 0000 0000 aaaa 17bc 3c52 e8ba
00000190: a498 6337 0000 0000 0000 0000 0000 0000
000001a0: 0000 0000 0000 0000 0000 0000 0000 0000
000001b0: 0000 0000 0000 0000 0000 0000 0000 0000
000001c0: 0000 0000 0000 0000 0000 0000 0000 0000
000001d0: 952e 9e35 0000 0000 5ba5 21b7 4190 1ab7
000001e0: de59 94b6 070e 7ab6 241e 43b7 de59 94b6
000001f0: 3294 10bc 1c95 bfbb de59 94b6 d529 8739
00000200: 8910 ba3b 0000 0000 d7c9 00b7 0000 0000
00000210: 0000 0000 0000 0000 0000 0000 0000 0000
00000220: 0000 0000 5820 163c 0859 e63a 2344 61b7
00000230: 0000 0000 0000 0000 0000 0000 0000 0000
00000240: 0000 0000 0000 0000 0000 0000 0000 0000
00000250: 0000 0000 0000 0000 0000 0000 0000 0000
00000260: 0000 0000 0000 0000 0000 0000 0190 9cb5
00000270: 0000 0000 f79d d336 5d58 ca36 7136 4236
00000280: bfad 2336 b56f ff36 7136 4236 11f3 bc3b
00000290: e9c7 7a3b 7136 4236 901e 0cb9 aa1d 73bb
000002a0: 0000 0000 389a a836 0000 0000 0000 0000
000002b0: 0000 0000 0000 0000 0000 0000 0000 0000
000002c0: 55af c4bb 993f 99ba d073 1337 0000 0000
000002d0: 0000 0000 0000 0000 0000 0000 0000 0000
000002e0: 0000 0000 0000 0000 0000 0000 0000 0000
000002f0: 0000 0000 0000 0000 0000 0000 0000 0000
00000300: 0000 0000 0000 0000 6df6 4c35 0000 0000
00000310: 9bfb 7137 6e61 6737 7814 de36 282a bb36
00000320: 830b 9237 7814 de36 a3fa 583c f26b 0f3c
00000330: 7814 de36 9728 04ba b7a9 0bbc 0000 0000
00000340: 80cb 4037 0000 0000 0000 0000 0000 0000
00000350: 0000 0000 0000 0000 0000 0000 cf7c 60bc
00000360: 2642 28bb 6d9c a837 0000 0000 0000 0000
00000370: 0000 0000 0000 0000 0000 0000 0000 0000
00000380: 0000 0000 0000 0000 0000 0000 0000 0000
00000390: 0000 0000 0000 0000 0000 0000 0000 0000
000003a0: 0000 0000 595f ea35 0000 0000 f63b 8536
000003b0: 26cb 7e36 218d f435 601a ce35 abd2 a036
000003c0: 218d f435 2e77 6f3b d9f4 1d3b 218d f435
000003d0: b4b2 2fb9 cd2d 1abb 0000 0000 944d 5436
000003e0: 0000 0000 0000 0000 0000 0000 0000 0000
000003f0: 0000 0000 0000 0000 75f5 76bb ff3c 35ba
0.0 -9.854656e-06 -9.422874e-06 -4.522087e-06 -3.8111295e-06 -1.1895247e-05 -4.522087e-06 -0.008992462
-0.0059786215 -4.522087e-06 0.00014565689 0.005783756 0.0 -7.851547e-06 0.0 0.0
0.0 0.0 0.0 0.0 0.009387289 0.0018608256 -1.3733221e-05 0.0
0.0 0.0 0.0 0.0 0.0 0.0 0.0 0.0
0.0 0.0 0.0 0.0 0.0 0.0 -1.1930979e-06 0.0
9.658937e-06 9.235735e-06 4.4322474e-06 3.7354125e-06 1.1658999e-05 4.4322474e-06 0.008863155 0.0058619487
4.4322474e-06 -0.0003177227 -0.0057045016 0.0 7.695559e-06 0.0 0.0 0.0
0.0 0.0 0.0 -0.009178232 -0.0017300078 1.3460481e-05 0.0 0.0
0.0 0.0 0.0 0.0 0.0 0.0 0.0 0.0
0.0 0.0 0.0 0.0 0.0 1.169395e-06 0.0 9.734506e-06
9.307994e-06 4.4669373e-06 3.7646491e-06 1.1750219e-05 4.4669373e-06 0.008917297 0.005907174 4.4669373e-06
-0.00026629068 -0.0057381564 0.0 7.7557925e-06 0.0 0.0 0.0 0.0
0.0 0.0 -0.009256998 -0.0017724703 1.3565794e-05 0.0 0.0 0.0
0.0 0.0 0.0 0.0 0.0 0.0 0.0 0.0
0.0 0.0 0.0 0.0 1.1785474e-06 0.0 -9.634848e-06 -9.212702e-06
-4.4212056e-06 -3.7261068e-06 -1.1629923e-05 -4.4212056e-06 -0.008824395 -0.0058466326 -4.4212056e-06 0.00025780374
0.0056782407 0.0 -7.676389e-06 0.0 0.0 0.0 0.0 0.0
0.0 0.009162985 0.0017574141 -1.3426909e-05 0.0 0.0 0.0 0.0
0.0 0.0 0.0 0.0 0.0 0.0 0.0 0.0
0.0 0.0 0.0 -1.1664816e-06 0.0 6.3066796e-06 6.030356e-06 2.8939942e-06
2.4390026e-06 7.6125966e-06 2.8939942e-06 0.0057662805 0.0038266128 2.8939942e-06 -0.00013362826 -0.0037096539
0.0 5.0247436e-06 0.0 0.0 0.0 0.0 0.0 0.0
-0.0060023465 -0.0011691927 8.7888475e-06 0.0 0.0 0.0 0.0 0.0
0.0 0.0 0.0 0.0 0.0 0.0 0.0 0.0
0.0 0.0 7.635452e-07 0.0 1.4423301e-05 1.3791358e-05 6.6184984e-06 5.577942e-06
1.7409917e-05 6.6184984e-06 0.01324335 0.0087537635 6.6184984e-06 -0.0005041449 -0.00852435 0.0
1.1491473e-05 0.0 0.0 0.0 0.0 0.0 0.0 -0.013701632
-0.0025674193 2.0100002e-05 0.0 0.0 0.0 0.0 0.0 0.0
0.0 0.0 0.0 0.0 0.0 0.0 0.0 0.0
0.0 1.7462108e-06 0.0 3.9706892e-06 3.7967197e-06 1.8220491e-06 1.5355872e-06 4.7928966e-06
1.8220491e-06 0.0036539542 0.002410224 1.8220491e-06 -0.00016755873 -0.0023525835 0.0 3.1635618e-06
0.0 0.0 0.0 0.0 0.0 0.0 -0.0037682925 -0.0006913691
