runs/lift_30-15-42-18/nn/last_lift_ep_125_rew_-13.727585.pth (torch, 654733 bytes, 36 tensors)

value_mean_std.running_mean f8 [1]
-233.79221178174024
00000000: 91c2 85cc 5939 6dc0

value_mean_std.running_var f8 [1]
125618.24056142295
00000000: 44ef 56d9 23ab fe40

value_mean_std.count f8 []
128001.0
00000000: 0000 0000 1040 ff40

running_mean_std.running_mean f8 [39]
0.0 1.4999765628662058 1.2999792825121264 0.4999921876220681 0.39999363685059874 2.8999554988184992 0.4999921876220681 0.15075324071500654
0.6295747222152193 0.4999921876220681 0.4118924645040514 1.0302514451092308 0.0 0.9999843752441362 0.0 0.0
0.0 0.0 0.0 0.0 0.7576199662435619 0.8666661510716959 9.809845233436302 0.0
0.0 0.0 0.0 0.0 0.0 0.0 0.0 0.0
0.0 0.0 0.0 0.0 0.0 0.0 0.12499804690551702
00000000: 0000 0000 0000 0000 f26d a46c e7ff f73f
00000010: c1df 7d13 b7cc f43f e4e7 853b dfff df3f
00000020: 3869 38e9 7e99 d93f 1f3f 5ade 1b33 0740
00000030: e4e7 853b dfff df3f 3188 51d7 e14b c33f
00000040: 52af 49e3 7925 e43f e4e7 853b dfff df3f
00000050: 25e1 2036 725c da3f 076a 76f0 e87b f03f
00000060: 0000 0000 0000 0000 e4e7 853b dfff ef3f
00000070: 0000 0000 0000 0000 0000 0000 0000 0000
00000080: 0000 0000 0000 0000 0000 0000 0000 0000
00000090: 0000 0000 0000 0000 0000 0000 0000 0000
000000a0: d201 3a3a 6c3e e83f 6fe6 eca6 babb eb3f
000000b0: 5edc d008 a49e 2340 0000 0000 0000 0000
000000c0: 0000 0000 0000 0000 0000 0000 0000 0000
000000d0: 0000 0000 0000 0000 0000 0000 0000 0000
000000e0: 0000 0000 0000 0000 0000 0000 0000 0000
000000f0: 0000 0000 0000 0000 0000 0000 0000 0000
00000100: 0000 0000 0000 0000 0000 0000 0000 0000
00000110: 0000 0000 0000 0000 0000 0000 0000 0000
00000120: 0000 0000 0000 0000 0000 0000 0000 0000
00000130: e4e7 853b dfff bf3f

running_mean_std.running_var f8 [39]
1.562475586318962e-05 5.077990725612579e-05 4.20301642219512e-05 1.9530883795738106e-05 1.812467632445478e-05 0.0001470269729745595 1.9530883795738106e-05 0.0496387090992264
0.4231487189316717 1.9530883795738106e-05 0.24396988110880316 0.5117740664789452 1.562475586318962e-05 3.12492675933835e-05 1.562475586318962e-05 1.562475586318962e-05
1.562475586318962e-05 1.562475586318962e-05 1.562475586318962e-05 1.562475586318962e-05 0.45598475331774496 0.6950576961386393 0.00151926637311276 1.562475586318962e-05
1.562475586318962e-05 1.562475586318962e-05 1.562475586318962e-05 1.562475586318962e-05 1.562475586318962e-05 1.562475586318962e-05 1.562475586318962e-05 1.562475586318962e-05
1.562475586318962e-05 1.562475586318962e-05 1.562475586318962e-05 1.562475586318962e-05 1.562475586318962e-05 1.562475586318962e-05 1.586888885897393e-05
00000000: 3b37 0b0c 3d62 f03e 594c e253 909f 0a3f
00000010: 6c26 3c72 3109 063f ddb3 581d c87a f43e
00000020: 8106 e545 4e01 f33e 6cb4 c314 6845 233f
00000030: ddb3 581d c87a f43e 8fc7 64b0 3e6a a93f
00000040: 0ef9 495d de14 db3f ddb3 581d c87a f43e
00000050: f120 49b2 673a cf3f daf9 ce01 7460 e03f
00000060: 3b37 0b0c 3d62 f03e d894 a0a8 3462 003f
00000070: 3b37 0b0c 3d62 f03e 3b37 0b0c 3d62 f03e
00000080: 3b37 0b0c 3d62 f03e 3b37 0b0c 3d62 f03e
00000090: 3b37 0b0c 3d62 f03e 3b37 0b0c 3d62 f03e
000000a0: 9f5b beac da2e dd3f 37f4 37a3 e93d e63f
000000b0: 9b4c bbd8 43e4 583f 3b37 0b0c 3d62 f03e
000000c0: 3b37 0b0c 3d62 f03e 3b37 0b0c 3d62 f03e
000000d0: 3b37 0b0c 3d62 f03e 3b37 0b0c 3d62 f03e
000000e0: 3b37 0b0c 3d62 f03e 3b37 0b0c 3d62 f03e
000000f0: 3b37 0b0c 3d62 f03e 3b37 0b0c 3d62 f03e
00000100: 3b37 0b0c 3d62 f03e 3b37 0b0c 3d62 f03e
00000110: 3b37 0b0c 3d62 f03e 3b37 0b0c 3d62 f03e
00000120: 3b37 0b0c 3d62 f03e 3b37 0b0c 3d62 f03e
00000130: 0e0f 20bd c5a3 f03e

running_mean_std.count f8 []
64001.0
00000000: 0000 0000 2040 ef40

a2c_network.sigma f4 [24]
0.0019431197 -0.015513159 0.039295338 -0.008014885 0.017151834 -0.01859893 -0.022613855 -0.06362041
-0.067514844 -0.029806005 0.015495088 0.0076142903 -0.059678126 -0.01892513 0.015421654 -0.035592835
-0.025926912 -0.034886822 -0.022422759 -0.0049714544 -0.006306307 0.017148672 -0.056252006 0.023546452
00000000: 47b0 fe3a e82a 7ebc 26f4 203d dd50 03bc
00000010: 0182 8c3c c95c 98bc b140 b9bc 6b4b 82bd
00000020: 3945 8abd b92b f4bc 1cdf 7d3c 4c81 f93b
00000030: 0d71 74bd e008 9bbc 1bab 7c3c cbc9 11bd
00000040: ad64 d4bc 7ce5 0ebd efaf b7bc 95e7 a2bb
00000050: 23a5 cebb 5f7b 8c3c 8168 66bd 7de4 c03c

a2c_network.actor_mlp.0.weight f4 [256, 39]
-0.050500125 0.05795637 -0.028490277 0.0824997 0.15806733 0.10743214 -0.054894935 0.08640021
-0.0065759383 0.09642724 -0.12056727 -0.17033063 -0.061867196 -0.10781433 0.13139138 0.046121925
0.066327244 0.050642315 -0.002785585 0.12531762 -0.12198375 0.003227331 -0.0945154 0.049375832
-0.055145297 0.04906587 -0.033361334 0.13280898 -0.09490826 -0.095500104 -0.09550587 0.1440261
0.053362884 0.15408342 -0.13214995 -0.15882729 -0.12527846 -0.107716456 0.080022104 0.05733802
0.114514105 -0.10123499 -0.12752885 0.06658763 -0.08332561 0.07881782 -0.04835184 0.06478483
-0.14278191 -0.08304778 0.017050087 0.033852298 -0.0592945 0.095447496 0.10885659 -0.116120666
-0.08548732 0.14662325 -0.05403244 -0.071253136 -0.15547149 -0.110386245 0.0400006 -0.021135822
-0.11623478 0.0037560768 -0.10938057 -0.13585219 -0.088176586 -0.14014609 -0.10195968 0.16006552
0.030244198 0.049345043 -0.149349 -0.10516797 -0.053299587 0.00672922 -0.14090016 -0.08824058
-0.11511009 -0.018894043 -0.07891848 -0.03030968 -0.12784529 -0.11284232 -0.065974064 -0.074149475
-0.113776006 0.13803755 -0.031779677 0.118489325 0.049893063 -0.13559604 0.11081431 -0.04405843
-0.06138129 -0.13291764 -0.1574628 0.054927662 -0.05414828 0.06234159 -0.13141131 0.1188838
-0.11754266 -0.027649863 0.033445917 0.08266644 0.1292731 0.14587021 -0.12696916 0.040299013
-0.06887527 -0.017547613 -0.11985433 0.1458541 -0.1368927 0.085580684 0.07361394 0.06937308
-0.0693439 0.1627791 0.05256429 0.037827734 -0.13170393 0.083938584 -0.0067936713 -0.069116734
0.16024116 0.035700377 -0.07130141 -0.08104709 -0.0076470347 0.08940936 -0.040918157 -0.0913651
-0.054834742 -0.10498385 0.05748364 0.14137189 -0.1507511 0.03718987 0.08272088 0.029035935
-0.057025578 0.083577625 0.08414945 0.059876274 -0.028137943 -0.042402137 0.017130656 -0.028287293
-0.047718357 0.10235501 0.13761406 0.001337316 -0.03585219 -0.0067707803 -0.018668113 0.029189173
0.035576735 -0.1544718 -0.0684009 0.14331654 0.08731863 -0.017271832 -0.086581185 -0.08405119
-0.14343749 -0.06138943 0.054075945 0.10210117 0.07393074 -0.14154433 -0.09629506 -0.025270887
0.15492815 0.026478726 -0.05039623 0.066247456 -0.060989857 -0.10364385 0.11687549 -0.07281055
-0.03210037 -0.15929617 0.10716907 0.12131863 0.058358412 -0.11165322 -0.15803686 -0.13005272
0.119407594 0.07687844 0.12538376 0.08388631 0.03287342 -0.0092219 -0.12923671 -0.14465757
-0.1574989 0.058092237 -0.091203354 -0.05873084 -0.09961274 -0.04143143 -0.13524045 -0.10463024
0.045544676 -0.047589507 0.09885402 -0.051370513 -0.11746476 -0.028252838 -0.077621706 -0.06588186
-0.14969055 0.08177031 -0.11148194 0.08048324 0.07266363 0.11440079 -0.12282662 0.11516365
-0.07570084 0.059418622 0.15037869 -0.02258317 -0.0012383453 -0.036866393 -0.13370453 0.07684596
-0.15896207 0.09201427 0.1198119 0.15674174 -0.032462995 -0.12630236 0.04126988 0.09378061
-0.15411137 -0.04031343 -0.07403969 -0.008739626 -0.083771504 -0.04304824 -0.0508341 -0.14688012
0.13138635 0.13424042 -0.02511915 -0.018235724 -0.065351486 -0.14460577 -0.15207796 0.063242905
00000000: 38d9 4ebd a963 6d3d 7164 e9bc 9af5 a83d
00000010: 67dc 213e 6205 dc3d 83d9 60bd 98f2 b03d
00000020: f87a d7bb a57b c53d f9eb f6bd 276b 2ebe
00000030: 7568 7dbd c2cd dcbd 768b 063e 58ea 3c3d
00000040: 94d6 873d 516e 4f3d 5c8e 36bb 4353 003e
00000050: 9ed2 f9bd a181 533b 4a91 c1bd 503e 4a3d
00000060: 09e0 61bd 4bf9 483d e5a5 08bd 14ff 073e
00000070: 435f c2bd 8f95 c3bd 9598 c3bd 947b 133e
00000080: 0a93 5a3d 0bc8 1d3e 5152 07be 9fa3 22be
00000090: ff48 00be 729a dcbd a1e2 a33d 46db 6a3d
000000a0: 5f86 ea3d 4a54 cfbd ec96 02be 185f 883d
000000b0: 9ea6 aabd 3d6b a13d 940c 46bd e9ad 843d
000000c0: 6c35 12be f414 aabd a0ac 8b3c b5a8 0a3d
000000d0: cade 72bd fa79 c33d 34f0 de3d acd0 edbd
000000e0: fa13 afbd 6824 163e 1f51 5dbd 2aed 91bd
000000f0: eb33 1fbe 2f12 e2bd abd7 233d 0825 adbc
00000100: 800c eebd 8328 763b ec02 e0bd d61c 0bbe
00000110: ed95 b4bd 7582 0fbe 3dd0 d0bd 37e8 233e
00000120: aec2 f73c 071e 4a3d f2ee 18be 4e62 d7bd
00000130: ab50 5abd ca80 dc3b 2248 10be 7ab7 b4bd
00000140: d7be ebbd aec7 9abc 03a0 a1bd 024c f8bc
00000150: e0e9 02be e019 e7bd 691d 87bd aedb 97bd
00000160: 6503 e9bd b759 0d3e 682b 02bd 88aa f23d
00000170: ab5c 4c3d b0d9 0abe 9df2 e23d 9d76 34bd
00000180: f36a 7bbd 901b 08be ee3d 21be d4fb 603d
00000190: 96ca 5dbd e559 7f3d b090 06be 5a79 f33d
000001a0: 35ba f0bd f781 e2bc 96fe 083d 064d a93d
000001b0: 2b60 043e 005f 153e 3404 02be 9410 253d
000001c0: 7a0e 8dbd 03c0 8fbc 3076 f5bd c75a 153e
000001d0: 9a2d 0cbe ed44 af3d e8c2 963d 7913 8e3d
000001e0: 2d04 8ebd 90af 263e a74d 573d 41f1 1a3d
000001f0: 65dd 06be fee7 ab3d 729d debb 138d 8dbd
00000200: 4216 243e 8f3a 123d 7906 92bd 04fc a5bd
00000210: fa93 fabb 411c b73d cc99 27bd a01d bbbd
00000220: 659a 60bd c601 d7bd f773 6b3d cbc3 103e
00000230: 7f5e 1abe 6854 183d 9169 a93d c5dc ed3c
00000240: a793 69bd bf2a ab3d 8c56 ac3d d340 753d
00000250: 8b81 e6bc ddad 2dbd 9755 8c3c c1ba e7bc
00000260: 5374 43bd 819f d13d b3ea 0c3e e148 af3a
00000270: bfd9 12bd 6cdd ddbb dfed 98bc 221e ef3c
00000280: e9b8 113d db2d 1ebe c515 8cbd 92c1 123e
00000290: 1cd4 b23d a87d 8dbc 7a51 b1bd 0823 acbd
000002a0: 47e1 12be 7c73 7bbd bd7e 5d3d 6b1a d13d
000002b0: 0069 973d fff0 10be 5836 c5bd e404 cfbc
000002c0: 7ca5 1e3e eae9 d83c 476c 4ebd bfac 873d
000002d0: 80d0 79bd 3a43 d4bd 6b5c ef3d b31d 95bd
000002e0: ad7b 03bd 891e 23be 757b db3d e775 f83d
000002f0: 3b09 6f3d 72aa e4bd 6ad4 21be 8a2c 05be
00000300: f88b f43d 7272 9d3d 9a64 003e 96cc ab3d
00000310: 47a6 063d 7417 17bc a156 04be 1d21 14be
00000320: 6447 21be 20f2 6d3d d3c8 babd c08f 70bd
00000330: c401 ccbd 01b4 29bd 797c 0abe 6148 d6bd
00000340: 0e8d 3a3d 37ed 42bd fa73 ca3d e369 52bd
00000350: 5d91 f0bd 7f72 e7bc 21f8 9ebd 12ed 86bd
00000360: 7b48 19be 3177 a73d a550 e4bd 66d4 a43d
00000370: abd0 943d f64a ea3d 868c fbbd ebda eb3d
00000380: 0b09 9bbd f160 733d dffc 193e 5700 b9bc
00000390: f94f a2ba 3701 17bd d7e9 08be 6a61 9d3d
000003a0: f4c6 22be fa71 bc3d f15f f53d e880 203e
000003b0: ebf7 04bd 6855 01be 9b0a 293d 0c10 c03d
000003c0: 5fcf 1dbe b21f 25bd 1fa2 97bd a630 0fbc
000003d0: 6590 abbd 5a53 30bd 6b37 50bd be67 16be
000003e0: 258a 063e 5276 093e adc6 cdbc 1663 95bc
000003f0: 00d7 85bd 8913 14be 53ba 1bbe 7f85 813d

a2c_network.actor_mlp.0.bias f4 [256]
0.006104948 -0.023897842 -0.0147049595 0.020944862 -0.0020828184 -0.013930023 0.006708795 0.012335292
-0.0067267274 0.017358415 0.0062613185 -0.004332203 -0.0034266394 0.0077913166 -0.02344109 -0.021203972
0.002790643 0.0063689128 -0.001689407 -0.0063237827 -0.0042449757 -0.009188164 -0.013791999 -0.007926886
-0.012605028 -0.0098578455 0.005616558 -0.006188435 0.022279948 0.0043161344 0.007217036 0.008661313
0.024355251 -0.009001181 0.0046130936 -0.02003854 -0.021352742 -0.024097078 0.009859096 0.0037798171
-0.012282233 9.210805e-05 -0.023328237 -0.0097667165 -0.014119521 -0.004019423 -0.019616386 0.008008006
-0.025247065 -0.015092162 -0.0060246144 0.023946652 0.0029777025 0.012365481 -0.021972364 0.0022661677
-0.0023597407 0.0036620128 -0.004852514 -0.016406028 -0.021420036 0.00024757732 0.011203657 0.011501922
-0.018543616 0.017654464 -0.019798143 -0.018742232 -0.011321631 0.004345376 0.0018817175 -0.015616874
0.022525506 0.001942401 0.011172354 -0.00877105 0.03257522 0.02487467 -0.026573677 -0.019732798
-0.02058422 0.00532801 0.014140194 0.021058364 -0.0012979939 -0.004790747 -0.008358216 -0.014261542
-0.012945822 -0.012240466 -0.021892209 -0.023007333 0.019788584 0.020664273 0.024922283 -4.0976654e-05
-0.007947896 0.018219952 -0.0062678745 0.0010738223 0.018091941 0.0037297546 0.010424817 0.009009056
0.002951866 -0.010383163 0.007820308 -0.016379792 -0.0062491773 0.010982586 -0.017161414 -0.014268636
0.0056267125 0.020446759 -0.025391255 0.014939901 0.025918229 -0.007599604 -0.0036044635 -0.022601914
0.009947602 -0.0063600326 -0.017879887 -0.0051776497 -0.0034076448 -0.019889357 0.0046076667 0.024138095
0.020331038 0.0091302125 0.00024413304 0.0036131986 -0.0024627491 0.0040653716 -0.009475993 0.021293234
-0.011503531 -0.0134129645 -0.018464489 0.018192777 0.0018197503 0.023237074 0.01731861 0.018558545
0.012593057 0.018242158 -0.009344035 -0.0014947889 0.018449195 -0.000779107 0.01790538 0.0042845695
-0.003592786 -0.024503566 0.0059669483 0.0011556546 -0.020105654 -0.01957583 -0.013899939 -0.013480493
-0.025014432 -0.007166322 -0.023928229 -0.009672261 -0.010527706 0.02886214 -0.015552838 -0.012868263
0.0054691243 0.0052578235 -0.0017122586 -0.014768724 -0.0055124527 0.0135767395 -0.0024404072 -0.020361697
0.028207308 -0.012517552 -0.001868113 -0.022573225 -0.011874209 0.028069822 0.0016832077 0.013811599
0.018237988 0.02708085 0.001173475 -0.016310036 -0.013155792 0.01320765 0.023657888 -0.01584822
0.024738206 -0.0037705721 0.01544809 0.0029195328 0.017889634 -0.014988891 -0.0064037167 -0.018124865
0.0053991345 0.0036970736 0.017035048 0.0021989148 -0.0015931975 -0.00967467 -0.00040796696 0.011370879
0.012087472 0.0026518607 0.007321088 -0.015603206 -0.006189695 0.00560583 0.018123645 0.008834725
-0.011658309 -0.016087294 0.02603472 0.011876398 0.0035836226 0.0022598247 0.005568945 0.00701162
0.0031602872 -0.0047359965 -0.0074149976 -0.0071463203 -0.000538948 -2.4255658e-05 0.007412683 0.0026201054
-0.01740424 -0.0068326863 -0.0005107905 0.020202467 0.00042593264 0.0028430016 0.008478673 -0.023148732
0.0057015843 -0.0014091487 -0.0039254944 0.021106992 0.006153138 0.024738206 0.022704033 0.016964626
-0.009260828 0.022827558 -0.009716063 0.018579286 0.0019651598 0.015708951 0.014995631 -0.0140014235
00000000: 040c c83b 68c5 c3bc 12ed 70bc 8f94 ab3c
00000010: e57f 08bb c03a 64bc 74d5 db3b f719 4a3c
00000020: e16b dcbb 3c33 8e3c bf2b cd3b 27f5 8dbb
00000030: 7891 60bb 4d4e ff3b 8707 c0bc f4b3 adbc
00000040: 38e3 363b 50b2 d03b 186f ddba bc37 cfbb
00000050: 7019 8bbb f489 16bc d6f7 61bc c5df 01bc
00000060: 5285 4ebc cd82 21bc 1a0b b83b 5bc8 cabb
00000070: 7084 b63c 5c6e 8d3b e37c ec3b 2ee8 0d3c
00000080: aa84 c73c b179 13bc 6f29 973b dd27 a4bc
00000090: f2eb aebc 3c67 c5bc 0c88 213c cfb6 773b
000000a0: 6b3b 49bc 222a c138 dc1a bfbc 9404 20bc
000000b0: 9055 67bc 5db5 83bb 8bb2 a0bc 0334 033c
000000c0: efd2 cebc 1e45 77bc 216a c5bb c52b c43c
000000d0: 8f25 433b 9698 4a3c 63ff b3bc fc83 143b
000000e0: e1a5 1abb 61fe 6f3b d601 9fbb ef65 86bc
000000f0: 1279 afbc 44cd 8139 8b8f 373c 8f72 3c3c
00000100: c8e8 97bc 18a0 903c b72f a2bc 4f89 99bc
00000110: 5d7e 39bc a863 8e3b f6a3 f63a ebdd 7fbc
00000120: 6987 b83c 2a98 fe3a 400c 373c 73b4 0fbc
00000130: 986d 053d f7c5 cb3c 0ab1 d9bc ada6 a1bc
00000140: 3da0 a8bc 9696 ae3b 46ac 673c 9782 ac3c
00000150: 7321 aaba b3fb 9cbb e6f0 08bc 3ea9 69bc
00000160: b71a 54bc 3c8c 48bc 4a57 b3bc e079 bcbc
00000170: ab1b a23c 1f48 a93c d129 cc3c 59de 2bb8
00000180: e437 02bc 0242 953c be62 cdbb 7fbf 8c3a
00000190: 8d35 943c e66e 743b dacc 2a3c b89a 133c
000001a0: 1874 413b 241e 2abc c020 003c ea2e 86bc
000001b0: e6c5 ccbb 4ef0 333c 1896 8cbc ffc6 69bc
000001c0: 4960 b83b f67f a73c 5201 d0bc 7dc6 743c
000001d0: 7752 d43c 1906 f9bb dd38 6cbb a627 b9bc
000001e0: 44fb 223c d267 d0bb d778 92bc 46a9 a9bb
000001f0: cb52 5fbb 01ef a2bc e9fb 963b 41bd c53c
00000200: 478d a63c e396 153c f7fd 7f39 6acb 6c3b
00000210: 1366 21bb cf36 853b 3241 1bbc 266f ae3c
00000220: 4e79 3cbc 0dc2 5bbc d742 97bc 0509 953c
00000230: b084 ee3a ad5b be3c c2df 8d3c 1708 983c
00000240: 1c53 4e3c 9470 953c b917 19bc cbec c3ba
00000250: c422 973c fc3c 4cba 4eae 923c 9365 8c3b
00000260: f274 6bbb b4bb c8bc 6486 c33b 5579 973a
00000270: 9db4 a4bc 7e5d a0bc 92bc 63bc 49dd 5cbc
00000280: 11eb ccbc 77d3 eabb 2205 c4bc 6778 1ebc
00000290: 667c 2cbc 4b70 ec3c 55d1 7ebc 68d5 52bc
000002a0: 5736 b33b d249 ac3b dd6d e0ba 85f8 71bc
000002b0: cea1 b4bb f970 5e3c 3def 1fbb 93cd a6bc
000002c0: 0313 e73c 6b16 4dbc 78db f4ba 7ceb b8bc
000002d0: 0b8c 42bc aff2 e53c 149f dc3a 0c4a 623c
000002e0: d567 953c a9d8 dd3c 49cf 993a a09c 85bc
000002f0: 648b 57bc e664 583c 30ce c13c 20d4 81bc
00000300: c7a7 ca3c b41b 77bb fc19 7d3c a255 3f3b
00000310: 488d 923c f793 75bc 45d6 d1bb 997a 94bc
00000320: 39eb b03b 9a4a 723b 168d 8b3c ab1b 103b
00000330: d6d2 d0ba 8282 1ebc 66e4 d5b9 ec4c 3a3c
00000340: 880a 463c d7ca 2d3b bde5 ef3b 97a4 7fbc
00000350: edd2 cabb 1cb1 b73b 0a78 943c 86bf 103c
00000360: 7e02 3fbc 80c9 83bc c446 d53c 3995 423c
00000370: 36db 6a3b 9119 143b b27b b63b bbc1 e53b
00000380: d21c 4f3b 6b30 9bbb 82f9 f2bb ae2b eabb
00000390: 3048 0dba a178 cbb7 18e6 f23b 13b6 2b3b
000003a0: 5693 8ebc bae4 dfbb 92e6 05ba a57f a53c
000003b0: b64f df39 a751 3a3b 22ea 0a3c 69a2 bdbc
000003c0: 5bd4 ba3b 2fb3 b8ba 6fa1 80bb 92e8 ac3c
000003d0: 43a0 c93b c7a7 ca3c cffd b93c 66f9 8a3c
000003e0: baba 17bc dc00 bb3c 1f30 1fbc 9633 983c
000003f0: e9c9 003b 0fb0 803c 3cb0 753c 3a66 65bc

a2c_network.actor_mlp.2.weight f4 [128, 256]
0.012862619 -0.0070134555 0.018652711 -0.04964141 -0.02716829 0.04711814 -0.062075347 -0.065638155
-0.05179308 -0.061546907 -0.05206168 -0.029222526 0.018174207 -0.080495365 -0.07417699 -0.03781506
-0.06205335 0.03428583 -0.027089383 0.031349026 0.07546162 -0.032591894 -0.009813591 -0.013023597
0.043210056 0.024732806 -0.020531842 0.0066489587 -0.07893632 -0.036622584 -0.056977324 -0.07723018
-0.053231966 -0.03871993 -0.015466431 0.0380917 0.008359482 -0.0069419504 -0.008673938 0.07090479
-0.022907922 0.046862762 0.03886217 -0.043436643 0.051042482 0.020735266 -0.055931907 0.07437065
0.012974222 0.08441543 -0.00044522848 -0.033269912 0.07351057 -0.003525353 0.0546447 -0.021080222
0.029366102 -0.012232971 0.032105993 0.02438721 -0.013734389 0.0672387 0.023644967 -0.002022767
0.028621085 0.008348328 -0.006871094 0.041448988 -0.06045209 -0.029900068 0.025907714 -0.022490216
-0.027214954 0.04659541 0.017252391 -0.02804993 0.01039691 0.031570207 -0.0313772 0.044443384
-0.0061094565 -0.034110703 -0.031744823 -0.016999805 0.03630426 -0.013354421 -0.07537623 -0.010947248
0.058359932 -0.0369651 0.072955325 0.039364163 0.0619197 -0.014362925 -0.04678157 -0.067016505
-0.00017247014 -0.021990024 0.002128243 0.041393362 0.0611352 -0.096317746 -0.040840097 -0.007382247
-0.01928596 0.05795938 -0.034295276 0.04487914 -0.027771942 0.0059967414 -0.016969142 -0.012341206
-0.040832154 -0.081800595 -0.011440523 -0.013600268 -0.051332515 -0.01501936 -0.06040411 -0.03266364
-0.07510946 0.073090106 0.00414254 0.030619204 -0.071172796 0.0029627325 -0.075183585 0.030867785
0.04434829 -0.0720831 0.068788365 -0.0016287926 -0.06352552 0.008922184 0.04019748 -0.057467043
0.036141414 0.033565823 0.033734277 -0.02776449 0.024191817 0.010937426 0.07584473 -0.06475171
-0.0007959776 0.023017941 -0.04210752 -0.020002523 0.043561883 0.028649101 0.0025692112 -0.012178426
-0.060215943 0.04300799 -0.030083902 -0.09497901 0.023097444 -0.03263567 0.02499356 0.064391986
0.05758881 0.03386773 -0.034513433 -0.004230075 0.02961469 -0.039638676 0.043834113 0.053101633
-0.06522384 -0.013664564 -0.04384124 0.013266406 0.027613308 -0.049683202 0.01381475 -0.013041982
0.04323227 0.047131006 0.012164711 -0.055541337 0.030509012 -0.039903786 0.026672369 -0.022113495
0.06131901 -0.008406876 0.0058141933 -0.04135812 0.029285884 -0.0145092895 0.01643592 0.022578897
-0.049163118 -0.05404737 0.02934223 -0.036011968 -0.06862463 0.07300711 -0.027282843 -0.027909786
-0.07635162 0.034033373 -0.019582829 0.015935525 0.0036197787 -0.0063403407 -0.006710061 0.06236739
0.022294575 0.0138339875 -0.07675089 -0.0490692 0.012561991 0.006583182 0.0022321574 -0.01893549
0.033393007 0.045206204 -0.028668558 0.0072812075 -0.030867297 0.06936757 -0.013491707 -0.012945385
0.06264429 -0.039318927 0.021064876 -0.036042005 -0.06557118 0.035652503 -0.0046521993 -0.0985435
-0.052601587 -0.014475263 0.03687478 0.024397172 -0.0017469676 0.03755328 -0.08001117 0.04585585
0.0064005116 -0.0006210318 0.01623765 0.010752411 -0.0006665229 0.027955689 0.06572362 0.07978357
-0.009724467 0.016383711 0.030436268 -0.027704999 0.04950378 0.01797111 0.058917582 -0.0027864121
00000000: bcbd 523c 21d1 e5bb 92cd 983c cb54 4bbd
00000010: 0990 debc f3fe 403d b842 7ebd 4c6d 86bd
00000020: fb24 54bd 9c18 7cbd a13e 55bd 1464 efbc
00000030: 13e2 943c c1da a4bd 1bea 97bd f7e3 1abd
00000040: a72b 7ebd 4c6f 0c3d 8eea ddbc d667 003d
00000050: 9f8b 9a3d 147f 05bd 2fc9 20bc ed60 55bc
00000060: 07fd 303d 749c ca3c 6532 a8bc 82df d93b
00000070: 5ea9 a1bd 9001 16bd 0e61 69bd db2a 9ebd
00000080: c309 5abd ca98 1ebd ea66 7dbc 0b06 1c3d
00000090: 35f6 083c 4d79 e3bb 221d 0ebc 8836 913d
000000a0: 65a9 bbbc 2bf3 3f3d f02d 1f3d 9fea 31bd
000000b0: ec11 513d 01dd a93c db18 65bd a44f 983d
000000c0: d591 543c ffe1 ac3d 8e6d e9b9 0846 08bd
000000d0: b68c 963d 9c09 67bb 1fd3 5f3d 6eb0 acbc
000000e0: 2e91 f03c cd6c 48bc 9381 033d b0c7 c73c
000000f0: 3406 61bc 72b4 893d 17b3 c13c 6690 04bb
00000100: c476 ea3c 6dc7 083c ea26 e1bb 6ac6 293d
00000110: 9c9c 77bd fdf0 f4bc 6a3c d43c 673d b8bc
00000120: e5f1 debc d4da 3e3d e354 8d3c f8c8 e5bc
00000130: cd57 2a3c c34f 013d 6185 00bd 440a 363d
00000140: d631 c8bb aab7 0bbd dc06 02bd 2d43 8bbc
00000150: c7b3 143d 80cc 5abc da5e 9abd 165c 33bc
00000160: d30a 6f3d b768 17bd 9a69 953d 513c 213d
00000170: 839f 7d3d 7952 6bbc 089e 3fbd f33f 89bd
00000180: 1ad9 34b9 6c24 b4bc fe79 0b3b 168c 293d
00000190: e768 7a3d 3d42 c5bd f247 27bd c7e6 f1bb
000001a0: 97fd 9dbc d166 6d3d 3479 0cbd 30d3 373d
000001b0: fc81 e3bc 5080 c43b df02 8bbc c532 4abc
000001c0: 9e3f 27bd 1287 a7bd 0871 3bbc a9d3 5ebc
000001d0: 0b42 52bd c313 76bc 4d6a 77bd 4fca 05bd
000001e0: fdd2 99bd 44b0 953d 25be 873b 20d5 fa3c
000001f0: 0bc3 91bd 672a 423b daf9 99bd 70de fc3c
00000200: 8da6 353d 4ea0 93bd eae0 8c3d 367d d5ba
00000210: ab19 82bd 5a2e 123c 1da6 243d 9062 6bbd
00000220: 0509 143d 517c 093d f42c 0a3d 5b72 e3bc
00000230: eb2d c63c e432 333c 7b54 9b3d 8b9c 84bd
00000240: 27a9 50ba 1f90 bc3c ef78 2cbd 55dc a3bc
00000250: f26d 323d 85b1 ea3c 3660 283b 0588 47bc
00000260: fea4 76bd 2529 303d 8472 f6bc 5b84 c2bd
00000270: da36 bd3c fbac 05bd 4bbf cc3c f2df 833d
00000280: 3ee2 6b3d e4b8 0a3d f55d 0dbd 719c 8abb
00000290: 829a f23c 2a5c 22bd 668b 333d 1981 593d
000002a0: 1494 85bd 56e1 5fbc df92 33bd 575b 593c
000002b0: 4e35 e23c 9d80 4bbd 4357 623c 0aae 55bc
000002c0: 5214 313d 710c 413d 7f4e 473c 507f 63bd
000002d0: 09ee f93c 2772 23bd 0380 da3c 5c27 b5bc
000002e0: a429 7b3d febc 09bc fd84 be3b 2267 29bd
000002f0: f3e8 ef3c 5fb8 6dbc 9fa4 863c 61f7 b83c
00000300: 445f 49bd c660 5dbd 1e5f f03c 4981 13bd
00000310: 128b 8cbd c084 953d 4580 dfbc 10a3 e4bc
00000320: 3d5e 9cbd 9466 0b3d 2b6c a0bc 388b 823c
00000330: cf39 6d3b a2c2 cfbb 12e0 dbbb f374 7f3d
00000340: 1da3 b63c f3a7 623c 922f 9dbd c9fc 48bd
00000350: cfd0 4d3c bcb7 d73b 6349 123b 9a1e 9bbc
00000360: 1bc7 083d 242a 393d 53da eabc 3297 ee3b
00000370: 6add fcbc 9610 8e3d 520c 5dbc e118 54bc
00000380: a64b 803d e20c 21bd 3f90 ac3c c8a0 13bd
00000390: 2f4a 86bd 5c08 123d 7a71 98bb 2dd1 c9bd
000003a0: c374 57bd a729 6dbc 020a 173d 94dc c73c
000003b0: 81fa e4ba 78d1 193d e5dc a3bd 58d3 3b3d
000003c0: 62bb d13b bdcc 22ba d204 853c e12a 303c
000003d0: 98b9 2eba 5403 e53c 1b9a 863d 9165 a33d
000003e0: 5f53 1fbc 2237 863c 7b55 f93c 98f5 e2bc
000003f0: 7ac4 4a3d 2638 933c 9053 713d 3d9c 36bb

a2c_network.actor_mlp.2.bias f4 [128]
-0.018439395 0.029224332 -0.013188426 0.035934918 -0.03147166 -0.013041475 -0.0113022495 0.022135545
-0.02976021 0.008374939 0.011782539 0.03147118 0.03055422 -0.027023602 0.031340357 0.027851034
-0.03148263 -0.007069416 0.019363126 -0.02967807 -0.0040144874 0.017096458 0.014392198 0.015394722
0.02146525 0.031251196 -0.014403735 -0.03275478 0.032701433 -0.008588614 -0.028427115 -0.007203075
0.030722806 -0.007513186 0.0044412445 0.039748795 -0.028052773 -0.003984266 0.025763595 -0.027056519
-0.00943129 -0.016171675 0.0009567124 -0.018336717 0.017777925 -0.01704859 -0.024575459 0.014136757
0.0066300347 -0.01775694 -0.0062193796 0.037721034 0.012635445 0.001533526 -0.009699726 0.02578701
0.003587551 -0.027086185 -0.028967818 0.026660064 0.023007233 0.02697572 0.019737376 0.0325691
0.034385666 0.018321391 0.03481102 0.015462146 -0.0015336415 0.035398692 0.020182127 -0.012715109
-0.029246865 -0.022564778 0.008182581 0.028312324 0.011583995 0.0055001993 0.032205306 -0.027264474
0.015521772 -0.0291811 -0.012590607 0.0040066396 -0.030131618 0.035092913 -0.033038117 -0.019776583
0.033601854 0.006048429 0.02756816 -0.0156016 0.028654244 0.012953262 0.016539803 -0.0097671505
0.020341003 -0.029009867 0.025612246 -0.020245675 -0.020037327 0.022832118 0.029202024 0.017762782
0.02447342 0.039314028 0.0031858291 -0.0040677614 -0.025309611 -0.02888727 0.037575137 -0.025837686
-0.016101565 0.010980575 0.003180159 0.033222366 0.013461322 0.004024111 -0.02253191 -0.009209409
-0.01338441 -0.032872897 0.014521885 -0.0172639 -0.009780154 -0.021325985 0.032645673 0.007638041
00000000: 370e 97bc de67 ef3c 4514 58bc 7e30 133d
00000010: 6de8 00bd e9ab 55bc 122d 39bc 9a55 b53c
00000020: afcb f3bc 0a37 093c 8d0b 413c ede7 003d
00000030: d84c fa3c 9a60 ddbc bf5e 003d da27 e43c
00000040: eef3 00bd 8fa6 e7bb 6b9f 9e3c 6d1f f3bc
00000050: f68b 83bb df0d 8c3c 41cd 6b3c 253a 7c3c
00000060: e4d7 af3c 4101 003d a5fd 6bbc e029 06bd
00000070: f0f1 053d 42b7 0cbc fbdf e8bc c607 ecbb
00000080: 65ae fb3c 2c31 f6bb dc87 913b a2cf 223d
00000090: eece e5bc 728e 82bb 2d0e d33c a2a5 ddbc
000000a0: b385 1abc 767a 84bc e2cb 7a3a e236 96bc
000000b0: 03a3 913c 7ca9 8bbc 7952 c9bc db9d 673c
000000c0: c340 d93b 0177 91bc f0cb cbbb 5f81 1a3d
000000d0: e604 4f3c 9800 c93a 99eb 1ebc 483f d33c
000000e0: 1e1d 6b3b d9e3 ddbc eb4d edbc 3566 da3c
000000f0: aa79 bc3c 2ffc dc3c 47b0 a13c 2d67 053d
00000100: fcd7 0c3d be16 963c 0096 0e3d f154 7d3c
00000110: 7804 c9ba 38fe 103d fd54 a53c 0853 50bc
00000120: 1f97 efbc c5d9 b8bc 3b10 063c 3fef e73c
00000130: ccca 3d3c 043b b43b b6e9 033d bf59 dfbc
00000140: 084f 7e3c 340d efbc d548 4ebc 214a 833b
00000150: 95d6 f6bc 96bd 0f3d fa52 07bd 8002 a2bc
00000160: 19a2 093d e631 c63b 9fd6 e13c da9d 7fbc
00000170: 4ebc ea3c eb39 543c 7b7e 873c 6606 20bc
00000180: 2da2 a63c 1aa6 edbc c6d0 d13c 42da a5bc
00000190: 5225 a4bc 6c0a bb3c 1539 ef3c 4183 913c
000001a0: 7b7c c83c bf07 213d 58c9 503b db4a 85bb
000001b0: 1a56 cfbc ffa4 ecbc 63e8 193d 8ea9 d3bc
000001c0: 6ee7 83bc dfe7 333c 376a 503b 2d14 083d
000001d0: e08c 5c3c b1dc 833b d794 b8bc 10e3 16bc
000001e0: 494a 5bbc bba5 06bd 33ed 6d3c 066d 8dbc
000001f0: f03c 20bc d5b3 aebc 78b7 053d 8848 fa3b

a2c_network.actor_mlp.4.weight f4 [64, 128]
0.039106026 0.019080669 -0.040233813 0.118713155 0.0051836534 0.010990411 -0.022539485 -0.0071959714
-0.09817794 0.06425259 -0.08297508 0.094949536 0.10929995 0.014042916 0.12691139 -0.02937655
-0.020338694 0.06837173 -0.08065779 -0.11176245 0.058193423 0.06332666 0.03181304 0.023389107
0.068756044 0.09655363 -0.054994274 -0.11061962 0.113705516 -0.02449486 -0.030197944 -0.021232583
0.05351217 0.036838934 0.09417808 0.023423115 -0.008616075 -0.08747702 0.08303459 -0.022328971
0.10185928 -0.05746829 -0.0072542788 0.06462732 -0.079390146 -0.059055425 -0.0020396558 -0.05085802
-0.061561905 0.0075147506 0.08720561 0.043534644 -0.051519085 -0.06121434 -0.0028370374 0.05666692
-0.09563932 0.06115765 -0.03062385 0.09111652 0.041661173 -0.05019645 0.07698332 -0.029426875
0.050893288 -0.019048156 -0.041325815 0.0056381067 -0.032867298 0.07985606 -0.029029824 -0.080495626
-0.10351303 -0.07658603 0.099618845 0.11749171 0.022083594 -0.09931952 0.045863364 -0.06945562
0.030008089 0.05377248 0.055762783 -0.0059342063 -0.044454783 -0.0028196683 -0.07910409 -0.04518694
0.062228672 0.05028852 0.018722326 0.11239361 0.058842845 -0.06261265 0.11705361 -0.051245008
0.006802384 -0.08019363 0.062632464 -0.01288169 -0.02370417 -0.0069670985 -0.029266987 -0.02113476
0.06494604 -5.2205246e-06 -0.042153485 0.08276784 -0.021422677 0.013652702 0.076877885 -0.068425916
-0.013526071 -0.111005425 0.010991689 0.0968422 -0.087035455 0.022890763 -0.053897034 0.050413895
0.034407746 -0.011921801 0.013858874 -0.0005356192 -0.019046346 -0.08887005 0.100647524 0.023043739
0.0054673217 0.010924256 -0.033480905 -0.09925839 0.06592352 -0.04434423 -0.013836356 -0.05620155
0.0765977 -0.048462536 0.02354706 -0.0070147244 0.064595714 0.09685095 0.016520588 -0.01956287
0.05658912 0.01951043 -0.08286762 0.005025829 0.048052125 -0.08421878 -0.052923568 -0.051114734
0.06800506 -0.08388049 0.008850954 -0.05542935 0.055814564 -0.048895545 0.047028273 -0.039516855
-0.036742453 -0.0025358596 -0.003463735 -0.069199905 -0.06334562 -0.063435495 -0.050282013 0.058051173
0.029965324 -0.048853815 -0.04896766 0.07927883 -0.09960648 0.064192966 0.010184821 -0.07876985
0.03259066 0.07472466 0.04336624 -0.03791933 -0.04080361 0.002296327 -0.05795846 0.029503888
-0.05164285 0.0034028408 -0.0083079515 0.0538839 -0.094920106 -0.0674766 0.041607305 -0.04445221
0.0573416 -0.07957421 0.01136695 0.015030937 0.09746614 0.049746808 0.019776603 -0.016535401
0.02714867 0.07038167 -0.061654404 -0.09591491 0.003272507 -0.07706472 0.0030411195 0.010192021
0.052280515 0.07261991 -0.07617532 0.08945703 -0.056569576 -0.091623865 -0.0139075145 0.03602894
-0.015203661 -0.0109154275 -0.002076846 -0.01950415 -0.038892303 0.0386148 0.015717953 -0.014942668
0.020801334 0.062675275 -0.011323767 -0.023335362 0.07118044 -0.0043957927 0.053815823 0.06892493
-0.099905245 -0.032951217 -0.07465249 0.022517975 0.06344372 0.047808208 -0.038015693 0.03346654
0.07026049 -0.04661138 0.0441109 -0.01370302 0.018310366 -0.01815977 0.05513087 0.050413046
0.003883677 0.014413671 -0.08130485 -0.09013834 -0.018363457 -0.057093553 -0.016253028 0.06415617
00000000: a42d 203d 104f 9c3c 36cc 24bd e21f f33d
00000010: a3db a93b 2011 343c baa4 b8bc 2fcc ebbb
00000020: 8411 c9bd dd96 833d d7ee a9bd e774 c23d
00000030: a7d8 df3d 4214 663c 0ff5 013e 17a7 f0bc
00000040: 559d a6bc 7a06 8c3d e92f a5bd b6e3 e4bd
00000050: 3a5c 6e3d 68b1 813d 644e 023d 839a bf3c
00000060: f8cf 8c3d e9bd c53d ad41 61bd 8a8c e2bd
00000070: 70de e83d 72a9 c8bc ae61 f7bc f4ef adbc
00000080: 942f 5b3d 6ce4 163d 70e0 c03d d5e1 bf3c
00000090: 702a 0dbc 2727 b3bd 0a0e aa3d 3feb b6bc
000000a0: 999b d03d df63 6bbd 4db5 edbb 545b 843d
000000b0: 4d97 a2bd 1ae4 71bd bfab 05bb 8050 50bd
000000c0: 5628 7cbd 4c3e f63b db98 b23d 6251 323d
000000d0: ad05 53bd e3bb 7abd 97ed 39bb 931b 683d
000000e0: 8cde c3bd 7280 7a3d dede fabc 4c9b ba3d
000000f0: e8a4 2a3d cb9a 4dbd 6ea9 9d3d a110 f1bc
00000100: 7b75 503d e10a 9cbc 4245 29bd debf b83b
00000110: dc9f 06bd 938b a33d f4cf edbc e4da a4bd
00000120: a4fe d3bd 23d9 9cbd f704 cc3d 7e9f f03d
00000130: a7e8 b43c 0868 cbbd 39db 3b3d c03e 8ebd
00000140: 86d3 f53c 8840 5c3d 8467 643d bb73 c2bb
00000150: 3816 36bd 2fca 38bb 5301 a2bd f115 39bd
00000160: 7ee3 7e3d 56fb 4d3d 905f 993c 9f2e e63d
00000170: 3205 713d 103b 80bd ceb9 ef3d 49e6 51bd
00000180: 88e6 de3b 8f3c a4bd 7345 803d b90d 53bc
00000190: 3f2f c2bc 424c e4bb 52c1 efbc ce22 adbc
000001a0: 6e02 853d f72b afb6 22a9 2cbd 2f82 a93d
000001b0: 9c7e afbc 95af 5f3c 2772 9d3d e322 8cbd
000001c0: 749c 5dbc d056 e3bd 7c16 343c 3455 c63d
000001d0: a53f b2bd 6985 bb3c 23c3 5cbd cd7e 4e3d
000001e0: 23ef 0c3d a853 43bc 5510 633c cc68 0cba
000001f0: 1507 9cbc 8001 b6bd 4a20 ce3d 39c6 bc3c
00000200: 3827 b33b a7fb 323c 4623 09bd fc47 cbbd
00000210: e902 873d 4ca2 35bd e2b1 62bc 9933 66bd
00000220: 41df 9c3d a780 46bd c4e5 c03c c6db e5bb
00000230: c24a 843d ca59 c63d 2f56 873c 5042 a0bc
00000240: fec9 673d 56d4 9f3c 80b6 a9bd b6af a43b
00000250: 4ed2 443d e57a acbd 62c6 58bd af5d 51bd
00000260: 3d46 8b3d 89c9 abbd 9703 113c e309 63bd
00000270: d09d 643d b246 48bd b8a0 403d 6ddc 21bd
00000280: 417f 16bd aa30 26bb d5ff 62bb aeb8 8dbd
00000290: 59bb 81bd 78ea 81bd 83f4 4dbd 11c7 6d3d
000002a0: d779 f53c f01a 48bd 5092 48bd f05c a23d
000002b0: 7bfe cbbd 9a77 833d 3cde 263c 1652 a1bd
000002c0: c97d 053d 3e09 993d cca0 313d 4d51 1bbd
000002d0: b021 27bd f97d 163b da65 6dbd 23b2 f13c
000002e0: 7487 53bd 3202 5f3b 131e 08bc 5db5 5c3d
000002f0: 7965 c2bd 2c31 8abd 6c6c 2a3d 8513 36bd
00000300: 07df 6a3d cef7 a2bd 723c 3a3c 5244 763c
00000310: 549c c73d 4fc3 4b3d 8b02 a23c 4075 87bc
00000320: e366 de3c 4424 903d 5489 7cbd 096f c4bd
00000330: 8f77 563b 1cd4 9dbd 854d 473b 6ffc 263c
00000340: 1824 563d bfb9 943d ce01 9cbd 3f35 b73d
00000350: 80b5 67bd 4ba5 bbbd 58dc 63bc 1593 133d
00000360: c718 79bc 9fd6 32bc b21b 08bb 2bc7 9fbc
00000370: 894d 1fbd 8d2a 1e3d f0c2 803c 18d2 74bc
00000380: 8f67 aa3c e55b 803d 5287 39bc cd29 bfbc
00000390: 0dc7 913d 950a 90bb fb6d 5c3d 8428 8d3d
000003a0: 1f9b ccbd dbf7 06bd 68e3 98bd 9e77 b83c
000003b0: c8ee 813d 8ad2 433d 58b6 1bbd 3614 093d
000003c0: bbe4 8f3d 93eb 3ebd a2ad 343d a282 60bc
000003d0: 9fff 953c ccc3 94bc e8d0 613d e97d 4e3d
000003e0: 4a85 7e3b 5127 6c3c 2883 a6bd 739a b8bd
000003f0: f66e 96bc eeda 69bd 1225 85bc 4f64 833d

a2c_network.actor_mlp.4.bias f4 [64]
0.03376982 -0.025816306 -0.027209673 -0.026444392 0.021928543 -0.018648138 -0.008133173 0.00706104
-0.001507315 -0.031458713 -0.02725564 0.03151523 -0.011854204 -0.02879316 -0.027806237 0.022981675
-0.015844388 0.032354318 0.024929952 -0.024921184 0.01865665 -0.024341902 -0.0064376867 -0.018728847
0.02551743 -0.01800676 -0.0019059179 0.03523921 -0.026633045 -0.009618927 0.038402587 -0.009885257
0.02942138 -0.026364772 -0.03101135 -0.0131274555 -0.024163555 -0.02532549 0.030286094 -0.029820582
0.03282735 -0.031572778 0.024297936 -0.0063203024 0.024551626 0.021761 0.02776876 0.025267782
0.01842925 -0.018425034 0.03758634 -0.024552835 -0.02958194 0.024613893 0.012545566 0.026454614
0.017804848 0.020686392 -0.020088462 0.021869252 -0.016762098 -0.0030275162 -0.030451586 -0.015615287
00000000: 3952 0a3d b87c d3bc d2e6 debc e9a1 d8bc
00000010: 7da3 b33c fbc3 98bc 0041 05bc 4c60 e73b
00000020: 1991 c5ba dada 00bd 3847 dfbc 1d16 013d
00000030: 2338 42bc a2df ebbc e8c9 e3bc 1144 bc3c
00000040: 17cc 81bc f685 043d e639 cc3c 8327 ccbc
00000050: d5d5 983c ab68 c7bc 3bf3 d2bb 3d6d 99bc
00000060: ee09 d13c ea82 93bc fecf f9ba fd56 103d
00000070: 8b2d dabc b498 1dbc 084c 1d3d c6f5 21bc
00000080: 1b05 f13c effa d7bc 840b febc 8a14 57bc
00000090: a6f2 c5bc 6777 cfbc 8b1a f83c 4b4a f4bc
000000a0: f975 063d 7552 01bd 770c c73c 8a1a cfbb
000000b0: 7e20 c93c 2044 b23c 507b e33c 61fe ce3c
000000c0: f0f8 963c 19f0 96bc 22f4 193d 0723 c9bc
000000d0: d355 f2bc 13a3 c93c eb8b 4d3c 59b7 d83c
000000e0: 79db 913c 8276 a93c 8f90 a4bc 2527 b33c
000000f0: ab50 89bc 4b69 46bb 9b75 f9bc 43d7 7fbc

a2c_network.value.weight f4 [1, 64]
-0.077728435 0.082423374 0.10359856 0.03376983 -0.0015238739 0.09395863 0.07113229 0.018231736
0.044357367 0.09799243 0.10907827 -0.07157627 0.040245924 0.12887123 0.08167704 -0.08786816
0.13614024 -0.116684504 -0.06589875 0.038237277 -0.0577079 0.06251021 0.020062929 0.14894915
-0.032536376 0.119122945 0.030415475 -0.12880777 0.090479076 0.1079806 -0.12950791 0.04207908
-0.066433676 0.095069975 0.07144241 0.059927203 0.1337307 0.13910574 -0.080642805 0.11687961
-0.04004507 0.13868023 -0.123887174 -0.008070519 -0.08791333 -0.14562996 -0.13725951 -0.11238654
-0.043638196 0.10113791 -0.14806093 0.08209037 0.09768461 -0.05471055 -0.0031245393 -0.059006885
-0.053335685 -0.07967473 0.10751323 -0.087689534 0.10527742 0.06217738 0.1302513 0.023176856
00000000: 1630 9fbd 96cd a83d 7b2b d43d 3c52 0a3d
00000010: b9bc c7ba 626d c03d cead 913d b95a 953c
00000020: 12b0 353d 41b0 c83d 6e64 df3d 9496 92bd
00000030: e9d8 243d d2f6 033e 4b46 a73d 39f4 b3bd
00000040: 5968 0b3e 49f8 eebd edf5 86bd b19e 1c3d
00000050: 1e5f 6cbd 5a05 803d 035b a43c 2086 183e
00000060: dd44 05bd bbf6 f33d e029 f93c 2fe6 03be
00000070: 184d b93d ef24 dd3d b99d 04be 1d5b 2c3d
00000080: 610e 88bd 0cb4 c23d 6650 923d 3a76 753d
00000090: b3f0 083e bc71 0e3e 0e28 a5bd 945e ef3d
000000a0: 4d06 24bd 3102 0e3e 8fb8 fdbd 363a 04bc
000000b0: e70b b4bd 0520 15be c28d 0cbe ea2a e6bd
000000c0: f7bd 32bd 6421 cf3d 499d 17be ff1e a83d
000000d0: de0e c83d 2b18 60bd 12c5 4cbb 34b1 71bd
000000e0: 8576 5abd 812c a3bd e52f dc3d 9296 b3bd
000000f0: b09b d73d b5ad 7e3d 9960 053e 64dd bd3c

a2c_network.mu.weight f4 [24, 64]
-0.07244113 -0.030749064 -0.03785823 -0.09423026 -0.032852933 0.120534554 0.03231693 0.103784
0.032000843 0.05449688 -0.11399901 0.018351918 0.060497105 -0.015806915 -0.060005464 -0.008430304
-0.08675118 0.07306747 0.037483625 -0.11736669 0.046346672 -0.1295564 0.037488002 -0.076371916
-0.08928241 0.030826157 0.011839262 0.123259425 -0.07318196 0.13838193 0.049839742 0.038018484
0.040285353 0.014601387 0.051441595 0.020070441 0.09105661 -0.11910931 -0.032298177 -0.060865417
-0.061738927 -0.1100718 -0.07907127 0.025355019 -0.032991596 -0.10174773 0.07285547 0.10046202
0.060581986 -0.0579759 0.14606887 -0.008791216 -0.02215514 0.018842535 0.122451335 -0.037854467
-0.091571726 0.034178626 -0.08337709 -0.056865193 0.009415638 0.12141702 -0.06134729 -0.024598895
-0.106293276 0.06931267 -0.09992804 -0.0012918784 0.041045945 -0.020081038 0.05664994 0.01866951
-0.046985682 -0.105392165 0.11405297 -0.10132268 -0.04597795 0.060108036 -0.025232937 -0.045367453
0.037882723 -0.01251977 0.05967083 -0.051377717 0.004175009 -0.11958676 -0.02173821 0.10996519
0.061279826 0.017817196 0.0368087 0.11544517 -0.029079938 0.08854622 0.11071114 -0.007405968
0.06139643 0.035312664 -0.048903126 -0.078922085 -0.024320599 0.10117288 0.066114016 0.09496867
-0.07163355 -0.117098264 -0.042447858 -0.10621863 0.08332236 -0.037874848 -0.07356105 -0.023183443
-0.023222595 0.02206869 0.06992315 -0.08166837 0.04643916 0.0016308159 0.08369541 0.006286804
0.041907776 -0.1226245 0.0862455 0.06950595 0.117998436 0.03580847 -0.0010112153 0.12287625
-0.059910562 -0.04375322 0.0022330305 -0.09988024 0.11499377 0.093544774 0.104189254 0.080165565
0.06260325 0.0006735433 0.042572364 0.04818547 -0.012351004 -0.028078033 -0.019090192 -0.10726509
0.06420674 0.1389038 0.05423856 -0.009579112 -0.017143812 -0.12554523 -0.14404184 -0.08960233
-0.046062175 -0.09699558 0.047818407 0.15705605 -0.054346103 0.106627956 0.10204298 0.09129124
0.09335245 0.07216949 0.07846001 -0.047481015 0.007838493 0.053565085 -0.07146551 -0.10315147
0.1062437 -0.087139376 -0.08189837 0.0019330225 0.022530543 -0.046020303 -0.059637014 -0.08843907
-0.051811002 0.13215975 0.06518959 -0.10049191 0.08262905 0.08321349 0.047145676 0.028342266
-0.09734135 -0.053539187 0.112204544 -0.08873555 0.03460021 0.10700543 -0.10542286 -0.016722322
0.07555253 0.09389186 -0.09437559 -0.09277445 0.05250455 0.058563344 0.12720783 0.08763135
0.12698235 0.09541623 -0.061970666 0.10097356 0.085175686 -0.07877521 -0.069152795 0.024559898
0.08633403 0.055075146 -0.055202283 -0.12594561 0.023824895 -0.10095539 0.0065544746 0.019222768
0.1428253 0.10943343 0.14491746 0.11720282 -0.12145371 0.11963775 0.13250844 0.092010446
0.028113 -0.099774025 -0.12903945 0.13676277 0.014732959 -0.12392622 0.10818399 0.08560611
0.051581897 0.048319448 -0.13423282 -0.036461607 -0.10556185 -0.122868575 0.033042185 -0.01949748
-0.013893233 0.029493516 0.096782714 0.07632836 -0.09233274 0.087330624 0.0043371674 0.09708195
-0.08173941 -0.10450699 0.035371996 -0.042163305 0.037743844 0.002349387 -0.05657975 -0.10893185
00000000: 045c 94bd 76e5 fbbc 3b11 1bbd cbfb c0bd
00000010: cc90 06bd d2da f63d c25e 043d b58c d43d
00000020: 5113 033d 1f38 5f3d 5078 e9bd c356 963c
00000030: d0cb 773d 817d 81bc 4ac8 75bd 421f 0abc
00000040: 9aaa b1bd 66a4 953d 6e88 193d f25d f0bd
00000050: 02d6 3d3d 6faa 04be 058d 193d e168 9cbd
00000060: b2d9 b6bd 2387 fc3c 77f9 413c 706f fc3d
00000070: 6ce0 95bd feb3 0d3e c224 4c3d 45b9 1b3d
00000080: 4102 253d a83a 6f3c 6cb4 523d c46a a43c
00000090: e37b ba3d 95ef f3bd 184b 04bd 044e 79bd
000000a0: f5e1 7cbd 536d e1bd 1ef0 a1bd 54b5 cf3c
000000b0: 3222 07bd 1d61 d0bd 4035 953d 08bf cd3d
000000c0: d124 783d 2378 6dbd 1493 153e 0809 10bc
000000d0: b27e b5bc a95b 9a3c c4c7 fa3d 490d 1bbd
000000e0: f589 bbbd e3fe 0b3d 9cc1 aabd 7aeb 68bd
000000f0: 0c44 1a3c 7da9 f83d 4c47 7bbd 9f83 c9bc
00000100: 4ab0 d9bd cdf3 8d3d 12a7 ccbd 3f54 a9ba
00000110: cb1f 283d fd80 a4bc c409 683d cdf0 983c
00000120: 0f74 40bd d9d7 d7bd 9b94 e93d 4482 cfbd
00000130: 6053 3cbd d833 763d 4eb5 cebc 39d3 39bd
00000140: ea2a 1b3d b91f 4dbc 6669 743d 7171 52bd
00000150: 84ce 883b e7e9 f4bd 5514 b2bc 6e35 e13d
00000160: 8e00 7b3d 5ef5 913c b8c4 163d 846e ec3d
00000170: 0d39 eebc b857 b53d 86bc e23d c3ad f2bb
00000180: d37a 7b3d 03a4 103d a54e 48bd e7a1 a1bd
00000190: fe3b c7bc ba33 cf3d c966 873d ef7e c23d
000001a0: 9cb4 92bd 37d1 efbd cedd 2dbd 2789 d9bd
000001b0: eaa4 aa3d a822 1bbd 2da7 96bd 34eb bdbc
000001c0: 503d bebc 66c9 b43c de33 8f3d bf41 a7bd
000001d0: fd36 3e3d 1ac1 d53a 8068 ab3d 8901 ce3b
000001e0: 7da7 2b3d 8e22 fbbd 7ba1 b03d 2359 8e3d
000001f0: 2aa9 f13d e7ab 123d c18a 84ba 8ba6 fb3d
00000200: c764 75bd 9436 33bd 0958 123b 038e ccbd
00000210: db81 eb3d 6794 bf3d 2d61 d53d d82d a43d
00000220: 2236 803d ba90 303a 5c60 2e3d 215e 453d
00000230: de5b 4abc e703 e6bc 0963 9cbc cdad dbbd
00000240: d37e 833d cc3c 0e3e 4129 5e3d b5f1 1cbc
00000250: 2e71 8cbc ee8e 00be b47f 13be 6d81 b7bd
00000260: b1ab 3cbd 9ea5 c6bd 3cdd 433d 4dd3 203e
00000270: 059a 5ebd c25f da3d e9fb d03d e7f6 ba3d
00000280: 922f bf3d 99cd 933d a4af a03d 747b 42bd
00000290: 066d 003c 1067 5b3d 825c 92bd 1441 d3bd
000002a0: 4c96 d93d 2176 b2bd 55ba a7bd 795d fd3a
000002b0: f991 b83c c97f 3cbd f145 74bd 8b1f b5bd
000002c0: c637 54bd e354 073e 1f82 853d b4ce cdbd
000002d0: 6b39 a93d d66b aa3d d31b 413d 0a2e e83c
000002e0: e75a c7bd e84b 5bbd 7fcb e53d fcba b5bd
000002f0: f3b8 0d3d aa25 db3d f1e7 d7bd 40fd 88bc
00000300: 49bb 9a3d 604a c03d fd47 c1bd 8800 bebd
00000310: 030f 573d 1ee0 6f3d c542 023e 1178 b33d
00000320: a907 023e 9669 c33d f4d4 7dbd 3acb ce3d
00000330: 9770 ae3d e654 a1bd fb9f 8dbd d731 c93c
00000340: e5cf b03d 7a96 613d ca1b 62bd e3f7 00be
00000350: 6d2c c33c b3c1 cebd ebc6 d63b 1179 9d3c
00000360: cc40 123e a21e e03d 3e65 143e 0808 f03d
00000370: b9bc f8bd a304 f53d 4bb0 073e f96f bc3d
00000380: 3c4d e63c 5356 ccbd eb22 04be 8a0b 0c3e
00000390: 8262 713c 08cd fdbd 918f dd3d 4252 af3d
000003a0: 8a47 533d 9dea 453d 5474 09be c458 15bd
000003b0: d030 d8bd 85a2 fbbd 3e57 073d 2eb9 9fbc
000003c0: 71a0 63bc 639c f13c 0436 c63d 0b52 9c3d
000003d0: f318 bdbd 66da b23d cc1e 8e3b e7d2 c63d
000003e0: fe66 a7bd c307 d6bd 3ae2 103d 6eb3 2cbd
000003f0: 4a99 1a3d 2cf8 193b 2bc0 67bd a917 dfbd

a2c_network.mu.bias f4 [24]
0.018312385 -0.0056993384 0.015971523 0.022221584 0.025007963 -0.0003699152 0.026340691 0.024377698
-0.018574592 0.021406358 -0.0056122183 -0.008557371 -0.005187345 -0.029459173 0.0070424913 0.014567575
-0.019502532 -0.018379755 0.008869776 -0.014516393 0.019194586 0.008496127 -0.014267832 -0.0066229645
00000000: db03 963c 84c1 babb b6d6 823c 0a0a b63c
00000010: 80dd cc3c 2df1 c1b9 6fc8 d73c bdb3 c73c
00000020: be29 98bc 635c af3c b3e6 b7bb 3734 0cbc
00000030: 9bfa a9bb 5d54 f1bc b3c4 e63b d7ac 6e3c
00000040: c6c3 9fbc 2491 96bc 8952 113c 2ad6 6dbc
00000050: f73d 9d3c 5733 0b3c a0c3 69bc 7405 d9bb

exp_avg f4 [24]
0.0047547724 0.0010073825 0.005391249 0.00402004 -0.0019671435 0.005071106 -0.0022150679 -0.006153499
0.0058957064 -0.0036575103 0.010031764 0.0013894493 0.014744414 -0.008445275 0.0041003837 -0.0013778728
-0.0029693705 0.0025169128 0.009505177 0.014227508 -0.0026208202 -0.0017077894 -0.0032152003 -0.0016818934
00000000: eccd 9b3b 260a 843a 13a9 b03b 8aba 833b
00000010: 31eb 00bb 852b a63b ac2a 11bb 4aa3 c9bb
00000020: c530 c13b d7b2 6fbb 455c 243c 2f1e b63a
00000030: 8e92 713c 0d5e 0abc 835c 863b bd99 b4ba
00000040: c599 42bb caf2 243b 9abb 1b3c 7e1a 693c
00000050: 11c2 2bbb e7d7 dfba 1cb6 52bb fa72 dcba

exp_avg_sq f4 [24]
0.00014248646 0.00017982212 0.00020809172 0.00020850179 0.000200647 0.00018013347 0.00018210315 0.0001952431
0.00020368324 0.00013303009 0.00023621644 0.00016109645 0.0001852779 0.00022706205 0.00021014354 0.00017925682
0.00017799567 0.00019659831 0.0001344301 0.0001977295 0.00019772422 0.00018094553 0.00016875721 0.00019983502
00000000: 6b68 1539 a28e 3c39 3233 5a39 46a1 5a39
00000010: c564 5239 36e2 3c39 f1f2 3e39 2cba 4c39
00000020: ce93 5539 fe7d 0b39 deb0 7739 00ec 2839
00000030: 2847 4239 8117 6e39 fa59 5c39 e3f6 3b39
00000040: 59a4 3a39 f525 4e39 cef5 0c39 9c55 4f39
00000050: 3154 4f39 32bc 3d39 6bf4 3039 ce8a 5139

exp_avg f4 [256, 39]
0.0 -2.4675533e-06 -2.339446e-06 -1.1762068e-06 -9.852581e-07 -2.9137632e-06 -1.1762068e-06 -0.002350664
-0.0017549171 -1.1762068e-06 -0.001873145 -0.0007800569 0.0 -1.9905115e-06 0.0 0.0
0.0 0.0 0.0 0.0 -0.0009117455 0.0017834043 -3.2563196e-06 0.0
0.0 0.0 0.0 0.0 0.0 0.0 0.0 0.0
0.0 0.0 0.0 0.0 0.0 0.0 -3.1416846e-07 0.0
-5.238666e-06 -4.9682667e-06 -2.4969916e-06 -2.090768e-06 -6.185181e-06 -2.4969916e-06 -0.004988137 -0.0037246412
-2.4969916e-06 -0.003975483 -0.0016560921 0.0 -4.2257034e-06 0.0 0.0 0.0
0.0 0.0 0.0 -0.0019357117 0.0037849278 -6.9128077e-06 0.0 0.0
0.0 0.0 0.0 0.0 0.0 0.0 0.0 0.0
0.0 0.0 0.0 0.0 0.0 -6.669531e-07 0.0 4.531157e-07
4.2977527e-07 2.1609955e-07 1.810307e-07 5.353611e-07 2.1609955e-07 0.00043395764 0.0003232297 2.1609955e-07
0.00034511156 0.0001432073 0.0 3.6569486e-07 0.0 0.0 0.0 0.0
0.0 0.0 0.0001673643 -0.00032861452 5.9802835e-07 0.0 0.0 0.0
0.0 0.0 0.0 0.0 0.0 0.0 0.0 0.0
0.0 0.0 0.0 0.0 5.7721927e-08 0.0 1.9983345e-06 1.8954667e-06
9.5248885e-07 7.973975e-07 2.3594048e-06 9.5248885e-07 0.0019032101 0.0014209619 9.5248885e-07 0.0015166984
0.0006317842 0.0 1.6119088e-06 0.0 0.0 0.0 0.0 0.0
0.0 0.0007384799 -0.001443934 2.6369232e-06 0.0 0.0 0.0 0.0
0.0 0.0 0.0 0.0 0.0 0.0 0.0 0.0
0.0 0.0 0.0 2.5441287e-07 0.0 2.4886526e-06 2.3595558e-06 1.1864397e-06
9.938651e-07 2.9388405e-06 1.1864397e-06 0.0023728474 0.0017708286 1.1864397e-06 0.0018902264 0.00078674365
0.0 2.0078153e-06 0.0 0.0 0.0 0.0 0.0 0.0
0.00091955304 -0.0017996763 3.284238e-06 0.0 0.0 0.0 0.0 0.0
0.0 0.0 0.0 0.0 0.0 0.0 0.0 0.0
0.0 0.0 3.1690269e-07 0.0 -4.1699122e-06 -3.953663e-06 -1.9873655e-06 -1.6643756e-06
-4.922989e-06 -1.9873655e-06 -0.0039674114 -0.0029634484 -1.9873655e-06 -0.0031628371 -0.0013180216 0.0
-3.3632841e-06 0.0 0.0 0.0 0.0 0.0 0.0 -0.0015405031
0.003011404 -5.502552e-06 0.0 0.0 0.0 0.0 0.0 0.0
0.0 0.0 0.0 0.0 0.0 0.0 0.0 0.0
0.0 -5.3082863e-07 0.0 -3.113797e-07 -2.9519003e-07 -1.4836172e-07 -1.2422254e-07 -3.67526e-07
-1.4836172e-07 -0.00029577684 -0.00022107553 -1.4836172e-07 -0.00023593214 -9.843006e-05 0.0 -2.5107957e-07
0.0 0.0 0.0 0.0 0.0 0.0 -0.00011505335 0.0002246165
00000000: 0000 0000 3e98 25b6 60ff 1cb6 28de 9db5
00000010: 363d 84b5 128a 43b6 28de 9db5 990d 1abb
00000020: 3f05 e6ba 28de 9db5 5184 f5ba bb7c 4cba
00000030: 0000 0000 ba94 05b6 0000 0000 0000 0000
00000040: 0000 0000 0000 0000 0000 0000 0000 0000
00000050: 3402 6fba 1ec1 e93a 2587 5ab6 0000 0000
00000060: 0000 0000 0000 0000 0000 0000 0000 0000
00000070: 0000 0000 0000 0000 0000 0000 0000 0000
00000080: 0000 0000 0000 0000 0000 0000 0000 0000
00000090: 0000 0000 0000 0000 fcaa a8b4 0000 0000
000000a0: ccc7 afb6 16b5 a6b6 fd91 27b6 1f4f 0cb6
000000b0: 4d8a cfb6 fd91 27b6 8773 a3bb 1c19 74bb
000000c0: fd91 27b6 c544 82bb 3b11 d9ba 0000 0000
000000d0: 84ca 8db6 0000 0000 0000 0000 0000 0000
000000e0: 0000 0000 0000 0000 0000 0000 b5b7 fdba
000000f0: 8d0c 783b 91f4 e7b6 0000 0000 0000 0000
00000100: 0000 0000 0000 0000 0000 0000 0000 0000
00000110: 0000 0000 0000 0000 0000 0000 0000 0000
00000120: 0000 0000 0000 0000 0000 0000 0000 0000
00000130: 0000 0000 ab08 33b5 0000 0000 bf43 f334
00000140: ddbb e634 fe08 6834 5761 4234 bcb5 0f35
00000150: fe08 6834 cf84 e339 2877 a939 fe08 6834
00000160: 17f0 b439 eb29 1639 0000 0000 b854 c434
00000170: 0000 0000 0000 0000 0000 0000 0000 0000
00000180: 0000 0000 0000 0000 837e 2f39 e549 acb9
00000190: 3288 2035 0000 0000 0000 0000 0000 0000
000001a0: 0000 0000 0000 0000 0000 0000 0000 0000
000001b0: 0000 0000 0000 0000 0000 0000 0000 0000
000001c0: 0000 0000 0000 0000 0000 0000 0000 0000
000001d0: eee9 7733 0000 0000 201b 0636 bd67 fe35
000001e0: 89ae 7f35 bd0c 5635 4456 1e36 89ae 7f35
000001f0: 2275 f93a 923f ba3a 89ae 7f35 f4cb c63a
00000200: 529e 253a 0000 0000 c458 d835 0000 0000
00000210: 0000 0000 0000 0000 0000 0000 0000 0000
00000220: 0000 0000 8c96 413a 6342 bdba fff5 3036
00000230: 0000 0000 0000 0000 0000 0000 0000 0000
00000240: 0000 0000 0000 0000 0000 0000 0000 0000
00000250: 0000 0000 0000 0000 0000 0000 0000 0000
00000260: 0000 0000 0000 0000 0000 0000 3d96 8834
00000270: 0000 0000 ba02 2736 dc58 1e36 c23d 9f35
00000280: f264 8535 e538 4536 c23d 9f35 c681 1b3b
00000290: 261b e83a c23d 9f35 79c1 f73a 793d 4e3a
000002a0: 0000 0000 01be 0636 0000 0000 0000 0000
000002b0: 0000 0000 0000 0000 0000 0000 0000 0000
000002c0: 290e 713a 1ee3 ebba c766 5c36 0000 0000
000002d0: 0000 0000 0000 0000 0000 0000 0000 0000
000002e0: 0000 0000 0000 0000 0000 0000 0000 0000
000002f0: 0000 0000 0000 0000 0000 0000 0000 0000
00000300: 0000 0000 0000 0000 c622 aa34 0000 0000
00000310: 46eb 8bb6 b5a9 84b6 ae5e 05b6 8363 dfb5
00000320: 2730 a5b6 ae5e 05b6 0f01 82bb 6a36 42bb
00000330: ae5e 05b6 9a47 4fbb 77c1 acba 0000 0000
00000340: c8b4 61b6 0000 0000 0000 0000 0000 0000
00000350: 0000 0000 0000 0000 0000 0000 b5ea c9ba
00000360: fa5a 453b 90a2 b8b6 0000 0000 0000 0000
00000370: 0000 0000 0000 0000 0000 0000 0000 0000
00000380: 0000 0000 0000 0000 0000 0000 0000 0000
00000390: 0000 0000 0000 0000 0000 0000 0000 0000
000003a0: 0000 0000 447e 0eb5 0000 0000 b32b a7b4
000003b0: 9c7a 9eb4 5c4d 1fb4 0862 05b4 6450 c5b4
000003c0: 5c4d 1fb4 7f12 9bb9 83d0 67b9 5c4d 1fb4
000003d0: 8d64 77b9 3c6c ceb8 0000 0000 1dcc 86b4
000003e0: 0000 0000 0000 0000 0000 0000 0000 0000
000003f0: 0000 0000 0000 0000 cc48 f1b8 0887 6b39
