runs/lift_30-15-42-18/nn/last_lift_ep_75_rew_-3.9733548.pth (torch, 654677 bytes, 36 tensors)

value_mean_std.running_mean f8 [1]
-8.437899900711123
00000000: acf3 706a 34e0 20c0

value_mean_std.running_var f8 [1]
551.854990020916
00000000: ed11 0205 d73e 8140

value_mean_std.count f8 []
76801.0
00000000: 0000 0000 10c0 f240

running_mean_std.running_mean f8 [39]
0.0 1.4999609385172257 1.2999657414139003 0.4999869795057421 0.3999894703587177 2.899925291735362 0.4999869795057421 0.008634744652776936
0.15871882982967164 0.4999869795057421 0.06061805071798285 0.5330182234064119 0.0 0.9999739590114842 0.0 0.0
0.0 0.0 0.0 0.0 0.25578466223626106 1.182592403068849 9.80974305020947 0.0
0.0 0.0 0.0 0.0 0.0 0.0 0.0 0.0
0.0 0.0 0.0 0.0 0.0 0.0 0.12499674487643553
00000000: 0000 0000 0000 0000 dd57 830a d7ff f73f
00000010: 84b0 94e0 a8cc f43f 80ca 5963 c9ff df3f
00000020: ecd7 7b6f 6d99 d93f ebc5 0608 0c33 0740
00000030: 80ca 5963 c9ff df3f ccd6 24cf 17af 813f
00000040: b35c b00b e650 c43f 80ca 5963 c9ff df3f
00000050: 2d13 c342 5409 af3f 617b b63b 7c0e e13f
00000060: 0000 0000 0000 0000 80ca 5963 c9ff ef3f
00000070: 0000 0000 0000 0000 0000 0000 0000 0000
00000080: 0000 0000 0000 0000 0000 0000 0000 0000
00000090: 0000 0000 0000 0000 0000 0000 0000 0000
000000a0: a6e1 c7a1 c65e d03f 30dc fa02 e6eb f23f
000000b0: 3ca0 1da4 969e 2340 0000 0000 0000 0000
000000c0: 0000 0000 0000 0000 0000 0000 0000 0000
000000d0: 0000 0000 0000 0000 0000 0000 0000 0000
000000e0: 0000 0000 0000 0000 0000 0000 0000 0000
000000f0: 0000 0000 0000 0000 0000 0000 0000 0000
00000100: 0000 0000 0000 0000 0000 0000 0000 0000
00000110: 0000 0000 0000 0000 0000 0000 0000 0000
00000120: 0000 0000 0000 0000 0000 0000 0000 0000
00000130: 80ca 5963 c9ff bf3f

running_mean_std.running_var f8 [39]
2.6040988515924042e-05 8.463168687731677e-05 7.004908562138729e-05 3.255106611163438e-05 3.020743581795135e-05 0.00024504012126713357 3.255106611163438e-05 0.00034116571423869997
0.03411014995238595 3.255106611163438e-05 0.009305513371687148 0.22741097705661692 2.6040988515924042e-05 5.208129889876527e-05 2.6040988515924042e-05 2.6040988515924042e-05
2.6040988515924042e-05 2.6040988515924042e-05 2.6040988515924042e-05 2.6040988515924042e-05 0.10841758212296226 0.4723972136587596 0.002532058142451672 2.6040988515924042e-05
2.6040988515924042e-05 2.6040988515924042e-05 2.6040988515924042e-05 2.6040988515924042e-05 2.6040988515924042e-05 2.6040988515924042e-05 2.6040988515924042e-05 2.6040988515924042e-05
2.6040988515924042e-05 2.6040988515924042e-05 2.6040988515924042e-05 2.6040988515924042e-05 2.6040988515924042e-05 2.6040988515924042e-05 2.644786836565601e-05
00000000: c5ac c01a 534e fb3e e61a 334f 892f 163f
00000010: ec87 9f20 ea5c 123f 3b6f 7d1d ee10 013f
00000020: 3b8b d52e bfac ff3e bed7 9a4e 170f 303f
00000030: 3b6f 7d1d ee10 013f f9cf cd95 cf5b 363f
00000040: a3a9 03b5 e276 a13f 3b6f 7d1d ee10 013f
00000050: b4c2 d4dc c40e 833f 63d3 9a8a cd1b cd3f
00000060: c5ac c01a 534e fb3e b0b9 d4cd 3b4e 0b3f
00000070: c5ac c01a 534e fb3e c5ac c01a 534e fb3e
00000080: c5ac c01a 534e fb3e c5ac c01a 534e fb3e
00000090: c5ac c01a 534e fb3e c5ac c01a 534e fb3e
000000a0: 708e 8731 41c1 bb3f 89b2 d885 c13b de3f
000000b0: 9093 3a5d 1cbe 643f c5ac c01a 534e fb3e
000000c0: c5ac c01a 534e fb3e c5ac c01a 534e fb3e
000000d0: c5ac c01a 534e fb3e c5ac c01a 534e fb3e
000000e0: c5ac c01a 534e fb3e c5ac c01a 534e fb3e
000000f0: c5ac c01a 534e fb3e c5ac c01a 534e fb3e
00000100: c5ac c01a 534e fb3e c5ac c01a 534e fb3e
00000110: c5ac c01a 534e fb3e c5ac c01a 534e fb3e
00000120: c5ac c01a 534e fb3e c5ac c01a 534e fb3e
00000130: f54f c4ac 8bbb fb3e

running_mean_std.count f8 []
38401.0
00000000: 0000 0000 20c0 e240

a2c_network.sigma f4 [24]
0.0018798596 -0.015928486 0.038439527 -0.008151839 0.016551182 -0.01859877 -0.024131102 -0.06535197
-0.066852085 -0.02890474 0.016227182 0.0071365503 -0.05879566 -0.020459283 0.013628913 -0.038942024
-0.026236128 -0.03527543 -0.021150721 -0.0062538045 -0.0061139544 0.01595781 -0.056103006 0.023512898
00000000: 9f65 f63a 757c 82bc c472 1d3d 4a8f 05bc
00000010: 5896 873c 735c 98bc 97ae c5bc 41d7 85bd
00000020: bfe9 88bd a2c9 ecbc deee 843c b9d9 e93b
00000030: b8d3 70bd 3a9a a7bc ce4b 5f3c ac81 1fbd
00000040: 26ed d6bc f87c 10bd 4744 adbc b7ec ccbb
00000050: 9157 c8bb f4b9 823c 44cc 65bd 1f9e c03c

a2c_network.actor_mlp.0.weight f4 [256, 39]
-0.050500125 0.05949993 -0.02694651 0.083901264 0.15947522 0.109027825 -0.053493384 0.1002965
0.005233177 0.097828805 -0.10860148 -0.1609085 -0.061867196 -0.10633188 0.13139138 0.046121925
0.066327244 0.050642315 -0.002785585 0.12531762 -0.11208805 -0.005035027 -0.09284417 0.049375832
-0.055145297 0.04906587 -0.033361334 0.13280898 -0.09490826 -0.095500104 -0.09550587 0.1440261
0.053362884 0.15408342 -0.13214995 -0.15882729 -0.12527846 -0.107716456 0.081379436 0.05733802
0.115605995 -0.10014272 -0.12652895 0.067591526 -0.08219978 0.07981775 -0.039999884 0.07084912
-0.14178202 -0.07639077 0.021518854 0.033852298 -0.058241427 0.095447496 0.10885659 -0.116120666
-0.08548732 0.14662325 -0.05403244 -0.06615774 -0.15825436 -0.10921201 0.0400006 -0.021135822
-0.11623478 0.0037560768 -0.10938057 -0.13585219 -0.088176586 -0.14014609 -0.10195968 0.16006552
0.030244198 0.049345043 -0.149349 -0.10516797 -0.053299587 0.0077001504 -0.14090016 -0.08876313
-0.115632735 -0.019368988 -0.079395495 -0.030849682 -0.12832025 -0.12416738 -0.07142108 -0.07462436
-0.12108486 0.1350021 -0.031779677 0.11798728 0.049893063 -0.13559604 0.11081431 -0.04405843
-0.06138129 -0.13291764 -0.16138165 0.057484895 -0.05471363 0.06234159 -0.13141131 0.1188838
-0.11754266 -0.027649863 0.033445917 0.08266644 0.1292731 0.14587021 -0.12696916 0.040299013
-0.06887527 -0.017547613 -0.11985433 0.1458541 -0.13735297 0.085580684 0.0733196 0.06907843
-0.069616966 0.16250513 0.052261997 0.037554674 -0.13530491 0.082113564 -0.0070667453 -0.071311034
0.15884407 0.035700377 -0.07158698 -0.08104709 -0.0076470347 0.08940936 -0.040918157 -0.0913651
-0.054834742 -0.10658214 0.057357892 0.1410587 -0.1507511 0.03718987 0.08272088 0.029035935
-0.057025578 0.083577625 0.08414945 0.059876274 -0.028137943 -0.042402137 0.017130656 -0.028287293
-0.047718357 0.10235501 0.13761406 0.0010712539 -0.03585219 -0.008998811 -0.02089642 0.027162349
0.033540703 -0.15677351 -0.07042779 0.12975323 0.07486844 -0.019298656 -0.09895986 -0.09390799
-0.14343749 -0.06353079 0.054075945 0.10210117 0.07393074 -0.14154433 -0.09629506 -0.025270887
0.14434177 0.03588174 -0.052804895 0.066247456 -0.060989857 -0.10364385 0.11687549 -0.07281055
-0.03210037 -0.15929617 0.10716907 0.12131863 0.058358412 -0.11165322 -0.15803686 -0.13005272
0.119407594 0.07687844 0.12341967 0.08388631 0.034250956 -0.007844142 -0.1279794 -0.14339472
-0.15607736 0.05934951 -0.080662675 -0.05100658 -0.09835544 -0.03307461 -0.12952752 -0.10463024
0.0468709 -0.047589507 0.09885402 -0.051370513 -0.11746476 -0.028252838 -0.077621706 -0.059496716
-0.15417835 0.083255574 -0.11148194 0.08048324 0.07266363 0.11440079 -0.12282662 0.11516365
-0.07570084 0.059418622 0.15037869 -0.02258317 -0.0012383453 -0.036866393 -0.13370453 0.07684596
-0.15896207 0.09323368 0.1198119 0.15655859 -0.03264631 -0.12646897 0.04110237 0.093591385
-0.15427798 -0.047615826 -0.076892845 -0.008906394 -0.08814925 -0.044332117 -0.0508341 -0.1470564
0.13138635 0.13424042 -0.02511915 -0.018235724 -0.065351486 -0.14460577 -0.15412349 0.06412834
00000000: 38d9 4ebd 33b6 733d edbe dcbc 6dd4 ab3d
00000010: 794d 233e fb49 df3d e11b 5bbd 4068 cd3d
00000020: 127b ab3b 785a c83d 746a debd 33c5 24be
00000030: 7568 7dbd 87c4 d9bd 768b 063e 58ea 3c3d
00000040: 94d6 873d 516e 4f3d 5c8e 36bb 4353 003e
00000050: 6b8e e5bd defc a4bb 1625 bebd 503e 4a3d
00000060: 09e0 61bd 4bf9 483d e5a5 08bd 14ff 073e
00000070: 435f c2bd 8f95 c3bd 9598 c3bd 947b 133e
00000080: 0a93 5a3d 0bc8 1d3e 5152 07be 9fa3 22be
00000090: ff48 00be 729a dcbd 43aa a63d 46db 6a3d
000000a0: d6c2 ec3d a017 cdbd ce90 01be 6d6d 8a3d
000000b0: 5c58 a8bd 7d77 a33d ebd6 23bd 5819 913d
000000c0: 4e2f 11be c472 9cbd 4f48 b03c b5a8 0a3d
000000d0: 908e 6ebd fa79 c33d 34f0 de3d acd0 edbd
000000e0: fa13 afbd 6824 163e 1f51 5dbd b67d 87bd
000000f0: 6e0d 22be 8caa dfbd abd7 233d 0825 adbc
00000100: 800c eebd 8328 763b ec02 e0bd d61c 0bbe
00000110: ed95 b4bd 7582 0fbe 3dd0 d0bd 37e8 233e
00000120: aec2 f73c 071e 4a3d f2ee 18be 4e62 d7bd
00000130: ab50 5abd 8b51 fc3b 2248 10be 72c9 b5bd
00000140: dbd0 ecbd b6ab 9ebc 1b9a a2bd 79b8 fcbc
00000150: 6266 03be 784b febd 3745 92bd a8d4 98bd
00000160: 57fb f7bd fe3d 0a3e 682b 02bd 51a3 f13d
00000170: ab5c 4c3d b0d9 0abe 9df2 e23d 9d76 34bd
00000180: f36a 7bbd 901b 08be 3b41 25be 4875 6b3d
00000190: 661b 60bd e559 7f3d b090 06be 5a79 f33d
000001a0: 35ba f0bd f781 e2bc 96fe 083d 064d a93d
000001b0: 2b60 043e 005f 153e 3404 02be 9410 253d
000001c0: 7a0e 8dbd 03c0 8fbc 3076 f5bd c75a 153e
000001d0: 42a6 0cbe ed44 af3d 9628 963d fe78 8d3d
000001e0: 5793 8ebd bf67 263e ad10 563d eed2 193d
000001f0: 5f8d 0abe 282b a83d 2890 e7bb 850b 92bd
00000200: 05a8 223e 8f3a 123d 329c 92bd 04fc a5bd
00000210: fa93 fabb 411c b73d cc99 27bd a01d bbbd
00000220: 659a 60bd bd47 dabd 1cf0 6a3d b171 103e
00000230: 7f5e 1abe 6854 183d 9169 a93d c5dc ed3c
00000240: a793 69bd bf2a ab3d 8c56 ac3d d340 753d
00000250: 8b81 e6bc ddad 2dbd 9755 8c3c c1ba e7bc
00000260: 5374 43bd 819f d13d b3ea 0c3e 5169 8c3a
00000270: bfd9 12bd c06f 13bc f82e abbc 9383 de3c
00000280: fa61 093d 3c89 20be 723c 90bd 08de 043e
00000290: a054 993d 3718 9ebc 78ab cabd d552 c0bd
000002a0: 47e1 12be 6e1c 82bd bd7e 5d3d 6b1a d13d
000002b0: 0069 973d fff0 10be 5836 c5bd e404 cfbc
000002c0: 54ce 133e bbf8 123d f249 58bd bfac 873d
000002d0: 80d0 79bd 3a43 d4bd 6b5c ef3d b31d 95bd
000002e0: ad7b 03bd 891e 23be 757b db3d e775 f83d
000002f0: 3b09 6f3d 72aa e4bd 6ad4 21be 8a2c 05be
00000300: f88b f43d 7272 9d3d 74c3 fc3d 96cc ab3d
00000310: bb4a 0c3d b784 00bc 080d 03be 11d6 12be
00000320: bed2 1fbe 7918 733d 7932 a5bd 47ec 50bd
00000330: 946e c9bd 3e79 07bd dda2 04be 6148 d6bd
00000340: b3fb 3f3d 37ed 42bd fa73 ca3d e369 52bd
00000350: 5d91 f0bd 7f72 e7bc 21f8 9ebd d4b2 73bd
00000360: eee0 1dbe e681 aa3d a550 e4bd 66d4 a43d
00000370: abd0 943d f64a ea3d 868c fbbd ebda eb3d
00000380: 0b09 9bbd f160 733d dffc 193e 5700 b9bc
00000390: f94f a2ba 3701 17bd d7e9 08be 6a61 9d3d
000003a0: f4c6 22be 4df1 be3d f15f f53d e550 203e
000003b0: 23b8 05bd 1581 01be f55a 283d d7ac bf3d
000003c0: 0cfb 1dbe d008 43bd ff79 9dbd 20ec 11bc
000003d0: 9887 b4bd 9895 35bd 6b37 50bd f495 16be
000003e0: 258a 063e 5276 093e adc6 cdbc 1663 95bc
000003f0: 00d7 85bd 8913 14be 8cd2 1dbe b855 833d

a2c_network.actor_mlp.0.bias f4 [256]
0.013558636 -0.019865373 -0.017224643 0.01987094 -0.010555017 -0.008744253 0.005801359 0.019974343
0.0015745348 0.017074738 0.006282081 -0.010339611 -0.0066670375 0.015546989 -0.016343046 -0.018424263
0.00967859 -0.003201622 0.0065497113 -0.012183365 -0.011150385 -0.0035235188 -0.011986595 -0.0026900615
-0.0052053803 -0.014157192 0.012358377 -0.010029702 0.02140294 -0.0011049045 0.010909544 0.01754686
0.021639917 -0.0026300156 0.013384875 -0.017476112 -0.017344508 -0.01948797 0.012138437 -0.0048869466
-0.014962978 0.0061273514 -0.019478464 -0.0022277676 -0.015292954 -0.009790144 -0.013346838 0.00073499576
-0.018210642 -0.020366449 -0.0114226565 0.015586165 -0.0046743588 0.01636586 -0.020451847 0.004496213
-0.004479777 -0.005151479 -0.012603243 -0.007569712 -0.015596757 0.002192499 0.0044859275 0.014243376
-0.0120314695 0.007990051 -0.017920824 -0.017156806 -0.010373822 -0.0038148644 0.0081244875 -0.02058167
0.018511003 -0.006288859 0.0051919143 -0.0108486395 0.02449404 0.02232478 -0.021144789 -0.01665203
-0.018133793 0.010050433 0.0077060075 0.017144412 -0.00107011 -0.01053998 -0.0040908153 -0.0076388656
-0.01620879 -0.004620922 -0.020469328 -0.015391665 0.0130278915 0.0128111495 0.020966405 -0.000428418
-0.01317841 0.007951635 -0.004713424 -0.0073681623 0.010592525 0.012360972 0.004236567 0.014724037
0.008402143 -0.008046909 0.015240283 -0.0119413845 0.001159755 0.0040264796 -0.016568003 -0.01841555
0.013538169 0.021607231 -0.02094043 0.010488772 0.023228172 -0.014790358 0.0040226243 -0.01375536
0.009073388 -0.012490108 -0.015242483 -0.01094522 -0.0033345474 -0.015669528 0.012424041 0.018423846
0.013709429 0.0150807835 -0.008851553 0.009089117 0.006658053 -0.0046007074 -0.009709199 0.021819798
-0.016085777 -0.017161412 -0.016479403 0.014512555 -0.0038831579 0.02078636 0.006975344 0.013908389
0.004416328 0.009903013 -0.0029378221 0.0017445988 0.012298155 -0.004772709 0.009287884 0.012701485
-0.005702803 -0.021682803 -0.0025905122 0.008138559 -0.017888634 -0.010109519 -0.015741449 -0.007797527
-0.021347485 -0.012518425 -0.022025472 -0.0040221773 -0.017417293 0.020617655 -0.010202098 -0.016200867
0.014128667 -0.0005894416 0.0031653927 -0.007835383 -0.009461841 0.015319281 -0.0037792653 -0.01639588
0.019348158 -0.0063041714 -0.010426793 -0.02116362 -0.015044452 0.02328587 0.0065581505 0.014582337
0.0110460175 0.023074215 -0.007235441 -0.010149453 -0.004221908 0.012446718 0.021692457 -0.011406444
0.020041952 0.0022160686 0.012973834 0.00879965 0.016876953 -0.017316414 -0.0066833026 -0.017161878
0.012424988 0.0054451264 0.018006787 0.007927799 0.0063153254 -0.00327339 -0.006109394 0.004558974
0.0044161226 0.0089787245 0.015966443 -0.017828647 -0.0147519205 -0.0029341993 0.016870854 0.011390883
-0.016835093 -0.009420741 0.022679187 0.015798528 0.0070156124 -0.0058345464 0.012910969 0.008296957
-0.00068602624 0.0019117726 -0.010053873 -0.010492363 0.0059830886 0.005149137 0.003446498 0.010335814
-0.010406037 0.0011859103 -0.00910958 0.01749823 0.0094184 -0.0034649456 0.016098924 -0.02158848
0.013856239 -0.0095084775 -0.0017374151 0.015072506 0.011165286 0.019551652 0.015360181 0.008967232
-0.00470843 0.020524647 -0.0030345307 0.011737155 -0.00096935156 0.006993063 0.0064110714 -0.019769026
00000000: 0b25 5e3c b5bc a2bc b21a 8dbc 62c8 a23c
00000010: f3ee 2cbc 0e44 0fbc 5419 be3b 3ca1 a33c
00000020: 9f60 ce3a 52e0 8b3c ead9 cd3b 7967 29bc
00000030: 2a77 dabb ccb8 7e3c dae1 85bc 7bee 96bc
00000040: f392 1e3c 4ed2 51bb f69e d63b bd9c 47bc
00000050: 1bb0 36bc d6ea 66bb 6c63 44bc be4b 30bb
00000060: e591 aabb 91f3 67bc ca7a 4a3c 9f53 24bc
00000070: 3855 af3c 71d2 90ba f2bd 323c 6fbe 8f3c
00000080: 3246 b13c 575c 2cbb 3c4c 5b3c 102a 8fbc
00000090: 1216 8ebc 3ca5 9fbc 4be0 463c ae22 a0bb
000000a0: 4727 75bc f3c7 c83b 4d91 9fbc bdff 11bb
000000b0: 4c8f 7abc d766 20bc b2ac 5abc bbac 403a
000000c0: 7c2e 95bc 8ad7 a6bc 1826 3bbc 1d5d 7f3c
000000d0: 5d2b 99bb b211 863c a28a a7bc f854 933b
000000e0: 18cb 92bb bdcd a8bb d57d 4ebc 590b f8bb
000000f0: 8a89 7fbc 08b0 0f3b b0fe 923b 0d5d 693c
00000100: a41f 45bc b4e8 023c b1ce 92bc 6e8c 8cbc
00000110: f7f6 29bc ce02 7abb 921c 053c e49a a8bc
00000120: 63a4 973c c612 cebb ef20 aa3b 7ebe 31bc
00000130: baa7 c83c 75e2 b63c d637 adbc d769 88bc
00000140: 528d 94bc 92aa 243c ad82 fc3b 7072 8c3c
00000150: ef42 8cba e1af 2cbc 3f0c 86bb 734f fabb
00000160: 4cc8 84bc 1a6b 97bb 4baf a7bc 522d 7cbc
00000170: f072 553c dbe5 513c bdc1 ab3c 4a9d e0b9
00000180: 42ea 57bc 9347 023c 1173 9abb a070 f1bb
00000190: 458c 2d3c ad85 4a3c e6d2 8a3b 163d 713c
000001a0: 24a9 093c 2fd7 03bc 61b2 793c cca5 43bc
000001b0: ec02 983a 8ff0 833b 9fb9 87bc 35dc 96bc
000001c0: 32cf 5d3c a601 b13c 448b abbc 19d9 2b3c
000001d0: 0249 be3c 4253 72bc 38d0 833b 295e 61bc
000001e0: 8ca8 143c 4fa3 4cbc 9bbb 79bc 9453 33bc
000001f0: 6c88 5abb 625d 80bc 348e 4b3c 9bed 963c
00000200: 839d 603c 6415 773c 1b06 11bc 85ea 143c
00000210: cc2b da3b 88c1 96bb 5513 1fbc 6fbf b23c
00000220: 52c6 83bc 1796 8cbc d0ff 86bc 11c6 6d3c
00000230: 947c 7ebb 2848 aa3c 6d91 e43b 03e0 633c
00000240: d8b6 903b 3f40 223c 7a88 40bb 06ab e43a
00000250: 337e 493c 6364 9cbb 362c 183c e419 503c
00000260: 94de babb 22a0 b1bc 95c5 29bb 9757 053c
00000270: 2f8b 92bc 65a2 25bc 36f4 80bc 6682 ffbb
00000280: ece0 aebc 141a 4dbc c36e b4bc 78cc 83bb
00000290: b6ae 8ebc 5be6 a83c b326 27bc aeb7 84bc
000002a0: ed7b 673c c284 1aba 7a72 4f3b fa5f 00bc
000002b0: d605 1bbc b9fd 7a3c 8dad 77bb a750 86bc
000002c0: 0780 9e3c 3993 cebb 24d5 2abc 545f adbc
000002d0: 017d 76bc 02c2 be3c c1e5 d63b c1ea 6e3c
000002e0: 5bfa 343c 2306 bd3c 4717 edbb e449 26bc
000002f0: ee57 8abb 52ed 4b3c 61b4 b13c 18e2 3abc
00000300: 052f a43c 763b 113b 3490 543c 682c 103c
00000310: 8941 8a3c 27db 8dbc 9bff dabb 1197 8cbc
00000320: 2d92 4b3c 086d b23b f882 933c 99e3 013c
00000330: caf0 ce3b 5f86 56bb 5031 c8bb 7263 953b
00000340: 1fb5 903b 801b 133c 0fcc 823c 620d 92bc
00000350: 0ab2 71bc b24b 40bb bf34 8a3c d3a0 3a3c
00000360: c0e9 89bc 7459 1abc b4c9 b93c ea6b 813c
00000370: 39e3 e53b b92f bfbb 8788 533c f6ef 073c
00000380: 71d6 33ba 7294 fa3a 00b9 24bc 29e8 2bbc
00000390: c90d c43b 18ba a83b a4de 613b 8c57 293c
000003a0: 157e 2abc 8c70 9b3a 5940 15bc 7358 8f3c
000003b0: a24f 1a3c 2414 63bb e4e1 833c 53da b0bc
000003c0: 4705 633c 72c9 1bbc fab9 e3ba acf2 763c
000003d0: 9bee 363c c92a a03c 45a9 7b3c 4ceb 123c
000003e0: 2c49 9abb 4e23 a83c fade 46bb 324d 403c
000003f0: 151c 7eba 1026 e53b f713 d23b a7f2 a1bc

a2c_network.actor_mlp.2.weight f4 [128, 256]
0.021665746 -0.004058562 0.029258719 -0.04039085 -0.038323577 0.05529146 -0.051522095 -0.07170918
-0.04486767 -0.075963005 -0.041790493 -0.03199907 0.029802969 -0.08613978 -0.0639352 -0.028321797
-0.0720994 0.027138857 -0.022619626 0.03971545 0.07968234 -0.044304967 -0.021143064 -0.0029332612
0.03487738 0.03749049 -0.027852975 0.011721416 -0.066506304 -0.04470184 -0.048713826 -0.08681842
-0.06575658 -0.049364526 -0.012495142 0.032196146 0.010845618 -0.005444618 -0.016101928 0.057708263
-0.031498678 0.041267917 0.037821002 -0.03295004 0.0630836 0.030825805 -0.04373796 0.072796375
0.017215384 0.07408064 0.0111962035 -0.03566801 0.07398334 -0.014726243 0.044495586 -0.009436344
0.039947018 -0.024295129 0.033422 0.03236405 -0.007108162 0.05514066 0.02676269 0.009432423
0.03957671 -0.0019308762 -0.00031267875 0.05128924 -0.049872562 -0.040250394 0.03540079 -0.032251403
-0.017376337 0.043429825 0.014360069 -0.016851189 0.0033605737 0.029018352 -0.032533303 0.04954588
0.0050297226 -0.047018453 -0.04559253 -0.026444038 0.049078528 -0.0037040913 -0.06481904 -0.0040436396
0.0695546 -0.026333159 0.08066623 0.04987094 0.05230249 -0.0126572335 -0.05402505 -0.054477494
0.009084183 -0.032653484 0.0129333995 0.035275843 0.05139023 -0.09030987 -0.032297283 -0.020151427
-0.007145979 0.06912745 -0.030680845 0.037774224 -0.023967955 -0.005021753 -0.006112441 -0.0043688966
-0.032433942 -0.07098164 -0.0018309593 -0.024685737 -0.052985445 -0.012565747 -0.072485864 -0.023894485
-0.064218394 0.08192249 -0.009134738 0.036912505 -0.060510643 0.012866737 -0.08868236 0.022041919
0.052604135 -0.08471465 0.058380146 -0.013101748 -0.056471646 0.0039384197 0.052010298 -0.04595813
0.0437781 0.022506954 0.046295587 -0.021675985 0.036580585 0.00072478154 0.06474614 -0.06955663
-0.004100108 0.014259431 -0.053506427 -0.009237145 0.033948887 0.04070917 -0.00614845 -0.0046997834
-0.04944935 0.049240347 -0.038533818 -0.084305316 0.03195018 -0.02430204 0.037708808 0.062127333
0.06280535 0.04477564 -0.039914872 -0.013662044 0.034376584 -0.049470592 0.048572373 0.06607666
-0.059471205 -0.018454006 -0.057912566 0.0035299994 0.03904751 -0.036241315 0.024662683 -0.0053676423
0.0336506 0.040686574 0.0015355279 -0.043970577 0.04369627 -0.048289154 0.03169487 -0.010927289
0.058669515 -0.012193347 -0.0025869205 -0.037693907 0.020277627 -0.026685826 0.0051013487 0.03464566
-0.055363383 -0.05059608 0.015891122 -0.048726436 -0.05823881 0.06094748 -0.039837256 -0.018079
-0.07454339 0.021978756 -0.009302481 0.0032540692 0.0125493435 -0.0034785443 -0.0016829607 0.05165356
0.011307359 0.018024722 -0.08058378 -0.03769611 0.0013558002 -0.0022990878 -0.0015713646 -0.03133791
0.02124271 0.0541049 -0.02291462 -0.0051350496 -0.018872436 0.06658756 -0.0028789253 -0.0012996551
0.05275144 -0.029147886 0.010269379 -0.026318146 -0.056706924 0.0477752 -0.016429815 -0.09070922
-0.041754823 -0.004676999 0.0284796 0.011997227 0.004352049 0.03549401 -0.07513908 0.036121175
0.0017042719 -0.0022537215 0.008380298 0.001080593 -0.012682794 0.025625309 0.056273106 0.076082885
0.00044422326 0.021700112 0.020111855 -0.039194997 0.03678307 0.012569069 0.05019362 -0.013541384
00000000: 5d7c b13c b0fd 84bb fbaf ef3c e070 25bd
00000010: 2ff9 1cbd 4c79 623d d508 53bd 43dc 92bd
00000020: 29c7 37bd 7e92 9bbd 822c 2bbd 7511 03bd
00000030: 5b25 f43c 0e6a b0bd 75f0 82bd 1d03 e8bc
00000040: daa8 93bd 4f52 de3c cb4c b9bc abac 223d
00000050: 7f30 a33d 2079 35bd 3834 adbc f53b 40bb
00000060: 95db 0e3d a18f 193d ec2b e4bc 2f0b 403c
00000070: 7534 88bd 4719 37bd 2688 47bd dbcd b1bd
00000080: 63ab 86bd 7532 4abd 6db8 4cbc 1be0 033d
00000090: d2b1 313c c468 b2bb 31e8 83bc 805f 6c3d
000000a0: c204 01bd 8c08 293d 32ea 1a3d 9ff6 06bd
000000b0: f931 813d 6686 fc3c 9326 33bd 4416 953d
000000c0: 4707 8d3c 97b7 973d 4870 373c 9f18 12bd
000000d0: 9484 973d 5746 71bc 0141 363d e59a 1abc
000000e0: 7c9f 233d 9406 c7bc 82e5 083d 2b90 043d
000000f0: 96eb e8bb 2cdb 613d 6e3d db3c 738a 1a3c
00000100: 301b 223d 7415 fdba 08ef a3b9 ab14 523d
00000110: 2c47 4cbd 99dd 24bd 6b00 113d 0c1a 04bd
00000120: d258 8ebc 79e3 313d 7f46 6b3c 810b 8abc
00000130: 123d 5c3b e5b7 ed3c a441 05bd 9ff0 4a3d
00000140: 5fd0 a43b 6c96 40bd 3cbf 3abd 2ba1 d8bc
00000150: 9106 493d 57c0 72bb d8bf 84bd 8280 84bb
00000160: a472 8e3d a3b8 d7bc 5634 a53d 7945 4c3d
00000170: 233b 563d 4960 4fbc 5f49 5dbd cb23 5fbd
00000180: d3d5 143c a9bf 05bd 9ce6 533c 677d 103d
00000190: 907e 523d 62f4 b8bd 284a 04bd 9b14 a5bc
000001a0: d128 eabb b192 8d3d 6556 fbbc 25b9 1a3d
000001b0: 7258 c4bc 848d a4bb df4a c8bb f628 8fbb
000001c0: 74d9 04bd d25e 91bd cdfc efba be39 cabc
000001d0: 4407 59bd 90e0 4dbc 7873 94bd 5ebe c3bc
000001e0: ef84 83bd fac6 a73d dea9 15bc 9131 173d
000001f0: 02da 77bd 02cf 523c 199f b5bd 4191 b43c
00000200: 6f77 573d e07e adbd 0520 6f3d b7a8 56bc
00000210: d04e 67bd dc0d 813b c008 553d 983e 3cbd
00000220: aa50 333d 8160 b83c 71a0 3d3d d691 b1bc
00000230: 86d5 153d 44ff 3d3a a099 843d b573 8ebd
00000240: 335a 86bb 63a0 693c 8e29 5bbd 6557 17bc
00000250: fd0d 0b3d a9be 263d f078 c9bb a400 9abb
00000260: 678b 4abd 3fb0 493d a3d5 1dbd 44a8 acbd
00000270: 31de 023d 1215 c7bc 8d74 1a3d 3b79 7e3d
00000280: 17a0 803d a966 373d c77d 23bd c4d6 5fbc
00000290: 76ce 0c3d ada1 4abd d3f3 463d 3353 873d
000002a0: 1498 73bd db2c 97bc ba35 6dbd 9057 673b
000002b0: 48f0 1f3d c671 14bd 6509 ca3c 0ce3 afbb
000002c0: 36d5 093d f7a6 263d c443 c93a 7e1a 34bd
000002d0: dcfa 323d d9ca 45bd 7bd2 013d 5f08 33bc
000002e0: 724f 703d 9bc6 47bc 5389 29bb ed64 1abd
000002f0: 441d a63c 3c9c dabc 3729 a73b 9ce8 0d3d
00000300: b7c4 62bd d63d 4fbd 192e 823c 5f95 47bd
00000310: d28b 6ebd 11a4 793d 642c 23bd 691a 94bc
00000320: 34aa 98bd cb0c b43c 6f69 18bc 3942 553b
00000330: c39b 4d3c 4af8 63bb ca96 dcba af92 533d
00000340: 8042 393c 95a8 933c 1c09 a5bd 3c67 1abd
00000350: 1bb5 b13a 4bac 16bb 3ff6 cdba 2e5c 00bd
00000360: 3105 ae3c 1a9d 5d3d 71b7 bbbc eb43 a8bb
00000370: 5e9a 9abc 0f5f 883d 5aac 3cbb 3059 aaba
00000380: e511 583d 8cc7 eebc e640 283c 2799 d7bc
00000390: 8545 68bd eeaf 433d d297 86bc c1c5 b9bd
000003a0: 1b07 2bbd 8341 99bb 0d4e e93c 0490 443c
000003b0: a29b 8e3b 2b62 113d 85e2 99bd ccf3 133d
000003c0: e061 df3a 2cb3 13bb 844d 093c afa2 8d3a
000003d0: 7ecb 4fbc 2bec d13c a17e 663d 58d1 9b3d
000003e0: a3e6 e839 6fc4 b13c 9ec1 a43c ef8a 20bd
000003f0: d8a9 163d 7fee 4d3c d397 4d3d aedc 5dbc

a2c_network.actor_mlp.2.bias f4 [128]
-0.024924427 0.026959445 -0.008593378 0.03326937 -0.030828053 -0.020998377 -0.018702883 0.026413685
-0.028023938 0.012037492 0.013430268 0.031869568 0.028394135 -0.028429639 0.028434642 0.026929395
-0.028439471 -0.0121171605 0.023515025 -0.029203948 -0.009792403 0.021376848 0.018029138 0.019898977
0.014674752 0.026144715 -0.021476006 -0.031437576 0.0322798 -0.015794517 -0.025688916 -0.014985948
0.027603062 -0.014845919 -0.0028878555 0.036120366 -0.026518956 -0.00023715872 0.02427882 -0.026604874
-0.016492844 -0.022309877 -0.00584384 -0.025378488 0.022539243 -0.013076773 -0.02264546 0.020152152
0.0110558355 -0.02541783 -0.012999792 0.035355944 0.018639762 -0.0044745817 -0.017092548 0.0195777
0.008576515 -0.026249666 -0.027177935 0.028010435 0.018169843 0.025745517 0.015316116 0.028190942
0.031158235 0.023203699 0.033447996 0.018960666 -0.0102608185 0.031638533 0.023347756 -0.008987959
-0.02927743 -0.026615178 0.0013279081 0.027596755 0.016475141 0.010284501 0.028948376 -0.025295619
0.021463674 -0.027221791 -0.019999009 0.009316476 -0.029337123 0.033551548 -0.031383198 -0.026678367
0.028167496 0.009628918 0.02428495 -0.020981478 0.028851015 0.01716072 0.008828755 -0.016868383
0.025338992 -0.02905418 0.027070515 -0.015593978 -0.018116092 0.024683274 0.029777365 0.022671547
0.027096918 0.034885954 0.007215987 -0.0114547545 -0.023457335 -0.026548464 0.034369282 -0.02421388
-0.021562776 0.01370556 0.008333336 0.029591488 0.018286461 0.006615946 -0.021941183 -0.017362744
-0.021270812 -0.031625744 0.02025779 -0.012631968 -0.01707845 -0.018001288 0.031790666 0.011865606
00000000: 502e ccbc 0eda dc3c 3dcb 0cbc 7745 083d
00000010: 1d8b fcbc ca04 acbc ca36 99bc 8361 d83c
00000020: 7592 e5bc e738 453c a00a 5c3c aa89 023d
00000030: d19a e83c 46e5 e8bc c4ef e83c 099b dc3c
00000040: e5f9 e8bc 0e87 46bc 95a2 c03c 1e3d efbc
00000050: 5170 20bc 801e af3c d8b1 933c 2e03 a33c
00000060: 5f6e 703c 712d d63c 73ee afbc b0c4 00bd
00000070: d337 043d 8163 81bc 9071 d2bc 9f87 75bc
00000080: d11f e23c 4c3c 73bc 2d42 3dbb f3f2 133d
00000090: 483e d9bc cfad 78b9 60e4 c63c 77f2 d9bc
000000a0: 001c 87bc 34c3 b6bc af7d bfbb 8ce6 cfbc
000000b0: 38a4 b83c f63f 56bc f982 b9bc 2016 a53c
000000c0: 8923 353c 0e39 d0bc 14fd 54bc 65d1 103d
000000d0: 6ab2 983c 839f 92bb ac05 8cbc 6a61 a03c
000000e0: 8384 0c3c 8a09 d7bc 43a4 debc 2476 e53c
000000f0: ecd8 943c 43e8 d23c 72f0 7a3c b1f0 e63c
00000100: 8e3f ff3c af15 be3c c400 093d 6653 9b3c
00000110: fe1c 28bc 6897 013d cb43 bf3c 3b42 13bc
00000120: 39d7 efbc 1308 dabc 340d ae3a 9712 e23c
00000130: e0f6 863c 5380 283c 2525 ed3c c238 cfbc
00000140: 96d4 af3c 3c00 dfbc f6d4 a3bc 22a4 183c
00000150: 6854 f0bc 596d 093d ab8b 00bd 978c dabc
00000160: 85bf e63c 9cc2 1d3c 3bf1 c63c 59e1 abbc
00000170: f758 ec3c a394 8c3c 7ba6 103c 902f 8abc
00000180: b893 cf3c 0803 eebc fcc2 dd3c e27d 7fbc
00000190: 3368 94bc 9434 ca3c a9ef f33c aeb9 b93c
000001a0: 5bfa dd3c 93e4 0e3d 1674 ec3b b9ac 3bbc
000001b0: 9929 c0bc 2a7c d9bc cec6 0c3d 305c c6bc
000001c0: 6ba4 b0bc 498d 603c 8b88 083c d969 f23c
000001d0: 7dcd 953c 94ca d83b ffbd b3bc 503c 8ebc
000001e0: 2040 aebc ff89 01bd aaf3 a53c 50f6 4ebc
000001f0: 1be8 8bbc 7077 93bc ee36 023d f567 423c

a2c_network.actor_mlp.4.weight f4 [64, 128]
0.03758507 0.016629193 -0.0371364 0.1160253 0.00808033 0.007785987 -0.026177553 -0.003987325
-0.09480846 0.0673199 -0.07990294 0.09157808 0.10458672 0.017119331 0.12526076 -0.0347155
-0.017610662 0.06601024 -0.077613614 -0.108680695 0.056011204 0.06714788 0.034893643 0.026121978
0.06647393 0.09456539 -0.058627788 -0.10752171 0.11103328 -0.026583126 -0.02821424 -0.024422387
0.04972524 0.03490732 0.092256986 0.021317234 -0.005951142 -0.08459605 0.078821 -0.019940656
0.10008457 -0.05895415 -0.009832873 0.062065504 -0.07545778 -0.05604247 0.0012581762 -0.048622034
-0.058217607 0.0037890356 0.085395366 0.04034958 -0.04910625 -0.064031154 -0.005275738 0.053926542
-0.09318029 0.06423752 -0.02832193 0.08603236 0.03810391 -0.052976508 0.074973 -0.031787198
0.047791433 -0.016296962 -0.04445048 0.008453167 -0.036075655 0.07609316 -0.025212243 -0.077757604
-0.09907089 -0.0744006 0.09740835 0.114541344 0.024423137 -0.09704522 0.042014427 -0.06667169
0.03254023 0.05687824 0.053961847 -0.0036056573 -0.041077692 -0.00589983 -0.07668579 -0.049156006
0.05905974 0.053263474 0.015845474 0.10846027 0.054517914 -0.06013352 0.114059165 -0.05299423
0.009322101 -0.076924056 0.058432836 -0.010090619 -0.020713191 -0.011753638 -0.032022797 -0.017155115
0.062177088 -0.0021433684 -0.03921036 0.08021319 -0.018798867 0.016047297 0.07361105 -0.06504805
-0.018651776 -0.10877866 0.013521759 0.0936314 -0.08480282 0.025583038 -0.049376402 0.046717502
0.03233626 -0.009308242 0.016420992 0.002480932 -0.021730926 -0.08535775 0.09662243 0.026387861
-0.00051922863 0.0075534647 -0.026938288 -0.10373746 0.071700245 -0.05168336 -0.021626765 -0.048796967
0.08335869 -0.04147991 0.029919976 -0.012735695 0.05638316 0.10059424 0.0155148925 -0.027849736
0.06206189 0.014574008 -0.075848125 0.011050227 0.044232987 -0.076757446 -0.046195175 -0.045030337
0.063673325 -0.08658216 0.0007515745 -0.049235474 0.05247 -0.053502753 0.049390472 -0.046946645
-0.04414395 -0.006423032 -0.0068164836 -0.07211351 -0.058655836 -0.05722702 -0.05763916 0.0620221
0.026399458 -0.053385224 -0.054158498 0.072347365 -0.09146342 0.07058038 0.01679902 -0.07399172
0.039649058 0.06670461 0.040658936 -0.04381417 -0.035625543 -0.003330221 -0.06379321 0.024479453
-0.04650122 0.009567286 -0.004396891 0.046401273 -0.10189764 -0.07109002 0.039128486 -0.048135813
0.05165748 -0.07287761 0.0065547554 0.021370541 0.0901235 0.042586606 0.027572678 -0.010826383
0.0337298 0.06636165 -0.06590578 -0.09970417 0.0079833465 -0.0727959 -0.0043164426 0.015903858
0.058054186 0.07923355 -0.08011142 0.09407429 -0.04995357 -0.096601106 -0.009776878 0.027050603
-0.021742607 -0.0043814583 -0.007354542 -0.027568653 -0.04639791 0.043558948 0.009511334 -0.017740944
0.027293833 0.06834936 -0.018544007 -0.01745764 0.07721893 -0.011843676 0.049779005 0.077248625
-0.097494915 -0.03589812 -0.0683788 0.01711896 0.068539456 0.05230227 -0.044148393 0.040474795
0.060950845 -0.0425984 0.049322724 -0.01987403 0.022608228 -0.012407976 0.062854454 0.042287763
-0.0018331677 0.01936294 -0.07555729 -0.083838634 -0.024224058 -0.049825907 -0.023496345 0.07145412
00000000: cdf2 193d f239 883c 561c 18bd ac9e ed3d
00000010: 5c63 043c 9821 ff3b 4f72 d6bc 1ba8 82bb
00000020: f02a c2bd 04df 893d 27a4 a3bd 4a8d bb3d
00000030: 9031 d63d d73d 8c3c 5b44 003e d731 0ebd
00000040: 3c44 90bc 6030 873d e3f3 9ebd fc93 debd
00000050: 016c 653d d484 893d a3ec 0e3d c2fd d53c
00000060: 7c23 883d 80ab c13d b123 70bd 5834 dcbd
00000070: 6b65 e33d dbc4 d9bc 8d21 e7bc 7511 c8bc
00000080: b1ac 4b3d fafa 0e3d 3bf1 bc3d 7ba1 ae3c
00000090: cc01 c3bb b240 adbd e86c a13d 965a a3bc
000000a0: 24f9 cc3d e879 71bd 0f1a 21bc 6638 7e3d
000000b0: 9c89 9abd ca8c 65bd 63e9 a43a e627 47bd
000000c0: 9675 6ebd 7851 783b c4e3 ae3d 9a45 253d
000000d0: a323 49bd c422 83bd 19e0 acbb 14e2 5c3d
000000e0: 4fd5 bebd f68e 833d 6403 e8bc bc31 b03d
000000f0: d812 1c3d e5fd 58bd 728b 993d 4b33 02bd
00000100: f3c0 433d 3581 85bc b511 36bd 277f 0a3c
00000110: 11c4 13bd bbd6 9b3d e889 cebc 613f 9fbd
00000120: aee5 cabd 575f 98bd 077e c73d a794 ea3d
00000130: 0813 c83c a5bf c6bd 5217 2c3d 2b8b 88bd
00000140: e748 053d 28f9 683d 1907 5d3d e44c 6cbb
00000150: 1541 28bd 5c53 c1bb 710d 9dbd cf57 49bd
00000160: a0e8 713d cd2a 5a3d 5ece 813c 6b20 de3d
00000170: 2d4e 5f3d 914e 76bd da97 e93d 7a10 59bd
00000180: babb 183c 5c8a 9dbd 4557 6f3d 2053 25bc
00000190: b6ae a9bc 5592 40bc 562a 03bd e288 8cbc
000001a0: 67ad 7e3d c177 0cbb 0b9b 20bd d046 a43d
000001b0: 1500 9abc 9f75 833c 64c1 963d e937 85bd
000001c0: 9ccb 98bc 59c7 debd 5e8a 5d3c d2c1 bf3d
000001d0: 1aad adbd 8593 d13c e93e 4abd da5a 3f3d
000001e0: 0773 043d 9981 18bc 5185 863c 2297 223b
000001f0: 0e05 b2bc 0bd0 aebd fbe1 c53d 5b2b d83c
00000200: d81c 08ba 0e83 f73b afad dcbc 4e74 d4bd
00000210: 94d7 923d eeb1 53bd 9d2a b1bc 54df 47bd
00000220: f6b7 aa3d d7e6 29bd bd1a f53c 60a9 50bc
00000230: 07f2 663d 5a04 ce3d 2d32 7e3c 2125 e4bc
00000240: 9c34 7e3d d2c7 6e3c 4356 9bbd 030c 353c
00000250: a62d 353d 0233 9dbd 2737 3dbd bb71 38bd
00000260: 2967 823d fd51 b1bd 5005 453a 23ab 49bd
00000270: c8ea 563d b425 5bbd aa4d 4a3d 204b 40bd
00000280: 49d0 34bd 4c78 d2bb cf5c dfbb 3fb0 93bd
00000290: 1a41 70bd e166 6abd 0a17 6cbd e30a 7e3d
000002a0: ad43 d83c 77aa 5abd 4dd5 5dbd db2a 943d
000002b0: 2c51 bbbd 728c 903d 199e 893c f988 97bd
000002c0: 0d67 223d 6d9c 883d fc89 263d 7d76 33bd
000002d0: 17ec 11bd d63f 5abb 04a6 82bd 2289 c83c
000002e0: 1078 3ebd 1bc0 1c3c cc13 90bb 430f 3e3d
000002f0: b6af d0bd a597 91bd 3145 203d 0f2a 45bd
00000300: cb96 533d db40 95bd 46c9 d63b 4611 af3c
00000310: ab92 b83d 4b6f 2e3d 19e0 e13c 2461 31bc
00000320: 4228 0a3d 9ee8 873d 9cf9 86bd b331 ccbd
00000330: 95cc 023c 0416 95bd f270 8dbb cf48 823c
00000340: 3aca 6d3d 3345 a23d 7511 a4bd 05aa c03d
00000350: 1d9c 4cbd cdd6 c5bd 332f 20bc 3a99 dd3c
00000360: 8d1d b2bc 5692 8fbb 5ffe f0bb a8d7 e1bc
00000370: bc0b 3ebd de6a 323d 6dd5 1b3c 7555 91bc
00000380: 5197 df3c c0fa 8b3d 9ae9 97bc 5303 8fbc
00000390: f524 9e3d fa0b 42bc 12e5 4b3d 8734 9e3d
000003a0: 6aab c7bd e809 13bd 2f0a 8cbd 103d 8c3c
000003b0: 6a5e 8c3d e83a 563d f2d4 34bd e6c8 253d
000003c0: 98a7 793d a97b 2ebd a006 4a3d ddce a2bc
000003d0: e434 b93c d34a 4bbc d6b9 803d ef35 2d3d
000003e0: e746 f0ba 079f 9e3c c8bd 9abd 97b3 abbd
000003f0: 8871 c6bc 4016 4cbd 687b c0bc 8a56 923d

a2c_network.actor_mlp.4.bias f4 [64]
0.0319885 -0.02800124 -0.028132118 -0.025951983 0.018928012 -0.023781702 -0.014472551 0.0017482598
-0.008092073 -0.03245321 -0.028121537 0.030922748 -0.014303739 -0.02954418 -0.0285531 0.024492977
-0.022356797 0.033335257 0.025896236 -0.02474311 0.019984325 -0.024346488 -0.007033061 -0.024938125
0.022234071 -0.02354992 -0.0076084607 0.035056245 -0.027131433 -0.016044777 0.037735876 -0.015542863
0.02770726 -0.02655757 -0.030834435 -0.019439882 -0.02766058 -0.028247809 0.029658943 -0.03055146
0.029413426 -0.032056436 0.027417973 -0.007829166 0.027044762 0.0252034 0.029707544 0.027658971
0.019950265 -0.023095727 0.0370673 -0.027772274 -0.029751183 0.026428062 0.0073989984 0.025270728
0.018991666 0.021949083 -0.025425527 0.022990817 -0.022396367 -0.009637181 -0.030590886 -0.015224341
00000000: 6006 033d db62 e5bc 5475 e6bc 4199 d4bc
00000010: eb0e 9b3c d8d1 c2bc 471e 6dbc dd25 e53a
00000020: 9d94 04bc a8ed 04bd 235f e6bc b451 fd3c
00000030: 3b5a 6abc a306 f2bc 31e8 e9bc 7fa5 c83c
00000040: 9a25 b7bc 8d8a 083d 5824 d43c 10b2 cabc
00000050: 2bb6 a33c 4972 c7bc 9775 e6bb 0a4b ccbc
00000060: 3a24 b63c c3eb c0bc 6550 f9bb 2397 0f3d
00000070: bd42 debc 5670 83bc ef90 1a3d 7ea7 7ebc
00000080: 56fa e23c 438f d9bc 7f98 fcbc 6340 9fbc
00000090: 7198 e2bc f367 e7bc 50f7 f23c 0e47 fabc
000000a0: 6df4 f03c 9c4d 03bd a89b e03c e745 00bc
000000b0: fa8c dd3c 5c77 ce3c 3c5d f33c 1195 e23c
000000c0: bd6e a33c 4033 bdbc e2d3 173d ae82 e3bc
000000d0: c1b8 f3bc aa7f d83c 4c73 f23b 8f04 cf3c
000000e0: 6994 9b3c 90ce b33c 3249 d0bc 3d57 bc3c
000000f0: 9678 b7bc 44e5 1dbc bd99 fabc 846f 79bc

a2c_network.value.weight f4 [1, 64]
-0.0861217 0.08885719 0.11137188 0.041658826 -0.009832221 0.08376581 0.062025234 0.008209191
0.03541507 0.10502001 0.116281115 -0.07980516 0.028799526 0.13586237 0.08907854 -0.07954635
0.12577833 -0.124507174 -0.072598375 0.04654428 -0.04951363 0.07055678 0.027685223 0.13889778
-0.04197754 0.10979506 0.020552771 -0.13671957 0.09817368 0.10005968 -0.1376027 0.032501403
-0.07477206 0.1027899 0.080413856 0.04827216 0.13501713 0.14233896 -0.09034745 0.12406212
-0.048403546 0.14591111 -0.11471836 -0.018408576 -0.08793776 -0.13526005 -0.14643937 -0.10501214
-0.05062715 0.09270936 -0.15630779 0.08804937 0.10542122 -0.060281478 -0.011819165 -0.06841564
-0.045476183 -0.07168719 0.097972214 -0.07959408 0.095958106 0.05297685 0.13769647 0.033587504
00000000: 9360 b0bd c2fa b53d f116 e43d 72a2 2a3d
00000010: 5317 21bc 698d ab3d 2c0e 7e3d d87f 063c
00000020: 640f 113d bb14 d73d cb24 ee3d e370 a3bd
00000030: fcec eb3c 811f 0b3e cf6e b63d 32e9 a2bd
00000040: 09cc 003e 9efd febd 75ae 94bd 37a5 3e3d
00000050: cece 4abd 1380 903d 1fcc e23c 383b 0e3e
00000060: a4f0 2bbd 3bdc e03d 495e a83c 3700 0cbe
00000070: 480f c93d 17ec cc3d b9e7 0cbe 3120 053d
00000080: 1822 99bd 8383 d23d 05b0 a43d 07b9 453d
00000090: ee41 0a3e 4ec1 113e 1508 b9bd 4814 fe3d
000000a0: cc42 46bd b969 153e 76f1 eabd 95cd 96bc
000000b0: b618 b4bd 9c81 0abe 34f4 15be 9b10 d7bd
000000c0: 6a5e 4fbd 68de bd3d 260f 20be 3a53 b43d
000000d0: 15e7 d73d b6e9 76bd 2ca5 41bc 801d 8cbd
000000e0: 3c45 3abd bcd0 92bd a8a5 c83d 3902 a3bd
000000f0: af85 c43d 41fe 583d 4e00 0d3e 0d93 093d

a2c_network.mu.weight f4 [24, 64]
-0.07646957 -0.027930263 -0.03442899 -0.09081554 -0.03664659 0.11581239 0.028046807 0.09868179
0.027834117 0.057550527 -0.110886395 0.014450171 0.05490305 -0.012814953 -0.056706425 -0.004846019
-0.09179123 0.069307745 0.034330726 -0.11345455 0.049906924 -0.12604327 0.040977944 -0.0807972
-0.09409586 0.026501548 0.0069122007 0.119485416 -0.06979354 0.1348646 0.046010524 0.033535372
0.03641223 0.017979983 0.056134634 0.014019244 0.09192914 -0.11762086 -0.037410952 -0.05781614
-0.0656801 -0.106968895 -0.07524026 0.01993268 -0.033644788 -0.09724659 0.067871764 0.10325338
0.056875445 -0.061681885 0.14216357 -0.0061785416 -0.018796265 0.015532323 0.11842272 -0.04259712
-0.08815987 0.03761266 -0.08771054 -0.05334033 0.00508438 0.11710125 -0.058164887 -0.018752709
-0.108535774 0.07079174 -0.097995594 0.00061649404 0.038941637 -0.022366775 0.054388084 0.015979955
-0.049243316 -0.10372551 0.11585162 -0.103501864 -0.047932267 0.061806455 -0.023312325 -0.043415908
0.035378307 -0.014655109 0.0578386 -0.04922577 0.006125798 -0.11761438 -0.019803803 0.107950225
0.05862965 0.015614392 0.034178287 0.113308035 -0.027164351 0.08661915 0.1085523 -0.009755976
0.05925685 0.03723397 -0.04626796 -0.081753805 -0.023489796 0.10230536 0.06326598 0.09670106
-0.07382597 -0.11534928 -0.040492147 -0.109125756 0.08249535 -0.035692513 -0.07642174 -0.022198917
-0.025460811 0.020122252 0.06773386 -0.08030996 0.048327725 -0.00056825206 0.08148884 0.0036701385
0.043805107 -0.12073394 0.084115855 0.07144873 0.115741 0.033509497 0.00077676534 0.12614024
-0.06266818 -0.041309692 0.004709752 -0.09784945 0.11261009 0.09138695 0.101677515 0.076938026
0.060090814 0.0030525282 0.044704303 0.04554994 -0.013241367 -0.026051506 -0.016552404 -0.10524928
0.061564576 0.13616773 0.051679812 -0.0067921304 -0.015108093 -0.12336178 -0.14150034 -0.09125231
-0.04940552 -0.09924958 0.04473489 0.15435803 -0.05204264 0.10453399 0.09939343 0.08880672
0.090843305 0.07435813 0.08225118 -0.050547976 0.01041891 0.056134243 -0.075155854 -0.101246975
0.10364536 -0.08509476 -0.08000575 -0.0016927562 0.019783365 -0.04398029 -0.063720055 -0.088635996
-0.055202 0.13023143 0.062503286 -0.0977727 0.08468613 0.078855425 0.04463844 0.025131296
-0.095362894 -0.051591504 0.11022592 -0.08669977 0.032199237 0.10445052 -0.1034592 -0.01216945
0.06940328 0.09802573 -0.08919396 -0.08741535 0.046656657 0.051201377 0.12064276 0.079866834
0.120565526 0.09991694 -0.057179436 0.094995 0.075662434 -0.07415061 -0.06416951 0.030180588
0.078583285 0.04933437 -0.060011953 -0.12008091 0.0293999 -0.0954892 0.011816682 0.012228514
0.1355043 0.1026948 0.13740698 0.111450605 -0.11621603 0.11417755 0.12666106 0.085120656
0.022173492 -0.09453889 -0.122035764 0.12724213 0.015523807 -0.12205941 0.10046181 0.09041089
0.045539264 0.0531135 -0.12827209 -0.04471384 -0.1062834 -0.115845114 0.02554831 -0.014891011
-0.019571206 0.023719212 0.09081822 0.079949476 -0.08706597 0.082482584 -0.00186585 0.08985379
-0.07637658 -0.099099614 0.028598337 -0.036638867 0.031047834 -0.0042871214 -0.051584784 -0.10008394
00000000: 149c 9cbd 02ce e4bc 6a05 0dbd 7ffd b9bd
00000010: bc1a 16bd 0c2f ed3d 6bc2 e53c ae19 ca3d
00000020: 6004 e43c 1aba 6b3d 6818 e3bd 69c0 6c3c
00000030: 05e2 603d cff5 51bc ff44 68bd 5bcb 9ebb
00000040: 0afd bbbd 38f1 8d3d 609e 0c3d dc5a e8bd
00000050: 346b 4c3d 7d11 01be 7dd8 273d 0179 a5bd
00000060: 55b5 c0bd c619 d93c be7f e23b c5b4 f43d
00000070: eaef 8ebd f219 0a3e 8875 3c3d 635c 093d
00000080: fe24 153d c24a 933c 6eed 653d f9b0 653c
00000090: 5845 bc3d 35e3 f0bd 3a3c 19bd 9ed0 6cbd
000000a0: 4a83 86bd 8212 dbbd 9117 9abd dc49 a33c
000000b0: 1ecf 09bd 3829 c7bd 5a00 8b3d 8276 d33d
000000c0: 3af6 683d 25a6 7cbd 5493 113e 5d75 cabb
000000d0: a0fa 99bc 497b 7e3c 9c87 f23d 517a 2ebd
000000e0: 298d b4bd bc0f 1a3d 95a1 b3bd 647b 5abd
000000f0: df9a a63b c8d2 ef3d 4e3e 6ebd 489f 99bc
00000100: 0148 debd 43fb 903d eab1 c8bd 379c 213a
00000110: 4481 1f3d 873a b7bc 0ac6 5e3d 65e8 823c
00000120: 5cb3 49bd 0a6e d4bd 9d43 ed3d c9f8 d3bd
00000130: a054 44bd c428 7d3d 7df9 bebc e1d4 31bd
00000140: d8e8 103d fb1b 70bc 2be8 6c3d f6a0 49bd
00000150: ebba c83b cfdf f0bd 963b a2bc 0215 dd3d
00000160: a525 703d 82d3 7f3c 88fe 0b3d 0b0e e83d
00000170: c687 debc 6265 b13d ab50 de3d 87d7 1fbc
00000180: 50b7 723d a682 183d 7983 3dbd 8a6e a7bd
00000190: ac6d c0bc 7985 d13d 9891 813d 350b c63d
000001a0: 1232 97bd 3e3c ecbd 18db 25bd 537d dfbd
000001b0: 52f3 a83d 5032 12bd 0083 9cbd 81da b5bc
000001c0: 3193 d0bc 6cd7 a43c 0db8 8a3d 8c79 a4bd
000001d0: 4bf3 453d c0f6 14ba 9fe3 a63d b586 703b
000001e0: fc6c 333d 5b43 f7bd ef44 ac3d b653 923d
000001f0: 9e09 ed3d 4141 093d d79f 4b3a e82a 013e
00000200: 2d58 80bd 5a34 29bd 4354 9a3b 4b65 c8bd
00000210: 1ea0 e63d 1529 bb3d 4d3c d03d af91 9d3d
00000220: c921 763d ed0c 483b dc1b 373d 9392 3a3d
00000230: 52f2 58bc f869 d5bc e898 87bc ef8c d7bd
00000240: 232b 7c3d 8e6f 0b3e 36ae 533d 8590 debb
00000250: ef87 77bc 1aa5 fcbd 77e5 10be 7ee2 babd
00000260: 715d 4abd 5d43 cbbd ef3b 373d 0810 1e3e
00000270: aa2a 55bd eb15 d63d c88e cb3d 4ce0 b53d
00000280: 0e0c ba3d 1349 983d 4f73 a83d 650b 4fbd
00000290: 13b4 2a3c 05ed 653d 50eb 99bd 935a cfbd
000002a0: 0544 d43d 2946 aebd 0eda a3bd 79df ddba
000002b0: b910 a23c ad24 34bd a97f 82bd ca86 b5bd
000002c0: 7e1b 62bd 635b 053e b901 803d 0e3d c8bd
000002d0: ec6f ad3d f47e a13d ccd6 363d 26e0 cd3c
000002e0: 9f4d c3bd 9d51 53bd 21be e13d a68f b1bd
000002f0: 59e3 033d 27ea d53d 6be2 d3bd 5f62 47bc
00000300: 4f23 8e3d b7c1 c83d 53ab b6bd d206 b3bd
00000310: 0d1b 3f3d 89b8 513d 8d13 f73d 3991 a33d
00000320: 0feb f63d 41a1 cc3d fc34 6abd bd8c c23d
00000330: e8f4 9a3d 46dc 97bd 4e6b 83bd 483d f73c
00000340: 46f0 a03d d612 4a3d 18cf 75bd fbec f5bd
00000350: 0fd8 f03c d78f c3bd c29a 413c 1b5a 483c
00000360: a4c1 0a3e a751 d23d 6ab4 0c3e 3740 e43d
00000370: ac02 eebd ebd5 e93d 70b3 013e bd53 ae3d
00000380: 2fa5 b53c 9b9d c1bd e3ed f9bd c34b 023e
00000390: 9157 7e3c 49fa f9bd ecbe cd3d 5829 b93d
000003a0: 6187 3a3d 8b8d 593d c259 03be dc25 37bd
000003b0: 1cab d9bd 3440 edbd b04a d13c 6df9 73bc
000003c0: cb53 a0bc cb4e c23c e7fe b93d 8dbc a33d
000003d0: a54f b2bd a1ec a83d 898f f4ba 4405 b83d
000003e0: 536b 9cbd bdf4 cabd 0f47 ea3c a312 16bd
000003f0: 0758 fe3c fb7a 8cbb 914a 53bd cff8 ccbd

a2c_network.mu.bias f4 [24]
0.015857205 -0.007048287 0.014635349 0.01806294 0.022918181 -0.00047297293 0.022669327 0.02280203
-0.015586918 0.021158285 -0.006780495 -0.010697913 -0.0056235413 -0.026406568 0.0071701063 0.0117954975
-0.018513396 -0.014445565 0.009323119 -0.015104095 0.016444396 0.009244421 -0.014729047 -0.0048368396
00000000: f8e6 813c 51f5 e6bb 1ac9 6f3c bbf8 933c
00000010: e9be bb3c 5af9 f7b9 06b5 b93c 53cb ba3c
00000020: 4660 7fbc 2454 ad3c ea2e debb 4d46 2fbc
00000030: af45 b8bb 9652 d8bc 36f3 ea3b e741 413c
00000040: 68a9 97bc 17ad 6cbc ffbf 183c 2b77 77bc
00000050: 66b6 863c e975 173c 1a52 71bc 5a7e 9ebb

exp_avg f4 [24]
-0.002992171 0.0014859975 0.0004075001 0.005886537 0.00056749315 0.0016880905 0.004568248 -0.004097741
-0.0020571684 0.003908903 -0.001122183 -0.0003392112 0.004546107 -0.0009770783 0.0017647485 0.0012983427
0.0010092901 -0.001185375 0.0039746966 0.0040858914 -0.0014538878 -0.0045081796 0.005395139 0.0008600163
00000000: 4d18 44bb cdc5 c23a bda5 d539 dae3 c03b
00000010: d2c3 143a eb42 dd3a 3eb1 953b 5846 86bb
00000020: 8fd1 06bb 4116 803b 3716 93ba 28d8 b1b9
00000030: 82f7 943b 4f11 80ba 224f e73a 272d aa3a
00000040: 284a 843a 965e 9bba 2c3e 823b f1e2 853b
00000050: 6190 beba 5ab9 93bb b5c9 b03b b872 613a

exp_avg_sq f4 [24]
0.00028824777 0.00034547827 0.0004363585 0.0004609391 0.00042578607 0.0003533825 0.0003481068 0.00039544137
0.00039814285 0.00023501134 0.0004708995 0.00027960417 0.0003709168 0.0004049555 0.00038997908 0.00034828548
0.0003459359 0.00041294415 0.00024853746 0.0004143219 0.00041369724 0.00034775867 0.0003155639 0.00037568563
00000000: f61f 9739 4f21 b539 0cc7 e439 33aa f139
00000010: 0a3c df39 3246 b939 1b82 b639 3e53 cf39
00000020: d4bd d039 606d 7639 10e3 f639 d697 9239
00000030: 9c77 c239 3550 d439 1b76 cc39 169a b639
00000040: bb5e b539 6d80 d839 224e 8239 5839 d939
00000050: 81e5 d839 6153 b639 4572 a539 acf7 c439

exp_avg f4 [256, 39]
0.0 4.9419873e-06 4.7020076e-06 2.4548638e-06 2.0456937e-06 5.763795e-06 2.4548638e-06 0.0037717072
0.0030096658 2.4548638e-06 0.003416794 0.0023702125 0.0 4.064661e-06 0.0 0.0
0.0 0.0 0.0 0.0 0.0028266504 0.0009128949 6.279782e-06 0.0
0.0 0.0 0.0 0.0 0.0 0.0 0.0 0.0
0.0 0.0 0.0 0.0 0.0 0.0 6.6311804e-07 0.0
1.1510423e-05 1.0950601e-05 5.7172247e-06 4.7646377e-06 1.3424482e-05 5.7172247e-06 0.008755888 0.0069956733
5.7172247e-06 0.00793712 0.0055136685 0.0 9.466555e-06 0.0 0.0 0.0
0.0 0.0 0.0 0.0065719346 0.0021260094 1.4626318e-05 0.0 0.0
0.0 0.0 0.0 0.0 0.0 0.0 0.0 0.0
0.0 0.0 0.0 0.0 0.0 1.5443424e-06 0.0 -1.666391e-06
-1.5856492e-06 -8.27828e-07 -6.897868e-07 -1.9434876e-06 -8.27828e-07 -0.0012780962 -0.0010179164 -8.27828e-07
-0.0011566788 -0.00080069026 0.0 -1.3706385e-06 0.0 0.0 0.0 0.0
0.0 0.0 -0.00095564796 -0.00030783567 -2.117542e-06 0.0 0.0 0.0
0.0 0.0 0.0 0.0 0.0 0.0 0.0 0.0
0.0 0.0 0.0 0.0 -2.2362018e-07 0.0 -1.0686124e-05 -1.0166097e-05
-5.3076587e-06 -4.4234203e-06 -1.246307e-05 -5.3076587e-06 -0.008119542 -0.0064901304 -5.3076587e-06 -0.007361992
-0.005116629 0.0 -8.788458e-06 0.0 0.0 0.0 0.0 0.0
0.0 -0.0060975663 -0.0019737785 -1.35789705e-05 0.0 0.0 0.0 0.0
0.0 0.0 0.0 0.0 0.0 0.0 0.0 0.0
0.0 0.0 0.0 -1.4337044e-06 0.0 -9.3832153e-07 -8.932145e-07 -4.6629185e-07
-3.8841034e-07 -1.0943498e-06 -4.6629185e-07 -0.0007313215 -0.00057890615 -4.6629185e-07 -0.00065979536 -0.00045361783
0.0 -7.719547e-07 0.0 0.0 0.0 0.0 0.0 0.0
-0.00054282945 -0.00017345963 -1.1924639e-06 0.0 0.0 0.0 0.0 0.0
0.0 0.0 0.0 0.0 0.0 0.0 0.0 0.0
0.0 0.0 -1.2596647e-07 0.0 7.5724815e-06 7.2042353e-06 3.7612774e-06 3.134562e-06
8.831693e-06 3.7612774e-06 0.005762265 0.004603258 3.7612774e-06 0.005223081 0.0036277848 0.0
6.2278905e-06 0.0 0.0 0.0 0.0 0.0 0.0 0.0043243202
0.0013986845 9.622361e-06 0.0 0.0 0.0 0.0 0.0 0.0
0.0 0.0 0.0 0.0 0.0 0.0 0.0 0.0
0.0 1.0160011e-06 0.0 -6.5132575e-08 -6.206404e-08 -3.238392e-08 -2.6960805e-08 -7.5950965e-08
-3.238392e-08 -5.2732303e-05 -4.1165105e-05 -3.238392e-08 -4.7260557e-05 -3.196458e-05 0.0 -5.3594704e-08
0.0 0.0 0.0 0.0 0.0 0.0 -3.8497405e-05 -1.2113265e-05
00000000: 0000 0000 59d3 a536 f0c5 9d36 3dbe 2436
00000010: c048 0936 9f66 c136 3dbe 2436 bf2e 773b
00000020: d03d 453b 3dbe 2436 4aec 5f3b 9155 1b3b
00000030: 0000 0000 2c63 8836 0000 0000 0000 0000
00000040: 0000 0000 0000 0000 0000 0000 0000 0000
00000050: 533f 393b 574f 6f3a ebb6 d236 0000 0000
00000060: 0000 0000 0000 0000 0000 0000 0000 0000
00000070: 0000 0000 0000 0000 0000 0000 0000 0000
00000080: 0000 0000 0000 0000 0000 0000 0000 0000
00000090: 0000 0000 0000 0000 2001 3235 0000 0000
000000a0: e41c 4137 79b8 3737 96d6 bf36 eddf 9f36
000000b0: b639 6137 96d6 bf36 db74 0f3c f63b e53b
000000c0: 96d6 bf36 b20a 023c 01ac b43b 0000 0000
000000d0: 8bd2 1e37 0000 0000 0000 0000 0000 0000
000000e0: 0000 0000 0000 0000 0000 0000 6259 d73b
000000f0: 8554 0b3b 8f63 7537 0000 0000 0000 0000
00000100: 0000 0000 0000 0000 0000 0000 0000 0000
00000110: 0000 0000 0000 0000 0000 0000 0000 0000
00000120: 0000 0000 0000 0000 0000 0000 0000 0000
00000130: 0000 0000 3347 cf35 0000 0000 c2a8 dfb5
00000140: 7ed2 d4b5 e837 5eb5 ca29 39b5 dd6c 02b6
00000150: e837 5eb5 cb85 a7ba 9b6b 85ba e837 5eb5
00000160: b39b 97ba 6ae5 51ba 0000 0000 c8f6 b7b5
00000170: 0000 0000 0000 0000 0000 0000 0000 0000
00000180: 0000 0000 0000 0000 7384 7aba 0165 a1b9
00000190: 181b 0eb6 0000 0000 0000 0000 0000 0000
000001a0: 0000 0000 0000 0000 0000 0000 0000 0000
000001b0: 0000 0000 0000 0000 0000 0000 0000 0000
000001c0: 0000 0000 0000 0000 0000 0000 0000 0000
000001d0: 3f1c 70b4 0000 0000 8e48 33b7 0e8f 2ab7
000001e0: 7118 b2b6 e46c 94b6 7a18 51b7 7118 b2b6
000001f0: d407 05bc 29ab d4bb 7118 b2b6 dd3c f1bb
00000200: 65a9 a7bb 0000 0000 2472 13b7 0000 0000
00000210: 0000 0000 0000 0000 0000 0000 0000 0000
00000220: 0000 0000 18ce c7bb 825a 01bb 3cd1 63b7
00000230: 0000 0000 0000 0000 0000 0000 0000 0000
00000240: 0000 0000 0000 0000 0000 0000 0000 0000
00000250: 0000 0000 0000 0000 0000 0000 0000 0000
00000260: 0000 0000 0000 0000 0000 0000 b56d c0b5
00000270: 0000 0000 f7e0 7bb5 3cc5 6fb5 aa56 fab4
00000280: b686 d0b4 93e1 92b5 aa56 fab4 28b6 3fba
00000290: bcc1 17ba aa56 fab4 1ef6 2cba 8ed3 edb9
000002a0: 0000 0000 5338 4fb5 0000 0000 0000 0000
000002b0: 0000 0000 0000 0000 0000 0000 0000 0000
000002c0: ab4c 0eba b7e2 35b9 bf0c a0b5 0000 0000
000002d0: 0000 0000 0000 0000 0000 0000 0000 0000
000002e0: 0000 0000 0000 0000 0000 0000 0000 0000
000002f0: 0000 0000 0000 0000 0000 0000 0000 0000
00000300: 0000 0000 0000 0000 6641 07b4 0000 0000
00000310: 1f17 fe36 e9bb f136 416a 7c36 5d5b 5236
00000320: d52b 1437 416a 7c36 62d1 bc3b edd6 963b
00000330: 416a 7c36 6126 ab3b 21c0 6d3b 0000 0000
00000340: 2cf9 d036 0000 0000 0000 0000 0000 0000
00000350: 0000 0000 0000 0000 0000 0000 07b3 8d3b
00000360: 1054 b73a ba6f 2137 0000 0000 0000 0000
00000370: 0000 0000 0000 0000 0000 0000 0000 0000
00000380: 0000 0000 0000 0000 0000 0000 0000 0000
00000390: 0000 0000 0000 0000 0000 0000 0000 0000
000003a0: 0000 0000 885d 8835 0000 0000 03df 8bb3
000003b0: 1148 85b3 7f16 0bb3 7097 e7b2 7c1a a3b3
000003c0: 7f16 0bb3 e12c 5db8 b2a8 2cb8 7f16 0bb3
000003d0: a339 46b8 b511 06b8 0000 0000 0030 66b3
000003e0: 0000 0000 0000 0000 0000 0000 0000 0000
000003f0: 0000 0000 0000 0000 4678 21b8 143a 4bb7
