runs/lift_30-15-42-18/nn/lift.pth (torch, 651493 bytes, 36 tensors)

value_mean_std.running_mean f8 [1]
-0.8367934561653978
00000000: 1697 f711 03c7 eabf

value_mean_std.running_var f8 [1]
0.46619462028074216
00000000: c152 ebf5 21d6 dd3f

value_mean_std.count f8 []
51201.0
00000000: 0000 0000 2000 e940

running_mean_std.running_mean f8 [39]
0.0 1.4999414085387281 1.2999488154378118 0.4999804695129097 0.3999842623659262 2.899887533766381 0.4999804695129097 -0.000836951759073976
0.04345523781342082 0.4999804695129097 0.0028482452399461464 0.2350850506140326 0.0 0.9999609390258194 0.0 0.0
0.0 0.0 0.0 0.0 0.046787853830191566 0.8504972649358186 9.80961532416947 0.0
0.0 0.0 0.0 0.0 0.0 0.0 0.0 0.0
0.0 0.0 0.0 0.0 0.0 0.0 0.12499511737822742
00000000: 0000 0000 0000 0000 b170 f98f c2ff f73f
00000010: 2f78 0c21 97cc f43f 4796 4c15 aeff df3f
00000020: 80af 7197 5799 d93f 6ed6 3c3c f832 0740
00000030: 4796 4c15 aeff df3f 1ea5 7e37 dc6c 4bbf
00000040: 4941 7fd2 c33f a63f 4796 4c15 aeff df3f
00000050: 8282 0205 3455 673f 1b38 1556 4417 ce3f
00000060: 0000 0000 0000 0000 4796 4c15 aeff ef3f
00000070: 0000 0000 0000 0000 0000 0000 0000 0000
00000080: 0000 0000 0000 0000 0000 0000 0000 0000
00000090: 0000 0000 0000 0000 0000 0000 0000 0000
000000a0: 7ff5 19dc 93f4 a73f c593 470a 4637 eb3f
000000b0: f04b 57e6 859e 2340 0000 0000 0000 0000
000000c0: 0000 0000 0000 0000 0000 0000 0000 0000
000000d0: 0000 0000 0000 0000 0000 0000 0000 0000
000000e0: 0000 0000 0000 0000 0000 0000 0000 0000
000000f0: 0000 0000 0000 0000 0000 0000 0000 0000
00000100: 0000 0000 0000 0000 0000 0000 0000 0000
00000110: 0000 0000 0000 0000 0000 0000 0000 0000
00000120: 0000 0000 0000 0000 0000 0000 0000 0000
00000130: 4796 4c15 aeff bf3f

running_mean_std.running_var f8 [39]
3.906097418069606e-05 0.00012694473312792838 0.0001050714008509371 4.882583628594413e-05 4.5310482389306e-05 0.00036755111904372966 4.882583628594413e-05 3.996596395074498e-05
0.0028067053931063388 4.882583628594413e-05 0.00022377282867799394 0.05232640392466687 3.906097418069606e-05 7.812042260168832e-05 3.906097418069606e-05 3.906097418069606e-05
3.906097418069606e-05 3.906097418069606e-05 3.906097418069606e-05 3.906097418069606e-05 0.009381500572630897 0.3753910453314911 0.0037979888182502358 3.906097418069606e-05
3.906097418069606e-05 3.906097418069606e-05 3.906097418069606e-05 3.906097418069606e-05 3.906097418069606e-05 3.906097418069606e-05 3.906097418069606e-05 3.906097418069606e-05
3.906097418069606e-05 3.906097418069606e-05 3.906097418069606e-05 3.906097418069606e-05 3.906097418069606e-05 3.906097418069606e-05 3.967127806227413e-05
00000000: a774 6eda ac7a 043f bb72 51f4 8ea3 203f
00000010: e3e4 edeb 388b 1b3f 25b7 dbf5 4a99 093f
00000020: 5c3a fa51 78c1 073f 32cf 3009 7c16 383f
00000030: 25b7 dbf5 4a99 093f f409 a210 24f4 043f
00000040: f0c8 ee7b 16fe 663f 25b7 dbf5 4a99 093f
00000050: 5f3b 39f6 9154 2d3f f9bf 25c3 86ca aa3f
00000060: a774 6eda ac7a 043f 4fbf 11a4 927a 143f
00000070: a774 6eda ac7a 043f a774 6eda ac7a 043f
00000080: a774 6eda ac7a 043f a774 6eda ac7a 043f
00000090: a774 6eda ac7a 043f a774 6eda ac7a 043f
000000a0: 4dc2 2cb1 9b36 833f 913d ba29 6806 d83f
000000b0: 258a 7ab8 f51c 6f3f a774 6eda ac7a 043f
000000c0: a774 6eda ac7a 043f a774 6eda ac7a 043f
000000d0: a774 6eda ac7a 043f a774 6eda ac7a 043f
000000e0: a774 6eda ac7a 043f a774 6eda ac7a 043f
000000f0: a774 6eda ac7a 043f a774 6eda ac7a 043f
00000100: a774 6eda ac7a 043f a774 6eda ac7a 043f
00000110: a774 6eda ac7a 043f a774 6eda ac7a 043f
00000120: a774 6eda ac7a 043f a774 6eda ac7a 043f
00000130: d848 25bc 96cc 043f

running_mean_std.count f8 []
25601.0
00000000: 0000 0000 4000 d940

a2c_network.sigma f4 [24]
0.0016805483 -0.015782466 0.038321458 -0.008322899 0.016153233 -0.018250605 -0.024212614 -0.0650737
-0.066461086 -0.028331697 0.016350467 0.0063287625 -0.058579676 -0.02057313 0.013885531 -0.03910877
-0.02634095 -0.03587994 -0.021545837 -0.006237858 -0.0063653192 0.015676295 -0.05657153 0.02368413
00000000: d845 dc3a 3b4a 81bc f6f6 1c3d c55c 08bc
00000010: c953 843c 4b82 95bc 8859 c6bc 5c45 85bd
00000020: c01c 88bd e017 e8bc 6af1 853c 8261 cf3b
00000030: 3ef1 6fbd fb88 a8bc 2380 633c 8530 20bd
00000040: fac8 d7bc d8f6 12bd e580 b0bc f266 ccbb
00000050: 2b94 d0bb 936b 803c 8cb7 67bd 3805 c23c

a2c_network.actor_mlp.0.weight f4 [256, 39]
-0.050500125 0.05977 -0.026676444 0.08415508 0.15972947 0.10930354 -0.05323953 0.10964439
0.009712252 0.098082624 -0.102908015 -0.15759443 -0.061867196 -0.10606853 0.13139138 0.046121925
0.066327244 0.050642315 -0.002785585 0.12531762 -0.10816974 -0.003593136 -0.09256093 0.049375832
-0.055145297 0.04906587 -0.033361334 0.13280898 -0.09490826 -0.095500104 -0.09550587 0.1440261
0.053362884 0.15408342 -0.13214995 -0.15882729 -0.12527846 -0.107716456 0.08162791 0.05733802
0.11629318 -0.09945562 -0.12588303 0.06823866 -0.08149817 0.080463745 -0.027307909 0.07603827
-0.1411361 -0.06913326 0.02527139 0.033852298 -0.057571292 0.095447496 0.10885659 -0.116120666
-0.08548732 0.14662325 -0.05403244 -0.061443668 -0.15630476 -0.10849117 0.0400006 -0.021135822
-0.11623478 0.0037560768 -0.10938057 -0.13585219 -0.088176586 -0.14014609 -0.10195968 0.16006552
0.030244198 0.049345043 -0.149349 -0.10516797 -0.053299587 0.008332576 -0.14090016 -0.08891827
-0.115787745 -0.019515766 -0.0795425 -0.031007655 -0.12846713 -0.12955642 -0.07297092 -0.07477109
-0.12398517 0.13396548 -0.031779677 0.11783568 0.049893063 -0.13559604 0.11081431 -0.04405843
-0.06138129 -0.13291764 -0.16281904 0.056890726 -0.054875337 0.06234159 -0.13141131 0.1188838
-0.11754266 -0.027649863 0.033445917 0.08266644 0.1292731 0.14587021 -0.12696916 0.040299013
-0.06887527 -0.017547613 -0.11985433 0.1458541 -0.13749698 0.085580684 0.07259629 0.06835523
-0.07029802 0.16182305 0.05152401 0.036873672 -0.14722198 0.07756228 -0.0077477843 -0.07762979
0.1553724 0.035700377 -0.072292715 -0.08104709 -0.0076470347 0.08940936 -0.040918157 -0.0913651
-0.054834742 -0.11071189 0.05544605 0.14030097 -0.1507511 0.03718987 0.08272088 0.029035935
-0.057025578 0.083577625 0.08414945 0.059876274 -0.028137943 -0.042402137 0.017130656 -0.028287293
-0.047718357 0.10235501 0.13761406 0.00040422258 -0.03585219 -0.00899576 -0.020893365 0.02716367
0.0335419 -0.15676963 -0.070426404 0.12598151 0.073811986 -0.019297335 -0.1008823 -0.09416755
-0.14343749 -0.06352852 0.054075945 0.10210117 0.07393074 -0.14154433 -0.09629506 -0.025270887
0.14357123 0.035709124 -0.052800003 0.066247456 -0.060989857 -0.10364385 0.11687549 -0.07281055
-0.03210037 -0.15929617 0.10716907 0.12131863 0.058358412 -0.11165322 -0.15803686 -0.13005272
0.119407594 0.07687844 0.123420514 0.08388631 0.03484637 -0.0072488105 -0.12741946 -0.1428339
-0.15546958 0.059909422 -0.06839297 -0.04615503 -0.097795546 -0.0263952 -0.12596089 -0.10463024
0.047451556 -0.047589507 0.09885402 -0.051370513 -0.11746476 -0.028252838 -0.077621706 -0.055094626
-0.15231779 0.08387988 -0.11148194 0.08048324 0.07266363 0.11440079 -0.12282662 0.11516365
-0.07570084 0.059418622 0.15037869 -0.02258317 -0.0012383453 -0.036866393 -0.13370453 0.07684596
-0.15896207 0.093781725 0.1198119 0.15648967 -0.032715417 -0.12653475 0.04103663 0.09352116
-0.15434375 -0.05127115 -0.0778332 -0.0089720255 -0.09023974 -0.04484967 -0.0508341 -0.1471241
0.13138635 0.13424042 -0.02511915 -0.018235724 -0.065351486 -0.14460577 -0.1550187 0.06381883
00000000: 38d9 4ebd 63d1 743d 8f88 dabc 8059 ac3d
00000010: 1f90 233e 89da df3d b211 5abd 3d8d e03d
00000020: 2320 1f3c 8bdf c83d 70c1 d2bd 6f60 21be
00000030: 7568 7dbd 753a d9bd 768b 063e 58ea 3c3d
00000040: 94d6 873d 516e 4f3d 5c8e 36bb 4353 003e
00000050: 1988 ddbd d27a 6bbb 9690 bdbd 503e 4a3d
00000060: 09e0 61bd 4bf9 483d e5a5 08bd 14ff 073e
00000070: 435f c2bd 8f95 c3bd 9598 c3bd 947b 133e
00000080: 0a93 5a3d 0bc8 1d3e 5152 07be 9fa3 22be
00000090: ff48 00be 729a dcbd 892c a73d 46db 6a3d
000000a0: 1e2b ee3d 63af cbbd 7be7 00be b6c0 8b3d
000000b0: 83e8 a6bd 2dca a43d d6b4 dfbc f4b9 9b3d
000000c0: fb85 10be bd95 8dbd f205 cf3c b5a8 0a3d
000000d0: e0cf 6bbd fa79 c33d 34f0 de3d acd0 edbd
000000e0: fa13 afbd 6824 163e 1f51 5dbd 5bac 7bbd
000000f0: 5b0e 20be 9e30 debd abd7 233d 0825 adbc
00000100: 800c eebd 8328 763b ec02 e0bd d61c 0bbe
00000110: ed95 b4bd 7582 0fbe 3dd0 d0bd 37e8 233e
00000120: aec2 f73c 071e 4a3d f2ee 18be 4e62 d7bd
00000130: ab50 5abd 5b85 083c 2248 10be c81a b6bd
00000140: 2022 edbd 87df 9fbc 2ee7 a2bd c403 febc
00000150: e38c 03be 70aa 04be c771 95bd 9621 99bd
00000160: f0eb fdbd 3f2e 093e 682b 02bd d553 f13d
00000170: ab5c 4c3d b0d9 0abe 9df2 e23d 9d76 34bd
00000180: f36a 7bbd 901b 08be 09ba 26be 4006 693d
00000190: f6c4 60bd e559 7f3d b090 06be 5a79 f33d
000001a0: 35ba f0bd f781 e2bc 96fe 083d 064d a93d
000001b0: 2b60 043e 005f 153e 3404 02be 9410 253d
000001c0: 7a0e 8dbd 03c0 8fbc 3076 f5bd c75a 153e
000001d0: 02cc 0cbe ed44 af3d 5dad 943d d4fd 8b3d
000001e0: 69f8 8fbd f1b4 253e d70a 533d d908 173d
000001f0: 5cc1 16be f9d8 9e3d 20e1 fdbb 5efc 9ebd
00000200: f119 1f3e 8f3a 123d 340e 94bd 04fc a5bd
00000210: fa93 fabb 411c b73d cc99 27bd a01d bbbd
00000220: 659a 60bd eabc e2bd 661b 633d 0fab 0f3e
00000230: 7f5e 1abe 6854 183d 9169 a93d c5dc ed3c
00000240: a793 69bd bf2a ab3d 8c56 ac3d d340 753d
00000250: 8b81 e6bc ddad 2dbd 9755 8c3c c1ba e7bc
00000260: 5374 43bd 819f d13d b3ea 0c3e d6ed d339
00000270: bfd9 12bd f462 13bc 9028 abbc 5886 de3c
00000280: 3b63 093d 3888 20be b83b 90bd 4c01 013e
00000290: bd2a 973d 7215 9ebc 619b cebd ebda c0bd
000002a0: 47e1 12be 3e1b 82bd bd7e 5d3d 6b1a d13d
000002b0: 0069 973d fff0 10be 5836 c5bd e404 cfbc
000002c0: 5604 133e bb43 123d d144 58bd bfac 873d
000002d0: 80d0 79bd 3a43 d4bd 6b5c ef3d b31d 95bd
000002e0: ad7b 03bd 891e 23be 757b db3d e775 f83d
000002f0: 3b09 6f3d 72aa e4bd 6ad4 21be 8a2c 05be
00000300: f88b f43d 7272 9d3d e5c3 fc3d 96cc ab3d
00000310: 11bb 0e3d 6e87 edbb 3f7a 02be 0d43 12be
00000320: 6b33 1fbe 9563 753d 9d11 8cbd 0f0d 3dbd
00000330: 0849 c8bd bf3a d8bc e4fb 00be 6148 d6bd
00000340: 905c 423d 37ed 42bd fa73 ca3d e369 52bd
00000350: 5d91 f0bd 7f72 e7bc 21f8 9ebd e7aa 61bd
00000360: 32f9 1bbe 37c9 ab3d a550 e4bd 66d4 a43d
00000370: abd0 943d f64a ea3d 868c fbbd ebda eb3d
00000380: 0b09 9bbd f160 733d dffc 193e 5700 b9bc
00000390: f94f a2ba 3701 17bd d7e9 08be 6a61 9d3d
000003a0: f4c6 22be a210 c03d f15f f53d d43e 203e
000003b0: 9a00 06bd 5392 01be 0616 283d 0688 bf3d
000003c0: 4a0c 1ebe b301 52bd 0367 9fbd 67ff 12bc
000003d0: 9dcf b8bd 4ab4 37bd 6b37 50bd b3a7 16be
000003e0: 258a 063e 5276 093e adc6 cdbc 1663 95bc
000003f0: 00d7 85bd 8913 14be 39bd 1ebe 72b3 823d

a2c_network.actor_mlp.0.bias f4 [256]
0.014798192 -0.01749623 -0.017772354 0.017532919 -0.010495491 -0.006642055 0.0055644438 0.021060979
0.0035367468 0.01633452 0.005526926 -0.013707104 -0.008216288 0.0166979 -0.014556383 -0.016836375
0.011716116 -0.006885732 0.008703067 -0.013623768 -0.012720193 -0.001347714 -0.00919809 -0.0018227517
-0.0025959194 -0.016942397 0.014318828 -0.01311979 0.018720053 -0.0046911784 0.010027852 0.020618742
0.019264517 0.0017298837 0.015685953 -0.01463664 -0.014453589 -0.016526362 0.011815506 -0.0062157284
-0.013363772 0.009676112 -0.016193839 0.0011970606 -0.015328665 -0.012089078 -0.012056457 -0.0010696714
-0.015347535 -0.0193027 -0.013265252 0.011933319 -0.0070775277 0.016666047 -0.017380813 0.0057743024
-0.0056862426 -0.007301232 -0.015298122 -0.0044080964 -0.013469955 0.0053210375 0.00064220274 0.013988613
-0.010780164 0.0030794973 -0.015693955 -0.016281836 -0.010973899 -0.007258736 0.010383244 -0.019585526
0.016453125 -0.009128919 0.0013936827 -0.01158166 0.020591615 0.019419994 -0.018252706 -0.014490524
-0.016836695 0.01124205 0.00819877 0.013998271 -0.0024516443 -0.012527271 -0.003966004 -0.005026678
-0.017619023 -0.002257418 -0.018724728 -0.012168243 0.009154829 0.010524961 0.01778702 -0.0022956117
-0.0141365705 0.002543945 -0.004870509 -0.009822572 0.0066986065 0.013784658 0.00096441375 0.017606542
0.009122595 -0.0062797377 0.016281808 -0.010613134 0.004237951 0.0024036528 -0.01494867 -0.018425375
0.01568611 0.020723082 -0.018795244 0.0077589303 0.02046945 -0.016172968 0.008168223 -0.0090308115
0.0073246807 -0.01434202 -0.01163116 -0.012245651 -0.004631285 -0.013786197 0.01563799 0.014998233
0.0111077735 0.016983869 -0.011000119 0.010897053 0.00993069 -0.007839435 -0.011107962 0.01981625
-0.019202806 -0.015191512 -0.014524188 0.013199633 -0.007175459 0.018253988 0.0014675892 0.0106135765
0.0018127668 0.005665517 0.0011255455 0.0017523343 0.008568886 -0.008069484 0.006759736 0.014343528
-0.007629809 -0.019124117 -0.006753608 0.010287321 -0.016810663 -0.005869552 -0.01599379 -0.005229936
-0.018937074 -0.016346283 -0.019610746 -0.00047934163 -0.01982338 0.016173627 -0.009605946 -0.017383542
0.016031144 -0.004200701 0.005230122 -0.0046684095 -0.0113169905 0.013738094 -0.0065520084 -0.013907464
0.016620606 -0.002339733 -0.0127696935 -0.019831592 -0.016478427 0.019932434 0.009729516 0.013446392
0.010611531 0.019922333 -0.010119608 -0.006838951 -0.0010547154 0.014738857 0.019396054 -0.010776691
0.01664269 0.004897648 0.0147319455 0.011078147 0.015070659 -0.014952699 -0.0040719393 -0.016156496
0.014342592 0.008781646 0.016342325 0.010228949 0.008910093 -0.0006458569 -0.007288545 0.0008358973
0.00051160436 0.012574219 0.01806814 -0.018228019 -0.015992379 -0.0065273456 0.014593004 0.013637922
-0.016314737 -0.0065186773 0.019418355 0.016544068 0.006147102 -0.008963417 0.014581784 0.0062807426
0.0008611375 0.0036794732 -0.007870719 -0.012510351 0.00892362 0.004466517 0.0047869096 0.01149037
-0.0078459345 0.00385449 -0.012357194 0.015552792 0.011838924 -0.007201826 0.016800672 -0.0185685
0.015978565 -0.012468063 -0.00026198302 0.011760147 0.01292392 0.016129285 0.011262196 0.006944528
-0.0048475154 0.01750741 0.001044888 0.008573788 -7.5414086e-05 0.003104668 0.003676464 -0.018959917
00000000: 1e74 723c 4154 8fbc 5497 91bc 32a1 8f3c
00000010: 48f5 2bbc 99a5 d9bb f055 b63b 1388 ac3c
00000020: c4c8 673b f9cf 853c 371b b53b c393 60bc
00000030: 9c9d 06bc 09ca 883c e57d 6ebc 70ec 89bc
00000040: f4f4 3f3c b5a1 e1bb 4f97 0e3c 3a36 5fbc
00000050: 5b68 50bc c7a5 b0ba 96b3 16bc 66e9 eeba
00000060: 4d20 2abb c8ca 8abc 8499 6a3c 63f4 56bc
00000070: cc5a 993c 75b8 99bb dc4b 243c a3e8 a83c
00000080: 9fd0 9d3c 44bd e23a d47f 803c 85ce 6fbc
00000090: bfce 6cbc 4b62 87bc d395 413c 4fad cbbb
000000a0: b9f3 5abc 8e88 1e3c f1a8 84bc b0e6 9c3a
000000b0: 1525 7bbc 4511 46bc 7288 45bc 3734 8cba
000000c0: 3a74 7bbc b220 9ebc 8056 59bc f883 433c
000000d0: 9bea e7bb 3c87 883c 3562 8ebc 5c36 bd3b
000000e0: a953 babb 2c3f efbb f9a4 7abc cb71 90bb
000000f0: 16b1 5cbc 195c ae3b 7f59 283a 7f30 653c
00000100: 499f 30bc 64d1 493b 9c90 80bc 7c61 85bc
00000110: decb 33bc b1da edbb 7b1e 2a3c d371 a0bc
00000120: b4c8 863c 7691 15bc 3bac b63a 01c1 3dbc
00000130: bfaf a83c ae16 9f3c b386 95bc aa69 6dbc
00000140: 1ced 89bc 9330 383c 2254 063c 0159 653c
00000150: c4ab 20bb 2f3f 4dbc 41f5 81bb d5b6 a4bb
00000160: c555 90bc 30f1 13bb 9a64 99bc 4f5d 47bc
00000170: 23fe 153c e370 2c3c 16b6 913c f971 16bb
00000180: 139d 67bc 51b8 263b ca98 9fbb daee 20bc
00000190: fc7f db3b 0cd9 613c b6d0 7c3a 983b 903c
000001a0: f076 153c 42c6 cdbb 6d61 853c b6e2 2dbc
000001b0: 82de 8a3b 9a86 1d3b 44eb 74bc d0f0 96bc
000001c0: 2880 803c 74c3 a93c 7cf8 99bc a03e fe3b
000001d0: 8caf a73c 2c7d 84bc 03d4 053c f8f5 13bc
000001e0: e003 f03b cbfa 6abc 9f90 3ebc fca1 48bc
000001f0: 09c2 97bb 80df 61bc 3e1b 803c 26bb 753c
00000200: 61fd 353c c121 8b3c d839 34bc 8e89 323c
00000210: 55b4 223c f970 00bc 2bfe 35bc b055 a23c
00000220: 344f 9dbc d2e5 78bc dcf6 6dbc 4643 583c
00000230: 1d20 ebbb 6389 953c 1f5c c03a 91e4 2d3c
00000240: 5c9a ed3a cda5 b93b 0a87 933a 95ae e53a
00000250: 8364 0c3c de35 04bc c780 dd3b 1e01 6b3c
00000260: 7a03 fabb 2eaa 9cbc 5f4d ddbb 278c 283c
00000270: 84b6 89bc 5f55 c0bb 6905 83bc e25f abbb
00000280: ec21 9bbc a4e8 85bc b7a6 a0bc 2550 fbb9
00000290: a464 a2bc 8e7e 843c 4262 1dbc ee67 8ebc
000002a0: bf53 833c 09a6 89bb 7161 ab3b 75f9 98bb
000002b0: e66a 39bc be15 613c 3bb2 d6bb 22dc 63bc
000002c0: f027 883c 3556 19bb fa37 51bc dd75 a2bc
000002d0: c4fd 86bc 5849 a33c 8c68 1f3c 414e 5c3c
000002e0: fddb 2d3c 2934 a33c b6cc 25bc 4719 e0bb
000002f0: 603e 8aba 3f7b 713c 79e4 9e3c b890 30bc
00000300: 4056 883c 737c a03b 425e 713c 1e81 353c
00000310: edea 763c 2afc 74bc e76d 85bb a15a 84bc
00000320: 31fd 6a3c e5e0 0f3c 57e0 853c 5297 273c
00000330: a4fb 113c b94e 29ba bfd4 eebb 1e20 5b3a
00000340: 301d 063a 1904 4e3c a303 943c ed52 95bc
00000350: 7302 83bc 58e3 d5bb 7f17 6f3c 9771 5f3c
00000360: 7ca6 85bc a19a d5bb 3e13 9f3c 6d87 873c
00000370: a16d c93b 4cdb 12bc 6fe8 6e3c b0ce cd3b
00000380: f6bd 613a 5123 713b 30f4 00bc 37f8 4cbc
00000390: 6034 123c dc5b 923b 82db 9c3b 1b42 3c3c
000003a0: 3c8c 00bc 9c9b 7c3b d475 4abc 23d1 7e3c
000003b0: 0cf8 413c 4cfd ebbb 90a1 893c f81c 98bc
000003c0: 7be5 823c d946 4cbc c45a 89b9 a2ad 403c
000003d0: d9be 533c 9021 843c 1385 383c ec8e e33b
000003e0: e8d7 9ebb b36b 8f3c a0f4 883a 1379 0c3c
000003f0: a127 9eb8 b077 4b3b d5f0 703b d451 9bbc

a2c_network.actor_mlp.2.weight f4 [128, 256]
0.023380896 -0.0028764594 0.03044105 -0.040620424 -0.03940581 0.05649511 -0.049902406 -0.070614845
-0.044291362 -0.07549588 -0.040074643 -0.033145975 0.031132914 -0.084728576 -0.062054306 -0.026662126
-0.07272904 0.025185315 -0.023135778 0.04017413 0.080677785 -0.045462314 -0.022758741 -0.0013201002
0.036524527 0.036640722 -0.029354401 0.012160464 -0.0678816 -0.045965638 -0.04710653 -0.08571936
-0.06453101 -0.048299853 -0.0116019305 0.032934684 0.0114197275 -0.004183028 -0.017831653 0.057649296
-0.032021925 0.040672407 0.038084157 -0.03206364 0.06589901 0.029665962 -0.043784495 0.07313661
0.018624535 0.072338015 0.010503411 -0.03724795 0.07354831 -0.016565597 0.04414231 -0.00817209
0.041408274 -0.026023488 0.032460377 0.033829894 -0.0057315687 0.054176807 0.026302172 0.011166879
0.041617062 -0.0034512393 0.00010568211 0.0528907 -0.048240386 -0.042292383 0.03735081 -0.033445414
-0.016063295 0.042423055 0.013247611 -0.015119871 0.0015911612 0.02734498 -0.03174264 0.050766
0.007133721 -0.049134783 -0.044715274 -0.02712828 0.05154996 -0.004594544 -0.06298091 -0.0025284106
0.07003099 -0.024434144 0.08061925 0.051542405 0.050309576 -0.014250771 -0.055498265 -0.05243791
0.010193243 -0.034694795 0.014814521 0.033473138 0.050453655 -0.08877437 -0.03368146 -0.02119872
-0.005296426 0.06885392 -0.029856449 0.038373012 -0.023664476 -0.0045431484 -0.00718871 -0.003047296
-0.030892909 -0.06975288 -0.00031349898 -0.026974276 -0.053106178 -0.013896622 -0.07078406 -0.021957332
-0.06336224 0.08161904 -0.008914344 0.036322583 -0.058857877 0.014380538 -0.08801752 0.020250462
0.05081949 -0.08535848 0.056462444 -0.015004202 -0.05551643 0.0021829882 0.053381663 -0.045977388
0.04391741 0.021570083 0.046112224 -0.020440996 0.03569668 -0.0015126532 0.062043477 -0.070759594
-0.0047971383 0.013545319 -0.051909443 -0.0076047084 0.032356285 0.039665192 -0.0077042487 -0.0027817674
-0.04854925 0.050681476 -0.040373497 -0.08346521 0.03326647 -0.022757264 0.03919307 0.06373726
0.06423686 0.04322789 -0.03983893 -0.014805439 0.03348647 -0.051087808 0.046796698 0.06478085
-0.05801318 -0.01951944 -0.056009598 0.0035891102 0.039211344 -0.037136596 0.023624994 -0.0043916497
0.031930257 0.040247608 0.00020263475 -0.041919503 0.04506666 -0.049913798 0.030691534 -0.009565149
0.0574488 -0.012972331 -0.0026496546 -0.037270878 0.021820117 -0.028564762 0.0029425619 0.03633157
-0.05681977 -0.049123712 0.013889509 -0.04881869 -0.05792393 0.0598976 -0.041593764 -0.016769113
-0.07590268 0.02188701 -0.009008561 0.002860671 0.014465861 -0.0019021347 1.3266105e-05 0.049981024
0.0096929865 0.018668955 -0.07991781 -0.03656946 -0.0007948275 -0.0039257426 -0.001144947 -0.032540426
0.022191541 0.05573348 -0.024076391 -0.007310741 -0.017709592 0.06536446 -0.0015623688 -0.0009843091
0.05108656 -0.027639214 0.008728373 -0.024677815 -0.05531429 0.048264857 -0.018629352 -0.08929133
-0.040138427 -0.002953701 0.026840093 0.009082246 0.0055644624 0.03394968 -0.07373267 0.037007026
0.0019742013 -0.0032545507 0.006681139 -0.0011284429 -0.0145337945 0.0244342 0.054417867 0.07719211
0.0020771187 0.021509532 0.022077106 -0.04140225 0.03819941 0.010941765 0.048622657 -0.015740149
00000000: 4b89 bf3c fb82 3cbb 825f f93c 9a61 26bd
00000010: fd67 21bd 6b67 673d 7766 4cbd 849e 90bd
00000020: dc6a 35bd 959d 9abd 4f25 24bd 13c4 07bd
00000030: 740a ff3c 2d86 adbd a82c 7ebd 886a dabc
00000040: f7f2 94bd 6f51 ce3c 3e87 bdbc a18d 243d
00000050: 653a a53d b136 3abd 8a70 babc 3607 adba
00000060: be9a 153d 9514 163d a478 f0bc af3c 473c
00000070: 8205 8bbd 7746 3cbd c7f2 40bd a28d afbd
00000080: d628 84bd 11d6 45bd 0616 3ebc 85e6 063d
00000090: cf19 3b3c c811 89bb b013 92bc ab21 6c3d
000000a0: 6c29 03bd 1c98 263d 22fe 1b3d 2a55 03bd
000000b0: 0ff6 863d 0806 f33c 5f57 33bd a6c8 953d
000000c0: 7b92 983c f425 943d 8016 2c3c 4e91 18bd
000000d0: 7fa0 963d 93b4 87bc 91ce 343d 3be4 05bc
000000e0: b99b 293d 362f d5bc 2cf5 043d 3791 0a3d
000000f0: e2cf bbbb 80e8 5d3d a777 d73c 49f5 363c
00000100: a776 2a3d 302e 62bb a7a1 dd38 eba3 583d
00000110: b697 45bd c73a 2dbd 2afd 183d 0ffe 08bd
00000120: 2c97 83bc ccc3 2d3d 820c 593c 56b9 77bc
00000130: 838e d03a 9402 e03c 9204 02bd 02f0 4f3d
00000140: fdc1 e93b 8e41 49bd 5d27 37bd 203c debc
00000150: 0d26 533d d48d 96bb 23fc 80bd b1b3 25bb
00000160: 686c 8f3d 1d2a c8bc b51b a53d 211e 533d
00000170: 6a11 4e3d 117c 69bc 2652 63bd 22c9 56bd
00000180: 8f01 273c 211c 0ebd 9bb8 723c 211b 093d
00000190: 7ea8 4e3d 56cf b5bd 92f5 09bd f0a8 adbc
000001a0: a48d adbb 4903 8d3d 8395 f4bc 052d 1d3d
000001b0: 01dc c1bc b1de 94bb 458f ebbb 25b5 47bb
000001c0: 2013 fdbc 99da 8ebd 1f5d a4b9 28f9 dcbc
000001d0: dd85 59bd a8ae 63bc 3cf7 90bd dddf b3bc
000001e0: 10c4 81bd e227 a73d 780d 12bc fdc6 143d
000001f0: f514 71bd 599c 6b3c 8842 b4bd 4ce4 a53c
00000200: 1928 503d 6dd0 aebd 2a45 673d 2fd4 75bc
00000210: 3265 63bd 7710 0f3b bba6 5a3d c952 3cbd
00000220: bee2 333d beb3 b03c 2ce0 3c3d e073 a7bc
00000230: af36 123d 3844 c6ba 4d21 7e3d 68ea 90bd
00000240: 5031 9dbb 30ed 5d3c ff9e 54bd eb30 f9bb
00000250: 0688 043d f877 223d ec73 fcbb 504e 36bb
00000260: 94db 46bd 6197 4f3d ae5e 25bd cfef aabd
00000270: 6c42 083d 716d babc ea88 203d ae88 823d
00000280: 9d8e 833d ba0f 313d 252e 23bd 8392 72bc
00000290: 1c29 093d 7341 51bd e5ad 3f3d d3ab 843d
000002a0: 3a9f 6dbd 3ce7 9fbc 526a 65bd 4737 6b3b
000002b0: 139c 203d 8b1c 18bd 3489 c13c d4e7 8fbb
000002c0: 4dc9 023d adda 243d 5a7a 5439 c9b3 2bbd
000002d0: d197 383d 6972 4cbd d06c fb3c 25b7 1cbc
000002e0: 6f4f 6b3d e689 54bc d4a5 2dbb 59a9 18bd
000002f0: 1ac0 b23c a600 eabc ffd7 403b 6ad0 143d
00000300: d9bb 68bd f235 49bd d390 633c 1bf6 47bd
00000310: a541 6dbd 3057 753d 395e 2abd 615f 89bc
00000320: dd72 9bbd 634c b33c a598 13bc 187a 3b3b
00000330: 3802 6d3c 0d51 f9ba 7d91 5e37 e7b8 4c3d
00000340: 55cf 1e3c a3ef 983c f3ab a3bd dcc9 15bd
00000350: f85b 50ba 84a3 80bb 0c12 96ba 1c49 05bd
00000360: 09cb b53c ca48 643d da3b c5bc f18e efbb
00000370: b513 91bc cddd 853d 66c8 ccba ef03 81ba
00000380: 2440 513d a26b e2bc 7301 0f3c 2129 cabc
00000390: 3d91 62bd 5fb1 453d 959c 98bc 5fde b6bd
000003a0: 3168 24bd e192 41bb c1df db3c b3cd 143c
000003b0: 1856 b63b d20e 0b3d 2701 97bd ae94 173d
000003c0: 9a61 013b 4d4a 55bb 75ed da3b 43e8 93ba
000003d0: 271f 6ebc 3b2a c83c 45e5 5e3d e616 9e3d
000003e0: 4520 083b c234 b03c 0cdb b43c 6895 29bd
000003f0: fc76 1c3d 1745 333c 8d28 473d 7cf1 80bc

a2c_network.actor_mlp.2.bias f4 [128]
-0.025294237 0.02428921 -0.0065602046 0.030774472 -0.03012422 -0.021852495 -0.020698193 0.02616728
-0.026432578 0.012266376 0.0145492675 0.029591165 0.025723167 -0.027514927 0.025722843 0.025182992
-0.026982553 -0.013991061 0.023911647 -0.028307823 -0.01265028 0.022458527 0.018831251 0.020852348
0.01188262 0.023777666 -0.022249535 -0.03012257 0.03012503 -0.017479325 -0.024016423 -0.016173061
0.024536997 -0.016763324 -0.0053027887 0.03344738 -0.024699552 0.001328105 0.021934614 -0.025891963
-0.018249266 -0.023307059 -0.008345943 -0.025739886 0.022866713 -0.011407728 -0.021137819 0.021402702
0.012550196 -0.026496425 -0.015392776 0.03259458 0.019781485 -0.0075499695 -0.018534468 0.016369067
0.009602595 -0.025541212 -0.026193243 0.026509397 0.014680728 0.023280893 0.012277315 0.025194969
0.028006237 0.023326887 0.030668627 0.019767681 -0.01248183 0.029361708 0.023399808 -0.0071095536
-0.027577288 -0.025681864 -0.0014922258 0.025035508 0.01773352 0.01182459 0.026137056 -0.023721816
0.022387376 -0.026141513 -0.021193631 0.010546691 -0.027920498 0.031215692 -0.02996577 -0.026243832
0.025425592 0.010714615 0.021993015 -0.022023669 0.026878629 0.018393248 0.005493693 -0.018871123
0.025502916 -0.027546596 0.025168449 -0.01388088 -0.016884271 0.024017546 0.028151417 0.022632152
0.026093615 0.03191116 0.00894236 -0.0140762655 -0.022733383 -0.02542807 0.031241193 -0.023026854
-0.022288272 0.015080971 0.010181221 0.026413176 0.019423261 0.007869557 -0.02077046 -0.019289609
-0.022430956 -0.03084717 0.021445729 -0.011082303 -0.018822383 -0.016280701 0.029447533 0.0125405695
00000000: dc35 cfbc 2afa c63c fcf6 d6bb bf1a fc3c
00000010: 11c7 f6bc 0104 b3bc 428f a9bc c35c d63c
00000020: 2289 d8bc e9f8 483c 0d60 6e3c 2c69 f23c
00000030: 64b9 d23c fc66 e1bc b6b8 d23c 904c ce3c
00000040: 840a ddbc c33a 65bc 5ce2 c33c cfe5 e7bc
00000050: 1f43 4fbc f2fa b73c ff43 9a3c 8bd2 aa3c
00000060: 52af 423c 61c9 c23c a844 b6bc 9cc3 f6bc
00000070: c4c8 f63c cd30 8fbc 17be c4bc 5e7d 84bc
00000080: d001 c93c 3d53 89bc 04c3 adbb 1f00 093d
00000090: b756 cabc cf13 ae3a 38b0 b33c 621b d4bc
000000a0: 7c7f 95bc 72ee bebc 6cbd 08bc 74dc d2bc
000000b0: f952 bb3c 7be7 3abc 3829 adbc b854 af3c
000000c0: 569f 4d3c 080f d9bc fb31 7cbc e581 053d
000000d0: c80c a23c bc65 f7bb 99d5 97bc 6c18 863c
000000e0: 3454 1d3c ce3b d1bc 3693 d6bc 3c2a d93c
000000f0: 7087 703c 92b7 be3c cb26 493c ae65 ce3c
00000100: 566d e53c 0718 bf3c c63c fb3c d5ef a13c
00000110: 9780 4cbc f787 f03c f4b0 bf3c 42f7 e8bb
00000120: c4e9 e1bc c662 d2bc ca96 c3ba 4417 cd3c
00000130: e345 913c edbb 413c 611d d63c 4154 c2bc
00000140: bb65 b73c ba26 d6bc 449e adbc 07cc 2c3c
00000150: 87b9 e4bc 0db8 ff3c c67a f5bc 4efd d6bc
00000160: 5549 d03c 5a8c 2f3c b22a b43c fb6a b4bc
00000170: 9230 dc3c 70ad 963c 7004 b43b 9d97 9abc
00000180: 7eeb d03c 66a9 e1bc 102e ce3c a16c 63bc
00000190: e250 8abc 72c0 c43c cd9d e63c 1067 b93c
000001a0: 47c2 d53c 47b5 023d fa82 123c 23a0 66bc
000001b0: 5c3b babc 874e d0bc 88ed ff3c d0a2 bcbc
000001c0: e595 b6bc 2d16 773c 23cf 263c 7260 d83c
000001d0: 881d 9f3c 50ef 003c d026 aabc 3e05 9ebc
000001e0: 20c1 b7bc 34b3 fcbc f4ae af3c 8c92 35bc
000001f0: 6631 9abc 1b5f 85bc f43b f13c f676 4d3c

a2c_network.actor_mlp.4.weight f4 [64, 128]
0.033966936 0.012410049 -0.03252911 0.11171779 0.012567816 0.0023765876 -0.03128338 0.0016004998
-0.08979099 0.07225533 -0.075102314 0.08628778 0.096842766 0.022149071 0.12191509 -0.03985193
-0.013522277 0.062252548 -0.07358969 -0.10399026 0.052017473 0.07318519 0.039718274 0.03022706
0.06261433 0.090949275 -0.06416214 -0.10294035 0.10679334 -0.030198969 -0.024958681 -0.029435588
0.043684922 0.03177772 0.088786416 0.017611288 -0.0019133772 -0.08032165 0.072622 -0.016125951
0.096805476 -0.06151751 -0.014046125 0.057963677 -0.07000116 -0.051405337 0.0060824775 -0.045145944
-0.0534169 -0.0022926494 0.082023375 0.035304707 -0.045369882 -0.068182856 -0.009141439 0.04955062
-0.08938625 0.06908644 -0.02469943 0.078993745 0.033031136 -0.057156324 0.07150301 -0.035927314
0.043158483 -0.011431809 -0.048627898 0.012722104 -0.04090167 0.070344724 -0.018911941 -0.07356246
-0.09202315 -0.07114918 0.09374026 0.11008962 0.028065464 -0.093508676 0.036123835 -0.06266458
0.036312334 0.061653465 0.050620284 8.897672e-06 -0.03593815 -0.010777042 -0.07299815 -0.0551871
0.05390944 0.057791118 0.011211798 0.10236167 0.047466263 -0.056283474 0.10945336 -0.056443166
0.013099664 -0.07204442 0.05126531 -0.0058254167 -0.016240457 -0.019190935 -0.0366409 -0.011347826
0.061409365 -0.005936612 -0.034743227 0.075907506 -0.014745126 0.019706678 0.06866144 -0.059843644
-0.024333443 -0.10523701 0.01731394 0.08875173 -0.08120721 0.02972873 -0.042952493 0.041901946
0.028661922 -0.005343409 0.020381281 0.006951226 -0.025824437 -0.07999996 0.09034422 0.031959258
8.9922396e-05 0.00874427 -0.02846211 -0.1024105 0.070382275 -0.049867418 -0.019970866 -0.050158728
0.0818028 -0.043070972 0.028406056 -0.011084287 0.05907425 0.0991605 0.016394615 -0.025986586
0.060869172 0.015713517 -0.07678695 0.009607976 0.04543139 -0.07846496 -0.047689732 -0.046283234
0.06483785 -0.08557258 0.002582473 -0.050570644 0.053644206 -0.05250112 0.048555568 -0.045335874
-0.042032007 -0.00555696 -0.0058654975 -0.07107635 -0.05980164 -0.058587488 -0.055574726 0.0610097
0.027287824 -0.052810706 -0.05281531 0.07352851 -0.09287606 0.06908401 0.015266314 -0.074933365
0.03811434 0.06874725 0.041567188 -0.042140014 -0.036686182 -0.0020092027 -0.06267015 0.02586674
-0.047576487 0.008072265 -0.0053207767 0.048446782 -0.10008633 -0.069908835 0.040086567 -0.04690309
0.053159934 -0.07420671 0.007822202 0.020086933 0.09171524 0.044482976 0.025790818 -0.012098094
0.031970445 0.06557985 -0.06482418 -0.09845974 0.006965599 -0.073752806 -0.0022528968 0.014661394
0.05697507 0.07765011 -0.07921795 0.09309101 -0.051631883 -0.0951501 -0.01075376 0.028664168
-0.019937875 -0.005840349 -0.005931478 -0.025595773 -0.043910317 0.042467248 0.01106637 -0.01679826
0.026330624 0.06692666 -0.016171627 -0.018758958 0.07583112 -0.009676217 0.051188182 0.07553919
-0.09738296 -0.034824118 -0.06976884 0.018450787 0.06741096 0.05130132 -0.04253604 0.03876307
0.062473655 -0.043557838 0.048255727 -0.01825208 0.021637773 -0.013715054 0.060751595 0.043835655
-0.0008163458 0.018277477 -0.07671013 -0.085245244 -0.022965984 -0.051613245 -0.02144165 0.06962901
00000000: ea20 0b3d 8553 4b3c 3e3d 05bd 4ccc e43d
00000010: 3ee9 4d3c 86c0 1b3b 0023 00bd ddc7 d13a
00000020: 57e4 b7bd 9afa 933d 3ecf 99bd a6b7 b03d
00000030: 8055 c63d f871 b53c 9eae f93d c73b 23bd
00000040: 8a8c 5dbc 87fc 7e3d 31b6 96bd d8f8 d4bd
00000050: 4610 553d 1ee2 953d a1af 223d bd9e f73c
00000060: f13b 803d 9d43 ba3d 7167 83bd 64d2 d2bd
00000070: 77b6 da3d d463 f7bc 2676 ccbc e722 f1bc
00000080: f6ee 323d 5b29 023d a7d5 b53d 8c45 903c
00000090: 49ca faba ad7f a4bd d8ba 943d 921a 84bc
000000a0: f341 c63d c9f9 7bbd b821 66bc 526b 6d3d
000000b0: c55c 8fbd 678e 52bd 854f c73b f4ea 38bd
000000c0: aecb 5abd 4640 16bb dffb a73d ab9b 103d
000000d0: c5d5 39bd 74a3 8bbd f9c5 15bc 97f5 4a3d
000000e0: 2310 b7bd 317d 8d3d 7656 cabc 79c7 a13d
000000f0: a84b 073d c01c 6abd 2c70 923d 8528 13bd
00000100: f3c6 303d 7b4c 3bbc 0c2e 47bd 5f70 503c
00000110: 8288 27bd e510 903d 37ed 9abc eaa7 96bd
00000120: a276 bcbd a9b6 91bd e5fa bf3d ab76 e13d
00000130: 8be9 e53c 7a81 bfbd 96f6 133d 4a56 80bd
00000140: 3ebc 143d 5888 7c3d 3757 4f3d 3647 1537
00000150: e233 13bd 3192 30bc 0e80 95bd de0b 62bd
00000160: 25d0 5c3d 61b6 6c3d b0b1 373c ffa2 d13d
00000170: fc6b 423d 8089 66bd 1529 e03d f330 67bd
00000180: f99f 563c 068c 93bd 93fb 513d 23e3 bebb
00000190: b50a 85bc 4f36 9dbc c514 16bd 3bec 39bc
000001a0: 6388 7b3d e987 c2bb ea4e 0ebd 6575 9b3d
000001b0: 8a95 71bc e66f a13c 5e9e 8c3d 9c1e 75bd
000001c0: ee56 c7bc 8086 d7bd f7d5 8d3c 78c3 b53d
000001d0: f74f a6bd aa89 f33c f4ee 2fbd 60a1 2b3d
000001e0: 68cc ea3c c317 afbb a5f6 a63c 1cc7 e33b
000001f0: c58d d3bc 05d7 a3bd 6406 b93d b6e7 023d
00000200: b894 bc38 2044 0f3c 5f29 e9bc 99bc d1bd
00000210: 9524 903d c741 4cbd f199 a3bc 3d73 4dbd
00000220: 3a88 a73d 306b 30bd d1b3 e83c df9a 35bc
00000230: d7f7 713d a914 cb3d 004e 863c d2e1 d4bc
00000240: f451 793d a2b9 803c 7a42 9dbd c66a 1d3c
00000250: 4416 3a3d 3db2 a0bd 4f56 43bd 7d93 3dbd
00000260: b5c9 843d ad40 afbd b53e 293b 2a23 4fbd
00000270: 07ba 5b3d 6a0b 57bd 34e2 463d 1cb2 39bd
00000280: c129 2cbd 2917 b6bb 5c33 c0bb 7a90 91bd
00000290: 91f2 74bd 6ff9 6fbd 53a2 63bd 4fe5 793d
000002a0: b78a df3c 0a50 58bd de54 58bd 1e96 963d
000002b0: ce35 bebd eb7b 8d3d 901f 7a3c aa76 99bd
000002c0: c81d 1c3d 5ccb 8c3d 5b42 2a3d 029b 2cbd
000002d0: 4044 16bd d4ac 03bb 3559 80bd 7ce6 d33c
000002e0: 90df 42bd 8941 043c e959 aebb 2270 463d
000002f0: 10fa ccbd 5d2c 8fbd d031 243d 741d 40bd
00000300: 3bbe 593d b0f9 97bd b128 003c 5a8d a43c
00000310: 33d5 bb3d c833 363d 4447 d33c 1637 46bc
00000320: 71f3 023d ba4e 863d 8ac2 84bd 43a5 c9bd
00000330: ae3f e43b b60b 97bd 56a5 13bb 5836 703c
00000340: b15e 693d 0507 9f3d 053d a2bd 80a6 be3d
00000350: f47b 53bd 0ede c2bd 8a30 30bc 1ed1 ea3c
00000360: c154 a3bc 6660 bfbb d85c c2bb 3aae d1bc
00000370: 4edb 33bd 23f2 2d3d b84f 353c 819c 89bc
00000380: 52b3 d73c d810 893d 5c7a 84bc 63ac 99bc
00000390: 594d 9b3d ff88 1ebc b3aa 513d 4ab4 9a3d
000003a0: b870 c7bd bca3 0ebd f7e2 8ebd 1b26 973c
000003b0: c20e 8a3d 5521 523d 453a 2ebd 06c6 1e3d
000003c0: 60e4 7f3d b469 32bd cca7 453d 6385 95bc
000003d0: b341 b13c 1bb5 60bc aad6 783d 048d 333d
000003e0: 0a00 56ba a6ba 953c 331a 9dbd 0f95 aebd
000003f0: 2923 bcbc 6968 53bd 66a6 afbc a899 8e3d

a2c_network.actor_mlp.4.bias f4 [64]
0.029701823 -0.027701283 -0.027769372 -0.02566631 0.0175468 -0.024090784 -0.01594918 -0.000207158
-0.009804789 -0.031962752 -0.02777012 0.029010765 -0.014221833 -0.02934892 -0.0279936 0.024589028
-0.023073934 0.031386882 0.02518015 -0.023873277 0.020103158 -0.024065793 -0.006524476 -0.025175542
0.020516027 -0.023739543 -0.0091162305 0.03299798 -0.026762506 -0.017421998 0.035625294 -0.016610676
0.025321487 -0.026130456 -0.02997541 -0.019744672 -0.026982075 -0.027892139 0.027725238 -0.030518359
0.027009843 -0.031838343 0.027537674 -0.00884008 0.026103582 0.025368417 0.028236194 0.027203275
0.019431753 -0.023425553 0.034892112 -0.027251212 -0.029549723 0.025535429 0.0051618693 0.023034018
0.019173928 0.022097513 -0.025580438 0.023098597 -0.022951 -0.011554531 -0.030437952 -0.014564909
00000000: 3d51 f33c cded e2bc 987c e3bc 2742 d2bc
00000010: 4fbe 8f3c 095a c5bc dba7 82bc 8d38 59b9
00000020: 44a4 20bc 60eb 02bd 2a7e e3bc fca7 ed3c
00000030: b102 69bc 256d f0bc d652 e5bc ee6e c93c
00000040: 8c05 bdbc 888f 003d 9a46 ce3c e491 c3bc
00000050: 61af a43c a025 c5bc 46cb d5bb f03c cebc
00000060: 3a11 a83c 6e79 c2bc 3e5c 15bc e428 073d
00000070: 0b3d dbbc 94b8 8ebc d4eb 113d 1d13 88bc
00000080: 026f cf3c 8a0f d6bc fe8e f5bc 94bf a1bc
00000090: 8309 ddbc 0e7e e4bc 0a20 e33c a301 fabc
000000a0: bf43 dd3c ec68 02bd b096 e13c fcd5 10bc
000000b0: 2ed7 d53c 6dd1 cf3c 974f e73c 67d9 de3c
000000c0: 572f 9f3c f2e6 bfbc 08eb 0e3d ef3d dfbc
000000d0: 4312 f2bc ad2f d13c e624 a93b d6b1 bc3c
000000e0: a412 9d3c d805 b53c 118e d1bc 4539 bd3c
000000f0: bc03 bcbc 374f 3dbc 0359 f9bc a8a1 6ebc

a2c_network.value.weight f4 [1, 64]
-0.083117925 0.08628908 0.10862665 0.039341297 -0.0070662335 0.08603972 0.0647299 0.010883034
0.038195875 0.10245553 0.1138732 -0.07686101 0.029792685 0.13369767 0.086200215 -0.081930004
0.12816721 -0.12149161 -0.06979471 0.043517493 -0.05188212 0.068054914 0.024873015 0.14087899
-0.038811643 0.11232387 0.023352595 -0.13371417 0.09560884 0.10261865 -0.13462828 0.035132434
-0.071937546 0.100324154 0.07658865 0.05095504 0.132723 0.13996822 -0.08735761 0.122010164
-0.045498952 0.14367287 -0.11700113 -0.015178082 -0.08642061 -0.13731328 -0.14272653 -0.10572182
-0.047406137 0.09517547 -0.15333827 0.08535824 0.10313316 -0.05574555 -0.00899898 -0.06528633
-0.04773584 -0.07395109 0.100235246 -0.08193633 0.09859538 0.05573187 0.13551693 0.029382288
00000000: bb39 aabd 54b8 b03d a677 de3d 5724 213d
00000010: dd8b e7bb 9835 b03d 1c91 843d c14e 323c
00000020: 4773 1c3d 34d4 d13d 5a36 e93d 4e69 9dbd
00000030: ca0f f43c 0be8 083e bd89 b03d ebca a7bd
00000040: 443e 033e 98d0 f8bd 87f0 8ebd 663f 323d
00000050: 5982 54bd 6060 8b3d 7ec2 cb3c 9542 103e
00000060: f5f8 1ebd 0f0a e63d f14d bf3c 5eec 08be
00000070: 91ce c33d ba29 d23d ffdb 09be 07e7 0f3d
00000080: fe53 93bd c076 cd3d 83da 9c3d 3bb6 503d
00000090: 8ae8 073e d453 0f3e 8ce8 b2bd 77e0 f93d
000000a0: 1c5d 3abd fb1e 133e 4a9e efbd 7dad 78bc
000000b0: 4afd b0bd da9b 0cbe e726 12be ae84 d8bd
000000c0: f02c 42bd 5beb c23d b504 1dbe 4dd0 ae3d
000000d0: 7a37 d33d 7255 64bd 7570 13bc d7b4 85bd
000000e0: a886 43bd ab73 97bd 2348 cd3d 3cce a7bd
000000f0: 60ec c93d 1a47 643d f3c4 0a3e 20b3 f03c

a2c_network.mu.weight f4 [24, 64]
-0.077436484 -0.02718262 -0.033586215 -0.090051465 -0.037576184 0.114710785 0.026985835 0.097446986
0.026830887 0.058319636 -0.1101266 0.013496531 0.054512892 -0.012114849 -0.055876654 -0.0040320144
-0.09300181 0.06840894 0.033581454 -0.11246617 0.050714836 -0.12523764 0.041820887 -0.08186427
-0.09521055 0.025475254 0.0057504876 0.11856132 -0.06901259 0.1339571 0.045075398 0.032469053
0.035454653 0.018759407 0.05714724 0.012863593 0.09244079 -0.11700314 -0.03866483 -0.057135716
-0.0666492 -0.10623977 -0.07433485 0.018760556 -0.033651855 -0.09631323 0.06673 0.104051605
0.05613839 -0.06266287 0.1412224 -0.005471449 -0.0180528 0.015273437 0.11747038 -0.043694697
-0.087393485 0.0383829 -0.08881272 -0.052544616 0.0040464634 0.11605995 -0.057451766 -0.017575966
-0.11063876 0.072468646 -0.09617798 0.0022133545 0.03701571 -0.024289757 0.05229687 0.013484171
-0.051276952 -0.102036275 0.11748213 -0.10556317 -0.04843088 0.0633084 -0.021486491 -0.04177612
0.03317014 -0.016693221 0.056033496 -0.047123123 0.0077777067 -0.11592374 -0.017946227 0.106227204
0.056165397 0.013678533 0.03178985 0.11125042 -0.02547196 0.084803596 0.10650873 -0.011810828
0.057256468 0.038896643 -0.043735217 -0.08388589 -0.022076117 0.10380332 0.060479596 0.09814383
-0.075883314 -0.11379957 -0.038876142 -0.11168888 0.0816283 -0.034191065 -0.079361916 -0.021320868
-0.02765297 0.018277382 0.065678276 -0.07862676 0.049903743 -0.0029021006 0.0795099 0.0012743047
0.045397382 -0.119159006 0.082167536 0.07308403 0.113729686 0.031430807 0.0022803189 0.12948388
-0.06538207 -0.03918036 0.0070483224 -0.09577801 0.1100753 0.088702686 0.098877795 0.073638014
0.057398085 0.005206273 0.046797596 0.04289372 -0.013825959 -0.024132026 -0.014223211 -0.10308326
0.058522712 0.13357525 0.049450148 -0.0040383427 -0.012944342 -0.12116531 -0.13911228 -0.093767725
-0.052600894 -0.10190435 0.041598 0.15172186 -0.049864702 0.10211651 0.09676363 0.086039335
0.088225 0.07650121 0.085449316 -0.053558405 0.012116957 0.057982042 -0.078747176 -0.09940131
0.10097592 -0.08310798 -0.07774559 -0.0049712663 0.01902386 -0.041839443 -0.06735196 -0.087103754
-0.05771981 0.127708 0.05986098 -0.09567565 0.086718 0.07659498 0.042047225 0.022031408
-0.09329419 -0.04952588 0.10748282 -0.084560975 0.029488806 0.101685 -0.10152051 -0.008075257
0.06607485 0.100709155 -0.08627253 -0.08483253 0.04355389 0.047915775 0.11724426 0.07586923
0.11727984 0.10262906 -0.054558374 0.09173321 0.07477723 -0.071706556 -0.061208326 0.03286882
0.074904054 0.046136905 -0.06282423 -0.11669049 0.032080866 -0.092752375 0.014774381 0.0091605075
0.13162401 0.09945574 0.13360338 0.10821001 -0.11346643 0.1112162 0.12343022 0.08175814
0.018969297 -0.09185289 -0.11794236 0.12347182 0.017721465 -0.119654514 0.09612675 0.09276945
0.04227063 0.055619963 -0.12547426 -0.048747588 -0.10738897 -0.11306285 0.021089695 -0.012961489
-0.022817759 0.020648599 0.08757479 0.08264057 -0.084514275 0.07922098 -0.0050408114 0.086086206
-0.07380418 -0.09653068 0.025296152 -0.033988155 0.027746629 -0.0076534264 -0.04913286 -0.0949522
00000000: 0597 9ebd 16ae debc b391 09bd e76c b8bd
00000010: 7ce9 19bd 7ded ea3d 6611 dd3c 4992 c73d
00000020: 73cc db3c 92e0 6e3d 0e8a e1bd 8e20 5d3c
00000030: e948 5f3d 5c7d 46bc ebde 64bd fd1e 84bb
00000040: bc77 bebd fd19 8c3d b58c 093d aa54 e6bd
00000050: 5cba 4f3d 4c3e 00be 614c 2b3d 74a8 a7bd
00000060: c0fd c2bd 7bb1 d03c 966e bc3b 47d0 f23d
00000070: 7956 8dbd 0d2c 093e fba0 383d 45fe 043d
00000080: e638 113d 54ad 993c 3913 6a3d d2c1 523c
00000090: 9951 bd3d 589f efbd 035f 1ebd 2407 6abd
000000a0: 607f 88bd 3d94 d9bd df3c 98bd bdaf 993c
000000b0: 87d6 09bd df3f c5bd bda9 883d 0219 d53d
000000c0: 5ef1 653d 6455 80bd 9b9c 103e d749 b3bb
000000d0: 77e3 93bc 703d 7a3c 5094 f03d 36f9 32bd
000000e0: 5bfb b2bd 6337 1d3d 71e3 b5bd 0639 57bd
000000f0: 3298 843b d7b0 ed3d 8b52 6bbd 79fb 8fbc
00000100: 9396 e2bd 716a 943d f6f8 c4bd ed0d 113b
00000110: c99d 173d 50fb c6bc 3e35 563d b6ec 5c3c
00000120: c807 52bd 65f8 d0bd 799a f03d 8131 d8bd
00000130: 755f 46bd d6a7 813d 7004 b0bc 701d 2bbd
00000140: 6add 073d 39c0 88bc 6183 653d 2d04 41bd
00000150: 22dc fe3b 6d69 edbd f703 93bc a68d d93d
00000160: b00d 663d ed1b 603c 1336 023d 43d7 e33d
00000170: 92aa d0bc 82ad ad3d 4021 da3d 3482 41bc
00000180: c285 6a3d 1652 1f3d b323 33bd 5ecc abbd
00000190: f9d8 b4bc d696 d43d 74b9 773d a2ff c83d
000001a0: b668 9bbd c00f e9bd 973c 1fbd 24bd e4bd
000001b0: bd2c a73d ee0b 0cbd 8088 a2bd 1aa9 aebc
000001c0: 7b88 e2bc 73ba 953c 5582 863d 1107 a1bd
000001d0: de67 4c3d 2b31 3ebb 16d6 a23d 9206 a73a
000001e0: 9bf2 393d a309 f4bd 7447 a83d 14ad 953d
000001f0: 1ceb e83d 97bd 003d 6771 153b 6c97 043e
00000200: 09e7 85bd 967b 20bd 9df5 e63b 4327 c4bd
00000210: 296f e13d c1a9 b53d 7180 ca3d 87cf 963d
00000220: 411a 6b3d 6299 aa3b d6ae 3f3d 53b1 2f3d
00000230: 4686 62bc 87b0 c5bc 7908 69bc 511d d3bd
00000240: 83b5 6f3d f3c7 083e 3d8c 4a3d 1354 84bb
00000250: 8114 54bc 8525 f8bd 7373 0ebe 4b09 c0bd
00000260: 0974 57bd 3ab3 d0bd aa62 2a3d fa5c 1b3e
00000270: ee3e 4cbd 7622 d13d 032c c63d 6435 b03d
00000280: 4faf b43d abac 9c3d 0d00 af3d 0f60 5bbd
00000290: 3486 463c 947e 6d3d 3346 a1bd ea92 cbbd
000002a0: 77cc ce3d 8434 aabd 1439 9fbd 01e6 a2bb
000002b0: edd7 9b3c d65f 2bbd d3ef 89bd 7463 b2bd
000002c0: 9c6b 6cbd e3c5 023e c930 753d 98f1 c3bd
000002d0: 3599 b13d d4dd 9c3d b639 2c3d 367b b43c
000002e0: 0611 bfbd a6db 4abd f41f dc3d 4e2e adbd
000002f0: 8292 f13c 3a40 d03d fce9 cfbd 154e 04bc
00000300: 4052 873d 9a40 ce3d a7af b0bd adbc adbd
00000310: 9065 323d 5543 443d c21d f03d 5461 9b3d
00000320: 6a30 f03d 2f2f d23d 9a78 5fbd 9fde bb3d
00000330: ce24 993d e3da 92bd 95b5 7abd 75a1 063d
00000340: 4c67 993d 0dfa 3c3d fda9 80bd 6cfb eebd
00000350: 3a67 033d f5f4 bdbd 3f10 723c f415 163c
00000360: 72c8 063e 73af cb3d 53cf 083e 369d dd3d
00000370: 1661 e8bd 52c5 e33d fcc8 fc3d d070 a73d
00000380: 8065 9b3c 5e1d bcbd c48b f1bd cbde fc3d
00000390: 9b2c 913c 6d0d f5bd 1ade c43d e9fd bd3d
000003a0: f823 2d3d c2d1 633d 537c 00be 8dab 47bd
000003b0: c0ee dbbd 7f8d e7bd 4cc4 ac3c 6d5c 54bc
000003c0: 4fec babc 4027 a93c 695a b33d 763f a93d
000003d0: d215 adbd 9c3e a23d 642d a5bb f74d b03d
000003e0: a526 97bd e1b1 c5bd e039 cf3c 2a37 0bbd
000003f0: e64c e33c 98c9 fabb 8a3f 49bd 4d76 c2bd

a2c_network.mu.bias f4 [24]
0.01538929 -0.007993409 0.013385704 0.016345536 0.022165962 -3.3464297e-05 0.021276899 0.022310492
-0.014338605 0.020922791 -0.007305429 -0.011887337 -0.0063546775 -0.025150802 0.0071876757 0.010849623
-0.018488675 -0.013215181 0.009918136 -0.0151343355 0.014811214 0.009591175 -0.014790878 -0.00439624
00000000: 5c23 7c3c caf6 02bc b64f 5b3c 13e7 853c
00000010: 6495 b53c 045c 0cb8 e44c ae3c 7ec4 b63c
00000020: 78ec 6abc 4666 ab3c 6162 efbb 1bc3 42bc
00000030: e63a d0bb 0e09 cebc 9886 eb3b 9ec2 313c
00000040: 9075 97bc 7d84 58bc ad7f 223c 01f6 77bc
00000050: bcaa 723c 4e24 1d3c 7055 72bc 560e 90bb

exp_avg f4 [24]
-0.012932399 0.004414072 0.0026541247 0.0022794975 0.011253685 0.0057516093 -0.0034875215 0.005223037
-0.0048970487 0.0032995292 -0.00050951407 -0.007295424 -0.00072540215 -0.006808447 -0.004036144 -0.0055465586
-0.0027191576 -0.017080626 0.010966964 0.0075202147 -0.0027097405 0.007203484 -0.00036737052 0.00047907146
00000000: 6ae2 53bc eba3 903b d3f0 2d3b 9f63 153b
00000010: 6061 383c ff77 bc3b e78e 64bb 0326 ab3b
00000020: 6c77 a0bb ea3c 583b e990 05ba 740e efbb
00000030: ea28 3eba 6519 dfbb a141 84bb e8bf b5bb
00000040: e533 32bb abec 8bbc c8ae 333c 226c f63b
00000050: e795 31bb 340b ec3b a39b c0b9 e22b fb39

exp_avg_sq f4 [24]
0.00040064953 0.00050246605 0.0006544323 0.0006849801 0.0006316633 0.00051551126 0.00051562476 0.0005739195
0.0006044916 0.0003037577 0.00071471144 0.00039957027 0.0005420911 0.00060647924 0.0005685098 0.00051695557
0.0004933143 0.0006006645 0.00034393554 0.0006126717 0.0006024316 0.0005156358 0.00044948052 0.0005408743
00000000: 450e d239 edb7 033a 358e 2b3a 3d90 333a
00000010: 3596 253a 6023 073a fe2a 073a 1673 163a
00000020: bf76 1e3a ab41 9f39 795b 3b3a 6a7d d139
00000030: 1e1b 0e3a 22fc 1e3a 0c08 153a 4d84 073a
00000040: c351 013a ea75 1d3a 3f52 b439 b49b 203a
00000050: 80ec 1d3a bc2b 073a 41a8 eb39 76c9 0d3a

exp_avg f4 [256, 39]
0.0 8.928892e-06 8.49441e-06 4.5358906e-06 3.7706427e-06 1.0319152e-05 4.5358906e-06 0.00054590125
0.004399633 4.5358906e-06 0.00488303 0.0037757526 0.0 7.4114146e-06 0.0 0.0
0.0 0.0 0.0 0.0 0.004656417 0.0027564778 1.112225e-05 0.0
0.0 0.0 0.0 0.0 0.0 0.0 0.0 0.0
0.0 0.0 0.0 0.0 0.0 0.0 1.2341125e-06 0.0
1.9277759e-05 1.8339475e-05 9.792867e-06 8.14079e-06 2.2279215e-05 9.792867e-06 0.001178569 0.009490332
9.792867e-06 0.010530372 0.008146699 0.0 1.6001164e-05 0.0 0.0 0.0
0.0 0.0 0.0 0.010043018 0.0059493757 2.4013734e-05 0.0 0.0
0.0 0.0 0.0 0.0 0.0 0.0 0.0 0.0
0.0 0.0 0.0 0.0 0.0 2.6644043e-06 0.0 -1.50718615e-05
-1.4338492e-05 -7.656604e-06 -6.364851e-06 -1.7418588e-05 -7.656604e-06 -0.0009203375 -0.0074268132 -7.656604e-06
-0.0082419375 -0.006373613 0.0 -1.2510456e-05 0.0 0.0 0.0 0.0
0.0 0.0 -0.0078606205 -0.0046530967 -1.8774175e-05 0.0 0.0 0.0
0.0 0.0 0.0 0.0 0.0 0.0 0.0 0.0
0.0 0.0 0.0 0.0 -2.0831912e-06 0.0 -2.8014314e-05 -2.6650794e-05
-1.4230898e-05 -1.1830134e-05 -3.2376116e-05 -1.4230898e-05 -0.0017129986 -0.013789042 -1.4230898e-05 -0.015299708
-0.011837371 0.0 -2.3252778e-05 0.0 0.0 0.0 0.0 0.0
0.0 -0.014591654 -0.008645068 -3.4896748e-05 0.0 0.0 0.0 0.0
0.0 0.0 0.0 0.0 0.0 0.0 0.0 0.0
0.0 0.0 0.0 -3.8718827e-06 0.0 -4.6186847e-06 -4.39414e-06 -2.3466043e-06
-1.950662e-06 -5.337926e-06 -2.3466043e-06 -0.0002824628 -0.0022864793 -2.3466043e-06 -0.002541008 -0.0019596233
0.0 -3.834085e-06 0.0 0.0 0.0 0.0 0.0 0.0
-0.0024214475 -0.0014282758 -5.7528828e-06 0.0 0.0 0.0 0.0 0.0
0.0 0.0 0.0 0.0 0.0 0.0 0.0 0.0
0.0 0.0 -6.384711e-07 0.0 1.5629686e-05 1.4868959e-05 7.939682e-06 6.600235e-06
1.8063167e-05 7.939682e-06 0.0009554707 0.007693769 7.939682e-06 0.008536659 0.006604657 0.0
1.2973139e-05 0.0 0.0 0.0 0.0 0.0 0.0 0.008141743
0.0048233974 1.946941e-05 0.0 0.0 0.0 0.0 0.0 0.0
0.0 0.0 0.0 0.0 0.0 0.0 0.0 0.0
0.0 2.1601968e-06 0.0 -4.94055e-06 -4.7002095e-06 -2.5099018e-06 -2.0864443e-06 -5.7098437e-06
-2.5099018e-06 -0.00030166432 -0.0024366577 -2.5099018e-06 -0.0027047195 -0.002090587 0.0 -4.101006e-06
0.0 0.0 0.0 0.0 0.0 0.0 -0.0025792988 -0.0015257776
00000000: 0000 0000 4dcd 1537 3783 0e37 0133 9836
00000010: 260b 7d36 6c20 2d37 0133 9836 d01a 0f3a
00000020: cc2a 903b 0133 9836 d301 a03b 9e72 773b
00000030: 0000 0000 91af f836 0000 0000 0000 0000
00000040: 0000 0000 0000 0000 0000 0000 0000 0000
00000050: db94 983b 06a6 343b b399 3a37 0000 0000
00000060: 0000 0000 0000 0000 0000 0000 0000 0000
00000070: 0000 0000 0000 0000 0000 0000 0000 0000
00000080: 0000 0000 0000 0000 0000 0000 0000 0000
00000090: 0000 0000 0000 0000 c8a3 a535 0000 0000
000000a0: acb6 a137 b9d7 9937 0b4c 2437 6d94 0837
000000b0: 40e4 ba37 0b4c 2437 377a 9a3a 567d 1b3c
000000c0: 0b4c 2437 9587 2c3c bb79 053c 0000 0000
000000d0: 3d3a 8637 0000 0000 0000 0000 0000 0000
000000e0: 0000 0000 0000 0000 0000 0000 788b 243c
000000f0: fbf2 c23b 1a71 c937 0000 0000 0000 0000
00000100: 0000 0000 0000 0000 0000 0000 0000 0000
00000110: 0000 0000 0000 0000 0000 0000 0000 0000
00000120: 0000 0000 0000 0000 0000 0000 0000 0000
00000130: 0000 0000 1ece 3236 0000 0000 27dd 7cb7
00000140: 5b8f 70b7 dd74 00b7 a791 d5b6 221e 92b7
00000150: dd74 00b7 ce42 71ba a05c f3bb dd74 00b7
00000160: 3109 07bc bed9 d0bb 0000 0000 00e4 51b7
00000170: 0000 0000 0000 0000 0000 0000 0000 0000
00000180: 0000 0000 0000 0000 d5c9 00bc 0179 98bb
00000190: 3c7d 9db7 0000 0000 0000 0000 0000 0000
000001a0: 0000 0000 0000 0000 0000 0000 0000 0000
000001b0: 0000 0000 0000 0000 0000 0000 0000 0000
000001c0: 0000 0000 0000 0000 0000 0000 0000 0000
000001d0: f4cc 0bb6 0000 0000 4800 ebb7 2590 dfb7
000001e0: 3ec1 6eb7 0a7a 46b7 97cb 07b8 3ec1 6eb7
000001f0: b286 e0ba 6feb 61bc 3ec1 6eb7 a0ab 7abc
00000200: 88f1 41bc 0000 0000 f60e c3b7 0000 0000
00000210: 0000 0000 0000 0000 0000 0000 0000 0000
00000220: 0000 0000 d511 6fbc 0ba4 0dbc 195e 12b8
00000230: 0000 0000 0000 0000 0000 0000 0000 0000
00000240: 0000 0000 0000 0000 0000 0000 0000 0000
00000250: 0000 0000 0000 0000 0000 0000 0000 0000
00000260: 0000 0000 0000 0000 0000 0000 38eb 81b6
00000270: 0000 0000 33fa 9ab6 6071 93b6 5b7a 1db6
00000280: 1ee8 02b6 6f1c b3b6 5b7a 1db6 8417 94b9
00000290: c2d8 15bb 5b7a 1db6 0a87 26bb 066d 00bb
000002a0: 0000 0000 8aa6 80b6 0000 0000 0000 0000
000002b0: 0000 0000 0000 0000 0000 0000 0000 0000
000002c0: 26b1 1ebb fc34 bbba e308 c1b6 0000 0000
000002d0: 0000 0000 0000 0000 0000 0000 0000 0000
000002e0: 0000 0000 0000 0000 0000 0000 0000 0000
000002f0: 0000 0000 0000 0000 0000 0000 0000 0000
00000300: 0000 0000 0000 0000 6663 2bb5 0000 0000
00000310: 7f1c 8337 b175 7937 ad34 0537 9677 dd36
00000320: 5b86 9737 ad34 0537 8e78 7a3a 031c fc3b
00000330: ad34 0537 58dd 0b3c e16b d83b 0000 0000
00000340: 35a7 5937 0000 0000 0000 0000 0000 0000
00000350: 0000 0000 0000 0000 0000 0000 f264 053c
00000360: 970d 9e3b 3d52 a337 0000 0000 0000 0000
00000370: 0000 0000 0000 0000 0000 0000 0000 0000
00000380: 0000 0000 0000 0000 0000 0000 0000 0000
00000390: 0000 0000 0000 0000 0000 0000 0000 0000
000003a0: 0000 0000 e6f7 1036 0000 0000 00c7 a5b6
000003b0: 7eb6 9db6 c96f 28b6 d704 0cb6 2f97 bfb6
000003c0: c96f 28b6 b328 9eb9 55b0 1fbb c96f 28b6
000003d0: aa41 31bb 3b02 09bb 0000 0000 609b 89b6
000003e0: 0000 0000 0000 0000 0000 0000 0000 0000
000003f0: 0000 0000 0000 0000 7409 29bb 9afc c7ba
