runs/lift_30-14-38-49/nn/last_liftep150rew-inf.pth (torch, 653917 bytes, 36 tensors)

value_mean_std.running_mean f8 [1]
00000000: 2cd1 40c5 5214 a2c0
-2314.161661172422

value_mean_std.running_var f8 [1]
00000000: 09b8 6559 39b8 5341
5169381.396833428

value_mean_std.count f8 []
00000000: 0000 0000 08c0 0241
153601.0

running_mean_std.running_mean f8 [39]
00000000: 0000 0000 0000 0000 3532 3085 ebff f73f
00000010: 0333 3ba0 bacc f43f 3c98 95b1 e4ff df3f
00000020: ea47 ab47 8399 d93f 577e f2d3 1f33 0740
00000030: 3c98 95b1 e4ff df3f ec7a 9801 ef65 f83f
00000040: 7ecc 3c33 7107 ff3f 3c98 95b1 e4ff df3f
00000050: b8ce b9e8 eeff e33f 9c4c 7bfb eeff e33f
00000060: 0000 0000 0000 0000 3c98 95b1 e4ff ef3f
00000070: 0000 0000 0000 0000 0000 0000 0000 0000
00000080: 0000 0000 0000 0000 0000 0000 0000 0000
00000090: 0000 0000 0000 0000 0000 0000 0000 0000
000000a0: 40ff f167 2876 6dbf 95f3 3f1e 8d50 3f3f
000000b0: d686 0062 a79e 2340 0000 0000 0000 0000
000000c0: 0000 0000 0000 0000 0000 0000 0000 0000
000000d0: 0000 0000 0000 0000 0000 0000 0000 0000
000000e0: 0000 0000 0000 0000 0000 0000 0000 0000
000000f0: 0000 0000 0000 0000 0000 0000 0000 0000
00000100: 0000 0000 0000 0000 0000 0000 0000 0000
00000110: 0000 0000 0000 0000 0000 0000 0000 0000
00000120: 0000 0000 0000 0000 0000 0000 0000 0000
00000130: 3c98 95b1 e4ff bf3f
0.0 1.499980469004311 1.299982667830762 0.4999934896681031 0.39999467848713144 2.8999630506876133 0.4999934896681031 1.5248861372307898
1.939316940447298 0.4999934896681031 0.6249918504167544 0.624991885352205 0.0 0.9999869793362062 0.0 0.0
0.0 0.0 0.0 0.0 -0.0035963811092755427 0.00047782368915232884 9.809870779575629 0.0
0.0 0.0 0.0 0.0 0.0 0.0 0.0 0.0
0.0 0.0 0.0 0.0 0.0 0.0 0.12499837241702577

running_mean_std.running_var f8 [39]
00000000: dd81 c067 6a4e eb3e 8552 f158 a92f 063f
00000010: 2824 32a4 035d 023f 4fda 3597 ff10 f13e
00000020: 664d 98f0 ddac ef3e 2e00 0142 310f 203f
00000030: 4fda 3597 ff10 f13e 1aa6 0f18 f319 fa3f
00000040: d211 e0e7 b3ed f63f 4fda 3597 ff10 f13e
00000050: 2447 ef71 c5ba df3f 4677 17b7 96fb de3f
00000060: dd81 c067 6a4e eb3e 5ca6 36c1 5e4e fb3e
00000070: dd81 c067 6a4e eb3e dd81 c067 6a4e eb3e
00000080: dd81 c067 6a4e eb3e dd81 c067 6a4e eb3e
00000090: dd81 c067 6a4e eb3e dd81 c067 6a4e eb3e
000000a0: 718a 18af 35e8 f23f dbcd 28af 47d8 f13f
000000b0: 4d20 2895 3fbe 543f dd81 c067 6a4e eb3e
000000c0: dd81 c067 6a4e eb3e dd81 c067 6a4e eb3e
000000d0: dd81 c067 6a4e eb3e dd81 c067 6a4e eb3e
000000e0: dd81 c067 6a4e eb3e dd81 c067 6a4e eb3e
000000f0: dd81 c067 6a4e eb3e dd81 c067 6a4e eb3e
00000100: dd81 c067 6a4e eb3e dd81 c067 6a4e eb3e
00000110: dd81 c067 6a4e eb3e dd81 c067 6a4e eb3e
00000120: dd81 c067 6a4e eb3e dd81 c067 6a4e eb3e
00000130: 1f35 2bb4 a3bb eb3e
1.3020663793440166e-05 4.2316775868887976e-05 3.5025285364538854e-05 1.627578735737884e-05 1.5103941694716554e-05 0.0001225230817016877 1.627578735737884e-05 1.6313353481185744
1.4330328996303376 1.627578735737884e-05 0.49577461363252184 0.4841057575230149 1.3020663793440166e-05 2.604115804919479e-05 1.3020663793440166e-05 1.3020663793440166e-05
1.3020663793440166e-05 1.3020663793440166e-05 1.3020663793440166e-05 1.3020663793440166e-05 1.1816918220216872 1.1153027383960452 0.0012660618709805671 1.3020663793440166e-05
1.3020663793440166e-05 1.3020663793440166e-05 1.3020663793440166e-05 1.3020663793440166e-05 1.3020663793440166e-05 1.3020663793440166e-05 1.3020663793440166e-05 1.3020663793440166e-05
1.3020663793440166e-05 1.3020663793440166e-05 1.3020663793440166e-05 1.3020663793440166e-05 1.3020663793440166e-05 1.3020663793440166e-05 1.322410901618637e-05

running_mean_std.count f8 []
00000000: 0000 0000 10c0 f240
76801.0

a2c_network.sigma f4 [24]
00000000: 56ac f73c 5b2a 313d c963 2fbb 6770 9d3c
00000010: 0f28 10bd e611 313c 1a16 b2bc a24a 6d3c
00000020: 8a56 0abc db0b a53c 9b45 71bd 31e0 3cbd
00000030: cbec c13c e7ce d6bc aeca 14bc c672 293d
00000040: 7423 bb3b 941e e73c 53f7 203d 60f3 923c
00000050: 9705 953a dc34 07bd 0759 443d 5eec f2ba
0.030233543 0.043253284 -0.0026762357 0.019218637 -0.035194453 0.01080749 -0.021739054 0.014483126
-0.008443484 0.020147255 -0.05890427 -0.046112243 0.023672482 -0.026221706 -0.009081526 0.041369222
0.0057110135 0.028212823 0.039298367 0.017938316 0.0011369464 -0.033009395 0.047936466 -0.0018533578

a2c_network.actor_mlp.0.weight f4 [256, 39]
00000000: 38d9 4ebd b51c 813d 46be bfbc 7cbc b33d
00000010: 113f 273e 134a e63d b84b 4bbd 8851 913d
00000020: 14b8 eabb 8742 d03d 4eb5 f1bd 116c 23be
00000030: 7568 7dbd 423e d2bd 768b 063e 58ea 3c3d
00000040: 94d6 873d 516e 4f3d 5c8e 36bb 4353 003e
00000050: e390 e2bd 84d0 1d3c 9178 b7bd 503e 4a3d
00000060: 09e0 61bd 4bf9 483d e5a5 08bd 14ff 073e
00000070: 435f c2bd 8f95 c3bd 9598 c3bd 947b 133e
00000080: 0a93 5a3d 0bc8 1d3e 5152 07be 9fa3 22be
00000090: ff48 00be 729a dcbd 18c8 ae3d 46db 6a3d
000000a0: c89a d53d 453f e4bd 93f3 0cbe 9648 673d
000000b0: 51a5 bfbd f3b1 8c3d 1b4f 6bbd 204b 883d
000000c0: 1c92 1cbe 9b19 b8bd 81ab 123d b5a8 0a3d
000000d0: d146 8ebd fa79 c33d 34f0 de3d acd0 edbd
000000e0: fa13 afbd 6824 163e 1f51 5dbd 70e2 84bd
000000f0: e527 13be bb2b f7bd abd7 233d 0825 adbc
00000100: 800c eebd 8328 763b ec02 e0bd d61c 0bbe
00000110: ed95 b4bd 7582 0fbe 3dd0 d0bd 37e8 233e
00000120: aec2 f73c 071e 4a3d f2ee 18be 4e62 d7bd
00000130: ab50 5abd 2800 5cbb 2248 10be 992a bdbd
00000140: 8e31 f4bd 6027 bcbc 46f9 a9bd fb1b 0dbd
00000150: d315 07be 3d5c d9bd 29ea 9bbd 9433 a0bd
00000160: ddc9 fabd 6dc5 093e 682b 02bd 0043 ea3d
00000170: ab5c 4c3d b0d9 0abe 9df2 e23d 9d76 34bd
00000180: f36a 7bbd 901b 08be 9344 23be 0ea2 5d3d
00000190: 10dc 6ebd e559 7f3d b090 06be 5a79 f33d
000001a0: 35ba f0bd f781 e2bc 96fe 083d 064d a93d
000001b0: 2b60 043e 005f 153e 3404 02be 9410 253d
000001c0: 7a0e 8dbd 03c0 8fbc 3076 f5bd c75a 153e
000001d0: 0655 10be ed44 af3d 0376 a43d c3c5 9b3d
000001e0: e64c 80bd c78b 2d3e 8caf 723d f85f 363d
000001f0: 2ca8 febd a150 9f3d 46eb c9b8 4b34 8abd
00000200: cbf0 153e 8f3a 123d e451 84bd 04fc a5bd
00000210: fa93 fabb 411c b73d cc99 27bd a01d bbbd
00000220: 659a 60bd 9fb1 e8bd 817c 4c3d 2b9d 173e
00000230: 7f5e 1abe 6854 183d 9169 a93d c5dc ed3c
00000240: a793 69bd bf2a ab3d 8c56 ac3d d340 753d
00000250: 8b81 e6bc ddad 2dbd 9755 8c3c c1ba e7bc
00000260: 5374 43bd 819f d13d b3ea 0c3e f2b1 033c
00000270: bfd9 12bd 9220 72bb 7270 7fbc f9ab 043d
00000280: 67cb 1e3d 7710 1bbe 5d87 85bd ce8b 223e
00000290: b57d 923d db87 66bc 8ad3 adbd 17fd ccbd
000002a0: 47e1 12be 399d 6ebd bd7e 5d3d 6b1a d13d
000002b0: 0069 973d fff0 10be 5836 c5bd e404 cfbc
000002c0: d3c3 163e 334d b43c fc43 42bd bfac 873d
000002d0: 80d0 79bd 3a43 d4bd 6b5c ef3d b31d 95bd
000002e0: ad7b 03bd 891e 23be 757b db3d e775 f83d
000002f0: 3b09 6f3d 72aa e4bd 6ad4 21be 8a2c 05be
00000300: f88b f43d 7272 9d3d 8ab4 033e 96cc ab3d
00000310: 326d b23c fb65 a6bc 2672 0fbe e53d 1fbe
00000320: 1fbc 2cbe c383 413d 1dc2 c3bd d698 94bd
00000330: 0039 e2bd efe2 2dbd 48c3 03be 6148 d6bd
00000340: ca81 0d3d 37ed 42bd fa73 ca3d e369 52bd
00000350: 5d91 f0bd 7f72 e7bc 21f8 9ebd 9bdf 65bd
00000360: 3690 12be 4451 903d a550 e4bd 66d4 a43d
00000370: abd0 943d f64a ea3d 868c fbbd ebda eb3d
00000380: 0b09 9bbd f160 733d dffc 193e 5700 b9bc
00000390: f94f a2ba 3701 17bd d7e9 08be 6a61 9d3d
000003a0: f4c6 22be fa67 a63d f15f f53d 4287 243e
000003b0: bfbd e9bc 7539 fabd 24e7 393d 21f7 c73d
000003c0: a596 19be 0946 6dbd e0d5 d1bd 264d 97bb
000003d0: 5b87 bebd f4c4 42bd 6b37 50bd d64c 12be
000003e0: 258a 063e 5276 093e adc6 cdbc 1663 95bc
000003f0: 00d7 85bd 8913 14be b40a 16be adde 8a3d
-0.050500125 0.063043036 -0.02340616 0.08776185 0.16332652 0.11244597 -0.049632758 0.07095629
-0.007163057 0.10168939 -0.11802159 -0.15959193 -0.061867196 -0.10265781 0.13139138 0.046121925
0.066327244 0.050642315 -0.002785585 0.12531762 -0.11062791 0.0096322335 -0.08958543 0.049375832
-0.055145297 0.04906587 -0.033361334 0.13280898 -0.09490826 -0.095500104 -0.09550587 0.1440261
0.053362884 0.15408342 -0.13214995 -0.15882729 -0.12527846 -0.107716456 0.085342586 0.05733802
0.10429913 -0.1114488 -0.13764791 0.056465708 -0.093577035 0.068698786 -0.057448488 0.06654954
-0.15290111 -0.08989259 0.03580809 0.033852298 -0.06947101 0.095447496 0.10885659 -0.116120666
-0.08548732 0.14662325 -0.05403244 -0.06488502 -0.14370687 -0.12068888 0.0400006 -0.021135822
-0.11623478 0.0037560768 -0.10938057 -0.13585219 -0.088176586 -0.14014609 -0.10195968 0.16006552
0.030244198 0.049345043 -0.149349 -0.10516797 -0.053299587 -0.003356943 -0.14090016 -0.092366405
-0.11923514 -0.022967994 -0.08299498 -0.034450512 -0.13191919 -0.10613296 -0.07613022 -0.07822338
-0.122455336 0.13454218 -0.031779677 0.114385605 0.049893063 -0.13559604 0.11081431 -0.04405843
-0.06138129 -0.13291764 -0.15944128 0.054109626 -0.058315337 0.06234159 -0.13141131 0.1188838
-0.11754266 -0.027649863 0.033445917 0.08266644 0.1292731 0.14587021 -0.12696916 0.040299013
-0.06887527 -0.017547613 -0.11985433 0.1458541 -0.14094934 0.085580684 0.080303214 0.076060794
-0.06264667 0.16947852 0.059249446 0.044525117 -0.1243442 0.077790506 -9.62825e-05 -0.06748255
0.14642636 0.035700377 -0.06460932 -0.08104709 -0.0076470347 0.08940936 -0.040918157 -0.0913651
-0.054834742 -0.113620035 0.049923424 0.14806049 -0.1507511 0.03718987 0.08272088 0.029035935
-0.057025578 0.083577625 0.08414945 0.059876274 -0.028137943 -0.042402137 0.017130656 -0.028287293
-0.047718357 0.10235501 0.13761406 0.008038031 -0.03585219 -0.0036945683 -0.015590774 0.03239057
0.0387682 -0.15143 -0.06519959 0.15873644 0.07152883 -0.014070476 -0.084876135 -0.100092106
-0.14343749 -0.058255408 0.054075945 0.10210117 0.07393074 -0.14154433 -0.09629506 -0.025270887
0.14723139 0.022009468 -0.047428116 0.066247456 -0.060989857 -0.10364385 0.11687549 -0.07281055
-0.03210037 -0.15929617 0.10716907 0.12131863 0.058358412 -0.11165322 -0.15803686 -0.13005272
0.119407594 0.07687844 0.12861839 0.08388631 0.021780584 -0.0203123 -0.14008388 -0.15550955
-0.16868638 0.0472448 -0.095585085 -0.07255714 -0.11046028 -0.04245275 -0.12867463 -0.10463024
0.034547605 -0.047589507 0.09885402 -0.051370513 -0.11746476 -0.028252838 -0.077621706 -0.05612145
-0.14312825 0.0704675 -0.11148194 0.08048324 0.07266363 0.11440079 -0.12282662 0.11516365
-0.07570084 0.059418622 0.15037869 -0.02258317 -0.0012383453 -0.036866393 -0.13370453 0.07684596
-0.15896207 0.08125301 0.1198119 0.16067222 -0.02853286 -0.1221799 0.04538645 0.09763933
-0.14998873 -0.05792812 -0.102458715 -0.004617351 -0.09303161 -0.04755111 -0.0508341 -0.14287123
0.13138635 0.13424042 -0.02511915 -0.018235724 -0.065351486 -0.14460577 -0.1465252 0.06780753

a2c_network.actor_mlp.0.bias f4 [256]
00000000: fba1 fe3b a6bc 24bd faf6 a6bc f3d9 ed3c
00000010: f378 64bb 9e98 06bd c073 303b 1a57 e43c
00000020: afb6 86bb 1f60 1c3d c208 51bc d19a 3c3b
00000030: 20ce 98bc 41cf a73c 68ed 4dbd c8a0 1cbd
00000040: 21bd 633c 4cc7 043d 5439 033c 50bf 63bc
00000050: f6b4 7bbc 0c08 9fbb ee45 95bc eef9 87bc
00000060: 8d07 d4bb e092 cfbc de8c 7a3c ec89 46ba
00000070: ec98 083d dd08 6a3c 92ef 0d3c 5791 693c
00000080: 323a 273d a2ca 363d d571 703c 9d76 f7bc
00000090: 6e5c fabc 1c64 38bd 73f2 c03c 7ad0 1abc
000000a0: 787e 7fbc da1c 37bc 628f 32bd 7e84 4cbc
000000b0: 1f22 20bd 2ad4 dabb 695a f4bc 13b8 e9bb
000000c0: 2cbb 33bd 9e38 86bc e444 b6bc b6d6 ff3c
000000d0: a6d2 c8ba b7a4 f43c 9ca4 20bd 7076 143c
000000e0: 634f 2abc 5e3c 9ebb 949b 31bc fb72 58bd
000000f0: deec 2cbd 5a7e fcb9 e02f f8bb 15f3 9b3c
00000100: c566 1cbd 23ca 393d 0f3a 18bd b953 13bd
00000110: 86f8 21bd 3ed3 23bc d05d 2dbc ffd9 87bc
00000120: 9b70 053d 293b 47bb 55a2 c5bb 2511 98bc
00000130: 27c1 533d f656 2e3d 4b3d 35bd b8f3 16bd
00000140: cd8d 1cbd c4bf c73c 1352 b63c fe82 1a3d
00000150: 7f88 57bc e718 7cbc 90bd 05bd 5157 eabc
00000160: bd62 b4bc 7f8a 4e3c d8ac 1cbd 9b7a 47bd
00000170: 62ba ff3c 236f 043d 4958 093d 8543 bcbc
00000180: dfef 83bc cb0d d1bb 24e0 bbbc 625d 77bb
00000190: d593 033d 6e08 193c 9b1e 0d3c e9d8 a73c
000001a0: 8e5a 773a 5fee babc 11eb 8d3c 9fe3 d0bc
000001b0: d21b 703d 20e0 3f3c 44f8 09bd efcf b6bc
000001c0: 3100 7bbb f61d ed3c fdf7 3cbd 6503 ed3c
000001d0: 9130 2b3d fe2d 99bc 7799 01bc 7aa8 76bc
000001e0: 3761 803c 7af5 a6bc a8c6 98bc cd03 ecbc
000001f0: 51d2 00bc efa7 14bd 7800 893c 9e02 143d
00000200: 40ba df3c dbea e03c 5664 89bb 3ebd 823c
00000210: 3413 64bc 1851 dbbb ec78 85bc f2b2 e23c
00000220: e078 62bc 06bc 1dbd b88d 09bd 809a 263d
00000230: b986 cebb 6774 1d3d 6c25 233d a34e 0a3d
00000240: f955 933c 3981 443c 9332 393b 2a5e 9cbc
00000250: 41aa 133d 2457 05bc c579 d63c 4768 2f3c
00000260: a7d3 a13b fc10 3bbd d53a a53b 3e92 be3b
00000270: 01c0 28bd c1a4 dd3b d481 d5bc 5d52 fbbc
00000280: d53d 56bd 219a a0bc 9bb0 1ebd b9be 8d3c
00000290: 7ea8 98bc 7eeb 543d c5a7 91bc b6d5 bbbc
000002a0: aa97 493c 650b 4c3c c800 163d bab5 4abc
000002b0: d3ec 54bc 0f98 bc3c dac6 4d3b 2af2 05bd
000002c0: 52aa 233d 3740 dbbc f350 23bc d606 21bd
000002d0: 2cf1 abbc d42a 373d 0545 d6ba 047a 4e3c
000002e0: 0dad 893c 28a8 333d eb05 a5ba 6b5c 23bd
000002f0: e6bf a5bc 4cf9 dd3c ce12 2d3d 95e9 38bd
00000300: 1f9a 1b3d 22f3 973a 1cde 223d f62a 343c
00000310: 6094 0e3d 68cb b3bc 489e 0eb9 f632 1fbd
00000320: 8cf2 5b3c e569 4f3c 79af 0a3d 3d3c 8c3c
00000330: a689 1abb f2a1 eebc 4bbf a0bc 8def d83c
00000340: 1132 aa3b 85bc 76bb 7572 1e3c cac2 dbbc
00000350: cf2c 1abc 700b 283b ee17 c73c 05a4 8e3c
00000360: 3be5 a6bc 0e8b 0cbd 8332 373d 1cf2 e83c
00000370: c86a 4e3c 35e9 2dbb e5d6 493c e07f c6bc
00000380: 3fbb 9a3c 77ee 69ba c7c7 29bc c3f7 d7ba
00000390: 2482 cdbb 2bcd adbc 874b 863c 4a09 233a
000003a0: 0ae3 3bbd 6cd6 4ebc 4e09 43bb 2402 fc3c
000003b0: 6ce4 0a3c 7a35 86bb 75cc 983c 9e18 0dbd
000003c0: 444c 7d3c 741c 13bc 367c 503d 9243 223d
000003d0: 27df cd3c 7618 273d 0de4 0f3d f848 cc3c
000003e0: 6187 02bd d736 153d 2c55 68bb c4c6 0d3d
000003f0: 889f 3b3c cd25 433d 1db0 533c 9ccd 87bc
0.0077707744 -0.04021897 -0.02038144 0.02903459 -0.003486213 -0.03286039 0.002692446 0.027873565
-0.004111133 0.038177606 -0.012758436 0.0028778801 -0.018652976 0.020484569 -0.050275236 -0.03823927
0.013900072 0.032416627 0.008009274 -0.013900593 -0.015362969 -0.004853254 -0.018221822 -0.016598668
-0.0064706267 -0.02533859 0.015292374 -0.00075736525 0.033348963 0.01428434 0.008663075 0.014255843
0.040826984 0.04462684 0.014675577 -0.030207926 -0.030561652 -0.045017347 0.023553109 -0.009449119
-0.015594117 -0.011176312 -0.04359377 -0.0124827605 -0.03909504 -0.006678124 -0.029828267 -0.007132539
-0.043879673 -0.016384419 -0.022249646 0.031230312 -0.0015321567 0.029863698 -0.039219484 0.009061441
-0.010394904 -0.0048289737 -0.010840315 -0.05284403 -0.04221808 -0.00048159325 -0.0075740665 0.019036809
-0.038183946 0.04535879 -0.037164744 -0.035968516 -0.03954365 -0.0099990945 -0.010581449 -0.01658344
0.032578092 -0.0030400252 -0.0060313144 -0.018562863 0.051697876 0.0425634 -0.044247907 -0.036853522
-0.03822117 0.024383433 0.022255933 0.03772258 -0.013155102 -0.015386797 -0.032651484 -0.028606089
-0.022019738 0.012606262 -0.038250774 -0.04870091 0.031216804 0.03233255 0.03353146 -0.022981415
-0.01610559 -0.006379818 -0.022934027 -0.003774487 0.032123405 0.009340389 0.008613254 0.020489173
0.0009435796 -0.022818742 0.017324002 -0.025499163 0.05862028 0.01171115 -0.03368403 -0.022315947
-0.0038299675 0.02894495 -0.046134938 0.028932283 0.041794363 -0.018698689 -0.007910124 -0.015054816
0.015671356 -0.020380724 -0.018649414 -0.028810406 -0.007862643 -0.036292966 0.016723856 0.03613531
0.02731049 0.027455738 -0.004192869 0.015959378 -0.013920594 -0.0066930167 -0.016293012 0.027673218
-0.013822764 -0.03850939 -0.03358242 0.040674686 -0.0063026813 0.038441088 0.03983061 0.0337664
0.01798533 0.0119937 0.0028258904 -0.01908787 0.03605104 -0.008138452 0.026181111 0.010706014
0.004938561 -0.045670494 0.0050424137 0.0058157733 -0.041198734 0.006764025 -0.026062883 -0.030678922
-0.05230506 -0.019604744 -0.038742643 0.017302858 -0.01863503 0.051982395 -0.017780194 -0.022929054
0.012304226 0.012453889 0.03662184 -0.012372429 -0.012995916 0.023021726 0.0031399042 -0.03270165
0.039957352 -0.026764018 -0.00996803 -0.03931316 -0.020989023 0.04471858 -0.0016347474 0.012602333
0.01680615 0.04386154 -0.0012590265 -0.03988306 -0.020233106 0.027096413 0.04225426 -0.045144636
0.03798878 0.0011592845 0.0397626 0.010996571 0.03480947 -0.021947578 -0.0001360114 -0.03886696
0.013424527 0.012659525 0.03385875 0.017118568 -0.002358058 -0.029129956 -0.019622466 0.026481414
0.0051939567 -0.0037648987 0.009670843 -0.026826281 -0.009410097 0.0025641583 0.024303403 0.017412195
-0.020372977 -0.0343123 0.044725906 0.02843576 0.012598701 -0.0026536707 0.012319301 -0.024230897
0.018888114 -0.00089237787 -0.010362572 -0.0016477037 -0.0062716175 -0.021215996 0.016393436 0.0006219341
-0.04587082 -0.012624364 -0.0029760185 0.03076274 0.008477312 -0.0040957304 0.01865218 -0.034447305
0.015460078 -0.008978952 0.050899707 0.03961522 0.025130821 0.040794812 0.035129596 0.024937138
-0.03186739 0.036429252 -0.0035451157 0.034613386 0.011451609 0.04764347 0.012920407 -0.016577534

a2c_network.actor_mlp.2.weight f4 [128, 256]
00000000: d4dd 2b3d 6c1e 043c a4be 0c3d a5d5 61bd
00000010: 4787 40bd f48f af3d 23b2 1fbd cf61 85bd
00000020: 5031 03bd e70c d6bd 40d6 7ebc 635d 79bd
00000030: e334 093d 549f a8bd 32bf debc 022c 28ba
00000040: e6ed 96bd 13f0 093b c749 b1bc d1ac 1e3d
00000050: 754f 8b3d 7906 67bd f4b8 5ebc b353 f43c
00000060: dd5f 0a3d cd3a 133d 05dd 83bc 6c02 3abc
00000070: ff07 8dbd 7459 b8bd 177e 5fbd 8664 a0bd
00000080: 54d1 d5bd 938a 73bd b060 743c f7d5 403d
00000090: 2294 2f3d 2634 2f3c 4027 abbc fdf8 173d
000000a0: 4ecf c8bc 1838 773d 5e3f 433d 7234 a13c
000000b0: 37a8 bc3d 6776 b33c a73d 0abd c579 913d
000000c0: 6508 103d de82 783d fa56 2fb9 76d6 3fbd
000000d0: 8aa8 603d 4020 0fbd 8e5d 823d 3ec7 1d3c
000000e0: d78b 233d f514 5bbd ecf5 333c b90e 8a3d
000000f0: 0033 7e3c cff5 823d 9689 453c f73f 973c
00000100: 24f4 713d 1be9 16bd 70d5 fc3c d911 b63d
00000110: b1d4 bfbc a3f0 9cbd fec5 a23d 41bd 0dbd
00000120: d88e 04bd 13ff c53c 0e87 2cbc c2e5 cabb
00000130: b274 cfbc b312 cd3b 21a4 9cbc 5057 7a3d
00000140: a73d 033d a554 79bd 2a85 86bd 922a 6ebd
00000150: e361 693d 8824 7bbc 369b 3abd eb5f 863c
00000160: cd59 893d 806b 4bba 99cf d53d 679f c13d
00000170: 7671 6c3c aaa7 b1bc 067c 8bbd 87a1 2abd
00000180: 1ee2 1b3a 6ca2 89bd 5947 0e3d 0b6b 7a3c
00000190: 39f4 373b a852 a8bd c075 43bd a205 84bc
000001a0: 0dca 463c 3693 c13d 1b90 fbbc ba54 633d
000001b0: 1363 1bbd 2816 82bb 4894 a53c 00d4 76bc
000001c0: 35cd a23b 5a80 8fbd a3fc e73c bf30 94bd
000001d0: f8a0 94bd 368b d0bc df6a 5ebd 4778 253c
000001e0: 6e20 9ebd 0403 a03d 5b0a 9abb a425 283d
000001f0: e454 70bd 9980 623d 4940 afbd 5ad4 92bc
00000200: c359 433d 9d65 b9bd 1591 aa3c 6f99 c7bc
00000210: bd6f fcbc bc56 93bc e0ff 413d d9f6 4ebd
00000220: 4c91 e83c 71ad a93c 8134 a83d ae11 adbc
00000230: a5ec 8f3c ef84 15bd 2a03 2a3d ac46 bfbd
00000240: bf03 88bc 7715 b3bc 6ae7 0bbd 19fa ac3c
00000250: 184c 9dbb 5624 a93c 6e3f 1abd 8949 953c
00000260: 6ae4 7cbd de3c a33d 0158 95bd 8923 4cbd
00000270: e96e 783d 43ae 70bc 8b52 613d f171 783d
00000280: 54d8 a03d d53f eb3c 1bf3 e0bc dde6 b739
00000290: a76c 893c 8088 b6bd b370 0b3d 0f11 9e3d
000002a0: f072 11bd fbad 85bd 5248 b9bd d23d ae3b
000002b0: 5b96 0e3d a214 02bd 198b 203c d3af 913c
000002c0: 2888 063b 34db 833d 9378 03bd ccf5 4b3b
000002d0: 9fba 483d cc17 a0bd 9561 8e3d 92db 1ebc
000002e0: 5ba6 963d 624d 29bd de47 d1bc b444 a4bc
000002f0: 3b3f d63c 0b15 ecbc 2667 28bd 226e 793d
00000300: 82d8 a9bd c15d 10bd dad1 293c 609d 36bd
00000310: fac0 89bd 670c 803d 6057 35bd 77e9 ad3c
00000320: fd3c 67bd ed7b 0c3d aaf9 84bc 1c0c 153c
00000330: 1185 d33c a13f 793c 95bc 89bb 1256 253c
00000340: 5d13 4cbd 0217 6e3d 7c7c 73bd e864 d8bc
00000350: aac4 1cbd 5ccd 18bd e1b8 b8bc aadb 0cbd
00000360: 72a7 a73c 5dd0 b23d 7a59 13bd 5cc0 b8bc
00000370: c5bd efbc 6fd4 383d 6698 183d 8b75 403c
00000380: 39a6 2e3d b655 113c 96bc a93c 38b4 33bd
00000390: 5ff5 13bc 64a9 993d 3326 05bd 9749 9abd
000003a0: 86ce 9838 3303 2e3d d506 b2bb 7079 5bbc
000003b0: 1d1c d13c 93aa 573b 1f92 94bd fd07 363d
000003c0: ea44 e43b 9e87 8ebc cfc3 3fb8 9e27 cfbc
000003d0: aae1 ccbc b5ba 4d3c 952f 5b3c e19f 773d
000003e0: 84ba be3c 0103 0abc b5e6 293d 23c7 a0bd
000003f0: 2b4c a33c f72b 52bc dad7 b63c 4265 d0bc
0.0419596 0.008063894 0.034361497 -0.055135388 -0.04700401 0.08572379 -0.038988244 -0.06512796
-0.03202945 -0.1045168 -0.015554011 -0.060880076 0.033497702 -0.082335144 -0.027190778 -0.0006415249
-0.07369594 0.0021047636 -0.021641625 0.03873903 0.068022646 -0.056402657 -0.013593901 0.029825067
0.03378283 0.03594475 -0.016096601 -0.0113531165 -0.06886291 -0.09001437 -0.054563608 -0.07831673
-0.10440317 -0.059458327 0.01491563 0.047079053 0.04286588 0.0106935855 -0.02089274 0.037102688
-0.024512913 0.06035623 0.047667854 0.019678328 0.09211772 0.021907045 -0.033750203 0.07103304
0.035164256 0.06067168 -0.00016721702 -0.046835385 0.05484823 -0.034942865 0.063655004 0.009630023
0.039928284 -0.053486783 0.010983925 0.067410894 0.015515089 0.063945405 0.012056729 0.018463118
0.05907072 -0.0368434 0.030863494 0.08890123 -0.023416849 -0.07663085 0.0794792 -0.034604315
-0.03236279 0.02416948 -0.010530246 -0.00619194 -0.0253242 0.0062583326 -0.019121232 0.061118424
0.032041218 -0.06087174 -0.06568368 -0.058146067 0.056978118 -0.015328534 -0.045558177 0.01640316
0.06706581 -0.0007759854 0.10439987 0.09454232 0.014431348 -0.021686394 -0.06810765 -0.04165795
0.0005946475 -0.06720433 0.03473601 0.01528431 0.0028069152 -0.082188904 -0.047719717 -0.016115967
0.012133134 0.094519064 -0.030708363 0.055500723 -0.03793628 -0.0039699264 0.020212308 -0.015065193
0.0049683102 -0.07006903 0.028318709 -0.0723586 -0.07257265 -0.025457006 -0.05430114 0.010099477
-0.07721029 0.07813075 -0.0047009415 0.041051522 -0.058674708 0.05529842 -0.08557183 -0.017923523
0.047693025 -0.09052584 0.020821134 -0.024365155 -0.030815 -0.017985694 0.047363162 -0.05052838
0.028389595 0.020712586 0.08213139 -0.021126594 0.017568896 -0.03650373 0.041506924 -0.093396515
-0.016603349 -0.021860821 -0.03415624 0.02111535 -0.004800331 0.02064721 -0.037658148 0.01822354
-0.06174127 0.07970594 -0.07292176 -0.049838576 0.060652647 -0.014689985 0.05501036 0.060655538
0.07853761 0.02871696 -0.027459672 0.00035076487 0.016775442 -0.08912754 0.034043025 0.077180974
-0.035510004 -0.06527325 -0.09046997 0.005317428 0.03481136 -0.03175796 0.009798788 0.017784035
0.0020527933 0.06438294 -0.03209741 0.0031121848 0.0490061 -0.07817039 0.06952206 -0.009695904
0.073559485 -0.041333564 -0.025546964 -0.020052291 0.026153198 -0.028818628 -0.041113995 0.060896046
-0.08293249 -0.03524566 0.010364974 -0.04458368 -0.067262605 0.062523656 -0.04427278 0.021229489
-0.056454647 0.034297872 -0.01623233 0.009097125 0.025820287 0.015212924 -0.004203389 0.010091322
-0.049823154 0.05812741 -0.05944489 -0.026415303 -0.03827349 -0.03730522 -0.022549095 -0.034389175
0.020465586 0.087311484 -0.035974003 -0.022552662 -0.029265294 0.045124467 0.037254713 0.011746774
0.04263899 0.008870533 0.020719808 -0.043873042 -0.009030669 0.07503012 -0.032507133 -0.075335674
7.286393e-05 0.04248352 -0.0054329433 -0.013395652 0.0255261 0.0032908067 -0.07254433 0.044441212
0.006966223 -0.017398652 -4.572031e-05 -0.025287446 -0.025009949 0.012556721 0.013378044 0.060455207
0.023282297 -0.008423568 0.041479785 -0.07850482 0.01993378 -0.012827865 0.022319723 -0.025438908

a2c_network.actor_mlp.2.bias f4 [128]
00000000: 088c 3ebd 687a c63b 0914 c43c 4a01 4e3d
00000010: 7049 3cbd 9253 aebc 4de4 47bd 34e4 f23c
00000020: a19f 2bbc 2d1f 623c d2cb 063b 03aa 193d
00000030: f2cd a83c eed3 33bd dffb 593d 0606 5c3d
00000040: a471 4ebd e35b 9dbc c6bc 2c3d face 93bc
00000050: aa6f 46bb 02da 433d a511 1b3c d897 4b3d
00000060: 1bde 9bbc e5d4 4c3d e6a6 34bd d1cf 4ebd
00000070: c654 653d 6b29 87bc 70a2 60bd 12bf 75bc
00000080: 38ca 0e3d ba92 6abc bef0 92bc 058f 543d
00000090: 1993 68bd 62bd e9bb f64e 5d3d 4297 3dbd
000000a0: ddf9 41bc bceb 0fbd b957 30bc 13f3 53bd
000000b0: 1c2f 643d e9c2 b53b 25d5 44bd 82eb d43c
000000c0: 833b 633c 55b3 a4bc 52da 46bc 257e 673d
000000d0: 671f f23b 532a 1c3b ca16 31bd eec2 ce3a
000000e0: c658 2e3d 2975 9bbc ce72 49bd 3d35 9c3c
000000f0: 512a 763b eee0 823c dc98 d53a 5e13 3e3d
00000100: 7546 d83c 727a 2e3d 7a96 c73c 53da 713c
00000110: 980e ffbc 68fd 6a3c 51ca 5f3c 8e7b b03c
00000120: 48bf 33bd ca50 52bd 3b44 b53c 3983 a03c
00000130: 3388 a23b e34c eebb 5b48 533d 87d2 3abd
00000140: 96b3 913c e150 bdbc c53f cbbc 58a5 7b3b
00000150: cd20 4cbd 348a 473d 3d1e 59bd 1344 96bc
00000160: 99d5 273d 66e9 0d3c a579 5f3d 78e2 33bd
00000170: a564 e13c 87e8 b93b 994f 1cbc 9af0 2dbd
00000180: dc68 f13c 69e1 87bc 9ebf 3a3d c9d6 40bd
00000190: 1dda b1bc 38b8 943c 7ff3 f93c a214 9f3c
000001a0: bc21 583d ff92 5c3d dfe5 2d3d 8efb 46bd
000001b0: 6cb7 28bd b89b 15bd 107a 673d c76d 3bbd
000001c0: 288c 13bd b2f8 353c 92d8 85b9 2f6f 5d3d
000001d0: 2188 8d3c 0cf2 9d3b 9b89 7fbc e9cc a4bc
000001e0: b313 26bd ff81 41bd 8f98 9a3c 1e84 1dbd
000001f0: d44d 48bc 2729 af3b 97c4 d53c 3587 d53b
-0.046520263 0.0060570724 0.023935335 0.050294198 -0.045968473 -0.021280084 -0.04880171 0.029649831
-0.01047507 0.013801378 0.0020568264 0.03751565 0.020606015 -0.043903284 0.05321872 0.053716682
-0.050401345 -0.019208854 0.042172216 -0.01804303 -0.003027896 0.04781533 0.009464656 0.049705356
-0.019026807 0.05000772 -0.04410448 -0.050491158 0.05598905 -0.016499242 -0.054842412 -0.014999168
0.03486082 -0.014317209 -0.01793706 0.051894207 -0.05678091 -0.007133172 0.05403038 -0.04628683
-0.011839357 -0.035136923 -0.010763102 -0.051745486 0.05570899 0.0055469167 -0.048054833 0.025991205
0.013869169 -0.020105043 -0.012137013 0.056516785 0.0073889974 0.0023828938 -0.043234624 0.0015774646
0.04256513 -0.018976765 -0.049181752 0.019068355 0.0037561844 0.015976395 0.0016296166 0.04640519
0.026400784 0.04259724 0.024363745 0.014761525 -0.031134889 0.014342643 0.013659076 0.02154329
-0.043883592 -0.051346578 0.022127261 0.019593822 0.004960084 -0.007272349 0.051582675 -0.04561093
0.017785829 -0.023109855 -0.024810681 0.0038398113 -0.04983597 0.048715785 -0.053007353 -0.018343007
0.040975187 0.008661604 0.05455937 -0.04391715 0.027513811 0.0056734714 -0.009540462 -0.042465784
0.029468946 -0.016586976 0.045592897 -0.047079835 -0.02171045 0.018154249 0.030511616 0.019419018
0.052766547 0.053851124 0.04245555 -0.048579745 -0.04119055 -0.036525458 0.056512892 -0.04575899
-0.036022335 0.011106657 -0.00025529094 0.05406111 0.017276825 0.004820114 -0.015596773 -0.02011724
-0.04054613 -0.047243115 0.018871574 -0.038456075 -0.012225587 0.005345482 0.026094718 0.006516362

a2c_network.actor_mlp.4.weight f4 [64, 128]
00000000: c099 1b3d 474e 083b b10e debc b9b8 a63d
00000010: 4d7a 333d 771f d1bc 70a9 f6bc a0f2 493c
00000020: 8223 aebd 6c3d be3d e97c 63bd 4852 823d
00000030: 1eb5 ad3d 4aa5 393d 24ad ac3d 68a8 76bd
00000040: b92d ab3c e4fb 383d 3a71 a1bd 306b c8bd
00000050: 9973 893c a56f 903d c9f6 863d becf ee3c
00000060: 608e 793d 2fb7 4e3d a094 81bd d463 97bd
00000070: 32e0 8d3d efb3 50bd d8ee 1f3c 32a1 47bd
00000080: ca39 973c 03f7 0b3c 6745 a83d b1e0 babc
00000090: b4d2 f43c 0851 3abd 5edf 153d bd38 903c
000000a0: ef14 8c3d e5b1 82bd 341a 1bbd c279 623d
000000b0: 2fa0 b9bd 554b 43bd 1eab 3b3d 0cba eabc
000000c0: 1e90 05bd bb69 d2bc f5fc 6b3d 9efb 3d3b
000000d0: 52f5 953b 99fc b8bd f5bb 16bc a40b 493d
000000e0: f678 b2bd 7b04 9f3d e806 ec3b 2bc4 af3d
000000f0: 72d3 973c 29a9 87bd feab 513d 5cca 9dbd
00000100: 193f 723c 63ea 5ebc 4858 7bbd 234f 073d
00000110: 1eb1 1dbd d52f 873d a4c0 e6bb c4ec 87bd
00000120: b272 8ebd 2c57 4abd 0873 733d 126d d53d
00000130: c914 793d 5723 79bd 7df9 4f3b 7dfe 09bd
00000140: 7d9c 723d 8172 9b3d e808 9f3c f7c1 ca3c
00000150: f397 29bc bb8d 35bd cd3b 22bd 8f0a 90bd
00000160: 493d c73c 4440 be3d 8e1c cebc a4cd d33d
00000170: f506 1d3d 4e91 dabc 059a 933d 2691 82bd
00000180: d7ab d13c aa82 8bbd 3da9 dc3c eb9d dd3c
00000190: 56a7 b03c bdb9 7bbc 5ddb 83bd c66f 0e3c
000001a0: f965 1b3d ddac 2abd fa67 0abd 4c5a a13d
000001b0: e19d 7c3c 4c5a 513d 201d 023d bd8d ecbc
000001c0: f94b d6bb f76d 98bd fb60 393d e247 5c3d
000001d0: 4b84 73bd 3eee 723d afe9 21bd 1a85 e53c
000001e0: 6296 f43c 3ffe ce3c e4dd 3a3d 51f1 193d
000001f0: 2fa7 8bbd a463 9dbd 327d 933d c512 343d
00000200: 9bec 923b 58b6 a03b ceec 91bc 8b15 d5bd
00000210: eb30 933d 12f9 3cbd 9233 38bc 153d 4dbd
00000220: 87e8 af3d a888 3bbd f346 9e3c 1172 f1bb
00000230: b8e1 783d 23ac d33d d64b 9b3c aaeb dbbc
00000240: 0627 753d 0b01 8b3c e1e5 a3bd 5fd3 163c
00000250: 224d 6c3d c551 b2bd 49e5 66bd 4ec4 58bd
00000260: 5d5a 7b3d a9bb abbd 8f77 023c ebc5 57bd
00000270: 634b 6a3d d9c5 50bd 452d 383d 664b 11bd
00000280: dcfc 34bd 600c df3b 4592 81ba 32cf 8dbd
00000290: 8019 8abd d08a 2cbd 3beb 51bd 23cb 763d
000002a0: 051e 2e3d f4e4 49bd 27af 3ebd df39 a93d
000002b0: dc36 babd 8d2c 913d d3d8 193c 9496 9bbd
000002c0: ee6b 183d b315 923d 3325 293d a63a 29bd
000002d0: 130a 40bd e097 8b3a 5f86 76bd 8402 be3c
000002e0: a016 84bd 90f5 1b3b 8e9f d4bb 0d55 2c3d
000002f0: e6cd c1bd 47ae 83bd 9c4e 2f3d 7083 3abd
00000300: a881 573d 9566 a3bd 98cd 6e3c 2c01 593c
00000310: 7f31 d03d 443e 413d c14e a03c 7334 28bc
00000320: 129b 113d d839 8f3d 97ab 6bbd 29bd cdbd
00000330: 49d1 08bc ae13 bebd 8509 0dbb 51eb 483c
00000340: bf68 403d 2e63 913d b849 92bd 4111 aa3d
00000350: 0698 4fbd 0fe8 c4bd 2618 58bc 23ed 053d
00000360: df22 83bc 2630 bebc 014c a33a 1646 bbbc
00000370: d821 37bd 9ea4 143d 23d8 053d 070a f9bb
00000380: b766 ab3c cf1b 863d 3b7a 8dbc 53c5 a6bc
00000390: 945a 933d 09df 64bc bdc2 5e3d cfa2 8c3d
000003a0: 9850 cdbd 0004 02bd f6b4 99bd 945e cf3c
000003b0: 819f 7a3d 964f 343d adbd 25bd 4651 103d
000003c0: 4914 7a3d 1d65 59bd df48 163d 9cd9 18bc
000003d0: 99e1 663c 2823 afbc 78ca 4b3d dcfd 353d
000003e0: 6b6e a83b c00a 983c 20e6 a9bd e7d0 b7bd
000003f0: d0cd b5bc 080a 4cbd 2473 b5bc 7f97 903d
0.037988424 0.002079861 -0.027106615 0.08140702 0.043817807 -0.025527699 -0.030110091 0.012325913
-0.08502866 0.09289059 -0.055539045 0.0636335 0.08481811 0.045323648 0.084314615 -0.0602192
0.020895826 0.045162097 -0.078829244 -0.097860694 0.016778754 0.070525445 0.06590039 0.029151794
0.060926795 0.050467666 -0.06327176 -0.073920876 0.069275275 -0.050952848 0.009761535 -0.048737712
0.018460173 0.008542779 0.082163624 -0.02281222 0.029885627 -0.045487434 0.036589973 0.01760518
0.0683993 -0.06381587 -0.037866786 0.0552919 -0.09063756 -0.047679264 0.045817487 -0.028653167
-0.032608144 -0.025685182 0.057614285 0.0028989087 0.0045763636 -0.09032554 -0.009200086 0.049083367
-0.08714478 0.077645265 0.0072029717 0.08582338 0.018533442 -0.066240616 0.051189415 -0.077046126
0.0147855515 -0.013605687 -0.06136349 0.033034455 -0.03849899 0.0660092 -0.0070420075 -0.06636956
-0.0695547 -0.04939954 0.059435874 0.10421194 0.060810838 -0.06082472 0.00317344 -0.033689965
0.05923127 0.07590199 0.019413427 0.024750693 -0.010351169 -0.044324618 -0.03960781 -0.07033264
0.024321215 0.092896014 -0.0251601 0.10341957 0.038336713 -0.026680615 0.07207111 -0.06375341
0.025594635 -0.068120316 0.026936168 0.02705284 0.021564167 -0.015364108 -0.064383246 0.008693641
0.037939046 -0.04166876 -0.033790566 0.07878551 0.015418501 0.051111504 0.031766057 -0.02887618
-0.0065398184 -0.07442849 0.045258503 0.05377949 -0.059452336 0.059309237 -0.0395295 0.02801757
0.029856864 0.025267718 0.045621768 0.037583653 -0.06818997 -0.076850206 0.072016135 0.043963213
0.004483772 0.0049045496 -0.017813113 -0.104044996 0.07187065 -0.04613597 -0.011242764 -0.05010708
0.08589273 -0.045784622 0.01932094 -0.007368334 0.060762137 0.10335567 0.01895706 -0.026845772
0.05985167 0.01696827 -0.0800283 0.009205668 0.057690747 -0.087070026 -0.056371007 -0.052921586
0.061365474 -0.08385403 0.007963075 -0.052678984 0.0572008 -0.050969932 0.044965047 -0.035472296
-0.044186458 0.006806895 -0.0009885511 -0.06924285 -0.06743145 -0.04212457 -0.051249724 0.06025232
0.042509098 -0.049290612 -0.046553757 0.08262991 -0.09092495 0.070885755 0.009390074 -0.0759708
0.037212305 0.07133045 0.04129524 -0.041315697 -0.046884608 0.0010650121 -0.06018674 0.023194559
-0.06449628 0.002379749 -0.006488747 0.0420733 -0.094631 -0.06429725 0.042799577 -0.045535505
0.052613884 -0.0797855 0.014575385 0.013244908 0.10165691 0.04717852 0.019568803 -0.010266411
0.035548277 0.06993455 -0.057536688 -0.10045845 -0.008350679 -0.09281097 -0.0021520567 0.012263135
0.046974894 0.07098995 -0.07142967 0.08304072 -0.05068209 -0.09614574 -0.013189351 0.032696854
-0.016007839 -0.023216318 0.0012458564 -0.022860568 -0.04471001 0.036289804 0.032676827 -0.0076000723
0.020923002 0.06548273 -0.017270198 -0.020357763 0.07195011 -0.013969191 0.054384936 0.06866991
-0.10025138 -0.031742096 -0.07505219 0.025313653 0.06118727 0.04402121 -0.040464092 0.03523376
0.0610545 -0.053074945 0.03669059 -0.009329226 0.014091873 -0.021379068 0.049753636 0.044431552
0.005140116 0.018559813 -0.08295846 -0.08975392 -0.022192866 -0.049814254 -0.02214963 0.070601456

a2c_network.actor_mlp.4.bias f4 [64]
00000000: a97a d23c 6c16 04bd 200b 2cbd a803 54bd
00000010: 8f25 313d d8cc 24bd 6285 35bc 866d d1bb
00000020: 4db6 c9bc 68bd 2ebd b99f 20bd 047a c93c
00000030: e8ee dfbc 9d04 26bd c237 33bd 40f4 4e3d
00000040: b6c3 0bbd 0fd6 393d cde8 043d 72a9 a9bc
00000050: 8d7a 3a3d b134 3fbd 1eef e0bc 5dcd e4bc
00000060: 2699 7c3d 5afe 02bd c65b 523c e3f1 6a3d
00000070: ae3b 13bd 081d e2bc 614d 663d 451d 05bc
00000080: d9ab 563d c406 16bd c44e 46bd 98be 24bd
00000090: 621d dbbc fc77 84bc 4f53 f33c af0b 1bbd
000000a0: ec15 4d3d 90a3 2ebd 851c c53c e338 403c
000000b0: 64df 663d 30b8 ad3c 3ecc 033d 8445 063d
000000c0: 877b f43b bb84 0fbd 4425 593d 164d 28bd
000000d0: ea82 c3bc 05c1 5b3d d88c 20bc 8fe9 d13c
000000e0: 035e a33c db6d c83c 4900 28bd f149 c93c
000000f0: ad5c c9bc 5454 b0bc ba38 1abd d6ec 39bd
0.025693255 -0.032247946 -0.042002797 -0.0517613 0.04324871 -0.040234417 -0.011079164 -0.00639123
-0.02462306 -0.0426611 -0.039214823 0.024594314 -0.027335599 -0.040531743 -0.043754347 0.050525904
-0.03412219 0.045370158 0.03244858 -0.02071068 0.04552703 -0.04668111 -0.02745777 -0.027929956
0.06166949 -0.03198085 0.012839263 0.057359587 -0.035945587 -0.027601734 0.056226138 -0.008124654
0.05240998 -0.036627546 -0.04841496 -0.040220827 -0.02674741 -0.016170494 0.02970281 -0.03785294
0.050069734 -0.042636454 0.02406145 0.011732313 0.056365386 0.021205992 0.032177202 0.03278114
0.0074610147 -0.03503869 0.053014055 -0.04108914 -0.023866136 0.053650875 -0.009799205 0.025624065
0.01994229 0.024466446 -0.041015897 0.02457139 -0.024580324 -0.021524586 -0.037651755 -0.04539188

a2c_network.value.weight f4 [1, 64]
00000000: 57e9 54bd dd09 a93d ca76 db3d fdaf 1c3d
00000010: 12a4 25bc 5566 b73d d2ef 1b3d 2ce2 b63c
00000020: a2cd a43c 520a cc3d 98ff d23d a09d 44bd
00000030: 241c 003d 74de 023e a63f a93d 69d8 b4bd
00000040: d2e9 da3d addc e6bd 08a5 2dbd 3888 3d3d
00000050: 48d7 6dbd 1b26 873d bd47 e93c 2426 e73d
00000060: 0540 2ebd 9927 ae3d 1b6e b9bb ab29 06be
00000070: ba7b 973d 537c b03d ed7a 06be ba56 173c
00000080: c484 66bd e68e a63d 346b a43d 4bfd 343d
00000090: 6c11 d23d b2ca dc3d 9920 8bbd f1ed e83d
000000a0: 65e2 2fbd d9e4 0f3e f0c6 bbbd 20d2 b5b9
000000b0: 50d3 b1bd 6e88 e4bd 4e07 f1bd 9358 adbd
000000c0: a6ee 84bc 831a 9f3d 4906 19be 1d6e a63d
000000d0: 46eb 923d 3e66 83bd 79f8 743c e3f3 3fbd
000000e0: 2bbd d9bc 9e76 62bd 1fdd ce3d d1c4 65bd
000000f0: e45a 8f3d 3148 1c3d c854 e43d 3954 ec3c
-0.051980343 0.082538344 0.107160166 0.038253773 -0.010109918 0.08955065 0.038070507 0.022324644
0.020117585 0.09962906 0.10302657 -0.048001885 0.031276837 0.12780172 0.08264093 -0.088303395
0.10689129 -0.11272559 -0.042393714 0.046272486 -0.058066636 0.06599065 0.02847659 0.112865716
-0.042541523 0.085036464 -0.0056588775 -0.13101833 0.07396646 0.08617463 -0.1313283 0.009236986
-0.05627896 0.081327245 0.0802826 0.04418687 0.10257229 0.107808486 -0.06793327 0.11373509
-0.042940516 0.14052142 -0.09168804 -0.00034679566 -0.08682883 -0.111588344 -0.117689714 -0.0846416
-0.016227078 0.077687286 -0.14943804 0.08126471 0.07173781 -0.064159855 0.014951819 -0.046863448
-0.02657946 -0.055288903 0.10100769 -0.056095902 0.06999758 0.038154785 0.11148983 0.028848754

a2c_network.mu.weight f4 [24, 64]
00000000: a07e d0bd bcbc 53bc 926b bebc cd8d 79bd
00000010: 89f8 70bd ea39 f03d d77a 943c e471 883d
00000020: 3d4a ea3c 4615 843d 256f dcbd 87c5 4eba
00000030: 6439 783d 90b6 813b ba6c 24bd 8049 693c
00000040: 8dba a8bd 7c49 2c3d 4fbb 263c 7a6d 8dbd
00000050: 50d0 a03d bdbb d1bd c541 7e3d 3058 8cbd
00000060: f6ba fabd 6805 c93c af01 abbc 1189 b93d
00000070: e197 30bd 8294 f53d f018 0b3d 1802 573c
00000080: c24f cf3c c2ef 243d 17e3 993d 27d8 d8bb
00000090: 879b f73d a8c0 bbbd a156 58bd c013 04bd
000000a0: b8b3 a4bd cb76 b2bd 3a8c aabd 8dfe 6c3c
000000b0: 5c46 12bd 0071 c8bd d5f0 563d 7dc7 b93d
000000c0: 34d7 373d 78c6 89bd 8abf e93d 8c51 133c
000000d0: 1f20 b93b e77c a83b 222e 9e3d c5be 8cbd
000000e0: f5c5 b0bd 87c7 063d a986 b2bd abfe 4cbd
000000f0: ca30 88bc d1ef e33d e5d4 04bd a659 12bb
00000100: cb07 fbbd ad4c 2d3d 4f0d 05be 75cc e0bc
00000110: 2865 583d 083b 8abd eb51 733d 2dac 81bc
00000120: 810b 92bd b53c 08be 34e7 b83d 9042 e7bd
00000130: a141 a4bd 4b1f fc3c d75b 5ebd e7d0 133c
00000140: 0389 423c e73b c63b 1098 2d3d 2345 98bd
00000150: ce74 783d 4c86 16be daa9 53bd 431e d33d
00000160: 2269 bc3d 78df af3c 232b 663d 5a55 133e
00000170: 74f2 b8bc 2747 b03d bc7f 053e 7697 3ebc
00000180: 352a d03d 19df ca3c fefe 9ebd 18df f8bd
00000190: 4a2b 04bc 33f5 f63d 908f 4d3d aa9b 883d
000001a0: da2d 5cbd 33cb 15be 395f 54bd 9bcf 0abe
000001b0: d592 ee3d e1cc 1dbd 7a94 9fbd 0ae8 39bc
000001c0: b283 65bd f83d c0b9 6a98 cc3d 621d d8bd
000001d0: 29b1 823d 5e24 2c3d 5b3b 0c3d 3426 9b3b
000001e0: d6f0 fd3c 5df4 f1bd c89a 1b3d db3e 763d
000001f0: bf7c 073e 5c18 b33c b500 563b 8a5a ac3d
00000200: 97af dabd 66e9 28bd 4559 7b3a afd1 c4bd
00000210: b96d f03d 3d43 753d ed83 e73d e4cc c53c
00000220: 0e39 2d3d 87ab 323c dc9c 683d 4b40 3a3c
00000230: 63ed dabc 80b4 efbc f545 ccbc 8977 a4bd
00000240: 813d 6a3d 10a9 073e a0da 773c 8ff9 1abd
00000250: 047f 1b3b 5f61 02be e658 14be d75d b1bd
00000260: ed41 1fbd 96d3 b2bd 77d4 823d b968 213e
00000270: 8d7b fdbc 7a07 d53d 2621 bf3d 822c e73d
00000280: 6dd9 943d eec4 a23d 6077 763d df1e 95bd
00000290: cf32 2e3d c17e b23d 757f dabd f974 e2bd
000002a0: c3dd ca3d 6bd9 adbd 6451 b2bd 8d24 ddbc
000002b0: 576f d63c 506a 83bd 2894 b5bd c76b afbd
000002c0: 6052 bcbd 8340 e03d a3cb 863d 25db d6bd
000002d0: 184e ff3d 71c8 cf3d a946 06bd ac05 6abc
000002e0: fbb2 d6bd 376e 5bbd d33c 8f3d cc04 c2bd
000002f0: 1f9c 1b3d c3c6 b93d ad8a b1bd bfb2 66bc
00000300: 7429 033d ed74 b43d 6804 d6bd 8d07 bcbd
00000310: 9929 5c3d 7fb4 ec3b df28 f93d 66aa 0e3d
00000320: d437 b53d b9c1 b73d 4acb 84bd 6fa1 823d
00000330: b6ea 3f3d 2d5a b5bd 1f8c 9fbd 5b5f 9a3d
00000340: 5f37 743d a22e 6e3d 336b a8bd e302 12be
00000350: fa8e 953d 1cb6 e2bd 5d7e 7cba 4e34 9d3b
00000360: 6d39 153e 0d7e c53d 816f 023e 5b93 f33d
00000370: 024d d8bd 82a0 ca3d 017c 063e 31f7 b93d
00000380: 9bfd ba3c 2ed7 d8bd 1c32 17be c8e3 a63d
00000390: 212e 1d3d f2f1 c2bd d601 a43d 0108 a23d
000003a0: a5b4 583d 0a44 203d 9827 04be 321a a1bd
000003b0: 8ef0 acbd 39bb f4bd 1726 863c 3e87 9dbb
000003c0: a68f 48bd f4a7 4cbc 2d45 ce3d 401c 893d
000003d0: 69a9 5bbd b99f da3d ac56 91bd ee2e 873d
000003e0: 7255 a7bd 16e5 bebd 085d 9cbc 03a9 09bd
000003f0: e4f1 ab3c 70ee b2bc b82f 53bd aa61 fcbd
-0.10180402 -0.012923416 -0.023244653 -0.060926247 -0.05883077 0.11729796 0.01812498 0.06662348
0.028599853 0.0644937 -0.10763387 -0.000788771 0.060601607 0.0039585307 -0.040142752 0.014238715
-0.08238707 0.042062268 0.010176494 -0.069056466 0.078522325 -0.10240886 0.06207444 -0.06852758
-0.12242691 0.02453871 -0.020874826 0.090593465 -0.043113593 0.11991216 0.03395933 0.013123058
0.025306586 0.040267713 0.07514017 -0.0066175642 0.12090211 -0.09167606 -0.05281699 -0.032245398
-0.08042091 -0.08714064 -0.08327527 0.0144649865 -0.03571163 -0.09787178 0.05247577 0.090712525
0.044882968 -0.06727308 0.11413486 0.00899161 0.005649581 0.0051418426 0.07723643 -0.06872324
-0.08631507 0.032905128 -0.08717091 -0.050047558 -0.016624827 0.11129726 -0.032429595 -0.0022331267
-0.12257346 0.04230945 -0.12993358 -0.027441243 0.052830845 -0.067495406 0.059404295 -0.01582917
-0.071311004 -0.13304408 0.090284735 -0.11291993 -0.0802033 0.03077664 -0.054286804 0.009021974
0.011873486 0.0060496214 0.042381346 -0.07435062 0.06065827 -0.14699668 -0.051675655 0.10308506
0.0919974 0.021468863 0.056193482 0.14388028 -0.022576548 0.08607321 0.13037008 -0.011632791
0.101643 0.024764584 -0.0776348 -0.12151927 -0.008066962 0.12058487 0.05018574 0.066703156
-0.053754665 -0.14628296 -0.051848624 -0.13555758 0.116491 -0.038525466 -0.077919915 -0.011346826
-0.056033798 -0.00036667264 0.09990008 -0.10552479 0.06381447 0.04202687 0.034236293 0.004734779
0.030998629 -0.11814187 0.037989408 0.060118537 0.1323118 0.021862201 0.003265423 0.084157065
-0.10678022 -0.04123821 0.00095881923 -0.096103065 0.11739678 0.059878577 0.1130446 0.024145551
0.04229074 0.010905153 0.056790218 0.011367868 -0.026724523 -0.029260874 -0.024935702 -0.08030612
0.05718756 0.13248086 0.015127808 -0.037835654 0.002372683 -0.12732457 -0.14487037 -0.08660477
-0.03888123 -0.08731763 0.06388181 0.15762605 -0.030942703 0.10401817 0.093324944 0.11287786
0.07268033 0.079477176 0.06017244 -0.07281279 0.042528924 0.08715583 -0.10668842 -0.11057467
0.09905579 -0.08488735 -0.0870693 -0.026994968 0.026176138 -0.06416762 -0.08866149 -0.08565479
-0.09195399 0.10949805 0.06581809 -0.10491017 0.12466067 0.10145653 -0.03278223 -0.014283579
-0.104833566 -0.053571906 0.06994023 -0.09473571 0.037990686 0.09071114 -0.086690284 -0.014080702
0.032021955 0.08811364 -0.10450059 -0.09181128 0.053750608 0.0072236652 0.12165999 0.034830473
0.08848539 0.089724965 -0.06484087 0.06378447 0.046854697 -0.0885509 -0.07790398 0.07537719
0.05962312 0.05814994 -0.08223572 -0.14258914 0.07302661 -0.11069891 -0.00096318667 0.004797495
0.14572687 0.09643183 0.12737848 0.1189334 -0.10561563 0.09893896 0.13133241 0.09080351
0.022826007 -0.10587917 -0.14765209 0.081489146 0.03837407 -0.09518804 0.08008163 0.07911683
0.05290665 0.039127387 -0.12905729 -0.078663245 -0.0844432 -0.119497724 0.016375585 -0.004807382
-0.04896512 -0.012491215 0.10071788 0.066948414 -0.05362836 0.10674996 -0.070966095 0.06600748
-0.08170594 -0.093210384 -0.01908733 -0.033608448 0.020989366 -0.021842211 -0.05155918 -0.123233154

a2c_network.mu.bias f4 [24]
00000000: 9f5c bbbc 35ef d53c e8f7 223d 313d 353d
00000010: 7eed 6a3c 5805 c3bc 2781 7e3c 9146 23bb
00000020: a4b9 26bc ca83 c73a 1d12 25bc 32a6 a5bc
00000030: ce10 00bd d34d 51bd 27a7 23bd a873 d83c
00000040: e462 a7bc b3ae 5abd 8d9b dd3c f8c8 a0bc
00000050: ca34 d1bb cc46 4e3c 1027 c03b dc63 533c
-0.022871314 0.02611504 0.039787203 0.04424781 0.014338849 -0.023806259 0.015533722 -0.0024913887
-0.010176096 0.0015221771 -0.010075119 -0.02022085 -0.031266026 -0.05109961 -0.03995433 0.026422337
-0.020432897 -0.053389262 0.027051711 -0.01962708 -0.006384467 0.0125901215 0.0058640316 0.012902226

exp_avg f4 [24]
00000000: af5e d3bc 9d23 883c c3c3 86bb 42e4 e8bc
00000010: 9af1 353c efed 303c 6422 1e3d bbd2 00bc
00000020: 3e60 84bb 22dc aeba b0b5 d83c b3cf 47bc
00000030: d191 d53b b234 2bbb 483d a3bc b55c e3bb
00000040: b721 243c d149 13bc 8d41 bf3b 2a18 35bc
00000050: 3c18 f43b d34d a13c 0fc7 63bc f564 563c
-0.025801985 0.016618544 -0.004112692 -0.028429154 0.011104966 0.010798915 0.038607016 -0.007862742
-0.0040397933 -0.0013340751 0.026453823 -0.012195515 0.006517627 -0.0026123938 -0.019926682 -0.006938542
0.010017804 -0.008989767 0.0058366717 -0.011053124 0.007449178 0.01969043 -0.01390244 0.0130855935

exp_avg_sq f4 [24]
00000000: 64c7 733a 7970 883a 39a7 5e3a 4d51 623a
00000010: e7a7 6e3a 4b26 813a 43f4 843a 4e3b 6f3a
00000020: 6c48 4d3a 3d8d 6a3a 830c 623a be16 6c3a
00000030: 5193 673a 6ccd 4e3a 7922 7e3a 898c 443a
00000040: 480a 403a 1ec8 3d3a d9ce 6c3a c08a 5e3a
00000050: 14cc 7c3a 2264 6c3a c080 7f3a cb1a 853a
0.0009299426 0.0010409496 0.0008493546 0.00086333306 0.0009103999 0.0009853331 0.0010143596 0.00091259636
0.0007830921 0.0008947438 0.000862308 0.00090060744 0.00088339025 0.00078888866 0.0009694468 0.0007497748
0.0007325751 0.00072395976 0.0009033508 0.0008489303 0.0009643447 0.00090176065 0.0009746663 0.001015508

exp_avg f4 [256, 39]
00000000: 0000 0000 4212 65b6 6553 5ab6 cfd1 d6b5
00000010: 9676 b4b5 aaf6 87b6 cfd1 d6b5 4134 bfba
00000020: c1ad 92ba cfd1 d6b5 8ff0 923a 4db3 943a
00000030: 0000 0000 766b 37b6 0000 0000 0000 0000
00000040: 0000 0000 0000 0000 0000 0000 0000 0000
00000050: 3b3e af37 40c4 3fb6 49dc 99b6 0000 0000
00000060: 0000 0000 0000 0000 0000 0000 0000 0000
00000070: 0000 0000 0000 0000 0000 0000 0000 0000
00000080: 0000 0000 0000 0000 0000 0000 0000 0000
00000090: 0000 0000 0000 0000 e07f e4b4 0000 0000
000000a0: 031a 00b6 2433 f4b5 1c6d 70b5 e5d9 49b5
000000b0: 981c 18b6 1c6d 70b5 93fd 55ba 3e21 24ba
000000c0: 1c6d 70b5 0a6c 243a b164 263a 0000 0000
000000d0: d346 cdb5 0000 0000 0000 0000 0000 0000
000000e0: 0000 0000 0000 0000 0000 0000 180b 4437
000000f0: 3487 d6b5 9e16 2cb6 0000 0000 0000 0000
00000100: 0000 0000 0000 0000 0000 0000 0000 0000
00000110: 0000 0000 0000 0000 0000 0000 0000 0000
00000120: 0000 0000 0000 0000 0000 0000 0000 0000
00000130: 0000 0000 aebd 7fb4 0000 0000 85cc 52b4
00000140: d50f 49b4 99cc c6b3 4d30 a6b3 83a2 7ab4
00000150: 99cc c6b3 70e7 b0b8 827a 87b8 99cc c6b3
00000160: 7eb8 8738 e95a 8938 0000 0000 e2af 29b4
00000170: 0000 0000 0000 0000 0000 0000 0000 0000
00000180: 0000 0000 0000 0000 5a78 a135 e2b1 30b4
00000190: eca6 8db4 0000 0000 0000 0000 0000 0000
000001a0: 0000 0000 0000 0000 0000 0000 0000 0000
000001b0: 0000 0000 0000 0000 0000 0000 0000 0000
000001c0: 0000 0000 0000 0000 0000 0000 0000 0000
000001d0: c57d d3b2 0000 0000 d2d4 13b5 dbde 0cb5
000001e0: d161 8ab4 dadd 68b4 a66c 2fb5 d161 8ab4
000001f0: 5154 76b9 5210 3db9 d161 8ab4 4966 3d39
00000200: 70aa 3f39 0000 0000 2c55 ecb4 0000 0000
00000210: 0000 0000 0000 0000 0000 0000 0000 0000
00000220: 0000 0000 1b0c 6236 755c f7b4 d691 46b5
00000230: 0000 0000 0000 0000 0000 0000 0000 0000
00000240: 0000 0000 0000 0000 0000 0000 0000 0000
00000250: 0000 0000 0000 0000 0000 0000 0000 0000
00000260: 0000 0000 0000 0000 0000 0000 0330 93b3
00000270: 0000 0000 93fd 6c36 f3df 6136 d644 de35
00000280: 32b3 ba35 07ad 8c36 d644 de35 0ed7 c53a
00000290: a9c3 973a d644 de35 c808 98ba 36db 99ba
000002a0: 0000 0000 6dc7 3d36 0000 0000 0000 0000
000002b0: 0000 0000 0000 0000 0000 0000 0000 0000
000002c0: 7c4f b5b7 f767 4636 d62d 9f36 0000 0000
000002d0: 0000 0000 0000 0000 0000 0000 0000 0000
000002e0: 0000 0000 0000 0000 0000 0000 0000 0000
000002f0: 0000 0000 0000 0000 0000 0000 0000 0000
00000300: 0000 0000 0000 0000 836c ec34 0000 0000
00000310: c5d8 c6b6 de86 bdb6 528a 3ab6 79a8 1cb6
00000320: fc0f ecb6 528a 3ab6 840a 26bb b8b8 feba
00000330: 528a 3ab6 c12c ff3a e51d 013b 0000 0000
00000340: 4545 9fb6 0000 0000 0000 0000 0000 0000
00000350: 0000 0000 0000 0000 0000 0000 6a23 1838
00000360: b97b a6b6 e48f 05b7 0000 0000 0000 0000
00000370: 0000 0000 0000 0000 0000 0000 0000 0000
00000380: 0000 0000 0000 0000 0000 0000 0000 0000
00000390: 0000 0000 0000 0000 0000 0000 0000 0000
000003a0: 0000 0000 e46b 46b5 0000 0000 e87f b6b5
000003b0: eff4 adb5 ae46 2bb5 28c9 0fb5 dda6 d8b5
000003c0: ae46 2bb5 2278 18ba a5dd e9b9 ae46 2bb5
000003d0: 4348 ea39 7117 ed39 0000 0000 cc3b 92b5
000003e0: 0000 0000 0000 0000 0000 0000 0000 0000
000003f0: 0000 0000 0000 0000 c7a6 0b37 b6d1 98b5
0.0 -3.4134287e-06 -3.2533073e-06 -1.6005305e-06 -1.3445558e-06 -4.052029e-06 -1.6005305e-06 -0.0014587716
-0.0011190699 -1.6005305e-06 0.0011210608 0.001134494 0.0 -2.7331675e-06 0.0 0.0
0.0 0.0 0.0 0.0 2.0890604e-05 -2.857545e-06 -4.5854e-06 0.0
0.0 0.0 0.0 0.0 0.0 0.0 0.0 0.0
0.0 0.0 0.0 0.0 0.0 0.0 -4.256135e-07 0.0
-1.9088627e-06 -1.81943e-06 -8.956574e-07 -7.5195413e-07 -2.2666409e-06 -8.956574e-07 -0.00081630907 -0.0006261057
-8.956574e-07 0.00062722026 0.00063474016 0.0 -1.5294303e-06 0.0 0.0 0.0
0.0 0.0 0.0 1.1685093e-05 -1.5983592e-06 -2.5643162e-06 0.0 0.0
0.0 0.0 0.0 0.0 0.0 0.0 0.0 0.0
0.0 0.0 0.0 0.0 0.0 -2.3817731e-07 0.0 -1.9632178e-07
-1.8725343e-07 -9.2573096e-08 -7.738763e-08 -2.3342186e-07 -9.2573096e-08 -8.4354426e-05 -6.4601205e-05 -9.2573096e-08
6.471666e-05 6.5496024e-05 0.0 -1.5803337e-07 0.0 0.0 0.0 0.0
0.0 0.0 1.2030462e-06 -1.645599e-07 -2.6384748e-07 0.0 0.0 0.0
0.0 0.0 0.0 0.0 0.0 0.0 0.0 0.0
0.0 0.0 0.0 0.0 -2.4620826e-08 0.0 -5.507146e-07 -5.247836e-07
-2.5775674e-07 -2.1687393e-07 -6.5350685e-07 -2.5775674e-07 -0.00023491798 -0.00018030524 -2.5775674e-07 0.00018062549
0.00018278672 0.0 -4.4020396e-07 0.0 0.0 0.0 0.0 0.0
0.0 3.368367e-06 -4.6074607e-07 -7.3972967e-07 0.0 0.0 0.0 0.0
0.0 0.0 0.0 0.0 0.0 0.0 0.0 0.0
0.0 0.0 0.0 -6.853954e-08 0.0 3.531434e-06 3.3657968e-06 1.6560323e-06
1.3910233e-06 4.192468e-06 1.6560323e-06 0.0015093999 0.0011578697 1.6560323e-06 -0.0011599297 -0.0011738304
0.0 2.8279276e-06 0.0 0.0 0.0 0.0 0.0 0.0
-2.1613894e-05 2.9564815e-06 4.7439053e-06 0.0 0.0 0.0 0.0 0.0
0.0 0.0 0.0 0.0 0.0 0.0 0.0 0.0
0.0 0.0 4.4037378e-07 0.0 -5.926095e-06 -5.6483395e-06 -2.7796673e-06 -2.3343875e-06
-7.035209e-06 -2.7796673e-06 -0.0025335858 -0.0019433713 -2.7796673e-06 0.0019468294 0.0019701656 0.0
-4.7466333e-06 0.0 0.0 0.0 0.0 0.0 0.0 3.6272606e-05
-4.9615887e-06 -7.96092e-06 0.0 0.0 0.0 0.0 0.0 0.0
0.0 0.0 0.0 0.0 0.0 0.0 0.0 0.0
0.0 -7.391775e-07 0.0 -1.3597282e-06 -1.296079e-06 -6.3805317e-07 -5.356437e-07 -1.6141818e-06
-6.3805317e-07 -0.0005816241 -0.0004460636 -6.3805317e-07 0.00044685797 0.00045221628 0.0 -1.0895251e-06
0.0 0.0 0.0 0.0 0.0 0.0 8.3238765e-06 -1.1385916e-06
