runs/lift_30-15-31-58/nn/last_lift_ep_150_rew_-20.51039.pth (torch, 654677 bytes, 36 tensors)

value_mean_std.running_mean f8 [1]
00000000: 83d4 6da2 ddca 6cc0
-230.33955499125668

value_mean_std.running_var f8 [1]
00000000: a1d4 9a71 1ce9 fa40
110225.77773554857

value_mean_std.count f8 []
00000000: 0000 0000 08c0 0241
153601.0

running_mean_std.running_mean f8 [39]
00000000: 0000 0000 0000 0000 3532 3085 ebff f73f
00000010: 0333 3ba0 bacc f43f 3c98 95b1 e4ff df3f
00000020: ea47 ab47 8399 d93f 577e f2d3 1f33 0740
00000030: 3c98 95b1 e4ff df3f 6937 3b56 8683 d43f
00000040: 32d4 d39b d362 ed3f 3c98 95b1 e4ff df3f
00000050: fedc 07f2 8582 e43f 268e 70ad bc7a f13f
00000060: 0000 0000 0000 0000 3c98 95b1 e4ff ef3f
00000070: 0000 0000 0000 0000 0000 0000 0000 0000
00000080: 0000 0000 0000 0000 0000 0000 0000 0000
00000090: 0000 0000 0000 0000 0000 0000 0000 0000
000000a0: 1813 a049 a169 e93f f8a1 1e1a e084 de3f
000000b0: d686 0062 a79e 2340 0000 0000 0000 0000
000000c0: 0000 0000 0000 0000 0000 0000 0000 0000
000000d0: 0000 0000 0000 0000 0000 0000 0000 0000
000000e0: 0000 0000 0000 0000 0000 0000 0000 0000
000000f0: 0000 0000 0000 0000 0000 0000 0000 0000
00000100: 0000 0000 0000 0000 0000 0000 0000 0000
00000110: 0000 0000 0000 0000 0000 0000 0000 0000
00000120: 0000 0000 0000 0000 0000 0000 0000 0000
00000130: 3c98 95b1 e4ff bf3f
0.0 1.499980469004311 1.299982667830762 0.4999934896681031 0.39999467848713144 2.8999630506876133 0.4999934896681031 0.3205276338675192
0.918313793516637 0.4999934896681031 0.6409330107843798 1.0924650931346007 0.0 0.9999869793362062 0.0 0.0
0.0 0.0 0.0 0.0 0.7941442907327625 0.47686007071254677 9.809870779575629 0.0
0.0 0.0 0.0 0.0 0.0 0.0 0.0 0.0
0.0 0.0 0.0 0.0 0.0 0.0 0.12499837241702577

running_mean_std.running_var f8 [39]
00000000: dd81 c067 6a4e eb3e 8552 f158 a92f 063f
00000010: 2824 32a4 035d 023f 4fda 3597 ff10 f13e
00000020: 664d 98f0 ddac ef3e 2e00 0142 310f 203f
00000030: 4fda 3597 ff10 f13e 5db9 7fdf 4aa6 c83f
00000040: e1da 5b40 70c3 e83f 4fda 3597 ff10 f13e
00000050: eccb 9760 d9e8 dd3f 9298 ee31 6ae0 dc3f
00000060: dd81 c067 6a4e eb3e 5ca6 36c1 5e4e fb3e
00000070: dd81 c067 6a4e eb3e dd81 c067 6a4e eb3e
00000080: dd81 c067 6a4e eb3e dd81 c067 6a4e eb3e
00000090: dd81 c067 6a4e eb3e dd81 c067 6a4e eb3e
000000a0: 45b5 f87b 03f4 d93f 7999 52de e88c f53f
000000b0: 4d20 2895 3fbe 543f dd81 c067 6a4e eb3e
000000c0: dd81 c067 6a4e eb3e dd81 c067 6a4e eb3e
000000d0: dd81 c067 6a4e eb3e dd81 c067 6a4e eb3e
000000e0: dd81 c067 6a4e eb3e dd81 c067 6a4e eb3e
000000f0: dd81 c067 6a4e eb3e dd81 c067 6a4e eb3e
00000100: dd81 c067 6a4e eb3e dd81 c067 6a4e eb3e
00000110: dd81 c067 6a4e eb3e dd81 c067 6a4e eb3e
00000120: dd81 c067 6a4e eb3e dd81 c067 6a4e eb3e
00000130: 1f35 2bb4 a3bb eb3e
1.3020663793440166e-05 4.2316775868887976e-05 3.5025285364538854e-05 1.627578735737884e-05 1.5103941694716554e-05 0.0001225230817016877 1.627578735737884e-05 0.19257484353097257
0.7738572365768414 1.627578735737884e-05 0.4673369830408649 0.45119719387219803 1.3020663793440166e-05 2.604115804919479e-05 1.3020663793440166e-05 1.3020663793440166e-05
1.3020663793440166e-05 1.3020663793440166e-05 1.3020663793440166e-05 1.3020663793440166e-05 0.4055184088382087 1.3469017681578335 0.0012660618709805671 1.3020663793440166e-05
1.3020663793440166e-05 1.3020663793440166e-05 1.3020663793440166e-05 1.3020663793440166e-05 1.3020663793440166e-05 1.3020663793440166e-05 1.3020663793440166e-05 1.3020663793440166e-05
1.3020663793440166e-05 1.3020663793440166e-05 1.3020663793440166e-05 1.3020663793440166e-05 1.3020663793440166e-05 1.3020663793440166e-05 1.322410901618637e-05

running_mean_std.count f8 []
00000000: 0000 0000 10c0 f240
76801.0

a2c_network.sigma f4 [24]
00000000: ed0b 8b3b 583c 9abc 1ab7 223d 267d 27bc
00000010: 5afa 9f3c ad64 81bc eddb b3bc 252d 7ebd
00000020: 3b43 8dbd 53ed d1bc ecc9 223c a393 303c
00000030: 288b 74bd 0123 abbc 1db6 453c ac50 0fbd
00000040: c4c2 dfbc 38e2 10bd de9d cdbc 1135 adbb
00000050: 2b92 a0bb cf81 853c 95e7 5ebd 1e06 bf3c
0.004243365 -0.018827602 0.0397254 -0.010222709 0.019528557 -0.015795076 -0.021955455 -0.062054772
-0.06897589 -0.02562586 0.009935837 0.010777387 -0.059703022 -0.020890715 0.012067345 -0.034989044
-0.027314551 -0.03537199 -0.025099691 -0.005285867 -0.004900237 0.01629725 -0.054420073 0.023318347

a2c_network.actor_mlp.0.weight f4 [256, 39]
00000000: 38d9 4ebd af7c 693d af33 f1bc 5e3a a73d
00000010: 32fd 203e affc d93d 1a50 64bd 360b a83d
00000020: 262e 2ebc 69c0 c33d 30b9 febd 337f 2fbe
00000030: 7568 7dbd 7ba8 debd 768b 063e 58ea 3c3d
00000040: 94d6 873d 516e 4f3d 5c8e 36bb 4353 003e
00000050: 1767 f9bd 709f 043c 72ba c3bd 503e 4a3d
00000060: 09e0 61bd 4bf9 483d e5a5 08bd 14ff 073e
00000070: 435f c2bd 8f95 c3bd 9598 c3bd 947b 133e
00000080: 0a93 5a3d 0bc8 1d3e 5152 07be 9fa3 22be
00000090: ff48 00be 729a dcbd 2438 a23d 46db 6a3d
000000a0: 7df0 e83d d9ea d0bd 414d 03be 09f0 863d
000000b0: 284c acbd 95fe 9f3d c84a 50bd 9fd9 7f3d
000000c0: c1eb 12be 3ebb aebd cc06 833c b5a8 0a3d
000000d0: 7ce6 75bd fa79 c33d 34f0 de3d acd0 edbd
000000e0: fa13 afbd 6824 163e 1f51 5dbd a86c 93bd
000000f0: 2d6f 1cbe b8ce e3bd abd7 233d 0825 adbc
00000100: 800c eebd 8328 763b ec02 e0bd d61c 0bbe
00000110: ed95 b4bd 7582 0fbe 3dd0 d0bd 37e8 233e
00000120: aec2 f73c 071e 4a3d f2ee 18be 4e62 d7bd
00000130: ab50 5abd 6d7d c63b 2248 10be 6a68 b4bd
00000140: be6f ebbd 87b0 99bc bf59 a1bd c501 f7bc
00000150: f8c6 02be 701b e3bd f961 84bd e795 97bd
00000160: 0d0e e6bd e171 0d3e 682b 02bd 86f5 f23d
00000170: ab5c 4c3d b0d9 0abe 9df2 e23d 9d76 34bd
00000180: f36a 7bbd 901b 08be ea86 21be 6efc 5b3d
00000190: 7d1a 5dbd e559 7f3d b090 06be 5a79 f33d
000001a0: 35ba f0bd f781 e2bc 96fe 083d 064d a93d
000001b0: 2b60 043e 005f 153e 3404 02be 9410 253d
000001c0: 7a0e 8dbd 03c0 8fbc 3076 f5bd c75a 153e
000001d0: 060c 0cbe ed44 af3d bb22 973d 8e73 8e3d
000001e0: 62ae 8dbd c9da 263e 2715 583d cb9c 1b3d
000001f0: 8d7e 05be 9be7 ad3d 9e40 d9bb e66b 8bbd
00000200: 3b94 243e 8f3a 123d 18ab 91bd 04fc a5bd
00000210: fa93 fabb 411c b73d cc99 27bd a01d bbbd
00000220: 659a 60bd 6dee d5bd 99cb 663d 6df8 103e
00000230: 7f5e 1abe 6854 183d 9169 a93d c5dc ed3c
00000240: a793 69bd bf2a ab3d 8c56 ac3d d340 753d
00000250: 8b81 e6bc ddad 2dbd 9755 8c3c c1ba e7bc
00000260: 5374 43bd 819f d13d b3ea 0c3e c2fc c33a
00000270: bfd9 12bd c1de c0bb 56ad 91bc c295 f53c
00000280: 10fa 143d 993c 1dbe d277 8abd 95bb 153e
00000290: ac66 b83d 0806 87bc 0c23 acbd e213 abbd
000002a0: 47e1 12be 6eff 77bd bd7e 5d3d 6b1a d13d
000002b0: 0069 973d fff0 10be 5836 c5bd e404 cfbc
000002c0: 3025 1e3e bcf7 be3c eb6d 4abd bfac 873d
000002d0: 80d0 79bd 3a43 d4bd 6b5c ef3d b31d 95bd
000002e0: ad7b 03bd 891e 23be 757b db3d e775 f83d
000002f0: 3b09 6f3d 72aa e4bd 6ad4 21be 8a2c 05be
00000300: f88b f43d 7272 9d3d 032c 013e 96cc ab3d
00000310: 9617 023d 6557 29bc 265c 05be 5528 15be
00000320: 6a76 22be f7db 693d 7117 c2bd da22 7ebd
00000330: d10c cebd 5ed9 36bd 51c9 0bbe 6148 d6bd
00000340: 3a33 363d 37ed 42bd fa73 ca3d e369 52bd
00000350: 5d91 f0bd 7f72 e7bc 21f8 9ebd 5308 88bd
00000360: fb63 15be 82f7 a43d a550 e4bd 66d4 a43d
00000370: abd0 943d f64a ea3d 868c fbbd ebda eb3d
00000380: 0b09 9bbd f160 733d dffc 193e 5700 b9bc
00000390: f94f a2ba 3701 17bd d7e9 08be 6a61 9d3d
000003a0: f4c6 22be 2d79 ba3d f15f f53d 616b 203e
000003b0: 544e 05bd 8e68 01be 69bd 283d 07e3 bf3d
000003c0: 85e2 1dbe 111d 2dbd 00f6 99bd 0063 10bc
000003d0: 848f aebd b287 31bd 6b37 50bd 387c 16be
000003e0: 258a 063e 5276 093e adc6 cdbc 1663 95bc
000003f0: 00d7 85bd 8913 14be ec13 1cbe 6f1d 833d
-0.050500125 0.057003673 -0.02944359 0.081654295 0.15721586 0.10643899 -0.055740453 0.08205263
-0.01063112 0.09558184 -0.124376655 -0.17138366 -0.061867196 -0.10871979 0.13139138 0.046121925
0.066327244 0.050642315 -0.002785585 0.12531762 -0.12177866 0.0080946535 -0.09557046 0.049375832
-0.055145297 0.04906587 -0.033361334 0.13280898 -0.09490826 -0.095500104 -0.09550587 0.1440261
0.053362884 0.15408342 -0.13214995 -0.15882729 -0.12527846 -0.107716456 0.07920864 0.05733802
0.113739945 -0.10201044 -0.12822439 0.06588752 -0.08412963 0.078122295 -0.050852567 0.0624634
-0.14347745 -0.08531807 0.015994452 0.033852298 -0.06003426 0.095447496 0.10885659 -0.116120666
-0.08548732 0.14662325 -0.05403244 -0.07198459 -0.15276785 -0.11123413 0.0400006 -0.021135822
-0.11623478 0.0037560768 -0.10938057 -0.13585219 -0.088176586 -0.14014609 -0.10195968 0.16006552
0.030244198 0.049345043 -0.149349 -0.10516797 -0.053299587 0.0060574324 -0.14090016 -0.08808978
-0.114959225 -0.018760933 -0.07878446 -0.030152211 -0.12771213 -0.11089218 -0.06463999 -0.074016385
-0.11233149 0.13812973 -0.031779677 0.11863236 0.049893063 -0.13559604 0.11081431 -0.04405843
-0.06138129 -0.13291764 -0.15774122 0.053707533 -0.05398034 0.06234159 -0.13141131 0.1188838
-0.11754266 -0.027649863 0.033445917 0.08266644 0.1292731 0.14587021 -0.12696916 0.040299013
-0.06887527 -0.017547613 -0.11985433 0.1458541 -0.13676462 0.085580684 0.07379671 0.06955634
-0.069180265 0.16294397 0.052754547 0.037991326 -0.13036557 0.08491441 -0.0066300174 -0.06807689
0.1607217 0.035700377 -0.07112712 -0.08104709 -0.0076470347 0.08940936 -0.040918157 -0.0913651
-0.054834742 -0.10445867 0.05634651 0.14157267 -0.1507511 0.03718987 0.08272088 0.029035935
-0.057025578 0.083577625 0.08414945 0.059876274 -0.028137943 -0.042402137 0.017130656 -0.028287293
-0.047718357 0.10235501 0.13761406 0.0014952647 -0.03585219 -0.0058859293 -0.017782848 0.029978637
0.03637129 -0.15355147 -0.06761135 0.14622338 0.09003958 -0.016482368 -0.08405122 -0.08353402
-0.14343749 -0.06054633 0.054075945 0.10210117 0.07393074 -0.14154433 -0.09629506 -0.025270887
0.15443873 0.023311488 -0.049421232 0.066247456 -0.060989857 -0.10364385 0.11687549 -0.07281055
-0.03210037 -0.15929617 0.10716907 0.12131863 0.058358412 -0.11165322 -0.15803686 -0.13005272
0.119407594 0.07687844 0.12614445 0.08388631 0.031760775 -0.010335778 -0.13023433 -0.14566167
-0.15865484 0.05709454 -0.09477127 -0.062044956 -0.10061038 -0.04464089 -0.13651015 -0.10463024
0.044482447 -0.047589507 0.09885402 -0.051370513 -0.11746476 -0.028252838 -0.077621706 -0.06642213
-0.14588921 0.08055021 -0.11148194 0.08048324 0.07266363 0.11440079 -0.12282662 0.11516365
-0.07570084 0.059418622 0.15037869 -0.02258317 -0.0012383453 -0.036866393 -0.13370453 0.07684596
-0.15896207 0.09105144 0.1198119 0.15665962 -0.032545403 -0.1263754 0.04119626 0.09369474
-0.15418442 -0.042264048 -0.07517624 -0.008812666 -0.08523467 -0.0433423 -0.0508341 -0.14695823
0.13138635 0.13424042 -0.02511915 -0.018235724 -0.065351486 -0.14460577 -0.15241975 0.064020984

a2c_network.actor_mlp.0.bias f4 [256]
00000000: 8848 153b ddf4 d5bc 613d 63bc 3fc9 b13c
00000010: b475 1b3a 273a 8cbc 2b94 cc3b 7ade 283c
00000020: f3cc 1fbc 1d50 9f3c 8c5c 993b cfef 13bb
00000030: d4b1 22bb e051 bb3b d61f e1bc 4947 c3bc
00000040: 5379 7c3a 91ab 1f3c 1a8e 93bb 84f0 9cbb
00000050: dafa 0abb 6cca 2abc 0ed2 5ebc 0d30 3abc
00000060: 0674 70bc f288 10bc 52d7 6f3b 0892 99bb
00000070: 85ce b73c 7408 df3b 8321 c53b bdbb c93b
00000080: 1e96 da3c d3d6 2abc c1bf f73a 5c0a b0bc
00000090: bcf2 c0bc 0d73 d8bc 827c 2b3c 8279 e53b
000000a0: 3e49 41bc 7590 08bb 2e86 cdbc 29ed 54bc
000000b0: d021 74bc 40ae 1ebb 075b b6bc 16c1 303c
000000c0: 8fa2 e7bc 4540 5ebc fb62 94bb 4410 d83c
000000d0: fa48 b33b 67a0 4c3c 2ed3 babc 89c4 cdb8
000000e0: a3e9 05bb db5e de3b 2310 1abb 37b5 a2bc
000000f0: 6421 cbbc 2e97 87b9 06ac 583c b835 273c
00000100: 0ab7 b5bc c72a ae3c 93eb b1bc eb3c abbc
00000110: d4c2 4bbc 914f f83b 2f82 abba 5443 6abc
00000120: 6aa2 c33c aac3 9b3b 7259 5f3c 5754 03bc
00000130: 2f9c 113d 76cf d93c da89 ecbc 6c41 b3bc
00000140: 4f35 b9bc 0251 a63b 40d0 8a3c c397 bf3c
00000150: aa31 f8ba 1eda 5bbb 33f3 33bc a2fc 8ebc
00000160: 12de 41bc 4754 82bc 1407 c1bc 2baa dabc
00000170: d9ec b93c 3962 ba3c af17 de3c 03ac a2b9
00000180: d4ec d1bb b984 b13c d3c3 fcbb 5e63 813b
00000190: 497d ac3c bd87 0c3a ae5c 4a3c c7dd f63b
000001a0: 3500 373a 2f2e 4ebc f27b b53b c681 8cbc
000001b0: 3316 16bc 06ce 643c d9f5 9abc 148c 5ebc
000001c0: 80a2 c13a 8beb a33c 1505 e6bc 4139 913c
000001d0: 0450 e13c 959d c2bb 9837 c1bb 7019 d2bc
000001e0: 5b16 2a3c 38ff 91bb a784 96bc c95d 73bb
000001f0: 71db 6abb da9b babc d1f2 173b fc37 db3c
00000200: 4f4f b33c 16b3 033c 6f97 5c3b f8d9 1b3b
00000210: e8f2 c8bb a37d d73b dafa 19bc fedc ad3c
00000220: 2f00 20bc ddb5 4bbc 685e a8bc 66b9 973c
00000230: b921 693b 384d cf3c 66ae ab3c 11e0 ab3c
00000240: 8474 7a3c be11 ae3c 82cb 38bc cafe 82bb
00000250: 0a9b ad3c 0afd 073a eb60 aa3c e97f a83a
00000260: f73a 2cbb f20c dabc 1c82 133c bdde edba
00000270: 2567 b9bc a0a6 bebc 7dd9 65bc 3bc7 81bc
00000280: d8fe dfbc 3177 b9bb 4bd2 cdbc d14c 3ebc
00000290: 028c 0ebc a518 033d e99e 92bc 34db 4bbc
000002a0: 1da1 2a3b a99f fe3b 2a14 faba 56c0 8abc
000002b0: a131 8fbb 084a 503c 21d7 f6ba d2d5 bcbc
000002c0: 5107 003d 5760 71bc eb0c 913a 3e13 c6bc
000002d0: 05d1 3cbc 5869 f93c d957 e0b9 55be 3f3c
000002e0: fe28 a63c 00a9 ee3c 05ea 8a3b 9c2b 9cbc
000002f0: 19f3 7ebc f6c0 613c 6208 d33c 9ba0 99bc
00000300: 3120 de3c f22e d0bb be27 8f3c 8f75 c83a
00000310: 3c59 963c 8220 6abc 324b d5bb 9ca7 a4bc
00000320: 0de6 653b 6038 4b3b 9c0a 8a3c bae4 9f3a
00000330: 9c13 b2bb 108f 4dbc 970c b43a 4548 6a3c
00000340: fe29 773c 46d3 4e37 5126 9f3b 7d10 7abc
00000350: e489 56bb 0896 0d3c 7f08 a23c 5dbd 173c
00000360: f901 1fbc 34d9 a0bc 7ebd de3c 4721 433c
00000370: 58e8 093b 2eed a33b b791 2d3b 72c8 a93b
00000380: c73e 993b d752 0abc 6b4c e1bb ceca c7bb
00000390: 22cd 62bb 6825 6ebb 730c 0f3c c5a7 9eba
000003a0: 6bdf a4bc 879e 31bc 4172 1d3b abc0 b83c
000003b0: 89ef 47bb cd76 a93b de93 c23b 7a07 c6bc
000003c0: abde 583b 53c7 263a 9d1e 75bb ce64 c33c
000003d0: 3beb ae3b 520b db3c 7b6b d23c 0b98 a13c
000003e0: 2316 4bbc 8333 c63c 3d9f 44bc 81ed b23c
000003f0: b5aa bf3b e187 993c f64e 933c 5e35 48bc
0.0022778828 -0.026117736 -0.013869614 0.021702407 0.000593032 -0.017117573 0.006243249 0.010306949
-0.009753454 0.01944738 0.004680222 -0.0022573357 -0.0024825232 0.0057165474 -0.027481 -0.023837702
0.0009631116 0.009745494 -0.004503024 -0.004789414 -0.0021206648 -0.010424238 -0.013599886 -0.011363995
-0.0146761 -0.008821713 0.0036596847 -0.0046865977 0.022437343 0.0068064276 0.006015958 0.0061564134
0.02668291 -0.010427195 0.0018901752 -0.021489315 -0.023553245 -0.026422048 0.010466697 0.0070030103
-0.011797247 -0.0020838056 -0.025088396 -0.0129959965 -0.01490064 -0.0024212748 -0.022260202 0.010788223
-0.028275756 -0.013565128 -0.004528401 0.026374944 0.005471346 0.012489415 -0.022805776 -9.811769e-05
-0.0020433448 0.00678621 -0.0023508153 -0.0198618 -0.024796195 -0.00025861844 0.013224607 0.010205679
-0.022182006 0.021260632 -0.021718776 -0.020903071 -0.012436587 0.0075778444 -0.0013085062 -0.014298279
0.023881156 0.0047535496 0.013632165 -0.008015714 0.03554934 0.026588183 -0.028874326 -0.021881782
-0.022608427 0.005075575 0.016945004 0.023387795 -0.00189357 -0.0033546756 -0.010983276 -0.01745445
-0.011832731 -0.015909327 -0.023562945 -0.02669247 0.022695946 0.022751914 0.027110903 -0.00031027207
-0.006406406 0.021669732 -0.0077137738 0.003948613 0.021055834 0.0005360803 0.012351198 0.007533762
0.0006980927 -0.012584253 0.005538457 -0.017151725 -0.009160566 0.013965135 -0.018916057 -0.013583202
0.001477316 0.020009777 -0.028078595 0.017727496 0.027503975 -0.0059391954 -0.00589652 -0.025646895
0.0103813065 -0.0044554733 -0.0183738 -0.0037134758 -0.0035836364 -0.022779394 0.0023185501 0.026760094
0.021888403 0.008038303 0.0033659597 0.0023781043 -0.0061324723 0.0065762564 -0.009398187 0.021223541
-0.009765669 -0.012433496 -0.020552829 0.018521022 0.0035573079 0.025305375 0.020957183 0.020980867
0.015286569 0.021248695 -0.011278989 -0.0039976584 0.021192092 0.0005187547 0.020798167 0.0012855503
-0.0026280263 -0.0266175 0.009003188 -0.0018148046 -0.022632191 -0.023272812 -0.014028904 -0.01584207
-0.027343199 -0.0056599607 -0.02512469 -0.011614994 -0.008700373 0.032005925 -0.01789804 -0.012442399
0.0026035972 0.007770498 -0.0019079496 -0.016937416 -0.00436993 0.012712963 -0.0018832424 -0.023051176
0.031256977 -0.014732442 0.0011066472 -0.024179097 -0.0115244435 0.03044574 -0.0004279006 0.011703094
0.020283218 0.02913332 0.004239323 -0.019063763 -0.015560889 0.013778916 0.025760833 -0.01875334
0.02711496 -0.0063532526 0.017475005 0.0015293824 0.018353097 -0.014289977 -0.006509208 -0.020099454
0.0035079748 0.0031008944 0.016850762 0.0012198903 -0.0054344665 -0.012546316 0.0013736662 0.014299457
0.015085695 1.2327748e-05 0.0048568626 -0.01526272 -0.0032735998 0.008641727 0.019779442 0.009261456
-0.00970506 -0.01963482 0.027189966 0.011909789 0.0021043029 0.0050026393 0.0026484558 0.0051813656
0.004676673 -0.008442602 -0.006875565 -0.0060971742 -0.0034607132 -0.0036338214 0.0087309955 -0.0012104443
-0.020126065 -0.0108410185 0.00240244 0.022552809 -0.0030507764 0.005171633 0.0059380373 -0.024173487
0.0033091705 0.0006362099 -0.003740228 0.023851778 0.0053381003 0.026738796 0.025686016 0.01972582
-0.0123954145 0.024194485 -0.012000856 0.021841766 0.0058492073 0.01874155 0.017981987 -0.012219755

a2c_network.actor_mlp.2.weight f4 [128, 256]
00000000: 1d34 533c c512 b1bb 1513 8b3c 5372 52bd
00000010: ac18 d3bc 0078 3d3d ae05 82bd 05e0 80bd
00000020: c085 59bd b82a 74bd 3a01 59bd 70e0 00bd
00000030: b22f 843c fb10 9ebd c2cd 9abd c67a 1dbd
00000040: c627 76bd dfa5 113d 1a1b c8bc 96f0 ef3c
00000050: 97de 9a3d 5007 fcbc be74 08bc 5e4b 6dbc
00000060: 8dd6 3f3d 831b ba3c 44b2 9ebc c9e2 9e3b
00000070: e740 a7bd b852 0fbd 4715 66bd e21a 99bd
00000080: efde 4fbd 5354 15bd 1a71 92bc cdfa 203d
00000090: 9d51 1e3c dd5a a5bb 2b5c 11bc 8ee8 953d
000000a0: 7d40 a9bc 8240 463d 2898 283d d51e 39bd
000000b0: e8c4 483d c6ec 993c 8758 6dbd a2ed 9e3d
000000c0: 1cce 663c 636d af3d a054 b8ba 5a14 13bd
000000d0: fa26 983d 9577 0cbb 70d6 653d 9d6c b7bc
000000e0: 18b9 e33c 31c8 24bc b826 003d 5c24 bc3c
000000f0: 6bbf 54bc 1eba 8c3d a169 a73c 2474 7fbb
00000100: ea89 e13c feb6 1c3c cae9 15bc 7c68 243d
00000110: 5140 7dbd b0cd e8bc 5862 c93c 43d4 b4bc
00000120: 5565 e2bc b4af 453d 23bb 7f3c 3282 f3bc
00000130: ffdb 483c cf27 043d f78b f4bc a215 3b3d
00000140: 30ee 04bc 5c27 02bd a750 f2bc ffcc 78bc
00000150: df8e 0c3d 0e0a 81bc 76b4 9dbd a046 39bc
00000160: d28f 673d 2c34 1ebd fc41 8f3d ac6b 1a3d
00000170: 3925 813d ba01 8bbc c1ab 43bd cbd0 8dbd
00000180: 6413 b23a 8949 a8bc a0c1 243a 3813 303d
00000190: 1b18 813d e2d3 c1bd 9a24 2fbd dcea b7bb
000001a0: 1715 aebc 0ecd 663d d5b1 12bd 109f 333d
000001b0: 7863 e5bc 6799 053c 1b3d a1bc 50e8 10bc
000001c0: c635 29bd 0d50 abbd 3949 4ebc aea3 47bc
000001d0: fa10 57bd df82 94bc 9d96 6cbd 9d24 0fbd
000001e0: 8395 9cbd 2231 933d 2671 d73b a2ff e93c
000001f0: ab00 95bd c353 df3a aa46 95bd c1ca 033d
00000200: 9efb 2b3d b8de 8fbd c50f 903d 53ff 2db9
00000210: f26d 81bd 0247 db3b db3f 1d3d 6180 70bd
00000220: 5c77 0e3d af96 103d 4d93 033d 7f1f 00bd
00000230: 4ca3 b43c 3ff1 4f3c a23f 9d3d c6f2 83bd
00000240: 143b 97ba e5d3 bd3c 9aaa 22bd 875c b0bc
00000250: b273 3b3d 892c d83c 270a 873b 8f7b 60bc
00000260: 6374 7dbd b92c 2f3d 08ac f0bc 5964 c6bd
00000270: e0e2 b33c d49c 08bd 4fa2 bc3c 8b1f 8a3d
00000280: c8e1 743d 1334 013d f43b 06bd 32db 05bb
00000290: 9455 e13c 7556 1cbd 0d47 353d deeb 533d
000002a0: 7b39 88bd a5c7 46bc 17a5 29bd c490 803c
000002b0: 68ee d03c ecb5 53bd 298c 4b3c 5892 4fbc
000002c0: 1311 373d 69e0 4a3d 21e7 603c f55b 6bbd
000002d0: b2b2 e93c 6ea7 1fbd 0833 bd3c 7bdf c1bc
000002e0: 23ce 713d 584e 04bc ab34 d83b bd66 22bd
000002f0: f866 043d b898 53bc 2583 963c 02de a93c
00000300: b06f 4dbd f978 53bd dd1d 003d 9584 0ebd
00000310: a84d 90bd df2c 9a3d 7c91 d0bc 7437 eebc
00000320: b807 a4bd 24e3 123d 11fb afbc 51e4 943c
00000330: f464 443b cb4a 58bb 13d1 cfbb be42 833d
00000340: ca7c c43c 8b69 483c cce4 9abd f5ce 4fbd
00000350: 43f6 683c e0a2 fc3b 9676 c83b 04fc 8ebc
00000360: d298 143d f3d2 383d 3e99 febc 27e6 113c
00000370: 8e91 04bd c334 8d3d 3f79 79bc f23b 73bc
00000380: a69e 803d e8e8 26bd c589 b53c 0cb3 15bd
00000390: 16f6 89bd 722c 0b3d e645 3fbb 80ff c9bd
000003a0: 2108 60bd 01c9 7ebc 3f7a 1a3d f1dd d73c
000003b0: e881 9eba 484d 133d 8564 a6bd a61e 473d
000003c0: f214 183c f716 72bb 650e 883c 3d1a 413c
000003d0: 6ace 6b3a 0b51 d63c 6de0 893d 1eb6 a53d
000003e0: 2f26 39bc 3edc 883c a3c3 043d 7b0e d7bc
000003f0: 2138 543d 33d2 923c 512d 7b3d 2736 adba
0.012890843 -0.005403849 0.016976872 -0.05137856 -0.0257686 0.04625702 -0.063487396 -0.06292728
-0.05310607 -0.059611052 -0.052979685 -0.03146404 0.016136024 -0.077180825 -0.075587764 -0.038447164
-0.060096525 0.035558578 -0.024426986 0.029289525 0.07561987 -0.030765206 -0.008328615 -0.014483301
0.04683547 0.022718197 -0.019372113 0.0048488122 -0.08166676 -0.034990996 -0.056172635 -0.074758306
-0.050749715 -0.03645737 -0.017876197 0.039301682 0.009663013 -0.005046232 -0.008872072 0.07319747
-0.020660633 0.048401363 0.041160733 -0.04519542 0.04901591 0.01878966 -0.057945754 0.077601686
0.014087226 0.08565786 -0.0014063306 -0.03590808 0.07429309 -0.002143358 0.056112707 -0.022390658
0.02779822 -0.010057495 0.031286925 0.022966556 -0.012985091 0.068714365 0.02043611 -0.0038979137
0.027531583 0.009565113 -0.009149978 0.040138707 -0.061828915 -0.028418392 0.024583027 -0.02207387
-0.02763621 0.048263267 0.015608582 -0.029725168 0.012259482 0.032264527 -0.029851897 0.045674928
-0.008113429 -0.031775817 -0.029579474 -0.015185594 0.03431594 -0.015751865 -0.07700436 -0.011308342
0.056533642 -0.038623974 0.069950074 0.03770034 0.06305928 -0.016968597 -0.04777122 -0.0692459
0.0013586101 -0.020542877 0.0006284956 0.04298708 0.06303426 -0.094642416 -0.042759515 -0.005612714
-0.02125029 0.0563479 -0.035814125 0.043852866 -0.028001532 0.00815425 -0.019682458 -0.00884445
-0.041311048 -0.08364878 -0.0125907 -0.01218502 -0.052506424 -0.01812881 -0.057760824 -0.034947027
-0.076457046 0.07187106 0.0065747676 0.028564278 -0.07275518 0.0017038513 -0.07288869 0.032175783
0.041988008 -0.07024902 0.07034258 -0.00016593681 -0.063197985 0.0066918144 0.038390975 -0.05871618
0.0347818 0.035299953 0.0321229 -0.031280037 0.022050522 0.012691795 0.076781526 -0.0644279
-0.0011537992 0.023172328 -0.03971348 -0.021528495 0.045764633 0.026388424 0.0041210833 -0.013701334
-0.061878573 0.04276726 -0.029378906 -0.096871085 0.021958768 -0.033352688 0.023026614 0.067442976
0.059785634 0.031543802 -0.03277202 -0.002042484 0.027506627 -0.03816839 0.044257212 0.051738612
-0.066515885 -0.01213256 -0.041417208 0.01569403 0.025504306 -0.051687166 0.0124235535 -0.012669168
0.044694018 0.04953042 0.01372698 -0.057460744 0.028527591 -0.038978033 0.023095623 -0.023666134
0.059034478 -0.008075319 0.0065980754 -0.03964876 0.03232476 -0.012914829 0.018373081 0.020735744
-0.05015534 -0.05162904 0.03127848 -0.03479441 -0.07046062 0.0752809 -0.025459997 -0.029079176
-0.08009285 0.03586115 -0.021482022 0.018175276 0.00299674 -0.0033003564 -0.0063420623 0.064092144
0.023985285 0.012232195 -0.07563171 -0.05073448 0.01421887 0.007709846 0.006117652 -0.017454155
0.036278553 0.04512305 -0.031078931 0.00890497 -0.032365374 0.06894829 -0.015226661 -0.014845835
0.0628026 -0.04074946 0.02216042 -0.036547706 -0.0673639 0.033977933 -0.002918595 -0.09863186
-0.054695252 -0.015550853 0.03771424 0.026350947 -0.0012093158 0.035962373 -0.08124641 0.048613213
0.0092823375 -0.0036939958 0.016608426 0.011786041 0.00089952967 0.026161691 0.06732259 0.08091377
-0.011300608 0.016706582 0.032413136 -0.026252022 0.05181134 0.017922496 0.061322514 -0.0013214991

a2c_network.actor_mlp.2.bias f4 [128]
00000000: 0b94 89bc 6ba3 f63c a391 80bc 80c8 183d
00000010: bfad 05bd d47e 34bc c9cf 14bc 5acb ab3c
00000020: 9d6f 01bd 1d92 e83b 2c64 293c e649 053d
00000030: 796b 053d 7b31 debc b71c 053d f47c f43c
00000040: b089 0abd 44dc bcbb ed73 933c 8ce4 fbbc
00000050: 2ab2 14bb 9fc6 7a3c c4d3 543c fccc 5b3c
00000060: 47f5 c33c cf8d 083d ccf6 49bc 6b24 0bbd
00000070: f866 0c3d 38fc debb 60f3 f8bc 843a b5bb
00000080: 5e4c 063d e807 b0bb 437d ed3b 2426 293d
00000090: 32aa f5bc 8fef cfbb 73c5 de3c 3309 e8bc
000000a0: 1923 efbb 5653 6ebc 77e2 683b cdcd 85bc
000000b0: 7edf 853c be91 9cbc b9c4 d4bc 691a 3e3c
000000c0: 63e2 943b 3a59 77bc 7d9c 85bb df6c 213d
000000d0: e79b 273c 656a 813b 9ccb efbb c80d e83c
000000e0: 244c ab3a a2cf e5bc 1820 fcbc 0113 e23c
000000f0: 92fe cc3c f561 e03c 3f95 b03c 0606 0d3d
00000100: 1f20 153d 0bc0 883c c8bd 123d 8e77 673c
00000110: 9c83 483a e082 183d e32e 9d3c 5088 71bc
00000120: 6650 fbbc dd9a b6bc 94a1 313c 9c4f ef3c
00000130: 67ec 163c 92da 463b 76de 0b3d fec9 ecbc
00000140: e64a 633c 8887 fabc a7de 2fbc 9391 bc3a
00000150: 75fd ffbc 0556 143d c340 10bd 3173 93bc
00000160: 278f 113d ac69 903b 5eab ec3c 19b8 55bc
00000170: b3c3 f23c 2e53 2c3c 89b8 a03c 74f8 fbbb
00000180: c45a 9b3c 8401 f6bc 84c6 d83c aead b3bc
00000190: 3528 afbc e6d8 bf3c 206f f53c 34e5 853c
000001a0: 9642 c53c d944 283d 548b 2f3a ed33 e0ba
000001b0: 1131 ddbc 70ac fbbc 645c 213d 0ac2 debc
000001c0: 9ea7 6abc 1677 0d3c 81b7 393a cc88 0f3d
000001d0: a4af 323c 5689 173b 9cdf c0bc 2bc0 d0bb
000001e0: 435c 37bc bdc2 0bbd 683c 4b3c c9dc 9dbc
000001f0: 0bdd f9bb a918 c0bc 4679 0a3d 95a9 cb3b
-0.016794225 0.03010722 -0.015694445 0.037300587 -0.0326364 -0.011016566 -0.009082743 0.020970989
-0.031600583 0.007097496 0.010338824 0.03254118 0.032573197 -0.027123204 0.032498088 0.029844739
-0.033822715 -0.0057635624 0.017999614 -0.030748628 -0.0022689202 0.015306144 0.012989942 0.013415571
0.023920668 0.033338364 -0.012326907 -0.033970278 0.034277886 -0.006804969 -0.030389488 -0.0055306572
0.032787673 -0.0053720362 0.0072475984 0.04129614 -0.029988382 -0.0063456963 0.02719376 -0.028324699
-0.007297885 -0.014546236 0.0035535374 -0.016333485 0.016341921 -0.019112464 -0.02597271 0.011602976
0.004543589 -0.015096957 -0.0040774927 0.03941047 0.010230041 0.003949451 -0.0073179733 0.028326884
0.0013068956 -0.028053109 -0.030777022 0.027596952 0.025023732 0.02739046 0.021555541 0.034429573
0.036407586 0.016693136 0.03582552 0.014127625 0.0007649006 0.037234187 0.019187396 -0.014741972
-0.030677985 -0.022290641 0.010841746 0.029212765 0.009211636 0.003034268 0.034147702 -0.028904911
0.013872838 -0.030582204 -0.010734237 0.0014386646 -0.031248787 0.036214847 -0.03521801 -0.017999263
0.03553691 0.0044071283 0.028890308 -0.013044381 0.029634332 0.010517878 0.019619243 -0.00768953
0.018964179 -0.03003002 0.026461847 -0.021933403 -0.021381477 0.023418855 0.029960215 0.016344644
0.024079602 0.041081283 0.0006696482 -0.0017105319 -0.027000936 -0.030721873 0.03939475 -0.027192134
-0.01432219 0.008634349 0.0007084534 0.03504257 0.010906134 0.002312263 -0.023544125 -0.0063705645
-0.0111914305 -0.034121264 0.012404539 -0.019270318 -0.0076252273 -0.023449259 0.03380706 0.006215284

a2c_network.actor_mlp.4.weight f4 [64, 128]
00000000: 3ea3 323d db68 a43c ac40 30bd 2a11 f63d
00000010: 73ca 2d3b ab00 683c 37cf 9cbc 6cc1 34bc
00000020: 7d12 cfbd 0585 7a3d d664 afbd a70c c63d
00000030: def9 e53d 7c7d 643c f2b8 013e 9707 d7bc
00000040: 54f6 b9bc 67e3 8f3d e9e5 acbd 6cbb e9bd
00000050: 6a5c 733d 8c32 753d ab6d eb3c 4d56 a83c
00000060: c86e 903d 185c c73d 8931 53bd f01c e8bd
00000070: 8c8c ea3d 95b5 b7bc 41e7 fcbc 2207 92bc
00000080: e757 663d 619c 1e3d 6c51 c43d be6a c73c
00000090: 7d8f 2cbc efd2 b8bd b5a1 af3d 04f8 c2bc
000000a0: 8911 d43d 5cb4 60bd 9135 a9bb 625b 8b3d
000000b0: 339e aabd 8dbd 7cbd af6f 9fbb a65b 5abd
000000c0: ee9b 84bd 42a0 333c e418 b53d dad6 3a3d
000000d0: 6c4e 5dbd b1df 70bd b0f0 7b39 3e2d 703d
000000e0: a7ee c8bd 0837 703d 0f6d 04bd abf9 bf3d
000000f0: 8952 353d 4c3c 4bbd 3760 9f3d 0159 e7bc
00000100: bb82 593d 36a9 b6bc fd51 22bd c629 313b
00000110: 9475 f2bc bd24 a93d 5cb5 05bd aafd a9bd
00000120: 19b9 d8bd c1e6 93bd c682 cf3d 7c45 f23d
00000130: 1ac8 a23c f667 cfbd 3b60 473d e10f 93bd
00000140: 892b de3c c11e 513d 5ab2 6c3d 5896 06bc
00000150: 74d2 40bd aea7 8bba 29b0 a5bd b487 27bd
00000160: 774b 843d 1aee 413d 7832 aa3c ee32 ed3d
00000170: 5d37 7b3d ef00 85bd 9ac0 f43d c896 4cbd
00000180: 9a59 573b 782c a8bd b74a 853d a0f0 7ebc
00000190: 3a87 d7bc 3753 89bb 85c8 e7bc 9b00 cdbc
000001a0: 7bf9 793d 4839 5e3a b4ac 38bd ca5a ae3d
000001b0: 4d98 c2bc b9f9 3f3c 8e49 a23d 844f 92bd
000001c0: 81b4 1abc afb7 e6bd 8ac5 083c ecb1 ca3d
000001d0: 0284 b6bd 3e62 a73c 8e94 69bd 40d7 5c3d
000001e0: 6bdc 183d 5650 67bc 5d27 353c b056 58bb
000001f0: 10ba 85bc c64f bcbd b160 d33d 5af9 a23c
00000200: 2cba cd3b 55f4 3e3c 8ae5 0cbd 35b0 c9bd
00000210: 8a19 853d bc41 32bd 4153 55bc 23af 69bd
00000220: 6ad7 9a3d 8102 4abd c5b4 b93c 2626 c9bb
00000230: 4c23 863d e84a c43d e054 863c fe2b 97bc
00000240: 90f3 633d 13d3 a53c a966 abbd 6d38 853b
00000250: 0d28 473d c441 aebd 2577 5cbd dbf6 54bd
00000260: 00d8 8c3d 799b aabd 5034 1e3c 6ce5 66bd
00000270: abb2 673d 536e 45bd 12db 3d3d 965c 1ebd
00000280: b0e6 12bd 245d f8ba 96cb 2bbb fb5e 8cbd
00000290: 86a0 83bd 54bd 83bd 420c 4abd 0d87 6a3d
000002a0: e3f9 f93c e75f 45bd b561 45bd 17f8 a33d
000002b0: c5d6 cdbd bda9 813d eb8d 173c 940a a3bd
000002c0: 02bd 013d 36c8 9a3d dc2e 343d f7e5 17bd
000002d0: 7eb5 2abd efc9 4f3b a8b7 69bd 6ca6 f83c
000002e0: cb31 57bd 60d4 213b f854 16bc e42e 613d
000002f0: cea3 c0bd 13a1 88bd 1716 2d3d 9e56 33bd
00000300: 6397 6e3d 4764 a4bd 74fe 483c 622f 683c
00000310: d35d c93d aa7e 4f3d f491 9a3c a600 8fbc
00000320: c123 d53c 1e5e 913d 458f 79bd 36e0 c2bd
00000330: 0ea9 1e3b 5e72 9fbd e6af 813b ae0a 183c
00000340: 30b9 523d 13e4 923d ae7b 9abd 0c5f b53d
00000350: 9087 6bbd 63c8 b9bd 979e 72bc a7f9 163d
00000360: 54c7 6bbc 2fc8 41bc 02b2 9eba f06e 98bc
00000370: e3b3 1bbd df83 1a3d 2588 873c 46c9 6abc
00000380: af8f a33c 9e78 7c3d 112e 2abc ae8e c6bc
00000390: f7f2 8f3d 1078 56bb 9e37 5f3d 674d 8b3d
000003a0: b0ca cdbd 3d8d 04bd e8cf 9abd 582f bf3c
000003b0: 5117 803d 694e 403d e4eb 17bd 7244 053d
000003c0: 4096 913d 2e2b 42bd b6e6 303d 7df2 53bc
000003d0: 6621 8f3c 09d2 9bbc 01ce 5d3d 50f0 513d
000003e0: c07e 973b 76a4 5d3c e432 a8bd 9769 babd
000003f0: 71c9 8fbc 868e 6dbd 0272 7bbc 058b 813d
0.04361271 0.02006953 -0.043030426 0.120149925 0.0026518374 0.0141603155 -0.019141776 -0.0110324435
-0.10110948 0.061162014 -0.08564155 0.09670382 0.11229299 0.013945933 0.12668207 -0.026248736
-0.022700466 0.070257954 -0.084422894 -0.11412701 0.059414305 0.05986266 0.028738817 0.020548964
0.0705238 0.09734362 -0.051560912 -0.113336444 0.114525884 -0.022425452 -0.03087199 -0.017825667
0.056236174 0.038723353 0.095858425 0.02434289 -0.010532257 -0.090246074 0.08575765 -0.023799904
0.10354907 -0.054859504 -0.0051638563 0.06804539 -0.08330955 -0.061704207 -0.0048656086 -0.05331006
-0.06475054 0.010963501 0.08842638 0.045615055 -0.054029867 -0.05880708 0.00024026888 0.058636896
-0.09811144 0.058646232 -0.03233057 0.09373792 0.044268165 -0.04961805 0.077820234 -0.028240683
0.05310319 -0.022297483 -0.03962897 0.0027032956 -0.029597081 0.082589604 -0.03264366 -0.08300336
-0.105821796 -0.07221747 0.10132365 0.11829659 0.019870806 -0.10127251 0.048675757 -0.07180763
0.027120369 0.05105472 0.057787277 -0.008214556 -0.047075704 -0.0010654831 -0.080902405 -0.0409009
0.06459706 0.047346212 0.020776019 0.1158198 0.061332095 -0.06494319 0.11950798 -0.049948484
0.0032859803 -0.08211607 0.06508391 -0.015560299 -0.026309598 -0.004190828 -0.028293857 -0.025024703
0.06102894 0.00084771635 -0.045086578 0.085134104 -0.023754263 0.011717253 0.07924186 -0.07144073
-0.00944245 -0.112655036 0.008347878 0.09897217 -0.08911897 0.020432588 -0.05702644 0.053916216
0.037319582 -0.014118275 0.011056748 -0.0033010654 -0.016324073 -0.09194903 0.10321177 0.01989429
0.006278297 0.011654933 -0.034398593 -0.09848062 0.06499012 -0.04351972 -0.013020338 -0.05705179
0.07560618 -0.049318794 0.022669205 -0.006138581 0.06549701 0.095846 0.016397893 -0.018453594
0.0556522 0.02024225 -0.0836919 0.0040655644 0.04862218 -0.085086375 -0.053824563 -0.051993232
0.06877136 -0.08330435 0.009656027 -0.056371137 0.056566875 -0.048200916 0.0463515 -0.038662516
-0.035864532 -0.0018948657 -0.0026213876 -0.068540536 -0.06427102 -0.06432596 -0.049328096 0.0572577
0.030514663 -0.048187163 -0.048188884 0.08006304 -0.1005073 0.06331203 0.0092501445 -0.07961002
0.031674393 0.075577185 0.04399 -0.037084546 -0.04167699 0.0031706055 -0.057059914 0.030352794
-0.05253772 0.0024693236 -0.009175532 0.05497636 -0.09406243 -0.066713475 0.042257395 -0.043783776
0.058249842 -0.08026939 0.012267698 0.014171453 0.09832349 0.050657906 0.018868424 -0.017456364
0.026018025 0.070980296 -0.060927648 -0.09515421 0.0024209651 -0.07785486 0.0039577363 0.00927989
0.05144614 0.07172408 -0.07543121 0.088560194 -0.05750233 -0.09071424 -0.014808319 0.03685918
-0.014390785 -0.011827513 -0.0012107494 -0.018607587 -0.03801335 0.03772342 0.016544411 -0.014330214
0.019965975 0.061638467 -0.01038696 -0.024237957 0.07028764 -0.0032725371 0.0544964 0.06801873
-0.10048425 -0.032361258 -0.07559186 0.023338005 0.06254447 0.046949778 -0.037090197 0.032535978
0.07108736 -0.04740446 0.043188773 -0.012936232 0.01747198 -0.019021051 0.05415154 0.05125457
0.004623264 0.01352798 -0.082128316 -0.09102171 -0.01755211 -0.05799725 -0.015347006 0.06325344

a2c_network.actor_mlp.4.bias f4 [64]
00000000: f3c7 133d fedb cdbc d942 d9bc 31df dcbc
00000010: a0cc b43c 9c70 8cbc 1680 dbbb eca2 113c
00000020: 7734 af3a 10e7 05bd 067f dfbc 4472 043d
00000030: de6e 2abc cb01 f0bc 6f1c ebbc 02c3 b73c
00000040: 5d4a 60bc 4974 043d 03ee c73c a62e c7bc
00000050: f794 933c 7c2e c7bc 0a7e e4bb 00b0 8bbc
00000060: 1206 e23c d829 87bc 7bb1 df39 86c1 103d
00000070: 6239 dbbc 1afd 04bc f313 203d f239 0bbc
00000080: 77d2 f93c 282f dbbc c6b3 02bd 9e76 3ebc
00000090: 3fc4 bfbc a770 c9bc c103 003d 35e8 edbc
000000a0: 29ed 0e3d 9519 00bd bc83 c03c aac9 90bb
000000b0: 1563 c43c 775e aa3c 68d5 e63c 92e3 cb3c
000000c0: 6863 9c3c 9778 8fbc d9c8 1b3d 8349 c8bc
000000d0: 903c f4bc a5a4 d03c 4477 643c ba33 e13c
000000e0: 1e21 8f3c 425e a53c b528 9cbc d70e b03c
000000f0: ca84 84bc 71df e9b9 f19c fbbc 6c25 84bc
0.03607936 -0.025129315 -0.026521133 -0.026961895 0.022070229 -0.01714354 -0.0066986186 0.008888941
0.0013367076 -0.03269106 -0.02728225 0.032335535 -0.010402409 -0.02929773 -0.028700082 0.022431854
-0.013689605 0.03233746 0.024405485 -0.024314236 0.018015368 -0.024314158 -0.006973033 -0.017051697
0.027590785 -0.016499445 0.00042666108 0.03534081 -0.02676076 -0.008116985 0.039081525 -0.008497702
0.030495865 -0.026755884 -0.031909727 -0.01162496 -0.023409007 -0.02458985 0.03125358 -0.029041389
0.034894142 -0.031274397 0.023500316 -0.0044185715 0.023973027 0.020796997 0.028177932 0.024888787
0.01909037 -0.017513556 0.03803334 -0.024449116 -0.029814035 0.025469134 0.013944451 0.027490485
0.017471846 0.020186547 -0.01906238 0.021491451 -0.0161766 -0.000446077 -0.030714484 -0.016131125

a2c_network.value.weight f4 [1, 64]
00000000: f8c0 9dbd 0c4b a83d 838e d23d 604a 073d
00000010: 95eb 7cba 7b61 c13d 44dc 923d 3e83 9a3c
00000020: f82c 383d 13b0 c63d b804 de3d aa37 91bd
00000030: ca0e 273d ac24 033e 4829 a53d a26b b5bd
00000040: 2df7 0b3e 7ea0 edbd 9cc7 85bd dc6e 1a3d
00000050: a140 6fbd 44e8 7c3d f0a3 a03c daf9 183e
00000060: 0a34 02bd 5bf7 f43d 7295 fe3c 2a36 03be
00000070: 2299 b73d fe3c de3d eff3 03be 1f95 2e3d
00000080: 3bb5 86bd 592c c13d 0ff4 8f3d 34e5 773d
00000090: 8049 093e e6d1 0e3e 4cad a3bd 8502 ee3d
000000a0: 7d4c 21bd 993b 0d3e 8bee febd ebc2 efbb
000000b0: 918b b5bd 2db9 15be b4ac 0bbe 35d8 e6bd
000000c0: 1cbe 2ebd 8125 d03d a8f0 16be ce61 a73d
000000d0: 6e72 c63d 923c 5dbd f283 24bb 44bf 6ebd
000000e0: 685d 5dbd 9da0 a4bd 7cec dc3d 0110 b5bd
000000f0: d0af d83d 5c9e 803d 2197 043e 4435 b63c
-0.077028215 0.08217439 0.10281088 0.033029914 -0.00096481416 0.09442421 0.071709186 0.01886141
0.04496476 0.09701552 0.10840744 -0.07090695 0.04078559 0.12806958 0.080645144 -0.0885842
0.13668509 -0.11602877 -0.06532213 0.03770338 -0.058411244 0.061744943 0.019609421 0.14939061
-0.03178791 0.11961242 0.03107712 -0.1281363 0.08964755 0.10851477 -0.12886022 0.04262268
-0.06577536 0.09432287 0.07028972 0.06052132 0.13406944 0.13947257 -0.07992038 0.11621574
-0.039379586 0.13792266 -0.12447842 -0.007316937 -0.08864511 -0.1462142 -0.136401 -0.11271707
-0.04266177 0.10163403 -0.1474024 0.08172952 0.096897945 -0.054012842 -0.002510306 -0.058287874
-0.054044157 -0.08038447 0.10787293 -0.08840943 0.105804086 0.06280205 0.12948276 0.022242196

a2c_network.mu.weight f4 [24, 64]
00000000: 7c81 95bd c090 f7bc f8ea 18bd 1100 c0bd
00000010: a63f 09bd 57e8 f43d dc6a 013d 2ae8 d23d
00000020: 2343 003d 5f3a 603d 5c65 e8bd 48c1 913c
00000030: 2f02 733d b257 7cbc 6e59 74bd a488 01bc
00000040: 9183 b3bd 8497 943d 6ef0 173d 9ce7 eebd
00000050: 2df7 3f3d 2525 04be efd4 1b3d 2257 9ebd
00000060: 1434 b8bd 09bf f53c 252c 353c f45a fb3d
00000070: 90de 94bd 0114 0d3e 17d7 493d 984b 183d
00000080: 489d 223d ad79 773c 5e67 543d c987 9b3c
00000090: 849f b93d edfa f3bd e530 07bd 2902 77bd
000000a0: c342 7fbd 986f e0bd 0390 a0bd 7987 c93c
000000b0: cd81 05bd e1b1 cebd 1c25 943d 63ae cf3d
000000c0: 3ee0 773d b078 70bd 1efe 143e bafe 0dbc
000000d0: 25d8 b1bc 55b2 9a3c c76d f93d f1d4 1dbd
000000e0: ee88 babd 7a02 0e3d f9b7 acbd 0de5 66bd
000000f0: 092c 0d3c 1334 f73d ae4d 79bd 6465 c4bc
00000100: 6628 dbbd 8f63 8d3d aecc cbbd 4f47 00ba
00000110: 1811 253d cec9 adbc 3568 643d 093b 913c
00000120: 6919 44bd 950d d7bd 1299 ea3d 7aec d0bd
00000130: c989 42bd 643d 783d 93e0 cabc ff2a 36bd
00000140: 5cbc 163d 3d99 56bc 935d 733d 5f6e 50bd
00000150: d746 a53b d15a f3bd 70bd aebc 34b6 de3d
00000160: 6072 773d 51be 893c 58ca 123d e430 eb3d
00000170: 0d25 e9bc b0c5 b33d 3b62 e13d 9b29 09bc
00000180: 3d5c 783d 1366 133d 8d46 45bd 7f2d a4bd
00000190: 85bc d0bc a6e3 cc3d 67ad 853d 6d94 c33d
000001a0: a842 94bd 0db6 eebd caeb 29bd 61b5 dbbd
000001b0: b20c ad3d cfac 16bd 50f6 97bd 16fa b3bc
000001c0: 9a60 c1bc cb53 ad3c 3ed3 8d3d 7e42 a8bd
000001d0: 715a 413d 6c18 073b eebe a93d b2b7 b13b
000001e0: 7b12 2f3d 5e5e f9bd 348b ae3d 631c 903d
000001f0: 06c1 ef3d b7ec 0e3d 2751 abb9 9185 fd3d
00000200: d0c7 76bd e09e 32bd 5583 223b 55f8 cbbd
00000210: 3dca ea3d 9587 be3d 9c96 d43d 0644 a33d
00000220: 27e0 7e3d 8373 743a c079 2f3d 960a 443d
00000230: cd15 53bc 570f e4bc 8d32 9abc 2007 dbbd
00000240: 3283 823d b3f1 0d3e 201e 5d3d b3d4 18bc
00000250: 69cf 89bc 6141 00be 8e30 13be 358b b8bd
00000260: d92f 3ebd a581 c7bd f423 423d c486 203e
00000270: fc85 5dbd a1a9 d93d e354 d03d 440a ba3d
00000280: 3373 be3d 915d 943d 6a5a a13d 64de 44bd
00000290: e32c f73b 6015 5a3d a119 93bd 4bb7 d2bd
000002a0: a5e2 d83d 3ce3 b1bd a9f8 a6bd 1a50 c03a
000002b0: 26e3 ba3c 81c6 3abd ac7c 75bd 8b33 b4bd
000002c0: aba1 54bd 15e8 063e 1bdf 843d dba3 cdbd
000002d0: cfc9 a93d ef11 aa3d 1f98 3f3d c40f e53c
000002e0: 03c0 c6bd f015 5abd b0db e43d d01b b5bd
000002f0: 4410 0c3d 6d56 da3d 2456 d7bd b69b 85bc
00000300: 1bf3 9c3d a1c2 c03d f3cd c2bd 8582 c0bd
00000310: 91e0 5b3d d377 773d 6eb5 033e f19a b63d
00000320: ec72 033e 399e c23d 237c 80bd 9bfc d03d
00000330: 3bc0 b33d 8ed0 a2bd 1afe 8ebd e40d be3c
00000340: c17a b43d da37 653d ba50 60bd bbdf 01be
00000350: 396f b83c ef23 d1bd b936 bf3b 64a4 ad3c
00000360: 01a1 133e ab60 e33d 75f9 153e 41e8 f13d
00000370: 3ea0 fabd 8367 f73d 28bb 083e 2a9c bf3d
00000380: f69c ef3c 3b6a cebd 3a24 05be f223 0e3e
00000390: 6143 873c 5836 fbbd d165 e03d 386b ad3d
000003a0: c2fc 573d 7393 423d 6b03 0bbe 7422 0fbd
000003b0: 21bf dbbd cd5f ffbd a979 0b3d 1791 b0bc
000003c0: 55f5 5bbc 885c fd3c e457 c83d 61cd 9d3d
000003d0: 5478 bfbd 4a99 b13d 4cb2 b73b e394 c93d
000003e0: 68fb a9bd 40b8 d8bd 8e14 183d f60b 32bd
000003f0: e3d4 203d 13c4 773b da01 6cbd dfd4 e1bd
-0.07300088 -0.03022039 -0.03733346 -0.09375013 -0.033507966 0.11958378 0.03159605 0.10298188
0.031314027 0.054743167 -0.11347458 0.017792359 0.059328254 -0.015401768 -0.0596556 -0.007906113
-0.08765329 0.07255462 0.037094526 -0.1166527 0.046866585 -0.12904795 0.038044866 -0.07731463
-0.08994308 0.02999832 0.011057888 0.12273207 -0.07269013 0.13777162 0.04927739 0.037181467
0.039700776 0.015104693 0.05185639 0.018985646 0.09063628 -0.11913095 -0.033005614 -0.060304794
-0.06231953 -0.10958785 -0.07839968 0.024600731 -0.03259449 -0.100925215 0.072336406 0.101406835
0.06051659 -0.058708847 0.14550063 -0.008666689 -0.021709511 0.018883863 0.121791415 -0.038533155
-0.091081485 0.03467033 -0.084335275 -0.056370784 0.008616456 0.12070479 -0.060865097 -0.023974128
-0.10701065 0.06903755 -0.09951149 -0.00048934383 0.040299505 -0.021214392 0.055763442 0.017728345
-0.047875796 -0.105006374 0.11454977 -0.10201354 -0.047494683 0.06060542 -0.024765288 -0.044474598
0.036800727 -0.013098058 0.05941541 -0.050886508 0.005043845 -0.11882556 -0.021330565 0.10874596
0.06041181 0.016814383 0.0358375 0.114839345 -0.02846005 0.0877794 0.11005064 -0.008371736
0.06063484 0.035986017 -0.048162986 -0.0801649 -0.025480518 0.10004358 0.065272145 0.09549794
-0.07239276 -0.11655817 -0.04148463 -0.10727955 0.08449687 -0.036785897 -0.07420027 -0.021969836
-0.023605634 0.02115812 0.06925057 -0.082158074 0.047205392 0.0020613922 0.0828837 0.0054235095
0.042742234 -0.12176202 0.08522645 0.07036664 0.11706738 0.034893718 -0.00032676125 0.123789914
-0.06024915 -0.043608546 0.0024797518 -0.09959475 0.11464355 0.09303204 0.10380289 0.07971959
0.062225487 0.0009325074 0.04284072 0.047861658 -0.012883616 -0.027839346 -0.018822933 -0.10694718
0.0637268 0.13861732 0.053983808 -0.009328055 -0.016822534 -0.1252494 -0.14373991 -0.09010927
-0.04643235 -0.097415246 0.04739757 0.15676409 -0.054082856 0.10628057 0.10172441 0.09083989
0.09299316 0.07244409 0.07878573 -0.04806365 0.0075431927 0.05324304 -0.07182623 -0.102888666
0.10590104 -0.0868592 -0.08152897 0.001467231 0.022813391 -0.045599464 -0.05993335 -0.087988935
-0.05191199 0.1317447 0.064878665 -0.100410186 0.08290445 0.08304202 0.046775933 0.02796162
-0.09704592 -0.053243577 0.111747146 -0.088431954 0.0341952 0.10661016 -0.10514477 -0.0163096
0.07663556 0.094121225 -0.09511938 -0.093998946 0.05368096 0.060417008 0.12862179 0.089162715
0.12836808 0.09502835 -0.06273677 0.10204431 0.087768994 -0.07949935 -0.0698206 0.023199983
0.08812476 0.055961467 -0.054764487 -0.12683003 0.022513973 -0.10211932 0.005835381 0.021196552
0.14416887 0.11102422 0.14645942 0.11811877 -0.12237595 0.1208029 0.13352644 0.09355958
0.02924965 -0.100788556 -0.130021 0.138809 0.016511621 -0.122662246 0.1095692 0.08467716
0.052731283 0.0475039 -0.13575523 -0.034944966 -0.10729814 -0.124694444 0.03405157 -0.02155356
-0.013425191 0.030927911 0.09782389 0.077051885 -0.09349123 0.08671816 0.0056059714 0.09842851
-0.08299905 -0.10582018 0.037128977 -0.043468438 0.039265525 0.0037806078 -0.057618953 -0.1102693

a2c_network.mu.bias f4 [24]
00000000: 8ca9 933c 8f8e d1bb d12c 813c cae3 be3c
00000010: b705 d13c a1ac 3dba df0b f03c 80ef c33c
00000020: 1e72 a5bc 2f42 b13c 6698 86bb 91db 0ebc
00000030: d724 8fbb 5ebb ffbc 07b6 ae3b b430 6a3c
00000040: eaa2 acbc 8dd3 a3bc f518 fc3b 7285 76bc
00000050: 3f0d ad3c 6f44 213c 0cee 6ebc 044b cfbb
0.018025182 -0.006395168 0.01576844 0.023301978 0.02551542 -0.00072355015 0.029302536 0.023917913
-0.020196017 0.021638004 -0.004107523 -0.008719341 -0.0043684053 -0.031217273 0.005331758 0.014293838
-0.021073777 -0.019998336 0.007693405 -0.015046464 0.02112448 0.009842976 -0.014583122 -0.006326081

exp_avg f4 [24]
00000000: 9290 cebb c736 8f3b 962c 9f3b b4ed 283c
00000010: 68a1 133b cefe 05bc ea03 d2bb af93 59bb
00000020: 5a70 ecb9 0f6c dcb8 5bf5 2c3b 479e 01bc
00000030: 3159 97bb 4775 6dbb 0520 b73b ce2a bfbb
00000040: da86 143c 44e5 b0bb 4fd7 393b 0d7a cdbb
00000050: db86 3c3b a155 9d3a 71d3 11bc f858 26ba
-0.006303855 0.0043705436 0.00485761 0.010310579 0.0022526626 -0.008178426 -0.006409158 -0.0033199599
-0.00045097136 -0.00010510545 0.002639136 -0.007911271 -0.0046187867 -0.0036233233 0.005588534 -0.00583396
0.009065354 -0.0053984243 0.0028357094 -0.006270653 0.0028766904 0.0012003669 -0.008900509 -0.0006345655

exp_avg_sq f4 [24]
00000000: 4416 0339 5391 1d39 75d8 2f39 6109 2839
00000010: 9b63 2e39 a1b2 1e39 a49e 2139 7d99 2739
00000020: 32b6 3839 c3bb fe38 c1b3 3c39 c6c4 2039
00000030: 1900 1839 3524 3439 5b33 3e39 3720 1339
00000040: 2b2f 2639 bd70 2339 94ed f238 ad41 2439
00000050: f19d 1f39 21dc 1739 5279 1339 5aea 2339
0.00012501428 0.00015026824 0.00016769937 0.00016025222 0.00016631039 0.00015134599 0.00015413255 0.0001598354
0.0001761548 0.00012146637 0.0001799604 0.00015332093 0.00014495886 0.00017179626 0.00018138943 0.00014031013
0.00015848565 0.0001558689 0.000115837116 0.00015664725 0.0001522226 0.00014482487 0.00014064208 0.00015632194

exp_avg f4 [256, 39]
00000000: 0000 0000 c02f 8536 e8dd 7d36 0fda f935
00000010: fada d135 9f41 9e36 0fda f935 4031 813b
00000020: 90e1 373b 0fda f935 69c9 323b 51d6 2038
00000030: 0000 0000 d955 5536 0000 0000 0000 0000
00000040: 0000 0000 0000 0000 0000 0000 0000 0000
00000050: 74db 6dba 8a14 38bb e1e8 b236 0000 0000
00000060: 0000 0000 0000 0000 0000 0000 0000 0000
00000070: 0000 0000 0000 0000 0000 0000 0000 0000
00000080: 0000 0000 0000 0000 0000 0000 0000 0000
00000090: 0000 0000 0000 0000 53e1 0435 0000 0000
000000a0: 6d23 d0b6 d55c c6b6 cc08 43b6 98f6 23b6
000000b0: f9f7 f6b6 cc08 43b6 92a5 c9bb 0797 8fbb
000000c0: cc08 43b6 719e 8bbb fa60 7cb8 0000 0000
000000d0: 3e88 a6b6 0000 0000 0000 0000 0000 0000
000000e0: 0000 0000 0000 0000 0000 0000 afc3 b93a
000000f0: 5cbf 8f3b c8cb 0bb7 0000 0000 0000 0000
00000100: 0000 0000 0000 0000 0000 0000 0000 0000
00000110: 0000 0000 0000 0000 0000 0000 0000 0000
00000120: 0000 0000 0000 0000 0000 0000 0000 0000
00000130: 0000 0000 6e73 4fb5 0000 0000 bcd8 21b6
00000140: 9d3f 1ab6 8dbf 97b5 9301 7fb5 f22e 40b6
00000150: 8dbf 97b5 b3f7 1cbb bd6d dfba 8dbf 97b5
00000160: ce3c d9ba 3df4 c2b7 0000 0000 f491 01b6
00000170: 0000 0000 0000 0000 0000 0000 0000 0000
00000180: 0000 0000 0000 0000 fc8c 103a 37ab df3a
00000190: 2469 59b6 0000 0000 0000 0000 0000 0000
000001a0: 0000 0000 0000 0000 0000 0000 0000 0000
000001b0: 0000 0000 0000 0000 0000 0000 0000 0000
000001c0: 0000 0000 0000 0000 0000 0000 0000 0000
000001d0: fb68 a1b4 0000 0000 0600 9436 5a0c 8d36
000001e0: f1b4 0a36 632e e935 d3aa af36 f1b4 0a36
000001f0: 0162 8f3b 5934 4c3b f1b4 0a36 0f8f 463b
00000200: f8d5 3338 0000 0000 60df 6c36 0000 0000
00000210: 0000 0000 0000 0000 0000 0000 0000 0000
00000220: 0000 0000 bf10 84ba 126e 4cbb 9cce c636
00000230: 0000 0000 0000 0000 0000 0000 0000 0000
00000240: 0000 0000 0000 0000 0000 0000 0000 0000
00000250: 0000 0000 0000 0000 0000 0000 0000 0000
00000260: 0000 0000 0000 0000 0000 0000 9389 1335
00000270: 0000 0000 45a7 b0b6 825c a8b6 4caa 25b6
00000280: 8b2b 0bb6 b9d1 d1b6 4caa 25b6 2066 abbb
00000290: 3aeb 73bb 4caa 25b6 c626 6dbb 207c 53b8
000002a0: 0000 0000 da73 8db6 0000 0000 0000 0000
000002b0: 0000 0000 0000 0000 0000 0000 0000 0000
000002c0: 2adf 9d3a 032d 743b 344d edb6 0000 0000
000002d0: 0000 0000 0000 0000 0000 0000 0000 0000
000002e0: 0000 0000 0000 0000 0000 0000 0000 0000
000002f0: 0000 0000 0000 0000 0000 0000 0000 0000
00000300: 0000 0000 0000 0000 a736 30b5 0000 0000
00000310: 6fd1 47b6 886d 3eb6 0f1c bbb5 6466 9db5
00000320: 28e3 6cb6 0f1c bbb5 ac58 41bb 30c3 09bb
00000330: 0f1c bbb5 1ff5 05bb 9c79 f2b7 0000 0000
00000340: abc4 1fb6 0000 0000 0000 0000 0000 0000
00000350: 0000 0000 0000 0000 0000 0000 744e 323a
00000360: f1e9 093b c034 86b6 0000 0000 0000 0000
00000370: 0000 0000 0000 0000 0000 0000 0000 0000
00000380: 0000 0000 0000 0000 0000 0000 0000 0000
00000390: 0000 0000 0000 0000 0000 0000 0000 0000
000003a0: 0000 0000 2605 c7b4 0000 0000 cd2c 4ab5
000003b0: 06ae 40b5 d270 bdb4 f143 9fb4 08df 6fb5
000003c0: d270 bdb4 6ce9 43ba 037f 0bba d270 bdb4
000003d0: 08a4 07ba b294 f6b6 0000 0000 63c1 21b5
000003e0: 0000 0000 0000 0000 0000 0000 0000 0000
000003f0: 0000 0000 0000 0000 a45a 3439 eba6 0b3a
0.0 3.9692677e-06 3.7829104e-06 1.8615409e-06 1.5635444e-06 4.7164062e-06 1.8615409e-06 0.0039426386
0.002805803 1.8615409e-06 0.0027280694 3.834657e-05 0.0 3.1789443e-06 0.0 0.0
0.0 0.0 0.0 0.0 -0.00090735336 -0.0028088414 5.331924e-06 0.0
0.0 0.0 0.0 0.0 0.0 0.0 0.0 0.0
0.0 0.0 0.0 0.0 0.0 0.0 4.950172e-07 0.0
-6.203007e-06 -5.911667e-06 -2.9062385e-06 -2.443243e-06 -7.360239e-06 -2.9062385e-06 -0.0061537707 -0.0043820175
-2.9062385e-06 -0.004260831 -6.01718e-05 0.0 -4.963046e-06 0.0 0.0 0.0
0.0 0.0 0.0 0.0014172698 0.0043868255 -8.332492e-06 0.0 0.0
0.0 0.0 0.0 0.0 0.0 0.0 0.0 0.0
0.0 0.0 0.0 0.0 0.0 -7.728148e-07 0.0 -2.4117026e-06
-2.2984816e-06 -1.1306125e-06 -9.4997193e-07 -2.8637555e-06 -1.1306125e-06 -0.0023951351 -0.0017046254 -1.1306125e-06
-0.0016573907 -2.3240334e-05 0.0 -1.9307454e-06 0.0 0.0 0.0 0.0
0.0 0.0 0.00055141724 0.0017064576 -3.239672e-06 0.0 0.0 0.0
0.0 0.0 0.0 0.0 0.0 0.0 0.0 0.0
0.0 0.0 0.0 0.0 -3.006497e-07 0.0 4.4107464e-06 4.2035654e-06
2.0668924e-06 1.7373353e-06 5.235293e-06 2.0668924e-06 0.0043756966 0.0031159131 2.0668924e-06 0.0030297672
4.28762e-05 0.0 3.5296762e-06 0.0 0.0 0.0 0.0 0.0
0.0 -0.0010075792 -0.0031193537 5.9249123e-06 0.0 0.0 0.0 0.0
0.0 0.0 0.0 0.0 0.0 0.0 0.0 0.0
0.0 0.0 0.0 5.4961964e-07 0.0 -5.2646815e-06 -5.0175595e-06 -2.4686042e-06
-2.073796e-06 -6.2531003e-06 -2.4686042e-06 -0.00523068 -0.0037219063 -2.4686042e-06 -0.003618644 -5.042192e-05
0.0 -4.2156144e-06 0.0 0.0 0.0 0.0 0.0 0.0
0.0012044657 0.0037258274 -7.072138e-06 0.0 0.0 0.0 0.0 0.0
0.0 0.0 0.0 0.0 0.0 0.0 0.0 0.0
0.0 0.0 -6.564464e-07 0.0 -2.9775217e-06 -2.8375962e-06 -1.3940752e-06 -1.1727211e-06
-3.5298963e-06 -1.3940752e-06 -0.0029502315 -0.0021020882 -1.3940752e-06 -0.0020440293 -2.8905277e-05 0.0
-2.3807322e-06 0.0 0.0 0.0 0.0 0.0 0.0 0.00068018516
0.002104398 -3.999652e-06 0.0 0.0 0.0 0.0 0.0 0.0
0.0 0.0 0.0 0.0 0.0 0.0 0.0 0.0
0.0 -3.7070384e-07 0.0 -7.531606e-07 -7.177881e-07 -3.528608e-07 -2.9665492e-07 -8.935899e-07
-3.528608e-07 -0.0007473442 -0.00053213554 -3.528608e-07 -0.0005174284 -7.3486817e-06 0.0 -6.025859e-07
0.0 0.0 0.0 0.0 0.0 0.0 0.00017199904 0.0005327302
