runs/lift_30-15-31-58/nn/last_lift_ep_100_rew_-3.9733548.pth (torch, 654733 bytes, 36 tensors)

value_mean_std.running_mean f8 [1]
-131.5584546854353
00000000: c347 5cdc de71 60c0

value_mean_std.running_var f8 [1]
57961.35752952767
00000000: 96c3 e170 2b4d ec40

value_mean_std.count f8 []
102401.0
00000000: 0000 0000 1000 f940

running_mean_std.running_mean f8 [39]
0.0 1.4999707036971928 1.2999742045672331 0.49999023456573105 0.3999920744059716 2.8999441710885767 0.49999023456573105 0.05083175301508083
0.36177827298470727 0.49999023456573105 0.20043045574826204 0.8303653183474037 0.0 0.9999804691314621 0.0 0.0
0.0 0.0 0.0 0.0 0.5373319839502703 1.1624084742995273 9.809806914476773 0.0
0.0 0.0 0.0 0.0 0.0 0.0 0.0 0.0
0.0 0.0 0.0 0.0 0.0 0.0 0.12499755864143276
00000000: 0000 0000 0000 0000 9a66 d547 e1ff f73f
00000010: 7828 64c0 b1cc f43f 25de 710a d7ff df3f
00000020: f6e6 8e5b 7899 d93f fe68 f8ed 1533 0740
00000030: 25de 710a d7ff df3f 64a3 9899 9e06 aa3f
00000040: f5d9 b70e 6027 d73f 25de 710a d7ff df3f
00000050: 1dd4 4786 b4a7 c93f 7d1c c149 5a92 ea3f
00000060: 0000 0000 0000 0000 25de 710a d7ff ef3f
00000070: 0000 0000 0000 0000 0000 0000 0000 0000
00000080: 0000 0000 0000 0000 0000 0000 0000 0000
00000090: 0000 0000 0000 0000 0000 0000 0000 0000
000000a0: 9d28 45d8 d231 e13f 0a5b dba0 3999 f23f
000000b0: 3c81 0b03 9f9e 2340 0000 0000 0000 0000
000000c0: 0000 0000 0000 0000 0000 0000 0000 0000
000000d0: 0000 0000 0000 0000 0000 0000 0000 0000
000000e0: 0000 0000 0000 0000 0000 0000 0000 0000
000000f0: 0000 0000 0000 0000 0000 0000 0000 0000
00000100: 0000 0000 0000 0000 0000 0000 0000 0000
00000110: 0000 0000 0000 0000 0000 0000 0000 0000
00000120: 0000 0000 0000 0000 0000 0000 0000 0000
00000130: 25de 710a d7ff bf3f

running_mean_std.running_var f8 [39]
1.9530868537723853e-05 6.347446447424448e-05 5.253737112639982e-05 2.441349030844839e-05 2.2655744701544045e-05 0.00018378235672972831 2.441349030844839e-05 0.006868494521602405
0.15918522002260987 2.441349030844839e-05 0.07254992928743557 0.43911505776681964 1.9530868537723853e-05 3.906135562062192e-05 1.9530868537723853e-05 1.9530868537723853e-05
1.9530868537723853e-05 1.9530868537723853e-05 1.9530868537723853e-05 1.9530868537723853e-05 0.3265451656089694 0.3874132916488136 0.0018990682064149893 1.9530868537723853e-05
1.9530868537723853e-05 1.9530868537723853e-05 1.9530868537723853e-05 1.9530868537723853e-05 1.9530868537723853e-05 1.9530868537723853e-05 1.9530868537723853e-05 1.9530868537723853e-05
1.9530868537723853e-05 1.9530868537723853e-05 1.9530868537723853e-05 1.9530868537723853e-05 1.9530868537723853e-05 1.9530868537723853e-05 1.9836032398394183e-05
00000000: 1db7 ec10 c77a f43e f36f 06ff b2a3 103f
00000010: 9af0 9153 728b 0b3f fff0 7f47 7299 f93e
00000020: c3ac c3eb 9ac1 f73e d5a8 686c b616 283f
00000030: fff0 7f47 7299 f93e e214 7d75 2322 7c3f
00000040: 6278 0069 2e60 c43f fff0 7f47 7299 f93e
00000050: abdc 9dd5 a192 b23f 7b89 120b 761a dc3f
00000060: 1db7 ec10 c77a f43e 45cf 9cf5 b97a 043f
00000070: 1db7 ec10 c77a f43e 1db7 ec10 c77a f43e
00000080: 1db7 ec10 c77a f43e 1db7 ec10 c77a f43e
00000090: 1db7 ec10 c77a f43e 1db7 ec10 c77a f43e
000000a0: 7e46 bdb1 1de6 d43f 19b6 6a1e 61cb d83f
000000b0: cf26 b9f5 441d 5f3f 1db7 ec10 c77a f43e
000000c0: 1db7 ec10 c77a f43e 1db7 ec10 c77a f43e
000000d0: 1db7 ec10 c77a f43e 1db7 ec10 c77a f43e
000000e0: 1db7 ec10 c77a f43e 1db7 ec10 c77a f43e
000000f0: 1db7 ec10 c77a f43e 1db7 ec10 c77a f43e
00000100: 1db7 ec10 c77a f43e 1db7 ec10 c77a f43e
00000110: 1db7 ec10 c77a f43e 1db7 ec10 c77a f43e
00000120: 1db7 ec10 c77a f43e 1db7 ec10 c77a f43e
00000130: c9ea 55c4 b1cc f43e

running_mean_std.count f8 []
51201.0
00000000: 0000 0000 2000 e940

a2c_network.sigma f4 [24]
0.002051554 -0.015902448 0.03857112 -0.008149121 0.016246706 -0.018647013 -0.024085617 -0.065632485
-0.066929385 -0.028904658 0.016314343 0.0075171357 -0.05867885 -0.02055373 0.013563921 -0.038643323
-0.026329508 -0.035066865 -0.021182928 -0.0060108257 -0.006145135 0.016098488 -0.056439668 0.02338745
00000000: 5d73 063b da45 82bc c0fc 1d3d e483 05bc
00000010: d017 853c 9fc1 98bc 334f c5bc 536a 86bd
00000020: 4612 89bd 76c9 ecbc a8a5 853c 4e52 f63b
00000030: 3c59 70bd 4c60 a8bc 353b 5e3c 7648 1ebd
00000040: fbb0 d7bc 46a2 0fbd d287 adbc 76f6 c4bb
00000050: 215d c9bb fae0 833c 482d 67bd 0a97 bf3c

a2c_network.actor_mlp.0.weight f4 [256, 39]
-0.050500125 0.058963884 -0.027482878 0.083408624 0.15898106 0.10847593 -0.053986005 0.09289609
-0.0004572407 0.097336166 -0.11451106 -0.1655812 -0.061867196 -0.106849626 0.13139138 0.046121925
0.066327244 0.050642315 -0.002785585 0.12531762 -0.117097124 -0.004377659 -0.09341819 0.049375832
-0.055145297 0.04906587 -0.033361334 0.13280898 -0.09490826 -0.095500104 -0.09550587 0.1440261
0.053362884 0.15408342 -0.13214995 -0.15882729 -0.12527846 -0.107716456 0.08090074 0.05733802
0.11505852 -0.10069061 -0.12703389 0.067085035 -0.08276301 0.07931286 -0.04541314 0.06730516
-0.14228696 -0.08042354 0.018902605 0.033852298 -0.058771025 0.095447496 0.10885659 -0.116120666
-0.08548732 0.14662325 -0.05403244 -0.0692054 -0.15788268 -0.10979684 0.0400006 -0.021135822
-0.11623478 0.0037560768 -0.10938057 -0.13585219 -0.088176586 -0.14014609 -0.10195968 0.16006552
0.030244198 0.049345043 -0.149349 -0.10516797 -0.053299587 0.00720892 -0.14090016 -0.08856121
-0.11543066 -0.019183181 -0.079209104 -0.030641956 -0.12813438 -0.11854322 -0.06924376 -0.074438594
-0.11793168 0.13635613 -0.031779677 0.118182436 0.049893063 -0.13559604 0.11081431 -0.04405843
-0.06138129 -0.13291764 -0.1596123 0.05733506 -0.054497756 0.06234159 -0.13141131 0.1188838
-0.11754266 -0.027649863 0.033445917 0.08266644 0.1292731 0.14587021 -0.12696916 0.040299013
-0.06887527 -0.017547613 -0.11985433 0.1458541 -0.13717228 0.085580684 0.073607266 0.06936622
-0.06935109 0.16277182 0.05255771 0.037820496 -0.13190387 0.08387505 -0.006800897 -0.069212586
0.16013975 0.035700377 -0.0713086 -0.08104709 -0.0076470347 0.08940936 -0.040918157 -0.0913651
-0.054834742 -0.10510432 0.057297505 0.14136544 -0.1507511 0.03718987 0.08272088 0.029035935
-0.057025578 0.083577625 0.08414945 0.059876274 -0.028137943 -0.042402137 0.017130656 -0.028287293
-0.047718357 0.10235501 0.13761406 0.0013300907 -0.03585219 -0.008306625 -0.020203771 0.027799377
0.034179814 -0.15606117 -0.0697908 0.13613975 0.080403626 -0.018661628 -0.0933754 -0.08942009
-0.14343749 -0.06286186 0.054075945 0.10210117 0.07393074 -0.14154433 -0.09629506 -0.025270887
0.14933586 0.035102107 -0.05206449 0.066247456 -0.060989857 -0.10364385 0.11687549 -0.07281055
-0.03210037 -0.15929617 0.10716907 0.12131863 0.058358412 -0.11165322 -0.15803686 -0.13005272
0.119407594 0.07687844 0.12403909 0.08388631 0.033698622 -0.008396786 -0.12848832 -0.14390533
-0.15664554 0.058840577 -0.08681018 -0.054889753 -0.09886439 -0.037479375 -0.13241975 -0.10463024
0.046336845 -0.047589507 0.09885402 -0.051370513 -0.11746476 -0.028252838 -0.077621706 -0.06282384
-0.15374412 0.08266534 -0.11148194 0.08048324 0.07266363 0.11440079 -0.12282662 0.11516365
-0.07570084 0.059418622 0.15037869 -0.02258317 -0.0012383453 -0.036866393 -0.13370453 0.07684596
-0.15896207 0.092738755 0.1198119 0.15664345 -0.032561246 -0.12639084 0.041180894 0.09367881
-0.15419985 -0.04365429 -0.07556939 -0.008828142 -0.08599209 -0.043662623 -0.0508341 -0.14697413
0.13138635 0.13424042 -0.02511915 -0.018235724 -0.065351486 -0.14460577 -0.15305011 0.06408005
00000000: 38d9 4ebd 1d84 713d c623 e1bc 24d2 aa3d
00000010: eecb 223e a128 de3d 6e20 5dbd 4e40 be3d
00000020: cfb9 efb9 2f58 c73d c684 eabd 1e8e 29be
00000030: 7568 7dbd fad3 dabd 768b 063e 58ea 3c3d
00000040: 94d6 873d 516e 4f3d 5c8e 36bb 4353 003e
00000050: 9ed0 efbd 7772 8fbb 0952 bfbd 503e 4a3d
00000060: 09e0 61bd 4bf9 483d e5a5 08bd 14ff 073e
00000070: 435f c2bd 8f95 c3bd 9598 c3bd 947b 133e
00000080: 0a93 5a3d 0bc8 1d3e 5152 07be 9fa3 22be
00000090: ff48 00be 729a dcbd 4aaf a53d 46db 6a3d
000000a0: cda3 eb3d e136 cebd 2c15 02be e163 893d
000000b0: a77f a9bd c86e a23d 2103 3abd 4ad7 893d
000000c0: acb3 11be 19b5 a4bd a3d9 9a3c b5a8 0a3d
000000d0: e3b9 70bd fa79 c33d 34f0 de3d acd0 edbd
000000e0: fa13 afbd 6824 163e 1f51 5dbd 90bb 8dbd
000000f0: ffab 21be 2add e0bd abd7 233d 0825 adbc
00000100: 800c eebd 8328 763b ec02 e0bd d61c 0bbe
00000110: ed95 b4bd 7582 0fbe 3dd0 d0bd 37e8 233e
00000120: aec2 f73c 071e 4a3d f2ee 18be 4e62 d7bd
00000130: ab50 5abd ce38 ec3b 2248 10be 945f b5bd
00000140: e966 ecbd 0c26 9dbc 6238 a2bd d704 fbbc
00000150: a935 03be cac6 f2bd accf 8dbd 4373 98bd
00000160: 2a86 f1bd f1a0 0b3e 682b 02bd a209 f23d
00000170: ab5c 4c3d b0d9 0abe 9df2 e23d 9d76 34bd
00000180: f36a 7bbd 901b 08be 6871 23be 2bd8 6a3d
00000190: 0a39 5fbd e559 7f3d b090 06be 5a79 f33d
000001a0: 35ba f0bd f781 e2bc 96fe 083d 064d a93d
000001b0: 2b60 043e 005f 153e 3404 02be 9410 253d
000001c0: 7a0e 8dbd 03c0 8fbc 3076 f5bd c75a 153e
000001d0: e476 0cbe ed44 af3d 68bf 963d e00f 8e3d
000001e0: f207 8ebd a8ad 263e c146 573d aae9 1a3d
000001f0: cf11 07be afc6 ab3d 0fda debb 54bf 8dbd
00000200: adfb 233e 8f3a 123d 3e0a 92bd 04fc a5bd
00000210: fa93 fabb 411c b73d cc99 27bd a01d bbbd
00000220: 659a 60bd ef40 d7bd cab0 6a3d 1ac2 103e
00000230: 7f5e 1abe 6854 183d 9169 a93d c5dc ed3c
00000240: a793 69bd bf2a ab3d 8c56 ac3d d340 753d
00000250: 8b81 e6bc ddad 2dbd 9755 8c3c c1ba e7bc
00000260: 5374 43bd 819f d13d b3ea 0c3e 7056 ae3a
00000270: bfd9 12bd 8318 08bc 6182 a5bc 85bb e33c
00000280: 2200 0c3d 80ce 1fbe 7bee 8ebd 3868 0b3e
00000290: a8aa a43d 45e0 98bc 9a3b bfbd e121 b7bd
000002a0: 47e1 12be b8bd 80bd bd7e 5d3d 6b1a d13d
000002b0: 0069 973d fff0 10be 5836 c5bd e404 cfbc
000002c0: 80eb 183e 3ac7 0f3d 9341 55bd bfac 873d
000002d0: 80d0 79bd 3a43 d4bd 6b5c ef3d b31d 95bd
000002e0: ad7b 03bd 891e 23be 757b db3d e775 f83d
000002f0: 3b09 6f3d 72aa e4bd 6ad4 21be 8a2c 05be
00000300: f88b f43d 7272 9d3d 3508 fe3d 96cc ab3d
00000310: 9107 0a3d ac92 09bc 7192 03be eb5b 13be
00000320: b067 20be d102 713d 89c9 b1bd 14d4 60bd
00000330: 6a79 cabd f983 19bd 0b99 07be 6148 d6bd
00000340: b4cb 3d3d 37ed 42bd fa73 ca3d e369 52bd
00000350: 5d91 f0bd 7f72 e7bc 21f8 9ebd c9a9 80bd
00000360: 196f 1dbe 724c a93d a550 e4bd 66d4 a43d
00000370: abd0 943d f64a ea3d 868c fbbd ebda eb3d
00000380: 0b09 9bbd f160 733d dffc 193e 5700 b9bc
00000390: f94f a2ba 3701 17bd d7e9 08be 6a61 9d3d
000003a0: f4c6 22be d1ed bd3d f15f f53d 2467 203e
000003b0: f15e 05bd 9a6c 01be 4cad 283d adda bf3d
000003c0: 91e6 1dbe d7ce 32bd 20c4 9abd e9a3 10bc
000003d0: 9f1c b0bd 94d7 32bd 6b37 50bd 6380 16be
000003e0: 258a 063e 5276 093e adc6 cdbc 1663 95bc
000003f0: 00d7 85bd 8913 14be 2bb9 1cbe 673c 833d

a2c_network.actor_mlp.0.bias f4 [256]
0.0108110495 -0.021950932 -0.016322592 0.020928392 -0.00768459 -0.010927021 0.006189544 0.016870392
-0.0017042094 0.017099055 0.0066668587 -0.0072908923 -0.005185062 0.012340817 -0.018910188 -0.019714788
0.0066995015 0.0014983778 0.0032196154 -0.009674044 -0.008264674 -0.005990703 -0.013588422 -0.004373032
-0.008768545 -0.0118391365 0.0094917165 -0.007684571 0.022623703 0.0017405825 0.010163419 0.013157864
0.023075683 -0.0061735986 0.009733243 -0.019364523 -0.019529479 -0.022014773 0.011520918 -0.001502559
-0.0149324 0.0029595785 -0.02170649 -0.0055387407 -0.014964316 -0.007051092 -0.01570571 0.0035597673
-0.021567369 -0.01918481 -0.009122714 0.019539526 -0.001216754 0.014918921 -0.022158016 0.003505244
-0.0033843804 -0.0014080729 -0.0089282 -0.011424449 -0.0181893 0.00048337976 0.00797425 0.013521975
-0.014362949 0.012805634 -0.019174783 -0.017882997 -0.010330089 6.6520646e-05 0.0055167233 -0.019480495
0.020557765 -0.002608595 0.008242399 -0.010014704 0.02838411 0.02400471 -0.023938747 -0.018329978
-0.019223941 0.008156519 0.0093285525 0.019360656 -0.00073586346 -0.008002747 -0.0052460223 -0.010625648
-0.014795575 -0.0076756435 -0.021409297 -0.01878288 0.016408443 0.016399197 0.02317504 0.0002693774
-0.0111489985 0.013184612 -0.005034559 -0.003744399 0.014252435 0.009093665 0.0074132914 0.011935176
0.006497843 -0.009284858 0.012431895 -0.013808663 -0.0022874482 0.006811046 -0.017118508 -0.016909271
0.0103122415 0.021605726 -0.02289538 0.012694597 0.024976388 -0.011836851 -1.5296122e-05 -0.018251138
0.009946341 -0.009881848 -0.017421257 -0.008815575 -0.002822278 -0.017434025 0.008645753 0.021321205
0.016981391 0.012582671 -0.004960431 0.0067824144 0.002710744 -0.0006073456 -0.00917708 0.022331765
-0.013547336 -0.01691164 -0.017570496 0.016186178 -0.0009901477 0.022373758 0.01228209 0.016373295
0.008093653 0.013962867 -0.006407763 0.000929282 0.0154491365 -0.0024871938 0.01300535 0.009449924
-0.004430878 -0.023333834 0.0015768906 0.005379778 -0.018842021 -0.014650947 -0.015028177 -0.010795077
-0.023248548 -0.009494996 -0.02360283 -0.007013543 -0.01403854 0.024736261 -0.011909975 -0.014766605
0.010516101 0.00240249 0.0008824405 -0.011127092 -0.0076886313 0.015282308 -0.0024510494 -0.018369785
0.023290368 -0.0095575135 -0.0067773475 -0.021958195 -0.013395808 0.025844451 0.0041017407 0.014876601
0.013671546 0.02529495 -0.0034221155 -0.01308597 -0.008715588 0.011761392 0.022944352 -0.012924355
0.02250783 -0.00056163163 0.012769913 0.0060774772 0.017705027 -0.017615823 -0.0075764228 -0.01773073
0.009531021 0.0036923664 0.01829588 0.00526618 0.0030377812 -0.006310123 -0.003940785 0.007944969
0.008156179 0.0058461176 0.012107064 -0.017031265 -0.011443765 0.001096666 0.017945709 0.009760986
-0.015514094 -0.012461932 0.024877045 0.0143169295 0.0062846835 -0.002104623 0.010182347 0.008701547
-0.00018420228 -0.0005460855 -0.010119344 -0.008610719 0.0030599993 0.003893335 0.0041292305 0.007728
-0.013370678 -0.0021801316 -0.0051830565 0.018927863 0.005567917 -0.00028674564 0.013488753 -0.02314527
0.010296485 -0.005782961 -0.0031129844 0.018120144 0.008985901 0.022304146 0.01903525 0.01241631
-0.005905805 0.02222773 -0.006666341 0.014990836 -0.0016628937 0.011183931 0.01023892 -0.018254105
00000000: d420 313c 71d2 b3bc f5b6 85bc 0572 ab3c
00000010: 03cf fbbb 3f07 33bc a9d1 ca3b c733 8a3c
00000020: c75f dfba 5113 8c3c aa75 da3b 70e8 eebb
00000030: 74e7 a9bb 2331 4a3c 8ae9 9abc e880 a1bc
00000040: 7e87 db3b 3765 c43a 2f00 533b e27f 1ebc
00000050: 8e68 07bc a94d c4bb f9a1 5ebc a74b 8fbb
00000060: f2a9 0fbc f0f8 41bc 2583 1b3c dbce fbbb
00000070: 5855 b93c 4224 e43a 7884 263c 1594 573c
00000080: 3709 bd3c e64b cabb 2e78 1f3c 59a2 9ebc
00000090: 49fc 9fbc 5358 b4bc 3cc2 3c3c 84f1 c4ba
000000a0: 06a7 74bc 7df5 413b cfd1 b1bc 537e b5bb
000000b0: e42c 75bc d90c e7bb 43a9 80bc fc4a 693b
000000c0: 0dae b0bc 7629 9dbc 7077 15bc 5b11 a03c
000000d0: 7d7b 9fba 7d6e 743c ba84 b5bc 3cb8 653b
000000e0: 7bcc 5dbb 168f b8ba 9647 12bc 9d2d 3bbc
000000f0: ba01 95bc 226e fd39 6ea6 023c 468b 5d3c
00000100: 9352 6bbc b9ce 513c 6f14 9dbc 5d7f 92bc
00000110: 893f 29bc 0081 8b38 a1c5 b43b 8f95 9fbc
00000120: c268 a83c f6f4 2abb 210b 073c b714 24bc
00000130: cb85 e83c 87a5 c43c 311b c4bc c028 96bc
00000140: 877b 9dbc eca2 053c c9d6 183c 3d9a 9e3c
00000150: f6e6 40ba f41d 03bc d3e6 abbb 3317 2ebc
00000160: 2469 72bc f783 fbbb 8d62 afbc 8ede 99bc
00000170: 006b 863c 9c57 863c 95d9 bd3c 393b 8d39
00000180: 4aaa 36bc 4504 583c f1f8 a4bb 9764 75bb
00000190: 0c83 693c 98fd 143c 32eb f23b c28b 433c
000001a0: dceb d43b 841f 18bc 26af 4b3c bb3d 62bc
000001b0: 03e9 15bb 322f df3b 1d3c 8cbc 5085 8abc
000001c0: adf4 283c 7efe b03c 188f bbbc 00fd 4f3c
000001d0: 489b cc3c 5aef 41bc 2c50 80b7 6983 95bc
000001e0: faf5 223c 79e7 21bc 06b7 8ebc 346f 10bc
000001f0: f8f5 38bb cdd1 8ebc eba6 0d3c cfa9 ae3c
00000200: 8f1c 8b3c 8c27 4e3c 1c8b a2bb 043f de3b
00000210: bda6 313b 4636 1fba 775b 16bc 1bf1 b63c
00000220: a5f5 5dbc 488a 8abc 00f0 8fbc e098 843c
00000230: d8c7 81ba 2c49 b73c d23a 493c 4a21 863c
00000240: 3e9b 043c 82c4 643c 36f8 d1bb 0f9b 733a
00000250: 601e 7d3c 3000 23bb 6414 553c dbd3 1a3c
00000260: e630 91bb 9926 bfbc abaf ce3a d948 b03b
00000270: 955a 9abc 870a 70bc be38 76bc d6dd 30bc
00000280: bd73 bebc e690 1bbc b95a c1bc ddd1 e5bb
00000290: e801 66bc b3a3 ca3c 0e22 43bc a1ef 71bc
000002a0: b94b 2c3c 1873 1d3b 9453 673a 684e 36bc
000002b0: eaf0 fbbb a562 7a3c c9a1 20bb 3b7c 96bc
000002c0: 71cb be3c 1e97 1cbc 8314 debb ace1 b3bc
000002d0: 177a 5bbc beb7 d33c e567 863b fdbc 733c
000002e0: 9ffe 5f3c 5b37 cf3c 9245 60bb 8966 56bc
000002f0: d3cb 0ebc dab2 403c cbf5 bb3c adc0 53bc
00000300: 5762 b83c 763a 13ba e638 513c 9325 c73b
00000310: 220a 913c 0f4f 90bc a443 f8bb 0940 91bc
00000320: 0028 1c3c a1fb 713b 3ee1 953c eb8f ac3b
00000330: 8315 473b 26c5 cebb b321 81bb 9e2b 023c
00000340: 7fa1 053c ca90 bf3b b55c 463c 2785 8bbc
00000350: a17e 3bbc 01be 8f3a e102 933c 8bec 1f3c
00000360: d42e 7ebc 222d 4cbc f2ca cb3c 8e91 6a3c
00000370: bfef cd3b b7ed 09bb dcd3 263c ef90 0e3c
00000380: 6c26 41b9 2d27 0fba 9bcb 25bc f913 0dbc
00000390: 458a 483b 5227 7f3b 7f4e 873b 2a3b fd3b
000003a0: b010 5bbc 8ae0 0ebb a1d6 a9bb 9b0e 9b3c
000003b0: 1373 b63b 5956 96b9 eeff 5c3c 269b bdbc
000003c0: 97b2 283c fe7e bdbb 3603 4cbb b270 943c
000003d0: 9a39 133c 2fb7 b63c d0ef 9b3c c76d 4b3c
000003e0: 7c85 c1bb ee16 b63c 5271 dabb 209c 753c
000003f0: 74f5 d9ba ce3c 373c 25c1 273c a289 95bc

a2c_network.actor_mlp.2.weight f4 [128, 256]
0.018101286 -0.0069790524 0.025024677 -0.04350321 -0.033514522 0.05164069 -0.05579262 -0.07199241
-0.0481778 -0.07002072 -0.046202958 -0.029076206 0.025095193 -0.08621385 -0.068254456 -0.03248344
-0.069011204 0.030908838 -0.025860347 0.037808456 0.0788483 -0.039352547 -0.016554948 -0.0070492513
0.03621249 0.03306612 -0.025923144 0.011713054 -0.07052127 -0.0409441 -0.05110721 -0.085034646
-0.060675945 -0.045193844 -0.015205384 0.032245513 0.008784044 -0.007108567 -0.012363012 0.062887095
-0.03160027 0.04159756 0.03726936 -0.03741371 0.05780949 0.028102748 -0.048363004 0.07225768
0.014686277 0.078156896 0.0064416723 -0.033962693 0.075057045 -0.010106591 0.046094056 -0.014315559
0.035804097 -0.019160833 0.034460258 0.028737945 -0.010198762 0.060137402 0.027155966 0.004873152
0.034891315 0.0023727317 -0.0030054054 0.047212724 -0.05417071 -0.035721857 0.031204663 -0.029116575
-0.02089649 0.045225926 0.015445178 -0.021433054 0.0059475396 0.030571023 -0.03412897 0.046031896
0.00019697438 -0.04146763 -0.040015902 -0.022146385 0.04367408 -0.006757105 -0.06918438 -0.007317139
0.06522785 -0.030819252 0.07716768 0.045599904 0.05666884 -0.0115416115 -0.050902296 -0.05971774
0.0058475123 -0.028164517 0.008506626 0.03761626 0.05540555 -0.093320556 -0.03416038 -0.015168075
-0.012217845 0.06402301 -0.031932857 0.041379265 -0.0264414 -0.00051624264 -0.010677275 -0.00595148
-0.03608616 -0.075283565 -0.006023 -0.019848885 -0.05069108 -0.012419157 -0.069039926 -0.026295565
-0.06826588 0.07911568 -0.0040511647 0.033504467 -0.064454295 0.0086104795 -0.08422922 0.025961796
0.051208705 -0.079564415 0.06277823 -0.00822887 -0.060191136 0.00653665 0.047339715 -0.049870588
0.042277936 0.026576048 0.04068894 -0.023843218 0.03234961 0.005297394 0.06985375 -0.067004494
-0.0017748113 0.01832653 -0.04954803 -0.013603104 0.038157597 0.03675322 -0.0024238725 -0.008282278
-0.053635936 0.046589464 -0.034624558 -0.088699594 0.028212091 -0.027727365 0.03245513 0.06059593
0.0601898 0.041851763 -0.041274454 -0.0114586605 0.03436795 -0.045055985 0.047818404 0.060643476
-0.061793253 -0.016097968 -0.05185716 0.0072494247 0.034588814 -0.041298967 0.021291783 -0.009194696
0.037824847 0.042186726 0.005949149 -0.048752952 0.038766503 -0.04435857 0.02909733 -0.014887279
0.061385367 -0.01004564 0.001554549 -0.040654358 0.021299047 -0.021587264 0.00995161 0.029796464
-0.05264828 -0.05371605 0.020742858 -0.043897133 -0.062020894 0.06548342 -0.03473532 -0.02225099
-0.07537938 0.026247973 -0.012637809 0.008494572 0.008414126 -0.0060217665 -0.0040611587 0.056399442
0.016053759 0.015866453 -0.08063409 -0.042349175 0.006068673 0.0016007719 -0.00012354302 -0.026309332
0.02559205 0.050307874 -0.023244215 0.00014832229 -0.023871016 0.06847887 -0.00757627 -0.006145271
0.056710646 -0.03335421 0.01404531 -0.029698161 -0.060843166 0.042545624 -0.011665321 -0.09425638
-0.04617369 -0.008852461 0.03225015 0.017413521 0.0017424438 0.036858667 -0.07818942 0.039053082
0.0012164875 -3.386153e-05 0.011248567 0.0057612546 -0.0076057795 0.028105544 0.06043546 0.07898223
-0.00393548 0.020863157 0.02361257 -0.03423805 0.03931452 0.015658407 0.0540316 -0.009113858
00000000: 2649 943c 89b0 e4bb 8d00 cd3c 6c30 32bd
00000010: 8646 09bd 3085 533d cd86 64bd c270 93bd
00000020: 1656 45bd 0667 8fbd 503f 3dbd 3931 eebc
00000030: 6f94 cd3c e390 b0bd fec8 8bbd 5b0d 05bd
00000040: bf55 8dbd 8834 fd3c 14d9 d3bc 0add 1a3d
00000050: 387b a13d 2330 21bd 3e9e 87bc 68fd e6bb
00000060: 8c53 143d 5770 073d c65c d4bc 1ce8 3f3c
00000070: 756d 90bd 00b5 27bd cb55 51bd a526 aebd
00000080: 5787 78bd 2e1d 39bd 0120 79bc df13 043d
00000090: f3ea 0f3c fbee e8bb 3b8e 4abc f3ca 803d
000000a0: 496f 01bd 3462 2a3d c2a7 183d 1e3f 19bd
000000b0: a5c9 6c3d bc37 e63c 4918 46bd d6fb 933d
000000c0: b69e 703c b910 a03d aa14 d33b 771c 0bbd
000000d0: 82b7 993d 1d96 25bc 1fcd 3c3d ce8b 6abc
000000e0: 51a7 123d 2ef7 9cbc 3326 0d3d d76b eb3c
000000f0: b518 27bc a352 763d 3076 de3c f6ae 9f3b
00000100: 32ea 0e3d d57f 1b3b 56f6 44bb 2162 413d
00000110: 1be2 5dbd 1551 12bd eca0 ff3c e285 eebc
00000120: 1e2f abbc d23e 393d c60d 7d3c 5f94 afbc
00000130: 94e3 c23b 1570 fa3c d2ca 0bbd f18b 3c3d
00000140: e88a 4e39 f6d9 29bd b7e7 23bd 566c b5bc
00000150: 98e3 323d b46a ddbb 8ab0 8dbd 9cc4 efbb
00000160: 2e96 853d a878 fcbc 170a 9e3d f7c6 3a3d
00000170: 961d 683d 0719 3dbc ed7e 50bd 979a 74bd
00000180: 7d9c bf3b 46b9 e6bc 605f 0b3c 8213 1a3d
00000190: eef0 623d d91e bfbd c1eb 0bbd 8583 78bc
000001a0: 5b2d 48bc 7f1e 833d 07cc 02bd 4e7d 293d
000001b0: a39b d8bc 7554 07ba bdef 2ebc a204 c3bb
000001c0: 15cf 13bd 452e 9abd 965c c5bb 219a a2bc
000001d0: 73a1 4fbd b879 4bbc ce64 8dbd cc69 d7bc
000001e0: fbce 8bbd 6707 a23d a2bf 84bb fb3b 093d
000001f0: 9d00 84bd f812 0d3c 5f80 acbd d5ad d43c
00000200: 38c0 513d abf2 a2bd df91 803d 62d2 06bc
00000210: fb8a 76bd 6531 d63b 4ae7 413d 1a45 4cbd
00000220: a12b 2d3d 03b6 d93c 72a9 263d da52 c3bc
00000230: 0681 043d c395 ad3b 7c0f 8f3d a739 89bd
00000240: c9a0 e8ba 8521 963c e0f2 4abd 8edf 5ebc
00000250: 244b 1c3d 8b8a 163d d5d9 1ebb 64b2 07bc
00000260: 5bb1 5bbd 98d4 3e3d 7bd2 0dbd 22a8 b5bd
00000270: 0b1d e73c 8024 e3bc acef 043d 7033 783d
00000280: 9489 763d c16c 2b3d 670f 29bd 1bbd 3bbc
00000290: 68c5 0c3d a08c 38bd 3bdd 433d 4b65 783d
000002a0: ec1a 7dbd e3df 83bc 2c68 54bd 958c ed3b
000002b0: 00ad 0d3d 1b29 29bd 1b6c ae3c 5aa5 16bc
000002c0: 3aee 1a3d fdcb 2c3d 14f1 c23b 2db1 47bd
000002d0: a0c9 1e3d 55b1 35bd 865d ee3c c6e9 73bc
000002e0: 396f 7b3d 7896 24bc 02c2 cb3a 2f85 26bd
000002f0: 577b ae3c c6d7 b0bc 140c 233c b717 f43c
00000300: b9a5 57bd 5c05 5cbd edec a93c 7bcd 33bd
00000310: 9f09 7ebd 2c1c 863d 9f46 0ebd b547 b6bc
00000320: 8160 9abd fd05 d73c d00e 4fbc d12c 0b3c
00000330: 67db 093c 3d52 c5bb 7813 85bb 1a03 673d
00000340: 2c83 833c 5dfa 813c 7c23 a5bd 5476 2dbd
00000350: b8db c63b fed0 d13a 548b 01b9 ab86 d7bc
00000360: 6ba6 d13c a10f 4e3d a76a bebc f686 1b39
00000370: 268d c3bc a63e 8c3d 5c42 f8bb 455e c9bb
00000380: 6c49 683d 6d9e 08bd 4d1e 663c 8f49 f3bc
00000390: af36 79bd 5244 2e3d e71f 3fbc 7d09 c1bd
000003a0: a020 3dbd ea09 11bc bc18 043d cda6 8e3c
000003b0: b662 e43a 1df9 163d c621 a0bd 20f6 1f3d
000003c0: 8c72 9f3a 8a06 0eb8 e94b 383c e8c8 bc3b
000003d0: e739 f9bb 993d e63c 2c8b 773d 6fc1 a13d
000003e0: 33f5 80bb 36e9 aa3c 266f c13c 333d 0cbd
000003f0: 4308 213d 0f46 803c 3d50 5d3d 4b52 15bc

a2c_network.actor_mlp.2.bias f4 [128]
-0.022824412 0.028559128 -0.010430264 0.034881417 -0.031218354 -0.018110884 -0.015830688 0.024957094
-0.028900625 0.010728202 0.012717344 0.0324265 0.030004388 -0.028338851 0.030378718 0.027426915
-0.029716015 -0.00989791 0.021997869 -0.029559283 -0.006986011 0.01978328 0.016672008 0.018287338
0.017818484 0.028711792 -0.018997788 -0.032187868 0.033176757 -0.012832286 -0.027085934 -0.01201706
0.029468754 -0.011737089 0.0003612317 0.03818973 -0.027515987 -0.0016878523 0.025498861 -0.027054349
-0.013591811 -0.02002838 -0.0027629347 -0.023119729 0.02078538 -0.014843187 -0.02357575 0.017994786
0.009344339 -0.02257793 -0.0100165615 0.036933523 0.016486838 -0.0016363487 -0.01422576 0.022592355
0.006804651 -0.026681153 -0.027975317 0.028092286 0.020834982 0.026941022 0.017884146 0.030591812
0.033154983 0.021559995 0.034771957 0.017614966 -0.0067354986 0.033489544 0.022253621 -0.010571152
-0.029615955 -0.02609696 0.00447522 0.028707486 0.014697961 0.0085200835 0.030776544 -0.026362365
0.019264843 -0.02812209 -0.017059574 0.0074570975 -0.029960746 0.034875188 -0.03226739 -0.024749385
0.03075328 0.008211724 0.025975505 -0.018886337 0.029457841 0.015672673 0.012418915 -0.013826257
0.023508633 -0.029442806 0.027213074 -0.017537735 -0.019006332 0.024247022 0.030114025 0.02086227
0.02669923 0.03729921 0.0056679575 -0.00825778 -0.024174027 -0.02753543 0.036280945 -0.024955781
-0.02030846 0.012500636 0.006298609 0.03173335 0.016719062 0.0055227634 -0.022366932 -0.014106809
-0.018241612 -0.03220894 0.01814328 -0.014477465 -0.014218209 -0.019346418 0.032750264 0.0102692535
00000000: 43fa babc d5f4 e93c b3e3 2abc d1df 0e3d
00000010: a2bd ffbc 475d 94bc 5caf 81bc d272 cc3c
00000020: 01c1 ecbc 57c5 2f3c 685c 503c a6d1 043d
00000030: c3cb f53c e126 e8bc cadc f83c 69ae e03c
00000040: 006f f3bc d82a 22bc e034 b43c 4f26 f2bc
00000050: e8ea e4bb 8c10 a23c bc93 883c 54cf 953c
00000060: 12f8 913c fe34 eb3c 40a1 9bbc 6dd7 03bd
00000070: 5ae4 073d 823e 52bc 52e3 ddbc 34e3 44bc
00000080: 7568 f13c eb4c 40bc b363 bd39 d66c 1c3d
00000090: 3569 e1bc ed3a ddba fde2 d03c 15a1 ddbc
000000a0: 30b0 5ebc 8f12 a4bc 5a12 35bb 9665 bdbc
000000b0: 1a46 aa3c d730 73bc ee21 c1bc cd69 933c
000000c0: 0019 193c 5af5 b8bc 811c 24bc 9b47 173d
000000d0: 680f 873c c07a d6ba 2913 69bc 9a13 b93c
000000e0: 8df9 de3b 6f92 dabc 7e2c e5bc cb21 e63c
000000f0: 20ae aa3c 6bb3 dc3c c681 923c ae9b fa3c
00000100: 85cd 073d 969e b03c 0a6d 0e3d 434d 903c
00000110: 75b5 dcbb 552c 093d 3a4d b63c a032 2dbc
00000120: 299d f2bc 4bc9 d5bc dea4 923b f62b eb3c
00000130: b7cf 703c d297 0b3c 171f fc3c e3f5 d7bc
00000140: 4ed1 9d3c 4c60 e6bc 85c0 8bbc ab5a f43b
00000150: 3d70 f5bc 49d9 0e3d d02a 04bd 39bf cabc
00000160: 4dee fb3c 788a 063c 95ca d43c 85b7 9abc
00000170: 9251 f13c fa63 803c b478 4b3c 8687 62bc
00000180: 2d95 c03c 0a32 f1bc f4ed de3c 4cab 8fbc
00000190: 2bb3 9bbc b1a1 c63c b0b1 f63c 5ae7 aa3c
000001a0: 58b8 da3c 0ec7 183d 46ba b93b a44b 07bc
000001b0: 9c08 c6bc fb91 e1bc 549b 143d 1170 ccbc
000001c0: ed5d a6bc 78cf 4c3c 9064 ce3b d4fa 013d
000001d0: 6af6 883c 4cf8 b43b db3a b7bc 3f20 67bc
000001e0: 6f6f 95bc 85ed 03bd 37a1 943c e432 6dbc
000001f0: 7ef3 68bc 617c 9ebc 2425 063d 5f40 283c

a2c_network.actor_mlp.4.weight f4 [64, 128]
0.038132828 0.018585168 -0.03939272 0.11808937 0.005959347 0.010022888 -0.02364753 -0.006028662
-0.097278774 0.06516686 -0.082144685 0.094183736 0.108158484 0.014615689 0.12663235 -0.030534502
-0.019606669 0.06773773 -0.07953178 -0.11097533 0.05767436 0.064412415 0.03269765 0.024181727
0.06819034 0.09612579 -0.056165587 -0.109783515 0.11318601 -0.025097668 -0.029767325 -0.022247117
0.05252576 0.03630106 0.09371545 0.022973511 -0.00796755 -0.08667084 0.082027994 -0.02175379
0.101372994 -0.058043182 -0.007924786 0.063694395 -0.07804764 -0.05822588 -0.0011638094 -0.05022576
-0.060603615 0.0064045577 0.08679446 0.042758483 -0.050838664 -0.06194747 -0.003587244 0.05600332
-0.09495224 0.06196426 -0.030045982 0.09007131 0.040731907 -0.050759446 0.076577306 -0.029953636
0.050145656 -0.018116115 -0.042016935 0.006463402 -0.0338406 0.078898855 -0.027869452 -0.07975717
-0.10259221 -0.07669974 0.09905612 0.116905876 0.0227205 -0.09871642 0.044882786 -0.06870642
0.030772313 0.054631878 0.055253685 -0.005298716 -0.04358972 -0.003510531 -0.07850305 -0.046837643
0.06139491 0.05113405 0.018020395 0.11124733 0.057821594 -0.06194039 0.11625899 -0.051653966
0.007746411 -0.079438545 0.061667643 -0.012117814 -0.02289916 -0.007964222 -0.029850978 -0.019787252
0.0648014 -0.00046514193 -0.041338418 0.082077056 -0.020720022 0.014275171 0.07607566 -0.06749453
-0.015141541 -0.11043816 0.011684772 0.09603197 -0.086440146 0.023629807 -0.05278471 0.049228474
0.033685938 -0.01123135 0.014603236 0.00029964215 -0.01981839 -0.08790314 0.09967053 0.024001244
-0.00032828524 0.008235467 -0.027877273 -0.10296713 0.07092069 -0.050660882 -0.020492041 -0.049564365
0.082378045 -0.042413436 0.029012572 -0.011689024 0.058006056 0.09967797 0.01594546 -0.026176656
0.061328374 0.015258237 -0.0765313 0.01015981 0.044868343 -0.07781725 -0.04709092 -0.045788594
0.06431731 -0.0860567 0.0019042144 -0.05008764 0.05321465 -0.052941937 0.048916053 -0.045984615
-0.042873852 -0.0059390734 -0.006315143 -0.071554795 -0.05935501 -0.058053408 -0.05629848 0.0614296
0.026857898 -0.05303862 -0.053403918 0.07303667 -0.09249546 0.069689915 0.015825273 -0.074548654
0.03867464 0.06791837 0.04111627 -0.04283076 -0.03624814 -0.0025070305 -0.06313419 0.025270123
-0.04713245 0.008673669 -0.004937029 0.047990162 -0.10075152 -0.07032263 0.039652538 -0.047471687
0.052573215 -0.07359332 0.007389196 0.020568864 0.09112691 0.04377921 0.026481586 -0.011593612
0.032524478 0.06578412 -0.065282986 -0.098902546 0.0073856898 -0.07335202 -0.0030569665 0.015126338
0.057402335 0.07829489 -0.07965747 0.0935026 -0.05099193 -0.09573104 -0.01036214 0.028061073
-0.02071166 -0.005253331 -0.0065299836 -0.026305795 -0.04493575 0.0429296 0.010436141 -0.01728998
0.026701966 0.067394845 -0.01712348 -0.01823703 0.076384366 -0.01036838 0.050586775 0.07613118
-0.0969408 -0.03531991 -0.069211185 0.017856734 0.06787467 0.051696207 -0.043161504 0.03945238
0.062425543 -0.043157365 0.048679832 -0.018871186 0.022055248 -0.013178908 0.061492395 0.043460365
-0.0012911934 0.018713623 -0.07624442 -0.08468737 -0.023484848 -0.050920982 -0.022186222 0.07039472
00000000: 2b31 1c3d ec3f 983c 435a 21bd d7d8 f13d
00000010: a046 c33b 0a37 243c 77b8 c1bc 158c c5bb
00000020: 183a c7bd 3476 853d 793b a8bd 67e3 c03d
00000030: 3282 dd3d a576 6f3c e9ab 013e 7e23 fabc
00000040: 2a9e a0bc 14ba 8a3d 8fe1 a2bd 0947 e3bd
00000050: f33b 6c3d a8ea 833d f9ed 053d c218 c63c
00000060: 61a7 8b3d 99dd c43d e30d 66bd 2ed6 e0bd
00000070: 11ce e73d a099 cdbc 9bda f3bc 963f b6bc
00000080: 4025 573d 6cb0 143d e3ed bf3d f232 bc3c
00000090: 548a 02bc 7b80 b1bd 4bfe a73d 0135 b2bc
000000a0: a59c cf3d b0be 6dbd f6d6 01bc 3572 823d
000000b0: 71d7 9fbd 437e 6ebd f78a 98ba 87b9 4dbd
000000c0: 7f3b 78bd 53dd d13b 4bc1 b13d 8523 2f3d
000000d0: 343c 50bd a1bc 7dbd f817 6bbb bd63 653d
000000e0: 5276 c2bd 3cce 7d3d fe22 f6bc 4f77 b83d
000000f0: 80d6 263d 23e9 4fbd 90d4 9c3d 5461 f5bc
00000100: 8865 4d3d 3f68 94bc f319 2cbd f2ca d33b
00000110: 719c 0abd b995 a13d 7a4e e4bc ba57 a3bd
00000120: dd1b d2bd c114 9dbd efdd ca3d 596c ef3d
00000130: 5820 ba3c d62b cabd 03d7 373d f4b5 8cbd
00000140: 3816 fc3c adc5 5f3d b051 623d daa0 adbb
00000150: 228b 32bd f010 66bb 35c6 a0bd d4d8 3fbd
00000160: 3b79 7b3d f071 513d 829f 933c a4d5 e33d
00000170: 56d6 6c3d 35b5 7dbd 3119 ee3d 1c93 53bd
00000180: 9bd5 fd3b adb0 a2bd 3697 7c3d cc89 46bc
00000190: 0597 bbbc 5e7c 02bc 0a8a f4bc e018 a2bc
000001a0: 99b6 843d 4bde f3b9 7952 29bd 0418 a83d
000001b0: 09bd a9bc 68e2 693c 8ecd 9b3d 923a 8abd
000001c0: 3a14 78bc 672d e2bd 7c71 3f3c 69ac c43d
000001d0: 8807 b1bd 4c93 c13c c834 58bd cca3 493d
000001e0: 44fa 093d b203 38bc 6942 6f3c 4a19 9d39
000001f0: 2d5a a2bc 9006 b4bd 1020 cc3d 429e c43c
00000200: b31d acb9 0dee 063c e15e e4bc 6ee0 d2bd
00000210: de3e 913d c981 4fbd edde a7bc 0104 4bbd
00000220: d2b5 a83d b6b9 2dbd c6ab ed3c 5283 3fbc
00000230: c297 6d3d f723 cc3d 0ea0 823c 6d70 d6bc
00000240: 7633 7b3d affd 793c 71bc 9cbd 5575 263c
00000250: dec7 373d a65e 9fbd 69e2 40bd d28c 3bbd
00000260: cbb8 833d 7f3e b0bd d596 f93a b228 4dbd
00000270: 9bf7 593d a5d9 58bd 335c 483d 5d5a 3cbd
00000280: 7e9c 2fbd 8f9c c2bb 42ef cebb 528b 92bd
00000290: 3d1e 73bd 69c9 6dbd 3c99 66bd 9b9d 7b3d
000002a0: 1805 dc3c 063f 59bd 11be 5abd 4094 953d
000002b0: 426e bdbd 96b9 8e3d 01a4 813c f7ac 98bd
000002c0: 4d69 1e3d c918 8b3d 8969 283d 4f6f 2fbd
000002d0: ee78 14bd fe4c 24bb 804c 81bd 4a03 cf3c
000002e0: f50d 41bd 011c 0e3c cdc6 a1bb 5591 443d
000002f0: d056 cebd 5005 90bd b36a 223d ac71 42bd
00000300: 0357 573d 18b8 96bd 1221 f23b 0980 a83c
00000310: bfa0 ba3d d451 333d e9ef d83c 22f3 3dbc
00000320: 6338 053d d3b9 863d 16b3 85bd 6b8d cabd
00000330: a803 f23b 9539 96bd 6357 48bb 76d4 773c
00000340: b61e 6b3d 1259 a03d 7523 a3bd 4b7e bf3d
00000350: eadc 50bd a30e c4bd f7c5 29bc 56e0 e53c
00000360: 80ab a9bc 2224 acbb 79f9 d5bb 407f d7bc
00000370: 8d0e 38bd f3d6 2f3d 59fc 2a3c b7a3 8dbc
00000380: 15be da3c 4f06 8a3d 8a46 8cbc d365 95bc
00000390: 686f 9c3d 23e0 29bc 1434 4f3d aaea 9b3d
000003a0: e688 c6bd 9cab 10bd 98be 8dbd 4948 923c
000003b0: e001 8b3d 67bf 533d 1eca 30bd d298 213d
000003c0: edb1 7f3d c7c5 30bd 8164 473d bf97 9abc
000003d0: 35ad b43c 59ec 57bc 73df 7b3d 7f03 323d
000003e0: 433d a9ba 504d 993c 0926 9cbd 9270 adbd
000003f0: 4c63 c0bc 8592 50bd e1bf b5bc 1b2b 903d

a2c_network.actor_mlp.4.bias f4 [64]
0.033229753 -0.027807772 -0.02807633 -0.026147623 0.02017681 -0.021919701 -0.011925608 0.0040735244
-0.0054531945 -0.032529917 -0.028086048 0.031637605 -0.013740169 -0.029533217 -0.028483175 0.02406336
-0.019941855 0.033715114 0.02581357 -0.025118766 0.019590663 -0.024423987 -0.0071894834 -0.022798723
0.02387827 -0.0216453 -0.0052053444 0.03588923 -0.02712151 -0.013462854 0.03866534 -0.013459755
0.029021852 -0.026638327 -0.0310263 -0.017439274 -0.027235242 -0.027862491 0.030181749 -0.030505532
0.031149717 -0.032087617 0.026242169 -0.0070663234 0.026487323 0.023751056 0.029558597 0.026917255
0.019536255 -0.021538867 0.038033094 -0.02748866 -0.02978117 0.026065161 0.009680341 0.026315605
0.018626245 0.021543924 -0.023632696 0.022655323 -0.02026085 -0.0068115466 -0.030624324 -0.015520239
00000000: ec1b 083d 20cd e3bc 5500 e6bc 8a33 d6bc
00000010: d649 a53c f290 b3bc a063 43bc 337b 853b
00000020: b6b0 b2bb 173e 05bd b614 e6bc 6f96 013d
00000030: 721e 61bc a5ef f1bc 8c55 e9bc 8620 c53c
00000040: 1a5d a3bc dc18 0a3d fb76 d33c dfc5 cdbc
00000050: 997c a03c d014 c8bc c295 ebbb 63c4 babc
00000060: 5d9c c33c 7c51 b1bc 9891 aabb 9600 133d
00000070: ee2d debc 4d93 5cbc 8c5f 1e3d 4e86 5cbc
00000080: 3cbf ed3c 9f38 dabc de2a febc cfdc 8ebc
00000090: 711c dfbc e13f e4bc b73f f73c bde6 f9bc
000000a0: b12d ff3c 4e6e 03bd d1f9 d63c 9e8c e7bb
000000b0: f1fb d83c 9391 c23c df24 f23c 9381 dc3c
000000c0: 7f0a a03c 4772 b0bc 97c8 1b3d e62f e1bc
000000d0: a4f7 f3bc 9b86 d53c 4b9a 1e3c d393 d73c
000000e0: 1196 983c e27c b03c 5b99 c1bc a897 b93c
000000f0: 15fa a5bc 6533 dfbb dddf fabc 9a48 7ebc

a2c_network.value.weight f4 [1, 64]
-0.08311876 0.086329274 0.10867888 0.03925466 -0.007004282 0.08668545 0.064987615 0.011589258
0.03837216 0.102477185 0.11384172 -0.07689628 0.030097483 0.13359901 0.08634838 -0.08203062
0.12890923 -0.121580124 -0.06986956 0.043553945 -0.0519889 0.06801558 0.024900623 0.14142373
-0.03862506 0.1126371 0.023858016 -0.13380048 0.09561171 0.102683574 -0.13467635 0.035491463
-0.07188378 0.10027836 0.07705381 0.051735487 0.13274051 0.13999167 -0.08688424 0.12187803
-0.045486845 0.14359544 -0.11732867 -0.0148129305 -0.085551016 -0.13814326 -0.14290407 -0.10511918
-0.04763543 0.09526901 -0.15335557 0.085445866 0.10303996 -0.05691499 -0.00889166 -0.06511766
-0.04783362 -0.074060276 0.100657396 -0.0820334 0.09887806 0.055964973 0.13541007 0.029876122
00000000: 2b3a aabd 67cd b03d 0893 de3d 7fc9 203d
00000010: 2d84 e5bb 2488 b13d 3a18 853d dfe0 3d3c
00000020: 202c 1d3d 8fdf d13d d925 e93d cc7b 9dbd
00000030: ff8e f63c 2ece 083e 6bd7 b03d abff a7bd
00000040: c800 043e 00ff f8bd c617 8fbd 9f65 323d
00000050: 50f2 54bd c14b 8b3d 64fc cb3c 62d1 103e
00000060: 5035 1ebd 48ae e63d e371 c33c fe02 09be
00000070: 12d0 c33d c44b d23d 99e8 09be 7f5f 113d
00000080: ce37 93bd be5e cd3d 63ce 9d3d 97e8 533d
00000090: 21ed 073e fa59 0f3e 5df0 b1bd 309b f93d
000000a0: 6a50 3abd af0a 133e 044a f0bd efb1 72bc
000000b0: 5f35 afbd 6d75 0dbe 7255 12be ba48 d7bd
000000c0: 5e1d 43bd 661c c33d 3e09 1dbe 3efe ae3d
000000d0: 9d06 d33d b11f 69bd 53ae 11bc 685c 85bd
000000e0: 30ed 43bd eaac 97bd 7725 ce3d 2101 a8bd
000000f0: 9580 ca3d 873b 653d f0a8 0a3e c5be f43c

a2c_network.mu.weight f4 [24, 64]
-0.074511565 -0.029485833 -0.036097087 -0.092252634 -0.034913614 0.11750415 0.02989597 0.10100281
0.02967206 0.055986866 -0.11235353 0.016327702 0.055503514 -0.014185966 -0.05842327 -0.0063001392
-0.08981595 0.0712292 0.036088996 -0.115391634 0.048440844 -0.12757441 0.039222974 -0.079440445
-0.091751 0.02821506 0.009132242 0.12138452 -0.07137259 0.13642138 0.04789146 0.03537752
0.038222663 0.016455965 0.053602524 0.016299361 0.09046345 -0.11908387 -0.034863196 -0.059126884
-0.06381614 -0.10836979 -0.076654844 0.022500118 -0.031947743 -0.09879419 0.07059527 0.10324796
0.059104927 -0.06019789 0.14406548 -0.007823543 -0.020236222 0.01821653 0.12024275 -0.04032789
-0.089571945 0.03621265 -0.086153224 -0.054797538 0.0068713967 0.11896931 -0.05953271 -0.021773325
-0.10715998 0.06967526 -0.09918467 -0.00043356518 0.040174294 -0.021152524 0.055689707 0.01758617
-0.0479437 -0.10484858 0.114785016 -0.102179386 -0.047376763 0.060800593 -0.024518225 -0.04447306
0.036762353 -0.013300156 0.059087265 -0.0505729 0.0050573177 -0.11872141 -0.02104875 0.108942926
0.06025563 0.016837766 0.03572189 0.1146456 -0.028298592 0.08773419 0.10987795 -0.008452281
0.060536776 0.03613123 -0.047983944 -0.08016989 -0.02453016 0.10126438 0.06501735 0.095731534
-0.07251152 -0.116373755 -0.041508652 -0.107338145 0.083682835 -0.03679448 -0.074545436 -0.022342548
-0.023899175 0.021188645 0.069074176 -0.08148313 0.04727546 0.0012813838 0.08277858 0.0052488055
0.04276845 -0.12175773 0.08523029 0.07038705 0.11700793 0.034827366 -0.00022638221 0.124063134
-0.060492016 -0.043019462 0.0028914956 -0.099397376 0.114506006 0.093148746 0.10368372 0.0795041
0.06209226 0.0013492814 0.04311083 0.04762909 -0.012844747 -0.027529385 -0.018422017 -0.10680805
0.06366107 0.13831978 0.053663574 -0.008919567 -0.016684942 -0.12501656 -0.14343043 -0.08987757
-0.046764217 -0.097413905 0.047173765 0.1564745 -0.05375972 0.10622551 0.10147936 0.090780325
0.09283407 0.07270621 0.0793688 -0.04809154 0.008755813 0.05451981 -0.07225689 -0.10265127
0.10570199 -0.086603366 -0.081472196 0.0012059286 0.021873431 -0.045513663 -0.060524702 -0.08847598
-0.05256963 0.13181385 0.06461184 -0.09959166 0.083133474 0.08213312 0.046628762 0.027671862
-0.09688312 -0.0530949 0.11185713 -0.08826815 0.034119327 0.10647672 -0.10492889 -0.015730565
0.072448485 0.09554318 -0.09181913 -0.08969215 0.049353555 0.05377137 0.12348362 0.08340367
0.12340183 0.097434625 -0.059511878 0.09791945 0.07648425 -0.07635814 -0.066879906 0.027893389
0.08156925 0.05234816 -0.057200283 -0.123078205 0.027092708 -0.097905725 0.009065172 0.0142805725
0.13911419 0.105337486 0.14079185 0.11441751 -0.11872956 0.11660876 0.12959348 0.087933406
0.02498692 -0.09695601 -0.1259585 0.13076577 0.013106931 -0.12444436 0.104360305 0.08829329
0.048436046 0.05087763 -0.13044578 -0.040773027 -0.10335913 -0.11820122 0.029766336 -0.014733428
-0.015975287 0.026011564 0.09377962 0.0773039 -0.08935854 0.086817294 0.00095629785 0.09334496
-0.07861227 -0.10131421 0.03096821 -0.03893511 0.03379092 -0.0014165503 -0.05377556 -0.10475297
00000000: 8599 98bd 468c f1bc 8ada 13bd f3ee bcbd
00000010: 9401 0fbd 04a6 f03d 65e8 f43c 90da ce3d
00000020: d212 f33c 7c52 653d 9c19 e6bd acc1 853c
00000030: a757 633d 416c 68bc 3d4d 6fbd 6671 cebb
00000040: 6df1 b7bd 9de0 913d 0ed2 133d 7352 ecbd
00000050: e869 463d dea2 02be 45a8 203d acb1 a2bd
00000060: f3e7 bbbd 4523 e73c 669f 153c 7298 f83d
00000070: cb2b 92bd 0cb2 0b3e d629 443d 05e8 103d
00000080: 5e8f 1c3d a9ce 863c 528e 5b3d 3d86 853c
00000090: e744 b93d 3ee2 f3bd b6cc 0ebd 082f 72bd
000000a0: 09b2 82bd fbf0 ddbd 37fd 9cbd 2b52 b83c
000000b0: a3db 02bd 9c54 cabd 4194 903d ab73 d33d
000000c0: 0218 723d 1092 76bd e785 133e 512e 00bc
000000d0: 6fc6 a5bc d53a 953c d541 f63d dc2e 25bd
000000e0: 7f71 b7bd b753 143d 1a71 b0bd 6273 60bd
000000f0: 7429 e13b 2ea6 f33d 92d8 73bd f95d b2bc
00000100: b176 dbbd e7b1 8e3d 5521 cbbd 2250 e3b9
00000110: cd8d 243d 0f48 adbc e41a 643d df10 903c
00000120: 9d60 44bd daba d6bd 6814 eb3d 6d43 d1bd
00000130: 230e 42bd 0b0a 793d 72da c8bc 6229 36bd
00000140: 1f94 163d e6e8 59bc 7d05 723d 8725 4fbd
00000150: dbb7 a53b 3624 f3bd 6e6e acbc 781d df3d
00000160: 9cce 763d 5bef 893c 1e51 123d 50cb ea3d
00000170: 73d2 e7bc fcad b33d b107 e13d 707b 0abc
00000180: 69f5 773d 57fe 133d d08a 44bd 1c30 a4bd
00000190: 79f3 c8bc b363 cf3d d127 853d e50e c43d
000001a0: eb80 94bd 5d55 eebd fa04 2abd 1ad4 dbbd
000001b0: e861 ab3d cfb5 16bd 47ab 98bd b807 b7bc
000001c0: 34c8 c3bc cf93 ad3c c376 8d3d a1e0 a6bd
000001d0: eaa3 413d 1bf4 a73a d187 a93d 2cfe ab3b
000001e0: f82d 2f3d 1e5c f9bd 388d ae3d 1627 903d
000001f0: dba1 ef3d 24a7 0e3d 0361 6db9 d014 fe3d
00000200: 7ac6 77bd 2d35 30bd 3f7f 3d3b da90 cbbd
00000210: 2082 ea3d c5c4 be3d 2158 d43d 0cd3 a23d
00000220: 7454 7e3d 5fda b03a fb94 303d b816 433d
00000230: c672 52bc 4e85 e1bc c5e9 96bc 2ebe dabd
00000240: bc60 823d b3a3 0d3e 56ce 5b3d 6023 12bc
00000250: dcae 88bc 5704 00be 6ddf 12be bb11 b8bd
00000260: d68b 3fbd f180 c7bd 4739 413d da3a 203e
00000270: 2733 5cbd c38c d93d 69d4 cf3d 09eb b93d
00000280: ca1f be3d fee6 943d 1c8c a23d a2fb 44bd
00000290: 8b74 0f3c 2a50 5f3d 6cfb 93bd d43a d2bd
000002a0: 497a d83d 1b5d b1bd e5da a6bd 4010 9e3a
000002b0: e92f b33c 896c 3abd c0e8 77bd e532 b5bd
000002c0: 4153 57bd 36fa 063e 3653 843d b6f6 cbbd
000002d0: e241 aa3d 6935 a83d cdfd 3e3d 1ab0 e23c
000002e0: a86a c6bd 0a7a 59bd 5a15 e53d efc5 b4bd
000002f0: b5c0 0b3d 7710 da3d f5e4 d6bd 63dd 80bc
00000300: df5f 943d 25ac c33d ab0b bcbd 85b0 b7bd
00000310: f426 4a3d 5e3f 5c3d fbe4 fc3d 8bcf aa3d
00000320: 19ba fc3d ce8b c73d bac2 73bd fe89 c83d
00000330: c6a3 9c3d a861 9cbd 55f8 88bd ad80 e43c
00000340: c70d a73d 066b 563d d84a 6abd 6d10 fcbd
00000350: 87f1 dd3c cc82 c8bd 1686 143c 10f9 693c
00000360: f373 0e3e 2ebb d73d bd2b 103e ba53 ea3d
00000370: 7c28 f3bd 93d0 ee3d 27b4 043e 6e16 b43d
00000380: 5fb1 cc3c df90 c6bd 44fb 00be 76e7 053e
00000390: 74be 563c afdc febd dbba d53d 1dd3 b43d
000003a0: e064 463d 1065 503d 9493 05be 9e01 27bd
000003b0: f4ad d3bd 7b13 f2bd 88d8 f33c 7a64 71bc
000003c0: 9bde 82bc 3416 d53c 880f c03d 8251 9e3d
000003d0: 9c01 b7bd 44cd b13d 10b0 7a3a a42b bf3d
000003e0: 78ff a0bd d37d cfbd 0bb1 fd3c 6c7a 1fbd
000003f0: 5968 0a3d 8aab b9ba c343 5cbd ba88 d6bd

a2c_network.mu.bias f4 [24]
0.016812403 -0.006363026 0.015632464 0.019696442 0.023634857 -0.000500024 0.024064332 0.02368423
-0.017187586 0.021518052 -0.0060556848 -0.009485037 -0.0051643024 -0.028022869 0.0069641713 0.012978056
-0.0187067 -0.016053528 0.009144257 -0.015079896 0.017417153 0.008867353 -0.014704826 -0.0055144164
00000000: 2aba 893c ee80 d0bb a70f 803c 6f5a a13c
00000010: e39d c13c 0b14 03ba 9022 c53c 6e05 c23c
00000020: fbcc 8cbc a046 b03c c46e c6bb 2167 1bbc
00000030: 4f39 a9bb 3790 e5bc b433 e43b eaa1 543c
00000040: cb3e 99bc b082 83bc cbd1 153c ab11 77bc
00000050: 6bae 8e3c 6048 113c 83ec 70bc 47b2 b4bb

exp_avg f4 [24]
0.00094304583 -0.004172902 0.007451893 -0.00043436157 -0.00067306944 -0.003930946 0.00047789 -0.00012824462
-0.0030930098 -0.0026159296 -0.009781879 -0.004138784 -0.00047336254 0.0013796722 0.0002105027 -0.00068417087
0.00080320373 -0.004777956 -0.0020250902 -0.0034547865 0.0024985783 0.00045574113 0.009170896 0.0046078856
00000000: bc36 773a d7bc 88bb 022f f43b 06bb e3b9
00000010: ed70 30ba 2acf 80bb 4f8d fa39 6779 06b9
00000020: 18b4 4abb 0470 2bbb 2d44 20bc a39e 87bb
00000030: a52d f8b9 1ed6 b43a 63ba 5c39 ee59 33ba
00000040: 178e 523a 6690 9cbb 60b7 04bb b369 62bb
00000050: 30bf 233b 8af0 ee39 8741 163c bffd 963b

exp_avg_sq f4 [24]
0.00019687637 0.0002337881 0.00028581696 0.00029608145 0.0002875314 0.00023492087 0.00022874329 0.00027251773
0.00026543174 0.00016773933 0.00031228148 0.00019951697 0.00024899206 0.00027322644 0.0002585987 0.00023608812
0.0002444765 0.0002741202 0.00017057962 0.00027366242 0.00027147593 0.00023547879 0.00021642217 0.00025531685
00000000: 9970 4e39 0425 7539 b4d9 9539 613b 9b39
00000010: d0bf 9639 1755 7639 cfda 6f39 b6e0 8e39
00000020: a529 8b39 2fe3 2f39 b6b9 a339 6e35 5139
00000030: 268b 8239 d53f 8f39 8894 8739 6c8e 7739
00000040: 152d 8039 cab7 8f39 9edd 3239 597a 8f39
00000050: e254 8e39 dbea 7639 62ef 6239 0cdc 8539

exp_avg f4 [256, 39]
0.0 1.3964127e-05 1.3293465e-05 6.8027475e-06 5.6653744e-06 1.642666e-05 6.8027475e-06 0.012489148
0.009551252 6.8027475e-06 0.010547564 0.0064023477 0.0 1.13940105e-05 0.0 0.0
0.0 0.0 0.0 0.0 0.007756827 -0.0043116994 1.8086344e-05 0.0
0.0 0.0 0.0 0.0 0.0 0.0 0.0 0.0
0.0 0.0 0.0 0.0 0.0 0.0 1.8265637e-06 0.0
2.1572205e-05 2.0535621e-05 1.0508748e-05 8.751403e-06 2.5376998e-05 1.0508748e-05 0.01926627 0.014743058
1.0508748e-05 0.016277937 0.009886859 0.0 1.7601458e-05 0.0 0.0 0.0
0.0 0.0 0.0 0.0119765 -0.0066600963 2.7940408e-05 0.0 0.0
0.0 0.0 0.0 0.0 0.0 0.0 0.0 0.0
0.0 0.0 0.0 0.0 0.0 2.8216207e-06 0.0 -5.3409567e-06
-5.0844824e-06 -2.601894e-06 -2.1668968e-06 -6.282654e-06 -2.601894e-06 -0.004778748 -0.0036539668 -2.601894e-06
-0.004035344 -0.0024490156 0.0 -4.357928e-06 0.0 0.0 0.0 0.0
0.0 0.0 -0.0029672734 0.0016490008 -6.9174594e-06 0.0 0.0 0.0
0.0 0.0 0.0 0.0 0.0 0.0 0.0 0.0
0.0 0.0 0.0 0.0 -6.9862006e-07 0.0 -1.0322347e-05 -9.826191e-06
-5.028367e-06 -4.187386e-06 -1.2143104e-05 -5.028367e-06 -0.009211626 -0.007051365 -5.028367e-06 -0.00778467
-0.004729898 0.0 -8.42224e-06 0.0 0.0 0.0 0.0 0.0
0.0 -0.005729048 0.0031866177 -1.3369546e-05 0.0 0.0 0.0 0.0
0.0 0.0 0.0 0.0 0.0 0.0 0.0 0.0
0.0 0.0 0.0 -1.3501223e-06 0.0 -1.3167035e-05 -1.2534772e-05 -6.4145015e-06
-5.3421313e-06 -1.5488667e-05 -6.4145015e-06 -0.011784229 -0.009009529 -6.4145015e-06 -0.009950221 -0.0060379533
0.0 -1.0743665e-05 0.0 0.0 0.0 0.0 0.0 0.0
-0.007315933 0.004065674 -1.705376e-05 0.0 0.0 0.0 0.0 0.0
0.0 0.0 0.0 0.0 0.0 0.0 0.0 0.0
0.0 0.0 -1.7223235e-06 0.0 1.68685e-05 1.6057958e-05 8.217412e-06 6.8432632e-06
1.9843605e-05 8.217412e-06 0.015068473 0.011529775 8.217412e-06 0.012730465 0.007731485 0.0
1.3763596e-05 0.0 0.0 0.0 0.0 0.0 0.0 0.009365809
-0.0052080275 2.1848125e-05 0.0 0.0 0.0 0.0 0.0 0.0
0.0 0.0 0.0 0.0 0.0 0.0 0.0 0.0
0.0 2.2063944e-06 0.0 -2.728983e-07 -2.5987435e-07 -1.3298506e-07 -1.1080439e-07 -3.2090014e-07
-1.3298506e-07 -0.00024773015 -0.0001882586 -1.3298506e-07 -0.000208304 -0.00012562689 0.0 -2.2270704e-07
0.0 0.0 0.0 0.0 0.0 0.0 -0.00015247328 8.4229076e-05
00000000: 0000 0000 7847 6a37 ff06 5f37 2843 e436
00000010: 3219 be36 fccb 8937 2843 e436 499f 4c3c
00000020: db7c 1c3c 2843 e436 b1cf 2c3c c9ca d13b
00000030: 0000 0000 e728 3f37 0000 0000 0000 0000
00000040: 0000 0000 0000 0000 0000 0000 0000 0000
00000050: fb2c fe3b 2849 8dbb 21b8 9737 0000 0000
00000060: 0000 0000 0000 0000 0000 0000 0000 0000
00000070: 0000 0000 0000 0000 0000 0000 0000 0000
00000080: 0000 0000 0000 0000 0000 0000 0000 0000
00000090: 0000 0000 0000 0000 4028 f535 0000 0000
000000a0: f5f5 b437 e943 ac37 bb4e 3037 fdd2 1237
000000b0: b0e0 d437 bb4e 3037 4cd4 9d3c de8c 713c
000000c0: bb4e 3037 4f59 853c 7efc 213c 0000 0000
000000d0: d8a6 9337 0000 0000 0000 0000 0000 0000
000000e0: 0000 0000 0000 0000 0000 0000 1539 443c
000000f0: f03c dabb 9261 ea37 0000 0000 0000 0000
00000100: 0000 0000 0000 0000 0000 0000 0000 0000
00000110: 0000 0000 0000 0000 0000 0000 0000 0000
00000120: 0000 0000 0000 0000 0000 0000 0000 0000
00000130: 0000 0000 135b 3d36 0000 0000 7836 b3b6
00000140: 5f9b aab6 339c 2eb6 016b 11b6 96cf d2b6
00000150: 339c 2eb6 0b97 9cbb 6477 6fbb 339c 2eb6
00000160: eb3a 84bb aa7f 20bb 0000 0000 513a 92b6
00000170: 0000 0000 0000 0000 0000 0000 0000 0000
00000180: 0000 0000 0000 0000 9676 42bb 4923 d83a
00000190: 861c e8b6 0000 0000 0000 0000 0000 0000
000001a0: 0000 0000 0000 0000 0000 0000 0000 0000
000001b0: 0000 0000 0000 0000 0000 0000 0000 0000
000001c0: 0000 0000 0000 0000 0000 0000 0000 0000
000001d0: ce88 3bb5 0000 0000 252e 2db7 2bdb 24b7
000001e0: 58b9 a8b6 5f81 8cb6 3cba 4bb7 58b9 a8b6
000001f0: 5cec 16bc 230f e7bb 58b9 a8b6 8c16 ffbb
00000200: 43fd 9abb 0000 0000 3f4d 0db7 0000 0000
00000210: 0000 0000 0000 0000 0000 0000 0000 0000
00000220: 0000 0000 bdba bbbb 93d6 503b c34d 60b7
00000230: 0000 0000 0000 0000 0000 0000 0000 0000
00000240: 0000 0000 0000 0000 0000 0000 0000 0000
00000250: 0000 0000 0000 0000 0000 0000 0000 0000
00000260: 0000 0000 0000 0000 0000 0000 d935 b5b5
00000270: 0000 0000 fce7 5cb7 704c 52b7 263c d7b6
00000280: 8f40 b3b6 a9ed 81b7 263c d7b6 a412 41bc
00000290: b49c 13bc 263c d7b6 4006 23bc 06da c5bb
000002a0: 0000 0000 b13f 34b7 0000 0000 0000 0000
000002b0: 0000 0000 0000 0000 0000 0000 0000 0000
000002c0: 7eba efbb 5839 853b ac0e 8fb7 0000 0000
000002d0: 0000 0000 0000 0000 0000 0000 0000 0000
000002e0: 0000 0000 0000 0000 0000 0000 0000 0000
000002f0: 0000 0000 0000 0000 0000 0000 0000 0000
00000300: 0000 0000 0000 0000 962a e7b5 0000 0000
00000310: d480 8d37 34b4 8637 84dd 0937 2f9f e536
00000320: d175 a637 84dd 0937 c2e1 763c 62e7 3c3c
00000330: 84dd 0937 7193 503c 6658 fd3b 0000 0000
00000340: 32ea 6637 0000 0000 0000 0000 0000 0000
00000350: 0000 0000 0000 0000 0000 0000 0d73 193c
00000360: 1aa8 aabb 7e46 b737 0000 0000 0000 0000
00000370: 0000 0000 0000 0000 0000 0000 0000 0000
00000380: 0000 0000 0000 0000 0000 0000 0000 0000
00000390: 0000 0000 0000 0000 0000 0000 0000 0000
000003a0: 0000 0000 9111 1436 0000 0000 db82 92b4
000003b0: dc84 8bb4 a8ca 0eb4 5cf3 edb3 2e48 acb4
000003c0: a8ca 0eb4 c7e1 81b9 4867 45b9 a8ca 0eb4
000003d0: 2e6c 5ab9 b6ba 03b9 0000 0000 3f21 6fb4
000003e0: 0000 0000 0000 0000 0000 0000 0000 0000
000003f0: 0000 0000 0000 0000 3ce1 1fb9 24a4 b038
