runs/lift_30-15-11-02/nn/last_liftep150rew[-29.447353].pth (torch, 654621 bytes, 36 tensors)

value_mean_std.running_mean f8 [1]
000000 2d 49 76 23 ed b5 9b c0
       -1773.4815805895007

value_mean_std.running_var f8 [1]
000000 e7 35 4b 20 54 71 54 41
       5358928.504590488

value_mean_std.count f8 []
000000 00 00 00 00 08 c0 02 41
       153601.0

running_mean_std.running_mean f8 [39]
000000 00 00 00 00 00 00 00 00 35 32 30 85 eb ff f7 3f
       0.0 1.499980469004311
000010 03 33 3b a0 ba cc f4 3f 3c 98 95 b1 e4 ff df 3f
       1.299982667830762 0.4999934896681031
000020 ea 47 ab 47 83 99 d9 3f 57 7e f2 d3 1f 33 07 40
       0.39999467848713144 2.8999630506876133
000030 3c 98 95 b1 e4 ff df 3f ec 7a 98 01 ef 65 f8 3f
       0.4999934896681031 1.5248861372307898
000040 7e cc 3c 33 71 07 ff 3f 3c 98 95 b1 e4 ff df 3f
       1.939316940447298 0.4999934896681031
000050 b8 ce b9 e8 ee ff e3 3f 9c 4c 7b fb ee ff e3 3f
       0.6249918504167544 0.624991885352205
000060 00 00 00 00 00 00 00 00 3c 98 95 b1 e4 ff ef 3f
       0.0 0.9999869793362062
000070 00 00 00 00 00 00 00 00 00 00 00 00 00 00 00 00
       0.0 0.0
000080 00 00 00 00 00 00 00 00 00 00 00 00 00 00 00 00
       0.0 0.0
000090 00 00 00 00 00 00 00 00 00 00 00 00 00 00 00 00
       0.0 0.0
0000a0 40 ff f1 67 28 76 6d bf 95 f3 3f 1e 8d 50 3f 3f
       -0.0035963811092755427 0.00047782368915232884
0000b0 d6 86 00 62 a7 9e 23 40 00 00 00 00 00 00 00 00
       9.809870779575629 0.0
0000c0 00 00 00 00 00 00 00 00 00 00 00 00 00 00 00 00
       0.0 0.0
0000d0 00 00 00 00 00 00 00 00 00 00 00 00 00 00 00 00
       0.0 0.0
0000e0 00 00 00 00 00 00 00 00 00 00 00 00 00 00 00 00
       0.0 0.0
0000f0 00 00 00 00 00 00 00 00 00 00 00 00 00 00 00 00
       0.0 0.0
000100 00 00 00 00 00 00 00 00 00 00 00 00 00 00 00 00
       0.0 0.0
000110 00 00 00 00 00 00 00 00 00 00 00 00 00 00 00 00
       0.0 0.0
000120 00 00 00 00 00 00 00 00 00 00 00 00 00 00 00 00
       0.0 0.0
000130 3c 98 95 b1 e4 ff bf 3f
       0.12499837241702577

running_mean_std.running_var f8 [39]
000000 dd 81 c0 67 6a 4e eb 3e 85 52 f1 58 a9 2f 06 3f
       1.3020663793440166e-05 4.2316775868887976e-05
000010 28 24 32 a4 03 5d 02 3f 4f da 35 97 ff 10 f1 3e
       3.5025285364538854e-05 1.627578735737884e-05
000020 66 4d 98 f0 dd ac ef 3e 2e 00 01 42 31 0f 20 3f
       1.5103941694716554e-05 0.0001225230817016877
000030 4f da 35 97 ff 10 f1 3e 1a a6 0f 18 f3 19 fa 3f
       1.627578735737884e-05 1.6313353481185744
000040 d2 11 e0 e7 b3 ed f6 3f 4f da 35 97 ff 10 f1 3e
       1.4330328996303376 1.627578735737884e-05
000050 24 47 ef 71 c5 ba df 3f 46 77 17 b7 96 fb de 3f
       0.49577461363252184 0.4841057575230149
000060 dd 81 c0 67 6a 4e eb 3e 5c a6 36 c1 5e 4e fb 3e
       1.3020663793440166e-05 2.604115804919479e-05
000070 dd 81 c0 67 6a 4e eb 3e dd 81 c0 67 6a 4e eb 3e
       1.3020663793440166e-05 1.3020663793440166e-05
000080 dd 81 c0 67 6a 4e eb 3e dd 81 c0 67 6a 4e eb 3e
       1.3020663793440166e-05 1.3020663793440166e-05
000090 dd 81 c0 67 6a 4e eb 3e dd 81 c0 67 6a 4e eb 3e
       1.3020663793440166e-05 1.3020663793440166e-05
0000a0 71 8a 18 af 35 e8 f2 3f db cd 28 af 47 d8 f1 3f
       1.1816918220216872 1.1153027383960452
0000b0 4d 20 28 95 3f be 54 3f dd 81 c0 67 6a 4e eb 3e
       0.0012660618709805671 1.3020663793440166e-05
0000c0 dd 81 c0 67 6a 4e eb 3e dd 81 c0 67 6a 4e eb 3e
       1.3020663793440166e-05 1.3020663793440166e-05
0000d0 dd 81 c0 67 6a 4e eb 3e dd 81 c0 67 6a 4e eb 3e
       1.3020663793440166e-05 1.3020663793440166e-05
0000e0 dd 81 c0 67 6a 4e eb 3e dd 81 c0 67 6a 4e eb 3e
       1.3020663793440166e-05 1.3020663793440166e-05
0000f0 dd 81 c0 67 6a 4e eb 3e dd 81 c0 67 6a 4e eb 3e
       1.3020663793440166e-05 1.3020663793440166e-05
000100 dd 81 c0 67 6a 4e eb 3e dd 81 c0 67 6a 4e eb 3e
       1.3020663793440166e-05 1.3020663793440166e-05
000110 dd 81 c0 67 6a 4e eb 3e dd 81 c0 67 6a 4e eb 3e
       1.3020663793440166e-05 1.3020663793440166e-05
000120 dd 81 c0 67 6a 4e eb 3e dd 81 c0 67 6a 4e eb 3e
       1.3020663793440166e-05 1.3020663793440166e-05
000130 1f 35 2b b4 a3 bb eb 3e
       1.322410901618637e-05

running_mean_std.count f8 []
000000 00 00 00 00 10 c0 f2 40
       76801.0

a2c_network.sigma f4 [24]
000000 ce 4f 32 3d ea fc 89 3c 35 58 32 3a 81 53 e4 3c
       0.04353314 0.016844232 0.0006803305 0.027871849
000010 0f 14 c3 3b d9 71 6c bc cf ab d3 bc 39 64 c5 39
       0.005953319 -0.01443144 -0.02583876 0.0003764944
000020 34 30 61 b9 9a 4f 5b bc ae 16 9f bd c6 f5 25 bd
       -0.00021475629 -0.013385678 -0.07767998 -0.04051759
000030 d5 fb 6f 3c 19 89 66 bc 46 30 2c 3c 9b 03 e0 3c
       0.014647444 -0.014070773 0.010509556 0.02734547
000040 ba bf 2d bc 33 28 00 3d aa f2 a5 3c ca ec 9f 3c
       -0.010604793 0.031288337 0.020257313 0.01952209
000050 0f ce 10 3d ce 5b 49 bd fd 88 ad 3d 6e 93 1c 37
       0.035352763 -0.049159817 0.08473394 9.332651e-06

a2c_network.actor_mlp.0.weight f4 [256, 39]
000000 38 d9 4e bd c9 9f 83 3d ea b1 b5 bc 0b 0b b6 3d
       -0.050500125 0.06426961 -0.022179563 0.08888825
000010 62 67 28 3e ef e7 e8 3d f6 ae 46 bd 3c ec 95 3d
       0.16445687 0.11372363 -0.0485067 0.07320449
000020 eb 9e 9d bb 16 91 d2 3d e7 2f ef bd 9b 7b 2b be
       -0.0048102043 0.10281579 -0.116790585 -0.1674637
000030 75 68 7d bd a8 cf cf bd 76 8b 06 3e 58 ea 3c 3d
       -0.061867196 -0.10147029 0.13139138 0.046121925
000040 94 d6 87 3d 51 6e 4f 3d 5c 8e 36 bb 43 53 00 3e
       0.066327244 0.050642315 -0.002785585 0.12531762
000050 11 94 f5 bd 9d 40 12 3c 1c bc b4 bd 50 3e 4a 3d
       -0.11991132 0.008926538 -0.088249415 0.049375832
000060 09 e0 61 bd 4b f9 48 3d e5 a5 08 bd 14 ff 07 3e
       -0.055145297 0.04906587 -0.033361334 0.13280898
000070 43 5f c2 bd 8f 95 c3 bd 95 98 c3 bd 94 7b 13 3e
       -0.09490826 -0.095500104 -0.09550587 0.1440261
000080 0a 93 5a 3d 0b c8 1d 3e 51 52 07 be 9f a3 22 be
       0.053362884 0.15408342 -0.13214995 -0.15882729
000090 ff 48 00 be 72 9a dc bd ee 04 b1 3d 46 db 6a 3d
       -0.12527846 -0.107716456 0.086435184 0.05733802
0000a0 76 d1 d4 3d 5c 07 e5 bd ab 4c 0d be 74 e4 65 3d
       0.10391514 -0.11183044 -0.13798778 0.056126073
0000b0 6b 72 c0 bd 7c ff 8b 3d 1c 39 60 bd 00 ba 8c 3d
       -0.093968235 0.06835839 -0.054741964 0.06871414
0000c0 34 eb 1c be ca 1b b3 bd 4e 77 2f 3d b5 a8 0a 3d
       -0.15324098 -0.08745535 0.042838387 0.033852298
0000d0 41 04 8f bd fa 79 c3 3d 34 f0 de 3d ac d0 ed bd
       -0.06983233 0.095447496 0.10885659 -0.116120666
0000e0 fa 13 af bd 68 24 16 3e 1f 51 5d bd 0c 06 68 bd
       -0.08548732 0.14662325 -0.05403244 -0.05664639
0000f0 ab e3 15 be db 00 f8 bd ab d7 23 3d 08 25 ad bc
       -0.1463763 -0.12109538 0.0400006 -0.021135822
000100 80 0c ee bd 83 28 76 3b ec 02 e0 bd d6 1c 0b be
       -0.11623478 0.0037560768 -0.10938057 -0.13585219
000110 ed 95 b4 bd 75 82 0f be 3d d0 d0 bd 37 e8 23 3e
       -0.088176586 -0.14014609 -0.10195968 0.16006552
000120 ae c2 f7 3c 07 1e 4a 3d f2 ee 18 be 4e 62 d7 bd
       0.030244198 0.049345043 -0.149349 -0.10516797
000130 ab 50 5a bd 0c 8e 71 bb 22 48 10 be fc fb bd bd
       -0.053299587 -0.0036858348 -0.14090016 -0.09276578
000140 57 02 f5 bd 0b 2a bf bc 22 ba aa bd 52 cc 0e bd
       -0.11963337 -0.023335477 -0.08336283 -0.034862824
000150 41 76 07 be a0 7e df bd 3f 17 a3 bd 2b f4 a0 bd
       -0.13228704 -0.10912824 -0.07963418 -0.07859071
000160 a4 39 00 be cf 3d 0f 3e 68 2b 02 bd 93 78 e9 3d
       -0.12521988 0.13988422 -0.031779677 0.11399951
000170 ab 5c 4c 3d b0 d9 0a be 9d f2 e2 3d 9d 76 34 bd
       0.049893063 -0.13559604 0.11081431 -0.04405843
000180 f3 6a 7b bd 90 1b 08 be 33 05 18 be 4a d3 63 3d
       -0.06138129 -0.13291764 -0.14845733 0.055621423
000190 b4 9b 70 bd e5 59 7f 3d b0 90 06 be 5a 79 f3 3d
       -0.05874224 0.06234159 -0.13141131 0.1188838
0001a0 35 ba f0 bd f7 81 e2 bc 96 fe 08 3d 06 4d a9 3d
       -0.11754266 -0.027649863 0.033445917 0.08266644
0001b0 2b 60 04 3e 00 5f 15 3e 34 04 02 be 94 10 25 3d
       0.1292731 0.14587021 -0.12696916 0.040299013
0001c0 7a 0e 8d bd 03 c0 8f bc 30 76 f5 bd c7 5a 15 3e
       -0.06887527 -0.017547613 -0.11985433 0.1458541
0001d0 a0 b2 10 be ed 44 af 3d ef 2b a6 3d 20 7b 9d 3d
       -0.1413064 0.085580684 0.081138484 0.076895
0001e0 26 82 7d bd ed 51 2e 3e ad 3b 76 3d 7e 77 39 3d
       -0.061891697 0.1702344 0.060115505 0.045279972
0001f0 fe b7 04 be 31 f2 9f 3d c4 a6 2c 3a fe fb 8f bd
       -0.12960812 0.07809866 0.00065861293 -0.070304856
000200 5e 2d 0e 3e 8f 3a 12 3d 3d ae 82 bd 04 fc a5 bd
       0.13884494 0.035700377 -0.063808896 -0.08104709
000210 fa 93 fa bb 41 1c b7 3d cc 99 27 bd a0 1d bb bd
       -0.0076470347 0.08940936 -0.040918157 -0.0913651
000220 65 9a 60 bd bd 72 fc bd f4 61 4c 3d e6 8a 18 3e
       -0.054834742 -0.12326572 0.049898103 0.14896736
000230 7f 5e 1a be 68 54 18 3d 91 69 a9 3d c5 dc ed 3c
       -0.1507511 0.03718987 0.08272088 0.029035935
000240 a7 93 69 bd bf 2a ab 3d 8c 56 ac 3d d3 40 75 3d
       -0.057025578 0.083577625 0.08414945 0.059876274
000250 8b 81 e6 bc dd ad 2d bd 97 55 8c 3c c1 ba e7 bc
       -0.028137943 -0.042402137 0.017130656 -0.028287293
000260 53 74 43 bd 81 9f d1 3d b3 ea 0c 3e 08 a8 0f 3c
       -0.047718357 0.10235501 0.13761406 0.008768089
000270 bf d9 12 bd cb ea aa bb 03 32 8c bc d8 13 fe 3c
       -0.03585219 -0.005215978 -0.017113691 0.031015322
000280 b8 21 19 3d 0f b1 1c be 4f 58 88 bd 44 03 1e 3e
       0.037385672 -0.15301917 -0.066574685 0.15430933
000290 b6 fe 89 3d fc 0f 7d bc 9e b3 a8 bd 8f b6 b5 bd
       0.067380354 -0.0154457055 -0.08237384 -0.08872711
0002a0 47 e1 12 be e6 99 74 bd bd 7e 5d 3d 6b 1a d1 3d
       -0.14343749 -0.05971708 0.054075945 0.10210117
0002b0 00 69 97 3d ff f0 10 be 58 36 c5 bd e4 04 cf bc
       0.07393074 -0.14154433 -0.09629506 -0.025270887
0002c0 f3 5e 24 3e 54 0f b8 3c 97 1c 49 bd bf ac 87 3d
       0.16051845 0.022468247 -0.04909953 0.066247456
0002d0 80 d0 79 bd 3a 43 d4 bd 6b 5c ef 3d b3 1d 95 bd
       -0.060989857 -0.10364385 0.11687549 -0.07281055
0002e0 ad 7b 03 bd 89 1e 23 be 75 7b db 3d e7 75 f8 3d
       -0.03210037 -0.15929617 0.10716907 0.12131863
0002f0 3b 09 6f 3d 72 aa e4 bd 6a d4 21 be 8a 2c 05 be
       0.058358412 -0.11165322 -0.15803686 -0.13005272
000300 f8 8b f4 3d 72 72 9d 3d 51 58 02 3e 96 cc ab 3d
       0.119407594 0.07687844 0.12729003 0.08388631
000310 cc 9b b7 3c 59 2b a1 bc 6f d0 0e be f2 9a 1e be
       0.022413157 -0.01967399 -0.13946699 -0.15488794
000320 bc 0e 2c be 65 0a 44 3d 57 24 c0 bd 5e 19 91 bd
       -0.16802496 0.047861475 -0.09381931 -0.070849165
000330 b8 f5 e0 bd b2 98 2e bd 3d 94 ff bd 61 48 d6 bd
       -0.10984367 -0.04262609 -0.12479446 -0.10463024
000340 07 1b 10 3d 37 ed 42 bd fa 73 ca 3d e3 69 52 bd
       0.035182025 -0.047589507 0.09885402 -0.051370513
000350 5d 91 f0 bd 7f 72 e7 bc 21 f8 9e bd df 39 55 bd
       -0.11746476 -0.028252838 -0.077621706 -0.052057143
000360 3c 05 14 be 08 b6 91 3d a5 50 e4 bd 66 d4 a4 3d
       -0.14455122 0.07114798 -0.11148194 0.08048324
000370 ab d0 94 3d f6 4a ea 3d 86 8c fb bd eb da eb 3d
       0.07266363 0.11440079 -0.12282662 0.11516365
000380 0b 09 9b bd f1 60 73 3d df fc 19 3e 57 00 b9 bc
       -0.07570084 0.059418622 0.15037869 -0.02258317
000390 f9 4f a2 ba 37 01 17 bd d7 e9 08 be 6a 61 9d 3d
       -0.0012383453 -0.036866393 -0.13370453 0.07684596
0003a0 f4 c6 22 be c4 a5 a7 3d f1 5f f5 3d d8 90 24 3e
       -0.15896207 0.08185914 0.1198119 0.16070879
0003b0 d9 6d e9 bc 0d 26 fa bd 29 10 3a 3d 92 0d c8 3d
       -0.028494762 -0.12214289 0.045425568 0.09768213
0003c0 0f 8d 19 be 62 2f 44 bd 3b fa c8 bd d9 16 96 bb
       -0.14995216 -0.04789675 -0.09813353 -0.0045803604
0003d0 59 f5 b3 bd 20 cd 31 bd 6b 37 50 bd 75 42 12 be
       -0.08787031 -0.043408513 -0.0508341 -0.14283164
0003e0 25 8a 06 3e 52 76 09 3e ad c6 cd bc 16 63 95 bc
       0.13138635 0.13424042 -0.02511915 -0.018235724
0003f0 00 d7 85 bd 89 13 14 be 9d 91 10 be 80 e7 88 3d
       -0.065351486 -0.14460577 -0.14118047 0.0668478

a2c_network.actor_mlp.0.bias f4 [256]
000000 cc 00 44 3c 69 5b 24 bd e0 57 ba bc 23 be 02 3d
       0.011963081 -0.040126238 -0.02274698 0.03191961
000010 5d b4 15 bc 88 33 01 bd a2 c9 3b 3b 42 5e f4 3c
       -0.00913724 -0.031543285 0.0028654118 0.029830102
000020 e8 71 02 3a d2 84 14 3d 1a c3 3d bc fb 15 ab 3a
       0.000497608 0.03625948 -0.01158216 0.0013052815
000030 60 7e 86 bc 24 92 aa 3c 2c 86 44 bd 1d 0c 19 bd
       -0.016417682 0.020821638 -0.04797952 -0.037365068
000040 19 44 77 3c e7 34 f8 3c 54 49 3d 3c ef c4 7f bc
       0.015091919 0.030298663 0.011553127 -0.0156109175
000050 bd 8a 94 bc 6d 09 98 bb 31 71 aa bc 4c f4 36 bc
       -0.018132562 -0.0046397955 -0.020805927 -0.011166643
000060 55 7e 05 bc 50 ee c4 bc 35 32 90 3c 46 f7 ee 38
       -0.008147796 -0.024039418 0.017602066 0.000113947826
000070 4c f0 16 3d 39 3d 4f 3c cf bd 6b 3c 72 f0 88 3c
       0.03685026 0.012648874 0.014388516 0.016716216
000080 89 e5 21 3d 81 a5 30 3d 34 3b 91 3c e9 51 f9 bc
       0.039525542 0.043126587 0.017728426 -0.030434566
000090 00 ce f3 bc f6 06 37 bd 97 da bc 3c a3 54 64 bc
       -0.029761314 -0.044684373 0.02305345 -0.013936195
0000a0 47 d0 ae bc 1c 9e 55 bc c1 7a 34 bd 05 e2 35 bc
       -0.021339549 -0.0130381845 -0.04406238 -0.011101251
0000b0 ba 87 19 bd 45 f3 1e bc 65 7b d0 bc 45 ee 33 bc
       -0.037482955 -0.009701555 -0.025449464 -0.010982101
0000c0 c9 d2 30 bd e1 7a ae bc ab e7 bf bc 37 f6 f6 3c
       -0.04316977 -0.021298828 -0.023425898 0.030146701
0000d0 8d 4c 92 bb 8b 7c ed 3c bc 3c 20 bd 53 87 16 3c
       -0.004464692 0.02899005 -0.03912042 0.009187537
0000e0 75 35 2e bc f1 0b 18 bc db 13 70 bc d6 c0 52 bd
       -0.010632862 -0.009280191 -0.014653171 -0.051453434
0000f0 d5 a7 27 bd 29 f8 d6 bb 94 32 08 bc c4 ec d1 3c
       -0.04093154 -0.0065603447 -0.00831284 0.025625594
000100 74 bc 0c bd 58 7a 31 3d 1c 4b 10 bd 93 3c 11 bd
       -0.03435941 0.043329567 -0.03522788 -0.03545816
000110 c4 ca 12 bd 1e 38 45 bc d8 74 21 bc f5 3f 9d bc
       -0.035837904 -0.012037305 -0.009854518 -0.019195536
000120 2d 1f 10 3d 5c 57 cc bb 46 73 ab bb 6b dd 9b bc
       0.03518598 -0.006236 -0.0052322475 -0.019026479
000130 4a a1 4f 3d bf bf 31 3d 5b 88 33 bd db 0d 14 bd
       0.050690927 0.043395754 -0.04383121 -0.036146026
000140 5c db 15 bd bd c9 bc 3c 9b 46 94 3c 84 7d 14 3d
       -0.03658615 0.023045415 0.018100074 0.036252514
000150 d3 04 04 bc d5 0e 82 bc ce 11 db bc b1 ae e1 bc
       -0.008057791 -0.015876213 -0.026741888 -0.02754912
000160 64 df c3 bc ec 6c ac 3c 27 59 14 bd de c8 41 bd
       -0.023910232 0.021048032 -0.036217835 -0.047310703
000170 7a cd f2 3c 5e 9c f9 3c 04 22 01 3d 86 c7 a0 bc
       0.029638994 0.03047007 0.03152658 -0.01962639
000180 13 61 9e bc 65 36 04 bc f6 9d 8f bc 06 72 fb bb
       -0.019333398 -0.008069609 -0.017531376 -0.0076735048
000190 00 7d f9 3c 82 da 67 3c d8 2d f2 3b 67 2c 99 3c
       0.030455112 0.014151217 0.007390719 0.01869793
0001a0 5a 97 be 3b bf da b5 bc a2 96 b0 3c f9 b8 c6 bc
       0.0058163824 -0.022199033 0.021556202 -0.024258124
0001b0 48 f8 68 3d a1 02 ce 3b ca 5f fb bc b7 36 cc bc
       0.056877404 0.0062869345 -0.030685324 -0.024928434
0001c0 f2 56 27 bb 9e c4 0a 3d 77 f5 37 bd a5 7f df 3c
       -0.0025534001 0.033878915 -0.044911828 0.027282545
0001d0 54 3c 2a 3d f3 a7 a2 bc 5e 2f 33 bc c1 01 58 bc
       0.04156144 -0.019855475 -0.010936586 -0.013184012
0001e0 12 a1 9e 3c eb 54 af bc a4 71 c2 bc a0 60 e1 bc
       0.019363914 -0.021402797 -0.023735829 -0.027511895
0001f0 e1 92 8a ba 6d 4e 10 bd 11 25 95 3c 6e 73 0c 3d
       -0.0010572338 -0.035231043 0.018206151 0.03428977
000200 b0 c6 e4 3c af 1d d5 3c dc 4a 03 bc 41 3e 79 3c
       0.027926773 0.02601513 -0.008013453 0.015212596
000210 ed ce 36 bc ad 3e 00 bc c9 c7 2d bc fc 2d 04 3d
       -0.011157733 -0.007827443 -0.0106067145 0.032270417
000220 13 c1 21 bc 84 c1 2a bd fb e9 03 bd 79 16 23 3d
       -0.009872693 -0.041688457 -0.032205563 0.039816353
000230 f7 17 cf bb ca cd 18 3d e4 5d 1c 3d 72 3e 0b 3d
       -0.0063199955 0.03730563 0.03817548 0.0339951
000240 69 c0 80 3c ae f9 0f 3c 42 15 69 ba f6 bb 78 bc
       0.015716748 0.008787556 -0.0008891412 -0.015181532
000250 95 30 0d 3d 67 99 ba bb fa 7f b9 3c 17 9c 6e 3c
       0.03447016 -0.0056945565 0.022644032 0.014563582
000260 e1 cf 04 3c 66 a3 35 bd 28 db 67 3b 1f cf 1d 3c
       0.008106203 -0.044345282 0.003537843 0.009631901
000270 3e a6 26 bd 12 1d 5c 3c be 4c cf bc 21 ea fb bc
       -0.040685885 0.013434665 -0.025305148 -0.03075129
000280 1b d8 50 bd 51 c6 75 bc b3 e9 1d bd b8 0b 3a 3c
       -0.050987344 -0.015000896 -0.03855295 0.011355333
000290 39 80 a9 bc b2 f4 4d 3d 7d 4a 6c bc 16 71 c5 bc
       -0.020691024 0.050282188 -0.014422056 -0.024101775
0002a0 73 b9 85 3c 90 86 34 3c 28 26 0c 3d 4e 3c 29 bc
       0.01632378 0.01101841 0.034216076 -0.010329319
0002b0 b5 81 66 bc 73 38 dd 3c 48 f2 00 3c 83 f9 00 bd
       -0.0140690105 0.027004456 0.007870264 -0.031487953
0002c0 fe b2 15 3d bf 3c d9 bc 90 ed 5f bc 15 3a 1e bd
       0.036547653 -0.026518224 -0.013667479 -0.03862961
0002d0 28 e3 ae bc d2 d4 2f 3d e3 cf c0 3a 8e 76 88 3c
       -0.02134855 0.04292757 0.0014710393 0.016658094
0002e0 04 09 8e 3c 96 09 2d 3d b7 44 a8 bb cb cd 1e bd
       0.017338283 0.04224547 -0.0051351446 -0.03877048
0002f0 6a 0c 96 bc 8b 96 a4 3c 78 d5 26 3d e2 af 2b bd
       -0.018316466 0.020091316 0.040730923 -0.04191578
000300 eb f5 14 3d 31 5c 87 ba 81 27 17 3d fe 63 47 3c
       0.03636734 -0.0010327158 0.03690291 0.012169836
000310 14 83 1b 3d ac cf d8 bc 6c 28 d4 bb d4 c5 1c bd
       0.037966803 -0.026466213 -0.006474545 -0.0382746
000320 6a c5 81 3c 15 fe c5 3b 02 a4 14 3d b9 e4 82 3c
       0.015841205 0.006042252 0.036289223 0.015978204
000330 57 5b 31 3a b5 b1 f2 bc 6f dd b9 bc c1 a9 d2 3c
       0.0006765625 -0.029625753 -0.022688596 0.02571571
000340 98 38 6e 3b 29 91 20 bb eb 70 53 3c 47 1f eb bc
       0.003634965 -0.0024500585 0.01290534 -0.028701438
000350 6b 2c 68 bc e5 34 e3 b9 66 39 ca 3c eb e8 58 3c
       -0.014170746 -0.00043336223 0.024685573 0.013239126
000360 b9 ea cd bc 2a a8 05 bd 52 87 37 3d 34 86 e6 3c
       -0.025136339 -0.032631077 0.044806786 0.028140165
000370 f2 9b 8f 3c 03 99 b3 bb 8d ed 87 3c 17 ef b1 bc
       0.017530415 -0.005480887 0.016592765 -0.021720452
000380 e5 63 7f 3c 0f 2d 83 3b 3b b1 58 bc 3a fa 9d ba
       0.015587782 0.004003174 -0.013225849 -0.0012052723
000390 00 02 88 bb 10 f8 9c bc 1e 6c 36 3c e2 dd ba 3b
       -0.004150629 -0.019161254 0.011134176 0.00570272
0003a0 1a a0 31 bd 59 9e 2e bc d0 f5 c6 bb 77 cd ec 3c
       -0.043365575 -0.01065787 -0.0060717836 0.028906567
0003b0 fd 47 4e 3c ae f5 a6 bb 97 d5 a7 3c 06 0d 15 bd
       0.0125904055 -0.0050952053 0.02048759 -0.036389373
0003c0 3d f0 98 3c a9 03 28 bc 98 cb 46 3d 58 0b 1a 3d
       0.018669242 -0.010254779 0.048534006 0.037608474
0003d0 b6 22 c9 3c a3 e6 25 3d 18 29 0b 3d e2 88 b6 3c
       0.024552684 0.040503155 0.033974737 0.022282068
0003e0 48 26 e5 bc 07 6d 12 3d 36 6b 8f bb 09 3f 07 3d
       -0.027972355 0.035748508 -0.004376794 0.0330191
0003f0 e3 e5 12 3c 04 69 3b 3d 48 57 0e 3c 3c 1d b7 bc
       0.008965942 0.045754448 0.008687802 -0.022352807

a2c_network.actor_mlp.2.weight f4 [128, 256]
000000 08 03 08 3d 2e a7 a6 3b a0 35 05 3d 02 d5 64 bd
       0.033206016 0.0050858473 0.032521844 -0.055867203
000010 8e cc 2d bd 15 6f a5 3d 81 05 3f bd e9 32 89 bd
       -0.042431407 0.08077828 -0.04663611 -0.066991635
000020 f0 77 e6 bc 1e f2 cf bd 3e 73 e2 bc 59 e7 67 bd
       -0.028133363 -0.10153602 -0.027642842 -0.056617115
000030 6f 85 01 3d 6d 3d a8 bd 4a d0 04 bd 6c 95 2d bc
       0.031621393 -0.08214841 -0.032425202 -0.010594707
000040 2b 84 98 bd 49 90 14 ba 2e c4 e3 bc b0 1f 26 3d
       -0.07447084 -0.0005667252 -0.027803507 0.040557563
000050 ea 40 7d 3d 53 11 5f bd 52 01 10 bc 04 57 d2 3c
       0.061829485 -0.05445988 -0.008789377 0.025676258
000060 f5 95 0f 3d f0 00 0d 3d 1e c8 46 bc 33 f0 27 bc
       0.03505512 0.034424722 -0.012132673 -0.010250139
000070 2d d3 92 bd c7 aa bc bd 3f 20 83 bd 1a f7 a0 bd
       -0.07169185 -0.09212261 -0.06402635 -0.07859631
000080 62 6e d5 bd 71 19 6e bd ea 5c 9e 3c f7 0a 53 3d
       -0.104214445 -0.05812973 0.019331414 0.05152413
000090 f6 79 24 3d 13 06 f5 3b a0 8d 51 bc ce 3b 22 3d
       0.040155374 0.0074775307 -0.012790114 0.039607815
0000a0 83 7d c5 bc ea 57 76 3d 35 10 39 3d 0f 00 9c 3c
       -0.0241077 0.060142435 0.04518147 0.019042997
0000b0 a3 30 b6 3d a6 cd b8 3c ff 9a 05 bd 19 8c 85 3d
       0.088959955 0.022558998 -0.03261852 0.06520862
0000c0 b4 6f f5 3c a8 18 8a 3d c8 4b 1d bc af a6 2f bd
       0.02996049 0.06742984 -0.009600587 -0.04288357
0000d0 2a a0 47 3d 46 0f f2 bc 3d 8f 8e 3d b3 b6 dc ba
       0.04873673 -0.029548299 0.06960914 -0.0016839117
0000e0 01 f6 19 3d ee 2a 51 bd f1 29 f5 3b 78 f3 89 3d
       0.037588123 -0.05106633 0.0074818064 0.06735891
0000f0 ab 0e 13 3c a9 2e 8e 3d cf 15 7e 3c 78 bf 83 3c
       0.008975665 0.069424935 0.015508129 0.01608251
000100 a5 2b 47 3d d6 03 f5 bc 3e 46 12 3d 51 99 a8 3d
       0.048625607 -0.029909056 0.03571152 0.08232368
000110 b0 9a fe bc f2 74 96 bd 1a d8 9e 3d 32 2e cf bc
       -0.03107962 -0.07346524 0.07756062 -0.025290582
000120 cd 2e 29 bd dc 4e 94 3c 55 35 cd bb a9 5b 10 bc
       -0.0413044 0.01810401 -0.006262461 -0.008810916
000130 ec 61 ed bc d7 95 53 3a 3f 48 9a bc 82 43 64 3d
       -0.028977357 0.0008071339 -0.018833278 0.055728443
000140 00 ea f8 3c 07 73 6b bd 48 ad 80 bd 1b 35 77 bd
       0.030385017 -0.057482745 -0.06283051 -0.06035338
000150 85 3b 5b 3d 1f c7 6a bc 9b 56 4a bd 21 3c 2a 3c
       0.05352356 -0.014329701 -0.049399 0.010390312
000160 9a 5a 87 3d 2d 12 7b bb fc 1d db 3d c6 6d be 3d
       0.06609078 -0.0038310394 0.106990784 0.09298281
000170 d4 18 97 3c 24 7d 9c bc 0a 33 7c bd d5 9b 38 bd
       0.018444456 -0.01910264 -0.061572112 -0.045070488
000180 36 97 d6 bb 57 cc 81 bd 18 2a e7 3c ad 12 41 3c
       -0.0065487875 -0.06337803 0.028218314 0.011784238
000190 ef 8b 0b 3b 3a 5b b3 bd 14 52 41 bd bd 06 5c bc
       0.0021293124 -0.087576345 -0.047197416 -0.013429341
0001a0 25 c2 2f 3c 5e 53 c0 3d f3 9f fb bc 69 10 81 3d
       0.01072744 0.09390901 -0.030715918 0.06301958
0001b0 12 e1 2b bd b1 41 94 bb 1b 24 ac 3c 3e f5 b1 bc
       -0.04196269 -0.0045244326 0.02101331 -0.021723386
0001c0 ac 1f 7a bb 0b f9 92 bd 6a 7f bb 3c 1a eb 8a bd
       -0.003816585 -0.071764074 0.022887904 -0.06783123
0001d0 90 53 91 bd 77 5f bf bc f6 62 55 bd 5b fd 44 3c
       -0.070960164 -0.02336095 -0.05209633 0.012023295
0001e0 f3 5a af bd ac a7 98 3d 0d e4 0b bb 3b ba 33 3d
       -0.08562269 0.07453856 -0.0021345646 0.043878775
0001f0 6e 42 7e bd f1 1c 4b 3d 98 8e ad bd ee 67 8a bc
       -0.06207507 0.049588148 -0.08474463 -0.01689526
000200 b2 5d 45 3d f8 28 b3 bd 99 b4 c6 3c 5c cb a0 bc
       0.048185058 -0.087480485 0.024256038 -0.01962822
000210 85 6f 1a bd b6 d8 5b bc b6 3d 36 3d 2a 9e 6f bd
       -0.03770401 -0.013418367 0.044492446 -0.058500446
000220 ba b4 d0 3c 9b 4f be 3c d9 51 a6 3d 98 aa 94 bc
       0.025476802 0.023231318 0.0812108 -0.018147752
000230 40 ae 88 3c d2 a4 11 bd d0 ab 4c 3d 8c 45 bf bd
       0.016684651 -0.035557576 0.04996854 -0.09339437
000240 47 b6 7f bc 76 a5 20 bc 71 f9 fc bc 4e e7 6f 3c
       -0.015607423 -0.009805074 -0.030880662 0.01464255
000250 c1 5c a3 bb 44 f6 9f 3c bb 08 1f bd 05 c1 a2 3c
       -0.0049854224 0.019526608 -0.038826685 0.01986743
000260 e2 4d 84 bd 78 f6 94 3d 3a 21 88 bd 1c 11 4f bd
       -0.064601675 0.07273573 -0.066469625 -0.050553426
000270 d3 0a 6a 3d a7 80 c8 bc e2 16 58 3d a1 f4 76 3d
       0.05713923 -0.024475409 0.052756198 0.06029189
000280 45 1c 99 3d d5 b8 e0 3c 56 57 dc bc 50 c0 30 3b
       0.07476095 0.027431885 -0.026897114 0.0026970096
000290 62 ef 9b 3c 7f e5 b5 bd 01 31 cc 3c 5c 98 89 3d
       0.019035045 -0.088816635 0.02492571 0.06718513
0002a0 2c 92 03 bd 42 7d 8d bd 9d 00 b2 bd ed 21 01 3b
       -0.032121822 -0.06908657 -0.08691523 0.001970406
0002b0 ff 18 0c 3d ec 21 0c bd 53 96 1a 3b 97 b1 1f 3c
       0.034203526 -0.034212038 0.0023588135 0.009746931
0002c0 e2 78 2a 3b cb 98 77 3d 98 6b f3 bc a8 6f 83 3a
       0.0026011993 0.06044845 -0.02971439 0.0010027783
0002d0 0f 76 47 3d 0e b2 99 bd f2 54 94 3d 3e 97 5c bc
       0.048696574 -0.07504664 0.072427645 -0.013463793
0002e0 6b 86 9e 3d 20 f3 2f bd 72 4a b4 bc 22 cf cd bc
       0.07740482 -0.04295647 -0.022008155 -0.025123183
0002f0 77 24 df 3c 76 35 c1 bc 22 76 20 bd f4 05 6f 3d
       0.027239067 -0.023585062 -0.03917516 0.058355287
000300 30 37 9e bd 47 64 18 bd 01 69 56 3c 86 51 15 bd
       -0.0772537 -0.037205007 0.013086558 -0.0364547
000310 fe 52 8a bd 18 c8 84 3d 08 bf 25 bd b0 9a 5d 3c
       -0.06754111 0.06483477 -0.040465385 0.01352565
000320 27 8e 5c bd 1f 39 19 3d 6f 9a 89 bc 90 b6 31 3c
       -0.053846505 0.03740799 -0.016797272 0.010846749
000330 1c 93 94 3c f4 1d 51 3c 6c ff 1c bc 97 ad 20 3c
       0.018136553 0.012763489 -0.009582382 0.009807012
000340 c1 e8 3f bd 5e 3e 81 3d 9b b1 65 bd 64 25 f2 bc
       -0.04685283 0.06310724 -0.05607758 -0.029558845
000350 ae 47 0f bd 44 e1 0d bd 11 0d ec bc 75 cc ed bc
       -0.03498047 -0.03463866 -0.028814824 -0.029028157
000360 09 e8 bc 3c ab 90 a1 3d 99 7d 0c bd 9c aa 98 bc
       0.023059862 0.07888921 -0.034299467 -0.01863604
000370 65 5d 11 bd c8 51 3e 3d 10 7f 11 3d dc a9 12 3c
       -0.03548946 0.04646471 0.035521567 0.00895163
000380 3b 03 59 3d cd d2 84 3b 30 e5 e2 3c f1 64 5d bd
       0.052981596 0.0040534497 0.027697176 -0.054051343
000390 4e 4f 10 bc ef 3a 93 3d 3e d3 eb bc 42 bf aa bd
       -0.00880797 0.07188975 -0.028787252 -0.08337261
0003a0 35 c9 cc ba 9f 6f 07 3d c2 21 f7 b8 1e e7 26 bc
       -0.0015623929 0.033065435 -0.00011784166 -0.010186939
0003b0 57 ac 89 3c f5 97 03 3c ec e9 88 bd 00 85 38 3d
       0.01680581 0.008031835 -0.06685242 0.045048714
0003c0 81 3c 89 3b 34 4a 6c bc e2 a1 07 3c 5a 3f 9d bc
       0.004188121 -0.014421988 0.008278342 -0.019195247
0003d0 65 7e a8 bc d3 5e 82 3c ba d5 67 3c 97 14 59 3d
       -0.020568082 0.015914356 0.0141500775 0.05299815
0003e0 46 4d ae 3c 46 e8 81 bc 91 8f 34 3d 59 29 98 bd
       0.021277081 -0.015857827 0.044082228 -0.074297614
0003f0 ff 33 c4 3c 21 2d fa bb c5 89 b2 3c e9 cf af bc
       0.023950575 -0.0076347743 0.02179421 -0.021461444

a2c_network.actor_mlp.2.bias f4 [128]
000000 94 68 46 bd 84 9f 27 3c 29 9d c6 3c 8a 7a 4b 3d
       -0.048439577 0.010230903 0.024244862 0.04967741
000010 da 59 42 bd 9a 8e d7 bc 94 1f 4b bd 85 99 07 3d
       -0.04744897 -0.026313115 -0.049590662 0.033105392
000020 e8 ee 57 bc b7 ff 76 3c fa 30 41 3b d5 d3 16 3d
       -0.013179518 0.015075616 0.0029478655 0.036823113
000030 cd 86 ce 3c 3a a4 35 bd c5 10 5b 3d 2f a9 56 3d
       0.025210762 -0.04434607 0.05348279 0.05240744
000040 dd 10 47 bd 5b 63 a7 bc f3 7c 2a 3d ff bf bd bc
       -0.048600066 -0.020433119 0.041623067 -0.02316284
000050 1e 04 b0 bb dc cd 43 3d 14 95 4a 3c 70 e5 46 3d
       -0.0053715846 0.047803745 0.012364645 0.048558652
000060 4b d1 64 bc 8e db 3f 3d 1f b6 39 bd 25 60 51 bd
       -0.013965915 0.046840243 -0.0453397 -0.05111708
000070 3f a9 60 3d 74 75 99 bc 87 ca 62 bd 47 09 8b bc
       0.054848906 -0.018732764 -0.055368926 -0.016972197
000080 ba 3d f1 3c f2 b4 85 bc ad 01 87 bc 43 a2 55 3d
       0.029448379 -0.016321633 -0.016480291 0.052156698
000090 b8 a8 67 bd 3a 22 10 bc a5 44 47 3d 6c 06 42 bd
       -0.056557387 -0.008797223 0.04864945 -0.047369406
0000a0 e6 9d 70 bc 7f 17 13 bd 81 bf 3d bc d1 2e 55 bd
       -0.014686083 -0.03591108 -0.011581303 -0.0520466
0000b0 06 a8 64 3d 82 ce 09 3b 15 be 42 bd 69 0d fc 3c
       0.055824302 0.002102763 -0.047544558 0.030768113
0000c0 38 7e 90 3c b5 22 b7 bc 14 a7 6b bc ea 97 66 3d
       0.01763831 -0.022355417 -0.014383096 0.05629722
0000d0 ee 16 2b 3c 51 6d 82 ba d4 34 36 bd 90 f3 33 3b
       0.010442479 -0.0009950792 -0.044483975 0.0027458407
0000e0 15 61 34 3d 4f 97 b1 bc 68 92 4f bd b0 c3 ba 3c
       0.044037897 -0.021678595 -0.050676733 0.02279839
0000f0 c1 3c c7 3b 13 e0 7d 3c e7 b8 d2 3b cd 8b 3a 3d
       0.0060802405 0.015495318 0.0064307335 0.04554348
000100 da 84 d6 3c 77 e9 25 3d 8f ca f6 3c aa 84 87 3c
       0.026186395 0.040505853 0.030125884 0.016542751
000110 71 70 05 bd 9e 7a 98 3c 5c 2d 9b 3c 00 04 a7 3c
       -0.032577936 0.018613156 0.018942527 0.02038765
000120 be 32 37 bd 4b f9 49 bd ec c5 a7 3c 6f a4 b3 3c
       -0.044726126 -0.04931001 0.020480119 0.021928994
000130 22 15 e5 3b e7 4f 83 bb 2f a7 4e 3d 88 45 2e bd
       0.0069910446 -0.004007328 0.050452407 -0.04254678
000140 d1 c3 bb 3c d1 8e bf bc b7 9f e9 bc b3 13 b5 3b
       0.022920521 -0.02338353 -0.02851854 0.00552603
000150 50 d6 4b bd b0 e6 4c 3d 12 50 5e bd 49 17 bd bc
       -0.04976493 0.05002469 -0.05427558 -0.023082392
000160 0f 59 1f 3d 0b 7d 3b 3c bd c8 59 3d 21 41 30 bd
       0.038903292 0.011443387 0.053169955 -0.04303086
000170 39 81 fe 3c 38 e1 14 3c 73 ae 00 bc 0e 6c 2f bd
       0.031067478 0.009086899 -0.007854092 -0.04282766
000180 65 de 0a 3d 78 c9 b3 bc 4f d4 41 3d 75 60 32 bd
       0.0339035 -0.021946654 0.047321614 -0.04354902
000190 77 60 af bc 19 c8 b7 3c 3a a1 05 3d 24 62 d4 3c
       -0.021408303 0.022434281 0.03262446 0.025925703
0001a0 bd dd 51 3d c2 33 55 3d 23 9a 24 3d e4 3c 4a bd
       0.051236857 0.052051313 0.04018606 -0.049374476
0001b0 80 7e 1f bd 3c 92 07 bd 05 a0 65 3d 89 59 37 bd
       -0.038939 -0.033098444 0.05606081 -0.04476312
0001c0 ef 31 23 bd 71 6a 20 3c 0c f2 fa 3a ad 16 5e 3d
       -0.039842542 0.009791003 0.0019145622 0.054220844
0001d0 c5 fe a7 3c fe ef 9e 3b 59 94 8d bc 34 6f b5 bc
       0.020507226 0.0048503866 -0.017282652 -0.022147752
0001e0 49 65 22 bd 0c 5c 45 bd 83 31 bd 3c c3 29 09 bd
       -0.039647374 -0.048183486 0.023094898 -0.033487093
0001f0 a2 23 68 bc 9a 98 5a 3b 0b 1e eb 3c 07 e4 50 3c
       -0.014168652 0.0033355118 0.028700849 0.012749678

a2c_network.actor_mlp.4.weight f4 [64, 128]
000000 a9 30 00 3d fb 0d f9 3a d3 f2 b7 bc ef 5e ae 3d
       0.031296406 0.0019001359 -0.022454655 0.08514201
000010 c8 d1 15 3d 83 57 cd bc d4 eb 19 bd 79 60 5b 3c
       0.036577016 -0.025066143 -0.03757842 0.0133897
000020 7b 3d a9 bd 52 5a b6 3d 65 31 6e bd 1b 28 8c 3d
       -0.082636796 0.08903946 -0.058152575 0.06843587
000030 fc b1 ad 3d 8b a5 1c 3d db a3 b3 3d a1 20 61 bd
       0.084812135 0.03824381 0.08771487 -0.054962758
000040 3d 4f 71 3c 39 07 57 3d 89 a7 91 bd 76 96 c4 bd
       0.014728365 0.052497122 -0.07112033 -0.09599011
000050 ee 47 7e 3c 04 e7 98 3d 88 96 72 3d f0 5d 0d 3d
       0.015520079 0.07465938 0.05922559 0.034513414
000060 0f a9 57 3d f0 5f 5d 3d 33 bc 91 bd 36 6c a4 bd
       0.05265146 0.05404657 -0.07115974 -0.08028452
000070 5f 29 9a 3d d1 4d 62 bd 80 6e 52 3b 05 d7 2d bd
       0.07527422 -0.055249993 0.003210932 -0.042441387
000080 d2 e5 c1 3c b0 24 e0 3b f3 e1 9a 3d 90 21 8e bc
       0.023669157 0.006840311 0.07562628 -0.017349988
000090 8d 0c b8 3c c2 e5 33 bd e0 a1 2a 3d 24 76 2e 3c
       0.022466922 -0.043920286 0.041658282 0.010648284
0000a0 27 dc 84 3d 0f 62 95 bd cf 14 08 bd 07 6f 41 3d
       0.06487303 -0.07294094 -0.03322297 0.047225025
0000b0 39 5c b0 bd 62 f4 2a bd 76 32 1f 3d 83 dd ca bc
       -0.0861134 -0.041736968 0.038866483 -0.024763828
0000c0 28 21 27 bd 7f a8 bc bc 9e 5a 6b 3d 90 f4 06 3c
       -0.040803105 -0.023029564 0.057459466 0.008237019
0000d0 48 cb fc 39 2f 18 ad bd d6 00 76 bc b4 f6 2f 3d
       0.00048216642 -0.08451878 -0.015014848 0.042959884
0000e0 32 04 a7 bd be a9 9e 3d e6 d7 f4 38 f6 b7 b5 3d
       -0.08155097 0.077472195 0.00011675041 0.088729784
0000f0 f2 12 80 3c e3 3e 8e bd b2 1a 41 3d 3f 92 93 bd
       0.015634034 -0.069455884 0.0471446 -0.072056286
000100 d0 71 e0 3c 88 33 96 bb a5 13 68 bd ac 15 e5 3c
       0.02739802 -0.0045837797 -0.05665936 0.027964436
000110 dc 47 35 bd d3 08 76 3d 26 06 62 bc 29 27 7b bd
       -0.044257984 0.06006701 -0.013795411 -0.061316643
000120 a7 4f 9f bd bc e7 64 bd 98 a0 74 3d 00 aa c6 3d
       -0.07778864 -0.05588506 0.059723467 0.09700394
000130 78 a8 65 3d 63 be 87 bd cb e3 07 3c 36 42 22 bd
       0.056068867 -0.0662811 0.008294056 -0.039613925
000140 3c bd 58 3d eb ae 9d 3d b0 f5 a1 3c c7 e2 94 3c
       0.052914843 0.076993786 0.019770473 0.018174542
000150 63 f6 8a bc b4 67 14 bd 91 95 3e bd d1 fc 91 bd
       -0.01696319 -0.03623171 -0.046529356 -0.07128299
000160 58 14 e9 3c 4e 68 b1 3d 3c 09 a1 bc 28 90 c2 3d
       0.028452083 0.08662473 -0.019657724 0.09500152
000170 4f 8a 26 3d dc ac 0a bd cd 0a 86 3d c1 1f 91 bd
       0.040659245 -0.033856258 0.06545029 -0.07086135
000180 71 6f d9 3c de ca 85 bd 67 05 09 3d e4 28 9e 3c
       0.026542397 -0.065328345 0.033452418 0.019306608
000190 61 65 62 3c 7c 3c d9 bb 4b f3 6b bd 99 f2 c0 3a
       0.013818116 -0.0066295248 -0.05760507 0.0014720737
0001a0 b6 60 34 3d 9f 9a 15 bd 9c 56 f3 bc 9d b3 91 3d
       0.044037543 -0.03652441 -0.029704385 0.07114337
0001b0 6d 74 07 3c 5c cd 3b 3d c6 d5 1e 3d 31 9c 12 bd
       0.008267504 0.045850143 0.03877809 -0.035793487
0001c0 df 1e 82 bc a8 d6 a3 bd f7 ad 1f 3d e1 5d 68 3d
       -0.015883861 -0.07999927 0.038984265 0.056730155
0001d0 13 66 80 bd 23 44 58 3d 11 08 19 bd 87 e2 cf 3c
       -0.06269469 0.052799355 -0.03736121 0.025376571
0001e0 fe ed a6 3c 72 26 90 3c a6 45 3e 3d d5 49 00 3d
       0.020377155 0.017596457 0.04645314 0.03132041
0001f0 a6 38 83 bd d3 c7 97 bd 53 1e a1 3d 23 13 2a 3d
       -0.06407289 -0.0741116 0.07867112 0.041522156
000200 65 e0 77 3a df 73 a2 3b 11 8e 87 bc bf 26 c8 bd
       0.00094557396 0.0049576606 -0.016547235 -0.09773015
000210 c2 0d 89 3d 98 e2 37 bd 72 3c 63 bc 30 69 50 bd
       0.06692077 -0.04489383 -0.013869392 -0.050881565
000220 ec 66 b3 3d 00 73 3c bd a8 77 98 3c 62 6b b6 bb
       0.08759865 -0.04600811 0.018611744 -0.0055670002
000230 de bc 7b 3d 7f ef c9 3d c7 b5 c4 3c 3d 61 c6 bc
       0.061459415 0.098601334 0.02401246 -0.024216289
000240 ba 6e 66 3d c1 2b 9f 3c 98 ff 9b bd e5 66 0c 3c
       0.05625794 0.019430043 -0.0761711 0.008569454
000250 56 8f 6f 3d a5 a3 a9 bd 9d 77 69 bd cc 99 4a bd
       0.058486305 -0.08283166 -0.056998838 -0.04946308
000260 87 02 6a 3d 37 b9 a3 bd e0 97 dd 3b 0b 72 5f bd
       0.057131317 -0.07994311 0.0067624897 -0.05455212
000270 2d df 79 3d 88 a3 4c bd fb 3f 2d 3d e2 bc 12 bd
       0.061003853 -0.049960643 0.042297345 -0.035824664
000280 84 b5 1e bd f5 33 72 3b 3c 7c b8 bb 9e 5b 83 bd
       -0.038747326 0.0036957238 -0.0056300443 -0.06413959
000290 19 ed 8e bd 0b e7 31 bd ce 58 3a bd a4 0b 6b 3d
       -0.069788165 -0.04343323 -0.045494847 0.05738415
0002a0 5a 96 27 3d 70 5b 55 bd 8d cd 38 bd 42 80 a3 3d
       0.04091487 -0.052089155 -0.045117904 0.079834476
0002b0 3f e4 b5 bd 37 12 9d 3d 9d 17 f0 3b e8 3c a2 bd
       -0.08881425 0.0766949 0.0073270337 -0.07921773
0002c0 4a 2c 0b 3d ad 2b 97 3d 7f 70 2f 3d 56 f5 13 bd
       0.033977784 0.07381377 0.042831894 -0.036122642
0002d0 63 a4 3b bd a7 2f ad 3b 02 b7 80 bd 5c e8 b3 3c
       -0.04581107 0.0052852216 -0.06284906 0.021961384
0002e0 38 7a 78 bd cc d1 81 3b 35 40 0e bc aa 1c 34 3d
       -0.060663432 0.0039617773 -0.0086823 0.04397265
0002f0 f2 8a c2 bd 4e 7a 84 bd f8 cf 2c 3d 63 f6 22 bd
       -0.09499158 -0.0646864 0.042190522 -0.039785754
000300 fd d5 56 3d 1d 41 97 bd 28 09 62 3c 19 9a 46 3c
       0.05245017 -0.07385466 0.013796128 0.012121701
000310 4d 59 c7 3d 18 2c 3f 3d 21 c7 99 3c d6 3e fc bb
       0.0973383 0.04667291 0.01877171 -0.0076979203
000320 c2 1b 09 3d 74 d8 87 3d ad 59 65 bd 2f cf cf bd
       0.033473738 0.06633082 -0.055993725 -0.10146939
000330 1a 88 12 bc 14 58 c1 bd cb f5 6b 3b ab b1 e2 3b
       -0.008943582 -0.09440628 0.0036004658 0.0069181523
000340 64 a6 3e 3d e2 a8 90 3d 5e 8a 94 bd 25 25 a6 3d
       0.0465454 0.07063462 -0.07252954 0.081125535
000350 e5 3a 60 bd de 30 bc bd e9 4c 7c bc 39 a4 fa 3c
       -0.054743666 -0.09189008 -0.015399196 0.030595886
000360 1a b4 34 bc 88 a6 af bc 45 03 85 3b f5 62 db bc
       -0.011029268 -0.021441713 0.0040592276 -0.026780585
000370 c1 50 29 bd 7f 67 08 3d 6a c0 ff 3c a5 0c 54 bc
       -0.04133678 0.033301827 0.03121968 -0.012942468
000380 eb cf c4 3c 00 96 88 3d 67 a9 43 bc 56 56 ba bc
       0.024024924 0.06669235 -0.011942244 -0.022746246
000390 d9 45 85 3d 32 7c 66 bc 85 8a 5f 3d b2 70 8a 3d
       0.06507463 -0.014067696 0.054575462 0.06759776
0003a0 ef d2 c3 bd 61 7a dc bc ea 66 8e bd fb 1f b1 3c
       -0.09561717 -0.026913824 -0.06953223 0.021621695
0003b0 f2 59 61 3d bf 3f 1b 3d 24 ba 10 bd 7f 3c 00 3d
       0.05501742 0.03790259 -0.035333768 0.031307694
0003c0 a2 ce 74 3d 54 10 5a bd 50 d6 07 3d e6 e3 27 bb
       0.059767373 -0.053238228 0.03316337 -0.0025618016
0003d0 31 87 51 3c 02 58 c2 bc a2 53 4a 3d 0c 64 3e 3d
       0.01278858 -0.023723606 0.049396165 0.04648213
0003e0 07 74 05 3b ee aa 80 3c 87 90 a8 bd 09 3c bc bd
       0.0020363347 0.015706506 -0.082306914 -0.09191138
0003f0 3b 08 ad bc eb 30 46 bd b1 e5 9f bc 08 21 90 3d
       -0.021122089 -0.048386496 -0.019518705 0.0703755

a2c_network.actor_mlp.4.bias f4 [64]
000000 17 ed 05 3d e2 45 00 bd da 14 3f bd ed 83 46 bd
       0.03269681 -0.031316645 -0.046650745 -0.048465658
000010 b4 f1 1b 3d 22 48 28 bd 42 38 70 bc bb e8 ce bb
       0.038072303 -0.041084416 -0.01466185 -0.0063143647
000020 62 33 c2 bc 46 7f 42 bd 09 5a 37 bd 63 4a f2 3c
       -0.023706142 -0.04748466 -0.0447636 0.029576486
000030 d4 6b c7 bc 94 31 38 bd 9d a2 3e bd ea 63 5c 3d
       -0.024343409 -0.044969156 -0.0465418 0.053806223
000040 77 d9 04 bd e6 c2 2d 3d 85 91 fa 3c f1 3c c0 bc
       -0.032433953 0.042422198 0.030586967 -0.02346656
000050 6a 15 34 3d c2 d6 46 bd 9e db e0 bc d3 0e fd bc
       0.043965735 -0.048544653 -0.027448472 -0.030890858
000060 51 d3 6a 3d d3 0f 09 bd a1 3a 42 3c 5d 29 67 3d
       0.057330433 -0.033462357 0.0118547985 0.05643593
000070 95 d4 11 bd bd 21 fa bc e0 8f 75 3d ef a2 17 bc
       -0.035603125 -0.030533666 0.059951663 -0.009255155
000080 c8 65 59 3d ad 4d 1c bd 76 d7 48 bd f0 57 2c bd
       0.05307558 -0.038160015 -0.049033605 -0.04207605
000090 74 27 fa bc 0b 36 c6 bc de 2d 0c 3d b3 52 30 bd
       -0.03053639 -0.024195692 0.03422343 -0.043047618
0000a0 10 69 4c 3d 3e 5c 34 bd 57 16 fc 3c 66 51 30 3c
       0.049904883 -0.04403328 0.030772371 0.010761594
0000b0 01 1a 65 3d 2e 0e e2 3c 70 ea 0d 3d 60 e2 08 3d
       0.055933002 0.027594652 0.034647405 0.033419013
0000c0 0f 2d 21 3c 97 fe 0f bd b2 96 57 3d 7c fe 38 bd
       0.009837403 -0.035154905 0.05263395 -0.04516457
0000d0 57 e8 dc bc 91 5e 70 3d 30 cb 4e bc 66 b9 c6 3c
       -0.026966257 0.058683936 -0.012621686 0.024258327
0000e0 34 e3 b1 3c af 75 bd 3c 3c af 2e bd f6 9d fc 3c
       0.021714784 0.023127405 -0.042647585 0.03083704
0000f0 ae e6 f9 bc ac 19 e2 bc 88 78 1b bd bc 85 39 bd
       -0.030505504 -0.027600132 -0.037956744 -0.045293555

a2c_network.value.weight f4 [1, 64]
000000 34 c7 6f bd 06 5c a9 3d ed ba dd 3d 5e 61 16 3d
       -0.058539584 0.08269505 0.10826669 0.03671395
000010 11 48 e4 bb 05 be ba 3d 43 5b 35 3d 7c 48 b8 3c
       -0.006966599 0.091182746 0.044276487 0.0224955
000020 07 b3 da 3c 82 4a d0 3d c5 0c d6 3d a4 64 6a bd
       0.026696695 0.10170461 0.10451654 -0.057224885
000030 45 3e 00 3d a1 2d 06 3e 57 94 ac 3d cd 4f ad bd
       0.031309385 0.13103344 0.08426731 -0.084624864
000040 e0 48 f7 3d 1b 94 e4 bd 4c da 5a bd 03 38 3f 3d
       0.12074447 -0.111610614 -0.05343084 0.046684276
000050 39 6d 5e bd 54 f0 88 3d 34 f3 ed 3c 9f 65 02 3e
       -0.05430338 0.06686464 0.029046632 0.12734078
000060 a3 8c 1b bd 2b ef c0 3d 8c ed 6d ba c5 4d 03 be
       -0.03797592 0.09420618 -0.000907623 -0.12822635
000070 ea bf a0 3d 7b 4d cd 3d 93 06 03 be 0d d1 8f 3c
       0.07849105 0.10024544 -0.12795477 0.017555738
000080 87 e7 53 bd 9a f4 9e 3d 7d 58 a6 3d c6 22 3a 3d
       -0.051734474 0.07761498 0.081223466 0.04544332
000090 c9 53 eb 3d e4 bc f3 3d a9 47 9d bd 9c fe eb 3d
       0.1149059 0.119012624 -0.07679684 0.11523172
0000a0 cd 10 24 bd 12 cd 11 3e 75 9c d3 bd 71 2c d0 bb
       -0.040055085 0.14238384 -0.10332576 -0.006352954
0000b0 f6 c2 ad bd 36 f0 05 be 20 1a 05 be 85 81 bd bd
       -0.084844515 -0.13079914 -0.12998247 -0.092532195
0000c0 90 7b 98 bc 0b 52 a4 3d 59 65 16 be 36 c8 ab 3d
       -0.018613607 0.08023461 -0.14687099 0.083877966
0000d0 43 a8 9f 3d 6e 87 7b bd 38 0d 82 3c 48 c2 57 bd
       0.07795765 -0.061408453 0.015875444 -0.052675515
0000e0 81 a8 e4 bc e6 7d 80 bd 31 b5 d4 3d 3e 70 7d bd
       -0.02791238 -0.06274013 0.10386122 -0.06187462
0000f0 30 e8 a3 3d 6e 4f 64 3d f8 50 e5 3d fa f9 ef 3c
       0.080032706 0.055739813 0.11197084 0.029294003

a2c_network.mu.weight f4 [24, 64]
000000 44 2c c7 bd 41 07 1c bc f5 54 9a bc f9 c4 67 bd
       -0.0972524 -0.009523214 -0.018839339 -0.056584332
000010 31 e3 7a bd 42 63 f8 3d 26 03 83 3c e0 c8 8d 3d
       -0.061251823 0.12128307 0.015992712 0.069230795
000020 47 81 eb 3c 7a 45 8c 3d 35 aa d3 bd c1 da 68 bc
       0.028748168 0.06849189 -0.10335199 -0.014212311
000030 4d fd 82 3d 1b 70 07 3c f1 c8 12 bd 2e c1 34 3c
       0.063959695 0.008266474 -0.035836164 0.011032386
000040 cb bb b0 bd 1c 30 1a 3d 27 ed 1f 3c 21 f0 84 bd
       -0.08629569 0.037643537 0.009761131 -0.064911135
000050 85 88 98 3d a4 28 c9 bd fe e6 86 3d 35 31 8f bd
       0.07447914 -0.09822205 0.06587027 -0.06991807
000060 97 de 00 be d0 5b cc 3c 30 45 c4 bc fa 53 b1 3d
       -0.12584911 0.024946123 -0.023958772 0.086585954
000070 21 24 38 bd cc f1 f4 3d b4 6c f2 3c 46 a5 25 3c
       -0.04495633 0.119601816 0.02959285 0.010110205
000080 77 44 b3 3c 43 06 30 3d ee 47 a2 3d fc f1 22 bb
       0.021883233 0.04297472 0.07923876 -0.0024863472
000090 fc cd f8 3d 93 ca ba bd 00 31 78 bd 67 0c e6 bc
       0.121486634 -0.09120669 -0.060593605 -0.028082086
0000a0 df 66 ae bd c3 72 a9 bd 1c 3e af bd 91 50 83 3c
       -0.08515715 -0.08273842 -0.08556768 0.016029628
0000b0 d7 6d 23 bd 07 0c d1 bd 02 85 4c 3d cc 01 c3 3d
       -0.039899673 -0.10207372 0.049931534 0.09521827
0000c0 ad d6 37 3d ff aa 8f bd 34 91 e1 3d 25 e0 5d 3c
       0.044882465 -0.07015037 0.110140234 0.01354221
0000d0 3e 0e 9e 3b c9 1b 6d 3a 1d 15 a6 3d c4 d2 8c bd
       0.004823475 0.0009044973 0.08109496 -0.06876138
0000e0 79 99 a9 bd eb c2 02 3d 1b 7e ab bd 75 f1 4d bd
       -0.08281226 0.03192417 -0.08373662 -0.0502791
0000f0 1d 87 86 bc 1b b3 e3 3d 31 52 01 bd 9d 82 ee 3a
       -0.016421849 0.11118146 -0.031572524 0.0018196885
000100 fd 9c ec bd 30 d4 33 3d c5 1b 04 be 47 8b d1 bc
       -0.11553381 0.04390353 -0.12901218 -0.025579108
000110 f0 5e 4e 3d 3f de 87 bd ad c8 6c 3d 88 cf 70 bc
       0.05038351 -0.06634187 0.057808567 -0.014697917
000120 59 fa 91 bd e4 7a 07 be a3 6a ba 3d 0b 93 e3 bd
       -0.07127828 -0.13230473 0.091023706 -0.111120306
000130 c4 f8 9f bd 80 69 04 3d 53 87 59 bd c4 60 f3 3b
       -0.0781112 0.032327175 -0.05310757 0.007427307
000140 ba f9 64 3c db 18 9a 3b ac 7d 30 3d 21 99 95 bd
       0.013975555 0.00470267 0.0430886 -0.07304598
000150 9e 82 72 3d 36 9e 15 be 74 a3 4e bd a8 64 cf 3d
       0.059206598 -0.14611134 -0.05044885 0.101266205
000160 7f 74 b8 3d 46 4e 94 3c e7 0b 61 3d cd 2b 11 3e
       0.09006595 0.01810373 0.05494299 0.14176865
000170 18 cb 93 bc 1d 6b ae 3d 62 ba 03 3e 9c ee 4b bc
       -0.018041179 0.08516524 0.12864068 -0.012447026
000180 84 fb cd 3d bb a1 ed 3c 9b c1 9c bd c4 13 f7 bd
       0.100577384 0.029007783 -0.07654115 -0.12064317
000190 78 ca 20 bc 4d 6e f2 3d ac b5 52 3d 7e 72 8a 3d
       -0.009813897 0.118374445 0.051442787 0.06760119
0001a0 30 b9 5e bd be a0 14 be 6c 08 3a bd 10 85 06 be
       -0.054375827 -0.14514443 -0.045418188 -0.13136697
0001b0 d6 6f ea 3d 74 20 09 bd 5b 98 a8 bd d4 c7 43 bc
       0.11447112 -0.033478215 -0.082321845 -0.011949498
0001c0 81 b3 5e bd 8f 51 e4 3b 4c b3 c8 3d 4f 22 d5 bd
       -0.054370407 0.0069677304 0.09799823 -0.104069345
0001d0 8b f6 7b 3d 70 12 26 3d 3b ee 0f 3d 82 31 bc 3b
       0.06151442 0.040544927 0.035139304 0.0057432065
0001e0 8b 25 05 3d 08 5c e7 bd 87 47 2c 3d cc 69 7e 3d
       0.032506507 -0.112968504 0.0420604 0.062112615
0001f0 17 cf 05 3e c7 15 a7 3c 68 22 1c 3c 89 02 ae 3d
       0.1306728 0.020396126 0.009529687 0.08496577
000200 f8 f5 c9 bd 8e 56 24 bd e7 52 c3 3a 2f 6f c3 bd
       -0.09861368 -0.040121607 0.0014902026 -0.09542691
000210 48 a5 ea 3d 63 6f 78 3d 6f 02 e2 3d 62 68 d2 3c
       0.11457306 0.0606531 0.110356204 0.02568454
000220 9c 16 22 3d eb 96 41 3c 93 ce 6c 3d 91 98 8f 3c
       0.039572343 0.011815767 0.057814192 0.017528804
000230 4f b0 d4 bc 8c c0 e9 bc 09 fc c7 bc 32 85 a7 bd
       -0.025962977 -0.028534196 -0.024412172 -0.08179702
000240 ea d7 71 3d 4c bd 07 3e 6f 53 94 3c 7e 2e 19 bd
       0.059043802 0.13255805 0.01810619 -0.037397854
000250 7e 02 9e 3a 35 71 01 be ed c8 13 be 15 82 b7 bd
       0.0012055186 -0.12640841 -0.14432116 -0.08960358
000260 47 76 23 bd f4 68 b7 bd 8a 7d 7a 3d 57 4d 20 3e
       -0.03990772 -0.08955565 0.06115488 0.15654503
000270 a1 5c ec bc ce a0 d3 3d 53 45 bc 3d 1b 18 de 3d
       -0.028852763 0.103334054 0.0919291 0.108444415
000280 e3 82 91 3d 28 61 a4 3d 7f fb 79 3d 6d d3 93 bd
       0.07105043 0.080263436 0.06103086 -0.07218061
000290 85 d9 1e 3d 1e ab a9 3d a9 c5 ce bd 1a 63 e1 bd
       0.03878166 0.08284591 -0.100962944 -0.1100523
0002a0 b4 1d c9 3d da 91 ac bd f9 1f a5 bd 52 67 c9 bc
       0.098201185 -0.084262565 -0.08062739 -0.0245854
0002b0 20 b3 ca 3c fa 57 66 bd bf 15 b1 bd 84 5c b2 bd
       0.024743617 -0.056236245 -0.08646726 -0.08709052
0002c0 38 e8 b0 bd 9c 11 ea 3d b6 fe 84 3d 23 ea d5 bd
       -0.08638042 0.1142914 0.06493895 -0.10445049
0002d0 ab 8e f7 3d 61 bb cc 3d 78 5e 00 bd 83 d6 1f bc
       0.12087759 0.09996677 -0.031340092 -0.009755733
0002e0 9e ff d0 bd e1 ec 4c bd 93 05 93 3d 59 10 b6 bd
       -0.10205005 -0.050030593 0.071787976 -0.08889837
0002f0 d3 73 0d 3d 55 aa b5 3d 15 8d ae bd 1f d4 4d bc
       0.034534287 0.08870379 -0.08523003 -0.012562781
000300 c2 33 2c 3d a8 80 ae 3d 27 41 db bd f5 72 c1 bd
       0.042041548 0.08520633 -0.10705786 -0.094457544
000310 3e 76 64 3d 94 1e b0 3b 2a ef f8 3d 6c 24 0d 3d
       0.055776827 0.005374739 0.12154992 0.034458563
000320 80 fc b1 3d 23 c9 b2 3d d5 71 8a bd 0e a7 99 3d
       0.08690739 0.0872977 -0.06759993 0.07502566
000330 1e 70 35 3d af fb b8 bd 0c c1 a3 bd f2 8e 9d 3d
       0.044296376 -0.0903238 -0.07995805 0.0769328
000340 25 33 71 3d 47 c6 70 3d f6 20 91 bd 38 6b 14 be
       0.058886666 0.058782842 -0.07086365 -0.14494026
000350 37 05 97 3d b2 51 e7 bd ab 29 70 bb ce 54 17 bb
       0.073740415 -0.11294879 -0.003664593 -0.002309132
000360 9d 2f 17 3e b0 a3 b2 3d b2 97 03 3e ff 4b f8 3d
       0.14764257 0.08722627 0.12850836 0.1212387
000370 61 c9 d8 bd 44 58 bf 3d cb 21 09 3e 7a ec b8 3d
       -0.10585285 0.09343007 0.13391797 0.09029479
000380 4b 38 c5 3c 62 60 de bd 55 64 19 be f3 f4 a1 3d
       0.024074694 -0.10858227 -0.1497968 0.079080485
000390 ce 0f ff 3c 60 c8 d2 bd 67 4b be 3d b7 f6 9b 3d
       0.031135466 -0.10292125 0.092917256 0.076154165
0003a0 72 b5 60 3d d2 24 17 3d c9 3e e9 bd ea 44 9e bd
       0.05486054 0.03690035 -0.113889284 -0.07727988
0003b0 ae 5a a8 bd 84 ea d4 bd 3c f5 b8 3c d0 bf 0e ba
       -0.08220421 -0.10396293 0.022577874 -0.00054454524
0003c0 2b ca 46 bd 98 2c 26 bc 87 4d d3 3d a6 74 85 3d
       -0.048532646 -0.010142468 0.103175215 0.065163895
0003d0 2d bd 6e bd 5e bc df 3d 3c 36 96 bd 64 11 8d 3d
       -0.05828588 0.109246 -0.07334563 0.068880826
0003e0 c0 80 aa bd 5d 16 ad bd 87 3e 9e bc ed 3e c7 bc
       -0.08325338 -0.08451531 -0.019316925 -0.024321998
0003f0 60 3b 8b 3c af 61 f6 bc 27 0b 4f bd 05 ef ff bd
       0.016996086 -0.030075876 -0.050547745 -0.12496761

a2c_network.mu.bias f4 [24]
000000 8a eb d7 bc b2 5a d3 3c 0d 94 1e 3d 74 4b 3e 3d
       -0.026357431 0.025800083 0.03871541 0.046458676
000010 cf 0e 39 3c be 73 9d bc c5 e5 bd 3c c4 96 96 bb
       0.011295035 -0.01922023 0.023180852 -0.0045956094
000020 b0 ec d9 bb ac 20 8b 3b d8 38 57 bc a0 74 9b bc
       -0.00665053 0.004245838 -0.013136111 -0.01897651
000030 d4 86 be bc ea 3f 47 bd d9 ca 20 bd 79 b6 cd 3c
       -0.02325765 -0.048644938 -0.03925595 0.025111424
000040 3e 3f 88 bc 69 ce 48 bd 79 86 86 3c 1e ee ca bc
       -0.016631719 -0.049024973 0.016421543 -0.024771746
000050 dd 27 3e bb 2a 8b 77 3c d3 22 23 3b ee cf 84 3c
       -0.002901546 0.015108863 0.0024892583 0.01621243

exp_avg f4 [24]
000000 d2 73 f9 bc 30 1c d8 3c fb ae 1c bc 60 8a c8 bc
       -0.030450735 0.026380628 -0.009563203 -0.024480045
000010 f4 66 6a 3c e2 18 32 3c 60 a2 22 3d 41 5c 56 bb
       0.0143067725 0.01087019 0.039705634 -0.0032708796
000020 88 1a 76 bc b7 f6 29 39 68 12 16 3d 0e fe 89 bc
       -0.015020974 0.00016209004 0.036638647 -0.016844776
000030 07 36 42 3c bf f4 de ba 72 2a be bc 27 38 13 bb
       0.011853701 -0.0017010196 -0.023213599 -0.002246389
000040 09 03 73 3c 7d e1 96 bc e8 13 02 3b ec 0e 8c bb
       0.014832267 -0.018418068 0.001984829 -0.0042742398
000050 60 14 a1 3b 14 a2 92 3c e2 be 40 bc 75 80 36 3c
       0.004915759 0.01789955 -0.01176426 0.011139025

exp_avg_sq f4 [24]
000000 7e 71 86 3a 86 16 9e 3a 98 5d 89 3a 51 76 88 3a
       0.0010257212 0.0012061156 0.0010480164 0.0010411238
000010 e5 db 8c 3a 76 21 97 3a 6b e9 a5 3a 8d 09 8f 3a
       0.0010746686 0.0011530358 0.0012658065 0.001091288
000020 0d 58 6b 3a da 94 86 3a 6b 30 87 3a 67 98 8b 3a
       0.0008977659 0.001026775 0.0010314112 0.0010650278
000030 a6 43 8e 3a 79 36 68 3a 07 72 9c 3a 62 c1 6b 3a
       0.0010853901 0.0008858215 0.0011935838 0.0008993355
000040 ba 6b 57 3a aa 0c 6c 3a 08 c8 8d 3a 46 cb 7f 3a
       0.00082176516 0.00090045726 0.001081706 0.0009757768
000050 3d 45 96 3a 22 4f 7f 3a a5 e8 97 3a d7 56 a9 3a
       0.0011464726 0.000973927 0.0011589719 0.0012919557
