runs/lift_30-15-11-02/nn/last_lift_ep_75_rew_-19.847511.pth (torch, 654677 bytes, 36 tensors)

value_mean_std.running_mean f8 [1]
-280.5606698258106
00000000: 5e5b ec80 f888 71c0

value_mean_std.running_var f8 [1]
75065.28141359055
00000000: 8189 ab80 9453 f240

value_mean_std.count f8 []
76801.0
00000000: 0000 0000 10c0 f240

running_mean_std.running_mean f8 [39]
0.0 1.4999609385172257 1.2999657414139003 0.4999869795057421 0.3999894703587177 2.899925291735362 0.4999869795057421 0.32052346349961375
0.9183018437816347 0.4999869795057421 0.6409246601413028 1.0924508651807598 0.0 0.9999739590114842 0.0 0.0
0.0 0.0 0.0 0.0 0.794133954578019 0.4768538578472826 9.80974305020947 0.0
0.0 0.0 0.0 0.0 0.0 0.0 0.0 0.0
0.0 0.0 0.0 0.0 0.0 0.0 0.12499674487643553
00000000: 0000 0000 0000 0000 dd57 830a d7ff f73f
00000010: 84b0 94e0 a8cc f43f 80ca 5963 c9ff df3f
00000020: ecd7 7b6f 6d99 d93f ebc5 0608 0c33 0740
00000030: 80ca 5963 c9ff df3f 2537 55d8 7483 d43f
00000040: 83c1 5c8c ba62 ed3f 80ca 5963 c9ff df3f
00000050: ca37 d06e 7482 e43f 2603 27c2 ad7a f13f
00000060: 0000 0000 0000 0000 80ca 5963 c9ff ef3f
00000070: 0000 0000 0000 0000 0000 0000 0000 0000
00000080: 0000 0000 0000 0000 0000 0000 0000 0000
00000090: 0000 0000 0000 0000 0000 0000 0000 0000
000000a0: a2c8 719c 8b69 e93f 963b 1b0b c684 de3f
000000b0: 3ca0 1da4 969e 2340 0000 0000 0000 0000
000000c0: 0000 0000 0000 0000 0000 0000 0000 0000
000000d0: 0000 0000 0000 0000 0000 0000 0000 0000
000000e0: 0000 0000 0000 0000 0000 0000 0000 0000
000000f0: 0000 0000 0000 0000 0000 0000 0000 0000
00000100: 0000 0000 0000 0000 0000 0000 0000 0000
00000110: 0000 0000 0000 0000 0000 0000 0000 0000
00000120: 0000 0000 0000 0000 0000 0000 0000 0000
00000130: 80ca 5963 c9ff bf3f

running_mean_std.running_var f8 [39]
2.6040988515924042e-05 8.463168687731677e-05 7.004908562138729e-05 3.255106611163438e-05 3.020743581795135e-05 0.00024504012126713357 3.255106611163438e-05 0.19258752929535802
0.7738727201762684 3.255106611163438e-05 0.4673502404926384 0.45122141401512694 2.6040988515924042e-05 5.208129889876527e-05 2.6040988515924042e-05 2.6040988515924042e-05
2.6040988515924042e-05 2.6040988515924042e-05 2.6040988515924042e-05 2.6040988515924042e-05 0.4055368593514157 1.3469064697296451 0.002532058142451672 2.6040988515924042e-05
2.6040988515924042e-05 2.6040988515924042e-05 2.6040988515924042e-05 2.6040988515924042e-05 2.6040988515924042e-05 2.6040988515924042e-05 2.6040988515924042e-05 2.6040988515924042e-05
2.6040988515924042e-05 2.6040988515924042e-05 2.6040988515924042e-05 2.6040988515924042e-05 2.6040988515924042e-05 2.6040988515924042e-05 2.644786836565601e-05
00000000: c5ac c01a 534e fb3e e61a 334f 892f 163f
00000010: ec87 9f20 ea5c 123f 3b6f 7d1d ee10 013f
00000020: 3b8b d52e bfac ff3e bed7 9a4e 170f 303f
00000030: 3b6f 7d1d ee10 013f d772 f849 b5a6 c83f
00000040: 658e 0db9 90c3 e83f 3b6f 7d1d ee10 013f
00000050: 3864 acfb 10e9 dd3f 48ca 1cc8 cfe0 dc3f
00000060: c5ac c01a 534e fb3e b0b9 d4cd 3b4e 0b3f
00000070: c5ac c01a 534e fb3e c5ac c01a 534e fb3e
00000080: c5ac c01a 534e fb3e c5ac c01a 534e fb3e
00000090: c5ac c01a 534e fb3e c5ac c01a 534e fb3e
000000a0: 1429 0fdf 50f4 d93f 7c27 64cc ed8c f53f
000000b0: 9093 3a5d 1cbe 643f c5ac c01a 534e fb3e
000000c0: c5ac c01a 534e fb3e c5ac c01a 534e fb3e
000000d0: c5ac c01a 534e fb3e c5ac c01a 534e fb3e
000000e0: c5ac c01a 534e fb3e c5ac c01a 534e fb3e
000000f0: c5ac c01a 534e fb3e c5ac c01a 534e fb3e
00000100: c5ac c01a 534e fb3e c5ac c01a 534e fb3e
00000110: c5ac c01a 534e fb3e c5ac c01a 534e fb3e
00000120: c5ac c01a 534e fb3e c5ac c01a 534e fb3e
00000130: f54f c4ac 8bbb fb3e

running_mean_std.count f8 []
38401.0
00000000: 0000 0000 20c0 e240

a2c_network.sigma f4 [24]
-0.0027094022 0.021622108 0.015448922 0.015526079 -0.015879558 -0.0054975394 0.0075501823 -0.0018902135
0.010616802 0.006023422 -0.033722132 -0.025854215 0.0037655581 0.013907266 -0.0033401945 0.01806311
0.0022978904 0.029459402 0.010787955 0.01600249 0.0021552555 -0.011929991 0.013391484 0.008881596
00000000: 3a90 31bb d920 b13c 7a1d 7d3c 1861 7e3c
00000010: d915 82bc b424 b4bb 8567 f73b 0ac1 f7ba
00000020: 18f2 2d3c 2060 c53b 3820 0abd 38cc d3bc
00000030: 95c7 763b 4ddb 633c 2ae7 5abb 16f9 933c
00000040: 3498 163b d854 f13c f6bf 303c a717 833c
00000050: 303f 0d3b 0276 43bc f467 5b3c 1d84 113c

a2c_network.actor_mlp.0.weight f4 [256, 39]
-0.050500125 0.06579176 -0.020654105 0.09027159 0.16584405 0.115292706 -0.047123242 0.07635532
-0.0017075543 0.104199134 -0.12149998 -0.1686421 -0.061867196 -0.10000728 0.13139138 0.046121925
0.066327244 0.050642315 -0.002785585 0.12531762 -0.11795931 0.008963661 -0.08661564 0.049375832
-0.055145297 0.04906587 -0.033361334 0.13280898 -0.09490826 -0.095500104 -0.09550587 0.1440261
0.053362884 0.15408342 -0.13214995 -0.15882729 -0.12527846 -0.107716456 0.087775126 0.05733802
0.107012495 -0.10873611 -0.13514674 0.05897381 -0.09078426 0.07120005 -0.04477574 0.0779592
-0.15039994 -0.08258809 0.03160494 0.033852298 -0.066845424 0.095447496 0.10885659 -0.116120666
-0.08548732 0.14662325 -0.05403244 -0.07150504 -0.15235871 -0.11778442 0.0400006 -0.021135822
-0.11623478 0.0037560768 -0.10938057 -0.13585219 -0.088176586 -0.14014609 -0.10195968 0.16006552
0.030244198 0.049345043 -0.149349 -0.10516797 -0.053299587 -0.00092458446 -0.14090016 -0.092282064
-0.11915193 -0.022879094 -0.082906514 -0.03437126 -0.13183051 -0.10051231 -0.07380266 -0.078134336
-0.112372406 0.13622043 -0.031779677 0.11447174 0.049893063 -0.13559604 0.11081431 -0.04405843
-0.06138129 -0.13291764 -0.16205919 0.051463123 -0.058238707 0.06234159 -0.13141131 0.1188838
-0.11754266 -0.027649863 0.033445917 0.08266644 0.1292731 0.14587021 -0.12696916 0.040299013
-0.06887527 -0.017547613 -0.11985433 0.1458541 -0.14085937 0.085580684 0.07912084 0.07488028
-0.06373896 0.16838232 0.05803671 0.043432675 -0.14127237 0.06827922 -0.0011886853 -0.07815251
0.14812392 0.035700377 -0.0657538 -0.08104709 -0.0076470347 0.08940936 -0.040918157 -0.0913651
-0.054834742 -0.1080895 0.055862915 0.146798 -0.1507511 0.03718987 0.08272088 0.029035935
-0.057025578 0.083577625 0.08414945 0.059876274 -0.028137943 -0.042402137 0.017130656 -0.028287293
-0.047718357 0.10235501 0.13761406 0.006974402 -0.03585219 -0.0037291886 -0.01562722 0.03237202
0.038750492 -0.15148215 -0.06521812 0.16027433 0.07287675 -0.014089048 -0.078798845 -0.096136585
-0.14343749 -0.058286637 0.054075945 0.10210117 0.07393074 -0.14154433 -0.09629506 -0.025270887
0.15071161 0.019183941 -0.047484644 0.066247456 -0.060989857 -0.10364385 0.11687549 -0.07281055
-0.03210037 -0.15929617 0.10716907 0.12131863 0.058358412 -0.11165322 -0.15803686 -0.13005272
0.119407594 0.07687844 0.12860617 0.08388631 0.026587846 -0.015507162 -0.13560109 -0.15101834
-0.1637539 0.051727455 -0.08446412 -0.061896686 -0.10597764 -0.038030133 -0.13595247 -0.10463024
0.039224356 -0.047589507 0.09885402 -0.051370513 -0.11746476 -0.028252838 -0.077621706 -0.06454261
-0.15081625 0.075560816 -0.11148194 0.08048324 0.07266363 0.11440079 -0.12282662 0.11516365
-0.07570084 0.059418622 0.15037869 -0.02258317 -0.0012383453 -0.036866393 -0.13370453 0.07684596
-0.15896207 0.08562642 0.1198119 0.16249801 -0.026707016 -0.120502815 0.0470668 0.099522114
-0.1483119 -0.03536437 -0.08663833 -0.0029403088 -0.0798696 -0.0541786 -0.0508341 -0.1411063
0.13138635 0.13424042 -0.02511915 -0.018235724 -0.065351486 -0.14460577 -0.15702738 0.060669027
00000000: 38d9 4ebd d5bd 863d cc32 a9bc 50e0 b83d
00000010: 06d3 293e 951e ec3d 4d04 41bd 2e60 9c3d
00000020: 04d0 dfba 5b66 d53d fbd4 f8bd 84b0 2cbe
00000030: 7568 7dbd 9ed0 ccbd 768b 063e 58ea 3c3d
00000040: 94d6 873d 516e 4f3d 5c8e 36bb 4353 003e
00000050: a794 f1bd 52dc 123c 8a63 b1bd 503e 4a3d
00000060: 09e0 61bd 4bf9 483d e5a5 08bd 14ff 073e
00000070: 435f c2bd 8f95 c3bd 9598 c3bd 947b 133e
00000080: 0a93 5a3d 0bc8 1d3e 5152 07be 9fa3 22be
00000090: ff48 00be 729a dcbd 72c3 b33d 46db 6a3d
000000a0: 5e29 db3d 0ab1 debd e863 0abe 868e 713d
000000b0: 19ed b9bd 55d1 913d c466 37bd 13a9 9f3d
000000c0: 7102 1abe f223 a9bd 2e74 013d b5a8 0a3d
000000d0: 41e6 88bd fa79 c33d 34f0 de3d acd0 edbd
000000e0: fa13 afbd 6824 163e 1f51 5dbd 3c71 92bd
000000f0: ec03 1cbe f538 f1bd abd7 233d 0825 adbc
00000100: 800c eebd 8328 763b ec02 e0bd d61c 0bbe
00000110: ed95 b4bd 7582 0fbe 3dd0 d0bd 37e8 233e
00000120: aec2 f73c 071e 4a3d f2ee 18be 4e62 d7bd
00000130: ab50 5abd d05f 72ba 2248 10be 61fe bcbd
00000140: ed05 f4bd f06c bbbc e4ca a9bd e1c8 0cbd
00000150: 94fe 06be 66d9 cdbd d925 97bd e504 a0bd
00000160: 8123 e6bd 5e7d 0b3e 682b 02bd 2970 ea3d
00000170: ab5c 4c3d b0d9 0abe 9df2 e23d 9d76 34bd
00000180: f36a 7bbd 901b 08be d8f2 25be ffca 523d
00000190: b68b 6ebd e559 7f3d b090 06be 5a79 f33d
000001a0: 35ba f0bd f781 e2bc 96fe 083d 064d a93d
000001b0: 2b60 043e 005f 153e 3404 02be 9410 253d
000001c0: 7a0e 8dbd 03c0 8fbc 3076 f5bd c75a 153e
000001d0: 703d 10be ed44 af3d 1b0a a23d d55a 993d
000001e0: 9289 82bd 6a6c 2c3e e7b7 6d3d 76e6 313d
000001f0: b4a9 10be fad5 8b3d a9cd 9bba 6c0e a0bd
00000200: ccad 173e 8f3a 123d eea9 86bd 04fc a5bd
00000210: fa93 fabb 411c b73d cc99 27bd a01d bbbd
00000220: 659a 60bd 075e ddbd 83d0 643d 3752 163e
00000230: 7f5e 1abe 6854 183d 9169 a93d c5dc ed3c
00000240: a793 69bd bf2a ab3d 8c56 ac3d d340 753d
00000250: 8b81 e6bc ddad 2dbd 9755 8c3c c1ba e7bc
00000260: 5374 43bd 819f d13d b3ea 0c3e 8689 e43b
00000270: bfd9 12bd 6765 74bb a804 80bc 8698 043d
00000280: d6b8 1e3d 231e 1bbe 1491 85bd f41e 243e
00000290: 6840 953d c0d5 66bc 4a61 a1bd 42e3 c4bd
000002a0: 47e1 12be f8bd 6ebd bd7e 5d3d 6b1a d13d
000002b0: 0069 973d fff0 10be 5836 c5bd e404 cfbc
000002c0: 2554 1a3e a427 9d3c 427f 42bd bfac 873d
000002d0: 80d0 79bd 3a43 d4bd 6b5c ef3d b31d 95bd
000002e0: ad7b 03bd 891e 23be 757b db3d e775 f83d
000002f0: 3b09 6f3d 72aa e4bd 6ad4 21be 8a2c 05be
00000300: f88b f43d 7272 9d3d 56b1 033e 96cc ab3d
00000310: c1ce d93c c011 7ebc 03db 0abe 8da4 1abe
00000320: 1aaf 27be 2be0 533d 86fb acbd 6187 7dbd
00000330: ce0a d9bd 7cc5 1bbd 2037 0bbe 6148 d6bd
00000340: b8a9 203d 37ed 42bd fa73 ca3d e369 52bd
00000350: 5d91 f0bd 7f72 e7bc 21f8 9ebd ea2e 84bd
00000360: 936f 1abe a1bf 9a3d a550 e4bd 66d4 a43d
00000370: abd0 943d f64a ea3d 868c fbbd ebda eb3d
00000380: 0b09 9bbd f160 733d dffc 193e 5700 b9bc
00000390: f94f a2ba 3701 17bd d7e9 08be 6a61 9d3d
000003a0: f4c6 22be e85c af3d f15f f53d e165 263e
000003b0: acc8 dabc 2eca f6bd 1ec9 403d 40d2 cb3d
000003c0: 13df 17be 3bda 10bd 706f b1bd 32b2 40bb
000003d0: ac92 a3bd 61ea 5dbd 6b37 50bd 2b7e 10be
000003e0: 258a 063e 5276 093e adc6 cdbc 1663 95bc
000003f0: 00d7 85bd 8913 14be c9cb 20be 1680 783d

a2c_network.actor_mlp.0.bias f4 [256]
0.015442477 -0.03006868 -0.020304292 0.02332273 -0.0034522917 -0.021619469 0.0111717 0.022184748
0.001211746 0.027247243 -0.0034945467 -0.0051891054 -0.016577017 0.017014923 -0.039864406 -0.027473614
0.01293599 0.025777094 0.010084971 -0.014995295 -0.014795 -0.006753875 -0.013539421 -0.008667738
-0.0054204897 -0.022444258 0.015321208 -0.008060081 0.030091206 0.0036592367 0.011685329 0.016295638
0.030216768 0.037887815 0.017046928 -0.02124698 -0.02110473 -0.033209663 0.018416893 -0.013532946
-0.016778395 0.0012963209 -0.032190163 -0.0026175552 -0.030912789 -0.0081244055 -0.023105994 -0.009374125
-0.032970928 -0.018995762 -0.019601071 0.02540955 -0.004334333 0.02023625 -0.033084765 0.01367742
-0.007337881 -0.009641856 -0.0136670405 -0.043474697 -0.030457564 0.0017587037 -0.016470494 0.022272438
-0.030873133 0.037119217 -0.027564911 -0.02484451 -0.030866807 -0.01805767 0.00064977707 -0.019955337
0.034475755 -0.0073296446 -0.01191686 -0.015758494 0.04334247 0.031756137 -0.033848654 -0.028808722
-0.03057219 0.019843685 0.016962942 0.02663966 -0.0074602584 -0.016724756 -0.02606627 -0.017530993
-0.023298044 0.014684174 -0.030014018 -0.03687583 0.019768206 0.028592331 0.024876 -0.018144917
-0.014267182 -0.014625009 -0.014233869 -0.008515155 0.021835702 0.013492485 0.0065266844 0.018471122
0.007576709 -0.013574088 0.020832742 -0.024852565 0.04976787 0.0058822734 -0.025593597 -0.019143488
0.0068167197 0.028525498 -0.035592355 0.01768701 0.033695716 -0.020990111 -0.0011096116 -0.0045330995
0.012995882 -0.019401014 -0.017451543 -0.022117753 -0.0027755501 -0.02559904 0.014135826 0.025487078
0.025068557 0.019566204 -0.0089823855 0.010075418 -0.007830872 -0.011581099 -0.013535457 0.026136946
-0.021889333 -0.028477501 -0.023655554 0.03625221 -0.0059281737 0.02839131 0.030679882 0.023289843
0.011928595 0.0046648383 0.007786029 -0.009679203 0.025784444 -0.009439747 0.02026303 0.014968521
-0.0019170013 -0.03570155 -0.0025180997 0.011542551 -0.029527288 0.010897766 -0.020767584 -0.024367582
-0.04149755 -0.015741149 -0.0331857 0.015587975 -0.021147393 0.042995892 -0.013955866 -0.018663986
0.0172756 0.00308439 0.025663314 -0.009766881 -0.015921218 0.02241997 -0.0035663296 -0.023028374
0.03418752 -0.019875802 -0.014851298 -0.030211983 -0.014905072 0.03398377 0.0064939484 0.022314329
0.021576753 0.033897113 -0.005414241 -0.030871337 -0.015598238 0.022816982 0.03216516 -0.037020076
0.028192481 0.0062308065 0.033059422 0.0101547595 0.030044798 -0.019263417 -0.0009848541 -0.027671486
0.014535888 0.013298104 0.026886968 0.014273759 0.004388162 -0.018499851 -0.017948966 0.015882283
-0.0048224237 0.0073572593 0.012380635 -0.02360232 -0.013949874 -0.002660653 0.01680133 0.009700684
-0.019850302 -0.022797596 0.037411243 0.020346964 0.011130985 -0.007840482 0.015936375 -0.016511628
0.013915468 0.005185693 -0.009606781 -0.005453551 0.0028323615 -0.013987375 0.012025859 0.0040208083
-0.036723264 -0.003637331 -0.008319186 0.02219706 0.013533935 -0.013276543 0.017746497 -0.02704504
0.015927376 -0.013109511 0.041115053 0.030638713 0.017862592 0.032358255 0.025413912 0.022977307
-0.025840823 0.026841842 0.005017002 0.024141407 0.0027105005 0.038840357 0.008246784 -0.018928861
00000000: 7102 7d3c 9852 f6bc 3055 a6bc 4f0f bf3c
00000010: d83f 62bb 501b b1bc 8209 373c cabc b53c
00000020: 73d3 9e3a 9c35 df3c c404 65bb 5f09 aabb
00000030: 86cc 87bc e162 8b3c dc48 23bd 5810 e1bc
00000040: 79f1 533c 7c2a d33c 6f3b 253c d3ae 75bc
00000050: ba66 72bc 9c4f ddbb 73d4 5dbc 2103 0ebc
00000060: 5d9e b1bb 05dd b7bc ce05 7b3c 6e0e 04bc
00000070: d581 f63c cecf 6f3b d273 3f3c 6e7e 853c
00000080: 2889 f73c 4130 1b3d 00a6 8b3c 260e aebc
00000090: d4e3 acbc db06 08bd 06df 963c 4ab9 5dbc
000000a0: d872 89bc 50e9 a93a d5d9 03bd 4a8b 2bbb
000000b0: d13c fdbc 3a1c 05bc c848 bdbc ee95 19bc
000000c0: 860c 07bd 009d 9bbc 6d92 a0bc b027 d03c
000000d0: 0507 8ebb 7ec6 a53c e483 07bd 4217 603c
000000e0: 9b72 f0bb e0f8 1dbc b9eb 5fbc 8612 32bd
000000f0: 2482 f9bc 4e84 e63a 21ed 86bc b074 b63c
00000100: a7e9 fcbc 520a 183d cfcf e1bc b786 cbbc
00000110: 63dc fcbc aeed 93bc cd55 2a3a 6079 a3bc
00000120: 7336 0d3d 842d f0bb ef3e 43bc f517 81bc
00000130: e087 313d b912 023d e3a4 0abd 4500 ecbc
00000140: 8872 fabc 398f a23c def5 8a3c 6b3b da3c
00000150: 2f75 f4bb 5b02 89bc ee88 d5bc 289d 8fbc
00000160: 8adb bebc e495 703c f5df f5bc 1c0b 17bd
00000170: eff0 a13c 773a ea3c c1c8 cb3c a6a4 94bc
00000180: e6c0 69bc bc9d 6fbc 2c35 69bc 2683 0bbc
00000190: c9e0 b23c 950f 5d3c ccdd d53b c050 973c
000001a0: 0b46 f83b da65 5ebc 6da9 aa3c 9b97 cbbc
000001b0: 65d9 4b3d 16c0 c03b aaa9 d1bc ced2 9cbc
000001c0: ca5e df3b 4eae e93c 4ac9 11bd 59e4 903c
000001d0: 8504 0a3d 74f3 abbc 6370 91ba 658a 94bb
000001e0: aeec 543c e0ee 9ebc 8af6 8ebc 4a30 b5bc
000001f0: 01e6 35bb 14b5 d1bc f499 673c 47ca d03c
00000200: 935c cd3c 4e49 a03c db2a 13bc 5e13 253c
00000210: 0f4d 00bc a6be 3dbc d2c3 5dbc 261d d63c
00000220: 4251 b3bc a649 e9bc 4bc9 c1bc 337d 143d
00000230: 2041 c2bb e494 e83c 6054 fb3c 57ca be3c
00000240: 2770 433c 80db 983b f221 ff3b 8595 1ebc
00000250: e639 d33c 2ba9 1abc a7fe a53c 873e 753c
00000260: e443 fbba ca3b 12bd b406 25bb f81c 3d3c
00000270: 36e3 f1bc 8b8c 323c c820 aabc 869e c7bc
00000280: 56f9 29bd 95f3 80bc bbed 07bd b564 7f3c
00000290: 4c3d adbc 761c 303d 25a7 64bc 37e5 98bc
000002a0: 8f85 8d3c 7a23 4a3b df3b d23c 4505 20bc
000002b0: 376d 82bc 16aa b73c 15b9 69bb 00a6 bcbc
000002c0: 3708 0c3d 94d2 a2bc dc52 73bc 1f7f f7bc
000002d0: 6734 74bc 9132 0b3d 30cb d43b 8acc b63c
000002e0: bbc1 b03c b3d7 0a3d f269 b1bb e3e5 fcbc
000002f0: c18f 7fbc aeea ba3c 9dbf 033d 5da2 17bd
00000300: ebf3 e63c cb2b cc3b 5169 073d 2660 263c
00000310: 8220 f63c 50ce 9dbc 3816 81ba 50af e2bc
00000320: ef27 6e3c 4ae0 593c 0f42 dc3c 7cdc 693c
00000330: 92ca 8f3b 008d 97bc b609 93bc 901b 823c
00000340: 6c05 9ebb 2a15 f13b 26d8 4a3c a759 c1bc
00000350: 038e 64bc 5a5e 2ebb f1a2 893c 9eef 1e3c
00000360: 1a9d a2bc 06c2 babc 883c 193d adae a63c
00000370: bc5e 363c 5d75 00bc 008d 823c 6543 87bc
00000380: b4fd 633c bfec a93b c365 1dbc b4b3 b2bb
00000390: 249f 393b 4e2b 65bc 1c08 453c fcc0 833b
000003a0: 226b 16bd 4a60 6ebb 324d 08bc 9cd6 b53c
000003b0: 70bd 5d3c db85 59bc 1a61 913c 8f8d ddbc
000003c0: 217a 823c 46c9 56bc 4268 283d 0afe fa3c
000003d0: 9254 923c 178a 043d d630 d03c e83a bc3c
000003e0: 22b0 d3bc 6ce3 db3c aa65 a43b 33c4 c53c
000003f0: a7a2 313b 1117 1f3d 851d 073c b310 9bbc

a2c_network.actor_mlp.2.weight f4 [128, 256]
0.052125443 0.0152502945 0.02384267 -0.0626475 -0.034724537 0.08436313 -0.04303848 -0.056089446
-0.032021273 -0.09133134 -0.01648875 -0.07015573 0.018262174 -0.067215115 -0.033978652 0.0038594177
-0.064298585 0.011855621 -0.011452291 0.030344304 0.0718742 -0.042262655 -0.0045533897 0.024445906
0.052252315 0.021998836 -0.017570488 -0.015655907 -0.086436994 -0.07925275 -0.044889294 -0.06509757
-0.08774975 -0.045677137 0.0019650618 0.05056916 0.039576076 0.02028237 -0.026247935 0.05180299
-0.016477983 0.06614692 0.057206303 0.006737114 0.075482726 0.014005054 -0.04075789 0.07590937
0.043611944 0.06649023 0.0016139373 -0.059256755 0.058974076 -0.027969427 0.06005346 0.011041745
0.033554938 -0.038836356 0.01368402 0.05707778 0.024522133 0.0735027 -0.0011265336 0.005994281
0.063060075 -0.030260669 0.022181084 0.08628538 -0.030428352 -0.063913114 0.07728686 -0.038701598
-0.02259622 0.027000327 -0.020685485 -0.014967885 -0.019853968 0.0046490226 -0.013448272 0.06427935
0.0159091 -0.043211695 -0.04988503 -0.048221346 0.041826848 -0.027629932 -0.057657856 0.02268995
0.055780236 -0.014123039 0.09104903 0.085471615 0.01792459 -0.032618385 -0.077394165 -0.058881246
0.011124102 -0.05788497 0.03066884 0.017155543 0.015046539 -0.06957066 -0.05514623 -0.005743822
0.0005783106 0.0862366 -0.025735488 0.048400372 -0.027883977 0.003565689 0.0042668805 -0.0027372097
0.011354913 -0.0824682 0.02472605 -0.06425058 -0.0730485 -0.038880672 -0.03621638 0.00083080225
-0.07513039 0.07093469 0.010311961 0.027478619 -0.06673264 0.046060666 -0.07320746 -0.008491123
0.033778947 -0.07690522 0.03367553 -0.015058611 -0.028399054 -0.03106831 0.036102805 -0.05278713
0.020779286 0.031708464 0.068333365 -0.031584397 0.0049668313 -0.022522133 0.036765277 -0.096514896
-0.022429802 -0.018318051 -0.017579015 0.012465469 0.009231928 0.0078015737 -0.029807262 0.00950887
-0.07297635 0.076776296 -0.07525665 -0.06289765 0.060397897 -0.020006571 0.04145587 0.07474574
0.08996714 0.014756068 -0.027713621 0.011437046 0.008120815 -0.07903229 0.042906187 0.069485135
-0.03594911 -0.054015465 -0.07249264 0.015226409 0.020826582 -0.044554442 0.0037689824 0.020797677
0.010311209 0.07031594 -0.021857105 -0.010793996 0.03995562 -0.0762268 0.05524972 -0.012592675
0.062597476 -0.037766628 -0.022052294 -0.015774548 0.043127842 -0.01647116 -0.026721502 0.04863366
-0.09199163 -0.02326824 0.018903982 -0.04303849 -0.076027386 0.07743045 -0.03173938 0.014905702
-0.07029381 0.04612775 -0.026001325 0.022973994 0.032859452 0.029050248 0.0008595179 0.019073095
-0.036187377 0.052210685 -0.061006665 -0.038329914 -0.02647755 -0.03191909 -0.011832553 -0.024899475
0.038219318 0.095668316 -0.047296673 -0.012920748 -0.03200604 0.04167138 0.022358 -0.004493918
0.038833242 -0.00087424635 0.018858703 -0.036768235 -0.024005247 0.061463658 -0.020806039 -0.0680952
-0.014825092 0.04157289 -0.0033597655 0.002370521 0.030303948 -0.0063394303 -0.07420764 0.058697622
0.01823731 -0.029863693 -0.00039955034 -0.019253721 -0.014291073 0.002987263 0.024932995 0.06966471
0.0111042 -0.00037454246 0.056937426 -0.07157424 0.0347892 -0.013720692 0.036621712 -0.019044908
00000000: 7d81 553d 5fdc 793c b451 c33c 554d 80bd
00000010: 513b 0ebd 94c6 ac3d 1e49 30bd 0cbe 65bd
00000020: bd28 03bd ed0b bbbd 6a13 87bc cfad 8fbd
00000030: 8e9a 953c 14a8 89bd 332d 0bbd 49ee 7c3b
00000040: faae 83bd 143e 423c 64a2 3bbc 9e94 f83c
00000050: c832 933d 9b1b 2dbd 9a34 95bb c842 c83c
00000060: 8606 563d e736 b43c fcef 8fbc d140 80bc
00000070: e105 b1bd 444f a2bd d6dd 37bd e051 85bd
00000080: 24b6 b3bd f317 3bbd 44c8 003b 9c21 4f3d
00000090: 861a 223d 3627 a63c e905 d7bc 5f2f 543d
000000a0: d6fc 86bc 0978 873d 2851 6a3d 02c3 dc3b
000000b0: b096 9a3d 7475 653c bff1 26bd 5f76 9b3d
000000c0: 70a2 323d 082c 883d c08a d33a 36b7 72bd
000000d0: cd8e 713d 2420 e5bc 9efa 753d 6fe8 343c
000000e0: e770 093d df12 1fbd f132 603c 64ca 693d
000000f0: a4e2 c83c 9588 963d 32a8 93ba ac6b c43b
00000100: a425 813d 39e5 f7bc 1bb5 b53c 64b6 b03d
00000110: e144 f9bc e1e4 82bd 9348 9e3d 9185 1ebd
00000120: b51b b9bc ca2f dd3c 9b74 a9bc dc3b 75bc
00000130: caa4 a2bc d456 983b 2456 5cbc e4a4 833d
00000140: cd53 823c bffe 30bd 3f54 4cbd bf83 45bd
00000150: a152 2b3d 2b58 e2bc a52a 6cbd 46e0 b93c
00000160: d179 643d 5264 67bc ea77 ba3d be0b af3d
00000170: 97d6 923c db9a 05bd d580 9ebd 762d 71bd
00000180: de41 363c ca18 6dbd 383d fb3c c889 8c3c
00000190: c285 763c 107b 8ebd 03e1 61bd ac36 bcbb
000001a0: c499 173a d19c b03d 3bd3 d2bc 783f 463d
000001b0: f06c e4bc 56ae 693b 30d1 8b3b c262 33bb
000001c0: f509 3a3c 16e5 a8bd 498e ca3c cf95 83bd
000001d0: 749a 95bd 5741 1fbd a057 14bd 32ca 593a
000001e0: f6dd 99bd 3546 913d 80f3 283c d71a e13c
000001f0: 1fab 88bd 1caa 3c3d cbed 95bd 5a1e 0bbc
00000200: cb5b 0a3d 7c80 9dbd 5aef 093d 64b8 76bc
00000210: 22a5 e8bc f882 febc 89e0 133d 5137 58bd
00000220: 5239 aa3c bce0 013d 5df2 8b3d a45e 01bd
00000230: cdc0 a23b 5680 b8bc 3097 163d 9aa9 c5bd
00000240: b4be b7bc bd0f 96bc de01 90bc f73b 4c3c
00000250: 8341 173c 58a4 ff3b 5c2e f4bc 17cb 1b3c
00000260: a074 95bd e43c 9d3d 2920 9abd 7cd0 80bd
00000270: c963 773d d2e4 a3bc a1cd 293d 4b14 993d
00000280: b140 b83d 6fc3 713c ad07 e3bc 7362 3b3c
00000290: 2b0d 053c aedb a1bd 66be 2f3d 394e 8e3d
000002a0: 603f 13bd 523f 5dbd 0577 94bd 3078 793c
000002b0: 829c aa3c b87e 36bd 0801 773b e45f aa3c
000002c0: 58f0 283c ce01 903d ac0d b3bc 4dd9 30bc
000002d0: 81a8 233d cc1c 9cbd 884d 623d 8251 4ebc
000002e0: 1b33 803d 2eb1 1abd 03a7 b4bc a039 81bc
000002f0: d2a6 303d 87ee 86bc 0de7 dabc 1734 473d
00000300: 1c66 bcbd 099d bebc 86dc 9a3c 2149 30bd
00000310: 3fb4 9bbd db93 9e3d 2701 02bd 0c37 743c
00000320: 33f6 8fbd 74f0 3c3d bb00 d5bc f533 bc3c
00000330: a297 063d c9fa ed3c 4551 613a 2e3f 9c3c
00000340: 3739 14bd dfda 553d 20e2 79bd d4ff 1cbd
00000350: 72e7 d8bc 97bd 02bd 53dd 41bc fcf9 cbbc
00000360: dc8b 1c3d c0ed c33d 28ba 41bd 8cb1 53bc
00000370: c418 03bd 9caf 2a3d 2028 b73c b741 93bb
00000380: 9b0f 1f3d ae2d 65ba 917d 9a3c 4a9a 16bd
00000390: a7a6 c4bc 51c1 7b3d 6d71 aabc 7f75 8bbd
000003a0: f1e4 72bc 5648 2a3d 832f 5cbb be5a 1b3b
000003b0: fc3f f83c ffba cfbb 2dfa 97bd eb6c 703d
000003c0: 6966 953c b4a4 f4bc bd7a d1b9 fbb9 9dbc
000003d0: 1b25 6abc f5c5 433b 4840 cc3c 5fac 8e3d
000003e0: 64ee 353c 3d5e c4b9 3837 693d 8495 92bd
000003f0: 1f7f 0e3d c1cc 60bc a600 163d 1104 9cbc

a2c_network.actor_mlp.2.bias f4 [128]
-0.03900719 0.012856469 0.01992373 0.043996494 -0.038911406 -0.021672588 -0.040297456 0.029602988
-0.014309238 0.016499192 0.010949753 0.033634074 0.023374785 -0.03597455 0.04415735 0.045428567
-0.04015699 -0.026154626 0.034950204 -0.020744335 -0.010215681 0.038290482 0.015368939 0.042024206
-0.009638754 0.042959064 -0.038719013 -0.042415 0.042974547 -0.018121833 -0.04844497 -0.015227826
0.029009528 -0.017526243 -0.010040945 0.04308819 -0.047236353 -0.0082924105 0.04472538 -0.04004264
-0.015403632 -0.033443306 -0.015691789 -0.044917643 0.046505466 -0.0029223105 -0.03814719 0.029134784
0.016961178 -0.020807182 -0.01633701 0.046527434 0.0143798115 -0.006711027 -0.037765045 0.011483316
0.036743328 -0.022421058 -0.04448757 0.023182834 0.0062059 0.02086428 0.00861964 0.036824193
0.0247112 0.033932857 0.027236136 0.022508435 -0.023980284 0.020949375 0.018367173 0.014464091
-0.036059983 -0.0417611 0.016639668 0.022021113 0.014532361 7.408687e-05 0.043365717 -0.03813482
0.02040424 -0.021659302 -0.026099537 0.011297465 -0.04032132 0.04181589 -0.04449632 -0.022115313
0.038810752 0.011529225 0.048696253 -0.03699071 0.026329473 0.0131806685 -0.0002834195 -0.033967715
0.029963102 -0.019902363 0.037290834 -0.038463768 -0.018196758 0.0239487 0.0287408 0.024054563
0.043393787 0.04653488 0.035697427 -0.036481638 -0.034445904 -0.030584708 0.04616331 -0.038951214
-0.031667322 0.013764618 0.005970744 0.045994163 0.021520477 0.012854319 -0.019943403 -0.024582319
-0.034119077 -0.039551035 0.023407897 -0.033056837 -0.01685303 -0.000581344 0.027446525 0.01193222
00000000: 01c6 1fbd f0a3 523c 1737 a33c ab35 343d
00000010: 9161 1fbd b68a b1bc f20e 25bd f781 f23c
00000020: 4b71 6abc 5029 873c 9866 333c e2c3 093d
00000030: 7a7c bf3c 0d5a 13bd 56de 343d 4e13 3a3d
00000040: a87b 24bd 3a42 d6bc f227 0f3d 06f0 a9bc
00000050: ac5f 27bc 7bd6 1c3d 01ce 7b3c 9321 2c3d
00000060: ddeb 1dbc d8f5 2f3d d497 1ebd 5abb 2dbd
00000070: 1406 303d 3d74 94bc 3c6e 46bd 227e 79bc
00000080: 64a5 ed3c 3293 8fbc c782 24bc 3e7d 303d
00000090: e87a 41bd e4dc 07bc f631 373d c003 24bd
000000a0: 845f 7cbc d9fb 08bd 118c 80bc 90fb 37bd
000000b0: 847c 3e3d 3c84 3fbb 3a40 1cbd 12ac ee3c
000000c0: 2bf2 8a3c d373 aabc 31d5 85bc 8d93 3e3d
000000d0: 4d99 6b3c 2de8 dbbb 85af 1abd 8524 3c3c
000000e0: 2c80 163d 5eac b7bc 9938 36bd ede9 bd3c
000000f0: dd5a cb3b 91eb aa3c 6439 0d3c f7d4 163d
00000100: 246f ca3c 2efd 0a3d 511e df3c 9c63 b83c
00000110: 4d72 c4bc 069e ab3c c176 963c cbfa 6c3c
00000120: a2b3 13bd b00d 2bbd ea4f 883c 9f65 b43c
00000130: 2419 6e3c 165f 9b38 40a0 313d 4233 1cbd
00000140: cb26 a73c d96e b1bc b2ce d5bc 0119 393c
00000150: f827 25bd 2447 2b3d c641 36bd 2c2b b5bc
00000160: 06f8 1e3d 13e5 3c3c b975 473d 9283 17bd
00000170: e8b0 d73c bbf3 573c ec97 94b9 bb21 0bbd
00000180: 2e75 f53c 480a a3bc 46be 183d 2f8c 1dbd
00000190: 5e11 95bc 1030 c43c d471 eb3c 130e c53c
000001a0: afbd 313d 5c9b 3e3d 7737 123d c56d 15bd
000001b0: 2617 0dbd c88c fabc bd15 3d3d 4f8b 1fbd
000001c0: 98b5 01bd fe84 613c 3ba6 c33b 6064 3c3d
000001d0: b64b b03c ec9a 523c 5960 a3bc dc60 c9bc
000001e0: 72c0 0bbd 4400 22bd ebc1 bf3c 9b66 07bd
000001f0: 5e0f 8abc 5665 18ba 89d7 e03c 5c7f 433c

a2c_network.actor_mlp.4.weight f4 [64, 128]
0.036365237 0.0022229685 -0.027256155 0.08278269 0.042383116 -0.026696563 -0.032221466 0.013790491
-0.08625208 0.098107025 -0.055872068 0.069894426 0.092036225 0.04272335 0.085571006 -0.05866671
0.019319061 0.04273627 -0.075923555 -0.099245384 0.015687717 0.07201908 0.06544196 0.031349648
0.060294516 0.051023435 -0.06621602 -0.076313265 0.071357206 -0.054971725 0.0077459146 -0.049613196
0.019197073 0.009290605 0.08253914 -0.021853952 0.027429359 -0.044424932 0.037716255 0.015562237
0.068249665 -0.0665852 -0.038106993 0.05293117 -0.08966861 -0.048110917 0.044395622 -0.027437722
-0.03402984 -0.026010653 0.0570305 0.004513076 0.004225026 -0.08963993 -0.010339147 0.048647948
-0.08669936 0.07680767 0.0050913473 0.09000372 0.01706204 -0.06760673 0.051517606 -0.07662262
0.024980182 -0.011022697 -0.05895488 0.032209035 -0.040257636 0.06503838 -0.007974307 -0.06636287
-0.072299905 -0.052374545 0.059389077 0.10483261 0.0602094 -0.061770305 0.004135127 -0.03582835
0.058836248 0.072779655 0.020347798 0.02378915 -0.01298892 -0.042014856 -0.041888375 -0.07120133
0.023931634 0.092920296 -0.024519002 0.101265736 0.04183881 -0.027349176 0.07051385 -0.06707511
0.027324189 -0.06890595 0.028601075 0.02511189 0.021515848 -0.0079814205 -0.059387114 0.00783626
0.039575167 -0.040284928 -0.03540024 0.07689159 0.014241929 0.045271054 0.033631317 -0.030087085
-0.013593747 -0.07601799 0.044001523 0.054728445 -0.058828313 0.05865183 -0.040000502 0.027803762
0.025912423 0.02336122 0.045521352 0.03633332 -0.06879478 -0.07701086 0.080647685 0.044202022
0.004090121 0.0063767354 -0.017109193 -0.10568445 0.069186285 -0.04196571 -0.012386938 -0.057451464
0.087976575 -0.049012948 0.021966675 -0.009737624 0.056335002 0.10414223 0.015844598 -0.027414717
0.06045118 0.018438313 -0.07766824 0.012517943 0.057090756 -0.08611656 -0.058253728 -0.056546126
0.062628254 -0.08523064 0.008160106 -0.053959135 0.05614645 -0.045796152 0.047203302 -0.03507548
-0.040277537 0.00434796 -0.0028154464 -0.06590183 -0.06632634 -0.041235805 -0.048241526 0.060502548
0.039652213 -0.052021123 -0.04467536 0.08220944 -0.09146301 0.07688858 0.010220812 -0.082861885
0.03639636 0.07640853 0.046539046 -0.040783744 -0.04608687 0.0033968873 -0.060358394 0.023144864
-0.060578052 0.0074265874 -0.005985486 0.04341125 -0.09495034 -0.06394814 0.043126706 -0.041706808
0.052308474 -0.073600926 0.010075493 0.012726653 0.100251995 0.046707276 0.018517625 -0.008680549
0.03579502 0.073654525 -0.058274325 -0.10080695 -0.0076147188 -0.09134986 0.0015128811 0.013540033
0.047291696 0.076276526 -0.06831787 0.08437041 -0.050116934 -0.09264326 -0.011913999 0.03388907
-0.013923415 -0.025865592 0.0020058877 -0.024692724 -0.048982568 0.035308883 0.033320043 -0.0075339396
0.020589603 0.0681161 -0.012218837 -0.019954186 0.06547027 -0.011797261 0.049361363 0.069917314
-0.098981835 -0.032352112 -0.07409776 0.024687747 0.05920984 0.044097558 -0.037495118 0.03177695
0.06537298 -0.047210656 0.032382656 -0.009317847 0.013848067 -0.020215958 0.051901706 0.04926843
0.002488107 0.01804742 -0.08662324 -0.08841502 -0.019117633 -0.05173025 -0.02254882 0.06529917
00000000: b7f3 143d 39af 113b 4d48 dfbc f989 a93d
00000010: eb99 2d3d c0b2 dabc a8fa 03bd 83f1 613c
00000020: eea4 b0bd 56ec c83d 1cda 64bd cf24 8f3d
00000030: 7d7d bc3d aefe 2e3d da3f af3d 814c 70bd
00000040: 0243 9e3c 3a0c 2f3d cf7d 9bbd 2a41 cbbd
00000050: 8783 803c bd7e 933d 6f06 863d 7d68 003d
00000060: 62f7 763d f3fd 503d 449c 87bd 214a 9cbd
00000070: ba23 923d 082a 61bd 71d1 fd3b 3537 4bbd
00000080: 2e43 9d3c 9f37 183c 480a a93d 0f07 b3bc
00000090: 89b3 e03c ebf6 35bd 5c7c 1a3d c1f8 7e3c
000000a0: 7bc6 8b3d d25d 88bd 1416 1cbd 5bce 583d
000000b0: 2da4 b7bd f40f 45bd 2fd8 353d 13c5 e0bc
000000c0: e062 0bbd 4b14 d5bc d098 693d 6de2 933b
000000d0: 1672 8a3b 2495 b7bd 8765 29bc 1243 473d
000000e0: 6f8f b1bd 574d 9d3d 51d5 a63b df53 b83d
000000f0: b1c5 8b3c 6675 8abd 2004 533d 52ec 9cbd
00000100: 3da3 cc3c 8b98 34bc ac7a 71bd 9fed 033d
00000110: 31e5 24bd d832 853d aba6 02bc 42e9 87bd
00000120: f911 94bd b186 56bd f641 733d 7bb2 d63d
00000130: 229e 763d dc02 7dbd f67f 873b bfc0 12bd
00000140: 47fe 703d 800d 953d 6db0 a63c 77e1 c23c
00000150: 7bcf 54bc c517 2cbd 2593 2bbd 01d2 91bd
00000160: 460c c43c ff4c be3d 13dc c8bc 6964 cf3d
00000170: 2c5f 2b3d 610b e0bc 9169 903d ad5e 89bd
00000180: fad6 df3c 901e 8dbd cd4c ea3c 73b7 cd3c
00000190: 0142 b03c 81c4 02bc e73f 73bd a863 003c
000001a0: 9219 223d cf01 25bd d8ff 10bd 5779 9d3d
000001b0: fb56 693c 246e 393d fec0 093d 3179 f6bc
000001c0: 4fb8 5ebc 52af 9bbd f13a 343d ef2a 603d
000001d0: f5f5 70bd e73c 703d 91d7 23bd b7c4 e33c
000001e0: 4a46 d43c 0760 bf3c 9974 3a3d 3fd2 143d
000001f0: 47e4 8cbd dfb7 9dbd 9d2a a53d 2e0d 353d
00000200: 6c06 863b eff3 d03b 9428 8cbc 1771 d8bd
00000210: 8ab1 8d3d 3de4 2bbd 95f2 4abc 3a52 6bbd
00000220: 102d b43d cdc1 48bd 75f3 b33c 8e8a 1fbc
00000230: 88bf 663d 8548 d53d 88cc 813c d494 e0bc
00000240: a89b 773d f20b 973c 8710 9fbd 0f18 4d3c
00000250: ffd7 693d e15d b0bd 769b 6ebd e99c 67bd
00000260: 3e43 803d 678d aebd f7b1 053c 4104 5dbd
00000270: d2f9 653d bf94 3bbd 4058 413d 4eab 0fbd
00000280: 0ffa 24bd 5579 8e3b 5a83 38bb 8af7 86bd
00000290: 1bd6 87bd e0e6 28bd e898 45bd 85d1 773d
000002a0: 5c6a 223d 1a14 55bd 83fd 36bd 6c5d a83d
000002b0: f550 bbbd c377 9d3d 3175 273c 7eb3 a9bd
000002c0: 5914 153d 137c 9c3d ba9f 3e3d db0c 27bd
000002d0: 96c5 3cbd 509e 5e3b 5d3a 77bd 4c9a bd3c
000002e0: b120 78bd bb5a f33b e521 c4bb ffcf 313d
000002f0: 5375 c2bd 3ef7 82bd a1a5 303d c2d4 2abd
00000300: 6941 563d 15bc 96bd ae13 253c 7483 503c
00000310: eb50 cd3d 2150 3f3d 46b2 973c dd38 0ebc
00000320: cd9d 123d 2fd8 963d 0fb1 6ebd e073 cebd
00000330: e484 f9bb a315 bbbd de4b c63a 04d7 5d3c
00000340: f0b4 413d de36 9c3d 3dea 8bbd 65ca ac3d
00000350: 6a47 4dbd c0bb bdbd ef32 43bc 44cf 0a3d
00000360: 091f 64bc 14e4 d3bc 3675 033b 6548 cabc
00000370: f2a1 48bd 0ca0 103d 997a 083d 44df f6bb
00000380: 87ab a83c 7480 8b3d 8431 48bc f676 a3bc
00000390: 4715 863d 4d49 41bc 242f 4a3d cf30 8f3d
000003a0: fdb6 cabd a683 04bd 91c0 97bd f53d ca3c
000003b0: 0486 723d a49f 343d 7b94 19bd 8c28 023d
000003c0: 45e2 853d f65f 41bd ada3 043d e2a9 18bc
000003d0: 01e3 623c f09b a5bc e296 543d b1cd 493d
000003e0: 820f 233b 2fd8 933c 8667 b1bd ef12 b5bd
000003f0: 959c 9cbc 19e3 53bd 4eb8 b8bc 92bb 853d

a2c_network.actor_mlp.4.bias f4 [64]
0.027769407 -0.033829227 -0.038368132 -0.041835424 0.040281974 -0.03587404 -0.014275858 -0.012046309
-0.026597692 -0.03981326 -0.038823236 0.028762758 -0.019736739 -0.037613332 -0.038315117 0.047345027
-0.02868162 0.039180826 0.024318142 -0.019258149 0.04237183 -0.03961767 -0.023553913 -0.026507115
0.04803372 -0.028956622 0.003692006 0.051208645 -0.03412925 -0.026246976 0.04722582 -0.013881215
0.04918387 -0.03203208 -0.040565066 -0.03816589 -0.027939985 -0.01963028 0.02682938 -0.03722422
0.04478114 -0.038823333 0.026479967 0.011767055 0.0421755 0.02841009 0.030771429 0.029931303
0.009270151 -0.030805828 0.04641079 -0.038424853 -0.021499509 0.04276321 -0.006609371 0.03133403
0.021779876 0.02797868 -0.032343287 0.024081131 -0.02188654 -0.02184191 -0.031043898 -0.038501874
00000000: ab7c e33c 8490 0abd e727 1dbd 9f5b 2bbd
00000010: b6fe 243d a8f0 12bd 4ae5 69bc e25d 45bc
00000020: 67e3 d9bc 3b13 23bd 1d05 1fbd e09f eb3c
00000030: f1ae a1bc 7010 1abd 50f0 1cbd dcec 413d
00000040: b7f5 eabc 137c 203d d736 c73c 44c3 9dbc
00000050: 168e 2d3d 2346 22bd 23f4 c0bc 7325 d9bc
00000060: 02bf 443d 7036 edbc 95f5 713b 28c0 513d
00000070: 1dcb 0bbd e603 d7bc dd6f 413d 096e 63bc
00000080: 0775 493d 1234 03bd 8e27 26bd d653 1cbd
00000090: 65e2 e4bc aecf a0bc 4ac9 db3c 6c78 18bd
000000a0: 6e6c 373d 3705 1fbd 84ec d83c 9bca 403c
000000b0: 38c0 2c3d 47bc e83c 5d14 fc3c 7e32 f53c
000000c0: d5e1 173c 815c fcbc 3e19 3e3d 6163 1dbd
000000d0: bd1f b0bc 7a28 2f3d 6c93 d8bb 1d58 003d
000000e0: b66b b23c 8b33 e53c 657a 04bd cb45 c53c
000000f0: 674b b3bc ceed b2bc c64f febc 24b4 1dbd

a2c_network.value.weight f4 [1, 64]
-0.06927858 0.06962641 0.092840806 0.023080783 0.0051287278 0.07567585 0.05475874 0.008457525
0.034788452 0.086672135 0.09013749 -0.052328676 0.016837593 0.11465799 0.067681685 -0.07407007
0.12429239 -0.09416216 -0.057850927 0.032223526 -0.04029618 0.051801056 0.013629702 0.13324064
-0.024947748 0.10032274 0.009414763 -0.1164161 0.07891368 0.10474028 -0.11554532 0.026801867
-0.04010006 0.07037906 0.06553506 0.030372793 0.11936405 0.12451927 -0.074607804 0.10036459
-0.025941849 0.1270106 -0.1047043 -0.01673617 -0.07192449 -0.12750931 -0.1299883 -0.09703776
-0.028866913 0.0831114 -0.13518645 0.066857524 0.0863057 -0.049046572 0.0013511375 -0.055157796
-0.04007813 -0.06915284 0.08973579 -0.0722252 0.086040236 0.061562724 0.11021561 0.014797445
00000000: eee1 8dbd 4b98 8e3d 5223 be3d e913 bd3c
00000010: e30e a83b f1fb 9a3d b34a 603d 6e91 0a3c
00000020: 567e 0e3d 2981 b13d 019a b83d 9856 56bd
00000030: feee 893c cfd1 ea3d b29c 8a3d 0db2 97bd
00000040: 028d fe3d 17d8 c0bd 18f5 6cbd d1fc 033d
00000050: 9b0d 25bd 582d 543d 1d4f 5f3c 3c70 083e
00000060: 385f ccbc 0276 cd3d 6140 1a3c 906b eebd
00000070: 7f9d a13d 1282 d63d 06a3 ecbd 978f db3c
00000080: f63f 24bd e622 903d 3f37 863d 5dd0 f83c
00000090: 2475 f43d f603 ff3d facb 98bd f38b cd3d
000000a0: 0084 d4bc 110f 023e 356f d6bd 4b1a 89bc
000000b0: 264d 93bd cd91 02be a71b 05be bcbb c6bd
000000c0: 4e7a ecbc 4f36 aa3d 516e 0abe 99ec 883d
000000d0: 0bc1 b03d 0fe5 48bd a718 b13a 24ed 61bd
000000e0: f728 24bd 01a0 8dbd 66c7 b73d ceea 93bd
000000f0: dd35 b03d 3229 7c3d b9b8 e13d fc70 723c

a2c_network.mu.weight f4 [24, 64]
-0.105402656 -0.015154208 -0.0250463 -0.06335495 -0.056576807 0.11537998 0.019056937 0.06454143
0.033144634 0.06262427 -0.10972662 -0.009239829 0.05848085 0.0019155592 -0.04249119 0.015591924
-0.087918565 0.04347916 0.012715841 -0.07093146 0.08031498 -0.1045442 0.06022477 -0.06995572
-0.12117548 0.025305295 -0.019558813 0.09222497 -0.046417225 0.12074194 0.035498723 0.014608279
0.025773343 0.038180068 0.073120445 -0.008447622 0.12285603 -0.09175127 -0.056070507 -0.03445751
-0.07959384 -0.089278676 -0.08369856 0.013584959 -0.03407142 -0.101039216 0.054458126 0.09820397
0.04316936 -0.07387798 0.11605354 0.007119962 0.006848093 0.0064378367 0.07614042 -0.074417315
-0.08834256 0.03301973 -0.08959542 -0.050547067 -0.015845207 0.11258478 -0.034720164 -0.004195364
-0.11919535 0.047508456 -0.124763906 -0.021697402 0.047733188 -0.06210992 0.055021636 -0.0112147005
-0.07773256 -0.1278683 0.09556831 -0.116133034 -0.07461085 0.036528498 -0.048628997 0.004398227
0.013363161 0.00012400727 0.04355029 -0.06938587 0.05550885 -0.14158136 -0.046396192 0.10057324
0.08658208 0.018041344 0.051483557 0.13895442 -0.01771494 0.08540668 0.12549493 -0.01611934
0.09706674 0.030872386 -0.07189059 -0.11630616 -0.011227313 0.117015295 0.050452795 0.0719378
-0.059077103 -0.14101492 -0.04766479 -0.1326231 0.1113498 -0.03347568 -0.084137976 -0.013451843
-0.051239494 0.0057412065 0.09502836 -0.099804506 0.060949918 0.03709028 0.039544873 0.00508428
0.03600823 -0.1159689 0.045249008 0.06424361 0.12940648 0.018746229 0.010394866 0.08977035
-0.10564044 -0.036458742 0.005034489 -0.09196967 0.113888904 0.064505704 0.11069021 0.029067872
0.042482667 0.014949647 0.060997147 0.011816715 -0.022849899 -0.024570774 -0.0204684 -0.083777405
0.06163539 0.12866561 0.01610507 -0.034368288 -0.0013198352 -0.123559125 -0.14156373 -0.08906631
-0.04288735 -0.09319876 0.060659587 0.1541586 -0.026047936 0.10580692 0.089796305 0.11058888
0.070223324 0.08581225 0.06475345 -0.06937406 0.041679658 0.085661046 -0.10846156 -0.10671761
0.09556991 -0.08055565 -0.08655633 -0.024870273 0.022406181 -0.062687576 -0.09356153 -0.09489658
-0.08885614 0.11929634 0.062096857 -0.10051969 0.124194525 0.09858926 -0.029259078 -0.017057693
-0.10133851 -0.052891124 0.07667589 -0.09278669 0.036333848 0.09260566 -0.08239321 -0.010042697
0.036986757 0.096801236 -0.09680692 -0.083523266 0.046567 0.015965581 0.11644461 0.042073965
0.091361105 0.097914055 -0.05728077 0.07115447 0.055670615 -0.07992953 -0.069247164 0.06914249
0.06685493 0.04965775 -0.08616227 -0.1354445 0.066178985 -0.10260198 0.006908701 0.00499904
0.13834807 0.09446465 0.12116911 0.11178196 -0.095296115 0.101479486 0.1245862 0.08523298
0.017176997 -0.09572084 -0.13902065 0.08931803 0.036523964 -0.09974953 0.0826103 0.08728852
0.045917965 0.047846247 -0.12619556 -0.07615892 -0.092542626 -0.11472847 0.010924816 -0.011618057
-0.04144506 0.00021260441 0.09349647 0.076210395 -0.057528745 0.10012379 -0.064090185 0.06349453
-0.07447951 -0.09154858 -0.0069158757 -0.029614048 0.016406994 -0.025098478 -0.038580414 -0.11535828
00000000: 59dd d7bd 5b49 78bc e62d cdbc 3dc0 81bd
00000010: 15bd 67bd 574c ec3d 4b1d 9c3c 4c2e 843d
00000020: abc2 073d 2741 803d 5ab8 e0bd a762 17bc
00000030: 9e89 6f3d 8013 fb3a 3e0b 2ebd 4575 7f3c
00000040: a60e b4bd 3417 323d 1a56 503c 8344 91bd
00000050: 2e7c a43d 451b d6bd 40ae 763d f244 8fbd
00000060: da2a f8bd 0d4d cf3c ce39 a0bc 72e0 bc3d
00000070: fd1f 3ebd 8d47 f73d 1c67 113d 9057 6f3c
00000080: 9e22 d33c b462 1c3d 2cc0 953d e567 0abc
00000090: f19b fb3d 17e8 bbbd 30aa 65bd 5123 0dbd
000000a0: 1802 a3bd bdd7 b6bd 276a abbd 7393 5e3c
000000b0: 798e 0bbd a6ed cebd 7c0f 5f3d 2a1f c93d
000000c0: 5bd2 303d 574d 97bd 7aad ed3d 924e e93b
000000d0: f865 e03b 7df4 d23b 82ef 9b3d 1b68 98bd
000000e0: f2ec b4bd b23f 073d ce7d b7bd 710a 4fbd
000000f0: cfcd 81bc d992 e63d bb36 0ebd 4479 89bb
00000100: b11c f4bd 3a98 423d 3884 ffbd c0be b1bc
00000110: e083 433d f966 7ebd 5e5e 613d ddbd 37bc
00000120: 4032 9fbd e8ef 02be 51b9 c33d 28d7 edbd
00000130: 93cd 98bd e89e 153d 332f 47bd 011f 903b
00000140: 29f1 5a3c f307 0239 ca61 323d 2e1a 8ebd
00000150: 3f5d 633d b4fa 10be ef09 3ebd 58f9 cd3d
00000160: f251 b13d 71cb 933c 6ce0 523d 114a 0e3e
00000170: ec1e 91bc b3e9 ae3d be81 003e b50c 84bc
00000180: edca c63d 16e8 fc3c 603b 93bd ed31 eebd
00000190: c4f2 37bc b7a5 ef3d 97a7 4e3d 2054 933d
000001a0: d5fa 71bd 3766 10be 283c 43bd 5ace 07be
000001b0: 5d0b e43d cb1d 09bd 8850 acbd 1e65 5cbc
000001c0: 81e0 51bd bb20 bc3b 3b9e c23d 4e66 ccbd
000001d0: 9fa6 793d faeb 173d cef9 213d 089a a63b
000001e0: 5e7d 133d 1a81 edbd 0657 393d 2792 833d
000001f0: 2283 043e b191 993c 3a4f 2a3c 84d9 b73d
00000200: 045a d8bd c355 15bd 5bf8 a43b 985a bcbd
00000210: 963e e93d 911b 843d 8cb1 e23d bf1f ee3c
00000220: 4e02 2e3d 5def 743c 25d8 793d e59a 413c
00000230: b62f bbbc a648 c9bc 59ad a7bc 7d93 abbd
00000240: 6475 7c3d ebc0 033e c8ee 833c c3c5 0cbd
00000250: 52fe acba 910c fdbd 15f6 10be 6668 b6bd
00000260: a5aa 2fbd fede bebd 3076 783d c1db 1d3e
00000270: 7b62 d5bc 4cb1 d83d 20e7 b73d 6c7c e23d
00000280: 3fd1 8f3d 55be af3d 759d 843d fd13 8ebd
00000290: 4ab8 2a3d 0f6f af3d 1821 debd c38e dabd
000002a0: 28ba c33d 5cfa a4bd 7244 b1bd bebc cbbc
000002b0: 2b8d b73c 5862 80bd 309d bfbd 2359 c2bd
000002c0: 35fa b5bd a451 f43d 4659 7e3d 44dd cdbd
000002d0: b359 fe3d 2ae9 c93d bcb0 efbc 93bc 8bbc
000002e0: 918a cfbd 5da4 58bd 4008 9d3d f306 bebd
000002f0: cdd2 143d 09a8 bd3d c5bd a8bd 208a 24bc
00000300: 6d7f 173d ba3f c63d b542 c6bd 3f0e abbd
00000310: 0abd 3e3d 40ca 823c 837a ee3d c055 2c3d
00000320: 881b bb3d 2a87 c83d 3e9f 6abd 6fb9 913d
00000330: df06 643d 18b2 a3bd 75d1 8dbd 949a 8d3d
00000340: 3deb 883d ed65 4b3d d875 b0bd f7b1 0abe
00000350: d988 873d fd20 d2bd 6262 e23b fdce a33b
00000360: 1eab 0d3e af76 c13d 8327 f83d f1ed e43d
00000370: 9c2a c3bd 7ad4 cf3d 0d27 ff3d a18e ae3d
00000380: c6b6 8c3c 4a09 c4bd 6e5b 0ebe 5fec b63d
00000390: 279a 153d 7b49 ccbd 972f a93d 53c4 b23d
000003a0: 7a14 3c3d 6dfa 433d 6939 01be 35f9 9bbd
000003b0: fd86 bdbd c3f6 eabd 00fe 323c aa59 3ebc
000003c0: 4cc2 29bd 90ee 5e39 147b bf3d 3214 9c3d
000003d0: 43a3 6bbd b40d cd3d b741 83bd 6c09 823d
000003e0: b788 98bd d27d bbbd 929e e2bb 2999 f2bc
000003f0: f667 863c 539b cdbc 7f06 1ebd f640 ecbd

a2c_network.mu.bias f4 [24]
-0.020708546 0.020704772 0.0358567 0.03572643 0.0064163157 -0.021971902 0.008710777 -0.008191796
-0.01269733 0.001506948 -0.008561317 -0.012077791 -0.022992257 -0.041826334 -0.0338591 0.023365742
-0.016755853 -0.042653676 0.028160736 -0.013029646 0.00078446 0.0020265663 -0.003247724 0.0008795744
00000000: f8a4 a9bc 0e9d a93c 7ade 123d e155 123d
00000010: f53f d23b 6bfe b3bc a6b7 0e3c e236 06bc
00000020: 7608 50bc c984 c53a c444 0cbc ede1 45bc
00000030: 425a bcbc 1752 2bbd d7af 0abd 8369 bf3c
00000040: 9243 89bc 9fb5 2ebd 58b1 e63c 4c7a 55bc
00000050: 38a4 4d3a 24d0 043b c4d7 54bb 3d93 663a

exp_avg f4 [24]
0.010223222 -0.0032320996 0.005777133 -0.014393593 0.0031893174 -0.0046775583 -0.011876083 0.008896667
0.0031299884 -0.011362218 0.013270319 -0.016578918 -0.0066337585 -0.005937121 -0.0060254284 -0.0007694347
-0.004217669 0.0020174154 -0.017346293 -0.009631929 -0.0063280496 0.005796662 -0.015742766 -0.00740677
00000000: 4d7f 273c a2d1 53bb 1b4e bd3b 1bd3 6bbc
00000010: de03 513b 3446 99bb e793 42bc 53c3 113c
00000020: 7e20 4d3b 9928 3abc c16b 593c 83d0 87bc
00000030: 0060 d9bb 2e8c c2bb f570 c5bb e3b3 49ba
00000040: 5f34 8abb 9d36 043b d019 8ebc 3dcf 1dbc
00000050: 875b cfbb edf1 bd3b f9f6 80bc 7db4 f2bb

exp_avg_sq f4 [24]
0.00035141569 0.00036419462 0.00040728098 0.0003506133 0.00037491048 0.00036585817 0.0003020762 0.00034359854
0.0003435597 0.00030728753 0.00036215739 0.00040343215 0.00040995269 0.00030057537 0.00038613926 0.00023626015
0.0003307283 0.00036859562 0.0003821114 0.0003276053 0.0003714718 0.0003866034 0.0003554102 0.00035591927
00000000: 373e b839 60f1 be39 5488 d539 85d2 b739
00000010: a28f c439 a7d0 bf39 fb5f 9e39 0425 b439
00000020: cd1f b439 6f1b a139 f1df bd39 bf83 d339
00000030: ebee d639 8b96 9d39 bc72 ca39 9abc 7739
00000040: 9a65 ad39 1140 c139 2056 c839 70c2 ab39
00000050: 1ac2 c239 08b1 ca39 5956 ba39 ad9a ba39

exp_avg f4 [256, 39]
0.0 8.731688e-06 8.311448e-06 4.340092e-06 3.6145268e-06 1.0182649e-05 4.340092e-06 0.0058716275
0.004168751 4.340092e-06 0.0040639746 9.8158096e-05 0.0 7.1850004e-06 0.0 0.0
0.0 0.0 0.0 0.0 -0.0012501955 -0.004183645 1.1089289e-05 0.0
0.0 0.0 0.0 0.0 0.0 0.0 0.0 0.0
0.0 0.0 0.0 0.0 0.0 0.0 1.1724625e-06 0.0
6.1261667e-06 5.8328037e-06 3.0453762e-06 2.536019e-06 7.1451946e-06 3.0453762e-06 0.0041804933 0.0029435686
3.0453762e-06 0.0028605454 4.023534e-05 0.0 5.041488e-06 0.0 0.0 0.0
0.0 0.0 0.0 -0.00094196416 -0.002947043 7.782244e-06 0.0 0.0
0.0 0.0 0.0 0.0 0.0 0.0 0.0 0.0
0.0 0.0 0.0 0.0 0.0 8.227095e-07 0.0 -7.365471e-07
-7.00842e-07 -3.661475e-07 -3.048895e-07 -8.586145e-07 -3.661475e-07 -0.0004788967 -0.00034681224 -3.661475e-07
-0.0003411523 -1.8292056e-05 0.0 -6.0614093e-07 0.0 0.0 0.0 0.0
0.0 0.0 8.287018e-05 0.00035050506 -9.345401e-07 0.0 0.0 0.0
0.0 0.0 0.0 0.0 0.0 0.0 0.0 0.0
0.0 0.0 0.0 0.0 -9.891497e-08 0.0 -1.8527561e-06 -1.7641262e-06
-9.208472e-07 -7.6698245e-07 -2.1613198e-06 -9.208472e-07 -0.0012815151 -0.00089505804 -9.208472e-07 -0.0008659368
7.6683733e-07 0.0 -1.5244876e-06 0.0 0.0 0.0 0.0 0.0
0.0 0.00031404351 0.0008929293 -2.354828e-06 0.0 0.0 0.0 0.0
0.0 0.0 0.0 0.0 0.0 0.0 0.0 0.0
0.0 0.0 0.0 -2.4876158e-07 0.0 -4.198171e-06 -3.995298e-06 -2.0864477e-06
-1.7378123e-06 -4.895364e-06 -2.0864477e-06 -0.0027920173 -0.0019945884 -2.0864477e-06 -0.0019485349 -5.988319e-05
0.0 -3.4542043e-06 0.0 0.0 0.0 0.0 0.0 0.0
0.00057231495 0.0020048278 -5.3307867e-06 0.0 0.0 0.0 0.0 0.0
0.0 0.0 0.0 0.0 0.0 0.0 0.0 0.0
0.0 0.0 -5.636389e-07 0.0 1.1378723e-05 1.0831524e-05 5.655521e-06 4.7102944e-06
1.3270562e-05 5.655521e-06 0.0076957736 0.0054451004 5.655521e-06 0.005298765 9.659244e-05 0.0
9.362817e-06 0.0 0.0 0.0 0.0 0.0 0.0 -0.0016998528
-0.005456809 1.4453792e-05 0.0 0.0 0.0 0.0 0.0 0.0
0.0 0.0 0.0 0.0 0.0 0.0 0.0 0.0
0.0 1.5278112e-06 0.0 2.1678386e-06 2.0637901e-06 1.0774985e-06 8.9739865e-07 2.5283637e-06
1.0774985e-06 0.0014742385 0.0010399097 1.0774985e-06 0.001010876 1.4967471e-05 0.0 1.7837939e-06
0.0 0.0 0.0 0.0 0.0 0.0 -0.00033162275 -0.0010413144
00000000: 0000 0000 507e 1237 6671 0b37 1ba1 9136
00000010: 1991 7236 25d6 2a37 1ba1 9136 c866 c03b
00000020: 059a 883b 1ba1 9136 172b 853b 3ada cd38
00000030: 0000 0000 af16 f136 0000 0000 0000 0000
00000040: 0000 0000 0000 0000 0000 0000 0000 0000
00000050: 9add a3ba f516 89bb 220c 3a37 0000 0000
00000060: 0000 0000 0000 0000 0000 0000 0000 0000
00000070: 0000 0000 0000 0000 0000 0000 0000 0000
00000080: 0000 0000 0000 0000 0000 0000 0000 0000
00000090: 0000 0000 0000 0000 815d 9d35 0000 0000
000000a0: 5f8f cd36 67b7 c336 2a5f 4c36 7a30 2a36
000000b0: c1c0 ef36 2a5f 4c36 85fc 883b e3e8 403b
000000c0: 2a5f 4c36 fd77 3b3b 5ec2 2838 0000 0000
000000d0: 0d2a a936 0000 0000 0000 0000 0000 0000
000000e0: 0000 0000 0000 0000 0000 0000 25ee 76ba
000000f0: 2d23 41bb 7c90 0237 0000 0000 0000 0000
00000100: 0000 0000 0000 0000 0000 0000 0000 0000
00000110: 0000 0000 0000 0000 0000 0000 0000 0000
00000120: 0000 0000 0000 0000 0000 0000 0000 0000
00000130: 0000 0000 2bd8 5c35 0000 0000 22b7 45b5
00000140: 7f21 3cb5 ee92 c4b4 b2af a3b4 8a7b 66b5
00000150: ee92 c4b4 6d14 fbb9 5ad4 b5b9 ee92 c4b4
00000160: b0dc b2b9 e471 99b7 0000 0000 b0b5 22b5
00000170: 0000 0000 0000 0000 0000 0000 0000 0000
00000180: 0000 0000 0000 0000 97ca ad38 fec3 b739
00000190: 1bdd 7ab5 0000 0000 0000 0000 0000 0000
000001a0: 0000 0000 0000 0000 0000 0000 0000 0000
000001b0: 0000 0000 0000 0000 0000 0000 0000 0000
000001c0: 0000 0000 0000 0000 0000 0000 0000 0000
000001d0: 146b d4b3 0000 0000 37ac f8b5 eac6 ecb5
000001e0: 2330 77b5 a2e2 4db5 310b 11b6 2330 77b5
000001f0: 83f8 a7ba 54a2 6aba 2330 77b5 0900 63ba
00000200: a9d8 4d35 0000 0000 ff9c ccb5 0000 0000
00000210: 0000 0000 0000 0000 0000 0000 0000 0000
00000220: 0000 0000 35a6 a439 7913 6a3a a307 1eb6
00000230: 0000 0000 0000 0000 0000 0000 0000 0000
00000240: 0000 0000 0000 0000 0000 0000 0000 0000
00000250: 0000 0000 0000 0000 0000 0000 0000 0000
00000260: 0000 0000 0000 0000 0000 0000 888d 85b4
00000270: 0000 0000 04de 8cb6 590f 86b6 e604 0cb6
00000280: c73e e9b5 db42 a4b6 e604 0cb6 47fa 36bb
00000290: a4b7 02bb e604 0cb6 fb65 ffba 162b 7bb8
000002a0: 0000 0000 c7ce 67b6 0000 0000 0000 0000
000002b0: 0000 0000 0000 0000 0000 0000 0000 0000
000002c0: 6807 163a 6e63 033b 1cdf b2b6 0000 0000
000002d0: 0000 0000 0000 0000 0000 0000 0000 0000
000002e0: 0000 0000 0000 0000 0000 0000 0000 0000
000002f0: 0000 0000 0000 0000 0000 0000 0000 0000
00000300: 0000 0000 0000 0000 f84c 17b5 0000 0000
00000310: 3ee7 3e37 0bb9 3537 8ec4 bd36 1f0d 9e36
00000320: a1a4 5e37 8ec4 bd36 d42c fc3b d06c b23b
00000330: 8ec4 bd36 43a1 ad3b ac91 ca38 0000 0000
00000340: fe14 1d37 0000 0000 0000 0000 0000 0000
00000350: 0000 0000 0000 0000 0000 0000 98cd deba
00000360: 08cf b2bb 907e 7237 0000 0000 0000 0000
00000370: 0000 0000 0000 0000 0000 0000 0000 0000
00000380: 0000 0000 0000 0000 0000 0000 0000 0000
00000390: 0000 0000 0000 0000 0000 0000 0000 0000
000003a0: 0000 0000 310f cd35 0000 0000 2f7b 1136
000003b0: a57f 0a36 919e 9035 c4e4 7035 f5ac 2936
000003c0: 919e 9035 3c3b c13a 944d 883a 919e 9035
000003d0: 5f7f 843a cc1c 7b37 0000 0000 b16a ef35
000003e0: 0000 0000 0000 0000 0000 0000 0000 0000
000003f0: 0000 0000 0000 0000 a7dd adb9 b77c 88ba
