runs/lift_30-15-11-02/nn/last_lift_ep_125_rew_-29.447353.pth (torch, 654733 bytes, 36 tensors)

value_mean_std.running_mean f8 [1]
000000 b4 2a 93 4e 9d fe 8b c0
       -895.8268100259215

value_mean_std.running_var f8 [1]
000000 db 2d b6 56 cf 63 39 41
       1663951.3387173328

value_mean_std.count f8 []
000000 00 00 00 00 10 40 ff 40
       128001.0

running_mean_std.running_mean f8 [39]
000000 00 00 00 00 00 00 00 00 f2 6d a4 6c e7 ff f7 3f
       0.0 1.4999765628662058
000010 c1 df 7d 13 b7 cc f4 3f e4 e7 85 3b df ff df 3f
       1.2999792825121264 0.4999921876220681
000020 38 69 38 e9 7e 99 d9 3f 1f 3f 5a de 1b 33 07 40
       0.39999363685059874 2.8999554988184992
000030 e4 e7 85 3b df ff df 3f 75 b7 82 0a 8a ad f3 3f
       0.4999921876220681 1.2298679743357444
000040 f2 26 d6 50 8b a2 fb 3f e4 e7 85 3b df ff df 3f
       1.727183643119528 0.4999921876220681
000050 33 4e 10 68 e7 ff e7 3f 05 0d 9d 7b e7 ff e7 3f
       0.7499882729047783 0.7499883093190937
000060 00 00 00 00 00 00 00 00 e4 e7 85 3b df ff ef 3f
       0.0 0.9999843752441362
000070 00 00 00 00 00 00 00 00 00 00 00 00 00 00 00 00
       0.0 0.0
000080 00 00 00 00 00 00 00 00 00 00 00 00 00 00 00 00
       0.0 0.0
000090 00 00 00 00 00 00 00 00 00 00 00 00 00 00 00 00
       0.0 0.0
0000a0 00 50 d8 9f 5d 92 74 3e 40 99 5d 40 29 b6 7b be
       7.663570752324727e-08 -1.0323363150224633e-07
0000b0 5e dc d0 08 a4 9e 23 40 00 00 00 00 00 00 00 00
       9.809845233436302 0.0
0000c0 00 00 00 00 00 00 00 00 00 00 00 00 00 00 00 00
       0.0 0.0
0000d0 00 00 00 00 00 00 00 00 00 00 00 00 00 00 00 00
       0.0 0.0
0000e0 00 00 00 00 00 00 00 00 00 00 00 00 00 00 00 00
       0.0 0.0
0000f0 00 00 00 00 00 00 00 00 00 00 00 00 00 00 00 00
       0.0 0.0
000100 00 00 00 00 00 00 00 00 00 00 00 00 00 00 00 00
       0.0 0.0
000110 00 00 00 00 00 00 00 00 00 00 00 00 00 00 00 00
       0.0 0.0
000120 00 00 00 00 00 00 00 00 00 00 00 00 00 00 00 00
       0.0 0.0
000130 e4 e7 85 3b df ff bf 3f
       0.12499804690551702

running_mean_std.running_var f8 [39]
000000 3b 37 0b 0c 3d 62 f0 3e 59 4c e2 53 90 9f 0a 3f
       1.562475586318962e-05 5.077990725612579e-05
000010 6c 26 3c 72 31 09 06 3f dd b3 58 1d c8 7a f4 3e
       4.20301642219512e-05 1.9530883795738106e-05
000020 81 06 e5 45 4e 01 f3 3e 6c b4 c3 14 68 45 23 3f
       1.812467632445478e-05 0.0001470269729745595
000030 dd b3 58 1d c8 7a f4 3e 84 0c 94 0e 4d f7 f6 3f
       1.9530883795738106e-05 1.4353762216058223
000040 28 a5 e1 69 ad 31 f7 3f dd b3 58 1d c8 7a f4 3e
       1.4496282707207886 1.9530883795738106e-05
000050 2e a9 a1 1c af 09 e0 3f 73 4f 6c 17 f3 2d df 3f
       0.5011821326454873 0.48717953956042165
000060 3b 37 0b 0c 3d 62 f0 3e d8 94 a0 a8 34 62 00 3f
       1.562475586318962e-05 3.12492675933835e-05
000070 3b 37 0b 0c 3d 62 f0 3e 3b 37 0b 0c 3d 62 f0 3e
       1.562475586318962e-05 1.562475586318962e-05
000080 3b 37 0b 0c 3d 62 f0 3e 3b 37 0b 0c 3d 62 f0 3e
       1.562475586318962e-05 1.562475586318962e-05
000090 3b 37 0b 0c 3d 62 f0 3e 3b 37 0b 0c 3d 62 f0 3e
       1.562475586318962e-05 1.562475586318962e-05
0000a0 f3 53 b3 2b eb af f6 3f d2 d6 87 87 ea 69 f5 3f
       1.417948885636403 1.338358430305949
0000b0 9b 4c bb d8 43 e4 58 3f 3b 37 0b 0c 3d 62 f0 3e
       0.00151926637311276 1.562475586318962e-05
0000c0 3b 37 0b 0c 3d 62 f0 3e 3b 37 0b 0c 3d 62 f0 3e
       1.562475586318962e-05 1.562475586318962e-05
0000d0 3b 37 0b 0c 3d 62 f0 3e 3b 37 0b 0c 3d 62 f0 3e
       1.562475586318962e-05 1.562475586318962e-05
0000e0 3b 37 0b 0c 3d 62 f0 3e 3b 37 0b 0c 3d 62 f0 3e
       1.562475586318962e-05 1.562475586318962e-05
0000f0 3b 37 0b 0c 3d 62 f0 3e 3b 37 0b 0c 3d 62 f0 3e
       1.562475586318962e-05 1.562475586318962e-05
000100 3b 37 0b 0c 3d 62 f0 3e 3b 37 0b 0c 3d 62 f0 3e
       1.562475586318962e-05 1.562475586318962e-05
000110 3b 37 0b 0c 3d 62 f0 3e 3b 37 0b 0c 3d 62 f0 3e
       1.562475586318962e-05 1.562475586318962e-05
000120 3b 37 0b 0c 3d 62 f0 3e 3b 37 0b 0c 3d 62 f0 3e
       1.562475586318962e-05 1.562475586318962e-05
000130 0e 0f 20 bd c5 a3 f0 3e
       1.586888885897393e-05

running_mean_std.count f8 []
000000 00 00 00 00 20 40 ef 40
       64001.0

a2c_network.sigma f4 [24]
000000 b9 f3 3c 3c 05 e4 41 3d 98 5a c5 bb ac a0 5c 3c
       0.011532717 0.047336597 -0.0060227625 0.013466042
000010 94 7c 5b 3c 8c 21 02 3c cc a4 38 3b d3 e3 9e 3c
       0.013396401 0.0079425685 0.0028174398 0.019395744
000020 f9 d7 87 bc e5 3a c9 3c 41 ba 53 bd 6b ad c7 bc
       -0.016582476 0.024564216 -0.051691297 -0.024374684
000030 ba bd 42 bc ff 49 91 3b bb c5 a7 3c a9 0c 0a 3d
       -0.011886055 0.00443387 0.020480027 0.03370348
000040 fa b2 59 bc d4 f3 e7 3c 7a 77 f1 3c 2f f3 60 3c
       -0.0132873 0.028314508 0.029475916 0.0137298545
000050 9c 9f ba 3b 00 0e f0 bc 01 39 29 3d 3b 7d 4d ba
       0.0056952965 -0.02930355 0.04131413 -0.000783879

a2c_network.actor_mlp.0.weight f4 [256, 39]
000000 38 d9 4e bd e7 b6 86 3d 06 50 a9 bc f1 d8 b8 3d
       -0.050500125 0.065778546 -0.020668041 0.09025753
000010 f6 ce 29 3e f8 18 ec 3d 0e 13 41 bd 8d f8 9a 3d
       0.16582856 0.115282 -0.047137313 0.075669385
000020 26 72 10 bb fc 5e d5 3d 7c 7f f5 bd e0 9a 2e be
       -0.0022040694 0.104185075 -0.11987206 -0.17051268
000030 75 68 7d bd af d7 cc bd 76 8b 06 3e 58 ea 3c 3d
       -0.061867196 -0.10002076 0.13139138 0.046121925
000040 94 d6 87 3d 51 6e 4f 3d 5c 8e 36 bb 43 53 00 3e
       0.066327244 0.050642315 -0.002785585 0.12531762
000050 fe aa f5 bd ce 6d 12 3c dd 66 b1 bd 50 3e 4a 3d
       -0.11995505 0.008937312 -0.08662198 0.049375832
000060 09 e0 61 bd 4b f9 48 3d e5 a5 08 bd 14 ff 07 3e
       -0.055145297 0.04906587 -0.033361334 0.13280898
000070 43 5f c2 bd 8f 95 c3 bd 95 98 c3 bd 94 7b 13 3e
       -0.09490826 -0.095500104 -0.09550587 0.1440261
000080 0a 93 5a 3d 0b c8 1d 3e 51 52 07 be 9f a3 22 be
       0.053362884 0.15408342 -0.13214995 -0.15882729
000090 ff 48 00 be 72 9a dc bd f3 bb b3 3d 46 db 6a 3d
       -0.12527846 -0.107716456 0.08776083 0.05733802
0000a0 73 60 d5 3d d2 78 e4 bd 2d 0d 0d be 29 e1 66 3d
       0.10418787 -0.11155857 -0.13774557 0.056367073
0000b0 e2 df bf bd 8f 7e 8c 3d e5 13 5e bd 78 d8 8d 3d
       -0.09368874 0.06860077 -0.05421819 0.06926054
0000c0 b6 ab 1c be 54 6e b4 bd 54 53 2c 3d b5 a8 0a 3d
       -0.15299878 -0.08810106 0.042071655 0.033852298
0000d0 e2 7c 8e bd fa 79 c3 3d 34 f0 de 3d ac d0 ed bd
       -0.06957413 0.095447496 0.10885659 -0.116120666
0000e0 fa 13 af bd 68 24 16 3e 1f 51 5d bd c1 10 68 bd
       -0.08548732 0.14662325 -0.05403244 -0.056656603
0000f0 37 e3 15 be 08 67 f7 bd ab d7 23 3d 08 25 ad bc
       -0.14637457 -0.120801985 0.0400006 -0.021135822
000100 80 0c ee bd 83 28 76 3b ec 02 e0 bd d6 1c 0b be
       -0.11623478 0.0037560768 -0.10938057 -0.13585219
000110 ed 95 b4 bd 75 82 0f be 3d d0 d0 bd 37 e8 23 3e
       -0.088176586 -0.14014609 -0.10195968 0.16006552
000120 ae c2 f7 3c 07 1e 4a 3d f2 ee 18 be 4e 62 d7 bd
       0.030244198 0.049345043 -0.149349 -0.10516797
000130 ab 50 5a bd f8 3a 62 bb 22 48 10 be 40 08 bf bd
       -0.053299587 -0.0034520011 -0.14090016 -0.093277454
000140 18 0f f6 bd ad e3 c2 bc 86 a9 ab bd a1 fd 10 bd
       -0.12014598 -0.023790205 -0.083819434 -0.03539813
000150 72 ed 07 be 16 b3 e4 bd 8c 27 a8 bd a3 e2 a1 bd
       -0.13274172 -0.111669704 -0.08210668 -0.07904556
000160 10 99 f8 bd ad b3 11 3e 68 2b 02 bd fa 78 e8 3d
       -0.12138569 0.14228697 -0.031779677 0.113511994
000170 ab 5c 4c 3d b0 d9 0a be 9d f2 e2 3d 9d 76 34 bd
       0.049893063 -0.13559604 0.11081431 -0.04405843
000180 f3 6a 7b bd 90 1b 08 be 1a fd 17 be 9f cd 63 3d
       -0.06138129 -0.13291764 -0.14842644 0.055616017
000190 0d ef 72 bd e5 59 7f 3d b0 90 06 be 5a 79 f3 3d
       -0.059310008 0.06234159 -0.13141131 0.1188838
0001a0 35 ba f0 bd f7 81 e2 bc 96 fe 08 3d 06 4d a9 3d
       -0.11754266 -0.027649863 0.033445917 0.08266644
0001b0 2b 60 04 3e 00 5f 15 3e 34 04 02 be 94 10 25 3d
       0.1292731 0.14587021 -0.12696916 0.040299013
0001c0 7a 0e 8d bd 03 c0 8f bc 30 76 f5 bd c7 5a 15 3e
       -0.06887527 -0.017547613 -0.11985433 0.1458541
0001d0 54 25 11 be ed 44 af 3d f6 2d a6 3d 6e 7d 9d 3d
       -0.14174396 0.085580684 0.08114235 0.076899394
0001e0 86 7e 7d bd da 52 2e 3e 1f 40 76 3d 1e 7b 39 3d
       -0.06188824 0.17023793 0.060119744 0.04528343
0001f0 99 b7 04 be 8f f5 9f 3d 4a 8f 2d 3a 82 fc 8f bd
       -0.12960662 0.078105085 0.0006620778 -0.07030584
000200 ed 2b 0e 3e 8f 3a 12 3d 3d ac 82 bd 04 fc a5 bd
       0.13883944 0.035700377 -0.06380508 -0.08104709
000210 fa 93 fa bb 41 1c b7 3d cc 99 27 bd a0 1d bb bd
       -0.0076470347 0.08940936 -0.040918157 -0.0913651
000220 65 9a 60 bd 69 71 fc bd 77 61 4c 3d 49 8b 18 3e
       -0.054834742 -0.12326319 0.049897637 0.14896883
000230 7f 5e 1a be 68 54 18 3d 91 69 a9 3d c5 dc ed 3c
       -0.1507511 0.03718987 0.08272088 0.029035935
000240 a7 93 69 bd bf 2a ab 3d 8c 56 ac 3d d3 40 75 3d
       -0.057025578 0.083577625 0.08414945 0.059876274
000250 8b 81 e6 bc dd ad 2d bd 97 55 8c 3c c1 ba e7 bc
       -0.028137943 -0.042402137 0.017130656 -0.028287293
000260 53 74 43 bd 81 9f d1 3d b3 ea 0c 3e fa b5 0f 3c
       -0.047718357 0.10235501 0.13761406 0.008771414
000270 bf d9 12 bd 6e 6a aa bb 60 10 8c bc a2 29 fe 3c
       -0.03585219 -0.0052006757 -0.017097652 0.031025711
000280 e0 31 19 3d 34 ac 1c be de 52 88 bd c2 01 1e 3e
       0.03740108 -0.15300065 -0.06656431 0.15430358
000290 5e 03 8a 3d 72 e4 7c bc 11 b5 a8 bd 47 b9 b5 bd
       0.067389235 -0.015435325 -0.08237661 -0.088732295
0002a0 47 e1 12 be 74 8d 74 bd bd 7e 5d 3d 6b 1a d1 3d
       -0.14343749 -0.059705213 0.054075945 0.10210117
0002b0 00 69 97 3d ff f0 10 be 58 36 c5 bd e4 04 cf bc
       0.07393074 -0.14154433 -0.09629506 -0.025270887
0002c0 6e 5d 24 3e c3 11 b8 3c 48 fe 48 bd bf ac 87 3d
       0.16051266 0.022469407 -0.049070626 0.066247456
0002d0 80 d0 79 bd 3a 43 d4 bd 6b 5c ef 3d b3 1d 95 bd
       -0.060989857 -0.10364385 0.11687549 -0.07281055
0002e0 ad 7b 03 bd 89 1e 23 be 75 7b db 3d e7 75 f8 3d
       -0.03210037 -0.15929617 0.10716907 0.12131863
0002f0 3b 09 6f 3d 72 aa e4 bd 6a d4 21 be 8a 2c 05 be
       0.058358412 -0.11165322 -0.15803686 -0.13005272
000300 f8 8b f4 3d 72 72 9d 3d d6 5a 02 3e 96 cc ab 3d
       0.119407594 0.07687844 0.12729964 0.08388631
000310 a6 fb bb 3c b1 d0 9c bc 8c 4f 0e be 56 1b 1e be
       0.022947144 -0.01914248 -0.13897532 -0.15440115
000320 0f 81 2b be f1 0d 46 3d 09 c9 be bd bf ac 8f bd
       -0.1674845 0.04835314 -0.09315688 -0.070153706
000330 eb f3 df bd 6e 0a 32 bd 2a ae 00 be 61 48 d6 bd
       -0.109351955 -0.043466978 -0.12566438 -0.10463024
000340 95 36 12 3d 37 ed 42 bd fa 73 ca 3d e3 69 52 bd
       0.035696585 -0.047589507 0.09885402 -0.051370513
000350 5d 91 f0 bd 7f 72 e7 bc 21 f8 9e bd cc 44 55 bd
       -0.11746476 -0.028252838 -0.077621706 -0.052067563
000360 91 04 14 be 0a d9 92 3d a5 50 e4 bd 66 d4 a4 3d
       -0.14454867 0.07170303 -0.11148194 0.08048324
000370 ab d0 94 3d f6 4a ea 3d 86 8c fb bd eb da eb 3d
       0.07266363 0.11440079 -0.12282662 0.11516365
000380 0b 09 9b bd f1 60 73 3d df fc 19 3e 57 00 b9 bc
       -0.07570084 0.059418622 0.15037869 -0.02258317
000390 f9 4f a2 ba 37 01 17 bd d7 e9 08 be 6a 61 9d 3d
       -0.0012383453 -0.036866393 -0.13370453 0.07684596
0003a0 f4 c6 22 be db a0 a8 3d f1 5f f5 3d 26 7f 24 3e
       -0.15896207 0.08233806 0.1198119 0.16064128
0003b0 1a fc e9 bc f0 45 fa bd 25 cd 39 3d c2 e6 c7 3d
       -0.028562594 -0.12220371 0.045361657 0.097608104
0003c0 08 9d 19 be a8 e9 44 bd 8d 62 c9 bd 40 15 98 bb
       -0.15001309 -0.048074394 -0.0983325 -0.004641205
0003d0 a7 78 b3 bd 08 e4 30 bd 6b 37 50 bd a8 53 12 be
       -0.08763247 -0.043186218 -0.0508341 -0.14289725
0003e0 25 8a 06 3e 52 76 09 3e ad c6 cd bc 16 63 95 bc
       0.13138635 0.13424042 -0.02511915 -0.018235724
0003f0 00 d7 85 bd 89 13 14 be d8 90 10 be 2a e7 88 3d
       -0.065351486 -0.14460577 -0.14117754 0.06684716

a2c_network.actor_mlp.0.bias f4 [256]
000000 e6 c0 7a 3c ea 01 21 bd 86 d6 d0 bc 00 cc 02 3d
       0.01530478 -0.039308466 -0.025492918 0.03193283
000010 4a cf 14 bc bb f3 fa bc 00 6e 2a 3b 5c 4f f3 3c
       -0.009082625 -0.030633798 0.0026005507 0.029700927
000020 83 2f 60 3b 0d bb 13 3d 0f fd 43 bc 90 ac 5e 39
       0.0034208007 0.036067057 -0.011962189 0.00021235854
000030 4b d0 9b bc dc 30 b7 3c 4b 05 40 bd d4 95 16 bd
       -0.01902022 0.022362165 -0.046880048 -0.03676398
000040 4f 2f 94 3c 76 8d f5 3c 8f 64 64 3c 13 f3 99 bc
       0.018088965 0.02997468 0.013939991 -0.018792665
000050 ec 78 a3 bc 3f 53 cf ba 95 de 9d bc 7e 8a 13 bc
       -0.019955121 -0.0015817656 -0.019271174 -0.009005187
000060 85 63 62 bb 03 f2 d7 bc 5a a7 98 3c d6 84 ae 38
       -0.0034544182 -0.026360517 0.018634487 8.321709e-05
000070 ce ea 12 3d fd 9d 48 3c b3 74 95 3c 41 a1 a1 3c
       0.03586846 0.012244699 0.018244123 0.019730212
000080 26 fa 22 3d e5 e0 2b 3d 95 68 98 3c 02 53 f5 bc
       0.03978934 0.041962523 0.018604556 -0.029946808
000090 a9 79 f7 bc 39 01 2e bd dc 7c c5 3c bb 78 7d bc
       -0.03020938 -0.042481635 0.02410739 -0.015470679
0000a0 5c 2d c2 bc 50 cd d8 bb 4b a5 2b bd e6 68 29 bc
       -0.02370327 -0.006616272 -0.041905683 -0.010339951
0000b0 3e 9e 18 bd 4e 14 3f bc c8 c2 bb bc a3 f7 62 bc
       -0.037260287 -0.011662556 -0.022920027 -0.0138529865
0000c0 0f cc 29 bd 5a 50 bc bc 0d a5 ca bc 08 80 e3 3c
       -0.04145437 -0.022987533 -0.024736905 0.027771011
0000d0 05 20 d5 bb 4c 85 ee 3c 11 6e 27 bd 2b f7 dd 3b
       -0.006504061 0.029116295 -0.040876452 0.0067738495
0000e0 af c4 3d bc aa 73 3a bc ea 53 84 bc 93 de 4e bd
       -0.011582538 -0.0113801155 -0.016153295 -0.050505232
0000f0 33 ef 20 bd d2 02 ce bb 9b 51 32 bc 96 1b dc 3c
       -0.03929062 -0.0062869573 -0.010883714 0.026868623
000100 1e fc 03 bd e3 da 2f 3d cc 73 10 bd a5 de 0f bd
       -0.03222286 0.042933356 -0.035266683 -0.03512444
000110 0d 22 0e bd eb a3 3d bc 97 49 07 bc b7 0b b3 bc
       -0.034700442 -0.011574726 -0.008257291 -0.021856172
000120 11 a3 1c 3d 80 01 09 bc e3 af c2 bb 8a ab a8 bc
       0.03824145 -0.008362174 -0.0059413775 -0.020589609
000130 df bc 48 3d 2b 32 2d 3d e9 d5 2d bd d3 93 16 bd
       0.049008247 0.042284172 -0.04244033 -0.03676207
000140 58 9d 16 bd 87 e7 cc 3c 76 bf 88 3c a9 fa 12 3d
       -0.03677115 0.025012745 0.016692858 0.03588358
000150 ab 28 e6 bb 59 f5 96 bc a9 b1 d4 bc 91 1d d0 bc
       -0.007023891 -0.018427538 -0.025963621 -0.025404723
000160 d5 21 d8 bc fb bf 9e 3c 97 c4 13 bd a8 33 3b bd
       -0.02638332 0.019378653 -0.036076155 -0.04570356
000170 ae f7 e9 3c 83 fb e9 3c b9 21 00 3d 34 e8 95 bc
       0.028560486 0.028562313 0.03128216 -0.0182992
000180 48 d0 a2 bc 31 f5 18 bc f5 c7 80 bc 6b 7f 23 bc
       -0.019874707 -0.009335802 -0.015720347 -0.009979109
000190 1a f3 f4 3c 04 e4 8a 3c ec 06 8f 3b 0f f3 a8 3c
       0.029901076 0.01695443 0.004364839 0.020623712
0001a0 2c 33 09 3c 7a 23 b6 bc fa d7 ce 3c d3 83 c9 bc
       0.008374017 -0.022233713 0.02524947 -0.024598991
0001b0 e8 a0 69 3d 7f 31 56 3b 7e 10 00 bd dc dd cc bc
       0.057038218 0.003268331 -0.03126573 -0.025008135
0001c0 2b e7 11 ba 8a 72 0d 3d 9c 61 36 bd 14 04 da 3c
       -0.0005565758 0.03453306 -0.04452668 0.026613273
0001d0 ec df 2c 3d a7 7e b8 bc 62 d9 e3 bb cf 61 33 bc
       0.042205736 -0.02252133 -0.0069534043 -0.010948612
0001e0 3b a6 b6 3c b5 3a cc bc 1b ab cc bc d2 cb eb bc
       0.022296062 -0.024930337 -0.024983933 -0.028783713
0001f0 d2 79 00 3b 21 17 0f bd ef 96 9f 3c 83 ff 0a 3d
       0.001960386 -0.034934167 0.01948115 0.03393508
000200 59 dd bc 3c 78 e1 de 3c ae bf 14 bc 7d a5 8b 3c
       0.023054766 0.027207121 -0.009078903 0.017046684
000210 76 41 32 bc 27 57 32 bc e1 53 0d bc eb c9 0b 3d
       -0.010879865 -0.010885037 -0.008625955 0.03412811
000220 c5 c8 43 bc c0 ac 1b bd e3 1e 06 bd c1 40 1c 3d
       -0.011949723 -0.038006544 -0.0327443 0.03814769
000230 1a e9 98 bb f4 36 19 3d 52 79 13 3d 9d 10 06 3d
       -0.0046664597 0.037405923 0.036004372 0.032730687
000240 3b fa 55 3c df 58 14 3c 63 5d be b9 46 5f 6c bc
       0.013060148 0.009054392 -0.00036309203 -0.014427012
000250 12 c8 09 3d 3a 45 5a bb 17 55 a9 3c 57 09 87 3c
       0.033638068 -0.0033305422 0.020670457 0.016483946
000260 11 3c c7 3b 69 fd 36 bd e0 6f d6 3a 3b d3 33 3c
       0.0060801585 -0.044675265 0.0016360246 0.010975654
000270 8d d1 22 bd 50 3d 5e 3c 77 7c d3 bc 3f 9a ed bc
       -0.039750624 0.013564423 -0.025816185 -0.029004214
000280 30 12 4d bd b1 3b 6a bc 4a 86 25 bd 70 89 12 3c
       -0.050066173 -0.014296458 -0.04041127 0.0089439005
000290 9e 22 bf bc 35 88 4d 3d b0 6d 31 bc cd ba d6 bc
       -0.023331936 0.050178725 -0.010829374 -0.02621212
0002a0 72 dc 9b 3c 9c 47 3c 3c 68 9b 0a 3d 75 93 17 bc
       0.019026015 0.011491682 0.033839613 -0.009251465
0002b0 de d1 87 bc 13 53 e5 3c d4 06 ce 3b 4e f1 03 bd
       -0.016579565 0.027993714 0.006287435 -0.032212548
0002c0 93 98 0e 3d 11 08 da bc 43 85 78 bc fe 02 1b bd
       0.034813475 -0.026615174 -0.015168491 -0.03784465
0002d0 05 87 a6 bc f6 4b 2b 3d 75 30 90 3a f9 0c a8 3c
       -0.020328054 0.04182049 0.001100077 0.020513998
0002e0 2f df 79 3c 48 20 2e 3d 70 4b d2 bb eb b0 1f bd
       0.015250965 0.042511255 -0.0064176843 -0.03898708
0002f0 8b 25 80 bc 98 7a 9e 3c f8 d7 26 3d ef 87 25 bd
       -0.015642902 0.019345567 0.040733308 -0.04041284
000300 b4 56 0f 3d b3 a0 ae ba 46 02 0d 3d 18 bd 64 3c
       0.034994796 -0.0013323039 0.034425996 0.013961099
000310 ec 46 1c 3d 3d 2a dd bc 36 e6 07 bc 9c 65 1e bd
       0.038153574 -0.02699768 -0.008294633 -0.03867112
000320 50 70 8b 3c 29 ba bf 3b f8 f5 10 3d 24 09 8e 3c
       0.017021328 0.0058510494 0.035390824 0.017338343
000330 d9 f8 4a 3b 52 48 e3 bc 72 08 bf bc b0 bc c8 3c
       0.0030971079 -0.027744446 -0.023319457 0.024504036
000340 6f bc 49 3b 87 8b bf ba 9b bf 6e 3c a5 81 fb bc
       0.0030782481 -0.0014613726 0.0145720495 -0.030701468
000350 69 cf 7b bc a7 c2 00 bb 26 59 d3 3c 80 6d 6e 3c
       -0.015369275 -0.0019647272 0.025799345 0.014552474
000360 26 d5 db bc c2 84 ff bc 03 0a 30 3d c0 4e e8 3c
       -0.026835036 -0.031191234 0.042978298 0.028357863
000370 2e f2 a4 3c 2b 48 05 bc a7 53 8f 3c 51 f4 b3 bc
       0.020135012 -0.008134882 0.017495943 -0.021967085
000380 ca f9 5b 3c 0c e6 a6 3b 65 ca 83 bc 3e 58 c8 39
       0.013426254 0.0050933417 -0.01608772 0.00038212718
000390 47 d5 8d bb 82 6d 98 bc 83 c6 10 3c 09 b3 08 3c
       -0.004328403 -0.018606905 0.008836391 0.008343467
0003a0 6f 73 2b bd 4e 0b 1c bc 5d ac 00 bc 8c 82 ef 3c
       -0.041858133 -0.00952418 -0.007853595 0.029237054
0003b0 8c e5 6b 3c 0a fd cf bb e9 cc bf 3c ea 1b 13 bd
       0.01439799 -0.0063473033 0.023413138 -0.035915293
0003c0 d7 86 af 3c c4 e6 55 bc 8d d2 3f 3d a0 a1 1b 3d
       0.021426601 -0.013055507 0.046831656 0.037995934
0003d0 23 64 d1 3c bb 8d 1f 3d 0f 57 08 3d d4 ae b6 3c
       0.025560444 0.038953524 0.03328615 0.022300161
0003e0 a0 a2 e5 bc 89 b8 15 3d b5 5f 23 bb ca 79 02 3d
       -0.028031647 0.03655294 -0.0024928872 0.03185443
0003f0 7e 9a 0d 3c d1 8f 36 3d 38 38 f0 3b 7d a0 cb bc
       0.008642791 0.044570748 0.0073309205 -0.0248568

a2c_network.actor_mlp.2.weight f4 [128, 256]
000000 5d b8 0e 3d 89 25 af 3b f7 04 ff 3c ae 10 69 bd
       0.03484379 0.0053450507 0.031130297 -0.056900673
000010 84 ba 24 bd 57 d0 a4 3d 8f 24 3f bd 9c 24 8c bd
       -0.040216938 0.0804755 -0.046665724 -0.0684292
000020 3e aa d2 bc 43 22 cf bd 55 d9 e9 bc f4 40 67 bd
       -0.025715943 -0.10113957 -0.028546015 -0.05645843
000030 6e 33 fc 3c a7 58 a8 bd df 57 07 bd b0 95 2a bc
       0.030786242 -0.08220034 -0.033042785 -0.010411665
000040 83 51 96 bd ef 7e 6a 3a 73 72 df bc ee 42 22 3d
       -0.07339766 0.0008945306 -0.027276253 0.03961461
000050 3c ef 7a 3d cd 35 58 bd a6 f5 02 bc 70 28 d4 3c
       0.061263308 -0.052785683 -0.007993137 0.025898188
000060 c3 74 14 3d 9b 67 07 3d ba d2 58 bc 6d 92 29 bc
       0.036244165 0.03305779 -0.013233835 -0.010349852
000070 a4 73 94 bd 8c b5 ba bd 0b ec 7f bd 85 e4 9e bd
       -0.07248619 -0.091166586 -0.062480967 -0.077584304
000080 64 b6 d2 bd e3 f7 6d bd 0c c0 8f 3c e3 51 58 3d
       -0.102886945 -0.05809773 0.01754763 0.05281247
000090 c1 05 1b 3d c9 f9 16 3c a5 5f 4d bc 3f 0c 21 3d
       0.037847284 0.009214827 -0.01253501 0.03931832
0000a0 1f a6 ce bc 25 74 7e 3d 79 11 41 3d 65 b9 90 3c
       -0.025225697 0.062122483 0.047135804 0.017666528
0000b0 64 ee b3 3d fa 34 b6 3c da 26 fb bc ea 7b 81 3d
       0.08785704 0.022242058 -0.030658174 0.06322463
0000c0 8b b6 00 3d fb b8 8a 3d 66 8d 1d bc 31 be 35 bd
       0.031424087 0.067735635 -0.009616232 -0.044370834
0000d0 8f d1 44 3d 2e eb f1 bc 86 3b 8a 3d 8f a7 03 bb
       0.048051413 -0.029531088 0.067496344 -0.0020088886
0000e0 ca e5 18 3d b7 7f 51 bd 93 85 01 3c fb 8e 88 3d
       0.03732852 -0.05114719 0.007905382 0.06667896
0000f0 2e 99 25 3c ae 21 90 3d e9 18 75 3c 96 cf 82 3c
       0.010107322 0.07037674 0.014959552 0.015968125
000100 16 68 4b 3d 2c 72 e3 bc 71 d3 10 3d 8c e5 a8 3d
       0.04965981 -0.027764402 0.035357896 0.082469076
000110 66 97 04 bd ed 7a 93 bd 68 0f a2 3d 2c 67 d3 bc
       -0.032370947 -0.072011806 0.07913095 -0.025806032
000120 01 90 22 bd 76 ba 85 3c 66 04 e9 bb dd 9a 11 bc
       -0.039688114 0.016324263 -0.00711112 -0.00888702
000130 2f 44 fa bc b5 95 d6 ba 87 df 8c bc 02 ba 5c 3d
       -0.03055009 -0.001637152 -0.01719643 0.05388833
000140 45 54 ee 3c 8a 21 68 bd 31 d8 7d bd d4 81 76 bd
       0.029092917 -0.05667261 -0.061973754 -0.060182407
000150 d8 ff 59 3d e4 b5 71 bc 66 44 4f bd e0 17 4a 3c
       0.053222507 -0.014752839 -0.05060234 0.012334794
000160 64 b1 84 3d d8 6e aa bb f2 b8 d9 3d ff 5f bf 3d
       0.06479147 -0.005201202 0.10630979 0.09344482
000170 42 6d 93 3c 51 d3 9d bc 3b 6c 7d bd 6a 96 3b bd
       0.017996434 -0.019265803 -0.061870795 -0.045797743
000180 f3 32 b7 bb e0 6b 81 bd 8b 6e ec 3c 61 fc 19 3c
       -0.0055907904 -0.06319404 0.028861305 0.009398551
000190 ca f0 44 3b e3 78 b0 bd 66 0f 43 bd b8 64 58 bc
       0.0030050748 -0.08616807 -0.047622107 -0.013207607
0001a0 1e c3 3f 3c 47 00 c1 3d b6 11 e6 bc f7 9d 7d 3d
       0.011704234 0.09423881 -0.028084617 0.061918225
0001b0 7f e5 22 bd 04 bd ce bb 42 6b a1 3c 64 2d a4 bc
       -0.039769646 -0.0063091535 0.019704465 -0.020041175
0001c0 93 d5 23 bb 0f 04 95 bd e4 46 b9 3c d8 93 8a bd
       -0.0024999126 -0.07276165 0.022616811 -0.0676648
0001d0 f7 fa 8f bd 24 21 c7 bc 06 90 4f bd a1 09 62 3c
       -0.070302896 -0.024307795 -0.05067446 0.013796241
0001e0 a4 d8 ac bd de ac 93 3d f3 52 04 bb 29 0c 2d 3d
       -0.084397584 0.07210706 -0.0020191043 0.042247925
0001f0 92 0b 7b bd c2 50 43 3d 82 84 ae bd 9e 24 82 bc
       -0.06129033 0.04768444 -0.085213676 -0.015886601
000200 6e 5a 3f 3d c0 78 b0 bd 2f 14 d0 3c 7a bd 9a bc
       0.0467171 -0.08616781 0.02540025 -0.018889178
000210 ef 52 1f bd 78 93 73 bc c6 6d 36 3d 09 03 70 bd
       -0.03889745 -0.014866702 0.04453828 -0.058596645
000220 d2 98 bd 3c 95 e7 cd 3c 4e 18 a2 3d 1c 2f 94 bc
       0.02314416 0.025134841 0.07914792 -0.01808887
000230 3d fc 8a 3c 3b e4 0d bd 3d 5f 48 3d c5 da c2 bd
       0.01696598 -0.034641486 0.04891895 -0.09514383
000240 4d 11 92 bc 34 79 fb bb 93 8b f8 bc 81 b4 5b 3c
       -0.017830515 -0.0076743606 -0.030339992 0.013409735
000250 6b 56 92 bb 49 5e a4 3c c7 86 20 bd f7 2d a5 3c
       -0.004465868 0.02006449 -0.039191034 0.02016352
000260 9e bf 87 bd 5f d5 90 3d 13 72 8a bd d6 9d 52 bd
       -0.06628345 0.07071947 -0.06760039 -0.051420055
000270 cd 97 6e 3d da 93 d3 bc ad 65 57 3d da 05 78 3d
       0.058250237 -0.025827337 0.0525872 0.060552455
000280 25 a6 9a 3d 6a 8d e3 3c ea c9 ea bc 27 32 bb 3a
       0.07551221 0.027777392 -0.028660733 0.0014281914
000290 8b 64 93 3c a1 9a b3 bd c9 e2 d9 3c a2 66 85 3d
       0.017992279 -0.087697275 0.026597397 0.06513716
0002a0 af 1d f3 bc a2 76 8a bd c4 a8 af bd 6c cf bc 3a
       -0.02967724 -0.06760909 -0.08577111 0.0014405078
0002b0 c2 43 08 3d 7b 6d 0e bd 06 12 da 39 56 d6 09 3c
       0.033267744 -0.034772377 0.0004159363 0.008412918
0002c0 6a fd 22 3b b1 b9 75 3d 7e e4 f0 bc de 4d 7b 3a
       0.0024870285 0.059991542 -0.029405829 0.0009586493
0002d0 7b 93 4c 3d ec ed 9a bd 8a 3e 91 3d 96 1d 45 bc
       0.049945336 -0.07564911 0.070920065 -0.01203098
0002e0 9f b5 9d 3d 8e ac 2d bd 97 5e ad bc cf 50 d2 bc
       0.07700657 -0.04240089 -0.021163268 -0.025673298
0002f0 de 31 e7 3c 44 65 bb bc cc 0a 1f bd ec dc 6c 3d
       0.02822202 -0.022875436 -0.038828656 0.057827875
000300 11 9c 9f bd fc 4d 18 bd 38 c7 3e 3c 37 7e 13 bd
       -0.07793439 -0.037183747 0.011644177 -0.03600904
000310 38 83 8b bd 51 55 86 3d ab 07 25 bd 1d 0b 3b 3c
       -0.06812137 0.065592416 -0.040290516 0.011416224
000320 ea 57 61 bd 99 61 1d 3d 0b 7f 93 bc fb 62 32 3c
       -0.055015482 0.038423155 -0.018004915 0.010887857
000330 fd 22 9e 3c 83 f5 61 3c 9f 70 1b bc 65 04 17 3c
       0.019303793 0.013791445 -0.0094873 0.009217356
000340 e1 b4 3b bd 89 92 81 3d 77 b6 66 bd 31 75 ff bc
       -0.045826796 0.063267775 -0.056326356 -0.03118381
000350 c6 43 0e bd 2b 23 0d bd fb 42 ec bc 8a 2b e7 bc
       -0.034732603 -0.034457367 -0.028840533 -0.028219003
000360 d9 39 c2 3c e1 3d a3 3d 94 3d 10 bd 6c 6a 9a bc
       0.023709225 0.07970787 -0.035214975 -0.018849574
000370 a6 30 0f bd f9 89 38 3d 94 a2 0a 3d 81 0e e8 3b
       -0.034958504 0.045053456 0.033846453 0.007081807
000380 4f 23 56 3d 8d 33 2b 3b 6b 57 d6 3c 2b 1d 57 bd
       0.052279767 0.0026123256 0.026164731 -0.05251805
000390 c9 03 2e bc 5b cf 8e 3d 6f f7 eb bc 96 89 a8 bd
       -0.01062102 0.06973144 -0.028804509 -0.082293674
0003a0 5b 41 03 bb 07 a3 06 3d 42 79 37 b8 53 ff 1b bc
       -0.0020027969 0.03287032 -4.374353e-05 -0.009521323
0003b0 11 4c 89 3c 76 b2 ec 3b 65 8b 87 bd ab 1f 3c 3d
       0.016759904 0.0072234226 -0.06618384 0.04592864
0003c0 ff 5a 9e 3b 69 97 78 bc 31 37 f9 3b 68 4f 8f bc
       0.004832625 -0.015172818 0.0076054563 -0.017493919
0003d0 a9 4a a3 bc 94 bd 6c 3c 1b d9 71 3c 23 18 62 3d
       -0.019933062 0.014449496 0.014761235 0.0551988
0003e0 d9 b6 a0 3c 59 0b 6c bc 61 b6 3b 3d bf 9c 98 bd
       0.019618439 -0.014407002 0.045828227 -0.07451772
0003f0 bd 9c c7 3c f3 21 fe bb 43 4b b7 3c aa d3 b5 bc
       0.02436673 -0.007755512 0.022374755 -0.022195656

a2c_network.actor_mlp.2.bias f4 [128]
000000 a1 55 40 bd c7 a1 3e 3c 75 8b c0 3c df 5e 48 3d
       -0.046956662 0.01163525 0.023503998 0.0489186
000010 99 e9 37 bd b1 36 d9 bc 36 5e 47 bd 2b 4a 0d 3d
       -0.04490051 -0.026515337 -0.04867383 0.03449456
000020 ce e6 6a bc d0 12 94 3c 54 62 97 3b 05 89 1b 3d
       -0.014337255 0.018075377 0.004619876 0.03797247
000030 1a 16 dd 3c 1d 25 36 bd b2 9d 57 3d 75 73 56 3d
       0.026988078 -0.044468988 0.052640624 0.052356202
000040 22 8b 45 bd 94 81 a8 bc f6 19 2b 3d 64 e1 c9 bc
       -0.04822839 -0.0205696 0.041772805 -0.024643607
000050 18 cf dc bb 91 41 3e 3d c2 3b 76 3c fb e8 47 3d
       -0.0067385547 0.046449248 0.015028896 0.048806172
000060 f8 d5 70 bc 1a d9 3a 3d a2 d8 37 bd a9 e7 4c bd
       -0.014699452 0.0456172 -0.04488433 -0.050025616
000070 58 01 5a 3d 9a 2e 9b bc 6c 58 62 bd 88 ee 90 bc
       0.053223938 -0.01894312 -0.055260107 -0.017691866
000080 98 6c 07 3d 5d 92 8e bc bc 8d 8b bc 13 f5 4b 3d
       0.033062547 -0.017403776 -0.017035358 0.049794268
000090 f1 cb 63 bd 8a 8d 2a bc 68 f7 44 3d 43 e7 41 bd
       -0.055614416 -0.010409722 0.048087507 -0.04733969
0000a0 02 70 7d bc 23 0d 1a bd 13 8f 4d bc d6 45 4f bd
       -0.015468599 -0.037610184 -0.012546319 -0.05060371
0000b0 ae 2c 65 3d 77 cb f1 3a be bd 3c bd 0e 03 10 3d
       0.055950813 0.0018447478 -0.04607939 0.035159163
0000c0 88 32 7f 3c da 6c c7 bc 5a 5b 86 bc 81 da 60 3d
       0.015576012 -0.024343897 -0.016400982 0.05489588
0000d0 ec 86 5d 3c 22 13 2f bb 98 22 32 bd 34 2b 29 3b
       0.013520937 -0.0026714285 -0.043490022 0.0025813105
0000e0 5f c6 31 3d 1a 0f ba bc 68 ba 52 bd 10 2f cb 3c
       0.043402072 -0.02271228 -0.051447302 0.024802715
0000f0 2a 71 e1 3b cf 3f 8f 3c 10 c7 e9 3b 8f f7 32 3d
       0.0068799453 0.017486481 0.007134326 0.04369312
000100 ea dc f0 3c 12 ee 21 3d ee 45 04 3d 58 7c a5 3c
       0.029402215 0.039533682 0.032293253 0.020200893
000110 9c 75 00 bd 46 eb a6 3c 1e 65 ae 3c e4 df a7 3c
       -0.03136216 0.020375859 0.02128845 0.020492502
000120 e8 0b 39 bd e2 bd 49 bd 6f 30 9e 3c d2 a7 bf 3c
       -0.04517737 -0.049253352 0.019310204 0.023395453
000130 7f 7c 25 3c ac d4 76 bb c8 cc 4b 3d 5c 32 2c bd
       0.010100483 -0.0037663383 0.04975584 -0.042040214
000140 cc b6 bd 3c d9 f5 cf bc 8b 6f f6 bc a2 12 ff 3b
       0.023158453 -0.025385784 -0.030082485 0.0077842036
000150 eb e8 46 bd df f1 4b 3d a8 0c 59 bd b3 0f c8 bc
       -0.04856197 0.049791213 -0.052990586 -0.024421548
000160 53 9a 1f 3d f5 a6 73 3c 58 c0 56 3d 0f 62 30 bd
       0.038965534 0.014871349 0.052429527 -0.043062266
000170 ae 7a fc 3c 82 46 2c 3c 0f f8 de bb ac f2 2e bd
       0.030820217 0.010514857 -0.006804473 -0.0427119
000180 2a 71 14 3d 17 7d c4 bc 9a 64 3d 3d 1f dd 2b bd
       0.036240734 -0.023985429 0.04623852 -0.041958924
000190 a5 7a b6 bc 02 08 d6 3c 15 4c 11 3d 34 05 d7 3c
       -0.022275278 0.026126865 0.035472948 0.026247598
0001a0 9d b0 4f 3d a4 45 57 3d ea 8a 24 3d 6a cf 43 bd
       0.05070554 0.05255665 0.04017154 -0.047805227
0001b0 53 43 1d bd 94 5b 08 bd e0 05 64 3d 39 a5 35 bd
       -0.038394284 -0.03329046 0.055669665 -0.04434702
0001c0 9a a4 18 bd de 5d d7 3b 0f 24 25 3b 53 de 58 3d
       -0.03726635 0.006572469 0.0025198495 0.0529464
0001d0 25 1a ae 3c 98 2a a0 3b f0 28 a1 bc b7 ef ca bc
       0.021252701 0.00488789 -0.01967284 -0.024772508
0001e0 91 d6 24 bd d7 ef 40 bd 53 54 d5 3c e1 7c 0b bd
       -0.04024369 -0.04710373 0.026041185 -0.03405464
0001f0 d4 31 88 bc 69 36 25 3b 24 09 01 3d 3c f8 8b 3c
       -0.016625322 0.0025209433 0.031502858 0.01708614

a2c_network.actor_mlp.4.weight f4 [64, 128]
000000 57 7e 02 3d 8e 55 6c 3a 8c 18 c0 bc 49 e2 ad 3d
       0.03185877 0.0009015434 -0.023449205 0.08490426
000010 f1 e5 18 3d bd 4c cf bc 03 e5 18 bd 79 99 4a 3c
       0.037328664 -0.025305146 -0.037327778 0.012365692
000020 47 b2 ac bd fb 64 bf 3d 16 e3 71 bd f4 b1 8c 3d
       -0.08432441 0.09345432 -0.059054457 0.06869879
000030 3a eb b4 3d 4e 88 21 3d ee 45 b3 3d e7 cf 62 bd
       0.088339284 0.03943663 0.087535724 -0.055374052
000040 98 d8 78 3c 90 af 44 3d ee 21 93 bd 40 04 c7 bd
       0.015188359 0.048018992 -0.07184206 -0.097176075
000050 cd 67 72 3c 8a a8 99 3d 41 10 77 3d 00 b3 0b 3d
       0.014795256 0.075028494 0.060318235 0.034106255
000060 dc 14 60 3d 7c 44 5d 3d b2 bf 91 bd 38 f1 a4 bd
       0.054707393 0.05402039 -0.07116641 -0.08053821
000070 9b f3 98 3d 55 00 66 bd 8a 11 7a 3b d8 d1 39 bd
       0.07468339 -0.05615266 0.0038157427 -0.04536614
000080 12 1c b9 3c e0 dd f3 3b 95 c3 9d 3d a6 84 93 bc
       0.022596393 0.007442221 0.0770332 -0.018007588
000090 18 f7 bb 3c 93 d1 30 bd ac 43 2b 3d 69 67 36 3c
       0.022944972 -0.043168616 0.041812584 0.011133053
0000a0 65 9b 87 3d 88 fe 94 bd ac 7e 0e bd ba 75 43 3d
       0.06621436 -0.072751105 -0.034788772 0.047719695
0000b0 3e 0a b1 bd 27 78 2d bd b7 b0 23 3d e3 e5 cd bc
       -0.08644532 -0.042350914 0.03996345 -0.025134033
0000c0 40 97 25 bd 8f cb b7 bc 1d 15 6e 3d c2 f7 fe 3b
       -0.040427446 -0.022435931 0.058125604 0.007781
0000d0 ac df e0 3a f6 22 ae bd b6 18 6c bc 10 5b 33 3d
       0.0017156503 -0.08502762 -0.014410188 0.043788016
0000e0 76 67 a8 bd 64 2f a2 3d e1 bc 07 3a 0a c0 b8 3d
       -0.082228586 0.07919195 0.00051779865 0.090210035
0000f0 cb 05 36 3c 49 f5 90 bd 51 e7 46 3d 48 58 95 bd
       0.01110978 -0.070780344 0.048560444 -0.07292229
000100 96 2a e2 3c d2 87 a3 bb 9b f2 6b bd 0a a1 ea 3c
       0.027608197 -0.0049905563 -0.057604413 0.028641243
000110 fc f9 34 bd c6 44 77 3d fe 52 56 bc 68 a4 7f bd
       -0.044183716 0.06036832 -0.01308131 -0.06241265
000120 38 84 9e bd 4d 32 63 bd 79 5b 76 3d 10 60 cc 3d
       -0.077400625 -0.055467892 0.06014583 0.0997926
000130 34 17 6b 3d 8a 6d 86 bd 06 69 07 3c 9a 17 21 bd
       0.057395175 -0.06563862 0.008264786 -0.03932915
000140 70 49 60 3d f8 28 9d 3d 19 55 a8 3c eb 69 a0 3c
       0.054757535 0.0767383 0.02054839 0.019581756
000150 12 02 88 bc 03 25 17 bd 1b fd 3c bd 3d c5 91 bd
       -0.01660255 -0.03690053 -0.046139818 -0.07117698
000160 f3 f9 e0 3c a7 34 b7 3d 85 9f a8 bc 9e f5 c3 3d
       0.027462935 0.089455895 -0.020583877 0.09568332
000170 8f d5 26 3d fe 79 04 bd 8c 06 87 3d 96 a3 90 bd
       0.04073101 -0.032342903 0.065930456 -0.070624515
000180 3b 2e dd 3c e5 60 87 bd aa 2d 07 3d 9e e9 a2 3c
       0.026999583 -0.06610278 0.033002533 0.019886788
000190 7b c9 7e 3c f1 d3 ae bb 24 a9 6e bd 30 20 40 3b
       0.015550966 -0.005335324 -0.058266774 0.002931606
0001a0 a8 be 31 3d a7 a2 17 bd a3 3c 03 bd e1 5b 93 3d
       0.043394715 -0.03702035 -0.03204025 0.07195259
0001b0 91 7d 15 3c ad c4 3a 3d 4a 6f 1d 3d e7 9d 10 bd
       0.009124176 0.04559772 0.03843621 -0.035306837
0001c0 f3 01 71 bc 2c 9a a3 bd 50 4a 1c 3d 2f 13 68 3d
       -0.014709937 -0.0798839 0.038156807 0.05665892
0001d0 e6 b7 75 bd d1 fb 5c 3d 29 0d 1a bd a4 ec d5 3c
       -0.059989832 0.05395109 -0.037610207 0.026113816
0001e0 8a d3 a9 3c c3 0d 98 3c 8a 47 3d 3d 38 7d 02 3d
       0.020730752 0.01856125 0.046210803 0.0318577
0001f0 c3 fa 85 bd c0 f8 99 bd eb 00 a4 3d a3 39 2b 3d
       -0.065419696 -0.075181484 0.080079876 0.041803014
000200 44 05 df 3b 03 42 e3 3b e6 34 9e bc 6c aa d5 bd
       0.0068060476 0.0069353594 -0.019312333 -0.10432896
000210 9b 9f 94 3d 45 1a 38 bd 18 f6 0a bc 55 b0 5c bd
       0.07257005 -0.044946928 -0.008481525 -0.0538791
000220 f8 e0 b1 3d ca 6d 3a bd 0d aa b8 3c 9b e1 fc bb
       0.086854875 -0.04551486 0.022542024 -0.007717324
000230 f7 c4 79 3d b7 ae d7 3d 78 86 99 3c 16 9a f0 bc
       0.060978856 0.10531371 0.018740878 -0.029370349
000240 ce 59 80 3d 8f 01 84 3c 39 54 a8 bd 99 68 15 3c
       0.06267129 0.016114024 -0.08219189 0.009119176
000250 a8 a3 6c 3d bc 4e b4 bd d0 fd 5f bd 7e 0c 66 bd
       0.057773262 -0.0880408 -0.054685414 -0.056164257
000260 9f 99 82 3d ae 75 af bd 0f 20 42 3c 0a ec 4d bd
       0.06376957 -0.085673675 0.011848464 -0.050273933
000270 55 c6 5e 3d 8f 9b 42 bd 80 c4 44 3d 8a 2e 1a bd
       0.054388363 -0.047511633 0.04803896 -0.03764204
000280 fd e8 2e bd 8c 72 a1 3b 7a 68 07 ba f0 2d 8c bd
       -0.042702664 0.004926985 -0.00051654095 -0.068446994
000290 8e 11 83 bd c3 ce 32 bd ef e5 4c bd c2 4e 81 3d
       -0.06399833 -0.043654215 -0.05002397 0.0631385
0002a0 83 e3 29 3d d6 87 3f bd b5 23 40 bd 1e f4 ae 3d
       0.041476738 -0.046760403 -0.046909053 0.085426554
0002b0 9f 18 bf bd ce 0e 96 3d 7d a8 48 3c 8f cd a8 bd
       -0.09330868 0.073270425 0.012247202 -0.08242332
0002c0 a2 f5 1e 3d 77 8f 95 3d d6 74 31 3d 45 2e 2b bd
       0.038808472 0.07302754 0.043324314 -0.041792173
0002d0 df 71 32 bd 61 76 a0 3a 8a 89 6e bd 2b b4 d1 3c
       -0.043565627 0.0012242311 -0.058236636 0.025598606
0002e0 97 fa 82 bd a4 50 80 3b 90 f5 4f bb 79 c9 33 3d
       -0.063954525 0.003915863 -0.003173206 0.04389331
0002f0 5d c4 ba bd 29 72 7d bd ab 99 35 3d be 2b 33 bd
       -0.091194846 -0.06187645 0.044336002 -0.043742888
000300 08 5b 47 3d 20 ec a1 bd 7f 62 39 3c 27 97 74 3c
       0.0486708 -0.079063654 0.011314987 0.014928616
000310 db 31 d2 3d 3b 0f 49 3d f5 8a b0 3c bd 2b 2e bc
       0.102634154 0.04908679 0.021550635 -0.010630545
000320 dd e5 21 3d 86 9a 93 3d 0a e8 6f bd 0a 53 ca bd
       0.039525855 0.072072074 -0.0585709 -0.0987912
000330 a6 3f d0 bb 83 ce b9 bd c3 4d 68 ba 16 97 53 3c
       -0.0063552437 -0.09072592 -0.0008861685 0.01291444
000340 f0 f0 48 3d f1 63 92 3d 0d eb 91 bd 9a 5b b0 3d
       0.0490579 0.071479686 -0.071249105 0.086112216
000350 65 fc 48 bd 51 1f c7 bd 44 d3 1d bc b0 c8 00 3d
       -0.049068827 -0.0972277 -0.009632889 0.03144139
000360 be 39 74 bc 59 04 b3 bc fe c7 f2 b9 70 8d aa bc
       -0.014906345 -0.021852659 -0.00046306843 -0.020819396
000370 b3 a3 39 bd 77 ce 1a 3d b2 6c 13 3d 4d 41 da bb
       -0.04532213 0.037794556 0.03599233 -0.0066606165
000380 1a 90 b7 3c 9f f4 85 3d f8 40 84 bc 45 a5 91 bc
       0.02240758 0.065407984 -0.01614426 -0.017779002
000390 86 94 8b 3d 82 0a 82 bc 17 04 4f 3d 10 ec 91 3d
       0.06815438 -0.015874151 0.05054101 0.071251035
0003a0 4b e3 cf bd 42 ec 06 bd 37 8a 96 bd 45 c9 e2 3c
       -0.101507746 -0.032940157 -0.07350581 0.027683863
0003b0 52 a1 79 3d 21 3d 24 3d 00 d9 25 bd c3 1b 11 3d
       0.060944863 0.04009736 -0.04049015 0.035426866
0003c0 a0 f3 80 3d 7e 71 3d bd 6c 96 14 3d 20 24 ef bb
       0.06296468 -0.046250813 0.036276266 -0.0072980076
0003d0 ab 14 83 3c 9d f0 95 bc ed e5 46 3d dc 47 44 3d
       0.016001066 -0.01830321 0.048559118 0.047920093
0003e0 ae e7 00 3c b3 24 ad 3c 50 86 ae bd ff c2 b2 bd
       0.007867737 0.021135664 -0.08521712 -0.08728599
0003f0 d5 3e b6 bc dc dd 52 bd d1 18 ad bc 9c df 8e 3d
       -0.022246758 -0.051481113 -0.021129997 0.06976244

a2c_network.actor_mlp.4.bias f4 [64]
000000 70 4c 04 3d 47 cf 11 bd 8c 84 35 bd c8 da 2e bd
       0.03229946 -0.035598066 -0.04431586 -0.042689115
000010 2c 72 1e 3d f7 fa 29 bd 73 ff 80 bc 11 ef 1f bc
       0.0386831 -0.041499104 -0.015746808 -0.009761588
000020 dd dc d0 bc aa be 3c bd 1f ed 39 bd 8f 39 ea 3c
       -0.02549594 -0.04608027 -0.045392152 0.0285919
000030 8a b3 be bc f4 81 36 bd 25 08 36 bd 64 8c 5d 3d
       -0.02327897 -0.044557527 -0.04444136 0.054088965
000040 b0 1c 0a bd e9 70 2d 3d 8e 77 02 3d e6 2b b7 bc
       -0.033718765 0.042344008 0.031852297 -0.0223598
000050 bb 0e 2e 3d 63 ee 39 bd e6 ba d0 bc fa 0c 07 bd
       0.042494517 -0.04539336 -0.025479745 -0.03297136
000060 cd de 59 3d b7 b8 05 bd 78 1f 02 3c 31 31 5b 3d
       0.053190995 -0.03264686 0.007942073 0.05351371
000070 f3 25 0b bd 6c 11 f4 bc 84 6e 64 3d 52 28 f6 bb
       -0.033971738 -0.029793464 0.05576946 -0.007512131
000080 b1 7d 4f 3d 9b 49 1e bd ab 0e 3e bd f6 97 2c bd
       0.050656978 -0.038644414 -0.046400707 -0.04213711
000090 b0 09 f4 bc a1 fd c5 bc 8f c4 0c 3d 0e 17 37 bd
       -0.029789776 -0.024168791 0.03436714 -0.04469972
0000a0 ed a1 4c 3d 3c ae 34 bd c3 a5 0b 3d 66 31 67 3c
       0.049959112 -0.044111475 0.03409363 0.014110899
0000b0 bd eb 5c 3d aa c7 02 3d 17 14 16 3d 45 1c 08 3d
       0.053935755 0.031928696 0.036640253 0.033230085
0000c0 e2 9b 31 3c 0c cf 12 bd e4 b4 5a 3d 02 57 32 bd
       0.010840388 -0.035841987 0.053395167 -0.04354001
0000d0 99 52 ce bc 89 c3 5c 3d ca 19 43 bc c4 af d4 3c
       -0.02518587 0.053897414 -0.011908004 0.025962718
0000e0 3a 80 a1 3c 49 5b de 3c ce a9 2e bd cb b2 01 3d
       0.019714464 0.027143138 -0.042642407 0.03166465
0000f0 e3 10 fa bc e9 dc e5 bc e6 44 15 bd 9b b9 2c bd
       -0.03052563 -0.02805944 -0.03644266 -0.042169195

a2c_network.value.weight f4 [1, 64]
000000 0c f0 6e bd a5 2a a8 3d 90 d5 db 3d 6f 58 12 3d
       -0.058334395 0.08211259 0.10734093 0.035728868
000010 4d 2f d2 bb 73 ec b8 3d 2b df 37 3d 79 b3 b3 3c
       -0.00641433 0.09029474 0.044890564 0.021936165
000020 9c 00 de 3c a7 68 ce 3d 48 47 d4 3d 6c 96 69 bd
       0.0270999 0.100785546 0.10365158 -0.05702822
000030 41 bf f9 3c 1e 42 05 3e d6 92 aa 3d fe ea ab bd
       0.030486705 0.13013503 0.08328788 -0.083944306
000040 9a 90 f7 3d 3d 25 e3 bd cb 50 5c bd ea 87 3b 3d
       0.120881274 -0.11091087 -0.053787988 0.045783915
000050 e4 a2 5b bd 9b 11 87 3d 27 1f e7 3c c1 87 02 3e
       -0.05362214 0.06595155 0.028213097 0.12747099
000060 bb 42 18 bd bd 93 c1 3d 34 4c 54 b9 af 90 02 be
       -0.037173014 0.09452007 -0.00020246283 -0.12750505
000070 e0 6c a0 3d 12 67 cd 3d 94 42 02 be 37 4b 95 3c
       0.07833266 0.10029425 -0.1272071 0.018224342
000080 09 87 51 bd 3f e6 9c 3d 97 51 a4 3d bc ae 36 3d
       -0.05115417 0.076611035 0.080233745 0.044600233
000090 66 6d eb 3d e2 21 f4 3d 99 66 9c bd 15 36 ea 3d
       0.114954755 0.11920525 -0.076367564 0.114360966
0000a0 a2 e2 20 bd 74 db 10 3e 7a 08 d4 bd a0 e9 e5 bb
       -0.039278634 0.14146215 -0.10353179 -0.0070163757
0000b0 e7 44 ac bd e2 13 06 be b3 de 04 be 0a e0 bd bd
       -0.084115796 -0.13093522 -0.12975578 -0.09271248
0000c0 cf 87 9f bc 56 58 a4 3d 3b ab 15 be ec 02 aa 3d
       -0.019473938 0.08024661 -0.146161 0.083013386
0000d0 23 0a a0 3d 94 73 78 bd 93 fb 77 3c 1b d4 57 bd
       0.078144334 -0.0606571 0.015135664 -0.052692514
0000e0 ba 2e eb bc 25 a9 81 bd b6 0b d3 3d 2e 97 7d bd
       -0.028708804 -0.0633109 0.10304968 -0.061911754
0000f0 62 c4 a4 3d df 5d 64 3d 8e 86 e4 3d e0 3e e8 3c
       0.080452695 0.055753585 0.11158477 0.028350294

a2c_network.mu.weight f4 [24, 64]
000000 fb 41 d3 bd e1 47 36 bc bc 36 ab bc 25 56 72 bd
       -0.10315319 -0.011125536 -0.020900123 -0.059164185
000010 73 90 74 bd ca 9a f4 3d be 65 8a 3c 60 c3 8b 3d
       -0.05970807 0.11943586 0.016894218 0.06824374
000020 2a 16 f8 3c c8 84 88 3d 69 14 d8 bd a8 0c 34 bc
       0.030284006 0.06665951 -0.10550768 -0.010989346
000030 7a 69 7e 3d f7 36 cb 3b be c4 1b bd ab ca 4c 3c
       0.06211231 0.0062016207 -0.038029425 0.012499492
000040 72 f5 b3 bd c4 dc 1f 3d 2e 5d 3b 3c 48 07 89 bd
       -0.08787049 0.039028898 0.01143579 -0.06690842
000050 7c 6b 9c 3d 2c ca cd bd 39 92 83 3d a4 75 90 bd
       0.076376885 -0.10048327 0.06424374 -0.07053688
000060 79 df fe bd aa 1a c8 3c 0e 6d b6 bc 7e b5 b5 3d
       -0.12444968 0.024426777 -0.022268798 0.088725075
000070 16 e7 3c bd 70 d3 f5 3d 58 15 02 3d 03 5e 47 3c
       -0.04611882 0.12003219 0.031758636 0.01216841
000080 ad 23 bd 3c c3 6f 26 3d d7 41 9e 3d 3a b1 92 bb
       0.0230883 0.040633928 0.07727402 -0.0044766935
000090 7b cf f9 3d 20 26 bd bd 0c ed 6e bd 5f b7 f7 bc
       0.12197777 -0.092357874 -0.058331534 -0.030238805
0000a0 76 40 ab bd 6a 0c ae bd 95 22 af bd b4 9d 7e 3c
       -0.08361904 -0.084984615 -0.08551518 0.015540529
0000b0 f4 dd 1a bd 06 9f d1 bd 11 da 54 3d bc f2 c4 3d
       -0.037809327 -0.102354094 0.051965777 0.096166104
0000c0 92 6e 36 3d d4 62 95 bd f2 ad e5 3d 6b 31 3b 3c
       0.04453904 -0.072942406 0.11214818 0.011425356
0000d0 1f 8a ba 3b 2c 54 3f 3b 91 34 a3 3d 59 bf 94 bd
       0.005692735 0.0029194457 0.079690106 -0.07263059
0000e0 eb 8f ad bd b6 1b 05 3d 20 65 b0 bd ea 3e 4b bd
       -0.08474716 0.03249713 -0.08613038 -0.049620546
0000f0 f0 0b 89 bc 4d 81 e4 3d 5d d0 09 bd 83 97 ac b9
       -0.016729325 0.11157475 -0.033645976 -0.00032919282
000100 e7 e4 f6 bd 72 6e 48 3d 38 85 fe bd 53 85 a9 bc
       -0.120553784 0.048933454 -0.12427753 -0.020693457
000110 5d 8d 3c 3d ae 33 7b bd 71 79 60 3d dd 31 34 bc
       0.046033252 -0.061328582 0.054803316 -0.010998216
000120 dc e2 94 bd 9d 6e 02 be 6e b5 c4 3d e5 14 ec bd
       -0.072698325 -0.12737508 0.096049175 -0.11527423
000130 a3 d3 95 bd 28 da 18 3d d7 ed 44 bd 97 33 73 3b
       -0.07315757 0.037317425 -0.048078384 0.0037109607
000140 ff 50 8b 3c cb 14 18 b8 5b 47 1e 3d 36 dd 8c bd
       0.017006395 -3.625899e-05 0.03864227 -0.0687813
000150 d7 ba 63 3d a6 81 10 be 48 20 3b bd b5 9c d5 3d
       0.055598106 -0.14111957 -0.045685083 0.1043028
000160 e5 e5 ae 3d 18 f2 a4 3c b3 13 51 3d 9f f3 0c 3e
       0.08539943 0.02013497 0.051044177 0.13764809
000170 22 ea 60 bc ef 9d b5 3d 7a 2c ff 3d 34 6e 82 bc
       -0.013727697 0.08868014 0.12459655 -0.01592169
000180 d2 9c c6 3d a1 99 0c 3d ae 0b 92 bd c5 68 ed bd
       0.0969788 0.0343262 -0.07131134 -0.11592249
000190 d2 95 08 bc c4 38 f4 3d 25 e7 45 3d ff 08 95 3d
       -0.008336501 0.1192489 0.04831614 0.072771065
0001a0 d9 73 72 bd 29 a3 0f be 9f 9f 4d bd 75 c7 07 be
       -0.059192512 -0.14027084 -0.050201055 -0.1325968
0001b0 cb 7c e1 3d 87 e8 15 bd 7c 7c b1 bd c1 70 85 bc
       0.110101305 -0.03659871 -0.08666322 -0.016289117
0001c0 9f c5 4b bd cc 02 26 3c cf 1a c0 3d 37 88 ca bd
       -0.049749013 0.010132503 0.09380113 -0.09889262
0001d0 63 0b 7d 3d 9b 4c 14 3d 6d 40 23 3d 05 09 2f 3b
       0.061778437 0.03620587 0.039856363 0.0026708257
0001e0 c3 ab 16 3d f5 13 ef bd f3 4e 44 3d e2 d4 7b 3d
       0.0367849 -0.116737284 0.047926854 0.061482318
0001f0 2c 37 05 3e 1c 84 b2 3c 26 38 6a 3c b1 20 b8 3d
       0.13009328 0.02179151 0.014295613 0.089906104
000200 07 3e d5 bd a2 6b 28 bd fa f8 60 3a c4 44 c5 bd
       -0.104122214 -0.04111827 0.0008582022 -0.096322566
000210 f3 f9 ee 3d 50 3b 76 3d 6e 8d e4 3d 2d d5 d0 3c
       0.11668768 0.06011516 0.11159788 0.025492275
000220 2d 54 27 3d f6 1d 37 3c aa 89 6a 3d ae 7f 8e 3c
       0.04085176 0.011176577 0.057260193 0.017394867
000230 db 3a dd bc dd 1c ef bc 06 bb cd bc ef 9f a6 bd
       -0.027005604 -0.029188568 -0.025113594 -0.08135974
000240 5a 88 73 3d cb e9 08 3e e0 22 a7 3c f4 a6 1b bd
       0.059456207 0.13370435 0.020402372 -0.038001016
000250 8d a4 f9 3a 65 61 02 be c2 3c 15 be 6b 0c b9 bd
       0.0019046232 -0.12732466 -0.14573959 -0.09035572
000260 e8 5e 21 bd 75 3a c1 bd 99 51 7f 3d 4b 58 21 3e
       -0.03939715 -0.09434978 0.062333677 0.15756337
000270 87 d5 ed bc e2 4e d5 3d e7 78 be 3d 66 07 e3 3d
       -0.029032482 0.10415436 0.09300404 0.110853955
000280 18 b7 93 3d 10 dc a4 3d aa ac 77 3d 6b 9a 95 bd
       0.07212657 0.08049786 0.0604674 -0.073048435
000290 94 4c 24 3d aa bd ac 3d 25 2c d2 bd 85 81 e3 bd
       0.040112093 0.08434613 -0.10262326 -0.11108688
0002a0 cc e5 ca 3d 50 35 ae bd 1f 2d a7 bd 07 c3 d7 bc
       0.099071115 -0.08506262 -0.08162903 -0.026338113
0002b0 9e 24 d3 3c 66 86 68 bd 33 0a b4 bd f6 21 b7 bd
       0.025774296 -0.056768797 -0.08791008 -0.089420244
0002c0 29 62 b4 bd 5b 8e ec 3d 86 7a 86 3d 22 f0 d7 bd
       -0.08807785 0.1155059 0.06566338 -0.105438486
0002d0 40 b3 fc 3d 11 13 d0 3d ab 26 05 bd 88 3b 49 bc
       0.12338877 0.10159887 -0.03250758 -0.01228226
0002e0 0e 4e d3 bd 1c d9 49 bd 84 09 92 3d 0e d2 bb bd
       -0.10317622 -0.049279317 0.07130721 -0.09170924
0002f0 5b 70 11 3d 75 e4 b9 3d 74 3e b0 bd 4d 92 59 bc
       0.03550754 0.09076778 -0.08605662 -0.01327951
000300 d8 a1 24 3d 0a 59 c0 3d 06 4c ca bd 71 89 b0 bd
       0.04019341 0.09391983 -0.098777816 -0.08619965
000310 f4 2d 46 3d a4 bc 60 3c fd 0b ee 3d 17 df 26 3d
       0.048383668 0.01371685 0.1162338 0.0407401
000320 f0 68 b1 3d 51 3d c4 3d 13 17 73 bd 7c 1d 96 3d
       0.08662593 0.09582008 -0.059348177 0.073298424
000330 5e c9 58 3d 06 f7 a7 bd 3a 19 92 bd 0b 62 90 3d
       0.052926414 -0.08201413 -0.07133718 0.0704995
000340 e0 7f 80 3d d0 d8 51 3d 1b 3e a1 bd 36 b7 0c be
       0.0627439 0.05123216 -0.07873174 -0.13741764
000350 7d 3f 89 3d 39 44 d6 bd f2 ad 99 3b ef 68 8c 3a
       0.067015626 -0.10462231 0.0046899254 0.0010712425
000360 e1 6a 0f 3e ae 88 ba 3d b9 6c f9 3d 23 56 e9 3d
       0.14005615 0.09108101 0.1217894 0.113933824
000370 91 b6 cb bd 8a 34 c8 3d 6c 75 01 3e 5f 9d ad 3d
       -0.09946931 0.09775646 0.12642449 0.08477282
000380 e6 2a 91 3c 93 f8 cd bd b2 93 10 be 28 c8 b2 3d
       0.01772065 -0.100571774 -0.14118841 0.08729583
000390 5c 54 07 3d 5e 8d d2 bd 21 f4 b3 3d 7d 8f ad 3d
       0.033039436 -0.1028087 0.08786798 0.08474634
0003a0 c9 b0 42 3d b5 00 3a 3d 5a f7 f3 bd be ae 98 bd
       0.047531877 0.04541083 -0.11912413 -0.074552044
0003b0 40 b8 b8 bd f9 e9 de bd 3e 3e 8d 3c 48 67 be bb
       -0.09019518 -0.108844705 0.017241593 -0.005810652
0003c0 50 31 27 bd 37 eb a6 bb 6c 95 c4 3d bd 97 97 3d
       -0.040818512 -0.0050939578 0.095988125 0.07401989
0003d0 a3 49 73 bd bd 45 d0 3d e9 2f 86 bd b3 18 8a 3d
       -0.059396397 0.101695515 -0.06552107 0.06742992
0003e0 7f 98 9b bd c0 c0 b1 bd 6c 19 29 bc fb 53 d0 bc
       -0.07597446 -0.08679342 -0.010321002 -0.02543067
0003f0 4e 28 6e 3c 48 06 ec bc d2 d5 31 bd f5 60 ef bd
       0.014535977 -0.028811589 -0.043416806 -0.11688415

a2c_network.mu.bias f4 [24]
000000 86 57 c8 bc 36 3a a8 3c 50 bd 20 3d 1c a6 1a 3d
       -0.024455797 0.02053557 0.039243042 0.03775607
000010 80 9a 16 3c 18 b9 9e bc 70 09 8a 3c 8d 95 8c bb
       0.009192109 -0.019375369 0.016850203 -0.004290289
000020 b5 c8 04 bc 5d c3 6e 38 59 e6 52 bc 9a 48 97 bc
       -0.008104493 5.6925568e-05 -0.012872302 -0.018467236
000030 a0 40 bc bc 23 07 2f bd 3d ce 1a bd 3d 85 d6 3c
       -0.022980034 -0.042731415 -0.03779434 0.02618658
000040 b8 e3 6e bc 47 46 43 bd d4 60 81 3c a4 fe aa bc
       -0.01458066 -0.047674444 0.015793242 -0.020873375
000050 63 8d e4 ba d9 db 12 3c 4a 20 7b bb c4 96 6b 3c
       -0.0017437156 0.008963549 -0.0038318806 0.014379207

exp_avg f4 [24]
000000 b9 4d bc 3c fe d0 e4 3c 29 98 7a bb 64 84 a2 3c
       0.02298628 0.027931686 -0.0038237667 0.01983852
000010 c4 5c 31 3c df 80 0e bc 25 73 bc bb 9b b1 76 3c
       0.01082534 -0.008697717 -0.005751031 0.015056993
000020 b8 c5 a7 bb 44 28 96 bc cf b1 6e 3b 17 80 7b bc
       -0.0051200055 -0.018329747 0.00364219 -0.015350363
000030 8d 50 85 3c 73 c8 a8 bb 3c 11 ac 3c 3f 2c e3 3a
       0.016273761 -0.0051508485 0.021004312 0.0017331912
000040 6c 61 88 bc 7c a0 79 3c e9 96 54 3c 95 42 e4 3c
       -0.016648017 0.015236016 0.012975433 0.02786378
000050 b2 50 c7 bb 87 59 8d 3c 1b 55 31 bc 72 03 8b bc
       -0.0060826177 0.017254604 -0.010823513 -0.016969416

exp_avg_sq f4 [24]
000000 53 31 27 3a 9b 92 3b 3a 63 17 2a 3a 14 dd 3c 3a
       0.00063778943 0.000715533 0.000648847 0.0007204574
000010 f7 a5 21 3a e0 ce 53 3a a9 48 49 3a 55 c4 27 3a
       0.0006166393 0.0008079838 0.0007678369 0.00063998
000020 5b e2 2b 3a 1e 85 44 3a 8a d5 32 3a e7 65 44 3a
       0.0006556862 0.00074966426 0.0006821981 0.0007491991
000030 78 c2 2c 3a 3b 94 15 3a 4c ef 44 3a 72 95 1f 3a
       0.00065902574 0.0005705987 0.00075124647 0.0006087638
000040 d7 7f 0c 3a af 69 24 3a 6c 3c 2f 3a b7 ef 16 3a
       0.0005359626 0.00062718516 0.0006684724 0.0005757766
000050 7c 62 3d 3a 7e 39 36 3a 7a 0e 2f 3a bb c8 55 3a
       0.0007224453 0.0006951316 0.00066778774 0.00081552163
