runs/lift_30-15-11-02/nn/last_lift_ep_100_rew_-29.447353.pth (torch, 654733 bytes, 36 tensors)

value_mean_std.running_mean f8 [1]
-299.08829696612355
00000000: 635d 14aa 69b1 72c0

value_mean_std.running_var f8 [1]
111636.61680264668
00000000: b973 6cde 4941 fb40

value_mean_std.count f8 []
102401.0
00000000: 0000 0000 1000 f940

running_mean_std.running_mean f8 [39]
0.0 1.4999707036971928 1.2999742045672331 0.49999023456573105 0.3999920744059716 2.8999441710885767 0.49999023456573105 0.7992211351095331
1.4086724737342613 0.49999023456573105 0.8709161003585336 0.9371015397167406 0.0 0.9999804691314621 0.0 0.0
0.0 0.0 0.0 0.0 0.300371773752991 0.024140132986678345 9.809806914476773 0.0
0.0 0.0 0.0 0.0 0.0 0.0 0.0 0.0
0.0 0.0 0.0 0.0 0.0 0.0 0.12499755864143276
00000000: 0000 0000 0000 0000 9a66 d547 e1ff f73f
00000010: 7828 64c0 b1cc f43f 25de 710a d7ff df3f
00000020: f6e6 8e5b 7899 d93f fe68 f8ed 1533 0740
00000030: 25de 710a d7ff df3f 7c28 b233 3893 e93f
00000040: d66c d725 ec89 f63f 25de 710a d7ff df3f
00000050: 3331 1371 8bde eb3f 2eab 435e bcfc ed3f
00000060: 0000 0000 0000 0000 25de 710a d7ff ef3f
00000070: 0000 0000 0000 0000 0000 0000 0000 0000
00000080: 0000 0000 0000 0000 0000 0000 0000 0000
00000090: 0000 0000 0000 0000 0000 0000 0000 0000
000000a0: 6547 3a88 4a39 d33f b4a5 cbe6 30b8 983f
000000b0: 3c81 0b03 9f9e 2340 0000 0000 0000 0000
000000c0: 0000 0000 0000 0000 0000 0000 0000 0000
000000d0: 0000 0000 0000 0000 0000 0000 0000 0000
000000e0: 0000 0000 0000 0000 0000 0000 0000 0000
000000f0: 0000 0000 0000 0000 0000 0000 0000 0000
00000100: 0000 0000 0000 0000 0000 0000 0000 0000
00000110: 0000 0000 0000 0000 0000 0000 0000 0000
00000120: 0000 0000 0000 0000 0000 0000 0000 0000
00000130: 25de 710a d7ff bf3f

running_mean_std.running_var f8 [39]
1.9530868537723853e-05 6.347446447424448e-05 5.253737112639982e-05 2.441349030844839e-05 2.2655744701544045e-05 0.00018378235672972831 2.441349030844839e-05 0.86603302055305
1.3047731540274305 2.441349030844839e-05 0.5354068654767827 0.4338577030220256 1.9530868537723853e-05 3.906135562062192e-05 1.9530868537723853e-05 1.9530868537723853e-05
1.9530868537723853e-05 1.9530868537723853e-05 1.9530868537723853e-05 1.9530868537723853e-05 1.1860065035183727 1.6627971072329069 0.0018990682064149893 1.9530868537723853e-05
1.9530868537723853e-05 1.9530868537723853e-05 1.9530868537723853e-05 1.9530868537723853e-05 1.9530868537723853e-05 1.9530868537723853e-05 1.9530868537723853e-05 1.9530868537723853e-05
1.9530868537723853e-05 1.9530868537723853e-05 1.9530868537723853e-05 1.9530868537723853e-05 1.9530868537723853e-05 1.9530868537723853e-05 1.9836032398394183e-05
00000000: 1db7 ec10 c77a f43e f36f 06ff b2a3 103f
00000010: 9af0 9153 728b 0b3f fff0 7f47 7299 f93e
00000020: c3ac c3eb 9ac1 f73e d5a8 686c b616 283f
00000030: fff0 7f47 7299 f93e 9a01 91e1 8ab6 eb3f
00000040: 03f2 93d0 59e0 f43f fff0 7f47 7299 f93e
00000050: 58da 2894 0d22 e13f d739 6619 53c4 db3f
00000060: 1db7 ec10 c77a f43e 45cf 9cf5 b97a 043f
00000070: 1db7 ec10 c77a f43e 1db7 ec10 c77a f43e
00000080: 1db7 ec10 c77a f43e 1db7 ec10 c77a f43e
00000090: 1db7 ec10 c77a f43e 1db7 ec10 c77a f43e
000000a0: 8846 97f4 e1f9 f23f 0a2e b723 d19a fa3f
000000b0: cf26 b9f5 441d 5f3f 1db7 ec10 c77a f43e
000000c0: 1db7 ec10 c77a f43e 1db7 ec10 c77a f43e
000000d0: 1db7 ec10 c77a f43e 1db7 ec10 c77a f43e
000000e0: 1db7 ec10 c77a f43e 1db7 ec10 c77a f43e
000000f0: 1db7 ec10 c77a f43e 1db7 ec10 c77a f43e
00000100: 1db7 ec10 c77a f43e 1db7 ec10 c77a f43e
00000110: 1db7 ec10 c77a f43e 1db7 ec10 c77a f43e
00000120: 1db7 ec10 c77a f43e 1db7 ec10 c77a f43e
00000130: c9ea 55c4 b1cc f43e

running_mean_std.count f8 []
51201.0
00000000: 0000 0000 2000 e940

a2c_network.sigma f4 [24]
-0.0024834112 0.023606854 0.017305246 0.013413975 -0.013558067 -0.0079980055 0.007988167 -0.0021247533
0.010787085 -0.000835441 -0.03898633 -0.027164176 0.0059462385 0.019082671 0.0006433923 0.015588401
-0.0037090785 0.027384194 0.013404719 0.01653321 0.0030154889 -0.0076804818 0.013797111 0.0076291277
00000000: bac0 22bb 2963 c13c bbc3 8d3c 4ac6 5b3c
00000010: a822 5ebc 110a 03bc cde0 023c 723f 0bbb
00000020: 50bc 303c 7f01 5bba 21b0 1fbd 6887 debc
00000030: aad8 c23b 4353 9c3c 54a9 283a 7e66 7f3c
00000040: 0314 73bb d154 e03c 779f 5b3c a870 873c
00000050: 829f 453b 8dac fbbb 470d 623c c3fd f93b

a2c_network.actor_mlp.0.weight f4 [256, 39]
-0.050500125 0.06614505 -0.02030077 0.090591036 0.16616426 0.11565822 -0.046803765 0.07663855
-0.0014060929 0.10451858 -0.122511245 -0.17170048 -0.061867196 -0.099668525 0.13139138 0.046121925
0.066327244 0.050642315 -0.002785585 0.12531762 -0.11929068 0.009651537 -0.08623199 0.049375832
-0.055145297 0.04906587 -0.033361334 0.13280898 -0.09490826 -0.095500104 -0.09550587 0.1440261
0.053362884 0.15408342 -0.13214995 -0.15882729 -0.12527846 -0.107716456 0.08808407 0.05733802
0.10443148 -0.11131669 -0.13752224 0.056591015 -0.09343876 0.06882431 -0.05360037 0.06993382
-0.15277544 -0.08658957 0.04114947 0.033852298 -0.069339395 0.095447496 0.10885659 -0.116120666
-0.08548732 0.14662325 -0.05403244 -0.058897827 -0.14718334 -0.12054286 0.0400006 -0.021135822
-0.11623478 0.0037560768 -0.10938057 -0.13585219 -0.088176586 -0.14014609 -0.10195968 0.16006552
0.030244198 0.049345043 -0.149349 -0.10516797 -0.053299587 -0.0032347583 -0.14090016 -0.09328743
-0.120157 -0.023797527 -0.08382788 -0.035407964 -0.13274904 -0.111774765 -0.08199442 -0.079052724
-0.11629269 0.14240763 -0.031779677 0.113503575 0.049893063 -0.13559604 0.11081431 -0.04405843
-0.06138129 -0.13291764 -0.15099928 0.054549053 -0.059320275 0.06234159 -0.13141131 0.1188838
-0.11754266 -0.027649863 0.033445917 0.08266644 0.1292731 0.14587021 -0.12696916 0.040299013
-0.06887527 -0.017547613 -0.11985433 0.1458541 -0.14175066 0.085580684 0.080900066 0.076658875
-0.06210972 0.17001645 0.05986977 0.04506195 -0.13050333 0.07710224 0.00044058257 -0.07367203
0.13981824 0.035700377 -0.06403856 -0.08104709 -0.0076470347 0.08940936 -0.040918157 -0.0913651
-0.054834742 -0.120188065 0.051197298 0.14870763 -0.1507511 0.03718987 0.08272088 0.029035935
-0.057025578 0.083577625 0.08414945 0.059876274 -0.028137943 -0.042402137 0.017130656 -0.028287293
-0.047718357 0.10235501 0.13761406 0.0085564805 -0.03585219 -0.0050199986 -0.016917715 0.031191014
0.037566263 -0.15281226 -0.06639907 0.15479538 0.06800374 -0.015270024 -0.08044923 -0.089402065
-0.14343749 -0.059530653 0.054075945 0.10210117 0.07393074 -0.14154433 -0.09629506 -0.025270887
0.15846784 0.021603003 -0.048871394 0.066247456 -0.060989857 -0.10364385 0.11687549 -0.07281055
-0.03210037 -0.15929617 0.10716907 0.12131863 0.058358412 -0.11165322 -0.15803686 -0.13005272
0.119407594 0.07687844 0.12745987 0.08388631 0.023390217 -0.018703166 -0.1385656 -0.15399109
-0.16703294 0.048763 -0.09239217 -0.069339655 -0.1089421 -0.042270727 -0.12690285 -0.10463024
0.036125436 -0.047589507 0.09885402 -0.051370513 -0.11746476 -0.028252838 -0.077621706 -0.05398825
-0.1453331 0.07216708 -0.11148194 0.08048324 0.07266363 0.11440079 -0.12282662 0.11516365
-0.07570084 0.059418622 0.15037869 -0.02258317 -0.0012383453 -0.036866393 -0.13370453 0.07684596
-0.15896207 0.0827374 0.1198119 0.16092281 -0.028281607 -0.121945806 0.045619283 0.09789942
-0.14975488 -0.046712544 -0.09693168 -0.004383274 -0.085965835 -0.04488464 -0.0508341 -0.142625
0.13138635 0.13424042 -0.02511915 -0.018235724 -0.065351486 -0.14460577 -0.14397486 0.06595585
00000000: 38d9 4ebd 0e77 873d cd4d a6bc cb87 b93d
00000010: f726 2a3e 38de ec3d 4eb5 3fbd acf4 9c3d
00000020: a64c b8ba d60d d63d 2de7 fabd 40d2 2fbe
00000030: 7568 7dbd 031f ccbd 768b 063e 58ea 3c3d
00000040: 94d6 873d 516e 4f3d 5c8e 36bb 4353 003e
00000050: ac4e f4bd 7b21 1e3c 669a b0bd 503e 4a3d
00000060: 09e0 61bd 4bf9 483d e5a5 08bd 14ff 073e
00000070: 435f c2bd 8f95 c3bd 9598 c3bd 947b 133e
00000080: 0a93 5a3d 0bc8 1d3e 5152 07be 9fa3 22be
00000090: ff48 00be 729a dcbd 6c65 b43d 46db 6a3d
000000a0: 2ce0 d53d 01fa e3bd a1d2 0cbe fbcb 673d
000000b0: d25c bfbd c3f3 8c3d 108c 5bbd 7639 8f3d
000000c0: 2a71 1cbe df55 b1bd 598c 283d b5a8 0a3d
000000d0: d001 8ebd fa79 c33d 34f0 de3d acd0 edbd
000000e0: fa13 afbd 6824 163e 1f51 5dbd d93e 71bd
000000f0: 3bb7 16be 2ddf f6bd abd7 233d 0825 adbc
00000100: 800c eebd 8328 763b ec02 e0bd d61c 0bbe
00000110: ed95 b4bd 7582 0fbe 3dd0 d0bd 37e8 233e
00000120: aec2 f73c 071e 4a3d f2ee 18be 4e62 d7bd
00000130: ab50 5abd 3dfe 53bb 2248 10be 7b0d bfbd
00000140: e014 f6bd 08f3 c2bc f4ad abbd f107 11bd
00000150: 5def 07be 2bea e4bd b1ec a7bd 65e6 a1bd
00000160: dd2a eebd 4ed3 113e 682b 02bd 9074 e83d
00000170: ab5c 4c3d b0d9 0abe 9df2 e23d 9d76 34bd
00000180: f36a 7bbd 901b 08be 8e9f 1abe d46e 5f3d
00000190: d1f9 72bd e559 7f3d b090 06be 5a79 f33d
000001a0: 35ba f0bd f781 e2bc 96fe 083d 064d a93d
000001b0: 2b60 043e 005f 153e 3404 02be 9410 253d
000001c0: 7a0e 8dbd 03c0 8fbc 3076 f5bd c75a 153e
000001d0: 1627 11be ed44 af3d efae a53d 54ff 9c3d
000001e0: c366 7ebd cb18 2e3e 013a 753d e192 383d
000001f0: aaa2 05be c7e7 9d3d fefd e639 5ce1 96bd
00000200: 832c 0f3e 8f3a 123d a626 83bd 04fc a5bd
00000210: fa93 fabb 411c b73d cc99 27bd a01d bbbd
00000220: 659a 60bd 2925 f6bd 42b4 513d d046 183e
00000230: 7f5e 1abe 6854 183d 9169 a93d c5dc ed3c
00000240: a793 69bd bf2a ab3d 8c56 ac3d d340 753d
00000250: 8b81 e6bc ddad 2dbd 9755 8c3c c1ba e7bc
00000260: 5374 43bd 819f d13d b3ea 0c3e 7b30 0c3c
00000270: bfd9 12bd cd7e a4bb 0597 8abc 4c84 ff3c
00000280: 15df 193d d17a 1cbe 3cfc 87bd ae82 1e3e
00000290: 8b45 8b3d 1f2f 7abc 91c2 a4bd 6e18 b7bd
000002a0: 47e1 12be 6ad6 73bd bd7e 5d3d 6b1a d13d
000002b0: 0069 973d fff0 10be 5836 c5bd e404 cfbc
000002c0: 6545 223e c8f8 b03c 5f2d 48bd bfac 873d
000002d0: 80d0 79bd 3a43 d4bd 6b5c ef3d b31d 95bd
000002e0: ad7b 03bd 891e 23be 757b db3d e775 f83d
000002f0: 3b09 6f3d 72aa e4bd 6ad4 21be 8a2c 05be
00000300: f88b f43d 7272 9d3d d784 023e 96cc ab3d
00000310: d79c bf3c 6237 99bc 24e4 0dbe d7af 1dbe
00000320: af0a 2bbe b6bb 473d 1b38 bdbd f301 8ebd
00000330: 091d dfbd 1224 2dbd d2f2 01be 6148 d6bd
00000340: 44f8 133d 37ed 42bd fa73 ca3d e369 52bd
00000350: 5d91 f0bd 7f72 e7bc 21f8 9ebd c922 5dbd
00000360: 33d2 14be 56cc 933d a550 e4bd 66d4 a43d
00000370: abd0 943d f64a ea3d 868c fbbd ebda eb3d
00000380: 0b09 9bbd f160 733d dffc 193e 5700 b9bc
00000390: f94f a2ba 3701 17bd d7e9 08be 6a61 9d3d
000003a0: f4c6 22be 3a72 a93d f15f f53d f3c8 243e
000003b0: d4ae e7bc b9be f9bd 49db 3a3d 7e7f c83d
000003c0: 5859 19be a755 3fbd 1e84 c6bd 91a1 8fbb
000003d0: db0e b0bd f5d8 37bd 6b37 50bd 4a0c 12be
000003e0: 258a 063e 5276 093e adc6 cdbc 1663 95bc
000003f0: 00d7 85bd 8913 14be 256e 13be dc13 873d

a2c_network.actor_mlp.0.bias f4 [256]
0.016292563 -0.038561583 -0.02553649 0.030971983 -0.008409416 -0.029667905 0.0038487571 0.028864466
0.004121493 0.03556013 -0.011211011 -0.00044002276 -0.019722698 0.022635479 -0.046085708 -0.035795823
0.018600414 0.02967844 0.014420606 -0.019788364 -0.019550467 -0.00093792484 -0.018790865 -0.007969939
-0.0017974457 -0.026581693 0.018662497 -0.00014455713 0.035086785 0.011608587 0.01890511 0.020019943
0.039355263 0.041767377 0.018526046 -0.029614491 -0.029585661 -0.04112229 0.023826476 -0.015582352
-0.023229638 -0.0054298486 -0.040694945 -0.009687102 -0.036946956 -0.0120169055 -0.022151986 -0.013874643
-0.040270425 -0.02319314 -0.024680959 0.026862793 -0.006840948 0.028289376 -0.041013725 0.007036635
-0.01111451 -0.011655218 -0.016280124 -0.049717654 -0.038078293 -0.0053770524 -0.01179728 0.026876075
-0.0316399 0.042569183 -0.03540126 -0.034109544 -0.033837583 -0.011560931 -0.0072186794 -0.02267177
0.03987547 -0.0086699845 -0.0067977337 -0.021307377 0.047808386 0.040633976 -0.041648682 -0.03612838
-0.036598127 0.025737194 0.016327873 0.0353662 -0.006623844 -0.019398063 -0.025542801 -0.024100127
-0.02698798 0.017753528 -0.036275495 -0.044689566 0.027536187 0.02755374 0.030562337 -0.018157631
-0.019319102 -0.010047788 -0.014728277 -0.010439721 0.02947648 0.017458413 0.004566011 0.021509739
0.009245199 -0.021798925 0.02649033 -0.024968075 0.056849603 0.0030264733 -0.031202799 -0.024280934
0.0006846339 0.034439903 -0.04373957 0.025776876 0.04194814 -0.023391623 -0.0049300482 -0.009813468
0.022672605 -0.02553968 -0.024539595 -0.028870117 0.0023739948 -0.03417821 0.019391105 0.03329796
0.022307357 0.027255973 -0.009127348 0.0170389 -0.010896145 -0.011738963 -0.0079745585 0.03398582
-0.014090587 -0.03605263 -0.032341078 0.037483346 -0.0040066424 0.03682368 0.03467813 0.031474367
0.012252816 0.0088563915 0.000742733 -0.013631578 0.032935373 -0.0033534311 0.020206796 0.016899232
0.0047268714 -0.044039734 0.0011028745 0.011502438 -0.038696107 0.013763498 -0.026368575 -0.028291097
-0.048989914 -0.015990496 -0.04048545 0.009227033 -0.023973651 0.049848944 -0.009934988 -0.025955567
0.019739289 0.011224105 0.033605162 -0.008877398 -0.01775048 0.027818603 0.004955745 -0.031266764
0.03440687 -0.026153166 -0.0154774245 -0.037573803 -0.020033088 0.041238576 0.0011080372 0.021680193
0.014644059 0.04214156 -0.006694011 -0.0382676 -0.014680566 0.018874679 0.04037901 -0.039766766
0.033862293 -0.00039037046 0.033731304 0.014254077 0.037636954 -0.026575612 -0.008000746 -0.037393868
0.016952714 0.006614756 0.034333985 0.018026125 0.0039909934 -0.02620624 -0.022879668 0.023668794
0.0024010993 -0.0009132003 0.014573428 -0.030379953 -0.015431737 -0.0024688188 0.025611013 0.014352846
-0.026659807 -0.030470444 0.04222404 0.027852247 0.020011762 -0.00878675 0.01734452 -0.021547697
0.012761298 0.005287342 -0.016420288 0.00069678994 -0.003772109 -0.018222887 0.00849054 0.008628013
-0.041295685 -0.008691353 -0.008439986 0.029204056 0.015007249 -0.006964644 0.023786094 -0.03516119
0.021583982 -0.014183698 0.045776352 0.03773166 0.025426451 0.038136706 0.032747842 0.022668377
-0.027690008 0.036228687 -0.0017429779 0.030950332 0.008309556 0.043697987 0.0068870652 -0.024790252
00000000: fb77 853c c0f2 1dbd e731 d1bc f5b8 fd3c
00000010: a6c7 09bc 1b0a f3bc 6e3b 7c3b 2c75 ec3c
00000020: 970d 873b 80a7 113d 63ae 37bc dbb2 e6b9
00000030: 7f91 a1bc 0a6e b93c 5ec4 3cbd a49e 12bd
00000040: e55f 983c 3320 f33c 6844 6c3c 351b a2bc
00000050: 4d28 a0bc 12df 75ba 4def 99bc 5994 02bc
00000060: 4598 ebba dac1 d9bc 18e2 983c 4294 17b9
00000070: 29b7 0f3d f131 3e3c e4de 9a3c dd00 a43c
00000080: fc32 213d 4514 2b3d efc3 973c 179a f2bc
00000090: a15d f2bc d96f 28bd be2f c33c 1f4d 7fbc
000000a0: 154c bebc dfec b1bb beaf 26bd a7b6 1ebc
000000b0: b155 17bd 8ee2 44bc 1578 b5bc 7852 63bc
000000c0: 9af2 24bd 8aff bdbc b92f cabc 5c0f dc3c
000000d0: 082a e0bb 1fbf e73c 02fe 27bd 9393 e63b
000000e0: a219 36bc 87f5 3ebc e55d 85bc bda4 4bbd
000000f0: fcf7 1bbd fc31 b0bb 6149 41bc 372b dc3c
00000100: d798 01bd 065d 2e3d e900 11bd 73b6 0bbd
00000110: 4799 0abd 0f6a 3dbc ac8a ecbb 26ba b9bc
00000120: 7654 233d 8d0c 0ebc 86bf debb cf8c aebc
00000130: bad2 433d d06f 263d cf97 2abd 5afb 13bd
00000140: ebe7 15bd cfd6 d23c 08c2 853c 26dc 103d
00000150: d50c d9bb b0e8 9ebc 233f d1bc a16d c5bc
00000160: e515 ddbc d96f 913c 9d95 14bd 680c 37bd
00000170: 9293 e13c 62b8 e13c de5d fa3c 50bf 94bc
00000180: 1843 9ebc 7a9f 24bc df4e 71bc 5d0b 2bbc
00000190: a978 f13c f204 8f3c 7a9e 953b 3135 b03c
000001a0: 2d79 173c a993 b2bc 4002 d93c d989 ccbc
000001b0: 21db 683d cc57 463b 039d ffbc cfe8 c6bc
000001c0: 0179 333a db10 0d3d 4328 33bd 072a d33c
000001d0: d0d1 2b3d ca9f bfbc 3e8c a1bb abc8 20bc
000001e0: e6bb b93c 9738 d1bc 4307 c9bc 0681 ecbc
000001f0: 0695 1b3b 73fe 0bbd 18da 9e3c 7163 083d
00000200: ebbd b63c eb47 df3c df8a 15bc 2a95 8b3c
00000210: bf85 32bc c854 40bc b9a7 02bc b734 0b3d
00000220: 35dc 66bc ecab 13bd 1478 04bd 2388 193d
00000230: 274a 83bb 6dd4 163d a80a 0e3d 44eb 003d
00000240: 09c0 483c 661a 113c f8b3 423a fb56 5fbc
00000250: 3ee7 063d 3dc5 5bbb b988 a53c 4270 8a3c
00000260: dfe3 9a3b 0263 34bd 548e 903a b974 3c3c
00000270: cf7f 1ebd 4b80 613c e902 d8bc bbc2 e7bc
00000280: a6a9 48bd 80fe 82bc 12d4 25bd fb2c 173c
00000290: 6464 c4bc 682e 4c3d 5cc6 22bc c5a0 d4bc
000002a0: 4ab4 a13c 4fe5 373c 91a5 093d 8272 11bc
000002b0: 7469 91bc d7e3 e33c cd63 a23b 9411 00bd
000002c0: 38ee 0c3d 2a3f d6bc 0695 7dbc fde6 19bd
000002d0: 6e1c a4bc c8e9 283d 8f3b 913a a99a b13c
000002e0: a3ed 6f3c a19c 2c3d 6f59 dbbb 7dbe 1cbd
000002f0: c286 70bc 129f 9a3c 7664 253d 7ae2 22bd
00000300: 30b3 0a3d a3aa ccb9 d629 0a3d ef89 693c
00000310: 3529 1a3d 19b5 d9bc 9015 03bc 502a 19bd
00000320: 6be0 8a3c 98c0 d83b cba1 0c3d 86ab 933c
00000330: e1c6 823b 78ae d6bc 246e bbbc 0fe5 c13c
00000340: c35b 1d3b d663 6fba 63c5 6e3c 61df f8bc
00000350: 65d5 7cbc e8cb 21bb 30ce d13c 3328 6b3c
00000360: ab65 dabc 279d f9bc 1df3 2c3d 652a e43c
00000370: b5ef a33c 4df6 0fbc 1816 8e3c cc84 b0bc
00000380: c314 513c 7041 ad3b d783 86bc c8a8 363a
00000390: 7d35 77bb 2a48 95bc e81b 0b3c 825c 0d3c
000003a0: aa25 29bd 2d66 0ebc de47 0abc 583d ef3c
000003b0: f7e0 753c ab37 e4bb 0edb c23c 2e05 10bd
000003c0: e4d0 b03c be62 68bc fc7f 3b3d 838c 1a3d
000003d0: 224b d03c 3c35 1c3d 9a22 063d 08b3 b93c
000003e0: 28d6 e2bc 8864 143d a274 e4ba 8d8b fd3c
000003f0: ce24 083c a9fc 323d e4ac e13b ed14 cbbc

a2c_network.actor_mlp.2.weight f4 [128, 256]
0.036396198 0.006350235 0.03077952 -0.056718484 -0.04182124 0.08154182 -0.04549116 -0.06619567
-0.02704336 -0.10011792 -0.026045436 -0.05849556 0.029517978 -0.0803031 -0.032156166 -0.008312961
-0.07223224 0.0014402458 -0.024659624 0.038372472 0.062200885 -0.0522271 -0.008566883 0.026512954
0.037665058 0.03223594 -0.012978713 -0.010964652 -0.07384061 -0.09001594 -0.06081845 -0.07638385
-0.101655126 -0.05684161 0.016622253 0.050988253 0.038814142 0.009645411 -0.014322208 0.040575344
-0.024190333 0.061601207 0.047296815 0.017007286 0.086818196 0.02130552 -0.03237649 0.06523159
0.032298356 0.06647241 -0.008042122 -0.045672197 0.049558867 -0.029746765 0.066920735 4.8328606e-05
0.037108455 -0.049828634 0.008566264 0.06583027 0.011478736 0.06958901 0.013107017 0.015031684
0.05191092 -0.029806886 0.033602145 0.08355319 -0.030717313 -0.07182775 0.07898086 -0.027834265
-0.038426585 0.018249834 -0.0082898205 -0.009315725 -0.028495817 0.0016582729 -0.017621944 0.05580166
0.028011655 -0.05536039 -0.06104249 -0.058782727 0.052130345 -0.016269038 -0.050608177 0.012994519
0.064175196 -0.0053246645 0.10468225 0.092553414 0.017533606 -0.020954695 -0.063693486 -0.047111403
-0.004116741 -0.06300025 0.03004306 0.011097714 0.0041543827 -0.0844995 -0.048347466 -0.01250932
0.010256051 0.093430005 -0.029175205 0.060565 -0.03963763 -0.0051616016 0.018364212 -0.01914112
-0.0009187423 -0.0733559 0.023560857 -0.06773793 -0.07080706 -0.025862034 -0.049608752 0.011367269
-0.082779005 0.072856344 -0.00076920365 0.041172344 -0.061579484 0.04879734 -0.083503574 -0.015335373
0.045698628 -0.08562391 0.025647353 -0.018985528 -0.036590297 -0.016341161 0.043895062 -0.056344658
0.02472999 0.024498796 0.078953624 -0.019969406 0.0154045 -0.033477474 0.04704446 -0.094358824
-0.017730348 -0.0114640435 -0.029380089 0.01456815 -0.002994811 0.01844806 -0.038044397 0.019158078
-0.06610165 0.07172854 -0.06886001 -0.052338254 0.058545448 -0.023182007 0.05131781 0.062103532
0.07689199 0.026220758 -0.028446313 0.002615285 0.016935972 -0.08718794 0.029451279 0.06713582
-0.031244779 -0.066417456 -0.08469045 0.0034975407 0.032002505 -0.035429638 0.0029683006 0.010579859
0.0032239906 0.06146406 -0.029005527 -0.0004478772 0.04816278 -0.0759475 0.069648586 -0.011721379
0.07494063 -0.041630365 -0.022934122 -0.024094507 0.02963868 -0.022814777 -0.037470862 0.057036348
-0.07952365 -0.035666246 0.012654593 -0.037519824 -0.068633944 0.06654743 -0.0396032 0.013211416
-0.056305222 0.038568433 -0.018333275 0.012316947 0.021293117 0.015143823 -0.009416471 0.010465807
-0.04519881 0.061578184 -0.05693842 -0.03134457 -0.034097854 -0.03470233 -0.02652777 -0.028617056
0.024970125 0.08148643 -0.036443416 -0.018326266 -0.033221174 0.0448379 0.033512127 0.006613021
0.050044857 0.0034424418 0.024919953 -0.051233876 -0.011375308 0.07026516 -0.028155742 -0.08035217
-0.003428327 0.035148986 -0.0012021916 -0.008363271 0.019011578 0.005914321 -0.06657633 0.04687951
0.006605769 -0.016911067 0.00629001 -0.019307109 -0.019702572 0.013466828 0.015736435 0.05475922
0.019635273 -0.012853896 0.045887392 -0.07458512 0.025231149 -0.008942638 0.02375324 -0.022334035
00000000: 2e14 153d a215 d03b 5525 fc3c a451 68bd
00000010: c04c 2bbd 66ff a63d f054 3abd 9891 87bd
00000020: 098a ddbc a00a cdbd 3d5d d5bc 0a99 6fbd
00000030: b0cf f13c f475 a4bd 2fb6 03bd 1633 08bc
00000040: 7fee 93bd a1c6 bc3a fb02 cabc 742c 1d3d
00000050: 5bc6 7e3d 15ec 55bd 1d5c 0cbc b231 d93c
00000060: ad46 1a3d d509 043d aba4 54bc 15a5 33bc
00000070: bf39 97bd 475a b8bd c41c 79bd 236f 9cbd
00000080: 9030 d0bd c0d2 68bd 642b 883c 0fd9 503d
00000090: 94fb 1e3d c907 1e3c b2a7 6abc 5532 263d
000000a0: ce2a c6bc 8c51 7c3d 4eba 413d dd52 8b3c
000000b0: bdcd b13d ea88 ae3c 369d 04bd 2498 853d
000000c0: 484b 043d b022 883d 1bc3 03bc c512 3bbd
000000d0: 3dfe 4a3d 7daf f3bc bd0d 893d 72b4 4a38
000000e0: 09ff 173d 1c19 4cbd 8459 0c3c 05d2 863d
000000f0: 4f11 3c3c af84 8e3d d0be 563c 7447 763c
00000100: 8ba0 543d 922d f4bc 67a2 093d ef1d ab3d
00000110: e0a2 fbbc 6d1a 93bd b8c0 a13d af04 e4bc
00000120: 3265 1dbd ad80 953c 07d2 07bc fca0 18bc
00000130: 0f70 e9bc 685a d93a e55b 90bc 4890 643d
00000140: b378 e53c 94c1 62bd b107 7abd 28c6 70bd
00000150: a186 553d a546 85bc 854a 4fbd f7e6 543c
00000160: 496e 833d 867a aebb a663 d63d a58c bd3d
00000170: a3a2 8f3c 2ea9 abbc bb71 82bd e3f7 40bd
00000180: bae5 86bb 4606 81bd dd1c f63c 30d3 353c
00000190: 7d21 883b 130e adbd fe07 46bd e4f3 4cbc
000001a0: ff08 283c 3b58 bf3d d700 efbc 0113 783d
000001b0: 115b 22bd a722 a9bb 8b70 963c d7cd 9cbc
000001c0: c1d7 70ba 9e3b 96bd b302 c13c 2fba 8abd
000001d0: 4b03 91bd 9edc d3bc 8c32 4bbd c83d 3a3c
000001e0: 0a88 a9bd b535 953d 62a4 49ba 55a4 283d
000001f0: c53a 7cbd b8df 473d ec03 abbd 3741 7bbc
00000200: 7c2e 3b3d 975b afbd 661a d23c 8a87 9bbc
00000210: b5df 15bd e6dd 85bc 4fcb 333d a8c9 66bd
00000220: 8c96 ca3c b3b1 c83c 70b2 a13d e196 a3bc
00000230: 2863 7c3c ad1f 09bd b1b1 403d 333f c1bd
00000240: 3c3f 91bc afd3 3bbc 83ae f0bc 40af 6e3c
00000250: 9744 44bb 6320 973c 71d4 1bbd 67f1 9c3c
00000260: 4d60 87bd 6ae6 923d 7a06 8dbd a360 56bd
00000270: 5acd 6f3d 31e8 bdbc a032 523d 4660 7e3d
00000280: 8c79 9d3d eacc d63c 3e08 e9bc 3465 2b3b
00000290: 4fbd 8a3c 978f b2bd cf43 f13c 817e 893d
000002a0: 0df5 ffbc e005 88bd 3072 adbd ff36 653b
000002b0: 0f15 033d ab1e 11bd d287 423b 2557 2d3c
000002c0: 9649 533b bdc1 7b3d 009d edbc 0fd1 eab9
000002d0: 5646 453d 5d8a 9bbd eba3 8e3d 070b 40bc
000002e0: 797a 993d 9a84 2abd 57e0 bbbc d861 c5bc
000002f0: d1cc f23c 0ee6 babc 0c7b 19bd f29e 693d
00000300: 4cdd a2bd c516 12bd 3655 4f3c 63ae 19bd
00000310: f48f 8cbd 054a 883d f736 22bd b274 583c
00000320: 4ea0 66bd eff9 1d3d aa2f 96bc 05cd 493c
00000330: e76e ae3c cc1d 783c 8b47 1abc c778 2b3c
00000340: 6322 39bd 6839 7c3d 4338 69bd 2a63 00bd
00000350: 31aa 0bbd 0824 0ebd c450 d9bc 516e eabc
00000360: 268e cc3c 5be2 a63d b145 15bd f720 96bc
00000370: ed12 08bd f2a7 373d 0344 093d 0ab2 d83b
00000380: d6fb 4c3d 979a 613b ee24 cc3c 9dda 51bd
00000390: 805f 3abc 2ee7 8f3d dfa6 e6bc ae8f a4bd
000003a0: c8ad 60bb 62f8 0f3d db92 9dba 1a06 09bc
000003b0: 2bbe 9b3c eccc c13b 2c59 88bd bb04 403d
000003c0: 3575 d83b 1489 8abc 6e1c ce3b f129 9ebc
000003d0: 4a67 a1bc f8a3 5c3c b2e9 803c 344b 603d
000003e0: 27da a03c 2699 52bc 6bf4 3b3d 15c0 98bd
000003f0: 8eb1 ce3c 2484 12bc 2896 c23c def5 b6bc

a2c_network.actor_mlp.2.bias f4 [128]
-0.04617739 0.01321363 0.023029948 0.0492623 -0.04499163 -0.025210446 -0.04805531 0.034353856
-0.014573925 0.018980794 0.0064460253 0.038418222 0.02601006 -0.044311672 0.050989985 0.051767714
-0.04754488 -0.021636503 0.04130808 -0.023638677 -0.0070743016 0.045146793 0.016715383 0.04851512
-0.013043728 0.045709245 -0.04450101 -0.04889578 0.051413514 -0.01843455 -0.054870553 -0.016452454
0.03348447 -0.019227229 -0.016634887 0.049434017 -0.05459053 -0.010127195 0.0478116 -0.04773465
-0.017009133 -0.037521567 -0.012652299 -0.050815694 0.05488562 0.0019884915 -0.044409376 0.036550302
0.016484246 -0.024081921 -0.01644426 0.053747244 0.014713325 -0.0026713547 -0.043400075 0.0041227355
0.04380055 -0.023373656 -0.051653426 0.025483329 0.007874945 0.019871596 0.0073917117 0.042679265
0.030117262 0.038908925 0.033415906 0.021774856 -0.031242507 0.02159306 0.021955289 0.019483935
-0.044031028 -0.048593234 0.018679958 0.023229048 0.012113609 -0.0025429397 0.04857314 -0.04171541
0.022293253 -0.024605991 -0.030449567 0.009079702 -0.04716503 0.049782194 -0.051844064 -0.024614789
0.04072937 0.014395291 0.05300364 -0.042839434 0.030677859 0.010262302 -0.005782619 -0.041514806
0.035468265 -0.023057986 0.045160875 -0.040155917 -0.021677041 0.026838772 0.035388615 0.02677951
0.050276145 0.051862825 0.04029294 -0.044899866 -0.037208736 -0.034334064 0.05397975 -0.044290286
-0.036581136 0.0061365375 0.002492849 0.05107043 0.020330865 0.0049481085 -0.019268308 -0.026840098
-0.04009929 -0.046402767 0.02706516 -0.03417995 -0.01681885 0.0021464326 0.031963922 0.017015332
00000000: 8124 3dbd fb7d 583c 4da9 bc3c 44c7 493d
00000010: 2549 38bd 2386 cebc a5d5 44bd a1b6 0c3d
00000020: 79c7 6ebc 9c7d 9b3c 2e39 d33b 6d5c 1d3d
00000030: 0d13 d53c 2880 35bd e0da 503d 620a 543d
00000040: 6cbe 42bd 093f b1bc a932 293d e6a5 c1bc
00000050: 8bcf e7bb d8eb 383d b3ee 883c cab7 463d
00000060: 5cb5 55bc 9e39 3b3d b146 36bd f146 48bd
00000070: fa96 523d 0e04 97bc f2bf 60bd 4cc7 86bc
00000080: 0327 093d 6c82 9dbc e345 88bc 537b 4a3d
00000090: 529a 5fbd 89ec 25bc 19d6 433d 6985 43bd
000000a0: bd56 8bbc 37b0 19bd 974b 4fbc 1e24 50bd
000000b0: becf 603d 5a51 023b 9be6 35bd c5b5 153d
000000c0: f809 873c 7347 c5bc 1db6 86bc 1226 5c3d
000000d0: 2810 713c e511 2fbb 47c4 31bd 0318 873b
000000e0: 3568 333d 1c7a bfbc 8b92 53bd 6ac2 d03c
000000f0: ea05 013c c2c9 a23c 2c36 f23b 74d0 2e3d
00000100: 7ab8 f63c f75e 1f3d 1edf 083d 2f61 b23c
00000110: 49f0 ffbc eee3 b03c 94db b33c c69c 9f3c
00000120: e159 34bd b309 47bd b606 993c d84a be3c
00000130: 2978 463c 73a7 26bb a1f4 463d c7dd 2abd
00000140: 57a0 b63c 8192 c9bc 5f71 f9bc 08c3 143c
00000150: 1e30 41bd 6ae8 4b3d 715a 54bd f4a4 c9bc
00000160: d7d3 263d 3ada 6b3c 581a 593d 6778 2fbd
00000170: 2250 fb3c 3723 283c 207c bdbb 6e0b 2abd
00000180: 2c47 113d 1ae4 bcbc 9cfa 383d 887a 24bd
00000190: 0d94 b1bc fcdc db3c a7f3 103d b460 db3c
000001a0: 5cee 4d3d 1d6e 543d 360a 253d ece8 37bd
000001b0: 3068 18bd e0a1 0cbd df19 5d3d bb69 35bd
000001c0: 1ad6 15bd 0215 c93b 115f 233b 3a2f 513d
000001d0: ea8c a63c be23 a23b 92d8 9dbc c4df dbbc
000001e0: 273f 24bd d410 3ebd c1b7 dd3c 4600 0cbd
000001f0: afc7 89bc 2aab 0c3b 9aec 023d bd63 8b3c

a2c_network.actor_mlp.4.weight f4 [64, 128]
0.034516454 0.0017179564 -0.025922481 0.082972 0.03985695 -0.02492561 -0.034732934 0.011531179
-0.08534557 0.095455326 -0.05633 0.06815474 0.0890007 0.041827206 0.08528742 -0.057474744
0.017795306 0.044254325 -0.074195474 -0.09681716 0.015255031 0.07286226 0.06316805 0.031838026
0.05885421 0.051748626 -0.06864017 -0.0783349 0.0721906 -0.05471607 0.0064885058 -0.047459103
0.02054506 0.008710236 0.08017919 -0.020249385 0.02568997 -0.042982858 0.03933388 0.01378796
0.067422934 -0.070335485 -0.03665019 0.05041969 -0.08884571 -0.044960763 0.042819876 -0.026646724
-0.037409656 -0.023505852 0.058900744 0.00548634 0.0029399362 -0.087783664 -0.0118561415 0.04711163
-0.08456502 0.079396054 0.0030424367 0.09002507 0.013527931 -0.06901815 0.050710037 -0.07528933
0.026844561 -0.0070218313 -0.05869687 0.030881688 -0.04182762 0.06321895 -0.010406609 -0.06502671
-0.07487254 -0.052808948 0.0594333 0.10293822 0.059562404 -0.06286447 0.005914356 -0.03660962
0.056945965 0.07682018 0.02209644 0.022304913 -0.014074224 -0.039081067 -0.04362158 -0.07010832
0.025135497 0.09060232 -0.023021653 0.09848324 0.039851226 -0.029660042 0.06873823 -0.068187095
0.02608918 -0.066783145 0.030846767 0.022854837 0.018416341 -0.0060481597 -0.059829168 0.005854334
0.040959515 -0.0394998 -0.035163663 0.07489896 0.012021557 0.047136255 0.036089953 -0.03281975
-0.012652637 -0.07729768 0.040725525 0.054591972 -0.060110383 0.05703771 -0.038126606 0.027966546
0.023183793 0.021222323 0.045161165 0.034793925 -0.066867836 -0.076763324 0.07979356 0.04165861
0.009429907 0.0072863675 -0.020143263 -0.10766522 0.07462443 -0.044512358 -0.006352834 -0.05521451
0.08636023 -0.046221424 0.023334544 -0.00833336 0.05930588 0.10788618 0.015761495 -0.031366937
0.065123014 0.015382881 -0.08462443 0.00980357 0.057829432 -0.08979222 -0.054809973 -0.059091043
0.06541101 -0.087652475 0.013759076 -0.049114894 0.051511828 -0.046367012 0.05104192 -0.03787824
-0.044235572 0.0055905106 0.0017414816 -0.07001579 -0.06107921 -0.043576706 -0.05184637 0.06575793
0.041733667 -0.04440884 -0.0474323 0.08810531 -0.09499499 0.07254994 0.0145211015 -0.08445157
0.040639337 0.073145926 0.043886967 -0.044853985 -0.043747116 -3.132501e-05 -0.05603898 0.026750475
-0.06512925 0.0043926598 -0.00088442344 0.042822562 -0.09110826 -0.06124332 0.04488369 -0.04517052
0.046859708 -0.08058683 0.009254034 0.014999826 0.105340704 0.04949461 0.021949051 -0.011786982
0.04222556 0.074674554 -0.058821112 -0.098070845 -0.0059920885 -0.088862166 -0.002518905 0.016494812
0.049722686 0.07229514 -0.07044825 0.0873847 -0.04574962 -0.09925593 -0.0070834374 0.03216619
-0.01678371 -0.022603896 -0.001879794 -0.017975572 -0.047228653 0.039243847 0.037081875 -0.0039899484
0.021477807 0.06547529 -0.017698936 -0.015666679 0.07020524 -0.017186247 0.04861992 0.07267584
-0.1041738 -0.03565876 -0.075521804 0.030769344 0.06369956 0.042276505 -0.04286887 0.036708754
0.064265735 -0.04328501 0.037027605 -0.010240523 0.016016819 -0.016135953 0.0489642 0.048681468
0.0104701305 0.02365432 -0.08638178 -0.085173756 -0.022056676 -0.052430943 -0.022290144 0.06829657
00000000: 2061 0d3d 0d2d e13a 625b d4bc 39ed a93d
00000010: 0b41 233d cb30 ccbc 1f44 0ebd 45ed 3c3c
00000020: a9c9 aebd 157e c33d 49ba 66bd b694 8b3d
00000030: 0046 b63d 0153 2b3d 2cab ae3d a36a 6bbd
00000040: 76c7 913c 0644 353d ccf3 97bd 1348 c6bd
00000050: 3df0 793c cf38 953d 405e 813d 9768 023d
00000060: 1d11 713d 5ef6 533d 3893 8cbd 0c6e a0bd
00000070: aad8 933d f51d 60bd 889d d43b 7a64 42bd
00000080: 1d4e a83c 61b5 0e3c fd34 a43d 0ae2 a5bc
00000090: c673 d23c cb0e 30bd 901c 213d e5e6 613c
000000a0: 0915 8a3d 0d0c 90bd 821e 16bd e084 4e3d
000000b0: bdf4 b5bd c728 38bd e563 2f3d 3b4a dabc
000000c0: de3a 19bd 588f c0bc e841 713d c1c6 b33b
000000d0: f2ab 403b ecc7 b3bd 4340 42bc 20f8 403d
000000e0: 6d30 adbd 669a a23d 9e63 473b 105f b83d
000000f0: 41a4 5d3c 6359 8dbd 54b5 4f3d 4b31 9abd
00000100: 20e9 db3c 6417 e6bb 216c 70bd 98fb fc3c
00000110: 7053 2bbd f078 813d 7b80 2abc b92c 85bd
00000120: c656 99bd 324e 58bd 5570 733d 46d1 d23d
00000130: b5f7 733d 16bf 80bd 37cd c13b f8f3 15bd
00000140: 2c40 693d e653 9d3d 9803 b53c cbb8 b63c
00000150: 9397 66bc 7813 20bd 8bac 32bd f394 8fbd
00000160: f5e8 cd3c b68d b93d e897 bcbc 95b1 c93d
00000170: 0a3b 233d 9ef9 f2bc a1c6 8c3d ada5 8bbd
00000180: fab8 d53c 9ac5 88bd 5cb2 fc3c 113a bb3c
00000190: dedd 963c a42f c6bb 6e0f 75bd b7d5 bf3b
000001a0: 2ac5 273d 8bca 21bd c607 10bd a064 993d
000001b0: 11f6 443c f211 413d 0fd3 133d 016e 06bd
000001c0: 024d 4fbc 3f4e 9ebd cfcf 263d d59b 5f3d
000001d0: 4e36 76bd 60a0 693d a52a 1cbd 191a e53c
000001e0: f0eb bd3c 70da ad3c eafa 383d 1384 0e3d
000001f0: 01f2 88bd 1736 9dbd ce6a a33d 38a2 2a3d
00000200: e67f 1a3c 7bc2 ee3b 7c03 a5bc 957f dcbd
00000210: b1d4 983d 9752 36bd 6f2b d0bb 9c28 62bd
00000220: a2dd b03d ad52 3dbd 1628 bf3c a588 08bc
00000230: b9ea 723d 6ef3 dc3d 401e 813c 9e7a 00bd
00000240: 375f 853d 7b08 7c3c 934f adbd 279f 203c
00000250: 8ede 6c3d fce4 b7bd 6c80 60bd 7309 72bd
00000260: 35f6 853d 2483 b3bd bf6d 613c b32c 49bd
00000270: 11fe 523d 56eb 3dbd 5511 513d 3726 1bbd
00000280: 5c30 35bd 9a30 b73b 6d42 e43a 7064 8fbd
00000290: 322e 7abd 7d7d 32bd dc5c 54bd 18ac 863d
000002a0: ecf0 2a3d 0be6 35bd 5f48 42bd 8f70 b43d
000002b0: bc8c c2bd 1095 943d eae9 6d3c f2f4 acbd
000002c0: 6f75 263d 88cd 953d d2c2 333d d0b8 37bd
000002d0: 2d30 33bd f962 03b8 2189 65bd d023 db3c
000002e0: 7c62 85bd 4df0 8f3b a7d8 67ba b666 2f3d
000002f0: f896 babd 47da 7abd f6d7 373d b904 39bd
00000300: f7ef 3f3d b50a a5bd 3b9e 173c d5c1 753c
00000310: debc d73d dcba 4a3d 7fce b33c 301e 41bc
00000320: b5f4 2c3d f9ee 983d 68ee 70bd 5ed9 c8bd
00000330: 4859 c4bb 5efd b5bd 3714 25bb 2120 873c
00000340: 04aa 4b3d 790f 943d 2c47 90bd c0f6 b23d
00000350: f463 3bbd b146 cbbd 2e1c e8bb b2c0 033d
00000360: fe7d 89bc ce2b b9bc 6c63 f6ba 8241 93bc
00000370: d572 41bd 28be 203d 2ae3 173d 1dbe 82bb
00000380: 3af2 af3c e917 863d 5cfd 90bc 6857 80bc
00000390: c4c7 8f3d 2cca 8cbc ae25 473d 12d7 943d
000003a0: 1359 d5bd ec0e 12bd 2dab 9abd fe0f fc3c
000003b0: ea74 823d 212a 2d3d 4597 2fbd eb5b 163d
000003c0: c19d 833d 9f4b 31bd 42aa 173d dec7 27bc
000003d0: b435 833c 8c2f 84bc af8e 483d 3866 473d
000003e0: e98a 2b3c b4c6 c13c eee8 b0bd 946f aebd
000003f0: 34b0 b4bc d4c1 56bd d299 b6bc 12df 8b3d

a2c_network.actor_mlp.4.bias f4 [64]
0.029592082 -0.03712229 -0.043516204 -0.04107023 0.04102047 -0.040967077 -0.016133146 -0.015362481
-0.026123397 -0.04568772 -0.044298872 0.029510017 -0.0225566 -0.04412694 -0.043752234 0.05285186
-0.03267179 0.04210629 0.028702037 -0.022032851 0.04283771 -0.043223448 -0.02607714 -0.031133933
0.050192706 -0.032528855 0.0051983204 0.053784076 -0.035785675 -0.028642047 0.05435887 -0.011668628
0.05179334 -0.036036953 -0.044663955 -0.042873126 -0.030399779 -0.023015274 0.034041334 -0.044098977
0.04868925 -0.04301909 0.03432777 0.010384262 0.0506275 0.034663152 0.03555453 0.033007253
0.012228305 -0.0357948 0.052546665 -0.043769192 -0.021636687 0.051128652 -0.010217443 0.028027628
0.022420857 0.02710917 -0.03979947 0.030004159 -0.028912403 -0.025783416 -0.035689488 -0.038663425
00000000: 186b f23c 8b0d 18bd 0c3e 32bd 4239 28bd
00000010: 1505 283d 18cd 27bd a929 84bc eab2 7bbc
00000020: bc00 d6bc 0c23 3bbd bc72 35bd febe f13c
00000030: 9ec8 b8bc 73be 34bd 8b35 33bd 317b 583d
00000040: dbd2 05bd a577 2c3d 8920 eb3c 3d7e b4bc
00000050: 9876 2f3d 120b 31bd ba9f d5bc 970c ffbc
00000060: de96 4d3d fa3c 05bd ac56 aa3b b14c 5c3d
00000070: 0094 12bd baa2 eabc 68a7 5e3d c62d 3fbc
00000080: 4125 543d 7c9b 13bd 8df1 36bd bb9b 2fbd
00000090: f508 f9bc 878a bcbc ed6e 0b3d 21a1 34bd
000000a0: 616e 473d c934 30bd 479b 0c3d c022 2a3c
000000b0: c85e 4f3d f3fa 0d3d a0a1 113d 9d32 073d
000000c0: 3b59 483c 919d 12bd 2c3b 573d 5347 33bd
000000d0: 6c3f b1bc 476c 513d 1067 27bc 329a e53c
000000e0: f2ab b73c 0d14 de3c c504 23bd 48cb f53c
000000f0: b4d9 ecbc be37 d3bc 242f 12bd 8a5d 1ebd

a2c_network.value.weight f4 [1, 64]
-0.0597026 0.078886546 0.10443987 0.032684978 -0.003857386 0.08721532 0.04636729 0.019611737
0.026871255 0.0981124 0.101038106 -0.05393707 0.027393224 0.12680787 0.080179214 -0.08200627
0.119452715 -0.107238986 -0.05223534 0.043051407 -0.05111971 0.06320007 0.025078762 0.12660068
-0.034401935 0.09397851 0.0013409852 -0.12489186 0.07616081 0.09943319 -0.124807395 0.019125635
-0.04916039 0.07312854 0.07724963 0.041886162 0.11401142 0.11861643 -0.07325977 0.11135162
-0.036498908 0.13835956 -0.10144019 -0.007986151 -0.08139416 -0.12761822 -0.12711196 -0.09130838
-0.020474184 0.07826968 -0.1436504 0.07952721 0.07873001 -0.058022764 0.012505733 -0.051117674
-0.03066758 -0.06255945 0.099008285 -0.06325585 0.0804511 0.055082172 0.10873017 0.025895914
00000000: b78a 74bd 458f a13d 92e4 d53d afe0 053d
00000010: 33cc 7cbb f29d b23d a1eb 3d3d cba8 a03c
00000020: 1b21 dc3c 27ef c83d 11ed ce3d 1eed 5cbd
00000030: c167 e03c ecd9 013e 0035 a43d e7f2 a7bd
00000040: a0a3 f43d 1da0 dbbd b9f4 55bd ac56 303d
00000050: e762 51bd 0a6f 813d fa71 cd3c 9ca3 013e
00000060: 0be9 0cbd ce77 c03d ffc3 af3a 4ec7 ffbd
00000070: 33fa 9b3d a1a3 cb3d 059b ffbd 5dad 9c3c
00000080: 685c 49bd 6ac4 953d 0e35 9e3d d390 2b3d
00000090: d27e e93d 2ced f23d 3809 96bd 510c e43d
000000a0: e17f 15bd 21ae 0d3e e0bf cfbd 58d8 02bc
000000b0: fbb1 a6bd 5aae 02be a329 02be e3ff babd
000000c0: 7ab9 a7bc db4b a03d 1719 13be 29df a23d
000000d0: 333d a13d 47a9 6dbd d9e4 4c3c c460 51bd
000000e0: 943a fbbc 2b1f 80bd dbc4 ca3d 488c 81bd
000000f0: 8cc3 a43d d89d 613d ecad de3d ab23 d43c

a2c_network.mu.weight f4 [24, 64]
-0.10364437 -0.014416066 -0.023703307 -0.062272932 -0.057781417 0.116554424 0.017620165 0.0659489
0.031308666 0.06398128 -0.108374305 -0.0078425845 0.059569765 0.0030391451 -0.04115311 0.014465774
-0.08954154 0.042245783 0.014342753 -0.0695609 0.07885918 -0.10313336 0.061481114 -0.07167073
-0.122363195 0.023742411 -0.020874064 0.09124828 -0.047931843 0.119146615 0.034287836 0.0131066535
0.02442162 0.03718611 0.07446775 -0.0070251655 0.121247195 -0.09330099 -0.05457113 -0.033316582
-0.08089225 -0.088149354 -0.082116865 0.015179245 -0.035220128 -0.09940107 0.05613431 0.099881686
0.04461015 -0.07556587 0.11506978 0.008184227 0.0053538317 0.0053184335 0.07759062 -0.07275463
-0.08691844 0.034549564 -0.08997726 -0.04887852 -0.017240195 0.110878214 -0.036206882 -0.0027257618
-0.12202144 0.045960058 -0.12729108 -0.023675708 0.049670078 -0.06445284 0.05725844 -0.013791322
-0.074633956 -0.13040972 0.09315683 -0.116965644 -0.0766948 0.0342411 -0.051241674 0.0061357403
0.01571938 0.0026967023 0.0413086 -0.07180003 0.058009345 -0.14417325 -0.048809867 0.103283316
0.08857506 0.020381473 0.053515002 0.14058684 -0.015791936 0.087590806 0.12751335 -0.013830459
0.0992692 0.031313468 -0.07445656 -0.11895907 -0.009097683 0.119151756 0.048878707 0.06970072
-0.056721587 -0.14332923 -0.049211428 -0.13502362 0.1133297 -0.034848142 -0.08613881 -0.0159596
-0.053418804 0.0082526915 0.09667076 -0.102172665 0.063184924 0.038922865 0.036938064 0.0033112594
0.03369962 -0.11814209 0.044665433 0.061653063 0.13125752 0.021271827 0.012055718 0.08714958
-0.10643479 -0.03794965 0.0034999542 -0.0934659 0.11497264 0.062979534 0.11148314 0.02783476
0.042574026 0.013613313 0.05968567 0.01318669 -0.024406556 -0.026186572 -0.022116093 -0.0828119
0.061760925 0.13064243 0.015902536 -0.035728157 5.2907722e-05 -0.124964856 -0.14309067 -0.08866049
-0.041640613 -0.09290319 0.061506454 0.15536064 -0.026343083 0.1059686 0.09096416 0.11124709
0.07122158 0.084224515 0.063235685 -0.07078302 0.041861255 0.08593383 -0.10748137 -0.10828108
0.09686151 -0.08216976 -0.08629201 -0.02566184 0.023638502 -0.061621446 -0.092744105 -0.094900556
-0.089521155 0.119116046 0.06322177 -0.10233888 0.124751106 0.099756375 -0.030544115 -0.016499259
-0.102271125 -0.05293024 0.0749493 -0.09346812 0.036786385 0.09288067 -0.08297622 -0.011304536
0.03929487 0.10019575 -0.09305089 -0.08029462 0.04374922 0.019741086 0.11416702 0.045363694
0.0900074 0.1014786 -0.0538344 0.06934801 0.059121504 -0.07571984 -0.065119274 0.06674898
0.06641133 0.0449398 -0.08519582 -0.13206495 0.06269861 -0.09907384 0.010624966 0.0038922585
0.13530698 0.093161784 0.118898 0.10908172 -0.094840564 0.10055801 0.121741034 0.08332995
0.014507511 -0.093792334 -0.13526425 0.09283897 0.03560421 -0.100937895 0.08176868 0.090908706
0.042625792 0.051639345 -0.1257644 -0.07392417 -0.0955211 -0.11570898 0.0103140585 -0.011074049
-0.039080095 0.00017182104 0.09083663 0.080670804 -0.059228014 0.09729375 -0.060740344 0.063565575
-0.07176088 -0.090231836 -0.003210473 -0.027195558 0.015105001 -0.026334368 -0.03772251 -0.11197634
00000000: 8043 d4bd 5d31 6cbc 702d c2bc e711 7fbd
00000010: 35ac 6cbd 16b4 ee3d 2a58 903c 3810 873d
00000020: 843d 003d 9e08 833d 59f3 ddbd 2f7e 00bc
00000030: 6dff 733d 652c 473b 2a90 28bd db01 6d3c
00000040: 8e61 b7bd ea09 2d3d defd 6a3c f275 8ebd
00000050: ec80 a13d 9537 d3bd 9fd3 7b3d 1bc8 92bd
00000060: 8e99 fabd 727f c23c 1600 abbc 61e0 ba3d
00000070: 2e54 44bd 2403 f43d 6771 0c3d 4abd 563c
00000080: d90f c83c 7650 183d 8c82 983d 5c33 e6bb
00000090: 7350 f83d 9714 bfbd fa85 5fbd f876 08bd
000000a0: d6aa a5bd a687 b4bd e32c a8bd 5eb2 783c
000000b0: fb42 10bd ca92 cbbd 17ed 653d c58e cc3d
000000c0: 22b9 363d 47c2 9abd b4a9 eb3d 2317 063c
000000d0: 326f af3b 4146 ae3b d5e7 9e3d 6100 95bd
000000e0: 4c02 b2bd d883 0d3d ff45 b8bd d834 48bd
000000f0: 4f3b 8dbc 1e14 e33d ab4d 14bd b2a2 32bb
00000100: 60e6 f9bd 9d40 3c3d 9858 02be 8ff3 c1bc
00000110: da72 4b3d daff 83bd d387 6a3d fff4 61bc
00000120: b0d9 98bd 208a 05be 02c9 be3d af8b efbd
00000130: 2a12 9dbd 6540 0c3d cae2 51bd 520e c93b
00000140: eec5 803c 28bb 303b 3533 293d e50b 93bd
00000150: 359b 6d3d 27a2 13be dbec 47bd 3486 d33d
00000160: d766 b53d 0cf7 a63c 8c32 5b3d fff5 0f3e
00000170: 175e 81bc cf62 b33d dc92 023e 2699 62bc
00000180: a64d cb3d 8d42 003d ae7c 98bd d0a0 f3bd
00000190: 730e 15bc d605 f43d 0a35 483d 40bf 8e3d
000001a0: e554 68bd e6c4 12be ec91 49bd a243 0abe
000001b0: 6719 e83d edbc 0ebd 8b69 b0bd b5bd 82bc
000001c0: adcd 5abd 4c36 073c 52fb c53d e73f d1bd
000001d0: 1967 813d 956d 1f3d 5e4c 173d b701 593b
000001e0: 9d08 0a3d 7bf4 f1bd 1af3 363d ec87 7c3d
000001f0: 5f68 063e 4142 ae3c 5985 453c 7b7b b23d
00000200: 7cfa d9bd 1871 1bbd 7d5f 653b 0d6b bfbd
00000210: c776 eb3d 6afb 803d 4651 e43d b905 e43c
00000220: 1a62 2e3d 600a 5f3c f678 743d fd0c 583c
00000230: 42f0 c7bc 3985 d6bc cf2c b5bc 4999 a9bd
00000240: 06f9 7c3d 21c7 053e 0946 823c b057 12bd
00000250: 3ce9 5d38 93ed ffbd 5c86 12be a293 b5bd
00000260: 598f 2abd 0744 bebd 31ee 7b3d dc16 1f3e
00000270: 73cd d7bc 1106 d93d 6b4b ba3d 84d5 e33d
00000280: 9fdc 913d e77d ac3d b681 813d b0f6 90bd
00000290: b576 2b3d 13fe af3d 311f dcbd 79c2 ddbd
000002a0: 545f c63d 9e48 a8bd deb9 b0bd c738 d2bc
000002b0: 88a5 c13c c566 7cbd 9ff0 bdbd 395b c2bd
000002c0: de56 b7bd 1df3 f33d 6a7a 813d 0c97 d1bd
000002d0: 827d ff3d 124d cc3d a737 fabc 7429 87bc
000002e0: 8673 d1bd 61cd 58bd 057f 993d 376c bfbd
000002f0: 52ad 163d 3938 be3d 70ef a9bd a936 39bc
00000300: a8f3 203d 6e33 cd3d 7791 bebd 8171 a4bd
00000310: 6232 333d 0fb8 a13c 66d0 e93d 48cf 393d
00000320: cd55 b83d 03d4 cf3d 7681 5cbd 5406 8e3d
00000330: 6429 723d 0113 9bbd 415d 85bd b0b3 883d
00000340: aa02 883d cc12 383d 257b aebd 093c 07be
00000350: 2168 803d 3ae7 cabd 5614 2e3c 4315 7f3b
00000360: ea8d 0a3e 9bcb be3d cb80 f33d 3d66 df3d
00000370: c53b c2bd 5cf1 cd3d 5d53 f93d e5a8 aa3d
00000380: e9b0 6d3c 3216 c0bd b682 0abe 5c22 be3d
00000390: b8d5 113d 87b8 cebd 5676 a73d 582e ba3d
000003a0: 6298 2e3d c783 533d 62c8 00be 8e65 97bd
000003b0: 91a0 c3bd d4f8 ecbd 4cfc 283c ee6f 35bc
000003c0: 7312 20bd dc2a 3439 8e08 ba3d bc36 a53d
000003d0: 1399 72bd f241 c73d deca 78bd ab2e 823d
000003e0: 5ef7 92bd 78cb b8bd cd66 52bb 38c9 debc
000003f0: f77a 773c 2cbb d7bc eb82 1abd da53 e5bd

a2c_network.mu.bias f4 [24]
-0.02209856 0.023345105 0.037054464 0.032267705 0.004146975 -0.020079348 0.015763743 -0.007114361
-0.012193548 -0.0011884245 -0.010719133 -0.01424548 -0.022306187 -0.038589403 -0.034488235 0.022066878
-0.017216895 -0.044013474 0.01902617 -0.019450018 -0.0002733532 0.0064891083 -0.007552522 0.008439612
00000000: 0a08 b5bc 3c3e bf3c 6cc6 173d 242b 043d
00000010: 59e3 873b 727d a4bc f722 813c 961f e9bb
00000020: 72c7 47bc e9c4 9bba 4d9f 2fbc e065 69bc
00000030: 77bb b6bc ec0f 1ebd 8943 0dbd 99c5 b43c
00000040: 720a 8dbc 7947 34bd c5dc 9b3c a555 9fbc
00000050: d850 8fb9 96a2 d43b 257b f7bb 4c46 0a3c

exp_avg f4 [24]
0.007652259 0.004076289 -0.01863237 -0.0054764356 -0.0034626524 0.008157811 -0.009789544 0.0029868623
0.0005406732 0.007941011 0.007802324 0.00020607052 0.0010865382 -0.0025295694 0.002909458 0.0026247061
0.0004275269 0.02359204 0.0077490225 0.0033197536 -0.0046532922 -0.002011242 -0.014169126 -0.0027537637
00000000: cdbf fa3b 6492 853b e9a2 98bc ac73 b3bb
00000010: abed 62bb 57a8 053c 5364 20bc 3cbf 433b
00000020: f7bb 0d3a 041b 023c a3aa ff3b a214 5839
00000030: 2c6a 8e3a 22c7 25bb 9bac 3e3b 4303 2c3b
00000040: b025 e039 1844 c13c 83eb fd3b 3990 593b
00000050: a57a 98bb 0bcf 03bb 9f25 68bc 7d78 34bb

exp_avg_sq f4 [24]
0.0004281051 0.00039868965 0.00041602383 0.0003543752 0.0004085538 0.0004678496 0.00041009235 0.00037921543
0.0003497864 0.00037947675 0.00044465324 0.00047227764 0.00039226073 0.0004079945 0.00040311136 0.0003163458
0.0003929115 0.00037846432 0.00041282782 0.00037475058 0.00038693036 0.00038033497 0.00037627487 0.00038544962
00000000: 4b73 e039 3807 d139 c61d da39 6fcb b939
00000010: 2a33 d639 b649 f539 aa01 d739 6fd1 c639
00000020: 8963 b739 82f4 c639 5920 e939 089c f739
00000030: 58a8 cd39 18e8 d539 b158 d339 37db a539
00000040: b0ff cd39 9f6c c639 d070 d839 2c7a c439
00000050: eadc ca39 b267 c739 c246 c539 2c16 ca39

exp_avg f4 [256, 39]
0.0 -1.2129899e-05 -1.1546494e-05 -5.907562e-06 -4.918599e-06 -1.4268853e-05 -5.907562e-06 -0.007499423
-0.00493254 -5.907562e-06 -0.00025702585 0.004678181 0.0 -9.895263e-06 0.0 0.0
0.0 0.0 0.0 0.0 0.007962935 0.0017217656 -1.5707608e-05 0.0
0.0 0.0 0.0 0.0 0.0 0.0 0.0 0.0
0.0 0.0 0.0 0.0 0.0 0.0 -1.5861525e-06 0.0
-9.697043e-06 -9.227148e-06 -4.7241197e-06 -3.9327742e-06 -1.14100385e-05 -4.7241197e-06 -0.006011649 -0.003944079
-4.7241197e-06 -0.00015779349 0.0037536668 0.0 -7.913009e-06 0.0 0.0 0.0
0.0 0.0 0.0 0.006372852 0.0013488211 -1.256226e-05 0.0 0.0
0.0 0.0 0.0 0.0 0.0 0.0 0.0 0.0
0.0 0.0 0.0 0.0 0.0 -1.2684014e-06 0.0 -8.8217195e-07
-8.3715577e-07 -4.3080166e-07 -3.583902e-07 -1.0399066e-06 -4.3080166e-07 -0.00055841863 -0.0003599891 -4.3080166e-07
1.1882223e-05 0.0003496611 0.0 -7.215604e-07 0.0 0.0 0.0 0.0
0.0 0.0 0.00058660994 0.00010756002 -1.1462832e-06 0.0 0.0 0.0
0.0 0.0 0.0 0.0 0.0 0.0 0.0 0.0
0.0 0.0 0.0 0.0 -1.1567156e-07 0.0 5.2672985e-06 5.010571e-06
2.5670292e-06 2.1370067e-06 6.199169e-06 2.5670292e-06 0.0032765323 0.0021441097 2.5670292e-06 6.759422e-05
-0.002045405 0.0 4.2997312e-06 0.0 0.0 0.0 0.0 0.0
0.0 -0.003470149 -0.00072225864 6.826484e-06 0.0 0.0 0.0 0.0
0.0 0.0 0.0 0.0 0.0 0.0 0.0 0.0
0.0 0.0 0.0 6.892423e-07 0.0 5.5143983e-06 5.2501596e-06 2.6853193e-06
2.2359022e-06 6.4861315e-06 2.6853193e-06 0.0034052033 0.0022421405 2.6853193e-06 0.00012823961 -0.002123422
0.0 4.4979515e-06 0.0 0.0 0.0 0.0 0.0 0.0
-0.0036180858 -0.0007893371 7.139584e-06 0.0 0.0 0.0 0.0 0.0
0.0 0.0 0.0 0.0 0.0 0.0 0.0 0.0
0.0 0.0 7.209957e-07 0.0 -2.1676899e-05 -2.0629119e-05 -1.0559836e-05 -8.791551e-06
-2.550423e-05 -1.0559836e-05 -0.0134314755 -0.008817773 -1.0559836e-05 -0.00039121002 0.008381483 0.0
-1.7687798e-05 0.0 0.0 0.0 0.0 0.0 0.0 0.014247706
0.0030375652 -2.807911e-05 0.0 0.0 0.0 0.0 0.0 0.0
0.0 0.0 0.0 0.0 0.0 0.0 0.0 0.0
0.0 -2.8352745e-06 0.0 -7.4610994e-06 -7.099891e-06 -3.6346062e-06 -3.025781e-06 -8.778727e-06
-3.6346062e-06 -0.0046234345 -0.0030343893 -3.6346062e-06 -0.0001255268 0.0028867754 0.0 -6.08806e-06
0.0 0.0 0.0 0.0 0.0 0.0 0.004902021 0.001040185
00000000: 0000 0000 8581 4bb7 d0b7 41b7 9239 c6b6
00000010: 720a a5b6 4264 6fb7 9239 c6b6 b8bd f5bb
00000020: 25a1 a1bb 9239 c6b6 6dc1 86b9 6d4b 993b
00000030: 0000 0000 d503 26b7 0000 0000 0000 0000
00000040: 0000 0000 0000 0000 0000 0000 0000 0000
00000050: f876 023c deac e13a d5c3 83b7 0000 0000
00000060: 0000 0000 0000 0000 0000 0000 0000 0000
00000070: 0000 0000 0000 0000 0000 0000 0000 0000
00000080: 0000 0000 0000 0000 0000 0000 0000 0000
00000090: 0000 0000 0000 0000 c9e3 d4b5 0000 0000
000000a0: 7cb0 22b7 4dce 1ab7 e183 9eb6 46f6 83b6
000000b0: be6d 3fb7 e183 9eb6 5efd c4bb 553d 81bb
000000c0: e183 9eb6 5e75 25b9 1400 763b 0000 0000
000000d0: 1dc2 04b7 0000 0000 0000 0000 0000 0000
000000e0: 0000 0000 0000 0000 0000 0000 5bd3 d03b
000000f0: edca b03a 7fc2 52b7 0000 0000 0000 0000
00000100: 0000 0000 0000 0000 0000 0000 0000 0000
00000110: 0000 0000 0000 0000 0000 0000 0000 0000
00000120: 0000 0000 0000 0000 0000 0000 0000 0000
00000130: 0000 0000 f13d aab5 0000 0000 65ce 6cb5
00000140: e8b8 60b5 ee48 e7b4 c668 c0b4 eb92 8bb5
00000150: ee48 e7b4 d762 12ba ebbc bcb9 ee48 e7b4
00000160: c259 4737 b852 b739 0000 0000 41b1 41b5
00000170: 0000 0000 0000 0000 0000 0000 0000 0000
00000180: 0000 0000 0000 0000 bac6 193a d991 e138
00000190: fed9 99b5 0000 0000 0000 0000 0000 0000
000001a0: 0000 0000 0000 0000 0000 0000 0000 0000
000001b0: 0000 0000 0000 0000 0000 0000 0000 0000
000001c0: 0000 0000 0000 0000 0000 0000 0000 0000
000001d0: 1d67 f8b3 0000 0000 c0bd b036 7a20 a836
000001e0: 3a45 2c36 7f69 0f36 7502 d036 3a45 2c36
000001f0: 17bb 563b 3184 0c3b 3a45 2c36 5fc1 8d38
00000200: 340c 06bb 0000 0000 6946 9036 0000 0000
00000210: 0000 0000 0000 0000 0000 0000 0000 0000
00000220: 0000 0000 706b 63bb f555 3dba 0d0f e536
00000230: 0000 0000 0000 0000 0000 0000 0000 0000
00000240: 0000 0000 0000 0000 0000 0000 0000 0000
00000250: 0000 0000 0000 0000 0000 0000 0000 0000
00000260: 0000 0000 0000 0000 0000 0000 5f04 3935
00000270: 0000 0000 5208 b936 872a b036 6f35 3436
00000280: 820c 1636 72a3 d936 6f35 3436 d529 5f3b
00000290: e0f0 123b 6f35 3436 0f78 0639 1c29 0bbb
000002a0: 0000 0000 1ced 9636 0000 0000 0000 0000
000002b0: 0000 0000 0000 0000 0000 0000 0000 0000
000002c0: 681d 6dbb 84eb 4eba 8f90 ef36 0000 0000
000002d0: 0000 0000 0000 0000 0000 0000 0000 0000
000002e0: 0000 0000 0000 0000 0000 0000 0000 0000
000002f0: 0000 0000 0000 0000 0000 0000 0000 0000
00000300: 0000 0000 0000 0000 728a 4135 0000 0000
00000310: c9d6 b5b7 b20c adb7 262a 31b7 6d7f 13b7
00000320: ebf1 d5b7 262a 31b7 b10f 5cbc 6c78 10bc
00000330: 262a 31b7 521b cdb9 7d52 093c 0000 0000
00000340: 4260 94b7 0000 0000 0000 0000 0000 0000
00000350: 0000 0000 0000 0000 0000 0000 366f 693c
00000360: e311 473b 6e8b ebb7 0000 0000 0000 0000
00000370: 0000 0000 0000 0000 0000 0000 0000 0000
00000380: 0000 0000 0000 0000 0000 0000 0000 0000
00000390: 0000 0000 0000 0000 0000 0000 0000 0000
000003a0: 0000 0000 a545 3eb6 0000 0000 5b5a fab6
000003b0: 993b eeb6 0fea 73b6 860e 4bb6 5848 13b7
000003c0: 0fea 73b6 2e80 97bb 9bdc 46bb 0fea 73b6
000003d0: d89f 03b9 0e30 3d3b 0000 0000 0a48 ccb6
000003e0: 0000 0000 0000 0000 0000 0000 0000 0000
000003f0: 0000 0000 0000 0000 22a1 a03b d156 883a
