runs/lift_30-15-11-02/nn/lift.pth (torch, 651493 bytes, 36 tensors)

value_mean_std.running_mean f8 [1]
000000 4f 0f 68 4d 22 f2 71 c0
       -287.1333746018253

value_mean_std.running_var f8 [1]
000000 65 e8 03 d7 44 0f f4 40
       82164.30249396114

value_mean_std.count f8 []
000000 00 00 00 00 20 80 ee 40
       62465.0

running_mean_std.running_mean f8 [39]
000000 00 00 00 00 00 00 00 00 aa bc 15 a4 cd ff f7 3f
       0.0 1.4999519738737868
000010 f2 a9 02 bb a0 cc f4 3f 3c a6 c7 da bc ff df 3f
       1.299957972058675 0.4999839912912625
000020 58 b7 a0 68 63 99 d9 3f 9c da cf f1 02 33 07 40
       0.3999870797878109 2.8999079600865354
000030 3c a6 c7 da bc ff df 3f a3 83 8c 96 ae 4e c1 3f
       0.4999839912912625 0.13521368361491878
000040 ba 82 73 d9 57 0e e3 3f 3c a6 c7 da bc ff df 3f
       0.5955008742422117 0.4999839912912625
000050 59 3e 4a 7d 0f 98 d8 3f 0a 19 11 78 78 36 f0 3f
       0.3842810367141048 1.0132984819516104
000060 00 00 00 00 00 00 00 00 3c a6 c7 da bc ff ef 3f
       0.0 0.999967982582525
000070 00 00 00 00 00 00 00 00 00 00 00 00 00 00 00 00
       0.0 0.0
000080 00 00 00 00 00 00 00 00 00 00 00 00 00 00 00 00
       0.0 0.0
000090 00 00 00 00 00 00 00 00 00 00 00 00 00 00 00 00
       0.0 0.0
0000a0 e8 f1 b8 24 d6 a4 e7 3f d1 f3 ce 5f bb 25 ed 3f
       0.7388716428027324 0.9108559485681501
0000b0 53 6b dc f4 8e 9e 23 40 00 00 00 00 00 00 00 00
       9.809684421450276 0.0
0000c0 00 00 00 00 00 00 00 00 00 00 00 00 00 00 00 00
       0.0 0.0
0000d0 00 00 00 00 00 00 00 00 00 00 00 00 00 00 00 00
       0.0 0.0
0000e0 00 00 00 00 00 00 00 00 00 00 00 00 00 00 00 00
       0.0 0.0
0000f0 00 00 00 00 00 00 00 00 00 00 00 00 00 00 00 00
       0.0 0.0
000100 00 00 00 00 00 00 00 00 00 00 00 00 00 00 00 00
       0.0 0.0
000110 00 00 00 00 00 00 00 00 00 00 00 00 00 00 00 00
       0.0 0.0
000120 00 00 00 00 00 00 00 00 00 00 00 00 00 00 00 00
       0.0 0.0
000130 3c a6 c7 da bc ff bf 3f
       0.12499599782281562

running_mean_std.running_var f8 [39]
000000 a1 20 71 16 4e c9 00 3f 56 ca 55 44 f7 46 1b 3f
       3.201741747510643e-05 0.00010405430028529705
000010 f0 77 a0 b9 c1 93 16 3f a9 f4 cc cd 98 fb 04 3f
       8.612508682445653e-05 4.0021515565127654e-05
000020 d8 a4 65 f7 d9 78 03 3f fa 08 fa 1b 90 be 33 3f
       3.7140037352065356e-05 0.0003012754277521703
000030 a9 f4 cc cd 98 fb 04 3f 4c 47 0c 49 3a e4 a4 3f
       4.0021515565127654e-05 0.0408037389917256
000040 d9 a0 a7 96 30 a7 d8 3f a9 f4 cc cd 98 fb 04 3f
       0.3852044554937613 4.0021515565127654e-05
000050 ed 26 b2 38 a4 ee cb 3f cd f7 8d 4f cb 65 e0 3f
       0.21822026031832512 0.512426047687535
000060 a1 20 71 16 4e c9 00 3f 55 38 f0 79 3c c9 10 3f
       3.201741747510643e-05 6.403380983519118e-05
000070 a1 20 71 16 4e c9 00 3f a1 20 71 16 4e c9 00 3f
       3.201741747510643e-05 3.201741747510643e-05
000080 a1 20 71 16 4e c9 00 3f a1 20 71 16 4e c9 00 3f
       3.201741747510643e-05 3.201741747510643e-05
000090 a1 20 71 16 4e c9 00 3f a1 20 71 16 4e c9 00 3f
       3.201741747510643e-05 3.201741747510643e-05
0000a0 43 12 b0 eb 08 f7 dc 3f 3f 4d 67 70 ae 2e e4 3f
       0.45257781044373163 0.6306984134084032
0000b0 68 82 c3 42 bf 80 69 3f a1 20 71 16 4e c9 00 3f
       0.003113149219743417 3.201741747510643e-05
0000c0 a1 20 71 16 4e c9 00 3f a1 20 71 16 4e c9 00 3f
       3.201741747510643e-05 3.201741747510643e-05
0000d0 a1 20 71 16 4e c9 00 3f a1 20 71 16 4e c9 00 3f
       3.201741747510643e-05 3.201741747510643e-05
0000e0 a1 20 71 16 4e c9 00 3f a1 20 71 16 4e c9 00 3f
       3.201741747510643e-05 3.201741747510643e-05
0000f0 a1 20 71 16 4e c9 00 3f a1 20 71 16 4e c9 00 3f
       3.201741747510643e-05 3.201741747510643e-05
000100 a1 20 71 16 4e c9 00 3f a1 20 71 16 4e c9 00 3f
       3.201741747510643e-05 3.201741747510643e-05
000110 a1 20 71 16 4e c9 00 3f a1 20 71 16 4e c9 00 3f
       3.201741747510643e-05 3.201741747510643e-05
000120 a1 20 71 16 4e c9 00 3f a1 20 71 16 4e c9 00 3f
       3.201741747510643e-05 3.201741747510643e-05
000130 ee dd e6 c1 72 0c 01 3f
       3.251767360573284e-05

running_mean_std.count f8 []
000000 00 00 00 00 40 80 de 40
       31233.0

a2c_network.sigma f4 [24]
000000 23 32 23 bb b0 a6 af 3c 5b 96 85 3c 7a 78 78 3c
       -0.002490171 0.021441787 0.016307047 0.015165443
000010 19 1e 87 bc 2a 72 e1 bb b7 db ff 3b 92 f9 db ba
       -0.016493844 -0.0068800645 0.0078081745 -0.0016782752
000020 5a 51 35 3c 2c 4e c9 3b 37 11 0d bd d0 72 db bc
       0.011066759 0.006143352 -0.034440245 -0.026788145
000030 17 85 72 3b 58 fa 6e 3c 87 17 4e bb 8a bc 92 3c
       0.0037005597 0.014586054 -0.003144713 0.017912168
000040 81 1d 04 3b 10 a1 f1 3c 57 c7 2e 3c 2e 11 79 3c
       0.0020159187 0.029495746 0.0106676435 0.01520185
000050 7e 6a 0a 3b c3 a2 39 bc 8e b9 54 3c 29 06 0f 3c
       0.0021120603 -0.011330309 0.012983693 0.008729496

a2c_network.actor_mlp.0.weight f4 [256, 39]
000000 38 d9 4e bd 3b 6f 88 3d 4c 6c a2 bc ca 74 ba 3d
       -0.050500125 0.066618405 -0.01982703 0.09104307
000010 a9 9d 2a 3e 48 da ed 3d 2f db 3d bd e0 1c a9 3d
       0.16661705 0.116138995 -0.046351608 0.082574606
000020 b8 5e 7c 3b d5 fa d6 3d 97 06 ee bd 13 21 2b be
       0.0038508605 0.10497061 -0.11622351 -0.16711836
000030 75 68 7d bd 30 2b cb bd 76 8b 06 3e 58 ea 3c 3d
       -0.061867196 -0.09920347 0.13139138 0.046121925
000040 94 d6 87 3d 51 6e 4f 3d 5c 8e 36 bb 43 53 00 3e
       0.066327244 0.050642315 -0.002785585 0.12531762
000050 2b 93 f0 bd 1a fc 37 3b fc 99 af bd 50 3e 4a 3d
       -0.1174682 0.0028073848 -0.08574292 0.049375832
000060 09 e0 61 bd 4b f9 48 3d e5 a5 08 bd 14 ff 07 3e
       -0.055145297 0.04906587 -0.033361334 0.13280898
000070 43 5f c2 bd 8f 95 c3 bd 95 98 c3 bd 94 7b 13 3e
       -0.09490826 -0.095500104 -0.09550587 0.1440261
000080 0a 93 5a 3d 0b c8 1d 3e 51 52 07 be 9f a3 22 be
       0.053362884 0.15408342 -0.13214995 -0.15882729
000090 ff 48 00 be 72 9a dc bd 6b 4e b5 3d 46 db 6a 3d
       -0.12527846 -0.107716456 0.08852848 0.05733802
0000a0 67 80 db 3d 32 5a de bd 1d 3b 0a be f9 31 72 3d
       0.1071785 -0.10857047 -0.13499112 0.05912969
0000b0 6f 94 b9 bd f4 22 92 3d ac fd 32 bd 0b a8 a1 3d
       -0.090615146 0.07135573 -0.04369895 0.0789338
0000c0 a6 d9 19 be 61 10 a7 bd b0 a6 03 3d b5 a8 0a 3d
       -0.15024433 -0.08157421 0.032141387 0.033852298
0000d0 80 91 88 bd fa 79 c3 3d 34 f0 de 3d ac d0 ed bd
       -0.06668377 0.095447496 0.10885659 -0.116120666
0000e0 fa 13 af bd 68 24 16 3e 1f 51 5d bd 56 05 91 bd
       -0.08548732 0.14662325 -0.05403244 -0.07081096
0000f0 71 16 1d be dc dd f0 bd ab d7 23 3d 08 25 ad bc
       -0.15340592 -0.11761066 0.0400006 -0.021135822
000100 80 0c ee bd 83 28 76 3b ec 02 e0 bd d6 1c 0b be
       -0.11623478 0.0037560768 -0.10938057 -0.13585219
000110 ed 95 b4 bd 75 82 0f be 3d d0 d0 bd 37 e8 23 3e
       -0.088176586 -0.14014609 -0.10195968 0.16006552
000120 ae c2 f7 3c 07 1e 4a 3d f2 ee 18 be 4e 62 d7 bd
       0.030244198 0.049345043 -0.149349 -0.10516797
000130 ab 50 5a bd 0a 74 4a ba 22 48 10 be 17 58 bd bd
       -0.053299587 -0.00077229796 -0.14090016 -0.092453174
000140 b2 5f f4 bd da bb bc bc ce 1e aa bd 9f 80 0d bd
       -0.11932315 -0.023038793 -0.08306657 -0.03454649
000150 6b 28 07 be e3 24 d6 bd 4d 72 9b bd a3 58 a0 bd
       -0.13199012 -0.10456254 -0.075901605 -0.07829406
000160 90 a7 eb bd e0 30 0b 3e 68 2b 02 bd ea 18 ea 3d
       -0.115065694 0.13592863 -0.031779677 0.11430533
000170 ab 5c 4c 3d b0 d9 0a be 9d f2 e2 3d 9d 76 34 bd
       0.049893063 -0.13559604 0.11081431 -0.04405843
000180 f3 6a 7b bd 90 1b 08 be 38 05 26 be e9 e7 57 3d
       -0.06138129 -0.13291764 -0.16212928 0.0527114
000190 47 49 6f bd e5 59 7f 3d b0 90 06 be 5a 79 f3 3d
       -0.058419492 0.06234159 -0.13141131 0.1188838
0001a0 35 ba f0 bd f7 81 e2 bc 96 fe 08 3d 06 4d a9 3d
       -0.11754266 -0.027649863 0.033445917 0.08266644
0001b0 2b 60 04 3e 00 5f 15 3e 34 04 02 be 94 10 25 3d
       0.1292731 0.14587021 -0.12696916 0.040299013
0001c0 7a 0e 8d bd 03 c0 8f bc 30 76 f5 bd c7 5a 15 3e
       -0.06887527 -0.017547613 -0.11985433 0.1458541
0001d0 5c 66 10 be ed 44 af 3d 95 54 a2 3d 71 a5 99 3d
       -0.14101547 0.085580684 0.07926289 0.075022586
0001e0 19 44 82 bd 37 8f 2c 3e b0 50 6e 3d 57 71 32 3d
       -0.06360645 0.16851507 0.05818242 0.04356512
0001f0 df 12 0f be 1b 02 8e 3d 00 72 8a ba c8 7e 9d bd
       -0.13972043 0.06933995 -0.0010562539 -0.07690197
000200 05 c7 17 3e 8f 3a 12 3d 89 61 86 bd 04 fc a5 bd
       0.14822014 0.035700377 -0.06561572 -0.08104709
000210 fa 93 fa bb 41 1c b7 3d cc 99 27 bd a0 1d bb bd
       -0.0076470347 0.08940936 -0.040918157 -0.0913651
000220 65 9a 60 bd 54 d3 dd bd 13 64 61 3d a3 79 16 3e
       -0.054834742 -0.10831323 0.05502708 0.14694838
000230 7f 5e 1a be 68 54 18 3d 91 69 a9 3d c5 dc ed 3c
       -0.1507511 0.03718987 0.08272088 0.029035935
000240 a7 93 69 bd bf 2a ab 3d 8c 56 ac 3d d3 40 75 3d
       -0.057025578 0.083577625 0.08414945 0.059876274
000250 8b 81 e6 bc dd ad 2d bd 97 55 8c 3c c1 ba e7 bc
       -0.028137943 -0.042402137 0.017130656 -0.028287293
000260 53 74 43 bd 81 9f d1 3d b3 ea 0c 3e cf c5 e8 3b
       -0.047718357 0.10235501 0.13761406 0.0071036587
000270 bf d9 12 bd ff f4 8e bb 59 36 85 bc 2d 2c 02 3d
       -0.03585219 -0.004362702 -0.016261267 0.03178041
000280 3f 4b 1c 3d 29 c8 1b be 3c c7 86 bd d1 89 1e 3e
       0.038157698 -0.15213074 -0.0658097 0.1548226
000290 0a 58 8c 3d 1c 87 70 bc de 08 ab bd 91 e6 c6 bd
       0.068527296 -0.01468065 -0.08351301 -0.09711946
0002a0 47 e1 12 be 13 44 71 bd bd 7e 5d 3d 6b 1a d1 3d
       -0.14343749 -0.05890281 0.054075945 0.10210117
0002b0 00 69 97 3d ff f0 10 be 58 36 c5 bd e4 04 cf bc
       0.07393074 -0.14154433 -0.09629506 -0.025270887
0002c0 28 23 1a 3e d8 58 bc 3c 86 3c 45 bd bf ac 87 3d
       0.15052474 0.022991583 -0.048153423 0.066247456
0002d0 80 d0 79 bd 3a 43 d4 bd 6b 5c ef 3d b3 1d 95 bd
       -0.060989857 -0.10364385 0.11687549 -0.07281055
0002e0 ad 7b 03 bd 89 1e 23 be 75 7b db 3d e7 75 f8 3d
       -0.03210037 -0.15929617 0.10716907 0.12131863
0002f0 3b 09 6f 3d 72 aa e4 bd 6a d4 21 be 8a 2c 05 be
       0.058358412 -0.11165322 -0.15803686 -0.13005272
000300 f8 8b f4 3d 72 72 9d 3d e8 19 03 3e 96 cc ab 3d
       0.119407594 0.07687844 0.12802851 0.08388631
000310 48 38 df 3c a8 3e 73 bc f6 38 0a be 3d 02 1a be
       0.027248517 -0.014846481 -0.13498291 -0.15039916
000320 14 fe 26 be 50 68 56 3d 21 f6 a5 bd 9e 93 70 bd
       -0.1630786 0.052345574 -0.08103586 -0.05873453
000330 b1 c6 d7 bd a0 17 0f bd 59 f0 09 be 61 48 d6 bd
       -0.10535944 -0.03493464 -0.13470592 -0.10463024
000340 fa 4b 23 3d 37 ed 42 bd fa 73 ca 3d e3 69 52 bd
       0.03986738 -0.047589507 0.09885402 -0.051370513
000350 5d 91 f0 bd 7f 72 e7 bc 21 f8 9e bd 28 89 82 bd
       -0.11746476 -0.028252838 -0.077621706 -0.06373817
000360 07 2f 1e be 28 2c 9c 3d a5 50 e4 bd 66 d4 a4 3d
       -0.15447627 0.0762561 -0.11148194 0.08048324
000370 ab d0 94 3d f6 4a ea 3d 86 8c fb bd eb da eb 3d
       0.07266363 0.11440079 -0.12282662 0.11516365
000380 0b 09 9b bd f1 60 73 3d df fc 19 3e 57 00 b9 bc
       -0.07570084 0.059418622 0.15037869 -0.02258317
000390 f9 4f a2 ba 37 01 17 bd d7 e9 08 be 6a 61 9d 3d
       -0.0012383453 -0.036866393 -0.13370453 0.07684596
0003a0 f4 c6 22 be 98 99 b0 3d f1 5f f5 3d 6e 66 26 3e
       -0.15896207 0.08623046 0.1198119 0.16250011
0003b0 4c c4 da bc 12 c9 f6 bd 54 cb 40 3d 55 d3 cb 3d
       -0.02670493 -0.1205007 0.04706891 0.09952418
0003c0 82 de 17 be 46 a2 0f bd 80 12 b1 bd 40 8e 40 bb
       -0.14830974 -0.035066865 -0.08646107 -0.0029381663
0003d0 cf fb a2 bd 22 79 5d bd 6b 37 50 bd 96 7d 10 be
       -0.07958185 -0.0540706 -0.0508341 -0.14110407
0003e0 25 8a 06 3e 52 76 09 3e ad c6 cd bc 16 63 95 bc
       0.13138635 0.13424042 -0.02511915 -0.018235724
0003f0 00 d7 85 bd 89 13 14 be 23 77 20 be 17 42 78 3d
       -0.065351486 -0.14460577 -0.15670447 0.060609903

a2c_network.actor_mlp.0.bias f4 [256]
000000 3b a8 9e 3c 7a c8 f0 bc dc 03 ad bc f9 3c c4 3c
       0.019367328 -0.02939247 -0.021120004 0.023954855
000010 12 37 ca bb 66 57 9c bc da 28 37 3c a0 63 c4 3c
       -0.0061711157 -0.019084644 0.011179173 0.023973286
000020 3b 0d 85 3b a8 b7 d5 3c 16 a5 28 bb 95 5e e5 bb
       0.004060415 0.02608855 -0.0025733165 -0.0069998004
000030 52 40 8b bc 5a 51 9b 3c b1 c1 12 bd 12 6e d9 bc
       -0.016998444 0.01895969 -0.03582925 -0.026541743
000040 ec 75 70 3c 7f f8 b3 3c d9 5c 51 3c 4b 9d 86 bc
       0.014676552 0.021969078 0.012778484 -0.016432425
000050 c3 d4 89 bc 4d d2 a5 bb 81 e7 5b bc 58 4f d2 bb
       -0.016825086 -0.00506047 -0.013421894 -0.00641815
000060 74 48 6f bb 30 9c bd bc 32 ae 8d 3c dd ec 0d bc
       -0.0036511691 -0.023145765 0.017294977 -0.00866243
000070 33 d0 fa 3c 6e 29 f3 3a 20 bf 62 3c f7 45 9c 3c
       0.030616855 0.0018551776 0.013839513 0.01907633
000080 f9 44 f1 3c b3 b9 08 3d ba a9 a1 3c 76 71 b4 bc
       0.029451834 0.03338022 0.019734252 -0.022026759
000090 56 bf a4 bc 28 bb 02 bd d3 f0 9b 3c 23 2b 87 bc
       -0.020110767 -0.031916767 0.019035732 -0.016500061
0000a0 b0 55 9c bc 5a f2 99 3a 3b 6c 01 bd b8 24 9f 3a
       -0.019083828 0.00117452 -0.031597357 0.001214168
0000b0 03 9a f7 bc 25 43 1d bc 2d 62 a8 bc 1d 39 38 bc
       -0.030224806 -0.009598528 -0.020554626 -0.011244086
0000c0 69 b6 f7 bc 5c ce b1 bc 13 3b a9 bc f2 76 b9 3c
       -0.030238347 -0.021704845 -0.020658052 0.022639725
0000d0 94 9d d7 bb 46 68 a8 3c 18 75 07 bd 6b 00 55 3c
       -0.006580064 0.020557534 -0.033070654 0.013000588
0000e0 d4 e9 fe bb a4 bc 54 bc 22 de 83 bc 35 fd 1f bd
       -0.0077793393 -0.012984429 -0.016097132 -0.039059836
0000f0 ea 04 e3 bc b8 5a 1e b9 45 30 91 bc cc 4a bf 3c
       -0.027712304 -0.0001510185 -0.017723212 0.023351096
000100 88 6a e0 bc e2 24 0a 3d c9 cb e0 bc d4 7b c6 bc
       -0.027394548 0.03372658 -0.027440922 -0.024228968
000110 de 6c e8 bc 3c bb 9a bc d4 90 6a 3b c6 2f bb bc
       -0.028372224 -0.018888108 0.003579189 -0.022849929
000120 1b 58 0a 3d 0d 5a 26 bc 9f 14 3d bc 5a cd 84 bc
       0.03377543 -0.010153306 -0.011540561 -0.0162112
000130 d9 bc 24 3d 27 7b 00 3d e7 76 05 bd dd d6 df bc
       0.04021916 0.031367447 -0.032584097 -0.027324134
000140 16 e6 f0 bc c1 fd a9 3c 96 56 60 3c b4 73 cf 3c
       -0.029406589 0.020750882 0.013692519 0.025323726
000150 5b 85 b7 bb 10 1e 94 bc d5 19 c0 bc 27 bb 67 bc
       -0.005600614 -0.018080741 -0.023449818 -0.014143742
000160 31 8c c5 bc 0d 3d 81 3c 2e 8b f1 bc ef e1 07 bd
       -0.0241147 0.015776182 -0.029485311 -0.03317445
000170 de 4e 91 3c 40 0c d9 3c 95 cb c8 3c 3b c5 86 bc
       0.017737802 0.026495099 0.024511138 -0.016451469
000180 78 ec 7d bc 7d ea 9a bc 15 d0 49 bc f6 8d 3d bc
       -0.015498273 -0.01891064 -0.012317677 -0.011569491
000190 62 27 9f 3c a5 c8 88 3c 22 d5 9d 3b 89 2b a2 3c
       0.019427959 0.016697237 0.004816667 0.01979615
0001a0 84 0b 20 3c ee 9f 5a bc 52 ec bb 3c fa 47 c0 bc
       0.009768371 -0.013343794 0.022939835 -0.023471821
0001b0 36 6e 41 3d a9 bf 38 3b dc 4e d1 bc 65 70 a6 bc
       0.047224246 0.002819041 -0.025550298 -0.020317266
0001c0 99 61 3c 3c 85 ea ee 3c 64 5b 09 bd c5 a1 87 3c
       0.0114978785 0.029164562 -0.033534423 0.01655663
0001d0 2e 68 07 3d 13 1d bb bc 17 54 63 3a 7b 70 61 ba
       0.033058338 -0.022841012 0.0008671893 -0.000859983
0001e0 11 47 5c 3c c1 7c aa bc 2c f8 99 bc 3e ad b8 bc
       0.013444678 -0.02081144 -0.018795095 -0.022543546
0001f0 92 92 b0 ba 21 a5 c4 bc 22 a9 83 3c 62 c6 c1 3c
       -0.0013471416 -0.02400452 0.01607186 0.023654167
000200 65 9f c1 3c 3d 45 a3 3c f7 a8 4c bc 6c 70 31 3c
       0.023635576 0.019930476 -0.012491456 0.010830026
000210 37 80 68 bb 64 a2 71 bc 60 a6 4f bc b1 33 e1 3c
       -0.0035476813 -0.01474819 -0.012673944 0.027490469
000220 a3 eb b0 bc a8 52 ee bc ea 1c bd bc 55 56 0c 3d
       -0.021596735 -0.029092148 -0.023085076 0.03426202
000230 ce f2 f3 bb 59 51 e4 3c 64 c3 dd 3c 13 21 b5 3c
       -0.007444716 0.02787082 0.027070709 0.022110498
000240 ca a8 16 3c 06 4c 92 3a 99 63 ef 3b 83 14 ce bb
       0.009195516 0.0011161573 0.007305574 -0.0062890663
000250 6f e4 be 3c b4 ac 19 bc d2 38 8b 3c dd b1 92 3c
       0.023302285 -0.009379555 0.016994867 0.017907077
000260 2a 5b 14 bb ae ac 0d bd b1 b7 cb bb 24 77 66 3c
       -0.0022637346 -0.03458851 -0.006216966 0.014066491
000270 83 9c e6 bc a3 f0 5b 3c 34 3c ab bc d7 32 b4 bc
       -0.028150802 0.0134240715 -0.02090273 -0.021996899
000280 7c fe 22 bd 94 93 85 bc cb bd 07 bd 01 f5 60 3c
       -0.039793476 -0.016305722 -0.033139985 0.0137302885
000290 d4 b2 bb bc 25 ff 21 3d 46 4e 41 bc 31 d5 9f bc
       -0.02291242 0.039549965 -0.011798447 -0.019510837
0002a0 df 5a a5 3c 67 94 d1 3a 18 be c0 3c 93 67 ed bb
       0.020184932 0.0015989662 0.023528144 -0.007245013
0002b0 23 f3 8b bc b3 1a bd 3c f7 8f 43 bb f1 2f b3 bc
       -0.01708371 0.02308402 -0.0029840448 -0.021873446
0002c0 c1 dc fb 3c 22 72 91 bc 00 79 94 bc 91 91 f2 bc
       0.030744912 -0.017754618 -0.018124104 -0.029610427
0002d0 c6 bf 7d bc d0 da 06 3d d1 de f5 3b 61 8d c7 3c
       -0.015487617 0.03292352 0.0075033684 0.024359407
0002e0 72 d7 a4 3c de 3f 06 3d b2 a3 09 bc 17 ea eb bc
       0.020122264 0.032775752 -0.008400844 -0.028798146
0002f0 c8 ac 50 bc aa 4f a7 3c 36 92 00 3d 2a e8 0a bd
       -0.012736507 0.020423729 0.031389438 -0.033912815
000300 fb 63 de 3c 65 cd c2 3b 3c 22 ef 3c cb 2e 3e 3c
       0.027147284 0.005944895 0.029191129 0.011607836
000310 7d cb f7 3c cc 6b a8 bc d1 ff 50 bb da 60 dc bc
       0.030248398 -0.020559214 -0.003189076 -0.026901651
000320 5c f3 85 3c 9e 7d 38 3c a5 81 dd 3c 1b 5a 80 3c
       0.016351394 0.011260418 0.027039358 0.015667966
000330 07 64 0f 3c ca 85 89 bc 18 1d 9e bc 49 96 5b 3c
       0.008751876 -0.016787428 -0.019300982 0.01340253
000340 f7 b3 e1 bb c9 25 15 3c 1f 36 7a 3c 45 f5 c5 bc
       -0.0068879086 0.009103247 0.015271693 -0.024164805
000350 c3 85 8c bc d1 41 c4 bb 58 71 95 3c e0 0f 02 3c
       -0.017153626 -0.0059892912 0.018242523 0.007938355
000360 e9 ba b0 bc 63 54 a5 bc 2f f6 15 3d dc ea a8 3c
       -0.0215735 -0.02018184 0.036611732 0.020619802
000370 c8 28 49 3c 5d aa 29 bc 35 d8 97 3c c7 64 57 bc
       0.012277789 -0.010355559 0.018535713 -0.013146586
000380 e7 d0 32 3c 7f f5 f9 3b 52 00 39 bc da a5 e6 bb
       0.010914064 0.0076281424 -0.01129158 -0.007038814
000390 dc bd b0 3b e3 2e 2e bc 49 5d 14 3c 18 9f e8 3b
       0.0053937268 -0.010631296 0.009055444 0.0070990436
0003a0 d4 07 0a bd 5f 08 7d 3a b8 c6 3f bc a0 d9 b5 3c
       -0.03369887 0.00096524315 -0.011705093 0.022198498
0003b0 af 0b 8b 3c 3d c4 67 bc b1 da a0 3c a1 05 e3 bc
       0.016973345 -0.014145908 0.01963553 -0.027712645
0003c0 7d 0a 96 3c 4e 85 7c bc 2d 24 1a 3d 17 d3 e5 3c
       0.018315548 -0.015412642 0.037632156 0.028054757
0003d0 23 70 95 3c a9 c0 fe 3c ed 26 ba 3c fb b8 a6 3c
       0.018241948 0.031097727 0.02272364 0.020351877
0003e0 f7 c1 ba bc d8 5f d8 3c 8c c6 bd 3b 3e 2b af 3c
       -0.022797568 0.02641289 0.005791491 0.021382924
0003f0 19 7d 21 bb 2a 17 11 3d 73 e2 aa 3b 2f 67 ae bc
       -0.0024641214 0.03542248 0.005214983 -0.021289436

a2c_network.actor_mlp.2.weight f4 [128, 256]
000000 e9 d4 52 3d 36 60 7f 3c 57 74 be 3c 53 4b 81 bd
       0.05147258 0.015586903 0.023248835 -0.06313195
000010 ad b1 0a bd ca 33 ac 3d 88 f3 32 bd e3 d3 63 bd
       -0.03386085 0.084083155 -0.04368928 -0.055621993
000020 79 f8 03 bd 02 aa b9 bd 0d 1c 8c bc ee 03 90 bd
       -0.032219384 -0.090656295 -0.01710322 -0.070319995
000030 b3 b9 8f 3c 8a 85 88 bd ad eb 0d bd a1 06 5c 3b
       0.017544603 -0.066660956 -0.034648586 0.0033573287
000040 11 e5 82 bd 2c 0c 46 3c be c0 40 bc 52 f6 f5 3c
       -0.06391347 0.012087863 -0.011764703 0.030024681
000050 5b 1b 93 3d e9 6a 2a bd 99 47 76 bb b0 f4 c2 3c
       0.07182952 -0.041605864 -0.0037579297 0.023798317
000060 8a 9e 58 3d 48 d9 ae 3c 2c 5e 8d bc e9 f6 82 bc
       0.05288557 0.021343842 -0.017256819 -0.015986877
000070 51 c8 b2 bd 22 cd a1 bd 24 13 3b bd 04 41 84 bd
       -0.087296136 -0.07900454 -0.04567255 -0.06457713
000080 de cc b2 bd 48 fe 37 bd 04 e0 fd 3a f8 ca 51 3d
       -0.087304816 -0.044920236 0.001936913 0.051218957
000090 80 24 23 3d 1d 0e a8 3c 68 bc d5 bc f4 e7 57 3d
       0.03982973 0.020514542 -0.026090816 0.052711442
0000a0 cf 22 80 bc 25 57 88 3d f1 b0 6b 3d ef 9a ca 3b
       -0.015641598 0.066572465 0.05754179 0.0061830203
0000b0 83 0a 99 3d 1c 3a 5d 3c 22 99 29 bd 26 cb 9b 3d
       0.07472708 0.013502624 -0.041405804 0.07607107
0000c0 1d 99 32 3d 0f cf 89 3d 9c 7e 8e 3a 95 7e 72 bd
       0.04360305 0.067289464 0.0010871473 -0.05920275
0000d0 bf 37 71 3d 8b 4c df bc be cd 78 3d e9 ee 2b 3c
       0.058891054 -0.027258178 0.060743086 0.010493972
0000e0 3e e7 06 3d bf c5 1b bd c3 bd 5d 3c 5e c5 67 3d
       0.032935373 -0.038030382 0.013534012 0.05658471
0000f0 cb 24 c7 3c 23 3e 98 3d 5c 2e 8b ba 4e 04 ac 3b
       0.024309536 0.07433727 -0.0010618675 0.0052495366
000100 9e 65 7f 3d 61 99 f3 bc 53 31 b7 3c c1 8f af 3d
       0.06235277 -0.029736223 0.022362387 0.08572341
000110 c5 ed fe bc 11 87 81 bd d8 28 9d 3d d1 8c 1b bd
       -0.031119237 -0.0632459 0.07673806 -0.03797609
000120 90 51 bd bc 20 9e dd 3c 2a 3d ab bc 8a 60 80 bc
       -0.023110181 0.027052939 -0.020903189 -0.015671033
000130 c5 40 a0 bc 4c 0a 8f 3b 37 d8 56 bc 58 2d 84 3d
       -0.019562135 0.004365241 -0.013113073 0.06453961
000140 ff bc 79 3c e5 ce 2d bd cd 09 49 bd 57 73 44 bd
       0.015242814 -0.042433638 -0.049081612 -0.04796156
000150 53 fd 27 3d 1f 52 e6 bc 59 22 6f bd 27 69 b8 3c
       0.041013073 -0.02811533 -0.058382366 0.022511078
000160 db 22 62 3d a7 48 73 bc d0 9f ba 3d cf 9e ad 3d
       0.055209022 -0.014848865 0.09112513 0.08477556
000170 9f 52 97 3c 58 e3 06 bd c5 f5 9d bd 5e 84 74 bd
       0.018472014 -0.032931656 -0.077128924 -0.059696548
000180 c0 bb 2e 3c 7a 02 6a bd 84 25 f5 3c 5d a1 8f 3c
       0.01066488 -0.057131268 0.029925115 0.017532999
000190 32 6d 7d 3c ae 35 8f bd a5 ba 63 bd ee f2 a3 bb
       0.015467929 -0.069926605 -0.05559792 -0.0050033247
0001a0 93 70 54 b9 e7 1e b0 3d 2d f4 d4 bc cc 4f 47 3d
       -0.00020259833 0.08599644 -0.025995338 0.048660085
0001b0 35 e9 e3 bc 18 d1 8f 3b 35 3e 87 3b f9 71 45 bb
       -0.027821163 0.0043889396 0.0041272887 -0.0030127747
0001c0 22 65 32 3c 60 41 aa bd 2a a2 c6 3c 2c 23 82 bd
       0.01088837 -0.083132505 0.024247248 -0.06354365
0001d0 36 fc 95 bd 39 14 20 bd f0 10 11 bd 0d 58 86 39
       -0.07323496 -0.039081786 -0.035416543 0.00025624075
0001e0 66 31 9b bd f6 d5 90 3d c9 1c 37 3c ce 72 e1 3c
       -0.075777814 0.0707206 0.0111762965 0.027520563
0001f0 b1 45 8a bd a2 36 3a 3d c5 70 94 bd ff c9 03 bc
       -0.06751574 0.04546226 -0.072480716 -0.008043765
000200 56 50 08 3d 11 13 9c bd 89 0e 0d 3d be 1d 6b bc
       0.03327974 -0.07620824 0.03443769 -0.014350353
000210 a3 62 e9 bc 24 b0 fa bc 8c bf 10 3d 77 40 5b bd
       -0.028489416 -0.030601569 0.035338923 -0.053528275
000220 97 1e a6 3c 49 de 04 3d 5b 45 8b 3d eb 9e 02 bd
       0.020278258 0.03243855 0.06800338 -0.031889837
000230 3b 26 8a 3b ae f0 b3 bc a8 a1 18 3d 7f e3 c5 bd
       0.004215983 -0.021965351 0.037263542 -0.09662532
000240 b1 40 b8 bc 44 85 90 bc ac 28 88 bc 0f 9f 40 3c
       -0.022491785 -0.017641671 -0.016620956 0.0117566725
000250 0d 4e 1f 3c a7 f3 e5 3b ef 72 f0 bc 76 76 14 3c
       0.009723199 0.007017571 -0.02935168 0.009061446
000260 65 c1 96 bd 7f 71 9d 3d 87 1e 99 bd 8a 0a 82 bd
       -0.07361106 0.07687663 -0.07476526 -0.063496664
000270 38 e7 75 3d 99 d9 a9 bc 52 c3 26 3d 4e 43 9a 3d
       0.06003496 -0.020733641 0.040713616 0.075323686
000280 f1 84 b8 3d f5 7b 65 3c 67 c9 dd bc 61 4a 4d 3c
       0.090097316 0.014006604 -0.027073575 0.01252994
000290 32 bc 00 3c cb e7 a0 bd 2c 8b 2c 3d 57 f6 8c 3d
       0.007857369 -0.07856711 0.042124912 0.06882923
0002a0 8b 82 14 bd 07 5c 5d bd 2b e3 92 bd a4 30 7e 3c
       -0.036257308 -0.054042842 -0.07172235 0.0155145265
0002b0 03 7f a5 3c f5 91 39 bd ba 45 4e 3b 3a 90 a9 3c
       0.020202165 -0.04530521 0.0031474666 0.020698655
0002c0 e6 42 32 3c 02 8c 90 3d 73 61 ad bc f1 e0 3c bc
       0.010880208 0.07057954 -0.021164631 -0.01152824
0002d0 2d b6 20 3d 96 5e 9b bd 99 01 63 3d bb c7 59 bc
       0.039236236 -0.075864 0.055421446 -0.013292248
0002e0 b0 72 80 3d d7 eb 1a bd ff f9 b1 bc e1 07 80 bc
       0.06271875 -0.03782257 -0.021725653 -0.015628757
0002f0 41 61 33 3d 4f df 7f bc bd 5f d5 bc 1d 4b 44 3d
       0.04379392 -0.015617206 -0.026046628 0.047923196
000300 69 21 bc bd d0 1f ba bc 5d db a1 3c 6f ab 2d bd
       -0.0918606 -0.022720248 0.01975792 -0.04239982
000310 03 bb 9c bd 20 4b a0 3d 80 12 fd bc 20 be 6c 3c
       -0.07652857 0.07826829 -0.03089261 0.014449626
000320 a1 37 90 bd 2d 40 40 3d e4 22 d9 bc 6a 2a c2 3c
       -0.0704186 0.046936203 -0.026505895 0.023701865
000330 7e 08 05 3d 87 93 ef 3c 81 97 7e 3a cd d2 a0 3c
       0.032478802 0.029245151 0.0009711907 0.019631768
000340 9c 52 11 bd 2b 55 56 3d 4b 00 79 bd f8 aa 1f bd
       -0.035479173 0.052327316 -0.060791295 -0.038981408
000350 63 85 d2 bc 7b 85 00 bd e5 6e 4d bc e6 c5 c5 bc
       -0.02569837 -0.031377297 -0.012538646 -0.024142217
000360 e4 7c 20 3d 5c f3 c2 3d 9c 4b 43 bd b3 63 47 bc
       0.039181605 0.09519073 -0.04767953 -0.012169766
000370 19 5c 06 bd d4 a6 2a 3d 6e 36 b1 3c ba 82 ac bb
       -0.032802675 0.041663006 0.0216324 -0.0052646073
000380 92 54 22 3d c1 ee c9 ba cd b0 a1 3c d1 2e 19 bd
       0.039631434 -0.0015406237 0.019737625 -0.037398163
000390 6d b0 c8 bc 1b c0 78 3d 55 ab a3 bc 0d 5a 8c bd
       -0.024498189 0.06073008 -0.019979158 -0.06853113
0003a0 b4 8a 7e bc ed 8f 27 3d 0e fc 39 bb 91 cf 4a 3b
       -0.015535999 0.040908743 -0.0028378996 0.0030946473
0003b0 19 1b f5 3c bc 6d d2 bb f2 44 98 bd ac 74 73 3d
       0.029920148 -0.0064217728 -0.07435025 0.05943744
0003c0 58 51 97 3c b8 4f f5 bc db 19 7b 39 41 bd 99 bc
       0.018471405 -0.02994524 0.00023946857 -0.018767001
0003d0 57 38 5e bc cc c7 38 3b c2 ea d0 3c 9a c2 8e 3d
       -0.013563237 0.002819526 0.025502566 0.06970711
0003e0 42 20 2b 3c 24 b4 4f ba 26 d0 6c 3d 93 1c 91 bd
       0.010444703 -0.00079232664 0.057815693 -0.07085528
0003f0 5c e7 11 3d ed 42 5d bc 29 03 18 3d 7a 4c 95 bc
       0.035621032 -0.013504726 0.03711239 -0.018224943

a2c_network.actor_mlp.2.bias f4 [128]
000000 09 08 1f bd 3a bf 76 3c 68 14 8b 3c d8 ad 30 3d
       -0.038826022 0.01506024 0.016977504 0.04313454
000010 8d 9a 1d bd b3 21 ca bc bd a0 21 bd b3 28 ff 3c
       -0.03847747 -0.024674272 -0.039459933 0.031147337
000020 2f 31 8e bc 8c 13 90 3c eb 3a 51 3c a2 ef 0d 3d
       -0.017357437 0.017587446 0.012770395 0.03465236
000030 fb 4d ce 3c 8b ae 13 bd 61 d9 31 3d 9d b8 32 3d
       0.025183668 -0.03605513 0.0434202 0.043633092
000040 64 04 1e bd 79 63 e1 bc b0 28 11 3d 1a ba be bc
       -0.038578406 -0.027513253 0.035439193 -0.0232821
000050 de 2f 4c bc 08 27 1b 3d ac c0 8c 3c 6b b9 2a 3d
       -0.012462584 0.03787902 0.017181717 0.041680735
000060 84 da 08 bc 32 15 26 3d 47 93 1b bd d3 2f 2a bd
       -0.008352879 0.040547557 -0.03798225 -0.041549515
000070 2e dd 2d 3d e5 88 ac bc 35 19 3e bd a7 a6 93 bc
       0.04244726 -0.02106137 -0.046410758 -0.018023802
000080 dc 04 ee 3c c4 48 a5 bc 85 8f 13 bc 5f d8 29 3d
       0.029055052 -0.020176299 -0.009006386 0.041466113
000090 34 0d 3d bd be 1d 34 bc c8 13 31 3d b5 77 20 bd
       -0.04615517 -0.010993419 0.043231755 -0.03917666
0000a0 08 1c 93 bc 97 e3 09 bd ea 04 97 bc e1 9d 34 bd
       -0.017957702 -0.033664312 -0.01843496 -0.044095878
0000b0 30 0b 39 3d 9b d1 bf bb 01 39 16 bd 3b 96 fb 3c
       0.045176685 -0.0058538443 -0.036675457 0.030711284
0000c0 b3 d7 9a 3c e4 1b c4 bc 5f a1 9e bc a5 12 3c 3d
       0.018901682 -0.02393908 -0.019364057 0.04591622
0000d0 e4 9c 8e 3c c9 1f 15 bc 6a 04 19 bd b4 97 52 3c
       0.017408796 -0.009101816 -0.037357725 0.012853552
0000e0 37 1d 0b 3d 8e b8 cc bc a3 6a 31 bd 6a 14 d2 3c
       0.03396341 -0.024990346 -0.043314587 0.0256445
0000f0 0c 66 ff 3b ae c6 b9 3c 0b 81 37 3c 89 75 0e 3d
       0.0077941474 0.022677746 0.0112002 0.03478006
000100 2d e5 d6 3c 61 d6 0c 3d a5 57 ed 3c 71 a2 c3 3c
       0.026232326 0.034384135 0.028972456 0.023881169
000110 f4 bc c2 bc d6 38 b8 3c c3 bd a3 3c 00 a0 45 3c
       -0.02377174 0.022488039 0.019987946 0.012062073
000120 c7 0d 10 bd 16 b2 2b bd 37 9e 62 3c 5b 86 c2 3c
       -0.03516939 -0.041917883 0.013831667 0.023745706
000130 16 1e 8a 3c e7 88 2a 3b d3 4c 2b 3d d1 35 18 bd
       0.01686005 0.0026021542 0.041821312 -0.0371607
000140 c0 f7 b8 3c c0 8f bd bc b0 aa e9 bc bf 05 5c 3c
       0.022579074 -0.023139834 -0.028523773 0.013429104
000150 dd 26 23 bd 2c 34 28 3d 9b ed 30 bd b4 6e cb bc
       -0.039831985 0.04106538 -0.04319535 -0.02483306
000160 88 6c 15 3d a3 02 59 3c 45 99 3e 3d 52 60 14 bd
       0.036480457 0.013245258 0.046532888 -0.03622467
000170 73 25 e6 3c 67 df 77 3c 06 77 f3 3a 34 e5 0d bd
       0.028094029 0.015128947 0.00185749 -0.034642413
000180 73 44 01 3d da 71 bb bc c2 4e 18 3d 42 d2 13 bd
       0.03155942 -0.022881437 0.037184484 -0.03608919
000190 54 c5 8e bc d8 b9 d3 3c 69 41 f5 3c c7 a1 d5 3c
       -0.017428078 0.025845453 0.029938417 0.026078118
0001a0 66 8a 2f 3d 6f e1 36 3d 71 af 07 3d c3 a4 13 bd
       0.042856596 0.044648584 0.0331263 -0.0360458
0001b0 95 c8 09 bd 45 5d fe bc ec a9 38 3d f2 2e 1b bd
       -0.033638556 -0.031050334 0.045083925 -0.037886567
0001c0 39 98 04 bd c7 41 6e 3c 12 52 01 3c 3d e5 36 3d
       -0.032371733 0.01454205 0.007893102 0.044652212
0001d0 c5 8c c0 3c 34 6f 62 3c 4b 6c ba bc 2a c2 e0 bc
       0.023504624 0.013820458 -0.022756716 -0.027436335
0001e0 af b9 0f bd b6 92 1f bd 39 cb cf 3c 86 84 fa bc
       -0.03508919 -0.038958274 0.025365459 -0.03058077
0001f0 a8 3c a0 bc 8c 9c 39 bb be a1 ed 3c 61 46 62 3c
       -0.019560173 -0.002832207 0.029007789 0.013810725

a2c_network.actor_mlp.4.weight f4 [64, 128]
000000 bf a6 0e 3d d3 de e3 39 23 32 d3 bc 3f b3 ab 3d
       0.03482699 0.0004346283 -0.025780743 0.08383798
000010 c4 ec 24 3d db 0b c5 bc 48 c9 0a bd ed b3 30 3c
       0.04026486 -0.024053505 -0.033883363 0.010785085
000020 76 48 ab bd 03 fa c2 3d fa 3c 6a bd 8c d0 8b 3d
       -0.0836343 0.09520342 -0.057187058 0.068268865
000030 22 93 b6 3d da c8 2c 3d a9 7e b0 3d 2f 78 6a bd
       0.08914782 0.042183734 0.086179085 -0.057243522
000040 b0 ea 90 3c b2 93 39 3d 8f 11 99 bd a0 63 c5 bd
       0.017690033 0.04530687 -0.07474052 -0.096381426
000050 4e a6 8a 3c a7 5b 96 3d bb bb 81 3d 00 0b 02 3d
       0.016925003 0.073417 0.06334635 0.03174877
000060 c6 9e 6f 3d 8b 04 58 3d f3 db 89 bd 50 9e 9f bd
       0.058501028 0.052738708 -0.06731405 -0.077938676
000070 fd 15 94 3d 6a 7a 58 bd 9c 02 e4 3b ba a6 42 bd
       0.072307564 -0.05285112 0.006958319 -0.047522284
000080 43 15 b1 3c 26 ed 2d 3c 82 15 a4 3d 6c b4 a1 bc
       0.021616584 0.010615623 0.08011915 -0.019739352
000090 86 fa d7 3c 8e 59 2f bd df 41 24 3d 31 da 69 3c
       0.026364576 -0.042810015 0.040101882 0.014273212
0000a0 21 16 8e 3d 10 10 8c bd 58 55 13 bd 92 08 53 3d
       0.069378145 -0.06839001 -0.035970062 0.051521845
0000b0 1d 6b b5 bd 02 36 36 bd 73 7e 30 3d f3 4a fc bc
       -0.08858321 -0.0444851 0.04308934 -0.030797457
0000c0 af d0 17 bd 1c e0 bb bc ee c7 75 3d 0e 5e c3 3b
       -0.03706425 -0.022934012 0.06000512 0.00596214
0000d0 f7 f9 47 3b 63 ab b2 bd c3 d0 42 bc 11 07 40 3d
       0.003051398 -0.08724096 -0.011890593 0.04688174
0000e0 bf b4 ac bd e1 19 a5 3d da e2 72 3b 56 c3 b5 3d
       -0.08432912 0.08061577 0.0037061484 0.08875148
0000f0 02 57 5b 3c c3 2d 8e bd 7c dd 4b 3d 39 51 98 bd
       0.0133874435 -0.06942322 0.04977177 -0.07437367
000100 4b fb c2 3c 41 68 07 bc ec e8 7c bd 92 a9 f8 3c
       0.023801466 -0.008264602 -0.06174557 0.030354295
000110 93 e4 2b bd c0 db 80 3d 8a 61 24 bc d6 e5 83 bd
       -0.041966032 0.06291914 -0.010033021 -0.06440322
000120 ab d5 96 bd 4e ac 55 bd f3 8e 77 3d 36 97 d2 3d
       -0.07364973 -0.052166276 0.06043906 0.102827474
000130 9e 05 72 3d b6 7d 81 bd cb 7f d5 3b 9e 44 18 bd
       0.05908739 -0.063228056 0.0065154782 -0.037174813
000140 37 c7 68 3d e7 4d 9a 3d f0 42 bb 3c 3a de b7 3c
       0.05683061 0.0753439 0.022859067 0.022444833
000150 b2 55 66 bc 3d 2b 24 bd 0a 80 30 bd e7 94 8d bd
       -0.014058517 -0.040080298 -0.043090858 -0.069131665
000160 55 92 d6 3c a2 9d ba 3d 74 68 bc bc f4 ed cb 3d
       0.026192823 0.09112097 -0.022999026 0.09957495
000170 af 44 24 3d a1 e1 f1 bc 1a 97 8d 3d 0c 58 8a bd
       0.040104564 -0.029526534 0.06913586 -0.06755075
000180 96 65 c7 3c d9 dc 86 bd cc 7a fb 3c 96 4c c0 3c
       0.024340432 -0.06585092 0.030698203 0.023474019
000190 86 8a 94 3c f2 71 0d bc 8d 1d 7a bd ce f7 c4 3b
       0.01813246 -0.008633124 -0.061063338 0.006010986
0001a0 a0 63 28 3d fd 33 1f bd e7 a8 08 bd d7 51 9a 3d
       0.041110635 -0.03886794 -0.033364203 0.07535141
0001b0 47 9a 42 3c c7 07 3b 3d a2 3b 12 3d 98 b1 04 bd
       0.011877603 0.045661714 0.0357014 -0.03239593
0001c0 a4 8e 37 bc 06 2e 9c bd 67 2d 28 3d 6d 02 67 3d
       -0.011203442 -0.07625966 0.041058924 0.056398798
0001d0 8b 27 7b bd 6b 97 6a 3d 6a c3 1a bd 78 c1 01 3d
       -0.061317008 0.05727331 -0.037784018 0.031678647
0001e0 0c af cb 3c 14 dd b2 3c 4b 8e 2f 3d e5 1c 0e 3d
       0.024863742 0.021833934 0.04286031 0.034695525
0001f0 95 36 88 bd 2e a7 9c bd c4 6e a1 3d 56 a0 29 3d
       -0.06651036 -0.076490745 0.07882455 0.041412674
000200 48 a5 be 3b f9 23 fa 3b 0e e3 95 bc 0c 3a db bd
       0.005818043 0.007633683 -0.018296745 -0.10704431
000210 71 46 92 3d 03 69 33 bd f7 59 2c bc 52 6c 64 bd
       0.07142342 -0.04380132 -0.010519496 -0.055767365
000220 80 fd af 3d 54 b0 42 bd c4 bf bb 3c 22 e2 16 bc
       0.08593273 -0.04753144 0.02291859 -0.009209188
000230 f5 e5 6c 3d ab 7d d8 3d 2f 79 75 3c bb 1d ec bc
       0.05783649 0.10570844 0.014982506 -0.02882277
000240 2b ef 7e 3d 54 61 8a 3c 44 95 a3 bd af 51 34 3c
       0.062239807 0.016892113 -0.079874545 0.011005803
000250 e6 55 65 3d a4 fc b3 bd b4 ac 68 bd e6 d4 6a bd
       0.055990122 -0.08788422 -0.056805328 -0.057331942
000260 a6 76 83 3d 6d 2b b2 bd 49 82 18 3c b3 b6 56 bd
       0.06419115 -0.08699689 0.009308406 -0.05242033
000270 53 db 5f 3d 60 aa 40 bd 35 a7 44 3d b6 2d 14 bd
       0.054652523 -0.047037482 0.048011024 -0.036176406
000280 53 85 2e bd 05 9a 7c 3b f9 4e 02 ba 28 97 8b bd
       -0.042607617 0.0038543951 -0.0004970874 -0.0681594
000290 2b 3c 85 bd ce ea 2c bd 5f 9c 4f bd 72 b5 7d 3d
       -0.06505617 -0.042216115 -0.050686236 0.061940618
0002a0 ff d2 1f 3d e0 02 4c bd 21 5c 3d bd 11 6a ab 3d
       0.03901958 -0.04980743 -0.04623044 0.0836984
0002b0 b1 d7 bd bd ee d3 97 3d 3b cc 3b 3c af 7a a6 bd
       -0.092696555 0.07413469 0.011462267 -0.08128869
0002c0 68 cf 1b 3d 32 43 98 3d 10 c2 36 3d b8 96 2e bd
       0.038039595 0.074346915 0.044618666 -0.042624205
0002d0 e9 c6 39 bd 80 76 ab 3a 0b de 70 bd 90 c8 c9 3c
       -0.04535571 0.001308158 -0.058805507 0.024631768
0002e0 27 6b 80 bd 93 53 ae 3b 47 47 98 bb ce 89 34 3d
       -0.06270438 0.0053200214 -0.004647169 0.044076733
0002f0 fa 32 bf bd c4 61 80 bd 8c 0d 36 3d 57 9e 34 bd
       -0.09335895 -0.06268647 0.044446513 -0.044096317
000300 3b c7 56 3d e1 d9 9c bd 95 c6 43 3c 9e 2d 66 3c
       0.052436095 -0.076587446 0.011949201 0.014048962
000310 0b af d1 3d 58 79 45 3d 64 4c a3 3c 30 55 2b bc
       0.10238465 0.048211426 0.019933887 -0.010457322
000320 9a 2a 19 3d 60 67 97 3d 88 17 72 bd 7f ae cb bd
       0.037394144 0.07392764 -0.059104472 -0.09945392
000330 4f cb e0 bb 18 e9 b8 bd cb d7 72 ba 90 b3 74 3c
       -0.006860174 -0.09028834 -0.0009263723 0.014935389
000340 b7 af 46 3d ee 6b 9a 3d d4 4c 8e bd 3e b0 ae 3d
       0.04850742 0.07540117 -0.069482476 0.08529709
000350 be 0c 47 bd 49 61 c2 bd 3e cb 2f bc 78 c6 05 3d
       -0.048596136 -0.09491212 -0.010729609 0.032659978
000360 ad 91 84 bc 8e 30 ca bc 37 9e 0c 3a 7a 76 b9 bc
       -0.016182745 -0.024681356 0.0005364152 -0.022639502
000370 f4 5a 46 bd 32 db 17 3d 0e c1 0c 3d c9 ca b4 bb
       -0.048426583 0.037074275 0.0343638 -0.005517338
000380 70 a3 b4 3c 0f 93 87 3d f7 42 71 bc ed c4 98 bc
       0.02205059 0.06619846 -0.014725438 -0.018648589
000390 6d 90 8b 3d 00 c3 3f bc 90 0d 4e 3d b8 8f 91 3d
       0.068146564 -0.0117042065 0.050305903 0.0710749
0003a0 3a da ce bd 73 0c 0b bd 7e 45 9c bd 17 97 da 3c
       -0.10100217 -0.03394742 -0.07630442 0.026683373
0003b0 32 b2 7b 3d a2 54 39 3d d0 f6 22 bd 95 09 0b 3d
       0.061449237 0.045246728 -0.03978616 0.033944685
0003c0 ab 02 85 3d 21 33 40 bd 52 46 0e 3d 00 70 39 bc
       0.064946495 -0.04692376 0.03473503 -0.011318207
0003d0 5c ff 81 3c 64 a8 9b bc 89 bd 4e 3d f4 7e 40 3d
       0.015868835 -0.019001193 0.050473724 0.046996072
0003e0 c8 97 a3 3b c0 25 a1 3c fe 1c ae bd 53 82 b2 bd
       0.004992459 0.01967132 -0.085016236 -0.087162636
0003f0 1b d4 a7 bc ce 6f 55 bd 00 71 b2 bc 2a ef 89 3d
       -0.020486882 -0.05210858 -0.021782398 0.0673507

a2c_network.actor_mlp.4.bias f4 [64]
000000 b1 d2 ea 3c 64 77 0c bd 2c c6 1c bd 4d 1d 29 bd
       0.028664919 -0.034293547 -0.03827493 -0.04128771
000010 43 97 1c 3d 53 b1 13 bd 57 1d 89 bc 36 ab 37 bc
       0.038230192 -0.03605778 -0.016737623 -0.011210253
000020 f4 e3 e5 bc 8a b1 22 bd cb f6 1e bd d2 01 f2 3c
       -0.028062798 -0.039720096 -0.03880958 0.029541884
000030 d8 4c 9f bc fd 1e 1b bd 9f c1 1c bd 40 3e 40 3d
       -0.019445822 -0.03787135 -0.03827059 0.046934366
000040 08 24 fe bc 82 ef 21 3d 8d 6a d0 3c 33 b1 99 bc
       -0.03102304 0.039535053 0.025441432 -0.018761253
000050 a1 83 2a 3d 2e 47 21 bd 39 0d bc bc bf 1a ee bc
       0.041629437 -0.039374523 -0.022955524 -0.029065488
000060 e8 bb 3e 3d ca 85 fb bc bc c0 af 3a ca fe 4d 3d
       0.04656592 -0.030703444 0.001340888 0.050291814
000070 0f bc 0e bd ee b2 e9 bc 9a ab 3e 3d 46 54 86 bc
       -0.034847315 -0.028527703 0.04655037 -0.016397607
000080 d8 95 44 3d b5 ae 03 bd cb 60 25 bd 4b b4 1b bd
       0.047994465 -0.032149035 -0.040375512 -0.038013738
000090 c3 34 f3 bc 11 9e b3 bc 52 ec e3 3c 0c 57 19 bd
       -0.029688245 -0.021925958 0.027822647 -0.03743653
0000a0 db 96 30 3d 2b bb 1f bd 1b d9 e0 3c b7 e2 4c 3c
       0.043112617 -0.038996857 0.027447274 0.012505225
0000b0 db 1d 2d 3d c8 1d f2 3c c4 04 02 3d ad 46 fd 3c
       0.0422648 0.029555216 0.031742826 0.03091749
0000c0 65 75 25 3c 33 01 05 bd 99 f2 3c 3d 35 84 1e bd
       0.01009879 -0.032471847 0.046129797 -0.0387003
0000d0 6c 37 c1 bc b9 ba 2c 3d e3 51 d3 bb 1c 2f 02 3d
       -0.023585998 0.04217026 -0.0064489706 0.03178321
0000e0 66 48 b7 3c f0 52 eb 3c a0 fa 0b bd 3d 59 ce 3c
       0.02237339 0.028726071 -0.03417456 0.025189037
0000f0 05 cb c5 bc ee 22 c1 bc a7 e5 04 bd 80 7f 1b bd
       -0.024144659 -0.023576226 -0.032445576 -0.03796339

a2c_network.value.weight f4 [1, 64]
000000 51 0d 86 bd a1 5d 94 3d 91 c2 c4 3d ba 86 d7 3c
       -0.06545509 0.07244421 0.09607423 0.02630936
000010 b3 b4 e8 3a 8e 28 a1 3d f9 36 51 3d 1f ff 3e 3c
       0.0017754048 0.07869063 0.051077817 0.011657505
000020 e1 41 00 3d f1 91 b7 3d ab c0 be 3d 65 06 4e bd
       0.031312827 0.08963383 0.09314092 -0.050299067
000030 08 16 a3 3c 38 e0 f0 3d 71 38 91 3d bc 61 9e bd
       0.019907966 0.11761516 0.070908435 -0.07733485
000040 8d c3 f5 3d d0 f3 c7 bd 12 3e 5d bd 5c 19 11 3d
       0.12000189 -0.097633004 -0.054014273 0.035424575
000050 61 0c 34 bd c2 21 61 3d b6 04 8a 3c dc ee 03 3e
       -0.043957118 0.054963835 0.01684795 0.12884086
000060 9c cb e9 bc a6 d0 c5 3d 00 ba c1 3b 8a 12 f5 bd
       -0.028539471 0.09658937 0.0059120655 -0.11966427
000070 87 38 9b 3d ce e3 cd 3d 41 c2 f3 bd 02 97 bb 3c
       0.07579141 0.10053216 -0.11902285 0.022899155
000080 d3 0f 33 bd e1 c8 94 3d 20 c1 8c 3d 97 5e 09 3d
       -0.043716263 0.07264877 0.06872773 0.033537474
000090 d0 66 ec 3d b7 1d f7 3d da 76 93 bd 67 bc d3 3d
       0.115430474 0.120662145 -0.072004035 0.10338669
0000a0 43 e6 f1 bc a1 25 05 3e 15 8f cf bd 9a e9 54 bc
       -0.029528743 0.13002636 -0.101347126 -0.012995148
0000b0 97 0e 9a bd be 5d fd bd 3f 72 01 be 1f c6 be bd
       -0.07522314 -0.123713955 -0.12641238 -0.09315132
0000c0 e1 bb d3 bc c5 de a3 3d 5c b3 0d be f6 3b 8f 3d
       -0.025846424 0.08001474 -0.13837951 0.069938585
0000d0 d0 48 a9 3d c0 d1 56 bd 92 e4 94 3b ab 9b 54 bd
       0.08265841 -0.052446127 0.0045438493 -0.05190627
0000e0 da 34 17 bd 7c 3b 86 bd 85 44 bb 3d 2b 7c 8c bd
       -0.036915638 -0.065543145 0.091439284 -0.06859621
0000f0 00 a1 a8 3d 9c 3f 6a 3d ac f8 dd 3d 2b fd 92 3c
       0.08233833 0.05718957 0.10838446 0.017942986

a2c_network.mu.weight f4 [24, 64]
000000 07 30 d8 bd 51 0b 79 bc f3 08 ce bc b1 f8 81 bd
       -0.105560355 -0.015200452 -0.025150752 -0.06346262
000010 80 39 67 bd c1 20 ec 3d 65 5c 9d 3c d5 ed 83 3d
       -0.05645132 0.11529685 0.019209096 0.06441847
000020 7c 50 08 3d 04 0b 80 3d 88 f0 e0 bd 6b 90 19 bc
       0.03327988 0.06252101 -0.10983378 -0.009372811
000030 7a 19 6f 3d 03 42 f6 3a c0 6b 2e bd c9 b0 80 3c
       0.058373906 0.0018787984 -0.042583227 0.015709298
000040 a7 c1 b3 bd b5 99 32 3d 8e a1 4d 3c 96 81 91 bd
       -0.08777171 0.043603618 0.012550725 -0.07104795
000050 98 c9 a4 3d cc 57 d6 bd ea 3e 76 3d 17 f1 8e bd
       0.080462635 -0.10465965 0.060118593 -0.06979578
000060 8c eb f7 bd d2 bf d0 3c cf 15 9f bc 2c 18 bd 3d
       -0.12105474 0.025482092 -0.019419579 0.09233126
000070 66 92 3d bd ea 9b f7 3d 26 e9 11 3d b0 12 72 3c
       -0.046282195 0.12090285 0.03562274 0.014774963
000080 cc 42 d4 3c 0e 79 1c 3d 0f 8a 95 3d 6a 54 0c bc
       0.025910757 0.038201384 0.07301723 -0.008565048
000090 10 f0 fb 3d f0 90 bb bd 42 48 66 bd 3d 83 0d bd
       0.12301648 -0.09158504 -0.056221254 -0.034548987
0000a0 89 be a2 bd 34 03 b7 bd 38 b2 ab bd 6c 23 5c 3c
       -0.07946498 -0.08936158 -0.08383602 0.01343618
0000b0 6b 13 0b bd 13 40 cf bd c5 67 5e 3d c9 c9 c8 3d
       -0.033954065 -0.10119643 0.05429818 0.098041125
0000c0 82 54 30 3d 08 ee 96 bd be e1 ed 3d 4a d7 e7 3b
       0.043049343 -0.073696196 0.116153225 0.007075225
0000d0 a3 67 e5 3b 2e 6e d6 3b ae b0 9b 3d cb aa 98 bd
       0.00700088 0.006543896 0.07602058 -0.07454451
0000e0 11 2e b5 bd 89 a8 06 3d 08 30 b7 bd c7 ad 4f bd
       -0.08846677 0.03287557 -0.08944708 -0.050702836
0000f0 96 61 80 bc d9 e2 e6 3d 3b 85 0d bd 7d 62 8d bb
       -0.015671533 0.112737365 -0.034550887 -0.0043147192
000100 d4 65 ef bd 1c e9 47 3d 83 1a fc bd 82 2b a4 bc
       -0.11689344 0.048806295 -0.12309744 -0.020040277
000110 09 ad 3c 3d 7d 6c 78 bd 95 11 59 3d 05 b4 1c bc
       0.046063457 -0.060650337 0.052995283 -0.009564404
000120 ad 37 a5 bd 29 5e 01 be f1 e9 c6 3d c9 a1 ea bd
       -0.0806726 -0.12633575 0.097125895 -0.11456639
000130 5c a5 95 bd 75 ba 1a 3d b3 a7 40 bd 34 0a 36 3b
       -0.073069304 0.037775476 -0.04703493 0.0027777078
000140 30 3f 22 3c 7e 37 c3 ba f2 cc 3b 3d 19 aa 8a bd
       0.00990276 -0.0014893857 0.045849748 -0.06770725
000150 14 91 5b 3d 56 43 0f be ab 51 37 bd 6b 1d c7 3d
       0.053605154 -0.1399053 -0.04475562 0.09722408
000160 29 be ad 3d 5c fc 7e 3c 26 3b 4b 3d b0 b9 0c 3e
       0.08483536 0.015563097 0.049616955 0.13742709
000170 fb 36 a5 bc 05 2c a9 3d 2f 6c fd 3d 6e 1a 97 bc
       -0.020167818 0.08260349 0.1237415 -0.01844522
000180 66 ea c2 3d e2 e9 01 3d 48 de 8f bd a4 b6 ea bd
       0.09517364 0.03171719 -0.07024819 -0.11460617
000190 d6 88 61 bc bb cb ea 3d 7f 5a 55 3d 6a 7d 96 3d
       -0.013765534 0.1146464 0.052088257 0.073481396
0001a0 ec 54 79 bd fe d9 0e be 09 a2 3b bd 62 9f 05 be
       -0.060872003 -0.13950345 -0.045808826 -0.13049081
0001b0 9f a9 e0 3d be 36 fd bc c1 1c a7 bd a3 14 2e bc
       0.10969853 -0.030909892 -0.08159781 -0.010625037
0001c0 98 40 4b bd 62 91 41 3b 2e 8d bf 3d 6d 9c c9 bd
       -0.04962215 0.0029536118 0.093531 -0.09844289
0001d0 4f 04 71 3d 91 43 11 3d c0 e7 28 3d a3 6f e9 3b
       0.058842 0.035464827 0.04123664 0.007123904
0001e0 8f 6c 1a 3d da 41 e9 bd 18 c4 39 3d 5c c2 87 3d
       0.037701186 -0.11389513 0.045353025 0.06628868
0001f0 60 44 02 3e c8 a3 80 3c 04 01 11 3c 84 48 bb 3d
       0.12721395 0.015703097 0.00885034 0.09144691
000200 c0 15 d3 bd ae cb 10 bd a0 4e db 3b 13 0c b9 bd
       -0.10306883 -0.035350494 0.0066927224 -0.09035506
000210 53 e6 e5 3d 50 ed 86 3d 60 38 de 3d 71 ba fb 3c
       0.112255715 0.065882325 0.108505964 0.03072855
000220 e0 1f 1d 3d a0 ce 86 3c 20 17 80 3d 0f 62 63 3c
       0.038360476 0.016455948 0.06254411 0.013878359
000230 49 18 af bc 5e cb c0 bc 47 42 9b bc 54 e1 ae bd
       -0.021373885 -0.023534473 -0.018952502 -0.08539072
000240 ba bb 69 3d e7 5e 02 3e 27 5d 98 3c e9 d5 05 bd
       0.057063796 0.12731515 0.018599106 -0.032674704
000250 17 a3 4f bb 73 94 f9 bd 53 52 0f be 10 15 bf bd
       -0.0031682902 -0.121865176 -0.13996248 -0.09330189
000260 ed 98 36 bd d5 d9 c4 bd 36 70 70 3d 78 63 1c 3e
       -0.044579435 -0.09611861 0.058700763 0.1527232
000270 14 93 f1 bc 3c a9 d1 3d 72 59 b4 3d 02 31 dd 3d
       -0.029489078 0.10237357 0.08806123 0.10800363
000280 0a cc 8b 3d 5c 56 b0 3d ad f4 87 3d 4c 81 8a bd
       0.06826027 0.08610222 0.06638465 -0.06762943
000290 0e 0a 1e 3d 5d d1 a9 3d d3 6a da bd 28 74 d7 bd
       0.038583808 0.08291886 -0.10664906 -0.10520202
0002a0 cf 18 c0 3d c8 0e a2 bd 1f 43 ad bd 19 a9 b8 bc
       0.09379732 -0.079129755 -0.08460068 -0.02254157
0002b0 1e 3d aa 3c 6e ce 74 bd f4 a7 b9 bd 7f 94 bb bd
       0.020781096 -0.05976718 -0.09065238 -0.09159183
0002c0 35 a2 b2 bd 16 cc ec 3d cd 6c 78 3d 04 92 cb bd
       -0.08722345 0.11562364 0.060650636 -0.0993996
0002d0 40 56 f9 3d 69 a4 c6 3d 70 78 e1 bc 94 f5 6d bc
       0.12174654 0.096993275 -0.02752325 -0.014523882
0002e0 00 02 cc bd 1b 35 4f bd 6e 14 9c 3d c5 83 b9 bd
       -0.09961319 -0.050587755 0.07621084 -0.09058336
0002f0 63 ac 0a 3d 30 ea b5 3d 0c 09 ad bd 78 d7 08 bc
       0.033855807 0.08882558 -0.08448991 -0.008352153
000300 b8 29 25 3d 9d 8d c9 3d 56 b6 c1 bd e5 94 a6 bd
       0.04032299 0.09841464 -0.09458606 -0.08133868
000310 61 9d 35 3d c6 9e 92 3c 96 ae e8 3d fe ba 35 3d
       0.04433954 0.017897975 0.113614246 0.044367783
000320 0b a8 b0 3d 63 f2 cc 3d 1b c4 61 bd 21 04 98 3d
       0.08625802 0.10007169 -0.05511866 0.074226625
000330 04 55 6c 3d 37 7a a0 bd 74 97 89 bd da 28 89 3d
       0.057698265 -0.07835811 -0.067183405 0.06697245
000340 35 ad 7b 3d 8f cb 43 3d 29 ad a9 bd 45 59 08 be
       0.06144448 0.04780155 -0.08284981 -0.13315304
000350 64 87 82 3d fc 60 cd bd 3d 6a 14 3c c6 04 3f b9
       0.0637348 -0.10028264 0.009058532 -0.00018216958
000360 0e 5d 0b 3e fc 6d b9 3d bf e1 f2 3d 16 ef e0 3d
       0.13609716 0.09054181 0.11859464 0.10983102
000370 f4 b9 cc bd a8 27 c7 3d 37 6c fa 3d 30 c4 a7 3d
       -0.09996405 0.09724361 0.122276716 0.08191717
000380 89 48 6f 3c 0d b1 c2 bd a1 16 0c be 16 c8 bb 3d
       0.014604696 -0.09506426 -0.13680507 0.09169023
000390 03 97 05 3d a1 86 d3 bd 0c 0d af 3d de fb b6 3d
       0.03261472 -0.10328413 0.0854741 0.089347586
0003a0 e4 82 32 3d 60 1d 4c 3d 7b e5 fc bd 77 dc 95 bd
       0.04358186 0.0498327 -0.123484574 -0.07317441
0003b0 00 03 c2 bd b7 25 e3 bd 59 9f 74 3c d4 14 f0 bb
       -0.094732285 -0.11091178 0.01493057 -0.0073267017
0003c0 49 2e 20 bd ec 78 a1 bb 6a 76 bb 3d e2 70 9f 3d
       -0.03910664 -0.004927745 0.09153445 0.077852026
0003d0 a9 b5 78 bd 95 a7 c8 3d 63 cc 7c bd 9e 20 89 3d
       -0.06072012 0.09797589 -0.061718356 0.06695674
0003e0 b5 9c 93 bd 98 4d b5 bd 48 0d ee bb 23 87 da bc
       -0.07207624 -0.088526905 -0.007264767 -0.026675766
0003f0 0e df 58 3c 03 d1 f2 bc 74 18 2b bd 6f 71 e7 bd
       0.013236774 -0.02964068 -0.041771367 -0.113009326

a2c_network.mu.bias f4 [24]
000000 cc d9 a8 bc 3b 02 9f 3c b9 c2 0d 3d 60 70 0a 3d
       -0.020611666 0.019410243 0.03460953 0.033798575
000010 8c 1b 03 3c b6 00 b3 bc 70 83 11 3c df 23 fa bb
       0.008002173 -0.021850925 0.008881435 -0.0076336707
000020 f6 38 37 bc b3 d8 50 3b 51 2f 0e bc 42 cd 5a bc
       -0.011183014 0.0031867444 -0.008678273 -0.013354601
000030 b0 48 b0 bc a5 18 28 bd ea 1c 06 bd 38 ea b6 3c
       -0.021519035 -0.041039128 -0.03274242 0.022328481
000040 6b ce 84 bc ca 3e 29 bd 83 ac e7 3c 34 78 51 bc
       -0.016211709 -0.041319646 0.028280502 -0.012785006
000050 9a cf e5 3a 0f 41 16 3b 48 e3 49 bb 5f 80 e4 3a
       0.0017533184 0.0022926962 -0.0030805636 0.0017433277

exp_avg f4 [24]
000000 75 8e f8 bb 81 04 88 ba b9 4b b6 3b 4e 05 b1 ba
       -0.0075853416 -0.0010377319 0.005563226 -0.0013505609
000010 a7 32 b7 3b 87 6b 2a 3c c3 eb 98 bb 4b 4d 4a 3c
       0.005590755 0.010401613 -0.004666777 0.01234753
000020 85 90 17 bc 78 58 ac ba 34 85 73 bb c8 d5 c0 b9
       -0.009250765 -0.0013148924 -0.0037158253 -0.00036780373
000030 f2 51 a8 ba 01 39 10 3c 0e 61 80 b9 c9 84 52 3b
       -0.0012841804 0.008802653 -0.00024486374 0.0032122603
000040 69 9a fb 3b 48 49 98 3b fb 66 ff ba 83 50 ec 38
       0.0076783192 0.0046474077 -0.0019485647 0.000112683534
000050 ac 81 42 bc 7b 84 63 3c 58 09 9e 3b 41 1b 2b ba
       -0.0118717365 0.013886566 0.004822891 -0.00065271935

exp_avg_sq f4 [24]
000000 d6 1a d0 39 48 cd e5 39 73 41 f0 39 f0 34 cf 39
       0.00039692846 0.0004383123 0.0004582513 0.00039521558
000010 a1 b2 e4 39 97 3c e3 39 a7 a3 b8 39 06 1d ca 39
       0.00043620638 0.00043341957 0.00035217145 0.00038550067
000020 a7 34 ca 39 cc 25 b4 39 21 03 d6 39 06 a2 e6 39
       0.0003856767 0.00034360436 0.00040819592 0.00043989735
000030 82 4e f6 39 86 57 ba 39 ba 21 f2 39 51 63 8a 39
       0.0004697927 0.00035541895 0.00046182965 0.00026395408
000040 74 ca bf 39 96 43 e5 39 d0 09 e1 39 64 bc c3 39
       0.00036581198 0.0004372864 0.00042922655 0.0003733366
000050 cb 0e d4 39 d9 5e e7 39 68 96 d3 39 bc 9d d4 39
       0.00040446813 0.0004413042 0.00040357118 0.00040553312
