runs/lift_30-15-45-11/nn/last_lift_ep_275_rew_-69.50143.pth (torch, 654677 bytes, 36 tensors)

value_mean_std.running_mean f8 [1]
000000 dc d1 59 d1 cd 3c 8a c0
       -839.6004969613236

value_mean_std.running_var f8 [1]
000000 91 ea 5f 0d da 7f 42 41
       2424756.1044896324

value_mean_std.count f8 []
000000 00 00 00 00 04 30 11 41
       281601.0

running_mean_std.running_mean f8 [39]
000000 00 00 00 00 00 00 00 00 58 80 44 d4 f4 ff f7 3f
       0.0 1.4999893466665721
000010 1d e6 90 b1 c2 cc f4 3f 74 00 06 1b f1 ff df 3f
       1.2999903618023219 0.4999964488888573
000020 5c 9f 9e 35 8d 99 d9 3f 83 5a 97 d3 28 33 07 40
       0.39999704586306506 2.899980214172787
000030 74 00 06 1b f1 ff df 3f 53 f1 57 fe b3 40 f6 3f
       0.4999964488888573 1.3907966552061068
000040 f1 1d ec a3 8a 7c fd 3f 74 00 06 1b f1 ff df 3f
       1.8429056552139367 0.4999964488888573
000050 7e dc b9 31 6a d1 e5 3f f5 b5 b0 43 6a d1 e5 3f
       0.6818133326732008 0.6818133661342346
000060 00 00 00 00 00 00 00 00 74 00 06 1b f1 ff ef 3f
       0.0 0.9999928977777146
000070 00 00 00 00 00 00 00 00 00 00 00 00 00 00 00 00
       0.0 0.0
000080 00 00 00 00 00 00 00 00 00 00 00 00 00 00 00 00
       0.0 0.0
000090 00 00 00 00 00 00 00 00 00 00 00 00 00 00 00 00
       0.0 0.0
0000a0 ce 56 5b c0 db 11 60 bf 79 ca e2 6d ea 13 31 3f
       -0.0019616405505570094 0.0002605864846244931
0000b0 6a 4a 2b fe ae 9e 23 40 00 00 00 00 00 00 00 00
       9.809928839478022 0.0
0000c0 00 00 00 00 00 00 00 00 00 00 00 00 00 00 00 00
       0.0 0.0
0000d0 00 00 00 00 00 00 00 00 00 00 00 00 00 00 00 00
       0.0 0.0
0000e0 00 00 00 00 00 00 00 00 00 00 00 00 00 00 00 00
       0.0 0.0
0000f0 00 00 00 00 00 00 00 00 00 00 00 00 00 00 00 00
       0.0 0.0
000100 00 00 00 00 00 00 00 00 00 00 00 00 00 00 00 00
       0.0 0.0
000110 00 00 00 00 00 00 00 00 00 00 00 00 00 00 00 00
       0.0 0.0
000120 00 00 00 00 00 00 00 00 00 00 00 00 00 00 00 00
       0.0 0.0
000130 74 00 06 1b f1 ff bf 3f
       0.12499911222221433

running_mean_std.running_var f8 [39]
000000 3a 46 17 ff f3 c9 dd 3e 1b 91 a9 72 0e 34 f8 3e
       7.102222285353084e-06 2.3082108933884364e-05
000010 a1 55 18 b7 6d 08 f4 3e 72 3f be c3 36 9e e2 3e
       1.910488521702158e-05 8.877765246300999e-06
000020 02 1b fe 51 0c 47 e1 3e 19 ae 40 c9 fc 84 11 3f
       8.238569136909735e-06 6.683152088331929e-05
000030 72 3f be c3 36 9e e2 3e 5d 75 ed 02 74 05 f9 3f
       8.877765246300999e-06 1.563831340251759
000040 df da 54 f0 35 3a f7 3f 72 3f be c3 36 9e e2 3e
       1.4517115962932434 8.877765246300999e-06
000050 10 26 f1 67 30 11 e0 3f a3 e0 44 b1 d0 51 df 3f
       0.5020982771031317 0.48936860381537367
000060 3a 46 17 ff f3 c9 dd 3e 9a 14 56 10 ed c9 ed 3e
       7.102222285353084e-06 1.4204394129144812e-05
000070 3a 46 17 ff f3 c9 dd 3e 3a 46 17 ff f3 c9 dd 3e
       7.102222285353084e-06 7.102222285353084e-06
000080 3a 46 17 ff f3 c9 dd 3e 3a 46 17 ff f3 c9 dd 3e
       7.102222285353084e-06 7.102222285353084e-06
000090 3a 46 17 ff f3 c9 dd 3e 3a 46 17 ff f3 c9 dd 3e
       7.102222285353084e-06 7.102222285353084e-06
0000a0 fa 39 09 7b 14 a0 f4 3f 1d 6b 64 38 8f 77 f3 3f
       1.2890820318312977 1.216689319879783
0000b0 9a 50 47 02 11 a1 46 3f 3a 46 17 ff f3 c9 dd 3e
       0.0006905873347542613 7.102222285353084e-06
0000c0 3a 46 17 ff f3 c9 dd 3e 3a 46 17 ff f3 c9 dd 3e
       7.102222285353084e-06 7.102222285353084e-06
0000d0 3a 46 17 ff f3 c9 dd 3e 3a 46 17 ff f3 c9 dd 3e
       7.102222285353084e-06 7.102222285353084e-06
0000e0 3a 46 17 ff f3 c9 dd 3e 3a 46 17 ff f3 c9 dd 3e
       7.102222285353084e-06 7.102222285353084e-06
0000f0 3a 46 17 ff f3 c9 dd 3e 3a 46 17 ff f3 c9 dd 3e
       7.102222285353084e-06 7.102222285353084e-06
000100 3a 46 17 ff f3 c9 dd 3e 3a 46 17 ff f3 c9 dd 3e
       7.102222285353084e-06 7.102222285353084e-06
000110 3a 46 17 ff f3 c9 dd 3e 3a 46 17 ff f3 c9 dd 3e
       7.102222285353084e-06 7.102222285353084e-06
000120 3a 46 17 ff f3 c9 dd 3e 3a 46 17 ff f3 c9 dd 3e
       7.102222285353084e-06 7.102222285353084e-06
000130 e9 99 9d 97 1b 41 de 3e
       7.213193720412359e-06

running_mean_std.count f8 []
000000 00 00 00 00 08 30 01 41
       140801.0

a2c_network.sigma f4 [24]
000000 a0 ac a2 3c b6 72 11 3c f5 19 05 3d 4b b7 02 3c
       0.019857705 0.008877447 0.032495458 0.007978271
000010 97 1d 40 bd aa 3d 15 bd 16 19 7f bc fe 0a be bd
       -0.04690322 -0.03643576 -0.015569946 -0.0927944
000020 6c 9b 98 bd a1 76 82 bc 8e d7 71 bc 7b 2b 14 3d
       -0.07451519 -0.015925707 -0.014760865 0.03617428
000030 ca fe 23 bd a8 dc 0b bd 7f 75 4e 3d 98 ec 4b bd
       -0.040037908 -0.03414598 0.05040502 -0.04978618
000040 a9 61 c5 39 f2 2c 47 bd bb 2a 22 bd d3 67 1e 3b
       0.0003764753 -0.048626848 -0.039591532 0.002417077
000050 df f8 6c bd 0d 68 f9 3c a7 b5 bc bd eb b7 f0 3c
       -0.05785453 0.030445123 -0.09214335 0.029384574

a2c_network.actor_mlp.0.weight f4 [256, 39]
000000 38 d9 4e bd c0 d0 4d 3d c6 80 14 bd e2 48 9a 3d
       -0.050500125 0.050247908 -0.03625562 0.075334325
000010 74 71 1a 3e 37 c8 cb 3d 21 33 7e bd d7 0c 97 3d
       0.15082341 0.09950297 -0.06206048 0.07375496
000020 d1 6a 9d bc ed ce b6 3d 8f 0c f3 bd d7 75 27 be
       -0.019215973 0.08926187 -0.1186763 -0.16353546
000030 75 68 7d bd b4 1d ec bd 76 8b 06 3e 58 ea 3c 3d
       -0.061867196 -0.11529103 0.13139138 0.046121925
000040 94 d6 87 3d 51 6e 4f 3d 5c 8e 36 bb 43 53 00 3e
       0.066327244 0.050642315 -0.002785585 0.12531762
000050 03 d2 f5 bd 1f 8f 2b 3c d8 85 d2 bd 50 3e 4a 3d
       -0.12002947 0.010471134 -0.10279435 0.049375832
000060 09 e0 61 bd 4b f9 48 3d e5 a5 08 bd 14 ff 07 3e
       -0.055145297 0.04906587 -0.033361334 0.13280898
000070 43 5f c2 bd 8f 95 c3 bd 95 98 c3 bd 94 7b 13 3e
       -0.09490826 -0.095500104 -0.09550587 0.1440261
000080 0a 93 5a 3d 0b c8 1d 3e 51 52 07 be 9f a3 22 be
       0.053362884 0.15408342 -0.13214995 -0.15882729
000090 ff 48 00 be 72 9a dc bd ce 92 95 3d 46 db 6a 3d
       -0.12527846 -0.107716456 0.073033914 0.05733802
0000a0 4e 52 e3 3d 7e 94 d6 bd 11 d2 05 be 11 dd 81 3d
       0.11099683 -0.104775414 -0.13068415 0.06340993
0000b0 bb 15 b2 bd bb f4 9a 3d f1 b8 64 bd c2 62 6d 3d
       -0.08695551 0.0756621 -0.055840436 0.05795551
0000c0 91 70 15 be 7b eb b3 bd a0 81 b0 3c b5 a8 0a 3d
       -0.14593722 -0.08785149 0.021546185 0.033852298
0000d0 4c 50 80 bd fa 79 c3 3d 34 f0 de 3d ac d0 ed bd
       -0.062653154 0.095447496 0.10885659 -0.116120666
0000e0 fa 13 af bd 68 24 16 3e 1f 51 5d bd ff f3 80 bd
       -0.08548732 0.14662325 -0.05403244 -0.062965386
0000f0 f6 4b 19 be b3 f1 e9 bd ab d7 23 3d 08 25 ad bc
       -0.14970383 -0.114230536 0.0400006 -0.021135822
000100 80 0c ee bd 83 28 76 3b ec 02 e0 bd d6 1c 0b be
       -0.11623478 0.0037560768 -0.10938057 -0.13585219
000110 ed 95 b4 bd 75 82 0f be 3d d0 d0 bd 37 e8 23 3e
       -0.088176586 -0.14014609 -0.10195968 0.16006552
000120 ae c2 f7 3c 07 1e 4a 3d f2 ee 18 be 4e 62 d7 bd
       0.030244198 0.049345043 -0.149349 -0.10516797
000130 ab 50 5a bd 9d 67 71 3b 22 48 10 be 03 77 ad bd
       -0.053299587 0.003683544 -0.14090016 -0.08469965
000140 a3 6c e4 bd 8f ca 81 bc 39 3e 9b bd 93 89 d9 bc
       -0.11153533 -0.015843658 -0.075802274 -0.026554858
000150 55 94 ff bd 31 28 d9 bd fa 63 75 bd 75 9c 91 bd
       -0.12479464 -0.10603369 -0.0599098 -0.0710992
000160 7a f8 f3 bd 07 00 0a 3e 68 2b 02 bd 22 78 f9 3d
       -0.119126275 0.13476573 -0.031779677 0.12181117
000170 ab 5c 4c 3d b0 d9 0a be 9d f2 e2 3d 9d 76 34 bd
       0.049893063 -0.13559604 0.11081431 -0.04405843
000180 f3 6a 7b bd 90 1b 08 be b3 73 1b be b4 b8 5e 3d
       -0.06138129 -0.13291764 -0.15180854 0.054375365
000190 0f f7 4c bd e5 59 7f 3d b0 90 06 be 5a 79 f3 3d
       -0.0500403 0.06234159 -0.13141131 0.1188838
0001a0 35 ba f0 bd f7 81 e2 bc 96 fe 08 3d 06 4d a9 3d
       -0.11754266 -0.027649863 0.033445917 0.08266644
0001b0 2b 60 04 3e 00 5f 15 3e 34 04 02 be 94 10 25 3d
       0.1292731 0.14587021 -0.12696916 0.040299013
0001c0 7a 0e 8d bd 03 c0 8f bc 30 76 f5 bd c7 5a 15 3e
       -0.06887527 -0.017547613 -0.11985433 0.1458541
0001d0 5a 33 09 be ed 44 af 3d 1a 27 95 3d e1 6f 8c 3d
       -0.13398495 0.085580684 0.07282849 0.06857277
0001e0 84 96 8f bd da dd 25 3e eb f8 53 3d 4d cc 17 3d
       -0.070111305 0.16197911 0.05175106 0.03706007
0001f0 5a be 02 be 35 5c b1 3d e7 c3 f7 bb 5b 25 7d bd
       -0.12767926 0.08660165 -0.007561195 -0.061803203
000200 16 37 22 3e 8f 3a 12 3d cb a0 93 bd 04 fc a5 bd
       0.15841326 0.035700377 -0.07208403 -0.08104709
000210 fa 93 fa bb 41 1c b7 3d cc 99 27 bd a0 1d bb bd
       -0.0076470347 0.08940936 -0.040918157 -0.0913651
000220 65 9a 60 bd f0 c0 eb bd ae 9d 5a 3d e7 e8 0f 3e
       -0.054834742 -0.11511409 0.05337303 0.14053689
000230 7f 5e 1a be 68 54 18 3d 91 69 a9 3d c5 dc ed 3c
       -0.1507511 0.03718987 0.08272088 0.029035935
000240 a7 93 69 bd bf 2a ab 3d 8c 56 ac 3d d3 40 75 3d
       -0.057025578 0.083577625 0.08414945 0.059876274
000250 8b 81 e6 bc dd ad 2d bd 97 55 8c 3c c1 ba e7 bc
       -0.028137943 -0.042402137 0.017130656 -0.028287293
000260 53 74 43 bd 81 9f d1 3d b3 ea 0c 3e cb e8 18 3a
       -0.047718357 0.10235501 0.13761406 0.00058330287
000270 bf d9 12 bd 0d 8a 5a bb 3d e6 78 bc 3f b2 04 3d
       -0.03585219 -0.0033346445 -0.015191612 0.03239655
000280 6b 07 1f 3d 3e 8e 1a be 0d 84 85 bd e6 40 19 3e
       0.038825434 -0.15093324 -0.06519327 0.14966163
000290 2f a9 bf 3d 8c 6e 66 bc b7 98 ad bd 9a 2d b0 bd
       0.09358441 -0.014064442 -0.08476394 -0.08602448
0002a0 47 e1 12 be b7 c5 6d bd bd 7e 5d 3d 6b 1a d1 3d
       -0.14343749 -0.058049884 0.054075945 0.10210117
0002b0 00 69 97 3d ff f0 10 be 58 36 c5 bd e4 04 cf bc
       0.07393074 -0.14154433 -0.09629506 -0.025270887
0002c0 8d b1 1d 3e d0 91 b0 3c d1 3a 3f bd bf ac 87 3d
       0.15399761 0.021553904 -0.04668695 0.066247456
0002d0 80 d0 79 bd 3a 43 d4 bd 6b 5c ef 3d b3 1d 95 bd
       -0.060989857 -0.10364385 0.11687549 -0.07281055
0002e0 ad 7b 03 bd 89 1e 23 be 75 7b db 3d e7 75 f8 3d
       -0.03210037 -0.15929617 0.10716907 0.12131863
0002f0 3b 09 6f 3d 72 aa e4 bd 6a d4 21 be 8a 2c 05 be
       0.058358412 -0.11165322 -0.15803686 -0.13005272
000300 f8 8b f4 3d 72 72 9d 3d 79 99 03 3e 96 cc ab 3d
       0.119407594 0.07687844 0.12851514 0.08388631
000310 bd 1d e2 3c 9f 12 6e bc c9 51 09 be da 24 19 be
       0.027602071 -0.014530807 -0.13410105 -0.14955464
000320 ca d1 26 be ab 05 5a 3d 8d 36 ce bd 48 90 8a bd
       -0.16290966 0.05322806 -0.100689985 -0.06765801
000330 ef f7 d5 bd 60 9c 3e bd f8 63 05 be 61 48 d6 bd
       -0.1044768 -0.04653585 -0.13026416 -0.10463024
000340 6d ac 25 3d 37 ed 42 bd fa 73 ca 3d e3 69 52 bd
       0.04044764 -0.047589507 0.09885402 -0.051370513
000350 5d 91 f0 bd 7f 72 e7 bc 21 f8 9e bd 37 17 6e bd
       -0.11746476 -0.028252838 -0.077621706 -0.05812761
000360 a2 9b 11 be 31 e2 9b 3d a5 50 e4 bd 66 d4 a4 3d
       -0.14219525 0.07611502 -0.11148194 0.08048324
000370 ab d0 94 3d f6 4a ea 3d 86 8c fb bd eb da eb 3d
       0.07266363 0.11440079 -0.12282662 0.11516365
000380 0b 09 9b bd f1 60 73 3d df fc 19 3e 57 00 b9 bc
       -0.07570084 0.059418622 0.15037869 -0.02258317
000390 f9 4f a2 ba 37 01 17 bd d7 e9 08 be 6a 61 9d 3d
       -0.0012383453 -0.036866393 -0.13370453 0.07684596
0003a0 f4 c6 22 be fd bf b2 3d f1 5f f5 3d 71 7d 1c 3e
       -0.15896207 0.08728025 0.1198119 0.15282227
0003b0 91 29 15 bd 01 cf 04 be 8a f0 1a 3d bb 9f b7 3d
       -0.036416594 -0.1296959 0.037827052 0.08966013
0003c0 f8 48 21 be be c0 57 bd 4f 70 ae bd fe c8 46 bc
       -0.15750492 -0.052674048 -0.08517515 -0.012132881
0003d0 02 ca a5 bd 50 ff 06 bd 6b 37 50 bd b6 2c 1a be
       -0.080951706 -0.03295833 -0.0508341 -0.15056118
0003e0 25 8a 06 3e 52 76 09 3e ad c6 cd bc 16 63 95 bc
       0.13138635 0.13424042 -0.02511915 -0.018235724
0003f0 00 d7 85 bd 89 13 14 be a4 2d 13 be f0 c3 89 3d
       -0.065351486 -0.14460577 -0.1437288 0.06726825

a2c_network.actor_mlp.0.bias f4 [256]
000000 77 8b f9 bb 59 ab fe bc 9b 4c 05 bc 4c 96 ba 3c
       -0.0076155025 -0.031087564 -0.00813594 0.022776745
000010 c4 ad 97 3b 26 08 bf bc 7c ff 88 bb 0b 01 c5 3b
       0.004628869 -0.023319315 -0.0041808467 0.006012087
000020 5e ec 94 bc fa 80 ab 3c 12 87 01 bc 84 c4 85 3b
       -0.018179115 0.020935524 -0.007905738 0.0040822644
000030 a8 5c e7 3b bf d5 fa ba ef 75 11 bd de b1 f4 bc
       0.007060606 -0.0019137188 -0.03551286 -0.02986997
000040 c7 de e9 bb e8 87 6d 3c bd 74 4f bc 66 64 81 3b
       -0.007137153 0.014497735 -0.01266211 0.003948736
000050 fc fd 8e 3a d9 3b 9d bc ae dc 33 bc 66 c8 a5 bc
       0.0010909433 -0.019193577 -0.010977907 -0.020237159
000060 cb f1 01 bd 8a 0a da 3a 89 ee 91 3a 4f 4b 58 bb
       -0.031724732 0.0016635221 0.0011133711 -0.0033003872
000070 64 41 aa 3c 98 b5 2d 3c 98 7f 87 3a dc 16 2a bb
       0.020783134 0.010602377 0.0010337709 -0.0025953567
000080 9a eb f1 3c 6e b0 a9 bc 28 0d 37 bb 25 d9 b1 bc
       0.029531289 -0.020714011 -0.0027931426 -0.021709988
000090 f1 b1 cd bc 21 b9 03 bd dc c1 40 3c 0d 92 50 3c
       -0.025109263 -0.032158975 0.01176497 0.012730134
0000a0 db 0d 18 bc f9 8c e8 bb 15 a1 f9 bc f4 28 95 bc
       -0.009280647 -0.0070968834 -0.030472318 -0.018208005
0000b0 77 cf 80 bc 6b bd a6 3b 72 a0 eb bc 9b 26 7e 3c
       -0.015723927 0.0050884984 -0.02876303 0.015512134
0000c0 39 48 0f bd 4b 3c fa bb 7d a9 25 bb ed da 10 3d
       -0.034980986 -0.007636582 -0.0025278025 0.035365034
0000d0 c0 17 20 3c 9f 1d 48 3c 33 ad a3 bc b4 ab e5 bb
       0.009771287 0.0122140935 -0.019980049 -0.007008994
0000e0 55 0d 57 bc a3 f7 4d 3c 32 1e 09 3b 06 3f ce bc
       -0.013125737 0.012571248 0.0020922539 -0.025176536
0000f0 3c b2 02 bd fb c9 2a 3a 5b 5f a2 3c 8f 4a e7 3b
       -0.03190826 0.0006515083 0.01982086 0.0070584486
000100 6e c0 00 bd da 97 cf 3c a8 ff b9 bc 57 01 df bc
       -0.031433515 0.025340963 -0.022704914 -0.027222319
000110 f0 eb a9 bc 6f 93 48 3c 15 f1 10 bc f2 25 a3 bb
       -0.020742387 0.012242182 -0.008846541 -0.0049788887
000120 30 11 bc 3c 37 86 20 3c fb 5d a8 3c 1f 08 79 bb
       0.022957414 0.009797624 0.020552626 -0.0037999225
000130 e1 f0 28 3d 20 f0 fc 3c ad 5f 09 bd 27 3f ca bc
       0.041245345 0.03087622 -0.03353851 -0.024688317
000140 3c 2a cd bc c1 20 94 3a 6e 02 b4 3c 55 e4 dd 3c
       -0.025044553 0.0011301265 0.021973815 0.027086416
000150 ca db 00 bb 6d a5 0c 3c d2 33 83 bc 24 01 cf bc
       -0.0019662254 0.008584362 -0.01601592 -0.025269099
000160 bd a6 7d bb e5 e1 ac bc ad 3f c9 bc d7 93 08 bd
       -0.003870412 -0.021103809 -0.024566496 -0.033344116
000170 17 22 e9 3c 46 44 09 3d 9a 8e 05 3d 5c 66 a1 3b
       0.028458638 0.033512376 0.0326067 0.0049255323
000180 72 77 9d bb fa 29 e3 3c c9 68 8d bc 7a d4 41 3c
       -0.0048054988 0.027729977 -0.01726188 0.0118304435
000190 0c c0 d1 3c 41 18 08 bc 40 9f 9e 3c f5 88 60 3a
       0.02560427 -0.008306564 0.019363046 0.000856533
0001a0 f2 84 9f bb 4c a3 85 bc 44 4b 76 bb 1d 7e 87 bc
       -0.0048681432 -0.016313218 -0.0037581483 -0.016539628
0001b0 dd 21 9d bc b6 f4 ad 3c d6 71 9c bc a2 04 41 bc
       -0.019181186 0.021234851 -0.01909725 -0.01178089
0001c0 4e 8f e9 bb 98 21 8c 3c 85 f9 0a bd d6 27 bb 3c
       -0.007127679 0.017105862 -0.033929367 0.022846144
0001d0 53 e2 ee 3c c3 75 31 3b 1b 92 64 bc 32 5e 00 bd
       0.029160654 0.0027078248 -0.01395085 -0.03133983
0001e0 9a bf 22 3c 7a 23 91 3b 91 6b 87 bc 70 f4 34 3b
       0.009933377 0.004429278 -0.016530784 0.0027611516
0001f0 4f 73 18 bc 56 02 e2 bc 90 03 93 bb ce f3 fc 3c
       -0.009304835 -0.027589004 -0.0044865087 0.030877974
000200 c0 ee 01 3d d1 f5 00 3b ba b0 0a 3c 8b 36 86 bb
       0.03172183 0.0019677768 0.008464986 -0.0040958575
000210 49 5c 4f bc 6a 30 7b 3c d0 82 37 bc 42 85 9b 3c
       -0.01265628 0.015331367 -0.011200622 0.01898444
000220 bf f4 35 bb 13 7b 52 bc aa 0b bb bc 2e ba a7 3c
       -0.0027764288 -0.012846726 -0.02283271 0.02047452
000230 75 6d 12 3c d2 15 e3 3c d5 6d ef 3c aa 68 dd 3c
       0.008937229 0.027720366 0.029227177 0.027027447
000240 2f 71 c7 3c 11 ee d1 3c 64 ca 94 bc ba 6e 3c bc
       0.024345962 0.025626214 -0.018162914 -0.011501009
000250 e1 92 cf 3c b2 15 79 3b a9 34 d6 3c 02 cc a1 bb
       0.025338592 0.0038007316 0.026148157 -0.0049376497
000260 39 45 b6 3a fb dc ec bc 35 10 84 3c c1 46 00 bc
       0.0013906128 -0.028913965 0.01612101 -0.007829369
000270 92 9a ec bc 4c 17 f9 bc 33 39 52 bc 25 1d cb bc
       -0.028882299 -0.030406617 -0.01283102 -0.02479417
000280 51 b6 07 bd 07 ff 48 3b 07 fa bc bc d1 27 4e bc
       -0.033132855 0.0030669586 -0.023068441 -0.012582735
000290 cc 1f 0f ba 03 3f 14 3d 53 07 ee bc 60 0f 02 bc
       -0.0005459755 0.036192905 -0.029056227 -0.007938236
0002a0 44 1d ac bb 35 bb 36 3c a1 90 bd bb db 87 c7 bc
       -0.005252512 0.011153032 -0.0057850634 -0.024356773
0002b0 30 d6 bd 3b 37 92 27 3c f0 91 2a b9 91 74 e6 bc
       0.0057933554 0.010227731 -0.0001626683 -0.028131755
0002c0 e6 ce 17 3d 67 70 99 bc 08 8c d8 3b 92 1f e4 bc
       0.037062548 -0.018730355 0.00660849 -0.027847085
0002d0 86 dc 49 bc 4d 61 10 3d 94 78 ec ba 64 9a 79 b7
       -0.012320643 0.035249043 -0.0018041306 -1.4877503e-05
0002e0 60 b0 ec 3c 95 76 fb 3c 14 cf 1b 3c 38 46 ca bc
       0.028892696 0.030696193 0.0095098205 -0.024691686
0002f0 89 7f d1 bc 7f 6c 91 3c ef aa e7 3c 76 64 c0 bc
       -0.025573509 0.01775193 0.02827975 -0.023485404
000300 31 b9 0b 3d eb 98 4d bc 94 fa cc 3c b2 2c de b9
       0.03411216 -0.0125486655 0.025021829 -0.0004237644
000310 7d 3a 9e 3c 97 dc 41 bc ac 18 66 bb 61 02 c1 bc
       0.019314999 -0.011832378 -0.003510992 -0.023560705
000320 54 e4 e8 b9 59 10 6d 3b 88 96 7e 3c d8 82 bd bb
       -0.00044420606 0.0036173074 0.015538819 -0.00578342
000330 ed 36 68 bc ac e0 9c bc 8c e6 a5 3a 71 25 99 3c
       -0.014173252 -0.0191501 0.0012657209 0.018694611
000340 8f ef a2 3c 65 0a 67 bb 4f 66 aa 3a ac f6 45 bc
       0.019889621 -0.0035253998 0.0013000461 -0.012082737
000350 52 fb 21 3b 9a 7c 76 3c 77 79 ae 3c 7b 87 72 3c
       0.002471645 0.015044356 0.021298153 0.014802809
000360 76 ef cf bb 94 ca e0 bc e7 18 fa 3c 4a a4 2a 3c
       -0.0063456846 -0.027440347 0.030529452 0.010415146
000370 9e f0 8a bb f6 9a 47 3c f5 24 3a bb ad 3e d8 3b
       -0.0042401096 0.012182942 -0.0028403376 0.0065992684
000380 e9 ea 6d 3c a5 19 6e bc 26 95 0e 3a 91 6c f4 bb
       0.014521339 -0.014532481 0.0005439095 -0.007459231
000390 83 96 ec bb b5 db f7 bb dd 42 5c 3c b5 2c 29 bc
       -0.007220091 -0.007564033 0.013443676 -0.0103256
0003a0 be 7e cd bc 8f 31 9b bc 16 c3 1f 3c c8 9c cf 3c
       -0.02508485 -0.01894453 0.009751102 0.025343314
0003b0 5c 35 34 bc 2c 87 2f 3c 93 d9 1a b7 5e 2c ca bc
       -0.01099905 0.01071338 -9.229773e-06 -0.024679359
0003c0 bb 6a a7 bb ae 97 16 3c bd 69 5b 3c 03 2e e3 3c
       -0.005109159 0.009191437 0.013391909 0.027731901
0003d0 54 d6 0f bb 96 7a 03 3d a7 b3 f8 3c 41 07 b8 3c
       -0.0021947818 0.03209933 0.030359102 0.022464396
0003e0 a4 c5 87 bc 0b dd c8 3c 91 0f 99 bc c6 44 e5 3c
       -0.016573735 0.024519464 -0.01868418 0.027986895
0003f0 0e 81 0b 3c 36 79 db 3c 01 98 c0 3c 1e 2f ba bb
       0.008514656 0.026791196 0.023509981 -0.0056818863

a2c_network.actor_mlp.2.weight f4 [128, 256]
000000 ea 11 64 3c 99 7f 10 bc 7e ab 2c 3c 20 7f 68 bd
       0.013920287 -0.008819484 0.010538934 -0.05676186
000010 1f 28 b3 bc d6 6d 23 3d d0 7d 90 bd a4 62 92 bd
       -0.021869717 0.03989967 -0.07055247 -0.071477205
000020 81 b2 40 bd 19 a6 71 bd 89 02 83 bd 42 8e c5 bc
       -0.047045235 -0.058996294 -0.06396968 -0.024115685
000030 78 62 77 3c 21 d3 a5 bd 6a 38 aa bd 20 ec 35 bd
       0.01509916 -0.0809691 -0.083115414 -0.04441464
000040 2b 43 62 bd 66 1b 1f 3d bb aa e0 bc f4 cc cf 3c
       -0.055239838 0.03884449 -0.02742516 0.025366284
000050 8e 33 8f 3d 71 d0 de bc 48 d8 5b bb d8 a0 97 bc
       0.06992255 -0.027199002 -0.0033545662 -0.018509313
000060 d9 50 47 3d 64 7c a1 3c 11 43 90 bc c5 a3 70 3b
       0.048661087 0.019712634 -0.017610105 0.0036718708
000070 72 36 a7 bd 69 3e 0c bd ef 53 5e bd 0f ff 95 bd
       -0.081646815 -0.034239206 -0.054279264 -0.07324039
000080 04 c2 48 bd 23 e1 28 bd 95 69 af bc 32 b1 58 3d
       -0.049013153 -0.041230332 -0.02141265 0.05290336
000090 80 f1 2b 3c d8 1f 0c bb 52 cd d1 b9 e0 0d 8f 3d
       0.01049459 -0.0021381285 -0.00040016562 0.06985068
0000a0 ed 51 e0 bc 36 ec 73 3d 6f af 39 3d d6 0e 42 bd
       -0.027382815 0.05955144 0.045333322 -0.04737743
0000b0 72 01 41 3d 74 7c 9b 3c 26 db 47 bd 05 28 8b 3d
       0.04712052 0.018980242 -0.04879298 0.067947425
0000c0 f6 46 7a 3c e8 4c bb 3d 49 61 ca bb b6 10 1c bd
       0.0152757075 0.09145528 -0.006176148 -0.038101874
0000d0 4b 8e 89 3d 90 f3 cc 3a cd 57 64 3d ed 9c 02 bd
       0.06716593 0.0015636552 0.055747796 -0.031887937
0000e0 d4 ac b9 3c 62 5f 56 bc 3f 2f ec 3c 67 04 b5 3c
       0.022665419 -0.0130842645 0.028831122 0.022096826
0000f0 93 85 52 bc bb 61 9c 3d 93 81 b8 3c 51 46 3c bb
       -0.012849229 0.07635828 0.022522723 -0.0028728435
000100 a0 c4 c6 3c 06 12 89 3c 8c c9 f6 bb db 3d 0c 3d
       0.02426368 0.016732227 -0.0075313505 0.034238677
000110 ef 4a 93 bd 2e 0d c3 bc 20 f3 d6 3c dd 0e 97 bc
       -0.07192027 -0.023809996 0.026238978 -0.018439705
000120 07 d3 d8 bc ae 5d 16 3d 89 4d 7f 3c a0 41 09 bd
       -0.026467813 0.036710434 0.015582451 -0.03350985
000130 16 4e 6f 3b 8f eb f3 3c 19 f8 bf bc af 1a 24 3d
       0.0036515049 0.029775409 -0.023433732 0.04006451
000140 64 81 2a bc e6 95 fd bc a8 af eb bc c8 66 8d bc
       -0.010406826 -0.030955266 -0.028770283 -0.017260924
000150 97 ff 13 3d 99 2d 67 bc f6 64 a8 bd b2 72 2d bc
       0.03613242 -0.014109992 -0.08222382 -0.0105864275
000160 e6 d3 55 3d 2a 01 2f bd 01 1c 8f 3d d9 49 26 3d
       0.052204035 -0.04272572 0.06987763 0.04059777
000170 36 d5 84 3d bf 04 5a bc 6c d3 31 bd 67 85 8c bd
       0.06485979 -0.013306796 -0.04341452 -0.06861382
000180 8a be 1b 3b 31 8c 8e bc 49 f8 22 bb e9 b9 25 3d
       0.0023764693 -0.017400833 -0.0024867228 0.0404605
000190 36 57 82 3d 36 b6 be bd 29 df 2c bd 46 34 86 bb
       0.063642904 -0.09312098 -0.04220501 -0.004095587
0001a0 fe cd 54 bc 1f 24 65 3d 74 dc 12 bd 9f 8a 2d 3d
       -0.0129885655 0.05594265 -0.03585477 0.042368528
0001b0 54 9c d1 bc 7b 8b 23 ba c1 f0 b0 bc 6e 13 a3 bb
       -0.025587238 -0.0006238741 -0.021599175 -0.0049766814
0001c0 06 c1 2d bd 52 85 b0 bd 10 1d 9d bc 01 87 14 bc
       -0.04242041 -0.08619179 -0.019178897 -0.009065391
0001d0 ff 51 52 bd d4 23 99 bc 12 1b 63 bd cd 1a c7 bc
       -0.05134773 -0.018693842 -0.055445738 -0.024304772
0001e0 e0 9b a0 bd 76 8e 8c 3d 70 42 8d 3b 1c ba d2 3c
       -0.07842231 0.0686311 0.0043108985 0.02572351
0001f0 39 f3 92 bd 04 4f a0 bb 85 f7 a1 bd e8 dc 13 3d
       -0.07175297 -0.004892232 -0.07908539 0.036099344
000200 d0 b4 22 3d 2b c5 87 bd 95 ef 97 3d 41 62 b4 3b
       0.039723217 -0.06629404 0.074187435 0.005504877
000210 c2 9c 94 bd b1 67 a1 3b 9f 39 24 3d 2a 00 84 bd
       -0.07256462 0.004925691 0.040094014 -0.06445344
000220 5f 04 f4 3c 29 af 21 3d bc 60 ef 3c 0b 2b e0 bc
       0.02978724 0.039473686 0.029220931 -0.027364274
000230 15 19 e5 3c 65 9d 6d 3c 80 72 a2 3d c7 09 8d bd
       0.027966062 0.014502858 0.079319954 -0.068866305
000240 b9 a1 73 bb a1 0d f2 3c b3 f9 23 bd 62 97 f4 bc
       -0.0037175252 0.029547514 -0.040033054 -0.029857341
000250 90 7d 38 3d e0 b2 0c 3d 46 f5 c8 b8 0e c2 4d bc
       0.04504162 0.034350276 -9.582429e-05 -0.012558473
000260 aa f9 8a bd 5f a8 1b 3d eb 51 e8 bc 73 47 c8 bd
       -0.06785901 0.038002368 -0.028359374 -0.09779253
000270 2a 60 b0 3c 6b 96 3c bd 3d 1a c2 3c b1 82 83 3d
       0.02153023 -0.046041887 0.023694152 0.06421412
000280 bf 0d 73 3d 48 db 17 3d 40 2e 07 bd 13 23 98 bb
       0.05933928 0.037074357 -0.03300309 -0.004642853
000290 81 a0 ce 3c c5 c2 11 bd 87 b1 38 3d 9b e7 2f 3d
       0.025223019 -0.035586137 0.04509118 0.042945486
0002a0 56 bc 7d bd 0f 78 28 bc 58 5d 23 bd b6 f4 0e 3c
       -0.06194719 -0.01028253 -0.03988394 0.008725336
0002b0 54 b4 c8 3c b1 d2 54 bd 49 ff 15 3b 44 fd c1 bc
       0.02450005 -0.051958743 0.0022887758 -0.023680337
0002c0 1a 79 31 3d d8 98 35 3d 49 55 72 3c 2b 84 64 bd
       0.043328382 0.044335216 0.014790841 -0.055790108
0002d0 ab d4 0f 3d 4d b3 1c bd 13 e4 a5 3c de a5 c8 bc
       0.035114925 -0.038256932 0.020250356 -0.024493154
0002e0 97 9d 76 3d 03 a3 16 bc 91 49 20 3c 5b d1 41 bd
       0.060208883 -0.009194138 0.009783165 -0.047318798
0002f0 f4 33 08 3d 07 15 13 bc 40 85 92 3c 6f d3 9c 3c
       0.03325267 -0.008977181 0.017885804 0.019143788
000300 0d 51 44 bd 9d 3d 64 bd c5 10 dc 3c 62 7d e2 bc
       -0.04792886 -0.05572282 0.026863465 -0.027647678
000310 97 b0 94 bd ae 2d 9c 3d ad a1 d2 bc 6e 20 12 bd
       -0.07260244 0.076259 -0.025711859 -0.03567546
000320 99 16 a8 bd 5c 13 27 3d d2 e6 cd bc 80 77 83 3c
       -0.08207435 0.040789947 -0.025134478 0.016048193
000330 85 3e 44 39 6d ad 11 bb 6d 33 0b bc d7 f8 72 3d
       0.00018715307 -0.0022228614 -0.008496148 0.059319343
000340 6d 76 d6 3c f3 62 83 3c df 65 93 bd 80 26 66 bd
       0.026179517 0.016038394 -0.07197165 -0.05618906
000350 b6 f6 72 3c d4 e8 30 3c a9 6a 79 3b 30 cb 2e bc
       0.014829328 0.010797698 0.003805796 -0.010668561
000360 04 2e 15 3d 76 28 30 3d 75 e0 00 bd 6f 1e 15 3c
       0.036420837 0.043007337 -0.03146406 0.009101494
000370 ea 5b 0e bd f4 0a 84 3d a5 1b 93 bc c6 07 94 bc
       -0.034755625 0.06447402 -0.017957518 -0.018070113
000380 98 74 85 3d 32 25 41 bd fd f2 b9 3c 44 1f 13 bd
       0.06516379 -0.047154613 0.022698874 -0.03591849
000390 64 95 8f bd 2d 5b fb 3c 3b c0 83 bb ed b6 cc bd
       -0.07010916 0.030683124 -0.0040207184 -0.09995828
0003a0 49 fb 59 bd da 57 c3 bc f3 9a 2e 3d 3d 0b e1 3c
       -0.05321816 -0.023845602 0.04262824 0.02747118
0003b0 1e a1 0a bc 3f 51 1a 3d cd dd a3 bd 42 c7 4b 3d
       -0.008461265 0.03767514 -0.080012895 0.049750574
0003c0 72 3d 17 3c f1 b8 48 bb 03 6a 9d 3c 29 56 a3 3c
       0.009230958 -0.0030627812 0.01921559 0.019938545
0003d0 ac 09 ae 3b 17 19 c4 3c 7c ba 8b 3d 72 4a ad 3d
       0.0053112116 0.023937745 0.068226784 0.08461465
0003e0 9f ac 82 bc 9a 70 95 3c 89 cc 10 3d 2c bc c9 bc
       -0.015951453 0.01824217 0.03535131 -0.02462586
0003f0 00 80 52 3d 12 47 b6 3c 4d 51 7b 3d b0 ab 0d bb
       0.0513916 0.022250686 0.06135683 -0.0021617226

a2c_network.actor_mlp.2.bias f4 [128]
000000 d0 6d 5d bc 7e e4 08 3d 0d e3 b3 bc 1f 19 1d 3d
       -0.013514951 0.033421032 -0.021958852 0.038354035
000010 4d 53 0b bd a2 ad 07 bc f4 9d d1 bb 56 2a 86 3c
       -0.03401499 -0.008281143 -0.0063970033 0.01637761
000020 2e 07 1c bd 25 c7 3c ba 77 b9 e4 3b dc 17 06 3d
       -0.038092785 -0.00072013057 0.006980117 0.032737598
000030 51 81 10 3d 95 39 da bc a1 13 21 3d 89 2b 00 3d
       0.035279576 -0.026638785 0.03932536 0.03129152
000040 1a fc 22 bd 35 df c0 39 69 51 5c 3c e4 fe 03 bd
       -0.039791204 0.00036787396 0.013447144 -0.032225505
000050 6d d9 6b 3b f9 4d 32 3c 41 74 08 3c 0b 05 39 3c
       0.003598775 0.010882848 0.008328498 0.011292706
000060 5d b5 e3 3c 0a 8d 1e 3d 87 ed 05 bc 3b f0 19 bd
       0.027796442 0.038708724 -0.008174307 -0.037582617
000070 e1 83 21 3d e0 ab 12 3a fa b2 fc bc 94 77 bd b9
       0.03943241 0.00055950694 -0.030847061 -0.00036137982
000080 1c 12 07 3d a6 8d 86 3b 27 1f 59 3c 14 a6 35 3d
       0.032976255 0.0041062413 0.013252056 0.044347838
000090 27 67 09 bd 2c e2 5b bc 1d 99 02 3d 1f 49 fb bc
       -0.03354564 -0.013420623 0.0318843 -0.030674515
0000a0 63 f4 86 ba 60 ea 06 bc 63 1c 0e 3c f0 8e bf bb
       -0.0010296222 -0.00823459 0.00867376 -0.005845897
0000b0 3b f7 51 3c 60 d0 d2 bc 69 1f fd bc 06 80 80 3b
       0.012815292 -0.025734127 -0.030898767 0.0039215116
0000c0 b1 cd 1f 3a 73 15 43 bc ff 7a 83 ba 31 2a 31 3d
       0.0006096019 -0.011906969 -0.0010031163 0.043253127
0000d0 14 e1 2a 3b 7e a9 13 3c 08 98 32 ba e2 61 01 3d
       0.0026074098 0.009012578 -0.00068128156 0.03158749
0000e0 8e 1b 8a bb 4c 3a fb bc 39 99 01 bd cc c1 b4 3c
       -0.0042147106 -0.030667447 -0.031640265 0.022065066
0000f0 c9 05 ee 3c d5 bb f4 3c 79 40 d7 3c 50 6b 21 3d
       0.029055493 0.029874722 0.02627586 0.03940898
000100 18 c6 1d 3d aa 13 28 3c 8c be 11 3d c7 41 0d 3c
       0.038518995 0.0102585945 0.03558211 0.00862164
000110 01 9a 03 3c 75 7c 28 3d 3d b6 86 3c de 46 af bc
       0.008032323 0.041134316 0.01644432 -0.021396097
000120 0f 0d 09 bd aa 81 af bc 37 5a 95 3c 1e 15 01 3d
       -0.03345972 -0.021424133 0.018231494 0.03151428
000130 0b d5 25 3b 87 63 81 bb 47 3c 0f 3d 02 96 0a bd
       0.0025303985 -0.003948632 0.034969594 -0.033834465
000140 58 6c f8 3b a3 04 1a bd d0 6a 81 bb 8f ce 03 bc
       0.007581275 -0.03760208 -0.0039495006 -0.008044853
000150 57 c7 02 bd ed 73 1a 3d f8 ec 16 bd 14 68 55 bc
       -0.031928387 0.03770821 -0.036847085 -0.013025302
000160 1f f3 1d 3d fb bb 83 3a e8 c1 ec 3c a4 b4 db bb
       0.038561936 0.0010050529 0.028901055 -0.0067048836
000170 fe b7 ed 3c 33 69 d8 3b dc 11 d4 3c a8 02 3a bb
       0.029018398 0.0066043376 0.025887422 -0.002838293
000180 4e c1 47 3c 58 a5 f4 bc b1 da e6 3c 8b 7d d6 bc
       0.0121920835 -0.029863998 0.028180452 -0.02618291
000190 d8 89 d3 bc 06 e9 96 3c e9 23 02 3d be aa 40 3c
       -0.025822565 0.018421661 0.031772528 0.011759458
0001a0 da 1b a3 3c a8 69 2f 3d 75 5f ce bb 81 0e 28 bb
       0.019910742 0.04282537 -0.0062980005 -0.002564341
0001b0 0c 5d 02 bd 4d 8b 0c bd 5c d2 2e 3d 6b a2 0d bd
       -0.031827018 -0.034312535 0.042681083 -0.034578722
0001c0 21 45 60 bc d2 c2 8c 3a ae ae d9 ba 61 c0 20 3d
       -0.013688357 0.0010739213 -0.0016607845 0.039245967
0001d0 e7 34 f9 3a 0b 4c 50 bb 55 59 c0 bc 25 b3 5a 3a
       0.0019012959 -0.0031783606 -0.023480097 0.00083427347
0001e0 b3 74 58 bb c3 57 1a bd 85 72 00 3c 37 57 d7 bc
       -0.0033028543 -0.037681352 0.007839804 -0.026286704
0001f0 24 bc 58 ba db 6e f5 bc 73 87 03 3d 60 97 67 ba
       -0.0008267781 -0.029960087 0.032111596 -0.00088345073

a2c_network.actor_mlp.4.weight f4 [64, 128]
000000 a4 d2 46 3d cc c4 a5 3c 82 ef 2e bd f1 cb f1 3d
       0.048540726 0.020235442 -0.04270888 0.11806477
000010 1c 4c ea 3a e3 d6 87 3c f6 2e 87 bc bc 14 7e bc
       0.0017875466 0.016581958 -0.016501885 -0.015507873
000020 f6 ec cf bd e1 f8 6a 3d 58 78 ad bd 49 ee bd 3d
       -0.101526186 0.057366256 -0.084702194 0.09273965
000030 99 43 e6 3d 1b 05 87 3c 87 f9 f8 3d 1e f8 cd bc
       0.11243362 0.016481927 0.121569686 -0.025142726
000040 86 8c b0 bc 50 ec 8d 3d d6 43 b3 bd 6f fd e6 bd
       -0.021551382 0.06929839 -0.08753173 -0.11278807
000050 22 8f 66 3d 1d ac 6a 3d c9 66 d3 3c 63 a7 92 3c
       0.056288846 0.057293046 0.025805848 0.017902082
000060 e6 3b 8d 3d 52 5c c0 3d 48 b3 4c bd db 1f e9 bd
       0.0689619 0.09392609 -0.049975663 -0.11383029
000070 d5 3a e8 3d 79 da b2 bc 3b 54 f4 bc 70 d9 7a bc
       0.11339346 -0.021832692 -0.02982532 -0.01531063
000080 98 f1 64 3d b3 49 14 3d 4a 95 c4 3d f5 a9 b3 3c
       0.055894464 0.036203098 0.09598787 0.021931628
000090 e1 6e 34 bc 3d 3e ba bd c7 dc b0 3d b5 2c b3 bc
       -0.011012764 -0.09093902 0.0863586 -0.021871904
0000a0 85 6e d1 3d db 49 60 bd 3a bd b4 bb 02 07 90 3d
       0.10226158 -0.054757934 -0.0055157216 0.07032587
0000b0 5d e4 b1 bd 76 4f 79 bd 47 34 ed bb b5 e6 5d bd
       -0.08686135 -0.060866795 -0.007238898 -0.054175097
0000c0 e3 6a 87 bd 10 2f 5b 3c d5 71 b6 3d f3 6c 37 3d
       -0.06612184 0.01337792 0.089084305 0.044781636
0000d0 e2 ed 64 bd 21 45 6e bd 20 c4 11 3b 3b 13 70 3d
       -0.055890925 -0.058171395 0.0022242144 0.05861209
0000e0 d8 36 c9 bd 02 be 6b 3d ea 1c 01 bd d8 f1 c1 3d
       -0.09824914 0.057554252 -0.031521715 0.09469956
0000f0 03 35 35 3d 1b 74 60 bd ba 02 9e 3d 2b d8 f9 bc
       0.04424001 -0.054798227 0.07715364 -0.030498585
000100 6f f3 5d 3d bd 5d bc bc 63 ca 1e bd e7 e7 f1 b8
       0.054187234 -0.022993917 -0.03876723 -0.00011534971
000110 77 f0 e0 bc c7 15 a9 3d 6f 39 19 bd 4d 98 aa bd
       -0.027458413 0.08256107 -0.03740829 -0.0832983
000120 18 0e dc bd 05 8d 8a bd f9 34 ca 3d cb fa e8 3d
       -0.10744876 -0.067651786 0.09873385 0.1137596
000130 07 ca a8 3c e5 ce cd bd 3b 78 48 3d 16 a3 90 bd
       0.020604147 -0.100492276 0.048942786 -0.07062356
000140 99 15 c7 3c cf 0a 57 3d ac 1f 75 3d a2 46 16 bc
       0.02430229 0.052500542 0.059844658 -0.009172114
000150 11 ce 44 bd c1 f3 9c b9 3c 12 a6 bd ab 49 16 bd
       -0.048048083 -0.0002993625 -0.08108947 -0.03669135
000160 c8 49 80 3d 18 c5 36 3d 5c ae ae 3c dd 87 f1 3d
       0.06264073 0.044621557 0.021323375 0.11793492
000170 d6 25 77 3d 45 bf 87 bd fe 1c f2 3d 50 ed 4b bd
       0.060338818 -0.06628279 0.11821936 -0.049786866
000180 3b 9b 24 ba 12 dc a1 bd 90 69 87 3d 1f 0c 92 bc
       -0.00062792347 -0.07903303 0.06611931 -0.017828045
000190 76 2b e1 bc e7 a4 14 bb f0 4e 01 bd 5e e5 eb bc
       -0.027486544 -0.0022681297 -0.03156942 -0.028795894
0001a0 0e 57 65 3d 51 57 2e bb b2 c0 3e bd b1 30 b0 3d
       0.055991225 -0.0026602338 -0.046570487 0.08603037
0001b0 bd 2a ca bc dc 6e 57 3c 84 aa a4 3d 8a b2 95 bd
       -0.024678582 0.0131489895 0.08040336 -0.07309444
0001c0 48 6b df bb 01 70 e4 bd ba 0a ef 3b fa fc c3 3d
       -0.006818209 -0.111541755 0.00729498 0.09569736
0001d0 93 ea b5 bd 0c 8f a2 3c e9 1a 72 bd 0f 2c 61 3d
       -0.08882632 0.0198436 -0.059107695 0.05497366
0001e0 17 ce 1a 3d 16 0e 73 bc 13 80 19 3c 93 ac 66 bb
       0.0377942 -0.014834901 0.009368914 -0.0035198077
0001f0 df 35 79 bc 7e 79 bc bd ef 05 d2 3d 56 56 87 3c
       -0.015210598 -0.0920286 0.10255038 0.01652066
000200 d5 68 11 ba 27 93 26 3c ed 37 07 bd 1c 87 c7 bd
       -0.0005546932 0.01016692 -0.03301232 -0.09742567
000210 2e 95 84 3d 98 44 42 bd f7 45 92 bc 70 2e 4b bd
       0.06473766 -0.047428697 -0.017855627 -0.049604833
000220 d9 6d 9a 3d fc 03 31 bd ef 81 c4 3c e4 3b b9 3a
       0.07540483 -0.04321669 0.023987738 0.0014132229
000230 c6 e2 85 3d 85 b1 ba 3d 97 c6 95 3c e4 9d 89 bc
       0.06537394 0.091158904 0.018283172 -0.01679892
000240 9b c6 5e 3d e6 89 72 3c e4 3b 9d bd 33 bc 09 3b
       0.054388624 0.014803385 -0.07677439 0.0021016716
000250 7d 8c 41 3d fa 11 a5 bd aa 31 4b bd 85 9a 3d bd
       0.04725312 -0.080600694 -0.04960791 -0.04628994
000260 16 b2 86 3d 8a 14 ab bd e7 93 98 3b a5 19 71 bd
       0.06576936 -0.08353527 0.004656303 -0.058862347
000270 4a dc 62 3d f9 b6 4f bd 40 86 45 3d 16 dc 34 bd
       0.055385865 -0.050711606 0.048223734 -0.044155203
000280 a2 6a 0b bd 09 b0 0e bc 51 c6 e0 bb f9 71 8c bd
       -0.03403724 -0.008708962 -0.0068595787 -0.06857676
000290 ce 00 80 bd 53 8d 80 bd 20 5d 48 bd c3 d3 69 3d
       -0.062501535 -0.062769555 -0.048916936 0.057086717
0002a0 8c c0 b3 3c d6 9e 58 bd 5b 82 53 bd 6b 78 97 3d
       0.0219424 -0.052885853 -0.05163799 0.07396015
0002b0 38 aa c1 bd d5 7c 86 3d 28 a3 28 3c 3d 42 95 bd
       -0.09456295 0.065667786 0.010292806 -0.072880246
0002c0 29 11 0d 3d 1f ac 93 3d dd ae 19 3d 30 52 17 bd
       0.034440193 0.07210564 0.03752028 -0.036943614
0002d0 d4 3c 15 bd 0c e8 6b 3a af cd 7e bd cf 3f e6 3c
       -0.036434963 0.0008999116 -0.062207874 0.028106598
0002e0 c0 f0 4d bd c6 9d 32 3b 65 1b 1e bc 12 6d 6c 3d
       -0.050278425 0.0027254685 -0.009650086 0.057721205
0002f0 66 ad c1 bd 8b 9d 73 bd 7c a3 25 3d c3 62 33 bd
       -0.09456901 -0.059476417 0.040439114 -0.04379536
000300 76 c5 6a 3d bb 67 95 bd 91 e8 35 3c cb 5b 9f 3c
       0.05731722 -0.07295176 0.011102811 0.01945295
000310 41 51 c0 3d 18 d7 4e 3d 02 81 c7 3c 14 ab 84 bc
       0.09390498 0.050498098 0.024353508 -0.016194858
000320 ad 40 d3 3c 27 a6 8a 3d 7e 47 80 bd a4 b6 b2 bd
       0.025787676 0.06769972 -0.06263636 -0.08726242
000330 de 7c f8 3b 83 97 9a bd ab 40 9b 3b 02 92 25 3c
       0.0075832447 -0.0754843 0.0047379336 0.010105612
000340 e3 36 69 3d 81 51 90 3d fa 0c a9 bd ca 78 bb 3d
       0.05693711 0.07046796 -0.08254428 0.09153898
000350 90 1c 6b bd a5 00 ba bd 20 dc 6a bc 7d 0c 02 3d
       -0.057400286 -0.09082154 -0.014334708 0.03175019
000360 5f 56 63 bc fc c1 05 bc 7f 4f 3f ba c0 1a b7 bc
       -0.013875573 -0.008163925 -0.00072979176 -0.022351623
000370 16 c4 10 bd bc af 24 3d 73 31 77 3c ae 5d b9 bc
       -0.035343252 0.040206656 0.015087473 -0.022627678
000380 02 0c e3 3c 17 b1 65 3d b2 95 1d bc 07 b9 b0 bc
       0.027715687 0.05607709 -0.00961821 -0.021572603
000390 aa 66 91 3d 26 60 d2 ba 81 0a 6f 3d 2b 3e 96 3d
       0.0709966 -0.0016050383 0.058359627 0.07336076
0003a0 19 5e c1 bd e5 d4 f6 bc da 06 96 bd e9 a5 a8 3c
       -0.09441776 -0.030130813 -0.073255256 0.020586925
0003b0 bd 6f 82 3d 53 e7 3d 3d 25 fe 1b bd e1 8d 07 3d
       0.06368969 0.046363186 -0.038084168 0.03309429
0003c0 a1 7f 8b 3d 08 66 39 bd 4f 52 39 3d 0b 4d 2e bc
       0.06811453 -0.04526332 0.04524451 -0.010638486
0003d0 d8 a1 a3 3c 3b 9b 89 bc 51 16 59 3d ce d0 3d 3d
       0.019974634 -0.016797652 0.0529998 0.04634171
0003e0 3a bd 26 bb 9e b2 64 3c 4b 4b 9a bd 00 15 b7 bd
       -0.0025442378 0.013958601 -0.07533892 -0.08939552
0003f0 a8 90 b6 bc d3 06 66 bd bd b0 48 bc ad 38 8c 3d
       -0.022285774 -0.05615885 -0.012249169 0.068467475

a2c_network.actor_mlp.4.bias f4 [64]
000000 8e 3b 1f 3d 92 f6 e4 bc 0f 25 de bc f0 65 ec bc
       0.038875155 -0.027949605 -0.02711728 -0.028857201
000010 3d 0c 08 3d a2 61 48 bc 72 99 c1 bb c8 09 7d 3c
       0.033214796 -0.012230309 -0.0059081847 0.015444227
000020 82 96 39 3c 12 62 18 bd 50 bf f1 bc 6c 9d cb 3c
       0.011327388 -0.037202902 -0.02951017 0.024855338
000030 6d 92 5c bc 29 63 fb bc f4 03 09 bd 3f a3 a3 3c
       -0.013462645 -0.030686932 -0.033451036 0.019975303
000040 6a bc 0e bc d2 8b fd 3c 38 d0 fd 3c dd 07 a5 bc
       -0.008711914 0.03095046 0.030983075 -0.020145351
000050 94 bd 6c 3c 71 5b fd bc 94 ba 23 bc ae e7 7f bc
       0.014449496 -0.030927392 -0.009993214 -0.015619202
000060 4c ed 13 3d 21 f5 53 bc 47 fa fc 3b 69 c6 13 3d
       0.036114976 -0.012936861 0.007720265 0.03607789
000070 55 eb f6 bc 2b 32 3d bb 5a 0f 33 3d 1b ea 80 3b
       -0.030141512 -0.0028869014 0.043715812 0.0039341575
000080 b0 fc 08 3d bb 91 06 bd a2 8b 1b bd 35 55 9d bb
       0.033444107 -0.032853823 -0.03797496 -0.0048014172
000090 2a 12 6b bc 90 a9 a9 bc 55 d8 f5 3c 0a b6 0e bd
       -0.014347592 -0.020710737 0.030010382 -0.034841575
0000a0 83 12 15 3d 77 2a 1d bd 9a fe 79 3c 53 ed f5 3a
       0.036394607 -0.038370576 0.015258456 0.0018762745
0000b0 f2 70 d7 3c bb b8 5f 3c df 06 b6 3c 90 51 8c 3c
       0.026298974 0.013654883 0.022220073 0.017128736
0000c0 e2 70 44 3c e9 1b a1 bc ca 3e 16 3d 17 a3 b0 bc
       0.011989804 -0.019666629 0.036680974 -0.021562142
0000d0 80 c0 19 bd f5 b8 af 3c 7e 8e 8f 3c 72 ed 1b 3d
       -0.037537098 0.0214505 0.017524 0.038068242
0000e0 1a 50 3c 3b 19 3c 7c 3c 59 40 b2 bc 79 ec 0b 3c
       0.0028734268 0.015395188 -0.021759199 0.008540266
0000f0 08 82 ac bc c7 40 58 b9 48 1f e8 bc f1 cf 8c bc
       -0.021058097 -0.00020623497 -0.028335229 -0.017188998

a2c_network.value.weight f4 [1, 64]
000000 27 a2 93 bd 7f 33 a7 3d cc b8 d3 3d 6c 0f fa 3c
       -0.072086625 0.08164119 0.103379816 0.030524932
000010 1e 09 b0 3b d8 b4 ba 3d 6b d9 9b 3d 5a 9e da 3c
       0.0053721806 0.091165245 0.076098286 0.026686836
000020 93 02 4c 3d 9c f4 ca 3d ae f5 d9 3d 78 bd 87 bd
       0.049807142 0.09909937 0.10642563 -0.06627935
000030 a4 aa 06 3d c9 22 03 3e 46 1e a8 3d de 07 be bd
       0.03287758 0.12806238 0.08208899 -0.09278844
000040 04 a6 0f 3e 3f 77 e9 bd 66 52 86 bd fb 2a 22 3d
       0.14028174 -0.113996975 -0.06558685 0.03959177
000050 fc b4 8c bd c3 bf 75 3d e1 01 a1 3c cf 9d 15 3e
       -0.068704575 0.05999733 0.019654216 0.1461098
000060 4d 07 d8 bc e4 b5 f4 3d 22 1b 16 3d e6 f5 ff bd
       -0.026370669 0.119487554 0.03664697 -0.12498073
000070 fb 57 b7 3d 96 a6 e9 3d 13 ad 00 be 2a de 49 3d
       0.08952328 0.11408727 -0.12566023 0.049284138
000080 25 2b 71 bd e1 bd bd 3d 83 fb 90 3d 1b 6b 88 3d
       -0.058879036 0.09264732 0.07079222 0.06661054
000090 14 c0 01 3e d2 4d 0a 3e 45 78 92 bd 2b f5 ed 3d
       0.12670928 0.13506249 -0.07151846 0.11619028
0000a0 67 23 0b bd 2a 61 0d 3e 66 bd 00 be 47 14 a2 bb
       -0.03396931 0.13806596 -0.1257225 -0.004946265
0000b0 60 f0 c0 bd 58 5e 10 be 77 56 08 be ab ba eb bd
       -0.09420848 -0.1409849 -0.13314234 -0.115102135
0000c0 c8 4d 43 bd 48 0c cb 3d 41 1e 12 be 17 78 b0 3d
       -0.0476816 0.09914452 -0.14269353 0.08616655
0000d0 f4 d7 c2 3d dc bf 67 bd 91 f1 5a 3b 9f 2b 5a bd
       0.09513846 -0.056579456 0.0033408145 -0.053264257
0000e0 d5 85 6b bd 15 04 af bd 6c 08 db 3d b7 c6 c3 bd
       -0.05750068 -0.085457005 0.10694966 -0.09559386
0000f0 74 a3 db 3d bc e2 8b 3d eb 67 02 3e df 56 85 3c
       0.107245356 0.068303555 0.12734954 0.016276775

a2c_network.mu.weight f4 [24, 64]
000000 bc ae 91 bd 93 66 c7 bc 8e f3 04 bd 7e e6 c4 bd
       -0.07113406 -0.024340903 -0.032458834 -0.096142754
000010 c8 d2 f2 bc 0a 66 fe 3d b6 c7 16 3d 8e 5d db 3d
       -0.029641524 0.12421806 0.036811553 0.107112035
000020 7c 23 14 3d 9c f4 65 3d 5a e0 e0 bd 0c 1b 9e 3c
       0.036166653 0.05614148 -0.10980292 0.019300006
000030 52 83 77 3d d1 db 73 bc 9a d4 6f bd e2 02 87 bc
       0.06042797 -0.014883951 -0.058552362 -0.016480867
000040 67 32 a4 bd 3a 1d 93 3d 9b 28 05 3d 87 42 dc bd
       -0.08017426 0.07183309 0.032509428 -0.107548766
000050 c1 84 19 3d 00 a9 04 be 46 aa 21 3d 94 b4 93 bd
       0.03748012 -0.12955093 0.039469026 -0.07212177
000060 d7 d0 b3 bd 6d 9e 15 3d 6e ae 7a 3c d2 ed f9 3d
       -0.087800674 0.03652804 0.015300376 0.12203564
000070 98 13 91 bd e5 22 13 3e e4 97 4c 3d 8c 2e 30 3d
       -0.07083815 0.1436878 0.04994954 0.04301314
000080 1b 4b 2f 3d cf e1 72 3c 5c 27 59 3d 10 7c db 3c
       0.042796236 0.014824345 0.05301605 0.026792556
000090 d2 47 c0 3d 6e 4a eb bd bf 12 03 bd 6f 14 72 bd
       0.09388699 -0.11488806 -0.0320003 -0.05910152
0000a0 01 67 74 bd 4b f2 dc bd 8d 19 ae bd c7 8a d8 3c
       -0.059668545 -0.10788401 -0.08500967 0.026433362
0000b0 28 c4 18 bd f1 a4 d9 bd 54 72 8b 3d 4d 5c b8 3d
       -0.037296444 -0.10627163 0.06808916 0.0900198
0000c0 bd a3 5d 3d 84 9c 58 bd f1 54 15 3e 95 03 83 bb
       0.05411123 -0.05288364 0.14583184 -0.0039982297
0000d0 55 fa c1 bc 18 bc 26 3c 9d b6 00 3e d0 d7 12 bd
       -0.023678938 0.010176681 0.12569661 -0.035850346
0000e0 6b 16 c4 bd fa 42 d7 3c 6e 7e a0 bd ab 09 81 bd
       -0.095745884 0.026277054 -0.078366145 -0.06300672
0000f0 f2 32 69 3c a4 a2 00 3e 67 56 72 bd e5 6f cf bc
       0.014233338 0.12562042 -0.05916443 -0.02532191
000100 fb ac d5 bd f1 1a 76 3d 75 21 d9 bd aa ee 14 bb
       -0.10433384 0.060084287 -0.106020845 -0.0022725263
000110 33 c5 29 3d 9c e7 c4 bc f5 3c 62 3d b4 37 8d 3c
       0.04144783 -0.024036221 0.055233914 0.017238475
000120 c3 7b 42 bd 33 ef e5 bd 07 b0 d9 3d 06 d4 cc bd
       -0.04748131 -0.11227264 0.10629278 -0.10001378
000130 61 ee 58 bd 39 df 60 3d 1d 77 f4 bc 24 b0 2b bd
       -0.05296171 0.05490038 -0.029841954 -0.041916028
000140 a5 46 0d 3d 56 3f 0f bc 69 44 89 3d a9 32 70 bd
       0.0344912 -0.008743128 0.06702501 -0.058642063
000150 92 bf fd 3b cb 04 fa bd 35 34 e3 bc 83 b5 d6 3d
       0.007743784 -0.122079454 -0.027734855 0.10483839
000160 27 1a 7e 3d 3d df 86 3c dd 62 12 3d 14 96 f2 3d
       0.06203666 0.01646387 0.035738815 0.118450314
000170 10 a3 0c bd d4 ec b0 3d e0 ab e6 3d bf de 0c bc
       -0.034335196 0.086389214 0.11263251 -0.008598029
000180 d9 0d 7a 3d 56 47 fd 3c 55 da 5b bd 43 02 a5 bd
       0.061048362 0.030917805 -0.053675015 -0.08057072
000190 db 51 ff bc 07 b3 be 3d 25 77 88 3d 3e fa b4 3d
       -0.031166961 0.093114905 0.0666335 0.088367924
0001a0 a9 93 90 bd 3a 70 fc bd e7 83 0f bd a7 ef d5 bd
       -0.07059414 -0.12326093 -0.0350379 -0.10446101
0001b0 58 94 c6 3d 5e 61 f3 bc a1 5d 8c bd 5c b9 81 bc
       0.09696263 -0.029709514 -0.06853796 -0.015835457
0001c0 65 49 97 bc a1 be 9d 3c 7e 35 93 3d 29 08 c1 bd
       -0.018467614 0.019255938 0.07187937 -0.094253846
0001d0 5f 2f 36 3d 42 d5 20 3c 54 d9 a9 3d 37 ec ef 3b
       0.04447877 0.00981647 0.08293405 0.00732186
0001e0 d5 53 29 3d c5 d7 f4 bd b2 ec a5 3d 60 0c 91 3d
       0.041339714 -0.11955217 0.08101787 0.070824385
0001f0 32 cc eb 3d a6 a5 0b 3d 84 2e b5 bb 9f b0 f7 3d
       0.115135565 0.03409352 -0.0055292267 0.12094235
000200 b9 34 5e bd 23 f3 3b bd b4 22 01 bc 7d 50 db bd
       -0.0542495 -0.04588617 -0.007881809 -0.10708711
000210 4a b9 f3 3d 43 6b c3 3d b7 7d db 3d 5c 1b a9 3d
       0.119005755 0.09541943 0.107173376 0.082571715
000220 f9 d4 88 3d 47 d2 31 bc d3 de 0c 3d bf 8a 58 3d
       0.06681246 -0.010853357 0.03439219 0.052866694
000230 1f 88 45 bc cd 90 1a bd fd f8 f4 bc 25 85 de bd
       -0.01205638 -0.03773575 -0.029903883 -0.10865239
000240 52 91 87 3d a1 65 15 3e 42 7b 83 3d e2 64 97 bc
       0.066195145 0.1458955 0.06419994 -0.018480722
000250 fa dd 97 bc c1 73 08 be f4 5c 1c be db c6 b2 bd
       -0.018538464 -0.13325407 -0.15269834 -0.08729335
000260 cc 0e 22 bd 4d e3 bc bd 64 6e 56 3d 98 83 27 3e
       -0.039564893 -0.09223042 0.05235137 0.16358793
000270 50 c8 84 bd cd 9c dd 3d 09 fd dd 3d 66 34 c0 3d
       -0.06483519 0.10820923 0.10839278 0.09384994
000280 ed a2 c6 3d fe 10 81 3d c6 32 89 3d 1e de 33 bd
       0.096990444 0.06302069 0.066991374 -0.043913
000290 ec fb 11 3c a1 57 5c 3d 7c ac 88 bd 45 78 e6 bd
       0.0089101605 0.053794507 -0.06673524 -0.11253408
0002a0 25 98 e2 3d fd e5 c3 bd d0 a6 a4 bd fb 42 0d 3c
       0.110641755 -0.09565351 -0.080396295 0.008621926
0002b0 b1 ab 07 3d cc 8f 41 bd 74 50 53 bd 43 55 b3 bd
       0.033122722 -0.047256276 -0.051590398 -0.08756497
0002c0 4b cf 22 bd fe 02 09 3e 93 01 91 3d 40 aa e1 bd
       -0.03974847 0.13380048 0.070803784 -0.11018801
0002d0 c2 1e 98 3d 98 da ae 3d 37 d3 4f 3d 19 0d 0c 3d
       0.074277416 0.08537787 0.05073854 0.03419218
0002e0 97 99 d3 bd 5a 74 69 bd 18 08 e6 3d 79 ad bc bd
       -0.10332029 -0.056995727 0.112320125 -0.09212775
0002f0 81 24 17 3d e8 b3 e0 3d d1 a5 e7 bd 08 12 c0 bc
       0.036900047 0.109718144 -0.11310924 -0.023446098
000300 b2 f3 af 3d 48 70 b0 3d 5d ff dc bd dd 3f d5 bd
       0.08591403 0.08615166 -0.10790894 -0.104125716
000310 26 e1 7c 3d ae 0d 75 3d 73 a2 08 3e fb bb c1 3d
       0.061738156 0.0598275 0.1334322 0.094596826
000320 dd 79 0a 3e 6b 96 a5 3d 1f 1a 9a bd 54 85 e1 3d
       0.1352305 0.080853306 -0.075245135 0.110117584
000330 b5 29 ac 3d 8d 6d bc bd 0d 2e ab bd 16 8f ab 3c
       0.084063925 -0.09200583 -0.08358393 0.020942252
000340 db 64 b8 3d 57 61 89 3d d8 fc 21 bd 5b ea 0a be
       0.09003612 0.06708019 -0.03954777 -0.13565962
000350 65 62 a4 3c 18 62 e8 bd d5 7b 0b bc 79 64 a6 3c
       0.02006645 -0.11346835 -0.008513411 0.020311581
000360 42 a0 1d 3e ce 14 e9 3d 3f 88 1d 3e a7 7e 03 3e
       0.15393165 0.11380921 0.15384005 0.12841283
000370 88 f9 09 be 41 8e fc 3d 0e cd 12 3e 6a 50 ca 3d
       -0.13474095 0.1233182 0.14336035 0.09878619
000380 03 06 17 3d 97 1b e7 bd 43 3c 12 be 93 38 12 3e
       0.036870968 -0.11284559 -0.142808 0.14279394
000390 02 a8 6c 3c 92 28 00 be e1 13 f2 3d d9 0e 92 3d
       0.014444353 -0.12515476 0.11820198 0.07131738
0003a0 12 7a 7a 3d c4 54 10 3d aa 1d 04 be 28 b5 c3 bc
       0.06115157 0.03523709 -0.12901941 -0.023890093
0003b0 a3 4b bd bd e0 50 f2 bd a4 17 3e 3d 7b 2f 8f bc
       -0.09242942 -0.11831832 0.046409264 -0.017478695
0003c0 b4 25 df b9 94 e3 01 3d c3 39 db 3d 95 0b 84 3d
       -0.00042561966 0.031711176 0.107043765 0.064475216
0003d0 00 83 d6 bd bc 45 c0 3d e2 8e 40 3c 83 1c de 3d
       -0.10474205 0.09388301 0.011752816 0.10845282
0003e0 84 ac bc bd bb 31 e0 bd f2 64 14 3d fa 43 4c bd
       -0.09212592 -0.10946985 0.03622908 -0.049869515
0003f0 91 c5 29 3d d7 42 0f 3c de b1 8c bd b8 a2 f6 bd
       0.04144818 0.008743963 -0.06869863 -0.12042755

a2c_network.mu.bias f4 [24]
000000 91 eb b3 3c b1 1e 96 bb 05 a9 c6 3c 68 f8 0e 3d
       0.021962913 -0.0045812954 0.024250517 0.034904867
000010 cf 7f e8 3c bc bb d8 3b d0 66 c8 3c 36 c8 a0 3c
       0.028381256 0.0066141766 0.024463087 0.019626718
000020 bd 6a a9 bc 3c 2a d8 3c 33 cf b7 ba 6a 91 53 bc
       -0.02068078 0.026387326 -0.0014023542 -0.012913087
000030 9a 31 c4 bb ae 1e b5 bc 71 df dc 3b c1 bd d3 3c
       -0.0059873583 -0.022109356 0.0067405035 0.025847318
000040 99 72 56 bc cf 8b 2a bd 88 0f f0 3b f3 40 34 bc
       -0.013088846 -0.041637238 0.00732607 -0.011001813
000050 5e aa 95 3c 47 6b 83 3c 26 97 46 bc 7e c4 45 bc
       0.018269714 0.016042365 -0.0121209975 -0.012070773

exp_avg f4 [24]
000000 8e f0 21 bb 1a ed a1 bc 2e f5 8b 3c 52 3f f5 3b
       -0.0024710032 -0.01976638 0.017084684 0.007484355
000010 bb bc 0c bc 40 90 c4 3c 43 e2 50 bb 09 6a 9d bb
       -0.008589919 0.023994565 -0.0031873144 -0.0048039
000020 8b 7f 63 bc b7 c4 ad bb 51 43 39 3c 68 b5 4e 3b
       -0.013885389 -0.0053029913 0.011307553 0.0031541232
000030 cd bb e1 3c 24 99 17 bc 40 0b 89 bb 18 8b 81 3c
       0.02755537 -0.00925282 -0.0041822493 0.015813395
000040 23 fd 9e bb d3 7b d9 bb b8 87 ac bc d3 70 e2 3b
       -0.0048519536 -0.0066370755 -0.02106081 0.0069104224
000050 ab df 60 3c d5 5c b4 bc a7 81 9a 3c 51 5d aa 3b
       0.013725202 -0.022016922 0.018860651 0.0051991125

exp_avg_sq f4 [24]
000000 ae 4b 2b 3a ba 99 1d 3a a1 ad 32 3a 0c f9 3b 3a
       0.00065344095 0.0006011982 0.0006816034 0.0007170595
000010 25 e1 38 3a 23 e8 44 3a 5a ae 0c 3a 52 52 30 3a
       0.0007052592 0.00075113977 0.00053665566 0.0006726134
000020 e7 c2 11 3a a7 85 2e 3a 24 ca 25 3a 68 89 34 3a
       0.0005560354 0.0006657489 0.0006324372 0.000688693
000030 63 af 10 3a dc 81 1e 3a 6f ff 1d 3a dc a7 2d 3a
       0.0005519299 0.0006046572 0.0006027137 0.0006624439
000040 db 8b 1e 3a ff ad 2c 3a b5 09 32 3a 1d 10 2c 3a
       0.0006048062 0.0006587207 0.00067916076 0.00065636804
000050 bc 22 2b 3a ff 76 40 3a 15 d4 31 3a 41 3b 18 3a
       0.0006528308 0.00073419505 0.0006783617 0.00058071694
