runs/lift_30-15-45-11/nn/last_lift_ep_250_rew_-40.42252.pth (torch, 654677 bytes, 36 tensors)

value_mean_std.running_mean f8 [1]
0	0xc084f4ef33c9df10	-670.616797997589

value_mean_std.running_var f8 [1]
0	0x413922ff146363ec	1647359.079641576

value_mean_std.count f8 []
0	0x410f400800000000	256001.0

running_mean_std.running_mean f8 [39]
0	0x0000000000000000	0.0
1	0x3ff7fff3b64bec6a	1.4999882813415533
2	0x3ff4ccc1b9b97c04	1.2999894385209254
3	0x3fdfffef9dba9083	0.4999960937805172
4	0x3fd9998c04957eaa	0.39999676177647336
5	0x40073327bf270ab0	2.899978154543838
6	0x3fdfffef9dba9083	0.4999960937805172
7	0x3ff3ad941c731bd9	1.2298775779070097
8	0x3ffba29973c5df7a	1.727197124708225
9	0x3fdfffef9dba9083	0.4999960937805172
10	0x3fe7fff3b3cc05a7	0.7499941360148811
11	0x3fe7fff3c6143c36	0.7499941700679134
12	0x0000000000000000	0.0
13	0x3fefffef9dba9083	0.9999921875610344
14	0x0000000000000000	0.0
15	0x0000000000000000	0.0
16	0x0000000000000000	0.0
17	0x0000000000000000	0.0
18	0x0000000000000000	0.0
19	0x0000000000000000	0.0
20	0x3e742c3735f1ff00	7.514922860558598e-08
21	0xbe7b7c7d338f95e0	-1.0239439242296215e-07
22	0x40239eae1463498d	9.80992187225345
23	0x0000000000000000	0.0
24	0x0000000000000000	0.0
25	0x0000000000000000	0.0
26	0x0000000000000000	0.0
27	0x0000000000000000	0.0
28	0x0000000000000000	0.0
29	0x0000000000000000	0.0
30	0x0000000000000000	0.0
31	0x0000000000000000	0.0
32	0x0000000000000000	0.0
33	0x0000000000000000	0.0
34	0x0000000000000000	0.0
35	0x0000000000000000	0.0
36	0x0000000000000000	0.0
37	0x0000000000000000	0.0
38	0x3fbfffef9dba9083	0.1249990234451293

running_mean_std.running_var f8 [39]
0	0x3ee062456f7a251e	7.812438965320577e-06
1	0x3efa9fa76544dbc3	2.5390289310336033e-05
2	0x3ef60943d111b2b5	2.101534943614826e-05
3	0x3ee47ad4b27be00d	9.765533448100072e-06
4	0x3ee30159587f87db	9.062418726505448e-06
5	0x3f13457ac41f2e52	7.351457409681656e-05
6	0x3ee47ad4b27be00d	9.765533448100072e-06
7	0x3ff6f74329a3b950	1.4353667856735974
8	0x3ff731979a9f35aa	1.4496074714582883
9	0x3ee47ad4b27be00d	9.765533448100072e-06
10	0x3fe0099aed6f3de8	0.5011725079911544
11	0x3fdf2dca8fb7b029	0.4871698764316102
12	0x3ee062456f7a251e	7.812438965320577e-06
13	0x3ef062413dc0887d	1.562481689643861e-05
14	0x3ee062456f7a251e	7.812438965320577e-06
15	0x3ee062456f7a251e	7.812438965320577e-06
16	0x3ee062456f7a251e	7.812438965320577e-06
17	0x3ee062456f7a251e	7.812438965320577e-06
18	0x3ee062456f7a251e	7.812438965320577e-06
19	0x3ee062456f7a251e	7.812438965320577e-06
20	0x3ff6afe9159d720b	1.4179468960129522
21	0x3ff569e88fce5a2a	1.3383565537857387
22	0x3f48e45d345a044b	0.0007596449947443543
23	0x3ee062456f7a251e	7.812438965320577e-06
24	0x3ee062456f7a251e	7.812438965320577e-06
25	0x3ee062456f7a251e	7.812438965320577e-06
26	0x3ee062456f7a251e	7.812438965320577e-06
27	0x3ee062456f7a251e	7.812438965320577e-06
28	0x3ee062456f7a251e	7.812438965320577e-06
29	0x3ee062456f7a251e	7.812438965320577e-06
30	0x3ee062456f7a251e	7.812438965320577e-06
31	0x3ee062456f7a251e	7.812438965320577e-06
32	0x3ee062456f7a251e	7.812438965320577e-06
33	0x3ee062456f7a251e	7.812438965320577e-06
34	0x3ee062456f7a251e	7.812438965320577e-06
35	0x3ee062456f7a251e	7.812438965320577e-06
36	0x3ee062456f7a251e	7.812438965320577e-06
37	0x3ee062456f7a251e	7.812438965320577e-06
38	0x3ee0a3ce63aa40d9	7.934507370494316e-06

running_mean_std.count f8 []
0	0x40ff401000000000	128001.0

a2c_network.sigma f4 [24]
0	0x3b5eba4c	0.0033985553
1	0xbcb154f0	-0.021646947
2	0x3d146cf3	0.036236715
3	0x3c303e08	0.010756977
4	0xbc920975	-0.017826775
5	0xbccb9965	-0.024853418
6	0xba22e3bb	-0.0006213744
7	0xbdafd0fe	-0.08584784
8	0xbd9ce71f	-0.0766127
9	0xbc80c58a	-0.015719194
10	0xba58d121	-0.0008270909
11	0x3d133ea0	0.035948396
12	0xbd33e700	-0.04392147
13	0xbd015f11	-0.031584803
14	0x3d4858de	0.048912875
15	0xbd0b6a68	-0.034037024
16	0xbc16beaf	-0.009200736
17	0xbd5db201	-0.054124836
18	0xbd0ed483	-0.034870636
19	0xbc713a5a	-0.014723385
20	0xbd1ba992	-0.03800351
21	0x3c0ec725	0.008714472
22	0xbdc33c75	-0.09533016
23	0x3d2e273f	0.042517897

a2c_network.actor_mlp.0.weight f4 [256, 39]
0	0xbd4ed938	-0.050500125
1	0x3d68efa7	0.056869175
2	0xbcf278e0	-0.029598653
3	0x3da6ff9a	0.08154221
4	0x3e20e03f	0.15710543
5	0x3dd9afb0	0.10629213
6	0xbd64c5b0	-0.055852592
7	0x3da481ac	0.080325454
8	0xbc489371	-0.012242184
9	0x3dc385a5	0.09546975
10	0xbe024e10	-0.12725091
11	0xbe2f4186	-0.17114839
12	0xbd7d6875	-0.061867196
13	0xbddee97d	-0.10884378
14	0x3e068b76	0.13139138
15	0x3d3cea58	0.046121925
16	0x3d87d694	0.066327244
17	0x3d4f6e51	0.050642315
18	0xbb368e5c	-0.002785585
19	0x3e005343	0.12531762
20	0xbdf613ab	-0.1201547
21	0x3c2c42b8	0.010513954
22	0xbdc412a3	-0.09573867
23	0x3d4a3e50	0.049375832
24	0xbd61e009	-0.055145297
25	0x3d48f94b	0.04906587
26	0xbd08a5e5	-0.033361334
27	0x3e07ff14	0.13280898
28	0xbdc25f43	-0.09490826
29	0xbdc3958f	-0.095500104
30	0xbdc39895	-0.09550587
31	0x3e137b94	0.1440261
32	0x3d5a930a	0.053362884
33	0x3e1dc80b	0.15408342
34	0xbe075251	-0.13214995
35	0xbe22a39f	-0.15882729
36	0xbe0048ff	-0.12527846
37	0xbddc9a72	-0.107716456
38	0x3da2003f	0.07910203
39	0x3d6adb46	0.05733802
40	0x3ddd7ea7	0.10815173
41	0xbddc6db6	-0.10763113
42	0xbe088b29	-0.13334335
43	0x3d78b6b7	0.060721125
44	0xbdb80fe9	-0.089874096
45	0x3d9582ac	0.07300314
46	0xbd6fc6d2	-0.05853922
47	0x3d619cd4	0.055081204
48	0xbe1829a9	-0.14859642
49	0xbdac4d6d	-0.08413205
50	0x3ccb8d0d	0.024847532
51	0x3d0aa8b5	0.033852298
52	0xbd85f8a2	-0.065415636
53	0x3dc379fa	0.095447496
54	0x3ddef034	0.10885659
55	0xbdedd0ac	-0.116120666
56	0xbdaf13fa	-0.08548732
57	0x3e162468	0.14662325
58	0xbd5d511f	-0.05403244
59	0xbd80dba6	-0.062918946
60	0xbe194fa6	-0.1497179
61	0xbdf02306	-0.1172543
62	0x3d23d7ab	0.0400006
63	0xbcad2508	-0.021135822
64	0xbdee0c80	-0.11623478
65	0x3b762883	0.0037560768
66	0xbde002ec	-0.10938057
67	0xbe0b1cd6	-0.13585219
68	0xbdb495ed	-0.088176586
69	0xbe0f8275	-0.14014609
70	0xbdd0d03d	-0.10195968
71	0x3e23e837	0.16006552
72	0x3cf7c2ae	0.030244198
73	0x3d4a1e07	0.049345043
74	0xbe18eef2	-0.149349
75	0xbdd7624e	-0.10516797
76	0xbd5a50ab	-0.053299587
77	0x3a8e0036	0.0010833803
78	0xbe104822	-0.14090016
79	0xbdb89b82	-0.09014036
80	0xbdefa434	-0.11701241
81	0xbca80f9d	-0.020515257
82	0xbda4ff65	-0.08056525
83	0xbd045dea	-0.032316126
84	0xbe0492ce	-0.12946627
85	0xbded7b95	-0.11595837
86	0xbd9013d2	-0.070350304
87	0xbd9b2dae	-0.07577072
88	0xbdd742aa	-0.10510762
89	0x3e14dd23	0.14537482
90	0xbd022b68	-0.031779677
91	0x3def0955	0.11671702
92	0x3d4c5cab	0.049893063
93	0xbe0ad9b0	-0.13559604
94	0x3de2f29d	0.11081431
95	0xbd34769d	-0.04405843
96	0xbd7b6af3	-0.06138129
97	0xbe081b90	-0.13291764
98	0xbe1b451b	-0.1516308
99	0x3d5e6cdc	0.054303035
100	0xbd66c41d	-0.056339372
101	0x3d7f59e5	0.06234159
102	0xbe0690b0	-0.13141131
103	0x3df3795a	0.1188838
104	0xbdf0ba35	-0.11754266
105	0xbce281f7	-0.027649863
106	0x3d08fe96	0.033445917
107	0x3da94d06	0.08266644
108	0x3e04602b	0.1292731
109	0x3e155f00	0.14587021
110	0xbe020434	-0.12696916
111	0x3d251094	0.040299013
112	0xbd8d0e7a	-0.06887527
113	0xbc8fc003	-0.017547613
114	0xbdf57630	-0.11985433
115	0x3e155ac7	0.1458541
116	0xbe0dc248	-0.13843644
117	0x3daf44ed	0.085580684
118	0x3da169df	0.078815214
119	0x3d98c7d3	0.074599884
120	0xbd84a35d	-0.064764716
121	0x3e2b6e95	0.16741402
122	0x3d6d8c1e	0.057994954
123	0x3d2db295	0.042406637
124	0xbdf661e6	-0.120303914
125	0x3dc14d2f	0.0943855
126	0xbb112356	-0.0022146306
127	0xbd93dd4b	-0.07219943
128	0x3e19a1d8	0.15003145
129	0x3d123a8f	0.035700377
130	0xbd87f133	-0.06637802
131	0xbda5fc04	-0.08104709
132	0xbbfa93fa	-0.0076470347
133	0x3db71c41	0.08940936
134	0xbd2799cc	-0.040918157
135	0xbdbb1da0	-0.0913651
136	0xbd609a65	-0.054834742
137	0xbdec0323	-0.11524036
138	0x3d5accd1	0.053417984
139	0x3e16b914	0.14719039
140	0xbe1a5e7f	-0.1507511
141	0x3d185468	0.03718987
142	0x3da96991	0.08272088
143	0x3ceddcc5	0.029035935
144	0xbd6993a7	-0.057025578
145	0x3dab2abf	0.083577625
146	0x3dac568c	0.08414945
147	0x3d7540d3	0.059876274
148	0xbce6818b	-0.028137943
149	0xbd2daddd	-0.042402137
150	0x3c8c5597	0.017130656
151	0xbce7bac1	-0.028287293
152	0xbd437453	-0.047718357
153	0x3dd19f81	0.10235501
154	0x3e0ceab3	0.13761406
155	0x3bbbe5eb	0.0057341955
156	0xbd12d9bf	-0.03585219
157	0xbbfc6bb9	-0.007703271
158	0xbca07c21	-0.01959044
159	0x3ce7d2c2	0.02829874
160	0x3d0e03c6	0.034671567
161	0xbe1f2441	-0.15541174
162	0xbd8de883	-0.06929114
163	0x3e14d1bb	0.14533131
164	0x3db6436a	0.08899577
165	0xbc94c8fd	-0.018162245
166	0xbda21fa3	-0.079161905
167	0xbda5f5c9	-0.081035204
168	0xbe12e147	-0.14343749
169	0xbd7f3197	-0.062303152
170	0x3d5d7ebd	0.054075945
171	0x3dd11a6b	0.10210117
172	0x3d976900	0.07393074
173	0xbe10f0ff	-0.14154433
174	0xbdc53658	-0.09629506
175	0xbccf04e4	-0.025270887
176	0x3e1dc762	0.1540809
177	0x3cb056a7	0.021525694
178	0xbd524d7e	-0.051343434
179	0x3d87acbf	0.066247456
180	0xbd79d080	-0.060989857
181	0xbdd4433a	-0.10364385
182	0x3def5c6b	0.11687549
183	0xbd951db3	-0.07281055
184	0xbd037bad	-0.03210037
185	0xbe231e89	-0.15929617
186	0x3ddb7b75	0.10716907
187	0x3df875e7	0.12131863
188	0x3d6f093b	0.058358412
189	0xbde4aa72	-0.11165322
190	0xbe21d46a	-0.15803686
191	0xbe052c8a	-0.13005272
192	0x3df48bf8	0.119407594
193	0x3d9d7272	0.07687844
194	0x3dfeff07	0.12450986
195	0x3dabcc96	0.08388631
196	0x3cd783f1	0.026308032
197	0xbc819dab	-0.015822252
198	0xbe0a973e	-0.13534257
199	0xbe1a6bcd	-0.15080185
200	0xbe2829f3	-0.16422252
201	0x3d54efd5	0.051986534
202	0xbdd08c17	-0.1018297
203	0xbd8d0e0e	-0.06887446
204	0xbdd882e0	-0.105718374
205	0xbd38268a	-0.04495863
206	0xbe03ffce	-0.1289055
207	0xbdd64861	-0.10463024
208	0x3d207976	0.039178334
209	0xbd42ed37	-0.047589507
210	0x3dca73fa	0.09885402
211	0xbd5269e3	-0.051370513
212	0xbdf0915d	-0.11746476
213	0xbce7727f	-0.028252838
214	0xbd9ef821	-0.077621706
215	0xbd6e0295	-0.05810793
216	0xbe119d63	-0.14220195
217	0x3d992638	0.07477993
218	0xbde450a5	-0.11148194
219	0x3da4d466	0.08048324
220	0x3d94d0ab	0.07266363
221	0x3dea4af6	0.11440079
222	0xbdfb8c86	-0.12282662
223	0x3debdaeb	0.11516365
224	0xbd9b090b	-0.07570084
225	0x3d7360f1	0.059418622
226	0x3e19fcdf	0.15037869
227	0xbcb90057	-0.02258317
228	0xbaa24ff9	-0.0012383453
229	0xbd170137	-0.036866393
230	0xbe08e9d7	-0.13370453
231	0x3d9d616a	0.07684596
232	0xbe22c6f4	-0.15896207
233	0x3db03d90	0.08605492
234	0x3df55ff1	0.1198119
235	0x3e1d33b3	0.15351753
236	0xbd12440d	-0.03570943
237	0xbe04317e	-0.12909505
238	0x3d1d720b	0.038438838
239	0x3db9222e	0.090397224
240	0xbe20ab75	-0.15690406
241	0xbd5331d0	-0.051561177
242	0xbdabfb5f	-0.083975546
243	0xbc3cf15b	-0.011532153
244	0xbda95f1e	-0.08270095
245	0xbd0c7ff2	-0.034301706
246	0xbd50376b	-0.0508341
247	0xbe19814b	-0.14990728
248	0x3e068a25	0.13138635
249	0x3e097652	0.13424042
250	0xbccdc6ad	-0.02511915
251	0xbc956316	-0.018235724
252	0xbd85d700	-0.065351486
253	0xbe141389	-0.14460577
254	0xbe133223	-0.14374594
255	0x3d89c706	0.06727414

a2c_network.actor_mlp.0.bias f4 [256]
0	0x3a4be8fd	0.00077785534
1	0xbd0e6038	-0.03475973
2	0xbca6d2fd	-0.020364279
3	0x3d04a94d	0.03238802
4	0xba6d6876	-0.00090563984
5	0xbccb5f3c	-0.024825685
6	0xbb2db67b	-0.0026506472
7	0x3c7f6d98	0.015590094
8	0xbc3fb343	-0.011700454
9	0x3cdb285b	0.026752641
10	0xba7400eb	-0.0009307998
11	0x3baee7d0	0.005337693
12	0xbb9d09a4	-0.004792409
13	0x3c3e99a6	0.011633312
14	0xbd084011	-0.033264223
15	0xbd05238a	-0.032504596
16	0x3b886f2d	0.004163644
17	0x3c71f00c	0.014766704
18	0xbbb2531d	-0.005442037
19	0xbc04ef4e	-0.008113695
20	0xbb453ada	-0.0030094893
21	0xbbacece9	-0.0052772653
22	0xbca8d6c6	-0.020610224
23	0xbc74e949	-0.014948198
24	0xbca6a3a7	-0.020341707
25	0xbbeea975	-0.0072833844
26	0x3ba4a029	0.0050239754
27	0x3b8f64f5	0.0043760487
28	0x3d007932	0.03136558
29	0x3c64f145	0.013973539
30	0x3c73f627	0.01489023
31	0x3b6fae85	0.0036572528
32	0x3d0d08b4	0.034432128
33	0xbc8b84f3	-0.017031169
34	0x3a063e3f	0.000512097
35	0xbcfcba51	-0.030850561
36	0xbd0070c7	-0.031357553
37	0xbd125e4c	-0.03573446
38	0x3ca95ef0	0.020675153
39	0x3c0b6cb7	0.008509806
40	0xbcaa91d1	-0.020821484
41	0xbc117c90	-0.008879796
42	0xbd0e9318	-0.03480825
43	0xbc969527	-0.018381668
44	0xbcc432c9	-0.023949997
45	0xbb809501	-0.0039240126
46	0xbcc1f02b	-0.023674091
47	0x3c3bb23b	0.011456068
48	0xbd1289ea	-0.035776056
49	0xbca13af1	-0.019681426
50	0xbc03a634	-0.008035231
51	0x3cefeb5c	0.029287033
52	0x3bf833a8	0.0075745173
53	0x3cb6a59b	0.022295764
54	0xbd01077c	-0.03150128
55	0xbc04216e	-0.008064611
56	0xbada1e46	-0.0016641102
57	0x3c0f5819	0.008749031
58	0xba94fb65	-0.0011366425
59	0xbcce5d0b	-0.02519085
60	0xbd07812e	-0.03308218
61	0xbc32b78d	-0.01090802
62	0x3c9a4e59	0.018836187
63	0x3c83a436	0.016069513
64	0xbcceae3e	-0.02522957
65	0x3cce531f	0.02518612
66	0xbcf5edd3	-0.03002063
67	0xbcf6217c	-0.030045263
68	0xbc379997	-0.011206052
69	0x3c524810	0.012834564
70	0xbc0bfb9e	-0.008543877
71	0xbca89dda	-0.020583082
72	0x3ce64c4f	0.028112559
73	0x3bd4f27e	0.006498634
74	0x3ca348e1	0.019932212
75	0xbc681104	-0.014164213
76	0x3d24da5e	0.040247314
77	0x3d111e14	0.035429075
78	0xbd1a5dc3	-0.037687074
79	0xbcfccfb5	-0.030860761
80	0xbcf5df3e	-0.030013677
81	0x3c523b2c	0.0128314905
82	0x3c8b416b	0.016998967
83	0x3cff3a51	0.031155737
84	0x3b83c946	0.0040217964
85	0xbb92128c	-0.0044577774
86	0xbc406588	-0.011742957
87	0xbcccd2b2	-0.025002811
88	0xbc7f8ddb	-0.015597786
89	0xbca90646	-0.020632874
90	0xbd000b19	-0.031260584
91	0xbd06c610	-0.03290373
92	0x3cef9d9d	0.02924996
93	0x3cbc9352	0.023019467
94	0x3d0f590a	0.034997024
95	0x3be11b64	0.0068697203
96	0xbc3328c0	-0.0109350085
97	0x3cd0daa2	0.025494877
98	0xbbc56673	-0.006024176
99	0x3bbd2d33	0.0057732104
100	0x3cda1b29	0.02662428
101	0x3a2eb1df	0.0006664078
102	0x3c70435b	0.014664496
103	0x3b9c0946	0.0047618477
104	0x39dbd38c	0.0004192855
105	0xbcae70c9	-0.021294015
106	0x3bf9ba95	0.0076211193
107	0xbc81b9e5	-0.015835712
108	0xbc676013	-0.014122027
109	0x3c9e6890	0.019336969
110	0xbcd6fbab	-0.026243052
111	0xbca709ea	-0.02039047
112	0xbb967723	-0.004591839
113	0x3ceb2c2e	0.02870759
114	0xbd12fcdd	-0.03588568
115	0x3cc88040	0.024475217
116	0x3d15ef4f	0.036605176
117	0xbc29fd7d	-0.010375378
118	0xbc3ec31c	-0.011643197
119	0xbcf8d87f	-0.03037667
120	0x3cb10e33	0.021613216
121	0xbbd10f92	-0.00638003
122	0xbcd4009f	-0.025879202
123	0xbc2f92cf	-0.010716154
124	0x3b9bc98d	0.0047542513
125	0xbcf512a8	-0.029916123
126	0x3ac1bc1b	0.0014780791
127	0x3d0a6e45	0.033796567
128	0x3caa79d7	0.02081005
129	0x3c6d9a37	0.0145021
130	0x3b98dbc9	0.0046648723
131	0x3bf338ab	0.007422527
132	0xbc2ddbbe	-0.010611473
133	0x3c09e09d	0.008415368
134	0x3b268544	0.0025409022
135	0x3d023133	0.0317852
136	0xbb074b09	-0.002064409
137	0xbca485f1	-0.0200834
138	0xbceeddff	-0.02915859
139	0x3c815bf6	0.01579092
140	0x3bef9f8a	0.0073127197
141	0x3d09c07e	0.03363084
142	0x3cd488c9	0.02594413
143	0x3ceb317c	0.02871012
144	0x3c8978c6	0.016781222
145	0x3cd0b97e	0.025479075
146	0xbc9c947a	-0.019113768
147	0xbba54559	-0.0050436673
148	0x3ce52a09	0.027974145
149	0x3c10a54a	0.0088284705
150	0x3cb90eeb	0.022590121
151	0xba2924c0	-0.00064523146
152	0x3be53661	0.006995008
153	0xbd101af0	-0.03518194
154	0x3c5ba14b	0.013405154
155	0xbb964258	-0.0045855455
156	0xbd019183	-0.03163291
157	0xbce0df4f	-0.027450232
158	0xbcc221e4	-0.023697801
159	0xbcc73ea7	-0.024321867
160	0xbd175ec0	-0.036955595
161	0x3a767730	0.00094019156
162	0xbd0db273	-0.03459401
163	0xbc8d6ca6	-0.017263722
164	0xbc112eba	-0.008861238
165	0x3d19c3de	0.03754031
166	0xbc6fe686	-0.014642363
167	0xbca21574	-0.01978562
168	0x3ae4ac1b	0.0017446311
169	0x3c6e695b	0.014551486
170	0x3b97a6d3	0.0046280413
171	0xbc93b40d	-0.01803019
172	0xbb9f4735	-0.0048607835
173	0x3ca6c578	0.020357832
174	0x3c1a4508	0.009415872
175	0xbd00ade4	-0.031415835
176	0x3d088622	0.033331044
177	0xbcad9ab5	-0.021191934
178	0x3b11e7c5	0.002226339
179	0xbd089f47	-0.033355024
180	0xbc933149	-0.017967837
181	0x3d1b051f	0.03784668
182	0xbbb6a01f	-0.005573287
183	0x3c24a12b	0.010048191
184	0x3c7c2012	0.0153885055
185	0x3d176df0	0.03697008
186	0x3be3bee3	0.0069502457
187	0xbcdc6dad	-0.026907766
188	0xbc8e97dd	-0.017406398
189	0x3bca7619	0.006178629
190	0x3d0c7e77	0.034300294
191	0xbcb32e92	-0.021872792
192	0x3d0f5fa6	0.035003327
193	0xbc6679f0	-0.014067158
194	0x3c81867d	0.0158112
195	0x3b8dd838	0.004328754
196	0x3cf61bd5	0.030042568
197	0xbcb3676d	-0.021899903
198	0xbc819963	-0.01582021
199	0xbceb2c83	-0.028707748
200	0x3b70b382	0.0036728089
201	0xbbefdc58	-0.007319968
202	0x3ce57ba3	0.028013056
203	0x3bdaf32f	0.006681822
204	0xbc369072	-0.011142837
205	0xbcad485a	-0.021152664
206	0xbb5e9d08	-0.003396811
207	0x3caa49e5	0.020787189
208	0x3caa37a0	0.020778477
209	0xbbe0a58d	-0.0068556727
210	0x3b866ba1	0.004102186
211	0xbccda0f4	-0.025101162
212	0xbb7bc8b3	-0.0038419187
213	0x3c4a62fe	0.012352703
214	0x3ce436f5	0.027858237
215	0x3c1d0fcc	0.009586286
216	0xbc529726	-0.012853419
217	0xbcda14f9	-0.026621329
218	0x3d17609d	0.036957372
219	0x3cab994a	0.020947117
220	0x3c054f4c	0.008136582
221	0x3bf3becd	0.0074385167
222	0x3a526c71	0.0008027023
223	0x3baee6d7	0.005337577
224	0xbb211516	-0.0024579219
225	0xbc46365d	-0.012097922
226	0xbc71f076	-0.014766803
227	0x39b56bc5	0.00034603305
228	0xbc157284	-0.009121541
229	0xbbeda6f3	-0.007252568
230	0x3b4b9a10	0.003106717
231	0xbb3b14c6	-0.0028546317
232	0xbcca2a05	-0.02467824
233	0xbc827d3a	-0.015928853
234	0x3bab9272	0.0052359635
235	0x3cf91591	0.030405791
236	0xbba815bd	-0.0051295445
237	0x3c3f6b9d	0.011683372
238	0x3baed9db	0.005336029
239	0xbd0e390a	-0.034722365
240	0x3b94d9f9	0.004542586
241	0x3acb8255	0.0015526513
242	0xbb40c8c8	-0.002941655
243	0x3cfb0645	0.030642638
244	0x3c2fca39	0.010729366
245	0x3d0be07e	0.03414964
246	0x3cffcf59	0.0312268
247	0x3ca7b009	0.020469682
248	0xbc790f37	-0.015201381
249	0x3d078084	0.033081546
250	0xbc9742e9	-0.018464522
251	0x3ce902f1	0.028443785
252	0x3bdf2f01	0.006811023
253	0x3cc33217	0.023827596
254	0x3ca81feb	0.020523032
255	0xbc8ce9c1	-0.017201306

a2c_network.actor_mlp.2.weight f4 [128, 256]
0	0x3bdfba5a	0.0068276348
1	0xbc16bfd1	-0.009201006
2	0x3c9d6e77	0.019217713
3	0xbd495ce6	-0.04916086
4	0xbd05f341	-0.032702688
5	0x3d35e274	0.044405416
6	0xbd8cebb3	-0.068808936
7	0xbd76b485	-0.06023075
8	0xbd72a29e	-0.059237115
9	0xbd80cfdf	-0.06289648
10	0xbd6da99c	-0.05802308
11	0xbce3fb86	-0.027829897
12	0x3ca812ca	0.020516772
13	0xbda50b88	-0.0805884
14	0xbda09829	-0.07841522
15	0xbd3595c0	-0.044332266
16	0xbd7e589e	-0.06209623
17	0x3cf48e6d	0.02985307
18	0xbcde500a	-0.027137775
19	0x3d02ee60	0.031965613
20	0x3d8f16ba	0.069867566
21	0xbd13134f	-0.035907086
22	0xbc071f47	-0.008247203
23	0xbc9532f9	-0.018212782
24	0x3d2e7ea7	0.042601254
25	0x3ce18b03	0.027532106
26	0xbc33f6e5	-0.010984157
27	0x3a4f2ef5	0.00079034205
28	0xbd9d774f	-0.07688772
29	0xbd259c64	-0.04043235
30	0xbd7be4d8	-0.06149754
31	0xbda1c000	-0.07897949
32	0xbd661045	-0.05616786
33	0xbd1c4a21	-0.038156632
34	0xbc4db738	-0.01255589
35	0x3d2d3d20	0.04229462
36	0x3cb0f66f	0.021601884
37	0xbc2c59fa	-0.010519499
38	0xbb6b7a1e	-0.0035930942
39	0x3d8e5fd1	0.06951869
40	0xbc9220a9	-0.01783784
41	0x3d416b6f	0.047221597
42	0x3d137768	0.036002547
43	0xbd217c44	-0.03942515
44	0x3d5d7998	0.05407104
45	0x3ca2e81c	0.019886069
46	0xbd757ded	-0.059934545
47	0x3da3054c	0.07959995
48	0x3c0a54bb	0.008443053
49	0x3db5abba	0.08870645
50	0xbc05eb10	-0.008173719
51	0xbcfd7fe3	-0.03094477
52	0x3d8e0b5f	0.069357626
53	0x3a503330	0.0007942198
54	0x3d863f33	0.06555023
55	0xbcd86ac9	-0.026418107
56	0x3cc077fa	0.02349471
57	0xbc5e7b28	-0.013579167
58	0x3cc0cf6f	0.023536412
59	0x3cdf03fd	0.027223581
60	0xbc960bb7	-0.018316133
61	0x3d8de597	0.069285564
62	0x3cc5d289	0.024148243
63	0xba9079cc	-0.0011022626
64	0x3ca8ba86	0.020596754
65	0x3bc3c012	0.0059738243
66	0xbb860337	-0.0040897387
67	0x3d0f6833	0.03501148
68	0xbd83bdcf	-0.064326875
69	0xbd040c87	-0.03223851
70	0x3ca75588	0.020426527
71	0xbc817d69	-0.01580687
72	0xbd0d0010	-0.034423888
73	0x3d45d350	0.048297226
74	0x3ca4c019	0.02011113
75	0xbd034bd1	-0.032054726
76	0x3c6693db	0.014073337
77	0x3d2a02a9	0.041506443
78	0xbd0a795e	-0.03380715
79	0x3d5518f5	0.052025754
80	0xbb3bb2c0	-0.002864048
81	0xbd14a61a	-0.03629122
82	0xbd0ccb01	-0.034373287
83	0xbc9ff3b6	-0.01952539
84	0x3d1b9985	0.037988205
85	0xbc41c622	-0.011827024
86	0xbd988dda	-0.07448931
87	0xbc97fea2	-0.018554036
88	0x3d764ad9	0.060129974
89	0xbd0ae0b7	-0.03390571
90	0x3d98eb11	0.0746671
91	0x3d1a992b	0.03774373
92	0x3d86c56b	0.06580623
93	0xbc50a135	-0.012733747
94	0xbd2fa07b	-0.042877655
95	0xbd8425b0	-0.06452501
96	0xbb422e90	-0.0029629804
97	0xbca6ae5d	-0.020346815
98	0xbbb46f83	-0.0055064573
99	0x3d54a82a	0.051918186
100	0x3d6d0fea	0.057876505
101	0xbdcbe02e	-0.09954868
102	0xbd297c4e	-0.04137831
103	0xbbae6dbd	-0.0053231404
104	0xbc9b1caf	-0.018934576
105	0x3d71d050	0.059036553
106	0xbd4183a8	-0.047244698
107	0x3d49ecbc	0.049298033
108	0xbd161e0f	-0.03664976
109	0x3c1a1590	0.009404555
110	0xbc6cdc96	-0.014456889
111	0xbc53e0f5	-0.012932052
112	0xbd449916	-0.047997557
113	0xbda33d63	-0.07970693
114	0xbc7be937	-0.015375427
115	0xbc33c217	-0.010971568
116	0xbd730d2c	-0.059338734
117	0xbc5e0489	-0.013550886
118	0xbd80b9ae	-0.062854156
119	0xbd0c60c9	-0.03427199
120	0xbdad8f61	-0.08474613
121	0x3da48a03	0.08034136
122	0x3b4c5396	0.003117775
123	0x3d0dfe2d	0.03466623
124	0xbd9fc635	-0.07801477
125	0x3bb3721d	0.00547625
126	0xbd97a528	-0.07404548
127	0x3ceeaaba	0.029134143
128	0x3d423730	0.047415912
129	0xbd986a7a	-0.07442184
130	0x3d883556	0.06650798
131	0x3a4c6f06	0.0007798526
132	0xbd7c8d89	-0.061658416
133	0x3c404f2a	0.011737624
134	0x3d1d4ddc	0.03840433
135	0xbd85f28d	-0.065404035
136	0x3d2b3926	0.041802548
137	0x3cf5e912	0.030018363
138	0x3d2096c6	0.03920629
139	0xbce33638	-0.027735814
140	0x3cc0001f	0.023437558
141	0x3c0ac4e5	0.008469795
142	0x3da96a7c	0.082722634
143	0xbd7094ea	-0.058735766
144	0x3bea441e	0.0071492335
145	0x3c8f1515	0.017466107
146	0xbd3284aa	-0.04358355
147	0xbcb1c711	-0.021701368
148	0x3d292652	0.04129631
149	0x3cee5b24	0.029096194
150	0x3af42a5c	0.0018628347
151	0xbc27e614	-0.010247726
152	0xbd6f19b6	-0.05837413
153	0x3d4c52cd	0.049883652
154	0xbcc3e633	-0.023913478
155	0xbdbbc956	-0.09169261
156	0x3c88b1a5	0.01668627
157	0xbd1013ab	-0.035175007
158	0x3cd88f93	0.026435649
159	0x3d826218	0.06366366
160	0x3d64575b	0.05574737
161	0x3d0fdbb9	0.035121653
162	0xbcbbc56e	-0.02292129
163	0x3bb8b89d	0.005637242
164	0x3d014d3a	0.03156779
165	0xbd2dc38b	-0.042422812
166	0x3d1e2b6f	0.03861564
167	0x3d5ab7c4	0.05339791
168	0xbd966215	-0.073429264
169	0xbc9912b1	-0.01868567
170	0xbd3ed612	-0.046590872
171	0x3c721ccc	0.0147773735
172	0x3cf4b959	0.029873537
173	0xbd431876	-0.04763075
174	0x3c62aa56	0.013834557
175	0xbc55d56e	-0.013051374
176	0x3d311ef6	0.043242417
177	0x3d4dc747	0.050238874
178	0x3c30ecc8	0.010798641
179	0xbd5d14e3	-0.053974997
180	0x3cdf3b46	0.027249943
181	0xbd13f825	-0.03612532
182	0x3ce5ae2a	0.02803715
183	0xbcfd8692	-0.030947957
184	0x3d82952d	0.06376109
185	0xbc76cbc3	-0.015063229
186	0x3a97248e	0.001153128
187	0xbd248390	-0.04016453
188	0x3ce43e32	0.027861688
189	0xbc64c7f5	-0.013963689
190	0x3c726cd2	0.014796453
191	0x3cc294e3	0.023752635
192	0xbd380579	-0.044927094
193	0xbd62376b	-0.055228632
194	0x3d171ab1	0.03689069
195	0xbced3c36	-0.028959375
196	0xbd8c45cd	-0.06849251
197	0x3d919c0f	0.07109844
198	0xbcdc7ba6	-0.026914429
199	0xbccabac7	-0.024747266
200	0xbd9a6551	-0.07538856
201	0x3d073bee	0.033016138
202	0xbc90c801	-0.017673494
203	0x3c7ab909	0.015302905
204	0xbb68aed5	-0.0035504599
205	0xbbfb7bdc	-0.0076746773
206	0xbc491351	-0.012272672
207	0x3d7fcfa9	0.0624539
208	0x3c9ee850	0.019397885
209	0x3c8ff9f7	0.017575247
210	0xbd8a4b87	-0.06752687
211	0xbd3fd94b	-0.046838086
212	0x3c4a3c0e	0.01234342
213	0x3c018066	0.007904148
214	0x3b227968	0.0024791602
215	0xbc88d2d7	-0.016702099
216	0x3d02fb68	0.03197804
217	0x3d21966e	0.0394501
218	0xbcd836dd	-0.026393348
219	0x3c239b3d	0.009985742
220	0xbd16a46d	-0.036777902
221	0x3d951772	0.072798625
222	0xbc13728c	-0.008999478
223	0xbc0d27eb	-0.008615474
224	0x3d8d75b9	0.069072194
225	0xbd1b1cb8	-0.037869185
226	0x3cf7801a	0.03021245
227	0xbd31c8ee	-0.043404512
228	0xbd79e725	-0.061011452
229	0x3d27ae27	0.04093757
230	0xbb7cba43	-0.003856317
231	0xbdd646d9	-0.10462732
232	0xbd4cae13	-0.049970698
233	0xbcaa3f0c	-0.020782016
234	0x3d264d4d	0.040601064
235	0x3cb8024b	0.02246203
236	0xbba46ca4	-0.005017834
237	0x3d26b086	0.04069569
238	0xbd9f43b1	-0.07776583
239	0x3d3598b1	0.04433507
240	0x3bc05b26	0.0058702407
241	0x3a39ed72	0.0007092572
242	0x3cbe1899	0.023205088
243	0x3c2aade2	0.010417433
244	0x3a6a5bd8	0.00089400774
245	0x3d01585f	0.031578418
246	0x3d8243bf	0.06360578
247	0x3d982c20	0.07430291
248	0xbbd3eec6	-0.006467673
249	0x3c2dbb8d	0.010603798
250	0x3cde7f5e	0.027160343
251	0xbccb1e4e	-0.024794724
252	0x3d43984a	0.047752656
253	0x3cb15018	0.021644637
254	0x3d68499f	0.056710836
255	0x3ad95a28	0.0016582655

a2c_network.actor_mlp.2.bias f4 [128]
0	0xbcb8b7ad	-0.022548521
1	0x3d21c201	0.039491657
2	0xbca2a2d4	-0.019853033
3	0x3d3bd950	0.045861542
4	0xbd2a4460	-0.041569114
5	0xbc8e805b	-0.017395189
6	0xbc64436b	-0.013932089
7	0x3cebfd59	0.028807329
8	0xbd1edd47	-0.038785245
9	0x3c23aedf	0.009990423
10	0x3b878f23	0.0041369363
11	0x3d2a6655	0.041601498
12	0x3d28ac18	0.041179746
13	0xbd14074f	-0.036139783
14	0x3d335653	0.043783497
15	0x3d1aadbd	0.037763346
16	0xbd2af57c	-0.04173802
17	0xbb9768f3	-0.004620665
18	0x3cc9a4fa	0.0246148
19	0xbd156000	-0.036468506
20	0x3abbc6d6	0.0014326226
21	0x3c84fdbe	0.016234275
22	0x3c68fa2a	0.0142198
23	0x3ca31b9a	0.019910622
24	0x3cd372a7	0.025811506
25	0x3d2b0849	0.04175595
26	0xbc97838e	-0.018495347
27	0xbd346935	-0.044045646
28	0x3d4145a9	0.047185574
29	0xbc326168	-0.010887481
30	0xbd1e29b4	-0.03861399
31	0xbc01c735	-0.00792103
32	0x3d18b8bb	0.037285548
33	0xbb82a49a	-0.003986907
34	0x3c0086be	0.007844625
35	0x3d420fa9	0.047378216
36	0xbd246d48	-0.04014328
37	0xbc5e7e56	-0.0135799255
38	0x3d189823	0.037254464
39	0xbd1bad54	-0.038007095
40	0xbbdc138d	-0.006716198
41	0xbcaa04db	-0.020754268
42	0x3b7b9db2	0.0038393554
43	0xbcb04bca	-0.021520514
44	0x3cc2367e	0.023707625
45	0xbcbff1e5	-0.023430774
46	0xbd10e9e6	-0.035379313
47	0x3c379c61	0.011206717
48	0x3bcbc452	0.0062184716
49	0xbc961fa3	-0.018325632
50	0xbba277ac	-0.0049581137
51	0x3d4b213f	0.049592253
52	0x3c0384cd	0.008027268
53	0x3c053ef1	0.008132682
54	0xbc1cb0b7	-0.0095636165
55	0x3cf520f8	0.029922947
56	0xba904d2d	-0.0011009328
57	0xbd10b2d0	-0.03532678
58	0xbd1e93a3	-0.038715016
59	0x3d079c95	0.033108313
60	0x3d00424d	0.03131323
61	0x3d080b5a	0.03321395
62	0x3cfb4b61	0.030675592
63	0x3d2dc3d0	0.04242307
64	0x3d3622fd	0.04446696
65	0x3cb65e02	0.022261623
66	0x3d34b1dd	0.044114936
67	0x3c5cda6d	0.013479811
68	0x392682c8	0.00015879713
69	0x3d35bb23	0.04436792
70	0x3cd9ddaf	0.026594965
71	0xbcc4d92b	-0.024029335
72	0xbd22aebd	-0.039717425
73	0xbd03da31	-0.032190505
74	0x3c7395fe	0.014867304
75	0x3d180418	0.03711328
76	0x3bf71d1d	0.0075413124
77	0xbb81cc55	-0.003961126
78	0x3d284268	0.041078955
79	0xbd1a9b63	-0.037745845
80	0x3c808ef1	0.01569316
81	0xbd1f6d6e	-0.03892272
82	0xbc647fd9	-0.013946497
83	0xbb3a929a	-0.002846873
84	0xbd25feab	-0.040526073
85	0x3d391c66	0.0451931
86	0xbd36f404	-0.044666305
87	0xbcc5e235	-0.024155715
88	0x3d1b1746	0.037863992
89	0x3b824fc5	0.0039767944
90	0x3d0d2a01	0.034463886
91	0xbc8011d5	-0.015633503
92	0x3d195d81	0.037442688
93	0x3be01a76	0.006839092
94	0x3cbd762b	0.023127636
95	0xbc29f780	-0.01037395
96	0x3cd30ab7	0.025761945
97	0xbd14fd59	-0.036374424
98	0x3d189363	0.037249934
99	0xbcdda51c	-0.02705627
100	0xbce2787a	-0.027645338
101	0x3cfaca12	0.030613933
102	0x3d17d730	0.037070453
103	0x3cc7b1da	0.024376798
104	0x3d0b0d96	0.033948503
105	0x3d3b0107	0.045655277
106	0xbbc5b5d6	-0.0060336394
107	0xbbc141fe	-0.0058977595
108	0xbd0b6a7e	-0.034037106
109	0xbd19141e	-0.0373727
110	0x3d4a1499	0.04933605
111	0xbd14993a	-0.03627894
112	0xbcab7a34	-0.020932294
113	0xba994ab4	-0.0011695237
114	0xbb81728f	-0.003950424
115	0x3d36439b	0.044498067
116	0x3b6dbb41	0.0036274942
117	0xbbdfb042	-0.0068264315
118	0xbd033fc8	-0.03204325
119	0xbc16c3ae	-0.009201927
120	0xbc826f0e	-0.015922096
121	0xbd2cd520	-0.04219544
122	0x3c7e5ff3	0.015525806
123	0xbcbfbb29	-0.023404675
124	0xbbf131f0	-0.0073606893
125	0xbcef2a63	-0.029195016
126	0x3d2aa76f	0.041663583
127	0x3c1e0170	0.009643897

a2c_network.actor_mlp.4.weight f4 [64, 128]
0	0x3d432c9c	0.047649965
1	0x3cba0fb5	0.022712568
2	0xbd3b892c	-0.045785114
3	0x3df6f1a0	0.12057805
4	0xba435bc1	-0.0007452332
5	0x3c893cc9	0.016752617
6	0xbc824dc0	-0.015906215
7	0xbc7ab59c	-0.015302088
8	0xbdd5e1ea	-0.1044348
9	0x3d663ca1	0.056210164
10	0xbdb39e47	-0.087704234
11	0x3dc2ed94	0.09517971
12	0x3deb9cf9	0.115045495
13	0x3c675681	0.014119745
14	0x3dff115b	0.12454482
15	0xbcbdde01	-0.023177149
16	0xbcca1b99	-0.024671363
17	0x3d9013a3	0.070349954
18	0xbdb27247	-0.08713203
19	0xbdece0f9	-0.11566348
20	0x3d6c7654	0.057730034
21	0x3d612484	0.054966465
22	0x3cc4c6ce	0.024020579
23	0x3c912139	0.017716037
24	0x3d93212d	0.07184062
25	0x3dc6ae53	0.097012185
26	0xbd4a9259	-0.049455974
27	0xbdee6b21	-0.11641527
28	0x3dedbfca	0.116088465
29	0xbcbec24c	-0.023286007
30	0xbd0576e0	-0.03258407
31	0xbc5a81dc	-0.013336625
32	0x3d6c7824	0.057731763
33	0x3d1de7bc	0.038551077
34	0x3dc763f9	0.09735865
35	0x3cc96480	0.024584055
36	0xbc628615	-0.013825913
37	0xbdbfbcea	-0.093622044
38	0x3db65666	0.08903198
39	0xbccb4ae2	-0.02481598
40	0x3dd40d7b	0.10354134
41	0xbd65f29d	-0.056139577
42	0xbb63664f	-0.0034698432
43	0x3d8f45a0	0.06995702
44	0xbdb483dc	-0.08814213
45	0xbd8351a6	-0.064120576
46	0xbc1a1e15	-0.009406586
47	0xbd6378c4	-0.055535093
48	0xbd8cfd83	-0.06884291
49	0x3c711a6b	0.014715771
50	0x3db65b03	0.08904078
51	0x3d428448	0.047489434
52	0xbd6d78e4	-0.05797662
53	0xbd62ebef	-0.055400785
54	0x3b851aae	0.0040620184
55	0x3d7a25e4	0.06107129
56	0xbdcf26f8	-0.101148546
57	0x3d60fc56	0.054928146
58	0xbd0ccc19	-0.03437433
59	0x3dc5f6d6	0.09666221
60	0x3d3ec116	0.04657086
61	0xbd563f69	-0.052306566
62	0x3da4113e	0.08011101
63	0xbce3c61e	-0.02780443
64	0x3d67a1f0	0.05655092
65	0xbcba6bbd	-0.022756452
66	0xbd153a3f	-0.0364325
67	0xbb072973	-0.002062407
68	0xbcd2b6ba	-0.025721896
69	0x3dae3023	0.08505275
70	0xbd1df2eb	-0.038561743
71	0xbdb07e89	-0.08617885
72	0xbde1b8ec	-0.11021599
73	0xbd8fc501	-0.070199974
74	0x3dcffd1e	0.101557
75	0x3dee565c	0.116375655
76	0x3c96c5f3	0.018404936
77	0xbdd3f2a0	-0.103490114
78	0x3d51c908	0.05121711
79	0xbd96ffb1	-0.07372988
80	0x3cb314b3	0.021860456
81	0x3d4aedf6	0.049543343
82	0x3d760206	0.060060523
83	0xbc45004b	-0.012023996
84	0xbd4efa95	-0.050531942
85	0x3b01f9b2	0.0019832668
86	0xbdaba4e4	-0.0838106
87	0xbd176bf6	-0.036968194
88	0x3d85b8b3	0.06529369
89	0x3d304267	0.043032076
90	0x3cbf0992	0.023319993
91	0x3df4357a	0.11924262
92	0x3d8062ec	0.06268868
93	0xbd8cb133	-0.068697356
94	0x3df8593f	0.12126397
95	0xbd4a6f2c	-0.049422428
96	0xbad16bf4	-0.0015977607
97	0xbda7a501	-0.08185769
98	0x3d8bcb2e	0.06825863
99	0xbca5f5d9	-0.02025883
100	0xbcf4ee01	-0.029898645
101	0xb96ae3fa	-0.00022400907
102	0xbcedfa2c	-0.029049955
103	0xbcfb7fdb	-0.030700615
104	0x3d6b2357	0.05740675
105	0x383fb7f3	4.5709265e-05
106	0xbd49cea5	-0.049269337
107	0x3dafb5ce	0.08579598
108	0xbce036d7	-0.0273699
109	0x3c283fb6	0.010269096
110	0x3da9ef82	0.082976356
111	0xbd9aa3be	-0.075507626
112	0xbbc3b317	-0.005972277
113	0xbdeb1b35	-0.11479799
114	0x3b961a61	0.0045807813
115	0x3dc9f474	0.09861079
116	0xbdbc79fb	-0.092029534
117	0x3c8bf6b7	0.017085416
118	0xbd7bbd72	-0.061459966
119	0x3d63e00b	0.055633586
120	0x3d1937c2	0.03740669
121	0xbc8e9079	-0.017402874
122	0x3c1b55bc	0.00948089
123	0xbbd77e4c	-0.006576335
124	0xbc5b14eb	-0.013371686
125	0xbdc28b7e	-0.09499262
126	0x3dd6aec3	0.10482552
127	0x3c81ce17	0.015845342
128	0x3bdcff54	0.0067443047
129	0x3bc7ce7d	0.0060976134
130	0xbd067b8e	-0.032832675
131	0xbdd17ae4	-0.10228518
132	0x3d8bd07b	0.06826874
133	0xbd3139c3	-0.043267976
134	0xbc5bdd2c	-0.013419431
135	0xbd691a77	-0.056910004
136	0x3d9eea21	0.077595
137	0xbd43e32a	-0.047824062
138	0x3cca67c9	0.024707692
139	0xbbb6556b	-0.005564382
140	0x3d8027e2	0.06257607
141	0x3dce3fd0	0.10070765
142	0x3c7071f7	0.014675609
143	0xbca6f912	-0.020382438
144	0x3d6ba6dc	0.057532176
145	0x3cb3df95	0.021957198
146	0xbdaea39a	-0.08527298
147	0x3bdf9b10	0.006823905
148	0x3d5633b5	0.052295405
149	0xbdaa78d2	-0.08323826
150	0xbd569d2f	-0.052395996
151	0xbd55fdfa	-0.052244164
152	0x3d888d8c	0.06667623
153	0xbdb25d68	-0.08709222
154	0x3c33a58b	0.0109647615
155	0xbd5c2d93	-0.0537544
156	0x3d4dfaaf	0.0502879
157	0xbd2af3c6	-0.041736387
158	0x3d58e985	0.052957077
159	0xbd242768	-0.040076643
160	0xbd14cf31	-0.036330406
161	0x3a8a6aac	0.0010560355
162	0xbb316270	-0.002706673
163	0xbd937e47	-0.0720182
164	0xbd710828	-0.05884567
165	0xbd7ebcb1	-0.06219167
166	0xbd555aae	-0.052088432
167	0x3d7ebab6	0.06218978
168	0x3d0429cb	0.03226642
169	0xbd2c7c92	-0.042110987
170	0xbd4661df	-0.04843318
171	0x3da81a6c	0.082081646
172	0xbdcc458a	-0.09974201
173	0x3d872b31	0.06600035
174	0x3c5208f2	0.012819516
175	0xbda3caaa	-0.079976395
176	0x3d087014	0.03331001
177	0x3d9898ce	0.0745102
178	0x3d3591ac	0.044328377
179	0xbd25e627	-0.040502694
180	0xbd22b8ef	-0.039727148
181	0x3a9c8853	0.0011942483
182	0xbd6ca27d	-0.05777215
183	0x3ce55806	0.027996074
184	0xbd52a6be	-0.05142855
185	0x3bc0b7d7	0.0058812904
186	0xbbb3e889	-0.005490367
187	0x3d541ca2	0.05178512
188	0xbdc4c593	-0.09607997
189	0xbd84346b	-0.064553104
190	0x3d184395	0.037173826
191	0xbd3fad93	-0.046796393
192	0x3d609e72	0.054838605
193	0xbda9246f	-0.08258902
194	0x3be96905	0.007123115
195	0x3c829a75	0.015942791
196	0x3dc7345c	0.09726784
197	0x3d44bc20	0.048030972
198	0x3cab3df6	0.020903569
199	0xbc711238	-0.014713816
200	0x3cf66045	0.030075202
201	0x3d9ad28c	0.0755969
202	0xbd75ece9	-0.06004039
203	0xbdc3694c	-0.09541568
204	0x3b10605f	0.0022030098
205	0xbd98f576	-0.07468693
206	0x3b0a752f	0.0021126976
207	0x3c57bcb5	0.01316755
208	0x3d5872aa	0.052843727
209	0x3d950606	0.072765395
210	0xbd9a1823	-0.07524135
211	0x3db97beb	0.090568386
212	0xbd5920b8	-0.05300972
213	0xbdc24941	-0.09486628
214	0xbc29454d	-0.010331464
215	0x3d15dad7	0.036585655
216	0xbc6b999d	-0.014379886
217	0xbc1e7993	-0.00967254
218	0xbb5db206	-0.0033828034
219	0xbc9c0afe	-0.01904821
220	0xbd24fbee	-0.04027932
221	0x3d241005	0.04005434
222	0x3c7c89e2	0.015413733
223	0xbc484568	-0.012223579
224	0x3caa1b76	0.020765048
225	0x3d84539d	0.064612605
226	0xbc601f43	-0.013679328
227	0xbcab9c7e	-0.020948645
228	0x3d964e89	0.07339198
229	0xbbd0fc86	-0.0063777594
230	0x3d57566b	0.05257265
231	0x3d8e951b	0.06962033
232	0xbdd4571c	-0.10368177
233	0xbd0c289d	-0.03421842
234	0xbd95d60b	-0.07316216
235	0x3ccec6eb	0.025241336
236	0x3d86eff0	0.06588733
237	0x3d4ddb9a	0.050258256
238	0xbd265661	-0.04060972
239	0x3d0f100d	0.034927417
240	0x3d9239f1	0.07139958
241	0xbd3198ce	-0.043358617
242	0x3d39fe17	0.045408335
243	0xbc6b5b7b	-0.014365072
244	0x3ca0aa67	0.019612504
245	0xbc7c6fbf	-0.015407502
246	0x3d6cb644	0.05779101
247	0x3d577f52	0.052611656
248	0x3c0c9ee2	0.0085828025
249	0x3c8d9828	0.017284468
250	0xbdab365b	-0.08359977
251	0xbdb6447c	-0.08899781
252	0xbc96ea61	-0.018422307
253	0xbd629dd7	-0.05532631
254	0xbc8d4bbf	-0.017248033
255	0x3d81be39	0.0633511

a2c_network.actor_mlp.4.bias f4 [64]
0	0x3d29bd51	0.04144031
1	0xbcec32a2	-0.028832737
2	0xbd054709	-0.032538448
3	0xbcf9daa4	-0.030499764
4	0x3ceff1dc	0.029290132
5	0xbcbf5a86	-0.023358595
6	0xbc1efbce	-0.00970359
7	0x3bf20ea2	0.0073869983
8	0x3ba202ef	0.0049441974
9	0xbd27ca6f	-0.04096454
10	0xbd08a2d8	-0.033358425
11	0x3d03a30b	0.03213791
12	0xbcac6f20	-0.021049082
13	0xbd1be140	-0.038056612
14	0xbd1d593d	-0.038415182
15	0x3cf4cbaf	0.02988228
16	0xbc8a8778	-0.0169103
17	0x3d31a78a	0.04337267
18	0x3cf18f87	0.029487384
19	0xbce2094b	-0.027592322
20	0x3cb18544	0.021669991
21	0xbd04808f	-0.032349166
22	0xbc8ad3fb	-0.016946783
23	0xbcd05a90	-0.025433809
24	0x3d23370d	0.039847422
25	0xbcb4d9f0	-0.022076577
26	0x3ba51287	0.005037609
27	0x3d400731	0.04688186
28	0xbd13fce9	-0.036129866
29	0xbc5e619c	-0.013573077
30	0x3d4fe804	0.050758377
31	0xbb660d3d	-0.0035103105
32	0x3d1b8106	0.037964843
33	0xbd22189f	-0.03957426
34	0xbd19e8a2	-0.03757537
35	0xbc91373d	-0.017726535
36	0xbce7b288	-0.028283373
37	0xbce265d4	-0.027636446
38	0x3d102c2b	0.03519837
39	0xbd1a7df9	-0.037717793
40	0x3d2493fe	0.0401802
41	0xbd184249	-0.03717259
42	0x3ce31165	0.027718255
43	0x3aa61cdc	0.0012673396
44	0x3d158263	0.0365013
45	0x3cddf6a7	0.027095152
46	0x3d0300a6	0.03198304
47	0x3cbbe005	0.02293397
48	0x3c843714	0.016139545
49	0xbcc7591d	-0.024334485
50	0x3d38e99c	0.045144662
51	0xbd05d2ef	-0.032671865
52	0xbd19fd77	-0.03759524
53	0x3ce17bdb	0.02752488
54	0x3c5ef8b3	0.013609099
55	0x3d2a9168	0.041642576
56	0x3c4d18f1	0.0125181535
57	0x3ca51bb4	0.020154811
58	0xbcbf6356	-0.023362797
59	0x3c964411	0.018343003
60	0xbcc97366	-0.02459116
61	0xbbb07e38	-0.00538614
62	0xbd0c60df	-0.03427207
63	0xbc9584f9	-0.018251883

a2c_network.value.weight f4 [1, 64]
0	0xbdaf63ae	-0.08563934
1	0x3dbe8e74	0.093045145
2	0x3df163d0	0.11786616
3	0x3d3850b6	0.044998847
4	0xbc121e85	-0.008918409
5	0x3db98ff7	0.09060662
6	0x3d846c2d	0.064659454
7	0x3c603724	0.013685022
8	0x3d16709a	0.03672848
9	0x3de9b947	0.11412292
10	0x3df8a461	0.12140728
11	0xbda10bf0	-0.07863605
12	0x3d3397ba	0.04384587
13	0x3e12ed20	0.14348269
14	0x3dc73513	0.0972692
15	0xbda42784	-0.080153495
16	0x3e075ec5	0.13219745
17	0xbe01e74c	-0.12685889
18	0xbda14c78	-0.078759134
19	0x3d530782	0.051520832
20	0xbd5f7ca4	-0.054562226
21	0x3d994e1d	0.07485602
22	0x3d0b11b2	0.033952422
23	0x3e17f235	0.14838488
24	0xbd27212d	-0.040803123
25	0x3de3b49e	0.11118434
26	0x3cb6fcdd	0.022337371
27	0xbe0dbede	-0.13842341
28	0x3dd72aa3	0.10506179
29	0x3dd4fb39	0.103994794
30	0xbe0e930c	-0.13923281
31	0x3d0f5652	0.03499443
32	0xbd93d094	-0.072175175
33	0x3dddf7ac	0.10838255
34	0x3dafcc65	0.08583907
35	0x3d56ca8f	0.05243927
36	0x3e0e17b9	0.13876237
37	0x3e17e004	0.14831549
38	0xbdae6325	-0.08515004
39	0x3e06c589	0.13161291
40	0xbd415b3d	-0.047206152
41	0x3e1cfa81	0.15329935
42	0xbdfe3d93	-0.12414088
43	0xbc92995b	-0.017895391
44	0xbdd759a1	-0.10515142
45	0xbe13748b	-0.14399926
46	0xbe142ec6	-0.14470968
47	0xbde1990d	-0.1101552
48	0xbd5ed372	-0.05440087
49	0x3dc3c636	0.0955929
50	0xbe1f7b2b	-0.15574329
51	0x3dce3711	0.10069097
52	0x3de14f0f	0.11001407
53	0xbd7f745e	-0.062366836
54	0xbc1af0b4	-0.009456802
55	0xbd8a51d2	-0.06753887
56	0xbd2d313c	-0.04228328
57	0xbd909815	-0.07060257
58	0x3ddabe36	0.10680811
59	0xbda2d68d	-0.079510786
60	0x3dce5bab	0.10076078
61	0x3d69af18	0.057051748
62	0x3e12462c	0.14284581
63	0x3d0555d6	0.032552563

a2c_network.mu.weight f4 [24, 64]
0	0xbda03123	-0.07821872
1	0xbcb3a261	-0.021928014
2	0xbce0454f	-0.027376799
3	0xbdb54456	-0.08850925
4	0xbd1b262f	-0.03787821
5	0x3df5e891	0.12007249
6	0x3cebd54c	0.028788231
7	0x3dcaa087	0.098938994
8	0x3ce4c63e	0.02792656
9	0x3d806136	0.062685415
10	0xbdd3dc01	-0.10344697
11	0x3c5416d6	0.012944898
12	0x3d8036a2	0.062604204
13	0xbc06ca9c	-0.008227017
14	0xbd54164f	-0.051779088
15	0xbbedc2e6	-0.0072558997
16	0xbdb4057e	-0.0879011
17	0x3d8760fd	0.06610296
18	0x3cde0286	0.027100813
19	0xbdd60637	-0.10450404
20	0x3d42dad3	0.04757197
21	0xbdfaa6af	-0.122388236
22	0x3d3a40a7	0.045471814
23	0xbd9ab48f	-0.0755397
24	0xbdc26027	-0.09490996
25	0x3ceb9bc0	0.02876079
26	0x3bed3f93	0.0072402447
27	0x3dedc52c	0.11609873
28	0xbd8471e5	-0.06467036
29	0x3e0aad47	0.13542663
30	0x3d31f197	0.04344329
31	0x3d0a8cc6	0.03382566
32	0x3d112386	0.03543427
33	0x3cb46adc	0.02202361
34	0x3d72fe3c	0.059324488
35	0x3c896618	0.016772315
36	0x3dc31fd7	0.09527557
37	0xbde7fe43	-0.113277934
38	0xbd1c0c14	-0.038097456
39	0xbd54d8af	-0.051964458
40	0xbd88ab96	-0.066733524
41	0xbdcefd1a	-0.10106869
42	0xbda6fe32	-0.08153953
43	0x3ca30756	0.019900959
44	0xbd24ecb2	-0.040264793
45	0xbdd66ef0	-0.104703784
46	0x3d83f60f	0.06443416
47	0x3dc50821	0.09620691
48	0x3d5bbd71	0.053647462
49	0xbd71345d	-0.05888783
50	0x3e0ee868	0.13955843
51	0x3a2e988c	0.00066603045
52	0xbc85a3b9	-0.01631342
53	0x3c2a1eef	0.010383352
54	0x3df0e5a4	0.117625505
55	0xbd30daee	-0.043177538
56	0xbdb2217d	-0.08697794
57	0x3d14be87	0.036314514
58	0xbdaa2540	-0.08307886
59	0xbd5aff1e	-0.053465955
60	0x3beede09	0.0072896522
61	0x3df0eaae	0.117635116
62	0xbd589590	-0.05287701
63	0xbc96caf4	-0.018407322
64	0xbdd5a732	-0.104322806
65	0x3d7598ea	0.059960283
66	0xbddb55d9	-0.107097335
67	0xbb2c59c8	-0.002629863
68	0x3d292021	0.041290406
69	0xbccd0be4	-0.025030084
70	0x3d61827d	0.055056084
71	0x3c8d0fe7	0.017219497
72	0xbd43d506	-0.047810577
73	0xbde6f988	-0.11278063
74	0x3dda29e1	0.10652519
75	0xbdcc6407	-0.09980016
76	0xbd59e48e	-0.053196482
77	0x3d5fc799	0.05463371
78	0xbcf8d72f	-0.030376045
79	0xbd29811c	-0.041382894
80	0x3d0a25ef	0.033727583
81	0xbc098b6e	-0.008395059
82	0x3d89ac05	0.06722263
83	0xbd73fcf1	-0.059567396
84	0x3c08dfa7	0.008354104
85	0xbdfaad00	-0.122400284
86	0xbce64aa3	-0.028111761
87	0x3dd53ff4	0.10412589
88	0x3d7fa50d	0.062413264
89	0x3c785740	0.015157521
90	0x3d137b9d	0.03600656
91	0x3df3c208	0.11902243
92	0xbd0e79eb	-0.03478424
93	0x3db0139c	0.0859749
94	0x3de79cfb	0.113092385
95	0xbc128605	-0.008943086
96	0x3d7ac1c7	0.061219957
97	0x3cfd110d	0.03089192
98	0xbd5fc22e	-0.054628544
99	0xbda725ef	-0.08161532
100	0xbd072160	-0.032990813
101	0x3dbc0f08	0.091825545
102	0x3d89f0b9	0.06735367
103	0x3db50d70	0.088404536
104	0xbd905d33	-0.07049026
105	0xbdfda34e	-0.123846635
106	0xbd0c3c2c	-0.034237072
107	0xbdd71969	-0.105028935
108	0x3dc823cb	0.09772452
109	0xbceefda5	-0.029173682
110	0xbd8ac9ba	-0.067767575
111	0xbc7482f6	-0.014923802
112	0xbc8e6150	-0.017380387
113	0x3c96ed62	0.01842374
114	0x3d93e89a	0.072220996
115	0xbdc1e2aa	-0.09467061
116	0x3d35afce	0.044357114
117	0x3c42c686	0.011888152
118	0x3da9c35c	0.08289215
119	0x3bf3b261	0.007437036
120	0x3d2ad442	0.04170633
121	0xbdf4117e	-0.11917399
122	0x3da5539a	0.08072586
123	0x3d921307	0.071325354
124	0x3deb028b	0.114750944
125	0x3d0ab7d4	0.03386672
126	0xbbca690c	-0.0061770733
127	0x3df67738	0.12034458
128	0xbd55c750	-0.052192032
129	0xbd4075b4	-0.04698725
130	0xbc1cc738	-0.009568982
131	0xbddfe834	-0.10932961
132	0x3df88675	0.12135021
133	0x3dc4931a	0.0959837
134	0x3ddfa41f	0.109199755
135	0x3dadf383	0.08493712
136	0x3d8d2a7b	0.06892868
137	0xbc4ff98e	-0.012693776
138	0x3d04ecf5	0.032452542
139	0x3d60ea1b	0.05491076
140	0xbc4f6156	-0.012657484
141	0xbd22e309	-0.0397673
142	0xbd026b2b	-0.031840485
143	0xbde19180	-0.1101408
144	0x3d89ea03	0.06734087
145	0x3e177a41	0.1479273
146	0x3d877cd7	0.06615608
147	0xbca1fa90	-0.019772798
148	0xbca7e4c8	-0.020494834
149	0xbe0ab8b5	-0.13547023
150	0xbe1ec218	-0.15503728
151	0xbdb31d15	-0.08745781
152	0xbd19cc08	-0.037548095
153	0xbdbac1aa	-0.0911897
154	0x3d5f8e1b	0.05457888
155	0x3e29a112	0.1656535
156	0xbd8844d5	-0.06653754
157	0x3de11151	0.10989631
158	0x3de2548b	0.110512815
159	0x3dc50ed4	0.09621969
160	0x3dcaf421	0.09909845
161	0x3d7a0a0c	0.061044738
162	0x3d85ac7d	0.0652704
163	0xbd2e0017	-0.042480554
164	0x3c048bce	0.008089973
165	0x3d58b3ca	0.052905835
166	0xbd84fee7	-0.06493931
167	0xbdeab947	-0.1146112
168	0x3de71b61	0.11284519
169	0xbdc87a1c	-0.097889155
170	0xbda4d186	-0.08047776
171	0x3c309d80	0.010779738
172	0x3d0f24f4	0.03494735
173	0xbd3e25c8	-0.04642275
174	0xbd4d8a5c	-0.050180778
175	0xbdb44ea8	-0.08804065
176	0xbd20a423	-0.039219033
177	0x3e0a40d9	0.135013
178	0x3d95089a	0.07277031
179	0xbde4bdb7	-0.11168998
180	0x3d940865	0.07228164
181	0x3db13fa7	0.08654719
182	0x3d57e165	0.052705187
183	0x3d14cb09	0.036326442
184	0xbdd83e5a	-0.105587676
185	0xbd7155a1	-0.058919553
186	0x3de784aa	0.113046005
187	0xbdc133c5	-0.094337024
188	0x3d1c4b21	0.038157586
189	0x3de48261	0.1115768
190	0xbdebdbc7	-0.115165286
191	0xbcd5b6dc	-0.02608817
192	0x3dac3a52	0.08409561
193	0x3db6a3be	0.0891795
194	0xbdd8ebd5	-0.105918564
195	0xbdd25f32	-0.10272063
196	0x3d7789bd	0.06043409
197	0x3d80a0b6	0.06280653
198	0x3e087a6d	0.13327952
199	0x3dc02a57	0.09383076
200	0x3e09b9b8	0.13449752
201	0x3daaa43b	0.08332106
202	0xbd95b7b5	-0.0731043
203	0x3ddece28	0.10879165
204	0x3db2e722	0.08735491
205	0xbdb85256	-0.09000079
206	0xbda67ccd	-0.081292726
207	0x3ca27c19	0.019834565
208	0x3dbae352	0.09125389
209	0x3d850934	0.06495896
210	0xbd2c2037	-0.04202291
211	0xbe089657	-0.133386
212	0x3ca2e778	0.019885764
213	0xbde4e7eb	-0.11177047
214	0xbbb036cd	-0.0053776265
215	0x3cbf89c3	0.02338112
216	0x3e1ba537	0.15199743
217	0x3debbcfb	0.115106545
218	0x3e1c8dfe	0.1528854
219	0x3e018572	0.12648562
220	0xbe07ef6b	-0.13274924
221	0x3dfe0680	0.124035835
222	0x3e111b38	0.1417054
223	0x3dca417d	0.09875772
224	0x3d11b5b6	0.035573684
225	0xbde31f65	-0.110899724
226	0xbe103b04	-0.14085013
227	0x3e1280c8	0.14306939
228	0x3c8f341c	0.017480902
229	0xbdfaf0e7	-0.1225298
230	0x3deebd65	0.11657218
231	0x3d96af80	0.07357693
232	0x3d744df4	0.059644654
233	0x3d185e93	0.037199568
234	0xbe075df4	-0.13219434
235	0xbcd0ec36	-0.02550326
236	0xbdc39457	-0.09549778
237	0xbdfa8e5c	-0.12234184
238	0x3d342674	0.043981984
239	0xbca6fc64	-0.020384021
240	0xbb12a06d	-0.0022373453
241	0x3d09bee5	0.033629317
242	0x3dd7c5a4	0.10535744
243	0x3d8b02d5	0.067876495
244	0xbdd303b2	-0.10303439
245	0x3dbbcd84	0.09170058
246	0x3c3641ab	0.011124055
247	0x3dda6f38	0.106657445
248	0xbdba3b68	-0.09093362
249	0xbde02d11	-0.10946096
250	0x3d1d0a99	0.038340185
251	0xbd481bc2	-0.048854597
252	0x3d2e648b	0.042576354
253	0x3c0a7307	0.008450276
254	0xbd8923a3	-0.0669625
255	0xbdf30f20	-0.11868119

a2c_network.mu.bias f4 [24]
0	0x3c6121a8	0.013740934
1	0xbb975e47	-0.004619393
2	0x3cd639c6	0.026150595
3	0x3d074dac	0.033033058
4	0x3cbe9692	0.023265157
5	0x3a82e124	0.000998531
6	0x3ce63231	0.028100105
7	0x3c9512cb	0.018197438
8	0xbcc53949	-0.024075167
9	0x3caaa273	0.020829415
10	0xbb63171e	-0.003465123
11	0xbbe8288a	-0.0070849108
12	0xbc0f6698	-0.008752488
13	0xbca3a6f0	-0.019977063
14	0xbb2e4ed8	-0.0026597288
15	0x3cb39901	0.021923544
16	0xbc892d25	-0.01674516
17	0xbd026a86	-0.03183987
18	0x3c0e422d	0.00868277
19	0xbc1501e1	-0.009094686
20	0x3c6a415e	0.014297811
21	0x3c640ed6	0.013919553
22	0xbc478259	-0.012177073
23	0xbbe14f93	-0.006875941

exp_avg f4 [24]
0	0xbc26382a	-0.0101452265
1	0xbc027904	-0.007963423
2	0xbc90f0cb	-0.017692944
3	0x3c9e0a42	0.019292
4	0xbbe41c84	-0.006961407
5	0x3b6e6eff	0.0036382077
6	0xbb8997fc	-0.004199026
7	0xbc677df1	-0.014129148
8	0xbc042531	-0.008065508
9	0x3b4e0f82	0.003144235
10	0xbb9c72d9	-0.004774433
11	0x3b844253	0.004036227
12	0xbc217ced	-0.009856445
13	0xbb7e65af	-0.0038817932
14	0x3c8dde45	0.0173179
15	0x3b1ce549	0.0023940376
16	0x3c44711f	0.011989861
17	0x3c2a525c	0.010395613
18	0x3bff66cf	0.007794238
19	0x3c87e1b3	0.016587114
20	0xbc28877b	-0.010286207
21	0xbb9f3c1b	-0.00485946
22	0x3c0e5152	0.00868638
23	0xb8250978	-3.9347884e-05

exp_avg_sq f4 [24]
0	0x3a160fe1	0.0005724412
1	0x3a0b90e5	0.000532402
2	0x3a1b0ec2	0.000591498
3	0x3a20b021	0.0006129761
4	0x3a0f29e3	0.00054612587
5	0x3a149d3a	0.00056691805
6	0x3a08777f	0.00052057946
7	0x3a0898b5	0.00052107434
8	0x3a091fb2	0.0005230858
9	0x3a0b1a7b	0.0005306375
10	0x3a106f18	0.00055097183
11	0x3a1ba371	0.00059371354
12	0x3a046762	0.00050508056
13	0x3a0b957f	0.0005324706
14	0x3a22751e	0.00061972614
15	0x39fa9aa4	0.00047798932
16	0x3a029237	0.0004980894
17	0x3a190da2	0.0005838518
18	0x3a20f4a5	0.00061399705
19	0x3a0ecf00	0.00054477155
20	0x3a203a5a	0.00061122107
21	0x3a152e15	0.00056907657
22	0x3a0eaca3	0.0005442595
23	0x3a11ff23	0.00055693294
