runs/lift_30-15-45-11/nn/last_lift_ep_200_rew_-37.625515.pth (torch, 654733 bytes, 36 tensors)

value_mean_std.running_mean f8 [1]
000000 b4 7f 61 5d 4e 85 66 c0
       -180.16581601183645

value_mean_std.running_var f8 [1]
000000 dd 99 80 0a db 08 f6 40
       90253.69006404975

value_mean_std.count f8 []
000000 00 00 00 00 08 00 09 41
       204801.0

running_mean_std.running_mean f8 [39]
000000 00 00 00 00 00 00 00 00 d2 de e0 a3 f0 ff f7 3f
       0.0 1.499985351705551
000010 38 8f 29 10 bf cc f4 3f b7 d3 2b 85 eb ff df 3f
       1.299986899503848 0.49999511723518303
000020 2d f7 bc bd 88 99 d9 3f e3 b3 f2 c6 24 33 07 40
       0.399995980540427 2.899972490579317
000030 b7 d3 2b 85 eb ff df 3f a6 06 34 93 48 93 e9 3f
       0.49999511723518303 0.7992289424002663
000040 2b 45 27 90 fa 89 f6 3f b7 d3 2b 85 eb ff df 3f
       1.408686221217361 0.49999511723518303
000050 71 d6 f1 49 9d de eb 3f 2a 0f 58 90 cf fc ed 3f
       0.8709246105415344 0.9371106929033648
000060 00 00 00 00 00 00 00 00 b7 d3 2b 85 eb ff ef 3f
       0.0 0.9999902344703661
000070 00 00 00 00 00 00 00 00 00 00 00 00 00 00 00 00
       0.0 0.0
000080 00 00 00 00 00 00 00 00 00 00 00 00 00 00 00 00
       0.0 0.0
000090 00 00 00 00 00 00 00 00 00 00 00 00 00 00 00 00
       0.0 0.0
0000a0 10 df 81 d3 56 39 d3 3f ab c7 b7 d6 40 b8 98 3f
       0.30037470488558515 0.024140370469417565
0000b0 65 b7 7d 91 ab 9e 23 40 00 00 00 00 00 00 00 00
       9.809902712436903 0.0
0000c0 00 00 00 00 00 00 00 00 00 00 00 00 00 00 00 00
       0.0 0.0
0000d0 00 00 00 00 00 00 00 00 00 00 00 00 00 00 00 00
       0.0 0.0
0000e0 00 00 00 00 00 00 00 00 00 00 00 00 00 00 00 00
       0.0 0.0
0000f0 00 00 00 00 00 00 00 00 00 00 00 00 00 00 00 00
       0.0 0.0
000100 00 00 00 00 00 00 00 00 00 00 00 00 00 00 00 00
       0.0 0.0
000110 00 00 00 00 00 00 00 00 00 00 00 00 00 00 00 00
       0.0 0.0
000120 00 00 00 00 00 00 00 00 00 00 00 00 00 00 00 00
       0.0 0.0
000130 b7 d3 2b 85 eb ff bf 3f
       0.12499877930879576

running_mean_std.running_var f8 [39]
000000 5d 02 45 2c d4 7a e4 3e af af 91 04 c5 a3 00 3f
       9.765529633499662e-06 3.173775673634361e-05
000010 73 55 b0 07 8f 8b fb 3e 52 17 7e f0 85 99 e9 3e
       2.626910325539051e-05 1.2206888200482335e-05
000020 11 a4 cd 38 ac c1 e7 3e e7 16 57 9e d3 16 18 3f
       1.1327998231629542e-05 9.189287774010909e-05
000030 52 17 7e f0 85 99 e9 3e a1 2f f8 83 78 b6 eb 3f
       1.2206888200482335e-05 0.8660242631462901
000040 38 0b a4 4e 47 e0 f4 3f 52 17 7e f0 85 99 e9 3e
       1.30475550383626 1.2206888200482335e-05
000050 93 d4 44 e6 f1 21 e1 3f ad 73 bc 57 11 c4 db 3f
       0.5353936669768181 0.4338420254514926
000060 5d 02 45 2c d4 7a e4 3e 13 ab 94 9e cd 7a f4 3e
       9.765529633499662e-06 1.9530963901430333e-05
000070 5d 02 45 2c d4 7a e4 3e 5d 02 45 2c d4 7a e4 3e
       9.765529633499662e-06 9.765529633499662e-06
000080 5d 02 45 2c d4 7a e4 3e 5d 02 45 2c d4 7a e4 3e
       9.765529633499662e-06 9.765529633499662e-06
000090 5d 02 45 2c d4 7a e4 3e 5d 02 45 2c d4 7a e4 3e
       9.765529633499662e-06 9.765529633499662e-06
0000a0 5a a7 7a 33 de f9 f2 3f 8b 35 e5 44 d2 9a fa 3f
       1.186002923097894 1.6627981845116178
0000b0 79 5d ca 94 6c 1d 4f 3f 5d 02 45 2c d4 7a e4 3e
       0.0009495525533393243 9.765529633499662e-06
0000c0 5d 02 45 2c d4 7a e4 3e 5d 02 45 2c d4 7a e4 3e
       9.765529633499662e-06 9.765529633499662e-06
0000d0 5d 02 45 2c d4 7a e4 3e 5d 02 45 2c d4 7a e4 3e
       9.765529633499662e-06 9.765529633499662e-06
0000e0 5d 02 45 2c d4 7a e4 3e 5d 02 45 2c d4 7a e4 3e
       9.765529633499662e-06 9.765529633499662e-06
0000f0 5d 02 45 2c d4 7a e4 3e 5d 02 45 2c d4 7a e4 3e
       9.765529633499662e-06 9.765529633499662e-06
000100 5d 02 45 2c d4 7a e4 3e 5d 02 45 2c d4 7a e4 3e
       9.765529633499662e-06 9.765529633499662e-06
000110 5d 02 45 2c d4 7a e4 3e 5d 02 45 2c d4 7a e4 3e
       9.765529633499662e-06 9.765529633499662e-06
000120 5d 02 45 2c d4 7a e4 3e 5d 02 45 2c d4 7a e4 3e
       9.765529633499662e-06 9.765529633499662e-06
000130 bd 93 88 48 bf cc e4 3e
       9.918114543936108e-06

running_mean_std.count f8 []
000000 00 00 00 00 10 00 f9 40
       102401.0

a2c_network.sigma f4 [24]
000000 ca e1 a4 3b fe d5 a5 bc a1 ef 10 3d 00 80 10 bc
       0.005031799 -0.020243641 0.035384778 -0.00881958
000010 00 70 2b 3c 71 49 be bc b7 48 cf bc e1 19 82 bd
       0.010463715 -0.023228379 -0.025303228 -0.06352592
000020 d9 37 8c bd b1 5d a5 bc 68 df 5e 3b a4 e2 64 3c
       -0.068465896 -0.020186277 0.0034007672 0.013970051
000030 f2 12 7d bd 2e d8 95 bc bf 77 af 3c 2d 9f c0 bc
       -0.061785646 -0.01829156 0.021419404 -0.0235134
000040 58 8b b2 bc 9e 8a f7 bc 96 cb d8 bc 93 86 c8 bb
       -0.02179496 -0.030217465 -0.026464265 -0.006119558
000050 07 f7 f7 bb b1 1a 00 3c 0f 29 70 bd 87 a7 fc 3c
       -0.0075672898 0.007818864 -0.058632907 0.030841602

a2c_network.actor_mlp.0.weight f4 [256, 39]
000000 38 d9 4e bd 0a 3e 63 3d d0 be fd bc 75 71 a4 3d
       -0.050500125 0.055479087 -0.030974776 0.08029453
000010 ba 96 1f 3e 16 ba d6 3d f7 e1 69 bd 82 19 a0 3d
       0.15584841 0.10484712 -0.057100262 0.07817365
000020 1c fd 69 bc 80 f7 c0 3d da 16 02 be 3a 34 2c be
       -0.014281537 0.09422207 -0.1270403 -0.16816798
000030 75 68 7d bd db a3 e1 bd 76 8b 06 3e 58 ea 3c 3d
       -0.061867196 -0.11017581 0.13139138 0.046121925
000040 94 d6 87 3d 51 6e 4f 3d 5c 8e 36 bb 43 53 00 3e
       0.066327244 0.050642315 -0.002785585 0.12531762
000050 a8 24 ef bd 4c 1e 39 3c f4 30 c7 bd 50 3e 4a 3d
       -0.116769135 0.011298727 -0.09726134 0.049375832
000060 09 e0 61 bd 4b f9 48 3d e5 a5 08 bd 14 ff 07 3e
       -0.055145297 0.04906587 -0.033361334 0.13280898
000070 43 5f c2 bd 8f 95 c3 bd 95 98 c3 bd 94 7b 13 3e
       -0.09490826 -0.095500104 -0.09550587 0.1440261
000080 0a 93 5a 3d 0b c8 1d 3e 51 52 07 be 9f a3 22 be
       0.053362884 0.15408342 -0.13214995 -0.15882729
000090 ff 48 00 be 72 9a dc bd 2f 8a 9f 3d 46 db 6a 3d
       -0.12527846 -0.107716456 0.07790028 0.05733802
0000a0 86 78 e6 3d 3f 66 d3 bd c5 6a 04 be bb b1 84 3d
       0.11253457 -0.10322236 -0.12931354 0.06479212
0000b0 27 dc ae bd 7c c3 9d 3d 7d 1a 5a bd 46 aa 76 3d
       -0.085380845 0.07703301 -0.053247917 0.06022098
0000c0 45 09 14 be 5b 5a b2 bd 3b cf 91 3c b5 a8 0a 3d
       -0.14456661 -0.0870864 0.01779901 0.033852298
0000d0 c9 a3 7a bd fa 79 c3 3d 34 f0 de 3d ac d0 ed bd
       -0.061191354 0.095447496 0.10885659 -0.116120666
0000e0 fa 13 af bd 68 24 16 3e 1f 51 5d bd 2b a9 8c bd
       -0.08548732 0.14662325 -0.05403244 -0.06868204
0000f0 5e 60 1a be 8f 84 e6 bd ab d7 23 3d 08 25 ad bc
       -0.15075824 -0.11255752 0.0400006 -0.021135822
000100 80 0c ee bd 83 28 76 3b ec 02 e0 bd d6 1c 0b be
       -0.11623478 0.0037560768 -0.10938057 -0.13585219
000110 ed 95 b4 bd 75 82 0f be 3d d0 d0 bd 37 e8 23 3e
       -0.088176586 -0.14014609 -0.10195968 0.16006552
000120 ae c2 f7 3c 07 1e 4a 3d f2 ee 18 be 4e 62 d7 bd
       0.030244198 0.049345043 -0.149349 -0.10516797
000130 ab 50 5a bd 96 ff a3 3b 22 48 10 be 67 8a b3 bd
       -0.053299587 0.0050048335 -0.14090016 -0.087666325
000140 64 91 ea bd 0a ad 96 bc 7c 97 a0 bd 50 5b f3 bc
       -0.11453512 -0.018393058 -0.07841393 -0.029706627
000150 8f 66 02 be 53 40 da bd 73 37 7c bd 13 d5 96 bd
       -0.12734435 -0.106568 -0.061576318 -0.073648594
000160 a8 aa e2 bd 6b 2a 0b 3e 68 2b 02 bd c1 c6 f3 3d
       -0.11067706 0.135904 -0.031779677 0.11903144
000170 ab 5c 4c 3d b0 d9 0a be 9d f2 e2 3d 9d 76 34 bd
       0.049893063 -0.13559604 0.11081431 -0.04405843
000180 f3 6a 7b bd 90 1b 08 be 33 40 26 be 37 ae 54 3d
       -0.06138129 -0.13291764 -0.16235428 0.051923957
000190 63 20 5b bd e5 59 7f 3d b0 90 06 be 5a 79 f3 3d
       -0.053497683 0.06234159 -0.13141131 0.1188838
0001a0 35 ba f0 bd f7 81 e2 bc 96 fe 08 3d 06 4d a9 3d
       -0.11754266 -0.027649863 0.033445917 0.08266644
0001b0 2b 60 04 3e 00 5f 15 3e 34 04 02 be 94 10 25 3d
       0.1292731 0.14587021 -0.12696916 0.040299013
0001c0 7a 0e 8d bd 03 c0 8f bc 30 76 f5 bd c7 5a 15 3e
       -0.06887527 -0.017547613 -0.11985433 0.1458541
0001d0 d4 af 0b be ed 44 af 3d 60 92 97 3d 00 e5 8e 3d
       -0.13641292 0.085580684 0.07400966 0.06977272
0001e0 0c 4b 8d bd d5 0c 27 3e df fe 58 3d 35 63 1c 3d
       -0.0689908 0.16313489 0.05297744 0.03818055
0001f0 eb 85 04 be 81 94 af 3d c0 0c d3 bb 2f 8c 89 bd
       -0.1294171 0.08573247 -0.006440729 -0.06716191
000200 43 6f 24 3e 8f 3a 12 3d 93 40 91 bd 04 fc a5 bd
       0.16058068 0.035700377 -0.07092395 -0.08104709
000210 fa 93 fa bb 41 1c b7 3d cc 99 27 bd a0 1d bb bd
       -0.0076470347 0.08940936 -0.040918157 -0.0913651
000220 65 9a 60 bd e9 c0 d7 bd 10 0a 63 3d 7a 37 11 3e
       -0.054834742 -0.105348416 0.05542952 0.14181319
000230 7f 5e 1a be 68 54 18 3d 91 69 a9 3d c5 dc ed 3c
       -0.1507511 0.03718987 0.08272088 0.029035935
000240 a7 93 69 bd bf 2a ab 3d 8c 56 ac 3d d3 40 75 3d
       -0.057025578 0.083577625 0.08414945 0.059876274
000250 8b 81 e6 bc dd ad 2d bd 97 55 8c 3c c1 ba e7 bc
       -0.028137943 -0.042402137 0.017130656 -0.028287293
000260 53 74 43 bd 81 9f d1 3d b3 ea 0c 3e 68 d5 db 3a
       -0.047718357 0.10235501 0.13761406 0.0016771974
000270 bf d9 12 bd b8 e2 90 bb a6 a2 85 bc 8e 27 00 3d
       -0.03585219 -0.004421558 -0.016312908 0.031287722
000280 e7 5d 1a 3d 39 ac 1b be 80 c9 87 bd 8f 3a 19 3e
       0.03768721 -0.15202416 -0.0663023 0.14963745
000290 bb dd be 3d 41 99 78 bc 21 e8 a7 bd 91 12 b1 bd
       0.093196355 -0.015173257 -0.08198572 -0.086461194
0002a0 47 e1 12 be b3 43 72 bd bd 7e 5d 3d 6b 1a d1 3d
       -0.14343749 -0.059146594 0.054075945 0.10210117
0002b0 00 69 97 3d ff f0 10 be 58 36 c5 bd e4 04 cf bc
       0.07393074 -0.14154433 -0.09629506 -0.025270887
0002c0 12 59 19 3e a6 3f a9 3c 1c c8 43 bd bf ac 87 3d
       0.14975384 0.020660233 -0.04779826 0.066247456
0002d0 80 d0 79 bd 3a 43 d4 bd 6b 5c ef 3d b3 1d 95 bd
       -0.060989857 -0.10364385 0.11687549 -0.07281055
0002e0 ad 7b 03 bd 89 1e 23 be 75 7b db 3d e7 75 f8 3d
       -0.03210037 -0.15929617 0.10716907 0.12131863
0002f0 3b 09 6f 3d 72 aa e4 bd 6a d4 21 be 8a 2c 05 be
       0.058358412 -0.11165322 -0.15803686 -0.13005272
000300 f8 8b f4 3d 72 72 9d 3d 67 76 02 3e 96 cc ab 3d
       0.119407594 0.07687844 0.1274048 0.08388631
000310 06 3a f4 3c 32 68 49 bc 8d 30 07 be b9 fe 16 be
       0.029812824 -0.0122929085 -0.13202114 -0.14745606
000320 f0 85 24 be 59 8a 62 3d 52 04 c9 bd bb a4 85 bd
       -0.16066718 0.05530772 -0.09815277 -0.065255605
000330 94 b5 d1 bd fa 7e 41 bd dc f6 08 be 61 48 d6 bd
       -0.102397114 -0.047240235 -0.1337542 -0.10463024
000340 fa 7c 2e 3d 37 ed 42 bd fa 73 ca 3d e3 69 52 bd
       0.042599656 -0.047589507 0.09885402 -0.051370513
000350 5d 91 f0 bd 7f 72 e7 bc 21 f8 9e bd ae cb 7d bd
       -0.11746476 -0.028252838 -0.077621706 -0.061961822
000360 5f 6e 12 be 73 a6 a0 3d a5 50 e4 bd 66 d4 a4 3d
       -0.14299916 0.07844248 -0.11148194 0.08048324
000370 ab d0 94 3d f6 4a ea 3d 86 8c fb bd eb da eb 3d
       0.07266363 0.11440079 -0.12282662 0.11516365
000380 0b 09 9b bd f1 60 73 3d df fc 19 3e 57 00 b9 bc
       -0.07570084 0.059418622 0.15037869 -0.02258317
000390 f9 4f a2 ba 37 01 17 bd d7 e9 08 be 6a 61 9d 3d
       -0.0012383453 -0.036866393 -0.13370453 0.07684596
0003a0 f4 c6 22 be 3f ec b6 3d f1 5f f5 3d f2 f0 1f 3e
       -0.15896207 0.08931779 0.1198119 0.15619257
0003b0 56 3d 07 bd 12 d4 01 be ef 0b 27 3d 04 e1 be 3d
       -0.03301748 -0.12678555 0.040782865 0.09320262
0003c0 09 4e 1e be e9 01 3a bd ed 93 9f bd 37 1b 17 bc
       -0.15459456 -0.045411978 -0.077918865 -0.009222797
0003d0 4d 6b b3 bd 7b 0f 2b bd 6b 37 50 bd 83 f0 16 be
       -0.087607004 -0.04176281 -0.0508341 -0.14740185
0003e0 25 8a 06 3e 52 76 09 3e ad c6 cd bc 16 63 95 bc
       0.13138635 0.13424042 -0.02511915 -0.018235724
0003f0 00 d7 85 bd 89 13 14 be 3e c5 18 be 89 44 87 3d
       -0.065351486 -0.14460577 -0.14918992 0.06604869

a2c_network.actor_mlp.0.bias f4 [256]
000000 5d 0e d2 ba e5 ec e9 bc 9b e9 3a bc 58 39 b8 3c
       -0.0016026009 -0.028555343 -0.011408235 0.022488281
000010 1a e8 84 3b cb 34 a8 bc 4e 7f 88 3b 3a 29 f4 3b
       0.004055989 -0.020532986 0.0041655665 0.0074512037
000020 0f 9a 59 bc 38 5d b2 3c 56 af bb 3a f2 6e ef 38
       -0.013281359 0.021772966 0.0014319222 0.00011417073
000030 82 56 ad ba 44 bb 4c 3b 50 50 03 bd 24 6e db bc
       -0.0013224634 0.0031239549 -0.032059014 -0.026785918
000040 a4 66 ef ba 69 f9 59 3c 04 08 04 bc 49 d2 0d bb
       -0.0018264842 0.013304093 -0.008058552 -0.0021640232
000050 d2 fe 7f 3a 5e 6c 46 bc 2d eb 49 bc 69 98 82 bc
       0.0009765449 -0.012110798 -0.012324137 -0.015941815
000060 ad c8 90 bc ae f7 e9 bb c5 80 83 3a 10 cc 4b bb
       -0.017673815 -0.0071401214 0.0010032883 -0.0031096973
000070 b9 d1 b5 3c e6 46 1b 3c 1e f7 75 3b 1c 55 48 3b
       0.02219473 0.009477353 0.0037531327 0.0030568307
000080 a5 72 ee 3c 4c dc 55 bc b0 85 6f ba 15 7c bb bc
       0.029107401 -0.013053011 -0.00091370475 -0.022886315
000090 83 b2 d4 bc 9a 27 ec bc 4b 7e 3b 3c 73 f1 31 3c
       -0.025964027 -0.028827477 0.011443685 0.010860789
0000a0 f3 27 2c bc 53 f8 91 bb 24 f3 dc bc 35 7b 86 bc
       -0.0105075715 -0.0044546514 -0.026971407 -0.016416172
0000b0 19 a8 85 bc 25 57 03 39 0b d4 d1 bc 1a 1e 6a 3c
       -0.016315507 0.00012525597 -0.025613805 0.014289403
0000c0 84 3b ff bc 82 f0 31 bc eb ee d5 ba b8 4f ea 3c
       -0.031156309 -0.010860564 -0.0016321813 0.028602466
0000d0 ea 27 10 3c a9 25 50 3c 68 d9 bf bc 58 94 58 bb
       0.008798579 0.012704291 -0.023419097 -0.0033047404
0000e0 a0 b3 a3 b9 87 fa 26 3c 01 0e 80 3a 59 36 bd bc
       -0.00031223614 0.010191566 0.0009769798 -0.023097204
0000f0 bb ae e4 bc 3d e3 82 ba 7a b5 7d 3c 73 f5 ff 3b
       -0.02791535 -0.0009985935 0.015485162 0.0078112422
000100 6c 24 da bc 5c 4a c8 3c 50 9a c0 bc 0f ac c7 bc
       -0.026628695 0.02444952 -0.023511082 -0.024374036
000110 2b 6f 88 bc 47 38 30 3c 87 70 9e bb c8 a7 4b bc
       -0.016654572 0.010755605 -0.0048351916 -0.012430139
000120 dd 86 d0 3c fe 20 fe 3b ec 1b 83 3c e3 59 cc bb
       0.025454933 0.007755398 0.016004525 -0.0062363013
000130 97 e3 1d 3d 25 9f e8 3c c4 0a 00 bd e5 31 c8 bc
       0.038547125 0.028396199 -0.031260267 -0.024437854
000140 5d 3e ce bc 97 a4 6a 3b 21 cc a9 3c 2f 0c d4 3c
       -0.025176222 0.003580367 0.020727219 0.025884716
000150 54 0a 55 bb 7f 42 66 ba f3 59 6f bc e0 2c ac bc
       -0.0032507377 -0.00087837124 -0.014608848 -0.021017492
000160 75 60 19 bc 05 9f a0 bc fd ed cf bc 66 59 f9 bc
       -0.009361376 -0.019607076 -0.025382036 -0.030438136
000170 34 4c d2 3c 67 03 cf 3c cf 9f ee 3c 77 85 26 ba
       0.025671102 0.025270177 0.029128937 -0.0006352285
000180 cf 89 95 bb be b9 cf 3c c5 e5 35 bc ca e7 f3 3b
       -0.004563547 0.025357123 -0.011102145 0.007443403
000190 ec 39 c6 3c 4a ed 55 bb 84 ce 70 3c cf a1 b2 3b
       0.024197541 -0.0032642656 0.014697675 0.005451418
0001a0 86 28 31 bb 7b 8b 7a bc 16 0c 0a 3b c2 26 9a bc
       -0.002703221 -0.015292044 0.0021064333 -0.01881731
0001b0 d8 74 46 bc aa 6e 8e 3c 2b f9 a8 bc 26 6c 41 bc
       -0.012112819 0.017386753 -0.020626625 -0.01180557
0001c0 5d 7c 1d bb fc 8c 95 3c aa d1 ff bc 96 04 a6 3c
       -0.0024030425 0.018255703 -0.031227905 0.020265859
0001d0 9d c7 f0 3c 91 52 83 bb 4c 09 0a bc b9 b9 eb bc
       0.029392058 -0.0040076454 -0.008425068 -0.028775083
0001e0 ea 42 3e 3c 09 6e ee ba b0 04 8f bc 61 6b 23 bb
       0.011612633 -0.0018190752 -0.01745829 -0.002493583
0001f0 4a ed a1 bb fe 31 d6 bc 69 7c 02 ba 23 cd f1 3c
       -0.004941617 -0.026146885 -0.0004977645 0.029516762
000200 b5 6e c2 3c 31 51 e2 3b ea ee dc 3b 5a 28 62 3a
       0.02373443 0.0069066514 0.006742348 0.00086272287
000210 b7 ef 20 bc 63 4b 12 3c df c6 14 bc c7 76 ac 3c
       -0.0098227775 0.008929106 -0.009080618 0.021052731
000220 65 1e f8 bb 34 d5 2d bc 78 e8 bc bc e1 a4 8e 3c
       -0.0075719827 -0.010609914 -0.023060068 0.017412605
000230 9f 14 be 3b 4e 80 e2 3c 8d ed c6 3c 63 c3 c0 3c
       0.005800798 0.027649071 0.024283195 0.023530668
000240 49 6e 98 3c 3a a8 c6 3c 18 0a 62 bc 2f b7 0b bc
       0.018607276 0.024250139 -0.013796352 -0.008527561
000250 ae 02 c5 3c 59 2d 06 3b e4 64 c5 3c 71 12 17 bb
       0.02404913 0.0020473807 0.02409596 -0.0023051763
000260 57 16 93 ba 60 64 ed bc d5 49 43 3c ab cd b0 bb
       -0.0011221868 -0.028978527 0.011919458 -0.0053956113
000270 8e 35 d2 bc f6 da dc bc d9 00 67 bc 2f bb 92 bc
       -0.025660302 -0.026959877 -0.014099323 -0.017911522
000280 fe 28 f7 bc bc f0 76 bb 57 57 d5 bc b7 1d 5d bc
       -0.030170914 -0.003768011 -0.026042623 -0.013495854
000290 98 95 c7 bb ed 5a 0f 3d 9e 05 ae bc 3b e5 32 bc
       -0.006090831 0.034998823 -0.021242913 -0.010918911
0002a0 b8 4b 7a ba b9 cd 2a 3c 7e 88 07 bb ea 60 a1 bc
       -0.0009548026 0.010425025 -0.002068072 -0.019699533
0002b0 6c ef 29 bb f1 fd 33 3c 90 b6 a9 ba 02 80 d1 bc
       -0.002593006 0.010985837 -0.0012948085 -0.025573734
0002c0 9c 5f 0d 3d 65 a9 8b bc d3 11 91 3b 99 53 d8 bc
       0.03451501 -0.017048547 0.0044271736 -0.02640705
0002d0 2a 00 36 bc 2c 6c 06 3d 29 3e 1e bb 56 02 02 3c
       -0.011108438 0.032818004 -0.0024145937 0.007935127
0002e0 5f 5e bb 3c 91 45 00 3d bd 09 fd 3b a2 bd b2 bc
       0.022872148 0.031316344 0.007722108 -0.02181894
0002f0 d6 26 94 bc b2 1c 79 3c a7 ea e4 3c b8 8a b6 bc
       -0.018084925 0.015204595 0.027943922 -0.022282943
000300 76 94 ef 3c ff 70 13 bc 37 36 a7 3c fc 7c 55 39
       0.029245596 -0.008999108 0.020411594 0.00020359823
000310 20 17 98 3c 41 be 4d bc a4 0b c1 bb 8f 78 bb bc
       0.018565714 -0.012557567 -0.0058912802 -0.022884635
000320 f7 7d 9b 3a 6c c7 44 3b 83 c3 86 3c c0 a0 f7 b9
       0.0011863102 0.0030026091 0.01645065 -0.0004723128
000330 a8 88 19 bc 87 20 79 bc 2b b3 6d 3b 00 1b 8d 3c
       -0.00937096 -0.015205509 0.0036270123 0.017224789
000340 d1 e6 95 3c 19 55 27 bb d4 77 eb 3a 7c a4 70 bc
       0.018298538 -0.00255329 0.0017964789 -0.014687654
000350 38 a8 be b8 c1 41 45 3c 1d 76 b1 3c d5 87 2f 3c
       -9.091239e-05 0.012039603 0.021662766 0.010713537
000360 ce d4 d8 bb 83 fb b9 bc 0d 69 ea 3c 8a 46 44 3c
       -0.006617165 -0.022702938 0.028614545 0.011979708
000370 e4 ba 88 ba 26 ed 03 3c f4 82 44 ba bd 0d 23 3b
       -0.0010431674 0.008052146 -0.000749632 0.0024880015
000380 48 83 f2 3b a0 93 4e bc 10 27 9a bb 96 b1 94 bb
       0.007400904 -0.012608439 -0.0047043636 -0.0045377715
000390 95 4b d3 bb 68 33 ee bb 06 64 3e 3c 8c 3f ab bb
       -0.006448219 -0.0072693117 0.011620527 -0.0052260812
0003a0 ce 5b bd bc 06 6b 72 bc 46 de b6 3b dc b4 cb 3c
       -0.023115065 -0.014796024 0.0055806963 0.024866514
0003b0 12 c3 df bb fb ba f3 3b 6e 65 0d 3b c3 37 cc bc
       -0.006828674 0.0074380613 0.002157535 -0.024928933
0003c0 72 15 b5 39 77 76 2f 3b ec 6f 09 bb 16 d5 da 3c
       0.00034538988 0.0026773491 -0.0020971252 0.026712935
0003d0 ea 83 52 3b 2d 36 ec 3c 92 02 ea 3c dd 6d b9 3c
       0.0032122084 0.028834427 0.028565679 0.022635395
0003e0 07 63 85 bc 4c f1 d1 3c 25 f5 6f bc a0 d4 ce 3c
       -0.016282571 0.025627755 -0.014645849 0.025247872
0003f0 d4 bf 1e 3c 16 e4 b4 3c 8b f0 af 3c 71 ba 1c bc
       0.00968929 0.022081416 0.021477005 -0.0095659355

a2c_network.actor_mlp.2.weight f4 [128, 256]
000000 5c 20 88 3c f4 aa 25 bb b8 e9 7e 3c d5 30 59 bd
       0.016616993 -0.0025278898 0.015558653 -0.053025085
000010 cc 8e c6 bc a8 28 3e 3d c1 b5 81 bd 8e 84 76 bd
       -0.024238013 0.04642549 -0.06333495 -0.060185008
000020 10 11 5f bd 16 1d 6c bd ee a2 53 bd f6 76 0e bd
       -0.05445963 -0.057644926 -0.051669054 -0.03478142
000030 8e c5 5d 3c f0 e1 95 bd 7d 9d 9b bd 93 e8 14 bd
       0.01353587 -0.07318485 -0.07598398 -0.036354613
000040 00 d2 6e bd f4 80 19 3d 8e 72 a7 bc f6 76 de 3c
       -0.05830574 0.037476495 -0.020440366 0.027156334
000050 d2 21 a2 3d 26 1e ea bc c5 47 f3 bb b5 59 74 bc
       0.07916607 -0.028578829 -0.007424327 -0.014913966
000060 ba b1 52 3d 09 29 a6 3c 00 27 aa bc 9b 42 70 3b
       0.051439025 0.020283239 -0.02077055 0.0036660794
000070 86 98 ae bd 2e 9e 04 bd 3c ee 52 bd 70 d8 92 bd
       -0.08525185 -0.032377414 -0.05149673 -0.071701884
000080 aa 1b 41 bd 90 a5 0a bd 7a 4d b8 bc 91 24 20 3d
       -0.047145523 -0.0338493 -0.022497881 0.039097372
000090 ad 94 19 3c 11 95 ab ba 1e 94 3c bc 88 c5 9b 3d
       0.009373826 -0.001309069 -0.011509923 0.076060355
0000a0 22 24 98 bc 6b 80 49 3d ce 8c 38 3d 5a 48 43 bd
       -0.018571917 0.049194735 0.045056157 -0.04767642
0000b0 8e d5 3d 3d ca d0 8a 3c 0d 68 75 bd 7f 35 a6 3d
       0.04634624 0.016945262 -0.059913684 0.08115672
0000c0 6c 3e 8f 3c ae ba af 3d c3 f2 dd 39 29 55 24 bd
       0.01748582 0.08580528 0.00042333276 -0.040120278
0000d0 f6 a8 9f 3d 4f 97 e3 ba d7 b5 60 3d 26 fd b4 bc
       0.077958986 -0.0017363819 0.054860916 -0.022093367
0000e0 74 a6 de 3c 9e 9f f0 bb e6 5c 06 3d df b4 ac 3c
       0.02717898 -0.0073432466 0.03280344 0.02108234
0000f0 ab d2 18 bc ee 3f 8e 3d cc 7e 87 3c 22 a1 c3 bb
       -0.009327571 0.06945787 0.016539954 -0.0059701363
000100 e2 b6 ec 3c 44 c9 26 3c 01 0a 50 bc 64 08 25 3d
       0.0288958 0.010179821 -0.012697698 0.040291205
000110 8c aa 7d bd ee 1f dd bc 9a 9c c5 3c 39 78 c7 bc
       -0.061930224 -0.026992764 0.024122525 -0.024349319
000120 52 6e c5 bc 38 a8 51 3d 0f 7e 41 3c d2 06 fc bc
       -0.024100456 0.051185817 0.01180984 -0.03076497
000130 f9 22 6a 3c 80 b5 05 3d 5c 86 e7 bc 22 51 45 3d
       0.014290565 0.032643795 -0.02826231 0.048173077
000140 41 a7 31 bc 69 6a eb bc 94 15 db bc 01 92 4f bc
       -0.010843099 -0.028737264 -0.026743688 -0.012669087
000150 5b bb 02 3d 8e f6 99 bc 64 ac a0 bd 62 2d 1a bc
       0.031916957 -0.018794324 -0.07845381 -0.009410234
000160 2e ab 5f 3d b5 bd 25 bd 9c 2c 87 3d 05 9a 14 3d
       0.05460661 -0.04046412 0.066003054 0.036279697
000170 7b ba 81 3d 8f 38 a8 bc c6 4f 52 bd 04 e2 93 bd
       0.063343965 -0.020534782 -0.05134561 -0.072208434
000180 74 42 cf 3b f1 b6 a0 bc 52 a6 16 3a ff cd 34 3d
       0.0063250605 -0.019618483 0.00057468296 0.044141766
000190 f6 aa 86 3d 68 d1 b8 bd 71 ce 36 bd 98 25 8c bb
       0.06575577 -0.09024316 -0.04463047 -0.0042769425
0001a0 c6 55 c0 bc b1 97 60 3d 8d 4e 0e bd e7 f8 22 3d
       -0.0234784 0.054832164 -0.03474288 0.039788153
0001b0 26 3e ce bc 96 52 28 3c 12 de bf bc 94 5f 46 bb
       -0.025176119 0.010273596 -0.023421321 -0.0030269371
0001c0 35 59 1f bd 07 c2 af bd 18 6d 4e bc 7b 6a 3b bc
       -0.038903434 -0.0858193 -0.012599252 -0.011438961
0001d0 f4 00 5a bd 98 5f b5 bc 21 8b 5d bd 14 ad 19 bd
       -0.053223565 -0.02214031 -0.05408776 -0.037518576
0001e0 3c 28 9a bd 98 ec 91 3d f4 bd 1c 3c ca be ca 3c
       -0.07527205 0.07125205 0.009566773 0.024749178
0001f0 6c 59 96 bd 13 a5 88 3a 23 50 90 bd 84 c6 08 3d
       -0.073412746 0.0010425173 -0.07046535 0.033392444
000200 1b 80 1e 3d 10 f5 8b bd b1 4d 93 3d b2 42 1a 3a
       0.03869639 -0.06833851 0.07192553 0.0005884572
000210 30 6f 7b bd 69 b3 25 3b 81 95 16 3d 63 06 6d bd
       -0.061385334 0.0025283939 0.03676367 -0.05786742
000220 8f f0 0a 3d 12 a0 18 3d ee df f7 3c d1 cb 10 bd
       0.03392082 0.03726203 0.030258145 -0.035350624
000230 7a cf a1 3c 50 fe 72 3c d8 7f 9b 3d 07 d1 84 bd
       0.019752253 0.014831141 0.07592744 -0.06485181
000240 37 6e 3d bb bb e3 b3 3c 8c 0d 16 bd 21 5d b6 bc
       -0.0028904804 0.021959176 -0.036634013 -0.022261204
000250 3d 3a 48 3d 0b 2a c2 3c d4 9d c1 3b f4 eb 80 bc
       0.048883665 0.023701688 0.005908707 -0.015737511
000260 a7 dd 81 bd 9b 04 34 3d 9e a2 f6 bc a7 bc cb bd
       -0.06341105 0.043949705 -0.030106839 -0.09948092
000270 bf 17 b5 3c 7f 66 04 bd 63 3b aa 3c a5 7f 92 3d
       0.02210605 -0.03232431 0.02078027 0.071532525
000280 98 b5 83 3d 52 b0 ea 3c 2c a8 04 bd 71 a9 e2 b9
       0.06431121 0.02864853 -0.032386944 -0.00043232323
000290 74 16 cc 3c 81 71 15 bd 7a e7 43 3d 16 71 53 3d
       0.02491305 -0.0364852 0.047828175 0.05162152
0002a0 47 65 8a bd 2a 6c 0f bc 2e 05 1c bd 20 48 97 3c
       -0.06757598 -0.008753816 -0.038090877 0.018467009
0002b0 dd d4 ba 3c 72 65 5d bd 4c b0 47 3c ec a0 28 bc
       0.02280658 -0.054051824 0.012188029 -0.010292273
0002c0 4b bf 3c 3d a3 26 55 3d ef 5e 7a 3c be 90 74 bd
       0.04608087 0.0520388 0.015281423 -0.05970835
0002d0 06 3f db 3c d0 37 1f bd f1 e9 97 3c 87 6c c1 bc
       0.02676345 -0.038871586 0.01854417 -0.02361132
0002e0 15 0d 61 3d 08 41 d9 bb 1e 8c ee 3b e0 96 17 bd
       0.054944117 -0.006630067 0.007279887 -0.03700912
0002f0 93 b7 14 3d b6 e2 3f bc 77 48 a9 3c c8 12 9a 3c
       0.036307883 -0.011711767 0.020664437 0.018807784
000300 9d fc 5a bd 40 aa 43 bd a8 71 05 3d 16 4c 11 bd
       -0.053463567 -0.047769785 0.032579094 -0.03547295
000310 55 23 94 bd 25 15 a0 3d 05 92 c2 bc 79 d2 f0 bc
       -0.072333016 0.07816533 -0.023751268 -0.029397236
000320 4c 82 ad bd e2 eb 19 3d 40 74 c1 bc c0 f8 a9 3c
       -0.08472118 0.03757847 -0.023615003 0.020748496
000330 22 c5 9d 3b 0b a2 a0 3a 39 3c 4c bb dd f6 86 3d
       0.00481476 0.0012255324 -0.0031163825 0.06590054
000340 a4 f4 d4 3c cc 77 11 3c ec e8 9d bd 86 ca 55 bd
       0.02599556 0.008878659 -0.07710442 -0.052195095
000350 a7 39 81 3c a4 29 08 3c 58 cc 2e 3c ba 94 89 bc
       0.015774561 0.008310709 0.0106688365 -0.016794551
000360 d0 41 24 3d 0f ff 45 3d fb 67 0c bd cc 43 23 3c
       0.040101826 0.048338946 -0.03427885 0.0099648945
000370 6c f8 05 bd 87 1b 8b 3d de de 91 bc a2 c4 8f bc
       -0.032707617 0.0679236 -0.017806467 -0.017549817
000380 9d 0d 76 3d 99 ea 2a bd 66 b9 ab 3c e7 09 08 bd
       0.060071576 -0.041727636 0.020962428 -0.03321257
000390 ee 3b 90 bd 43 5e 02 3d 83 8a b4 ba 12 85 c4 bd
       -0.07042681 0.031828176 -0.001377419 -0.09595694
0003a0 cb 91 6b bd 4f 6d 72 bc c3 d1 19 3d e7 77 ea 3c
       -0.057512086 -0.014796569 0.03755356 0.028621627
0003b0 4f 6d d9 3a c8 42 05 3d c6 a8 aa bd 48 41 56 3d
       0.0016588363 0.03253439 -0.08332972 0.05230835
0003c0 ab e8 50 3c cd 00 fb bb b7 09 6c 3c c1 50 46 3c
       0.012750785 -0.0076600076 0.014406613 0.012104214
0003d0 53 ea fa 3a 49 7f bb 3c b9 c9 8d 3d b3 58 af 3d
       0.001914332 0.022887843 0.06923241 0.0856184
0003e0 55 9e 54 bc f2 9c ab 3c d0 ae 0f 3d 46 b8 d0 bc
       -0.012977202 0.02094886 0.035078824 -0.025478493
0003f0 68 05 60 3d 91 9b 88 3c 4c c4 84 3d d1 b4 21 ba
       0.054692656 0.016675742 0.06482753 -0.00061686063

a2c_network.actor_mlp.2.bias f4 [128]
000000 83 fc 6a bc e5 8e 04 3d ee a8 a0 bc 16 89 21 3d
       -0.01434243 0.032362837 -0.019611802 0.039437376
000010 b2 77 0e bd cb 88 14 bc c3 39 d6 bb 33 84 9d 3c
       -0.03478212 -0.009065817 -0.0065376475 0.019228077
000020 a0 c9 03 bd 68 bd 32 3b b6 56 d5 3b 62 81 02 3d
       -0.032174706 0.002727354 0.006510581 0.03186167
000030 36 d7 0e 3d cb b1 f2 bc 0a 6a 0e 3d e9 55 03 3d
       0.03487321 -0.029625794 0.034769095 0.032064352
000040 05 15 17 bd 76 99 31 bb ca 6c 88 3c e5 5e 04 bd
       -0.03688528 -0.0027099526 0.016653437 -0.03231706
000050 95 0d ba 3a a3 ed 56 3c e1 c2 2b 3c 45 c3 40 3c
       0.0014194722 0.01311818 0.0104834745 0.011765306
000060 8c 46 d8 3c d9 ee 16 3d 7f 00 21 bc 59 b5 15 bd
       0.026400827 0.036848877 -0.009826778 -0.0365499
000070 f5 2d 18 3d e3 7d b9 bb c7 9f 04 bd 94 27 44 bb
       0.037153203 -0.005660759 -0.032378938 -0.0029930817
000080 33 79 0a 3d 25 27 1e bb da a0 14 3c 4c 14 32 3d
       0.03380699 -0.0024132219 0.009071553 0.043476388
000090 e8 6d 02 bd 88 2d 11 bc c1 28 f4 3c 62 03 f8 bc
       -0.031843096 -0.008860953 0.02980459 -0.03027505
0000a0 2c 9b 85 bb cc 1b 55 bc e4 de a5 3b 5f 17 49 bc
       -0.004077336 -0.013007116 0.005061971 -0.0122736385
0000b0 93 b4 68 3c e5 fb c1 bc 3c 5e f3 bc 61 b1 0a 3c
       0.0142032085 -0.023679683 -0.02970802 0.008465142
0000c0 95 d1 f1 3a d4 15 4b bc c3 59 81 ba bd 9c 26 3d
       0.0018449301 -0.012395341 -0.000986867 0.04067682
0000d0 7e f5 9e 3b dc 5a b5 3b 7b f9 85 bb ea 38 fd 3c
       0.0048510423 0.005534513 -0.0040885783 0.030910928
0000e0 89 65 e8 ba 45 e5 f6 bc d5 a0 04 bd 0e f4 da 3c
       -0.0017730455 -0.030138621 -0.032379944 0.026727702
0000f0 3a 0a df 3c c3 91 d4 3c 8d bc c9 3c 8f 32 17 3d
       0.027226556 0.02594841 0.02462604 0.03691345
000100 05 85 1b 3d fe b0 50 3c e6 af 15 3d 30 28 2c 3c
       0.037968654 0.012737511 0.036544703 0.010507628
000110 29 87 7a 3b 0d 9e 22 3d e6 dc 88 3c 62 f8 98 bc
       0.0038227534 0.03970151 0.016706895 -0.018673126
000120 90 2c 09 bd f7 fd c0 bc de 5c 62 3c aa fb f4 3c
       -0.033489764 -0.0235586 0.013816087 0.029905159
000130 41 5d d8 3b a9 35 c2 b9 30 5d 13 3d 1a 47 ff bc
       0.0066029136 -0.00037042543 0.035977542 -0.031161834
000140 27 33 2d 3c fb 6b 07 bd 97 e2 d7 bb d9 19 14 bb
       0.010571278 -0.033061963 -0.006588291 -0.0022598414
000150 b5 78 04 bd 57 1c 1a 3d 47 18 1b bd 2e 64 64 bc
       -0.032341678 0.037624683 -0.03786495 -0.0139399
000160 a6 76 14 3d 76 94 f9 3a 29 0a f0 3c 2b f4 1f bc
       0.036245964 0.0019041437 0.02930172 -0.009762804
000170 9c 1a f5 3c a7 7b df 3b c2 4f ba 3c f8 17 ca bb
       0.029919915 0.0068201604 0.02274311 -0.006167408
000180 82 bd 7a 3c 53 ba fc bc 7e d7 db 3c 93 fc d4 bc
       0.015303971 -0.030850565 0.026836153 -0.025999343
000190 92 c6 c2 bc 45 c0 b5 3c d8 18 f9 3c e8 f2 4c 3c
       -0.023776326 0.022186408 0.030407354 0.012509085
0001a0 ee 5d cb 3c 78 56 2e 3d cd 92 31 bb 5b 1b 88 ba
       0.024825063 0.04256293 -0.0027095557 -0.0010384129
0001b0 b4 e2 f8 bc f2 e2 0a bd df f8 2b 3d 0d c4 e9 bc
       -0.030381538 -0.03390784 0.04198539 -0.028535867
0001c0 e5 33 75 bc 43 a8 97 3b 48 75 80 b7 8c f9 19 3d
       -0.014965986 0.0046282127 -1.5313402e-05 0.037591502
0001d0 62 ab dd 3b e6 3b 45 ba 5a 65 ce bc 45 22 3c bb
       0.006764815 -0.0007523879 -0.025194813 -0.002870695
0001e0 03 0d 0d bc 01 7e 17 bd 28 3a 26 3c 54 62 b8 bc
       -0.008609059 -0.0369854 0.0101457015 -0.022507824
0001f0 1c 20 9d bb 54 b4 d4 bc 3d 97 0a 3d 31 0b 8b 3b
       -0.0047950875 -0.025964893 0.03383564 0.0042432775

a2c_network.actor_mlp.4.weight f4 [64, 128]
000000 39 3b 40 3d 7c f9 ac 3c 07 45 39 bd ca db f6 3d
       0.04693148 0.021115057 -0.045231845 0.1205364
000010 48 67 1d 3a c0 60 86 3c 02 60 88 bc 50 60 63 bc
       0.0006004465 0.016403556 -0.016647343 -0.013877943
000020 c1 c2 d3 bd 3d b5 6f 3d ed fb b2 bd 21 60 c6 3d
       -0.10339881 0.05852245 -0.08739457 0.09686304
000030 47 0c ea 3d c8 60 75 3c aa 47 00 3e 39 f7 c1 bc
       0.11428123 0.014976688 0.12527338 -0.023677455
000040 f4 81 c6 bc db 59 91 3d 61 10 b2 bd ed 59 ec bd
       -0.024231888 0.07097217 -0.0869453 -0.115405895
000050 42 81 72 3d df ec 69 3d bf 17 d5 3c 8b a4 94 3c
       0.0592053 0.057110664 0.0260123 0.018144866
000060 f2 dd 92 3d 6c e8 c6 3d eb 7d 4a bd a3 90 ec bd
       0.07171239 0.097123 -0.04943649 -0.11551025
000070 d4 63 eb 3d 95 20 b2 bc 5f 4e fd bc 6d e9 7a bc
       0.1149365 -0.021744052 -0.03092116 -0.015314442
000080 0d 64 6d 3d b9 77 1f 3d 9e 55 c7 3d 73 09 ca 3c
       0.057956744 0.038932536 0.09733127 0.024662709
000090 0f 01 44 bc 1a 70 bd bd 71 fe b3 3d db da c2 bc
       -0.011963143 -0.09249897 0.08788765 -0.023785999
0000a0 7c ab d4 3d 8b 05 5e bd 2a b7 7b bb 94 26 90 3d
       0.103842705 -0.054204505 -0.0038408735 0.07038608
0000b0 cb 7a b0 bd aa 0e 82 bd 1a 47 f7 bb 96 ae 61 bd
       -0.08617171 -0.06350453 -0.0075463178 -0.05509814
0000c0 b7 31 8a bd 08 b3 5d 3c 33 2a b7 3d 9a eb 3f 3d
       -0.067477636 0.013531454 0.08943596 0.046855547
0000d0 3b 19 67 bd ff e4 68 bd b8 0b 37 3b 60 13 77 3d
       -0.056420546 -0.056859013 0.002793057 0.06032121
0000e0 42 56 cd bd 71 a3 67 3d 64 a8 08 bd 0d 0d c5 3d
       -0.10026218 0.056552354 -0.033363715 0.0962163
0000f0 55 0a 3c 3d bd ce 4f bd c1 3b a1 3d 6f c3 e3 bc
       0.04590829 -0.05073427 0.07872725 -0.027803151
000100 65 04 62 3d 30 66 c1 bc d9 70 1b bd 0f a9 55 39
       0.055179972 -0.023608297 -0.037949417 0.00020376242
000110 a9 26 de bc 32 db ac 3d d3 74 12 bd f5 25 ae bd
       -0.027118044 0.08440246 -0.035755944 -0.085033335
000120 5b a8 dd bd fc b2 8d bd 1e da d0 3d c4 08 f1 3d
       -0.10823127 -0.06918904 0.101978526 0.1176925
000130 ba 2f 95 3c 69 0c d2 bd 6f c2 4f 3d 93 07 95 bd
       0.018211234 -0.10256273 0.050722536 -0.07276835
000140 a5 11 ca 3c 27 a4 4b 3d f2 f4 73 3d 04 7c 2a bc
       0.024666617 0.049717095 0.05955977 -0.010405544
000150 4e e1 48 bd e3 41 1f 3a fa 9e a8 bd b8 4a 1b bd
       -0.049042992 0.00060751865 -0.082334474 -0.037913054
000160 af 69 86 3d 6c d2 36 3d 71 f8 b7 3c f3 5d f2 3d
       0.06563126 0.044634268 0.022457333 0.11834326
000170 81 26 80 3d cf d2 89 bd 7c d8 f7 3d 0d 76 49 bd
       0.06257344 -0.06729662 0.12101838 -0.049184848
000180 e7 2d 13 3a 93 13 a9 bd 53 a0 89 3d 56 59 95 bc
       0.0005614445 -0.082556866 0.067200325 -0.018231075
000190 3d 1c ea bc ca 47 b2 ba 7a 93 e7 bc 73 63 e7 bc
       -0.028577918 -0.0013601717 -0.028268564 -0.028245663
0001a0 b8 ce 6c 3d 82 60 4a 3a 8e 95 43 bd 5b 5a b1 3d
       0.05781433 0.0007720069 -0.04775005 0.08659812
0001b0 b8 6b d3 bc 54 58 30 3c 06 d1 a6 3d e4 a9 97 bd
       -0.0258082 0.010763247 0.08145337 -0.07405451
0001c0 78 12 de bb b9 4c e8 bd 8e 46 c1 3b 12 8d cb 3d
       -0.006777104 -0.11342759 0.0058983034 0.099390164
0001d0 d3 d8 b9 bd 06 2c 98 3c a5 a5 74 bd 59 1f 65 3d
       -0.09074559 0.01857568 -0.059728283 0.0559381
0001e0 dd 0a 1e 3d ac 5f 82 bc 09 b5 13 3c 4a 6c af bb
       0.03858458 -0.01591476 0.00901533 -0.0053534852
0001f0 ee 0f 6a bc 3f 04 c1 bd 87 b1 d6 3d d5 4c 8e 3c
       -0.0142860245 -0.09424638 0.104830794 0.01737062
000200 31 c7 de 3b 59 2b 40 3c a0 f8 0f bd 57 ff c7 bd
       0.006798648 0.011729085 -0.035149217 -0.09765499
000210 5f dc 83 3d e6 2a 2f bd 54 a1 4b bc 87 96 6b bd
       0.06438517 -0.04276552 -0.0124286 -0.0575166
000220 a1 f4 98 3d 10 27 4d bd 52 0c b8 3c dc 9c b1 bb
       0.07468534 -0.05008608 0.022466812 -0.0054203104
000230 37 f5 86 3d 66 67 c1 3d 69 a2 84 3c e4 63 8d bc
       0.0658974 0.0944355 0.016190724 -0.017259546
000240 d4 42 5f 3d e2 ec ab 3c 6a 58 ac bd 25 1d 58 3b
       0.05450709 0.020986978 -0.08415301 0.0032976356
000250 9e c1 4a 3d 08 90 af bd 3d c5 5e bd 29 de 56 bd
       0.049501054 -0.08572394 -0.05438732 -0.052457962
000260 fe d6 8d 3d cc 07 a8 bd 73 20 2a 3c bc 05 69 bd
       0.06925772 -0.08204612 0.010383713 -0.056890234
000270 f6 2c 6a 3d 53 c8 3e bd 92 a3 38 3d fa ee 1b bd
       0.057171784 -0.046577763 0.045077868 -0.038069703
000280 76 91 0f bd 3e ab 34 ba bb bd f7 ba 13 20 8b bd
       -0.03505083 -0.0006891972 -0.0018901149 -0.06793227
000290 08 4f 84 bd 1f 7c 85 bd 7e b3 46 bd 6f 45 67 3d
       -0.064603865 -0.06517815 -0.04851102 0.0564627
0002a0 68 28 fd 3c 7b 5d 43 bd 24 54 42 bd 15 d7 a5 3d
       0.030903056 -0.04769657 -0.047443524 0.08097664
0002b0 63 c7 ce bd 6b 19 81 3d 0e 1f 0d 3c 42 0d a4 bd
       -0.10096624 0.06303676 0.008613361 -0.08010341
0002c0 79 8b fc 3c 46 12 9c 3d 1a e0 37 3d b6 c1 15 bd
       0.030828224 0.07620673 0.044891454 -0.03656169
0002d0 20 94 2d bd 08 26 82 3b 43 f9 65 bd 99 d9 fd 3c
       -0.04237759 0.003971819 -0.056145918 0.030987548
0002e0 99 2c 5b bd d8 5a ce 3a a1 d8 28 bc c0 9d 63 3d
       -0.05350933 0.0015743626 -0.010305555 0.055570364
0002f0 7a 81 bf bd 98 50 84 bd 8a ab 2e 3d ea b6 30 bd
       -0.093508676 -0.064606845 0.04264406 -0.04314319
000300 0c 30 71 3d e3 e8 a3 bd 43 42 51 3c 4c ae 63 3c
       0.05888371 -0.08003404 0.012772146 0.013896536
000310 d5 a5 ca 3d e5 fb 51 3d ca 8f 95 3c df 04 94 bc
       0.09894911 0.051265616 0.01825704 -0.018068729
000320 0f ce cd 3c 14 d2 91 3d 54 99 75 bd 87 fe bf bd
       0.02512267 0.07120147 -0.05996068 -0.09374719
000330 43 5c d1 3a 71 dd a0 bd 08 b5 97 3b e4 0b 0d 3c
       0.0015972931 -0.078547366 0.004629735 0.008608792
000340 d0 47 4f 3d a8 8c 90 3d 85 f2 98 bd 58 6f b3 3d
       0.050605595 0.07058078 -0.07468132 0.087614715
000350 7c e9 6c bd ca 5d b8 bd 8e 98 7d bc 16 ff 19 3d
       -0.057839856 -0.09002264 -0.015478266 0.037596785
000360 e8 e1 60 bc d7 5b 4b bc fa 68 cd b9 db 8c 92 bc
       -0.013725735 -0.012412033 -0.0003917886 -0.01788943
000370 2c 12 1a bd 17 93 16 3d fa ad 8c 3c d2 08 5e bc
       -0.037614986 0.03676137 0.017172802 -0.013551908
000380 92 91 9d 3c f5 f4 79 3d aa 2f 21 bc 3d 03 cc bc
       0.019234452 0.061024625 -0.009838024 -0.024903888
000390 2f 64 8e 3d c5 ed 28 bb c1 8f 64 3d 65 8a 89 3d
       0.06952702 -0.0025776487 0.055801157 0.0671585
0003a0 61 5b cd bd 65 77 ff bc b1 3d 9c bd 14 fa c4 3c
       -0.10027195 -0.031184861 -0.07628954 0.024045028
0003b0 d6 4c 7c 3d ca d7 3c 3d b4 3a 15 bd 88 e6 01 3d
       0.061596714 0.04610423 -0.036432937 0.031713992
0003c0 95 4a 93 3d 96 3d 46 bd 9a eb 2d 3d ab ad 51 bc
       0.0719196 -0.048398577 0.042461015 -0.012797753
0003d0 af 4a 88 3c 1b a4 9f bc d9 53 5b 3d e0 41 54 3d
       0.016637174 -0.019487431 0.05354676 0.051820636
0003e0 8c 87 ad 3b f8 9f 51 3c a7 fb a8 bd f1 00 bc bd
       0.0052956995 0.012794487 -0.08251124 -0.09179867
0003f0 29 ca 8a bc e4 89 6e bd 31 5a 71 bc 90 f0 7f 3d
       -0.0169421 -0.05823697 -0.014730976 0.062485278

a2c_network.actor_mlp.4.bias f4 [64]
000000 88 56 1f 3d 51 24 ca bc d7 42 ed bc ff 6f f0 bc
       0.038900882 -0.02467552 -0.028962536 -0.029350279
000010 b2 28 bf 3c ff a2 69 bc 79 db 83 bb 07 c7 11 3c
       0.023334835 -0.014260053 -0.004023966 0.0088975495
000020 4c d8 c3 3b 62 e7 0f bd 3d 99 e0 bc 6b cf 04 3d
       0.0059767123 -0.035132773 -0.02741682 0.03242437
000030 57 d0 66 bc 4a 2e 00 bd 03 fb 0a bd 42 f3 b5 3c
       -0.014087758 -0.031294145 -0.03393079 0.02221072
000040 5b 10 31 bc 9b c6 04 3d 57 30 d7 3c 3d a4 c8 bc
       -0.010807122 0.032415967 0.026268167 -0.024492377
000050 12 64 8a 3c 18 85 d4 bc ae 5d 08 bc 4c 9a 81 bc
       0.01689342 -0.02594237 -0.008323116 -0.015820645
000060 a9 c6 00 3d fd 3a 31 bc 81 09 80 3b b9 c3 11 3d
       0.031439457 -0.010817287 0.003907383 0.035587046
000070 35 4d e3 bc f0 20 da bb 6f 56 2a 3d 67 3c 83 bb
       -0.027746776 -0.0066567585 0.041586336 -0.0040050033
000080 ba 3c f3 3c 35 6d f9 bc d4 88 0a bd 79 a2 2a bc
       0.029692043 -0.030447582 -0.033821896 -0.010414713
000090 ea b8 93 bc ed 7d b9 bc 98 88 e0 3c bd d0 01 bd
       -0.01803251 -0.022643054 0.027408883 -0.03169321
0000a0 0b 07 0b 3d 6a 6f 00 bd d8 9e ac 3c 3a a2 93 ba
       0.033942264 -0.031356253 0.021071836 -0.0011263557
0000b0 3b 97 d6 3c 9c a0 7f 3c 92 24 d5 3c a2 d8 cc 3c
       0.02619516 0.015602257 0.026018415 0.025005642
0000c0 c8 93 9d 3c 3a 83 74 bc c2 40 1b 3d b6 a5 c2 bc
       0.019235507 -0.014923865 0.037903555 -0.023760658
0000d0 23 a2 07 bd e6 aa d7 3c 93 36 76 3c 72 12 dd 3c
       -0.03311361 0.026326608 0.01502766 0.026986334
0000e0 28 d2 39 3c 02 2e 8b 3c 5c a0 95 bc 00 7c a2 3c
       0.011341609 0.016989712 -0.018264942 0.019834518
0000f0 9c cd 6c bc 3c fe dd ba 80 1e f6 bc ff e3 6e bc
       -0.014453318 -0.001693673 -0.03004384 -0.014580726

a2c_network.value.weight f4 [1, 64]
000000 7c 67 9b bd 53 96 ab 3d 3d f0 d0 3d a3 39 ff 3c
       -0.075880975 0.083782814 0.10202072 0.031155413
000010 85 3d 7f 39 7a 9a c4 3d 50 bf 95 3d ec 59 a4 3c
       0.00024341613 0.095997766 0.073118806 0.02006241
000020 37 6d 3e 3d f8 f2 c3 3d 18 8f dc 3d de df 8e bd
       0.046490874 0.09567827 0.107694805 -0.06976293
000030 92 3a 2e 3d a7 9b 01 3e 4a fc a1 3d 34 53 b9 bd
       0.042536326 0.12657033 0.079094484 -0.09049073
000040 9c 83 0d 3e c0 47 eb bd 2a 3f 84 bd dc 43 19 3d
       0.13819736 -0.114882946 -0.0645736 0.03741823
000050 d5 8a 75 bd 02 a1 76 3d 74 c9 97 3c 4f ca 1a 3e
       -0.059946854 0.060212143 0.018528678 0.15116237
000060 de 84 f8 bc 18 58 f8 3d 82 bc 05 3d 2f 27 02 be
       -0.030336794 0.121261775 0.03265048 -0.1271026
000070 1d df b4 3d fc 7c e0 3d 63 b6 02 be 78 a3 34 3d
       0.08831618 0.10961339 -0.12764888 0.04410121
000080 ad 3d 84 bd 87 49 be 3d c3 b0 8c 3d 45 07 80 3d
       -0.06457076 0.09291368 0.06869652 0.062513866
000090 f5 48 0b 3e 28 0f 11 3e 10 89 a1 bd a2 b2 eb 3d
       0.1360205 0.14165938 -0.07887471 0.11508681
0000a0 4d 27 1c bd 74 1a 0c 3e dd 08 01 be 99 cb b1 bb
       -0.038123418 0.13681966 -0.12601037 -0.005425882
0000b0 7a 9b b6 bd 41 af 17 be c1 cc 0a be 12 28 eb bd
       -0.089163736 -0.14812948 -0.1355467 -0.11482252
0000c0 37 50 27 bd 74 f4 d2 3d 9c e2 15 be 09 8f a7 3d
       -0.040847983 0.10300532 -0.14637226 0.08181579
0000d0 0e 7e c2 3d 8e 30 62 bd e5 06 aa ba c9 d1 68 bd
       0.09496699 -0.055222087 -0.0012972025 -0.05684069
0000e0 98 bc 65 bd bd b5 a8 bd b5 73 df 3d e1 2a b9 bd
       -0.05608806 -0.08237789 0.10910741 -0.090413816
0000f0 c1 27 db 3d a2 46 83 3d 45 60 03 3e 41 5e a4 3c
       0.10700942 0.064099565 0.12829693 0.020064475

a2c_network.mu.weight f4 [24, 64]
000000 7f a4 94 bd 6d 51 eb bc ea 7d 18 bd c3 92 c1 bd
       -0.07257938 -0.02872535 -0.037229456 -0.09451821
000010 cb 8a 07 bd 94 89 f5 3d 70 8c 03 3d c4 61 d3 3d
       -0.033091348 0.119891316 0.032116354 0.10321382
000020 d0 91 02 3d 51 4e 5b 3d ee cf e5 bd 11 e9 94 3c
       0.03187734 0.053541485 -0.112213 0.018177541
000030 8c fc 72 3d 5c a4 84 bc 8a df 7a bd 5f b7 0e bc
       0.05932288 -0.016191654 -0.06124834 -0.008710711
000040 ee b6 b2 bd 28 ec 95 3d 8b e2 1a 3d c2 b9 ea bd
       -0.08726297 0.07320434 0.037813704 -0.11461212
000050 8f 3f 3e 3d 57 7e 04 be 7b e9 18 3d f7 9c 9d bd
       0.046447333 -0.1293882 0.03733204 -0.07695954
000060 1a 1a b7 bd f6 8b f9 3c 01 b5 3e 3c 84 17 fc 3d
       -0.08940525 0.030462246 0.011639834 0.12309173
000070 89 0f 96 bd cc 4b 0d 3e d2 72 4c 3d 87 f0 19 3d
       -0.07327182 0.13798445 0.04991419 0.0375829
000080 16 4b 24 3d 2b 69 6e 3c c4 1a 4f 3d ac 4a 9e 3c
       0.04011067 0.014551441 0.050562635 0.019322716
000090 1d af ba 3d 41 5c f2 bd e1 86 06 bd 1d a5 77 bd
       0.091154315 -0.11834002 -0.032843474 -0.0604602
0000a0 8c 59 7d bd 8c 3d e1 bd 6c 53 a1 bd 2d f1 cd 3c
       -0.061852977 -0.10998067 -0.078772396 0.025139416
0000b0 30 3d ff bc 6e e2 cf bd 06 f7 93 3d 49 48 ce 3d
       -0.031157106 -0.1015061 0.0722485 0.10072381
0000c0 5f 01 7b 3d 80 e2 6e bd ec 42 15 3e ba 7a 0f bc
       0.061280604 -0.058321476 0.1457631 -0.008757288
0000d0 11 c9 b9 bc 0e 63 96 3c 07 13 fa 3d 4a 4f 1b bd
       -0.022678884 0.01835778 0.122106604 -0.037917413
0000e0 bd 52 bc bd fd b7 0a 3d cb 6a ac bd b5 4b 6a bd
       -0.091954686 0.03386687 -0.08418807 -0.057201106
0000f0 72 7a 10 3c 7a c0 f7 3d 95 72 79 bd ba 73 c7 bc
       0.008818256 0.12097259 -0.06090029 -0.024347175
000100 36 4d e0 bd f9 17 88 3d ec 24 c7 bd 31 b3 2c 3b
       -0.10952227 0.066451974 -0.09723839 0.0026351924
000110 d7 e9 19 3d e2 11 c8 bc 0c 5d 58 3d 34 74 76 3c
       0.037576523 -0.02442259 0.05282311 0.015042353
000120 17 71 50 bd d5 cd d1 bd e3 4e ed 3d 9c d1 d5 bd
       -0.0508891 -0.102443375 0.11587312 -0.104403704
000130 4b 3d 4f bd 6b 69 81 3d e2 e9 ab bc 8c d6 28 bd
       -0.050595563 0.06318935 -0.020985547 -0.041220233
000140 da d1 09 3d f8 7f 7c bc 70 f4 6b 3d 66 92 4c bd
       0.033647396 -0.0154113695 0.05760616 -0.049944304
000150 33 f6 02 3c 0d 51 ed bd 46 ad 9a bc 74 e6 d7 3d
       0.007993269 -0.11587725 -0.018881451 0.10542002
000160 bd 9b 6b 3d d8 da 5d 3c 90 08 06 3d fe a3 e6 3d
       0.05752157 0.013540946 0.03272301 0.11261748
000170 aa 7e d3 bc 73 96 ae 3d 61 fd db 3d b9 a6 3b bc
       -0.025817234 0.0852479 0.107416876 -0.011453324
000180 33 b9 6d 3d 80 3b 1e 3d 34 cf 38 bd 6a 07 ab bd
       0.058037948 0.038630962 -0.04511948 -0.083510235
000190 a8 71 ee bc 1a d3 c5 3d 6e cb 80 3d 6f f8 c7 3d
       -0.02910693 0.09659405 0.06288801 0.09764182
0001a0 b2 67 99 bd f6 56 ea bd bf f3 1c bd 3e 3d e2 bd
       -0.074904814 -0.11442368 -0.038318392 -0.11046837
0001b0 07 37 b0 3d 39 06 08 bd 16 3a 9b bd 62 77 96 bc
       0.08604246 -0.03320906 -0.075794384 -0.018367473
0001c0 8d 33 d2 bc ab 82 94 3c 34 25 89 3d 33 2c aa bd
       -0.025659347 0.018128714 0.06696549 -0.083092116
0001d0 eb 61 4e 3d d2 8f 7c 3b d2 42 a4 3d d3 12 27 3b
       0.05038635 0.0038537872 0.080205575 0.0025493398
0001e0 0c c9 3c 3d c3 69 f2 bd 03 85 a8 3d e1 ad 96 3d
       0.04609017 -0.11836579 0.08228495 0.073573835
0001f0 6a 31 ea 3d ed b4 03 3d 32 af ef 3a b3 a6 01 3e
       0.11435206 0.032154966 0.0018286465 0.12661247
000200 9d ef 73 bd 29 7c 2e bd 0b 53 18 3b c3 d9 cd bd
       -0.059554685 -0.042598877 0.0023242857 -0.100513004
000210 ed 53 ec 3d 68 6c c0 3d 0c 46 d6 3d 98 b6 a4 3d
       0.11539445 0.09395677 0.10462579 0.080426395
000220 de 3a 81 3d 01 72 27 3a 99 2a 2e 3d 93 99 46 3d
       0.06310056 0.00063875323 0.042521093 0.048486304
000230 d4 36 43 bc 30 6d e8 bc 85 be 96 bc 71 37 dd bd
       -0.0119149275 -0.028372377 -0.018401394 -0.1080159
000240 3d 76 84 3d 7f 80 0e 3e ad 21 5e 3d 15 1a 0a bc
       0.06467865 0.13916205 0.054231334 -0.00842907
000250 14 76 91 bc 71 db 00 be 05 ee 13 be 69 e7 b5 bd
       -0.0177565 -0.1258371 -0.14446266 -0.088820286
000260 6b af 39 bd 20 68 c5 bd be 56 46 3d 2c 15 21 3e
       -0.045333307 -0.09639001 0.048422568 0.15730733
000270 e3 c8 5f bd 5a e8 da 3d 7d 6e d1 3d 21 85 bb 3d
       -0.05463494 0.10688849 0.10226152 0.09156252
000280 79 17 c0 3d 56 0f 93 3d 94 20 a0 3d 7a a9 3f bd
       0.09379477 0.071806595 0.07818714 -0.046792485
000290 e4 41 0e 3c 7f 06 62 3d 3b 7a 91 bd b2 2a d3 bd
       0.008682702 0.055181976 -0.07103392 -0.10310878
0002a0 03 5f da 3d 31 d6 b1 bd 0f 9c a8 bd a7 3f 30 3b
       0.10662653 -0.08683432 -0.08232891 0.0026893409
0002b0 c4 b1 b7 3c 27 ec 3e bd 89 89 72 bd b1 a9 b6 bd
       0.022423632 -0.04661193 -0.059213195 -0.08919085
0002c0 93 f0 4d bd 2c 84 07 3e 98 17 86 3d 17 c3 cc bd
       -0.050278258 0.13234013 0.06547469 -0.09998148
0002d0 5b 96 a7 3d 9f 18 a6 3d 3a 4d 42 3d a7 6f ed 3c
       0.08182975 0.08110165 0.04743693 0.028983904
0002e0 bd f4 c8 bd 31 dd 5e bd 20 b3 e6 3d 64 ad b7 bd
       -0.09812305 -0.054410163 0.11264634 -0.089686185
0002f0 d5 28 0f 3d bf fa db 3d 9a 12 d8 bd 46 5c 90 bc
       0.03495105 0.107411854 -0.10550423 -0.017622124
000300 b6 39 a1 3d 33 45 c4 3d 0f ba c5 bd 64 e4 c6 bd
       0.078723356 0.09583511 -0.096546285 -0.09711531
000310 d0 e1 65 3d 2d d4 81 3d 99 61 06 3e 79 93 bb 3d
       0.056123555 0.063392974 0.13123168 0.091589876
000320 46 62 06 3e 19 a2 be 3d ca 1e 84 bd 32 55 d5 3d
       0.13123426 0.093082614 -0.06451185 0.1041664
000330 82 d2 b9 3d d8 7c a7 bd 11 c8 92 bd 81 e3 a2 3c
       0.09073354 -0.08178109 -0.07167066 0.019883873
000340 b4 51 ba 3d fd 26 6d 3d 9b 3c 57 bd d0 ba ff bd
       0.09097615 0.05789851 -0.052548032 -0.124868035
000350 45 45 a1 3c 00 dd d6 bd 4a d4 5e 3b 6e cd c8 3c
       0.01968635 -0.10491371 0.0034001046 0.024512019
000360 44 43 16 3e e5 ae e9 3d 02 e3 18 3e f4 74 f5 3d
       0.14674097 0.114103116 0.14930347 0.11985198
000370 5d 25 fe bd 9c 20 fc 3d 7d d5 0a 3e 42 4d c5 3d
       -0.1240947 0.12310907 0.13558002 0.096338764
000380 40 6f 01 3d 7c 14 d3 bd 46 7f 06 be ea ae 11 3e
       0.031600237 -0.103066415 -0.13134488 0.1422688
000390 a9 bf ad 3c bd 63 f2 bd 6a 57 e4 3d 98 29 a8 3d
       0.021209555 -0.1183543 0.111494854 0.082110584
0003a0 8e 6d 61 3d 45 7a 3b 3d 66 26 0e be ef 52 00 bd
       0.05503612 0.045770902 -0.13881835 -0.03132909
0003b0 df 99 dd bd 0f 5c 03 be 3e 1d 11 3d 40 7e cc bc
       -0.10820364 -0.12828086 0.03542828 -0.024962544
0003c0 23 52 28 bc 1a dd 08 3d 42 5c cc 3d 36 d6 9e 3d
       -0.010273489 0.033413984 0.09978534 0.07755701
0003d0 b9 b3 c5 bd 0e 3c aa 3d 4a dd 02 3c 7a b1 ce 3d
       -0.0965342 0.08312236 0.00798733 0.10092445
0003e0 31 dc b0 bd a8 7e df bd af b2 22 3d 34 3c 40 bd
       -0.08635748 -0.1091283 0.039721187 -0.046932414
0003f0 a4 0a 2b 3d 05 c8 d2 3b 3d 53 73 bd 35 94 e8 bd
       0.041758195 0.0064325356 -0.059405554 -0.11356393

a2c_network.mu.bias f4 [24]
000000 7c c8 9e 3c 36 a1 1f bc c6 d4 8b 3c 57 ad dd 3c
       0.019382708 -0.0097430255 0.017069232 0.027060194
000010 97 fd d8 3c b6 c8 b5 3a 18 df 04 3d 19 a0 cc 3c
       0.026488109 0.0013869021 0.03243932 0.024978684
000020 9d 3b af bc db 07 da 3c 37 fa b2 ba e7 f2 2b bc
       -0.02139073 0.026615074 -0.0013654892 -0.010494924
000030 1b 2d 97 bb 31 3b f6 bc 0e 0d 38 3b ab f9 af 3c
       -0.0046135313 -0.030057522 0.0028083953 0.021481356
000040 f3 9d af bc 67 1c ab bc e6 28 ee 39 56 4a 85 bc
       -0.02143762 -0.020887567 0.0004542537 -0.016270798
000050 45 b5 69 3c 75 ea 46 3c 09 2c 3c bc 61 92 a7 bb
       0.014264409 0.01214086 -0.011485108 -0.0051138853

exp_avg f4 [24]
000000 96 09 53 3b 77 7c 59 bb 51 a0 78 3b dc 0f b9 bc
       0.0032201759 -0.003318576 0.0037937353 -0.02259057
000010 a1 aa 06 3c 9b 52 a9 bb db 41 a8 3a 8a 38 5a bb
       0.008219392 -0.005167318 0.0012837009 -0.003329786
000020 8d 64 90 bb 02 bb 90 bb 4d 60 41 3b 70 fe 3a 3b
       -0.004406518 -0.0044168243 0.0029506863 0.0028533004
000030 ef ed af bb 0d e3 05 bc 51 cb 3e bb 4f 93 13 bc
       -0.00536894 -0.008171809 -0.0029112885 -0.009007289
000040 75 fb d9 bb 8b 96 03 bc c9 28 9c bb 96 3a 7a 3c
       -0.0066522905 -0.008031498 -0.004765604 0.015272757
000050 47 17 80 3c e7 cb c9 bb eb 9a 0a 3d 67 fc 70 bb
       0.0156361 -0.0061583403 0.033839148 -0.0036771537

exp_avg_sq f4 [24]
000000 f4 30 f4 39 a2 e5 00 3a 73 df db 39 8b 3a e9 39
       0.0004657578 0.00049170305 0.00041937418 0.0004448484
000010 8f d2 df 39 af df e0 39 63 8d bc 39 ee e3 d3 39
       0.00042690753 0.00042891267 0.00035963496 0.00040414877
000020 52 6c e0 39 c8 fe be 39 fb 3b c6 39 14 82 e8 39
       0.00042805314 0.0003642945 0.00037810192 0.00044347404
000030 00 a5 c5 39 7f 55 d3 39 ec c1 d8 39 74 d0 d2 39
       0.00037697703 0.00040308756 0.00041343214 0.0004020963
000040 07 fb c9 39 26 67 c6 39 b5 31 be 39 08 ef e3 39
       0.00038524737 0.00037842355 0.0003627666 0.00043474906
000050 23 ab e0 39 b2 fc 02 3a 79 88 f0 39 c1 c4 dd 39
       0.00042852116 0.0004996761 0.00045878047 0.00042298998
