runs/lift_30-15-45-11/nn/last_lift_ep_350_rew_-1105.7711.pth (torch, 654733 bytes, 36 tensors)

value_mean_std.running_mean f8 [1]
000000 c1 40 5e 6f 42 93 97 c0
       -1508.8148779608748

value_mean_std.running_var f8 [1]
000000 be 46 92 0d d2 91 55 41
       5654344.212052999

value_mean_std.count f8 []
000000 00 00 00 00 04 e0 15 41
       358401.0

running_mean_std.running_mean f8 [39]
000000 00 00 00 00 00 00 00 00 2c 60 10 39 f7 ff f7 3f
       0.0 1.4999916295109967
000010 8e f2 a7 c4 c4 cc f4 3f 8a d5 15 4c f4 ff df 3f
       1.2999923402668716 0.4999972098369986
000020 4a d7 44 c3 8f 99 d9 3f 0e 13 f6 23 2b 33 07 40
       0.3999976546214056 2.8999846276732404
000030 8a d5 15 4c f4 ff df 3f 71 1c 04 b1 1d c5 fb 3f
       0.4999972098369986 1.735624019116383
000040 8a d9 42 2b 11 ba 00 40 8a d5 15 4c f4 ff df 3f
       2.0908530597473076 0.4999972098369986
000050 07 79 34 fe 8b 24 e1 3f b1 f8 7c 0f 8c 24 e1 3f
       0.5357112851086477 0.5357113173011127
000060 00 00 00 00 00 00 00 00 8a d5 15 4c f4 ff ef 3f
       0.0 0.9999944196739972
000070 00 00 00 00 00 00 00 00 00 00 00 00 00 00 00 00
       0.0 0.0
000080 00 00 00 00 00 00 00 00 00 00 00 00 00 00 00 00
       0.0 0.0
000090 00 00 00 00 00 00 00 00 00 00 00 00 00 00 00 00
       0.0 0.0
0000a0 eb 51 66 36 d0 40 79 bf 3e 9b fc 1d 01 d8 4a 3f
       -0.006165326433251721 0.0008192067579998253
0000b0 6a 4c 21 f3 b0 9e 23 40 00 00 00 00 00 00 00 00
       9.809943769278295 0.0
0000c0 00 00 00 00 00 00 00 00 00 00 00 00 00 00 00 00
       0.0 0.0
0000d0 00 00 00 00 00 00 00 00 00 00 00 00 00 00 00 00
       0.0 0.0
0000e0 00 00 00 00 00 00 00 00 00 00 00 00 00 00 00 00
       0.0 0.0
0000f0 00 00 00 00 00 00 00 00 00 00 00 00 00 00 00 00
       0.0 0.0
000100 00 00 00 00 00 00 00 00 00 00 00 00 00 00 00 00
       0.0 0.0
000110 00 00 00 00 00 00 00 00 00 00 00 00 00 00 00 00
       0.0 0.0
000120 00 00 00 00 00 00 00 00 00 00 00 00 00 00 00 00
       0.0 0.0
000130 8a d5 15 4c f4 ff bf 3f
       0.12499930245924964

running_mean_std.running_var f8 [39]
000000 14 79 e8 54 d4 67 d7 3e cd c9 63 b4 57 04 f3 3e
       5.580326002645073e-06 1.813598944351031e-05
000010 ab 97 38 aa fa 7a ef 3e 82 53 50 46 c7 41 dd 3e
       1.5011018439880225e-05 6.97539971829676e-06
000020 6f cf fd 27 84 26 db 3e e7 ad 05 94 db 87 0b 3f
       6.473172675092747e-06 5.251063203356634e-05
000030 82 53 50 46 c7 41 dd 3e 0e 25 e9 44 af a2 fa 3f
       6.97539971829676e-06 1.664717930967814
000040 60 5f 25 49 5a db f5 3f 82 53 50 46 c7 41 dd 3e
       1.3660529000535107 6.97539971829676e-06
000050 4c 4e 5b b1 f1 41 de 3f e7 0c fd ae 12 9e dd 3f
       0.4727749092100779 0.4627730091926438
000060 14 79 e8 54 d4 67 d7 3e 8a f1 43 0d d0 67 e7 3e
       5.580326002645073e-06 1.1160620865251881e-05
000070 14 79 e8 54 d4 67 d7 3e 14 79 e8 54 d4 67 d7 3e
       5.580326002645073e-06 5.580326002645073e-06
000080 14 79 e8 54 d4 67 d7 3e 14 79 e8 54 d4 67 d7 3e
       5.580326002645073e-06 5.580326002645073e-06
000090 14 79 e8 54 d4 67 d7 3e 14 79 e8 54 d4 67 d7 3e
       5.580326002645073e-06 5.580326002645073e-06
0000a0 86 9a 78 ef e7 34 f0 3f 71 18 b8 39 54 97 ee 3f
       1.0129165033664846 0.9559727790190334
0000b0 a4 47 ce 76 b5 c7 41 3f 14 79 e8 54 d4 67 d7 3e
       0.0005426059775450643 5.580326002645073e-06
0000c0 14 79 e8 54 d4 67 d7 3e 14 79 e8 54 d4 67 d7 3e
       5.580326002645073e-06 5.580326002645073e-06
0000d0 14 79 e8 54 d4 67 d7 3e 14 79 e8 54 d4 67 d7 3e
       5.580326002645073e-06 5.580326002645073e-06
0000e0 14 79 e8 54 d4 67 d7 3e 14 79 e8 54 d4 67 d7 3e
       5.580326002645073e-06 5.580326002645073e-06
0000f0 14 79 e8 54 d4 67 d7 3e 14 79 e8 54 d4 67 d7 3e
       5.580326002645073e-06 5.580326002645073e-06
000100 14 79 e8 54 d4 67 d7 3e 14 79 e8 54 d4 67 d7 3e
       5.580326002645073e-06 5.580326002645073e-06
000110 14 79 e8 54 d4 67 d7 3e 14 79 e8 54 d4 67 d7 3e
       5.580326002645073e-06 5.580326002645073e-06
000120 14 79 e8 54 d4 67 d7 3e 14 79 e8 54 d4 67 d7 3e
       5.580326002645073e-06 5.580326002645073e-06
000130 d7 f6 fe 83 73 c5 d7 3e
       5.667518109873327e-06

running_mean_std.count f8 []
000000 00 00 00 00 08 e0 05 41
       179201.0

a2c_network.sigma f4 [24]
000000 49 27 d1 3b 82 73 28 3c e6 b1 47 3d 97 b8 91 bc
       0.006382857 0.010281445 0.04875364 -0.017788215
000010 61 d7 17 bd f1 1f 56 bd 34 7f a8 bd 6a b3 d7 bd
       -0.037070636 -0.052276555 -0.08227387 -0.105322674
000020 36 7e 7c bd 4b bd 00 3c fc 23 ff bc 00 65 88 3d
       -0.0616438 0.007857631 -0.031145088 0.06659889
000030 11 32 21 bd b4 da 95 bb 8d 2c 5a 3c 87 c4 43 bd
       -0.039354388 -0.0045731906 0.013316286 -0.047794845
000040 64 a0 e3 bb 53 ca 8b bd d9 bf d8 bc 47 b2 32 bc
       -0.0069466103 -0.068257 -0.026458668 -0.010906762
000050 b0 6d bb bd 0a 63 0f bc a6 b8 93 bd 5e 3a 8c 3c
       -0.091517806 -0.00875164 -0.07212953 0.017117675

a2c_network.actor_mlp.0.weight f4 [256, 39]
000000 38 d9 4e bd e7 0d 51 3d 3b 76 11 bd 89 aa 9b 3d
       -0.050500125 0.05103865 -0.035513144 0.076008864
000010 67 2a 1b 3e f2 64 cd 3d d9 6f 7b bd c6 87 98 3d
       0.15152894 0.100290194 -0.061385963 0.07447772
000020 ef d3 96 bc 94 30 b8 3d f9 34 f5 bd 56 64 28 be
       -0.018411605 0.089936405 -0.11972994 -0.16444525
000030 75 68 7d bd 1a a6 ea bd 76 8b 06 3e 58 ea 3c 3d
       -0.061867196 -0.114574626 0.13139138 0.046121925
000040 94 d6 87 3d 51 6e 4f 3d 5c 8e 36 bb 43 53 00 3e
       0.066327244 0.050642315 -0.002785585 0.12531762
000050 8f cc f5 bd 39 80 2b 3c ae cf d0 bd 50 3e 4a 3d
       -0.12001907 0.010467582 -0.10195862 0.049375832
000060 09 e0 61 bd 4b f9 48 3d e5 a5 08 bd 14 ff 07 3e
       -0.055145297 0.04906587 -0.033361334 0.13280898
000070 43 5f c2 bd 8f 95 c3 bd 95 98 c3 bd 94 7b 13 3e
       -0.09490826 -0.095500104 -0.09550587 0.1440261
000080 0a 93 5a 3d 0b c8 1d 3e 51 52 07 be 9f a3 22 be
       0.053362884 0.15408342 -0.13214995 -0.15882729
000090 ff 48 00 be 72 9a dc bd 05 e8 96 3d 46 db 6a 3d
       -0.12527846 -0.107716456 0.07368473 0.05733802
0000a0 ce a0 da 3d 54 59 df bd ab f9 09 be 12 fb 72 3d
       0.10675202 -0.1090571 -0.13474147 0.05932147
0000b0 cc 03 bb bd 4e a5 92 3d df 9b 74 bd d8 4d 5c 3d
       -0.091315836 0.071604356 -0.059718963 0.053785175
0000c0 2b 98 19 be 6c 23 aa bd 9d 5e d5 3c b5 a8 0a 3d
       -0.14999454 -0.083075374 0.026046092 0.033852298
0000d0 5f de 88 bd fa 79 c3 3d 34 f0 de 3d ac d0 ed bd
       -0.06683039 0.095447496 0.10885659 -0.116120666
0000e0 fa 13 af bd 68 24 16 3e 1f 51 5d bd b4 c4 80 bd
       -0.08548732 0.14662325 -0.05403244 -0.06287518
0000f0 20 53 19 be 52 44 f3 bd ab d7 23 3d 08 25 ad bc
       -0.14973116 -0.118782654 0.0400006 -0.021135822
000100 80 0c ee bd 83 28 76 3b ec 02 e0 bd d6 1c 0b be
       -0.11623478 0.0037560768 -0.10938057 -0.13585219
000110 ed 95 b4 bd 75 82 0f be 3d d0 d0 bd 37 e8 23 3e
       -0.088176586 -0.14014609 -0.10195968 0.16006552
000120 ae c2 f7 3c 07 1e 4a 3d f2 ee 18 be 4e 62 d7 bd
       0.030244198 0.049345043 -0.149349 -0.10516797
000130 ab 50 5a bd 5b 82 9f b9 22 48 10 be a8 c1 aa bd
       -0.053299587 -0.00030423966 -0.14090016 -0.08337718
000140 aa 9a e1 bd 24 1a 70 bc ba cf 98 bd 77 5c ce bc
       -0.11015828 -0.01465467 -0.07461496 -0.025190575
000150 10 25 fd bd 91 d4 d6 bd 3c 5d 70 bd 0a 2d 8f bd
       -0.12360585 -0.104897626 -0.058682665 -0.069910124
000160 3b fe f5 bd 1f c2 08 3e 68 2b 02 bd dc 13 fc 3d
       -0.12011381 0.13355301 -0.031779677 0.123084754
000170 ab 5c 4c 3d b0 d9 0a be 9d f2 e2 3d 9d 76 34 bd
       0.049893063 -0.13559604 0.11081431 -0.04405843
000180 f3 6a 7b bd 90 1b 08 be 12 85 1b be f9 d4 5e 3d
       -0.06138129 -0.13291764 -0.15187481 0.054402325
000190 6c 05 47 bd e5 59 7f 3d b0 90 06 be 5a 79 f3 3d
       -0.048589155 0.06234159 -0.13141131 0.1188838
0001a0 35 ba f0 bd f7 81 e2 bc 96 fe 08 3d 06 4d a9 3d
       -0.11754266 -0.027649863 0.033445917 0.08266644
0001b0 2b 60 04 3e 00 5f 15 3e 34 04 02 be 94 10 25 3d
       0.1292731 0.14587021 -0.12696916 0.040299013
0001c0 7a 0e 8d bd 03 c0 8f bc 30 76 f5 bd c7 5a 15 3e
       -0.06887527 -0.017547613 -0.11985433 0.1458541
0001d0 07 09 08 be ed 44 af 3d 32 41 a6 3d da 98 9d 3d
       -0.13284694 0.085580684 0.08117904 0.0769517
0001e0 a3 bc 7f bd 32 d6 2d 3e 9f 3d 77 3d a8 3c 37 3d
       -0.062435757 0.1697624 0.0603615 0.04473558
0001f0 4a 31 f3 bd 26 bb c4 3d d8 bc ef 38 73 9c 94 bd
       -0.118746355 0.09606008 0.00011431583 -0.07256403
000200 f2 2c 18 3e 8f 3a 12 3d d6 1f 83 bd 04 fc a5 bd
       0.14860895 0.035700377 -0.064025566 -0.08104709
000210 fa 93 fa bb 41 1c b7 3d cc 99 27 bd a0 1d bb bd
       -0.0076470347 0.08940936 -0.040918157 -0.0913651
000220 65 9a 60 bd 23 38 ec bd 77 f2 5a 3d 7d 38 19 3e
       -0.054834742 -0.11534145 0.05345389 0.14962955
000230 7f 5e 1a be 68 54 18 3d 91 69 a9 3d c5 dc ed 3c
       -0.1507511 0.03718987 0.08272088 0.029035935
000240 a7 93 69 bd bf 2a ab 3d 8c 56 ac 3d d3 40 75 3d
       -0.057025578 0.083577625 0.08414945 0.059876274
000250 8b 81 e6 bc dd ad 2d bd 97 55 8c 3c c1 ba e7 bc
       -0.028137943 -0.042402137 0.017130656 -0.028287293
000260 53 74 43 bd 81 9f d1 3d b3 ea 0c 3e 52 b6 03 3c
       -0.047718357 0.10235501 0.13761406 0.008039074
000270 bf d9 12 bd 6f cc 28 bc 0f 58 b5 bc 0b fa d2 3c
       -0.03585219 -0.010302647 -0.022136716 0.025753995
000280 3d 84 03 3d ac bf 21 be 9f 1e 93 bd 89 93 12 3e
       0.032108534 -0.15795773 -0.07183575 0.14314093
000290 a1 82 b1 3d a4 a1 a9 bc 66 38 9e bd c1 81 a1 bd
       0.086674936 -0.02070696 -0.07725601 -0.07886077
0002a0 47 e1 12 be b0 d1 84 bd bd 7e 5d 3d 6b 1a d1 3d
       -0.14343749 -0.06485307 0.054075945 0.10210117
0002b0 00 69 97 3d ff f0 10 be 58 36 c5 bd e4 04 cf bc
       0.07393074 -0.14154433 -0.09629506 -0.025270887
0002c0 48 e5 1d 3e ae 05 b0 3c aa c9 5c bd bf ac 87 3d
       0.15419495 0.021487083 -0.05390326 0.066247456
0002d0 80 d0 79 bd 3a 43 d4 bd 6b 5c ef 3d b3 1d 95 bd
       -0.060989857 -0.10364385 0.11687549 -0.07281055
0002e0 ad 7b 03 bd 89 1e 23 be 75 7b db 3d e7 75 f8 3d
       -0.03210037 -0.15929617 0.10716907 0.12131863
0002f0 3b 09 6f 3d 72 aa e4 bd 6a d4 21 be 8a 2c 05 be
       0.058358412 -0.11165322 -0.15803686 -0.13005272
000300 f8 8b f4 3d 72 72 9d 3d 3e cd f9 3d 96 cc ab 3d
       0.119407594 0.07687844 0.1219735 0.08388631
000310 ca fe dd 3c ff b9 76 bc f4 d7 09 be d7 a9 19 be
       0.027099032 -0.015058993 -0.13461286 -0.15006195
000320 a1 62 27 be 1b ed 57 3d ab 1c cf bd 0b 8e 8b bd
       -0.16346218 0.052716356 -0.1011289 -0.06814202
000330 25 04 d7 bd b1 22 3c bd 86 d7 04 be 61 48 d6 bd
       -0.104988374 -0.04593152 -0.1297284 -0.10463024
000340 37 87 23 3d 37 ed 42 bd fa 73 ca 3d e3 69 52 bd
       0.039923873 -0.047589507 0.09885402 -0.051370513
000350 5d 91 f0 bd 7f 72 e7 bc 21 f8 9e bd a6 15 6e bd
       -0.11746476 -0.028252838 -0.077621706 -0.058126114
000360 b8 9b 11 be aa a5 9a 3d a5 50 e4 bd 66 d4 a4 3d
       -0.14219558 0.07551129 -0.11148194 0.08048324
000370 ab d0 94 3d f6 4a ea 3d 86 8c fb bd eb da eb 3d
       0.07266363 0.11440079 -0.12282662 0.11516365
000380 0b 09 9b bd f1 60 73 3d df fc 19 3e 57 00 b9 bc
       -0.07570084 0.059418622 0.15037869 -0.02258317
000390 f9 4f a2 ba 37 01 17 bd d7 e9 08 be 6a 61 9d 3d
       -0.0012383453 -0.036866393 -0.13370453 0.07684596
0003a0 f4 c6 22 be 54 b7 b1 3d f1 5f f5 3d a2 a9 1f 3e
       -0.15896207 0.08677545 0.1198119 0.15592054
0003b0 c9 7f 08 bd 20 0c 02 be c2 2b 26 3d 5c 31 be 3d
       -0.03332499 -0.12699938 0.040569074 0.09286758
0003c0 17 86 1e be d9 a0 47 bd a8 ba a5 bd a8 9a 1a bc
       -0.15480839 -0.04873738 -0.080922425 -0.009436287
0003d0 5c 33 b0 bd 58 79 19 bd 6b 37 50 bd d2 32 17 be
       -0.08603546 -0.037469238 -0.0508341 -0.1476548
0003e0 25 8a 06 3e 52 76 09 3e ad c6 cd bc 16 63 95 bc
       0.13138635 0.13424042 -0.02511915 -0.018235724
0003f0 00 d7 85 bd 89 13 14 be 32 45 13 be 30 d4 89 3d
       -0.065351486 -0.14460577 -0.14381865 0.06729925

a2c_network.actor_mlp.0.bias f4 [256]
000000 44 83 d7 bb 52 64 14 bd 39 c7 d7 bb fe c7 0a 3d
       -0.0065769274 -0.036228485 -0.0065850285 0.033882134
000010 c1 de 5e bb c5 19 c4 bc b7 d0 89 3a 43 0a 87 3c
       -0.0034007283 -0.02393807 0.0010514472 0.016484385
000020 f6 fb a7 bc f3 b4 b4 3c f7 05 81 3b cf 41 ae 3b
       -0.020505887 0.02205894 0.0039374786 0.0053179036
000030 f8 f3 20 3c 69 f7 c0 3b 61 53 09 bd 5c 62 07 bd
       0.009823792 0.0058888686 -0.033526782 -0.033052787
000040 aa a0 0d bc 24 86 4d 3c 50 c6 12 bc f7 6d 84 3b
       -0.008644262 0.012544189 -0.008958414 0.004041429
000050 c4 ce 8f b9 2e d4 b3 bc 21 6e bf bc c5 a8 95 bc
       -0.00027429138 -0.021951761 -0.023367943 -0.018268952
000060 0b 0c 47 bd 3d 96 3b 3c b3 47 de 3b 1e 4c fe 3a
       -0.04859547 0.011449394 0.0067834496 0.0019401347
000070 d3 67 0d 3d 2a 94 51 3c 9d 6c b9 3b 10 7f 77 bb
       0.034522843 0.012791673 0.0056586997 -0.0037764944
000080 ec 15 03 3d 2c bb e2 bb be ec 86 b9 8a c2 05 bd
       0.03200333 -0.0069192853 -0.00025734858 -0.03265623
000090 b2 de ec bc ac 7b 25 bd 70 e6 5c 3c a7 f6 47 3c
       -0.028914783 -0.040401146 0.013482675 0.012204803
0000a0 1b 27 3d bc 8b 49 87 bc d6 87 2c bd db c9 92 bc
       -0.011544968 -0.01651456 -0.04212173 -0.017918518
0000b0 af 93 94 bc b2 e4 64 b9 82 02 02 bd e8 0f a1 3c
       -0.018136827 -0.0002182897 -0.031740673 0.019660905
0000c0 44 02 26 bd 5a 37 8d bc a2 7c 05 bc d2 0d 1b 3d
       -0.040529504 -0.017238308 -0.008147391 0.037854977
0000d0 a7 25 44 3c d1 c4 8a 3c 59 a4 cc bc 01 d1 a4 bb
       0.011971868 0.016939553 -0.02498071 -0.005029798
0000e0 7e ee 7c bb 65 6c 44 3c 56 bf 69 b9 3e 7c cb bc
       -0.00385943 0.011988734 -0.0002229189 -0.024839517
0000f0 fb aa 18 bd 5e f3 6d bc d5 08 b6 3c 43 e1 62 3c
       -0.037272435 -0.014523355 0.022221008 0.013847652
000100 02 b5 fd bc 81 ba b2 3c 34 42 df bc 5d 80 f7 bc
       -0.0309701 0.021817448 -0.027253248 -0.030212576
000110 7d b8 15 bc 28 34 31 3c 78 07 57 bc 2e e8 52 bc
       -0.009138224 0.010815658 -0.013124339 -0.012872739
000120 94 47 a9 3c 41 ac 4f 3c f1 ab c9 3c 5f 16 e4 bb
       0.020664014 0.012675346 0.02461812 -0.0069606747
000130 ea 4a 3b 3d 0f da 20 3d fe 3b 2b bd a5 31 d3 bc
       0.04572574 0.039270457 -0.04180526 -0.025780508
000140 78 57 dd bc 16 4d 28 3b 97 eb 85 3c 7c fa fd 3c
       -0.027019247 0.0025680712 0.01634769 0.03100323
000150 06 f6 ae 3b e8 03 97 3b 9d 13 15 bc 28 fa fa bc
       0.005339387 0.00460862 -0.009098914 -0.030636862
000160 94 c5 59 bb d5 12 9a bc e3 73 ea bc 14 e6 13 bd
       -0.0033229338 -0.018807808 -0.028619712 -0.03610809
000170 4f 3f 00 3d cb 76 e8 3c 70 6f 14 3d 5f 7a 26 3c
       0.031310376 0.028376957 0.036239088 0.0101610115
000180 97 48 45 bc 68 74 d1 3c 31 b1 63 bc b9 e1 45 3c
       -0.012041233 0.025568202 -0.013897226 0.012077742
000190 80 e2 d7 3c 6c fc f3 bb 07 18 8f 3c ba d3 00 3a
       0.02635312 -0.0074458625 0.017467512 0.0004914362
0001a0 51 c4 c4 bb fd e4 a2 bc 05 87 14 bb fb 8d 17 bc
       -0.006004848 -0.01988458 -0.0022663486 -0.009250159
0001b0 a9 4f c8 bc 80 ff df 3c 50 b4 b1 bc e8 09 b5 bc
       -0.024452047 0.027343512 -0.021692425 -0.02209945
0001c0 c4 08 21 bc 28 39 ed 3c 74 05 0c bd 7a ac c7 3c
       -0.00982875 0.028957918 -0.034184888 0.024374235
0001d0 12 3e 06 3d 78 29 21 ba f7 0c a0 bc 55 f4 11 bd
       0.03277404 -0.0006147842 -0.019537432 -0.035633404
0001e0 ec 87 6e 3c 66 23 a7 3b 6a a4 ce bc 67 d8 99 3a
       0.0145587735 0.0051006554 -0.025224883 0.0011737467
0001f0 c9 63 00 bc 4e 95 eb bc 32 06 06 3a 64 96 03 3d
       -0.007836291 -0.028757717 0.00051126175 0.032125846
000200 04 e5 0c 3d 1f 1d 4b 37 54 3b a0 3b bf cd 34 bc
       0.034398094 1.2106523e-05 0.004889885 -0.011035382
000210 7e 58 0d bc 07 56 85 3c a9 c4 91 bb 1b 98 d7 3c
       -0.008627055 0.016276373 -0.0044484925 0.026317647
000220 54 3c f3 3b 72 6a d0 bc 67 58 cc bc c8 4d 8a 3c
       0.007422963 -0.025441382 -0.024944497 0.016882792
000230 f2 76 96 3b 53 64 00 3d a4 63 01 3d 4b 73 0c 3d
       0.004591816 0.031345677 0.031589165 0.03428964
000240 a9 27 da 3c 11 a7 bf 3c f9 ce c3 bc 0f 69 5b bb
       0.02663024 0.023395093 -0.023902403 -0.0033479368
000250 51 e4 e0 3c 51 ce 4b 3b d7 ab d3 3c 43 2f 42 bb
       0.02745262 0.0031098316 0.025838776 -0.002963022
000260 1f d4 48 3c fb b5 fd bc cc 68 95 3c 6a 04 d4 bb
       0.012257605 -0.030970564 0.018238448 -0.0064702528
000270 da bb 0f bd d3 70 d2 bc c5 9a 97 bc b2 23 e5 bc
       -0.03509126 -0.025688564 -0.018506417 -0.027971122
000280 60 a4 23 bd d1 d6 66 39 dc 97 e0 bc c6 7a 43 bc
       -0.039951682 0.00022014535 -0.027416162 -0.011931127
000290 cb 78 86 ba a3 ee 14 3d b0 4d ef bc 47 70 63 3b
       -0.0010259388 0.036360394 -0.029211849 0.0034704374
0002a0 9b 01 c4 bb 4b c9 4c 3c 7b 73 e0 bb af f3 75 bc
       -0.0059816367 0.012499164 -0.006849704 -0.015011712
0002b0 72 8a e4 3b 60 d4 97 3c 5e 4e 4e 3c 17 08 eb bc
       0.006974512 0.018533885 0.012591926 -0.028690381
0002c0 24 c0 14 3d 88 14 8d bc 89 0f 69 3b 1c 4e 06 bd
       0.036316052 -0.017221704 0.0035562238 -0.032789335
0002d0 78 4f e5 bc 20 31 22 3d 74 c7 66 bb 91 af a0 bb
       -0.027991995 0.03959763 -0.0035214098 -0.0049037416
0002e0 25 c1 cb 3c 23 e4 0a 3d 1c df e4 3b 36 72 ca bc
       0.024872372 0.033908974 0.0069846045 -0.024712663
0002f0 59 61 d7 bc c2 83 95 3b 48 b6 05 3d 25 97 a4 bc
       -0.026291536 0.004562826 0.03264454 -0.020091603
000300 7b 2b 22 3d 5f d8 80 bc 83 e6 ef 3c f5 ab 0e ba
       0.039592247 -0.015728174 0.029284721 -0.0005442494
000310 a5 72 00 3d 6c f0 b6 bc 95 c5 60 bc 2e 1e cc bc
       0.031359334 -0.022331439 -0.013718982 -0.024916735
000320 1c 6c 68 3b 3c ba 2f bc a8 21 e8 3c 21 cc a0 3a
       0.0035464829 -0.010725554 0.028336361 0.0012267866
000330 6a 02 81 bc b4 e0 d3 bc ff 28 9b bb 32 a5 c0 3c
       -0.015748221 -0.025863983 -0.0047351117 0.023516271
000340 de d2 a6 3c c2 7c e2 bb aa 94 79 3b fa 87 58 bc
       0.020364221 -0.006911845 0.0038082995 -0.013216013
000350 40 e8 d6 ba 3a f9 65 3c ca e1 d7 3c 15 1d dc ba
       -0.001639612 0.014036471 0.026352782 -0.0016793335
000360 12 ef 4f bc 16 68 fa bc 24 81 22 3d 66 d1 a1 3c
       -0.012691276 -0.03056721 0.03967394 0.01975317
000370 a4 ff 9e 3a 86 a3 67 3c 2a 12 e9 39 78 c1 6d 3c
       0.001213063 0.014138108 0.00044454756 0.014511459
000380 ce 38 0e 3c 13 12 48 bc bd 1d 78 bb d1 14 09 bc
       0.0086805355 -0.0122113405 -0.0037859522 -0.008366779
000390 d0 f3 08 bc 81 de 66 bb 05 d6 fd 3b 45 d6 17 bc
       -0.008358911 -0.0035227838 0.0077464604 -0.009267394
0003a0 c2 2e d4 bc a9 30 8f bc 9c 67 ef 3b 0f 2c e3 3c
       -0.025901202 -0.017479258 0.0073060524 0.02773097
0003b0 58 a7 f3 bb 2b c2 66 3c 15 0b 6b 3b 32 39 16 bd
       -0.0074357204 0.014084379 0.003586476 -0.03667564
0003c0 0f 1a 48 bb 0e 6c 0a 3c 80 a3 27 3c 91 d3 de 3c
       -0.003053311 0.008448614 0.0102318525 0.027200492
0003d0 6f 10 b0 bb 1d a2 1f 3d 55 c0 00 3d d5 ad 97 3c
       -0.005373053 0.038972963 0.031433422 0.018515507
0003e0 37 26 30 bc 86 e9 e8 3c 45 87 d0 bc 82 63 f7 3c
       -0.010751299 0.028431665 -0.025455127 0.030198816
0003f0 86 84 8c 3b 02 c4 ce 3c 8d 02 b4 3c 17 04 21 bc
       0.004288259 0.025239948 0.021973873 -0.009827635

a2c_network.actor_mlp.2.weight f4 [128, 256]
000000 ee 76 34 3c 46 01 4a bc 96 3d 52 3c 55 a6 4b bd
       0.011014683 -0.012329405 0.012832066 -0.049719173
000010 6f ff e0 bc f6 d6 2d 3d d5 7b 8b bd ea 76 84 bd
       -0.02746555 0.04244133 -0.068107285 -0.064679936
000020 92 af 50 bd 75 1c 72 bd 8a 87 68 bd 9a 3e d7 bc
       -0.050948687 -0.05910917 -0.056769885 -0.026274968
000030 85 74 85 3c e7 87 9b bd e4 60 a1 bd 70 1f 39 bd
       0.016290912 -0.07594281 -0.078798085 -0.045195997
000040 a6 ae 54 bd a0 b5 0a 3d 66 02 9c bc 9b 26 a6 3c
       -0.05192437 0.033864617 -0.019044112 0.02028208
000050 1c 3c 87 3d 89 9b f7 bc 20 e3 4a bc 93 8c 79 bc
       0.06603262 -0.030225532 -0.012383252 -0.015231269
000060 9a 72 3d 3d a6 4d ba 3c 90 d2 44 bc 56 4d 0c 3c
       0.04625187 0.022742104 -0.012013093 0.00856336
000070 f2 7e 9d bd b5 61 19 bd af 1e 68 bd 65 9d 9a bd
       -0.076902285 -0.037446696 -0.056669887 -0.07549552
000080 fa ac 57 bd de 57 18 bd 99 9a 87 bc f1 87 2f 3d
       -0.052655198 -0.03719317 -0.01655321 0.042854253
000090 1b 32 75 3c 06 62 e6 bb dc 23 2e 3b 5c b0 89 3d
       0.014965559 -0.0070307283 0.0026571667 0.06723091
0000a0 19 ff d6 bc 46 c2 5a 3d fa d9 21 3d bf 37 30 bd
       -0.026244687 0.05340793 0.03951452 -0.043021914
0000b0 2c 8c 4d 3d 5e 41 50 3c 20 df 57 bd ba 37 94 3d
       0.050182506 0.012710897 -0.052703023 0.072371915
0000c0 4b db 39 3c 83 c3 a9 3d 77 9c 43 bc 8e b6 0e bd
       0.011343787 0.08289244 -0.01193916 -0.034842066
0000d0 ac ca 88 3d c7 d1 89 3b 00 c6 73 3d 33 bb e7 bc
       0.066792816 0.0042059156 0.059515 -0.028287506
0000e0 6c c0 e0 3c b3 b5 6b bc 97 5d c1 3c 4b b1 d2 3c
       0.027435504 -0.014386582 0.023604197 0.025719306
0000f0 e7 8d 84 bc 94 d2 8d 3d 45 da b8 3c d1 c8 c1 3a
       -0.016180946 0.0692493 0.022565017 0.0014784579
000100 ef 4d c9 3c e6 d2 3a 3c 7d 6b f2 bb 83 c7 09 3d
       0.024573294 0.011402821 -0.0073980675 0.033637535
000110 28 9d 85 bd 38 28 e8 bc 97 7b bd 3c 2c 4e b7 bc
       -0.06524116 -0.02833949 0.023130221 -0.022376142
000120 a8 0a f9 bc bf e9 27 3d 3e 0a 93 3c 67 a2 16 bd
       -0.03040059 0.040994402 0.01794922 -0.036775973
000130 31 f7 04 3c 4f 30 12 3d 7b 83 f3 bc 44 10 35 3d
       0.008115576 0.035690602 -0.02972578 0.044204965
000140 17 30 d9 bb 1a 4d 07 bd 7c 29 07 bd 26 c5 8e bc
       -0.006628047 -0.033032514 -0.032998547 -0.017427992
000150 86 41 22 3d 48 6c 90 bc 6d 73 9d bd 39 69 70 bc
       0.03961327 -0.017629758 -0.07688031 -0.014673525
000160 a3 63 60 3d af 90 1b bd 3c 2f 93 3d db 9a 20 3d
       0.05478252 -0.037979778 0.071867436 0.03921018
000170 03 38 86 3d ec 52 8f bc f2 5d 2d bd f9 0b 86 bd
       0.06553652 -0.017495595 -0.04232592 -0.06545252
000180 8a e4 fb ba 63 42 a6 bc 73 96 82 38 2b 0f 35 3d
       -0.001921789 -0.020295328 6.2269064e-05 0.04420392
000190 1e 6d 76 3d fc ba c2 bd d2 d6 3c bd 0e 43 51 bb
       0.060162656 -0.09508321 -0.046103306 -0.0031930837
0001a0 75 55 74 bc 3c 64 5c 3d 63 e0 21 bd 9e 86 40 3d
       -0.014912953 0.05380653 -0.039520632 0.04700338
0001b0 7f 38 f3 bc e1 db 5b 3b 60 dd 93 bc cb 02 29 bc
       -0.029690025 0.0033547806 -0.018049896 -0.010315607
0001c0 09 0e 39 bd 26 1c a5 bd d2 52 8d bc 98 35 23 bc
       -0.0451794 -0.080620095 -0.017251406 -0.009961508
0001d0 6f a3 56 bd 1e ce 97 bc 9e bc 72 bd 68 ce e9 bc
       -0.052401956 -0.018530902 -0.05926191 -0.028540805
0001e0 ed 2c a4 bd f6 13 92 3d cf f8 9d 3a ff c7 dd 3c
       -0.080163814 0.071327135 0.00120523 0.027072905
0001f0 fe 1c 8d bd 02 c9 65 b9 2f dc 97 bd 2a 94 05 3d
       -0.068902954 -0.00021914023 -0.074150436 0.032612003
000200 02 e2 2e 3d 89 84 8d bd d2 92 8d 3d 58 c7 b3 3b
       0.042696007 -0.06910045 0.069127694 0.00548641
000210 a2 7e 88 bd 66 85 03 3c cf 94 3a 3d f8 9c 63 bd
       -0.06664778 0.00802741 0.04555207 -0.05556962
000220 fa e9 0f 3d 38 9c 08 3d 69 92 07 3d 62 0f ef bc
       0.035135247 0.033352107 0.033098612 -0.02918214
000230 57 41 bd 3c b8 b0 41 3c e7 99 a3 3d 00 b4 81 bd
       0.023102446 0.011821918 0.07988339 -0.063331604
000240 7a b7 2f 38 c7 e2 c5 3c 5e 0a 2f bd b4 11 c5 bc
       4.1894127e-05 0.024155987 -0.042734496 -0.024056293
000250 5b 7f 2f 3d 5d 3a 03 3d be b3 f5 b9 b3 f9 f0 bb
       0.042846065 0.03203808 -0.0004686396 -0.007353985
000260 52 04 80 bd 96 e1 2b 3d 71 69 d7 bc 52 ba bf bd
       -0.06250824 0.041963182 -0.026295396 -0.0936171
000270 c4 a7 8f 3c e5 d5 22 bd 67 b1 b7 3c f1 0f 83 3d
       0.017536052 -0.039754767 0.02242346 0.06399525
000280 2c 41 65 3d ec 14 0d 3d 3f c6 fa bc 0a 53 07 ba
       0.055970356 0.03444378 -0.03061211 -0.0005162215
000290 6f cf d7 3c ff 86 21 bd 9a 09 55 3d 1e 34 3b 3d
       0.02634403 -0.039435383 0.05201111 0.045704
0002a0 db d2 84 bd 7f 9f 68 bc e7 f4 2e bd 02 aa 84 3c
       -0.0648553 -0.014198183 -0.042714026 0.016194347
0002b0 73 28 d3 3c 9b df 3d bd 61 14 18 3c bf 4a 9d bc
       0.025776124 -0.046355825 0.009282202 -0.01920068
0002c0 1e 2f 2b 3d 50 e2 41 3d 02 94 29 3c 20 4a 66 bd
       0.04179298 0.04733497 0.010350229 -0.056223035
0002d0 4d 6f e6 3c 4e 1a 13 bd 14 6b c7 3c 84 04 c5 bc
       0.028129244 -0.035913758 0.024343051 -0.024050005
0002e0 ac de 54 3d a7 d3 2a bc 7b df 71 3b c5 6a 33 bd
       0.05197017 -0.010426438 0.0036906886 -0.043802995
0002f0 43 14 fe 3c 15 f2 70 bc 44 16 8c 3c e7 03 bc 3c
       0.03101552 -0.014706154 0.01710046 0.02295108
000300 6d 0a 3b bd bb ee 65 bd 15 05 f9 3c 7d ac d3 bc
       -0.04566424 -0.056135874 0.030397931 -0.025839085
000310 85 2e 89 bd 5f ae 91 3d 9f 95 f2 bc a7 99 fe bc
       -0.06698326 0.07113337 -0.02961236 -0.031079127
000320 bb 2a 9f bd fb d3 0b 3d bd be 98 bc f9 83 a2 3c
       -0.07771822 0.034137707 -0.018645639 0.01983832
000330 c0 64 66 ba 8d f3 ba bb 8a 10 76 bc 4d f3 7d 3d
       -0.00087888166 -0.005705303 -0.015018592 0.061999608
000340 9d ba b6 3c e1 73 80 3c 0b 09 89 bd 62 fe 59 bd
       0.022305781 0.015680255 -0.06691178 -0.053221114
000350 ff 05 3f 3c 9b 30 fc 3b 3d c1 a4 3b ce 95 8b bc
       0.011659144 0.007696224 0.0050279186 -0.017039206
000360 3d 5c 04 3d e1 d8 28 3d c9 83 e1 bc ca d7 53 3c
       0.032314528 0.041222457 -0.02752866 0.012929866
000370 42 88 d6 bc 28 83 85 3d c7 10 54 bc 56 6e 59 bc
       -0.02618802 0.06519157 -0.012943453 -0.013270935
000380 47 6d 79 3d 19 07 2c bd 2d e3 bd 3c 7f 75 21 bd
       0.06089523 -0.041998956 0.023179615 -0.039418694
000390 25 46 86 bd 1d 3e 12 3d 35 f7 f5 bb e9 3b ce bd
       -0.06556348 0.035703767 -0.007506276 -0.10070021
0003a0 93 2e 50 bd fa 8b a2 bc 04 7c 21 3d 26 13 cd 3c
       -0.050825667 -0.019842137 0.03942491 0.025033545
0003b0 99 cd 1e bb 78 af 21 3d 1b b9 92 bd 3b 56 35 3d
       -0.0024231432 0.03947398 -0.07164212 0.04427169
0003c0 67 16 45 3c 2c a2 21 bb 46 ee 88 3c 49 bd 7e 3c
       0.012029267 -0.0024663312 0.01671518 0.015548059
0003d0 20 a6 bf 3b 16 44 e8 3c ee bd 85 3d 7d 7c a2 3d
       0.005848661 0.028352778 0.06530367 0.079339005
0003e0 1f 68 31 bc 05 77 79 3c cf 48 00 3d 23 ec ca bc
       -0.010828047 0.01522613 0.031319436 -0.024770802
0003f0 f4 9c 42 3d 83 30 92 3c 8c 5a 6c 3d 77 be 99 bb
       0.047512963 0.017845398 0.05770354 -0.0046918946

a2c_network.actor_mlp.2.bias f4 [128]
000000 ee 10 95 bc a1 61 1f 3d 28 03 b9 bc 32 d5 2b 3d
       -0.01819655 0.038911466 -0.022584513 0.041951366
000010 2c a7 2e bd 7f d9 58 bc c0 ce 4b bc b8 68 a5 3c
       -0.042639896 -0.013235449 -0.01243943 0.020191535
000020 6e b4 36 bd 4f ac 81 ba 53 c1 e8 3b 19 20 19 3d
       -0.044605665 -0.0009893271 0.007103124 0.037384126
000030 5e e9 28 3d e1 ab 0f bd 94 a3 37 3d 79 ac 00 3d
       0.04123818 -0.035076026 0.044833735 0.031414483
000040 89 e7 36 bd a5 97 22 ba a9 5b 91 3c 2f e5 24 bd
       -0.044654403 -0.00062024064 0.017743902 -0.04025763
000050 6f 0c 1f 3b aa 7d 89 3c c1 a2 5c 3c ac ba 51 3c
       0.0024268886 0.016783554 0.013466538 0.012800854
000060 90 53 f2 3c b6 1b 2f 3d 41 74 8a bc 5f a6 31 bd
       0.029580861 0.042751037 -0.016901137 -0.043371554
000070 dd a3 4b 3d 12 24 8e bb 12 81 17 bd c9 90 02 bc
       0.04971682 -0.004337796 -0.036988325 -0.00796909
000080 58 08 13 3d 9a ff 97 ba 41 9c 81 3c 4a c1 4c 3d
       0.03589663 -0.0011596561 0.015821578 0.049989022
000090 d5 b5 21 bd 20 d0 4f bc d0 4a 1b 3d 3e 87 24 bd
       -0.03948005 -0.012683898 0.037913144 -0.04016804
0000a0 c3 32 c2 bb a0 6b 55 bc 75 c1 0e 3c be 9b 19 bc
       -0.0059264614 -0.013026148 0.008713116 -0.009375511
0000b0 9e cc ad 3c 0c 3c d0 bc 3e 45 0d bd 3f 56 dd 3b
       0.021215733 -0.025419258 -0.034489863 0.006754666
0000c0 16 71 07 3b c2 a8 98 bc 4f 0d 36 38 bc 00 51 3d
       0.002066677 -0.018635157 4.3404576e-05 0.05102609
0000d0 30 0b 63 3b e3 a4 25 3c 68 39 98 bb 0e f4 04 3d
       0.003464412 0.010110113 -0.0046455152 0.03245931
0000e0 6f db ef ba 56 1a 0c bd db 8b 15 bd 01 1a ed 3c
       -0.0018299649 -0.034204803 -0.03651033 0.028943064
0000f0 01 fc ee 3c 0f 82 e4 3c 4a 98 09 3d 53 ee 30 3d
       0.0291729 0.027894048 0.0335925 0.043196034
000100 ff c3 3f 3d c6 40 42 3c 89 e5 31 3d 9f 14 40 3c
       0.046817776 0.0118562635 0.043431792 0.011723666
000110 90 94 08 3b 87 1a 32 3d af 1d c3 3c 24 d6 bc bc
       0.0020840503 0.04348233 0.023817865 -0.023051329
000120 9d 6b 23 bd cb b6 f3 bc 5a f0 87 3c da f1 12 3d
       -0.03989755 -0.029750248 0.0165941 0.03587518
000130 48 8c 63 3b c0 5b 74 bb b0 1e 1c 3d 02 b2 17 bd
       0.0034721065 -0.0037286133 0.038115203 -0.037034996
000140 5e a8 54 3c 95 08 24 bd be 68 de bb 90 07 f5 bb
       0.012979595 -0.040047247 -0.0067873886 -0.007477708
000150 0c cb 11 bd 99 08 3e 3d d5 1e 38 bd 27 55 94 bc
       -0.03559403 0.046394918 -0.04495128 -0.01810701
000160 35 89 10 3d 85 c3 7c 3b a1 b6 e7 3c 8b 04 26 bc
       0.0352871 0.0038568687 0.028285326 -0.010132919
000170 c0 12 0d 3d 4f 2c bc 3b dc 14 c2 3c 07 0c d6 bb
       0.03444171 0.0057425867 0.023691587 -0.0065321955
000180 e9 6c 7e 3c c6 c0 12 bd 8d bb 18 3d 17 89 d1 bc
       0.015528896 -0.035828374 0.037288237 -0.025578065
000190 40 21 03 bd 63 e7 ba 3c 2f 8f 1e 3d 50 ff 8b 3c
       -0.03201413 0.022815412 0.03871077 0.017089516
0001a0 7f 09 cb 3c 3c b1 3c 3d b7 85 c9 bb 23 9d 72 bb
       0.024784802 0.04606746 -0.0061499733 -0.003701993
0001b0 2e d6 17 bd 16 41 2f bd 8d d8 49 3d 5a 6b 14 bd
       -0.037069492 -0.04278668 0.049278785 -0.03623519
0001c0 85 61 ca bc ab ef a9 bb dd 53 4f bb 16 83 24 3d
       -0.024704704 -0.0051860414 -0.003163568 0.040164076
0001d0 f8 cf a5 3b bb e9 d7 bb a8 e8 e3 bc 27 b6 93 bb
       0.005060192 -0.006589142 -0.0278209 -0.0045077982
0001e0 f7 8c 05 bc 8c c3 3f bd 27 1c 39 3c 2e da c5 bc
       -0.008151284 -0.046817347 0.011298216 -0.024151888
0001f0 fd 86 88 bb 69 4c 03 bd 1a fe 1b 3d 32 d6 82 3b
       -0.0041664825 -0.032055292 0.038084127 0.003992819

a2c_network.actor_mlp.4.weight f4 [64, 128]
000000 34 d4 62 3d 0c 6c e2 3c 27 9f 5b bd 81 8b fe 3d
       0.055378154 0.027639411 -0.053618576 0.12428952
000010 e5 5d e1 bb c8 1f d3 3c 60 c9 d1 bb 20 c7 cc bc
       -0.006877648 0.02577199 -0.0064021796 -0.024997294
000020 ec 77 e4 bd 5b af 34 3d e4 7f bc bd 3b 99 bb 3d
       -0.11155686 0.044112545 -0.09204081 0.09160086
000030 b8 a7 f5 3d b5 a2 76 3c 78 e3 04 3e d9 e1 ad bc
       0.119948804 0.015053441 0.12977397 -0.021225857
000040 21 63 00 bd 1e 7b a2 3d 0a 42 c5 bd fd f8 f6 bd
       -0.031344537 0.07933639 -0.096317366 -0.120592095
000050 00 9f 83 3d 26 04 3d 3d 39 d2 8a 3c 1e 68 d8 3b
       0.06426811 0.046146534 0.016945945 0.0066042086
000060 b4 13 a4 3d 8a 3b d2 3d 7c 4b 29 bd df b0 ee bd
       0.080115706 0.102652624 -0.041331753 -0.11654829
000070 1b 0a f9 3d 5c 5b 56 bc 15 a2 1a bd b4 16 2b bb
       0.121601306 -0.013083305 -0.03775223 -0.0026106061
000080 be 0f 7f 3d 19 3a 3e 3d 39 c9 d8 3d 51 3a 00 3d
       0.062270872 0.046442125 0.10585255 0.031305615
000090 ad c9 a3 bc 71 18 cc bd 86 cf c0 3d 62 df 00 bd
       -0.019993627 -0.09965599 0.09414582 -0.031463034
0000a0 db a1 e3 3d a2 dc 42 bd fb 34 f5 3b 74 7d a4 3d
       0.11114856 -0.047573693 0.0074831224 0.08031741
0000b0 06 71 c4 bd af b9 91 bd 06 37 87 bc 47 85 86 bd
       -0.0959187 -0.071154945 -0.01650573 -0.065683894
0000c0 6b a7 9d bd 4c 8e b5 3c 90 1e c4 3d 21 4a 5c 3d
       -0.07697948 0.022162579 0.09576142 0.053781632
0000d0 97 90 88 bd a1 98 3f bd 32 15 59 3c 82 aa 8b 3d
       -0.06668203 -0.046776418 0.013249682 0.06819631
0000e0 72 a3 de bd 2f b2 46 3d fe a0 20 bd dc 1d c3 3d
       -0.108710185 0.048509773 -0.039216034 0.095271796
0000f0 30 95 5a 3d c6 46 5f bd 22 28 af 3d fd ad ad bc
       0.053364933 -0.054510854 0.085525766 -0.021201128
000100 93 29 81 3d 2f 3a 0b bd 51 52 00 bd 2e 6e 3a bc
       0.06306758 -0.033991035 -0.031328503 -0.011378808
000110 77 75 8c bc e8 27 b9 3d bf d2 49 bd a9 5b bc bd
       -0.017145855 0.09040815 -0.04927325 -0.0919717
000120 88 a4 ea bd bb 91 8f bd fd fe de 3d 84 e7 e6 3d
       -0.11457163 -0.07010218 0.10888479 0.11274627
000130 25 2d f4 3b 2f d7 e4 bd b3 66 64 3d bd cf a2 bd
       0.0074516707 -0.111738555 0.055762004 -0.07949779
000140 65 4b 3a 3c a8 4a 2c 3d 70 f4 8f 3d bf 1a b1 bc
       0.0113705145 0.042063385 0.07029045 -0.021619199
000150 45 0c 60 bd f5 85 e8 3b 4f e4 b7 bd 36 b2 e2 bc
       -0.0546992 0.007096047 -0.08979093 -0.027672868
000160 be f9 94 3d c6 b3 0c 3d ff 80 de 3c 2b 5b 02 3e
       0.07274197 0.034351133 0.02716112 0.1273009
000170 47 bf 86 3d 24 91 9e bd 9e 03 03 3e 77 84 1d bd
       0.06579452 -0.07742527 0.12794349 -0.038456406
000180 7d b5 59 bc c4 97 a4 bd a4 58 94 3d 24 2d ea bc
       -0.013287899 -0.080367595 0.07243469 -0.028585978
000190 8e 77 1d bd 3e 45 5a bb 2e 5b cc bc 4d 08 2b bd
       -0.038444094 -0.0033305432 -0.024945822 -0.041755963
0001a0 90 37 4d 3d 42 ce bc 3b d6 bc 62 bd fa b0 b6 3d
       0.050101817 0.0057618925 -0.05535587 0.08920474
0001b0 43 b6 11 bd a7 22 19 3b 11 4b b6 3d 48 b0 a8 bd
       -0.03557421 0.0023366602 0.089010365 -0.08236748
0001c0 eb e8 61 bb 22 e2 fa bd a5 e7 e8 ba 31 00 cf 3d
       -0.0034471105 -0.12250163 -0.0017769231 0.101074584
0001d0 d3 ac cb bd bf de 1b 3c a6 fc 85 bd b7 3b 85 3d
       -0.09945073 0.009513556 -0.065423295 0.0650553
0001e0 21 2c 46 3d b4 8d cb bc dc 21 6d ba 09 7f 6b bc
       0.04838193 -0.024847843 -0.0009045878 -0.014373549
0001f0 51 d9 a5 bb 3d 90 d0 bd f1 47 d9 3d 07 0f d0 3b
       -0.0050613065 -0.10183761 0.10609425 0.0063494476
000200 d0 0f 91 bc 53 2f e5 3b 19 7b bb bc 3f 3d ca bd
       -0.017707735 0.006994167 -0.022885846 -0.09874963
000210 bb 45 8e 3d c8 09 7e bd cf 5a fe bc 85 23 f5 bc
       0.06946894 -0.062021047 -0.03104916 -0.029924164
000220 09 d7 a8 3d 60 da f6 bc 9e 4e 00 3d 60 0c 3a 3c
       0.0824414 -0.030133426 0.031324975 0.0113554895
000230 3c 89 79 3d 6f f5 a6 3d 41 2b 52 3c 71 cc 81 bc
       0.060921893 0.081522815 0.012827695 -0.015844556
000240 a5 51 7a 3d 6a e9 74 3b 58 76 66 bd 6d bf c4 3b
       0.06111302 0.003737057 -0.056265205 0.006004265
000250 4e 1c 0f 3d 20 2d 87 bd a3 63 15 bd d1 58 fe bc
       0.034939103 -0.06600404 -0.036471974 -0.03104821
000260 05 34 5b 3d fa a4 b8 bd 96 15 28 bc 41 77 7d bd
       0.053516407 -0.09015842 -0.010259053 -0.061881308
000270 06 13 55 3d 78 bf 87 bd e8 33 54 3d c8 73 70 bd
       0.052020095 -0.06628317 0.051807314 -0.058704168
000280 ab 48 0f bd b8 fb d2 bc c8 89 9b bc de 3a 99 bd
       -0.03498141 -0.025754794 -0.018986598 -0.07481931
000290 e2 96 69 bd 0a 18 60 bd c0 20 58 bd 01 39 80 3d
       -0.05702866 -0.054710425 -0.052765608 0.06260873
0002a0 5f d2 54 3b b7 79 95 bd 0b a2 85 bd 4e bf 69 3d
       0.0032474024 -0.07298606 -0.06525048 0.057067208
0002b0 fb 1f a1 bd bd f0 9a 3d 1e b8 81 3c 81 30 68 bd
       -0.07867428 0.075654484 0.015834864 -0.056686882
0002c0 aa 8e 3b 3d 33 e0 75 3d 25 5f bc 3c 3d 7e 2d bd
       0.045790352 0.060028266 0.022994587 -0.04235672
0002d0 2f 01 be bc 8f 69 1d bc 73 90 9c bd d6 8b 9d 3c
       -0.023193924 -0.009607687 -0.07644739 0.019231718
0002e0 04 b5 21 bd 37 0c 04 3c 39 39 b2 bb ec d5 86 3d
       -0.03947927 0.008059553 -0.0054389504 0.06583771
0002f0 85 9a ce bd 5e 78 68 bd c7 f6 0e 3d 12 df 4e bd
       -0.10088066 -0.056755416 0.034903314 -0.050505705
000300 e8 1e 54 3d c4 cf 53 bd e3 27 06 3c bc ad 0a 3d
       0.051787287 -0.051711813 0.008188221 0.033857092
000310 27 05 a6 3d d4 af 3c 3d 14 05 21 3d 9c 70 17 bc
       0.081064515 0.04606612 0.039311484 -0.009243157
000320 2a 0c e5 3c 7d be 75 3d 34 74 9a bd c7 a8 9d bd
       0.027959902 0.059996117 -0.07541695 -0.07698207
000330 bf fa ac 3c 75 05 85 bd 49 db 03 3b 13 4f 83 3c
       0.021115659 -0.064951815 0.0020119718 0.016028916
000340 d9 6a 95 3d 0f 9c a0 3d 77 30 cd bd b0 b3 d3 3d
       0.0729577 0.07842266 -0.100190096 0.10337007
000350 bd 7b 64 bd 7b b9 bf bd 36 69 1a bc 87 ec 91 3c
       -0.05578207 -0.093615495 -0.009424498 0.01781298
000360 c8 21 c1 bc 6d 6e 07 3b 9f a8 75 bb 73 11 0e bd
       -0.023575678 0.0020665184 -0.003748454 -0.03468461
000370 55 df 0c bd c1 d5 4c 3d 71 70 83 3b b8 0e 2b bd
       -0.034392674 0.05000854 0.004011207 -0.041762084
000380 4e 11 3c 3d 5f b2 45 3d 10 38 1f bc 64 be 54 bc
       0.04591494 0.04826581 -0.009717956 -0.012984846
000390 00 43 a0 3d 34 f6 b0 3b ab b4 6f 3d 4a 56 b6 3d
       0.07825279 0.0054004434 0.058521908 0.08903177
0003a0 31 e2 9a bd 00 49 10 bd 2c 3b 84 bd 81 3a f7 3b
       -0.07562674 -0.03522587 -0.06456599 0.007544816
0003b0 6f 3b 93 3d 06 c8 5c 3d 04 89 33 bd bc 9b 20 3d
       0.071890704 0.053901695 -0.04383184 0.03921102
0003c0 4d c6 78 3d 98 96 12 bd 5b 8c 5e 3d 54 43 6a bc
       0.06073599 -0.03578815 0.054333072 -0.014298279
0003d0 49 88 01 3d c4 b4 08 bc 18 8e 5c 3d 8c 9a fb 3c
       0.031624112 -0.008343879 0.05384645 0.030713342
0003e0 9c b6 bf bc 36 be a6 3c 01 5a 64 bd 29 8d a0 bd
       -0.023402505 0.020354372 -0.055749897 -0.07839424
0003f0 60 1e 14 bd 3b 5e 44 bd 8c c6 17 bc 72 46 a9 3d
       -0.03616178 -0.047941428 -0.009263646 0.082653895

a2c_network.actor_mlp.4.bias f4 [64]
000000 ac e8 52 3d eb 10 1d bd e2 1e 10 bd 7b c3 18 bd
       0.051491424 -0.038346212 -0.035185702 -0.0372958
000010 94 9a 18 3d 30 0d 8f bc 2e ae 02 bc 6c 63 60 3c
       0.037256792 -0.017462343 -0.007976098 0.013695579
000020 79 07 96 3c ec b9 5c bd 9d df 13 bd 4b 29 e2 3c
       0.01831411 -0.053888246 -0.036101926 0.02760758
000030 43 68 66 bc 91 5c 3e bd d3 cd 3a bd a7 e0 85 3c
       -0.014062944 -0.046474997 -0.045606446 0.016342474
000040 38 87 7e bc 83 56 27 3d 23 37 0a 3d 85 fb bb bc
       -0.015535168 0.04085399 0.03374399 -0.022947082
000050 d3 61 90 3c fc 9a 12 bd af 4e 8e bc 2f 10 a9 bc
       0.017624771 -0.035792336 -0.017371504 -0.0206376
000060 b9 8a 29 3d 7a cb 41 bc 37 9a bf 3b 5d 1c 18 3d
       0.04139206 -0.011828298 0.0058472413 0.037136424
000070 de 47 26 bd bf 2a e4 bb 95 73 61 3d ad ae 62 bb
       -0.04059588 -0.0069631035 0.05504187 -0.0034588978
000080 79 37 0f 3d 0f e0 2a bd bc 63 5f bd 1a 76 83 bc
       0.034965012 -0.041717585 -0.054538473 -0.016047526
000090 63 ae ca bc 2d 06 04 bd c4 83 24 3d 9b cb 33 bd
       -0.024741357 -0.032232452 0.040164724 -0.043895345
0000a0 1e 21 44 3d 77 8f 5d bd dc 51 c1 3c 8b 70 e4 3b
       0.047883146 -0.054091897 0.023598604 0.006971424
0000b0 b1 41 0e 3d 5b 12 4e 3c 25 9a f4 3c 87 bd a2 3c
       0.034730617 0.0125776185 0.029858658 0.019865764
0000c0 bf c9 bb 3c f4 61 c5 bc b5 3e 46 3d 5a 04 02 bd
       0.022923348 -0.02409456 0.048399646 -0.03174243
0000d0 ce 47 65 bd 6d ff e0 3c df c7 b8 3c 53 1c 25 3d
       -0.05597668 0.027465547 0.022556243 0.040310215
0000e0 09 07 c9 b8 c8 1d e7 3b 92 b6 fc bc c8 3f 91 3c
       -9.585737e-05 0.0070531107 -0.030848775 0.017730609
0000f0 ea 29 14 bd ac fd 60 b9 46 be 33 bd 13 ee 23 bc
       -0.036172785 -0.00021456805 -0.04388263 -0.010005492

a2c_network.value.weight f4 [1, 64]
000000 d8 8b a2 bd 09 cd aa 3d b5 04 d6 3d 46 dd 2d 3d
       -0.07936829 0.083398886 0.104501165 0.04244735
000010 4f 53 ef bb 50 0b 89 3d 6c 53 75 3d 4c 3d 58 3c
       -0.0073036323 0.06691611 0.05989401 0.013198208
000020 d3 52 12 3d db b8 db 3d 4c 54 e3 3d af 8e 95 bd
       0.03572352 0.10728618 0.11100063 -0.07302605
000030 18 f8 2c 3c 93 e4 09 3e 05 9e b4 3d c2 97 9a bd
       0.010557197 0.134661 0.08819202 -0.07548477
000040 58 79 f5 3d 7e 27 f1 bd 67 b2 8a bd 81 8d 04 3d
       0.11986035 -0.11775111 -0.06772309 0.03236151
000050 8a 45 54 bd cc 6f 8b 3d a6 ff c0 3c dd 0e ec 3d
       -0.05182413 0.06808433 0.023559403 0.115262724
000060 34 56 06 bd a4 2c ce 3d b1 8a c4 3c d9 f7 03 be
       -0.032797053 0.10067108 0.023991914 -0.12887515
000070 ce 02 c0 3d b0 f3 c4 3d 6a 43 08 be 3e f8 0e 3d
       0.09375535 0.09616792 -0.13306966 0.03490471
000080 37 9b 8e bd 93 4c c8 3d ff 2c 9f 3d 6b fc 44 3d
       -0.06963199 0.097802304 0.07772254 0.048092287
000090 45 09 c9 3d 7c 2c e3 3d b7 9b 9a bd 5b a9 fb 3d
       0.09816221 0.11092469 -0.075492315 0.12288161
0000a0 eb 69 33 bd ec d9 16 3e c5 e4 ca bd dd b9 6e bc
       -0.043802183 0.14731568 -0.099069156 -0.01457068
0000b0 96 60 ad bd cb 04 f4 bd 24 db 01 be 47 0a bf bd
       -0.08465688 -0.11914977 -0.12681252 -0.09328132
0000c0 0c de 09 bd 53 2c 9b 3d bd a6 19 be 31 f4 97 3d
       -0.033659026 0.075768135 -0.15005012 0.07419623
0000d0 87 96 d8 3d e0 6a 01 bd 67 a1 24 bc b1 c2 74 bd
       0.10575586 -0.031596065 -0.010048247 -0.059755985
0000e0 fb f8 2f bd 56 1d 8e bd 39 f6 9c 3d 9c 14 a0 bd
       -0.042962056 -0.06939189 0.07664151 -0.07816431
0000f0 72 35 a8 3d 6c d2 53 3d a5 bf 09 3e ea c1 c8 3c
       0.08213319 0.051714346 0.13452013 0.024506528

a2c_network.mu.weight f4 [24, 64]
000000 92 ea 9b bd bf 03 93 bc f8 5b e6 bc f2 2a b9 bd
       -0.076131 -0.017946122 -0.028120026 -0.09041394
000010 2f a5 11 bd 6d 10 ef 3d d4 6c 00 3d aa f4 cb 3d
       -0.035557922 0.11673055 0.031353787 0.09958775
000020 f2 27 f8 3c 0d ec 7c 3d 27 4f d5 bd ca 61 7e 3c
       0.030292485 0.061748553 -0.10415488 0.015526244
000030 1f d7 71 3d de 34 18 bc 82 eb 55 bd cd 5c 31 bc
       0.059043046 -0.009289948 -0.05222655 -0.010825348
000040 c3 4d ae bd 13 94 8a 3d 72 6c d4 3c ff fa cd bd
       -0.085109256 0.06766524 0.025930617 -0.10057639
000050 ca 38 30 3d 10 d3 fc bd 06 d2 3a 3d 29 47 9b bd
       0.04302291 -0.123449445 0.04561045 -0.07581932
000060 d7 51 bd bd 05 46 fd 3c a2 7a 27 3c b3 bf f0 3d
       -0.09244125 0.030917177 0.010222109 0.11755314
000070 2f fb 84 bd 2f 34 0c 3e eb 68 37 3d 36 b4 1b 3d
       -0.06493222 0.13691781 0.044777792 0.03801366
000080 6b 79 18 3d d3 cb 9c 3c 2c e0 70 3d 79 a5 ad 3c
       0.03722517 0.01914016 0.058807537 0.021197068
000090 00 45 b5 3d 44 9a ec bd 8f 13 11 bd 02 5c 5c bd
       0.08851051 -0.11552861 -0.035419043 -0.053798683
0000a0 16 21 83 bd 85 f9 d0 bd 67 43 a1 bd 7f 9d b2 3c
       -0.06402795 -0.10203842 -0.07874184 0.021803616
0000b0 47 ec 15 bd 4a 01 cf bd ab af 87 3d b2 f7 be 3d
       -0.036602285 -0.10107668 0.06625303 0.09324588
0000c0 76 d8 63 3d cd be 6b bd c8 77 0f 3e 21 36 f7 ba
       0.055626355 -0.05755501 0.14010537 -0.0018860736
0000d0 1f 07 94 bc 6a 13 69 3c 21 0f f5 3d 47 4b 23 bd
       -0.018069802 0.01422582 0.11965776 -0.039866712
0000e0 db d2 b7 bd 7f 77 04 3d 05 bc a7 bd 49 6b 69 bd
       -0.08975764 0.032340523 -0.08190159 -0.05698708
0000f0 cf e5 16 3c a0 06 f4 3d 97 b9 5a bd 08 40 9b bc
       0.009210064 0.11915326 -0.05339965 -0.01895143
000100 0a 48 cb bd 20 42 5f 3d 3d 4f e1 bd a4 1c e9 bb
       -0.0992585 0.05450642 -0.11001442 -0.00711401
000110 d1 86 3c 3d 87 70 af bc a0 5d 6d 3d 47 85 ac 3c
       0.04602701 -0.021415962 0.057950616 0.021059645
000120 f3 84 2f bd 9a 87 ef bd 73 88 cd 3d a2 98 c4 bd
       -0.0428514 -0.11695786 0.10035791 -0.09599425
000130 f3 2c 5f bd a1 59 4c 3d c2 4e 10 bd 0c de 37 bd
       -0.054486226 0.049890164 -0.03523136 -0.044889495
000140 8b 8d 15 3d 5e 9f 98 bb ae 79 95 3d 2b ce 68 bd
       0.03651194 -0.00465767 0.07298599 -0.056837242
000150 45 59 89 3b 41 af 01 be 64 4e fd bc d9 39 d9 3d
       0.00419155 -0.1266451 -0.030921169 0.10606737
000160 b0 6a 88 3d 85 e8 9d 3c 81 2e 23 3d cd b0 fa 3d
       0.06660974 0.019275913 0.03983927 0.12240753
000170 66 fc 1e bd 2d ef b7 3d f8 9f ef 3d 3a 3b a1 bb
       -0.038814925 0.08981166 0.117004335 -0.0049203904
000180 49 a8 85 3d 5a 10 d3 3c 12 a6 70 bd ed f2 9c bd
       0.065262385 0.025764633 -0.058752127 -0.07663522
000190 a4 6d f5 bc 24 fd ba 3d 89 5f 90 3d 27 05 aa 3d
       -0.029959507 0.09130314 0.07049472 0.08301764
0001a0 a5 e0 86 bd 53 5a 03 be 92 bc 0f bd 91 44 ca bd
       -0.06585816 -0.12827425 -0.035091944 -0.09876359
0001b0 15 6d cd 3d e3 f0 f8 bc 79 b2 83 bd 03 2c 7f bc
       0.10030571 -0.030388301 -0.06430525 -0.015574458
0001c0 8e ab 85 bc d1 ef ab 3c 73 96 9c 3d 8d 89 c5 bd
       -0.016317155 0.020988377 0.076458834 -0.09645376
0001d0 ba f5 20 3d 7d f0 1d 3c d6 72 b2 3d d6 78 3b 3c
       0.039296843 0.009639856 0.087133095 0.011442384
0001e0 cf 01 16 3d f9 47 fc bd 76 6e a6 3d d0 63 88 3d
       0.03662282 -0.12318415 0.081265375 0.06659663
0001f0 08 f0 ef 3d ba 9d 1a 3d 47 75 2b bc 71 a2 e8 3d
       0.11715704 0.037748076 -0.010464973 0.11359108
000200 62 43 57 bd 35 ec 42 bd b8 38 1c bc 96 11 de bd
       -0.052554496 -0.047588546 -0.009535007 -0.10843198
000210 cd fb f5 3d dc aa c3 3d 89 a4 dd 3d 0f d9 aa 3d
       0.12010918 0.09554073 0.10822398 0.08342182
000220 d9 8b 8b 3d 5b ee 53 bc 4b cc 06 3d 67 17 5c 3d
       0.06813783 -0.012935246 0.032909673 0.053733256
000230 78 54 31 bc 89 f1 20 bd 69 51 01 bd 8c 4a e3 bd
       -0.010823362 -0.039292846 -0.03157178 -0.11098203
000240 ea c5 8a 3d 26 76 15 3e 4d 7c 86 3d fc 23 79 bc
       0.0677603 0.14595851 0.06566677 -0.015206333
000250 61 68 ad bc 55 47 09 be c1 ee 1a be f6 9b ae bd
       -0.021167936 -0.13406117 -0.1513014 -0.08525841
000260 13 bb 1b bd ae 8e b5 bd 06 ea 5b 3d 7a d7 27 3e
       -0.038020205 -0.088651046 0.05368998 0.16390792
000270 a4 bc 86 bd 75 64 df 3d 2a 3f df 3d cc 41 c1 3d
       -0.06578949 0.109078325 0.109007195 0.09436378
000280 48 e5 c7 3d 72 d0 79 3d 7f 31 83 3d 10 93 24 bd
       0.09760529 0.060989805 0.06405925 -0.040179312
000290 cc 06 0a 3c b6 a9 56 3d cb e9 86 bd ab 66 e9 bd
       0.008424472 0.052407943 -0.06587561 -0.113965355
0002a0 f7 78 e4 3d 14 1f c8 bd a4 cd a8 bd 34 cb 27 3c
       0.11155885 -0.09771553 -0.08242348 0.0102413185
0002b0 08 0a 08 3d a4 f1 49 bd e1 af 52 bd b2 02 b7 bd
       0.03321269 -0.049302712 -0.051437262 -0.08936061
0002c0 7c 73 1d bd a9 a2 09 3e ee 7c 92 3d 58 99 e2 bd
       -0.038440213 0.13440956 0.07152735 -0.11064404
0002d0 ff d9 93 3d 8c 72 a6 3d 70 7c 54 3d bb 28 10 3d
       0.07219314 0.08127317 0.051876485 0.035195094
0002e0 88 ba d6 bd f8 19 70 bd 23 98 e3 3d c4 3a c0 bd
       -0.10484797 -0.058618516 0.11113002 -0.09386209
0002f0 c7 8c 19 3d bb cb e2 3d ec a1 ea bd 23 ae c0 bc
       0.03748777 0.11074015 -0.114566654 -0.023520535
000300 1e 5f b4 3d 2f f5 a6 3d 8e c1 e3 bd 5a 87 d8 bd
       0.08807205 0.08152234 -0.11120902 -0.10572691
000310 3f 1a 7f 3d 3c 5f 5d 3d 34 21 07 3e 37 ff be 3d
       0.06228089 0.0540459 0.1319626 0.09326022
000320 89 a8 0a 3e 24 6e 9f 3d 56 05 a0 bd a1 26 e6 3d
       0.13540854 0.077846795 -0.07813518 0.11237837
000330 ae 8a 9c 3d a4 d4 c1 bd 6a 75 b0 bd e2 7e b6 3c
       0.076436386 -0.09464386 -0.08616145 0.0222773
000340 9f 66 af 3d 1c 95 90 3d ab 7e 15 bd 19 dc 0d be
       0.08564495 0.0705969 -0.036497753 -0.13853492
000350 ac 68 b1 3c 6f da ec bd 75 c3 3c bc 9c 98 65 3c
       0.021656357 -0.115651004 -0.01152121 0.014013436
000360 24 c0 1f 3e 64 ef e3 3d b2 87 1d 3e 34 a1 06 3e
       0.1560064 0.111296445 0.15383795 0.13147432
000370 52 e1 0c be ce 41 f8 3d 56 2f 15 3e c8 ee c8 3d
       -0.13757828 0.12121926 0.14568838 0.09811169
000380 8b 5b 1a 3d 52 97 ed bd 92 87 14 be cf cf 0b 3e
       0.03768496 -0.11601128 -0.14504841 0.13653491
000390 d3 5f 94 3b d1 aa 08 be 5a c9 f8 3d 1f 71 8b 3d
       0.0045280247 -0.13346411 0.1214778 0.068086855
0003a0 46 c9 81 3d 99 35 05 3d 13 37 f5 bd 80 66 ab bc
       0.06337218 0.032521818 -0.11973395 -0.0209229
0003b0 7e dd ab bd 1c f4 e8 bd aa 2f 56 3d 57 59 5e bc
       -0.08391856 -0.11374685 0.05229155 -0.013571105
0003c0 1e 5e 13 3c a2 0b e1 3c f8 0a e0 3d 17 56 66 3d
       0.008994607 0.027471367 0.10939592 0.056234445
0003d0 be a4 da bd 20 39 d1 3d 2e a3 4a 3c d7 22 e3 3d
       -0.10675953 0.10215974 0.012368007 0.110906295
0003e0 6c f6 bd bd cc 15 df bd 13 2b de 3c 98 58 45 bd
       -0.09275517 -0.10892829 0.027120149 -0.048180193
0003f0 e0 54 13 3d bf 11 01 3c f7 f9 91 bd bc 51 ed bd
       0.035969615 0.007877766 -0.07127755 -0.11587855

a2c_network.mu.bias f4 [24]
000000 f0 56 86 3c 78 dc 00 3a 66 46 d7 3c 61 77 16 3d
       0.016398877 0.0004915665 0.026278686 0.036734942
000010 53 9f 22 3d ce 57 c3 3b aa 4d f5 3c 31 23 cd 3c
       0.039702725 0.005961395 0.02994426 0.025041195
000020 f0 19 f8 bc 91 1d e1 3c a1 f3 0f 3c a7 13 70 bc
       -0.030285805 0.027479919 0.008786113 -0.014653123
000030 d7 55 db ba 4f 77 98 bc 2f 70 d8 3b fc 4c a7 3c
       -0.0016733956 -0.018611578 0.00660517 0.020422451
000040 9f 65 ae bc c0 4c 35 bd 95 b8 0d bc 37 0c b7 bc
       -0.021288691 -0.044262648 -0.008649965 -0.022344692
000050 26 45 e6 3c d2 80 d3 3c e8 39 16 bc fc a1 20 bc
       0.028109144 0.025818262 -0.009169079 -0.009804245

exp_avg f4 [24]
000000 ff b5 a2 3a fd 58 3e 3b 30 8a 0c 3c ef e5 06 39
       0.0012413858 0.002904474 0.008577868 0.00012864893
000010 1d 7c 18 3b 4c 62 f7 bb 1a 19 1a ba a5 53 f9 ba
       0.0023267337 -0.0075495597 -0.0005878374 -0.001902212
000020 10 22 b0 ba 35 11 08 b9 12 76 d6 39 e5 f0 c4 3b
       -0.0013437886 -0.00012976381 0.0004090523 0.006010162
000030 ed 5e 93 3a 17 0f 51 bb 16 17 eb 3a ff e7 18 3b
       0.00112435 -0.0031899863 0.0017935957 0.002333164
000040 74 a3 24 3b 45 37 3e 3b 10 3c 56 bb f4 2e 9c ba
       0.002512184 0.0029024642 -0.0032689609 -0.0011915849
000050 d3 7c 20 3b 5b 6c 17 3c 99 65 0d 3b 27 9d b5 3b
       0.0024488464 0.009242143 0.002157545 0.0055424157

exp_avg_sq f4 [24]
000000 1e 66 20 3a 3d f4 37 3a 22 62 3e 3a 19 8b 49 3a
       0.0006118732 0.00070172903 0.0007262548 0.00076882687
000010 0c 46 40 3a 65 21 65 3a 96 e4 26 3a 94 e1 3a 3a
       0.00073346565 0.0008740633 0.00063664594 0.00071289507
000020 09 29 27 3a df aa 4a 3a 3b f9 37 3a e0 ed 20 3a
       0.0006376659 0.000773115 0.0007018034 0.0006138962
000030 27 9d 23 3a f6 1b 2d 3a 03 dc 23 3a 1d ce 32 3a
       0.0006241374 0.0006603593 0.0006250741 0.00068208744
000040 77 29 30 3a 09 16 38 3a 42 5b 45 3a 2a 42 39 3a
       0.0006720046 0.00070223265 0.0007528552 0.0007067049
000050 68 40 3f 3a e0 bd 3c 3a 00 f3 56 3a 2c d2 1c 3a
       0.0007295669 0.00071999244 0.0008199662 0.0005982246
