runs/lift_30-15-45-11/nn/last_lift_ep_175_rew_-28.694008.pth (torch, 654733 bytes, 36 tensors)

value_mean_std.running_mean f8 [1]
000000 36 8c 11 11 83 1d 69 c0
       -200.92224934985433

value_mean_std.running_var f8 [1]
000000 cd 81 74 7c 14 57 f8 40
       99697.28038454727

value_mean_std.count f8 []
000000 00 00 00 00 08 e0 05 41
       179201.0

running_mean_std.running_mean f8 [39]
000000 00 00 00 00 00 00 00 00 c9 2b 27 72 ee ff f7 3f
       0.0 1.4999832591154123
000010 7f 75 55 29 bd cc f4 3f 5b 3a 34 98 e8 ff df 3f
       1.2999850859262947 0.4999944197051371
000020 99 87 90 66 86 99 d9 3f bf 5a f2 a7 22 33 07 40
       0.3999954225165481 2.899968444903919
000030 5b 3a 34 98 e8 ff df 3f b8 b3 df 05 42 8b e1 3f
       0.4999944197051371 0.5482492556308136
000040 69 e0 6e 55 ea f8 f2 3f 5b 3a 34 98 e8 ff df 3f
       1.1857703530531813 0.4999944197051371
000050 0d 27 a0 33 12 fa e9 3f 4c c5 46 d2 6f a8 f0 3f
       0.8117762573540134 1.0411222661899329
000060 00 00 00 00 00 00 00 00 5b 3a 34 98 e8 ff ef 3f
       0.0 0.9999888394102742
000070 00 00 00 00 00 00 00 00 00 00 00 00 00 00 00 00
       0.0 0.0
000080 00 00 00 00 00 00 00 00 00 00 00 00 00 00 00 00
       0.0 0.0
000090 00 00 00 00 00 00 00 00 00 00 00 00 00 00 00 00
       0.0 0.0
0000a0 12 70 c6 92 bd 78 e3 3f b2 81 83 34 2c c7 c5 3f
       0.608488833112917 0.17014076770921133
0000b0 50 d8 47 c6 a9 9e 23 40 00 00 00 00 00 00 00 00
       9.80988902689947 0.0
0000c0 00 00 00 00 00 00 00 00 00 00 00 00 00 00 00 00
       0.0 0.0
0000d0 00 00 00 00 00 00 00 00 00 00 00 00 00 00 00 00
       0.0 0.0
0000e0 00 00 00 00 00 00 00 00 00 00 00 00 00 00 00 00
       0.0 0.0
0000f0 00 00 00 00 00 00 00 00 00 00 00 00 00 00 00 00
       0.0 0.0
000100 00 00 00 00 00 00 00 00 00 00 00 00 00 00 00 00
       0.0 0.0
000110 00 00 00 00 00 00 00 00 00 00 00 00 00 00 00 00
       0.0 0.0
000120 00 00 00 00 00 00 00 00 00 00 00 00 00 00 00 00
       0.0 0.0
000130 5b 3a 34 98 e8 ff bf 3f
       0.12499860492628427

running_mean_std.running_var f8 [39]
000000 36 8b a2 c5 cb 67 e7 3e 16 eb 68 ef 4b 04 03 3f
       1.1160589725561087e-05 3.627163635085675e-05
000010 ec bb 5d eb e7 7a ff 3e d1 c7 69 6f ba 41 ed 3e
       3.0021764096440433e-05 1.395070601726062e-05
000020 73 63 84 db 78 26 eb 3e 0f 49 ff 82 c8 87 1b 3f
       1.2946263141121292e-05 0.0001050201542505439
000030 d1 c7 69 6f ba 41 ed 3e 6b be 13 01 cd e3 de 3f
       1.395070601726062e-05 0.482653857280616
000040 c6 da 55 e6 18 7f f1 3f d1 c7 69 6f ba 41 ed 3e
       1.093529605624711 1.395070601726062e-05
000050 2a e9 4b 0f d2 73 e2 3f 3e 37 79 6f 7e 17 da 3f
       0.5766382502327236 0.40768395315250305
000060 36 8b a2 c5 cb 67 e7 3e cd be 5f 36 c3 67 f7 3e
       1.1160589725561087e-05 2.2321054892359208e-05
000070 36 8b a2 c5 cb 67 e7 3e 36 8b a2 c5 cb 67 e7 3e
       1.1160589725561087e-05 1.1160589725561087e-05
000080 36 8b a2 c5 cb 67 e7 3e 36 8b a2 c5 cb 67 e7 3e
       1.1160589725561087e-05 1.1160589725561087e-05
000090 36 8b a2 c5 cb 67 e7 3e 36 8b a2 c5 cb 67 e7 3e
       1.1160589725561087e-05 1.1160589725561087e-05
0000a0 23 8d db 36 01 c9 e2 3f 6f d3 2a e0 18 87 fb 3f
       0.5870367118299423 1.7204827076468197
0000b0 ce b7 b8 86 a8 c7 51 3f 36 8b a2 c5 cb 67 e7 3e
       0.001085199905797907 1.1160589725561087e-05
0000c0 36 8b a2 c5 cb 67 e7 3e 36 8b a2 c5 cb 67 e7 3e
       1.1160589725561087e-05 1.1160589725561087e-05
0000d0 36 8b a2 c5 cb 67 e7 3e 36 8b a2 c5 cb 67 e7 3e
       1.1160589725561087e-05 1.1160589725561087e-05
0000e0 36 8b a2 c5 cb 67 e7 3e 36 8b a2 c5 cb 67 e7 3e
       1.1160589725561087e-05 1.1160589725561087e-05
0000f0 36 8b a2 c5 cb 67 e7 3e 36 8b a2 c5 cb 67 e7 3e
       1.1160589725561087e-05 1.1160589725561087e-05
000100 36 8b a2 c5 cb 67 e7 3e 36 8b a2 c5 cb 67 e7 3e
       1.1160589725561087e-05 1.1160589725561087e-05
000110 36 8b a2 c5 cb 67 e7 3e 36 8b a2 c5 cb 67 e7 3e
       1.1160589725561087e-05 1.1160589725561087e-05
000120 36 8b a2 c5 cb 67 e7 3e 36 8b a2 c5 cb 67 e7 3e
       1.1160589725561087e-05 1.1160589725561087e-05
000130 11 ff 3e b0 6a c5 e7 3e
       1.1334971993792337e-05

running_mean_std.count f8 []
000000 00 00 00 00 10 e0 f5 40
       89601.0

a2c_network.sigma f4 [24]
000000 08 2b c3 b9 41 7e c5 bc db 48 10 3d a4 99 83 bc
       -0.0003722536 -0.024108054 0.03522573 -0.016064472
000010 98 e0 ae 3c f2 82 a8 bc 08 d2 a3 bc d6 1c 83 bd
       0.021347329 -0.020570252 -0.019997612 -0.064019844
000020 37 d0 91 bd 1a a1 ba bc 06 04 0d 3c 15 ad 25 3c
       -0.07119792 -0.022781897 0.008606916 0.010112067
000030 31 70 6d bd 4a 64 aa bc ba cc 55 3c 02 43 1a bd
       -0.057968322 -0.020799775 0.013049299 -0.03766156
000040 e2 d7 01 bd 92 a4 1c bd ef 5f de bc 39 a2 9e bb
       -0.031700023 -0.038242884 -0.027145354 -0.004841116
000050 15 2e 2b bb 71 7f 54 3c 73 db 58 bd 45 8f ac 3c
       -0.0026119996 0.0129698375 -0.052943658 0.02106441

a2c_network.actor_mlp.0.weight f4 [256, 39]
000000 38 d9 4e bd ef 93 65 3d 5b 0a f9 bc d1 7e a5 3d
       -0.050500125 0.056049284 -0.030400446 0.08080829
000010 d2 1d 20 3e 4b f1 d7 3d 3a c7 67 bd a1 5a a2 3d
       0.15636376 0.1054407 -0.05658648 0.07927442
000020 3d 63 59 bc dc 04 c2 3d 41 b3 01 be 2f cb 2d be
       -0.013268289 0.09473583 -0.12666036 -0.1697204
000030 75 68 7d bd 49 84 e0 bd 76 8b 06 3e 58 ea 3c 3d
       -0.061867196 -0.109627314 0.13139138 0.046121925
000040 94 d6 87 3d 51 6e 4f 3d 5c 8e 36 bb 43 53 00 3e
       0.066327244 0.050642315 -0.002785585 0.12531762
000050 c1 23 f2 bd 7d f8 2e 3c f4 e7 c5 bd 50 3e 4a 3d
       -0.11823226 0.010679361 -0.09663382 0.049375832
000060 09 e0 61 bd 4b f9 48 3d e5 a5 08 bd 14 ff 07 3e
       -0.055145297 0.04906587 -0.033361334 0.13280898
000070 43 5f c2 bd 8f 95 c3 bd 95 98 c3 bd 94 7b 13 3e
       -0.09490826 -0.095500104 -0.09550587 0.1440261
000080 0a 93 5a 3d 0b c8 1d 3e 51 52 07 be 9f a3 22 be
       0.053362884 0.15408342 -0.13214995 -0.15882729
000090 ff 48 00 be 72 9a dc bd ba 8d a0 3d 46 db 6a 3d
       -0.12527846 -0.107716456 0.07839532 0.05733802
0000a0 c0 35 e7 3d 5c a7 d2 bd 4f 14 04 be fd 5e 85 3d
       0.11289549 -0.102858275 -0.12898372 0.06512258
0000b0 c4 19 ae bd 52 70 9e 3d a1 d1 57 bd 83 de 78 3d
       -0.08501008 0.07736267 -0.052690152 0.06075908
0000c0 cf b2 13 be 1d b1 b1 bd 1c 3c 8c 3c b5 a8 0a 3d
       -0.14423679 -0.0867636 0.017118506 0.033852298
0000d0 30 36 79 bd fa 79 c3 3d 34 f0 de 3d ac d0 ed bd
       -0.060842693 0.095447496 0.10885659 -0.116120666
0000e0 fa 13 af bd 68 24 16 3e 1f 51 5d bd 52 2f 8e bd
       -0.08548732 0.14662325 -0.05403244 -0.069426194
0000f0 39 cb 1a be 30 b6 e5 bd ab d7 23 3d 08 25 ad bc
       -0.15116586 -0.1121639 0.0400006 -0.021135822
000100 80 0c ee bd 83 28 76 3b ec 02 e0 bd d6 1c 0b be
       -0.11623478 0.0037560768 -0.10938057 -0.13585219
000110 ed 95 b4 bd 75 82 0f be 3d d0 d0 bd 37 e8 23 3e
       -0.088176586 -0.14014609 -0.10195968 0.16006552
000120 ae c2 f7 3c 07 1e 4a 3d f2 ee 18 be 4e 62 d7 bd
       0.030244198 0.049345043 -0.149349 -0.10516797
000130 ab 50 5a bd a3 76 ae 3b 22 48 10 be 75 09 b4 bd
       -0.053299587 0.005324201 -0.14090016 -0.08790866
000140 90 10 eb bd 51 64 98 bc 2b 06 a1 bd 58 73 f5 bc
       -0.114777684 -0.018602522 -0.078625046 -0.029962227
000150 72 9d 02 be a3 0b df bd 47 77 81 bd db 42 97 bd
       -0.12755373 -0.108908914 -0.063215785 -0.073857985
000160 10 61 e3 bd 95 ef 0c 3e 68 2b 02 bd 43 4f f3 3d
       -0.111024976 0.13763268 -0.031779677 0.11880352
000170 ab 5c 4c 3d b0 d9 0a be 9d f2 e2 3d 9d 76 34 bd
       0.049893063 -0.13559604 0.11081431 -0.04405843
000180 f3 6a 7b bd 90 1b 08 be 81 3c 23 be e0 56 57 3d
       -0.06138129 -0.13291764 -0.15941049 0.052573085
000190 de 43 5c bd e5 59 7f 3d b0 90 06 be 5a 79 f3 3d
       -0.05377566 0.06234159 -0.13141131 0.1188838
0001a0 35 ba f0 bd f7 81 e2 bc 96 fe 08 3d 06 4d a9 3d
       -0.11754266 -0.027649863 0.033445917 0.08266644
0001b0 2b 60 04 3e 00 5f 15 3e 34 04 02 be 94 10 25 3d
       0.1292731 0.14587021 -0.12696916 0.040299013
0001c0 7a 0e 8d bd 03 c0 8f bc 30 76 f5 bd c7 5a 15 3e
       -0.06887527 -0.017547613 -0.11985433 0.1458541
0001d0 44 e4 0b be ed 44 af 3d 22 93 97 3d 9d e4 8e 3d
       -0.13661295 0.085580684 0.0740111 0.06977198
0001e0 15 4b 8d bd e6 0c 27 3e db 01 59 3d 43 63 1c 3d
       -0.068990864 0.16313514 0.052980285 0.0381806
0001f0 a1 78 04 be 76 92 af 3d 79 0c d3 bb e2 fd 89 bd
       -0.12936641 0.08572857 -0.006440696 -0.067378774
000200 38 39 24 3e 8f 3a 12 3d 60 40 91 bd 04 fc a5 bd
       0.16037452 0.035700377 -0.07092357 -0.08104709
000210 fa 93 fa bb 41 1c b7 3d cc 99 27 bd a0 1d bb bd
       -0.0076470347 0.08940936 -0.040918157 -0.0913651
000220 65 9a 60 bd 1d 0a d8 bd 38 aa 63 3d 84 37 11 3e
       -0.054834742 -0.10548804 0.055582255 0.14181334
000230 7f 5e 1a be 68 54 18 3d 91 69 a9 3d c5 dc ed 3c
       -0.1507511 0.03718987 0.08272088 0.029035935
000240 a7 93 69 bd bf 2a ab 3d 8c 56 ac 3d d3 40 75 3d
       -0.057025578 0.083577625 0.08414945 0.059876274
000250 8b 81 e6 bc dd ad 2d bd 97 55 8c 3c c1 ba e7 bc
       -0.028137943 -0.042402137 0.017130656 -0.028287293
000260 53 74 43 bd 81 9f d1 3d b3 ea 0c 3e 76 d2 db 3a
       -0.047718357 0.10235501 0.13761406 0.0016771096
000270 bf d9 12 bd ae 74 a4 bb 63 8e 8a bc 32 e8 fb 3c
       -0.03585219 -0.005018792 -0.016913598 0.030750368
000280 cf 28 18 3d 46 4f 1c be 3a e3 88 bd e8 ff 17 3e
       0.037148293 -0.15264615 -0.06683965 0.14843714
000290 95 ac bc 3d 98 b3 80 bc 67 91 a8 bd b9 a0 ad bd
       0.09212605 -0.015710637 -0.08230858 -0.08477921
0002a0 47 e1 12 be 6d 9d 74 bd bd 7e 5d 3d 6b 1a d1 3d
       -0.14343749 -0.059720445 0.054075945 0.10210117
0002b0 00 69 97 3d ff f0 10 be 58 36 c5 bd e4 04 cf bc
       0.07393074 -0.14154433 -0.09629506 -0.025270887
0002c0 a3 20 1b 3e 02 2f ae 3c 7a 7c 46 bd bf ac 87 3d
       0.15149169 0.02126265 -0.048458554 0.066247456
0002d0 80 d0 79 bd 3a 43 d4 bd 6b 5c ef 3d b3 1d 95 bd
       -0.060989857 -0.10364385 0.11687549 -0.07281055
0002e0 ad 7b 03 bd 89 1e 23 be 75 7b db 3d e7 75 f8 3d
       -0.03210037 -0.15929617 0.10716907 0.12131863
0002f0 3b 09 6f 3d 72 aa e4 bd 6a d4 21 be 8a 2c 05 be
       0.058358412 -0.11165322 -0.15803686 -0.13005272
000300 f8 8b f4 3d 72 72 9d 3d c2 ee 01 3e 96 cc ab 3d
       0.119407594 0.07687844 0.12688735 0.08388631
000310 d4 79 f8 3c ae d6 40 bc 51 b0 06 be b2 7e 16 be
       0.03033153 -0.011769934 -0.13153197 -0.14696768
000320 52 fb 23 be 2b 8b 64 3d 6e a4 c7 bd 58 52 84 bd
       -0.1601384 0.055796783 -0.09748159 -0.06461018
000330 2e b5 d0 bd 23 06 40 bd 5e d6 09 be 61 48 d6 bd
       -0.10190807 -0.046880852 -0.13460681 -0.10463024
000340 a0 92 30 3d 37 ed 42 bd fa 73 ca 3d e3 69 52 bd
       0.043108582 -0.047589507 0.09885402 -0.051370513
000350 5d 91 f0 bd 7f 72 e7 bc 21 f8 9e bd 3b 92 80 bd
       -0.11746476 -0.028252838 -0.077621706 -0.06277891
000360 95 e9 12 be dd c6 a1 3d a5 50 e4 bd 66 d4 a4 3d
       -0.14346917 0.07899258 -0.11148194 0.08048324
000370 ab d0 94 3d f6 4a ea 3d 86 8c fb bd eb da eb 3d
       0.07266363 0.11440079 -0.12282662 0.11516365
000380 0b 09 9b bd f1 60 73 3d df fc 19 3e 57 00 b9 bc
       -0.07570084 0.059418622 0.15037869 -0.02258317
000390 f9 4f a2 ba 37 01 17 bd d7 e9 08 be 6a 61 9d 3d
       -0.0012383453 -0.036866393 -0.13370453 0.07684596
0003a0 f4 c6 22 be b4 e6 b7 3d f1 5f f5 3d eb 20 20 3e
       -0.15896207 0.0897955 0.1198119 0.15637557
0003b0 37 79 06 bd ad a9 01 be 53 b6 27 3d 4b 46 bf 3d
       -0.032830443 -0.12662382 0.040945362 0.09339579
0003c0 a4 23 1e be 4a 81 37 bd 51 59 9e bd 33 75 14 bc
       -0.15443283 -0.044801034 -0.077318795 -0.009061146
0003d0 43 ad b2 bd 21 a7 2d bd 6b 37 50 bd 96 c2 16 be
       -0.08724453 -0.042395715 -0.0508341 -0.14722666
0003e0 25 8a 06 3e 52 76 09 3e ad c6 cd bc 16 63 95 bc
       0.13138635 0.13424042 -0.02511915 -0.018235724
0003f0 00 d7 85 bd 89 13 14 be fe 6b 19 be c7 66 86 3d
       -0.065351486 -0.14460577 -0.14982602 0.06562572

a2c_network.actor_mlp.0.bias f4 [256]
000000 7b 07 fd b9 cf ee e4 bc de 1e 52 bc 81 42 b8 3c
       -0.00048261494 -0.027945904 -0.012824742 0.022492649
000010 72 6e 3a 3b d7 6e a2 bc 9b 07 9c 3b c0 10 11 3c
       0.0028447178 -0.019828243 0.004761649 0.008854091
000020 c2 1a 45 bc 50 db ae 3c 3f 7b 1d 3b 01 05 37 ba
       -0.012030305 0.02134481 0.002402976 -0.00069816416
000030 83 63 e8 ba ac de 8f 3b 2f d7 fd bc 0f 03 d6 bc
       -0.0017729852 0.004390558 -0.030986397 -0.026124505
000040 73 8e b7 b9 ab 2c 4c 3c 32 02 dc bb da 73 6a bb
       -0.00035010613 0.012461822 -0.006714129 -0.003577462
000050 4a 7e 78 b9 61 e6 35 bc cb bb 55 bc a8 88 6f bc
       -0.0002369817 -0.01110229 -0.013045262 -0.014619984
000060 86 c7 83 bc bd b2 ff bb e8 a1 0e 3b 86 3b 50 bb
       -0.016086351 -0.0078032897 0.0021763984 -0.003177376
000070 27 63 b8 3c e2 2b 11 3c f3 81 ad 3b 57 bb 87 3b
       0.022508217 0.00886056 0.005295032 0.0041422057
000080 d2 be ea 3c bc 67 3d bc 7a 6f b0 b8 67 d4 b9 bc
       0.028655443 -0.011560377 -8.413098e-05 -0.02268429
000090 4a f6 cf bc 9b b5 e6 bc 5e 78 38 3c 0a 05 1e 3c
       -0.025385994 -0.028162768 0.0112591665 0.009644756
0000a0 56 b9 37 bc 09 0a 7d bb 39 12 da bc c5 7d 7e bc
       -0.011213621 -0.0038610718 -0.026620017 -0.0155329155
0000b0 03 57 84 bc d9 bf 69 ba 46 94 c9 bc 53 db 59 3c
       -0.016154772 -0.0008916832 -0.024606835 0.01329692
0000c0 af f5 f8 bc 57 f3 47 bc 6e eb 50 bb 9e 32 e5 3c
       -0.030390589 -0.012204013 -0.0031878608 0.027978238
0000d0 bd 57 f8 3b 7c 90 53 3c 9c 9e c1 bc 85 bc 2b bb
       0.0075788186 0.012912866 -0.023635201 -0.0026204896
0000e0 1f 44 03 bb f2 f5 16 3c d6 a3 a6 b8 84 45 b7 bc
       -0.0020029617 0.009213911 -7.946014e-05 -0.022372015
0000f0 c5 59 de bc 8c 9e 73 ba 41 98 70 3c 7f 3f 10 3c
       -0.027142415 -0.00092933397 0.014684738 0.008804201
000100 82 0b d0 bc 9f 7d c3 3c 84 32 bf bc f4 2d c0 bc
       -0.025396112 0.023863612 -0.023339517 -0.023459412
000110 68 bf 71 bc 15 37 24 3c bd 98 81 bb e1 01 5a bc
       -0.014755107 0.010022898 -0.0039549754 -0.013306112
000120 58 b9 ce 3c ea 8e e4 3b 85 04 7a 3c 73 2a f1 bb
       0.025234863 0.0069750445 0.015259867 -0.0073597967
000130 d1 e4 1a 3d b1 41 e6 3c 7f 93 fb bc 04 7a c2 bc
       0.037815873 0.028107496 -0.03070998 -0.023739822
000140 ec ec c8 bc 29 09 b3 3b 17 a8 9f 3c f3 8f cf 3c
       -0.024527036 0.0054637385 0.019489331 0.025337195
000150 83 4f 2c bb 5a c0 13 bb e1 cf 5e bc 6e b7 a3 bc
       -0.002629251 -0.002254507 -0.013599367 -0.019984927
000160 f2 ed 2d bc ab 4a 99 bc a2 42 cc bc 03 b5 f2 bc
       -0.010615813 -0.018712362 -0.024934117 -0.029627329
000170 06 ca cc 3c 3c 7d c6 3c 24 17 ea 3c 3a f9 42 ba
       0.024998676 0.024229638 0.028575487 -0.00074376503
000180 de 24 a1 bb 83 93 c6 3c f5 b0 1e bc c3 3e d0 3b
       -0.004917725 0.024240261 -0.0096857445 0.006355138
000190 c0 d7 bf 3c 70 8d f7 ba a9 a3 65 3c 8e 0d cc 3b
       0.023418307 -0.0018886756 0.01401607 0.006227202
0001a0 3e 69 c5 ba 67 5a 70 bc 68 1e 6b 3b 3e 1e 95 bc
       -0.0015061272 -0.014669991 0.0035876278 -0.018202897
0001b0 2e 42 38 bc 2e dc 87 3c e3 8a a6 bc f9 ce 4e bc
       -0.011246247 0.016584482 -0.020329898 -0.012622588
0001c0 c6 80 c5 ba 92 55 a0 3c b3 fe f9 bc 33 9a a2 3c
       -0.0015068285 0.019572053 -0.030516958 0.019848919
0001d0 35 3b ed 3c 93 b0 a0 bb 52 85 fb bb 64 6c e4 bc
       0.028958896 -0.004903862 -0.007675805 -0.027883716
0001e0 b7 92 3b 3c d3 8b 38 bb 4a f5 96 bc 1d 40 3c bb
       0.011448554 -0.0028159514 -0.01842751 -0.0028724738
0001f0 af 0e 70 bb 39 33 d0 bc 2a c8 e9 39 4d 8f ec 3c
       -0.0036629846 -0.02541505 0.00044590357 0.028876925
000200 13 cd bc 3c c1 da f5 3b 06 69 bd 3b 5b aa db 3a
       0.023047006 0.007502884 0.005780342 0.0016759144
000210 98 dd 0f bc 4c 1e 05 3c 53 3e 14 bc a0 00 b0 3c
       -0.008780859 0.008124899 -0.009048062 0.021484673
000220 38 9f 03 bc c5 32 3d bc e6 07 b8 bc 7f 9c 92 3c
       -0.008033566 -0.011547749 -0.022464704 0.017896889
000230 cc 1d a5 3b 54 29 de 3c c2 2f c0 3c 55 e9 bc 3c
       0.0050389525 0.027119316 0.023460273 0.02306048
000240 ab 91 8f 3c 06 6b bf 3c f5 86 52 bc 57 28 e6 bb
       0.017525515 0.023366462 -0.012849559 -0.007023852
000250 15 a9 bf 3c 68 43 d2 3a e9 33 be 3c da 33 94 ba
       0.023396054 0.0016041817 0.023218112 -0.0011306957
000260 da 19 a9 ba dd 31 e9 bc 7f 71 38 3c ac 08 8d bb
       -0.0012901381 -0.02846616 0.011257528 -0.0043040123
000270 e0 8f cd bc dd c6 d4 bc e5 52 6f bc 9a eb 90 bc
       -0.025093019 -0.025973732 -0.014607166 -0.017690469
000280 4f 93 ef bc bf 18 93 bb 73 f7 d4 bc f3 72 56 bc
       -0.029245047 -0.004489034 -0.0259969 -0.0130889295
000290 fe 2a ea bb 9d 1a 0d 3d c8 bb a3 bc c2 91 46 bc
       -0.0071462383 0.03444921 -0.019987002 -0.012119712
0002a0 ae fc 8c 39 35 2f 21 3c f6 85 a7 ba 29 02 99 bc
       0.00026891142 0.009837915 -0.0012781012 -0.018677788
0002b0 85 1b 5c bb 81 fc 44 3c 11 4e 91 ba 17 0d cd bc
       -0.003358574 0.012023092 -0.0011085888 -0.025030656
0002c0 cf cb 09 3d 8f 77 87 bc c2 08 60 3b 0a a0 d4 bc
       0.033641633 -0.016536502 0.0034184908 -0.025955219
0002d0 c3 c7 3d bc 60 c2 04 3d e0 02 01 bb 78 40 16 3c
       -0.011583271 0.032411933 -0.0019685552 0.009170644
0002e0 8a 98 b1 3c 33 f0 fc 3c 13 a2 d9 3b b9 dc ac bc
       0.021679182 0.030876255 0.006641635 -0.021101343
0002f0 cc 24 8e bc f3 53 6b 3c c8 58 e2 3c 08 78 b0 bc
       -0.01735153 0.014363277 0.027630225 -0.02154161
000300 f7 1e e9 3c 19 2f 08 bc 71 79 9e 3c bf 87 b6 39
       0.028457148 -0.00831201 0.019345017 0.00034814884
000310 c8 a0 9b 3c 74 89 5c bc 5c 21 d7 bb f2 7f b7 bc
       0.018997565 -0.013460506 -0.006565256 -0.022399876
000320 24 4f fd 3a ce eb 2a 3b 6c 94 89 3c 36 25 0d 3a
       0.0019325954 0.0026080492 0.016794406 0.0005384268
000330 95 42 08 bc f6 56 6f bc db c5 43 3b 50 a6 87 3c
       -0.008316656 -0.014608135 0.002987257 0.016558796
000340 e3 f8 8e 3c 76 60 04 bb 5e 11 33 3b b3 9c 7d bc
       0.017452663 -0.0020199097 0.0027323584 -0.015479255
000350 29 bc 84 ba 48 5c 34 3c f1 84 af 3c 80 98 26 3c
       -0.0010126877 0.01100833 0.021425696 0.010168195
000360 f1 72 fb bb 68 b9 b5 bc 2e ef e6 3c 75 27 4b 3c
       -0.007673614 -0.022183135 0.028190222 0.012399544
000370 48 2d 2b 3a 77 ec eb 3b f0 dd 81 39 3e ec 57 3b
       0.000652988 0.0071998197 0.00024770154 0.0032947208
000380 14 8f ba 3b 2a ef 3b bc 22 c0 ce bb 8c 2f 99 bb
       0.005693326 -0.011470595 -0.006309525 -0.0046748575
000390 c3 b1 bb bb 13 34 d2 bb 23 4a 26 3c 57 91 83 bb
       -0.005727978 -0.006414899 0.0101495115 -0.0040151286
0003a0 88 16 b6 bc 7c 62 64 bc d5 31 9a 3b 00 f6 c8 3c
       -0.02222754 -0.013939496 0.0047056475 0.024531364
0003b0 9e d6 b8 bb 25 6d e3 3b 54 7f 6c 3b dc 7b cc bc
       -0.0056408187 0.0069405013 0.0036086636 -0.024961405
0003c0 87 bc c0 3a 46 74 00 3b ae d1 5f bb f7 4b d5 3c
       0.0014704623 0.0019600554 -0.0034152078 0.0260372
0003d0 48 01 98 3b ff 4b e7 3c d7 33 e5 3c 98 42 b4 3c
       0.0046388246 0.02823448 0.02797882 0.02200441
0003e0 66 df 7b bc ba ca d1 3c d0 4f 64 bc ed 7a c7 3c
       -0.015373087 0.025609363 -0.013935044 0.024350608
0003f0 60 42 14 3c 0b b9 ac 3c 85 27 a7 3c 98 83 2f bc
       0.009049028 0.02108433 0.020404587 -0.010712527

a2c_network.actor_mlp.2.weight f4 [128, 256]
000000 e9 b9 63 3c 40 a8 85 bb 24 02 84 3c be 16 56 bd
       0.013899305 -0.004078895 0.016114302 -0.052267782
000010 b2 33 ce bc b0 87 3c 3d 3f 1b 83 bd 26 d7 7a bd
       -0.025171135 0.04602784 -0.06401681 -0.061240338
000020 1c 54 5d bd 60 b8 6f bd 1c d9 58 bd c9 a5 07 bd
       -0.05403529 -0.058525443 -0.052941427 -0.03311709
000030 a8 e6 73 3c 43 d3 99 bd 08 09 9c bd e9 0d 1c bd
       0.014886536 -0.07510998 -0.0761891 -0.038099203
000040 b8 e1 71 bd 1b c4 14 3d 43 c1 b6 bc 25 55 e6 3c
       -0.059053153 0.036319833 -0.022308951 0.028116772
000050 87 17 9d 3d a9 ec f3 bc 84 94 fa bb 59 4b 78 bc
       0.07670503 -0.029775934 -0.007647099 -0.015154683
000060 30 ff 48 3d 61 8d b0 3c 18 47 9c bc cb 5b 7d 3b
       0.04907149 0.02155179 -0.019076869 0.003865945
000070 6c c9 aa bd b0 d1 0a bd eb e1 5e bd 3c 18 96 bd
       -0.083391994 -0.03389138 -0.05441467 -0.07328841
000080 ff 55 49 bd 52 d8 0f bd 26 a9 a2 bc 2b 1c 22 3d
       -0.049154278 -0.03511841 -0.019856047 0.039577644
000090 d3 1d 30 3c bb d1 6f bb c5 85 1f bc f6 e7 98 3d
       0.010749298 -0.0036593515 -0.009736483 0.07466118
0000a0 4b c1 9d bc 14 e1 48 3d b3 e7 2e 3d 25 78 3d bd
       -0.019257208 0.049042776 0.042701434 -0.046257157
0000b0 70 be 43 3d 63 33 91 3c af 6d 72 bd 80 65 a3 3d
       0.047789037 0.017724698 -0.059186634 0.07978344
0000c0 72 65 79 3c 4f 64 b0 3d c9 ce a3 ba 87 e1 1a bd
       0.01522194 0.08612882 -0.001249754 -0.037812736
0000d0 25 3b 9b 3d aa a3 cc ba 23 31 68 3d 46 b3 ba bc
       0.0757964 -0.001561274 0.056687485 -0.022790562
0000e0 da 9d dd 3c 3b 63 0e bc 02 25 00 3d 98 d2 b4 3c
       0.027052809 -0.008690651 0.031285293 0.022073075
0000f0 d1 10 40 bc ea ff 8d 3d 8e 31 97 3c 44 29 a4 bb
       -0.011722759 0.06933577 0.018456247 -0.005009802
000100 df 82 e0 3c 37 55 24 3c 14 e0 30 bc 19 6b 22 3d
       0.027406154 0.010030082 -0.010795612 0.039652918
000110 49 55 7f bd e8 aa e2 bc c4 50 c4 3c 8a 90 b8 bc
       -0.062337194 -0.027669385 0.023964293 -0.02252986
000120 90 50 dc bc 0e 48 4c 3d ab 82 66 3c bf 81 fa bc
       -0.026893884 0.049873404 0.01406924 -0.030579446
000130 99 85 5e 3c 1b 85 07 3d 12 36 ee bc 07 0b 41 3d
       0.013581657 0.033085924 -0.029078517 0.047129657
000140 f8 1d 19 bc 4d 74 f8 bc 6d 66 e7 bc af bc 65 bc
       -0.009345524 -0.030328894 -0.028247083 -0.014022036
000150 fe 9f 07 3d af 29 8d bc ad 75 9f bd 12 b1 36 bc
       0.033111565 -0.01723179 -0.07786117 -0.011150615
000160 43 68 63 3d 49 e8 21 bd e4 58 8b 3d 90 9a 16 3d
       0.055519354 -0.039528165 0.06804064 0.036768496
000170 e8 14 82 3d e2 0e 99 bc b2 8b 49 bd 22 b2 90 bd
       0.06351644 -0.018683854 -0.04920549 -0.07065226
000180 4d 92 6e 3b 7e 87 a2 bc 80 1a f7 b6 0d e6 34 3d
       0.003640312 -0.019839998 -7.3642586e-06 0.044164706
000190 8f 9d 83 3d 90 0b be bd b0 63 33 bd cc 1c 9a bb
       0.06426536 -0.09279549 -0.04379624 -0.00470314
0001a0 e9 e4 b7 bc 0a 6c 63 3d 3a e6 17 bd a3 a1 2c 3d
       -0.02244802 0.055522956 -0.037084796 0.042146336
0001b0 40 c9 e6 bc 3c 37 1b 3c fa 5b af bc fd 1b c5 bb
       -0.028172135 0.009473618 -0.021406163 -0.0060152994
0001c0 b9 bb 27 bd 95 85 ad bd 17 db 54 bc cb 14 3d bc
       -0.04095051 -0.084727444 -0.012991688 -0.011540602
0001d0 be 36 5a bd 13 61 a4 bc df dc 65 bd 98 75 15 bd
       -0.053274862 -0.02006582 -0.056118842 -0.0364891
0001e0 76 52 9d bd 6a cf 92 3d f3 7b 04 3c 2e fe de 3c
       -0.07681744 0.07168467 0.008086192 0.027220812
0001f0 a8 a3 96 bd f9 61 a1 3a c9 77 92 bd d8 98 06 3d
       -0.07355434 0.0012312523 -0.071517535 0.032860607
000200 08 01 26 3d f9 e2 8d bd b4 c3 91 3d 4f 12 fb 39
       0.040528327 -0.06928057 0.071174055 0.00047888092
000210 4c 63 7f bd 0c 1f 9e 3b 90 1d 19 3d 71 9c 71 bd
       -0.062350556 0.0048254784 0.03738171 -0.058987085
000220 99 b6 0c 3d f8 59 14 3d 43 65 00 3d b6 01 09 bd
       0.034353826 0.036218613 0.03134657 -0.033448897
000230 ac 50 aa 3c e3 c8 60 3c 77 82 9d 3d 90 93 83 bd
       0.02079042 0.01371977 0.076909 -0.0642463
000240 11 8c b3 ba 25 90 b9 3c cb c1 1c bd 15 12 b6 bc
       -0.0013698359 0.022651741 -0.038270753 -0.022225419
000250 5e 76 41 3d c9 c2 cc 3c 3f b3 a6 3b 82 dc 70 bc
       0.047232024 0.024995225 0.005087286 -0.014701011
000260 55 73 80 bd 1f 96 30 3d 36 f2 ef bc 37 d1 c8 bd
       -0.06271998 0.043111917 -0.0292903 -0.098055296
000270 cf 4d b0 3c 90 86 08 bd 58 03 b3 3c c7 45 8e 3d
       0.021521477 -0.033331454 0.02185218 0.06946903
000280 38 62 7d 3d bc 91 f6 3c b8 40 02 bd 87 76 44 ba
       0.061861247 0.030098788 -0.0318 -0.00074944686
000290 9b 0b d7 3c 13 07 19 bd fc 3f 3a 3d 20 5c 52 3d
       0.026250651 -0.037360262 0.045471177 0.05135739
0002a0 69 3d 8a bd 9a ad 31 bc ee 7c 23 bd 1a a7 8c 3c
       -0.06749994 -0.0108446125 -0.039914064 0.017169524
0002b0 d5 5e c6 3c 62 95 58 bd 6f fe 44 3c 6f 7a 3e bc
       0.024215141 -0.052876838 0.012023552 -0.01162587
0002c0 95 65 3a 3d a2 cd 50 3d 13 03 6f 3c 2f 1f 70 bd
       0.045507032 0.050977357 0.014588135 -0.05862349
0002d0 38 2b e0 3c b5 3a 1e bd ca 56 ab 3c 6d 90 c7 bc
       0.027364358 -0.038630206 0.020915408 -0.02436086
0002e0 44 f6 69 3d 8a 0a fc bb f1 4d e0 3b f9 87 1c bd
       0.057119623 -0.007691686 0.006845229 -0.03821561
0002f0 d6 3b 0c 3d 12 c5 46 bc 39 12 a0 3c 9c 25 a1 3c
       0.03423675 -0.012131946 0.01953994 0.019671254
000300 e4 a4 52 bd d9 a8 4b bd ba b8 04 3d 68 75 0d bd
       -0.051426783 -0.049721573 0.03240273 -0.034535795
000310 aa 6a 92 bd 02 0c 9d 3d 03 5c c8 bc 79 e5 f0 bc
       -0.07149251 0.07668306 -0.024457937 -0.029406296
000320 f0 ad a8 bd f4 c3 16 3d 62 d6 b8 bc 55 e4 9f 3c
       -0.08236301 0.03680797 -0.022563163 0.019518057
000330 a7 9e 52 3b 21 2c 98 ba 0f 5b b1 bb 0d 52 85 3d
       0.0032138021 -0.0011609831 -0.0054124664 0.065097906
000340 2e 61 cc 3c 42 9a 30 3c a8 c2 9a bd 09 37 53 bd
       0.024948683 0.010778965 -0.07556659 -0.051566157
000350 36 c7 77 3c 37 b9 06 3c ac af 0b 3c cc cb 89 bc
       0.015123179 0.00822287 0.00852577 -0.01682081
000360 56 38 1c 3d c2 7b 3c 3d 12 7d 05 bd 5a 05 1f 3c
       0.038139664 0.046016462 -0.03258998 0.009705866
000370 a6 1e 07 bd 0a b0 8c 3d 55 2a 85 bc ed 8d 82 bc
       -0.032988213 0.06869514 -0.016255537 -0.015936816
000380 f0 4b 7e 3d 09 9d 29 bd fa 78 b7 3c d6 3d 13 bd
       0.06208414 -0.041409526 0.022396553 -0.035947643
000390 1f 58 8c bd f1 c8 07 3d 23 1f 01 bb c3 a6 c8 bd
       -0.06852745 0.033150617 -0.0019702397 -0.09797432
0003a0 e9 86 65 bd 4e 35 81 bc a2 77 1b 3d 77 2f e1 3c
       -0.056036863 -0.015772488 0.037955888 0.027488453
0003b0 1e 52 67 b9 fd b3 0d 3d ec 44 a8 bd 78 35 4e 3d
       -0.00022060468 0.03459548 -0.08216271 0.05034396
0003c0 fd 5c 35 3c 8f 8e b9 bb 9f 30 85 3c 41 44 46 3c
       0.011069533 -0.0056627463 0.016258536 0.012101234
0003d0 7c fa d6 3a 1e 1e cb 3c c4 d1 8b 3d bb f0 a7 3d
       0.0016401554 0.024794634 0.06827119 0.082002126
0003e0 e4 66 46 bc 76 86 94 3c b9 16 09 3d e9 84 d1 bc
       -0.012109492 0.018130522 0.033468936 -0.025576072
0003f0 aa 3b 5a 3d 07 59 90 3c 6d f9 80 3d 70 7d 23 ba
       0.053279556 0.017620577 0.06297574 -0.0006236648

a2c_network.actor_mlp.2.bias f4 [128]
000000 71 c1 80 bc f5 d8 fe 3c 9a d0 94 bc 73 c4 1d 3d
       -0.01571724 0.031109313 -0.018165875 0.038517427
000010 c4 5d 0b bd 51 9f 16 bc 91 df 02 bc a7 54 a4 3c
       -0.03402497 -0.009193257 -0.007987873 0.020059897
000020 cd 99 05 bd f3 16 bc 3b 9c 6c 00 3c 20 5f 09 3d
       -0.03261738 0.0057400404 0.0078383945 0.033537984
000030 52 94 0d 3d f9 63 e3 bc ab 22 0a 3d 60 50 04 3d
       0.034565277 -0.027757632 0.03372447 0.032303214
000040 42 2a 12 bd f8 21 85 bb d1 ea 88 3c 0b c8 02 bd
       -0.03568483 -0.0040628873 0.016713532 -0.031929057
000050 e7 b0 ba b8 9f 1f 5c 3c a2 ed 41 3c a8 e3 4a 3c
       -8.902122e-05 0.013435273 0.011836441 0.012383379
000060 60 3e d5 3c 8c 4b 11 3d dd b8 36 bc 69 3d 10 bd
       0.02603072 0.035472438 -0.011152473 -0.035214815
000070 85 5c 15 3d 59 4e b4 bb 69 8c 03 bd 3f 47 84 bb
       0.036465187 -0.005502504 -0.032116327 -0.0040368135
000080 28 2a 0b 3d 5a 64 4a bb b4 38 13 3c 50 4c 2f 3d
       0.03397575 -0.0030882568 0.008985687 0.042797387
000090 90 b5 01 bd 83 7d 12 bc 4e ca ec 3c 1c 7c f5 bc
       -0.031667292 -0.008941057 0.02890506 -0.029966407
0000a0 50 d0 b7 bb ad 8d 5d bc 25 e4 a5 3b 52 02 70 bc
       -0.0056095496 -0.013522548 0.0050625973 -0.014648991
0000b0 cc 15 83 3c ae f6 ad bc 3e 98 ea bc 0c e0 19 3c
       0.016001604 -0.02123579 -0.028637048 0.009391796
0000c0 99 a7 39 3b 26 0c 50 bc 9e 81 de ba 48 d1 26 3d
       0.0028328656 -0.012698209 -0.0016975885 0.04072693
0000d0 d3 da f0 3b f6 b7 ba 3b 96 7e c4 bb 0f 4c f5 3c
       0.0073503046 0.0056981994 -0.0059965355 0.029943494
0000e0 d2 85 ec b9 6b 75 f0 bc 1c 9f 05 bd 78 b2 e2 3c
       -0.00045113132 -0.029352864 -0.03262244 0.027672991
0000f0 5f f1 d7 3c 88 45 e2 3c ab c6 bb 3c 4e 73 14 3d
       0.026360212 0.027621046 0.02292188 0.036242776
000100 56 5b 1c 3d a2 56 77 3c 45 42 18 3d fa 2b 53 3c
       0.038173042 0.0150963385 0.037172575 0.012888903
000110 7e a6 1c 3b c0 9f 1f 3d c3 4c 93 3c b4 57 8b bc
       0.0023902948 0.03897071 0.017980939 -0.017009594
000120 e9 67 01 bd bb e2 b8 bc 2a fd 54 3c 72 e7 f5 3c
       -0.031593237 -0.022569051 0.012999812 0.030017588
000130 47 55 db 3b 2c 8d a8 39 81 cf 10 3d 62 19 fc bc
       0.0066935155 0.00032148638 0.03535414 -0.030773822
000140 bc 62 48 3c d5 38 05 bd a2 f6 14 bc c0 97 f9 b9
       0.012230571 -0.032524902 -0.009092005 -0.00047606044
000150 77 21 05 bd 1e 09 1b 3d 08 55 18 bd f5 6d 86 bc
       -0.032502618 0.03785049 -0.037190467 -0.016409853
000160 4f 78 17 3d 20 2f 29 3b a6 43 fb 3c b1 a3 37 bc
       0.03697997 0.0025815442 0.030671906 -0.011208461
000170 6e 08 f5 3c 87 a1 04 3c fd d7 b3 3c b2 bd d0 bb
       0.029911246 0.008095152 0.021953577 -0.0063702697
000180 a3 cb 91 3c d1 84 fa bc 12 30 e1 3c a1 f1 c8 bc
       0.017797297 -0.03058091 0.027488742 -0.02452928
000190 6c 82 b6 bc e5 de c2 3c 05 ae fa 3c 95 b3 75 3c
       -0.022278987 0.023787925 0.030600557 0.014996429
0001a0 05 ba c7 3c 4d 0e 2d 3d e4 11 c6 ba ac d4 64 b9
       0.024380693 0.042249966 -0.0015111533 -0.00021823001
0001b0 ef ab ea bc bc f2 06 bd 1b 7c 28 3d 5f 24 ec bc
       -0.028646437 -0.032946333 0.04113398 -0.028825937
0001c0 78 61 61 bc 80 65 c9 3b f0 31 66 ba 7e ef 15 3d
       -0.0137561485 0.006146133 -0.0008781245 0.03660535
0001d0 b6 38 02 3c 46 0f 96 b8 5e c9 c8 bc 47 96 8f bb
       0.007948091 -7.155402e-05 -0.024510082 -0.004381928
0001e0 26 e3 20 bc 2d 98 13 bd bd e6 29 3c 80 37 b2 bc
       -0.009819781 -0.036033798 0.010369954 -0.02175498
0001f0 9b a7 be bb cf 52 cd bc ae 2c 0e 3d 7c 74 a1 3b
       -0.00581832 -0.0250639 0.03471058 0.004927216

a2c_network.actor_mlp.4.weight f4 [64, 128]
000000 76 d3 38 3d b3 6a a6 3c 58 3f 34 bd b6 d8 f6 3d
       0.04512354 0.02031455 -0.04400572 0.12053053
000010 78 7b e4 3a 10 59 79 3c fe 82 93 bc ee e0 49 bc
       0.0017431816 0.015218988 -0.018006798 -0.012321694
000020 6c 40 d1 bd 98 34 76 3d 59 33 b1 bd 35 1e c7 3d
       -0.102173656 0.06010875 -0.08652372 0.097225584
000030 a6 f7 e7 3d 9c 1f 6b 3c 74 69 01 3e 7c 57 ce bc
       0.11326532 0.014350798 0.12637883 -0.0251882
000040 48 49 c0 bc 28 ec 90 3d 73 66 af bd 06 58 eb bd
       -0.023472443 0.07076293 -0.085644625 -0.114913985
000050 e4 72 74 3d 01 65 70 3d 00 1c e2 3c a9 ad 9f 3c
       0.05967988 0.058690075 0.027601242 0.019491987
000060 af a7 91 3d bc 97 c7 3d 09 c5 4e bd f1 1e ea bd
       0.07112061 0.09745738 -0.050480876 -0.11431683
000070 2c b7 ea 3d 1b 67 b2 bc d2 d1 fc bc 14 19 89 bc
       0.114607185 -0.02177768 -0.030861769 -0.016735591
000080 0d 0f 6a 3d d1 a0 20 3d 3e c0 c5 3d 5c 63 c9 3c
       0.05714326 0.039215866 0.09655808 0.024583511
000090 d6 44 36 bc c6 dc ba bd f8 87 b1 3d d5 be c5 bc
       -0.01112481 -0.091241404 0.08668512 -0.024138847
0000a0 7a 10 d5 3d 0b 61 5d bd 91 e7 91 bb 07 99 8d 3d
       0.10403533 -0.054047626 -0.0044526537 0.06913953
0000b0 30 57 ad bd 5d 36 80 bd b9 7a bf bb 1f f8 5d bd
       -0.08463895 -0.06260369 -0.005843487 -0.054191705
0000c0 ad ee 86 bd 6d e0 46 3c bd ea b5 3d d5 86 3d 3d
       -0.065884925 0.012138468 0.088826634 0.046271164
0000d0 cc 06 61 bd 66 71 6d bd 16 5b b3 3a 92 07 73 3d
       -0.054938123 -0.057969473 0.0013683762 0.05933339
0000e0 49 d1 ca bd ae bd 6c 3d 9d a6 06 bd 09 54 c2 3d
       -0.09903199 0.05779808 -0.03287374 0.09488685
0000f0 51 d1 38 3d a3 5c 4b bd 84 d6 9f 3d e6 aa e4 bc
       0.045121495 -0.049648892 0.078045875 -0.027913522
000100 1d c6 5c 3d 93 78 be bc ed 1c 20 bd d0 4d d8 3a
       0.053899873 -0.023250854 -0.039090086 0.0016502682
000110 ce 82 e9 bc c0 f6 aa 3d 39 ed 0a bd 71 c9 ab bd
       -0.028504755 0.08347845 -0.03391764 -0.08388031
000120 4e 76 da bd af b0 90 bd 2e 9c d0 3d 6c 84 f2 3d
       -0.10667096 -0.0706495 0.10186039 0.11841664
000130 7f a9 9c 3c c6 b5 d0 bd 59 4c 4b 3d 20 90 94 bd
       0.01912379 -0.101909205 0.049633358 -0.07254052
000140 e8 02 d6 3c 60 77 4d 3d f2 95 6f 3d 8b 8c 14 bc
       0.026124433 0.050162673 0.05849261 -0.009066711
000150 80 7c 44 bd 5f e6 fd b9 f4 de a6 bd 6a 22 22 bd
       -0.047970295 -0.0004842756 -0.08147994 -0.0395836
000160 79 d4 85 3d d8 6e 3d 3d 96 e5 af 3c b9 9e ef 3d
       0.065346666 0.046248287 0.02147178 0.11700196
000170 e3 8a 7e 3d 3b c6 86 bd 94 70 f6 3d 66 b1 4a bd
       0.06214417 -0.06580778 0.12033191 -0.049485587
000180 d7 33 0d 3b 9c 6a a9 bd e8 10 87 3d 57 4a 87 bc
       0.0021545792 -0.08272287 0.065950215 -0.01651494
000190 17 35 df bc 2d e6 3f bb a9 19 e6 bc 34 91 d7 bc
       -0.027246995 -0.0029281483 -0.028088408 -0.026314355
0001a0 51 c0 73 3d 2f fc 86 3a 03 3f 3d bd 90 15 b0 3d
       0.05950958 0.0010298545 -0.04620267 0.08597863
0001b0 c3 57 c9 bc d6 99 36 3c a9 fe a3 3d 3e 8e 94 bd
       -0.02457798 0.011145076 0.08007557 -0.07253693
0001c0 49 1e 05 bc b6 8e e7 bd a9 c2 ef 3b e1 fa cb 3d
       -0.008124896 -0.11306517 0.0073169065 0.09959961
0001d0 4d f8 b7 bd 27 af a0 3c 8f 24 6e bd e8 56 61 3d
       -0.089829065 0.01961477 -0.058140334 0.05501452
0001e0 6d 9b 1c 3d 82 31 73 bc f6 3c 25 3c 63 30 8b bb
       0.038234163 -0.014843347 0.010085335 -0.0042477115
0001f0 87 02 7c bc 38 83 be bd 1d 19 d5 3d ca bf 99 3c
       -0.015381462 -0.09302372 0.104051806 0.01876821
000200 13 ee 01 3c e1 99 51 3c 3f f5 12 bd 83 ee c7 bd
       0.0079302965 0.012793035 -0.035878416 -0.097622894
000210 05 28 82 3d 07 78 2c bd 74 c1 3e bc 60 fc 6f bd
       0.06355289 -0.042106654 -0.0116428025 -0.058590293
000220 cc 9b 97 3d 45 47 50 bd 7c 5f ae 3c 25 42 a9 bb
       0.07402763 -0.050849218 0.021285765 -0.0051653557
000230 18 d3 88 3d a9 79 c4 3d 1a 80 7b 3c 87 ef 89 bc
       0.06680888 0.09593517 0.015350366 -0.016837848
000240 24 46 5e 3d b4 c0 ae 3c d7 5c ae bd 7f 51 35 3b
       0.05426611 0.021332122 -0.085138015 0.0027666984
000250 f7 f7 48 3d c2 5b b1 bd 2e d7 62 bd 48 07 5b bd
       0.049064603 -0.086600795 -0.055380993 -0.05347374
000260 16 59 8f 3d fb 96 a9 bd df bf 32 3c f3 2c 6d bd
       0.06999414 -0.0828075 0.010910003 -0.057904195
000270 bd 42 6b 3d e0 42 41 bd 68 c6 3a 3d 18 76 18 bd
       0.057436693 -0.047182918 0.04559937 -0.037221998
000280 14 d5 0d bd 05 41 71 ba fe 53 8a ba 49 c8 8a bd
       -0.034627035 -0.0009203109 -0.0010553596 -0.067764826
000290 6a 62 86 bd c7 cf 86 bd 95 44 44 bd 10 cb 67 3d
       -0.0656174 -0.06582599 -0.047916967 0.05659014
0002a0 f9 9d 00 3d 93 89 40 bd f6 9e 40 bd 54 d9 a6 3d
       0.031400654 -0.0470062 -0.047026597 0.08146921
0002b0 2c 0b d1 bd 75 89 7d 3d 9a 24 fc 3b 98 f3 a5 bd
       -0.10207209 0.061898667 0.007694793 -0.081031024
0002c0 a5 f9 f5 3c a4 c2 9d 3d 8f aa 39 3d ad 3a 13 bd
       0.030026266 0.077031404 0.045328673 -0.03594463
0002d0 c7 1e 31 bd 58 e0 94 3b db 24 63 bd 22 05 02 3d
       -0.043242242 0.0045433454 -0.05545507 0.031743176
0002e0 72 8a 5d bd e9 53 8d 3a 85 c8 2a bc 03 9e 67 3d
       -0.05408711 0.0010782453 -0.010423784 0.056547176
0002f0 de 3a be bd fd 3c 88 bd 58 08 32 3d 79 08 30 bd
       -0.09288572 -0.066522576 0.04346499 -0.04297683
000300 6e 5f 74 3d 8c 91 a6 bd 09 16 5f 3c 5c fd 4f 3c
       0.05966132 -0.081332296 0.013616093 0.012694683
000310 14 67 cc 3d 26 fc 54 3d a8 3e 8d 3c 23 57 9b bc
       0.09980598 0.05199828 0.01724179 -0.018962448
000320 9e 59 c8 3c 92 33 94 3d 16 ff 74 bd cd 86 c1 bd
       0.024456795 0.07236399 -0.05981358 -0.09449539
000330 8f e4 82 3a 6f fa a1 bd 17 5d ad 3b 7e 7a 02 3c
       0.0009986329 -0.079090945 0.005290638 0.007963775
000340 ec b9 4c 3d a5 45 90 3d 55 74 97 bd 3d 2c b2 3d
       0.049981996 0.07044534 -0.073952354 0.08699844
000350 38 0b 71 bd f1 e7 b6 bd 3c 1c 84 bc b6 44 1d 3d
       -0.05884859 -0.08930958 -0.016126744 0.038395606
000360 5f f3 5a bc b7 9b 5b bc 75 c6 0c 39 99 4d 8c bc
       -0.013363688 -0.0134038245 0.00013425371 -0.017126845
000370 ac 9e 17 bd f6 4d 14 3d 53 a5 91 3c b0 9b 58 bc
       -0.037016556 0.03620716 0.017779028 -0.013220713
000380 52 14 97 3c 00 2e 77 3d 72 48 13 bc f0 c2 d3 bc
       0.018442307 0.060346603 -0.00898944 -0.02584979
000390 03 04 8d 3d c1 5d cc ba 15 38 61 3d 39 ff 87 3d
       0.06885531 -0.0015591906 0.054985125 0.06640477
0003a0 52 e1 d0 bd e8 16 02 bd ed 2b 9e bd 2f 3b ca 3c
       -0.101992264 -0.031760126 -0.07723222 0.024686424
0003b0 75 5e 7a 3d 14 05 3b 3d 03 f5 11 bd 5a c5 fd 3c
       0.061125237 0.04565914 -0.035634052 0.030977894
0003c0 cf 8e 94 3d 17 49 47 bd f3 67 2a 3d ae 94 45 bc
       0.07253801 -0.04865369 0.04160304 -0.012059374
0003d0 12 f1 82 3c 89 68 a7 bc cc 47 57 3d 89 4a 57 3d
       0.015984092 -0.020435588 0.052558705 0.052561317
0003e0 99 ae be 3b 68 31 47 3c 05 0c ab bd 54 5f bd bd
       0.0058191535 0.012157775 -0.08351902 -0.09246698
0003f0 49 63 84 bc c8 8f 73 bd 83 bd 66 bc 18 d0 7c 3d
       -0.016160624 -0.059463292 -0.014083269 0.06172189

a2c_network.actor_mlp.4.bias f4 [64]
000000 6a a9 17 3d 5a 11 c2 bc fb 3d de bc 0f 3b ef bc
       0.0370268 -0.023689914 -0.027129164 -0.029202966
000010 a4 14 bf 3c 5e 67 8c bc 31 ea b8 bb 08 ba 0b 3c
       0.023325272 -0.017139133 -0.005643152 0.00852824
000020 fb 40 71 3b 6b f9 10 bd 4e bd dd bc 73 e2 06 3d
       0.0036812413 -0.035394114 -0.027067807 0.032930803
000030 38 22 2c bc 26 63 01 bd 29 ed e8 bc 95 49 b7 3c
       -0.010506205 -0.031588696 -0.0284334 0.022373954
000040 e1 c1 4f bc 25 1e 05 3d b4 ac c4 3c 76 ba cb bc
       -0.012680502 0.03249945 0.024008133 -0.024869185
000050 de cc 8c 3c 23 14 d5 bc 93 43 16 bc c3 cf 80 bc
       0.017187532 -0.026010578 -0.009171384 -0.015724069
000060 b9 8b f7 3c c4 d6 74 bc aa 64 18 3b 8e b8 14 3d
       0.030217992 -0.014943782 0.002325336 0.036308818
000070 ab 35 cf bc bb 6f dc bb 9a 81 25 3d 12 7f c0 bb
       -0.025294146 -0.0067271865 0.0404068 -0.005874523
000080 1d 69 fa 3c 5f 60 ec bc eb 60 05 bd cb 87 3e bc
       0.0305677 -0.028854547 -0.03256313 -0.011629055
000090 09 ff b3 bc 8d 02 be bc 6c ea ff 3c 27 25 f6 bc
       -0.021972196 -0.023194576 0.03123971 -0.030047012
0000a0 29 73 14 3d 3b 8f 05 bd 78 da ba 3c 0c 35 51 bb
       0.036242638 -0.0326073 0.022809252 -0.0031922488
0000b0 35 d9 ca 3c 15 62 9f 3c 25 27 e4 3c 5a b8 c1 3c
       0.024761776 0.019455949 0.027850697 0.023647476
0000c0 ef 83 a2 3c ce 85 8b bc d2 aa 1d 3d 9a 6e c8 bc
       0.019838301 -0.017031576 0.038492985 -0.024466801
0000d0 81 28 f8 bc 5a 36 d6 3c 0b 8b 6a 3c c9 6b ec 3c
       -0.030292751 0.026148964 0.014315377 0.02885999
0000e0 b9 93 81 3c 6a 38 9d 3c 2e ac 8f bc 93 02 ad 3c
       0.01581751 0.01919194 -0.017538156 0.021119392
0000f0 57 d3 79 bc a9 e5 64 b8 c4 fd f9 bc 98 4e 8a bc
       -0.015248141 -5.4573324e-05 -0.030516513 -0.01688318

a2c_network.value.weight f4 [1, 64]
000000 c1 12 9d bd 72 eb a8 3d 96 23 d2 3d af b6 05 3d
       -0.07669593 0.08248033 0.10260694 0.032644924
000010 a9 21 29 ba 2f 3b c2 3d ea 9d 93 3d 49 7b 9d 3c
       -0.0006451854 0.094839446 0.07207854 0.019223826
000020 cc b7 39 3d f8 39 c6 3d 67 7c dd 3d a8 8d 90 bd
       0.045341298 0.096790254 0.108147435 -0.07058269
000030 c6 36 29 3d 8f d4 02 3e 0f 9c a4 3d 31 3e b6 bd
       0.041312 0.12776397 0.08037578 -0.08898581
000040 e7 62 0c 3e e3 08 ed bd 44 94 85 bd 1a 84 19 3d
       0.13709603 -0.11573961 -0.0652242 0.037479497
000050 2c dd 70 bd 2a 7f 7b 3d de af 9e 3c 31 70 19 3e
       -0.058804676 0.06140057 0.01937097 0.14984204
000060 dc af 00 bd d7 cb f5 3d ab de 00 3d 13 eb 02 be
       -0.031417713 0.1200177 0.031462353 -0.12784986
000070 e7 f3 b6 3d e0 ea de 3d 4d a5 03 be 0b 2e 30 3d
       0.089332394 0.108846426 -0.12856026 0.04301266
000080 e6 05 86 bd cc 77 c0 3d cd 3e 8f 3d 8c ef 79 3d
       -0.06544094 0.093978494 0.069944 0.061019465
000090 f7 b4 09 3e f5 47 0f 3e 59 fb a2 bd 03 77 ed 3d
       0.13447939 0.13992293 -0.07958097 0.11594965
0000a0 7b e2 1f bd 98 f5 0c 3e c8 c4 ff bd 59 85 e1 bb
       -0.039034348 0.13765562 -0.12488705 -0.0068823514
0000b0 d6 78 b6 bd 6c 28 16 be ca 5e 0b be db c3 e7 bd
       -0.089097664 -0.14663857 -0.13610378 -0.11316653
0000c0 44 6c 2d bd a0 eb d0 3d 72 a2 16 be 03 ec a7 3d
       -0.04233958 0.10201192 -0.14710405 0.081993125
0000d0 95 ac c5 3d 3b 18 5e bd 81 f5 0d bb 92 43 6d bd
       0.09652058 -0.054222327 -0.0021661224 -0.05792577
0000e0 7c f6 5e bd 61 70 a5 bd cf ba dd 3d 70 e1 b5 bd
       -0.054434285 -0.08078075 0.108266465 -0.088808894
0000f0 04 6e d9 3d c7 60 81 3d 52 3c 04 3e e5 5c b2 3c
       0.10616687 0.06317287 0.12913635 0.021772811

a2c_network.mu.weight f4 [24, 64]
000000 96 05 98 bd 48 36 00 bd 0b 2c 16 bd a6 18 bd bd
       -0.074229404 -0.031301767 -0.036663096 -0.09233217
000010 5c 5f 0e bd aa 8b f1 3d 8e 34 f7 3c 45 00 d0 3d
       -0.03475891 0.11794217 0.030176427 0.101563014
000020 c5 ba f4 3c 1a 43 63 3d d4 bb e6 bd 88 0d 88 3c
       0.029874215 0.055483915 -0.11266294 0.016608015
000030 55 69 6b 3d 41 18 6b bc 6d 39 70 bd b3 80 d1 bb
       0.0574735 -0.014349044 -0.058648515 -0.006393516
000040 35 c6 b6 bd 82 73 92 3d ae 47 16 3d f4 78 ed bd
       -0.08924524 0.071509376 0.036689453 -0.115953356
000050 6e ed 45 3d 51 c4 02 be 83 cb 1f 3d 3a d5 a1 bd
       0.048322134 -0.12770201 0.039012443 -0.07901998
000060 95 1f bb bd 01 f8 e8 3c ca bb 1c 3c ad 38 f9 3d
       -0.09136883 0.02843857 0.009566257 0.12169013
000070 50 b4 92 bd 9b d0 0b 3e 58 49 45 3d 98 0d 12 3d
       -0.07163298 0.13653795 0.04816565 0.035657495
000080 e2 6e 1d 3d ad 8a 85 3c 92 4f 59 3d 09 a5 8c 3c
       0.038435824 0.016301477 0.0530544 0.017168539
000090 3a 58 b6 3d 0c 49 f7 bd 55 91 0c bd 36 2c 73 bd
       0.08903547 -0.120744795 -0.034318287 -0.059368335
0000a0 2c 3b 82 bd b3 88 de bd ea 64 9d bd 61 ec bb 3c
       -0.063589424 -0.10865917 -0.076852635 0.022939863
0000b0 31 df fd bc f3 42 cb bd ef ea 91 3d a4 46 d3 3d
       -0.030990215 -0.09924879 0.07124888 0.10316208
0000c0 d4 ad 73 3d 3f 43 76 bd 78 d9 13 3e 7b 00 1a bc
       0.059491947 -0.060122725 0.14438426 -0.009399529
0000d0 fe 95 a6 bc 5b f2 a2 3c 9e bd f6 3d 79 b4 23 bd
       -0.020335194 0.019890955 0.12047885 -0.039967034
0000e0 53 88 b7 bd 40 24 14 3d 1f de af bd 3e c5 60 bd
       -0.08961549 0.036167383 -0.08587288 -0.054875605
0000f0 71 0e ed 3b 87 49 f4 3d f3 bc 74 bd 01 6a b7 bc
       0.0072343876 0.11928087 -0.05975051 -0.022389414
000100 32 98 db bd 10 ef 8d 3d 58 9a cb bd 0a 6b cf b9
       -0.10722388 0.06930363 -0.09941548 -0.00039561867
000110 f0 31 24 3d c1 18 b1 bc 15 5c 63 3d e2 9d 8e 3c
       0.040086687 -0.021618249 0.05550774 0.017409269
000120 1d 1f 45 bd 6d 03 d7 bd a9 08 eb 3d ef 4a d1 bd
       -0.048125375 -0.104987 0.11476261 -0.102193706
000130 8a 92 44 bd f3 45 78 3d 70 af c8 bc 02 7b 35 bd
       -0.047991313 0.060613584 -0.024497718 -0.044306763
000140 99 25 15 3d 5f bf 58 bc cf e1 72 3d 08 2e 4f bd
       0.03641281 -0.01322922 0.05929738 -0.05058101
000150 c0 f6 ab 3b dd 12 f3 bd 20 d9 ad bc 98 ef dd 3d
       0.0052479208 -0.11868832 -0.021221697 0.108367145
000160 60 96 76 3d 9e 3f 87 3c b9 a6 11 3d 93 e3 ea 3d
       0.060202003 0.016509827 0.03555939 0.114691876
000170 7e 4e e7 bc ea 3f b3 3d 3f 00 e1 3d 54 3f 0e bc
       -0.02823567 0.08752425 0.10986375 -0.008682091
000180 61 7c 77 3d a1 0c 14 3d 42 b6 44 bd 5b fc a4 bd
       0.06042135 0.036144856 -0.048025377 -0.080559455
000190 f6 e5 d2 bc 6c 88 cc 3d 6b 1d 85 3d 4f fb c3 3d
       -0.02574442 0.09986958 0.06499752 0.09569418
0001a0 b8 aa 94 bd 2b 9b ee bd 21 f3 28 bd 95 50 dc bd
       -0.072591245 -0.1165069 -0.04124749 -0.10757557
0001b0 6a 0a ae 3d 93 77 15 bd 2f 56 98 bd 26 42 b1 bc
       0.0849808 -0.036490988 -0.07438313 -0.021637987
0001c0 97 b4 bf bc 88 ba aa 3c a9 6b 8d 3d 4b 3d a8 bd
       -0.023401542 0.020840898 0.069053 -0.08214816
0001d0 b7 a9 41 3d 9d 70 f1 3a e3 38 a9 3d 17 d5 aa 3b
       0.047280993 0.0018420402 0.082628034 0.0052133906
0001e0 e9 7b 2f 3d 7a 17 f9 bd 03 cb ad 3d 41 54 90 3d
       0.04284278 -0.12162681 0.08485987 0.0704732
0001f0 9a 27 ef 3d 50 ba 0d 3d 2e 4e c3 b8 ec 93 fd 3d
       0.11677475 0.03460151 -9.312887e-05 0.123817295
000200 8b 41 74 bd 98 a4 2d bd 24 aa 07 3b 69 cb cd bd
       -0.05963282 -0.042393297 0.0020700777 -0.10048563
000210 01 0a ec 3d 01 30 c0 3d 82 19 d6 3d 96 a9 a4 3d
       0.115253456 0.09384156 0.10454084 0.080401585
000220 96 fa 80 3d d4 2f f0 39 fd d0 2e 3d 11 6f 46 3d
       0.062977955 0.00045812002 0.042679776 0.048445765
000230 43 2e 45 bc 03 4a e9 bc 95 58 9c bc 37 ea dc bd
       -0.012034955 -0.028477674 -0.019085208 -0.107868604
000240 1f 23 84 3d c6 7f 0e 3e c6 d8 5d 3d da da 19 bc
       0.06452011 0.13915929 0.05416181 -0.009390557
000250 95 a6 90 bc 96 11 01 be 0f bd 13 be 80 9e b6 bd
       -0.017657558 -0.12604365 -0.14427589 -0.0891695
000260 10 ca 3a bd ef cd c5 bd a9 5d 45 3d d3 09 21 3e
       -0.045602858 -0.09658419 0.048185024 0.15726404
000270 70 1e 5f bd 39 d7 da 3d 1d 70 d1 3d 81 91 bb 3d
       -0.054472387 0.10685582 0.10226462 0.09158612
000280 0d ce bf 3d 07 fb 92 3d 9e f8 9f 3d d6 1a 41 bd
       0.09365473 0.07176786 0.07811092 -0.047144733
000290 5a 2b 0b 3c 9d 34 5f 3d fc ba 91 bd 3d 6e d3 bd
       0.008494223 0.054493535 -0.071157426 -0.10323761
0002a0 df 36 da 3d ee d4 b2 bd aa b4 a8 bd 95 df 1e 3b
       0.10654997 -0.08732019 -0.08237584 0.0024242152
0002b0 5c 73 b5 3c b0 ad 3e bd 64 28 73 bd ab 51 b6 bd
       0.022149734 -0.04655236 -0.05936469 -0.08902296
0002c0 be 61 50 bd 57 8c 07 3e 69 f9 85 3d 26 9b cc bd
       -0.050874464 0.13237129 0.06541712 -0.0999053
0002d0 3e eb a7 3d 5d 43 a8 3d 73 24 42 3d 6d b8 eb 3c
       0.08199166 0.082159735 0.047398042 0.028774465
0002e0 99 b2 c8 bd 79 12 5e bd 05 4b e6 3d ff 23 b7 bd
       -0.0979969 -0.054216836 0.112447776 -0.089424126
0002f0 e8 b9 0e 3d e0 be db 3d 6c 35 d8 bd be f3 8d bc
       0.034845263 0.10729766 -0.105570644 -0.01732814
000300 a5 2f 9e 3d d7 b3 c1 3d 14 36 c3 bd 22 13 c2 bd
       0.07723931 0.0945813 -0.09531799 -0.094763055
000310 46 4b 5e 3d 0e 31 7b 3d ea 7b 04 3e b1 2e b8 3d
       0.054271005 0.06132608 0.12937894 0.08993281
000320 07 3c 04 3e 3f 41 c2 3d b7 14 81 bd 2b 2b d2 3d
       0.12913524 0.09485101 -0.06302779 0.1026214
000330 c0 70 b6 3d e1 94 a3 bd 74 d6 8f bd 53 f5 b6 3c
       0.08908224 -0.07987381 -0.070233256 0.022333777
000340 11 57 b6 3d 33 27 67 3d 0a b8 5f bd da 04 02 be
       0.08903325 0.056433868 -0.054618873 -0.12697163
000350 72 ea b1 3c c4 71 d2 bd dc 85 b3 3b 8b c3 b5 3c
       0.021718238 -0.10275605 0.0054786038 0.022187969
000360 78 62 14 3e f8 1d e5 3d bf d2 16 3e c0 d8 f2 3d
       0.14490688 0.11187357 0.14728831 0.11857748
000370 f0 87 fb bd d3 a0 f8 3d 32 42 09 3e e5 3c c1 3d
       -0.122817874 0.1214005 0.13404158 0.09435443
000380 ad a5 f4 3c b8 80 cf bd e4 b3 05 be 9f 43 0f 3e
       0.029864157 -0.10131973 -0.13056904 0.13990639
000390 7e 27 90 3c 3b 29 f9 bd 0b c8 e1 3d 0b a4 ac 3d
       0.017596956 -0.12166067 0.11024483 0.08429726
0003a0 dd a1 5a 3d 99 0b 41 3d 01 e5 0b be 25 45 0b bd
       0.05337702 0.0471302 -0.13661577 -0.03400149
0003b0 81 c3 dd bd 7e af 00 be 0a 95 0d 3d 1b 33 b9 bc
       -0.10828305 -0.12566945 0.034565963 -0.022607377
0003c0 b0 0e 54 bc 44 d1 01 3d f5 6c c9 3d 3f ec 9e 3d
       -0.012942955 0.031693712 0.09835235 0.07759904
0003d0 fb 07 c1 bd 2a 3f b0 3d ed 47 cd 3b e2 19 cb 3d
       -0.0942535 0.086057976 0.0062646777 0.09917046
0003e0 6a a6 ab bd e7 79 da bd 3b 8f 1b 3d 1f 90 35 bd
       -0.0838135 -0.10667782 0.037978392 -0.044326898
0003f0 11 e8 23 3d a8 e4 94 3b 0f 3f 6e bd 10 97 e3 bd
       0.040016238 0.0045438595 -0.058165606 -0.11112797

a2c_network.mu.bias f4 [24]
000000 d7 7e 88 3c f5 b8 cf bb fc d0 89 3c d9 cf c5 3c
       0.016662044 -0.0063391873 0.016823284 0.024146961
000010 0d 9c d2 3c 1d 52 91 ba 37 a4 ff 3c 83 71 c5 3c
       0.025709176 -0.0011087094 0.031206233 0.024101978
000020 bf 2f bf bc b8 f1 b6 3c 87 e7 6b bb 71 ff 1c bc
       -0.023338197 0.022332057 -0.0035996155 -0.009582386
000030 bb ec 73 bb bd 44 03 bd 6c 2c 88 3b 07 c3 89 3c
       -0.003721996 -0.032047976 0.004155686 0.01681663
000040 4b b5 97 bc c9 03 a7 bc c1 4b ce 3b d2 62 92 bc
       -0.018519064 -0.020387547 0.0062956517 -0.017869387
000050 71 ce 93 3c c7 81 04 3c a6 ef 5a bc c8 d6 b8 bb
       0.018042775 0.008087582 -0.013362801 -0.0056408383

exp_avg f4 [24]
000000 36 12 02 3c 5b 4b 4f 3b 94 a3 53 3c f2 47 94 3b
       0.007938912 0.0031630609 0.012917418 0.004525178
000010 1b db 33 3c 11 09 52 3c a8 77 a9 3c 58 28 33 3c
       0.010977532 0.012819544 0.02068694 0.010934912
000020 60 72 bb ba 09 c9 cd bc da e2 a4 bb bd e7 f1 bb
       -0.0014301054 -0.025120275 -0.0050319256 -0.0073823617
000030 5b a4 39 3b 05 96 fa bb c8 40 9f ba fd bb 17 bc
       0.0028326723 -0.0076472783 -0.0012150044 -0.0092611285
000040 e2 6b a1 3c 8d f8 a6 3a 40 ab 8d 3b 9b c2 ca bb
       0.019704763 0.0012738869 0.004323393 -0.0061877496
000050 84 df 29 bb a7 5a b3 3a 5d b3 64 bc df 15 3f 3b
       -0.002592058 0.0013683633 -0.013958779 0.0029157323

exp_avg_sq f4 [24]
000000 f5 c5 84 39 d9 aa 75 39 21 a8 78 39 98 aa 78 39
       0.0002532449 0.00023428666 0.00023713756 0.00023714674
000010 a7 fa 93 39 66 e6 8b 39 5b bd 67 39 52 f5 74 39
       0.00028224775 0.00026683806 0.00022100417 0.00023361042
000020 99 d9 87 39 fb 03 77 39 9f 56 84 39 b4 e3 7f 39
       0.0002591133 0.00023557238 0.0002524154 0.00024403521
000030 ba d7 75 39 f0 5e 93 39 08 25 69 39 e7 86 4b 39
       0.00023445385 0.0002810876 0.00022234407 0.00019409844
000040 73 63 77 39 59 a2 82 39 a3 ae 78 39 a2 4c 83 39
       0.00023592803 0.0002491649 0.0002371618 0.00025043363
000050 3c ac 85 39 f9 6f 68 39 b0 87 87 39 8e c1 81 39
       0.0002549606 0.00022166957 0.00025850302 0.00024749007
