runs/lift_30-15-45-11/nn/last_lift_ep_400_rew_-1673.3936.pth (torch, 654733 bytes, 36 tensors)

value_mean_std.running_mean f8 [1]
0	0xc09d37c05acef6d6	-1869.9378464067609

value_mean_std.running_var f8 [1]
0	0x415b3d749e3d0bdb	7140818.472475971

value_mean_std.count f8 []
0	0x4119000400000000	409601.0

running_mean_std.running_mean f8 [39]
0	0x0000000000000000	0.0
1	0x3ff7fff851edfa4a	1.4999926758170141
2	0x3ff4ccc5b812a65b	1.2999932470651376
3	0x3fdffff5c292a2fd	0.49999755860567047
4	0x3fd99990eedbdc84	0.39999793363626446
5	0x4007332c3376f9ce	2.8999866505321057
6	0x3fdffff5c292a2fd	0.49999755860567047
7	0x3ffe4c792bbc1570	1.8936702450167466
8	0x4001a2cebb6064b1	2.204495872382346
9	0x3fdffff5c292a2fd	0.49999755860567047
10	0x3fddfff658447201	0.4687476980195982
11	0x3fddfff67a359ee9	0.4687477296306342
12	0x0000000000000000	0.0
13	0x3feffff5c292a2fd	0.9999951172113409
14	0x0000000000000000	0.0
15	0x0000000000000000	0.0
16	0x0000000000000000	0.0
17	0x0000000000000000	0.0
18	0x0000000000000000	0.0
19	0x0000000000000000	0.0
20	0xbf80928c8c8de742	-0.008092020072343001
21	0x3f519de3e5799b71	0.001075241618218672
22	0x40239eb1d8bcd963	9.809950612118604
23	0x0000000000000000	0.0
24	0x0000000000000000	0.0
25	0x0000000000000000	0.0
26	0x0000000000000000	0.0
27	0x0000000000000000	0.0
28	0x0000000000000000	0.0
29	0x0000000000000000	0.0
30	0x0000000000000000	0.0
31	0x0000000000000000	0.0
32	0x0000000000000000	0.0
33	0x0000000000000000	0.0
34	0x0000000000000000	0.0
35	0x0000000000000000	0.0
36	0x0000000000000000	0.0
37	0x0000000000000000	0.0
38	0x3fbffff5c292a2fd	0.12499938965141762

running_mean_std.running_var f8 [39]
0	0x3ed47adab9f77284	4.882788658258493e-06
1	0x3ef0a3ce07638002	1.5869009495683713e-05
2	0x3eeb8b9d61d2a003	1.3134656052862797e-05
3	0x3ed9998fc5082cee	6.1034798624168555e-06
4	0x3ed7c1b4df5bef45	5.664030586546001e-06
5	0x3f0816e23762ee6e	4.594686372302597e-05
6	0x3ed9998fc5082cee	6.1034798624168555e-06
7	0x3ffa1a8b3e05bc5a	1.631480448031445
8	0x3ff4923aa1fed788	1.2857004478405276
9	0x3ed9998fc5082cee	6.1034798624168555e-06
10	0x3fdc7bfbd26abd1f	0.4450673632481585
11	0x3fdbec98aa6010c6	0.43631569517334545
12	0x3ed47adab9f77284	4.882788658258493e-06
13	0x3ee47ad7731d2e19	9.765553474891949e-06
14	0x3ed47adab9f77284	4.882788658258493e-06
15	0x3ed47adab9f77284	4.882788658258493e-06
16	0x3ed47adab9f77284	4.882788658258493e-06
17	0x3ed47adab9f77284	4.882788658258493e-06
18	0x3ed47adab9f77284	4.882788658258493e-06
19	0x3ed47adab9f77284	4.882788658258493e-06
20	0x3fec5ccdadacaf1c	0.8863285438614841
21	0x3feac46be21d6b9a	0.8364772239977925
22	0x3f3f1d80646f733c	0.0004747808893037946
23	0x3ed47adab9f77284	4.882788658258493e-06
24	0x3ed47adab9f77284	4.882788658258493e-06
25	0x3ed47adab9f77284	4.882788658258493e-06
26	0x3ed47adab9f77284	4.882788658258493e-06
27	0x3ed47adab9f77284	4.882788658258493e-06
28	0x3ed47adab9f77284	4.882788658258493e-06
29	0x3ed47adab9f77284	4.882788658258493e-06
30	0x3ed47adab9f77284	4.882788658258493e-06
31	0x3ed47adab9f77284	4.882788658258493e-06
32	0x3ed47adab9f77284	4.882788658258493e-06
33	0x3ed47adab9f77284	4.882788658258493e-06
34	0x3ed47adab9f77284	4.882788658258493e-06
35	0x3ed47adab9f77284	4.882788658258493e-06
36	0x3ed47adab9f77284	4.882788658258493e-06
37	0x3ed47adab9f77284	4.882788658258493e-06
38	0x3ed4ccc60aa87e4a	4.959081858518417e-06

running_mean_std.count f8 []
0	0x4109000800000000	204801.0

a2c_network.sigma f4 [24]
0	0xbd0e8cb8	-0.03480217
1	0xbbb649ef	-0.005563013
2	0x3d1e751e	0.03868591
3	0xbcc06349	-0.023484843
4	0xbcbd3e52	-0.023101006
5	0xbd243012	-0.040084906
6	0xbd8ff96d	-0.07029996
7	0xbdf145ca	-0.11780889
8	0xbdd6e5b8	-0.10493034
9	0xbc91ae00	-0.017783165
10	0xbbcc9340	-0.0062431395
11	0x3d345c9a	0.044033624
12	0xbd3f600c	-0.046722457
13	0x3b3f38a9	0.002917806
14	0x3b49a410	0.0030767955
15	0xbd0c6e2e	-0.034284763
16	0x3ccc56d6	0.02494375
17	0xbd1644f4	-0.036686853
18	0xbd4c3891	-0.049858633
19	0x3c65a54a	0.014016459
20	0xbd73ef79	-0.05955455
21	0x3c4c8560	0.012482971
22	0xbd8a02f6	-0.06738846
23	0xbcabe99d	-0.020985419

a2c_network.actor_mlp.0.weight f4 [256, 39]
0	0xbd4ed938	-0.050500125
1	0x3d528363	0.05139483
2	0xbd0fe3c8	-0.03512934
3	0x3d9c64ec	0.07636437
4	0x3e1b79aa	0.1518313
5	0x3dce2810	0.10066235
6	0xbd79fb11	-0.06103045
7	0x3d993140	0.07480097
8	0xbc942650	-0.018084675
9	0x3db8eaf7	0.09029191
10	0xbdf5d0b5	-0.12002698
11	0xbe28b673	-0.16475849
12	0xbd7d6875	-0.061867196
13	0xbde9eacb	-0.11421736
14	0x3e068b76	0.13139138
15	0x3d3cea58	0.046121925
16	0x3d87d694	0.066327244
17	0x3d4f6e51	0.050642315
18	0xbb368e5c	-0.002785585
19	0x3e005343	0.12531762
20	0xbdf5e15f	-0.12005877
21	0x3c2bb95a	0.010481203
22	0xbdd02097	-0.10162466
23	0x3d4a3e50	0.049375832
24	0xbd61e009	-0.055145297
25	0x3d48f94b	0.04906587
26	0xbd08a5e5	-0.033361334
27	0x3e07ff14	0.13280898
28	0xbdc25f43	-0.09490826
29	0xbdc3958f	-0.095500104
30	0xbdc39895	-0.09550587
31	0x3e137b94	0.1440261
32	0x3d5a930a	0.053362884
33	0x3e1dc80b	0.15408342
34	0xbe075251	-0.13214995
35	0xbe22a39f	-0.15882729
36	0xbe0048ff	-0.12527846
37	0xbddc9a72	-0.107716456
38	0x3d97a183	0.07403853
39	0x3d6adb46	0.05733802
40	0x3dd9ce38	0.10635036
41	0xbde056fb	-0.1095409
42	0xbe0a6bae	-0.13517639
43	0x3d70ffd3	0.058837723
44	0xbdbbf856	-0.09178226
45	0x3d91c148	0.071169436
46	0xbd7671c7	-0.0601671
47	0x3d5a6f6b	0.053328913
48	0xbe1a0a2e	-0.15042946
49	0xbda93d3e	-0.08263634
50	0x3cd906a5	0.026492426
51	0x3d0aa8b5	0.033852298
52	0xbd89c3c2	-0.06726791
53	0x3dc379fa	0.095447496
54	0x3ddef034	0.10885659
55	0xbdedd0ac	-0.116120666
56	0xbdaf13fa	-0.08548732
57	0x3e162468	0.14662325
58	0xbd5d511f	-0.05403244
59	0xbd80b16a	-0.06283839
60	0xbe19560f	-0.14974235
61	0xbdf443a3	-0.11926963
62	0x3d23d7ab	0.0400006
63	0xbcad2508	-0.021135822
64	0xbdee0c80	-0.11623478
65	0x3b762883	0.0037560768
66	0xbde002ec	-0.10938057
67	0xbe0b1cd6	-0.13585219
68	0xbdb495ed	-0.088176586
69	0xbe0f8275	-0.14014609
70	0xbdd0d03d	-0.10195968
71	0x3e23e837	0.16006552
72	0x3cf7c2ae	0.030244198
73	0x3d4a1e07	0.049345043
74	0xbe18eef2	-0.149349
75	0xbdd7624e	-0.10516797
76	0xbd5a50ab	-0.053299587
77	0xba412dd8	-0.0007369197
78	0xbe104822	-0.14090016
79	0xbdaab86e	-0.083359584
80	0xbde1d5e9	-0.11027128
81	0xbc710a8d	-0.014711988
82	0xbd98e711	-0.074659474
83	0xbcced1e0	-0.02524656
84	0xbdfd4330	-0.123663306
85	0xbdd64ea8	-0.10464221
86	0xbd6f300a	-0.058395423
87	0xbd8f4b20	-0.06996751
88	0xbdf6e39b	-0.12055131
89	0x3e08748c	0.13325709
90	0xbd022b68	-0.031779677
91	0x3dfbfcc2	0.12304069
92	0x3d4c5cab	0.049893063
93	0xbe0ad9b0	-0.13559604
94	0x3de2f29d	0.11081431
95	0xbd34769d	-0.04405843
96	0xbd7b6af3	-0.06138129
97	0xbe081b90	-0.13291764
98	0xbe1b803e	-0.1518564
99	0x3d5ecd24	0.054394856
100	0xbd4717fa	-0.04860685
101	0x3d7f59e5	0.06234159
102	0xbe0690b0	-0.13141131
103	0x3df3795a	0.1188838
104	0xbdf0ba35	-0.11754266
105	0xbce281f7	-0.027649863
106	0x3d08fe96	0.033445917
107	0x3da94d06	0.08266644
108	0x3e04602b	0.1292731
109	0x3e155f00	0.14587021
110	0xbe020434	-0.12696916
111	0x3d251094	0.040299013
112	0xbd8d0e7a	-0.06887527
113	0xbc8fc003	-0.017547613
114	0xbdf57630	-0.11985433
115	0x3e155ac7	0.1458541
116	0xbe08185c	-0.13290542
117	0x3daf44ed	0.085580684
118	0x3daf7961	0.08568073
119	0x3da72304	0.081609756
120	0xbd6dd39b	-0.05806313
121	0x3e3262b8	0.1742047
122	0x3d85353d	0.06504295
123	0x3d4925be	0.04910826
124	0xbdea293a	-0.114336446
125	0x3dce2a9c	0.10066721
126	0x3b93075a	0.0044869604
127	0xbd9e4172	-0.077273265
128	0x3e136e70	0.14397597
129	0x3d123a8f	0.035700377
130	0xbd73e34b	-0.059542935
131	0xbda5fc04	-0.08104709
132	0xbbfa93fa	-0.0076470347
133	0x3db71c41	0.08940936
134	0xbd2799cc	-0.040918157
135	0xbdbb1da0	-0.0913651
136	0xbd609a65	-0.054834742
137	0xbdecb683	-0.11558249
138	0x3d5b4c58	0.053539604
139	0x3e1e282d	0.15445013
140	0xbe1a5e7f	-0.1507511
141	0x3d185468	0.03718987
142	0x3da96991	0.08272088
143	0x3ceddcc5	0.029035935
144	0xbd6993a7	-0.057025578
145	0x3dab2abf	0.083577625
146	0x3dac568c	0.08414945
147	0x3d7540d3	0.059876274
148	0xbce6818b	-0.028137943
149	0xbd2daddd	-0.042402137
150	0x3c8c5597	0.017130656
151	0xbce7bac1	-0.028287293
152	0xbd437453	-0.047718357
153	0x3dd19f81	0.10235501
154	0x3e0ceab3	0.13761406
155	0x3c4a223e	0.012337266
156	0xbd12d9bf	-0.03585219
157	0xbc5fd39a	-0.01366129
158	0xbcd0ee1c	-0.025504164
159	0x3cb81c48	0.022474423
160	0x3cec789b	0.028866103
161	0xbe253b72	-0.16135958
162	0xbd99d60b	-0.075115286
163	0x3e0f59a7	0.13999043
164	0x3daacfe6	0.08340435
165	0xbcc47f67	-0.023986531
166	0xbd976f9a	-0.07394333
167	0xbd9ac6c0	-0.0755744
168	0xbe12e147	-0.14343749
169	0xbd8b9f5f	-0.06817507
170	0x3d5d7ebd	0.054075945
171	0x3dd11a6b	0.10210117
172	0x3d976900	0.07393074
173	0xbe10f0ff	-0.14154433
174	0xbdc53658	-0.09629506
175	0xbccf04e4	-0.025270887
176	0x3e1e2076	0.1544207
177	0x3caf64f9	0.021410452
178	0xbd6acfd7	-0.057327118
179	0x3d87acbf	0.066247456
180	0xbd79d080	-0.060989857
181	0xbdd4433a	-0.10364385
182	0x3def5c6b	0.11687549
183	0xbd951db3	-0.07281055
184	0xbd037bad	-0.03210037
185	0xbe231e89	-0.15929617
186	0x3ddb7b75	0.10716907
187	0x3df875e7	0.12131863
188	0x3d6f093b	0.058358412
189	0xbde4aa72	-0.11165322
190	0xbe21d46a	-0.15803686
191	0xbe052c8a	-0.13005272
192	0x3df48bf8	0.119407594
193	0x3d9d7272	0.07687844
194	0x3df32520	0.118723154
195	0x3dabcc96	0.08388631
196	0x3cdf2224	0.02723796
197	0xbc75b5b9	-0.014996939
198	0xbe09bf43	-0.13451867
199	0xbe199dc7	-0.15001594
200	0xbe274b2f	-0.16337274
201	0x3d584ffd	0.052810658
202	0xbdcf03a0	-0.10108113
203	0xbd8b6cd4	-0.06807867
204	0xbdd6d2b0	-0.10489404
205	0xbd3c7dbb	-0.046018343
206	0xbe04eaee	-0.12980244
207	0xbdd64861	-0.10463024
208	0x3d23ed52	0.04002125
209	0xbd42ed37	-0.047589507
210	0x3dca73fa	0.09885402
211	0xbd5269e3	-0.051370513
212	0xbdf0915d	-0.11746476
213	0xbce7727f	-0.028252838
214	0xbd9ef821	-0.077621706
215	0xbd6e07af	-0.058112796
216	0xbe119cda	-0.1421999
217	0x3d9ac90f	0.0755788
218	0xbde450a5	-0.11148194
219	0x3da4d466	0.08048324
220	0x3d94d0ab	0.07266363
221	0x3dea4af6	0.11440079
222	0xbdfb8c86	-0.12282662
223	0x3debdaeb	0.11516365
224	0xbd9b090b	-0.07570084
225	0x3d7360f1	0.059418622
226	0x3e19fcdf	0.15037869
227	0xbcb90057	-0.02258317
228	0xbaa24ff9	-0.0012383453
229	0xbd170137	-0.036866393
230	0xbe08e9d7	-0.13370453
231	0x3d9d616a	0.07684596
232	0xbe22c6f4	-0.15896207
233	0x3db1e7d6	0.08686797
234	0x3df55ff1	0.1198119
235	0x3e2262bd	0.15857978
236	0xbcfb4d61	-0.030676546
237	0xbdff29ee	-0.12459169
238	0x3d3016c7	0.042990472
239	0x3dc3d0f0	0.09561336
240	0xbe1c0eef	-0.15240072
241	0xbd3c2134	-0.045930102
242	0xbd9fa0ff	-0.077943794
243	0xbbe64fec	-0.0070285704
244	0xbdb6a983	-0.089190505
245	0xbd25eac9	-0.04050711
246	0xbd50376b	-0.0508341
247	0xbe14981c	-0.1451115
248	0x3e068a25	0.13138635
249	0x3e097652	0.13424042
250	0xbccdc6ad	-0.02511915
251	0xbc956316	-0.018235724
252	0xbd85d700	-0.065351486
253	0xbe141389	-0.14460577
254	0xbe13613d	-0.14392562
255	0x3d89e7aa	0.067336395

a2c_network.actor_mlp.0.bias f4 [256]
0	0xbbcaf9bb	-0.006194321
1	0xbd166f8f	-0.036727484
2	0xbbcd9b3b	-0.0062746084
3	0x3d208a8e	0.039194636
4	0xbbe8daca	-0.00710616
5	0xbcc348c2	-0.023838405
6	0x3b960e78	0.0045793615
7	0x3cc114d1	0.023569496
8	0xbcac7161	-0.021050157
9	0x3cacf8e7	0.02111478
10	0x3c10777a	0.008817548
11	0x3bb6a370	0.0055736825
12	0x3c020e74	0.007938016
13	0x3c3f1a0a	0.011663923
14	0xbd0476b7	-0.032339778
15	0xbd0c37b2	-0.034232803
16	0xbc14de76	-0.009086242
17	0x3c4020a4	0.011726532
18	0xbbe871dd	-0.0070936517
19	0x3b821389	0.003969614
20	0xbad9f170	-0.001662774
21	0xbcc4d8bf	-0.024029134
22	0xbcd5c8a8	-0.026096657
23	0xbc86facf	-0.016477017
24	0xbd671111	-0.05641276
25	0x3c848dba	0.016180862
26	0x3c1d30be	0.009594141
27	0x3b6603e5	0.0035097536
28	0x3d267371	0.040637437
29	0x3c54b86c	0.012983423
30	0x3c0a3903	0.008436444
31	0xbb847dee	-0.0040433323
32	0x3d039706	0.03212645
33	0x3a49c8a9	0.0007697442
34	0x3a8e36da	0.0010850087
35	0xbd1878b6	-0.037224494
36	0xbcf8ff95	-0.030395309
37	0xbd35eac5	-0.044413347
38	0x3c574367	0.013138629
39	0x3c3348d4	0.010942657
40	0xbc6d0842	-0.014467301
41	0xbca7b5c8	-0.020472422
42	0xbd435755	-0.04769071
43	0xbc8d3c6a	-0.017240722
44	0xbc97fc21	-0.018552842
45	0xbb6045e2	-0.003422134
46	0xbd075578	-0.033040494
47	0x3cb14660	0.021640003
48	0xbd3144c6	-0.043278478
49	0xbcbb7057	-0.022880716
50	0xbc39cdeb	-0.011340599
51	0x3d1eae7f	0.03874063
52	0x3c48708d	0.012233865
53	0x3ca43dfc	0.020049088
54	0xbcdee594	-0.02720908
55	0xbb43d131	-0.0029879326
56	0x3b37707f	0.0027990637
57	0x3c362ca0	0.011119038
58	0xbacbdec6	-0.0015554063
59	0xbcc721a1	-0.024308028
60	0xbd238a36	-0.03992673
61	0xbcbc44f7	-0.022982104
62	0x3cb3b58d	0.021937156
63	0x3c8e5e82	0.01737905
64	0xbcfc0ec1	-0.030768754
65	0x3ca43723	0.020045822
66	0xbceb3d48	-0.028715745
67	0xbcf8aecd	-0.030356789
68	0xbb5b8a1a	-0.0033499063
69	0x3c1d335f	0.009594767
70	0xbc6ed662	-0.01457748
71	0xbc87c776	-0.016574603
72	0x3c9a220c	0.018815063
73	0x3c6188be	0.013765512
74	0x3ccd8ba7	0.025091005
75	0xbc08c56c	-0.00834785
76	0x3d4346af	0.04767483
77	0x3d304b05	0.043040294
78	0xbd3b3bb4	-0.045711234
79	0xbcd48c96	-0.025945943
80	0xbcdf2134	-0.027237512
81	0x3ae824e4	0.001771119
82	0x3c6040f4	0.013687361
83	0x3d02d968	0.031945616
84	0x3c15af0d	0.009135974
85	0x3ac47444	0.0014988263
86	0xbbd1ce96	-0.006402801
87	0xbd061bfc	-0.03274153
88	0xbb6952a3	-0.0035602234
89	0xbc8f8617	-0.017519994
90	0xbcf0287c	-0.02931618
91	0xbd18eb52	-0.037333794
92	0x3d01e84d	0.03171568
93	0x3ccf014f	0.025269179
94	0x3d14de90	0.036345065
95	0x3c62bfa3	0.013839635
96	0xbc74b5f8	-0.014935963
97	0x3cc059dd	0.02348035
98	0xbc4d2398	-0.012520693
99	0x3c3ee782	0.011651875
100	0x3cd4dacb	0.025983235
101	0xbbd2d99e	-0.0064346334
102	0x3c766c4b	0.0150404675
103	0x3ab5f1d4	0.0013881274
104	0xbbdeaa6a	-0.0067952173
105	0xbca564f5	-0.020189742
106	0xbac59d37	-0.0015076761
107	0xbbba442a	-0.0056843953
108	0xbcd1dfd1	-0.02561942
109	0x3ceffc89	0.029295223
110	0xbcb78e19	-0.022406625
111	0xbce2c737	-0.027682884
112	0xbc2dc742	-0.010606589
113	0x3d0f56ff	0.034995075
114	0xbd09662f	-0.033544715
115	0x3cc61cb4	0.024183609
116	0x3d0a0227	0.03369346
117	0xbb39fede	-0.0028380672
118	0xbcb77246	-0.022393357
119	0xbd160edd	-0.03663527
120	0x3c85a7d8	0.016315386
121	0x3b87f3ed	0.0041489513
122	0xbce5f56c	-0.028071128
123	0xbb052e4d	-0.0020321787
124	0xbbd86d58	-0.0066048317
125	0xbcec67d4	-0.028858103
126	0x3b81fa25	0.003966587
127	0x3d020cf8	0.03175065
128	0x3d133434	0.035938457
129	0xb9ed6809	-0.00045281675
130	0x3b3744fe	0.0027964707
131	0xbc602235	-0.013680031
132	0xbbc7fa4c	-0.0061028358
133	0x3c8243be	0.015901443
134	0xbaa789f3	-0.0012782201
135	0x3cf359a9	0.02970584
136	0x3c385009	0.011249551
137	0xbd02392b	-0.0317928
138	0xbcd0b7d2	-0.025478277
139	0x3c83edc6	0.01610459
140	0x3b2fe616	0.0026840023
141	0x3d03ced8	0.032179683
142	0x3d07574d	0.03304224
143	0x3d1944f4	0.037419274
144	0x3ce3c6b1	0.027804704
145	0x3cb2ce28	0.021826819
146	0xbcdb50ac	-0.026771866
147	0x3a1deb89	0.0006024172
148	0x3ce44a69	0.027867513
149	0x3b2e379c	0.0026583439
150	0x3cd2334e	0.02565923
151	0xbacf6b17	-0.0015824762
152	0x3c967420	0.01836592
153	0xbd01518f	-0.03157192
154	0x3c9d820a	0.019227047
155	0xbba8f511	-0.0051561673
156	0xbd1a443b	-0.037662726
157	0xbcbdb9d1	-0.023159893
158	0xbca868e6	-0.020557832
159	0xbce04e73	-0.027381158
160	0xbd324b68	-0.043528944
161	0xbb45ffce	-0.0030212286
162	0xbcf6872b	-0.03009375
163	0xbc187603	-0.00930548
164	0xba9ea3e3	-0.0012103285
165	0x3d124e39	0.03571913
166	0xbcee202b	-0.029068073
167	0x3c410258	0.011780344
168	0xbbce930b	-0.00630415
169	0x3c4aeb13	0.012385148
170	0xbc04b6fb	-0.008100267
171	0xbc27f7cd	-0.010251951
172	0x3bed4d62	0.0072418908
173	0x3cc5eaf8	0.024159893
174	0x3ca81dc3	0.020522004
175	0xbce5faa7	-0.028073622
176	0x3d113ea5	0.035460133
177	0xbc88fa8a	-0.016721029
178	0x3b10254a	0.0021994882
179	0xbd0a74d0	-0.033802807
180	0xbd0df2c3	-0.034655344
181	0x3d267f88	0.040648967
182	0xbb572f85	-0.003283472
183	0xbc0b88a0	-0.008516461
184	0x3cbb0220	0.022828162
185	0x3d0d3d52	0.034482308
186	0x3bb63ddb	0.005561573
187	0xbcc37d63	-0.0238635
188	0xbcea6a3c	-0.02861511
189	0xbb03ed3e	-0.002013042
190	0x3d0b3320	0.033984303
191	0xbc97c0b1	-0.0185245
192	0x3d290ffe	0.041275017
193	0xbc82c7f3	-0.015964484
194	0x3cfff193	0.031243121
195	0xba46424c	-0.00075629796
196	0x3d1a6887	0.03769734
197	0xbce83626	-0.028346132
198	0xbca6d0a4	-0.02036316
199	0xbccd1ec8	-0.025039092
200	0x3bb81aee	0.0056184446
201	0xbc9dc1bc	-0.019257419
202	0x3d149ca2	0.03628219
203	0x3a4c604b	0.0007796331
204	0xbc87022e	-0.016480532
205	0xbcf00b1c	-0.029302172
206	0xbbfab8d9	-0.00765143
207	0x3cd2af0c	0.025718234
208	0x3ca301ba	0.019898284
209	0xbbf2a7c1	-0.0074052517
210	0x3baa0ccc	0.005189514
211	0xbc7367a9	-0.0148562575
212	0xbb8c9cf2	-0.0042911703
213	0x3c5366b4	0.012902904
214	0x3ce21f25	0.027602741
215	0xbc17187f	-0.009222149
216	0xbc811f3c	-0.015761964
217	0xbd01ad48	-0.031659395
218	0x3d355611	0.044271532
219	0x3cd2b237	0.025719745
220	0x3b70bbc5	0.0036733013
221	0x3c6e2c49	0.014536926
222	0x3b2050e6	0.0024462282
223	0x3c99b05d	0.018760854
224	0x3bbf1e43	0.005832465
225	0xbc2f9d1b	-0.010718609
226	0xbc0f4139	-0.008743578
227	0xbc140bac	-0.009035986
228	0xbc0763ae	-0.008263512
229	0xbadbdd19	-0.0016774266
230	0x3b88bcb4	0.004172886
231	0xbc097255	-0.008389075
232	0xbcd1c949	-0.025608676
233	0xbc833576	-0.016016703
234	0x3bc9dff5	0.006160731
235	0x3ce37e49	0.027770178
236	0xbba637dd	-0.0050725774
237	0x3c7d9d5d	0.015479413
238	0x3bb69369	0.005571772
239	0xbd2ed7e8	-0.042686373
240	0xbb01a367	-0.0019781233
241	0x3c062ab2	0.00818889
242	0x3c6a06c3	0.014283839
243	0x3cd53980	0.026028395
244	0xbc00176c	-0.007818084
245	0x3d2d37d8	0.042289585
246	0x3cfcadb9	0.030844556
247	0x3c88cdf0	0.016699761
248	0xbbf83a15	-0.0075752833
249	0x3cf44a04	0.02982045
250	0xbce08eea	-0.027411897
251	0x3cfd6e1a	0.03093629
252	0x3b1f6a0e	0.0024324688
253	0x3cc63a26	0.02419765
254	0x3ca8ee84	0.020621546
255	0xbc4a42e1	-0.012345047

a2c_network.actor_mlp.2.weight f4 [128, 256]
0	0x3c35f0cd	0.011104775
1	0xbc4ace29	-0.012378254
2	0x3c477008	0.012172706
3	0xbd465e22	-0.048429616
4	0xbce657df	-0.028118072
5	0x3d316a9e	0.04331457
6	0xbd88bf6b	-0.06677135
7	0xbd8221db	-0.06354114
8	0xbd4faa94	-0.050699785
9	0xbd72aa80	-0.059244633
10	0xbd622827	-0.055214074
11	0xbcdba8af	-0.026813833
12	0x3c7ffad3	0.015623766
13	0xbd970673	-0.07374277
14	0xbd9f0302	-0.077642456
15	0xbd38afbe	-0.045089476
16	0xbd496274	-0.049166158
17	0x3d07e278	0.03317496
18	0xbc7b8048	-0.015350409
19	0x3c88be8a	0.016692419
20	0x3d82857d	0.06373117
21	0xbcf56a67	-0.029957963
22	0xbc610f3c	-0.013736542
23	0xbc5ac403	-0.013352397
24	0x3d3e7648	0.04649952
25	0x3cb89ba5	0.022535155
26	0xbc30162c	-0.010747474
27	0x3c226023	0.009910616
28	0xbd9b4003	-0.07580569
29	0xbd1b03b1	-0.037845317
30	0xbd673adf	-0.05645263
31	0xbd9a298e	-0.07527457
32	0xbd590efa	-0.0529928
33	0xbd148f67	-0.03626957
34	0xbc8358c7	-0.016033543
35	0x3d26f320	0.040759206
36	0x3c78e9ff	0.015192508
37	0xbbf3b4a6	-0.0074373065
38	0x3b6490bf	0.0034876314
39	0x3d86625f	0.065617315
40	0xbce1b78d	-0.027553344
41	0x3d58d4ba	0.052937247
42	0x3d1f446e	0.03888362
43	0xbd2e25c4	-0.042516485
44	0x3d4e8424	0.050418988
45	0x3c243172	0.010021554
46	0xbd570ccc	-0.05250244
47	0x3d942fc9	0.07235677
48	0x3c35deeb	0.011100511
49	0x3da3960d	0.07987604
50	0xbc6a28d2	-0.014291959
51	0xbd0eac36	-0.034832202
52	0x3d85c48b	0.06531628
53	0x3ba9ebec	0.005185595
54	0x3d73d98e	0.05953365
55	0xbcdf95c8	-0.027293101
56	0x3ce62195	0.028092185
57	0xbc7737a1	-0.015088947
58	0x3cb6f5ca	0.022333998
59	0x3cd973de	0.026544508
60	0xbc8677a8	-0.016414478
61	0x3d8af085	0.06784157
62	0x3cb067d7	0.02153389
63	0x3b5054e5	0.0031788882
64	0x3cd228ec	0.025654279
65	0x3c313e06	0.01081801
66	0xbbf261fe	-0.0073969355
67	0x3d0b608e	0.03402763
68	0xbd82afa4	-0.06381157
69	0xbcec3d24	-0.028837748
70	0x3cbf66a5	0.023364374
71	0xbcc9fca7	-0.024656607
72	0xbcfba9a0	-0.030720532
73	0x3d27a70d	0.040930796
74	0x3c8e69aa	0.017384369
75	0xbd1c6423	-0.038181435
76	0x3c0549e1	0.00813529
77	0x3d13fcbf	0.03612971
78	0xbcf8f226	-0.030388903
79	0x3d35bd1e	0.04436981
80	0xbbcd8d06	-0.006272915
81	0xbd079db3	-0.033109378
82	0xbd0a5de7	-0.03378096
83	0xbc9029c1	-0.017598035
84	0x3d2832f2	0.04106421
85	0xbca47dac	-0.020079456
86	0xbd9bad64	-0.07601431
87	0xbc728cc8	-0.014804073
88	0x3d5e8d93	0.054334234
89	0xbd196dba	-0.03745816
90	0x3d939b48	0.07207352
91	0x3d2263c7	0.039645936
92	0x3d855264	0.065098554
93	0xbca03309	-0.019555585
94	0xbd2f0795	-0.04273184
95	0xbd84e6f7	-0.064893655
96	0xbb2ecd0f	-0.0026672517
97	0xbcae3310	-0.021264583
98	0x3afca0cc	0.0019273995
99	0x3d33ca22	0.04389394
100	0x3d743df8	0.05962941
101	0xbdc1e6b9	-0.09467835
102	0xbd4581ba	-0.04821942
103	0xbb10dedf	-0.0022105498
104	0xbc6def40	-0.014522374
105	0x3d5ce04d	0.053924847
106	0xbd20f2c9	-0.039294038
107	0x3d43db26	0.047816418
108	0xbcf2501f	-0.02957922
109	0x3b463611	0.0030244628
110	0xbc915e0b	-0.017745038
111	0xbc363b15	-0.011122485
112	0xbd392981	-0.045205597
113	0xbda2c8e5	-0.07948474
114	0xbc856126	-0.016281676
115	0xbc28335e	-0.010266153
116	0xbd556905	-0.052102108
117	0xbca01788	-0.01954247
118	0xbd7395d6	-0.059469067
119	0xbce89555	-0.02839152
120	0xbda3d03b	-0.07998701
121	0x3d9057f6	0.07048027
122	0x385cd6d4	5.265216e-05
123	0x3cd51be3	0.026014274
124	0xbd880a5a	-0.066425994
125	0x3935abff	0.00017325579
126	0xbd959a1b	-0.07304784
127	0x3d03c015	0.032165606
128	0x3d2e5163	0.042558085
129	0xbd8d25fc	-0.068920106
130	0x3d8c0a5c	0.068379134
131	0x3bcf16e7	0.006319869
132	0xbd86c12c	-0.06579813
133	0x3c037d4d	0.0080254795
134	0x3d444819	0.04792032
135	0xbd56747c	-0.052357182
136	0x3d112a04	0.03544046
137	0x3d04af02	0.032393463
138	0x3d086353	0.033297848
139	0xbcebecb5	-0.028799394
140	0x3cb3a45f	0.021928964
141	0x3c3dc4f9	0.0115826065
142	0x3da20d4b	0.07912692
143	0xbd811f55	-0.06304804
144	0xb930c43d	-0.00016857772
145	0x3cc1a001	0.023635866
146	0xbd2f3a0b	-0.042779963
147	0xbcbcb4bc	-0.0230354
148	0x3d2dc002	0.04241944
149	0x3d01e72c	0.031714603
150	0xbaad8e07	-0.001324118
151	0xbbad672a	-0.005291839
152	0xbd7dc5aa	-0.061956085
153	0x3d2c862a	0.042120136
154	0xbcd7eb69	-0.02635737
155	0xbdbe4eab	-0.092923485
156	0x3c8e08f2	0.01733825
157	0xbd1eb75e	-0.03874909
158	0x3cb2522e	0.021767702
159	0x3d843ca1	0.064568765
160	0x3d63886e	0.05555003
161	0x3d08b209	0.033372913
162	0xbcfe22ab	-0.03102239
163	0xb96660f6	-0.0002197063
164	0x3cd145f1	0.025546046
165	0xbd237ffc	-0.039916977
166	0x3d5adc5e	0.053432815
167	0x3d3a0cd6	0.045422398
168	0xbd83a243	-0.06427433
169	0xbc6f8de5	-0.014621233
170	0xbd2f7ea1	-0.042845372
171	0x3c9494c1	0.018137338
172	0x3ccd8ed4	0.02509252
173	0xbd373899	-0.04473171
174	0x3c2adc67	0.010428525
175	0xbc9a2cb6	-0.018820148
176	0x3d26e688	0.040747195
177	0x3d441258	0.047869056
178	0x3c15c0f8	0.009140246
179	0xbd65f84a	-0.05614499
180	0x3cdc460f	0.026888875
181	0xbd132340	-0.03592229
182	0x3cca9a88	0.02473189
183	0xbcb7fe40	-0.022460103
184	0x3d453071	0.0481419
185	0xbc2baa3d	-0.0104776
186	0x3b1e56ad	0.002416055
187	0xbd302c38	-0.04301092
188	0x3cff1f13	0.031142747
189	0xbc83a2ea	-0.016068894
190	0x3c8b1960	0.016979873
191	0x3cc3201e	0.023819026
192	0xbd3ad290	-0.045610964
193	0xbd644a30	-0.055734813
194	0x3cf6b35e	0.030114826
195	0xbccb1709	-0.024791257
196	0xbd86abd9	-0.06575746
197	0x3d8f4a54	0.06996599
198	0xbd0033e0	-0.03129947
199	0xbcfc066e	-0.030764785
200	0xbd9de31b	-0.077093326
201	0x3d05f906	0.03270819
202	0xbc8dd54a	-0.017313618
203	0x3ca64812	0.020298038
204	0xb9cc4b6d	-0.0003896611
205	0xbbc60aef	-0.006043784
206	0xbc8a35a7	-0.016871287
207	0x3d7f155c	0.06227623
208	0x3cb2a971	0.021809312
209	0x3c838e28	0.016058996
210	0xbd866377	-0.0656194
211	0xbd5b07f0	-0.053474367
212	0x3c2da6f4	0.010598887
213	0x3bda2e9b	0.006658388
214	0x3bae3ba1	0.005317167
215	0xbc975e6d	-0.018477643
216	0x3d00abce	0.031413846
217	0x3d29884b	0.041389745
218	0xbcdd62c8	-0.027024642
219	0x3c67db80	0.014151454
220	0xbcb5fbfb	-0.02221488
221	0x3d81ed82	0.06344129
222	0xbc4a00e9	-0.012329319
223	0xbc51d68c	-0.0128075
224	0x3d6f4a44	0.058420435
225	0xbd29604c	-0.0413516
226	0x3cb41f34	0.021987535
227	0xbd22745f	-0.03966176
228	0xbd8569ff	-0.06514358
229	0x3d1441bb	0.036195498
230	0xbc1810ed	-0.009281379
231	0xbdcce9f7	-0.10005563
232	0xbd4d9542	-0.05019117
233	0xbc966f06	-0.018363487
234	0x3d1c54dc	0.038166866
235	0x3cca6dc1	0.024710538
236	0xba0b75c5	-0.0005319978
237	0x3d203c8a	0.039120235
238	0xbd8bc422	-0.06824519
239	0x3d30d10e	0.04316812
240	0x3c679e2f	0.014136835
241	0xbb43ea45	-0.0029894274
242	0x3c85f216	0.016350787
243	0x3c763dd5	0.01502939
244	0x3bd97594	0.006636331
245	0x3ceb0ba1	0.028692069
246	0x3d849960	0.064745665
247	0x3da1552a	0.07877572
248	0xbc271901	-0.0101988325
249	0x3c77af3f	0.0151174655
250	0x3d00d288	0.03145078
251	0xbcce57cd	-0.025188351
252	0x3d3dbd5a	0.046323158
253	0x3c7c9d38	0.015418343
254	0x3d692dc9	0.05692843
255	0xbbdc3579	-0.0067202416

a2c_network.actor_mlp.2.bias f4 [128]
0	0xbc98b0d2	-0.018639002
1	0x3d26008c	0.040527865
2	0xbc9e4e72	-0.019324515
3	0x3d3e5f4c	0.0464776
4	0xbd3755dd	-0.04475962
5	0xbc84c869	-0.016208844
6	0xbc4885a8	-0.012238897
7	0x3cc87585	0.0244701
8	0xbd31e368	-0.043429762
9	0x3b4ac162	0.003093802
10	0x3bfcca6a	0.0077145593
11	0x3d17ad2f	0.037030395
12	0x3d31d22a	0.04341332
13	0xbd17fb1f	-0.037104722
14	0x3d3f5dff	0.0467205
15	0x3d08bae5	0.03338136
16	0xbd354629	-0.044256363
17	0xbb1e442e	-0.0024149525
18	0x3ca378f8	0.019955143
19	0xbd30dd94	-0.043180063
20	0x3b4e3937	0.0031467208
21	0x3ca80dbd	0.020514363
22	0x3c7da170	0.015480384
23	0x3c8d3226	0.017235827
24	0x3cdab6ee	0.026698556
25	0x3d37e183	0.0448928
26	0xbc945c1f	-0.018110333
27	0xbd36426a	-0.04449693
28	0x3d69451d	0.056950677
29	0xbb17cfc5	-0.0023164612
30	0xbd36d330	-0.044634998
31	0xbc35fab5	-0.0111071365
32	0x3d199f62	0.037505515
33	0xbb18bbb7	-0.0023305246
34	0x3c6328e4	0.01386473
35	0x3d54fb5d	0.05199753
36	0xbd352056	-0.04422029
37	0xbc3bc805	-0.011461263
38	0x3d299abd	0.041407336
39	0xbd3e5e05	-0.046476383
40	0xbb98b562	-0.0046602944
41	0xbc810ec4	-0.015754111
42	0x3bd146f1	0.0063866307
43	0xbc515f62	-0.012779089
44	0x3cdc0dcb	0.026862046
45	0xbca20d95	-0.019781867
46	0xbd1afcb0	-0.037838638
47	0x3c0fcd38	0.008776955
48	0x3bceda82	0.0063126693
49	0xbcaaf7c4	-0.020870097
50	0x39dda75d	0.000422771
51	0x3d61dae5	0.055140395
52	0x3b8d16fb	0.004305718
53	0x3c146f88	0.009059794
54	0xbc126d7e	-0.008937238
55	0x3cec5998	0.028851315
56	0xba0518b6	-0.00050772296
57	0xbd120558	-0.035649627
58	0xbd282eac	-0.041060135
59	0x3cf9ea2c	0.03050717
60	0x3ce5fcb6	0.028074604
61	0x3cb0f02d	0.0215989
62	0x3d0ee787	0.03488877
63	0x3d38c479	0.045109246
64	0x3d5009b8	0.05079052
65	0x3c90a67c	0.017657511
66	0x3d3e82fa	0.046511628
67	0x3c5a4fe3	0.013324711
68	0xbb28329a	-0.0025664927
69	0x3d373fb3	0.044738483
70	0x3cdcba3c	0.026944272
71	0xbcba302e	-0.022728052
72	0xbd34fc89	-0.04418615
73	0xbd1149b4	-0.03547068
74	0x3c7c6da5	0.015407001
75	0x3d0b9d90	0.03408581
76	0x3b708dfb	0.003670572
77	0xbb93ee2f	-0.0045144777
78	0x3d2da7af	0.042396244
79	0xbd176519	-0.03696165
80	0x3c87fb43	0.016599303
81	0xbd255a9f	-0.040369626
82	0xbc1d1081	-0.009586454
83	0xbbd022ce	-0.0063518053
84	0xbd28884a	-0.0411456
85	0x3d4eb2df	0.050463554
86	0xbd50bdd4	-0.050962284
87	0xbc8f931a	-0.017526198
88	0x3d04480f	0.032295283
89	0x3b9ec16e	0.004844836
90	0x3cf1417b	0.029450169
91	0xbc410198	-0.011780165
92	0x3d1a1c1f	0.037624475
93	0x3b680fc9	0.00354098
94	0x3ca9cd11	0.020727666
95	0xbc1cde7e	-0.009574531
96	0x3cbe0392	0.023195062
97	0xbd103af7	-0.035212483
98	0x3d2ef7f5	0.04271694
99	0xbcdd8d66	-0.027044963
100	0xbd101b2e	-0.03518217
101	0x3cbf6942	0.02336562
102	0x3d346fbb	0.044051867
103	0x3cbc52c6	0.022988688
104	0x3cf0d588	0.029398695
105	0x3d3f36c1	0.046683077
106	0xbbab540d	-0.0052285255
107	0xbb3c92c6	-0.0028774007
108	0xbd259216	-0.04042252
109	0xbd3a4dc9	-0.045484338
110	0x3d5a0cd4	0.05323489
111	0xbd1a0cd3	-0.037609886
112	0xbcb5e020	-0.022201598
113	0xbbf71ede	-0.0075415215
114	0xbb3c160d	-0.0028699667
115	0x3d1a9507	0.03773978
116	0x3bd4e9a7	0.00649758
117	0xbbd8568e	-0.006602115
118	0xbcfac46c	-0.03061124
119	0xbbcfa138	-0.0063363574
120	0xbc5464bd	-0.012963471
121	0xbd51b925	-0.05120196
122	0x3c292e29	0.010325947
123	0xbca6dc37	-0.020368678
124	0xbbedcf8e	-0.0072574085
125	0xbcd9c4a4	-0.026583023
126	0x3d25d53b	0.040486556
127	0x3bdaa61f	0.006672635

a2c_network.actor_mlp.4.weight f4 [64, 128]
0	0x3d696549	0.05698136
1	0x3cee5f25	0.029098103
2	0xbd6650bf	-0.05622935
3	0x3e00ac8d	0.12565823
4	0xbc18c2b8	-0.009323768
5	0x3cfb80d6	0.030701082
6	0xbb4148f3	-0.0029492944
7	0xbcf90618	-0.030398414
8	0xbde9fcf1	-0.11425198
9	0x3d26888d	0.04065757
10	0xbdbaa2cf	-0.091130845
11	0x3db85a09	0.09001548
12	0x3dfaa703	0.12238886
13	0x3c7e458b	0.01551951
14	0x3e074107	0.132084
15	0xbcab3b88	-0.02090241
16	0xbd0b7a2a	-0.03405205
17	0x3da15107	0.07876783
18	0xbdce3db5	-0.100703634
19	0xbdfa851f	-0.12232422
20	0x3d823d4d	0.063593484
21	0x3d2c5ba6	0.04207959
22	0x3c6bf538	0.014401726
23	0x3b6bf69e	0.003600515
24	0x3daa8392	0.08325876
25	0x3dd75675	0.10514537
26	0xbd1f85de	-0.038946025
27	0xbdf0fbc4	-0.117667705
28	0x3dff5d90	0.124690175
29	0xbc504668	-0.012712099
30	0xbd28637e	-0.04111051
31	0x3afea3a6	0.0019427433
32	0x3d81ea01	0.06343461
33	0x3d4dc918	0.050240606
34	0x3dde37c9	0.10850484
35	0x3d0a3cb5	0.0337493
36	0xbcbc0f16	-0.022956412
37	0xbdd252be	-0.10269688
38	0x3dc5d484	0.09659675
39	0xbd0d0788	-0.03443101
40	0x3deaacc1	0.114587314
41	0xbd3b7dc6	-0.045774244
42	0x3c360157	0.011108718
43	0x3dab5f7e	0.08367823
44	0xbdc6580d	-0.09684763
45	0xbd965090	-0.07339585
46	0xbca06cd5	-0.019583145
47	0xbd8db453	-0.0691916
48	0xbda4cc3e	-0.080467686
49	0x3cdafa87	0.026730789
50	0x3dc26607	0.094921164
51	0x3d68ab8b	0.05680422
52	0xbd915860	-0.07096934
53	0xbd31fb3a	-0.04345248
54	0x3c8a6d53	0.016897833
55	0x3d8f252e	0.06989513
56	0xbde487aa	-0.11158688
57	0x3d3b3f5a	0.045714714
58	0xbd2c07c4	-0.041999593
59	0x3dc0732f	0.093969695
60	0x3d63d699	0.05562458
61	0xbd6c3f71	-0.05767769
62	0x3db44e0d	0.088039495
63	0xbc94fc7d	-0.018186802
64	0x3d873dfc	0.066036195
65	0xbd1e83aa	-0.038699783
66	0xbcf02ce8	-0.029318288
67	0xbc6f2967	-0.014597273
68	0xbc612f88	-0.0137442425
69	0x3dbe2f34	0.09286347
70	0xbd5e00e2	-0.05420006
71	0xbdc0f9b3	-0.09422626
72	0xbdee32c1	-0.11630774
73	0xbd8fb968	-0.07017785
74	0x3de4d4da	0.11173411
75	0x3de2a782	0.11067106
76	0x3b82d489	0.0039926213
77	0xbdec0888	-0.11525065
78	0x3d6cc957	0.0578092
79	0xbda788c7	-0.08180385
80	0x3bd88738	0.006607916
81	0x3d1e6385	0.038669128
82	0x3d95d213	0.07315459
83	0xbcd27134	-0.025688745
84	0xbd690117	-0.056885805
85	0x3c192f5d	0.009349671
86	0xbdbe0dc0	-0.09279966
87	0xbcc2b94b	-0.023769995
88	0x3d9a975b	0.075484
89	0x3d044b0e	0.03229814
90	0x3cf0fb52	0.029416714
91	0x3e056dcf	0.1303017
92	0x3d88d6e1	0.0668161
93	0xbda5440a	-0.08069618
94	0x3e05cd45	0.13066585
95	0xbd1070b6	-0.03526374
96	0xbc93a75f	-0.018024145
97	0xbda1b2df	-0.07895445
98	0x3d9833b5	0.07431737
99	0xbd054c58	-0.03254351
100	0xbd2b13c4	-0.041766897
101	0xbb9b84ba	-0.004746047
102	0xbcbf200b	-0.023330709
103	0xbd403415	-0.04692467
104	0x3d42aada	0.047526218
105	0x3c016119	0.007896685
106	0xbd6fb63a	-0.058523394
107	0x3db0cb43	0.08632519
108	0xbd21f2d1	-0.03953821
109	0xba16bdcf	-0.00057503296
110	0x3dbca22f	0.092106216
111	0xbdaf06e5	-0.08546237
112	0xbb7fcb43	-0.0039031066
113	0xbe00d87e	-0.12582585
114	0xbba3c1b7	-0.004997458
115	0x3dd274f9	0.10276217
116	0xbdd2c036	-0.102905676
117	0x3bcf4bbd	0.0063261674
118	0xbd89db1d	-0.06731246
119	0x3d8c1154	0.068392426
120	0x3d586e71	0.0528397
121	0xbce5a709	-0.02803375
122	0xbbb0cb3f	-0.0053953226
123	0xbc90bc53	-0.017667925
124	0xbac9fdef	-0.0015410761
125	0xbdd4cfde	-0.1039121
126	0x3dd9cdd1	0.106349595
127	0x3b8138fc	0.0039435606
128	0xbccfc818	-0.025363967
129	0x3bc8e80b	0.0061311773
130	0xbc9841a1	-0.018585982
131	0xbdca7d55	-0.098871864
132	0x3d91af33	0.07113495
133	0xbd8febbe	-0.07027386
134	0xbd1b3ddb	-0.037900787
135	0xbca9bd4a	-0.020720143
136	0x3dae2bdf	0.085044615
137	0xbcc6ee66	-0.0242836
138	0x3d06a5c0	0.032872915
139	0x3c7a5b45	0.015280549
140	0x3d6fc72b	0.05853955
141	0x3d9cfab6	0.07665007
142	0x3c29fe44	0.010375563
143	0xbc7be7c9	-0.015375086
144	0x3d8367d5	0.06416289
145	0x3a36db34	0.0006975413
146	0xbd3f3648	-0.046682626
147	0x3bd71618	0.006563913
148	0x3cf539b3	0.02993474
149	0xbd71e0df	-0.059052344
150	0xbcfcd707	-0.030864252
151	0xbcca747e	-0.02471375
152	0x3d4508ff	0.048104282
153	0xbdbe5c18	-0.09294909
154	0xbc8ca3a1	-0.017167868
155	0xbd7a1435	-0.061054427
156	0x3d4b8cdb	0.049694877
157	0xbd8eb9e8	-0.069690526
158	0x3d5e848b	0.05432562
159	0xbd865e79	-0.06560988
160	0xbd14d756	-0.036338173
161	0xbd0a4809	-0.033760104
162	0xbcc4ceda	-0.024024416
163	0xbd9df13f	-0.0771203
164	0xbd6026af	-0.05472439
165	0xbd4dc033	-0.050232124
166	0xbd60df4a	-0.054900445
167	0x3d849b36	0.06474917
168	0xbb992299	-0.004673314
169	0xbda5768e	-0.08079253
170	0xbd91d481	-0.0712061
171	0x3d452f8c	0.048141047
172	0xbd987b55	-0.07445399
173	0x3da5a0d6	0.08087318
174	0x3c9819ad	0.01856693
175	0xbd4b74d8	-0.049671978
176	0x3d4fc97f	0.05072927
177	0x3d560061	0.052246455
178	0x3c9edee3	0.01939339
179	0xbd386d05	-0.045025844
180	0xbc832ed3	-0.016013538
181	0xbc5f05b0	-0.013612196
182	0xbdaa9550	-0.0832926
183	0x3c82300b	0.01589205
184	0xbd0fca92	-0.035105295
185	0x3c2c989e	0.010534434
186	0xbb55ba9c	-0.0032612449
187	0x3d8d74bb	0.0690703
188	0xbdd575bb	-0.10422846
189	0xbd5e7f2c	-0.0543205
190	0x3d02f3dd	0.031970847
191	0xbd5d1639	-0.05397627
192	0x3d4843cc	0.04889278
193	0xbd2d4457	-0.042301502
194	0x3be4f67d	0.0069873915
195	0x3d263e21	0.040586594
196	0x3d994c53	0.07485261
197	0x3d3196a9	0.04335657
198	0x3d3c27d0	0.045936406
199	0xbbd104fc	-0.006378768
200	0x3ceab767	0.028651906
201	0x3d63d87b	0.055626374
202	0xbda6f8eb	-0.08152946
203	0xbd986c04	-0.07442477
204	0x3ce136eb	0.027492007
205	0xbd77298d	-0.06034236
206	0x39416420	0.00018443214
207	0x3c97792c	0.018490396
208	0x3da3d7d9	0.08000154
209	0x3da83881	0.08213902
210	0xbdde3836	-0.10850565
211	0x3dde596f	0.10856902
212	0xbd60a7d6	-0.05484756
213	0xbdc1f0da	-0.09469767
214	0xbbe401d1	-0.0069582243
215	0x3c2d3ed6	0.010574063
216	0xbce4f51f	-0.027948914
217	0x3be6ba0c	0.0070412215
218	0xbbb4e87d	-0.005520879
219	0xbd2681e7	-0.04065123
220	0xbd08a73a	-0.033362605
221	0x3d5e9755	0.05434354
222	0xba9ba874	-0.0011875764
223	0xbd4c2159	-0.04983649
224	0x3d5d2326	0.0539886
225	0x3d3776d9	0.044791076
226	0xbc25aafc	-0.010111567
227	0xbbff2d2b	-0.007787367
228	0x3da74bb7	0.08168738
229	0x3c0f15f3	0.00873326
230	0x3d6de185	0.0580764
231	0x3dc66ef2	0.0968913
232	0xbd8c8d9b	-0.068629466
233	0xbd19960e	-0.03749662
234	0xbd75ab62	-0.059977897
235	0x3ba2e995	0.004971693
236	0x3d9b8a69	0.07594759
237	0x3d67be6b	0.05657808
238	0xbd40364a	-0.046926774
239	0x3d2e8e82	0.042616375
240	0x3d74e32a	0.059786953
241	0xbd02b7a2	-0.031913407
242	0x3d7203ae	0.05908554
243	0xbc92593d	-0.017864818
244	0x3d16588e	0.036705546
245	0xbb8f8f00	-0.0043810606
246	0x3d5f87f0	0.054573
247	0x3cbe9827	0.023265911
248	0xbd07078d	-0.032966185
249	0x3cbd4a5d	0.023106748
250	0xbd3cd4f8	-0.04610154
251	0xbd96773f	-0.07346963
252	0xbd330060	-0.04370153
253	0xbd33d38f	-0.04390293
254	0xbc07a5b0	-0.008279249
255	0x3db48cc5	0.08815912

a2c_network.actor_mlp.4.bias f4 [64]
0	0x3d6793a9	0.056537304
1	0xbd3302df	-0.04370391
2	0xbd3dc804	-0.046333328
3	0xbd22960f	-0.03969389
4	0x3d118a41	0.03553224
5	0xbcd7876f	-0.026309697
6	0xbc93df31	-0.018050762
7	0x3bd2fd46	0.006438884
8	0x3c505ddc	0.01271769
9	0xbd871aba	-0.065968946
10	0xbd4d51c5	-0.05012681
11	0x3d018e7e	0.03163003
12	0xbc973124	-0.01845605
13	0xbd761b8b	-0.06008486
14	0xbd523821	-0.05132306
15	0x3cfd76c3	0.030940419
16	0xbcb75d5e	-0.022383388
17	0x3d4fba2e	0.050714664
18	0x3d13e805	0.036109943
19	0xbcdc4c2b	-0.026891788
20	0x3cc5d194	0.024147786
21	0xbd427ca0	-0.047482133
22	0xbcb95c60	-0.022627056
23	0xbcd32863	-0.025776094
24	0x3d47292f	0.04862326
25	0xbc996f6b	-0.018729886
26	0x3bada709	0.005299453
27	0x3d3f065d	0.046636928
28	0xbd4a1a8e	-0.04934173
29	0xbc25c557	-0.01011785
30	0x3d856d7e	0.065150246
31	0xbb916198	-0.004436683
32	0x3d33420d	0.043764163
33	0xbd6d4197	-0.05792388
34	0xbd7e2fb1	-0.0620572
35	0xbcde673c	-0.027148835
36	0xbcf109ed	-0.029423678
37	0xbd075c2b	-0.033046883
38	0x3d3870ed	0.04502957
39	0xbd6e0e1f	-0.058118936
40	0x3d5edd7d	0.054410446
41	0xbd844558	-0.06458539
42	0x3d10bfe1	0.03533924
43	0x3c6134d6	0.013745507
44	0x3d269f12	0.040679045
45	0x3c8df683	0.01732946
46	0x3d241f4a	0.040068902
47	0x3cd017c6	0.025401961
48	0x3ccfde11	0.025374444
49	0xbd0cc8a6	-0.03437104
50	0x3d7665e1	0.060155753
51	0xbd26bc71	-0.040707055
52	0xbd8853ec	-0.06656632
53	0x3cfec7fc	0.03110122
54	0x3ca28ad6	0.019841593
55	0x3d3fd64f	0.04683524
56	0x3b72054b	0.0036929424
57	0x3c3e756a	0.011624673
58	0xbd1f15c2	-0.03883911
59	0x3cb4e1c6	0.022080313
60	0xbd3d083c	-0.04615043
61	0xbbef994d	-0.007311976
62	0xbd607890	-0.054802477
63	0xbc945472	-0.018106673

a2c_network.value.weight f4 [1, 64]
0	0xbdb2db70	-0.08733261
1	0x3db506eb	0.0883921
2	0x3de16994	0.110064656
3	0x3d56efcb	0.05247478
4	0xbc8134a3	-0.01577217
5	0x3d64eb38	0.055888385
6	0x3d5025e3	0.05081738
7	0x3b8171e3	0.003950344
8	0x3cd29378	0.025705084
9	0x3def4b3e	0.11684273
10	0x3df893b4	0.12137547
11	0xbda546de	-0.080701575
12	0x3ba3eef5	0.005002851
13	0x3e135500	0.14387894
14	0x3dc315f8	0.095256746
15	0xbd8ad2f8	-0.0677852
16	0x3ddcc08f	0.10778915
17	0xbdffe6d4	-0.12495199
18	0xbd929a34	-0.07158318
19	0x3d278bdf	0.040904876
20	0xbd2a1463	-0.04152335
21	0x3d9fb253	0.077976845
22	0x3d0d6746	0.034522317
23	0x3dd1bd45	0.102411784
24	0xbd2c9d60	-0.042142272
25	0x3dba0652	0.09083237
26	0x3c4ed830	0.012624785
27	0xbe0bfd21	-0.1367078
28	0x3dcf37de	0.10118078
29	0x3daf8df5	0.08571998
30	0xbe11762f	-0.1420524
31	0x3cc1f04c	0.023674153
32	0xbd9fa7fc	-0.07795712
33	0x3ddccd0d	0.10781298
34	0x3db00e4d	0.08596478
35	0x3d2d4318	0.042300314
36	0x3da96a93	0.082722805
37	0x3dd5507c	0.10415742
38	0xbda88806	-0.082290694
39	0x3e0809b1	0.13284947
40	0xbd5b2f79	-0.05351207
41	0x3e2044b8	0.15651214
42	0xbdb5065e	-0.08839105
43	0xbcca2bd4	-0.024679102
44	0xbda6d3e2	-0.08145882
45	0xbdd9cff8	-0.1063537
46	0xbe027ab4	-0.1274212
47	0xbda68b0e	-0.08131991
48	0xbd061abe	-0.032740347
49	0x3d85b22e	0.06528126
50	0xbe22cd9d	-0.15898748
51	0x3da02630	0.07819784
52	0x3dec25a8	0.1153062
53	0xbcaa291d	-0.020771557
54	0xbc984312	-0.01858667
55	0xbd8ac3e5	-0.06775645
56	0xbd0406f3	-0.03223319
57	0xbd729e8f	-0.059233245
58	0x3d867e27	0.065670304
59	0xbd899d83	-0.06719496
60	0x3d91c816	0.071182415
61	0x3d2bc7be	0.041938536
62	0x3e12e947	0.143468
63	0x3d40077a	0.04688213

a2c_network.mu.weight f4 [24, 64]
0	0xbda21f94	-0.07916179
1	0xbc604038	-0.013687186
2	0xbcc9b181	-0.024620773
3	0xbdb25dc3	-0.0870929
4	0xbd17f0d6	-0.037094913
5	0x3deb68b8	0.11494583
6	0x3cfb77c9	0.030696766
7	0x3dc5ec91	0.09664262
8	0x3ce72a9e	0.028218564
9	0x3d865403	0.06558993
10	0xbdcc8236	-0.09985773
11	0x3c4fddfd	0.0126872035
12	0x3d79cc76	0.060986005
13	0xbbb47608	-0.0055072345
14	0xbd477c90	-0.048702776
15	0xbc2dcfe9	-0.010608652
16	0xbdaf2dc2	-0.085536495
17	0x3d838ad3	0.06422963
18	0x3cb84644	0.022494443
19	0xbdbb3ee5	-0.091428556
20	0x3d3488e3	0.044075858
21	0xbdf48bd1	-0.1194073
22	0x3d4d49e1	0.050119285
23	0xbd968bed	-0.073509075
24	0xbdc23231	-0.094822295
25	0x3cfd30ba	0.030907024
26	0x3c083d28	0.008315362
27	0x3de94629	0.11390335
28	0xbd7bcee2	-0.061476596
29	0x3e0a35de	0.13497111
30	0x3d2914c7	0.04127958
31	0x3d13b4d9	0.03606114
32	0x3d0dba22	0.03460134
33	0x3cbb9e4f	0.022902636
34	0x3d7c9cad	0.061672855
35	0x3cbac1c3	0.02279747
36	0x3db94a25	0.09047345
37	0xbde17107	-0.110078864
38	0xbd1d8bd8	-0.038463444
39	0xbd4c17b0	-0.049827278
40	0xbd88978b	-0.066695295
41	0xbdc99fa1	-0.098449
42	0xbda287a0	-0.07936025
43	0x3c99b9aa	0.01876529
44	0xbd1e3e62	-0.03863371
45	0xbdcbfb24	-0.09960011
46	0x3d7d03df	0.06177127
47	0x3dbd7233	0.092502974
48	0x3d4e5695	0.05037554
49	0xbd677ce5	-0.056515593
50	0x3e0b910e	0.13629553
51	0x3b561ed2	0.003267218
52	0xbc7535b1	-0.014966414
53	0x3c4c7a79	0.012480372
54	0x3df0153d	0.11722801
55	0xbd2e2b13	-0.042521548
56	0xbdb2e6e4	-0.08735445
57	0x3d0b1b48	0.033961564
58	0xbd9f6c2e	-0.077843055
59	0xbd628caa	-0.05530993
60	0x3c301b02	0.010748627
61	0x3defd83c	0.11711165
62	0xbd4b729a	-0.04966984
63	0xbc79fc54	-0.015257914
64	0xbdd3b6e3	-0.10337617
65	0x3d6b28fd	0.057412136
66	0xbddb8f17	-0.107206516
67	0xbb1f8491	-0.002434049
68	0x3d244991	0.04010922
69	0xbcf4cb26	-0.029882025
70	0x3d4eeb1b	0.050517183
71	0x3c6d2a87	0.014475471
72	0xbd4a4cb5	-0.04938956
73	0xbde70010	-0.11279309
74	0x3dd5a3ab	0.10431608
75	0xbdcb3426	-0.09922056
76	0xbd77e3cc	-0.06051998
77	0x3d5d8519	0.05408201
78	0xbcfd8fe9	-0.03095241
79	0xbd13fa16	-0.036127172
80	0x3ce2b2d6	0.027673166
81	0xbbe1c79a	-0.0068902494
82	0x3d8f2d65	0.0699108
83	0xbd74250f	-0.059605654
84	0x3c4224cd	0.011849594
85	0xbdfb53d7	-0.122718506
86	0xbce4b53a	-0.027918447
87	0x3dc55a45	0.09636358
88	0x3d803d73	0.062617205
89	0x3c31f624	0.010861907
90	0x3d088256	0.033327423
91	0x3df5d57b	0.12003609
92	0xbd0efbf0	-0.034908235
93	0x3da7adb6	0.081874296
94	0x3de7c1b0	0.1131624
95	0xbc4a2084	-0.012336854
96	0x3d77adcc	0.06046848
97	0x3cf47664	0.02984161
98	0xbd5e2d45	-0.05424239
99	0xbdafc904	-0.085832626
100	0xbd0e9ebc	-0.03481935
101	0x3db79959	0.089647956
102	0x3d899a05	0.0671883
103	0x3db2a8ca	0.087236
104	0xbd90d196	-0.07071225
105	0xbdfd05f7	-0.12354653
106	0xbcbf90eb	-0.023384532
107	0xbdd2701b	-0.10275289
108	0x3dce44de	0.10071729
109	0xbcaaaf4b	-0.02083554
110	0xbd7f74a9	-0.062367115
111	0xbbcf49dd	-0.006325944
112	0xbc7f8002	-0.015594484
113	0x3c4ab6d5	0.012372692
114	0x3d958d90	0.073023915
115	0xbdc512c3	-0.09622719
116	0x3d34e0b0	0.04415959
117	0x3c5f2859	0.0136204595
118	0x3da627ae	0.08113037
119	0x3c00ff0d	0.007873309
120	0x3d2f9533	0.042866897
121	0xbded14cc	-0.11576232
122	0x3d934c8c	0.071923345
123	0x3d9746b1	0.0738653
124	0x3ddfbb00	0.10924339
125	0x3cfb2203	0.030655866
126	0xbbc607e5	-0.0060434216
127	0x3df03a55	0.11729876
128	0xbd4e1426	-0.050312184
129	0xbd47bc10	-0.048763335
130	0xbc2c4f49	-0.01051695
131	0xbde2571f	-0.11051773
132	0x3dfb7cb3	0.12279644
133	0x3dcb68df	0.09932112
134	0x3de4519d	0.11148379
135	0x3db030b1	0.08603037
136	0x3d91c4f3	0.07117643
137	0xbc725af6	-0.014792195
138	0x3cfc22fa	0.030778397
139	0x3d62e37b	0.055392724
140	0xbc02b34e	-0.00797732
141	0xbd28b755	-0.041190464
142	0xbd0961a2	-0.033540376
143	0xbdebb463	-0.115090154
144	0x3d930688	0.0717898
145	0x3e16590c	0.14682406
146	0x3d885c26	0.06658201
147	0xbc3b8dd4	-0.011447389
148	0xbccc2de8	-0.024924234
149	0xbe0b0a27	-0.13578092
150	0xbe1b0f14	-0.1514247
151	0xbda4860b	-0.08033379
152	0xbd13ff25	-0.036131997
153	0xbdac006a	-0.083985165
154	0x3d684246	0.05670383
155	0x3e28a668	0.16469729
156	0xbd8a526b	-0.06754001
157	0x3de67cb6	0.112542555
158	0x3de20e27	0.110378556
159	0x3dc76f9c	0.09738085
160	0x3dccd965	0.10002402
161	0x3d7103b9	0.05884144
162	0x3d7d1292	0.06178529
163	0xbd10daaa	-0.035364784
164	0x3c3334d2	0.010937886
165	0x3d600eaa	0.054701485
166	0xbd841c22	-0.064506784
167	0xbded6fb5	-0.11593572
168	0x3de93fc0	0.113891125
169	0xbdccc3fe	-0.0999832
170	0xbdaf36f4	-0.08555403
171	0x3c5912dd	0.013249126
172	0x3d03a70a	0.032141723
173	0xbd57de67	-0.052702334
174	0xbd5488f0	-0.051888406
175	0xbdbececc	-0.09316787
176	0xbd1ea1a5	-0.038728375
177	0x3e0d321a	0.13788643
178	0x3d9594e6	0.07303791
179	0xbde0c13a	-0.10974355
180	0x3d8e5718	0.069502056
181	0x3d9c9175	0.07644931
182	0x3d601554	0.05470784
183	0x3d17c8bc	0.03705667
184	0xbddd41fe	-0.10803603
185	0xbd7f0050	-0.062256157
186	0x3de9c5d2	0.11414684
187	0xbdc76f67	-0.09738045
188	0x3d268365	0.04065265
189	0x3de9adcb	0.114101015
190	0xbdeeca14	-0.11659637
191	0xbcd17114	-0.025566615
192	0x3db2473e	0.087049946
193	0x3da8e96a	0.08247645
194	0xbddefce2	-0.10888077
195	0xbdd6e0ba	-0.10492082
196	0x3d7b50fc	0.06135653
197	0x3d62e65e	0.055395477
198	0x3e064a7d	0.13114353
199	0x3dbdd4b5	0.09269086
200	0x3e0a0b52	0.13480881
201	0x3da11604	0.07865527
202	0xbd9c588c	-0.076340765
203	0x3de336ba	0.11094423
204	0x3d9f671b	0.07783338
205	0xbdbf8c48	-0.093529284
206	0xbdaeef91	-0.085417874
207	0x3cb12dc4	0.021628268
208	0x3daf39fe	0.08555983
209	0x3d8d6d48	0.06905609
210	0xbd1894cc	-0.03725128
211	0xbe09ddfb	-0.13463585
212	0x3cb34010	0.021881133
213	0xbdea4684	-0.11439231
214	0xbc2e39af	-0.01063387
215	0x3c6b9cef	0.014380678
216	0x3e1dabb1	0.15397526
217	0x3de3dbc0	0.11125898
218	0x3e1bedc6	0.15227422
219	0x3e049f0b	0.12951295
220	0xbe0b2e46	-0.1359187
221	0x3df72646	0.12067847
222	0x3e139e13	0.1441577
223	0x3dc66474	0.09687129
224	0x3d15a690	0.0365358
225	0xbdea640a	-0.11444862
226	0xbe130ffa	-0.14361563
227	0x3e0c00ef	0.13672231
228	0x3bda8885	0.0066691064
229	0xbe06ef3f	-0.13177203
230	0x3df4ed16	0.11959283
231	0x3d8d1f2b	0.068907104
232	0x3d7e693c	0.062112078
233	0x3d07f4db	0.033192497
234	0xbdf33925	-0.11876134
235	0xbcb1a9f8	-0.021687493
236	0xbdaefad8	-0.085439384
237	0xbde8899e	-0.113543734
238	0x3d4f1130	0.0505535
239	0xbc63c6b5	-0.013902356
240	0x3c076639	0.008264118
241	0x3ce867ae	0.02836975
242	0x3ddcdeae	0.1078466
243	0x3d6b7495	0.05748423
244	0xbdd9945e	-0.10624002
245	0x3dccc0c2	0.09997703
246	0x3c41e829	0.011835136
247	0x3de07851	0.109604485
248	0xbdbce1ae	-0.092227325
249	0xbdde71b5	-0.10861532
250	0x3ce17e0c	0.027525924
251	0xbd42e835	-0.04758473
252	0x3d12e525	0.03586306
253	0x3bfae47c	0.007656632
254	0xbd8f7baa	-0.07006009
255	0xbddc73c4	-0.10764268

a2c_network.mu.bias f4 [24]
0	0x3c5fb46c	0.013653856
1	0xbba03091	-0.004888602
2	0x3cf2898f	0.029606609
3	0x3d169171	0.036759797
4	0x3d07ea05	0.033182163
5	0x3bde8d68	0.0067917593
6	0x3d01d21d	0.03169452
7	0x3ce8ef2f	0.028434364
8	0xbd110288	-0.035402805
9	0x3cb21cbd	0.02174222
10	0x3c6db060	0.014507383
11	0xbb63ec80	-0.0034778416
12	0xbc271f64	-0.010200355
13	0xbc955aea	-0.018231828
14	0xbb193576	-0.0023377812
15	0x3cdfe0bc	0.027328841
16	0xbc465818	-0.012105964
17	0xbd49504a	-0.049148835
18	0xbbf38659	-0.007431787
19	0xbce23df3	-0.02761743
20	0x3cd4cf95	0.02597789
21	0x3cca3415	0.024683038
22	0xbb87ad21	-0.0041405116
23	0xba0c2bc3	-0.0005347097

exp_avg f4 [24]
0	0x3c74e1b7	0.014946393
1	0xbc43dda6	-0.011954701
2	0xbc68aed4	-0.0142018385
3	0xbbb2dbe3	-0.0054583414
4	0xbb934870	-0.004494719
5	0x3b3e52e5	0.0029041108
6	0x3bad12ab	0.0052817664
7	0xbbd1e532	-0.006405496
8	0xbb66d061	-0.0035219418
9	0x3c195608	0.00935889
10	0xbc1d3c48	-0.009596892
11	0x3c67dd17	0.014151833
12	0xbad34810	-0.0016119499
13	0x3a859d04	0.0010193889
14	0x3bc0f2be	0.005888312
15	0xbbebedff	-0.007200002
16	0x3b3d0d97	0.0028847212
17	0xbc6c4123	-0.014419827
18	0xbc429392	-0.011876004
19	0x3b1c50fd	0.0023851984
20	0xbb249bff	-0.0025117395
21	0xba81371c	-0.0009858343
22	0x3c9a94c2	0.018869761
23	0x39bed1b6	0.0003639587

exp_avg_sq f4 [24]
0	0x3a3ba1af	0.00071575766
1	0x3a3f23a2	0.00072913815
2	0x3a4ca929	0.0007807189
3	0x3a38a8ae	0.0007044178
4	0x3a5a54b5	0.00083286624
5	0x3a65d685	0.00087676226
6	0x3a2244d9	0.00061900687
7	0x3a3c2391	0.00071769307
8	0x3a411ba0	0.0007366482
9	0x3a2a42d4	0.00064949435
10	0x3a2f68c4	0.00066913315
11	0x3a37c6a7	0.00070104975
12	0x3a2920f6	0.000645175
13	0x3a388f90	0.00070404354
14	0x3a260aa3	0.00063339825
15	0x3a3658c1	0.00069559744
16	0x3a2a84fc	0.00065048016
17	0x3a3f2ae7	0.0007292465
18	0x3a270743	0.00063716265
19	0x3a420fcb	0.0007402866
20	0x3a382cf5	0.0007025742
21	0x3a33c1e7	0.0006857202
22	0x3a3a5aca	0.00071088655
23	0x3a347879	0.0006884407
