runs/lift_30-15-45-11/nn/last_lift_ep_225_rew_-40.42252.pth (torch, 654677 bytes, 36 tensors)

value_mean_std.running_mean f8 [1]
00000000: f744 c67b 5283 71c0
-280.20763757180197

value_mean_std.running_var f8 [1]
00000000: 6c30 906f 8860 0f41
257041.05447423772

value_mean_std.count f8 []
00000000: 0000 0000 0820 0c41
230401.0

running_mean_std.running_mean f8 [39]
00000000: 0000 0000 0000 0000 f8e9 c658 f2ff f73f
00000010: 59c4 ce8a c0cc f43f 95e2 b3cb edff df3f
00000020: d160 c38f 8a99 d93f 2e93 486d 2633 0740
00000030: 95e2 b3cb edff df3f ce48 cf90 9889 f03f
00000040: e764 dc82 305f f93f 95e2 b3cb edff df3f
00000050: a54c 4812 7482 ea3f 3baf 040c d1ad ea3f
00000060: 0000 0000 0000 0000 95e2 b3cb edff ef3f
00000070: 0000 0000 0000 0000 0000 0000 0000 0000
00000080: 0000 0000 0000 0000 0000 0000 0000 0000
00000090: 0000 0000 0000 0000 0000 0000 0000 0000
000000a0: 284e d114 f615 af3f 1c98 04f7 c9d4 68bf
000000b0: d8d7 a7f6 ac9e 2340 0000 0000 0000 0000
000000c0: 0000 0000 0000 0000 0000 0000 0000 0000
000000d0: 0000 0000 0000 0000 0000 0000 0000 0000
000000e0: 0000 0000 0000 0000 0000 0000 0000 0000
000000f0: 0000 0000 0000 0000 0000 0000 0000 0000
00000100: 0000 0000 0000 0000 0000 0000 0000 0000
00000110: 0000 0000 0000 0000 0000 0000 0000 0000
00000120: 0000 0000 0000 0000 0000 0000 0000 0000
00000130: 95e2 b3cb edff bf3f
0.0 1.4999869792796954 1.2999883100676668 0.49999565975989785 0.3999964145600759 2.89997563722354 0.49999565975989785 1.0335927635792816
1.5857396232370833 0.49999565975989785 0.8284244877890116 0.8337178454143904 0.0 0.9999913195197957 0.0 0.0
0.0 0.0 0.0 0.0 0.06071442607995109 -0.003031153166506163 9.809913356770195 0.0
0.0 0.0 0.0 0.0 0.0 0.0 0.0 0.0
0.0 0.0 0.0 0.0 0.0 0.0 0.12499891493997446

running_mean_std.running_var f8 [39]
00000000: 76bf 691d 4c34 e23e cc5a 3b09 f094 fd3e
00000010: 693a eb31 107c f83e 0b69 f98d 5cc1 e63e
00000020: 246c d220 f01d e53e 867f 5e8b a269 153f
00000030: 0b69 f98d 5cc1 e63e b03f 87d2 635a f33f
00000040: 6844 db93 b191 f63f 0b69 f98d 5cc1 e63e
00000050: fb27 47ae 55af df3f 4bd4 b85c 2828 de3f
00000060: 76bf 691d 4c34 e23e ed32 d4ef 4634 f23e
00000070: 76bf 691d 4c34 e23e 76bf 691d 4c34 e23e
00000080: 76bf 691d 4c34 e23e 76bf 691d 4c34 e23e
00000090: 76bf 691d 4c34 e23e 76bf 691d 4c34 e23e
000000a0: 21fb 6914 4a56 f83f fd10 04bf 8aca f73f
000000b0: 9c14 0f6e 64a8 4b3f 76bf 691d 4c34 e23e
000000c0: 76bf 691d 4c34 e23e 76bf 691d 4c34 e23e
000000d0: 76bf 691d 4c34 e23e 76bf 691d 4c34 e23e
000000e0: 76bf 691d 4c34 e23e 76bf 691d 4c34 e23e
000000f0: 76bf 691d 4c34 e23e 76bf 691d 4c34 e23e
00000100: 76bf 691d 4c34 e23e 76bf 691d 4c34 e23e
00000110: 76bf 691d 4c34 e23e 76bf 691d 4c34 e23e
00000120: 76bf 691d 4c34 e23e 76bf 691d 4c34 e23e
00000130: 1dba 7224 1d7d e23e
8.680480204164886e-06 2.8211391124378576e-05 2.33503552589616e-05 1.0850581417521968e-05 1.006934419427701e-05 8.168272583341908e-05 1.0850581417521968e-05 1.2095678542864157
1.4105697417874357 1.0850581417521968e-05 0.49507658023196627 0.4712010293472459 8.680480204164886e-06 1.736088505759324e-05 8.680480204164886e-06 8.680480204164886e-06
8.680480204164886e-06 8.680480204164886e-06 8.680480204164886e-06 8.680480204164886e-06 1.5210667416974462 1.4869487248952844 0.0008440485363442498 8.680480204164886e-06
8.680480204164886e-06 8.680480204164886e-06 8.680480204164886e-06 8.680480204164886e-06 8.680480204164886e-06 8.680480204164886e-06 8.680480204164886e-06 8.680480204164886e-06
8.680480204164886e-06 8.680480204164886e-06 8.680480204164886e-06 8.680480204164886e-06 8.680480204164886e-06 8.680480204164886e-06 8.816111529999727e-06

running_mean_std.count f8 []
00000000: 0000 0000 1020 fc40
115201.0

a2c_network.sigma f4 [24]
00000000: 2309 1c3b 55c3 98bc cacc 1b3d 3006 0fbc
00000010: 1747 133c af39 4cbc 5639 bdbc c457 7ebd
00000020: 9321 97bd 1a92 a5bc e8c7 2f3c 7676 653c
00000030: 58c5 5abd 97de f7bc 61cd 0e3d cd40 7bbc
00000040: c069 07bc 9b0f 04bd 9002 1abd 7b76 82bb
00000050: 09c2 f2bb aac9 643b 4389 8ebd 2259 263d
0.0023809157 -0.01864783 0.0380371 -0.008729503 0.008989117 -0.012464925 -0.023098629 -0.06209542
-0.07379451 -0.020211268 0.010728814 0.014005294 -0.053410858 -0.030257506 0.034863833 -0.015335274
-0.008264959 -0.032241445 -0.0376001 -0.003981409 -0.0074083847 0.003491024 -0.06959774 0.040612347

a2c_network.actor_mlp.0.weight f4 [256, 39]
00000000: 38d9 4ebd a50a 6f3d ec22 e6bc 02ca a93d
00000010: 4049 223e 81cd dc3d d930 5fbd add5 a73d
00000020: f81d 2dbc 0d50 c63d 10e2 04be 4240 31be
00000030: 7568 7dbd 42fc dbbd 768b 063e 58ea 3c3d
00000040: 94d6 873d 516e 4f3d 5c8e 36bb 4353 003e
00000050: 3289 f6bd bef3 2d3c 96c4 c0bd 503e 4a3d
00000060: 09e0 61bd 4bf9 483d e5a5 08bd 14ff 073e
00000070: 435f c2bd 8f95 c3bd 9598 c3bd 947b 133e
00000080: 0a93 5a3d 0bc8 1d3e 5152 07be 9fa3 22be
00000090: ff48 00be 729a dcbd e8b6 a43d 46db 6a3d
000000a0: 35e4 dc3d 7e05 ddbd 0bd4 08be bf97 773d
000000b0: 52b1 b8bd f1f0 943d 0600 71bd ff5a 603d
000000c0: 8b72 18be 171c abbd b785 ce3c b5a8 0a3d
000000d0: a490 86bd fa79 c33d 34f0 de3d acd0 edbd
000000e0: fa13 afbd 6824 163e 1f51 5dbd d351 81bd
000000f0: eb53 19be 75c9 f0bd abd7 233d 0825 adbc
00000100: 800c eebd 8328 763b ec02 e0bd d61c 0bbe
00000110: ed95 b4bd 7582 0fbe 3dd0 d0bd 37e8 233e
00000120: aec2 f73c 071e 4a3d f2ee 18be 4e62 d7bd
00000130: ab50 5abd 40eb 543a 2248 10be 2a7b babd
00000140: 9488 f1bd 4d76 aebc 9b9e a6bd b94f 08bd
00000150: a95f 05be b1a6 f1bd 6a4d 94bd 64c7 9cbd
00000160: 62f0 cfbd 4206 173e 682b 02bd 534a ed3d
00000170: ab5c 4c3d b0d9 0abe 9df2 e23d 9d76 34bd
00000180: f36a 7bbd 901b 08be 0c46 1bbe cfbf 5d3d
00000190: 2321 6bbd e559 7f3d b090 06be 5a79 f33d
000001a0: 35ba f0bd f781 e2bc 96fe 083d 064d a93d
000001b0: 2b60 043e 005f 153e 3404 02be 9410 253d
000001c0: 7a0e 8dbd 03c0 8fbc 3076 f5bd c75a 153e
000001d0: 8285 0ebe ed44 af3d 2888 a23d bce6 993d
000001e0: bda6 83bd 78ed 2b3e 88df 6f3d e6ab 2f3d
000001f0: a6c8 f4bd 4ce9 c23d 3a1d e3ba 26e0 96bd
00000200: 92be 183e 8f3a 123d 76e2 86bd 04fc a5bd
00000210: fa93 fabb 411c b73d cc99 27bd a01d bbbd
00000220: 659a 60bd ac80 ebbd 9c11 5b3d 775a 173e
00000230: 7f5e 1abe 6854 183d 9169 a93d c5dc ed3c
00000240: a793 69bd bf2a ab3d 8c56 ac3d d340 753d
00000250: 8b81 e6bc ddad 2dbd 9755 8c3c c1ba e7bc
00000260: 5374 43bd 819f d13d b3ea 0c3e ff14 cb3b
00000270: bfd9 12bd 1cf0 02bc 9ded a2bc 6cb8 e53c
00000280: 05f1 0c3d b16f 1fbe 226f 8ebd 0d80 143e
00000290: 159b b53d 53e3 96bc 181a a1bd ec33 a5bd
000002a0: 47e1 12be dc25 80bd bd7e 5d3d 6b1a d13d
000002b0: 0069 973d fff0 10be 5836 c5bd e404 cfbc
000002c0: e9d3 1d3e d810 b03c 5a9c 53bd bfac 873d
000002d0: 80d0 79bd 3a43 d4bd 6b5c ef3d b31d 95bd
000002e0: ad7b 03bd 891e 23be 757b db3d e775 f83d
000002f0: 3b09 6f3d 72aa e4bd 6ad4 21be 8a2c 05be
00000300: f88b f43d 7272 9d3d 287c fe3d 96cc ab3d
00000310: 7224 d63c a5ee 82bc 78c2 0abe 0696 1abe
00000320: 4058 28be c042 543d ffdd d0bd d761 8dbd
00000330: 68d9 d8bd 66b2 36bd 3bd0 03be 6148 d6bd
00000340: 06c8 1f3d 37ed 42bd fa73 ca3d e369 52bd
00000350: 5d91 f0bd 7f72 e7bc 21f8 9ebd f7cb 6ebd
00000360: 0b9f 11be c0ca 983d a550 e4bd 66d4 a43d
00000370: abd0 943d f64a ea3d 868c fbbd ebda eb3d
00000380: 0b09 9bbd f160 733d dffc 193e 5700 b9bc
00000390: f94f a2ba 3701 17bd d7e9 08be 6a61 9d3d
000003a0: f4c6 22be 52e8 af3d f15f f53d e576 1d3e
000003b0: 6132 11bd 0ef9 03be f35b 1e3d b7ac b93d
000003c0: 0573 20be 6340 51bd 51f9 aabd c56a 39bc
000003d0: 57e9 aabd 74de 0ebd 6b37 50bd ef43 19be
000003e0: 258a 063e 5276 093e adc6 cdbc 1663 95bc
000003f0: 00d7 85bd 8913 14be 4f72 13be 55d1 893d
-0.050500125 0.05835976 -0.028092824 0.08290483 0.15848255 0.10781384 -0.054489944 0.08195052
-0.010566227 0.09683237 -0.12976861 -0.17309669 -0.061867196 -0.10741474 0.13139138 0.046121925
0.066327244 0.050642315 -0.002785585 0.12531762 -0.12037887 0.010617195 -0.09412496 0.049375832
-0.055145297 0.04906587 -0.033361334 0.13280898 -0.09490826 -0.095500104 -0.09550587 0.1440261
0.053362884 0.15408342 -0.13214995 -0.15882729 -0.12527846 -0.107716456 0.08042699 0.05733802
0.107857145 -0.10792063 -0.13362138 0.06044745 -0.09018196 0.072725184 -0.058837913 0.05477428
-0.14887445 -0.08354967 0.025210245 0.033852298 -0.06570557 0.095447496 0.10885659 -0.116120666
-0.08548732 0.14662325 -0.05403244 -0.06314435 -0.14973418 -0.11757175 0.0400006 -0.021135822
-0.11623478 0.0037560768 -0.10938057 -0.13585219 -0.088176586 -0.14014609 -0.10195968 0.16006552
0.030244198 0.049345043 -0.149349 -0.10516797 -0.053299587 0.0008122213 -0.14090016 -0.09105523
-0.11793628 -0.021296645 -0.0813572 -0.033279154 -0.13024773 -0.11799372 -0.07241328 -0.07655218
-0.10153271 0.14748481 -0.031779677 0.11586442 0.049893063 -0.13559604 0.11081431 -0.04405843
-0.06138129 -0.13291764 -0.1516344 0.054138 -0.05740465 0.06234159 -0.13141131 0.1188838
-0.11754266 -0.027649863 0.033445917 0.08266644 0.1292731 0.14587021 -0.12696916 0.040299013
-0.06887527 -0.017547613 -0.11985433 0.1458541 -0.13918117 0.085580684 0.07936126 0.07514712
-0.06428287 0.16789806 0.058562785 0.042888544 -0.11952333 0.09517154 -0.0017327436 -0.07366972
0.14916447 0.035700377 -0.06586163 -0.08104709 -0.0076470347 0.08940936 -0.040918157 -0.0913651
-0.054834742 -0.114991516 0.05348359 0.14780603 -0.1507511 0.03718987 0.08272088 0.029035935
-0.057025578 0.083577625 0.08414945 0.059876274 -0.028137943 -0.042402137 0.017130656 -0.028287293
-0.047718357 0.10235501 0.13761406 0.0061975713 -0.03585219 -0.007991817 -0.019888693 0.02804204
0.03440954 -0.1556995 -0.06954791 0.14501972 0.0886747 -0.018418944 -0.07866305 -0.08066544
-0.14343749 -0.06257221 0.054075945 0.10210117 0.07393074 -0.14154433 -0.09629506 -0.025270887
0.15412869 0.021492407 -0.05166278 0.066247456 -0.060989857 -0.10364385 0.11687549 -0.07281055
-0.03210037 -0.15929617 0.10716907 0.12131863 0.058358412 -0.11165322 -0.15803686 -0.13005272
0.119407594 0.07687844 0.12426025 0.08388631 0.026140425 -0.015982935 -0.13550746 -0.15096292
-0.16439915 0.05182147 -0.101985924 -0.06903427 -0.10588342 -0.044603728 -0.12872402 -0.10463024
0.039009117 -0.047589507 0.09885402 -0.051370513 -0.11746476 -0.028252838 -0.077621706 -0.058299985
-0.14220826 0.074605465 -0.11148194 0.08048324 0.07266363 0.11440079 -0.12282662 0.11516365
-0.07570084 0.059418622 0.15037869 -0.02258317 -0.0012383453 -0.036866393 -0.13370453 0.07684596
-0.15896207 0.085892335 0.1198119 0.15377386 -0.035448436 -0.12887976 0.03866191 0.09066146
-0.15668876 -0.051086795 -0.083483346 -0.01131696 -0.08345287 -0.034880117 -0.0508341 -0.14967321
0.13138635 0.13424042 -0.02511915 -0.018235724 -0.065351486 -0.14460577 -0.14399074 0.0672938

a2c_network.actor_mlp.0.bias f4 [256]
00000000: 5d4d 393b 02fe 0fbd 4c12 babc 1396 083d
00000010: 4ba3 aaba 5cff ccbc ac1e 06bb 818c 873c
00000020: 3b2d 22bc c512 e43c 111e 1539 e7c7 af3b
00000030: 6470 f4bb e55f 653c 6318 06bd 16cc 05bd
00000040: f021 da3b 0839 723c ea46 80bb 5fff 36bc
00000050: 0edc 62bb 4fb5 fcba ce71 b3bc c0c8 5ebc
00000060: b329 8dbc 2b91 16bc 3b23 b63b b4d7 bb3b
00000070: 5532 073d b020 6c3c fce7 913c 9685 a73b
00000080: c574 103d fd81 8bbc f8f2 873a c3fb 02bd
00000090: 64d8 04bd 8134 11bd eba7 b63c d70e 003c
000000a0: 367f bdbc 06c0 09bc a1bb 0dbd b9a6 96bc
000000b0: 8073 cfbc 1478 c0bb f558 b3bc e536 2a3c
000000c0: 7835 11bd d4b5 b3bc 36ee 11bc ee3b e33c
000000d0: b5b2 e83b 9556 bf3c 3ad2 09bd 03e8 08bc
000000e0: d1c7 243b f368 013c d7d2 ccba dc81 ccbc
000000f0: 0522 06bd 9ffb 3fbc 5b03 983c 5e0a 963c
00000100: 00e3 c2bc e9c4 cf3c d022 00bd eb1b f9bc
00000110: f47a 22bc f1fe 533c 7d8e 04bc dbbc c5bc
00000120: a113 f13c 1b71 b73b d079 9f3c dc1d 86bc
00000130: eeb6 213d ba49 113d 486e 1abd d939 04bd
00000140: 4afc fcbc afc2 703c 3c4e 843c 19d2 013d
00000150: 1c7f ab3b 4297 efbb b305 2fbc 97cd c8bc
00000160: f56a 93bc b749 a8bc 5f48 05bd 4950 04bd
00000170: d8db ee3c 3b36 a73c eae0 0f3d 172e c73b
00000180: d753 42bc 0ab6 cd3c fd64 5fbb bd8a 8b3b
00000190: d6fa da3c c1da 253b cf6f 5c3c 033a b63b
000001a0: fed3 f33a b0e2 b4bc 3387 263c 9caa 86bc
000001b0: c62c 4abc 9fcd 933c 07cb dfbc b306 aebc
000001c0: 71b0 73bb a263 fb3c 56e9 13bd 6e37 c83c
000001d0: 0286 1b3d fc66 56bc a33d 31bc 7c40 f1bc
000001e0: 4f97 c33c 00cb 10bc ef46 e1bc 03f8 63bc
000001f0: f949 013c ba97 f8bc fd42 1e3b 5641 0c3d
00000200: 7fd9 953c 1bca 8f3c 4de4 823b 1e03 233c
00000210: a10d 2abc 0e2a dd3b 645d ad3b f7df 0c3d
00000220: 71d0 3ebb 63e1 a3bc ca9b f8bc 1beb 6f3c
00000230: 0d53 ee3b 5518 0e3d e1f5 cb3c e6fe e73c
00000240: f455 763c f076 d23c 317a 99bc f26a 83bb
00000250: bb6e e73c b9b3 253c 57f1 b13c 5f65 7939
00000260: a029 e33b 5358 15bd d539 4d3c e72d 83bb
00000270: f384 01bd 484a debc c6be d0bc 36a0 c2bc
00000280: 1781 18bd fa03 5a38 8178 16bd 1ded 96bc
00000290: 50fd 2fbc ae98 1a3d 12ae 33bc 16ff b4bc
000002a0: df58 603b 83bd 773c 68cf e13b 36ec 8abc
000002b0: 471a f0bb 0474 b43c ca69 203c 09d8 02bd
000002c0: 46e7 043d 9c5b b3bc 2a5d be3a f7f3 0bbd
000002d0: 2df5 8dbc 6718 1b3d 1339 cfbb 0334 573c
000002e0: 4d4d 4f3c b9f1 1b3d c361 d53b 008e dfbc
000002f0: cdb3 76bc 2e75 8e3b 3c24 103d 3c93 aebc
00000300: d2d8 0d3d 772f 67bc 98f7 633c 2534 c63b
00000310: d5b8 ff3c aa34 bfbc 0e0b 93bc 8685 f1bc
00000320: 38d9 8f3b 0821 08bc 69fe f03c 9646 113c
00000330: d446 29bc 77df abbc 905f 89bb 9a3a ab3c
00000340: 65a0 aa3c b6f8 ecbb 637c 933b c8f7 e2bc
00000350: bfb7 a8bb ed90 413c 0138 ed3c d086 193c
00000360: 6fbd 68bc 3b1f d4bc c79a 183d ac7c ba3c
00000370: 7189 2e3c 70d2 c93b 1701 b43a 1460 8f3b
00000380: e0e5 c4bb 06bd 3fbc cbe2 8fbc faea 163b
00000390: 129e 19bc 77b1 eebb 2553 893a dd67 a3ba
000003a0: 06a3 c7bc ef37 78bc 0772 853b e135 fe3c
000003b0: 6c41 7bbb 9042 3e3c 082d d43b d21f 12bd
000003c0: 5a55 d93b a395 80b9 8278 05bc 8fdc 003d
000003d0: 15b3 5f3c e770 0b3d 0d23 003d 0d2b a63c
000003e0: 4ef3 7dbc c677 0d3d 3672 93bc 58eb e73c
000003f0: 42f8 d63b 20d6 bd3c a4ab a23c 119c a0bc
0.0028274872 -0.03515435 -0.022713803 0.033346247 -0.0013018636 -0.025024109 -0.002046506 0.01654649
-0.009898479 0.027840981 0.00014220948 0.0053644064 -0.007459687 0.013999914 -0.0327381 -0.032665335
0.0066568777 0.014784105 -0.0039147036 -0.011169284 -0.0034616026 -0.0019280108 -0.021904852 -0.013597667
-0.017231798 -0.009189884 0.005558399 0.005732501 0.033006985 0.01441209 0.017810814 0.00511236
0.03526761 -0.017029757 0.0010372093 -0.03197838 -0.03243293 -0.035450462 0.022296866 0.007816038
-0.023131948 -0.008407598 -0.034602765 -0.018390046 -0.02532363 -0.0058736894 -0.021893004 0.010389064
-0.035451382 -0.021937288 -0.008906892 0.027738538 0.0071013817 0.023356715 -0.033647753 -0.008356097
0.0025143514 0.007898557 -0.00156268 -0.024964266 -0.032747287 -0.011717706 0.018556288 0.01831549
-0.023789883 0.025362449 -0.0312832 -0.03040882 -0.00991701 0.012939201 -0.0080906125 -0.024137905
0.029428305 0.0055982 0.019467264 -0.01637166 0.039481096 0.0354707 -0.03770283 -0.03228173
-0.03088202 0.014694854 0.016150586 0.031694505 0.0052336585 -0.0073117325 -0.010682511 -0.024512095
-0.017995337 -0.020542962 -0.03253972 -0.03230313 0.029157564 0.020411601 0.035126604 0.0060784924
-0.011860809 0.025111217 -0.0034087293 0.0042584823 0.026730936 0.002530739 0.013454392 0.0055611148
0.0018602607 -0.02208075 0.01016407 -0.016438775 -0.012339776 0.018042384 -0.02731849 -0.021243429
-0.0037184025 0.030687157 -0.0361112 0.024440493 0.037969597 -0.013086077 -0.010817918 -0.029449694
0.02387586 -0.0088374615 -0.027499644 -0.013914111 0.007891172 -0.030345786 0.0024148815 0.034241997
0.018292187 0.017552426 0.0039945007 0.009949474 -0.010379226 0.006749398 0.005290674 0.034393277
-0.002911594 -0.020004934 -0.030347724 0.014643456 0.007273084 0.034691174 0.024897518 0.028319787
0.015035141 0.02569148 -0.018735023 -0.0040105516 0.028251043 0.01011365 0.021721525 0.00023784254
0.0069324523 -0.036461186 0.012525995 -0.0040032747 -0.03162093 -0.02713503 -0.025481593 -0.023758035
-0.037232485 5.1978954e-05 -0.036736015 -0.018423611 -0.010741547 0.037743263 -0.010966795 -0.02209429
0.0034232659 0.015120867 0.00689118 -0.016958337 -0.0073273513 0.022027977 0.009790847 -0.03194431
0.032447122 -0.021894269 0.0014523615 -0.03416821 -0.017328823 0.03786507 -0.0063239424 0.013134959
0.012652707 0.03807232 0.0065118982 -0.02728939 -0.015057516 0.004347465 0.035190806 -0.021310441
0.034630604 -0.014110438 0.013914011 0.0060486966 0.031216064 -0.023340542 -0.017949607 -0.029482614
0.004389908 -0.0083086565 0.029418187 0.008866927 -0.010331828 -0.02098058 -0.0041923 0.020901967
0.020828435 -0.007231797 0.004500912 -0.027706042 -0.0051488574 0.011814338 0.028957369 0.009370521
-0.014205321 -0.025893798 0.037256982 0.022764526 0.010652886 0.0061591193 0.0013733235 0.004375467
-0.0060088485 -0.011702782 -0.017564198 0.002302824 -0.009376066 -0.007284339 0.001047705 -0.0012466867
-0.024369728 -0.015150054 0.004072431 0.03103155 -0.0038338555 0.011612549 0.0064750947 -0.035674877
0.006632489 -0.0002452555 -0.008146407 0.03146034 0.013653536 0.03404322 0.031283427 0.0202842
-0.015499903 0.034538053 -0.017998796 0.028310463 0.0065603564 0.023173392 0.019857235 -0.019605668

a2c_network.actor_mlp.2.weight f4 [128, 256]
00000000: cbdc c63b 5adf 15bc 7a56 a63c 7872 46bd
00000010: a202 0cbd b5f0 373d 5891 8cbd 6873 70bd
00000020: 37bd 7bbd 18b0 81bd b730 6bbd 20c1 e7bc
00000030: 5096 ac3c db24 a5bd 74ae 9fbd b12e 35bd
00000040: 852c 81bd 5669 ec3c a426 dfbc b1db 063d
00000050: b44e 8f3d e685 17bd 2e7e 0bbc 02ab 95bc
00000060: e8de 2b3d e0b9 e83c 102b 29bc ddb1 5239
00000070: 49b9 9cbd 9d0d 28bd 3631 7fbd 47f3 a2bd
00000080: 200a 69bd 7f32 1bbd b27d 3ebc 84a5 283d
00000090: 44f6 bd3c 82c2 3bbc 3eb5 86bb fc96 8e3d
000000a0: f76c 86bc 5734 393d 9a06 0f3d 2f1a 1ebd
000000b0: d569 603d b076 a53c 0ec4 7cbd 29f4 a63d
000000c0: 5fe6 fc3b 4299 b53d 9545 04bc 0a7d f7bc
000000d0: f6c7 8e3d 22c8 283a a3be 883d 1e34 d3bc
000000e0: c62a bf3c aff3 5dbc 5ae3 bd3c 9561 e23c
000000f0: 1747 9abc 467d 8c3d e2d0 c63c 1c1e 90ba
00000100: a1ce a53c 0187 933b 631a 77bb c3e7 0f3d
00000110: b237 82bd 88d8 07bd e94e a23c c029 7dbc
00000120: ef84 10bd 28b3 4d3d aa83 a83c e8f0 01bd
00000130: ad17 803c 00ef 313d bcc8 0fbd 0e1b 5e3d
00000140: 5fc4 09bb 94c7 16bd 31c7 0ebd 0499 a1bc
00000150: a8e4 1b3d 23a5 3cbc 2e03 97bd 775b 9fbc
00000160: 2504 7a3d 04f1 06bd f9cd 993d 9a27 193d
00000170: f3e2 863d 13c4 4dbc 3791 2fbd 327b 83bd
00000180: 1990 5ebb bc84 a8bc 5941 c0bb b078 5c3d
00000190: 3ff0 6a3d fd47 cdbd b83c 28bd 64d4 b2bb
000001a0: 7717 a1bc 90a2 733d 202a 49bd b88f 4c3d
000001b0: b311 1dbd 00c9 313c 9a49 61bc f09f 60bc
000001c0: dad3 46bd 1726 a2bd c9ea 74bc f4fb 36bc
000001d0: 71e7 77bd c226 55bc 874e 82bd 94bf 12bd
000001e0: 26f2 aebd 28df a83d 151b 4c3b 92e9 123d
000001f0: 08c1 a1bd 9a1d e13b 9ab1 96bd 6feb e83c
00000200: 4ea0 453d 6e66 9abd 7aaf 863d a7d8 4139
00000210: 86b7 75bd dc6d 4b3c d6c3 1b3d 937d 86bd
00000220: c836 333d 4a22 ed3c b306 263d d3fe e3bc
00000230: d387 bc3c ed14 013c 200a aa3d 1800 6bbd
00000240: 8880 0e3c 063d 7a3c 36fe 33bd 99c6 aabc
00000250: c9f0 273d e54e e93c f376 0d3b 314d 28bc
00000260: 2e98 6abd 54be 543d 1b9f c0bc d5ab babd
00000270: 6226 853c e265 0abd ffe4 da3c 874c 823d
00000280: d52d 633d e83f 0f3d edc4 afbc 3ecb ea3b
00000290: 9829 043d b59e 30bd ca63 193d 35f5 613d
000002a0: 7dbd 9abd c397 a0bc aacb 41bd 8965 793c
000002b0: bb3b f93c c6f9 41bd 2f40 7f3c e06e 3bbc
000002c0: 5162 313d 2cbe 503d 4131 2c3c be86 5cbd
000002d0: 93ad d73c 1a57 13bd 3b0e ec3c 038d 02bd
000002e0: f2d9 833d f692 80bc 0373 0039 0eaa 20bd
000002f0: 1df9 df3c e65c 6bbc 1227 6e3c af5d c53c
00000300: c2f7 36bd 91bd 61bd 36c4 1c3d 2ec0 efbc
00000310: a1ae 8bbd 75d5 903d e79f dcbc 91c1 bdbc
00000320: 8026 99bd 1f47 043d c89b 8bbc 235b 783c
00000330: a0d4 7dbb 64e4 05bc 70da 4cbc 128a 803d
00000340: 8269 993c d7d3 903c 56ba 89bd 96f0 3abd
00000350: fd93 473c 444e fb3b 5c74 1c3b 9f81 8dbc
00000360: c3ab 013d f351 203d 71b2 d4bc 747d 233c
00000370: 1745 18bd f98d 973d a67a 03bc cc1a f6bb
00000380: ca79 8e3d 9cb5 16bd f8f9 fe3c 3c28 35bd
00000390: 19c8 75bd 1202 2d3d 6a22 73bb 0c3f d7bd
000003a0: e9c2 4bbd a1ed a7bc 81a0 253d a633 b43c
000003b0: a11f 9ebb 4df0 273d 4ba9 9fbd 04d0 333d
000003c0: 66c7 b33b 9bb4 893a 7ad0 c23c 036f 153c
000003d0: f514 ab39 cc6d 043d b076 813d 457c 953d
000003e0: 947f afbb 5c29 203c ebfd d53c 684e cbbc
000003f0: 9480 423d 6424 b23c d5e2 663d 946e 0c3b
0.006068801 -0.009147489 0.020304907 -0.04844901 -0.0341822 0.04490729 -0.068636596 -0.05870381
-0.061459746 -0.06332415 -0.057419505 -0.028290331 0.021067768 -0.0806367 -0.07796946 -0.04423398
-0.063073196 0.028858822 -0.027240105 0.032924358 0.06997433 -0.03699293 -0.00851397 -0.01827002
0.041960627 0.028408945 -0.010325208 0.0002009342 -0.07652528 -0.041028608 -0.06230279 -0.07956558
-0.05689442 -0.037889954 -0.011626648 0.041173473 0.023188718 -0.0114599485 -0.004110961 0.06962392
-0.01640938 0.04521593 0.034918405 -0.03859919 0.05478843 0.020198196 -0.06171041 0.081520386
0.007717892 0.08867122 -0.00807323 -0.03021099 0.06971733 0.00064385135 0.06676986 -0.025781687
0.023335826 -0.013546868 0.023179699 0.027634421 -0.018832726 0.068598315 0.024269525 -0.0010995301
0.02024013 0.0045021777 -0.0037704937 0.035133135 -0.06358279 -0.033165485 0.019813018 -0.0154518485
-0.035283025 0.050219685 0.020570595 -0.031723887 0.01563629 0.04344082 -0.035103545 0.05422502
-0.0021021587 -0.036811426 -0.034857932 -0.019726284 0.03805986 -0.011513981 -0.07373653 -0.019452794
0.06103911 -0.032944694 0.07509989 0.037391283 0.06586256 -0.012558955 -0.042863097 -0.06419982
-0.00339604 -0.020571105 -0.005867165 0.053826034 0.057358023 -0.10023496 -0.04107353 -0.005457448
-0.01966451 0.059481204 -0.04911244 0.04994175 -0.038346957 0.010851145 -0.013750458 -0.013710007
-0.04854188 -0.07917421 -0.014948555 -0.011168469 -0.060523454 -0.013009729 -0.06362634 -0.035827234
-0.0854228 0.08245689 0.0031144072 0.03586728 -0.07898146 0.006869984 -0.073580936 0.028432576
0.04824858 -0.07539068 0.06576438 0.00018486624 -0.059989475 0.012416329 0.03802856 -0.0656692
0.043753415 0.028947014 0.040533733 -0.02783147 0.023013985 0.007878524 0.083027124 -0.057373136
0.008697636 0.015273338 -0.043943606 -0.020846652 0.041001115 0.028480003 0.0021585792 -0.01027231
-0.057274036 0.051939324 -0.023513367 -0.091148056 0.016253654 -0.03378857 0.026720522 0.06362253
0.05546363 0.034973055 -0.021456206 0.0071653416 0.03226623 -0.043120105 0.037448682 0.05516549
-0.07555673 -0.019603616 -0.04731337 0.015221962 0.03042399 -0.047357343 0.015579267 -0.011440009
0.043306652 0.050962612 0.01050979 -0.053839438 0.026327884 -0.03597174 0.02881538 -0.03187276
0.06438054 -0.015695076 0.00012249876 -0.039224677 0.027340466 -0.01436541 0.014535682 0.024092523
-0.044669874 -0.055112425 0.03827306 -0.029266443 -0.06820417 0.07071964 -0.026931716 -0.023163589
-0.074780464 0.03229439 -0.017042056 0.015158447 -0.003873147 -0.008172128 -0.012503251 0.06276335
0.018727068 0.017679138 -0.06724994 -0.045639597 0.012181279 0.007669242 0.0023873067 -0.017273722
0.031657945 0.039140653 -0.025963994 0.009978641 -0.037175264 0.07400126 -0.008024847 -0.0075105187
0.06956823 -0.03679429 0.031125054 -0.044227824 -0.06000528 0.042238303 -0.003709937 -0.10510072
-0.049746428 -0.020499052 0.04043627 0.021997284 -0.004825548 0.041000653 -0.07795962 0.04389955
0.0054864166 0.0010506095 0.02378105 0.009120706 0.00032631276 0.032331273 0.06321466 0.07299093
-0.0053557847 0.009775486 0.026122054 -0.02481766 0.047485903 0.021745868 0.056368668 0.0021428214

a2c_network.actor_mlp.2.bias f4 [128]
00000000: a1de bfbc 6059 283d 9cd3 9ebc ae9c 3f3d
00000010: c41c 2ebd fd7b 96bc e738 6bbc ff54 013d
00000020: 75c8 1abd 1808 3c3c e6db 1e3b 7ac3 2b3d
00000030: f7a6 2b3d 80ab 1dbd 8cd3 353d a0e8 1f3d
00000040: 93d6 29bd 2697 b9bb 4303 e13c b649 1abd
00000050: 42d1 763a 9374 913c 17d2 863c fe83 ad3c
00000060: c33f d23c d759 2d3d f341 a8bc f1f6 34bd
00000070: 8d14 443d d9d5 46bc 28e7 21bd 361e 1bbc
00000080: 96d3 1d3d 106d d3bb 90af cc3b bf83 453d
00000090: 8bd1 25bd 07b9 55bc 63c2 173d 97e3 1cbd
000000a0: c724 01bc 495b b6bc 0e26 3a3b e4e2 bbbc
000000b0: a081 d83c aadd c0bc 73c0 17bd 283d 5e3c
000000c0: d5ee e73b 421f a2bc f0e4 91bb 644a 4a3d
000000d0: 6c52 123c 1352 ea3b 3a27 3dbc 04fe fb3c
000000e0: 18ba 5139 b590 12bd 28e0 20bd 1015 0f3d
000000f0: 1574 033d 5584 043d ddd4 fd3c e7a5 2f3d
00000100: 4337 3b3d e566 c23c db9a 3b3d 968f 813c
00000110: 88b8 bdba 528c 3a3d f17b e73c 2642 c5bc
00000120: 42a1 27bd 0f12 0bbd 50ce 593c 875a 193d
00000130: 9c8e 1d3c 4ef2 89bb 62d8 293d 9940 18bd
00000140: 1b5a 923c e0c0 1bbd c3d4 7bbc f1da cbba
00000150: 28bb 29bd c86a 403d 53af 3abd 4005 cfbc
00000160: 045e 193d cc5c 553b 6f49 103d 714c 8ebc
00000170: 5d12 1d3d 1c88 ce3b cc99 b63c b8fc 43bc
00000180: 2a5d e93c e64e 1abd 5170 1d3d 4e3b debc
00000190: 6aa1 efbc f5da 033d 50ed 1b3d 945a e33c
000001a0: 986a 143d d8f2 3c3d d13f 90bb d3ba ecbb
000001b0: d7f8 0ebd a458 1ebd 69e2 4b3d 6e62 10bd
000001c0: 7f26 bfbc bc48 d4ba 852b 40bb ae93 383d
000001d0: 47c6 993b 44cd f7bb 5730 09bd c467 35bc
000001e0: c5ed 8ebc fae3 32bd 3e8e 913c 3698 b4bc
000001f0: 0707 14bc b357 edbc 1529 2d3d 1638 533c
-0.023421587 0.04110086 -0.019388013 0.04678028 -0.0425079 -0.01836967 -0.014356828 0.0315752
-0.037788827 0.011476539 0.0024239956 0.041934468 0.041907277 -0.038493633 0.0443912 0.039040208
-0.0414644 -0.0056637703 0.027467376 -0.037667952 0.0009415337 0.017755782 0.0164576 0.021181103
0.02566517 0.042322006 -0.02053926 -0.044180814 0.04787116 -0.012135946 -0.03952709 -0.009467652
0.038531862 -0.0064522102 0.0062465146 0.048221346 -0.04048304 -0.013044602 0.037050616 -0.038302984
-0.007882304 -0.022260325 0.002840403 -0.022935338 0.026428998 -0.023543198 -0.03704877 0.0135643855
0.0070780315 -0.019790296 -0.0044523403 0.04938735 0.008930784 0.0071508973 -0.011544997 0.030760773
0.00020001119 -0.035782535 -0.039276272 0.034932196 0.032093126 0.032352764 0.03098529 0.042882826
0.045707 0.023730705 0.04580198 0.015815537 -0.001447455 0.045543976 0.028257342 -0.024079394
-0.04092527 -0.03395277 0.013293818 0.03743985 0.00961652 -0.004209793 0.041466124 -0.03717098
0.017865231 -0.038025737 -0.015370551 -0.001555292 -0.04143825 0.046976835 -0.04557736 -0.025271058
0.037443176 0.0032556532 0.03522628 -0.017370434 0.03834759 0.0063028466 0.022290133 -0.011962108
0.028486807 -0.0376729 0.03843719 -0.027127888 -0.029251773 0.032191236 0.038068116 0.027753152
0.03623447 0.04613003 -0.0044021388 -0.0072244196 -0.03490528 -0.038658753 0.04977647 -0.03525012
-0.023333786 -0.0016195993 -0.0029322815 0.045062713 0.004692826 -0.0075623114 -0.033493366 -0.011072103
-0.017447362 -0.043674447 0.017768022 -0.022045236 -0.009034879 -0.028972482 0.042275507 0.01289179

a2c_network.actor_mlp.4.weight f4 [64, 128]
00000000: e800 433d 4d4b bb3c f6c7 3cbd 4fbc f73d
00000010: 7ee9 4eba e38c 893c 45d6 82bc a151 75bc
00000020: e2d1 d5bd 95ee 673d 6eca b3bd c317 c43d
00000030: 7e1f ec3d 733c 633c 92ac ff3d d6f4 babc
00000040: f749 ccbc 68a2 903d 6424 b2bd 35aa edbd
00000050: ab4f 6e3d 158d 633d 973e c93c bd1a 913c
00000060: ad05 943d 4f93 c73d 83c4 4abd e4d0 eebd
00000070: 9c73 ee3d b6d5 bebc 09ae 05bd 18a4 64bc
00000080: 2a86 6d3d fcdf 1c3d 011a c83d efdf cc3c
00000090: 0e71 61bc 6fa1 bfbd 5ec4 b63d 5295 ccbc
000000a0: c46f d33d 2b09 66bd 45ab 65bb bd9c 8f3d
000000b0: ea2a b3bd 78d5 83bd dbf5 18bc 9ec9 62bd
000000c0: 69ad 8cbd 91ca 6e3c 866f b73d c970 433d
000000d0: d171 6dbd 50de 63bd 073f 803b bbdd 7a3d
000000e0: 23f0 cebd 0af4 603d b54b 0dbd f324 c73d
000000f0: 2de6 3e3d eed4 54bd c871 a43d 9a7c e1bc
00000100: e037 683d 6732 babc abf7 13bd 82b8 bcba
00000110: 2797 d5bc 6591 ae3d 8b1e 1bbd d08d b0bd
00000120: a1da e1bd 45d0 8fbd 3323 d03d bfea ef3d
00000130: 412c 943c 51e7 d3bd 9b7c 523d dd3d 97bd
00000140: 33fb ba3c 314d 4a3d 6a74 763d abc2 3ebc
00000150: 8f0b 4fbd 851b 0d3b 0ad8 abbd 5671 17bd
00000160: 90e6 853d bafb 303d ff97 be3c 88ff f33d
00000170: 20dc 803d 97a5 8cbd 8e91 f83d 4577 4abd
00000180: 9e62 9eba 66d0 a8bd 671e 8c3d bdf1 a4bc
00000190: 2848 f5bc 95ad ac38 1f42 e9bc dd05 f8bc
000001a0: 735b 6d3d a446 073a 5e77 49bd a784 b03d
000001b0: 50af dfbc ee63 223c dd23 aa3d ac76 9abd
000001c0: 4b05 cebb 3729 ebbd 6ca8 963b 5ca7 ca3d
000001d0: 61e0 bbbd eea4 8c3c 6c99 7bbd a22b 643d
000001e0: 38f0 183d a722 8fbc f86b 193c 4b37 d5bb
000001f0: 91e4 5bbc 9017 c3bd 3aa3 d73d c880 853c
00000200: 07c4 da3b 466a cf3b 4e40 07bd e730 d1bd
00000210: 6f4a 8b3d f546 31bd 08aa 5abc 4d7c 69bd
00000220: 1993 9e3d b20c 45bd 5c7e ca3c 37b8 b6bb
00000230: aa99 803d e5e9 cd3d 8300 743c 4c16 a5bc
00000240: 8ebb 6a3d 14a2 b43c 7afe aebd 3f36 d73b
00000250: 6e15 563d e108 abbd 82f7 56bd c838 56bd
00000260: 2458 893d dbc7 b1bd d688 333c d3c1 5cbd
00000270: e627 4f3d 3a8a 2bbd ad46 573d 8c7d 23bd
00000280: 427b 14bd 672b aa3a d135 2fbb fbd9 92bd
00000290: b18d 72bd ffe0 7fbd c892 54bd a937 7d3d
000002a0: 7dd1 033d ef8f 2dbd e832 45bd 70d4 a73d
000002b0: 953a ccbd 0dc1 863d ddc0 4c3c e11f a4bd
000002c0: 1b43 083d 11d5 983d 9cf3 353d 4baa 24bd
000002d0: 1d85 23bd d168 c33a 754f 6cbd 8fd1 e63c
000002e0: 898d 52bd 75b0 b53b dad7 bebb fbd0 543d
000002f0: 0c4c c4bd ff20 84bd e29d 193d b61c 3ebd
00000300: 81ce 613d 2276 a9bd 2359 f43b 6a78 813c
00000310: 385e c73d 6675 453d 3a55 aa3c a71e 74bc
00000320: 7812 f43c 9d4d 9a3d 9362 75bd f3a8 c3bd
00000330: eb91 eb3a f1b4 99bd 9fc5 143b b6b3 523c
00000340: 89c2 573d d55e 943d 5d2a 9abd 4805 b93d
00000350: 079e 5abd 0fc7 c1bd 4209 2fbc acd8 153d
00000360: a1f3 68bc fbc2 21bc a2a6 4dbb 25a6 9bbc
00000370: 256e 24bd 0bec 223d 040b 803c 4dd8 47bc
00000380: c8a8 a83c a50f 843d 79b3 5bbc 54e5 adbc
00000390: 3392 953d 5204 ccbb ee19 583d 55e4 8d3d
000003a0: 8069 d4bd cba6 0bbd 1434 96bd bcde cd3c
000003b0: e750 863d df6a 4c3d d23b 25bd 02e0 0d3d
000003c0: 8828 923d 39c6 32bd 6908 393d 267b 6abc
000003d0: 6be6 9e3c 8353 80bc 7ba4 6b3d e95c 573d
000003e0: 1e7e 093c cdb6 8a3c dba5 abbd 8cbe b6bd
000003f0: 626d 95bc 959c 63bd c707 8cbc 9179 813d
0.047608286 0.022863055 -0.046089135 0.12096464 -0.00078930694 0.016790813 -0.015971312 -0.014973075
-0.104404226 0.056624014 -0.08778845 0.09574845 0.11529444 0.013869393 0.12484087 -0.022821825
-0.024937613 0.070622265 -0.08698347 -0.1160473 0.058181446 0.05555447 0.024565978 0.017712945
0.07227645 0.09744894 -0.049503814 -0.116609365 0.116431445 -0.023295265 -0.032636676 -0.013955139
0.057989277 0.038299546 0.09770585 0.025009124 -0.0137598645 -0.09356963 0.08924173 -0.024973545
0.10324052 -0.056161087 -0.0035044712 0.07012317 -0.087484196 -0.064372 -0.00933596 -0.05536806
-0.06869013 0.014574663 0.08956818 0.047714982 -0.057969872 -0.055631936 0.0039137634 0.061246615
-0.10104396 0.054920234 -0.034496028 0.097238444 0.04660623 -0.051960878 0.080295146 -0.027525235
0.05669391 -0.022729112 -0.036124866 -0.0014398249 -0.026073052 0.085238256 -0.037870925 -0.086207986
-0.11028028 -0.07022146 0.10162964 0.11714696 0.018087508 -0.103468545 0.051388364 -0.07384846
0.02282486 0.04939002 0.060169615 -0.011643092 -0.050548133 0.0021531295 -0.083908156 -0.03697332
0.06538117 0.043208815 0.023265837 0.11913973 0.062919855 -0.06867521 0.12137137 -0.04943015
-0.0012083834 -0.08242874 0.06841736 -0.020134801 -0.029941633 8.233931e-05 -0.028473912 -0.030276233
0.05794854 0.00051603676 -0.049186103 0.086190514 -0.027305275 0.00991152 0.08307622 -0.07542166
-0.006287252 -0.114824705 0.004597714 0.098952025 -0.09173656 0.017168488 -0.06142561 0.055705674
0.037338465 -0.017472578 0.009364121 -0.0065068356 -0.013421194 -0.095259786 0.1052918 0.01629676
0.0066762003 0.0063298075 -0.03302031 -0.102144055 0.068013065 -0.04328056 -0.013346203 -0.057003308
0.077429004 -0.04810781 0.024718456 -0.0055761593 0.06279309 0.100543775 0.0148927 -0.020152234
0.057307772 0.022049941 -0.08544631 0.006567746 0.05226653 -0.08351303 -0.052482136 -0.052300245
0.067062646 -0.086806975 0.010957917 -0.053895783 0.05057516 -0.04187987 0.052557636 -0.039914653
-0.03625036 0.0012982906 -0.0026734958 -0.07170483 -0.05921716 -0.062470432 -0.051897794 0.06182066
0.032182205 -0.042373594 -0.04814425 0.08194816 -0.09972111 0.0657979 0.012497154 -0.08013893
0.03326712 0.07462514 0.044421777 -0.040201467 -0.03992187 0.0014908557 -0.057692964 0.028176097
-0.05140451 0.005544717 -0.0058240714 0.05195711 -0.09584817 -0.06451606 0.037504084 -0.0464141
0.055128578 -0.08274485 0.007456915 0.015804488 0.09734768 0.048207663 0.020792592 -0.014899886
0.029793963 0.07534335 -0.05990846 -0.09553709 0.0017972564 -0.07505215 0.00227008 0.012860229
0.052675758 0.0724465 -0.075276114 0.090342104 -0.053373363 -0.094617955 -0.01068336 0.036583588
-0.014218242 -0.009873147 -0.0031379838 -0.019000122 -0.040144105 0.03977589 0.015630253 -0.012197566
0.020588294 0.064482965 -0.013409489 -0.021227516 0.07303276 -0.006226101 0.052759103 0.069283165
-0.10371685 -0.034094613 -0.07334152 0.025130622 0.065584 0.049906608 -0.040340252 0.03463746
0.07136637 -0.04364607 0.045174036 -0.014311587 0.019396981 -0.015664821 0.057529908 0.05257884
0.008391885 0.01693287 -0.08381244 -0.08923063 -0.018240634 -0.05556925 -0.017093552 0.06322015

a2c_network.actor_mlp.4.bias f4 [64]
00000000: 5650 283d 8136 e9bc 0db6 0bbd db6c 03bd
00000010: f593 e23c 9dbc bbbc 54c7 08bc f8ec 8d3b
00000020: 32a0 8e3b 9b24 28bd 2e3d 0abd 72d0 133d
00000030: cf3d a7bc 5f52 1fbd 3e81 23bd 39c5 fe3c
00000040: 2987 9fbc 8aa3 393d 2d60 e23c 7cd9 ecbc
00000050: da4d d13c 7fee 05bd 1c64 80bc 219a d2bc
00000060: 5005 133d 415f aabc b75d 7e3b 1d3a 433d
00000070: b299 13bd b673 7bbc d392 533d 1237 2bbb
00000080: fc0f 143d f4a6 23bd e4c1 19bd ff35 a7bc
00000090: c950 e8bc ec8e edbc 1d6a 0e3d 2a8a 1cbd
000000a0: a4bb 223d 358f 1dbd 833d f93c 5e74 1d3b
000000b0: d856 1c3d 8bd5 e53c 646d 073d 9e13 ca3c
000000c0: 6c6d a33c 6050 c0bc 36d5 3a3d 64f9 05bd
000000d0: 4de2 1fbd cd3f 003d 6d25 643c 34c3 233d
000000e0: 1825 303c a91b b93c af3a c5bc 5c4f b93c
000000f0: aa33 d0bc 00b8 04bc 4ebc 0dbd 2c0c 87bc
0.04109224 -0.028468372 -0.034109164 -0.032086235 0.027658442 -0.022917086 -0.008348305 0.0043312274
0.004352593 -0.041050535 -0.03374975 0.03608746 -0.020415215 -0.038896915 -0.039918177 0.031099902
-0.01947363 0.04532198 0.02763375 -0.028912298 0.025549818 -0.03269815 -0.015672736 -0.02570826
0.03589374 -0.020797374 0.0038813183 0.047662843 -0.036035247 -0.015347412 0.051653694 -0.0026125354
0.036148056 -0.03995414 -0.037538424 -0.02041149 -0.028358834 -0.028998815 0.034769166 -0.0382177
0.03972973 -0.03846665 0.030424839 0.002402566 0.03816876 0.028055927 0.033063307 0.024667557
0.019949637 -0.023475826 0.04561349 -0.03270854 -0.039034177 0.031310845 0.013924939 0.039981082
0.010751031 0.022596197 -0.024075834 0.02262085 -0.02541526 -0.00810051 -0.03460341 -0.016485296

a2c_network.value.weight f4 [1, 64]
00000000: ac89 b2bd c5bf c23d 2e02 f53d 9a0c 3e3d
00000010: dfcf 27bc bacc bb3d 2db5 833d 18c0 513c
00000020: 4f2c 133d 0745 ed3d 027a fc3d cee1 a3bd
00000030: 7779 3a3d 8990 143e 21b9 ca3d d18d a6bd
00000040: 2110 083e 6fa3 03be 71af a5bd 2f4a 5a3d
00000050: c13f 60bd c88a 9c3d 229d 123d 3b28 193e
00000060: dde8 2dbd a0d1 e43d 436d ad3c ad8a 0fbe
00000070: e47a da3d 79bc d43d 6e45 10be 71e7 0c3d
00000080: f97c 96bd c55c e13d 9582 b33d be43 593d
00000090: 38d0 0f3e 76a5 193e f54e b2bd 9b62 083e
000000a0: 9d15 47bd 0bac 1e3e 4b78 01be b0fd 9dbc
000000b0: a9e8 dbbd d2c1 15be 3165 16be 9909 e6bd
000000c0: 256f 66bd 0276 c53d 5339 21be b6de d13d
000000d0: a44b e43d 7ad9 83bd 9922 2abc af9f 8dbd
000000e0: 9e6c 29bd 3ce3 90bd 3ded dc3d b47c a2bd
000000f0: 5cfe ce3d 66b5 673d 2ef2 133e 70dd 0c3d
-0.08717665 0.095092334 0.11963306 0.046398737 -0.010242431 0.09169908 0.06431041 0.012802146
0.035930928 0.115854315 0.12327959 -0.08002053 0.045525994 0.14508261 0.09898592 -0.08132518
0.13287403 -0.12855314 -0.080901034 0.053293403 -0.0547483 0.07643658 0.035794385 0.14956753
-0.042458404 0.11172795 0.021170264 -0.14017744 0.10667971 0.10387511 -0.14088985 0.034400407
-0.073480554 0.110040225 0.08765141 0.05304312 0.14044273 0.15004525 -0.08706466 0.13318865
-0.048604596 0.15495317 -0.12643544 -0.019286007 -0.10737736 -0.14624718 -0.14687039 -0.11232299
-0.05625834 0.09641649 -0.15744524 0.10247557 0.1114724 -0.06437965 -0.010384225 -0.06915223
-0.04136335 -0.070745915 0.10787437 -0.079339415 0.10107109 0.05656948 0.14447853 0.034390867

a2c_network.mu.weight f4 [24, 64]
00000000: ee9a 9abd 3fcf cdbc 4ddb fcbc 2e01 bbbd
00000010: 04a8 10bd b05b f43d 02ae fa3c b2a7 cf3d
00000020: 145c f53c 76e0 723d 1e42 dbbd c950 7f3c
00000030: c852 763d df3d 3dbc c27d 62bd 3462 05bc
00000040: 010a b4bd 6c17 8e3d 8a7e fc3c a820 ddbd
00000050: 55cf 3e3d ed8c 00be 970c 2c3d 2c74 9dbd
00000060: c88c bcbd 15df ee3c 798e 1d3c 3056 f43d
00000070: 9d88 8bbd 020b 0c3e 63d5 3d3d 76dc 133d
00000080: 91ca 1b3d 4063 993c fcfc 643d 4267 923c
00000090: 547b bd3d 0eba edbd fc3b 10bd 12d4 62bd
000000a0: 4d54 83bd c1f6 d5bd def8 a3bd c425 bb3c
000000b0: cee9 16bd 4777 d1bd 0627 8b3d c502 c93d
000000c0: fd0d 683d 5163 73bd 0c02 123e 6e11 3fbb
000000d0: de32 9dbc fece 583c 7c91 f53d d6bc 25bd
000000e0: 6f74 b7bd 2ec7 0f3d b553 acbd a030 65bd
000000f0: a6c4 f93b 1db1 f43d 1567 66bd 9733 b3bc
00000100: de30 d6bd 3511 783d 6257 dabd aee7 1dbb
00000110: e75f 293d 85c6 c9bc 879a 613d fa36 8d3c
00000120: 98bb 43bd 9610 e6bd 7248 db3d bbc7 ccbd
00000130: f626 58bd a2b3 613d 7b7b f4bc 4a56 2bbd
00000140: a5e9 0b3d f423 11bc 1d5b 883d 04bb 71bd
00000150: d68a 053c d906 fabd 18b8 e2bc 9f14 d63d
00000160: dec5 7e3d 0132 7b3c b708 143d 754d f33d
00000170: 5666 0cbd e0e3 b03d b06d e73d b5d6 12bc
00000180: 5039 7b3d 1157 003d 1560 5dbd 7aad a7bd
00000190: ab42 05bd b30b bd3d fb81 893d 7612 b63d
000001a0: 2bb8 90bd 3aac fcbd a40d 0ebd 2e06 d8bd
000001b0: 1c56 c73d 6d94 f5bc dd25 8cbd c0c2 81bc
000001c0: 4316 94bc 1759 9b3c 3372 933d 4fb4 c0bd
000001d0: c8f8 363d 290d 3d3c 1509 aa3d f0cb ef3b
000001e0: dfba 2b3d 4351 f5bd 6b85 a63d 7e59 923d
000001f0: 020d ec3d 6c80 0b3d 18ef babb 0ffc f73d
00000200: a3b3 55bd 9334 41bd 647a 20bc 256b dfbd
00000210: d9ab f83d 0b77 c53d bb47 e03d 35f8 ad3d
00000220: b228 8d3d 9e26 50bc 9958 043d 9652 613d
00000230: 0f37 4dbc 8ab8 22bd 1d74 03bd eed4 e3bd
00000240: a6bd 8a3d 05c4 173e 943e 883d 82ab a2bc
00000250: 5143 a5bc 169b 0abe 140e 1fbe 00d1 b2bd
00000260: ac24 1bbd 1603 bbbd 009a 5f3d f7c4 293e
00000270: 326c 88bd 785e e13d 006d e23d bbcc c53d
00000280: c447 cb3d 7e83 7a3d 7172 853d e46e 2cbd
00000290: c878 053c 2c41 593d 36ee 85bd a7ad eabd
000002a0: 4e2c e73d 2489 c8bd dee3 a5bd 2765 2f3c
000002b0: 4573 123d d9af 3dbd ea6e 4dbd e6d2 b4bd
000002c0: 627e 23bd dffd 0a3e cecd 943d d447 e5bd
000002d0: e359 943d 8082 b33d 2a1a 583d 9afb 143d
000002e0: ab74 d8bd daf7 71bd 279c e83d 24a8 c1bd
000002f0: d818 1d3d 189e e43d 8fd3 ebbd 505a d3bc
00000300: 646f ab3d 96ad b83d a390 d7bd d0b6 d1bd
00000310: a63c 753d b696 803d 767f 083e 4a16 c03d
00000320: 8b6e 093e 9a2a ac3d c407 94bd 486d de3d
00000330: 5252 b43d 1ff9 b6bd 7316 a5bd 5975 a43c
00000340: 85b6 ba3d c54a 843d 6cce 2ebd dc37 08be
00000350: 94e6 a53c fec7 e3bd 6e9a 9bbb be77 c13c
00000360: 9f60 1b3e 1f30 ec3d 8324 1c3e ad0a 013e
00000370: a32b 07be 79e3 fd3d ceaf 103e 04c6 c93d
00000380: 05cd 0f3d 01cd e1bd fe8c 0fbe 219e 123e
00000390: a19f 933c 34ef f9bd e420 ee3d 2c3a 983d
000003a0: a3c8 723d 792a 1b3d 6c56 08be f73a d6bc
000003b0: 3bdc c5bd 8c16 fcbd 1f75 313d 9f44 a7bc
000003c0: fa03 f6ba ad64 0a3d f3df d63d 66a5 8c3d
000003d0: a5dd d1bd 94b4 bc3d 27e4 303c 2804 d93d
000003e0: 5e14 b9bd c7d4 e0bd a40d 1e3d 1c4a 46bd
000003f0: 7d9e 2d3d 6328 063c f0c9 87bd 9edc f2bd
-0.07549082 -0.025123237 -0.03086629 -0.091310844 -0.035316482 0.119315505 0.030600552 0.10139407
0.029951133 0.059296094 -0.1070597 0.0155832255 0.06013754 -0.011550396 -0.055295713 -0.008141089
-0.087909706 0.06938061 0.030822057 -0.10797244 0.046584446 -0.12553759 0.042004194 -0.07688174
-0.092065394 0.029159108 0.009616488 0.119305015 -0.06813166 0.13676074 0.04634608 0.03609892
0.03803498 0.018724084 0.055905327 0.017871503 0.092520386 -0.11607753 -0.035213456 -0.055378027
-0.064125635 -0.10447455 -0.08006452 0.022845156 -0.036844067 -0.102278285 0.067945525 0.09814981
0.056653965 -0.059420887 0.14258593 -0.0029154676 -0.019189294 0.0132329445 0.119906396 -0.04046329
-0.08957755 0.035102062 -0.08414403 -0.055954576 0.0076223193 0.11947844 -0.05625065 -0.021875186
-0.104585394 0.060563285 -0.10661198 -0.002409439 0.041351225 -0.024630794 0.05507901 0.017238129
-0.047786325 -0.11233632 0.10707177 -0.09999033 -0.05277153 0.05510295 -0.029844036 -0.04183034
0.034158368 -0.00885867 0.066580035 -0.059016243 0.008150777 -0.12208337 -0.027675673 0.10453152
0.06220042 0.015331746 0.036141124 0.11880008 -0.034277283 0.08637214 0.11300218 -0.008962323
0.061333954 0.031333033 -0.05404671 -0.08187385 -0.032534283 0.09230747 0.06714245 0.0889024
-0.07066377 -0.12337537 -0.034680977 -0.10548054 0.09733221 -0.029978001 -0.06843159 -0.015839934
-0.018077021 0.01896338 0.07199516 -0.09409391 0.04467085 0.011538782 0.083025135 0.0073180124
0.04192626 -0.1197839 0.08130916 0.071459755 0.115259185 0.03405802 -0.0057047717 0.12108623
-0.052173268 -0.04716928 -0.009794805 -0.10909108 0.12142152 0.09641846 0.109511815 0.08494607
0.06892528 -0.01270452 0.032311056 0.0550104 -0.012525334 -0.03972677 -0.032093156 -0.111245975
0.06774454 0.1482087 0.06652561 -0.019857172 -0.0201737 -0.13535723 -0.15532714 -0.0873127
-0.03787677 -0.09131448 0.054590225 0.16579042 -0.066612616 0.110043466 0.11055946 0.0965819
0.099257976 0.061160557 0.065159686 -0.04209794 0.008146472 0.05304067 -0.06539576 -0.11458903
0.11287747 -0.097917825 -0.08100103 0.010705269 0.03575446 -0.04631028 -0.050154604 -0.08829288
-0.03991545 0.13573407 0.07265817 -0.11195341 0.07243707 0.08765125 0.052759327 0.03637276
-0.10569128 -0.05907426 0.11357909 -0.094558984 0.03835377 0.111629665 -0.11514961 -0.0257999
0.083708555 0.09017484 -0.10525634 -0.10239947 0.059872292 0.06278746 0.13329872 0.09379251
0.13421075 0.08406563 -0.07228044 0.108606875 0.08804764 -0.08934235 -0.080609225 0.020075487
0.09116844 0.06459574 -0.042677328 -0.13302559 0.02025155 -0.1112213 -0.004748634 0.023616668
0.15173577 0.11532616 0.15248303 0.12601729 -0.1320024 0.123969026 0.14129564 0.098522216
0.03510763 -0.110254295 -0.14018628 0.14318134 0.018020453 -0.122038275 0.11627367 0.074329704
0.059273373 0.037882302 -0.13314217 -0.026151164 -0.09661146 -0.12308988 0.043324586 -0.020418463
-0.0018769496 0.03378742 0.10491934 0.06867485 -0.102473535 0.0921413 0.010796583 0.10596496
-0.09037088 -0.10978084 0.038587227 -0.04841052 0.042387474 0.00818834 -0.066303134 -0.11858486

a2c_network.mu.bias f4 [24]
00000000: bd79 863c ff30 a1bb 0d8b d43c 4c90 043d
00000010: bf91 bc3c 634a a0ba 1c39 e63c fe69 923c
00000020: 7727 cfbc e96a b83c 5bf4 92bb 860b 21bc
00000030: 918b 00bc 8b78 98bc 3324 f4ba bbba bf3c
00000040: 9737 8dbc 89d8 c8bc be2d bf3a f0ff 48bc
00000050: 963f 683c 9e6d 5b3c aaec 25bc 8b6d e0bb
0.016415471 -0.004919171 0.02594521 0.032364175 0.023018716 -0.00122292 0.028103404 0.017872807
-0.025287373 0.022511916 -0.004484696 -0.009829408 -0.007845775 -0.018612167 -0.0018626511 0.02340447
-0.017238421 -0.024517315 0.0014585776 -0.0122680515 0.014175316 0.013392834 -0.010127226 -0.006848996

exp_avg f4 [24]
00000000: 0dde 79bc 98ae f73a a521 54b9 bcc6 b9bb
00000010: 8653 c23b 964f 7bbc e718 87bc 13b6 193a
00000020: fb4c 283c be8f 533b 78a6 433c 671f 313b
00000030: d6fa 913b 9968 713c 1d33 a3bc 81e9 01bb
00000040: a9d3 d5bb ef90 873b dfcd 4f3c 7962 a73b
00000050: 49b5 8b3a 9dd4 27bb 8619 2dbc 9c26 2dbc
-0.015250695 0.0018896637 -0.00020230429 -0.005669443 0.005930367 -0.015338799 -0.016491367 0.0005863618
0.01027226 0.0032281722 0.011941545 0.0027026774 0.004454951 0.014734411 -0.019921834 -0.0019823017
-0.006525476 0.0041371505 0.012683361 0.0051081744 0.0010658886 -0.0025608905 -0.010565167 -0.010568287

exp_avg_sq f4 [24]
00000000: 1010 ee39 b908 003a dae5 d339 438f d939
00000010: 0627 cd39 0765 e039 e54f c439 b355 da39
00000020: 3448 db39 5b33 c739 78b8 c439 b55e e239
00000030: 691b bc39 5bcb ee39 5bfa d339 aca9 d739
00000040: 2c04 c139 0087 c339 3506 c939 7e69 ed39
00000050: 5c00 ce39 5077 e739 0220 ec39 5f69 e939
0.00045406865 0.0004884112 0.0004041631 0.00041496204 0.00039129722 0.0004279988 0.0003744356 0.0004164405
0.0004182473 0.000379945 0.00037521473 0.0004317664 0.00035878576 0.0004554641 0.00040431586 0.0004113441
0.00036814937 0.0003729388 0.00038342332 0.0004528276 0.0003929165 0.00044148648 0.00045037275 0.0004451973

exp_avg f4 [256, 39]
00000000: 0000 0000 20de 9636 c955 9136 dde4 0836
00000010: 4c4e e735 2b45 b836 dde4 0836 50b4 773b
00000020: f614 273b dde4 0836 8d3d fdba 5f63 2cbb
00000030: 0000 0000 6404 6f36 0000 0000 0000 0000
00000040: 0000 0000 0000 0000 0000 0000 0000 0000
00000050: 068e 22bb edd1 88b6 d51d d536 0000 0000
00000060: 0000 0000 0000 0000 0000 0000 0000 0000
00000070: 0000 0000 0000 0000 0000 0000 0000 0000
00000080: 0000 0000 0000 0000 0000 0000 0000 0000
00000090: 0000 0000 0000 0000 0c1a 1035 0000 0000
000000a0: 7199 a436 2b47 9e36 d51a 1536 9eec fb35
000000b0: 0fa8 c836 d51a 1536 2334 873b 7e40 363b
000000c0: d51a 1536 f892 09bb bf0c 3cbb 0000 0000
000000d0: fb28 8236 0000 0000 0000 0000 0000 0000
000000e0: 0000 0000 0000 0000 0000 0000 bb17 32bb
000000f0: 71a1 e6b6 c190 e836 0000 0000 0000 0000
00000100: 0000 0000 0000 0000 0000 0000 0000 0000
00000110: 0000 0000 0000 0000 0000 0000 0000 0000
00000120: 0000 0000 0000 0000 0000 0000 0000 0000
00000130: 0000 0000 cef5 1c35 0000 0000 ab6a 30b5
00000140: d7bd 2ab5 2bc3 a0b4 30d8 87b4 868d 58b5
00000150: 2bc3 a0b4 cb97 10ba 5876 c3b9 2bc3 a0b4
00000160: f2e3 9539 39a4 c939 0000 0000 bb5e 0cb5
00000170: 0000 0000 0000 0000 0000 0000 0000 0000
00000180: 0000 0000 0000 0000 f39a bb39 459d d6b4
00000190: 6a10 79b5 0000 0000 0000 0000 0000 0000
000001a0: 0000 0000 0000 0000 0000 0000 0000 0000
000001b0: 0000 0000 0000 0000 0000 0000 0000 0000
000001c0: 0000 0000 0000 0000 0000 0000 0000 0000
000001d0: 9b36 a9b3 0000 0000 01ba 21b6 3358 1bb6
000001e0: 835b 92b5 5644 77b5 e9eb 44b6 835b 92b5
000001f0: 9be8 04bb 2910 b3ba 835b 92b5 9cce 863a
00000200: 1ac4 b83a 0000 0000 3383 ffb5 0000 0000
00000210: 0000 0000 0000 0000 0000 0000 0000 0000
00000220: 0000 0000 577e af3a 984c 8c36 e488 64b6
00000230: 0000 0000 0000 0000 0000 0000 0000 0000
00000240: 0000 0000 0000 0000 0000 0000 0000 0000
00000250: 0000 0000 0000 0000 0000 0000 0000 0000
00000260: 0000 0000 0000 0000 0000 0000 3212 9ab4
00000270: 0000 0000 f384 83b6 274a 7db6 cf96 eeb5
00000280: 2a90 c9b5 4791 a0b6 cf96 eeb5 0cfb 57bb
00000290: a5a7 11bb cf96 eeb5 207a dc3a 6448 163b
000002a0: 0000 0000 e848 50b6 0000 0000 0000 0000
000002b0: 0000 0000 0000 0000 0000 0000 0000 0000
000002c0: 38eb 0d3b 463b 8d36 1dcb b9b6 0000 0000
000002d0: 0000 0000 0000 0000 0000 0000 0000 0000
000002e0: 0000 0000 0000 0000 0000 0000 0000 0000
000002f0: 0000 0000 0000 0000 0000 0000 0000 0000
00000300: 0000 0000 0000 0000 3b27 fbb4 0000 0000
00000310: 069c 0837 f56c 0337 c39c 7736 2a2e 5136
00000320: 5c9e 2637 c39c 7736 fd68 e03b f946 973b
00000330: c39c 7736 228e 64bb 8416 9cbb 0000 0000
00000340: 9f27 d836 0000 0000 0000 0000 0000 0000
00000350: 0000 0000 0000 0000 0000 0000 7bb4 93bb
00000360: 48e3 32b7 7d01 4137 0000 0000 0000 0000
00000370: 0000 0000 0000 0000 0000 0000 0000 0000
00000380: 0000 0000 0000 0000 0000 0000 0000 0000
00000390: 0000 0000 0000 0000 0000 0000 0000 0000
000003a0: 0000 0000 ec53 8235 0000 0000 8c2a a935
000003b0: e0c1 a235 be52 1935 5a86 0135 bb57 ce35
000003c0: be52 1935 9cf0 8a3a fc53 3b3a be52 1935
000003d0: 4f9d 0dba d748 41ba 0000 0000 5ad8 8535
000003e0: 0000 0000 0000 0000 0000 0000 0000 0000
000003f0: 0000 0000 0000 0000 20bf 36ba 6414 cdb5
0.0 4.496207e-06 4.3313235e-06 2.0398795e-06 1.7233629e-06 5.4916795e-06 2.0398795e-06 0.0037796684
0.0025494671 2.0398795e-06 -0.0019320712 -0.0026304347 0.0 3.561633e-06 0.0 0.0
0.0 0.0 0.0 0.0 -0.002480389 -4.0775544e-06 6.3513676e-06 0.0
0.0 0.0 0.0 0.0 0.0 0.0 0.0 0.0
0.0 0.0 0.0 0.0 0.0 0.0 5.3682083e-07 0.0
4.905444e-06 4.717052e-06 2.2218348e-06 1.8769822e-06 5.980029e-06 2.2218348e-06 0.004126088 0.0027809436
2.2218348e-06 -0.0020992141 -0.002869412 0.0 3.8790727e-06 0.0 0.0 0.0
0.0 0.0 0.0 -0.002717479 -6.8733284e-06 6.9309904e-06 0.0 0.0
0.0 0.0 0.0 0.0 0.0 0.0 0.0 0.0
0.0 0.0 0.0 0.0 0.0 5.847222e-07 0.0 -6.572033e-07
-6.360619e-07 -2.9944326e-07 -2.5303007e-07 -8.0672214e-07 -2.9944326e-07 -0.0005515783 -0.0003728147 -2.9944326e-07
0.00028589327 0.00038460063 0.0 -5.2291915e-07 0.0 0.0 0.0 0.0
0.0 0.0 0.00035782866 -3.9975035e-07 -9.2783614e-07 0.0 0.0 0.0
0.0 0.0 0.0 0.0 0.0 0.0 0.0 0.0
0.0 0.0 0.0 0.0 -7.8796084e-08 0.0 -2.4099138e-06 -2.3148139e-06
-1.0904481e-06 -9.211411e-07 -2.9343594e-06 -1.0904481e-06 -0.0020280245 -0.0013661432 -1.0904481e-06 0.0010284963
0.0014096529 0.0 -1.9037165e-06 0.0 0.0 0.0 0.0 0.0
0.0 0.0013389093 4.181242e-06 -3.4054328e-06 0.0 0.0 0.0 0.0
0.0 0.0 0.0 0.0 0.0 0.0 0.0 0.0
0.0 0.0 0.0 -2.8697974e-07 0.0 -3.9195816e-06 -3.77431e-06 -1.7776273e-06
-1.5017624e-06 -4.785284e-06 -1.7776273e-06 -0.0032956032 -0.0022225168 -1.7776273e-06 0.0016821064 0.0022931332
0.0 -3.1036852e-06 0.0 0.0 0.0 0.0 0.0 0.0
0.0021655094 4.209028e-06 -5.537075e-06 0.0 0.0 0.0 0.0 0.0
0.0 0.0 0.0 0.0 0.0 0.0 0.0 0.0
0.0 0.0 -4.6780937e-07 0.0 8.142559e-06 7.833577e-06 3.6897115e-06 3.1170298e-06
9.931242e-06 3.6897115e-06 0.006848453 0.004616615 3.6897115e-06 -0.0034874757 -0.0047634263 0.0
6.441914e-06 0.0 0.0 0.0 0.0 0.0 0.0 -0.004507599
-1.0662545e-05 1.1504043e-05 0.0 0.0 0.0 0.0 0.0 0.0
0.0 0.0 0.0 0.0 0.0 0.0 0.0 0.0
0.0 9.710179e-07 0.0 1.2603864e-06 1.2126366e-06 5.711735e-07 4.825175e-07 1.5373729e-06
5.711735e-07 0.0010600272 0.00071459985 5.711735e-07 -0.0005402164 -0.00073732197 0.0 9.972239e-07
0.0 0.0 0.0 0.0 0.0 0.0 -0.0006971229 -1.5279625e-06
