runs/lift_30-15-45-11/nn/last_lift_ep_425_rew_-515.4188.pth (torch, 654677 bytes, 36 tensors)

value_mean_std.running_mean f8 [1]
-2118.397853408092
00000000: b720 71b3 cb8c a0c0

value_mean_std.running_var f8 [1]
8445630.106981648
00000000: c764 6cc3 d71b 6041

value_mean_std.count f8 []
435201.0
00000000: 0000 0000 0490 1a41

running_mean_std.running_mean f8 [39]
0.0 1.499993106649327 1.2999936204530251 0.49999770221644163 0.399998048524849 2.899987483474812 0.49999770221644163 1.9587481668267825
2.25129001778382 0.49999770221644163 0.4411744291239023 0.44117446049552567 0.0 0.9999954044328833 0.0 0.0
0.0 0.0 0.0 0.0 -0.008885365293226167 0.0011806678409522016 9.809953429761501 0.0
0.0 0.0 0.0 0.0 0.0 0.0 0.0 0.0
0.0 0.0 0.0 0.0 0.0 0.0 0.12499942555411041
00000000: 0000 0000 0000 0000 7e8c 94c5 f8ff f73f
00000010: 8aab 4d1c c6cc f43f 9b10 c65c f6ff df3f
00000020: ee31 386a 9199 d93f 55ab 42a3 2c33 0740
00000030: 9b10 c65c f6ff df3f 8cef 5951 0857 ff3f
00000040: c98a 4157 a402 0240 9b10 c65c f6ff df3f
00000050: d7ca 3aac 333c dc3f 9428 eacd 333c dc3f
00000060: 0000 0000 0000 0000 9b10 c65c f6ff ef3f
00000070: 0000 0000 0000 0000 0000 0000 0000 0000
00000080: 0000 0000 0000 0000 0000 0000 0000 0000
00000090: 0000 0000 0000 0000 0000 0000 0000 0000
000000a0: 0d84 c78a 7d32 82bf a7c2 ea70 1458 533f
000000b0: a537 4837 b29e 2340 0000 0000 0000 0000
000000c0: 0000 0000 0000 0000 0000 0000 0000 0000
000000d0: 0000 0000 0000 0000 0000 0000 0000 0000
000000e0: 0000 0000 0000 0000 0000 0000 0000 0000
000000f0: 0000 0000 0000 0000 0000 0000 0000 0000
00000100: 0000 0000 0000 0000 0000 0000 0000 0000
00000110: 0000 0000 0000 0000 0000 0000 0000 0000
00000120: 0000 0000 0000 0000 0000 0000 0000 0000
00000130: 9b10 c65c f6ff bf3f

running_mean_std.running_var f8 [39]
4.5955671159599364e-06 1.4935545608586313e-05 1.2362035007589387e-05 5.744453615140649e-06 5.3308540590834975e-06 4.324413055488696e-05 5.744453615140649e-06 1.6032739563297462
1.2451066010637781 5.744453615140649e-06 0.4310516723486394 0.42281480612365624 4.5955671159599364e-06 9.191113112682793e-06 4.5955671159599364e-06 4.5955671159599364e-06
4.5955671159599364e-06 4.5955671159599364e-06 4.5955671159599364e-06 4.5955671159599364e-06 0.8342018806875247 0.7872730853683485 0.00044685285707041396 4.5955671159599364e-06
4.5955671159599364e-06 4.5955671159599364e-06 4.5955671159599364e-06 4.5955671159599364e-06 4.5955671159599364e-06 4.5955671159599364e-06 4.5955671159599364e-06 4.5955671159599364e-06
4.5955671159599364e-06 4.5955671159599364e-06 4.5955671159599364e-06 4.5955671159599364e-06 4.5955671159599364e-06 4.5955671159599364e-06 4.6673725221587505e-06
00000000: 1df9 bbde 7346 d33e 09cf 0ac2 7552 ef3e
00000010: f170 7b27 d1ec e93e cb60 e262 0f18 d83e
00000020: 4138 8801 f65b d63e 9979 0603 21ac 063f
00000030: cb60 e262 0f18 d83e ca6f 8f97 02a7 f93f
00000040: 70a4 39e6 f4eb f33f cb60 e262 0f18 d83e
00000050: a6e7 e7c0 5996 db3f 2b34 24d5 650f db3f
00000060: 1df9 bbde 7346 d33e efcb aaf7 7046 e33e
00000070: 1df9 bbde 7346 d33e 1df9 bbde 7346 d33e
00000080: 1df9 bbde 7346 d33e 1df9 bbde 7346 d33e
00000090: 1df9 bbde 7346 d33e 1df9 bbde 7346 d33e
000000a0: 4e11 7a24 c8b1 ea3f c6b2 5553 5731 e93f
000000b0: 20fc 4068 f248 3d3f 1df9 bbde 7346 d33e
000000c0: 1df9 bbde 7346 d33e 1df9 bbde 7346 d33e
000000d0: 1df9 bbde 7346 d33e 1df9 bbde 7346 d33e
000000e0: 1df9 bbde 7346 d33e 1df9 bbde 7346 d33e
000000f0: 1df9 bbde 7346 d33e 1df9 bbde 7346 d33e
00000100: 1df9 bbde 7346 d33e 1df9 bbde 7346 d33e
00000110: 1df9 bbde 7346 d33e 1df9 bbde 7346 d33e
00000120: 1df9 bbde 7346 d33e 1df9 bbde 7346 d33e
00000130: af5f fe96 8d93 d33e

running_mean_std.count f8 []
217601.0
00000000: 0000 0000 0890 0a41

a2c_network.sigma f4 [24]
-0.053209454 0.0068873665 0.034793675 -0.03394188 -0.01683944 -0.02805234 -0.0659224 -0.12774391
-0.091367364 -0.0029627713 -0.011130052 0.04790803 -0.04848806 -0.008710793 0.019320635 -0.02844834
0.032337718 -0.030642953 -0.039105214 0.018369978 -0.057203237 0.01280133 -0.07467352 -0.03472582
00000000: 28f2 59bd 6baf e13b d083 0e3d a406 0bbd
00000010: def2 89bc 05ce e5bc 5302 87bd 4dcf 02be
00000020: d01e bbbd 0e2b 42bb d25a 36bc 363b 443d
00000030: 6a9b 46bd b7b7 0ebc 4f46 9e3c 7e0c e9bc
00000040: 8e74 043d ee06 fbbc ca2c 20bd a37c 963c
00000050: f14d 6abd abbc 513c 6eee 98bd a93c 0ebd

a2c_network.actor_mlp.0.weight f4 [256, 39]
-0.050500125 0.04458273 -0.041963793 0.06974801 0.14514142 0.093792394 -0.06764676 0.06829705
-0.024806688 0.08367555 -0.11321228 -0.15799971 -0.061867196 -0.120916225 0.13139138 0.046121925
0.066327244 0.050642315 -0.002785585 0.12531762 -0.11955684 0.010309177 -0.108649865 0.049375832
-0.055145297 0.04906587 -0.033361334 0.13280898 -0.09490826 -0.095500104 -0.09550587 0.1440261
0.053362884 0.15408342 -0.13214995 -0.15882729 -0.12527846 -0.107716456 0.067480154 0.05733802
0.10982973 -0.106027216 -0.1317771 0.062229287 -0.0882677 0.07456868 -0.056869633 0.056750774
-0.14703016 -0.08612254 0.02303597 0.033852298 -0.063823305 0.095447496 0.10885659 -0.116120666
-0.08548732 0.14662325 -0.05403244 -0.06305574 -0.14967619 -0.11563264 0.0400006 -0.021135822
-0.11623478 0.0037560768 -0.10938057 -0.13585219 -0.088176586 -0.14014609 -0.10195968 0.16006552
0.030244198 0.049345043 -0.149349 -0.10516797 -0.053299587 0.0026326592 -0.14090016 -0.066739574
-0.09346637 6.951497e-05 -0.059561025 -0.00796159 -0.108881876 -0.08601069 -0.03865747 -0.05518602
-0.14124145 0.113491185 -0.031779677 0.1388138 0.049893063 -0.13559604 0.11081431 -0.04405843
-0.06138129 -0.13291764 -0.1527294 0.05475043 -0.02991776 0.06234159 -0.13141131 0.1188838
-0.11754266 -0.027649863 0.033445917 0.08266644 0.1292731 0.14587021 -0.12696916 0.040299013
-0.06887527 -0.017547613 -0.11985433 0.1458541 -0.11874146 0.085580684 0.07769393 0.07354328
-0.06572089 0.16649315 0.056938328 0.041450523 -0.12209625 0.0925937 -0.0031707713 -0.069017366
0.15209518 0.035700377 -0.06737963 -0.08104709 -0.0076470347 0.08940936 -0.040918157 -0.0913651
-0.054834742 -0.11509235 0.053365238 0.14601037 -0.1507511 0.03718987 0.08272088 0.029035935
-0.057025578 0.083577625 0.08414945 0.059876274 -0.028137943 -0.042402137 0.017130656 -0.028287293
-0.047718357 0.10235501 0.13761406 0.004803919 -0.03585219 -0.010566097 -0.022405352 0.025490899
0.031929586 -0.15824604 -0.07209881 0.14297809 0.08646579 -0.020970056 -0.077026084 -0.07864331
-0.14343749 -0.06513035 0.054075945 0.10210117 0.07393074 -0.14154433 -0.09629506 -0.025270887
0.15410472 0.021517992 -0.05416959 0.066247456 -0.060989857 -0.10364385 0.11687549 -0.07281055
-0.03210037 -0.15929617 0.10716907 0.12131863 0.058358412 -0.11165322 -0.15803686 -0.13005272
0.119407594 0.07687844 0.12171842 0.08388631 0.029506646 -0.012700225 -0.13228248 -0.14779995
-0.16108468 0.05504696 -0.09892032 -0.06584914 -0.1026578 -0.048278544 -0.13204457 -0.10463024
0.042279053 -0.047589507 0.09885402 -0.051370513 -0.11746476 -0.028252838 -0.077621706 -0.058279544
-0.14214239 0.07794831 -0.11148194 0.08048324 0.07266363 0.11440079 -0.12282662 0.11516365
-0.07570084 0.059418622 0.15037869 -0.02258317 -0.0012383453 -0.036866393 -0.13370453 0.07684596
-0.15896207 0.089091204 0.1198119 0.15947561 -0.029745849 -0.1237509 0.043816566 0.09653329
-0.15155986 -0.044998225 -0.07696466 -0.006187733 -0.09020429 -0.041497637 -0.0508341 -0.14423227
0.13138635 0.13424042 -0.02511915 -0.018235724 -0.065351486 -0.14460577 -0.14397179 0.06735245
00000000: 38d9 4ebd 619c 363d 3ae2 2bbd 0bd8 8e3d
00000010: f49f 143e 3a16 c03d 628a 8abd 53df 8b3d
00000020: 6537 cbbc 165e ab3d d7db e7bd adca 21be
00000030: 7568 7dbd eda2 f7bd 768b 063e 58ea 3c3d
00000040: 94d6 873d 516e 4f3d 5c8e 36bb 4353 003e
00000050: 37da f4bd d3e7 283c d283 debd 503e 4a3d
00000060: 09e0 61bd 4bf9 483d e5a5 08bd 14ff 073e
00000070: 435f c2bd 8f95 c3bd 9598 c3bd 947b 133e
00000080: 0a93 5a3d 0bc8 1d3e 5152 07be 9fa3 22be
00000090: ff48 00be 729a dcbd 0933 8a3d 46db 6a3d
000000a0: 69ee e03d cc24 d9bd 93f0 06be 23e4 7e3d
000000b0: b2c5 b4bd 77b7 983d 22f0 68bd 8073 683d
000000c0: 138f 16be 0461 b0bd eeb5 bc3c b5a8 0a3d
000000d0: cbb5 82bd fa79 c33d 34f0 de3d acd0 edbd
000000e0: fa13 afbd 6824 163e 1f51 5dbd 5e23 81bd
000000f0: b744 19be ced0 ecbd abd7 233d 0825 adbc
00000100: 800c eebd 8328 763b ec02 e0bd d61c 0bbe
00000110: ed95 b4bd 7582 0fbe 3dd0 d0bd 37e8 233e
00000120: aec2 f73c 071e 4a3d f2ee 18be 4e62 d7bd
00000130: ab50 5abd b188 2c3b 2248 10be c2ae 88bd
00000140: 4c6b bfbd 91c8 9138 43f6 73bd 5471 02bc
00000150: 76fd debd 5f26 b0bd 4c57 1ebd bc0a 62bd
00000160: 99a1 10be 116e e83d 682b 02bd 3425 0e3e
00000170: ab5c 4c3d b0d9 0abe 9df2 e23d 9d76 34bd
00000180: f36a 7bbd 901b 08be 1965 1cbe fd41 603d
00000190: 1716 f5bc e559 7f3d b090 06be 5a79 f33d
000001a0: 35ba f0bd f781 e2bc 96fe 083d 064d a93d
000001b0: 2b60 043e 005f 153e 3404 02be 9410 253d
000001c0: 7a0e 8dbd 03c0 8fbc 3076 f5bd c75a 153e
000001d0: b92e f3bd ed44 af3d ff1d 9f3d dc9d 963d
000001e0: ad98 86bd 2e7d 2a3e 2a38 693d 06c8 293d
000001f0: 990d fabd c4a1 bd3d b7cc 4fbb fa58 8dbd
00000200: d7be 1b3e 8f3a 123d 55fe 89bd 04fc a5bd
00000210: fa93 fabb 411c b73d cc99 27bd a01d bbbd
00000220: 659a 60bd 8ab5 ebbd 8295 5a3d be83 153e
00000230: 7f5e 1abe 6854 183d 9169 a93d c5dc ed3c
00000240: a793 69bd bf2a ab3d 8c56 ac3d d340 753d
00000250: 8b81 e6bc ddad 2dbd 9755 8c3c c1ba e7bc
00000260: 5374 43bd 819f d13d b3ea 0c3e 316a 9d3b
00000270: bfd9 12bd 6c1d 2dbc 6e8b b7bc 4ad2 d03c
00000280: 99c8 023d 400b 22be 8aa8 93bd d968 123e
00000290: fa14 b13d 65c9 abbc dabf 9dbd be0f a1bd
000002a0: 47e1 12be 1063 85bd bd7e 5d3d 6b1a d13d
000002b0: 0069 973d fff0 10be 5836 c5bd e404 cfbc
000002c0: a1cd 1d3e 8046 b03c efe0 5dbd bfac 873d
000002d0: 80d0 79bd 3a43 d4bd 6b5c ef3d b31d 95bd
000002e0: ad7b 03bd 891e 23be 757b db3d e775 f83d
000002f0: 3b09 6f3d 72aa e4bd 6ad4 21be 8a2c 05be
00000300: f88b f43d 7272 9d3d 8247 f93d 96cc ab3d
00000310: ecb7 f13c 9b14 50bc 0f75 07be df58 17be
00000320: 62f3 24be ec78 613d bd96 cabd eadb 86bd
00000330: 413e d2bd b9bf 45bd b136 07be 6148 d6bd
00000340: cd2c 2d3d 37ed 42bd fa73 ca3d e369 52bd
00000350: 5d91 f0bd 7f72 e7bc 21f8 9ebd 88b6 6ebd
00000360: c68d 11be 5da3 9f3d a550 e4bd 66d4 a43d
00000370: abd0 943d f64a ea3d 868c fbbd ebda eb3d
00000380: 0b09 9bbd f160 733d dffc 193e 5700 b9bc
00000390: f94f a2ba 3701 17bd d7e9 08be 6a61 9d3d
000003a0: f4c6 22be 7375 b63d f15f f53d 934d 233e
000003b0: 91ad f3bc 1d71 fdbd 0079 333d 3fb3 c53d
000003c0: 8232 1bbe 0f50 38bd a69f 9dbd 77c2 cabb
000003d0: 07bd b8bd 6df9 29bd 6b37 50bd a0b1 13be
000003e0: 258a 063e 5276 093e adc6 cdbc 1663 95bc
000003f0: 00d7 85bd 8913 14be 576d 13be 15f0 893d

a2c_network.actor_mlp.0.bias f4 [256]
-0.013700476 -0.032852143 0.01746314 0.029945195 -0.003757959 -0.021354051 0.005731207 0.012970975
-0.024050122 0.016375335 0.008402997 0.0026293423 0.020754766 -0.0038998523 -0.032291774 -0.030711647
-0.016331904 0.010087257 -0.0095578255 0.014134976 0.0007025349 -0.03944603 -0.025511725 -0.018782554
-0.06336628 0.027436707 0.008969268 -0.002134745 0.030835586 0.009429848 -0.007946511 -0.009247669
0.027406871 0.0013561466 0.0010980435 -0.028737029 -0.023268566 -0.03979455 0.009393958 0.0117949415
0.006605202 -0.016427735 -0.042189557 -0.015669746 -0.01257344 0.0015033376 -0.034909226 0.023657897
-0.039628267 -0.0116475215 -0.010597518 0.040999938 0.011326853 0.011781482 -0.01456596 -0.0017041367
-0.006750461 0.0123725 -0.0014774996 -0.022409432 -0.03693325 -0.013027686 0.021858122 0.012748686
-0.034165934 0.018797956 -0.022474863 -0.0277572 -0.009843502 0.008444973 -0.013748561 0.00056187774
0.013378624 0.014365745 0.024596615 -0.012225129 0.045324173 0.037874226 -0.0401262 -0.019499775
-0.022214053 -0.0061001116 0.0154411765 0.027832627 0.003370757 0.010311093 -0.007879716 -0.030690057
0.0080337385 -0.016086908 -0.02353351 -0.036212273 0.030544883 0.0291426 0.033430167 0.017926842
-0.013682586 0.023151265 -0.020827767 0.015243678 0.023505026 -0.012962234 0.0151396245 -0.0018384315
-0.0092137735 -0.01760926 -0.010842026 -0.0039561945 -0.027760306 0.029505258 -0.016599009 -0.02042823
-0.010710931 0.024412485 -0.030250702 0.021136785 0.027328193 0.009295867 -0.022215871 -0.03600183
0.004660601 0.016599849 -0.020297676 0.017963473 -0.023425369 -0.025522184 0.00063861394 0.027908288
0.04506256 -0.017357273 0.003609181 -0.029172769 -0.0071975575 0.0211869 -0.013602615 0.018510766
0.009180981 -0.027245723 -0.019468162 0.015574755 0.0013054113 0.026244631 0.033059005 0.034041405
0.032148592 0.02090654 -0.021679224 -0.0034709685 0.024644567 -0.0026381842 0.02678133 -0.0018096955
0.01098733 -0.02502541 0.019221924 -0.005514465 -0.034371193 -0.02409918 -0.011648637 -0.027901737
-0.038378324 -0.002846408 -0.01828511 -0.0058116093 0.0039101853 0.033416186 -0.02022209 0.020021042
-0.009303588 0.0087557975 -0.015207085 -0.013258577 0.01867303 0.017346065 0.0073367697 -0.024674745
0.036599852 -0.011818533 0.0030561076 -0.029228851 -0.023955815 0.03843575 4.440505e-06 -0.012250173
0.029074905 0.02833551 0.005917494 -0.021666816 -0.03299226 0.0042093005 0.028087886 -0.01773923
0.037602544 -0.013378517 0.03806732 -0.00022275824 0.028482247 -0.01960238 -0.002379639 -0.020473622
0.0046670726 -0.0034956385 0.01986454 0.004076522 -0.016946025 -0.025991784 -0.00583127 0.022527937
0.017873611 -0.0041569425 0.005969275 0.00026006333 -0.0006442248 0.012629635 0.02172723 -0.0064375065
-0.012320864 -0.031696074 0.03787836 0.015057155 -0.00837691 0.01569257 0.00093359296 0.020866668
0.024761237 -0.010839704 0.013015997 -0.015714848 -0.0058660544 0.000620644 0.011388935 -0.013131853
-0.024075944 -0.016372174 0.0071965866 0.023349343 -0.007290826 0.012984114 0.003694202 -0.031557277
-0.009618819 0.012349954 0.023921998 0.023368021 -0.016379667 0.038277645 0.028848607 0.016761092
-0.00733 0.021744058 -0.026389549 0.028729564 0.0032545866 0.024242783 0.020886943 0.0003487588
00000000: f677 60bc f88f 06bd dc0e 8f3c a04f f53c
00000010: 1748 76bb b1ee aebc d9cc bb3b 3684 543c
00000020: c304 c5bc 9125 863c b9ac 093c 0b51 2c3b
00000030: e605 aa3c aa94 7fbb 6144 04bd fe96 fbbc
00000040: 7cca 85bc 0645 253c 6d98 1cbc 6396 673c
00000050: 522a 383a 2992 21bd f7fd d0bc dfdd 99bc
00000060: 2ec6 81bd f2c2 e03c d6f3 123c 14e7 0bbb
00000070: e99a fc3c a67f 1a3c 1532 02bc 8983 17bc
00000080: 6084 e03c bbc0 b13a 3aec 8f3a eb69 ebbc
00000090: b89d bebc 9cff 22bd 1ee9 193c 923f 413c
000000a0: 7370 d83b 7593 86bc f5ce 2cbd d75d 80bc
000000b0: d400 4ebc a40b c53a fafc 0ebd 35ce c13c
000000c0: 4051 22bd 3fd5 3ebc 36a1 2dbc 8def 273d
000000d0: 4494 393c 1e07 413c 10a6 6ebc 575d dfba
000000e0: f932 ddbb 07b6 4a3c a9a8 c1ba fc93 b7bc
000000f0: 5247 17bd 1372 55bc ce0f b33c dddf 503c
00000100: 94f1 0bbd 2cfe 993c 341d b8bc 1163 e3bc
00000110: a446 21bc c95c 0a3c a541 61bc fa4a 133a
00000120: 0432 5b3c 4d5e 6b3c d77e c93c e84b 48bc
00000130: d7a5 393d 0122 1b3d 5f5b 24bd febd 9fbc
00000140: 3ffa b5bc 72e3 c7bb fdfc 7c3c 4001 e43c
00000150: ebe7 5c3b dcef 283c ed19 01bc b769 fbbc
00000160: f19f 033c b1c8 83bc 59c9 c0bc 5253 14bd
00000170: 4339 fa3c 76bc ee3c 12ee 083d 50db 923c
00000180: ed2c 60bc b9a7 bd3c fe9e aabc 9fc0 793c
00000190: 9d8d c03c 8d5f 54bc 300c 783c 86f7 f0ba
000001a0: 5ef5 16bc 4b41 90bc c1a2 31bc f7a2 81bb
000001b0: 9569 e3bc 03b5 f13c a5fa 87bc 1a59 a7bc
000001c0: e77c 2fbc b1fc c73c 52d0 f7bc 0d27 ad3c
000001d0: 60df df3c b14d 183c 0ffe b5bc a876 13bd
000001e0: f4b7 983b 68fc 873c 5047 a6bc 2228 933c
000001f0: 8fe6 bfbc e613 d1bc a868 273a ec9f e43c
00000200: 8593 383d d730 8ebc 0288 6c3b bbfb eebc
00000210: 7dd9 ebbb 2690 ad3c 81dd 5ebc e4a3 973c
00000220: d36b 163c 6c32 dfbc b27b 9fbc 422d 7f3c
00000230: 561a ab3a fbfe d63c e168 073d 006f 0b3d
00000240: 3eae 033d 3144 ab3c a198 b1bc 3079 63bb
00000250: 67e3 c93c 63e5 2cbb 8564 db3c 4e33 edba
00000260: 3404 343c 1702 cdbc 4c77 9d3c afb2 b4bb
00000270: cfc8 0cbd a56b c5bc edd9 3ebc 2f92 e4bc
00000280: 9732 1dbd cd8a 3abb a8ca 95bc 506f bebb
00000290: 0321 803b 69df 083d cca8 a5bc 2b03 a43c
000002a0: 146e 18bc 7a74 0f3c 2327 79bc 813a 59bc
000002b0: 2ff8 983c 5619 8e3c 4969 f03b b122 cabc
000002c0: bae9 153d 85a2 41bc fa48 483b 5871 efbc
000002d0: fc3e c4bc ce6e 1d3d a6ff 9436 f3b4 48bc
000002e0: 7f2e ee3c df1f e83c 8ae7 c13b 9b7e b1bc
000002f0: e422 07bd 2cee 893b 9118 e63c dd51 91bc
00000300: 2005 1a3d 9131 5bbc 7aec 1b3d 3694 69b9
00000310: 9a53 e93c 2c95 a0bc b8f3 1bbb 4cb8 a7bc
00000320: 3eee 983b 1517 65bb f6ba a23c 5894 853b
00000330: 64d2 8abc b9ec d4bc 3d14 bfbb 828c b83c
00000340: ae6b 923c f636 88bb e899 c33b 1c59 8839
00000350: 32e1 28ba 87ec 4e3c 4efd b13c b8f1 d2bb
00000360: 73dd 49bc bed3 01bd 5726 1b3d 49b2 763c
00000370: 4f3f 09bc b48d 803c 5dbc 743a 93f0 aa3c
00000380: 14d8 ca3c 0499 31bc 0c41 553c 6dbc 80bc
00000390: 0838 c0bb b7b2 223a a898 3a3c fc26 57bc
000003a0: ea3a c5bc f01e 86bc 58d1 eb3b 1f47 bf3c
000003b0: e2e7 eebb 52bb 543c 6d1a 723b 3442 01bd
000003c0: 4098 1dbc 7657 4a3c 11f8 c33c 4b6e bf3c
000003d0: a72e 86bc 05c9 1c3d ea53 ec3c 8f4e 893c
000003e0: 7f30 f0bb 9820 b23c e52e d8bc 435a eb3c
000003f0: e74a 553b cd98 c63c 181b ab3c 9dd9 b639

a2c_network.actor_mlp.2.weight f4 [128, 256]
0.01668434 -0.012830595 0.0076289396 -0.05292913 -0.022492431 0.039385963 -0.06535951 -0.0691
-0.044777628 -0.056809686 -0.056536347 -0.022812888 0.01116645 -0.076426655 -0.08219898 -0.045121506
-0.048076153 0.038441803 -0.015136586 0.01591112 0.062361695 -0.02506637 -0.013847384 -0.014443216
0.049736165 0.018200373 -0.014698609 0.008922228 -0.080180906 -0.032506317 -0.051121764 -0.070175536
-0.047363546 -0.036054075 -0.02193564 0.044468265 0.009184083 -0.0021216825 0.003976883 0.06686727
-0.032362245 0.058211606 0.04375051 -0.04821055 0.045007728 0.0112794 -0.046733063 0.06650679
0.016104601 0.08222194 -0.0133530395 -0.040386934 0.0634492 0.005011012 0.053665396 -0.030602526
0.027528131 -0.014359107 0.027176471 0.021615595 -0.011420103 0.07149047 0.020173127 0.0011111973
0.030141756 0.016459417 -0.011814533 0.032706957 -0.06845587 -0.02325851 0.02873908 -0.026389915
-0.025252117 0.03498495 0.014142497 -0.038059697 0.002574808 0.030590016 -0.025340645 0.0387972
-0.011965791 -0.028320333 -0.028666811 -0.014462795 0.040243365 -0.020283932 -0.08123964 -0.009393397
0.04895811 -0.04319986 0.06700038 0.042796172 0.06271414 -0.017625699 -0.041932423 -0.06873301
0.0022827007 -0.01746854 0.005339307 0.037920464 0.065012164 -0.08922515 -0.04600068 -0.0014959247
-0.0089056725 0.053730812 -0.033431955 0.04356408 -0.02389445 -0.0021494876 -0.023453044 -0.00573827
-0.039823122 -0.08449962 -0.019233935 -0.008115318 -0.04731175 -0.024236098 -0.05392397 -0.023127662
-0.074766174 0.06510069 0.0009551167 0.021398157 -0.065341435 -0.005656297 -0.078008905 0.03753398
0.037244804 -0.06404027 0.073811896 0.0057911724 -0.07103399 0.0023502682 0.04787338 -0.052308727
0.029620651 0.0373552 0.027640037 -0.02718914 0.025497235 0.016903052 0.07514327 -0.06809224
-0.005982257 0.029381875 -0.040878993 -0.028228467 0.047265273 0.036257792 -0.0039646146 -0.008135833
-0.06767631 0.036410592 -0.031634312 -0.098318696 0.0217488 -0.04436791 0.018941093 0.06323586
0.058623202 0.036073692 -0.036522053 -0.0051732757 0.020326987 -0.034467813 0.055159025 0.043860532
-0.0585695 -0.009114829 -0.037898403 0.014421983 0.020776153 -0.048524782 0.0049673514 -0.024419716
0.041445654 0.044400364 0.013458203 -0.05936339 0.030602781 -0.039375342 0.018863495 -0.020485168
0.04849809 -0.0054362537 0.0069596115 -0.047361735 0.036158614 -0.012283457 0.021302814 0.019227691
-0.0483934 -0.05676118 0.024654003 -0.025352951 -0.06875284 0.07456669 -0.029613225 -0.036650296
-0.08263184 0.03756764 -0.022548256 0.019507661 0.004668489 -0.0008628962 -0.016052656 0.05744235
0.027279649 0.013524781 -0.0698557 -0.05880381 0.014066631 0.010603651 0.007495997 -0.017564302
0.035988044 0.045450695 -0.031898547 0.011586767 -0.020900361 0.058832224 -0.018087156 -0.018417904
0.057268128 -0.047050018 0.017045066 -0.034391545 -0.07106052 0.030466756 -0.009503384 -0.09498675
-0.05486626 -0.022065395 0.041315418 0.02972381 -0.0051801982 0.037414834 -0.06824331 0.04767321
0.017026218 -0.0076355245 0.018454712 0.020186504 0.006871601 0.023003066 0.06983727 0.084506005
-0.015587871 0.020732692 0.03604964 -0.02531489 0.04937435 0.017797412 0.062086154 -0.010985898
00000000: 99ad 883c 6a37 52bc 2ffc f93b 37cc 58bd
00000010: 0c42 b8bc 2d53 213d 35db 85bd 4d84 8dbd
00000020: bf68 37bd 46b1 68bd a892 67bd 18e2 babc
00000030: 7cf3 363c 9485 9cbd f057 a8bd 54d1 38bd
00000040: 80eb 44bd 2775 1d3d 71ff 77bc 0a58 823c
00000050: fa6e 7f3d fd57 cdbc 23e0 62bc 3da3 6cbc
00000060: 26b8 4b3d f318 953c 6fd2 70bc 892e 123c
00000070: e335 a4bd 5825 05bd 0e65 51bd 31b8 8fbd
00000080: 4700 42bd 70ad 13bd 5fb2 b3bc 5b24 363d
00000090: d678 163c ed0b 0bbb 8350 823b b5f1 883d
000000a0: 468e 04bd 4b6f 6e3d bc33 333d 6d78 45bd
000000b0: 065a 383d 3ccd 383c 2b6b 3fbd b634 883d
000000c0: cced 833c fa63 a83d b5c6 5abc c56c 25bd
000000d0: a7f1 813d 6a33 a43b 3fd0 5b3d 26b2 fabc
000000e0: ad82 e13c 7642 6bbc 31a1 de3c 3013 b13c
000000f0: 621b 3bbc 9869 923d 1d42 a53c 98a5 913a
00000100: d8eb f63c e6d5 863c be91 41bc bbf7 053d
00000110: 9732 8cbd a188 bebc 386e eb3c aa2f d8bc
00000120: 87dd cebc 614c 0f3d efb5 673c 7ce4 1bbd
00000130: 1cbe 283b ea97 fa3c 2f97 cfbc d0e9 1e3d
00000140: 2a0c 44bc 0b00 e8bc a9d6 eabc 5cf5 6cbc
00000150: 3ad6 243d 7d2a a6bc f860 a6bd c3e6 19bc
00000160: 4d88 483d 56f2 30bd 7f37 893d 0a4b 2f3d
00000170: 4570 803d c563 90bc 55c1 2bbd e4c3 8cbd
00000180: 5d99 153b 2f1a 8fbc 5af5 ae3b 7d52 1b3d
00000190: 1925 853d adbb b6bd 366b 3cbd e712 c4ba
000001a0: 19e9 11bc d714 5c3d f2ef 08bd 4070 323d
000001b0: 4bbe c3bc 6bde 0cbb 9920 c0bc 1908 bcbb
000001c0: 921d 23bd 230e adbd 7c90 9dbc 1cf6 04bc
000001d0: f7c9 41bd c88a c6bc 61df 5cbd 3976 bdbc
000001e0: 021f 99bd 8353 853d cc60 7a3a 304b af3c
000001f0: bbd1 85bd 7558 b9bb 22c3 9fbd 3bbd 193d
00000200: 028e 183d 8c27 83bd b12a 973d e0c3 bd3b
00000210: 457a 91bd f506 1a3b e116 443d ad41 56bd
00000220: 02a7 f23c c401 193d 5c6d e23c c2bb debc
00000230: 94df d03c 4578 8a3c b7e4 993d f273 8bbd
00000240: cf06 c4bb 42b2 f03c bb70 27bd 633f e7bc
00000250: 3b99 413d 0d83 143d 99e9 81bb 284c 05bc
00000260: e199 8abd 4623 153d fb92 01bd 505b c9bd
00000270: 8a2a b23c 20bb 35bd 5a2a 9b3c cd81 813d
00000280: e21e 703d 02c2 133d 2698 15bd 9584 a9bb
00000290: c884 a63c 1f2e 0dbd 6eee 613d 1aa7 333d
000002a0: 92e6 6fbd 5d56 15bc 5b3b 1bbd 2e4a 6c3c
000002b0: c032 aa3c ecc1 46bd 2ac5 a23b db0b c8bc
000002c0: ebc2 293d 28dd 353d cb7f 5c3c 0727 73bd
000002d0: afb2 fa3c 0a48 21bd 9e87 9a3c 83d0 a7bc
000002e0: efa5 463d 9a22 b2bb 740d e43b 61fe 41bd
000002f0: 0e1b 143d 8e40 49bc 3d83 ae3c 6483 9d3c
00000300: 2838 46bd 697e 68bd 31f7 c93c feb0 cfbc
00000310: 4ace 8cbd 6cb6 983d 6f97 f2bc 9f1e 16bd
00000320: e23a a9bd 87e0 193d 1fb7 b8bc 88ce 9f3c
00000330: 20fa 983b fc33 62ba dc80 83bc ab48 6b3d
00000340: 9279 df3c 0b97 5d3c 8110 8fbd 44dc 70bd
00000350: ba77 663c f0ba 2d3c fba0 f53b 03e3 8fbc
00000360: 3368 133d 822a 3a3d 0da8 02bd 6cd6 3d3c
00000370: 3c37 abbc 0ffa 703d 842b 94bc 25e1 96bc
00000380: fc91 6a3d 85b7 40bd 18a2 8b3c 26de 0cbd
00000390: 2e88 91bd 6b95 f93c 15b4 1bbc 6a88 c2bd
000003a0: 72bb 60bd 7dc2 b4bc 5b3a 293d 597f f33c
000003b0: a7be a9bb 4c40 193d 26c3 8bbd fc44 433d
000003c0: 917a 8b3c 6c33 fabb 562e 973c 2b5e a53c
000003d0: 2b2b e13b ed70 bc3c d806 8f3d 7c11 ad3d
000003e0: 4564 7fbc 9bd7 a93c caa8 133d 2c61 cfbc
000003f0: c23c 4a3d e1cb 913c 0d4e 7e3d 32fe 33bc

a2c_network.actor_mlp.2.bias f4 [128]
-0.011912736 0.0327747 -0.024593279 0.0344577 -0.03586516 -0.010612085 -0.015748462 0.011434344
-0.042380493 -0.0047756718 0.0031690572 0.036420926 0.03738056 -0.022582289 0.0410767 0.031816088
-0.04372173 -0.0075354623 0.009278659 -0.03466604 0.002393906 0.012123181 0.009342924 0.010317803
0.032297425 0.043197397 -0.013595469 -0.038086124 0.046398025 0.001966016 -0.03203365 -0.00891492
0.032846805 0.0018602987 0.015514989 0.04609704 -0.036218084 -0.01678502 0.035163615 -0.034911793
-0.0053111385 -0.014431455 0.010018593 -0.002021559 0.021851627 -0.021996835 -0.031387802 0.0022083318
0.0008448807 -0.009440151 -0.001448089 0.045162305 -0.00028456713 0.011398774 -0.0007771704 0.030576587
-0.00090691284 -0.02870066 -0.03243326 0.022404334 0.0262442 0.033181448 0.030449918 0.042617682
0.04458364 0.0066577718 0.035268042 0.012782706 0.0031041733 0.03734084 0.0217088 -0.021373497
-0.034126345 -0.02093718 0.01972012 0.035354666 0.0035257721 -0.0055498546 0.034455802 -0.033526704
0.008363857 -0.037460513 -0.007334345 -0.009730343 -0.031395264 0.040362664 -0.03990521 -0.013828236
0.03363262 0.0014026042 0.027221128 -0.0035902713 0.027650164 0.0037881956 0.02671411 -0.003169851
0.005486428 -0.031461027 0.029472629 -0.024665784 -0.027234573 0.01869529 0.034368403 0.009202262
0.023853136 0.041337382 -0.007766053 -0.004013033 -0.035536684 -0.037993643 0.043804098 -0.03687697
-0.010879871 -0.006124473 -0.005568827 0.035366856 0.003186298 -0.0042035067 -0.022180017 -0.0026538037
-0.0034010839 -0.041468676 0.008302402 -0.027653469 0.0005074068 -0.029898942 0.030424546 -0.0006127234
00000000: a32d 43bc c43e 063d d877 c9bc 8423 0d3d
00000010: 59e7 12bd 50de 2dbc eb02 81bc 1d57 3b3c
00000020: 2b97 2dbd 3d7d 9cbb f5af 4f3b 1c2e 153d
00000030: 5c1c 193d 7efe b8bc 0b40 283d 9651 023d
00000040: 8f15 33bd 0aec f6bb 8405 183c fafd 0dbd
00000050: 14e3 1c3b 4ea0 463c 1013 193c 010c 293c
00000060: 4e4a 043d c1ef 303d 88bf 5ebc 3200 1cbd
00000070: db0b 3e3d 46d8 003b b735 03bd e20f 12bc
00000080: 5f8a 063d 44d5 f33a 9532 7e3c 40d0 3c3d
00000090: 6a59 14bd bd80 89bc b907 103d abff 0ebd
000000a0: 0f09 aebb e971 6cbc 0625 243c 227c 04bb
000000b0: 2f02 b33c b532 b4bc 7f90 00bd a9b9 103b
000000c0: fc7a 5d3a ddaa 1abc cecd bdba 1cfc 383d
000000d0: f431 95b9 ecc1 3a3c 06bb 4bba c07b fa3c
000000e0: e4bd 6dba a61d ebbc bdd8 04bd 4b89 b73c
000000f0: 14fe d63c 45e9 073d 1b72 f93c e18f 2e3d
00000100: 569d 363d 7029 da3b 3975 103d 8e6e 513c
00000110: 636f 4b3b b5f2 183d a7d6 b13c 7917 afbc
00000120: 11c8 0bbd 7384 abbc 178c a13c 0ed0 103d
00000130: a410 673b 8edb b5bb 8721 0d3d 4c53 09bd
00000140: 8f08 093c 3270 19bd f254 f0bb 046c 1fbc
00000150: 5298 00bd 5253 253d a573 23bd d38f 62bc
00000160: 5cc2 093d 96d7 b73a d8fe de3c c24a 6bbb
00000170: 9982 e23c 6043 783b 8dd7 da3c 46bd 4fbb
00000180: 7ec7 b33b 47dd 00bd 9570 f13c e60f cabc
00000190: 0a1b dfbc dd26 993c e2c5 0c3d 16c5 163c
000001a0: a767 c33c 6351 293d 607a febb c37f 83bb
000001b0: ea8e 11bd 399f 1bbd ed6b 333d 4e0c 17bd
000001c0: 7d41 32bc ceaf c8bb b57a b6bb d6dc 103d
000001d0: 36d1 503b 92bd 89bb deb2 b5bc 70eb 2dbb
000001e0: b8e4 5ebb 0fdb 29bd cc06 083c 8789 e2bc
000001f0: 7e03 053a a0ee f4bc e63c f93c 2c9f 20ba

a2c_network.actor_mlp.4.weight f4 [64, 128]
0.052788034 0.021171192 -0.04699753 0.11850667 -0.0012867482 0.026467234 -0.0068894583 -0.024282008
-0.105592266 0.049713638 -0.08093688 0.0815509 0.11463215 0.019470878 0.12322858 -0.027142083
-0.025309807 0.07425345 -0.09454934 -0.11421814 0.05375626 0.04961966 0.024006547 0.012340532
0.07353512 0.095838174 -0.043816555 -0.11060551 0.11627343 -0.022881284 -0.032726925 -0.003962115
0.0561362 0.041632213 0.09889613 0.025045743 -0.014343183 -0.0933426 0.08843356 -0.025871793
0.10637934 -0.04589461 0.0016368307 0.07517658 -0.095432565 -0.06590319 -0.011595411 -0.058729302
-0.071923435 0.018848084 0.08464991 0.048814386 -0.06132788 -0.05260481 0.007949022 0.06152925
-0.10239389 0.053416222 -0.033353303 0.08794142 0.048336085 -0.06807375 0.079316445 -0.02716982
0.057606716 -0.031751618 -0.036648616 -0.007846357 -0.019401617 0.0858241 -0.049759466 -0.08556945
-0.10838661 -0.063895 0.10130155 0.10191693 0.013571839 -0.10565216 0.050060727 -0.07336821
0.015402071 0.04686097 0.0656267 -0.016363135 -0.049307108 0.0016226604 -0.08439696 -0.028484702
0.06764794 0.04077546 0.021898592 0.1204503 0.060261287 -0.07129431 0.12112118 -0.045562673
-0.009223645 -0.07164859 0.06707946 -0.024466766 -0.03357853 -0.009611898 -0.0315897 -0.038689096
0.04416534 -0.0004127083 -0.04957478 0.07808517 -0.030859487 0.008156249 0.0840513 -0.07706871
-0.010307629 -0.116446964 0.004971575 0.09581351 -0.093700156 0.014624314 -0.06056784 0.06183834
0.047970243 -0.019635407 0.0041034427 -0.008418787 -0.011045948 -0.096257284 0.09972931 0.013072195
-0.018072516 0.023205372 -0.036886867 -0.08367294 0.053763065 -0.064243004 -0.03379144 -0.031535223
0.06649044 -0.0416525 0.013837125 0.034435187 0.07507526 0.06878929 0.02911985 -0.0023357829
0.04568996 0.006124505 -0.057029948 -0.011164907 0.045282397 -0.07145398 -0.045905344 -0.038855396
0.06695343 -0.073366016 -0.009945573 -0.07553892 0.068304025 -0.05286596 0.036120966 -0.056664515
-0.021229006 -0.020096017 -0.0062204977 -0.05864262 -0.073438756 -0.068746634 -0.037168503 0.046048228
0.0073986426 -0.08258381 -0.053452898 0.06260453 -0.07577446 0.06731853 0.0014813987 -0.06751231
0.034237504 0.06463207 0.035800535 -0.027718594 -0.0331398 0.0046566613 -0.0678586 0.031983126
-0.052761354 -0.0058349287 -0.021991681 0.082673736 -0.09017936 -0.030630669 0.050454017 -0.035114642
0.06705429 -0.054565936 0.023029912 0.031160446 0.08321393 0.057792146 0.03950381 -0.023955505
0.011168674 0.04109223 -0.06238169 -0.055103116 0.009806062 -0.0798361 0.016411154 0.00064691016
0.0645905 0.06503731 -0.09730315 0.08992397 -0.071265325 -0.07774508 -0.025141891 0.017197434
-0.012886212 -0.006393645 0.009720897 -0.024383854 -0.019149456 0.03522341 0.016969364 -0.032827567
0.03840026 0.02845095 0.0060287165 -0.024013875 0.064248666 0.019343443 0.07652537 0.08212021
-0.061402757 -0.019972952 -0.07762774 0.016211027 0.0573337 0.037686184 -0.029591983 0.024917757
0.070555225 -0.051820196 0.03947214 -0.0043882662 0.019160673 -0.021362493 0.039820928 0.032235213
-0.024774825 0.0049534338 -0.061581228 -0.09167113 -0.027909303 -0.05877119 0.0060894964 0.073368795
00000000: 4438 583d 356f ad3c 7b80 40bd a0b3 f23d
00000010: 1ba8 a8ba d0d1 d83c f7c0 e1bb 10eb c6bc
00000020: c240 d8bd 87a0 4b3d 3cc2 a5bd 2904 a73d
00000030: 43c4 ea3d 6481 9f3c 445f fc3d 1359 debc
00000040: 8356 cfbc 3112 983d 16a3 c1bd 33eb e9bd
00000050: 862f 5c3d fc3d 4b3d 61a9 c43c f12f 4a3c
00000060: 9599 963d ce46 c43d fd78 33bd 2485 e2bd
00000070: c420 ee3d 8871 bbbc ab0c 06bd a1d4 81bb
00000080: 12ef 653d 8a86 2a3d 0e8a ca3d bb2c cd3c
00000090: abff 6abc 682a bfbd a81c b53d 15f1 d3bc
000000a0: 69dd d93d fdfb 3bbd ed8a d63a 2ef6 993d
000000b0: 2672 c3bd 40f8 86bd aefa 3dbc 238e 70bd
000000c0: 984c 93bd 4c67 9a3c ef5c ad3d 98f1 473d
000000d0: f132 7bbd 2478 57bd 9d3c 023c 1806 7c3d
000000e0: e3b3 d1bd f8ca 5a3d 799d 08bd a21a b43d
000000f0: 0ffc 453d 406a 8bbd a970 a23d 3e93 debc
00000100: 05f5 6b3d fc0d 02bd dc1c 16bd 028e 00bc
00000110: 24f0 9ebc 8cc4 af3d 95d0 4bbd 093f afbd
00000120: cdf9 ddbd 62db 82bd 3077 cf3d d3b9 d03d
00000130: 6b5c 5e3c 2960 d8bd 7a0c 4d3d 1242 96bd
00000140: f858 7c3c 4af1 3f3d 4b67 863d fb0b 86bc
00000150: 40f6 49bd 73af d43a 50d8 acbd c058 e9bc
00000160: 018b 8a3d 2b04 273d ad64 b33c a6ae f63d
00000170: 8ad4 763d c002 92bd 620e f83d ed9f 3abd
00000180: c51e 17bc 7fbc 92bd f560 893d 876e c8bc
00000190: a489 09bd 397b 1dbc 3464 01bd 7578 1ebd
000001a0: b7e6 343d c560 d8b9 ed0e 4bbd 1eeb 9f3d
000001b0: 09cd fcbc caa1 053c 1723 ac3d 33d6 9dbd
000001c0: 54e1 28bc bf7b eebd 98e8 a23b e039 c43d
000001d0: dee5 bfbd d29a 6f3c fc15 78bd 334a 7d3d
000001e0: 727c 443d 6fda a0bc 2c76 863b f4ee 09bc
000001f0: 10fa 34bc 8a22 c5bd e13e cc3d c32c 563c
00000200: d00c 94bc 3119 be3c af16 17bd b85c abbd
00000210: a936 5c3d d691 83bd e568 0abd 142b 01bd
00000220: 242c 883d d09b 2abd 1cb5 623c e90b 0d3d
00000230: 0fc1 993d 66e1 8c3d c08c ee3c ef13 19bb
00000240: 6525 3b3d 12b0 c83b 3c98 69bd 04ed 36bc
00000250: 097a 393d 7756 92bd 3e07 3cbd d626 1fbd
00000260: e11e 893d ec40 96bd c2f2 22bc 26b4 9abd
00000270: fbe2 8b3d fa89 58bd 94f3 133d 0d19 68bd
00000280: 74e8 adbc 67a0 a4bc 51d5 cbbb 3e33 70bd
00000290: 0f67 96bd 09cb 8cbd 003e 18bd 119d 3c3d
000002a0: 5070 f23b b321 a9bd 6df1 5abd ce36 803d
000002b0: a42f 9bbd 4cde 893d 7e2b c23a e543 8abd
000002c0: a03c 0c3d d25d 843d 95a3 123d 1b12 e3bc
000002d0: 99bd 07bd e896 983b 73f9 8abd bd00 033d
000002e0: 4a1c 58bd ee32 bfbb e627 b4bc d950 a93d
000002f0: f5af b8bd 2bed fabc dfa8 4e3d 5fd4 0fbd
00000300: c253 893d 8880 5fbd 3aa9 bc3c 3144 ff3c
00000310: 116c aa3d 75b7 6c3d bfce 213d 563e c4bc
00000320: d0fc 363c 5350 283d f183 7fbd ceb3 61bd
00000330: 9ba9 203c 1c81 a3bd af70 863c 6895 293a
00000340: 0648 843d 4832 853d e046 c7bd 0f2a b83d
00000350: 8ef3 91bd d038 9fbd 5ef6 cdbc a2e1 8c3c
00000360: b120 53bc c881 d1bb 6644 1f3c a6c0 c7bc
00000370: 52df 9cbc 6c46 103d 5603 8b3c 3376 06bd
00000380: 9749 1d3d f711 e93c 8a8c c53b bfb8 c4bc
00000390: ce94 833d 2476 9e3c 55b9 9c3d a42e a83d
000003a0: 7581 7bbd 519e a3bc 4bfb 9ebd fdcc 843c
000003b0: bed6 6a3d d45c 1a3d e36a f2bc 5320 cc3c
000003c0: 427f 903d 6a41 54bd 8aad 213d 72cb 8fbb
000003d0: d8f6 9c3c 6500 afbc 451b 233d 1209 043d
000003e0: 93f4 cabc 6a50 a23b 993c 7cbd 13be bbbd
000003f0: 0da2 e4bc 0fba 70bd 668a c73b 6142 963d

a2c_network.actor_mlp.4.bias f4 [64]
0.04739794 -0.023886066 -0.027692938 -0.038139176 0.045167483 -0.008959558 -0.00029899698 0.01166408
0.027237713 -0.049149916 -0.030960772 0.021633966 -0.02394058 -0.04484852 -0.030006668 0.0045136446
0.0014970242 0.028909232 0.025217371 -0.013128638 0.00032140352 -0.038827848 -0.01685128 -0.0026694583
0.047698915 0.0031494158 0.013230104 0.02762959 -0.030700918 0.011481644 0.046257515 0.012739646
0.034393933 -0.043485034 -0.04936106 -0.007144161 -0.013785888 -0.013500678 0.032634083 -0.037858438
0.05153577 -0.043990206 0.010381066 0.01374863 0.01817541 -0.0064779264 0.020862158 0.0020012818
0.02082705 -0.017944753 0.040544007 -0.026644802 -0.047561765 0.026132785 0.02389068 0.041406263
-0.015885692 -0.007610165 -0.025254577 -0.0020484622 -0.03382572 0.009548237 -0.033998866 -0.010558027
00000000: 5824 423d b6ac c3bc 4ddc e2bc d337 1cbd
00000010: 8a01 393d 1ccb 12bc b2c2 9cb9 b31a 3f3c
00000020: a021 df3c 6c51 49bd 72a1 fdbc b739 b13c
00000030: 091f c4bc 15b3 37bd 8bd0 f5bc 32e7 933b
00000040: cc37 c43a 0ed3 ec3c a994 ce3c 8019 57bc
00000050: 0d82 a839 f309 1fbd b20b 8abc 14f2 2ebb
00000060: f05f 433d 6e66 4e3b 14c3 583c 7357 e23c
00000070: 7e80 fbbc 811d 3c3c 8578 3d3d f3b9 503c
00000080: a7e0 0c3d 5d1d 32bd d32e 4abd 9119 eabb
00000090: 35de 61bc f331 5dbc 51ab 053d 7311 1bbd
000000a0: 2c17 533d 132f 34bd 5915 2a3c ef41 613c
000000b0: 99e4 943c c944 d4bb 1ee7 aa3c f027 033b
000000c0: 7d9d aa3c e000 93bc 7911 263d 3346 dabc
000000d0: 20d0 42bd 6c14 d63c 63b6 c33c 9d99 293d
000000e0: b622 82bc b15e f9bb b0e2 cebc 7e3f 06bb
000000f0: d78c 0abd 3570 1c3c 6542 0bbd 93fb 2cbc

a2c_network.value.weight f4 [1, 64]
-0.060816947 0.06489371 0.08318191 0.02455048 0.011331583 0.07253737 0.07521229 0.02473411
0.05059539 0.08870998 0.09262526 -0.054071665 -0.024790319 0.11473126 0.06993309 -0.09508503
0.13056499 -0.098714896 -0.046775464 0.034970023 -0.07155782 0.04906205 0.0082638515 0.12482723
-0.013506857 0.11608223 0.036636796 -0.1118082 0.07395192 0.111779965 -0.11739156 0.05022544
-0.04992164 0.07871001 0.05778317 0.058973085 0.06380991 0.08731765 -0.056686535 0.10455683
-0.02596562 0.12902221 -0.10538999 0.004658614 -0.067544796 -0.13395685 -0.10072047 -0.10833116
-0.0065188548 0.07858725 -0.13252385 0.04995678 0.08779282 -0.023732504 0.006138638 -0.041237343
-0.060071 -0.087197654 0.05062466 -0.096417546 0.066023536 0.06740659 0.1154674 0.018676179
00000000: 311b 79bd fee6 843d 475b aa3d 171e c93c
00000010: 1ba8 393c 798e 943d e708 9a3d 309f ca3c
00000020: 1d3d 4f3d 94ad b53d 50b2 bd3d 407a 5dbd
00000030: 1115 cbbc 39f8 ea3d 1439 8f3d f1bb c2bd
00000040: d4b2 053e 092b cabd a197 3fbd ba3c 0f3d
00000050: e88c 92bd 4af5 483d 1b65 073c 6ba5 ff3d
00000060: dd4b 5dbc 85bc ed3d 7710 163d b3fb e4bd
00000070: 1b74 973d e5ec e43d fc6a f0bd 31b9 4d3d
00000080: a27a 4cbd b732 a13d 0cae 6c3d c38d 713d
00000090: c5ae 823d 99d3 b23d 2430 68bd e421 d63d
000000a0: dab5 d4bc 661e 043e b5d6 d7bd 49a7 983b
000000b0: ed54 8abd fc2b 09be 8946 cebd badc ddbd
000000c0: 1e9c d5bb 5af2 a03d 55b4 07be 7b9f 4c3d
000000d0: b9cc b33d ab6a c2bc a126 c93b 7de8 28bd
000000e0: 020d 76bd af94 b2bd ce5b 4f3d 9076 c5bd
000000f0: 5937 873d 770c 8a3d 2c7a ec3d c9fe 983c

a2c_network.mu.weight f4 [24, 64]
-0.07977632 -0.012741417 -0.024068505 -0.08693352 -0.03696389 0.11632669 0.031235801 0.09672539
0.028434798 0.06601943 -0.099233 0.012189514 0.0612501 -0.005145295 -0.048168372 -0.011581101
-0.08445606 0.06345739 0.021554332 -0.0879985 0.044008713 -0.11879362 0.050618306 -0.0707554
-0.095077135 0.03114859 0.00879744 0.11322988 -0.06113132 0.13497803 0.041003928 0.036121383
0.034360487 0.02334282 0.062010344 0.023712577 0.09125366 -0.10872042 -0.03860925 -0.04945684
-0.06684435 -0.09806869 -0.08219217 0.01816488 -0.03809835 -0.10114814 0.06041168 0.0901187
0.048786785 -0.055225454 0.13545252 0.0042955987 -0.014696341 0.013830777 0.116948 -0.042906303
-0.08745267 0.033673424 -0.07573605 -0.055889625 0.011804576 0.11695853 -0.049346834 -0.015982552
-0.106078565 0.06074401 -0.10400065 0.0004644368 0.037222054 -0.03030909 0.0485498 0.012791165
-0.051833805 -0.1097154 0.10744524 -0.10199106 -0.056858193 0.05712867 -0.028000642 -0.033663675
0.026310252 -0.009880488 0.06706887 -0.05820704 0.01423836 -0.11976889 -0.024752332 0.09540681
0.059662174 0.00931031 0.030875487 0.117089115 -0.031783663 0.079649694 0.11024232 -0.014457516
0.05747117 0.032848712 -0.051235136 -0.0852443 -0.031597305 0.092326075 0.06435958 0.09025142
-0.073664345 -0.120558366 -0.02341792 -0.105646305 0.097023696 -0.018830756 -0.06521586 -0.004066193
-0.017561499 0.011423286 0.070186734 -0.09284348 0.04703578 0.012347553 0.07868592 0.005067494
0.045543786 -0.11325587 0.07383054 0.076544024 0.110207945 0.028437821 -0.0029868397 0.1206387
-0.048897747 -0.049249925 -0.011832938 -0.11216844 0.124352284 0.10109841 0.11296777 0.08716436
0.07274362 -0.01650701 0.029322673 0.05654485 -0.009845449 -0.042958405 -0.034870252 -0.116785966
0.0736874 0.14779805 0.06754639 -0.0105747655 -0.026808899 -0.13744314 -0.15272611 -0.07816229
-0.034544732 -0.08194436 0.058398634 0.16574275 -0.068949826 0.11420054 0.11161764 0.09908086
0.10150065 0.057059295 0.06019135 -0.03357265 0.010957899 0.054744255 -0.06331956 -0.11764098
0.11526184 -0.10162856 -0.08716614 0.014758675 0.03228323 -0.054851685 -0.051189456 -0.09546302
-0.0374572 0.13881738 0.074260265 -0.111061886 0.06774004 0.07548952 0.056019813 0.038539533
-0.109866016 -0.0642126 0.11420142 -0.09934092 0.040885597 0.1154711 -0.118138835 -0.026098168
0.091271974 0.0779102 -0.11322008 -0.10936646 0.065289035 0.056183174 0.13441959 0.095623106
0.13838449 0.0739509 -0.081104234 0.11501734 0.07300039 -0.098401226 -0.08986429 0.017517935
0.08812823 0.0731341 -0.032906637 -0.13684268 0.016799912 -0.119039 -0.0147514185 0.015688326
0.15830596 0.1145739 0.15547885 0.13334043 -0.14048111 0.12430692 0.14785859 0.10043045
0.040682357 -0.119194604 -0.14830703 0.13843444 0.0023628846 -0.13591656 0.12354779 0.06414278
0.066321515 0.028558426 -0.11950115 -0.017328048 -0.08344223 -0.116926335 0.05526105 -0.017037077
0.012439882 0.028209941 0.11208549 0.052731376 -0.11079848 0.09815531 0.015500032 0.11355926
-0.09653099 -0.11273614 0.02274676 -0.052081652 0.032459844 0.011484201 -0.07478511 -0.11269492
00000000: c461 a3bd 60c1 50bc 502b c5bc 340a b2bd
00000010: 7367 17bd b03c ee3d 39e2 ff3c f617 c63d
00000020: 18f0 e83c 3235 873d ac3a cbbd 87b6 473c
00000030: 63e1 7a3d dd99 a8bb 334c 45bd a9be 3dbc
00000040: 4cf7 acbd f3f5 813d b692 b03c 8f38 b4bd
00000050: 7b42 343d 124a f3bd 2455 4f3d 35e8 90bd
00000060: cdb7 c2bd 542b ff3c 2323 103c 11e5 e73d
00000070: d664 7abd ae37 0a3e bcf3 273d 04f4 133d
00000080: 95bd 0c3d 7139 bf3c 8ffe 7d3d e140 c23c
00000090: 33e3 ba3d d0a8 debd bc24 1ebd 4193 4abd
000000a0: b1e5 88bd 3dd8 c8bd 5e54 a8bd 84ce 943c
000000b0: 040d 1cbd c226 cfbd 3d72 773d 2790 b83d
000000c0: a7d4 473d 1634 62bd 11b4 0a3e 18c2 8c3b
000000d0: ecc8 70bc 7c9a 623c 6f82 ef3d 85be 2fbd
000000e0: 631a b3bd 25ed 093d 811b 9bbd 85ec 64bd
000000f0: fb67 413c f487 ef3d e81f 4abd d7ed 82bc
00000100: b83f d9bd b6ce 783d 4bfe d4bd a77f f339
00000110: 2776 183d c54a f8bc 28dc 463d 0992 513c
00000120: af4f 54bd 78b2 e0bd 400c dc3d b0e0 d0bd
00000130: 23e4 68bd c1ff 693d 9a61 e5bc ece2 09bd
00000140: 9988 d73c c5e1 21bc 675b 893d 816a 6ebd
00000150: 0348 693c 6449 f5bd 67c5 cabc a564 c33d
00000160: 5360 743d 458a 183c 97ee fc3c 6bcc ef3d
00000170: 962f 02bd 611f a33d bac6 e13d 38df 6cbc
00000180: e466 6b3d 5f8c 063d efdb 51bd 9094 aebd
00000190: 2d6c 01bd 7415 bd3d f5ce 833d bdd5 b83d
000001a0: 55dd 96bd 4ee7 f6bd f0d6 bfbc 175d d8bd
000001b0: 5cb4 c63d f542 9abc e58f 85bd b33d 85bb
000001c0: 22dd 8fbc bc28 3b3c 10be 8f3d b924 bebd
000001d0: 97a8 403d 644d 4a3c 1526 a13d 390d a63b
000001e0: 1f8c 3a3d b2f2 e7bd 7734 973d 1dc3 9c3d
000001f0: b4b4 e13d 6ff6 e83c dbbe 43bb 6c11 f73d
00000200: 0149 48bd 4aba 49bd f0de 41bc 91b8 e5bd
00000210: 69ac fe3d af0c cf3d a55b e73d 3a83 b23d
00000220: 9bfa 943d b639 87bc 1a36 f03c 939b 673d
00000230: ce4e 21bc 27f5 2fbd 1cd4 0ebd 7b2d efbd
00000240: 6be9 963d 5f58 173e c355 8a3d c841 2dbc
00000250: 569e dbbc e5bd 0cbe 3c64 1cbe 8d13 a0bd
00000260: c77e 0dbd 72d2 a7bd 6833 6f3d 78b8 293e
00000270: 9135 8dbd f9e1 e93d ca97 e43d e8ea ca3d
00000280: 93df cf3d 02b7 693d 348b 763d 7a83 09bd
00000290: c288 333c 833b 603d afad 81bd c1ed f0bd
000002a0: 660e ec3d a222 d0bd 2984 b2bd 5fce 713c
000002b0: 6c3b 043d 29ac 60bd 09ac 51bd 1e82 c3bd
000002c0: b96c 19bd 2526 0e3e c415 983d 6a74 e3bd
000002d0: 4abb 8a3d 409a 9a3d 0875 653d a1db 1d3d
000002e0: 6f01 e1bd e581 83bd 6fe2 e93d 4173 cbbd
000002f0: a877 273d 1d7c ec3d c6f2 f1bd d3cb d5bc
00000300: cdec ba3d 628f 9f3d eedf e7bd 86fb dfbd
00000310: 42b6 853d 5420 663d 4aa5 093e 0cd6 c33d
00000320: aab4 0d3e 9273 973d fa19 a6bd 368e eb3d
00000330: 3a81 953d 9586 c9bd c50a b8bd c681 8f3c
00000340: 937c b43d 55c7 953d 1cc9 06bd 7d20 0cbe
00000350: f89f 893c b8ca f3bd efaf 71bc ce84 803c
00000360: f51a 223e b9a5 ea3d d935 1f3e 658a 083e
00000370: 48da 0fbe a094 fe3d 3e68 173e 7bae cd3d
00000380: 8ba2 263d 4d1c f4bd ccdd 17be c2c1 0d3e
00000390: a0da 1a3b b62d 0bbe a006 fd3d 4a5d 833d
000003a0: 93d3 873d 5cf3 e93c 05bd f4bd 8df3 8dbc
000003b0: c3e3 aabd 1377 efbd 6959 623d 5791 8bbc
000003c0: a6d0 4b3c 8918 e73c 148d e53d dbfc 573d
000003d0: 50ea e2bd a705 c93d d9f3 7d3c c291 e83d
000003e0: 0ab2 c5bd 35e2 e6bd 6a57 ba3c 9253 55bd
000003f0: 9df4 043d 3b28 3c3c f028 99bd 98cc e6bd

a2c_network.mu.bias f4 [24]
0.013597669 -0.0076009003 0.031691376 0.041695785 0.031853322 0.0028441208 0.039813228 0.026826419
-0.03960066 0.025465148 0.02092618 -0.0088391965 -0.0041462034 -0.016949698 0.0074350256 0.034969136
-0.009611317 -0.057188395 -0.0028257482 -0.032145135 0.029800626 0.020996258 -0.0025392575 -0.0026660643
00000000: c2c8 5e3c f910 f9bb d1ce 013d 33c9 2a3d
00000010: a178 023d 6e64 3a3b 3213 233d 14c3 db3c
00000020: 4d34 22bd 499c d03c 616d ab3c 47d2 10bc
00000030: e0dc 87bb 18da 8abc 84a1 f33b cc3b 0f3d
00000040: c978 1dbc 613e 6abd 3030 39bb 9eaa 03bd
00000050: 7120 f43c 5800 ac3c ac69 26bb 23b9 2ebb

exp_avg f4 [24]
0.009597047 -0.0068190163 -0.011934468 -0.015723243 0.02312964 -0.006278819 0.01515028 -0.009178163
0.0006026399 -0.006615643 -0.009451698 0.017341333 -0.026039666 0.00085910334 0.013602877 -0.005982978
0.017538363 -0.015276751 0.018443838 -0.010186969 0.006803773 -0.00042111264 -0.0007877984 0.01582566
00000000: ef3c 1d3c 0e72 dfbb c988 43bc 08ce 80bc
00000010: 5f7a bd3c 8dbe cdbb e138 783c 0160 16bc
00000020: 7bfa 1d3a 09c8 d8bb 4bdb 1abc 690f 8e3c
00000030: 2351 d5bc 7335 613a 9ade 5e3c db0c c4bb
00000040: 9dac 8f3c 564b 7abc 8817 973c 3fe7 26bc
00000050: 2ff2 de3b c8c8 dcb9 4184 4eba d1a4 813c

exp_avg_sq f4 [24]
0.0007365078 0.0007004825 0.00076789316 0.00070521026 0.00082103256 0.00082392636 0.00069693103 0.00072193186
0.0006863985 0.0007056851 0.0007537919 0.00064535724 0.00060139416 0.000696001 0.000643491 0.0007611217
0.000676376 0.0006890745 0.0007547635 0.00078375154 0.0007345426 0.0006764165 0.000685071 0.0006226319
00000000: 3412 413a 96a0 373a 704c 493a dcdd 383a
00000010: 903a 573a c3fc 573a 40b2 363a 0740 3d3a
00000020: 6cef 333a bafd 383a 1e9a 453a 312d 293a
00000030: e1a6 1d3a d673 363a f3af 283a 0386 473a
00000040: d34e 313a 02a3 343a 52db 453a ad74 4d3a
00000050: 528e 403a 8b51 313a 5696 333a 1f38 233a

exp_avg f4 [256, 39]
0.0 -3.5825512e-06 -3.4568927e-06 -1.4963475e-06 -1.2996705e-06 -4.481046e-06 -1.4963475e-06 -0.0021258593
-0.0017347253 -1.4963475e-06 0.001737251 0.0017540846 0.0 -2.710786e-06 0.0 0.0
0.0 0.0 0.0 0.0 3.5937144e-05 -4.9158975e-06 -5.658256e-06 0.0
0.0 0.0 0.0 0.0 0.0 0.0 0.0 0.0
0.0 0.0 0.0 0.0 0.0 0.0 -3.8757216e-07 0.0
-2.6648734e-06 -2.5714335e-06 -1.1131679e-06 -9.667681e-07 -3.3331855e-06 -1.1131679e-06 -0.0015814779 -0.0012904902
-1.1131679e-06 0.0012923698 0.0013048926 0.0 -2.0166065e-06 0.0 0.0 0.0
0.0 0.0 0.0 2.6733693e-05 -3.6569397e-06 -4.2094107e-06 0.0 0.0
0.0 0.0 0.0 0.0 0.0 0.0 0.0 0.0
0.0 0.0 0.0 0.0 0.0 -2.8832443e-07 0.0 6.3231585e-07
6.1012315e-07 2.6404715e-07 2.2938296e-07 7.9091984e-07 2.6404715e-07 0.00037510393 0.00030609785 2.6404715e-07
-0.00030654337 -0.0003095134 0.0 4.783554e-07 0.0 0.0 0.0 0.0
0.0 0.0 -6.341587e-06 8.67475e-07 9.984341e-07 0.0 0.0 0.0
0.0 0.0 0.0 0.0 0.0 0.0 0.0 0.0
0.0 0.0 0.0 0.0 6.8390975e-08 0.0 9.069751e-07 8.7519635e-07
3.7892195e-07 3.2904336e-07 1.1344074e-06 3.7892195e-07 0.0005383758 0.00043930567 3.7892195e-07 -0.0004399453
-0.00044420882 0.0 6.8644397e-07 0.0 0.0 0.0 0.0 0.0
0.0 -9.100192e-06 1.2448285e-06 1.4329015e-06 0.0 0.0 0.0 0.0
0.0 0.0 0.0 0.0 0.0 0.0 0.0 0.0
0.0 0.0 0.0 9.814597e-08 0.0 3.9003758e-06 3.7635784e-06 1.6291056e-06
1.4149775e-06 4.8785528e-06 1.6291056e-06 0.0023145806 0.0018887126 1.6291056e-06 -0.0018914627 -0.0019097915
0.0 2.9512823e-06 0.0 0.0 0.0 0.0 0.0 0.0
-3.912678e-05 5.3522126e-06 6.160179e-06 0.0 0.0 0.0 0.0 0.0
0.0 0.0 0.0 0.0 0.0 0.0 0.0 0.0
0.0 0.0 4.2195856e-07 0.0 -5.3003523e-06 -5.1144916e-06 -2.213985e-06 -1.9228694e-06
-6.62961e-06 -2.213985e-06 -0.0031454698 -0.0025667148 -2.213985e-06 0.002570453 0.0025953606 0.0
-4.01084e-06 0.0 0.0 0.0 0.0 0.0 0.0 5.3172e-05
-7.2734765e-06 -8.371999e-06 0.0 0.0 0.0 0.0 0.0 0.0
0.0 0.0 0.0 0.0 0.0 0.0 0.0 0.0
0.0 -5.7344965e-07 0.0 1.1388542e-07 1.0989377e-07 4.7552938e-08 4.132861e-08 1.4240737e-07
4.7552938e-08 6.778239e-05 5.5294593e-05 4.7552938e-08 -5.5375192e-05 -5.591245e-05 0.0 8.613389e-08
0.0 0.0 0.0 0.0 0.0 0.0 -1.1448178e-06 1.5660113e-07
00000000: 0000 0000 c36b 70b6 f7fc 67b6 1cd6 c8b5
00000010: 5770 aeb5 e45b 96b6 1cd6 c8b5 0052 0bbb
00000020: b95f e3ba 1cd6 c8b5 78b4 e33a 50e9 e53a
00000030: 0000 0000 f3ea 35b6 0000 0000 0000 0000
00000040: 0000 0000 0000 0000 0000 0000 0000 0000
00000050: 37bb 1638 3df3 a4b6 0ddc bdb6 0000 0000
00000060: 0000 0000 0000 0000 0000 0000 0000 0000
00000070: 0000 0000 0000 0000 0000 0000 0000 0000
00000080: 0000 0000 0000 0000 0000 0000 0000 0000
00000090: 0000 0000 0000 0000 8313 d0b4 0000 0000
000000a0: 2dd6 32b6 e490 2cb6 2868 95b5 e6c1 81b5
000000b0: b1af 5fb6 2868 95b5 9849 cfba aa25 a9ba
000000c0: 2868 95b5 bc64 a93a ee08 ab3a 0000 0000
000000d0: 0955 07b6 0000 0000 0000 0000 0000 0000
000000e0: 0000 0000 0000 0000 0000 0000 2b42 e037
000000f0: bf69 75b6 903e 8db6 0000 0000 0000 0000
00000100: 0000 0000 0000 0000 0000 0000 0000 0000
00000110: 0000 0000 0000 0000 0000 0000 0000 0000
00000120: 0000 0000 0000 0000 0000 0000 0000 0000
00000130: 0000 0000 02cb 9ab4 0000 0000 6abc 2935
00000140: 58c7 2335 5dc2 8d34 4f4c 7634 994f 5435
00000150: 5dc2 8d34 99a9 c439 c27b a039 5dc2 8d34
00000160: 8eb7 a0b9 2f46 a2b9 0000 0000 5568 0035
00000170: 0000 0000 0000 0000 0000 0000 0000 0000
00000180: 0000 0000 0000 0000 d1c9 d4b6 6edc 6835
00000190: ef01 8635 0000 0000 0000 0000 0000 0000
000001a0: 0000 0000 0000 0000 0000 0000 0000 0000
000001b0: 0000 0000 0000 0000 0000 0000 0000 0000
000001c0: 0000 0000 0000 0000 0000 0000 0000 0000
000001d0: 56de 9233 0000 0000 db76 7335 09ef 6a35
000001e0: a36e cb34 60a7 b034 f141 9835 a36e cb34
000001f0: ca21 0d3a 9c52 e639 a36e cb34 75a8 e6b9
00000200: b3e4 e8b9 0000 0000 1244 3835 0000 0000
00000210: 0000 0000 0000 0000 0000 0000 0000 0000
00000220: 0000 0000 07ad 18b7 fb13 a735 1f52 c035
00000230: 0000 0000 0000 0000 0000 0000 0000 0000
00000240: 0000 0000 0000 0000 0000 0000 0000 0000
00000250: 0000 0000 0000 0000 0000 0000 0000 0000
00000260: 0000 0000 0000 0000 0000 0000 51c4 d233
00000270: 0000 0000 f9df 8236 c991 7c36 a4a7 da35
00000280: 42ea bd35 73b2 a336 a4a7 da35 38b0 173b
00000290: ae8e f73a a4a7 da35 f5ea f7ba f851 faba
000002a0: 0000 0000 a50e 4636 0000 0000 0000 0000
000002b0: 0000 0000 0000 0000 0000 0000 0000 0000
000002c0: 0f1c 24b8 2897 b336 89b3 ce36 0000 0000
000002d0: 0000 0000 0000 0000 0000 0000 0000 0000
000002e0: 0000 0000 0000 0000 0000 0000 0000 0000
000002f0: 0000 0000 0000 0000 0000 0000 0000 0000
00000300: 0000 0000 0000 0000 8b89 e234 0000 0000
00000310: aed9 b1b6 269d abb6 f993 14b6 a50a 01b6
00000320: eb73 deb6 f993 14b6 3a24 4ebb 5436 28bb
00000330: f993 14b6 0c75 283b ed16 2a3b 0000 0000
00000340: da94 86b6 0000 0000 0000 0000 0000 0000
00000350: 0000 0000 0000 0000 0000 0000 0005 5f38
00000360: b00e f4b6 7675 0cb7 0000 0000 0000 0000
00000370: 0000 0000 0000 0000 0000 0000 0000 0000
00000380: 0000 0000 0000 0000 0000 0000 0000 0000
00000390: 0000 0000 0000 0000 0000 0000 0000 0000
000003a0: 0000 0000 29ef 19b5 0000 0000 2c91 f433
000003b0: bdfe eb33 023d 4c33 4a81 3133 a4e8 1834
000003c0: 023d 4c33 6526 8e38 1eec 6738 023d 4c33
000003d0: a942 68b8 8983 6ab8 0000 0000 9bf8 b833
000003e0: 0000 0000 0000 0000 0000 0000 0000 0000
000003f0: 0000 0000 0000 0000 a4a7 99b5 3126 2834
