runs/lift_30-15-45-11/nn/last_lift_ep_325_rew_-78.51088.pth (torch, 654677 bytes, 36 tensors)

value_mean_std.running_mean f8 [1]
-1209.409397262157
00000000: 2530 0939 a3e5 92c0

value_mean_std.running_var f8 [1]
4258432.896906958
00000000: 71ec 6639 a03e 5041

value_mean_std.count f8 []
332801.0
00000000: 0000 0000 0450 1441

running_mean_std.running_mean f8 [39]
0.0 1.4999909856310962 1.2999917822377995 0.4999969952103652 0.39999748292014764 2.89998338283842 0.4999969952103652 1.638364912769004
2.020919100004071 0.4999969952103652 0.5769195999607952 0.5769196325110619 0.0 0.9999939904207304 0.0 0.0
0.0 0.0 0.0 0.0 -0.0049796701451899576 0.0006616470215568953 9.809939558304388 0.0
0.0 0.0 0.0 0.0 0.0 0.0 0.0 0.0
0.0 0.0 0.0 0.0 0.0 0.0 0.1249992488025913
00000000: 0000 0000 0000 0000 2c49 398c f6ff f73f
00000010: 4d7b dc2e c4cc f43f e2b6 a165 f3ff df3f
00000020: 65f5 e70a 8f99 d93f 2de0 e17c 2a33 0740
00000030: e2b6 a165 f3ff df3f b61b 7420 be36 fa3f
00000040: ae08 13a2 d72a 0040 e2b6 a165 f3ff df3f
00000050: ba18 c817 2076 e23f 6cc5 4129 2076 e23f
00000060: 0000 0000 0000 0000 e2b6 a165 f3ff ef3f
00000070: 0000 0000 0000 0000 0000 0000 0000 0000
00000080: 0000 0000 0000 0000 0000 0000 0000 0000
00000090: 0000 0000 0000 0000 0000 0000 0000 0000
000000a0: 7a01 b206 9065 74bf 75b3 d728 4cae 453f
000000b0: dd4e d565 b09e 2340 0000 0000 0000 0000
000000c0: 0000 0000 0000 0000 0000 0000 0000 0000
000000d0: 0000 0000 0000 0000 0000 0000 0000 0000
000000e0: 0000 0000 0000 0000 0000 0000 0000 0000
000000f0: 0000 0000 0000 0000 0000 0000 0000 0000
00000100: 0000 0000 0000 0000 0000 0000 0000 0000
00000110: 0000 0000 0000 0000 0000 0000 0000 0000
00000120: 0000 0000 0000 0000 0000 0000 0000 0000
00000130: e2b6 a165 f3ff bf3f

running_mean_std.running_var f8 [39]
6.0095792693553524e-06 1.9531051366558122e-05 1.6165700867226796e-05 7.511965057933437e-06 6.971105629586429e-06 5.654986545168079e-05 7.511965057933437e-06 1.660340975113525
1.402662256627078 7.511965057933437e-06 0.4853681057189852 0.4745968329879178 6.0095792693553524e-06 1.2019122423667737e-05 6.0095792693553524e-06 6.0095792693553524e-06
6.0095792693553524e-06 6.0095792693553524e-06 6.0095792693553524e-06 6.0095792693553524e-06 1.0908130081837955 1.029508357160324 0.0005843443998077257 6.0095792693553524e-06
6.0095792693553524e-06 6.0095792693553524e-06 6.0095792693553524e-06 6.0095792693553524e-06 6.0095792693553524e-06 6.0095792693553524e-06 6.0095792693553524e-06 6.0095792693553524e-06
6.0095792693553524e-06 6.0095792693553524e-06 6.0095792693553524e-06 6.0095792693553524e-06 6.0095792693553524e-06 6.0095792693553524e-06 6.103478381141507e-06
00000000: 287d 3892 bc34 d93e ce95 48a1 d37a f43e
00000010: 54d3 3181 72f3 f03e b7ea 6e3b e981 df3e
00000020: 3010 afec 2a3d dd3e 4905 e894 fea5 0d3f
00000030: b7ea 6e3b e981 df3e 3524 c5b2 c190 fa3f
00000040: f0bf 78fa 4d71 f63f b7ea 6e3b e981 df3e
00000050: a568 2563 4510 df3f 51f8 1d65 cb5f de3f
00000060: 287d 3892 bc34 d93e cd19 899b b734 e93e
00000070: 287d 3892 bc34 d93e 287d 3892 bc34 d93e
00000080: 287d 3892 bc34 d93e 287d 3892 bc34 d93e
00000090: 287d 3892 bc34 d93e 287d 3892 bc34 d93e
000000a0: 6736 4357 f873 f13f 7f65 4fc1 dd78 f03f
000000b0: e070 1b0b d625 433f 287d 3892 bc34 d93e
000000c0: 287d 3892 bc34 d93e 287d 3892 bc34 d93e
000000d0: 287d 3892 bc34 d93e 287d 3892 bc34 d93e
000000e0: 287d 3892 bc34 d93e 287d 3892 bc34 d93e
000000f0: 287d 3892 bc34 d93e 287d 3892 bc34 d93e
00000100: 287d 3892 bc34 d93e 287d 3892 bc34 d93e
00000110: 287d 3892 bc34 d93e 287d 3892 bc34 d93e
00000120: 287d 3892 bc34 d93e 287d 3892 bc34 d93e
00000130: 1ee4 cb5c 8f99 d93e

running_mean_std.count f8 []
166401.0
00000000: 0000 0000 0850 0441

a2c_network.sigma f4 [24]
0.011587503 0.01779344 0.03955323 -0.015410257 -0.026783107 -0.061287764 -0.07227739 -0.101764865
-0.04987303 0.016189558 -0.020848868 0.05794663 -0.033082947 0.0010296816 0.030338578 -0.04031775
-0.036595475 -0.064083174 -0.030112462 -0.00017197734 -0.08388237 0.0038556233 -0.075314775 0.014652146
00000000: 83d9 3d3c 8cc3 913c 9102 223d 4d7b 7cbc
00000010: 3f68 dbbc e108 7bbd 2b06 94bd 196a d0bd
00000020: aa47 4cbd f79f 843c 3fcb aabc 7259 6d3d
00000030: fc81 07bd 62f6 863a 9c88 f83c 3a24 25bd
00000040: 23e5 15bd 0a3e 83bd 69ae f6bc d154 34b9
00000050: 85ca abbd a0ae 7c3b a23e 9abd 8e0f 703c

a2c_network.actor_mlp.0.weight f4 [256, 39]
-0.050500125 0.05538271 -0.03110128 0.080217704 0.1557598 0.104722515 -0.057177097 0.078522556
-0.014108919 0.094145246 -0.12429511 -0.1688611 -0.061867196 -0.11027102 0.13139138 0.046121925
0.066327244 0.050642315 -0.002785585 0.12531762 -0.12016569 0.010517741 -0.097407155 0.049375832
-0.055145297 0.04906587 -0.033361334 0.13280898 -0.09490826 -0.095500104 -0.09550587 0.1440261
0.053362884 0.15408342 -0.13214995 -0.15882729 -0.12527846 -0.107716456 0.077834815 0.05733802
0.10511886 -0.11070826 -0.13630229 0.057745215 -0.09294828 0.07004378 -0.061194025 0.052209742
-0.15155536 -0.08137727 0.027689613 0.033852298 -0.06842646 0.095447496 0.10885659 -0.116120666
-0.08548732 0.14662325 -0.05403244 -0.06282799 -0.1497455 -0.120435715 0.0400006 -0.021135822
-0.11623478 0.0037560768 -0.10938057 -0.13585219 -0.088176586 -0.14014609 -0.10195968 0.16006552
0.030244198 0.049345043 -0.149349 -0.10516797 -0.053299587 -0.0018437672 -0.14090016 -0.089296505
-0.11618154 -0.019814342 -0.07986625 -0.03141227 -0.12876551 -0.11274914 -0.06711615 -0.07506986
-0.11067216 0.14203297 -0.031779677 0.11749263 0.049893063 -0.13559604 0.11081431 -0.04405843
-0.06138129 -0.13291764 -0.1516414 0.054307334 -0.05534956 0.06234159 -0.13141131 0.1188838
-0.11754266 -0.027649863 0.033445917 0.08266644 0.1292731 0.14587021 -0.12696916 0.040299013
-0.06887527 -0.017547613 -0.11985433 0.1458541 -0.13777038 0.085580684 0.08406033 0.079895385
-0.05975565 0.1724671 0.06331167 0.047415663 -0.11583497 0.09916382 0.0027943992 -0.07594761
0.14542976 0.035700377 -0.061225474 -0.08104709 -0.0076470347 0.08940936 -0.040918157 -0.0913651
-0.054834742 -0.1154311 0.053485718 0.15267839 -0.1507511 0.03718987 0.08272088 0.029035935
-0.057025578 0.083577625 0.08414945 0.059876274 -0.028137943 -0.042402137 0.017130656 -0.028287293
-0.047718357 0.10235501 0.13761406 0.010648619 -0.03585219 -0.011565747 -0.023448158 0.024502235
0.03086569 -0.15927002 -0.07308749 0.1419398 0.085407056 -0.02195872 -0.07592338 -0.077565186
-0.14343749 -0.06612882 0.054075945 0.10210117 0.07393074 -0.14154433 -0.09629506 -0.025270887
0.15423846 0.02147232 -0.055245094 0.066247456 -0.060989857 -0.10364385 0.11687549 -0.07281055
-0.03210037 -0.15929617 0.10716907 0.12131863 0.058358412 -0.11165322 -0.15803686 -0.13005272
0.119407594 0.07687844 0.12073728 0.08388631 0.025784068 -0.016376302 -0.13587886 -0.15134335
-0.16475959 0.05145014 -0.102299355 -0.06938469 -0.10625467 -0.04461204 -0.12845157 -0.10463024
0.038640104 -0.047589507 0.09885402 -0.051370513 -0.11746476 -0.028252838 -0.077621706 -0.058084052
-0.14221011 0.07420583 -0.11148194 0.08048324 0.07266363 0.11440079 -0.12282662 0.11516365
-0.07570084 0.059418622 0.15037869 -0.02258317 -0.0012383453 -0.036866393 -0.13370453 0.07684596
-0.15896207 0.08551953 0.1198119 0.15543334 -0.03380401 -0.12742062 0.040131044 0.09238751
-0.15522963 -0.049246732 -0.08146606 -0.009857584 -0.08545793 -0.036914058 -0.0508341 -0.14810185
0.13138635 0.13424042 -0.02511915 -0.018235724 -0.065351486 -0.14460577 -0.14380072 0.06729316
00000000: 38d9 4ebd fbd8 623d 1dc8 febc 2e49 a43d
00000010: 7f7f 1f3e c278 d63d 8832 6abd 6fd0 a03d
00000020: 1829 67bc 39cf c03d 6f8e febd ede9 2cbe
00000030: 7568 7dbd c6d5 e1bd 768b 063e 58ea 3c3d
00000040: 94d6 873d 516e 4f3d 5c8e 36bb 4353 003e
00000050: 6e19 f6bd 9a52 2c3c 677d c7bd 503e 4a3d
00000060: 09e0 61bd 4bf9 483d e5a5 08bd 14ff 073e
00000070: 435f c2bd 8f95 c3bd 9598 c3bd 947b 133e
00000080: 0a93 5a3d 0bc8 1d3e 5152 07be 9fa3 22be
00000090: ff48 00be 729a dcbd dc67 9f3d 46db 6a3d
000000a0: 8f48 d73d 03bb e2bd d492 0bbe 3f86 6c3d
000000b0: ab5b bebd 1d73 8f3d 96a6 7abd e2d9 553d
000000c0: 5431 1bbe 20a9 a6bd 54d5 e23c b5a8 0a3d
000000d0: 2c23 8cbd fa79 c33d 34f0 de3d acd0 edbd
000000e0: fa13 afbd 6824 163e 1f51 5dbd f6ab 80bd
000000f0: e256 19be 00a7 f6bd abd7 233d 0825 adbc
00000100: 800c eebd 8328 763b ec02 e0bd d61c 0bbe
00000110: ed95 b4bd 7582 0fbe 3dd0 d0bd 37e8 233e
00000120: aec2 f73c 071e 4a3d f2ee 18be 4e62 d7bd
00000130: ab50 5abd 90aa f1ba 2248 10be 16e1 b6bd
00000140: 96f0 edbd b051 a2bc eb90 a3bd 27aa 00bd
00000150: 1bdb 03be 05e9 e6bd 3174 89bd 3abe 99bd
00000160: 16a8 e2bd 1771 113e 682b 02bd fa9f f03d
00000170: ab5c 4c3d b0d9 0abe 9df2 e23d 9d76 34bd
00000180: f36a 7bbd 901b 08be e247 1bbe 5e71 5e3d
00000190: 38b6 62bd e559 7f3d b090 06be 5a79 f33d
000001a0: 35ba f0bd f781 e2bc 96fe 083d 064d a93d
000001b0: 2b60 043e 005f 153e 3404 02be 9410 253d
000001c0: 7a0e 8dbd 03c0 8fbc 3076 f5bd c75a 153e
000001d0: ae13 0dbe ed44 af3d d327 ac3d 31a0 a33d
000001e0: 57c2 74bd 379b 303e 8da9 813d ed36 423d
000001f0: e23a edbd 6716 cb3d 3d22 373b 6c8a 9bbd
00000200: 8aeb 143e 8f3a 123d 90c7 7abd 04fc a5bd
00000210: fa93 fabb 411c b73d cc99 27bd a01d bbbd
00000220: 659a 60bd 2467 ecbd d713 5b3d b957 1c3e
00000230: 7f5e 1abe 6854 183d 9169 a93d c5dc ed3c
00000240: a793 69bd bf2a ab3d 8c56 ac3d d340 753d
00000250: 8b81 e6bc ddad 2dbd 9755 8c3c c1ba e7bc
00000260: 5374 43bd 819f d13d b3ea 0c3e 8c77 2e3c
00000270: bfd9 12bd 427e 3dbc 5a16 c0bc e9b8 c83c
00000280: 0bda fc3c ae17 23be e5ae 95bd ab58 113e
00000290: e5e9 ae3d c6e2 b3bc b87d 9bbd 7fda 9ebd
000002a0: 47e1 12be 8c6e 87bd bd7e 5d3d 6b1a d13d
000002b0: 0069 973d fff0 10be 5836 c5bd e404 cfbc
000002c0: b0f0 1d3e b8e6 af3c ae48 62bd bfac 873d
000002d0: 80d0 79bd 3a43 d4bd 6b5c ef3d b31d 95bd
000002e0: ad7b 03bd 891e 23be 757b db3d e775 f83d
000002f0: 3b09 6f3d 72aa e4bd 6ad4 21be 8a2c 05be
00000300: f88b f43d 7272 9d3d 1b45 f73d 96cc ab3d
00000310: 1c39 d33c 9827 86bc d423 0bbe c0f9 1abe
00000320: bdb6 28be 62bd 523d 5382 d1bd 8f19 8ebd
00000330: 0c9c d9bd 1dbb 36bd cf88 03be 6148 d6bd
00000340: 1645 1e3d 37ed 42bd fa73 ca3d e369 52bd
00000350: 5d91 f0bd 7f72 e7bc 21f8 9ebd 8be9 6dbd
00000360: 879f 11be 3af9 973d a550 e4bd 66d4 a43d
00000370: abd0 943d f64a ea3d 868c fbbd ebda eb3d
00000380: 0b09 9bbd f160 733d dffc 193e 5700 b9bc
00000390: f94f a2ba 3701 17bd d7e9 08be 6a61 9d3d
000003a0: f4c6 22be dd24 af3d f15f f53d eb29 1f3e
000003b0: 1376 0abd 8d7a 02be 7360 243d aa35 bd3d
000003c0: 84f4 1ebe f1b6 49bd add7 a6bd b481 21bc
000003d0: 9104 afbd 3233 17bd 6b37 50bd 03a8 17be
000003e0: 258a 063e 5276 093e adc6 cdbc 1663 95bc
000003f0: 00d7 85bd 8913 14be 7f40 13be ffd0 893d

a2c_network.actor_mlp.0.bias f4 [256]
-0.0015168462 -0.038116638 -0.016804358 0.03760435 -0.004858371 -0.025393113 0.000399675 0.021073246
-0.01683463 0.025629723 0.005210335 0.006514737 0.0002131425 0.012168706 -0.033035718 -0.034392305
-0.0014804851 0.013234342 -0.0063385675 -0.00402383 -0.0015771089 -0.01131618 -0.026544617 -0.016095133
-0.03543876 0.002856044 0.007156665 0.0054043178 0.036913227 0.014649495 0.014371991 0.0003966164
0.034562275 -0.010551592 0.0006488061 -0.036566637 -0.03242418 -0.041340437 0.018775083 0.0108051
-0.020602373 -0.016475681 -0.04301989 -0.01865168 -0.022118507 -0.0035461015 -0.028924223 0.017256856
-0.040398587 -0.022247752 -0.008539554 0.033968784 0.011015344 0.022544213 -0.031574547 -0.0063304147
-0.0007106135 0.010345043 -0.00080861425 -0.025530763 -0.037043177 -0.018269783 0.021414023 0.016927743
-0.027220644 0.022460485 -0.03089133 -0.03180615 -0.006257522 0.011343745 -0.012417543 -0.020899503
0.024252906 0.010742774 0.023960175 -0.010823954 0.04470685 0.041060463 -0.043143146 -0.029595738
-0.029489247 0.009075775 0.015129412 0.03320681 0.006758757 -0.0018596569 -0.008098961 -0.030084137
-0.01137502 -0.019110532 -0.031743698 -0.03581131 0.031348154 0.024708694 0.037667383 0.008604118
-0.0132446345 0.02557747 -0.0075322483 0.008636315 0.027338397 -0.0024051247 0.016440738 0.0032477262
-0.0030753666 -0.022066396 0.0041262675 -0.011472409 -0.02071774 0.02531936 -0.02521853 -0.024516312
-0.008172444 0.032664742 -0.03571563 0.025770845 0.036737256 -0.007912765 -0.017522609 -0.034731768
0.021002756 -0.0027779224 -0.029078515 -0.008928749 0.0017308682 -0.030365955 0.002734803 0.03401592
0.026391026 0.010436499 0.0037595523 0.00023322113 -0.008093508 0.012248779 0.0028899333 0.032752406
0.00623996 -0.027359297 -0.0282593 0.016012723 0.0053045684 0.034577224 0.029684898 0.034626346
0.02198366 0.023805834 -0.023862654 -0.0013259815 0.029067155 0.0068823923 0.024156392 -0.001915705
0.014374709 -0.034572203 0.016500102 -0.00578791 -0.035692036 -0.025065202 -0.024082439 -0.028540643
-0.040984593 0.00061890075 -0.033807084 -0.014705429 -0.0055329585 0.037526935 -0.022077758 -0.006069928
-0.0024467346 0.014418212 -6.220588e-05 -0.014077415 -0.0001399317 0.021754766 0.016959231 -0.030931994
0.03482076 -0.019986318 0.002584623 -0.03522052 -0.030274797 0.040217806 -0.00560304 0.0019430829
0.018341491 0.037288908 0.006471534 -0.026137717 -0.020471845 0.0009388007 0.035671685 -0.020795513
0.03972668 -0.016290877 0.023142587 0.0009831949 0.034742188 -0.025543168 -0.01995782 -0.02801169
0.0043815123 -0.014281834 0.033174314 0.005279933 -0.014002988 -0.026027672 -0.005030982 0.023993306
0.021134946 -0.008567579 0.004127996 -0.022426872 -0.0041686655 0.013383684 0.029465187 -0.0024829786
-0.0143709835 -0.029170683 0.04101023 0.025126481 0.007822305 0.011752263 0.001663548 0.012130799
-0.000814659 -0.011536487 -0.013221592 -0.0037941982 -0.009525383 -0.0042189197 0.0029341562 -0.0051573752
-0.026263213 -0.016450457 0.0057973485 0.030235106 -0.0054153283 0.01417534 0.004963708 -0.040342487
0.002313892 0.0047583277 0.0038181022 0.02884797 0.004124461 0.039321337 0.032038506 0.01822386
-0.011335115 0.03305434 -0.024688052 0.030485017 0.0049059796 0.025392726 0.021333091 -0.016514644
00000000: ead0 c6ba 3120 1cbd 4ba9 89bc 0507 1a3d
00000010: f832 9fbb 3805 d0bc 788b d139 cda1 ac3c
00000020: c7e8 89bc 6df5 d13c 75bb aa3b 9379 d53b
00000030: 017f 5f39 415f 473c 7650 07bd f2de 0cbd
00000040: d60c c2ba dbd4 583c c2b3 cfbb 55da 83bb
00000050: feb6 ceba 8067 39bc 1974 d9bc f1d9 83bc
00000060: 3c28 11bd 782c 3b3b 7582 ea3b b416 b13b
00000070: 5332 173d 6f04 703c 8078 6b3c f4f0 cf39
00000080: 2c91 0d3d 96e0 2cbc a414 2a3a e6c6 15bd
00000090: 38cf 04bd 9754 29bd 34ce 993c e007 313c
000000a0: 4fc6 a8bc 02f8 86bc a035 30bd 68cb 98bc
000000b0: df31 b5bc b665 68bb 7ef2 ecbc 405e 8d3c
000000c0: fd78 25bd eb40 b6bc 7ce9 0bbc da22 0b3d
000000d0: b479 343c a4ae b83c 5054 01bd 5e6f cfbb
000000e0: 7748 3aba 417e 293c 2ff9 53ba e425 d1bc
000000f0: 96ba 17bd 83aa 95bc 766c af3c 0dac 8a3c
00000100: d4fd debc 0dff b73c d10f fdbc 2a47 02bd
00000110: e60b cdbb 1ddb 393c f372 4bbc 6f35 abbc
00000120: 08ae c63c 7602 303c 2148 c43c f456 31bc
00000130: 881e 373d 042f 283d deb6 30bd c372 f2bc
00000140: 6f93 f1bc 8fb2 143c 5ae1 773c dd03 083d
00000150: 9078 dd3b bbbf f3ba 81b1 04bc 0273 f6bc
00000160: 4b5e 3abc b18d 9cbc ae05 02bd e1ae 12bd
00000170: ec66 003d e369 ca3c 1d49 1a3d 49f8 0c3c
00000180: 0600 59bc d887 d13c 14d1 f6bb 557f 0d3c
00000190: c6f4 df3c 4c9f 1dbb baae 863c ced7 543b
000001a0: 178c 49bb 96c4 b4bc a435 873b c5f6 3bbc
000001b0: 40b8 a9bc 8c6a cf3c 1797 cebc 6fd6 c8bc
000001c0: b7e5 05bc 77cb 053d 8d4a 12bd 611d d33c
000001d0: ce79 163d 8ba4 01bc 938b 8fbc e642 0ebd
000001e0: f90d ac3c ce0d 36bb 1136 eebc e349 12bc
000001f0: 4dde e23a 06c2 f8bc 613a 333b 4754 0b3d
00000200: fe31 d83c d9fd 2a3c d262 763b d28c 7439
00000210: a29a 04bc 1aaf 483c 0965 3d3b 6327 063d
00000220: 9478 cc3b 9b20 e0bc 0c80 e7bc 1d2d 833c
00000230: f2d1 ad3b d9a0 0d3d be2d f33c 5bd4 0d3d
00000240: 1417 b43c 7404 c33c 9d7b c3bc 8ecc adba
00000250: 3e1e ee3c b185 e13b a0e3 c53c 6518 fbba
00000260: e683 6b3c 959b 0dbd 392b 873c 82a8 bdbb
00000270: d031 12bd 8a55 cdbc 8948 c5bc 11ce e9bc
00000280: 76df 27bd ba3d 223a 4c79 0abd 0aef 70bc
00000290: d24d b5bb d8b5 193d 6adc b4bc 3fe6 c6bb
000002a0: 6559 20bb 5d3a 6c3c 8774 82b8 f5a4 66bc
000002b0: a1ba 12b9 0d37 b23c 16ee 8a3c 1865 fdbc
000002c0: 37a0 0e3d 59ba a3bc c762 293b 6443 10bd
000002d0: da02 f8bc 6dbb 243d b599 b7bb 0baf fe3a
000002e0: e540 963c 41bc 183d 290f d43b c41e d6bc
000002f0: 92b4 a7bc d919 763a 791c 123d 5a5b aabc
00000300: 71b8 223d 7274 85bc 8695 bd3c 8cde 803a
00000310: d34d 0e3d e83f d1bc 957e a3bc c678 e5bc
00000320: ca92 8f3b 5afe 69bc cae1 073d 4a03 ad3b
00000330: ca6c 65bc fc37 d5bc f0da a4bb 9c8d c43c
00000340: 3223 ad3c 085f 0cbc 2444 873b 8fb8 b7bc
00000350: 4d99 88bb 3d47 5b3c fa60 f13c 78b9 22bb
00000360: 4674 6bbc 5bf7 eebc 58fa 273d 0dd6 cd3c
00000370: 2029 003c 908c 403c 690b da3a 42c0 463c
00000380: d78e 55ba 8903 3dbc 609f 58bc 15a8 78bb
00000390: 5a10 1cbc dd3e 8abb f94a 403b 33ff a8bb
000003a0: f325 d7bc 1cc3 86bc aff7 bd3b 9daf f73c
000003b0: 1173 b1bb af3f 683c 9aa6 a23b 2a3e 25bd
000003c0: aaa4 173b bfeb 9b3b 2039 7a3b 9452 ec3c
000003d0: 7d26 873b 690f 213d cf3a 033d 344a 953c
000003e0: ebb6 39bc fd63 073d 993e cabc b7bb f93c
000003f0: 57c2 a03b 6804 d03c bcc2 ae3c b849 87bc

a2c_network.actor_mlp.2.weight f4 [128, 256]
0.0073147085 -0.010535747 0.01726299 -0.048255917 -0.030918794 0.04540597 -0.06753877 -0.06175453
-0.055243827 -0.062374864 -0.055902336 -0.028852066 0.019862978 -0.076915264 -0.07648957 -0.044646792
-0.05687242 0.030365594 -0.02081953 0.02611482 0.06696076 -0.034224533 -0.011581338 -0.0155684445
0.043152172 0.026468335 -0.009664374 0.0050925375 -0.07496269 -0.040880963 -0.060683616 -0.078747645
-0.056243997 -0.0355594 -0.012897421 0.04293827 0.01926389 -0.009967224 -0.00065771106 0.06713502
-0.021074338 0.050578866 0.03691867 -0.0394316 0.05385639 0.014271195 -0.05674669 0.07639962
0.00861817 0.08376476 -0.012614065 -0.031308882 0.06786983 0.0026469582 0.06383893 -0.025568942
0.026641842 -0.014482535 0.020970412 0.028798006 -0.018806135 0.06802661 0.023484383 0.0017988308
0.021492712 0.007696879 -0.0042015095 0.0349235 -0.06307612 -0.031849872 0.020316366 -0.018921515
-0.034051567 0.04499681 0.019729367 -0.035874583 0.011626532 0.038709573 -0.032117043 0.048637677
-0.0029162783 -0.036245644 -0.035683054 -0.01956267 0.0398768 -0.015289659 -0.07391962 -0.017804023
0.05884213 -0.034355827 0.07509413 0.037734658 0.0661836 -0.016819475 -0.04305911 -0.06312659
-0.0044749877 -0.022126412 -0.0032611154 0.048491832 0.0569226 -0.09881765 -0.04635163 -0.0043402966
-0.018529039 0.056507304 -0.043903913 0.050176386 -0.033638645 0.0069206837 -0.014379407 -0.01330093
-0.048197504 -0.07825462 -0.014484293 -0.011405951 -0.05717296 -0.014796568 -0.06261821 -0.03180185
-0.08419655 0.07616979 0.0014202644 0.031927187 -0.07382646 0.0037653686 -0.071831845 0.02885199
0.046545923 -0.07311284 0.06596734 0.002391146 -0.06337021 0.011616875 0.042514134 -0.059552245
0.038786247 0.030533945 0.037351258 -0.029190024 0.020815035 0.008252574 0.08226118 -0.060632125
0.004285288 0.020335175 -0.04369491 -0.021240676 0.040296238 0.028567953 0.0010978914 -0.0062441994
-0.059307996 0.046724733 -0.023461943 -0.090545736 0.015703224 -0.03630227 0.025224531 0.06448498
0.05477023 0.032967206 -0.02573992 0.003503019 0.030211959 -0.04279927 0.047732767 0.049642973
-0.06921303 -0.01817998 -0.04622341 0.017762238 0.029142564 -0.044886645 0.011827489 -0.0151302805
0.041941807 0.050871562 0.008351721 -0.05414221 0.02719179 -0.03491248 0.028043613 -0.027898654
0.056253314 -0.014819344 0.00091822044 -0.040312257 0.02784121 -0.01617475 0.014483991 0.025531147
-0.044547793 -0.055141144 0.03448678 -0.026367247 -0.06624784 0.06909835 -0.0290825 -0.026992872
-0.07453797 0.03214971 -0.01645064 0.018764544 -0.0035990195 -0.0084010335 -0.015754031 0.06383341
0.018947646 0.017725542 -0.06466046 -0.04885047 0.010464741 0.0059123053 0.003165543 -0.01791166
0.03019172 0.039095484 -0.025222763 0.012507942 -0.030934874 0.069012776 -0.009421438 -0.009592855
0.06534783 -0.038457084 0.028051343 -0.043012533 -0.061729673 0.039457172 -0.006257995 -0.10401166
-0.048531055 -0.018268019 0.03840568 0.021944508 -0.0007471658 0.04043445 -0.07219885 0.042625792
0.008573193 0.00033113468 0.019519173 0.011846078 0.0028308847 0.03155257 0.062466253 0.075712696
-0.0073621874 0.011110641 0.028560612 -0.024954814 0.045775965 0.016773254 0.055015113 -0.0005417687
00000000: 39b0 ef3b 209e 2cbc 1d6b 8d3c ffa7 45bd
00000010: 6949 fdbc 9cfb 393d c451 8abd 51f2 7cbd
00000020: 5a47 62bd c97c 7fbd d9f9 64bd 2b5b ecbc
00000030: afb7 a23c c085 9dbd 90a6 9cbd 8edf 36bd
00000040: 0ef3 68bd 44c1 f83c b88d aabc bfee d53c
00000050: b922 893d 062f 0cbd a7bf 3dbc ca12 7fbc
00000060: 55c0 303d 1fd4 d83c 5357 1ebc 4ddf a63b
00000070: 0a86 99bd cc72 27bd 628f 78bd 7246 a1bd
00000080: 1b60 66bd bca6 11bd b44f 53bc 0ae0 2f3d
00000090: 4ecf 9d3c 914d 23bc 3e6a 2cba 167e 893d
000000a0: 17a4 acbc c92b 4f3d 0838 173d 0883 21bd
000000b0: 8598 5c3d bbd1 693c 386f 68bd 6777 9c3d
000000c0: 3a33 0d3c dc8c ab3d 39ab 4ebc be3d 00bd
000000d0: 56ff 8a3d 9778 2d3b fcbd 823d f575 d1bc
000000e0: fe3f da3c 2848 6dbc 24ca ab3c cce9 eb3c
000000f0: 530f 9abc 8951 8b3d 5262 c03c bfc6 eb3a
00000100: 7c11 b03c 1a36 fc3b d1ac 89bb f20b 0f3d
00000110: 0e2e 81bd 0375 02bd 826e a63c 4b01 9bbc
00000120: a879 0bbd 934e 383d 7b9f a13c 3af1 12bd
00000130: 367d 3e3c ee8d 1e3d 298d 03bd 4d38 473d
00000140: 081f 3fbb 5076 14bd 6528 12bd e441 a0bc
00000150: db55 233d 7a81 7abc 2b63 97bd bed9 91bc
00000160: 7204 713d b2b8 0cbd f4ca 993d a88f 1a3d
00000170: 448b 873d ffc8 89bc c05e 30bd 8348 81bd
00000180: eba2 92bb 7342 b5bc 70b8 55bb 5f9f 463d
00000190: ac27 693d e860 cabd 35db 3dbd 0c39 8ebb
000001a0: 36ca 97bc 3474 673d 97d4 33bd c185 4d3d
000001b0: adc8 09bd e7c6 e23b 9b97 6bbc 25ec 59bc
000001c0: bf6a 45bd f543 a0bd 874f 6dbc 07e0 3abc
000001d0: 322e 6abd 4e6d 72bc fa3d 80bd a842 02bd
000001e0: 3e6f acbd e8fe 9b3d 2a28 ba3a 15c6 023d
000001f0: 5432 97bd 67c4 763b 931c 93bd 025b ec3c
00000200: f0a6 3e3d 2fbc 95bd e219 873d c6b4 1c3b
00000210: 3ec8 81bd b554 3e3c 4d23 2e3d 0eed 73bd
00000220: 54de 1e3d 5322 fa3c a2fd 183d eb1f efbc
00000230: 4b84 aa3c ce35 073c 8d78 a83d 6459 78bd
00000240: 9a6b 8c3b f495 a63c 6ff9 32bd ed00 aebc
00000250: ab0d 253d 5707 ea3c 1fe7 8f3a 249c ccbb
00000260: f1ec 72bd 6f62 3f3d 4333 c0bc 0b70 b9bd
00000270: 0ca4 803c b0b1 14bd ada3 ce3c b410 843d
00000280: c056 603d 9f08 073d 86dc d2bc e892 653b
00000290: 127f f73c 4a4e 2fbd 6f83 433d 6e56 4b3d
000002a0: 90bf 8dbd 2eee 94bc c254 3dbd 1d82 913c
000002b0: 63bc ee3c 0fdb 37bd 16c8 413c ffe4 77bc
000002c0: 2ccb 2b3d b35e 503d a8d5 083c 39c4 5dbd
000002d0: 51c1 de3c 6300 0fbd b8bb e53c b88b e4bc
000002e0: e069 663d d5cc 72bc bbb4 703a 771e 25bd
000002f0: 4013 e43c e980 84bc 434e 6d3c b226 d13c
00000300: bf77 36bd aedb 61bd 0342 0d3d 2000 d8bc
00000310: f3ac 87bd 7083 8d3d 6c3e eebc 2820 ddbc
00000320: 5da7 98bd 6aaf 033d 7ec3 86bc 1ab8 993c
00000330: 87dd 6bbb 7da4 09bc 990e 81bc 17bb 823d
00000340: 1838 9b3c 2835 913c b46c 84bd 6e17 48bd
00000350: 4e74 2b3c 03bc c13b 0075 4f3b 79bb 92bc
00000360: a054 f73c 9622 203d f89f cebc 1cee 4c3c
00000370: 226b fdbc 9256 8d3d 605c 1abc 5a2b 1dbc
00000380: 15d5 853d 2d85 1dbd eecb e53c e92d 30bd
00000390: 41d8 7cbd d89d 213d de0f cdbb 1104 d5bd
000003a0: 80c8 46bd d0a6 95bc 464f 1d3d f8c4 b33c
000003b0: 73dd 43ba 989e 253d fedc 93bd 6298 2e3d
000003c0: 9476 0c3c 259c ad39 ace6 9f3c 0d16 423c
000003d0: 5d86 393b 453d 013d 9ddc 7f3d 420f 9b3d
000003e0: 813e f1bb 6809 363c f2f7 e93c 0a6e ccbc
000003f0: 947f 3b3d 1068 893c 8757 613d 7b05 0eba

a2c_network.actor_mlp.2.bias f4 [128]
-0.022397717 0.04235555 -0.022498017 0.04608202 -0.044918783 -0.018878378 -0.014326 0.028768428
-0.043745723 0.002502446 0.0039941506 0.040068187 0.043779206 -0.039894015 0.046495676 0.03693002
-0.045300264 -0.00017506762 0.024461143 -0.042554207 0.004135195 0.020049805 0.017496724 0.01669737
0.027459517 0.04398217 -0.021923065 -0.04546409 0.053708084 -0.0062362393 -0.039847072 -0.010845496
0.03937286 -0.0051566274 0.013725073 0.0516622 -0.042371932 -0.011936555 0.04118204 -0.043039266
-0.008824212 -0.019181695 0.007122646 -0.01596768 0.028473651 -0.023579134 -0.038627196 0.009863934
0.00552048 -0.022975374 -0.0002916911 0.053070307 0.0067435754 0.010479381 -0.009362224 0.032245487
6.0790288e-05 -0.03663269 -0.038770135 0.034650862 0.031597186 0.025896112 0.034791116 0.04464897
0.04926595 0.01944523 0.047584906 0.013459089 -0.002112149 0.045151185 0.028490607 -0.024067275
-0.043770205 -0.03606403 0.015623514 0.037963446 0.004348781 -0.003808453 0.04195133 -0.038177457
0.017910512 -0.03987327 -0.0115464525 -0.0047505423 -0.04068834 0.05005788 -0.047986872 -0.022221122
0.034517586 0.0038983468 0.030712485 -0.012730663 0.038950946 0.0045786486 0.021917796 -0.01085889
0.023745494 -0.03929787 0.042834163 -0.027043048 -0.034143753 0.027693922 0.042026468 0.023775585
0.032168664 0.046972673 -0.005227139 -0.0062812893 -0.03734776 -0.044589788 0.051739085 -0.03774538
-0.028003579 -0.0052812262 -0.0028348705 0.04168872 0.0059293355 -0.0074502425 -0.033170555 -0.00793369
-0.015278904 -0.048506163 0.015060491 -0.021850597 -0.008446179 -0.03150296 0.042660426 0.009117275
00000000: 6b7b b7bc 037d 2d3d c34d b8bc 80c0 3c3d
00000010: c2fc 37bd d4a6 9abc 99b7 6abc c4ab eb3c
00000020: b72e 33bd 1400 243b 5de1 823b 8a1e 243d
00000030: d351 333d e867 23bd 4072 3e3d ef43 173d
00000040: c58c 39bd 5b92 37b9 bc62 c83c 524d 2ebd
00000050: 8880 873b 7d3f a43c 4a55 8f3c ecc8 883c
00000060: c8f2 e03c a626 343d 0098 b3bc 8e38 3abd
00000070: 02fd 5b3d 5e59 ccbb af36 23bd 4fb1 31bc
00000080: 7045 213d edf8 a8bb 21df 603c be9b 533d
00000090: 318e 2dbd 8a91 43bc 80ae 283d f149 30bd
000000a0: 6d93 10bc ee22 9dbc 1665 e93b a7ce 82bc
000000b0: 9341 e93c 0729 c1bc 8d37 1ebd 569c 213c
000000c0: 25e5 b43b da36 bcbc 1eee 98b9 4060 593d
000000d0: 36f9 dc3b b6b1 2b3c 0364 19bc d813 043d
000000e0: 13f9 7e38 290c 16bd 6fcd 1ebd 10ee 0d3d
000000f0: 0d6c 013d 1524 d43c 2181 0e3d d7e1 363d
00000100: 18cb 493d 9a4b 9f3c 64e8 423d 8383 5c3c
00000110: fb6b 0abb 73f0 383d 2265 e93c bc28 c5bc
00000120: 6348 33bd e0b7 13bd c4f9 7f3c 8f7f 1b3d
00000130: 3880 8e3b 3d97 79bb 28d5 2b3d f75f 1cbd
00000140: 11b9 923c 2752 23bd 552d 3dbc 70aa 9bbb
00000150: d1a8 26bd 7e09 4d3d e28d 44bd 1209 b6bc
00000160: 5062 0d3d 687b 7f3b c098 fb3c 4594 50bc
00000170: 078b 1f3d 7d08 963b f38c b33c 7ce9 31bc
00000180: e985 c23c cef6 20bd e072 2f3d 6289 ddbc
00000190: 52da 0bbd 5dde e23c f223 2c3d 04c5 c23c
000001a0: 4ac3 033d 6b66 403d 6c48 abbb 46d3 cdbb
000001b0: f7f9 18bd c8a3 36bd 5dec 533d e69a 1abd
000001c0: c367 e5bc 230e adbb 3cc9 39bb cbc1 2a3d
000001d0: df4a c23b 2a21 f4bb d9dd 07bd 4ffc 01bc
000001e0: 5e54 7abc 66ae 46bd 47c0 763c 0600 b3bc
000001f0: d861 0abc 3f09 01bd b3bc 2e3d 9f60 153c

a2c_network.actor_mlp.4.weight f4 [64, 128]
0.052061457 0.028260631 -0.053098604 0.12540339 -0.007193608 0.02258839 -0.008414359 -0.020641405
-0.11151477 0.04566836 -0.09233234 0.09364996 0.12031584 0.013144917 0.13013715 -0.0197366
-0.031486675 0.07944574 -0.092448704 -0.12110072 0.06421766 0.048437797 0.019437816 0.009032751
0.07915534 0.10306333 -0.04429696 -0.11771678 0.122352354 -0.01482473 -0.038466062 -0.0049163974
0.063585766 0.043740034 0.105079934 0.031740837 -0.020267889 -0.09938659 0.09472242 -0.03188732
0.10815192 -0.05085743 0.006428139 0.07707399 -0.092561 -0.070550926 -0.016819898 -0.06337507
-0.075830266 0.0197239 0.09418017 0.054137368 -0.06483603 -0.047384962 0.010843448 0.06793472
-0.10779209 0.048184924 -0.03971948 0.09718209 0.053687364 -0.053457774 0.08587408 -0.02087176
0.063384525 -0.02987128 -0.030655121 -0.009298935 -0.019211112 0.09090144 -0.0461256 -0.09192674
-0.115305975 -0.07213635 0.10838361 0.11477679 0.008309571 -0.11114969 0.056619503 -0.07975035
0.014059585 0.042175807 0.0670577 -0.020522581 -0.05569516 0.007796222 -0.09024152 -0.030641006
0.07230584 0.035166815 0.02789058 0.12513064 0.06706772 -0.07699547 0.1268906 -0.041596357
-0.009460681 -0.08217651 0.0734874 -0.028438134 -0.038513403 -0.0016289538 -0.023601905 -0.03872779
0.053557947 0.0065683816 -0.054824684 0.08733622 -0.035420857 0.002230789 0.08915842 -0.08247324
-0.0043872637 -0.12209683 -0.0012715737 0.10168274 -0.098469056 0.009690559 -0.06648238 0.06230131
0.044162504 -0.024996346 0.002387152 -0.013470737 -0.007436488 -0.10164044 0.10756446 0.008971686
-0.010885989 0.005767425 -0.024300003 -0.10093434 0.07021724 -0.056828417 -0.027573956 -0.03757591
0.08243444 -0.032888602 0.030668959 0.007434093 0.060254086 0.086368985 0.012371317 -0.01847772
0.06125913 0.00510329 -0.06406527 0.007423929 0.037132576 -0.069892794 -0.040778764 -0.035521742
0.05609672 -0.09048529 -0.0053994996 -0.05976807 0.050340638 -0.06270838 0.05344204 -0.055128623
-0.03735966 -0.020562869 -0.01595053 -0.07554761 -0.05628865 -0.055696454 -0.053969376 0.063728325
0.009675017 -0.06532583 -0.06274413 0.06277388 -0.08417659 0.074002445 0.01669608 -0.06129185
0.04349459 0.06385027 0.02873343 -0.043160968 -0.026985373 -0.008182004 -0.072189346 0.020473469
-0.04164459 0.009003606 -0.004393102 0.061693795 -0.10126129 -0.057963155 0.03450964 -0.050896246
0.05120839 -0.0591731 0.0066354927 0.029794224 0.08461829 0.04521811 0.0347323 -0.009766463
0.029721487 0.065183155 -0.07288498 -0.0808208 0.018810226 -0.06625838 0.0004494305 0.016499352
0.06843692 0.07821446 -0.09406538 0.10127666 -0.05354933 -0.0951703 -0.008408318 0.022355767
-0.022444332 4.3290795e-05 -0.00458713 -0.030896228 -0.03728589 0.048929013 0.0063891876 -0.035680685
0.03997556 0.052601933 -0.012258333 -0.013360619 0.078642055 0.0021057737 0.055240337 0.08453673
-0.08308467 -0.03652451 -0.06598162 0.01296747 0.07168206 0.054301936 -0.044165123 0.039454393
0.06251152 -0.03665924 0.05263265 -0.014631835 0.029350318 -0.008949174 0.05612866 0.03549106
-0.015644317 0.020900855 -0.06232115 -0.08028469 -0.03174346 -0.04860275 -0.01229925 0.07824788
00000000: 653e 553d d782 e73c ec7d 59bd bf69 003e
00000010: 5cb8 ebbb 4a0b b93c 61dc 09bc 2a18 a9bc
00000020: db61 e4bd bf0e 3b3d bd18 bdbd 8dcb bf3d
00000030: 2768 f63d c75d 573c ac42 053e a6ae a1bc
00000040: 2cf8 00bd 73b4 a23d bf55 bdbd a703 f8bd
00000050: 8c84 833d b666 463d 0e3c 9f3c 1bfe 133c
00000060: 321c a23d de12 d33d bb70 35bd 7f15 f1bd
00000070: df93 fa3d 6de3 72bc 978e 1dbd bb19 a1bb
00000080: 4139 823d c028 333d 2634 d73d ae02 023d
00000090: d808 a6bc 328b cbbd d4fd c13d 479c 02bd
000000a0: c17e dd3d e14f 50bd 23a3 d23b f8d8 9d3d
000000b0: 9f90 bdbd 017d 90bd e2c9 89bc caca 81bd
000000c0: e64c 9bbd 0494 a13c 88e1 c03d 25bf 5d3d
000000d0: c1c8 84bd bc16 42bd b8a8 313c 5c21 8b3d
000000e0: 19c2 dcbd 8e5d 453d e5b0 22bd 6707 c73d
000000f0: 48e7 5b3d 8af6 5abd c0de af3d 41fb aabc
00000100: bfcf 813d 9db4 f4bc 7320 fbbc 8f5a 18bc
00000110: 9f60 9dbc 892a ba3d 32ee 3cbd 1644 bcbd
00000120: 8a25 ecbd 39bc 93bd 3af8 dd3d 1810 eb3d
00000130: de24 083c 73a2 e3bd dae9 673d 2754 a3bd
00000140: 2c5a 663c 8ac0 2c3d 8c55 893d f91e a8bc
00000150: 9c20 64bd 7377 ff3b 8cd0 b8bd d902 fbbc
00000160: 1615 943d 140b 103d c97a e43c 3f22 003e
00000170: cd5a 893d cdaf 9dbd 9cef 013e f160 2abd
00000180: f900 1bbc 284c a8bd 9080 963d 17f7 e8bc
00000190: 3bc0 1dbd 9f82 d5ba c858 c1bc 08a1 1ebd
000001a0: 945f 5b3d 943b d73b d98f 60bd 55dd b23d
000001b0: 7615 11bd 6e32 123b b198 b63d bbe7 a8bd
000001c0: 09c3 8fbb e70d fabd efaa a6ba 0a3f d03d
000001d0: 25aa c9bd 26c5 1e3c ea27 88bd a92f 7f3d
000001e0: bee3 343d 23c5 ccbc c471 1c3b 5eb4 5cbc
000001f0: c8ad f3bb dd28 d0bd c14a dc3d fafd 123c
00000200: 265b 32bc abfc bc3b cd10 c7bc aab6 cebd
00000210: 0ece 8f3d eac4 68bd c7e2 e1bc 33e9 19bd
00000220: 63d3 a83d 33b6 06bd 783d fb3c b199 f33b
00000230: fdcc 763d 39e2 b03d 10b1 4a3c 965e 97bc
00000240: daea 7a3d 8039 a73b a734 83bd 6e44 f33b
00000250: 5418 183d f423 8fbd a207 27bd 3f7f 11bd
00000260: adc5 653d 5a50 b9bd 49ee b0bb 5dcf 74bd
00000270: fc31 4e3d 406d 80bd 0ae6 5a3d 8dce 61bd
00000280: 7106 19bd 7673 a8bc b0aa 82bc b5b8 9abd
00000290: ed8e 66bd f721 64bd fe0e 5dbd ff83 823d
000002a0: f683 1e3c 8cc9 85bd ff7f 80bd 988f 803d
000002b0: c764 acbd 988e 973d 38c6 883c 2a0d 7bbd
000002c0: 6227 323d eec3 823d 5f62 eb3c 8ec9 30bd
000002d0: 6e10 ddbc d00d 06bc 02d8 93bd fab7 a73c
000002e0: 8593 2abd dc83 133c 03f4 8fbb a2b2 7c3d
000002f0: 1462 cfbd c66a 6dbd fb59 0d3d 9578 50bd
00000300: e4bf 513d 7e5f 72bd 8c6e d93b 0413 f43c
00000310: 5b4c ad3d a036 393d 7543 0e3d 8403 20bc
00000320: 7a7a f33c bf7e 853d b844 95bd 6085 a5bd
00000330: e717 9a3c 79b2 87bd 8aa1 eb39 a629 873c
00000340: a828 8c3d e72e a03d 5aa5 c0bd 236a cf3d
00000350: 8b56 5bbd a5e8 c2bd 0bc3 09bc 7123 b73c
00000360: 2ddd b7bc 2393 3538 a34f 96bb 161a fdbc
00000370: 17b9 18bd ca69 483d 645c d13b e925 12bd
00000380: 6abd 233d 2075 573d 2dd7 48bc 7fe6 5abc
00000390: 160f a13d 0501 0a3b b143 623d 9821 ad3d
000003a0: 4c28 aabd b99a 15bd 5f21 87bd 8375 543c
000003b0: 0bce 923d b56b 5e3d 7de6 34bd ee9a 213d
000003c0: 0a06 803d 0028 16bd 5595 573d 5dba 6fbc
000003d0: 1470 f03c 8e9f 12bc 2ae7 653d 135f 113d
000003e0: 8328 80bc 4538 ab3c 7644 7fbd 4d6c a4bd
000003f0: 6e05 02bd ad13 47bd cb82 49bc 6d40 a03d

a2c_network.actor_mlp.4.bias f4 [64]
0.050540514 -0.03714135 -0.039368585 -0.03856018 0.03295731 -0.02112889 -0.012906641 0.008682952
0.011803772 -0.05508502 -0.038817465 0.03069476 -0.018067965 -0.048238263 -0.04678503 0.026280819
-0.023148103 0.045754936 0.033182528 -0.027174477 0.024932511 -0.038497955 -0.016732598 -0.025016611
0.04201913 -0.018014614 0.0036250195 0.044669233 -0.041147575 -0.013501417 0.05915938 -0.0068123504
0.038319618 -0.04489789 -0.053252928 -0.025827702 -0.027457247 -0.032551367 0.042603903 -0.04433162
0.045561127 -0.053587437 0.031920284 0.006321958 0.041666772 0.020511452 0.03707868 0.024916869
0.025818432 -0.030117422 0.052562762 -0.03299704 -0.054582782 0.031202175 0.018892916 0.04275115
0.005891524 0.013280778 -0.033343818 0.026841305 -0.038064107 -0.0067371884 -0.0436091 -0.009634625
00000000: 9203 4f3d 8721 18bd f440 21bd 48f1 1dbd
00000010: 3ffe 063d 7e16 adbc 6076 53bc f142 0e3c
00000020: 9c64 413c d4a0 61bd 10ff 1ebd 9473 fb3c
00000030: 4503 94bc 7c95 45bd a9a1 3fbd df4a d73c
00000040: 17a1 bdbc 8769 3b3d 67ea 073d 029d debc
00000050: 443f cc3c 08b0 1dbd cd12 89bc a3ef ccbc
00000060: 401c 2c3d 6293 93bc bc91 6d3b 16f7 363d
00000070: 5c8a 28bd 0c35 5dbc 1b51 723d 233a dfbb
00000080: 08f5 1c3d dae6 37bd be1f 5abd 9e94 d3bc
00000090: 05ee e0bc 9554 05bd 6e81 2e3d 1395 35bd
000000a0: 4e9e 3a3d 807e 5bbd d8be 023d 6d28 cf3b
000000b0: c7aa 2a3d a207 a83c d0df 173d 761e cc3c
000000c0: 2d81 d33c d0b8 f6bc 0d4c 573d e727 07bd
000000d0: 3292 5fbd b49b ff3c 51c5 9a3c d41b 2f3d
000000e0: af0d c13b 9f97 593c 8793 08bd 4ce2 db3c
000000f0: 1ce9 1bbd a2c3 dcbb 759f 32bd 8cda 1dbc

a2c_network.value.weight f4 [1, 64]
-0.09085922 0.09637833 0.11793126 0.05194916 -0.015924156 0.06827554 0.054550312 0.0062454003
0.027181322 0.11925327 0.12332031 -0.08259551 0.028004829 0.1465421 0.100556515 -0.06933282
0.11987296 -0.12995414 -0.08071377 0.048217062 -0.045813955 0.07966219 0.035686713 0.12379998
-0.04432049 0.095525496 0.016243968 -0.14056166 0.10615639 0.09130166 -0.14446482 0.028038682
-0.07868961 0.11031144 0.090064995 0.053186372 0.114403166 0.12793157 -0.088719696 0.1344216
-0.054243725 0.15844807 -0.10767886 -0.026600968 -0.10144468 -0.120190874 -0.1426833 -0.092372455
-0.05092991 0.07776679 -0.1617658 0.089748554 0.11609925 -0.048360206 -0.018347576 -0.07073577
-0.034487568 -0.06110185 0.09280745 -0.073893376 0.0887665 0.045934077 0.14607418 0.024517292
00000000: 6614 babd 0062 c53d f285 f13d a4c8 543d
00000010: 6073 82bc 0cd4 8b3d 2670 5f3d 37a6 cc3b
00000020: 5dab de3c 0f3b f43d 5c8f fc3d d627 a9bd
00000030: 626a e53c 220f 163e 93f0 cd3d 5efe 8dbd
00000040: f47f f53d b312 05be 434d a5bd 417f 453d
00000050: 6aa7 3bbd ee25 a33d 3b2c 123d d88a fd3d
00000060: 6789 35bd dfa2 c33d 1212 853c 65ef 0fbe
00000070: 8568 d93d 5dfc ba3d 96ee 13be 61b1 e53c
00000080: 0528 a1bd f7ea e13d ff73 b83d f4d9 593d
00000090: 354c ea3d 7e00 033e acb2 b5bd d1a5 093e
000000a0: ab2e 5ebd 3640 223e bc86 dcbd 46ea d9bc
000000b0: 3ac2 cfbd a226 f6bd 921b 12be c52d bdbd
000000c0: e29b 50bd 3244 9f3d efa5 25be 17ce b73d
000000d0: 72c5 ed3d 5a15 46bd a84d 96bc eadd 90bd
000000e0: d642 0dbd ef45 7abd d511 be3d 6955 97bd
000000f0: 36cb b53d 5f25 3c3d 7894 153e 7dd8 c83c

a2c_network.mu.weight f4 [24, 64]
-0.07727705 -0.017134279 -0.02708486 -0.089534014 -0.03636221 0.11717822 0.030748973 0.0996674
0.029387707 0.06309001 -0.10343201 0.014714689 0.061110042 -0.008078583 -0.051071342 -0.010060238
-0.085171096 0.06651723 0.025347732 -0.09904426 0.043762885 -0.12253402 0.047259822 -0.07537644
-0.09359123 0.030055916 0.009464479 0.11653839 -0.06380185 0.13673726 0.0437133 0.037458744
0.036536653 0.020369252 0.060064316 0.022796867 0.09079251 -0.1143687 -0.03677512 -0.05274577
-0.065138005 -0.100994505 -0.08005896 0.020518813 -0.03836132 -0.10110982 0.06493407 0.09412761
0.05383518 -0.057321873 0.1390538 -0.000116507086 -0.017048998 0.013175113 0.118967645 -0.04106191
-0.08891546 0.0332677 -0.08070132 -0.05677569 0.010373225 0.118770465 -0.052415494 -0.021566251
-0.09598732 0.051402755 -0.11364275 -0.00994355 0.048901144 -0.02074453 0.060265493 0.023427663
-0.040172696 -0.120340884 0.09748035 -0.09315369 -0.05656294 0.04669879 -0.03829617 -0.047487374
0.037499215 -0.0014700539 0.07594644 -0.060767997 0.0019748234 -0.12960707 -0.03466078 0.105966054
0.06967006 0.02199096 0.042344466 0.12536228 -0.042041067 0.0920542 0.1201079 -0.0029602826
0.06808148 0.02259337 -0.06205168 -0.07655211 -0.03364848 0.08816647 0.07388104 0.07998172
-0.06287504 -0.13149905 -0.034482602 -0.09565193 0.103479445 -0.031205883 -0.0613079 -0.017305996
-0.012493123 0.022056676 0.07950913 -0.10017982 0.03624123 0.011942705 0.089833245 0.014508326
0.03391842 -0.12610117 0.07895424 0.06451151 0.11683641 0.039831173 -0.013580887 0.11426912
-0.05696142 -0.04350272 -0.005557859 -0.10443657 0.1162139 0.0931191 0.10466936 0.07982677
0.06402757 -0.008360995 0.036838062 0.050217904 -0.009857002 -0.0349034 -0.0271041 -0.10680597
0.06502189 0.14234562 0.06192094 -0.011843315 -0.017074248 -0.13015231 -0.14735757 -0.086619616
-0.04201377 -0.0930934 0.04996592 0.1604374 -0.06149518 0.105720386 0.1050584 0.091223136
0.094003834 0.06530227 0.06870456 -0.04185364 0.0111551685 0.055908777 -0.07000517 -0.109772645
0.107579835 -0.09329004 -0.08155565 0.0061480757 0.030139897 -0.046824954 -0.054641724 -0.08615563
-0.04218163 0.13207972 0.06760484 -0.10679069 0.07659517 0.08115399 0.048013505 0.031253062
-0.10073008 -0.05416614 0.11258454 -0.090620674 0.036955763 0.10727456 -0.11024921 -0.024052689
0.08586498 0.08343396 -0.10928076 -0.10363702 0.060546305 0.053335402 0.13019584 0.09177611
0.13324934 0.080346234 -0.07615539 0.11066648 0.07776937 -0.09221295 -0.08360364 0.0243894
0.08435977 0.06863691 -0.038320586 -0.13695404 0.023749357 -0.11349606 -0.009406915 0.014073886
0.15394063 0.10924899 0.15201697 0.12966505 -0.1352272 0.11975226 0.14370167 0.096286125
0.03596138 -0.11358815 -0.14261003 0.13689807 0.005988706 -0.13166824 0.119310334 0.07040601
0.061212633 0.03487451 -0.12007389 -0.023422876 -0.085936934 -0.11281327 0.050371785 -0.011863156
0.0068009924 0.026690887 0.107347704 0.058435936 -0.10439647 0.10133481 0.010509758 0.10895303
-0.09057394 -0.106595166 0.028278304 -0.046768792 0.036267713 0.00604579 -0.06893861 -0.117781214
00000000: 6e43 9ebd 305d 8cbc 11e1 ddbc 9c5d b7bd
00000010: 8af0 14bd 22fb ef3d 45e5 fb3c 6c1e cc3d
00000020: 7dbe f03c 5635 813d 29d4 d3bd e115 713c
00000030: 864e 7a3d 085c 04bc 2f30 51bd b2d3 24bc
00000040: 2f6e aebd 2f3a 883d 0ca6 cf3c b8d7 cabd
00000050: b640 333d 1ef3 fabd 8493 413d f75e 9abd
00000060: c2ac bfbd d337 f63c e710 1b3c aeab ee3d
00000070: 8baa 82bd da04 0c3e b80c 333d 576e 193d
00000080: 75a7 153d 6bdd a63c 0006 763d 7fc0 ba3c
00000090: 6cf1 b93d 233a eabd 82a1 16bd f30b 58bd
000000a0: 1367 85bd 35d6 cebd f4f5 a3bd 1217 a83c
000000b0: c220 1dbd aa12 cfbd 27fc 843d fac5 c03d
000000c0: 4782 5c3d 57ca 6abd 1f64 0e3e 4455 f4b8
000000d0: 57aa 8bbc 6edc 573c 4fa5 f33d 8930 28bd
000000e0: 4f19 b6bd b643 083d bc46 a5bd a08d 68bd
000000f0: 76f4 293c ee3d f33d a1b1 56bd b5ab b0bc
00000100: 0095 c4bd b28b 523d 88bd e8bd 46ea 22bc
00000110: 914c 483d 6ff0 a9bc f3d8 763d 5feb bf3c
00000120: 208c 24bd 4875 f6bd c7a3 c73d 5dc7 bebd
00000130: 8bae 67bd 3b47 3f3d 72dc 1cbd 1f82 42bd
00000140: c798 193d d3ae c0ba cf89 9b3d dde7 78bd
00000150: 0a6c 013b b7b7 04be 76f8 0dbd bb04 d93d
00000160: 2daf 8e3d 6326 b43c 6471 2d3d f85e 003e
00000170: 4133 2cbd ea86 bc3d 21fb f53d 4d01 42bb
00000180: 4e6e 8b3d bb15 b93c e729 7ebd 5ac7 9cbd
00000190: fdd2 09bd 9f90 b43d f14e 973d 75cd a33d
000001a0: a1c4 80bd b0a7 06be a13d 0dbd 29e5 c3bd
000001b0: 08ed d33d 7ba3 ffbc fe1d 7bbd 4ec5 8dbc
000001c0: f5af 4cbc 34b0 b43c afd5 a23d 142b cdbd
000001d0: af71 143d 56ab 433c 7efa b73d 54b4 6d3c
000001e0: 0bee 0a3d aa20 01be c3b2 a13d 9c1e 843d
000001f0: ed47 ef3d 0326 233d 5e82 5ebc ee05 ea3d
00000200: 6150 69bd e82f 32bd b31e b6bb d7e2 d5bd
00000210: 8e01 ee3d 3ab5 be3d e45c d63d 387c a33d
00000220: e320 833d 8efc 08bc 82e3 163d 4ab1 4d3d
00000230: 437f 21bc def6 0ebd 6b09 debc 17bd dabd
00000240: 322a 853d 0dc3 113e d0a0 7d3d 770a 42bc
00000250: 4bdf 8bbc a646 05be e7e4 16be a065 b1bd
00000260: a216 2cbd c1a7 bebd 11a9 4c3d b449 243e
00000270: 5fe2 7bbd ee83 d83d dc28 d73d 32d3 ba3d
00000280: 1585 c03d 32bd 853d fab4 8c3d b96e 2bbd
00000290: 2bc4 363c 9a00 653d df5e 8fbd 7bd0 e0bd
000002a0: d152 dc3d d90e bfbd a606 a7bd cc75 c93b
000002b0: f2e7 f63c 86cb 3fbd 00d0 5fbd 5d72 b0bd
000002c0: a5c6 2cbd e83f 073e 6874 8a3d 14b5 dabd
000002d0: eedd 9c3d 1034 a63d cfa9 443d 3603 003d
000002e0: 924b cebd 50dd 5dbd b992 e63d 5597 b9bd
000002f0: ed5e 173d c4b2 db3d 56ca e1bd 250a c5bc
00000300: fbd9 af3d 6ddf aa3d 97ce dfbd a53f d4bd
00000310: 67ff 773d 3976 5a3d 0f52 053e 1df5 bb3d
00000320: 8472 083e 918c a43d 5bf7 9bbd 1ca5 e23d
00000330: 8c45 9f3d 25da bcbd 6338 abbd 47cc c73c
00000340: d1c4 ac3d 8291 8c3d 0cf6 1cbd ae3d 0cbe
00000350: 038e c23c 9f70 e8bd 761f 1abc 2896 663c
00000360: 9da2 1d3e efbd df3d 56aa 1b3e eac6 043e
00000370: 0079 0abe ac40 f53d 8826 133e a931 c53d
00000380: 3d4c 133d e7a0 e8bd 5d08 12be 022f 0c3e
00000390: e83c c43b 0ad4 06be fa58 f43d 0731 903d
000003a0: 19ba 7a3d 93d8 0e3d 4de9 f5bd 55e1 bfbc
000003b0: b4ff afbd a50a e7bd a552 4e3d af5d 42bc
000003c0: dcda de3b d9a6 da3c 1dd9 db3d 855a 6f3d
000003d0: d1cd d5bd a088 cf3d 1f31 2c3c c422 df3d
000003e0: d47e b9bd 914e dabd e7a7 e73c a290 3fbd
000003f0: 748d 143d c31b c63b b02f 8dbd 4737 f1bd

a2c_network.mu.bias f4 [24]
0.0155364415 0.003053213 0.022154178 0.034342937 0.033831075 0.0015744306 0.03025879 0.022660457
-0.03086554 0.025633954 0.0069099367 -0.015111662 -0.0023446379 -0.020394763 0.003836545 0.020274807
-0.018237254 -0.038256217 -0.008088203 -0.021039987 0.021327881 0.022771519 -0.0075768977 -0.006460223
00000000: 8f8c 7e3c 6a18 483b ae7c b53c 2eab 0c3d
00000010: 7492 0a3d 205d ce3a 48e1 f73c 6ca2 b93c
00000020: bbd9 fcbc 4cfe d13c c06c e23b e896 77bc
00000030: 7fa8 19bb eb12 a7bc 8b6e 7b3b 5a17 a63c
00000040: 4b66 95bc 8db2 1cbd 6284 04bc 0d5c acbc
00000050: cfb7 ae3c 568b ba3c a047 f8bb 47b0 d3bb

exp_avg f4 [24]
-0.025446923 -0.008534151 -0.0034344483 0.007556702 0.005534246 0.008609069 -0.0098003475 0.01947988
-0.017896814 -0.003866227 -0.023762185 0.0046479716 -0.013458217 0.00742003 -0.0150776785 0.03394185
-0.00075350446 -0.018612852 0.010096366 0.0010037383 0.018324276 -0.002679709 -0.030989187 -0.004814552
00000000: 1176 d0bc d3d2 0bbc 7b14 61bb 369e f73b
00000010: 9f58 b53b 0d0d 0d3c a391 20bc 4594 9f3c
00000020: 579c 92bc 8760 7dbb eaa8 c2bc 034e 983b
00000030: da7f 5cbc b923 f33b 5e08 77bc 9c06 0b3d
00000040: d486 45ba fb79 98bc 3a6b 253c de8f 833a
00000050: cb1c 963c 0f9e 2fbb 09dd fdbc 64c3 9dbb

exp_avg_sq f4 [24]
0.0007167409 0.0007572566 0.00079390296 0.00080603396 0.0007983707 0.00087864994 0.0006899025 0.00072212634
0.00066245144 0.0007662374 0.0007398864 0.00069121487 0.000723274 0.00065646286 0.0006407966 0.00074621005
0.0006937702 0.00080711435 0.00085630594 0.0007153569 0.00072099786 0.0008072674 0.000886671 0.00066862383
00000000: abe3 3b3a a182 463a ed1d 503a 064c 533a
00000010: c049 513a 3355 663a 93da 343a 144d 3d3a
00000020: 5da8 2d3a 52dd 483a f0f4 413a a532 353a
00000030: 199a 3d3a 7a16 2c3a 22fb 273a 4f9d 433a
00000040: 21de 353a 8794 533a b879 603a ca86 3b3a
00000050: 5901 3d3a cc9e 533a 7c6f 683a 9646 2f3a

exp_avg f4 [256, 39]
0.0 2.3236662e-06 2.241199e-06 1.0025191e-06 8.5700486e-07 2.8506659e-06 1.0025191e-06 0.0014720836
0.0011517188 1.0025191e-06 -0.0011536687 -0.0011666834 0.0 1.7881306e-06 0.0 0.0
0.0 0.0 0.0 0.0 -2.214482e-05 3.0291344e-06 3.4895968e-06 0.0
0.0 0.0 0.0 0.0 0.0 0.0 0.0 0.0
0.0 0.0 0.0 0.0 0.0 0.0 2.613583e-07 0.0
1.4650733e-06 1.4130658e-06 6.320481e-07 5.40316e-07 1.7966873e-06 6.320481e-07 0.0009276353 0.0007258206
6.320481e-07 -0.0007270488 -0.00073524885 0.0 1.1273719e-06 0.0 0.0 0.0
0.0 0.0 0.0 -1.3957715e-05 1.9092415e-06 2.2003371e-06 0.0 0.0
0.0 0.0 0.0 0.0 0.0 0.0 0.0 0.0
0.0 0.0 0.0 0.0 0.0 1.6477438e-07 0.0 -3.0123374e-07
-2.9054783e-07 -1.2998508e-07 -1.1111179e-07 -3.6963903e-07 -1.2998508e-07 -0.00019106887 -0.00014945863 -1.2998508e-07
0.00014971173 0.00015140168 0.0 -2.3183438e-07 0.0 0.0 0.0 0.0
0.0 0.0 2.8728718e-06 -3.929728e-07 -4.5231897e-07 0.0 0.0 0.0
0.0 0.0 0.0 0.0 0.0 0.0 0.0 0.0
0.0 0.0 0.0 0.0 -3.388805e-08 0.0 -6.180495e-07 -5.961027e-07
-2.6660655e-07 -2.2792254e-07 -7.580303e-07 -2.6660655e-07 -0.0003910849 -0.00030603082 -2.6660655e-07 0.00030654873
0.00031000483 0.0 -4.7555287e-07 0.0 0.0 0.0 0.0 0.0
0.0 5.8859514e-06 -8.051251e-07 -9.282911e-07 0.0 0.0 0.0 0.0
0.0 0.0 0.0 0.0 0.0 0.0 0.0 0.0
0.0 0.0 0.0 -6.950323e-08 0.0 -1.9827444e-06 -1.912367e-06 -8.554019e-07
-7.312487e-07 -2.4321835e-06 -8.554019e-07 -0.0012557398 -0.0009825017 -8.554019e-07 0.0009841647 0.0009952649
0.0 -1.5257453e-06 0.0 0.0 0.0 0.0 0.0 0.0
1.889252e-05 -2.5842605e-06 -2.9777138e-06 0.0 0.0 0.0 0.0 0.0
0.0 0.0 0.0 0.0 0.0 0.0 0.0 0.0
0.0 0.0 -2.2300337e-07 0.0 2.8528825e-06 2.75161e-06 1.2307698e-06 1.0521381e-06
3.4991426e-06 1.2307698e-06 0.001806384 0.0014133856 1.2307698e-06 -0.0014157764 -0.0014317435 0.0
2.1952944e-06 0.0 0.0 0.0 0.0 0.0 0.0 -2.7179627e-05
3.7178334e-06 4.28462e-06 0.0 0.0 0.0 0.0 0.0 0.0
0.0 0.0 0.0 0.0 0.0 0.0 0.0 0.0
0.0 3.208603e-07 0.0 2.4208623e-07 2.3349125e-07 1.04439394e-07 8.927888e-08 2.968127e-07
1.04439394e-07 0.00015324219 0.00011990788 1.04439394e-07 -0.000120110824 -0.00012146524 0.0 1.8628843e-07
0.0 0.0 0.0 0.0 0.0 0.0 -2.305999e-06 3.1543215e-07
00000000: 0000 0000 48f0 1b36 8167 1636 4b8e 8635
00000010: ed0c 6635 114e 3f36 4b8e 8635 eef2 c03a
00000020: 45f5 963a 4b8e 8635 b336 97ba 66eb 98ba
00000030: 0000 0000 b3ff ef35 0000 0000 0000 0000
00000040: 0000 0000 0000 0000 0000 0000 0000 0000
00000050: a4c3 b9b7 2248 4b36 d12e 6a36 0000 0000
00000060: 0000 0000 0000 0000 0000 0000 0000 0000
00000070: 0000 0000 0000 0000 0000 0000 0000 0000
00000080: 0000 0000 0000 0000 0000 0000 0000 0000
00000090: 0000 0000 0000 0000 d050 8c34 0000 0000
000000a0: 89a3 c435 92a8 bd35 04aa 2935 3c0a 1135
000000b0: b525 f135 04aa 2935 8d2c 733a ff44 3e3a
000000c0: 04aa 2935 6b97 3eba b7bd 40ba 0000 0000
000000d0: 3450 9735 0000 0000 0000 0000 0000 0000
000000e0: 0000 0000 0000 0000 0000 0000 ee2b 6ab7
000000f0: 8520 0036 81a9 1336 0000 0000 0000 0000
00000100: 0000 0000 0000 0000 0000 0000 0000 0000
00000110: 0000 0000 0000 0000 0000 0000 0000 0000
00000120: 0000 0000 0000 0000 0000 0000 0000 0000
00000130: 0000 0000 d6ec 3034 0000 0000 40b9 a1b4
00000140: 97fc 9bb4 0792 0bb4 5a9c eeb3 cd72 c6b4
00000150: 0792 0bb4 a959 48b9 ffb7 1cb9 0792 0bb4
00000160: f0fb 1c39 94c1 1e39 0000 0000 26ee 78b4
00000170: 0000 0000 0000 0000 0000 0000 0000 0000
00000180: 0000 0000 0000 0000 90cb 4036 c5f9 d2b4
00000190: 3fd6 f2b4 0000 0000 0000 0000 0000 0000
000001a0: 0000 0000 0000 0000 0000 0000 0000 0000
000001b0: 0000 0000 0000 0000 0000 0000 0000 0000
000001c0: 0000 0000 0000 0000 0000 0000 0000 0000
000001d0: 4e8c 11b3 0000 0000 0ae8 25b5 de03 20b5
000001e0: 2022 8fb4 dfba 74b4 727b 4bb5 2022 8fb4
000001f0: 870a cdb9 c372 a0b9 2022 8fb4 46b8 a039
00000200: 2588 a239 0000 0000 7d4f ffb4 0000 0000
00000210: 0000 0000 0000 0000 0000 0000 0000 0000
00000220: 0000 0000 f07f c536 c71f 58b5 ae2f 79b5
00000230: 0000 0000 0000 0000 0000 0000 0000 0000
00000240: 0000 0000 0000 0000 0000 0000 0000 0000
00000250: 0000 0000 0000 0000 0000 0000 0000 0000
00000260: 0000 0000 0000 0000 0000 0000 ce41 95b3
00000270: 0000 0000 4a0f 05b6 3756 00b6 c59e 65b5
00000280: 074b 44b5 9838 23b6 c59e 65b5 a397 a4ba
00000290: 49c7 80ba c59e 65b5 16ff 803a 8c73 823a
000002a0: 0000 0000 36c8 ccb5 0000 0000 0000 0000
000002b0: 0000 0000 0000 0000 0000 0000 0000 0000
000002c0: 617b 9e37 426d 2db6 bcd4 47b6 0000 0000
000002d0: 0000 0000 0000 0000 0000 0000 0000 0000
000002e0: 0000 0000 0000 0000 0000 0000 0000 0000
000002f0: 0000 0000 0000 0000 0000 0000 0000 0000
00000300: 0000 0000 0000 0000 b372 6fb4 0000 0000
00000310: 2674 3f36 4da8 3836 ee30 a535 3137 8d35
00000320: d0d2 6a36 ee30 a535 30c4 ec3a 5a41 b93a
00000330: ee30 a535 9391 b9ba 57a9 bbba 0000 0000
00000340: df52 1336 0000 0000 0000 0000 0000 0000
00000350: 0000 0000 0000 0000 0000 0000 ceff e3b7
00000360: e47f 7936 9bc4 8f36 0000 0000 0000 0000
00000370: 0000 0000 0000 0000 0000 0000 0000 0000
00000380: 0000 0000 0000 0000 0000 0000 0000 0000
00000390: 0000 0000 0000 0000 0000 0000 0000 0000
000003a0: 0000 0000 b442 ac34 0000 0000 14f8 8134
000003b0: 96b5 7a34 2a48 e033 95b9 bf33 a059 9f34
000003c0: 2a48 e033 a3af 2039 0e77 fb38 2a48 e033
000003d0: 02e4 fbb8 27bb feb8 0000 0000 9306 4834
000003e0: 0000 0000 0000 0000 0000 0000 0000 0000
000003f0: 0000 0000 0000 0000 c3c0 1ab6 aa58 a934
