runs/lift_30-15-14-24/nn/last_lift_ep_125_rew_-53.59927.pth (torch, 654677 bytes, 36 tensors)

value_mean_std.running_mean f8 [1]
0	0xc0734f853d98bb16	-308.9700294462249

value_mean_std.running_var f8 [1]
0	0x410fdb883547e1a7	260977.02601600924

value_mean_std.count f8 []
0	0x40ff401000000000	128001.0

running_mean_std.running_mean f8 [39]
0	0x0000000000000000	0.0
1	0x3ff7ffe76ca46df2	1.4999765628662058
2	0x3ff4ccb7137ddfc1	1.2999792825121264
3	0x3fdfffdf3b85e7e4	0.4999921876220681
4	0x3fd9997ee9386938	0.39999363685059874
5	0x4007331bde5a3f1f	2.8999554988184992
6	0x3fdfffdf3b85e7e4	0.4999921876220681
7	0x3ff3ad8a0a82b775	1.2298679743357444
8	0x3ffba28b50d626f2	1.727183643119528
9	0x3fdfffdf3b85e7e4	0.4999921876220681
10	0x3fe7ffe768104e33	0.7499882729047783
11	0x3fe7ffe77b9d0d05	0.7499883093190937
12	0x0000000000000000	0.0
13	0x3fefffdf3b85e7e4	0.9999843752441362
14	0x0000000000000000	0.0
15	0x0000000000000000	0.0
16	0x0000000000000000	0.0
17	0x0000000000000000	0.0
18	0x0000000000000000	0.0
19	0x0000000000000000	0.0
20	0x3e74925d9fd85000	7.663570752324727e-08
21	0xbe7bb629405d9940	-1.0323363150224633e-07
22	0x40239ea408d0dc5e	9.809845233436302
23	0x0000000000000000	0.0
24	0x0000000000000000	0.0
25	0x0000000000000000	0.0
26	0x0000000000000000	0.0
27	0x0000000000000000	0.0
28	0x0000000000000000	0.0
29	0x0000000000000000	0.0
30	0x0000000000000000	0.0
31	0x0000000000000000	0.0
32	0x0000000000000000	0.0
33	0x0000000000000000	0.0
34	0x0000000000000000	0.0
35	0x0000000000000000	0.0
36	0x0000000000000000	0.0
37	0x0000000000000000	0.0
38	0x3fbfffdf3b85e7e4	0.12499804690551702

running_mean_std.running_var f8 [39]
0	0x3ef0623d0c0b373b	1.562475586318962e-05
1	0x3f0a9f9053e24c59	5.077990725612579e-05
2	0x3f060931723c266c	4.20301642219512e-05
3	0x3ef47ac81d58b3dd	1.9530883795738106e-05
4	0x3ef3014e45e50681	1.812467632445478e-05
5	0x3f23456814c3b46c	0.0001470269729745595
6	0x3ef47ac81d58b3dd	1.9530883795738106e-05
7	0x3ff6f74d0e940c84	1.4353762216058223
8	0x3ff731ad69e1a528	1.4496282707207886
9	0x3ef47ac81d58b3dd	1.9530883795738106e-05
10	0x3fe009af1ca1a92e	0.5011821326454873
11	0x3fdf2df3176c4f73	0.48717953956042165
12	0x3ef0623d0c0b373b	1.562475586318962e-05
13	0x3f006234a8a094d8	3.12492675933835e-05
14	0x3ef0623d0c0b373b	1.562475586318962e-05
15	0x3ef0623d0c0b373b	1.562475586318962e-05
16	0x3ef0623d0c0b373b	1.562475586318962e-05
17	0x3ef0623d0c0b373b	1.562475586318962e-05
18	0x3ef0623d0c0b373b	1.562475586318962e-05
19	0x3ef0623d0c0b373b	1.562475586318962e-05
20	0x3ff6afeb2bb353f3	1.417948885636403
21	0x3ff569ea8787d6d2	1.338358430305949
22	0x3f58e443d8bb4c9b	0.00151926637311276
23	0x3ef0623d0c0b373b	1.562475586318962e-05
24	0x3ef0623d0c0b373b	1.562475586318962e-05
25	0x3ef0623d0c0b373b	1.562475586318962e-05
26	0x3ef0623d0c0b373b	1.562475586318962e-05
27	0x3ef0623d0c0b373b	1.562475586318962e-05
28	0x3ef0623d0c0b373b	1.562475586318962e-05
29	0x3ef0623d0c0b373b	1.562475586318962e-05
30	0x3ef0623d0c0b373b	1.562475586318962e-05
31	0x3ef0623d0c0b373b	1.562475586318962e-05
32	0x3ef0623d0c0b373b	1.562475586318962e-05
33	0x3ef0623d0c0b373b	1.562475586318962e-05
34	0x3ef0623d0c0b373b	1.562475586318962e-05
35	0x3ef0623d0c0b373b	1.562475586318962e-05
36	0x3ef0623d0c0b373b	1.562475586318962e-05
37	0x3ef0623d0c0b373b	1.562475586318962e-05
38	0x3ef0a3c5bd200f0e	1.586888885897393e-05

running_mean_std.count f8 []
0	0x40ef402000000000	64001.0

a2c_network.sigma f4 [24]
0	0x3c88491c	0.016636424
1	0xbbf99836	-0.007617022
2	0xbcdc5369	-0.026895242
3	0xbcef72b3	-0.029229498
4	0x3ceba10d	0.028763318
5	0xbcd65af5	-0.026166419
6	0xbc3896ea	-0.0112664495
7	0xbc53ac58	-0.012919508
8	0x3c7b1d4b	0.015326808
9	0xbb1588ce	-0.0022817138
10	0xbbbdb2d1	-0.005789139
11	0xbc8b71b2	-0.017021988
12	0xbc796c71	-0.015223608
13	0xbce336a7	-0.027736021
14	0x3ca2e62a	0.019885141
15	0x3bd7bb79	0.006583628
16	0xbc828819	-0.015934037
17	0xbcd1030e	-0.025514152
18	0x3cac2923	0.02101571
19	0x3c86cc6c	0.016454898
20	0x3b428783	0.0029682822
21	0xba988607	-0.0011636623
22	0x3c51fe1e	0.012816934
23	0xbca229db	-0.019795349

a2c_network.actor_mlp.0.weight f4 [256, 39]
0	0xbd4ed938	-0.050500125
1	0x3d7be25d	0.061495174
2	0xbccc6565	-0.024950692
3	0x3db00d57	0.085962944
4	0x3e2569bf	0.1615362
5	0x3de35450	0.11100066
6	0xbd52aa33	-0.051431846
7	0x3d638226	0.05554404
8	0x3c7c6b7b	0.015406485
9	0x3dcc9362	0.099890485
10	0xbe0924c8	-0.13392937
11	0xbe112a8e	-0.1417639
12	0xbd7d6875	-0.061867196
13	0xbdd59f99	-0.104308315
14	0x3e068b76	0.13139138
15	0x3d3cea58	0.046121925
16	0x3d87d694	0.066327244
17	0x3d4f6e51	0.050642315
18	0xbb368e5c	-0.002785585
19	0x3e005343	0.12531762
20	0xbde7c12e	-0.11316143
21	0x3c9ff1d1	0.019524487
22	0xbdba2ab8	-0.09090179
23	0x3d4a3e50	0.049375832
24	0xbd61e009	-0.055145297
25	0x3d48f94b	0.04906587
26	0xbd08a5e5	-0.033361334
27	0x3e07ff14	0.13280898
28	0xbdc25f43	-0.09490826
29	0xbdc3958f	-0.095500104
30	0xbdc39895	-0.09550587
31	0x3e137b94	0.1440261
32	0x3d5a930a	0.053362884
33	0x3e1dc80b	0.15408342
34	0xbe075251	-0.13214995
35	0xbe22a39f	-0.15882729
36	0xbe0048ff	-0.12527846
37	0xbddc9a72	-0.107716456
38	0x3daaedea	0.0834616
39	0x3d6adb46	0.05733802
40	0x3dd4469b	0.103650294
41	0xbde59578	-0.112101495
42	0xbe0d7083	-0.13812451
43	0x3d654ba8	0.055980355
44	0xbdc118df	-0.09428572
45	0x3d8bb7dd	0.068221785
46	0xbd653d36	-0.05596658
47	0x3d4b7409	0.049671207
48	0xbe1d0f0c	-0.15337771
49	0xbdb11c35	-0.08647958
50	0x3cbaf39a	0.022821236
51	0x3d0aa8b5	0.033852298
52	0xbd8f7451	-0.070046075
53	0x3dc379fa	0.095447496
54	0x3ddef034	0.10885659
55	0xbdedd0ac	-0.116120666
56	0xbdaf13fa	-0.08548732
57	0x3e162468	0.14662325
58	0xbd5d511f	-0.05403244
59	0xbd82e535	-0.06391374
60	0xbe1b3cce	-0.15159914
61	0xbdf8c981	-0.12147809
62	0x3d23d7ab	0.0400006
63	0xbcad2508	-0.021135822
64	0xbdee0c80	-0.11623478
65	0x3b762883	0.0037560768
66	0xbde002ec	-0.10938057
67	0xbe0b1cd6	-0.13585219
68	0xbdb495ed	-0.088176586
69	0xbe0f8275	-0.14014609
70	0xbdd0d03d	-0.10195968
71	0x3e23e837	0.16006552
72	0x3cf7c2ae	0.030244198
73	0x3d4a1e07	0.049345043
74	0xbe18eef2	-0.149349
75	0xbdd7624e	-0.10516797
76	0xbd5a50ab	-0.053299587
77	0xbb77909a	-0.0037775398
78	0xbe104822	-0.14090016
79	0xbdbd8b61	-0.092551
80	0xbdf493c1	-0.11942244
81	0xbcbbc207	-0.022919668
82	0xbda9e4c8	-0.0829559
83	0xbd0e3aea	-0.034724154
84	0xbe07093c	-0.13187116
85	0xbe05940b	-0.13044755
86	0xbdfdd6d7	-0.12394493
87	0xbda01a25	-0.07817487
88	0xbe05d54d	-0.13069649
89	0x3dee5dae	0.11638962
90	0xbd022b68	-0.031779677
91	0x3dea1590	0.11429894
92	0x3d4c5cab	0.049893063
93	0xbe0ad9b0	-0.13559604
94	0x3de2f29d	0.11081431
95	0xbd34769d	-0.04405843
96	0xbd7b6af3	-0.06138129
97	0xbe081b90	-0.13291764
98	0xbe22bf9a	-0.15893403
99	0x3d3e46e9	0.046454344
100	0xbd7077a8	-0.058707863
101	0x3d7f59e5	0.06234159
102	0xbe0690b0	-0.13141131
103	0x3df3795a	0.1188838
104	0xbdf0ba35	-0.11754266
105	0xbce281f7	-0.027649863
106	0x3d08fe96	0.033445917
107	0x3da94d06	0.08266644
108	0x3e04602b	0.1292731
109	0x3e155f00	0.14587021
110	0xbe020434	-0.12696916
111	0x3d251094	0.040299013
112	0xbd8d0e7a	-0.06887527
113	0xbc8fc003	-0.017547613
114	0xbdf57630	-0.11985433
115	0x3e155ac7	0.1458541
116	0xbe1034e7	-0.1408268
117	0x3daf44ed	0.085580684
118	0x3da34130	0.07971418
119	0x3d9a92ec	0.075475544
120	0xbd81d01b	-0.06338521
121	0x3e2ccbaa	0.16874567
122	0x3d708313	0.058718752
123	0x3d335981	0.04378653
124	0xbdfe5678	-0.12418836
125	0x3dc6e059	0.0971076
126	0xba5ae072	-0.0008349485
127	0xbd896fcf	-0.06710779
128	0x3e2235b4	0.15840799
129	0x3d123a8f	0.035700377
130	0xbd85a7b4	-0.065261275
131	0xbda5fc04	-0.08104709
132	0xbbfa93fa	-0.0076470347
133	0x3db71c41	0.08940936
134	0xbd2799cc	-0.040918157
135	0xbdbb1da0	-0.0913651
136	0xbd609a65	-0.054834742
137	0xbddc6c7a	-0.10762878
138	0x3d65f095	0.05613764
139	0x3e17250d	0.14760228
140	0xbe1a5e7f	-0.1507511
141	0x3d185468	0.03718987
142	0x3da96991	0.08272088
143	0x3ceddcc5	0.029035935
144	0xbd6993a7	-0.057025578
145	0x3dab2abf	0.083577625
146	0x3dac568c	0.08414945
147	0x3d7540d3	0.059876274
148	0xbce6818b	-0.028137943
149	0xbd2daddd	-0.042402137
150	0x3c8c5597	0.017130656
151	0xbce7bac1	-0.028287293
152	0xbd437453	-0.047718357
153	0x3dd19f81	0.10235501
154	0x3e0ceab3	0.13761406
155	0x3bed9b4a	0.007251178
156	0xbd12d9bf	-0.03585219
157	0xbc8a538c	-0.016885541
158	0xbcebd56e	-0.028788295
159	0x3ca00cb5	0.01953731
160	0x3cd42faf	0.025901644
161	0xbe28b642	-0.16475776
162	0xbd9fd9f7	-0.07805245
163	0x3e0085de	0.12551066
164	0x3d11cff7	0.03559872
165	0xbcdc8f12	-0.02692369
166	0xbdcc3ac7	-0.099721484
167	0xbdf09d28	-0.11748725
168	0xbe12e147	-0.14343749
169	0xbd920a6d	-0.07130895
170	0x3d5d7ebd	0.054075945
171	0x3dd11a6b	0.10210117
172	0x3d976900	0.07393074
173	0xbe10f0ff	-0.14154433
174	0xbdc53658	-0.09629506
175	0xbccf04e4	-0.025270887
176	0x3e102dc1	0.14079954
177	0x3caa7469	0.020807462
178	0xbd798ad1	-0.0609234
179	0x3d87acbf	0.066247456
180	0xbd79d080	-0.060989857
181	0xbdd4433a	-0.10364385
182	0x3def5c6b	0.11687549
183	0xbd951db3	-0.07281055
184	0xbd037bad	-0.03210037
185	0xbe231e89	-0.15929617
186	0x3ddb7b75	0.10716907
187	0x3df875e7	0.12131863
188	0x3d6f093b	0.058358412
189	0xbde4aa72	-0.11165322
190	0xbe21d46a	-0.15803686
191	0xbe052c8a	-0.13005272
192	0x3df48bf8	0.119407594
193	0x3d9d7272	0.07687844
194	0x3ded535c	0.11588165
195	0x3dabcc96	0.08388631
196	0x3cb05c26	0.021528315
197	0xbca8836a	-0.020570476
198	0xbe0fb526	-0.14033946
199	0xbe1f821b	-0.15576975
200	0xbe2cfc77	-0.16893183
201	0x3d4077ee	0.046989374
202	0xbddabd03	-0.106805824
203	0xbd8d81a6	-0.06909494
204	0xbde2bee1	-0.110715635
205	0xbd48bf73	-0.049010705
206	0xbe00ede6	-0.12590751
207	0xbdd64861	-0.10463024
208	0x3d0c7df6	0.034299813
209	0xbd42ed37	-0.047589507
210	0x3dca73fa	0.09885402
211	0xbd5269e3	-0.051370513
212	0xbdf0915d	-0.11746476
213	0xbce7727f	-0.028252838
214	0xbd9ef821	-0.077621706
215	0xbd73391e	-0.059380643
216	0xbe10a441	-0.14125158
217	0x3d8fd03a	0.07022138
218	0xbde450a5	-0.11148194
219	0x3da4d466	0.08048324
220	0x3d94d0ab	0.07266363
221	0x3dea4af6	0.11440079
222	0xbdfb8c86	-0.12282662
223	0x3debdaeb	0.11516365
224	0xbd9b090b	-0.07570084
225	0x3d7360f1	0.059418622
226	0x3e19fcdf	0.15037869
227	0xbcb90057	-0.02258317
228	0xbaa24ff9	-0.0012383453
229	0xbd170137	-0.036866393
230	0xbe08e9d7	-0.13370453
231	0x3d9d616a	0.07684596
232	0xbe22c6f4	-0.15896207
233	0x3da5e014	0.0809938
234	0x3df55ff1	0.1198119
235	0x3e1e68e1	0.15469696
236	0xbd0d5c26	-0.034511708
237	0xbe031105	-0.12799461
238	0x3d220cac	0.039562866
239	0x3dbb9cbb	0.09160753
240	0xbe1f8ae4	-0.15580326
241	0xbd984652	-0.074352875
242	0xbdff76de	-0.12473844
243	0xbc2aea13	-0.010431784
244	0xbdd9a7c8	-0.10627705
245	0xbd7b5c55	-0.06136735
246	0xbd50376b	-0.0508341
247	0xbe185942	-0.14877799
248	0x3e068a25	0.13138635
249	0x3e097652	0.13424042
250	0xbccdc6ad	-0.02511915
251	0xbc956316	-0.018235724
252	0xbd85d700	-0.065351486
253	0xbe141389	-0.14460577
254	0xbe1ecc2e	-0.15507576
255	0x3d8955b7	0.06705802

a2c_network.actor_mlp.0.bias f4 [256]
0	0x3c506a7a	0.0127206985
1	0xbd358c89	-0.044323478
2	0xbcf42de9	-0.029807048
3	0x3d02e071	0.031952325
4	0xbcc94a5c	-0.02457159
5	0xbd03fc05	-0.032222766
6	0xbbb10bf7	-0.0054030376
7	0x3ccb2047	0.024795664
8	0xbc364f5c	-0.011127319
9	0x3d31c230	0.043398082
10	0xbcc39ccf	-0.023878483
11	0x3a7a862f	0.0009556738
12	0xbcb8374d	-0.022487307
13	0x3cab553a	0.020914663
14	0xbd3dbb66	-0.046321295
15	0xbd1bc58c	-0.038030192
16	0x3c98e32f	0.018663017
17	0xbcf42ac9	-0.029805558
18	0x3c42be92	0.011886256
19	0xbcb17b15	-0.021665135
20	0xbc76d849	-0.015066215
21	0x3b701e50	0.0036639161
22	0x3c546200	0.012962818
23	0xbca64254	-0.0202953
24	0xbaf31aed	-0.0018547453
25	0xbc3f2114	-0.011665601
26	0x3cb3d9b9	0.021954404
27	0x3b6b87c9	0.0035939089
28	0x3d22b421	0.039722566
29	0x3c987822	0.018611971
30	0x3ca53053	0.020164644
31	0x3c5ef000	0.013607025
32	0x3d282e31	0.041059677
33	0x3cd02a4a	0.02541079
34	0x3c7dc554	0.015488941
35	0xbd00fc8c	-0.031490847
36	0xbd056f40	-0.0325768
37	0xbd282234	-0.041048244
38	0x3cf159f9	0.029461848
39	0xbc01e234	-0.007927466
40	0xbd0241bc	-0.03180097
41	0xbca12398	-0.019670293
42	0xbd283623	-0.041067254
43	0xbca76b70	-0.020436972
44	0xbd0602d6	-0.03271755
45	0xbc34138e	-0.01099099
46	0xbc7304fb	-0.01483273
47	0xbc8e19ac	-0.017346226
48	0xbd2dd4ab	-0.042439144
49	0xbcd951d7	-0.026528282
50	0xbcec8542	-0.028872136
51	0x3d04c126	0.032410763
52	0x3aae0ee2	0.0013279582
53	0x3d02c697	0.03192767
54	0xbce0a49c	-0.027422242
55	0xbc6be33c	-0.014397439
56	0xbc7944a7	-0.015214122
57	0xbc081308	-0.008305319
58	0xbc527292	-0.0128446985
59	0xbd3c92c8	-0.04603842
60	0xbd22ab26	-0.039714
61	0xbc4f7b96	-0.0126637425
62	0x3c47973a	0.012182051
63	0x3cd61fe9	0.026138263
64	0xbd0ebe2e	-0.03484934
65	0x3d296dda	0.04136453
66	0xbd0dabc4	-0.034587637
67	0xbd144e4a	-0.036207475
68	0xbcff4f11	-0.031165631
69	0x3bc29398	0.0059380047
70	0xbc6c3a08	-0.014418133
71	0xbd14c922	-0.036324628
72	0xbb25d728	-0.0025305245
73	0x3b5e60bd	0.0033932172
74	0x3c847896	0.016170781
75	0xbcb004f7	-0.021486742
76	0x3d27e3dc	0.040988788
77	0x3d295daf	0.04134911
78	0xbd1a9f37	-0.037749495
79	0xbd187286	-0.037218593
80	0xbd1e4f6e	-0.03864997
81	0x3cf2d33e	0.029641744
82	0x3bc4656a	0.005993535
83	0x3d2190af	0.03944462
84	0xbad2865a	-0.0016061768
85	0xbc9f277a	-0.019428004
86	0xbb7e56ca	-0.0038809055
87	0xbd147264	-0.036241904
88	0xbc989e45	-0.018630156
89	0x3bc23490	0.005926676
90	0xbd0de92e	-0.034646206
91	0xbd1202cd	-0.035647202
92	0x3d2c7fdc	0.042114124
93	0x3caea47b	0.021318665
94	0x3d1dd420	0.038532376
95	0xbca16242	-0.019700173
96	0xbd089563	-0.03334559
97	0x3c4562c2	0.0120474715
98	0xbcba5e29	-0.022749977
99	0xbc142e52	-0.009044247
100	0x3d213dfa	0.039365746
101	0x3b86aa9e	0.0041096946
102	0x3caee6d0	0.021350294
103	0x3cc0fcf7	0.023558123
104	0x3c8df2e1	0.017327728
105	0xbcc1e1ce	-0.023667242
106	0x3d01f3f0	0.031726778
107	0xbc8725ab	-0.016497454
108	0xbcc21603	-0.023692137
109	0xbca8e455	-0.02061669
110	0xbd0946f1	-0.03351492
111	0xbd16811c	-0.036744222
112	0xbc99e46e	-0.018785682
113	0x3d023ba4	0.03179516
114	0xbd2e85d3	-0.042608093
115	0x3cf44167	0.029816343
116	0x3d242444	0.040073648
117	0xbcac0065	-0.020996282
118	0xbc70bd50	-0.014693573
119	0xbca684d4	-0.02032701
120	0x3c900a4f	0.01758304
121	0xbcf90771	-0.030399056
122	0xbd0eb20c	-0.034837767
123	0xbca73472	-0.02041075
124	0xbab62edf	-0.0013899467
125	0xbd12864d	-0.03577261
126	0x3c7daa0a	0.015482435
127	0x3d27afca	0.04093913
128	0x3cc05f81	0.02348304
129	0x3c9a81c6	0.018860709
130	0xbcacd9ce	-0.021099951
131	0x3cf6af85	0.030112991
132	0xbcbefa1d	-0.023312623
133	0xbbb68788	-0.005570356
134	0xbb4fd040	-0.003170982
135	0x3cfe930f	0.031075982
136	0xb9ef5ed7	-0.00045656294
137	0xbcab5be6	-0.020917844
138	0xbcfba541	-0.030718448
139	0x3cfb8c7a	0.030706633
140	0xbb9a6758	-0.0047120266
141	0x3d2a42ce	0.041567616
142	0x3d371a83	0.044703018
143	0x3d1b47ed	0.03791039
144	0x3c87343b	0.016504398
145	0x3c9b2cee	0.018942323
146	0xbc4d1b62	-0.012518736
147	0x3bf4eb2a	0.007474323
148	0x3d00923a	0.031389453
149	0x3c235347	0.009968585
150	0x3cda3e6f	0.026641099
151	0x3caf95af	0.02143368
152	0xbb3df4c6	-0.0028985008
153	0xbd18fff1	-0.03735346
154	0x3ca00db5	0.019537786
155	0x3be32cdf	0.0069328393
156	0xbd21dd29	-0.039517555
157	0xbc9a80c8	-0.018860236
158	0xbcda7c3a	-0.026670564
159	0xbd05d286	-0.032671474
160	0xbd161255	-0.036638577
161	0xbb8ba786	-0.0042619137
162	0xbd02e939	-0.0319607
163	0xbc224147	-0.009903259
164	0xbca73124	-0.020409174
165	0x3d455549	0.048177037
166	0x3b9d7720	0.0048054606
167	0xbd08b2f7	-0.0333738
168	0x3c847858	0.016170666
169	0x3c534872	0.01289569
170	0x3d250bbb	0.04029439
171	0x3cdff407	0.027338041
172	0xbc9c3290	-0.019067079
173	0x3caaf524	0.020868845
174	0x3c080a94	0.008303303
175	0xbd2134ff	-0.03935718
176	0x3d21fc75	0.039547402
177	0xbcb12bf0	-0.021627396
178	0xbc63a55e	-0.013894407
179	0xbd1aae8d	-0.03776412
180	0xbd1171fb	-0.03550909
181	0x3d251df1	0.040311757
182	0xbc24cb44	-0.010058228
183	0x3cf5cdf5	0.030005435
184	0x3b285c9e	0.002568997
185	0x3d24d130	0.04023856
186	0xbc94d9b8	-0.018170223
187	0xbd1c971e	-0.038230054
188	0xbc880e4b	-0.016608378
189	0x3c0a666e	0.008447273
190	0x3d23bb5e	0.03997361
191	0xbcb32e44	-0.021872647
192	0x3d3319fa	0.043725945
193	0xbc99ef20	-0.018790781
194	0x3cad8d3d	0.021185512
195	0x3c88b026	0.016685557
196	0x3cf5edc2	0.030020598
197	0xbceb02f9	-0.02868794
198	0xbc7e074e	-0.015504671
199	0xbd1deb77	-0.038554635
200	0x3ce1e465	0.027574727
201	0xbc3f09f7	-0.011660091
202	0x3cfc920c	0.03083136
203	0x3cce6f1c	0.025199465
204	0xbcc4c2d9	-0.024018692
205	0xbceaea4e	-0.028676178
206	0xbcc98a76	-0.024602156
207	0x3cfff967	0.031246854
208	0x3c4d07c4	0.0125140585
209	0xbc60c315	-0.013718386
210	0x3c9248b1	0.017856928
211	0xbcdfabe1	-0.027303638
212	0xbc035d39	-0.0080178315
213	0x3c28796d	0.010282856
214	0x3cf88939	0.03033887
215	0x3d25adca	0.04044894
216	0xbd0efeab	-0.03491084
217	0xbd1a6685	-0.037695426
218	0x3d25e44d	0.040500928
219	0x3d040569	0.032231722
220	0x3c89145b	0.016733339
221	0x3a41d5ec	0.00073942426
222	0x3c45bf90	0.012069598
223	0xbbfb064d	-0.007660663
224	0x3bbaf2f4	0.005705232
225	0xba3387b3	-0.0006848529
226	0xbc34e391	-0.011040584
227	0xbbabe66b	-0.005245974
228	0xbc7804a0	-0.015137821
229	0xbc463b81	-0.012099148
230	0x3c0b6e33	0.00851016
231	0x3b3fa44b	0.0029242213
232	0xbd231d19	-0.03982267
233	0xbc26c71e	-0.010179309
234	0xbbbe47b4	-0.0058068875
235	0x3ccf3095	0.02529172
236	0x3c392203	0.011299613
237	0x3c2afea1	0.010436685
238	0x3cbd34db	0.023096493
239	0xbd1f10ea	-0.03883449
240	0x3c8c379f	0.017116366
241	0xbc4181c8	-0.011810727
242	0x3ccb49c0	0.02481544
243	0x3d282f50	0.041060746
244	0x3ce0c853	0.027439272
245	0x3d1864a4	0.037205353
246	0x3d2d3adf	0.042292472
247	0xbc5c379c	-0.013440993
248	0xbd2f5168	-0.042802244
249	0x3d1d1869	0.038353357
250	0xbc69923e	-0.014256058
251	0x3d13f9fc	0.036127076
252	0x3c8ebebb	0.017424932
253	0x3d2ff001	0.042953495
254	0x3cac326b	0.021020135
255	0xbcf06f55	-0.029349962

a2c_network.actor_mlp.2.weight f4 [128, 256]
0	0x3cab1e79	0.020888554
1	0xbbd51b10	-0.0065034702
2	0x3cbcc921	0.023045124
3	0xbd163ca0	-0.03667891
4	0xbd1e8727	-0.03870311
5	0x3d537497	0.05162486
6	0xbd5c3060	-0.05375707
7	0xbd6d96d8	-0.058005184
8	0xbd6efab3	-0.058344554
9	0xbd656ca9	-0.05601183
10	0xbd392629	-0.045202408
11	0xbd21de75	-0.039518792
12	0x3ca8322f	0.020531742
13	0xbd98d08a	-0.07461651
14	0xbd8a98cf	-0.06767427
15	0xbd032d5a	-0.032025672
16	0xbd8c4384	-0.06848815
17	0x3c8485b0	0.016177028
18	0xbca37f74	-0.019958235
19	0x3d130ce4	0.035900965
20	0x3dac43bf	0.08411359
21	0xbd279cb7	-0.04092094
22	0xbc1ce977	-0.009577147
23	0xbc5f1b63	-0.013617369
24	0x3d131981	0.035912994
25	0x3ced5565	0.028971383
26	0xbcdb2f02	-0.026755814
27	0x3c2ed873	0.010671723
28	0xbd97b1c2	-0.074069515
29	0xbd1e3bd7	-0.038631286
30	0xbd373c73	-0.044735383
31	0xbda8fc16	-0.082512066
32	0xbd43a74d	-0.047766972
33	0xbd06bbba	-0.032893874
34	0xbc8f0b80	-0.017461538
35	0x3cbfaaf2	0.023396943
36	0x3b3779c4	0.0027996162
37	0xbc056934	-0.008142758
38	0xbc822d1a	-0.015890647
39	0x3d93728e	0.07199584
40	0xbcf6e3cd	-0.03013792
41	0x3d24cead	0.040236164
42	0x3d104a0b	0.035226863
43	0xbd17e12b	-0.03707997
44	0x3d37d02e	0.04487627
45	0x3cc27b31	0.023740383
46	0xbd8665c9	-0.06562383
47	0x3da0eeac	0.07858023
48	0x3c84212b	0.016129097
49	0x3d92ef84	0.0717459
50	0xba6b6554	-0.00089796376
51	0xbcec7a41	-0.028866889
52	0x3da94e6d	0.08266912
53	0xbb97dcc8	-0.0046344735
54	0x3d271340	0.040789843
55	0xbc23c2aa	-0.009995142
56	0x3d1e7f29	0.038695488
57	0xbc04e895	-0.0081120925
58	0x3d1076eb	0.03526966
59	0x3ce26f28	0.027640894
60	0xbc2b8978	-0.010469787
61	0x3d7c5d4c	0.061612412
62	0x3cafab26	0.021443915
63	0x3bb7bdf2	0.00560736
64	0x3ce8e7ec	0.028430901
65	0x39f85919	0.0004736863
66	0xbc457c01	-0.012053491
67	0x3d308548	0.043095857
68	0xbd80a06c	-0.06280598
69	0xbd514e54	-0.05110009
70	0x3d139997	0.036035147
71	0xbd168779	-0.03675029
72	0xbcaf0767	-0.021365834
73	0x3d617d36	0.05505105
74	0x3c350a8f	0.011049881
75	0xbcd70034	-0.026245214
76	0x3c953b1d	0.018216664
77	0x3d1bfe1e	0.038084142
78	0xbd1f5543	-0.03889967
79	0x3d558600	0.052129745
80	0xbbf2a3bf	-0.007404774
81	0xbd01b567	-0.03166714
82	0xbcc1dc31	-0.023664566
83	0xbc6b30d0	-0.0143548995
84	0x3ce5d108	0.028053775
85	0xbc32833c	-0.0108955465
86	0xbd8d3f56	-0.06896846
87	0xbbcb00f2	-0.006195181
88	0x3d84e355	0.06488673
89	0xbc8a120c	-0.016854309
90	0x3d8d2541	0.06891871
91	0x3d16fea9	0.036863957
92	0x3d732cb4	0.059368804
93	0xbc941a74	-0.01807902
94	0xbd658026	-0.056030415
95	0xbdb501bb	-0.08838221
96	0x3bbaab52	0.0056966925
97	0xbcf7dff6	-0.03025816
98	0xbb86da67	-0.004115391
99	0x3d325b47	0.04354408
100	0x3d6a2b8a	0.05717043
101	0xbdb6b60c	-0.089214414
102	0xbd1d245c	-0.038364753
103	0xbc40b90a	-0.011762867
104	0xbca3cd5c	-0.019995384
105	0x3d6788d3	0.05652697
106	0xbca385c8	-0.019961253
107	0x3cf70aaf	0.030156462
108	0xbcba4600	-0.022738457
109	0xbbc9e4e3	-0.0061613186
110	0xbcab39f8	-0.020901665
111	0xbc3ede78	-0.01164972
112	0xbcece2f2	-0.02891681
113	0xbd91910d	-0.07107744
114	0xbc036612	-0.008019941
115	0xbc742be5	-0.014903043
116	0xbd448094	-0.047974184
117	0xbc883788	-0.016628042
118	0xbd64a61b	-0.055822473
119	0xbd36f18e	-0.04466396
120	0xbd845ec1	-0.064633854
121	0x3d9880ad	0.07446418
122	0x3a0c0293	0.000534096
123	0x3d05089c	0.032478914
124	0xbd8de7e1	-0.06928993
125	0x3bf86549	0.0075804335
126	0xbd988041	-0.074463375
127	0x3ce89b0b	0.028394243
128	0x3d3cfb27	0.046137955
129	0xbda2cb55	-0.07948939
130	0x3d6a6351	0.05722362
131	0xbb9bd5e1	-0.004755721
132	0xbd52c4a6	-0.05145707
133	0x3b960e09	0.00457931
134	0x3d263410	0.040576994
135	0xbd2ffbf5	-0.042964894
136	0x3d30342c	0.043018505
137	0x3cca6102	0.02470446
138	0x3d04cd3e	0.032422297
139	0xbc8b4779	-0.017001854
140	0x3c8c973f	0.017161964
141	0x3c551a7f	0.013006805
142	0x3d8bd71a	0.06828137
143	0xbd808dd3	-0.06277051
144	0x3ab2bc45	0.0013636431
145	0x3c09738d	0.008389366
146	0xbd11e4aa	-0.03561846
147	0xbc633e17	-0.013869784
148	0x3d3c2bdf	0.045940276
149	0x3cae98ef	0.021313159
150	0x3bac68f6	0.0052615358
151	0xbb71ca9f	-0.0036894453
152	0xbd75434e	-0.05987864
153	0x3d46c5ef	0.048528608
154	0xbd00e835	-0.03147145
155	0xbdc6aedb	-0.0970132
156	0x3cb8cfaf	0.022559969
157	0xbc745de8	-0.014914967
158	0x3cb3b40d	0.02193644
159	0x3d916d6d	0.071009494
160	0x3d811a79	0.063038774
161	0x3cd289bf	0.025700448
162	0xbd2ed1f9	-0.042680714
163	0x39a334bf	0.00031129082
164	0x3d070a54	0.032968834
165	0xbd33f868	-0.04393807
166	0x3d4e8ae8	0.05042544
167	0x3d53b519	0.05168638
168	0xbd8b23ec	-0.06793961
169	0xbc619f91	-0.013770954
170	0xbcec7eb5	-0.028869012
171	0x3caf0a77	0.021367295
172	0x3cf7a986	0.030232202
173	0xbd377ab2	-0.044794746
174	0x3cd93dd8	0.026518747
175	0xbb87a5ca	-0.0041396366
176	0x3d3ab7b3	0.045585345
177	0x3d4dbed4	0.050230816
178	0x3c42020d	0.011841309
179	0xbd7f8a1d	-0.062387574
180	0x3cd65307	0.026162637
181	0xbd2042b7	-0.039126124
182	0x3cd59204	0.026070602
183	0xbc1ebebe	-0.009689031
184	0x3d46c5ac	0.04852836
185	0xbba6d229	-0.005090971
186	0x39a5fd1e	0.0003165984
187	0xbd15f341	-0.036608938
188	0x3cd47727	0.025935723
189	0xbc7058ea	-0.014669636
190	0x3cb21ba5	0.021741698
191	0x3c536cfd	0.012904403
192	0xbd5d996f	-0.054101404
193	0xbd34f178	-0.044175595
194	0x3d246604	0.040136352
195	0xbd3d7d6d	-0.046262193
196	0xbd6f63d7	-0.058444824
197	0x3d82dfbe	0.06390332
198	0xbd040073	-0.03222699
199	0xbcc3dcf6	-0.023909073
200	0xbd9d377a	-0.07676597
201	0x3cd9ab30	0.026570886
202	0xbbf64f72	-0.007516795
203	0x3c794b7f	0.015215754
204	0x3c378c03	0.011202815
205	0x3a741b38	0.0009311917
206	0xbba068a3	-0.004895286
207	0x3d7dcc80	0.061962605
208	0x3c891e21	0.016738
209	0x3c701515	0.014653464
210	0xbdaad8cc	-0.08342132
211	0xbd3c75cb	-0.046010774
212	0x3c3be5b9	0.011468344
213	0x3bd77343	0.0065750196
214	0x3c1a5db2	0.009421753
215	0xbca3e54f	-0.020006804
216	0x3cb2908e	0.021797445
217	0x3d6ec1d5	0.05829032
218	0xbccbef5d	-0.02489441
219	0x3c1c3df6	0.009536257
220	0xbc9202d9	-0.017823623
221	0x3d946858	0.072464645
222	0xbc5a56de	-0.013326375
223	0xbc426a53	-0.01186617
224	0x3d72173b	0.059104186
225	0xbd1de20b	-0.03854565
226	0x3c29053b	0.010316188
227	0xbcd5a8a5	-0.026081393
228	0xbd73b162	-0.059495337
229	0x3d005829	0.031334076
230	0xbbce3366	-0.0062927483
231	0xbdbb0309	-0.09131438
232	0xbd666d5c	-0.056256637
233	0xbbe0fb80	-0.0068659186
234	0x3d092353	0.033480953
235	0x3c9e3585	0.01931263
236	0x3baa9978	0.005206283
237	0x3cffaa0a	0.03120901
238	0xbd8d7432	-0.06906928
239	0x3d1e6ee6	0.03867998
240	0x3bcd4773	0.006264621
241	0xbba156c6	-0.0049236743
242	0x3c765dfe	0.015037058
243	0x3ba0a442	0.0049023936
244	0xbb8a3749	-0.0042180163
245	0x3ce8c479	0.028413998
246	0x3d814766	0.06312446
247	0x3d9301ac	0.07178053
248	0xbc189976	-0.009313932
249	0x3cf1ebcd	0.029531384
250	0x3d109de3	0.035306823
251	0xbce1e82e	-0.027576532
252	0x3d6a01a8	0.057130486
253	0x3c5ee262	0.013603779
254	0x3d7d75d3	0.061879944
255	0xbc4984ac	-0.012299698

a2c_network.actor_mlp.2.bias f4 [128]
0	0xbc896670	-0.016772479
1	0x3d2296c8	0.039694577
2	0x3b1792ef	0.002312835
3	0x3c84b89c	0.01620131
4	0xbd0a96c2	-0.03383518
5	0xbc85bdff	-0.016325949
6	0xbc5c6e33	-0.013454008
7	0x3d242366	0.04007282
8	0xbd252276	-0.040316068
9	0x3c0b2951	0.008493737
10	0x3a5bdad9	0.0008386798
11	0x3d11f441	0.03563333
12	0x3d1350c8	0.03596571
13	0xbcf9d1ed	-0.030495608
14	0x3c9f7e60	0.01946944
15	0x3cd4abee	0.025960889
16	0xbd1a04e5	-0.037602324
17	0xbbca64d1	-0.006176569
18	0x3ce8e545	0.028429637
19	0xbd0822e5	-0.033236403
20	0xbceb7c0f	-0.02874568
21	0x3cf26026	0.029586863
22	0x3d30fed6	0.04321178
23	0x3c5c424b	0.01344354
24	0x3d23eba4	0.040019646
25	0x3c710363	0.01471028
26	0xbce59c1e	-0.028028544
27	0xbc9cc22b	-0.019135555
28	0x3c254e9c	0.010089543
29	0xbd0298be	-0.031883948
30	0xb8d5f959	-0.00010203076
31	0xbd0471a3	-0.032334935
32	0x3d1e8b32	0.038706966
33	0xbd009a62	-0.03139723
34	0xbd16587f	-0.03670549
35	0x3d314592	0.043279238
36	0x3b346c32	0.002753031
37	0xbbd306c6	-0.0064400164
38	0x3a8a32ff	0.0010543762
39	0xbce070c7	-0.027397526
40	0xbd09471d	-0.033515085
41	0xbcd70c1e	-0.026250895
42	0xbce30455	-0.027712027
43	0xbc75042a	-0.014954606
44	0x3d3c86ab	0.046026867
45	0xbd0835fc	-0.03325461
46	0xbd02872d	-0.031867195
47	0x3d09573b	0.033530455
48	0x3c8a7c04	0.016904838
49	0xbd208a0c	-0.03919415
50	0xbcf82a11	-0.030293496
51	0x3cf538ee	0.029934373
52	0x3cf88c65	0.030340383
53	0xbd1065eb	-0.035253447
54	0xbcead505	-0.028666029
55	0xbb0df631	-0.0021661634
56	0x3d4e1801	0.05031586
57	0xbc11a3c1	-0.00888914
58	0xbc88b8ed	-0.016689742
59	0x3c66cacd	0.014086437
60	0x3d032def	0.032026228
61	0x3d0a63d7	0.03378662
62	0x3bb29aa3	0.005450563
63	0x3cfc03e1	0.030763568
64	0x3d3ff9c6	0.046869062
65	0x3d08cae4	0.033396617
66	0x3d3c970a	0.04604248
67	0x3d1a65ac	0.037694618
68	0x3b6b0939	0.0035863651
69	0x3d11e37a	0.03561733
70	0x3d492b0f	0.04911333
71	0x3c5b0622	0.013368161
72	0xbd06085b	-0.032722812
73	0xbbaa4e00	-0.0051972866
74	0xbca9224d	-0.020646239
75	0x3d25e867	0.04050484
76	0x3c363ac8	0.011122413
77	0x3d0133fb	0.031543713
78	0x3d168c47	0.036754873
79	0xbcdbf4e3	-0.02685017
80	0x3d406c02	0.046978004
81	0xbd0de4b4	-0.034641936
82	0xbc5e775f	-0.013578265
83	0x3d3b05a1	0.045659665
84	0xbcfab145	-0.030602107
85	0x3d0081fd	0.031373966
86	0xbd137470	-0.035999715
87	0xbd0a3758	-0.033744186
88	0x3d250795	0.040290434
89	0x3c0a517d	0.00844228
90	0x3bd78cc9	0.006578062
91	0xbcf37e63	-0.029723352
92	0x3d080f3c	0.033217654
93	0x3d3d2d45	0.04618575
94	0x3d36163d	0.0444548
95	0xbd026436	-0.03183385
96	0x3d124394	0.03570898
97	0xbd1073f7	-0.035266843
98	0x3ce1eb42	0.027578
99	0xbc1b9cb4	-0.00949781
100	0xbcf69418	-0.030099913
101	0x3cb45bb9	0.022016393
102	0x3d1960f1	0.037445966
103	0x3c7948e9	0.015215137
104	0x3c68a88c	0.014200341
105	0x3d1a8f81	0.037734512
106	0x3d2309ec	0.039804384
107	0xbd112756	-0.035437904
108	0xbaaa1945	-0.0012977502
109	0xbd076f10	-0.0330649
110	0x3d32d8d1	0.043663803
111	0xbb9c98ee	-0.004778973
112	0xbd14c0ce	-0.036316685
113	0x3bf0a38a	0.007343714
114	0x3c8137eb	0.015773734
115	0x3d16aabf	0.03678393
116	0x3d1d96a3	0.038473736
117	0x3b09ad19	0.0021007715
118	0x3b2f4ace	0.0026747468
119	0xbcefe46b	-0.029283723
120	0xbcf265e2	-0.029589597
121	0xbd0eed52	-0.034894295
122	0x3cd9b21f	0.026574193
123	0xbcceda1f	-0.025250493
124	0xbc2e8074	-0.010650743
125	0xbd35012e	-0.04419058
126	0x3d2e506f	0.042557176
127	0x3b97c067	0.0046310904

a2c_network.actor_mlp.4.weight f4 [64, 128]
0	0x3d06d14d	0.03291445
1	0x3c303cc7	0.010756678
2	0x3c12069c	0.008912709
3	0x3da76743	0.081739925
4	0x3c90925c	0.017647915
5	0xbb4d0503	-0.0031283505
6	0xbcfb30c1	-0.030662896
7	0x3c962723	0.018329209
8	0xbdbc8aad	-0.09206138
9	0x3db21320	0.08695054
10	0xbd906995	-0.07051388
11	0x3dabb3aa	0.083838776
12	0x3dd7a626	0.10529737
13	0x3ca04d5c	0.019568138
14	0x3db69855	0.08915774
15	0xbd14dba2	-0.03634227
16	0xbbed2d46	-0.007238063
17	0x3d440324	0.047854558
18	0xbd457ad6	-0.04821285
19	0xbdd47d93	-0.10375514
20	0x3c23e08a	0.010002265
21	0x3dc9fca3	0.0986264
22	0x3d912e18	0.0708887
23	0x3d0ccebe	0.034376852
24	0x3d5e270e	0.054236464
25	0x3d628cee	0.055310182
26	0xbdbb7941	-0.09153987
27	0xbda11a75	-0.078663744
28	0x3d9ae6e5	0.07563571
29	0xbd840901	-0.0644703
30	0x3bbb748d	0.005720681
31	0xbd6c56d5	-0.057699997
32	0x3d30d5ba	0.043172576
33	0xbb157cad	-0.0022809908
34	0x3d6c559d	0.057698835
35	0x3c192cbd	0.009349045
36	0x3cb2f451	0.021845015
37	0xbd12b6c9	-0.03581885
38	0x3d638325	0.05554499
39	0xbb40d927	-0.0029426308
40	0x3d7eb3a7	0.06218305
41	0xbdb7eca3	-0.08980682
42	0xbd359e2f	-0.04434031
43	0x3d5ba279	0.053621743
44	0xbd65203b	-0.05593894
45	0xbd50c765	-0.050971407
46	0x3c6eacaa	0.0145675335
47	0xbc685a40	-0.0141816735
48	0xbd67fda9	-0.056638394
49	0xbce73d37	-0.028227432
50	0x3d45b9d3	0.04827292
51	0x3d09b8ef	0.033623632
52	0x3b924ff2	0.0044650966
53	0xbdbdd334	-0.092687994
54	0xbd1c9252	-0.03822548
55	0x3cd9ac0f	0.026571302
56	0xbd88e755	-0.06684748
57	0x3dc0a5f9	0.09406657
58	0x3bff0bba	0.0077833803
59	0x3d95dd1a	0.073175624
60	0x3ce78464	0.028261371
61	0xbd6ccdfb	-0.057813626
62	0x3cdc76ac	0.026912056
63	0xbd38bbfe	-0.04510116
64	0x3d153af1	0.036433164
65	0x3c8b3ddf	0.016997276
66	0xbd5a39aa	-0.05327765
67	0x3d25c253	0.040468525
68	0xbd424b27	-0.047434952
69	0x3d95bbcc	0.0731121
70	0xbc14b5ab	-0.009076516
71	0xbd48a70d	-0.048987437
72	0xbdcfa3fa	-0.10138698
73	0xbd5042e4	-0.050845042
74	0x3d664d7a	0.05622623
75	0x3de243b0	0.110480666
76	0x3d2c0e3c	0.042005762
77	0xbd6c7911	-0.057732645
78	0x3d15f019	0.036605928
79	0xbd860d9a	-0.06545563
80	0x3d845f7e	0.06463526
81	0x3d71460f	0.058904704
82	0x3d226ca9	0.039654408
83	0x3cc7b1b7	0.024376733
84	0xbd17291b	-0.036904436
85	0xbc6342e9	-0.013870933
86	0xbd8a9377	-0.06766408
87	0xbd9bf643	-0.0761533
88	0x3d42d45e	0.04756581
89	0x3d90517d	0.07046793
90	0xbca9fb55	-0.020749727
91	0x3d9db700	0.0770092
92	0x3d55370a	0.052054442
93	0xbcb059f7	-0.021527274
94	0x3d9490fa	0.072542146
95	0xbdbc6e92	-0.09200777
96	0x3d0cf6e2	0.034415133
97	0xbd942d66	-0.072352216
98	0x3d65961b	0.056051355
99	0x3b210dd4	0.0024574893
100	0xbc483929	-0.012220659
101	0x3b01bc83	0.00197962
102	0xbd2e4d75	-0.042554338
103	0xbca5ad95	-0.020224372
104	0x3d2b6552	0.041844673
105	0xbc3ad997	-0.0114044165
106	0xbc65c149	-0.014023134
107	0x3d450543	0.04810072
108	0x3c64055d	0.013917294
109	0x3cc028bd	0.023456926
110	0x3d83fbd4	0.06444517
111	0xbd24d740	-0.04024434
112	0xbcd219cd	-0.025647068
113	0xbdbe755a	-0.09299727
114	0x3d57bf8d	0.05267291
115	0x3dacd225	0.084385194
116	0xbd46c954	-0.048531845
117	0x3d475023	0.04866041
118	0xbcdd9b81	-0.02705169
119	0x3ca924e9	0.020647483
120	0x3b2a2c4b	0.0025966342
121	0x3a35fe11	0.0006942461
122	0x3d680086	0.056641124
123	0x3c0e2c8e	0.008677615
124	0xbd5757af	-0.052573856
125	0xbd9a4ef0	-0.075345874
126	0x3db82d42	0.08993007
127	0x3ce0b630	0.027430624
128	0xbb4dbd1f	-0.0031393243
129	0x3cdd447c	0.027010195
130	0xbc79ac75	-0.015238871
131	0xbdcc29a1	-0.099688776
132	0x3d5d67c9	0.054054055
133	0xbd254be3	-0.040355574
134	0xbc368403	-0.0111398725
135	0xbd14c708	-0.036322623
136	0x3d9a27a9	0.07527096
137	0xbd28f237	-0.04124662
138	0x3cc820d6	0.02442972
139	0x3c5ec366	0.013596391
140	0x3d9a2254	0.07526079
141	0x3da83945	0.08214048
142	0x3c89cdfc	0.016821854
143	0xbcab1376	-0.020883303
144	0x3d419593	0.047261786
145	0x3c91098a	0.017704744
146	0xbd73eccc	-0.059552
147	0xbbf5ba5e	-0.0074990233
148	0x3d3c2a38	0.0459387
149	0xbd83ebcf	-0.06441461
150	0xbd1c95d3	-0.03822882
151	0xbd6b0f71	-0.057387773
152	0x3d998f08	0.07497984
153	0xbdb61c39	-0.08892102
154	0xbc29d3aa	-0.010365406
155	0xbd63fd3b	-0.05566142
156	0x3d59dc7f	0.053188797
157	0xbd80d7ce	-0.062911615
158	0x3d360128	0.044434696
159	0xbd5db814	-0.05413063
160	0xbcab46a5	-0.02090771
161	0xbc0bd928	-0.008535661
162	0xbc129b61	-0.008948178
163	0xbd4b6b88	-0.049663097
164	0xbd859f26	-0.06524496
165	0xbd6503e4	-0.055911914
166	0xbd591aa9	-0.05300394
167	0x3d243e67	0.040098574
168	0x3ca7fe63	0.020507043
169	0xbd8365f1	-0.06415928
170	0xbd688fe0	-0.056777835
171	0x3da32e6f	0.07967841
172	0xbd922b58	-0.071371734
173	0x3d56a86b	0.05240671
174	0xbbcaca47	-0.006188664
175	0xbd87db63	-0.066336416
176	0x3cd6a5ae	0.02620205
177	0x3d7936a8	0.06084314
178	0x3d0c34c9	0.034230027
179	0xbc92d1c9	-0.017922299
180	0xbcdad152	-0.02671114
181	0xbc1f5409	-0.009724625
182	0xbd9fb6de	-0.07798551
183	0x3ccd7900	0.025082111
184	0xbd2a6ac0	-0.04160571
185	0x3c50ae1e	0.012736825
186	0xbc12eec7	-0.008968062
187	0x3d584053	0.05279572
188	0xbdac264d	-0.08405743
189	0xbd36eafa	-0.044657685
190	0x3d1807b8	0.037116736
191	0xbccc398a	-0.02492978
192	0x3d91ed1e	0.07125305
193	0xbd69f56b	-0.057118814
194	0x3cebca28	0.028782919
195	0x3d02ac32	0.0319025
196	0x3dd6b89d	0.10484431
197	0x3d82c55e	0.06385301
198	0x3d1247d8	0.035713047
199	0xbacec4de	-0.0015775224
200	0x3c957d31	0.018248172
201	0x3d8f6cda	0.07003184
202	0xbd87ca84	-0.06630424
203	0xbda2e967	-0.07954674
204	0xbb9551e8	-0.004556883
205	0xbd82363c	-0.06358001
206	0x3ca38663	0.019961542
207	0x389e3ef0	7.54575e-05
208	0x3d8160f6	0.06317322
209	0x3d749ee7	0.059721854
210	0xbd933363	-0.071875356
211	0x3dcf00cb	0.10107573
212	0xbd910150	-0.070803285
213	0xbd959446	-0.073036715
214	0xbd00f574	-0.031484082
215	0x3c30f3b9	0.0108002955
216	0xba84b6b7	-0.0010125254
217	0xbce465c7	-0.027880562
218	0xb98babde	-0.00026640197
219	0xbd107e95	-0.035276968
220	0xbcc33770	-0.023830146
221	0x3d2a736c	0.04161398
222	0x3d4c449d	0.049870122
223	0xbccb2256	-0.024796646
224	0x3d2aa0d6	0.04165729
225	0x3d4e482c	0.050361797
226	0x3b866514	0.004101405
227	0xbcd1d79d	-0.025615508
228	0x3d775d43	0.060391676
229	0x3b6ebd15	0.003642862
230	0x3d901e86	0.07037072
231	0x3d84b032	0.06478919
232	0xbdcae4ae	-0.099068984
233	0xbc6f8a36	-0.014620354
234	0xbd5f2fb5	-0.054488856
235	0x3c2793ba	0.010228092
236	0x3d87958c	0.06620321
237	0x3cfe15cc	0.031016253
238	0xbc8148cb	-0.01578178
239	0x3d04c384	0.03241302
240	0x3d542fb1	0.051803295
241	0xbd4e64ab	-0.050388973
242	0x3d54f297	0.051989164
243	0x3bd338a6	0.006445962
244	0x3cdafa37	0.02673064
245	0xbc8e3ce9	-0.017363029
246	0x3d7172dc	0.05894743
247	0x3d064c8b	0.03278784
248	0xbc755fc6	-0.014976447
249	0xba1bae0f	-0.00059387175
250	0xbd8b0faf	-0.06790101
251	0xbdda12a9	-0.106480904
252	0xbc785ed4	-0.015159328
253	0xbd84ba9a	-0.06480904
254	0xbb5b1259	-0.0033427684
255	0x3d89ff70	0.06738174

a2c_network.actor_mlp.4.bias f4 [64]
0	0x3cec3d5d	0.028837854
1	0xbc680b61	-0.014162869
2	0xbcac5755	-0.021037737
3	0xbcd4cd01	-0.02597666
4	0x3c5985e7	0.013276554
5	0xbcd12019	-0.025528
6	0xbc83b6e3	-0.016078418
7	0x3cc3be83	0.023894554
8	0xbcecc5d1	-0.02890292
9	0xbc60e2f0	-0.013725981
10	0xbbb80fea	-0.0056171315
11	0x3cd5b145	0.026085505
12	0xbce77f06	-0.028258812
13	0xbcb09bae	-0.021558609
14	0xbcbd0a5c	-0.023076229
15	0x3c848ff5	0.016181925
16	0xbcdf1329	-0.027230816
17	0x3ceebcab	0.029142698
18	0x3d15206f	0.036407884
19	0xbcc8876c	-0.024478637
20	0x3c97a379	0.018510567
21	0xbc8d241c	-0.017229132
22	0xbc477ab5	-0.012175252
23	0xbcea97f3	-0.028636908
24	0x3bf58c07	0.007493499
25	0xbce6669e	-0.028125104
26	0xbce96057	-0.028488321
27	0x3c5fc5c4	0.013657991
28	0xbbfecc35	-0.007775808
29	0xbce9954f	-0.028513579
30	0x3ca5367e	0.020167585
31	0xbce6c66b	-0.028170785
32	0x3c64eaab	0.013971965
33	0xbcbf9264	-0.023385234
34	0xbc8624e7	-0.016375018
35	0xbcedd02f	-0.029029934
36	0xbcf22908	-0.02956058
37	0xbce228d7	-0.027607365
38	0x3d2d8093	0.042358946
39	0xbcd92b0c	-0.026509784
40	0x3cd37026	0.025810312
41	0xbcdc9d3a	-0.02693044
42	0x3d0c2bf0	0.03422159
43	0xbc708e6a	-0.014682392
44	0x3d1d504c	0.038406655
45	0x3d102840	0.035194635
46	0x3d03ef1b	0.03221045
47	0x3cccccd0	0.025000006
48	0x3d3416a0	0.04396689
49	0xbc66b3fe	-0.014080999
50	0x3c869b50	0.01643148
51	0xbce5fdf7	-0.028075201
52	0xbcedfee7	-0.029052211
53	0x3cf2919a	0.029610444
54	0x3c90b56f	0.01766464
55	0x3bf52f06	0.0074824123
56	0x3d1d20ed	0.03836148
57	0x3ce74618	0.028231665
58	0xbce5a665	-0.028033445
59	0x3d1bac31	0.03800601
60	0xbcdbf1c3	-0.02684868
61	0xbc8d86fa	-0.017276276
62	0xbce900cb	-0.02844276
63	0x3bb938ce	0.0056525236

a2c_network.value.weight f4 [1, 64]
0	0xbd8bd745	-0.06828169
1	0x3d868216	0.06567781
2	0x3dc50688	0.09620386
3	0x3ce50961	0.027958574
4	0x3c24014b	0.010010074
5	0x3da0d2b5	0.07852689
6	0x3d854571	0.065073855
7	0x3beef763	0.0072926744
8	0x3d16b29e	0.036791436
9	0x3dc48581	0.09595776
10	0x3dd08fc9	0.10183675
11	0xbd6a47c8	-0.057197362
12	0x3ca122f0	0.01966998
13	0x3de6e8ae	0.11274849
14	0x3d9b986f	0.07597434
15	0xbdab30d8	-0.083589256
16	0x3df930f2	0.12167539
17	0xbddd9b42	-0.10820629
18	0xbd5db792	-0.054130144
19	0x3d02e9df	0.031961318
20	0xbd647720	-0.05577767
21	0x3d771c04	0.060329452
22	0x3c6e7d50	0.014556244
23	0x3e095d64	0.13414532
24	0xbd15b475	-0.03654905
25	0x3ddbc425	0.10730771
26	0x3c8fb777	0.017543538
27	0xbdf6c0de	-0.12048505
28	0x3dbab95a	0.09117384
29	0x3dd37d50	0.10326636
30	0xbdf46080	-0.119324684
31	0x3ce7bfc2	0.02828968
32	0xbd524ba5	-0.05134167
33	0x3dad165d	0.08451531
34	0x3d8a8f0c	0.06765565
35	0x3d43a52f	0.047764953
36	0x3dfa9762	0.12235905
37	0x3e0321df	0.1280589
38	0xbda49828	-0.08036834
39	0x3dd03bdc	0.10167667
40	0xbcd912a8	-0.026498154
41	0x3e0708ae	0.13186905
42	0xbddbdfad	-0.10736022
43	0xbcd2289a	-0.025654126
44	0xbd9c0de2	-0.076198354
45	0xbe010503	-0.12599568
46	0xbe08eac9	-0.13370813
47	0xbdbec9b7	-0.09315818
48	0xbcf17de9	-0.029478984
49	0x3dc6bafd	0.09703634
50	0xbe103fb2	-0.14086798
51	0x3d93bcc5	0.07213739
52	0x3db5a104	0.08868602
53	0xbd658cc6	-0.056042455
54	0xb907e3f1	-0.00012959518
55	0xbd7fa58f	-0.06241375
56	0xbd1b315b	-0.037888866
57	0xbd89d221	-0.06729532
58	0x3dbaaced	0.09115014
59	0xbd9ea188	-0.077456534
60	0x3dc02345	0.09381727
61	0x3d6743b4	0.05646105
62	0x3df7c2d7	0.120977096
63	0x3cdff9ee	0.027340855

a2c_network.mu.weight f4 [24, 64]
0	0xbdd60143	-0.104494594
1	0xbc2eb5e9	-0.010663488
2	0xbc78a861	-0.015176863
3	0xbd6239e3	-0.055230986
4	0xbdbd86a5	-0.09254197
5	0x3dffd70c	0.12492189
6	0x3bf03e5e	0.0073316535
7	0x3d697b64	0.05700244
8	0x3d12d4ab	0.035847347
9	0x3d891496	0.066933796
10	0xbdd8f7af	-0.10594117
11	0xbc941646	-0.018077027
12	0x3da485a7	0.08033305
13	0x3c2d2ccc	0.010569762
14	0xbd1ce623	-0.038305413
15	0x3b9873b1	0.0046524634
16	0xbdb6376f	-0.08897292
17	0x3d125b2e	0.035731487
18	0x3bf55d6d	0.007487944
19	0xbdb4191c	-0.08793852
20	0x3d62ea25	0.05539908
21	0xbdd80542	-0.10547878
22	0x3d9fd3bb	0.07804056
23	0xbd94c79f	-0.07264637
24	0xbde25496	-0.1105129
25	0x3d07fe69	0.03320161
26	0xb7ce3a2d	-2.4584204e-05
27	0x3dcf9c1c	0.101371974
28	0xbd8179e6	-0.063220784
29	0x3e08cfd6	0.13360533
30	0x3c98b347	0.018640174
31	0x3cf9289a	0.030414868
32	0x3ccf3b68	0.025296882
33	0x3d274e2a	0.040846027
34	0x3d836296	0.06415288
35	0x3d00574f	0.031333264
36	0x3df9693b	0.12178274
37	0xbdc2a245	-0.09503607
38	0xbd883ea3	-0.06652572
39	0xbd003229	-0.031297836
40	0xbdcb758a	-0.09934528
41	0xbda23bc8	-0.079215586
42	0xbdb7766c	-0.08958134
43	0x3d26a34b	0.040683072
44	0xbd807deb	-0.06274017
45	0xbdf03bf1	-0.11730183
46	0x3d3ccb45	0.04609229
47	0x3dcad5e8	0.09904081
48	0x3cede3dc	0.029039316
49	0xbdb83fd1	-0.08996547
50	0x3e008b4e	0.1255314
51	0x3ca8791f	0.020565568
52	0x3badbe88	0.005302254
53	0xb92ef32d	-0.00016684523
54	0x3dc1b0e9	0.09457571
55	0xbd733353	-0.05937512
56	0xbdc349f8	-0.09535593
57	0x3d0e88f7	0.03479859
58	0xbdafa2dc	-0.08575985
59	0xbd7d9cd7	-0.061917152
60	0x3b011808	0.0019698162
61	0x3dd4673d	0.10371254
62	0xbd01f936	-0.031731807
63	0xbc8ccb37	-0.017186744
64	0xbde2ceed	-0.11074624
65	0x3da1520f	0.078769796
66	0xbdc42176	-0.09576695
67	0x3c273db3	0.010207581
68	0x3d039c5f	0.03213155
69	0xbd044aa7	-0.032297757
70	0x3d157dac	0.036496803
71	0x3c3f1feb	0.011665325
72	0xbd94aafc	-0.07259175
73	0xbdc466d0	-0.095899224
74	0x3dd9ec04	0.106407195
75	0xbde49882	-0.11161901
76	0xbd43922d	-0.047746826
77	0x3d8e80c7	0.06958156
78	0xbc874891	-0.016514095
79	0xbce4ea74	-0.027943827
80	0x3ca84e97	0.020545287
81	0xbcc4335c	-0.023950271
82	0x3d513eec	0.051085398
83	0xbd434793	-0.04767568
84	0x3cda1b59	0.026624369
85	0xbde005bb	-0.10938593
86	0xbc67dac1	-0.014151276
87	0x3dcd1d65	0.10015372
88	0x3d5c01df	0.053712722
89	0x3b8dc5a0	0.0043265373
90	0x3cdca595	0.026934424
91	0x3de4c4e6	0.11170368
92	0xbc9622e7	-0.01832719
93	0x3d98e62b	0.07465776
94	0x3dc72c5c	0.09725258
95	0xbce76a63	-0.028248971
96	0x3da22341	0.079168804
97	0x3d4622ed	0.04837315
98	0xbd270a00	-0.04078102
99	0xbdb7c888	-0.08973795
100	0xbc987ce4	-0.01861424
101	0x3ddcca32	0.10780753
102	0x3d6da208	0.058015853
103	0x3dce12b8	0.10062164
104	0xbd96cc35	-0.07363168
105	0xbde3cd63	-0.11123159
106	0xbd0f82ea	-0.03503696
107	0xbe08d546	-0.13362607
108	0x3da12add	0.07869504
109	0xbcfb95ef	-0.030711142
110	0xbda53af4	-0.08067885
111	0xbc2137ee	-0.009839995
112	0xbd0fbf29	-0.035094414
113	0xbb22eaac	-0.0024859114
114	0x3d86324b	0.06552561
115	0xbd96c157	-0.073610954
116	0x3d502f4e	0.050826363
117	0xbadcc7ea	-0.0016844247
118	0x3d8cdbb2	0.06877841
119	0x3c5f80d4	0.013641555
120	0x3d66e560	0.056371093
121	0xbde0ba14	-0.109729916
122	0x3d94df23	0.072691225
123	0x3da4af4c	0.08041248
124	0x3de09d8c	0.1096755
125	0x3cb5df93	0.022201335
126	0x3c0c37fa	0.008558268
127	0x3dd25339	0.1026978
128	0xbdb17632	-0.08665122
129	0xbcd272be	-0.025689479
130	0x3c78fcb3	0.015196967
131	0xbda50bb8	-0.08058876
132	0x3dcfca12	0.10145964
133	0x3d962e6f	0.07333075
134	0x3da836aa	0.08213551
135	0x3d93fa87	0.07225519
136	0x3ce81457	0.028330011
137	0x3cb41e89	0.021987217
138	0x3d8d38a9	0.06895573
139	0x3cebb0c1	0.028770806
140	0xbc908a1d	-0.017643983
141	0xbc5cda59	-0.0134797925
142	0xbbbfc803	-0.0058527007
143	0xbdbcc1ff	-0.09216689
144	0x3d48a716	0.04898747
145	0x3df70639	0.12061734
146	0x3d255976	0.04036852
147	0x3b360751	0.0027775357
148	0xbb6d649e	-0.0036223303
149	0xbdea5764	-0.1144245
150	0xbe02b184	-0.1276303
151	0xbddcb7da	-0.107772544
152	0xbd87c43c	-0.066292256
153	0xbdfb314f	-0.12265264
154	0x3ca6e459	0.020372557
155	0x3e0814e1	0.13289215
156	0xbd21d77e	-0.03951215
157	0x3d9981a5	0.07495431
158	0x3d9fb19a	0.07797547
159	0x3d9e411d	0.07727263
160	0x3d692489	0.05691961
161	0x3da9f147	0.08297973
162	0x3daa3dff	0.08312606
163	0xbd983d8e	-0.074336156
164	0x3c930c05	0.017950067
165	0x3d827f15	0.06371895
166	0xbdaac252	-0.08337845
167	0xbdb8795f	-0.09007525
168	0x3da917fa	0.08256526
169	0xbd93feb7	-0.072263174
170	0xbd7cb4ab	-0.061695736
171	0xbc383a44	-0.01124436
172	0x3c90026d	0.017579282
173	0xbd173a6f	-0.03692096
174	0xbd8fef7d	-0.07028101
175	0xbda7a8cf	-0.081864946
176	0xbd726dc7	-0.059186723
177	0x3de254be	0.110513195
178	0x3d232081	0.03982592
179	0xbdb9a257	-0.09064167
180	0x3dd1c9a7	0.1024354
181	0x3db2d599	0.08732147
182	0x3b9cc88c	0.0047846492
183	0x399d46de	0.00029998174
184	0xbd92a872	-0.07161035
185	0xbcf25a35	-0.02958403
186	0x3db548f3	0.088518046
187	0xbd6e0d7d	-0.058118332
188	0xb9adedc0	-0.0003317427
189	0x3d9013b6	0.070350096
190	0xbdc555e5	-0.09635524
191	0x3c32b9ab	0.0109085245
192	0x3cf0318d	0.029320503
193	0x3e004f55	0.12530263
194	0xbd7f1ea8	-0.062285095
195	0xbd4494b4	-0.047993377
196	0x3c95d161	0.018288316
197	0x3d4bb7af	0.04973572
198	0x3da7a091	0.081849225
199	0x3d2c8c64	0.042126074
200	0x3dddf3e0	0.10837531
201	0x3dd5c511	0.10437978
202	0xbd6f1e64	-0.058378592
203	0x3d5bfe28	0.05370918
204	0x3dbce1e2	0.09222771
205	0xbd425cc7	-0.04745176
206	0xbd1346d2	-0.03595621
207	0x3d613fdd	0.054992545
208	0x3da25375	0.079260744
209	0x3c42b855	0.0118847685
210	0xbdc5f831	-0.096664794
211	0xbdbf3d4d	-0.09337864
212	0x3d0773e5	0.03306951
213	0xbdb4d854	-0.08830324
214	0x3d41c4a8	0.047306687
215	0x3c55bb02	0.013045074
216	0x3e07037c	0.13184923
217	0x3dcf5379	0.10123343
218	0x3e0756ea	0.13216749
219	0x3dd66180	0.104678154
220	0xbde844a7	-0.113412194
221	0x3dd5a9bf	0.10432767
222	0x3dca803a	0.098877385
223	0x3db3ab02	0.087728515
224	0x3c9ed496	0.019388478
225	0xbd9e1a92	-0.07719912
226	0xbdfbb94f	-0.12291204
227	0x3e025bfe	0.12730405
228	0x3d252297	0.04031619
229	0xbdc5d920	-0.09660554
230	0x3d8b09b9	0.06788964
231	0x3df59035	0.11990396
232	0x3b50d195	0.0031863202
233	0x3da8565b	0.08219596
234	0xbe05877b	-0.13039963
235	0xbd1fbef8	-0.03900048
236	0xbe08b3fb	-0.13349907
237	0xbe03a830	-0.12857127
238	0xbb61331f	-0.0034362746
239	0xbcdbcda8	-0.026831463
240	0xbd52c048	-0.051452905
241	0xbce84a3f	-0.028355716
242	0x3dae2d50	0.085047364
243	0x3ddc892c	0.10768351
244	0xbd54a6f9	-0.05191705
245	0x3d808908	0.06276137
246	0xbd70f842	-0.058830507
247	0x3dbec74b	0.09315356
248	0xbda2633a	-0.07929082
249	0xbdce6a35	-0.10078851
250	0x3cc9743a	0.024591554
251	0xbd10092a	-0.03516499
252	0x3ca1face	0.019772913
253	0xbcf791cb	-0.030220887
254	0xbcc198bf	-0.023632405
255	0xbdf5a039	-0.11993451

a2c_network.mu.bias f4 [24]
0	0xbae3cf9c	-0.0017380598
1	0xbba63af1	-0.0050729443
2	0x3c3b7cf6	0.011443367
3	0x3b3f220c	0.002916458
4	0x3d18976e	0.03725379
5	0xbbe5a7b2	-0.007008516
6	0x3cfc6918	0.030811831
7	0x3cf7fe2c	0.030272566
8	0x3b478bec	0.003044839
9	0x3c9a61d4	0.018845476
10	0xbcf5bbb8	-0.029996738
11	0xbcd38f6a	-0.025825221
12	0xbb16a334	-0.002298546
13	0xbca0756d	-0.019587243
14	0x3c60bbb2	0.013716625
15	0xbaf7fc0c	-0.001891972
16	0xbb9dacb7	-0.004811849
17	0x3bb5f7b0	0.0055532083
18	0x3c2a31b4	0.010387827
19	0x3c052402	0.008126261
20	0x3d02ac9a	0.031902887
21	0x3caf17d8	0.021373674
22	0x3bf3514d	0.0074254633
23	0x3c24e8e5	0.010065292

exp_avg f4 [24]
0	0x3c836219	0.016037988
1	0x3c723f75	0.014785637
2	0x39979acb	0.00028916294
3	0x3c6a24b7	0.01429098
4	0x3be6173a	0.007021812
5	0xbc13167f	-0.008977531
6	0xbbbe5a74	-0.0058091227
7	0x3b9470b7	0.004530038
8	0xbb2ccd44	-0.0026367465
9	0xbba05c3c	-0.0048938077
10	0x3b8cbb57	0.0042947936
11	0xbc18600c	-0.009300243
12	0x3c2775af	0.010220929
13	0xbbab263d	-0.005223064
14	0x3c01db8d	0.00792588
15	0x3b7d5c41	0.0038659724
16	0xbc3bc7d7	-0.01146122
17	0x3c04d036	0.008106282
18	0x3c372394	0.011177916
19	0x3c627928	0.013822831
20	0xbb8ec34f	-0.0043567787
21	0x3c29d505	0.010365729
22	0xbbbdae55	-0.0057886043
23	0xbc5254ad	-0.012837571

exp_avg_sq f4 [24]
0	0x39a0a69e	0.00030641718
1	0x39b4ca98	0.0003448322
2	0x39c7eaa7	0.00038131067
3	0x39b92efc	0.00035320956
4	0x39b5757f	0.00034610552
5	0x39aa96b1	0.000325372
6	0x39c5aa01	0.0003770143
7	0x39c05b14	0.00036688952
8	0x398fcc2b	0.00027427202
9	0x39b193a8	0.00033870083
10	0x39cd41d6	0.000391497
11	0x39c970dc	0.00038421794
12	0x39a5f3f8	0.00031653023
13	0x399d6941	0.00030023794
14	0x39b1332c	0.00033798197
15	0x39901804	0.00027483713
16	0x399cea83	0.00029929364
17	0x39c136db	0.000368527
18	0x39b50a1b	0.0003453054
19	0x39a604ee	0.0003166566
20	0x39bd7638	0.0003613697
21	0x39bf5d70	0.00036499975
22	0x39a89a37	0.00032158356
23	0x39b530e7	0.00034559445
