runs/lift_30-15-14-24/nn/last_lift_ep_100_rew_-28.54398.pth (torch, 654677 bytes, 36 tensors)

value_mean_std.running_mean f8 [1]
0	0xc06a5e959252e3a2	-210.95575824918075

value_mean_std.running_var f8 [1]
0	0x4104e9f62068d2c7	171326.76582493467

value_mean_std.count f8 []
0	0x40f9001000000000	102401.0

running_mean_std.running_mean f8 [39]
0	0x0000000000000000	0.0
1	0x3ff7ffe147d5669a	1.4999707036971928
2	0x3ff4ccb1c0642878	1.2999742045672331
3	0x3fdfffd70a71de25	0.49999023456573105
4	0x3fd999785b8ee6f6	0.3999920744059716
5	0x40073315edf868fe	2.8999441710885767
6	0x3fdfffd70a71de25	0.49999023456573105
7	0x3fe9933833b2287c	0.7992211351095331
8	0x3ff689ec25d76cd6	1.4086724737342613
9	0x3fdfffd70a71de25	0.49999023456573105
10	0x3febde8b71133133	0.8709161003585336
11	0x3fedfcbc5e43ab2e	0.9371015397167406
12	0x0000000000000000	0.0
13	0x3fefffd70a71de25	0.9999804691314621
14	0x0000000000000000	0.0
15	0x0000000000000000	0.0
16	0x0000000000000000	0.0
17	0x0000000000000000	0.0
18	0x0000000000000000	0.0
19	0x0000000000000000	0.0
20	0x3fd3394a883a4765	0.300371773752991
21	0x3f98b830e6cba5b4	0.024140132986678345
22	0x40239e9f030b813c	9.809806914476773
23	0x0000000000000000	0.0
24	0x0000000000000000	0.0
25	0x0000000000000000	0.0
26	0x0000000000000000	0.0
27	0x0000000000000000	0.0
28	0x0000000000000000	0.0
29	0x0000000000000000	0.0
30	0x0000000000000000	0.0
31	0x0000000000000000	0.0
32	0x0000000000000000	0.0
33	0x0000000000000000	0.0
34	0x0000000000000000	0.0
35	0x0000000000000000	0.0
36	0x0000000000000000	0.0
37	0x0000000000000000	0.0
38	0x3fbfffd70a71de25	0.12499755864143276

running_mean_std.running_var f8 [39]
0	0x3ef47ac710ecb71d	1.9530868537723853e-05
1	0x3f10a3b2ff066ff3	6.347446447424448e-05
2	0x3f0b8b725391f09a	5.253737112639982e-05
3	0x3ef99972477ff0ff	2.441349030844839e-05
4	0x3ef7c19aebc3acc3	2.2655744701544045e-05
5	0x3f2816b66c68a8d5	0.00018378235672972831
6	0x3ef99972477ff0ff	2.441349030844839e-05
7	0x3febb68ae191019a	0.86603302055305
8	0x3ff4e059d093f203	1.3047731540274305
9	0x3ef99972477ff0ff	2.441349030844839e-05
10	0x3fe1220d9428da58	0.5354068654767827
11	0x3fdbc453196639d7	0.4338577030220256
12	0x3ef47ac710ecb71d	1.9530868537723853e-05
13	0x3f047ab9f59ccf45	3.906135562062192e-05
14	0x3ef47ac710ecb71d	1.9530868537723853e-05
15	0x3ef47ac710ecb71d	1.9530868537723853e-05
16	0x3ef47ac710ecb71d	1.9530868537723853e-05
17	0x3ef47ac710ecb71d	1.9530868537723853e-05
18	0x3ef47ac710ecb71d	1.9530868537723853e-05
19	0x3ef47ac710ecb71d	1.9530868537723853e-05
20	0x3ff2f9e1f4974688	1.1860065035183727
21	0x3ffa9ad123b72e0a	1.6627971072329069
22	0x3f5f1d44f5b926cf	0.0018990682064149893
23	0x3ef47ac710ecb71d	1.9530868537723853e-05
24	0x3ef47ac710ecb71d	1.9530868537723853e-05
25	0x3ef47ac710ecb71d	1.9530868537723853e-05
26	0x3ef47ac710ecb71d	1.9530868537723853e-05
27	0x3ef47ac710ecb71d	1.9530868537723853e-05
28	0x3ef47ac710ecb71d	1.9530868537723853e-05
29	0x3ef47ac710ecb71d	1.9530868537723853e-05
30	0x3ef47ac710ecb71d	1.9530868537723853e-05
31	0x3ef47ac710ecb71d	1.9530868537723853e-05
32	0x3ef47ac710ecb71d	1.9530868537723853e-05
33	0x3ef47ac710ecb71d	1.9530868537723853e-05
34	0x3ef47ac710ecb71d	1.9530868537723853e-05
35	0x3ef47ac710ecb71d	1.9530868537723853e-05
36	0x3ef47ac710ecb71d	1.9530868537723853e-05
37	0x3ef47ac710ecb71d	1.9530868537723853e-05
38	0x3ef4ccb1c455eac9	1.9836032398394183e-05

running_mean_std.count f8 []
0	0x40e9002000000000	51201.0

a2c_network.sigma f4 [24]
0	0x3c16dc45	0.00920779
1	0xbc8935a3	-0.016749209
2	0xbc3330d8	-0.010936938
3	0xbcdd25f9	-0.026995646
4	0x3c90f662	0.01769561
5	0xbca63730	-0.020289987
6	0xbba95f0d	-0.0051688016
7	0xbc832614	-0.016009368
8	0x3be315f1	0.006930106
9	0x3bcbccbf	0.006219476
10	0x3b1f9969	0.0024352914
11	0xbc961f95	-0.018325606
12	0xbbb9c27e	-0.005668937
13	0xbcf595c5	-0.029978642
14	0x3be24609	0.0069053215
15	0xbbb8069b	-0.005616022
16	0xbc82da20	-0.01597315
17	0xbc969dd5	-0.018385807
18	0x3c6284fc	0.013825651
19	0x3c74635c	0.014916267
20	0xba80595b	-0.0009792255
21	0xbba44df3	-0.005014175
22	0x3c0820a0	0.00830856
23	0xbc1c4326	-0.009537494

a2c_network.actor_mlp.0.weight f4 [256, 39]
0	0xbd4ed938	-0.050500125
1	0x3d7f14cd	0.062275697
2	0xbcc60481	-0.02417207
3	0x3db18711	0.0866834
4	0x3e2626da	0.16225758
5	0x3de4f7dd	0.11180089
6	0xbd4fb6ad	-0.050711323
7	0x3d7b7cdd	0.061398376
8	0x3ca87bb1	0.020566793
9	0x3dce0d1c	0.10061094
10	0xbe06ccb1	-0.13164021
11	0xbe18659a	-0.14882508
12	0xbd7d6875	-0.061867196
13	0xbdd41403	-0.103553794
14	0x3e068b76	0.13139138
15	0x3d3cea58	0.046121925
16	0x3d87d694	0.066327244
17	0x3d4f6e51	0.050642315
18	0xbb368e5c	-0.002785585
19	0x3e005343	0.12531762
20	0xbdfcff7e	-0.12353419
21	0x3c8f38e3	0.01748318
22	0xbdb87903	-0.09007456
23	0x3d4a3e50	0.049375832
24	0xbd61e009	-0.055145297
25	0x3d48f94b	0.04906587
26	0xbd08a5e5	-0.033361334
27	0x3e07ff14	0.13280898
28	0xbdc25f43	-0.09490826
29	0xbdc3958f	-0.095500104
30	0xbdc39895	-0.09550587
31	0x3e137b94	0.1440261
32	0x3d5a930a	0.053362884
33	0x3e1dc80b	0.15408342
34	0xbe075251	-0.13214995
35	0xbe22a39f	-0.15882729
36	0xbe0048ff	-0.12527846
37	0xbddc9a72	-0.107716456
38	0x3dac5da5	0.08416299
39	0x3d6adb46	0.05733802
40	0x3dd8056d	0.1054791
41	0xbde1d5b9	-0.110270925
42	0xbe0bb99e	-0.13645026
43	0x3d6c3096	0.057663523
44	0xbdbd3bb8	-0.09239906
45	0x3d8f25ab	0.069896065
46	0xbd5ac8f9	-0.05341432
47	0x3d568f53	0.05238278
48	0xbe1b5827	-0.15170346
49	0xbdb918fc	-0.090379685
50	0x3ca333ed	0.019922221
51	0x3d0aa8b5	0.033852298
52	0xbd8bd830	-0.06828344
53	0x3dc379fa	0.095447496
54	0x3ddef034	0.10885659
55	0xbdedd0ac	-0.116120666
56	0xbdaf13fa	-0.08548732
57	0x3e162468	0.14662325
58	0xbd5d511f	-0.05403244
59	0xbd826a51	-0.063679345
60	0xbe1af544	-0.15132624
61	0xbdf4c0f3	-0.11950865
62	0x3d23d7ab	0.0400006
63	0xbcad2508	-0.021135822
64	0xbdee0c80	-0.11623478
65	0x3b762883	0.0037560768
66	0xbde002ec	-0.10938057
67	0xbe0b1cd6	-0.13585219
68	0xbdb495ed	-0.088176586
69	0xbe0f8275	-0.14014609
70	0xbdd0d03d	-0.10195968
71	0x3e23e837	0.16006552
72	0x3cf7c2ae	0.030244198
73	0x3d4a1e07	0.049345043
74	0xbe18eef2	-0.149349
75	0xbdd7624e	-0.10516797
76	0xbd5a50ab	-0.053299587
77	0xbb0d0aa1	-0.0021521228
78	0xbe104822	-0.14090016
79	0xbdbbcc06	-0.09169774
80	0xbdf2d38c	-0.118567556
81	0xbcb577b1	-0.0221518
82	0xbda84f91	-0.08218301
83	0xbd0a98db	-0.03383718
84	0xbe063ff7	-0.13110338
85	0xbe059a78	-0.13047206
86	0xbdfd06b8	-0.12354797
87	0xbd9e8790	-0.077407
88	0xbe0a045e	-0.13478228
89	0x3dee8b38	0.116476476
90	0xbd022b68	-0.031779677
91	0x3debc1bf	0.115115635
92	0x3d4c5cab	0.049893063
93	0xbe0ad9b0	-0.13559604
94	0x3de2f29d	0.11081431
95	0xbd34769d	-0.04405843
96	0xbd7b6af3	-0.06138129
97	0xbe081b90	-0.13291764
98	0xbe1f863d	-0.15578552
99	0x3d420d26	0.04737582
100	0xbd6ca2da	-0.057772495
101	0x3d7f59e5	0.06234159
102	0xbe0690b0	-0.13141131
103	0x3df3795a	0.1188838
104	0xbdf0ba35	-0.11754266
105	0xbce281f7	-0.027649863
106	0x3d08fe96	0.033445917
107	0x3da94d06	0.08266644
108	0x3e04602b	0.1292731
109	0x3e155f00	0.14587021
110	0xbe020434	-0.12696916
111	0x3d251094	0.040299013
112	0xbd8d0e7a	-0.06887527
113	0xbc8fc003	-0.017547613
114	0xbdf57630	-0.11985433
115	0x3e155ac7	0.1458541
116	0xbe0f7281	-0.14008524
117	0x3daf44ed	0.085580684
118	0x3da185ad	0.07886825
119	0x3d98d66c	0.07462773
120	0xbd835dbb	-0.06414362
121	0x3e2c0360	0.16798162
122	0x3d6ce78f	0.05783802
123	0x3d303e1d	0.043027986
124	0xbdff7486	-0.12473397
125	0x3dc494e3	0.095987104
126	0xbad0dbd5	-0.0015934656
127	0xbd80fd06	-0.062982604
128	0x3e232886	0.15933427
129	0x3d123a8f	0.035700377
130	0xbd874f95	-0.06606976
131	0xbda5fc04	-0.08104709
132	0xbbfa93fa	-0.0076470347
133	0x3db71c41	0.08940936
134	0xbd2799cc	-0.040918157
135	0xbdbb1da0	-0.0913651
136	0xbd609a65	-0.054834742
137	0xbde282c6	-0.11060099
138	0x3d62c782	0.055366047
139	0x3e163102	0.14667132
140	0xbe1a5e7f	-0.1507511
141	0x3d185468	0.03718987
142	0x3da96991	0.08272088
143	0x3ceddcc5	0.029035935
144	0xbd6993a7	-0.057025578
145	0x3dab2abf	0.083577625
146	0x3dac568c	0.08414945
147	0x3d7540d3	0.059876274
148	0xbce6818b	-0.028137943
149	0xbd2daddd	-0.042402137
150	0x3c8c5597	0.017130656
151	0xbce7bac1	-0.028287293
152	0xbd437453	-0.047718357
153	0x3dd19f81	0.10235501
154	0x3e0ceab3	0.13761406
155	0x3bd5a16a	0.006519486
156	0xbd12d9bf	-0.03585219
157	0xbc7d683d	-0.015466747
158	0xbce02a5c	-0.027363949
159	0x3caaa0ce	0.02082863
160	0x3cded7eb	0.027202567
161	0xbe2734ee	-0.16328785
162	0xbd9d34f3	-0.07676115
163	0x3dfde8a2	0.12397887
164	0x3d116ad1	0.03550226
165	0xbcd1faf9	-0.025632368
166	0xbdd88e92	-0.10574068
167	0xbdedeaeb	-0.11617073
168	0xbe12e147	-0.14343749
169	0xbd8f3e75	-0.069943346
170	0x3d5d7ebd	0.054075945
171	0x3dd11a6b	0.10210117
172	0x3d976900	0.07393074
173	0xbe10f0ff	-0.14154433
174	0xbdc53658	-0.09629506
175	0xbccf04e4	-0.025270887
176	0x3e178026	0.14794978
177	0x3cb7e5e6	0.022448491
178	0xbd733a31	-0.059381668
179	0x3d87acbf	0.066247456
180	0xbd79d080	-0.060989857
181	0xbdd4433a	-0.10364385
182	0x3def5c6b	0.11687549
183	0xbd951db3	-0.07281055
184	0xbd037bad	-0.03210037
185	0xbe231e89	-0.15929617
186	0x3ddb7b75	0.10716907
187	0x3df875e7	0.12131863
188	0x3d6f093b	0.058358412
189	0xbde4aa72	-0.11165322
190	0xbe21d46a	-0.15803686
191	0xbe052c8a	-0.13005272
192	0x3df48bf8	0.119407594
193	0x3d9d7272	0.07687844
194	0x3defe2d7	0.11713188
195	0x3dabcc96	0.08388631
196	0x3cbfe16f	0.023422925
197	0xbc98fb1d	-0.018674428
198	0xbe0de795	-0.13857873
199	0xbe1db296	-0.15400156
200	0xbe2afeb7	-0.16698729
201	0x3d47ae59	0.048750255
202	0xbdd67b98	-0.104727924
203	0xbd88cf77	-0.06680196
204	0xbddf23ae	-0.10895477
205	0xbd58be70	-0.05291599
206	0xbe033dbc	-0.12816519
207	0xbdd64861	-0.10463024
208	0x3d14052d	0.03613775
209	0xbd42ed37	-0.047589507
210	0x3dca73fa	0.09885402
211	0xbd5269e3	-0.051370513
212	0xbdf0915d	-0.11746476
213	0xbce7727f	-0.028252838
214	0xbd9ef821	-0.077621706
215	0xbd71ee9a	-0.05906544
216	0xbe1050b7	-0.1409329
217	0x3d93efe0	0.07223487
218	0xbde450a5	-0.11148194
219	0x3da4d466	0.08048324
220	0x3d94d0ab	0.07266363
221	0x3dea4af6	0.11440079
222	0xbdfb8c86	-0.12282662
223	0x3debdaeb	0.11516365
224	0xbd9b090b	-0.07570084
225	0x3d7360f1	0.059418622
226	0x3e19fcdf	0.15037869
227	0xbcb90057	-0.02258317
228	0xbaa24ff9	-0.0012383453
229	0xbd170137	-0.036866393
230	0xbe08e9d7	-0.13370453
231	0x3d9d616a	0.07684596
232	0xbe22c6f4	-0.15896207
233	0x3da9646f	0.08271109
234	0x3df55ff1	0.1198119
235	0x3e20531b	0.15656702
236	0xbd05b17f	-0.032639977
237	0xbe014a5f	-0.12626027
238	0x3d292ea5	0.04130425
239	0x3dbf8bbc	0.09352824
240	0xbe1dc43e	-0.15406892
241	0xbd948b6d	-0.07253156
242	0xbdfb2bff	-0.12264251
243	0xbc0e801e	-0.008697538
244	0xbde2d22a	-0.11075242
245	0xbd815762	-0.06315495
246	0xbd50376b	-0.0508341
247	0xbe167df9	-0.14696492
248	0x3e068a25	0.13138635
249	0x3e097652	0.13424042
250	0xbccdc6ad	-0.02511915
251	0xbc956316	-0.018235724
252	0xbd85d700	-0.065351486
253	0xbe141389	-0.14460577
254	0xbe1dfc50	-0.15428281
255	0x3d8a8bb2	0.06764926

a2c_network.actor_mlp.0.bias f4 [256]
0	0x3c8a24f6	0.016863327
1	0xbd273496	-0.040821634
2	0xbcea45d2	-0.028597746
3	0x3cf7509c	0.030189805
4	0xbcc5ebba	-0.024160255
5	0xbcf06c10	-0.029348403
6	0xbb381f08	-0.0028094668
7	0x3cd52149	0.026016848
8	0xbbe39e9b	-0.0069463975
9	0x3d26fe9e	0.040770166
10	0xbca9785e	-0.020687278
11	0xbb50e575	-0.0031875048
12	0xbcaa6960	-0.0208022
13	0x3cb42c0f	0.021993665
14	0xbd28a172	-0.04116959
15	0xbd10d04e	-0.035354905
16	0x3c9a8979	0.01886438
17	0xbccd8ad2	-0.025090609
18	0x3c5d3d51	0.0135033885
19	0xbcb4c401	-0.022066118
20	0xbc82bb01	-0.015958311
21	0x3b86ac63	0.0041099056
22	0x3c224603	0.009904387
23	0xbc5897e6	-0.013219809
24	0xb7f7d9ec	-2.9546172e-05
25	0xbc42df83	-0.01189411
26	0x3cb1180c	0.021617912
27	0x3adac4c1	0.0016690717
28	0x3d11c190	0.035584986
29	0x3c832dfe	0.016013142
30	0x3ca9d340	0.020730615
31	0x3c7be4b8	0.015374355
32	0x3d1ee116	0.038788877
33	0x3cc7b95e	0.024380382
34	0x3c81a1cd	0.015824223
35	0xbcf8f687	-0.03039099
36	0xbd012121	-0.031525735
37	0xbd19d387	-0.037555244
38	0x3cdff233	0.02733717
39	0xbc3c2a59	-0.011484706
40	0xbcfe8334	-0.031068422
41	0xbc889c5b	-0.016676119
42	0xbd19d7f8	-0.03755948
43	0xbc89d781	-0.016826393
44	0xbcf9e480	-0.030504465
45	0xbc4fde39	-0.012687259
46	0xbc3fdf83	-0.011711004
47	0xbc8fe19c	-0.017563634
48	0xbd1f8c68	-0.03895226
49	0xbcdc2ee7	-0.026877834
50	0xbce36ec0	-0.02776277
51	0x3cf4df43	0.029891616
52	0xba9b9108	-0.0011868784
53	0x3cf44bce	0.029821303
54	0xbce97afe	-0.02850103
55	0xbc37b983	-0.011213663
56	0xbc60e243	-0.01372582
57	0xbc42978e	-0.011876954
58	0xbc7239c1	-0.014784277
59	0xbd2cfb58	-0.042231888
60	0xbd133984	-0.035943523
61	0xbc3a1859	-0.011358344
62	0x3c00a758	0.007852398
63	0x3cc9d193	0.024636066
64	0xbcef0832	-0.029178713
65	0x3d1d73e2	0.038440593
66	0xbd055c2d	-0.03255861
67	0xbd084e19	-0.033277605
68	0xbccea148	-0.02522339
69	0x3b548321	0.0032426792
70	0xbc248da5	-0.010043536
71	0xbd0bc0d0	-0.034119427
72	0x3b91edad	0.004453382
73	0xba1eb4dd	-0.00060541724
74	0x3c47f158	0.012203537
75	0xbcab4e2d	-0.0209113
76	0x3d1a4875	0.037666757
77	0x3d1fc3a9	0.039004955
78	0xbd1180c3	-0.035523187
79	0xbd0fc394	-0.035098627
80	0xbd12f083	-0.0358739
81	0x3ceb23ea	0.028703649
82	0x3b6653e8	0.0035145227
83	0x3d179ebe	0.037016623
84	0xb93cf42a	-0.00018020035
85	0xbc9ef2d9	-0.019402908
86	0xbb55b470	-0.003260877
87	0xbd031040	-0.03199792
88	0xbc9bbd2c	-0.019011103
89	0x3bdc2bb5	0.0067190775
90	0xbd03327f	-0.03203058
91	0xbd014048	-0.031555444
92	0x3d1d1bbb	0.038356524
93	0x3ca5aea0	0.02022487
94	0x3d0e8d7f	0.03480291
95	0xbc8e9a7a	-0.017407645
96	0xbcfca6eb	-0.030841311
97	0x3bff7617	0.00779606
98	0xbc896696	-0.01677255
99	0xbc55d087	-0.013050205
100	0x3d1327df	0.035926696
101	0x3c01b75a	0.00791725
102	0x3c94a76d	0.018146241
103	0x3cb70dbb	0.022345414
104	0x3c9c06d0	0.019046217
105	0xbcb4386e	-0.021999564
106	0x3d006e22	0.03135503
107	0xbc8848d7	-0.016636295
108	0xbc8208ca	-0.015873332
109	0xbca1611c	-0.019699626
110	0xbcfe1a4a	-0.031018395
111	0xbd0b6bdd	-0.034038413
112	0xbc4e99f8	-0.012609951
113	0x3cf45f7d	0.029830689
114	0xbd212d89	-0.039350066
115	0x3ce03337	0.027368171
116	0x3d1af76a	0.03783361
117	0xbca29fd0	-0.019851595
118	0xbc11929f	-0.008885055
119	0xbc7eaf05	-0.015544658
120	0x3c99285d	0.018696005
121	0xbcf478af	-0.029842703
122	0xbd02a3cc	-0.03189449
123	0xbca9489a	-0.020664502
124	0xb98c4b7f	-0.0002675913
125	0xbd0897d2	-0.033347912
126	0x3c8c017f	0.017090557
127	0x3d1b9564	0.037984267
128	0x3cb99c17	0.022657437
129	0x3c9ee962	0.019398395
130	0xbcb6c4ff	-0.022310732
131	0x3ce8f730	0.02843818
132	0xbc93d8e7	-0.018047763
133	0xbbe43fd3	-0.0069656163
134	0xbb87ba22	-0.004142062
135	0x3cffc4d1	0.031221779
136	0xbb887665	-0.0041645044
137	0xbcb64315	-0.022248784
138	0xbcf19e59	-0.029494451
139	0x3cf59f5e	0.029983219
140	0xbb92b311	-0.004476913
141	0x3d204f89	0.03913835
142	0x3d2245c4	0.039617315
143	0x3d0dd8ee	0.03463071
144	0x3c5045ac	0.012711924
145	0x3c82c739	0.015964137
146	0xbc0d7720	-0.008634359
147	0x3c3fdf6e	0.011710985
148	0x3cf055cd	0.029337788
149	0x3bbbd0e3	0.0057316883
150	0x3cb5c199	0.022187041
151	0x3cb4af3b	0.022056213
152	0xbb4bc33a	-0.0031091706
153	0xbd11aace	-0.035563283
154	0x3c780ab8	0.015139274
155	0x3c1f6b3b	0.009730156
156	0xbd151c97	-0.03640422
157	0xbc6a31a3	-0.014294061
158	0xbccd4e56	-0.025061768
159	0xbced26a5	-0.028949091
160	0xbd0c38c4	-0.034233823
161	0xbc008160	-0.007843345
162	0xbd0285f9	-0.031866048
163	0xbbfe1f3f	-0.0077551897
164	0xbcaaca80	-0.020848513
165	0x3d372507	0.044713046
166	0x3b6b670e	0.003591958
167	0xbd01e416	-0.03171166
168	0x3c996521	0.01872498
169	0x3c34747d	0.011014101
170	0x3d1b3cc7	0.03789976
171	0x3ccd5309	0.025064008
172	0xbc93e24c	-0.018052243
173	0x3cacfbd3	0.021116173
174	0x3bf686fd	0.007523416
175	0xbd16248e	-0.036655955
176	0x3d0f0a9f	0.03492224
177	0xbc9f1854	-0.01942078
178	0xbc851a03	-0.016247755
179	0xbd0cfb31	-0.034419242
180	0xbd04a7bd	-0.03238653
181	0x3d18ce4d	0.03730612
182	0xbc01ad50	-0.007914856
183	0x3cfdcf83	0.030982738
184	0x3b81f741	0.0039662425
185	0x3d1c757b	0.038197976
186	0xbc9c8f7f	-0.019111393
187	0xbd108aaa	-0.03528849
188	0xbc68b306	-0.014202839
189	0x3bf4cfc9	0.007471059
190	0x3d1a61e3	0.03769101
191	0xbc98f19e	-0.0186699
192	0x3d20198f	0.039086875
193	0xbc70e1f2	-0.014702307
194	0x3c8b07b9	0.016971456
195	0x3c7eb49e	0.015545992
196	0x3ce697d0	0.028148562
197	0xbce30559	-0.02771251
198	0xbc7c46c0	-0.0153977275
199	0xbd14c077	-0.03631636
200	0x3cc7e082	0.024399046
201	0xbc0623fd	-0.008187291
202	0x3cef245a	0.029192138
203	0x3ccc1caa	0.024916012
204	0xbc9339b3	-0.01797185
205	0xbcc9fa4b	-0.024655482
206	0xbcc1c1f5	-0.023652056
207	0x3ce5b8af	0.028042166
208	0x3c1d2a78	0.009592645
209	0xbc2f2e3a	-0.010692174
210	0x3c982ed9	0.018577026
211	0xbcdb1870	-0.026745051
212	0xbc39ea6b	-0.0113473935
213	0x3bb8a864	0.005635308
214	0x3cf176ff	0.029475687
215	0x3d12963a	0.0357878
216	0xbd053aca	-0.03252677
217	0xbd0996f0	-0.03359121
218	0x3d1496a1	0.036276463
219	0x3cfdf95b	0.031002691
220	0x3c870493	0.016481673
221	0xbb37d046	-0.0028047725
222	0x3c6e41be	0.014542041
223	0xbbef4f85	-0.0073031806
224	0x3bacd54b	0.00527445
225	0x3b7ce63a	0.0038589374
226	0xbc421176	-0.011844983
227	0xba81a26f	-0.0009890328
228	0xbc4de395	-0.012566467
229	0xbc28677b	-0.010278578
230	0x3ba9835a	0.005173129
231	0x3be44e04	0.006967308
232	0xbd0f09e1	-0.03492153
233	0xbb7e2a00	-0.0038782358
234	0xbc15d3d9	-0.009144747
235	0x3ccad82e	0.024761286
236	0x3c70974e	0.014684511
237	0x3bdbb2ff	0.0067046876
238	0x3cc143dc	0.023591928
239	0xbd13f8a2	-0.036125787
240	0x3c986885	0.018604526
241	0xbc39e658	-0.011346422
242	0x3cabe451	0.020982893
243	0x3d1c3df5	0.038145024
244	0x3cd89cd7	0.026441975
245	0x3d0af538	0.033925265
246	0x3d1f6081	0.038910393
247	0xbc1923c7	-0.009346909
248	0xbd1defea	-0.038558878
249	0x3d178669	0.036993418
250	0xbc2bfc06	-0.010497099
251	0x3d07b592	0.033132143
252	0x3c5f5279	0.013630503
253	0x3d1b3446	0.03789165
254	0x3c87de6a	0.016585547
255	0xbced8307	-0.028993143

a2c_network.actor_mlp.2.weight f4 [128, 256]
0	0x3c6f5955	0.014608701
1	0xbc23703f	-0.009975492
2	0x3cb5d3fb	0.022195807
3	0xbd1d6f1e	-0.038436048
4	0xbd274b3b	-0.04084323
5	0x3d49e8a5	0.049294133
6	0xbd68fd3f	-0.05688214
7	0xbd866384	-0.0656195
8	0xbd54ec08	-0.05198291
9	0xbd6b81fa	-0.057497002
10	0xbd57e1e3	-0.052705657
11	0xbd03f8c4	-0.032219663
12	0x3cc2a1d1	0.0237588
13	0xbda670c2	-0.081269756
14	0xbd91d905	-0.07121471
15	0xbd1c6aa2	-0.03818763
16	0xbd8e5985	-0.06950668
17	0x3c85bef5	0.016326407
18	0xbcdcd835	-0.026958564
19	0x3d199019	0.037490938
20	0x3da0f37f	0.07858943
21	0xbd2c6c2f	-0.04209536
22	0xbc0dc541	-0.008652986
23	0xbc83c4bb	-0.01608502
24	0x3cfc5c90	0.030805856
25	0x3cfccfa8	0.030860737
26	0xbcd08ba3	-0.025457209
27	0x3c33844b	0.010956834
28	0xbd8dd5a7	-0.069255166
29	0xbd29b7db	-0.041435104
30	0xbd50a814	-0.05094154
31	0xbdafaa92	-0.085774556
32	0xbd5745a2	-0.05255664
33	0xbd1fdb42	-0.03902746
34	0xbc3c22dd	-0.011482921
35	0x3cf9070e	0.030398872
36	0x3bcc9f2d	0.006244561
37	0xbc3462df	-0.011009901
38	0xbc229f4d	-0.009925676
39	0x3d89648f	0.06708633
40	0xbd0e331e	-0.034716718
41	0x3d3c3690	0.045950472
42	0x3d070bba	0.032970168
43	0xbd0d018e	-0.03442531
44	0x3d429ee9	0.04751483
45	0x3cdc9074	0.02692435
46	0xbd6bb6a5	-0.05754723
47	0x3d951ad8	0.07280511
48	0x3c51a5f9	0.012795919
49	0x3d9dbdf7	0.077022485
50	0xbb7ee4fa	-0.0038893805
51	0xbcc7445e	-0.024324592
52	0x3d9de778	0.07710165
53	0xbb701c98	-0.0036638137
54	0x3d3dba77	0.046320405
55	0xbc84670a	-0.016162414
56	0x3d1c955c	0.038228378
57	0xbc5003cd	-0.012696219
58	0x3d093c64	0.03350486
59	0x3ced57e8	0.028972581
60	0xbc7da510	-0.0154812485
61	0x3d85fe9c	0.065427035
62	0x3ce7e134	0.028305627
63	0x3bf5f073	0.0075054704
64	0x3cb982e5	0.022645423
65	0x3b9da687	0.0048111114
66	0xbbe33580	-0.006933868
67	0x3d250a66	0.04029312
68	0xbd8b8930	-0.06813276
69	0xbd4d5304	-0.050127998
70	0x3d18048a	0.037113704
71	0xbcfc9a73	-0.030835366
72	0xbce47c0b	-0.02789118
73	0x3d404641	0.046942
74	0x3c745ec4	0.014915172
75	0xbcd2796c	-0.025692664
76	0x3c4a847d	0.012360689
77	0x3d0b4780	0.034003735
78	0xbd135775	-0.035972077
79	0x3d3bc0b6	0.04583808
80	0xbb90406b	-0.0044022105
81	0xbd10c2ab	-0.0353419
82	0xbce35e11	-0.027754815
83	0xbc978d87	-0.018500103
84	0x3cff7fd3	0.031188881
85	0xbbc266bf	-0.0059326584
86	0xbd91d63e	-0.071209416
87	0xbc061421	-0.00818351
88	0x3d85798b	0.06517323
89	0xbc88b907	-0.01668979
90	0x3d9815f3	0.074260615
91	0x3d1fe083	0.03903247
92	0x3d766a5a	0.06016002
93	0xbc3ec1e0	-0.011642903
94	0xbd4a086c	-0.049324438
95	0xbdad01cb	-0.084476076
96	0xbaafab38	-0.0013402468
97	0xbcf2e396	-0.029649537
98	0xbbf228ae	-0.0073901033
99	0x3d23b0c6	0.039963506
100	0x3d5ceded	0.05393784
101	0xbdc1be29	-0.09460098
102	0xbd107e0d	-0.03527646
103	0xbc52e1aa	-0.012871185
104	0xbc5e7e38	-0.013579898
105	0x3d70f864	0.058830634
106	0xbcd1d9e9	-0.025616603
107	0x3d10bb86	0.035335086
108	0xbcc791d8	-0.024361536
109	0xbbc59938	-0.006030228
110	0xbc84dbb7	-0.01621805
111	0xbca01eff	-0.01954603
112	0xbd09780f	-0.033561762
113	0xbd903e56	-0.0704314
114	0xbc2e7705	-0.010648494
115	0xbc67d3ab	-0.014149587
116	0xbd400639	-0.046880934
117	0xbc3ed5a5	-0.0116476165
118	0xbd77bcca	-0.060482778
119	0xbd12af28	-0.035811573
120	0xbd8ebd44	-0.06969693
121	0x3d97f7a4	0.074202806
122	0xbb7fa687	-0.003900917
123	0x3d143aea	0.036188997
124	0xbd8ebe54	-0.06969896
125	0x3b924229	0.0044634533
126	0xbda5e4f6	-0.081003115
127	0x3cecdccd	0.02891388
128	0x3d4b0000	0.049560547
129	0xbda36460	-0.079781294
130	0x3d6b8342	0.057498224
131	0xbb6309eb	-0.0034643363
132	0xbd6b9ae1	-0.05752075
133	0x3c1e2eda	0.009654725
134	0x3d2ad31d	0.04170524
135	0xbd4c0ce4	-0.04981698
136	0x3d27641f	0.040866967
137	0x3cc8e281	0.024522068
138	0x3d0c1f95	0.034209806
139	0xbc24b72f	-0.01005344
140	0x3cc644cb	0.024202725
141	0x3c33e5a9	0.010980048
142	0x3d93695e	0.071978316
143	0xbd857bb8	-0.06517738
144	0x3a11a54c	0.0005555942
145	0x3c71aa23	0.014750036
146	0xbd25d6dd	-0.040488113
147	0xbc9cea4d	-0.019154692
148	0x3d2a1eac	0.041533157
149	0x3ce97671	0.02849886
150	0x3b156d65	0.00228008
151	0xbab6e14e	-0.0013952644
152	0xbd7a2e59	-0.061079357
153	0x3d32f5a5	0.043691296
154	0xbcf375ab	-0.029719194
155	0xbdc0d6fe	-0.094160065
156	0x3cb739a7	0.022366358
157	0xbcb14a9e	-0.021642026
158	0x3cceae8d	0.025229717
159	0x3d856828	0.06514007
160	0x3d6bae28	0.057539135
161	0x3d02854f	0.031865414
162	0xbd27ecbd	-0.040997256
163	0xbb844fd1	-0.004037835
164	0x3d0f3305	0.034960765
165	0xbd37daa8	-0.04488626
166	0x3d41c42e	0.047306232
167	0x3d44e223	0.048067223
168	0xbd8151ed	-0.06314454
169	0xbc894fa9	-0.016761618
170	0xbd051a58	-0.032495826
171	0x3c8a7f65	0.01690645
172	0x3d09e7ff	0.033668514
173	0xbd2fad60	-0.042889953
174	0x3ca31fba	0.01991259
175	0xbc45f8c5	-0.012083237
176	0x3d34a63f	0.044103857
177	0x3d37c0b1	0.0448615
178	0x3c39998d	0.011328113
179	0xbd6ff749	-0.05858544
180	0x3cfd6fea	0.030937154
181	0xbd1fa99c	-0.03898011
182	0x3cfff4b7	0.031244619
183	0xbc537c85	-0.012908106
184	0x3d56186e	0.05226939
185	0xbbcbc2e3	-0.0062183007
186	0x3b483fc3	0.0030555583
187	0xbd2ac311	-0.041689936
188	0x3ca9f8f9	0.020748602
189	0xbc583c9c	-0.013198044
190	0x3c973dd4	0.0184621
191	0x3c6583b7	0.014008454
192	0xbd4a4799	-0.049384687
193	0xbd4f61c6	-0.050630353
194	0x3d142f09	0.03617767
195	0xbd2c974e	-0.042136483
196	0xbd6e66e1	-0.05820358
197	0x3d791e21	0.06081975
198	0xbd0a11fb	-0.033708554
199	0xbce26ddd	-0.027640278
200	0xbd90b15e	-0.0706508
201	0x3ce3b19b	0.02779465
202	0xbc00e1bb	-0.007866318
203	0x3c35c205	0.011093621
204	0x3bd39275	0.006456668
205	0xbb9516ed	-0.004549852
206	0xbbc20bca	-0.0059218155
207	0x3d6c6679	0.057714913
208	0x3c811fc5	0.01576222
209	0x3c9df3a0	0.019281209
210	0xbda6db25	-0.08147267
211	0xbd401565	-0.046895403
212	0x3c2c1263	0.010502431
213	0x3c0057a1	0.007833392
214	0x3b3df1b0	0.0028983168
215	0xbc8bd075	-0.017067173
216	0x3c81c04a	0.01583876
217	0x3d55fafb	0.052241307
218	0xbcafb198	-0.021446988
219	0x3c091d08	0.008368738
220	0xbcb3b7ce	-0.02193823
221	0x3d946041	0.072449215
222	0xbc2615a4	-0.010136995
223	0xbc0913dd	-0.008366552
224	0x3d86681a	0.065628245
225	0xbd28ba49	-0.04119328
226	0x3c6c7461	0.014432044
227	0xbd077975	-0.033074815
228	0xbd646a87	-0.055765655
229	0x3d0d84db	0.03455053
230	0xbbf4633d	-0.007458119
231	0xbdc5145d	-0.096230246
232	0xbd55c616	-0.052190863
233	0xbc52e7a4	-0.01287261
234	0x3d13f293	0.03612001
235	0x3c87579d	0.01652127
236	0xbb1687b6	-0.0022969074
237	0x3d117348	0.03551033
238	0xbd8db5d7	-0.06919449
239	0x3d0de963	0.034646403
240	0x3af00a2c	0.0018313578
241	0x3a1f0e15	0.0006067467
242	0x3c94ec11	0.018178971
243	0x3c14b42a	0.009076158
244	0xbb7769c1	-0.0037752243
245	0x3cfdfab9	0.031003343
246	0x3d7b3027	0.06132522
247	0x3d87e44b	0.0663534
248	0xbc1fae76	-0.009746185
249	0x3cc581ca	0.02410974
250	0x3cf7d746	0.030254018
251	0xbce00470	-0.027345866
252	0x3d625386	0.055255435
253	0x3c872bb1	0.016500326
254	0x3d6a8ff0	0.057266176
255	0xbc42ee5b	-0.011897649

a2c_network.actor_mlp.2.bias f4 [128]
0	0xbc8e4a14	-0.017369308
1	0x3d1bd72e	0.03804701
2	0xba167241	-0.0005739071
3	0x3c8f23c4	0.017473109
4	0xbd0225d1	-0.031774346
5	0xbc97e133	-0.01854
6	0xbc784366	-0.015152788
7	0x3d1d1390	0.038348734
8	0xbd134142	-0.035950907
9	0x3c371b5e	0.011175958
10	0x3bba5146	0.005685958
11	0x3d0c634f	0.034274396
12	0x3d0ba3ff	0.034091946
13	0xbcf3995c	-0.029736213
14	0x3c8a038e	0.016847398
15	0x3ce07ca6	0.027403187
16	0xbd11c551	-0.035588566
17	0xbbf7f344	-0.0075668413
18	0x3ce0463c	0.02737724
19	0xbd00d46b	-0.031452578
20	0xbcce94f0	-0.025217503
21	0x3ce5fcad	0.028074587
22	0x3d2630f2	0.04057402
23	0x3c832336	0.016008
24	0x3d16ff55	0.036864597
25	0x3c738936	0.014864257
26	0xbcd5b249	-0.02608599
27	0xbca401d0	-0.020020396
28	0x3c56f5d3	0.0131201325
29	0xbcee972c	-0.029124819
30	0xbb5492a1	-0.003243603
31	0xbcefd413	-0.02927593
32	0x3d197f89	0.037475143
33	0xbcec8763	-0.028873151
34	0xbd0a047d	-0.033695687
35	0x3d28c00e	0.041198783
36	0xba3486bb	-0.00068865315
37	0xbb857a4b	-0.0040734163
38	0x3bae9e14	0.005328903
39	0xbcdebe81	-0.027190449
40	0xbcfd438f	-0.030916004
41	0xbcc87159	-0.02446811
42	0xbcc94293	-0.024567878
43	0xbc8cdb8c	-0.017194532
44	0x3d3169c0	0.04331374
45	0xbce1f695	-0.0275834
46	0xbcf97603	-0.03045178
47	0x3d02f16f	0.03196853
48	0x3c7a98af	0.015295192
49	0xbd193b68	-0.03741017
50	0xbce67bf3	-0.028135275
51	0x3cefa620	0.02925402
52	0x3ce8c86d	0.028415883
53	0xbceded02	-0.029043678
54	0xbcd5e52a	-0.02611025
55	0x3a9217b8	0.0011145985
56	0x3d414448	0.04718426
57	0xbc38227d	-0.011238691
58	0xbc955988	-0.018231168
59	0x3c8dbbe3	0.017301505
60	0x3cf655d6	0.030070227
61	0x3d036c7b	0.032085877
62	0x3beb130d	0.007173902
63	0x3cfeb546	0.031092297
64	0x3d390e8d	0.045179892
65	0x3d04e223	0.032442223
66	0x3d35865b	0.044317584
67	0x3d108d09	0.03529075
68	0x3ab78c0e	0.0014003532
69	0x3d096300	0.03354168
70	0x3d3a86e0	0.045538783
71	0x3c2906fa	0.010316605
72	0xbd01b643	-0.03166796
73	0xbbfb5ba6	-0.0076708375
74	0xbc94a8b3	-0.018146848
75	0x3d19bee1	0.037535552
76	0x3c5a973a	0.013341719
77	0x3ce31f4a	0.02772488
78	0x3d1130a4	0.035446778
79	0xbccddd42	-0.025129918
80	0x3d302c41	0.043010954
81	0xbd037907	-0.032097843
82	0xbc821759	-0.015880274
83	0x3d2aac7b	0.041668396
84	0xbcef4383	-0.029206997
85	0x3d01395d	0.031548847
86	0xbd0bc51f	-0.034123536
87	0xbd02701a	-0.03184519
88	0x3d198662	0.037481673
89	0x3c2f9691	0.01071705
90	0x3c1cbdd9	0.009566748
91	0xbce7158d	-0.028208518
92	0x3d03fd22	0.032223828
93	0x3d2828be	0.04105448
94	0x3d20f934	0.03930016
95	0xbcf8c093	-0.030365264
96	0x3d0c437b	0.034244042
97	0xbd07bb33	-0.03313751
98	0x3cdcc835	0.026950935
99	0xbc5729f3	-0.01313256
100	0xbce13419	-0.027490662
101	0x3cbdb9af	0.02315983
102	0x3d10f1e9	0.035386954
103	0x3c88c0a6	0.016693424
104	0x3c8aa358	0.016923591
105	0x3d165eee	0.036711626
106	0x3d18faf8	0.037348717
107	0xbd0c3661	-0.034231547
108	0xbb8eb23a	-0.0043547424
109	0xbcfe4c37	-0.031042201
110	0x3d2c17ff	0.042015072
111	0xbbe7049b	-0.0070501096
112	0xbd028366	-0.031863593
113	0x3c114974	0.00886761
114	0x3c7f2b31	0.0155742625
115	0x3d09eb34	0.033671573
116	0x3d12842b	0.035770576
117	0x3b9d70c4	0.0048047025
118	0xb971cf65	-0.00023060812
119	0xbcdf7368	-0.02727671
120	0xbce9a656	-0.028521698
121	0xbd08abec	-0.033367082
122	0x3cd8a007	0.026443494
123	0xbcbf99f1	-0.023388835
124	0xbc5302fe	-0.012879131
125	0xbd1d57a6	-0.038413666
126	0x3d25a1ff	0.040437695
127	0x3c0a1fee	0.008430464

a2c_network.actor_mlp.4.weight f4 [64, 128]
0	0x3ce76bab	0.028249582
1	0x3c13d34a	0.009022543
2	0x3bd1aea0	0.0063989908
3	0x3db01508	0.085977614
4	0x3ca0b516	0.019617599
5	0xbbbf45fd	-0.0058372007
6	0xbd0ea288	-0.03482297
7	0x3c88ca67	0.016698075
8	0xbdb85acc	-0.09001693
9	0x3db86eaa	0.090054825
10	0xbd8a60ae	-0.067567214
11	0x3daa53fe	0.083168015
12	0x3dd3cbcd	0.10341606
13	0x3ca77fc5	0.020446667
14	0x3dbd95da	0.092570975
15	0xbd0b5758	-0.034018844
16	0xbbb5c20f	-0.005546815
17	0x3d3d7214	0.04625137
18	0xbd4ab2fe	-0.049487107
19	0xbdd0f0fb	-0.102022134
20	0x3c4c4d24	0.012469564
21	0x3dc8862b	0.097912155
22	0x3d8c7dd2	0.06859936
23	0x3d1b454c	0.037907884
24	0x3d5511c9	0.052018914
25	0x3d709c6f	0.058742937
26	0xbdb8d801	-0.090255745
27	0xbdab397d	-0.083605744
28	0x3da21e77	0.07915967
29	0xbd7ebe6a	-0.06219331
30	0x3b5a7834	0.0033335807
31	0xbd66573a	-0.05623553
32	0x3d2ad525	0.041707177
33	0x368aa597	4.1319977e-06
34	0x3d789732	0.060691066
35	0x3bfe124e	0.007753647
36	0x3c9df37c	0.019281141
37	0xbd054b0d	-0.032542277
38	0x3d7218ca	0.059105672
39	0xbb75d642	-0.003751174
40	0x3d83832d	0.06421504
41	0xbdb5c62c	-0.08875689
42	0xbd2be273	-0.041964006
43	0x3d51f3af	0.051257785
44	0xbd6a9c22	-0.057277806
45	0xbd439878	-0.047752827
46	0x3c862d47	0.016379012
47	0xbc812d20	-0.015768588
48	0xbd59d853	-0.05318482
49	0xbcd86940	-0.026417375
50	0x3d5304a3	0.051518094
51	0x3d03359f	0.03203356
52	0x3b0b9f80	0.0021304786
53	0xbdb8cbb6	-0.0902323
54	0xbd146333	-0.036227416
55	0x3cf48d7c	0.029852621
56	0xbd8cf56f	-0.0688275
57	0x3dbad1fd	0.09122083
58	0x3b625f46	0.003454165
59	0x3d9c1ebd	0.0762305
60	0x3cd7df4d	0.026351595
61	0xbd745d4e	-0.059659295
62	0x3cf71859	0.030162977
63	0xbd3d424b	-0.0462058
64	0x3d0d2109	0.034455333
65	0x3c7dfad0	0.015501693
66	0xbd62c257	-0.05536112
67	0x3d1e349a	0.038624384
68	0xbd4e38ee	-0.05034726
69	0x3d932924	0.07185581
70	0xbc245bfb	-0.0100316955
71	0xbd550a08	-0.05201152
72	0xbdcc91fe	-0.09988783
73	0xbd5a485c	-0.053291664
74	0x3d71f96d	0.05907576
75	0x3ddfe600	0.10932541
76	0x3d3c6b35	0.046000678
77	0xbd760cc8	-0.060070783
78	0x3d0f9cb8	0.035061568
79	0xbd80f7d1	-0.06297267
80	0x3d81c6ad	0.063367225
81	0x3d7a3ba6	0.06109204
82	0x3d16a130	0.036774814
83	0x3cb66ab8	0.022267684
84	0xbd0f439f	-0.034976598
85	0xbc76183b	-0.015020425
86	0xbd87175c	-0.06596252
87	0xbd97dfbd	-0.074157216
88	0x3d3a37e4	0.045463458
89	0x3d96d3ab	0.07364591
90	0xbc8b6739	-0.017016994
91	0x3da21a51	0.07915176
92	0x3d4f9a7c	0.050684437
93	0xbcb8aca1	-0.022543253
94	0x3d9017f2	0.07035817
95	0xbdba4395	-0.090949215
96	0x3d0ad88a	0.033897914
97	0xbd90f400	-0.07077789
98	0x3d610891	0.05493981
99	0x3baa1a33	0.0051911115
100	0xbc251c69	-0.010077574
101	0x3ae947f5	0.0017797934
102	0xbd34174f	-0.04396754
103	0xbc83eb08	-0.016103283
104	0x3d3ae32c	0.045626804
105	0xbc5340a6	-0.012893831
106	0xbc863f8a	-0.01638772
107	0x3d4c95b1	0.049947444
108	0x3c3ddf9a	0.011588955
109	0x3ccf802f	0.025329677
110	0x3d7f6bca	0.062358655
111	0xbd33e91d	-0.043923486
112	0xbcbe3d37	-0.023222549
113	0xbdb779b7	-0.08958762
114	0x3d4b437f	0.049624916
115	0x3da9fc04	0.08300021
116	0xbd4ea781	-0.050452713
117	0x3d53fcc3	0.051754724
118	0xbcf35579	-0.029703842
119	0x3cb81cd6	0.022474688
120	0x3b8461c4	0.004039975
121	0x3b18ad26	0.0023296564
122	0x3d6548e4	0.055977717
123	0x3c434a2c	0.011919539
124	0xbd666e2d	-0.056257416
125	0xbd94b81b	-0.07261678
126	0x3db5422f	0.08850514
127	0x3cfb4611	0.030673059
128	0xb9fe1f2d	-0.00048469883
129	0x3ccb9395	0.024850646
130	0xbc908d93	-0.017645633
131	0xbdcfc6b1	-0.10145319
132	0x3d60d0f8	0.054886788
133	0xbd206843	-0.03916193
134	0xbc34adb9	-0.011027747
135	0xbd1591e5	-0.03651609
136	0x3d9d1e16	0.07671754
137	0xbd4028af	-0.0469138
138	0x3cbde44f	0.023180155
139	0x3c512e22	0.012767347
140	0x3d9787a4	0.07398918
141	0x3dab6fea	0.08370955
142	0x3cb0163a	0.021494973
143	0xbcdb20ac	-0.026748978
144	0x3d404b54	0.04694684
145	0x3cb3461f	0.021884022
146	0xbd7d2686	-0.061804317
147	0xbbd8374a	-0.006598388
148	0x3d48e610	0.04904753
149	0xbd878e95	-0.06618992
150	0xbd1738e6	-0.036919497
151	0xbd6afd33	-0.057370376
152	0x3d99a406	0.07501988
153	0xbdb26675	-0.087109484
154	0xbbe7af12	-0.0070704306
155	0xbd5f0cf2	-0.054455705
156	0x3d5b83f7	0.05359265
157	0xbd79ee0b	-0.06101803
158	0x3d3c8561	0.046025638
159	0xbd595518	-0.053059667
160	0xbcad0119	-0.021118687
161	0xbbe83315	-0.0070861676
162	0xbc13b293	-0.009014743
163	0xbd4df705	-0.050284404
164	0xbd828cce	-0.063745126
165	0xbd619044	-0.055069223
166	0xbd5be486	-0.053684734
167	0x3d3870f2	0.045029588
168	0x3cb6de8b	0.022322914
169	0xbd75005a	-0.05981479
170	0xbd66d90c	-0.056359336
171	0x3dabfd29	0.08397896
172	0xbd93fd2d	-0.07226024
173	0x3d54ff58	0.052001327
174	0xbba7b308	-0.0051177777
175	0xbd8cb20d	-0.06869898
176	0x3d06e8a8	0.032936722
177	0x3d76f76e	0.06029456
178	0x3d0a629b	0.033785444
179	0xbc9cfa57	-0.01916234
180	0xbcde2c1e	-0.027120646
181	0xbc3190be	-0.010837732
182	0xbd9fe902	-0.078081146
183	0x3ccaf355	0.024774233
184	0xbd2a4be4	-0.04157628
185	0x3c59c33a	0.013291175
186	0xbc05be9f	-0.008163123
187	0x3d3b3335	0.04570313
188	0xbdab9835	-0.083786406
189	0xbd3b04ec	-0.04565899
190	0x3d167bd0	0.03673917
191	0xbcdce736	-0.026965719
192	0x3d8ee1f1	0.06976689
193	0xbd7411b2	-0.059587188
194	0x3cdd1957	0.026989622
195	0x3d00a6dc	0.03140913
196	0x3dd831eb	0.10556396
197	0x3d8009db	0.0625188
198	0x3d1be6ef	0.038062032
199	0xbaa6a96b	-0.0012715285
200	0x3caf22c9	0.021378892
201	0x3d909745	0.070601024
202	0xbd8492a4	-0.06473282
203	0xbda4f59a	-0.08054657
204	0xbbc8af4f	-0.006124414
205	0xbd835e38	-0.06414455
206	0x3c9b87ed	0.018985713
207	0xb91a7eb3	-0.00014733784
208	0x3d8217a3	0.063521646
209	0x3d70e99f	0.05881655
210	0xbd8e7d02	-0.06957437
211	0x3dd08642	0.10181858
212	0xbd8f489e	-0.069962725
213	0xbd9e696c	-0.077349514
214	0xbcfa691b	-0.030567696
215	0x3c4e26fb	0.012582536
216	0x3a56bf32	0.00081919425
217	0xbcd9310c	-0.026512645
218	0xbb122958	-0.0022302475
219	0xbd0bc053	-0.03411896
220	0xbccdfff2	-0.025146458
221	0x3d3123c1	0.04324699
222	0x3d506197	0.05087432
223	0xbcbc0ccf	-0.022955326
224	0x3d22b699	0.03972492
225	0x3d51a932	0.051186748
226	0x3a42390f	0.0007409015
227	0xbcaf5cb8	-0.021406516
228	0x3d7ae2b5	0.06125136
229	0xbb00fd38	-0.001968218
230	0x3d8ea5b9	0.06965203
231	0x3d88d01e	0.0668032
232	0xbdced814	-0.100998074
233	0xbc790174	-0.0151981
234	0xbd5975d8	-0.0530909
235	0x3c40b5db	0.011762108
236	0x3d88371c	0.06651136
237	0x3d010e7d	0.031507958
238	0xbc8d77ea	-0.017269094
239	0x3d1909b0	0.037362754
240	0x3d53768e	0.051626734
241	0xbd4803de	-0.048831813
242	0x3d589060	0.05287206
243	0x3c00f8a6	0.007871782
244	0x3cd7afb4	0.026328899
245	0xbc911043	-0.01770795
246	0x3d79e1c3	0.06100632
247	0x3d12ab7b	0.035808068
248	0xbc469a7e	-0.012121795
249	0x3a41394c	0.00073709036
250	0xbd94a817	-0.07258623
251	0xbddaf7be	-0.10691784
252	0xbc564bfc	-0.0130796395
253	0xbd83c7dd	-0.06434605
254	0xbb7d163a	-0.0038617984
255	0x3d89bd7e	0.06725596

a2c_network.actor_mlp.4.bias f4 [64]
0	0x3cd5cb2b	0.026097855
1	0xbc80e2e1	-0.015733184
2	0xbca5f76e	-0.020259585
3	0xbccb0866	-0.024784278
4	0x3c714c04	0.014727596
5	0xbccee941	-0.025257709
6	0xbc82a78f	-0.015949039
7	0x3ca58d3d	0.02020895
8	0xbcddce2b	-0.027075848
9	0xbc7dfab0	-0.015501663
10	0xbbeb1591	-0.007174202
11	0x3ccbbecc	0.024871252
12	0xbcdcf298	-0.026971146
13	0xbcb141ff	-0.021637915
14	0xbcbcc141	-0.02304137
15	0x3c8b2c11	0.016988786
16	0xbcd012a8	-0.025399521
17	0x3cec6f50	0.028861672
18	0x3d14397d	0.036187638
19	0xbcb91c23	-0.022596424
20	0x3c8fa9a5	0.017536948
21	0xbc99278f	-0.01869562
22	0xbc205071	-0.009784804
23	0xbcd3f169	-0.02587195
24	0x3c1b45da	0.009477103
25	0xbcdd5a09	-0.027020471
26	0xbcda4b38	-0.026647195
27	0x3c878370	0.016542166
28	0xbc176e2a	-0.009242574
29	0xbcd7679d	-0.026294524
30	0x3cb1c2a2	0.021699253
31	0xbccd316a	-0.025047977
32	0x3c793e87	0.015212662
33	0xbcb9b974	-0.022671439
34	0xbc9c117f	-0.019051312
35	0xbce512fd	-0.027963156
36	0xbcdc2bba	-0.02687632
37	0xbcce5c7a	-0.02519058
38	0x3d26d3d3	0.040729355
39	0xbcd9da34	-0.026593305
40	0x3ccf708c	0.025322221
41	0xbcd253ba	-0.02567469
42	0x3d0b6fbe	0.034042113
43	0xbc809e9b	-0.015700629
44	0x3d155729	0.036460076
45	0x3d098bfa	0.033580758
46	0x3cffaee0	0.031211317
47	0x3cd106f8	0.025516018
48	0x3d2baa13	0.041910242
49	0xbc83a485	-0.01606966
50	0x3c9c03ba	0.019044746
51	0xbcd87f56	-0.026427906
52	0xbcd6df56	-0.026229542
53	0x3cf1c1eb	0.029511413
54	0x3c882e7c	0.016623728
55	0x3c1883aa	0.009308735
56	0x3d14273e	0.036170237
57	0x3ce5b99f	0.028042613
58	0xbcdbc2fb	-0.026826372
59	0x3d1591f2	0.036516137
60	0xbcd54b3d	-0.026036853
61	0xbc89938e	-0.016793992
62	0xbcdafcae	-0.026731815
63	0x3b9f222a	0.0048563676

a2c_network.value.weight f4 [1, 64]
0	0xbd8d6c81	-0.06905461
1	0x3d9a6ff3	0.07540884
2	0x3dd0aa5f	0.10188746
3	0x3ce9c620	0.028536856
4	0x3c2a26ff	0.010385274
5	0x3da365dc	0.079784125
6	0x3d88714d	0.066622354
7	0x3c07bc22	0.0082846
8	0x3d17a9a5	0.03702702
9	0x3dc7c793	0.09754863
10	0x3dd27234	0.10275689
11	0xbd6c4981	-0.057687286
12	0x3ca57616	0.02019791
13	0x3df93e61	0.12170101
14	0x3da13127	0.07870703
15	0xbda9f1a6	-0.08298044
16	0x3dfb32b9	0.12265534
17	0xbde10fe6	-0.109893605
18	0xbd5dbb18	-0.054133505
19	0x3d033869	0.03203622
20	0xbd79a861	-0.060951594
21	0x3d830099	0.06396598
22	0x3c68482d	0.014177364
23	0x3e0a1e93	0.13488226
24	0xbd153dc5	-0.03643586
25	0x3dddb7ec	0.10826096
26	0x3c959169	0.018257814
27	0xbdfa9f81	-0.12237454
28	0x3dbd291f	0.09236359
29	0x3dd67e30	0.10473287
30	0xbe040c92	-0.1289542
31	0x3cef0bb3	0.029180383
32	0xbd50a011	-0.0509339
33	0x3dbe7c5d	0.09301064
34	0x3d9613d8	0.07328004
35	0x3d45ad33	0.04826088
36	0x3dfe45ec	0.1241568
37	0x3e0447e5	0.1291805
38	0xbda4785b	-0.080307685
39	0x3dd9a1bb	0.10626551
40	0xbce9ada4	-0.028525181
41	0x3e083fa8	0.13305533
42	0xbde0415e	-0.10949968
43	0xbccaed5b	-0.024771383
44	0xbd9d3047	-0.07675224
45	0xbe018c9a	-0.12651291
46	0xbe09b0b0	-0.13446307
47	0xbdc0f0eb	-0.094209515
48	0xbcf3847d	-0.029726261
49	0x3dc9844a	0.09839685
50	0xbe10d7e4	-0.14144856
51	0x3d9a2f28	0.075285256
52	0x3db7b78a	0.08970554
53	0xbd6474c6	-0.055775426
54	0x39343788	0.00017186825
55	0xbd8112f3	-0.063024424
56	0xbd1bd007	-0.038040187
57	0xbd8b6879	-0.06807036
58	0x3dbd4831	0.09242285
59	0xbd9db0d6	-0.076997444
60	0x3dc29491	0.09500993
61	0x3d6fcbfd	0.058544148
62	0x3df92060	0.12164378
63	0x3ce6b48d	0.028162265

a2c_network.mu.weight f4 [24, 64]
0	0xbdd15e58	-0.10223073
1	0xbc55f67e	-0.013059257
2	0xbc8d4f81	-0.017249824
3	0xbd69cd6e	-0.05708068
4	0xbdc2db4c	-0.09514484
5	0x3dfbc275	0.12292949
6	0x3c03f279	0.008053415
7	0x3d6e69ac	0.058206245
8	0x3d0ae606	0.033910774
9	0x3d8a6c11	0.06758893
10	0xbdd6da3a	-0.10490842
11	0xbc8453bf	-0.016153214
12	0x3da0cd42	0.0785165
13	0x3bf0e677	0.0073516923
14	0xbd26c881	-0.04071856
15	0x3b5a744a	0.0033333474
16	0xbdba71d6	-0.09103744
17	0x3d1bb92f	0.0380184
18	0x3c13747a	0.008999938
19	0xbdb901f7	-0.09033578
20	0x3d6fc3ef	0.058536466
21	0xbdd8ed66	-0.10592155
22	0x3d9c6964	0.07637289
23	0xbd98fabe	-0.074697
24	0xbde52d19	-0.11190242
25	0x3cffdc91	0.031233104
26	0xbaedf7f2	-0.0018155559
27	0x3dce884b	0.100845896
28	0xbd8002ae	-0.06250511
29	0x3e06716a	0.13129202
30	0x3cb67188	0.022270933
31	0x3ce90d76	0.028448801
32	0x3cc24928	0.023716524
33	0x3d1a65a2	0.03769458
34	0x3d8121f9	0.06305308
35	0x3cf1d3b5	0.029519895
36	0x3df46c4e	0.1193472
37	0xbdc7104c	-0.09719905
38	0xbd850b30	-0.064962745
39	0xbd0be107	-0.03415015
40	0xbdc642ad	-0.09680686
41	0xbda6d3fb	-0.08145901
42	0xbdb275cd	-0.08713875
43	0x3d1f0c14	0.038829878
44	0xbd78d622	-0.060751088
45	0xbdec723a	-0.115452245
46	0x3d4532cd	0.04814415
47	0x3dcf0091	0.1010753
48	0x3cfbbea2	0.03073055
49	0xbdb69500	-0.08915138
50	0x3dffa9e0	0.12483573
51	0x3c92e46a	0.017931182
52	0x3b4d00cc	0.0031280993
53	0x3a987f84	0.0011634682
54	0x3dc4e722	0.096143976
55	0xbd7867d4	-0.060645893
56	0xbdbfe028	-0.09368926
57	0x3d163f2c	0.03668134
58	0xbdb464b0	-0.08808267
59	0xbd774c34	-0.060375407
60	0xb8dbed00	-0.000104868785
61	0x3dd5aa6b	0.10432895
62	0xbd0a34f7	-0.033741917
63	0xbc8304fd	-0.01599359
64	0xbde42cf8	-0.111413896
65	0x3d9e611e	0.077333674
66	0xbdc42649	-0.09577615
67	0x3c2dfb10	0.01061894
68	0x3d093035	0.03349324
69	0xbd0327e6	-0.032020472
70	0x3d12e702	0.035864837
71	0x3c36414b	0.0111239655
72	0xbd947be1	-0.072501905
73	0xbdc57683	-0.09641745
74	0x3dd8f21f	0.10593056
75	0xbde6635d	-0.11249421
76	0xbd4381dd	-0.04773127
77	0x3d8bfa58	0.06834859
78	0xbc895417	-0.01676373
79	0xbcdfb899	-0.027309703
80	0x3ca8eb9c	0.02062016
81	0xbcc58780	-0.024112463
82	0x3d4fc3c4	0.050723806
83	0xbd4267cf	-0.04746228
84	0x3ce03d7d	0.02737307
85	0xbde2e55c	-0.11078903
86	0xbc642d91	-0.0139268795
87	0x3dcd1ba7	0.1001504
88	0x3d5ff3a1	0.054675702
89	0x3b98d52b	0.0046640835
90	0x3ce10c18	0.027471587
91	0x3de6d544	0.11271146
92	0xbc9ce820	-0.019153655
93	0x3d98803a	0.07446332
94	0x3dc8efd4	0.098113686
95	0xbce36cb9	-0.027761804
96	0x3da3501f	0.07974266
97	0x3d42f08b	0.04759268
98	0xbd2c5cd6	-0.042080723
99	0xbdb7b186	-0.08969407
100	0xbc998bc0	-0.018743396
101	0x3ddda3a3	0.10822227
102	0x3d6ba94f	0.057534512
103	0x3dcef05d	0.101044394
104	0xbd981503	-0.07425883
105	0xbde2a879	-0.1106729
106	0xbd109c8f	-0.035305556
107	0xbe08a767	-0.13345109
108	0x3da0c2e1	0.0784967
109	0xbcfdd2b1	-0.030984255
110	0xbda5d93b	-0.08098074
111	0xbc255221	-0.010090382
112	0xbd11904f	-0.035538014
113	0xbb5f4156	-0.0034066043
114	0x3d881be2	0.06645943
115	0xbd97c1e9	-0.07410032
116	0x3d52a8b8	0.051430434
117	0xbb0c3f90	-0.002140019
118	0x3d8b6ea2	0.06808211
119	0x3c6c59bf	0.014425694
120	0x3d653b5e	0.05596482
121	0xbde1754a	-0.11008699
122	0x3d960ebf	0.07327031
123	0x3da4149d	0.08011744
124	0x3de14260	0.10998988
125	0x3caeaf4c	0.021323822
126	0x3c13ff86	0.0090330895
127	0x3dd14726	0.102186486
128	0xbdafd378	-0.08585256
129	0xbcd44fa3	-0.02591688
130	0x3c7401da	0.01489302
131	0xbda79036	-0.08181803
132	0x3dcbdb9a	0.09953995
133	0x3d9431fd	0.07236097
134	0x3daa6608	0.08320242
135	0x3d95cfd8	0.07315034
136	0x3cddb686	0.027064573
137	0x3cbd306e	0.023094382
138	0x3d8f3f8e	0.06994544
139	0x3cf49d57	0.029860182
140	0xbc99ff27	-0.018798424
141	0xbc6255a1	-0.013814361
142	0xbbd37eae	-0.0064543104
143	0xbdbf7145	-0.09347776
144	0x3d442be6	0.047893427
145	0x3df9b0d7	0.12191933
146	0x3d294af2	0.04133124
147	0x3ad2d46f	0.0016085039
148	0xbb0f02cb	-0.0021821733
149	0xbde9166a	-0.11381228
150	0xbe03c42d	-0.12867804
151	0xbdded035	-0.10879556
152	0xbd8a931e	-0.067663416
153	0xbdfdcb91	-0.12392343
154	0x3c9ccef9	0.019141661
155	0x3e075150	0.13214612
156	0xbd1d727c	-0.03843926
157	0x3d96fdfc	0.073726624
158	0x3da1d232	0.0790142
159	0x3d9baaad	0.07600913
160	0x3d643d9b	0.055722814
161	0x3da96683	0.08271506
162	0x3dabff36	0.08398287
163	0xbd9aa316	-0.075506374
164	0x3c89959e	0.016794976
165	0x3d8020d1	0.06256259
166	0xbda8bd43	-0.08239224
167	0xbdba08ee	-0.090837345
168	0x3dac194d	0.08403263
169	0xbd96379b	-0.07334825
170	0xbd777ba6	-0.060420655
171	0xbc4b037e	-0.012390969
172	0x3c99c865	0.018772313
173	0xbd12ded7	-0.035857048
174	0xbd8d7d4c	-0.06908664
175	0xbda58cec	-0.08083519
176	0xbd6e0515	-0.058110315
177	0x3de4408e	0.11145125
178	0x3d1ef319	0.038806055
179	0xbdbc0164	-0.09179953
180	0x3dcf53e1	0.101234205
181	0x3db493fb	0.088172875
182	0x3bbfb505	0.0058504366
183	0xba4b7fdc	-0.0007762888
184	0xbd906268	-0.070500195
185	0xbce84520	-0.028353274
186	0x3db28baa	0.08718045
187	0xbd6a182b	-0.057151955
188	0xbac739d5	-0.001519973
189	0x3d9303a9	0.071784325
190	0xbdc7809d	-0.09741328
191	0x3c434c37	0.0119200265
192	0x3cfaf745	0.030635485
193	0x3df8d166	0.121493146
194	0xbd843945	-0.06456236
195	0xbd43862c	-0.04773538
196	0x3ca5c503	0.020235544
197	0x3d4aa6d7	0.049475517
198	0x3da43c70	0.0801934
199	0x3d2a6741	0.041602377
200	0x3ddd7062	0.10812451
201	0x3dd289f0	0.10280216
202	0xbd732c43	-0.059368383
203	0x3d5bacc1	0.053631548
204	0x3dbc8910	0.0920583
205	0xbd54713b	-0.051865797
206	0xbd19b5d4	-0.03752692
207	0x3d693e6a	0.05694429
208	0x3da150f5	0.078767695
209	0x3c4dcbf6	0.012560835
210	0xbdc663c9	-0.09687001
211	0xbdc052bc	-0.0939078
212	0x3d112316	0.03543385
213	0xbdbbe710	-0.09174931
214	0x3d41331b	0.04716788
215	0x3c4b2205	0.012398248
216	0x3e08fa97	0.13376842
217	0x3dcfb007	0.101409964
218	0x3e07f131	0.13275601
219	0x3ddac9fd	0.106830575
220	0xbdec7245	-0.11545233
221	0x3dd4057e	0.1035261
222	0x3dd07f3f	0.1018052
223	0x3db47bfc	0.08812711
224	0x3ca60668	0.020266727
225	0xbda738cf	-0.08165132
226	0xbe01e9c6	-0.12686834
227	0x3e023c8e	0.12718412
228	0x3d21a7de	0.03946673
229	0xbdc5fc91	-0.09667314
230	0x3d8a85a0	0.06763768
231	0x3df1cc79	0.11806578
232	0x3b545991	0.0032402019
233	0x3da81a72	0.08208169
234	0xbe04e986	-0.12979707
235	0xbd1c3bbd	-0.03814291
236	0xbe0885c7	-0.13332282
237	0xbe036c9d	-0.12834401
238	0xbb4a9fe9	-0.0030918068
239	0xbcd7244d	-0.026262427
240	0xbd53b5e1	-0.051687125
241	0xbcf67718	-0.030086085
242	0x3db336c4	0.0875068
243	0x3dd95dc4	0.106135875
244	0xbd54790a	-0.051873244
245	0x3d80955c	0.06278488
246	0xbd7452e5	-0.059649367
247	0x3dc14e43	0.09438755
248	0xbda32c60	-0.07967448
249	0xbdce923c	-0.10086486
250	0x3cc9d911	0.024639638
251	0xbd104a77	-0.035227265
252	0x3ca01f02	0.019546036
253	0xbd08753f	-0.03331494
254	0xbcc2c0ec	-0.023773633
255	0xbdf7afdf	-0.120940916

a2c_network.mu.bias f4 [24]
0	0x39635184	0.00021678774
1	0xbbb689db	-0.005570633
2	0x3c4f0540	0.012635529
3	0x3b2a31cf	0.002596963
4	0x3d0ba8e3	0.03409661
5	0xbbe50873	-0.0069895326
6	0x3cf2552c	0.029581629
7	0x3cffa39d	0.031205947
8	0x3a98e24e	0.0011664124
9	0x3c822d38	0.015890703
10	0xbce74be4	-0.02823443
11	0xbcdebcc3	-0.027189618
12	0xbbce968e	-0.0063045686
13	0xbc95eb18	-0.018300578
14	0x3c7092eb	0.0146834655
15	0xb8271437	-3.983473e-05
16	0xbc13f4bb	-0.009030516
17	0x3b829942	0.003985555
18	0x3c3c5066	0.011493778
19	0x3ba73ed1	0.005103924
20	0x3cf64ff4	0.030067421
21	0x3ca4470a	0.020053405
22	0x3ba3eecc	0.005002832
23	0x3c0fa9a7	0.008768476

exp_avg f4 [24]
0	0x3c35927d	0.011082289
1	0x3b853b90	0.0040659383
2	0xbc4d81f0	-0.012543187
3	0xbb1904b9	-0.0023348762
4	0xbad1abf7	-0.0015996684
5	0x3bd37e6e	0.0064542806
6	0xbbf90254	-0.0075991545
7	0xbac8acb6	-0.0015310261
8	0xb9abbddd	-0.0003275712
9	0x3c0ce181	0.008598686
10	0x3b41f0d1	0.0029593
11	0x3ac1d036	0.0014786783
12	0x3afcd830	0.0019290503
13	0xbab4e567	-0.0013801277
14	0x3b0b30da	0.0021238835
15	0x3b8117e6	0.0039396165
16	0xb9903f48	-0.00027512969
17	0x3c848eeb	0.01618143
18	0x3b733699	0.00371114
19	0x3a550080	0.00081253797
20	0xba8c04ef	-0.0010682623
21	0xbb915080	-0.004434645
22	0xbc3a571c	-0.011373308
23	0x39d69b5b	0.0004093301

exp_avg_sq f4 [24]
0	0x39957dc1	0.0002851319
1	0x39a8d4e1	0.00032202064
2	0x39ad2710	0.00033026235
3	0x3997a560	0.00028924178
4	0x39a720f1	0.00031877265
5	0x398eb227	0.00027217084
6	0x3993968a	0.00028150185
7	0x39bb9cf0	0.00035784347
8	0x398ecf48	0.00027238787
9	0x3982fad2	0.00024982408
10	0x39bc100b	0.00035870107
11	0x39a91fb5	0.00032257815
12	0x399adb6f	0.0002953666
13	0x398fd9eb	0.00027437447
14	0x39917923	0.0002774681
15	0x397c22cb	0.00024045554
16	0x399a957f	0.00029484552
17	0x39a9bd60	0.00032375287
18	0x399d5d48	0.00030014873
19	0x3995ab8d	0.0002854731
20	0x39bfb359	0.00036563983
21	0x3995c426	0.00028565637
22	0x39a0ab5d	0.00030645254
23	0x39914fcf	0.00027716017
