runs/lift_30-15-14-24/nn/last_liftep150rew[-213.45207].pth (torch, 654621 bytes, 36 tensors)

value_mean_std.running_mean f8 [1]
0	0xc087d73eb883021e	-762.9056253657361

value_mean_std.running_var f8 [1]
0	0x41398842a17f7165	1673282.630850875

value_mean_std.count f8 []
0	0x4102c00800000000	153601.0

running_mean_std.running_mean f8 [39]
0	0x0000000000000000	0.0
1	0x3ff7ffeb85303235	1.499980469004311
2	0x3ff4ccbaa03b3303	1.299982667830762
3	0x3fdfffe4b195983c	0.4999934896681031
4	0x3fd9998347ab47ea	0.39999467848713144
5	0x4007331fd3f27e57	2.8999630506876133
6	0x3fdfffe4b195983c	0.4999934896681031
7	0x3ff865ef01987aec	1.5248861372307898
8	0x3fff0771333ccc7e	1.939316940447298
9	0x3fdfffe4b195983c	0.4999934896681031
10	0x3fe3ffeee8b9ceb8	0.6249918504167544
11	0x3fe3ffeefb7b4c9c	0.624991885352205
12	0x0000000000000000	0.0
13	0x3fefffe4b195983c	0.9999869793362062
14	0x0000000000000000	0.0
15	0x0000000000000000	0.0
16	0x0000000000000000	0.0
17	0x0000000000000000	0.0
18	0x0000000000000000	0.0
19	0x0000000000000000	0.0
20	0xbf6d762867f1ff40	-0.0035963811092755427
21	0x3f3f508d1e3ff395	0.00047782368915232884
22	0x40239ea7620086d6	9.809870779575629
23	0x0000000000000000	0.0
24	0x0000000000000000	0.0
25	0x0000000000000000	0.0
26	0x0000000000000000	0.0
27	0x0000000000000000	0.0
28	0x0000000000000000	0.0
29	0x0000000000000000	0.0
30	0x0000000000000000	0.0
31	0x0000000000000000	0.0
32	0x0000000000000000	0.0
33	0x0000000000000000	0.0
34	0x0000000000000000	0.0
35	0x0000000000000000	0.0
36	0x0000000000000000	0.0
37	0x0000000000000000	0.0
38	0x3fbfffe4b195983c	0.12499837241702577

running_mean_std.running_var f8 [39]
0	0x3eeb4e6a67c081dd	1.3020663793440166e-05
1	0x3f062fa958f15285	4.2316775868887976e-05
2	0x3f025d03a4322428	3.5025285364538854e-05
3	0x3ef110ff9735da4f	1.627578735737884e-05
4	0x3eefacddf0984d66	1.5103941694716554e-05
5	0x3f200f314201002e	0.0001225230817016877
6	0x3ef110ff9735da4f	1.627578735737884e-05
7	0x3ffa19f3180fa61a	1.6313353481185744
8	0x3ff6edb3e7e011d2	1.4330328996303376
9	0x3ef110ff9735da4f	1.627578735737884e-05
10	0x3fdfbac571ef4724	0.49577461363252184
11	0x3fdefb96b7177746	0.4841057575230149
12	0x3eeb4e6a67c081dd	1.3020663793440166e-05
13	0x3efb4e5ec136a65c	2.604115804919479e-05
14	0x3eeb4e6a67c081dd	1.3020663793440166e-05
15	0x3eeb4e6a67c081dd	1.3020663793440166e-05
16	0x3eeb4e6a67c081dd	1.3020663793440166e-05
17	0x3eeb4e6a67c081dd	1.3020663793440166e-05
18	0x3eeb4e6a67c081dd	1.3020663793440166e-05
19	0x3eeb4e6a67c081dd	1.3020663793440166e-05
20	0x3ff2e835af188a71	1.1816918220216872
21	0x3ff1d847af28cddb	1.1153027383960452
22	0x3f54be3f9528204d	0.0012660618709805671
23	0x3eeb4e6a67c081dd	1.3020663793440166e-05
24	0x3eeb4e6a67c081dd	1.3020663793440166e-05
25	0x3eeb4e6a67c081dd	1.3020663793440166e-05
26	0x3eeb4e6a67c081dd	1.3020663793440166e-05
27	0x3eeb4e6a67c081dd	1.3020663793440166e-05
28	0x3eeb4e6a67c081dd	1.3020663793440166e-05
29	0x3eeb4e6a67c081dd	1.3020663793440166e-05
30	0x3eeb4e6a67c081dd	1.3020663793440166e-05
31	0x3eeb4e6a67c081dd	1.3020663793440166e-05
32	0x3eeb4e6a67c081dd	1.3020663793440166e-05
33	0x3eeb4e6a67c081dd	1.3020663793440166e-05
34	0x3eeb4e6a67c081dd	1.3020663793440166e-05
35	0x3eeb4e6a67c081dd	1.3020663793440166e-05
36	0x3eeb4e6a67c081dd	1.3020663793440166e-05
37	0x3eeb4e6a67c081dd	1.3020663793440166e-05
38	0x3eebbba3b42b351f	1.322410901618637e-05

running_mean_std.count f8 []
0	0x40f2c01000000000	76801.0

a2c_network.sigma f4 [24]
0	0x3c1a5f39	0.009422117
1	0xbcb8a082	-0.022537474
2	0xbd003902	-0.031304367
3	0xbcd6f5a6	-0.026240181
4	0x3cab0f7f	0.020881413
5	0xbd30c19a	-0.043153383
6	0xbc8c1756	-0.017100971
7	0xbce715c3	-0.028208619
8	0x3bc9f76c	0.006163528
9	0xbcaf2e4d	-0.021384383
10	0xbbf7eb23	-0.0075658723
11	0xbca2909a	-0.019844342
12	0xbcdba5a8	-0.02681239
13	0xbd2b688f	-0.04184776
14	0x3c0f7250	0.008755282
15	0x3c183326	0.0092895385
16	0xbce02361	-0.02736062
17	0xbcbdfc85	-0.0231917
18	0x3c71236c	0.014717918
19	0x3cb34245	0.021882186
20	0x379b885a	1.8540934e-05
21	0x3c0406a0	0.00805822
22	0x3d01ba6e	0.031671934
23	0xbb31049d	-0.0027010806

a2c_network.actor_mlp.0.weight f4 [256, 39]
0	0xbd4ed938	-0.050500125
1	0x3d719768	0.058982283
2	0xbce10196	-0.027466577
3	0x3dab8029	0.08374054
4	0x3e231d95	0.15929253
5	0x3dddf558	0.10837811
6	0xbd5bc487	-0.05365422
7	0x3d4779e0	0.048700213
8	0x3c01d937	0.007925323
9	0x3dc80634	0.09766808
10	0xbdff5fc3	-0.12469437
11	0xbe0899c0	-0.13339901
12	0xbd7d6875	-0.061867196
13	0xbdda8165	-0.10669211
14	0x3e068b76	0.13139138
15	0x3d3cea58	0.046121925
16	0x3d87d694	0.066327244
17	0x3d4f6e51	0.050642315
18	0xbb368e5c	-0.002785585
19	0x3e005343	0.12531762
20	0xbde77a3c	-0.11302611
21	0x3c9fb49a	0.019495297
22	0xbdbfe230	-0.09369314
23	0x3d4a3e50	0.049375832
24	0xbd61e009	-0.055145297
25	0x3d48f94b	0.04906587
26	0xbd08a5e5	-0.033361334
27	0x3e07ff14	0.13280898
28	0xbdc25f43	-0.09490826
29	0xbdc3958f	-0.095500104
30	0xbdc39895	-0.09550587
31	0x3e137b94	0.1440261
32	0x3d5a930a	0.053362884
33	0x3e1dc80b	0.15408342
34	0xbe075251	-0.13214995
35	0xbe22a39f	-0.15882729
36	0xbe0048ff	-0.12527846
37	0xbddc9a72	-0.107716456
38	0x3da68dce	0.08132516
39	0x3d6adb46	0.05733802
40	0x3dd689fb	0.104755364
41	0xbde3532c	-0.11099848
42	0xbe0c6b04	-0.13712698
43	0x3d6969b5	0.056985576
44	0xbdbebfd4	-0.09313932
45	0x3d8dc2d4	0.06921926
46	0xbd5fd29e	-0.05464422
47	0x3d516d3a	0.051129557
48	0xbe1c098d	-0.15238018
49	0xbdb472db	-0.088109694
50	0x3cadcc0f	0.021215467
51	0x3d0aa8b5	0.033852298
52	0xbd8d4af4	-0.06899062
53	0x3dc379fa	0.095447496
54	0x3ddef034	0.10885659
55	0xbdedd0ac	-0.116120666
56	0xbdaf13fa	-0.08548732
57	0x3e162468	0.14662325
58	0xbd5d511f	-0.05403244
59	0xbd82f4d4	-0.063943535
60	0xbe1b3afa	-0.15159217
61	0xbdf654e5	-0.12027911
62	0x3d23d7ab	0.0400006
63	0xbcad2508	-0.021135822
64	0xbdee0c80	-0.11623478
65	0x3b762883	0.0037560768
66	0xbde002ec	-0.10938057
67	0xbe0b1cd6	-0.13585219
68	0xbdb495ed	-0.088176586
69	0xbe0f8275	-0.14014609
70	0xbdd0d03d	-0.10195968
71	0x3e23e837	0.16006552
72	0x3cf7c2ae	0.030244198
73	0x3d4a1e07	0.049345043
74	0xbe18eef2	-0.149349
75	0xbdd7624e	-0.10516797
76	0xbd5a50ab	-0.053299587
77	0xbb384431	-0.0028116817
78	0xbe104822	-0.14090016
79	0xbdba0c14	-0.09084335
80	0xbdf114bb	-0.11771532
81	0xbcaf421f	-0.021393834
82	0xbda6bdf9	-0.08141703
83	0xbd06f2d0	-0.032946408
84	0xbe057935	-0.13034518
85	0xbe02a5a8	-0.12758505
86	0xbdf75aa3	-0.120778345
87	0xbd9cfa2d	-0.07664905
88	0xbe0993e0	-0.13435316
89	0x3de7b911	0.113145955
90	0xbd022b68	-0.031779677
91	0x3ded69f4	0.115924746
92	0x3d4c5cab	0.049893063
93	0xbe0ad9b0	-0.13559604
94	0x3de2f29d	0.11081431
95	0xbd34769d	-0.04405843
96	0xbd7b6af3	-0.06138129
97	0xbe081b90	-0.13291764
98	0xbe22d0cf	-0.15899967
99	0x3d3e5aa1	0.04647315
100	0xbd68ca5f	-0.05683362
101	0x3d7f59e5	0.06234159
102	0xbe0690b0	-0.13141131
103	0x3df3795a	0.1188838
104	0xbdf0ba35	-0.11754266
105	0xbce281f7	-0.027649863
106	0x3d08fe96	0.033445917
107	0x3da94d06	0.08266644
108	0x3e04602b	0.1292731
109	0x3e155f00	0.14587021
110	0xbe020434	-0.12696916
111	0x3d251094	0.040299013
112	0xbd8d0e7a	-0.06887527
113	0xbc8fc003	-0.017547613
114	0xbdf57630	-0.11985433
115	0x3e155ac7	0.1458541
116	0xbe0eb303	-0.13935475
117	0x3daf44ed	0.085580684
118	0x3da0e45c	0.07856056
119	0x3d98361a	0.07432194
120	0xbd83e805	-0.064407386
121	0x3e2bbd02	0.1677132
122	0x3d6b93e2	0.05751408
123	0x3d2f29a4	0.04276432
124	0xbe0171d4	-0.12641078
125	0x3dc21393	0.0947639
126	0xbaf36c22	-0.0018571655
127	0xbd83d4dd	-0.06437085
128	0x3e24c80f	0.16091941
129	0x3d123a8f	0.035700377
130	0xbd87e55c	-0.06635544
131	0xbda5fc04	-0.08104709
132	0xbbfa93fa	-0.0076470347
133	0x3db71c41	0.08940936
134	0xbd2799cc	-0.040918157
135	0xbdbb1da0	-0.0913651
136	0xbd609a65	-0.054834742
137	0xbddc5529	-0.107584305
138	0x3d65e636	0.05612775
139	0x3e15d644	0.14632517
140	0xbe1a5e7f	-0.1507511
141	0x3d185468	0.03718987
142	0x3da96991	0.08272088
143	0x3ceddcc5	0.029035935
144	0xbd6993a7	-0.057025578
145	0x3dab2abf	0.083577625
146	0x3dac568c	0.08414945
147	0x3d7540d3	0.059876274
148	0xbce6818b	-0.028137943
149	0xbd2daddd	-0.042402137
150	0x3c8c5597	0.017130656
151	0xbce7bac1	-0.028287293
152	0xbd437453	-0.047718357
153	0x3dd19f81	0.10235501
154	0x3e0ceab3	0.13761406
155	0x3bcd5d24	0.0062672067
156	0xbd12d9bf	-0.03585219
157	0xbc733a13	-0.014845389
158	0xbcdb1a5e	-0.026745971
159	0x3caef357	0.021356268
160	0x3ce3420a	0.02774145
161	0xbe26897f	-0.16263388
162	0xbd9c2058	-0.076233566
163	0x3e0419ed	0.12900515
164	0x3d215841	0.039390806
165	0xbccda870	-0.025104731
166	0xbdd5bb50	-0.10436118
167	0xbdf8caad	-0.12148032
168	0xbe12e147	-0.14343749
169	0xbd8e10e8	-0.06936818
170	0x3d5d7ebd	0.054075945
171	0x3dd11a6b	0.10210117
172	0x3d976900	0.07393074
173	0xbe10f0ff	-0.14154433
174	0xbdc53658	-0.09629506
175	0xbccf04e4	-0.025270887
176	0x3e101a96	0.14072642
177	0x3caa9b9d	0.020826155
178	0xbd7054dd	-0.058674682
179	0x3d87acbf	0.066247456
180	0xbd79d080	-0.060989857
181	0xbdd4433a	-0.10364385
182	0x3def5c6b	0.11687549
183	0xbd951db3	-0.07281055
184	0xbd037bad	-0.03210037
185	0xbe231e89	-0.15929617
186	0x3ddb7b75	0.10716907
187	0x3df875e7	0.12131863
188	0x3d6f093b	0.058358412
189	0xbde4aa72	-0.11165322
190	0xbe21d46a	-0.15803686
191	0xbe052c8a	-0.13005272
192	0x3df48bf8	0.119407594
193	0x3d9d7272	0.07687844
194	0x3df0ea66	0.11763458
195	0x3dabcc96	0.08388631
196	0x3cbbbb2f	0.022916405
197	0xbc9d28ac	-0.019184433
198	0xbe0e64fd	-0.13905711
199	0xbe1e2fe0	-0.1544795
200	0xbe2b8598	-0.1675018
201	0x3d45b89e	0.048271768
202	0xbdd7e6e9	-0.105420895
203	0xbd8a5480	-0.06754398
204	0xbde01e8f	-0.109433286
205	0xbd4feefd	-0.050765026
206	0xbe029e89	-0.12755789
207	0xbdd64861	-0.10463024
208	0x3d11fadd	0.035639632
209	0xbd42ed37	-0.047589507
210	0x3dca73fa	0.09885402
211	0xbd5269e3	-0.051370513
212	0xbdf0915d	-0.11746476
213	0xbce7727f	-0.028252838
214	0xbd9ef821	-0.077621706
215	0xbd735a07	-0.05941203
216	0xbe10a1cc	-0.1412422
217	0x3d92d6ff	0.071699135
218	0xbde450a5	-0.11148194
219	0x3da4d466	0.08048324
220	0x3d94d0ab	0.07266363
221	0x3dea4af6	0.11440079
222	0xbdfb8c86	-0.12282662
223	0x3debdaeb	0.11516365
224	0xbd9b090b	-0.07570084
225	0x3d7360f1	0.059418622
226	0x3e19fcdf	0.15037869
227	0xbcb90057	-0.02258317
228	0xbaa24ff9	-0.0012383453
229	0xbd170137	-0.036866393
230	0xbe08e9d7	-0.13370453
231	0x3d9d616a	0.07684596
232	0xbe22c6f4	-0.15896207
233	0x3da86f85	0.08224396
234	0x3df55ff1	0.1198119
235	0x3e1fea1a	0.15616646
236	0xbd075a64	-0.033045188
237	0xbe01af5c	-0.1266455
238	0x3d279ce8	0.04092112
239	0x3dbeb6fa	0.09312244
240	0xbe1e293b	-0.15445416
241	0xbd9518a0	-0.072800875
242	0xbdfbe1cc	-0.12298927
243	0xbc14cf6e	-0.009082658
244	0xbdddbb9c	-0.10826799
245	0xbd815e40	-0.06316805
246	0xbd50376b	-0.0508341
247	0xbe16e6ae	-0.14736435
248	0x3e068a25	0.13138635
249	0x3e097652	0.13424042
250	0xbccdc6ad	-0.02511915
251	0xbc956316	-0.018235724
252	0xbd85d700	-0.065351486
253	0xbe141389	-0.14460577
254	0xbe1ed57a	-0.15511122
255	0x3d895d37	0.067072324

a2c_network.actor_mlp.0.bias f4 [256]
0	0x3b48ea3c	0.0030657193
1	0xbd2cf4e9	-0.042225752
2	0xbcd38441	-0.0258199
3	0x3cea60eb	0.028610667
4	0xbc9e07e3	-0.01929087
5	0xbcf6bf94	-0.030120648
6	0xbb4b2493	-0.0030997142
7	0x3ca5d502	0.020243172
8	0xbcbdab8a	-0.023153085
9	0x3d2f3604	0.042776123
10	0xbcafab73	-0.021444058
11	0xbb493ac4	-0.0030705193
12	0xbc914d66	-0.017737102
13	0x3c7cf845	0.015440051
14	0xbd43a91b	-0.047768693
15	0xbd0dd03b	-0.034622412
16	0x3c4b870a	0.012422333
17	0xbd11c8c0	-0.03559184
18	0x3b93d608	0.0045115985
19	0xbc7a3e17	-0.015273592
20	0xbbc4bada	-0.0060037198
21	0xbb255e72	-0.0025233296
22	0x3c5fbaaa	0.013655344
23	0xbcd69626	-0.026194643
24	0xbc0d0207	-0.00860644
25	0xbba05868	-0.0048933513
26	0x3c71f9ef	0.0147690615
27	0xb9d911c0	-0.0004140269
28	0x3d18dea7	0.037321713
29	0x3c92f5e2	0.017939512
30	0x3c788f49	0.015170881
31	0x3ba99fd3	0.0051765232
32	0x3d23a37b	0.03995083
33	0x3ccde756	0.025134724
34	0x3c002e88	0.007823594
35	0xbcf814dc	-0.030283384
36	0xbcf5ef58	-0.030021355
37	0xbd224b72	-0.03962273
38	0x3cc1a7e3	0.023639625
39	0x385646bb	5.108745e-05
40	0xbcc3aef7	-0.02388714
41	0xbcc09bf4	-0.023511864
42	0xbd215e38	-0.039396495
43	0xbcac40f1	-0.02102706
44	0xbcfa156d	-0.030527795
45	0xbb0bc52b	-0.0021327238
46	0xbcd7b10a	-0.026329536
47	0xbc127c8f	-0.00894083
48	0xbd2ada0b	-0.04171185
49	0xbc9f31a8	-0.019432858
50	0xbcc0a0b1	-0.023514124
51	0x3d2562ae	0.04037731
52	0x3c33a5bc	0.010964807
53	0x3ce85c25	0.02836425
54	0xbcaf509a	-0.021400739
55	0xbc41f852	-0.011838989
56	0xbc4bc4b7	-0.012437037
57	0xb6f5988d	-7.3193282e-06
58	0xbb8d6cac	-0.004315933
59	0xbd428130	-0.047486484
60	0xbd1d4e0a	-0.038404502
61	0xbc428596	-0.01187267
62	0x3c5cb731	0.013471411
63	0x3c88134d	0.016610766
64	0xbd25cb43	-0.04047705
65	0x3d287fee	0.04113763
66	0xbd029881	-0.03188372
67	0xbd0c1b60	-0.034205794
68	0xbd0b13a6	-0.033954285
69	0x3b85d7a5	0.0040845447
70	0xbc74eabb	-0.014948542
71	0xbd05400e	-0.03253179
72	0xbb6db3ef	-0.003627058
73	0x3c510031	0.012756393
74	0x3c88d514	0.016703166
75	0xbc8e137f	-0.01734328
76	0x3d36e902	0.044655807
77	0x3d250946	0.040292047
78	0xbd13629e	-0.03598272
79	0xbd0a2924	-0.03373064
80	0xbd1a9e7d	-0.037748802
81	0x3cd592ee	0.026071038
82	0x3c6546d2	0.013993936
83	0x3d1b7c06	0.037960075
84	0xbbf6752d	-0.0075212927
85	0xbc3e76cd	-0.011625004
86	0xbbbd7ab7	-0.005782451
87	0xbd156009	-0.03646854
88	0xbc2e051a	-0.0106213335
89	0x3c19371c	0.009351518
90	0xbd0401c8	-0.03222826
91	0xbd16523d	-0.036699522
92	0x3d2d4db9	0.04231045
93	0x3cf8c2cf	0.03036633
94	0x3d0ed12e	0.034867458
95	0xbccef558	-0.025263473
96	0xbcede38b	-0.029039165
97	0x3c591684	0.013249997
98	0xbce3f793	-0.027828014
99	0x3a8a9f9c	0.0010576132
100	0x3d2501ab	0.040284794
101	0xbbbc18cd	-0.005740261
102	0x3cf55d71	0.029951783
103	0x3ca2518c	0.019814275
104	0x3be924ba	0.007114974
105	0xbca72619	-0.020403909
106	0x3cdd0544	0.02698005
107	0xbccbb1bb	-0.024865022
108	0xbcfed605	-0.031107912
109	0xbc8ed097	-0.017433448
110	0xbcfaf73a	-0.030635465
111	0xbd094c5d	-0.03352009
112	0xbca73c24	-0.02041442
113	0x3cdfe27a	0.027329672
114	0xbd293650	-0.041311562
115	0x3ce360b3	0.02775607
116	0x3d17e019	0.03707895
117	0xbc354f0e	-0.011066211
118	0xbc8d6de6	-0.017264318
119	0xbcdaeaf2	-0.026723359
120	0x3c3cf77c	0.011533614
121	0xbcd27290	-0.025689393
122	0xbcef101f	-0.029182492
123	0xbc6f9290	-0.014622346
124	0xbc3c1d95	-0.011481662
125	0xbd097a7e	-0.033564083
126	0x3c1dd8b0	0.009634182
127	0x3d22ef8b	0.039779227
128	0x3d0a51b8	0.03376934
129	0x3c4a2362	0.0123375375
130	0xbc6f88f6	-0.014620056
131	0x3cd698d9	0.02619593
132	0xbcd3bcca	-0.025846858
133	0x3b816c0b	0.0039496473
134	0xbc4a1270	-0.012333497
135	0x3cdc18ca	0.02686729
136	0x3a3cfe78	0.00072095497
137	0xbc80ef4e	-0.01573911
138	0xbce085aa	-0.027407486
139	0x3d0e7235	0.034776885
140	0xbb73e866	-0.0037217378
141	0x3d225329	0.03963009
142	0x3d4106b7	0.047125544
143	0x3d1a0b01	0.03760815
144	0x3cdf802e	0.0272828
145	0x3c8f7dea	0.017516095
146	0xbc0c9e55	-0.008582671
147	0x3b8f4007	0.0043716463
148	0x3cf5c403	0.030000692
149	0x3bb70be5	0.0055861347
150	0x3d07cbf4	0.03315349
151	0x3c4a5f73	0.012351858
152	0xbc018680	-0.007905602
153	0xbd0a80eb	-0.033814352
154	0x3cb9e511	0.022692235
155	0xb9b25a29	-0.0003401798
156	0xbd1c9260	-0.03822553
157	0xbc9a69a9	-0.01884921
158	0xbcc2433d	-0.023713702
159	0xbce10404	-0.027467735
160	0xbd061130	-0.032731235
161	0xbbdad233	-0.0066778897
162	0xbcda534c	-0.026651047
163	0xbc0dd175	-0.0086558955
164	0xbc3dd6c6	-0.0115868505
165	0x3d49400b	0.04913334
166	0x3ae1fedf	0.0017242095
167	0xbcf4c985	-0.029881248
168	0x3b8adb91	0.0042376
169	0x3c343dba	0.011001045
170	0x3d233227	0.03984275
171	0x3cd69c1e	0.02619749
172	0xbc452894	-0.0120336
173	0x3c555b80	0.013022304
174	0x3bd2a874	0.0064287726
175	0xbd16d3a7	-0.03682294
176	0x3d399e6d	0.045317102
177	0xbc80cf95	-0.015723983
178	0xbbd4b868	-0.0064917095
179	0xbd171b11	-0.036891047
180	0xbd14adc3	-0.036298525
181	0x3d1ff398	0.03905067
182	0xbc1f3ea0	-0.009719521
183	0x3d0df33f	0.034655806
184	0x3bb06cad	0.005384049
185	0x3d1e5bd9	0.03866181
186	0xbc3b31c9	-0.011425444
187	0xbd0f80e1	-0.035035018
188	0xbcc8cc70	-0.024511546
189	0x3c5d8ce1	0.013522358
190	0x3d1b6dd8	0.037946552
191	0xbcd979a6	-0.026547264
192	0x3d3028aa	0.04300753
193	0xbc8cbc9b	-0.017179778
194	0x3cf8ceb6	0.030372005
195	0x3c10b439	0.008832031
196	0x3cc8b753	0.024501478
197	0xbcade739	-0.02122842
198	0xbbf144a6	-0.00736292
199	0xbd15038b	-0.036380332
200	0x3c9f8932	0.0194746
201	0xbc47e39e	-0.012200264
202	0x3cd6022e	0.026124086
203	0x3cb367b8	0.021900043
204	0xbcca3168	-0.024681762
205	0xbcd331f4	-0.025780655
206	0xbc9be5e2	-0.019030515
207	0x3d025fa0	0.031829476
208	0x3c4516c7	0.012029356
209	0xbc6d3ed9	-0.014480316
210	0x3c12e20b	0.008965026
211	0xbcb4bc6a	-0.0220625
212	0xba53c135	-0.00080778013
213	0x3c7a9e54	0.015296537
214	0x3ce4d9dd	0.027935917
215	0x3d27c60b	0.040960353
216	0xbcf2f5c8	-0.029658213
217	0xbd14d45e	-0.03633534
218	0x3d21113f	0.039323088
219	0x3cea1e56	0.028578918
220	0x3c2ee611	0.010674969
221	0x3c20e4b0	0.009820148
222	0x3bb030c4	0.005376907
223	0xbbf19c76	-0.007373388
224	0x3c6a9507	0.014317757
225	0xbbc3f883	-0.0059805526
226	0xba90a527	-0.0011035547
227	0xba97ad02	-0.0011571946
228	0xbc6c5ce6	-0.014426446
229	0xbc66f291	-0.014095918
230	0x3c8bd562	0.017069522
231	0xbbcdcffb	-0.0062808967
232	0xbd301411	-0.042987887
233	0xbc4ec417	-0.012619994
234	0x3aa8a0b6	0.0012865278
235	0x3cae6d61	0.02129239
236	0x3b76fa71	0.0037685896
237	0x3c1f8804	0.0097370185
238	0x3c86069d	0.016360575
239	0xbd0f4a3f	-0.034982916
240	0x3c1771d3	0.009243446
241	0xba74b270	-0.00093344506
242	0x3cb2f18a	0.02184369
243	0x3d1e19e7	0.03859892
244	0x3cbfa35e	0.02339333
245	0x3d102a66	0.035196684
246	0x3d2dc707	0.042426135
247	0xbc4f20c9	-0.012642094
248	0xbd372b39	-0.044718955
249	0x3d176622	0.036962636
250	0xbc426552	-0.011864977
251	0x3d107608	0.035268813
252	0x3c9d8cea	0.019232232
253	0x3d31f2e1	0.043444518
254	0x3cdcede6	0.026968908
255	0xbcabbbe2	-0.020963613

a2c_network.actor_mlp.2.weight f4 [128, 256]
0	0x3cd65a8f	0.026166229
1	0xbbf00105	-0.0073243403
2	0x3c8df6d1	0.017329605
3	0xbd263782	-0.04058028
4	0xbd00aebf	-0.03141665
5	0x3d485448	0.048908502
6	0xbd63cc51	-0.055614773
7	0xbd834e52	-0.06411423
8	0xbd4ca0b5	-0.04995795
9	0xbd5730dd	-0.052536834
10	0xbd4ece62	-0.05048979
11	0xbd16d301	-0.036822323
12	0x3c848f1c	0.016181521
13	0xbd98fe5d	-0.07470391
14	0xbd920aa2	-0.07130934
15	0xbd057093	-0.032578062
16	0xbd821c93	-0.06353106
17	0x3ca64085	0.020294437
18	0xbc969f51	-0.018386515
19	0x3cff5648	0.031169072
20	0x3da9dc0c	0.08293924
21	0xbd0e2246	-0.034700654
22	0xbb904043	-0.004402192
23	0xbc7309fc	-0.014833923
24	0x3d271a56	0.0407966
25	0x3cbda600	0.023150444
26	0xbcf1cdbf	-0.029517053
27	0x3c3dd1dd	0.01158568
28	0xbd9e9c42	-0.077446476
29	0xbd0c69bc	-0.034280524
30	0xbd21d718	-0.03951177
31	0xbda07c94	-0.078362614
32	0xbd2de655	-0.04245599
33	0xbd046788	-0.032325298
34	0xbcc2913c	-0.023750894
35	0x3ce23d29	0.027617054
36	0xbbaa63d3	-0.0051998883
37	0xbb41df95	-0.0029582728
38	0xbc51dba4	-0.012808714
39	0x3d9377a3	0.07200553
40	0xbd187499	-0.03722057
41	0x3d3de186	0.046357654
42	0x3d286fe5	0.041122336
43	0xbd2f1f99	-0.042754743
44	0x3d22f0de	0.03978049
45	0x3cbe81ed	0.023255313
46	0xbd6c0004	-0.057617202
47	0x3d8e77b9	0.06956429
48	0x3ca3f67a	0.02001499
49	0x3d94cf6f	0.07266127
50	0xbb3c98e7	-0.002877766
51	0xbd0ae99c	-0.033914194
52	0x3da69643	0.08134129
53	0xbb742b2f	-0.0037257185
54	0x3d09b357	0.033618297
55	0xbc623bd6	-0.013808211
56	0x3d14e44b	0.03635053
57	0xbc008e30	-0.0078464
58	0x3d1aa9f3	0.037759732
59	0x3cc0ebfe	0.02355003
60	0xbbe91625	-0.0071132355
61	0x3d86c6ee	0.065809116
62	0x3ca8258c	0.020525716
63	0x3b9d0a7c	0.0047925096
64	0x3cfa0ecf	0.03052464
65	0x3c046802	0.008081438
66	0xbc731a0c	-0.014837753
67	0x3d2c81d0	0.042115986
68	0xbd8c34c0	-0.06845999
69	0xbd3a1a6a	-0.045435347
70	0x3d1e30b9	0.038620684
71	0xbd21728a	-0.039415874
72	0xbc81ef0d	-0.015861059
73	0x3d44721f	0.047960397
74	0x3c0d3af2	0.008620011
75	0xbce45d86	-0.027876627
76	0x3c519ef1	0.012794242
77	0x3d019de5	0.03164472
78	0xbd0b5d56	-0.03402456
79	0x3d31af27	0.04337993
80	0xbc56a6db	-0.013101305
81	0xbce36aea	-0.027760942
82	0xbca1b415	-0.01973919
83	0xbc4db965	-0.0125564085
84	0x3cd613b4	0.026132442
85	0xbc53f66c	-0.0129371695
86	0xbd9798e7	-0.07402211
87	0xbae2d47d	-0.0017305758
88	0x3d737d33	0.05944557
89	0xbcbc4d34	-0.022986032
90	0x3d856aed	0.06514535
91	0x3d197a49	0.037470136
92	0x3d72bbd7	0.05926117
93	0xbc94720a	-0.018120784
94	0xbd63bd5d	-0.055600513
95	0xbdbc9ad1	-0.092092164
96	0x3c15a695	0.0091339545
97	0xbce7dea0	-0.028304398
98	0xbb5f55db	-0.0034078273
99	0x3d1129c5	0.035440225
100	0x3d7bcf44	0.06147696
101	0xbdacfc8a	-0.084466055
102	0xbd1a5e51	-0.037687603
103	0xbc1f5a1a	-0.009726072
104	0xbc764619	-0.015031361
105	0x3d5e9387	0.05433991
106	0xbc431962	-0.011907907
107	0x3cd1f791	0.025630744
108	0xbc7f14f7	-0.015568963
109	0xbc6e6d78	-0.014552467
110	0xbcd801a6	-0.026367974
111	0xbbc5d083	-0.0060368194
112	0xbcd17a96	-0.025571149
113	0xbd9a5fb5	-0.07537786
114	0xbc345be4	-0.011008237
115	0xbc5f14b0	-0.013615772
116	0xbd349c2a	-0.044094242
117	0xbca8199a	-0.02052002
118	0xbd4fa100	-0.05069065
119	0xbd1cae03	-0.038251888
120	0xbd75d982	-0.060021885
121	0x3d8871fd	0.066623665
122	0x3a8f4a62	0.0010932202
123	0x3cd35bb3	0.025800562
124	0xbd879fae	-0.06622253
125	0x3a2e01a1	0.0006637816
126	0xbd9e55b6	-0.07731192
127	0x3d07b827	0.033134606
128	0x3d263e44	0.040586725
129	0xbd974325	-0.07385854
130	0x3d7e6e04	0.062116638
131	0xbaa8a62d	-0.0012866907
132	0xbd6aeede	-0.057356708
133	0xb9fb77f3	-0.0004796382
134	0x3d26df5a	0.04074035
135	0xbd2dec0e	-0.042461447
136	0x3d106c14	0.03525932
137	0x3cfe9fc9	0.03108205
138	0x3ccc66f3	0.024951434
139	0xbc849bcd	-0.016187573
140	0x3c9c34a4	0.01906807
141	0x3c8e5445	0.017374167
142	0x3d87bf94	0.066283375
143	0xbd88ea1b	-0.06685277
144	0xbbc31937	-0.0059539336
145	0x3c849479	0.016184079
146	0xbd09804a	-0.03356961
147	0xbc9a7acc	-0.018857382
148	0x3d47a676	0.048742734
149	0x3ccf54a2	0.02530891
150	0x3b9d1457	0.0047936845
151	0xbb5cea4e	-0.0033708992
152	0xbd8752e8	-0.0660761
153	0x3d229363	0.03969134
154	0xbd0acf85	-0.033889312
155	0xbdcef8b4	-0.1010603
156	0x3cc9981d	0.024608666
157	0xbcb20e55	-0.02173535
158	0x3ca215e5	0.01978583
159	0x3d915a16	0.07097261
160	0x3d85ac5f	0.06527018
161	0x3cda7397	0.026666446
162	0xbd4d3ef5	-0.05010887
163	0xbbe0139e	-0.006838276
164	0x3ceaf777	0.028682454
165	0xbd210a48	-0.039316446
166	0x3d645e86	0.055754207
167	0x3d369f65	0.044585604
168	0xbd757924	-0.05992998
169	0xbbf47344	-0.00746003
170	0xbcc3683d	-0.023853416
171	0x3cb61452	0.022226486
172	0x3cd56fb0	0.026054233
173	0xbd43fe61	-0.047850017
174	0x3ca19748	0.019725457
175	0xbc3571d8	-0.011074506
176	0x3d3ccf55	0.046096165
177	0x3d3a466b	0.045477312
178	0x3c6736bd	0.014112172
179	0xbd82f968	-0.06395227
180	0x3cebcf18	0.028785273
181	0xbd235f2b	-0.03988568
182	0x3ca5922c	0.020211302
183	0xbbc088ac	-0.0058756676
184	0x3d37f950	0.044915497
185	0xbaffea65	-0.0019524811
186	0x3b44340e	0.0029938254
187	0xbd288839	-0.041145537
188	0x3cf4f2f9	0.029901015
189	0xbc37e4e5	-0.011224006
190	0x3cc4d0a5	0.02402527
191	0x3c1b8d03	0.009494069
192	0xbd63e102	-0.055634506
193	0xbd38ac5a	-0.045086242
194	0x3d08cb2b	0.03339688
195	0xbd355abc	-0.044275984
196	0xbd78ffc6	-0.0607908
197	0x3d8a4b51	0.06752647
198	0xbd00a006	-0.03140261
199	0xbcff6239	-0.031174766
200	0xbda6350d	-0.081155874
201	0x3d00f314	0.031481817
202	0xbc48bda2	-0.012252243
203	0x3c8857bd	0.0166434
204	0x3c553fed	0.013015729
205	0x3b963df1	0.0045850207
206	0xbbb8b036	-0.0056362404
207	0x3d76efe3	0.060287368
208	0x3caf1756	0.021373432
209	0x3c58224e	0.013191773
210	0xbdae3b83	-0.08507445
211	0xbd563c90	-0.05230385
212	0x3c580ac9	0.013186165
213	0x3c053b76	0.008131852
214	0x3c2f9732	0.0107172
215	0xbc7dc104	-0.015487913
216	0x3cc90460	0.024538219
217	0x3d76e337	0.060275283
218	0xbce655fc	-0.028117172
219	0x3c1a9b64	0.009436462
220	0xbc72f2fe	-0.014828442
221	0x3d8e1cfe	0.069391236
222	0xbc9f724b	-0.019463679
223	0xbc99c120	-0.018768847
224	0x3d68415f	0.056702968
225	0xbd354c32	-0.04426212
226	0x3ba03368	0.0048889406
227	0xbcad7346	-0.02117313
228	0xbd879ae2	-0.066213384
229	0x3cc6027b	0.024171105
230	0xbbba232c	-0.0056804623
231	0xbdb45ea9	-0.088071175
232	0xbd71ff1c	-0.059081182
233	0xbc192a83	-0.0093485145
234	0x3d0d5ef0	0.034514368
235	0x3cbb6b6f	0.022878377
236	0x3b3d4c3c	0.002888455
237	0x3cf60313	0.030030763
238	0xbd859f3f	-0.065245144
239	0x3d2d375f	0.042289134
240	0x3c14d0b8	0.009082966
241	0xbc0355a4	-0.008016024
242	0x3c74c39d	0.014939216
243	0x3c3d93c4	0.011570875
244	0xba756851	-0.00093615527
245	0x3cc01dd6	0.023451727
246	0x3d880201	0.06641007
247	0x3da0fa50	0.07860243
248	0xbc85bf76	-0.016326647
249	0x3d102d4a	0.03519944
250	0x3d242651	0.040075604
251	0xbcdf15f1	-0.027232142
252	0x3d78dfb8	0.06076023
253	0x3c896149	0.016770022
254	0x3d85e34e	0.065374956
255	0xbc831a0b	-0.01600363

a2c_network.actor_mlp.2.bias f4 [128]
0	0xbc2933a1	-0.010327251
1	0x3d15ca37	0.0365698
2	0x3b9ad043	0.0047245338
3	0x3bc8de7e	0.0061300388
4	0xbd09079e	-0.03345453
5	0xbbfdb91c	-0.007743014
6	0xbc01b7ed	-0.0079173865
7	0x3d16f280	0.03685236
8	0xbd2b561c	-0.041830167
9	0xba31b831	-0.0006779461
10	0xba8fa23a	-0.0010958381
11	0x3d04e4f2	0.0324449
12	0x3d01cc3f	0.031688925
13	0xbcd2b8bf	-0.02572286
14	0x3c1e16a3	0.009648952
15	0x3c91f2c9	0.017815964
16	0xbd1768a4	-0.036965027
17	0x3b0aebbf	0.0021197645
18	0x3cce0761	0.025150003
19	0xbcf9f1e9	-0.03051086
20	0xbcedb8a5	-0.02901871
21	0x3ce7a19e	0.028275307
22	0x3d2f845f	0.04285085
23	0x3b7215f5	0.0036939357
24	0x3d34a5bd	0.044103373
25	0x3be81aae	0.0070832586
26	0xbcc5d168	-0.024147704
27	0xbc492e2b	-0.012279074
28	0x38f9245d	0.000118800184
29	0xbcfcd6e0	-0.03086418
30	0x3c0738f6	0.008253327
31	0xbcfa3249	-0.030541556
32	0x3d1a8a0c	0.037729308
33	0xbd01df4d	-0.031707097
34	0xbd149451	-0.036274258
35	0x3d326b0e	0.043559127
36	0x3c220170	0.009888038
37	0xbc048b9e	-0.008089928
38	0xbbde1c98	-0.006778311
39	0xbca7d16e	-0.020485606
40	0xbd01526a	-0.031572737
41	0xbca0475c	-0.019565277
42	0xbcd0677c	-0.02543997
43	0xbbd79f9a	-0.0065803053
44	0x3d34f888	0.04418233
45	0xbd255cfb	-0.040371876
46	0xbccd6c4a	-0.02507605
47	0x3ce2dd5d	0.027693445
48	0x3c0c1ec2	0.008552255
49	0xbd14bc2c	-0.036312267
50	0xbcf8ebd1	-0.030385884
51	0x3ccfdc3c	0.02537357
52	0x3cd2e472	0.025743697
53	0xbd110ed9	-0.03541455
54	0xbcd4ccb0	-0.025976509
55	0xbb0df7ed	-0.0021662668
56	0x3d583ed9	0.05279431
57	0xbad4db66	-0.0016239702
58	0xbc030397	-0.007996461
59	0x3bb7fba0	0.005614713
60	0x3cfccd48	0.030859604
61	0x3d0e55e8	0.034749895
62	0x3ac63d2c	0.0015124432
63	0x3ccfe340	0.025376916
64	0x3d3e55f9	0.04646871
65	0x3cf38ea7	0.029731108
66	0x3d306737	0.043067183
67	0x3d1229a4	0.035684243
68	0x3c4b0e0e	0.012393488
69	0x3d03562e	0.03206461
70	0x3d4335d1	0.047658745
71	0x3ca4d661	0.020121755
72	0xbcdc938d	-0.026925826
73	0x3a9d2ab4	0.0011990876
74	0xbcc59684	-0.024119623
75	0x3d234b2e	0.03986662
76	0x39cb6665	0.00038795467
77	0x3d1b8b14	0.037974432
78	0x3d0ebb96	0.034846865
79	0xbcd88695	-0.026431361
80	0x3d3e572d	0.046469856
81	0xbd0a414a	-0.03375367
82	0xbb9327d3	-0.0044908314
83	0x3d3c5235	0.045976836
84	0xbcd4d84e	-0.025982048
85	0x3ccd3912	0.025051627
86	0xbd078bc3	-0.03309227
87	0xbcea8429	-0.028627472
88	0x3d333234	0.04374905
89	0xba0ae64a	-0.0005298598
90	0x38d72a4a	0.00010259876
91	0xbce60a75	-0.028081158
92	0x3ce53dd9	0.027983593
93	0x3d425045	0.047439832
94	0x3d38c385	0.045108337
95	0xbcd9576c	-0.026530944
96	0x3cf5b270	0.029992312
97	0xbd0bee6e	-0.03416293
98	0x3cb48254	0.022034802
99	0xbc496a24	-0.012293372
100	0xbcd8aa9f	-0.026448546
101	0x3c6ed878	0.014577977
102	0x3d0b8240	0.034059763
103	0x3bd6ccc9	0.006555174
104	0x3b9d3ea0	0.0047987252
105	0x3d1945bb	0.037420016
106	0x3d253e99	0.0403429
107	0xbd02bc45	-0.03191783
108	0x3b86058d	0.004090017
109	0xbd022ade	-0.031779163
110	0x3d2c5374	0.042071775
111	0x3b161631	0.002290141
112	0xbd11f1cd	-0.03563099
113	0x3b9ef4a7	0.004850942
114	0x3c7d5e31	0.0154643515
115	0x3d0f87a4	0.035041466
116	0x3d2b2d6d	0.04179137
117	0x3a22e8e2	0.0006214512
118	0x3c41927e	0.011814712
119	0xbcc868b8	-0.024463996
120	0xbcb5c783	-0.022189861
121	0xbd02bf50	-0.03192073
122	0x3caafb01	0.020871641
123	0xbcecaaa7	-0.028889967
124	0xbb47fb28	-0.003051469
125	0xbd49c860	-0.049263358
126	0x3d20ffd7	0.039306488
127	0xbbbf22d0	-0.0058330074

a2c_network.actor_mlp.4.weight f4 [64, 128]
0	0x3d12e17b	0.035859566
1	0x3c07532c	0.008259576
2	0x3beefdf0	0.0072934553
3	0x3da18a92	0.07887758
4	0x3ca3fbba	0.020017494
5	0xbb12213b	-0.002229764
6	0xbcf548df	-0.029941974
7	0x3c7f20b9	0.0155717665
8	0xbdb78461	-0.08960796
9	0x3dac1c59	0.084038444
10	0xbd8c5f34	-0.06854096
11	0x3da63314	0.08115211
12	0x3dd29bcd	0.10283623
13	0x3cb79233	0.02240858
14	0x3db24592	0.08704676
15	0xbd233e2d	-0.039854217
16	0xbb8fefbd	-0.0043925927
17	0x3d49f078	0.049301594
18	0xbd504d7f	-0.050855156
19	0xbdceecad	-0.10103736
20	0x3c463c25	0.0120993005
21	0x3dc443cd	0.095832445
22	0x3d8bf723	0.06834247
23	0x3d0bf52f	0.034169372
24	0x3d570643	0.052496206
25	0x3d5fd919	0.0546504
26	0xbdb607c5	-0.08888201
27	0xbd9ec630	-0.07752645
28	0x3d9b74fa	0.07590671
29	0xbd7e5467	-0.06209221
30	0x3bc1350c	0.0058962163
31	0xbd61c8a9	-0.055123005
32	0x3d286902	0.04111577
33	0xb86960c6	-5.5641656e-05
34	0x3d759cb4	0.059963897
35	0x3be92b0a	0.0071157264
36	0x3cb33816	0.02187733
37	0xbd0dca97	-0.034617033
38	0x3d66184b	0.05617551
39	0x3a030afe	0.00049988914
40	0x3d847376	0.06467335
41	0xbdb21488	-0.08695322
42	0xbd2c14bf	-0.042011973
43	0x3d63be15	0.0556012
44	0xbd6e903d	-0.058243025
45	0xbd498a11	-0.049203936
46	0x3c8e377d	0.017360443
47	0xbc8a2819	-0.016864823
48	0xbd676b8c	-0.05649905
49	0xbccf04a2	-0.025270764
50	0x3d4fcf3a	0.050734736
51	0x3cfcb7c6	0.030849349
52	0x3ac8cee8	0.0015320452
53	0xbdb8a572	-0.09015931
54	0xbd11e6da	-0.035620548
55	0x3cebcf95	0.028785506
56	0xbd8cbdc5	-0.06872133
57	0x3dc095c1	0.09403563
58	0x3c1cb6eb	0.009565095
59	0x3d90d5f7	0.070720606
60	0x3cd4bd9e	0.025969323
61	0xbd769f1e	-0.06021034
62	0x3ce3f6be	0.027827617
63	0xbd42491a	-0.047432996
64	0x3d0ca25c	0.034334525
65	0x3c722c69	0.014781096
66	0xbd6477e8	-0.055778414
67	0x3d1be72f	0.03806227
68	0xbd419ca0	-0.04726851
69	0x3d900f71	0.07034195
70	0xbc4743a7	-0.012162126
71	0xbd4b52c3	-0.049639475
72	0xbdc9bae5	-0.098501004
73	0xbd4f6f1f	-0.050643083
74	0x3d6e5dd4	0.05819495
75	0x3ddcf94b	0.10789736
76	0x3d299fae	0.041412048
77	0xbd723d58	-0.059140533
78	0x3d0c73f4	0.03429027
79	0xbd8070ca	-0.06271513
80	0x3d7e8c41	0.062145475
81	0x3d7bf8c8	0.061516553
82	0x3d29707b	0.041367035
83	0x3cb76448	0.022386685
84	0xbd0c8c5c	-0.034313545
85	0xbc85cc64	-0.016332813
86	0xbd853770	-0.065047145
87	0xbd966dc2	-0.073451534
88	0x3d3a682a	0.045509495
89	0x3d90e75a	0.07075377
90	0xbca02e65	-0.019553373
91	0x3da33fd4	0.079711586
92	0x3d4a771e	0.049430005
93	0xbcc1259a	-0.0235775
94	0x3d907e1f	0.07055306
95	0xbdb690dd	-0.08914349
96	0x3d0154df	0.03157508
97	0xbd8e6cd7	-0.06954353
98	0x3d5c68f6	0.053811036
99	0x3b812331	0.0039409627
100	0xbc21148a	-0.009831557
101	0xba3108db	-0.0006753334
102	0xbd38c0c1	-0.0451057
103	0xbca02a0d	-0.019551301
104	0x3d2480ed	0.040162016
105	0xbc6401da	-0.013916457
106	0xbc84a66d	-0.01619264
107	0x3d501978	0.05080554
108	0x3c5bb9d0	0.013411
109	0x3cd5fd96	0.026121896
110	0x3d7ebdc4	0.062192693
111	0xbd21fa97	-0.03954562
112	0xbcbc59c4	-0.022992022
113	0xbdbb0d0a	-0.091333464
114	0x3d4dce21	0.050245408
115	0x3da73e8d	0.081662275
116	0xbd4ed5ee	-0.050496988
117	0x3d4f518d	0.050614882
118	0xbcdecd5b	-0.02719753
119	0x3cbdedec	0.023184739
120	0x3baf5808	0.0053510703
121	0x3b5b29e2	0.0033441712
122	0x3d5c1ff5	0.053741414
123	0x3c309fb2	0.010780262
124	0xbd51bd57	-0.05120596
125	0xbd960aa4	-0.07326248
126	0x3db2f314	0.0873777
127	0x3cda1734	0.026622392
128	0xbc065335	-0.008198549
129	0x3d04b56a	0.032399572
130	0xbc3fc0ba	-0.011703664
131	0xbdc29fa4	-0.09503105
132	0x3d4866de	0.048926227
133	0xbd28f4eb	-0.041249197
134	0xbc39f44d	-0.01134975
135	0xbcfb8950	-0.030705124
136	0x3d8f813e	0.07007073
137	0xbd1716bd	-0.03688692
138	0x3ca7d750	0.020488411
139	0x3c95a51d	0.018267209
140	0x3da497b4	0.080367476
141	0x3d9b384a	0.07579096
142	0x3ca5cda5	0.02023966
143	0xbc6f02d8	-0.01458808
144	0x3d29a5df	0.041417953
145	0x3c790e9a	0.015201235
146	0xbd5c9fc8	-0.053863317
147	0xbc5b656e	-0.013390882
148	0x3d283553	0.04106648
149	0xbd726381	-0.059176926
150	0xbd08031e	-0.033206098
151	0xbd6c5e3f	-0.057707068
152	0x3da09ed1	0.07842792
153	0xbdb541bf	-0.08850431
154	0xbc84eb45	-0.016225467
155	0xbd65d969	-0.05611554
156	0x3d54d9a4	0.05196537
157	0xbd8c0f30	-0.06838834
158	0x3d35f8fc	0.044426903
159	0xbd736f4a	-0.059432305
160	0xbc8be003	-0.01707459
161	0xbc5cfe71	-0.013488398
162	0xbc6b931f	-0.014378338
163	0xbd39b943	-0.045342695
164	0xbd84d049	-0.0648504
165	0xbd703875	-0.05864759
166	0xbd614f46	-0.05500724
167	0x3d0651fe	0.032793038
168	0x3c762d2f	0.015025421
169	0xbd90d75b	-0.07072326
170	0xbd7dbd18	-0.061947912
171	0x3d9bb7b3	0.07603397
172	0xbd8911c2	-0.0669284
173	0x3d4659f8	0.048425645
174	0xbc4c449c	-0.01246753
175	0xbd7689ef	-0.060190137
176	0x3ccecd24	0.025244303
177	0x3d5e63eb	0.054294508
178	0x3ce9e9ed	0.028553927
179	0xbc45ab30	-0.01206474
180	0xbca67ab3	-0.02032218
181	0xbc7a5e83	-0.015281322
182	0xbdab4df6	-0.08364479
183	0x3cab41ee	0.020905461
184	0xbd1b6c02	-0.0379448
185	0x3c54aaba	0.0129801575
186	0xbc3c047f	-0.011475681
187	0x3d6622f9	0.056185696
188	0xbda2d1f5	-0.079502024
189	0xbd2401fa	-0.040040947
190	0x3d11756a	0.035512365
191	0xbca61960	-0.020275772
192	0x3d9af4a0	0.0756619
193	0xbd571a07	-0.052515056
194	0x3d0c851a	0.034306623
195	0x3d160b36	0.036631785
196	0x3dd754ff	0.105142586
197	0x3d8e9597	0.06962126
198	0x3d29808c	0.041382357
199	0x39519583	0.0001998749
200	0x3c3e896a	0.011629442
201	0x3d8f93ae	0.070105895
202	0xbd90fe95	-0.07079808
203	0xbd993b93	-0.07482066
204	0xbb840dfa	-0.0040299864
205	0xbd780edc	-0.060561046
206	0x3cc92896	0.024555486
207	0xbbbdc25a	-0.005790991
208	0x3d8a8079	0.067627855
209	0x3d5da7a2	0.054114945
210	0xbd988976	-0.074480936
211	0x3dd6e5c3	0.10493042
212	0xbd9d5fc1	-0.07684279
213	0xbd8a63e1	-0.06757332
214	0xbd18fce3	-0.037350547
215	0x3b94a77b	0.004536567
216	0x3b3fc94a	0.0029264265
217	0xbcf173ab	-0.0294741
218	0xbb33012b	-0.0027313929
219	0xbd29e004	-0.041473404
220	0xbc96bdeb	-0.018401107
221	0x3d37c4b1	0.044865314
222	0x3d5c2036	0.053741656
223	0xbd004a03	-0.031320583
224	0x3d413f3e	0.047179453
225	0x3d36d8a6	0.044640206
226	0x3c0ff0f6	0.008785477
227	0xbced9028	-0.028999403
228	0x3d60bd61	0.054868106
229	0x3c1426c9	0.00904245
230	0x3d9a4a3b	0.075336896
231	0x3d7ebc58	0.062191337
232	0xbdc6f304	-0.0971432
233	0xbc1b7b1b	-0.0094898
234	0xbd4d575e	-0.050132148
235	0x3b7dee9c	0.0038746959
236	0x3d89365f	0.066998236
237	0x3ccf6816	0.025318187
238	0xbc326f3d	-0.010890779
239	0x3d0439ed	0.032281805
240	0x3d3b231a	0.045687772
241	0xbd5d58ca	-0.054039754
242	0x3d66456b	0.056218546
243	0x3c407327	0.011746204
244	0x3cfa61e9	0.030564265
245	0xbcb3bbe9	-0.021940188
246	0x3d745d10	0.059659064
247	0x3cdb2996	0.026753228
248	0xbcae474e	-0.021274235
249	0xbbd5643d	-0.0065121935
250	0xbd7ba640	-0.061437845
251	0xbde39081	-0.11111546
252	0xbc8b7198	-0.01702194
253	0xbd8e239f	-0.06940388
254	0x3acacf2d	0.001547312
255	0x3d8bea67	0.06831818

a2c_network.actor_mlp.4.bias f4 [64]
0	0x3cdbb520	0.026819766
1	0xbc1451e6	-0.009052729
2	0xbc808974	-0.015690543
3	0xbccf9669	-0.025340276
4	0x3c2eec42	0.010676445
5	0xbcbd74c5	-0.02312697
6	0xbc067995	-0.008207698
7	0x3cfabd79	0.030607926
8	0xbcd8281f	-0.026386319
9	0xbbdb1155	-0.0066854157
10	0x3b1e621e	0.002416737
11	0x3cb03e70	0.021514148
12	0xbcddd323	-0.027078217
13	0xbc46b058	-0.012127005
14	0xbcade140	-0.021225572
15	0x3c081b1c	0.008307245
16	0xbcbb4d97	-0.022864146
17	0x3cb0ae82	0.021567587
18	0x3d1c89fc	0.03821753
19	0xbcaeffb1	-0.021362158
20	0x3c5c82f1	0.013458953
21	0xbc4cb9b8	-0.012495451
22	0xbc1f598a	-0.009725938
23	0xbcd44962	-0.025913898
24	0x3b888f41	0.004167468
25	0xbccf7992	-0.025326524
26	0xbcee874d	-0.02911725
27	0x3bbed5f2	0.005823844
28	0x3a556781	0.00081407285
29	0xbcc36aa8	-0.023854569
30	0x3c4e834a	0.012604544
31	0xbcf07573	-0.02935288
32	0x3c110df2	0.0088534225
33	0xbc6eb670	-0.014569864
34	0xbc5a10ef	-0.013309701
35	0xbcd3c426	-0.025850367
36	0xbcd3f091	-0.025871547
37	0xbcd2e2f7	-0.02574299
38	0x3d24b73d	0.040213812
39	0xbca61e12	-0.02027801
40	0x3cd85aab	0.026410421
41	0xbcc8ba57	-0.024502916
42	0x3ce6bd5a	0.028166462
43	0xbca43e02	-0.020049099
44	0x3d1210c7	0.03566053
45	0x3ce2eb8e	0.027700212
46	0x3cd0b52a	0.02547701
47	0x3cc1020c	0.023560546
48	0x3d33b867	0.04387703
49	0xbb8b45dd	-0.0042502717
50	0x3c1368e4	0.008997176
51	0xbcbd1265	-0.02308006
52	0xbcd94435	-0.026521781
53	0x3ceaeb59	0.028676676
54	0x3cb9a750	0.022662789
55	0xbb20b874	-0.0024524005
56	0x3d266409	0.040622745
57	0x3cb76b14	0.022389926
58	0xbccf2810	-0.025287658
59	0x3d14e3d0	0.03635007
60	0xbcb09d9f	-0.021559535
61	0xbbf97896	-0.007613252
62	0xbcddad68	-0.027060226
63	0x3c3165d8	0.010827504

a2c_network.value.weight f4 [1, 64]
0	0xbd6b6914	-0.057473257
1	0x3d8462ae	0.06464134
2	0x3daf9526	0.0857337
3	0x3c86f46d	0.016473973
4	0x3ad46830	0.0016205367
5	0x3d88783b	0.06663557
6	0x3d95581d	0.07292197
7	0x3c92b340	0.017907739
8	0x3cca13bc	0.024667613
9	0x3dd29826	0.10282926
10	0x3de3b9ce	0.11119424
11	0xbd414841	-0.047188047
12	0x3bfbe905	0.00768769
13	0x3dd763f9	0.10517115
14	0x3d811d48	0.06304413
15	0xbdbc49e7	-0.09193783
16	0x3de057e8	0.10954267
17	0xbdc6c8d9	-0.097062774
18	0xbd322d39	-0.04350016
19	0x3ca1e9c9	0.019764798
20	0xbd374966	-0.044747733
21	0x3d818d38	0.063257635
22	0x3b211ad9	0.0024582653
23	0x3df96240	0.12176943
24	0xbd3e59d0	-0.04647237
25	0x3dc3daea	0.09563239
26	0x3bce8d77	0.006303485
27	0xbe01cada	-0.12675038
28	0x3dc7064b	0.09717997
29	0x3db9f117	0.09079187
30	0xbde5506c	-0.1119698
31	0x3c8878c8	0.016659155
32	0xbd7e59ee	-0.062097482
33	0x3da032ef	0.07822215
34	0x3d8c6567	0.068552785
35	0x3d1195ae	0.035543136
36	0x3de09233	0.10965385
37	0x3dedd675	0.1161317
38	0xbd8f25b9	-0.06989617
39	0x3db94062	0.09045483
40	0xbc87bc6d	-0.01656934
41	0x3df5257e	0.11970042
42	0xbdc6fa0c	-0.097156614
43	0xbd113e81	-0.03546
44	0xbd83722f	-0.06418263
45	0xbdeb3fae	-0.11486755
46	0xbdfb9875	-0.12284938
47	0xbda9264c	-0.08259258
48	0xbca0248d	-0.019548679
49	0x3dd7be3a	0.1053433
50	0xbe17323c	-0.14765257
51	0x3d73f7a8	0.059562355
52	0x3d9deb58	0.07710904
53	0xbd392e33	-0.045210075
54	0x3c29f3a9	0.0103730345
55	0xbd97bbe2	-0.07408883
56	0xbcde213a	-0.027115453
57	0xbd6b0be9	-0.057384405
58	0x3da2eb75	0.07955066
59	0xbd8747bc	-0.06605479
60	0x3da84292	0.08215822
61	0x3d6fe8ad	0.058571506
62	0x3ddf01b0	0.10888994
63	0x3d14f2d8	0.036364406

a2c_network.mu.weight f4 [24, 64]
0	0xbdd7abc5	-0.10530809
1	0xbc06a3de	-0.00821778
2	0xbc5d0c46	-0.013491696
3	0xbd62bdd6	-0.055356823
4	0xbdbf1aa7	-0.093312554
5	0x3e0013a2	0.1250749
6	0x3c0f416b	0.008743624
7	0x3d6b6034	0.057464793
8	0x3d13dd7e	0.036099903
9	0x3d8bfc06	0.06835179
10	0xbdd744d4	-0.10511175
11	0xbc952046	-0.018203866
12	0x3da4d2ef	0.08048045
13	0x3c57a6cc	0.013162326
14	0xbd187b46	-0.037226938
15	0x3b64090a	0.0034795427
16	0xbdb58c0b	-0.08864602
17	0x3d10106c	0.03517191
18	0x3bf9a688	0.007618729
19	0xbdb2edb8	-0.087367475
20	0x3d5cca70	0.053903997
21	0xbdd38d95	-0.10329739
22	0x3d9fdeb3	0.078061484
23	0xbd945787	-0.07243257
24	0xbde35ef4	-0.11102095
25	0x3d07d625	0.03316321
26	0xb9ab4fc2	-0.00032675086
27	0x3dcd44ca	0.10022886
28	0xbd7d0947	-0.061776426
29	0x3e0933d4	0.13398677
30	0x3c82cb28	0.015966013
31	0x3cf77657	0.030207796
32	0x3ccb284c	0.024799488
33	0x3d31a076	0.043365918
34	0x3d86b4e7	0.06577473
35	0x3d00f69d	0.03148519
36	0x3df9fc18	0.12206286
37	0xbdc296c0	-0.095014095
38	0xbd87d3fd	-0.066322304
39	0xbcf25cf7	-0.029585345
40	0xbdcb32c2	-0.09921791
41	0xbda1c447	-0.07898765
42	0xbdb8d511	-0.09025014
43	0x3d246f1f	0.040145036
44	0xbd813681	-0.06309224
45	0xbdf099f8	-0.11748117
46	0x3d3b96bd	0.045798052
47	0x3dc9cffc	0.09854123
48	0x3cef82dc	0.029237203
49	0xbdb5c283	-0.08874991
50	0x3dfe9dd8	0.1243245
51	0x3caf3fc2	0.021392707
52	0x3baec099	0.005333018
53	0x356906c8	8.680913e-07
54	0x3dc22b5b	0.09480926
55	0xbd7564ff	-0.05991077
56	0xbdc277f7	-0.09495538
57	0x3d0e4714	0.034735754
58	0xbdaf530f	-0.08560764
59	0xbd7dc637	-0.06195661
60	0x3b07d726	0.0020727604
61	0x3dd8ae30	0.10580099
62	0xbd01aa1e	-0.031656377
63	0xbc88bf3c	-0.01669275
64	0xbddbbb6b	-0.107291065
65	0x3d9b316a	0.07577784
66	0xbdcaacb6	-0.09896223
67	0x3bfc2139	0.00769439
68	0x3d04b46c	0.032398626
69	0xbd0fb36e	-0.035083227
70	0x3d16c74c	0.036811158
71	0x3c626057	0.0138169145
72	0xbd9a3bd4	-0.075309426
73	0xbdc24102	-0.094850555
74	0x3ddd26cf	0.10798418
75	0xbdde8450	-0.1086508
76	0xbd4e3bf9	-0.050350163
77	0x3d8897fb	0.06669613
78	0xbca035f6	-0.01955698
79	0xbce8ce13	-0.028418576
80	0x3c925213	0.017861402
81	0xbcab8733	-0.020938491
82	0x3d5b7737	0.05358049
83	0xbd4daf2a	-0.050215878
84	0x3cf191e8	0.029488519
85	0xbde329d5	-0.11091963
86	0xbc891ce0	-0.016737401
87	0x3dc79c58	0.09746617
88	0x3d56d458	0.0524486
89	0x3add6fe4	0.0016894308
90	0x3cc8f39f	0.02453023
91	0x3de62897	0.11238211
92	0xbc9344bd	-0.017977113
93	0x3d933c85	0.071892776
94	0x3dcd914c	0.10037479
95	0xbcfb6913	-0.030689752
96	0x3d9d9330	0.076940894
97	0x3d396c60	0.04526937
98	0xbd2e8d53	-0.042615246
99	0xbdbcf35e	-0.09226106
100	0xbcae3c95	-0.021269122
101	0x3dd77988	0.10521227
102	0x3d77e9b7	0.060525622
103	0x3dc796a2	0.09745528
104	0xbd90afad	-0.070647575
105	0xbde937f0	-0.11387622
106	0xbd028ebc	-0.031874403
107	0xbe0a39ac	-0.13498563
108	0x3da69c83	0.08135321
109	0xbce4d76d	-0.027934754
110	0xbd9f5d7d	-0.07781503
111	0xbbe3741f	-0.006941333
112	0xbd05bacf	-0.032648858
113	0xbac050e7	-0.0014672548
114	0x3d885674	0.066571146
115	0xbd9ca8b7	-0.07649367
116	0x3d452b35	0.04813691
117	0x3a931379	0.0011221013
118	0x3d91596a	0.070971325
119	0x3c452d42	0.012034716
120	0x3d712c82	0.058880337
121	0xbddb0bbc	-0.106955975
122	0x3d8ef982	0.069811836
123	0x3da9f246	0.08298163
124	0x3ddacae0	0.106832266
125	0x3ca8a8b1	0.02058825
126	0x3bc07fc1	0.0058746045
127	0x3dd5d790	0.10441506
128	0xbdaf2deb	-0.0855368
129	0xbce9af4e	-0.028525975
130	0x3c69b7e0	0.014265031
131	0xbda4bce6	-0.08043842
132	0x3dd37cd3	0.10326543
133	0x3d957845	0.0729833
134	0x3da4edf6	0.080532
135	0x3d932f12	0.07186712
136	0x3ce7e54f	0.028307585
137	0x3ca70649	0.02038874
138	0x3d8ba120	0.068178415
139	0x3cecf40d	0.028924966
140	0xbc90f081	-0.017692806
141	0xbc7c2c7a	-0.015391463
142	0xbbdb4901	-0.0066920524
143	0xbdb73f4f	-0.08947622
144	0x3d47cb99	0.04877815
145	0x3df8161f	0.12113594
146	0x3d24eed0	0.04026681
147	0x3b1b0a4f	0.0023657267
148	0xbb018fe5	-0.0019769606
149	0xbdecea08	-0.115680754
150	0xbe02a78d	-0.12759228
151	0xbddcd762	-0.107832685
152	0xbd8452e0	-0.0646112
153	0xbdfaeab7	-0.122517996
154	0x3ca987b4	0.020694591
155	0x3e0ab3c3	0.13545136
156	0xbd280f62	-0.041030295
157	0x3d990035	0.074707426
158	0x3da3bbc2	0.07994796
159	0x3d9e757b	0.07737251
160	0x3d6aa955	0.057290394
161	0x3da5ef4f	0.08102285
162	0x3da2cd38	0.079492986
163	0xbd984366	-0.0743473
164	0x3c91411c	0.017731242
165	0x3d8295be	0.06376217
166	0xbdaab540	-0.08335352
167	0xbdba2eac	-0.09090933
168	0x3da9a6d1	0.08283771
169	0xbd944055	-0.07238833
170	0xbd78db32	-0.060755916
171	0xbc2b0cfa	-0.010440106
172	0x3c936ea2	0.01799709
173	0xbd156a18	-0.036478132
174	0xbd8f3070	-0.069916606
175	0xbda647eb	-0.08119186
176	0xbd72db52	-0.05929119
177	0x3ddf81d7	0.10913437
178	0x3d2f19ab	0.04274909
179	0xbdba5ecb	-0.091001116
180	0x3dd1ca40	0.10243654
181	0x3db24d80	0.08706188
182	0x3b956de9	0.0045602215
183	0x3a84fd15	0.0010146225
184	0xbd92df81	-0.07171536
185	0xbcf2739a	-0.029596139
186	0x3db53b86	0.08849244
187	0xbd6cf087	-0.057846572
188	0xb9be2173	-0.00036264546
189	0x3d8b74a8	0.0680936
190	0xbdc5668b	-0.09638699
191	0x3c281d9a	0.010260964
192	0x3cf1f117	0.029533906
193	0x3df9997d	0.12187479
194	0xbd81309f	-0.06308102
195	0xbd42c37f	-0.04754972
196	0x3c9820e8	0.018570378
197	0x3d4cedbe	0.050031416
198	0x3da4fa4b	0.08055552
199	0x3d2a2ab7	0.041544642
200	0x3dddd5e0	0.10831809
201	0x3dd27428	0.10276061
202	0xbd720052	-0.059082337
203	0x3d5b9cf4	0.05361648
204	0x3dbd3345	0.092382945
205	0xbd466f3f	-0.048445936
206	0xbd13f0b1	-0.036118213
207	0x3d685350	0.056720078
208	0x3da29e3f	0.07940339
209	0x3c488f5a	0.012241209
210	0xbdc6559f	-0.096843
211	0xbdbf03d8	-0.09326905
212	0x3d0c3049	0.034225736
213	0xbdb7d299	-0.08975715
214	0x3d42b196	0.04753264
215	0x3c5b31b5	0.01337855
216	0x3e071502	0.13191608
217	0x3dd00eec	0.10159096
218	0x3e07cad1	0.13260962
219	0x3dda8302	0.10669519
220	0xbdead2ac	-0.11465964
221	0x3dd5f618	0.10447329
222	0x3dce7bdd	0.10082219
223	0x3db48670	0.088147044
224	0x3ca49073	0.02008841
225	0xbd9ff8e8	-0.07811147
226	0xbdfd5e96	-0.123715565
227	0x3e0279d4	0.12741786
228	0x3d267574	0.040639356
229	0xbdc4e05a	-0.09613104
230	0x3d8a3ac9	0.06749494
231	0x3df43132	0.11923446
232	0x3b3adce8	0.0028513018
233	0x3da8e417	0.0824663
234	0xbe04e26e	-0.12977001
235	0xbd1b4895	-0.037911016
236	0xbe084653	-0.13308077
237	0xbe039878	-0.12851131
238	0xbb594e32	-0.003315818
239	0xbcd8a087	-0.026443733
240	0xbd53d3c2	-0.05171562
241	0xbcf13f4b	-0.029449126
242	0x3db32e7a	0.08749099
243	0x3ddc360a	0.10752495
244	0xbd531c25	-0.051540513
245	0x3d7fc250	0.06244117
246	0xbd7258ad	-0.0591666
247	0x3dbf5eea	0.09344275
248	0xbda3477d	-0.0797262
249	0xbdce3df2	-0.10070409
250	0x3ccb5f5c	0.024825744
251	0xbd103e4c	-0.03521566
252	0x3ca4b6f8	0.020106778
253	0xbd052708	-0.032507926
254	0xbcbe6c41	-0.023244979
255	0xbdf5f4b1	-0.12009562

a2c_network.mu.bias f4 [24]
0	0xbabc53aa	-0.0014368196
1	0xbb31c662	-0.0027126302
2	0x3c36d756	0.0111597385
3	0x3b12bd93	0.0022390827
4	0x3d320360	0.04346025
5	0xbb89213a	-0.004184869
6	0x3d160dd3	0.036634278
7	0x3d09162a	0.033468403
8	0x3c1b3c47	0.00947482
9	0x3c9f583b	0.019451251
10	0xbd0227ab	-0.03177611
11	0xbce004e1	-0.027346076
12	0xbb66d72c	-0.0035223467
13	0xbcdc5736	-0.026897054
14	0x3c3d9faa	0.011573711
15	0xbb6e1bd8	-0.0036332514
16	0xbc0601fb	-0.008179183
17	0x3b86e81a	0.004117024
18	0x3bec833a	0.007217792
19	0x3c0b2022	0.008491548
20	0x3d0fe15b	0.035127025
21	0x3cd215bb	0.025645128
22	0x3bcab44e	0.006186045
23	0x3c501fae	0.0127028655

exp_avg f4 [24]
0	0xbb931679	-0.004488763
1	0xbb72dc82	-0.0037057702
2	0x3a45c68c	0.00075445394
3	0xbc1bb65b	-0.009503926
4	0x3b3a3449	0.0028412512
5	0x3b934124	0.0044938494
6	0x3b1dfbbf	0.0024106351
7	0x3bea76c3	0.007155271
8	0x3bd7a794	0.006581256
9	0xbb5ec53c	-0.0033992073
10	0x3b9d401f	0.0047989036
11	0xbbc4bc72	-0.0060039097
12	0x3bc0e587	0.005886737
13	0xba90e88c	-0.0011055632
14	0xbbd7ae03	-0.006582023
15	0x3bb84567	0.005623508
16	0x3b0e450c	0.0021708636
17	0xbbd5e00b	-0.006526952
18	0xbab7deeb	-0.0014028227
19	0xbb732593	-0.0037101253
20	0xbaa940d7	-0.0012913
21	0xbba499b7	-0.005023207
22	0xbb91d2a3	-0.0044501587
23	0x3b89bf1d	0.0042036907

exp_avg_sq f4 [24]
0	0x39c1de60	0.0003697751
1	0x39d2aabf	0.00040181537
2	0x39c38735	0.00037294035
3	0x39c782e6	0.00038053765
4	0x39c5baca	0.00037713937
5	0x39dcbc25	0.00042101849
6	0x39e5e262	0.00043846952
7	0x39e34844	0.00043350656
8	0x39b0f958	0.00033755112
9	0x39ba4a6a	0.00035532127
10	0x39ded303	0.00042500356
11	0x39cdf9b6	0.00039286696
12	0x39cfbc38	0.0003962235
13	0x39c5ac13	0.00037702973
14	0x39d8c9d8	0.00041349116
15	0x39a360fe	0.00031162048
16	0x39be7d22	0.00036332855
17	0x39c0f9a2	0.00036807085
18	0x39d437fe	0.00040477508
19	0x39c02762	0.00036650436
20	0x39e4ebd9	0.0004366327
21	0x39cf1332	0.00039496418
22	0x39c90156	0.00038338703
23	0x39ddec07	0.0004232826
