runs/lift_30-15-14-24/nn/last_lift_ep_75_rew_-18.34786.pth (torch, 654621 bytes, 36 tensors)

value_mean_std.running_mean f8 [1]
0	0xc02d398445e90c06	-14.612337288568607

value_mean_std.running_var f8 [1]
0	0x409e4a0af471c798	1938.510698106582

value_mean_std.count f8 []
0	0x40f2c01000000000	76801.0

running_mean_std.running_mean f8 [39]
0	0x0000000000000000	0.0
1	0x3ff7ffd70a8357dd	1.4999609385172257
2	0x3ff4cca8e094b084	1.2999657414139003
3	0x3fdfffc96359ca80	0.4999869795057421
4	0x3fd9996d6f7bd7ec	0.3999894703587177
5	0x4007330c0806c5eb	2.899925291735362
6	0x3fdfffc96359ca80	0.4999869795057421
7	0x3fd48374d8553725	0.32052346349961375
8	0x3fed62ba8c5cc183	0.9183018437816347
9	0x3fdfffc96359ca80	0.4999869795057421
10	0x3fe482746ed037ca	0.6409246601413028
11	0x3ff17aadc2270326	1.0924508651807598
12	0x0000000000000000	0.0
13	0x3fefffc96359ca80	0.9999739590114842
14	0x0000000000000000	0.0
15	0x0000000000000000	0.0
16	0x0000000000000000	0.0
17	0x0000000000000000	0.0
18	0x0000000000000000	0.0
19	0x0000000000000000	0.0
20	0x3fe9698b9c71c8a2	0.794133954578019
21	0x3fde84c60b1b3b96	0.4768538578472826
22	0x40239e96a41da03c	9.80974305020947
23	0x0000000000000000	0.0
24	0x0000000000000000	0.0
25	0x0000000000000000	0.0
26	0x0000000000000000	0.0
27	0x0000000000000000	0.0
28	0x0000000000000000	0.0
29	0x0000000000000000	0.0
30	0x0000000000000000	0.0
31	0x0000000000000000	0.0
32	0x0000000000000000	0.0
33	0x0000000000000000	0.0
34	0x0000000000000000	0.0
35	0x0000000000000000	0.0
36	0x0000000000000000	0.0
37	0x0000000000000000	0.0
38	0x3fbfffc96359ca80	0.12499674487643553

running_mean_std.running_var f8 [39]
0	0x3efb4e531ac0acc5	2.6040988515924042e-05
1	0x3f162f894f331ae6	8.463168687731677e-05
2	0x3f125cea209f87ec	7.004908562138729e-05
3	0x3f0110ee1d7d6f3b	3.255106611163438e-05
4	0x3effacbf2ed58b3b	3.020743581795135e-05
5	0x3f300f174e9ad7be	0.00024504012126713357
6	0x3f0110ee1d7d6f3b	3.255106611163438e-05
7	0x3fc8a6b549f872d7	0.19258752929535802
8	0x3fe8c390b90d8e65	0.7738727201762684
9	0x3f0110ee1d7d6f3b	3.255106611163438e-05
10	0x3fdde910fbac6438	0.4673502404926384
11	0x3fdce0cfc81cca48	0.45122141401512694
12	0x3efb4e531ac0acc5	2.6040988515924042e-05
13	0x3f0b4e3bcdd4b9b0	5.208129889876527e-05
14	0x3efb4e531ac0acc5	2.6040988515924042e-05
15	0x3efb4e531ac0acc5	2.6040988515924042e-05
16	0x3efb4e531ac0acc5	2.6040988515924042e-05
17	0x3efb4e531ac0acc5	2.6040988515924042e-05
18	0x3efb4e531ac0acc5	2.6040988515924042e-05
19	0x3efb4e531ac0acc5	2.6040988515924042e-05
20	0x3fd9f450df0f2914	0.4055368593514157
21	0x3ff58cedcc64277c	1.3469064697296451
22	0x3f64be1c5d3a9390	0.002532058142451672
23	0x3efb4e531ac0acc5	2.6040988515924042e-05
24	0x3efb4e531ac0acc5	2.6040988515924042e-05
25	0x3efb4e531ac0acc5	2.6040988515924042e-05
26	0x3efb4e531ac0acc5	2.6040988515924042e-05
27	0x3efb4e531ac0acc5	2.6040988515924042e-05
28	0x3efb4e531ac0acc5	2.6040988515924042e-05
29	0x3efb4e531ac0acc5	2.6040988515924042e-05
30	0x3efb4e531ac0acc5	2.6040988515924042e-05
31	0x3efb4e531ac0acc5	2.6040988515924042e-05
32	0x3efb4e531ac0acc5	2.6040988515924042e-05
33	0x3efb4e531ac0acc5	2.6040988515924042e-05
34	0x3efb4e531ac0acc5	2.6040988515924042e-05
35	0x3efb4e531ac0acc5	2.6040988515924042e-05
36	0x3efb4e531ac0acc5	2.6040988515924042e-05
37	0x3efb4e531ac0acc5	2.6040988515924042e-05
38	0x3efbbb8bacc44ff5	2.644786836565601e-05

running_mean_std.count f8 []
0	0x40e2c02000000000	38401.0

a2c_network.sigma f4 [24]
0	0x3c08e6bd	0.008355794
1	0xbc8413e0	-0.016122758
2	0xbc3726bc	-0.011178669
3	0xbcc491e0	-0.02399534
4	0x3c96c5f1	0.018404933
5	0xbc9dc5dd	-0.019259388
6	0xbbb4a5ee	-0.0055129444
7	0xbc47edf7	-0.012202731
8	0x3c3186b5	0.010835339
9	0x3c2c8398	0.010529421
10	0x3bc7881b	0.006089223
11	0xbca8350e	-0.020533111
12	0xbbf48548	-0.0074621774
13	0xbd087e66	-0.033323668
14	0x3bfc3b12	0.0076974714
15	0xbc0540f8	-0.008133166
16	0xbc63ae57	-0.013896546
17	0xbc9430df	-0.01808971
18	0x3c2afa72	0.010435687
19	0x3c534957	0.012895904
20	0xbb3441b4	-0.0027504982
21	0xbbce2a6f	-0.0062916796
22	0x3c530a9b	0.0128809465
23	0xbc03ba03	-0.008039954

a2c_network.actor_mlp.0.weight f4 [256, 39]
0	0xbd4ed938	-0.050500125
1	0x3d7ff92a	0.06249348
2	0xbcc4389d	-0.023952777
3	0x3db1f20d	0.08688746
4	0x3e265c94	0.16246253
5	0x3de56caa	0.11202367
6	0xbd4ee0aa	-0.050507225
7	0x3d835a54	0.06413713
8	0x3cbca876	0.023029547
9	0x3dce7818	0.100815
10	0xbe03bcbd	-0.12864967
11	0xbe1888ce	-0.14895937
12	0xbd7d6875	-0.061867196
13	0xbdd3a4a3	-0.10334136
14	0x3e068b76	0.13139138
15	0x3d3cea58	0.046121925
16	0x3d87d694	0.066327244
17	0x3d4f6e51	0.050642315
18	0xbb368e5c	-0.002785585
19	0x3e005343	0.12531762
20	0xbe02db76	-0.1277903
21	0x3c7ad884	0.01531041
22	0xbdb800b9	-0.08984513
23	0x3d4a3e50	0.049375832
24	0xbd61e009	-0.055145297
25	0x3d48f94b	0.04906587
26	0xbd08a5e5	-0.033361334
27	0x3e07ff14	0.13280898
28	0xbdc25f43	-0.09490826
29	0xbdc3958f	-0.095500104
30	0xbdc39895	-0.09550587
31	0x3e137b94	0.1440261
32	0x3d5a930a	0.053362884
33	0x3e1dc80b	0.15408342
34	0xbe075251	-0.13214995
35	0xbe22a39f	-0.15882729
36	0xbe0048ff	-0.12527846
37	0xbddc9a72	-0.107716456
38	0x3dacc63b	0.08436247
39	0x3d6adb46	0.05733802
40	0x3ddacc47	0.10683494
41	0xbddf0de4	-0.10891321
42	0xbe0a7096	-0.1351951
43	0x3d715855	0.05892213
44	0xbdba6143	-0.091005825
45	0x3d91b7da	0.07115145
46	0xbd47ea52	-0.04880745
47	0x3d671ba2	0.056422837
48	0xbe1a0f1f	-0.1504483
49	0xbdb35d14	-0.087579876
50	0x3c8c3f30	0.017119974
51	0x3d0aa8b5	0.033852298
52	0xbd89273f	-0.06696939
53	0x3dc379fa	0.095447496
54	0x3ddef034	0.10885659
55	0xbdedd0ac	-0.116120666
56	0xbdaf13fa	-0.08548732
57	0x3e162468	0.14662325
58	0xbd5d511f	-0.05403244
59	0xbd8d4eac	-0.06899771
60	0xbe1e9a02	-0.15488437
61	0xbdf1cc28	-0.11806518
62	0x3d23d7ab	0.0400006
63	0xbcad2508	-0.021135822
64	0xbdee0c80	-0.11623478
65	0x3b762883	0.0037560768
66	0xbde002ec	-0.10938057
67	0xbe0b1cd6	-0.13585219
68	0xbdb495ed	-0.088176586
69	0xbe0f8275	-0.14014609
70	0xbdd0d03d	-0.10195968
71	0x3e23e837	0.16006552
72	0x3cf7c2ae	0.030244198
73	0x3d4a1e07	0.049345043
74	0xbe18eef2	-0.149349
75	0xbdd7624e	-0.10516797
76	0xbd5a50ab	-0.053299587
77	0xba73aef8	-0.0009295787
78	0xbe104822	-0.14090016
79	0xbdba43fa	-0.09094997
80	0xbdf14b2e	-0.117819175
81	0xbcafd692	-0.02146462
82	0xbda6e639	-0.0814938
83	0xbd07710b	-0.03306679
84	0xbe058bce	-0.13041613
85	0xbdfdf1a2	-0.123996034
86	0xbdf11318	-0.1177122
87	0xbd9d1f47	-0.07671981
88	0xbe059da0	-0.1304841
89	0x3de78276	0.1130418
90	0xbd022b68	-0.031779677
91	0x3ded3c79	0.115838
92	0x3d4c5cab	0.049893063
93	0xbe0ad9b0	-0.13559604
94	0x3de2f29d	0.11081431
95	0xbd34769d	-0.04405843
96	0xbd7b6af3	-0.06138129
97	0xbe081b90	-0.13291764
98	0xbe2540d9	-0.16138019
99	0x3d3553f6	0.044269525
100	0xbd695ae7	-0.056971457
101	0x3d7f59e5	0.06234159
102	0xbe0690b0	-0.13141131
103	0x3df3795a	0.1188838
104	0xbdf0ba35	-0.11754266
105	0xbce281f7	-0.027649863
106	0x3d08fe96	0.033445917
107	0x3da94d06	0.08266644
108	0x3e04602b	0.1292731
109	0x3e155f00	0.14587021
110	0xbe020434	-0.12696916
111	0x3d251094	0.040299013
112	0xbd8d0e7a	-0.06887527
113	0xbc8fc003	-0.017547613
114	0xbdf57630	-0.11985433
115	0x3e155ac7	0.1458541
116	0xbe0ec383	-0.1394177
117	0x3daf44ed	0.085580684
118	0x3da00bdb	0.07814761
119	0x3d975c58	0.0739066
120	0xbd84b9ba	-0.06480737
121	0x3e2b54f8	0.16731632
122	0x3d69dd89	0.057096038
123	0x3d2d862a	0.042364277
124	0xbe0407d6	-0.12893614
125	0x3dbe01df	0.09277701
126	0xbb13ed44	-0.0022571841
127	0xbd85313c	-0.06503531
128	0x3e2540f0	0.16138053
129	0x3d123a8f	0.035700377
130	0xbd88bce3	-0.06676652
131	0xbda5fc04	-0.08104709
132	0xbbfa93fa	-0.0076470347
133	0x3db71c41	0.08940936
134	0xbd2799cc	-0.040918157
135	0xbdbb1da0	-0.0913651
136	0xbd609a65	-0.054834742
137	0xbddb1760	-0.10697818
138	0x3d6c58a8	0.057701737
139	0x3e156700	0.14590073
140	0xbe1a5e7f	-0.1507511
141	0x3d185468	0.03718987
142	0x3da96991	0.08272088
143	0x3ceddcc5	0.029035935
144	0xbd6993a7	-0.057025578
145	0x3dab2abf	0.083577625
146	0x3dac568c	0.08414945
147	0x3d7540d3	0.059876274
148	0xbce6818b	-0.028137943
149	0xbd2daddd	-0.042402137
150	0x3c8c5597	0.017130656
151	0xbce7bac1	-0.028287293
152	0xbd437453	-0.047718357
153	0x3dd19f81	0.10235501
154	0x3e0ceab3	0.13761406
155	0x3bc07b38	0.005874064
156	0xbd12d9bf	-0.03585219
157	0xbc73e325	-0.014885698
158	0xbcdb6822	-0.026783053
159	0x3caeff3d	0.021361941
160	0x3ce3391b	0.027737191
161	0xbe2697ed	-0.16268893
162	0xbd9c1d5a	-0.07622786
163	0x3e021c9b	0.12706225
164	0x3d1bb1da	0.03801141
165	0xbccd9c8a	-0.025099058
166	0xbdd60f9d	-0.10452197
167	0xbdf24a4f	-0.118305795
168	0xbe12e147	-0.14343749
169	0xbd8e1862	-0.069382444
170	0x3d5d7ebd	0.054075945
171	0x3dd11a6b	0.10210117
172	0x3d976900	0.07393074
173	0xbe10f0ff	-0.14154433
174	0xbdc53658	-0.09629506
175	0xbccf04e4	-0.025270887
176	0x3e14c3fa	0.14527884
177	0x3cab8d6b	0.020941457
178	0xbd70accc	-0.058758542
179	0x3d87acbf	0.066247456
180	0xbd79d080	-0.060989857
181	0xbdd4433a	-0.10364385
182	0x3def5c6b	0.11687549
183	0xbd951db3	-0.07281055
184	0xbd037bad	-0.03210037
185	0xbe231e89	-0.15929617
186	0x3ddb7b75	0.10716907
187	0x3df875e7	0.12131863
188	0x3d6f093b	0.058358412
189	0xbde4aa72	-0.11165322
190	0xbe21d46a	-0.15803686
191	0xbe052c8a	-0.13005272
192	0x3df48bf8	0.119407594
193	0x3d9d7272	0.07687844
194	0x3df0f26f	0.117649905
195	0x3dabcc96	0.08388631
196	0x3ccf6028	0.025314406
197	0xbc8976ed	-0.016780341
198	0xbe0c1c03	-0.1368256
199	0xbe1be5e2	-0.15224412
200	0xbe290176	-0.16504464
201	0x3d4edc86	0.050503276
202	0xbdc9d3ad	-0.09854827
203	0xbd7a3b73	-0.06109185
204	0xbddb8c8d	-0.10720167
205	0xbd4782b1	-0.04870862
206	0xbe077c5b	-0.13231032
207	0xbdd64861	-0.10463024
208	0x3d1b8840	0.037971735
209	0xbd42ed37	-0.047589507
210	0x3dca73fa	0.09885402
211	0xbd5269e3	-0.051370513
212	0xbdf0915d	-0.11746476
213	0xbce7727f	-0.028252838
214	0xbd9ef821	-0.077621706
215	0xbd871255	-0.065952934
216	0xbe1551cf	-0.14581989
217	0x3d980e63	0.07424619
218	0xbde450a5	-0.11148194
219	0x3da4d466	0.08048324
220	0x3d94d0ab	0.07266363
221	0x3dea4af6	0.11440079
222	0xbdfb8c86	-0.12282662
223	0x3debdaeb	0.11516365
224	0xbd9b090b	-0.07570084
225	0x3d7360f1	0.059418622
226	0x3e19fcdf	0.15037869
227	0xbcb90057	-0.02258317
228	0xbaa24ff9	-0.0012383453
229	0xbd170137	-0.036866393
230	0xbe08e9d7	-0.13370453
231	0x3d9d616a	0.07684596
232	0xbe22c6f4	-0.15896207
233	0x3dace3a6	0.08441858
234	0x3df55ff1	0.1198119
235	0x3e21ce78	0.15801418
236	0xbcff8417	-0.031190915
237	0xbdffd977	-0.1249265
238	0x3d2ea90c	0.042641684
239	0x3dc2988e	0.09501754
240	0xbe1c6699	-0.15273513
241	0xbd83fa90	-0.064442754
242	0xbdeb5f05	-0.11492733
243	0xbbf14c13	-0.007363805
244	0xbdd6a471	-0.104805835
245	0xbd8c2716	-0.068433926
246	0xbd50376b	-0.0508341
247	0xbe150f03	-0.14556508
248	0x3e068a25	0.13138635
249	0x3e097652	0.13424042
250	0xbccdc6ad	-0.02511915
251	0xbc956316	-0.018235724
252	0xbd85d700	-0.065351486
253	0xbe141389	-0.14460577
254	0xbe267ba6	-0.16258106
255	0x3d7e4733	0.06207962

a2c_network.actor_mlp.0.bias f4 [256]
0	0x3c9408aa	0.018070538
1	0xbd1564f5	-0.036473233
2	0xbcccd736	-0.025004964
3	0x3cdf607e	0.02726769
4	0xbcb2a6b9	-0.021808015
5	0xbcc14478	-0.023592219
6	0x3b468f84	0.0030297944
7	0x3cbdf09f	0.023186026
8	0xbbbf22c8	-0.0058330037
9	0x3d13c00a	0.036071815
10	0xbc705142	-0.014667811
11	0xbbcc1337	-0.0062278765
12	0xbc966584	-0.018358953
13	0x3c9d84b2	0.019228313
14	0xbd0f1bfd	-0.0349388
15	0xbcf36a39	-0.029713737
16	0x3c801b88	0.015638128
17	0xbcb46572	-0.02202103
18	0x3c45cf99	0.012073421
19	0xbc9de071	-0.019272061
20	0xbc65e701	-0.014032126
21	0x3a5628b4	0.00081695174
22	0x3ba1a709	0.004933242
23	0xbc1f19f4	-0.009710778
24	0xbb221b4a	-0.0024735504
25	0xbc24a796	-0.010049721
26	0x3c996bdb	0.018728187
27	0xbad34ad1	-0.001612032
28	0x3d0bade9	0.0341014
29	0x3c3b55a0	0.011433989
30	0x3c92d155	0.017922083
31	0x3c63813c	0.013885792
32	0x3d0b5f01	0.03402615
33	0x3ca5aa7c	0.020222895
34	0x3c84f2f4	0.01622913
35	0xbcdd0ee1	-0.026984634
36	0xbcde319f	-0.02712327
37	0xbd088d41	-0.033337835
38	0x3cc02c19	0.023458527
39	0xbc4b1396	-0.012394806
40	0xbce5a014	-0.028030433
41	0xbc552dbe	-0.013011394
42	0xbd09fb63	-0.033687007
43	0xbc398d66	-0.011325216
44	0xbcdaec68	-0.026724055
45	0xbc327491	-0.010892049
46	0xbc3aea06	-0.011408335
47	0xbc65b611	-0.014020459
48	0xbd0bb0f3	-0.0341043
49	0xbccf0563	-0.025271123
50	0xbcc16d39	-0.023611652
51	0x3ce63c50	0.028104931
52	0xbaa8ad7e	-0.0012869088
53	0x3cce07bd	0.025150174
54	0xbcd9663a	-0.026538003
55	0xbbb09787	-0.005389157
56	0xbc20c1df	-0.0098118475
57	0xbc591e61	-0.013251872
58	0xbc6316ad	-0.013860387
59	0xbd17670f	-0.03696352
60	0xbcf74232	-0.030182932
61	0xbc2a3d2d	-0.010390562
62	0x3bac5b23	0.005259888
63	0x3cc0da04	0.023541458
64	0xbccfa450	-0.025346905
65	0x3d08fdb3	0.03344507
66	0xbcebb6c8	-0.02877368
67	0xbcdfc351	-0.027314814
68	0xbcb3c161	-0.021942796
69	0xbb00d703	-0.0019659407
70	0xbb847310	-0.004042037
71	0xbd029fae	-0.031890564
72	0x3c2f08ac	0.01068322
73	0xbb09ee1d	-0.0021046468
74	0x3c0f6a0b	0.00875331
75	0xbc8db6fa	-0.017299164
76	0x3d08384a	0.033256806
77	0x3d0f1a80	0.03493738
78	0xbd00598b	-0.031335395
79	0xbcfbc1ef	-0.030732123
80	0xbd02ce11	-0.0319348
81	0x3cc52e82	0.024070028
82	0x3b73f1ac	0.0037222905
83	0x3d0396d7	0.032126274
84	0x3962738a	0.00021596081
85	0xbc90c077	-0.0176699
86	0xbb337249	-0.0027381352
87	0xbcd9c4c6	-0.026583087
88	0xbc8ae961	-0.016956987
89	0x3c25a43a	0.010109955
90	0xbcedf68b	-0.029048225
91	0xbcce1d7c	-0.025160544
92	0x3d092b01	0.033488277
93	0x3caa880d	0.020816827
94	0x3d006633	0.031347465
95	0xbc828d68	-0.015936568
96	0xbcd3ac4f	-0.025839
97	0x3b23798f	0.002494428
98	0xbc5e785b	-0.0135785
99	0xbc5ad923	-0.0133574335
100	0x3d010f90	0.031508982
101	0x3c0de9f7	0.008661739
102	0x3c91e4c1	0.017809274
103	0x3c935fd3	0.017990028
104	0x3c9a41f3	0.018830275
105	0xbc8e2ab4	-0.017354347
106	0x3ce02c52	0.027364884
107	0xbc961016	-0.018318217
108	0xbc5fb1dd	-0.013653246
109	0xbc759ec8	-0.01499147
110	0xbce34980	-0.027745008
111	0xbceff292	-0.029290471
112	0xbbbeca0a	-0.005822425
113	0x3ce4606c	0.027878009
114	0xbd0b14c2	-0.033955343
115	0x3cb91f92	0.022598062
116	0x3d0b855b	0.034062725
117	0xbc98a832	-0.01863489
118	0xbbe09a36	-0.006854321
119	0xbc443dcd	-0.011977625
120	0x3c85b740	0.016322732
121	0xbcd545b9	-0.026034223
122	0xbcf399b8	-0.029736385
123	0xbc95826d	-0.018250668
124	0xbad47c7c	-0.0016211416
125	0xbce2acd8	-0.027670309
126	0x3c6e1a96	0.014532706
127	0x3d0889e1	0.033334617
128	0x3cc02a76	0.023457747
129	0x3c84ba9e	0.016202267
130	0xbcb3333e	-0.02187502
131	0x3cbee307	0.023301614
132	0xbc6a2999	-0.014292144
133	0xbc019567	-0.007909155
134	0xbbbfad80	-0.0058495402
135	0x3cea8f03	0.028632646
136	0xbbeeda8a	-0.0072892355
137	0xbcafcfa0	-0.021461308
138	0xbcca9c74	-0.024732806
139	0x3cf7130e	0.030160453
140	0xbb69d20d	-0.0035678179
141	0x3d0dba8a	0.034601726
142	0x3d12f851	0.035881344
143	0x3cf930d4	0.03041879
144	0x3c3cbf38	0.0115201995
145	0x3c2d4e1a	0.010577703
146	0xbbbd56c1	-0.005778164
147	0x3c497f95	0.012298484
148	0x3cc5f794	0.024165906
149	0x3b7476b1	0.003730219
150	0x3ca12fa0	0.01967603
151	0x3cae3572	0.02126572
152	0xbb91d24a	-0.0044501172
153	0xbcfee71a	-0.031116057
154	0x3c33c4c6	0.010972207
155	0x3c347792	0.011014836
156	0xbcfa14dd	-0.030527527
157	0xbc16632d	-0.009178919
158	0xbcb1a541	-0.021685245
159	0xbcd51cb7	-0.026014669
160	0xbcf6b536	-0.030115705
161	0xbc02ad68	-0.007975914
162	0xbceb3786	-0.028713
163	0xbba4a615	-0.0050246813
164	0xbc9e2feb	-0.019309958
165	0x3d242eab	0.04008357
166	0xbabb3766	-0.0014283478
167	0xbcd9aea8	-0.02657254
168	0x3c9500c4	0.018188842
169	0x3bd0c3f7	0.006371017
170	0x3d062290	0.032747805
171	0x3ca34f88	0.019935384
172	0xbc865ea9	-0.01640256
173	0x3ca5e79e	0.020252045
174	0x3b9798be	0.0046263626
175	0xbd0129d4	-0.03153403
176	0x3d02e762	0.031958945
177	0xbc824985	-0.015904197
178	0xbc8b985e	-0.017040428
179	0xbcf8e7b3	-0.03038392
180	0xbcdfb34f	-0.02730718
181	0x3d060150	0.032716095
182	0xbba26447	-0.0049558016
183	0x3cfe8283	0.031068092
184	0x3c0681b7	0.008209637
185	0x3d0b72fd	0.03404521
186	0xbc943e34	-0.018096067
187	0xbcf9c1bf	-0.030487893
188	0xbc6cd4d1	-0.014455036
189	0x3bf1e417	0.0073819268
190	0x3d070bc3	0.0329702
191	0xbc8b6077	-0.017013771
192	0x3d1453f9	0.036212895
193	0xbc2a33f5	-0.010388364
194	0x3c7dc103	0.015487912
195	0x3c4ec0c9	0.012619206
196	0x3cd28583	0.025698429
197	0xbccfce01	-0.025366785
198	0xbc5a2308	-0.013314016
199	0xbcf79fb6	-0.030227523
200	0x3cb4f239	0.022088157
201	0xbbb60383	-0.005554618
202	0x3cdc8ac7	0.026921643
203	0x3ca90afb	0.020635119
204	0xbc3a80cd	-0.011383248
205	0xbca43ba2	-0.020047966
206	0xbca2eb43	-0.019887572
207	0x3cbe7d6c	0.023253165
208	0x3b98e156	0.004665534
209	0xbbd5898e	-0.006516642
210	0x3c8d7788	0.017268911
211	0xbcbdb8e8	-0.02315946
212	0xbc56d04b	-0.013111184
213	0x3b3a1977	0.0028396526
214	0x3cce57cf	0.025188355
215	0x3cf8a382	0.030351404
216	0xbcf0313f	-0.029320357
217	0xbce4f26f	-0.027947633
218	0x3d0c5374	0.034259275
219	0x3cd7fb50	0.026364952
220	0x3c67696e	0.0141242575
221	0xbb716c2b	-0.0036838155
222	0x3c81e1bc	0.015854709
223	0xbb2c0b36	-0.00262518
224	0x3bb5bae7	0.005545962
225	0x3bc28f8f	0.0059375237
226	0xbc2d0628	-0.01056055
227	0xba40acab	-0.0007349948
228	0xbbfe2604	-0.0077559967
229	0xbbb124b8	-0.0054059885
230	0x3ba72694	0.0051010344
231	0x3bf5577a	0.0074872347
232	0xbcfe6b98	-0.031057164
233	0x3b0ffada	0.0021969588
234	0xbc3477a5	-0.011014854
235	0x3ca90d8b	0.02063634
236	0x3c7a75ff	0.0152869215
237	0x3b670a69	0.0035254008
238	0x3ca7f79a	0.020503808
239	0xbd05afad	-0.03263824
240	0x3c8764c5	0.016527543
241	0xbc367656	-0.011136612
242	0x3c88372c	0.01662787
243	0x3d081a38	0.03322813
244	0x3cb2e44f	0.021837382
245	0x3cfc169e	0.030772503
246	0x3d0bd0f7	0.03413483
247	0xbb8f3b8e	-0.004371113
248	0xbd09325e	-0.0334953
249	0x3d07440f	0.03302389
250	0xbbe4b3ea	-0.0069794552
251	0x3ce2c782	0.027683023
252	0x3c082bcf	0.008311226
253	0x3d046af5	0.032328565
254	0x3c67c023	0.01414493
255	0xbcdeb360	-0.027185142

a2c_network.actor_mlp.2.weight f4 [128, 256]
0	0x3c6ff24e	0.014645172
1	0xbc25092c	-0.0100729875
2	0x3cb69098	0.022285745
3	0xbd1dbb48	-0.038508683
4	0xbd21c890	-0.039497912
5	0x3d4aeddc	0.049543247
6	0xbd6608f8	-0.056160897
7	0xbd88ff83	-0.0668936
8	0xbd537136	-0.05162164
9	0xbd6cc205	-0.05780222
10	0xbd55bcac	-0.052181885
11	0xbd0298d3	-0.031884026
12	0x3cc3e7e2	0.023914281
13	0xbda8ff50	-0.08251822
14	0xbd914580	-0.07093334
15	0xbd1a23ad	-0.03763168
16	0xbd8f18e6	-0.06987171
17	0x3c8d5ee9	0.01725717
18	0xbce7f5f7	-0.028315527
19	0x3d1ab926	0.037774228
20	0x3da2d0d8	0.0794999
21	0xbd2c257b	-0.04202793
22	0xbc0e12d6	-0.008671483
23	0xbc80aa2d	-0.015706146
24	0x3cf3a553	0.029741919
25	0x3cfd7bec	0.03094288
26	0xbcd8ec08	-0.026479736
27	0x3c365412	0.011128442
28	0xbd8ceb15	-0.06880776
29	0xbd29181e	-0.041282766
30	0xbd558aba	-0.052134253
31	0xbdb0710c	-0.08615312
32	0xbd59203c	-0.053009257
33	0xbd24c2d6	-0.040224873
34	0xbc3c1f2d	-0.011482042
35	0x3cf88460	0.030336559
36	0x3b9db371	0.004812651
37	0xbc2a66cf	-0.010400488
38	0xbc2987b7	-0.010347298
39	0x3d880b98	0.06642836
40	0xbd1144d3	-0.035466027
41	0x3d3d5c5c	0.04623066
42	0x3d0a9159	0.03383002
43	0xbd0e12bd	-0.03468584
44	0x3d42f4d3	0.047596764
45	0x3ce01784	0.027354963
46	0xbd68bc72	-0.05682034
47	0x3d9349b9	0.07191796
48	0x3c59b366	0.013287401
49	0x3d9d4d2f	0.07680737
50	0xbb36bd68	-0.002788389
51	0xbcc6b6ee	-0.02425715
52	0x3d9ea748	0.0774675
53	0xbb87995d	-0.0041381554
54	0x3d368c96	0.044567667
55	0xbc7ca3ca	-0.01541991
56	0x3d1e3333	0.038623046
57	0xbc583cc6	-0.013198083
58	0x3d0c73cb	0.034290116
59	0x3cebae65	0.028769681
60	0xbc77b0c1	-0.015117825
61	0x3d859b23	0.065237306
62	0x3cefda6a	0.029278953
63	0x3bfc4600	0.0076987743
64	0x3cbf14ce	0.02332535
65	0x3ba541ba	0.0050432356
66	0xbbdd0d08	-0.006745938
67	0x3d27c554	0.04095967
68	0xbd8af474	-0.06784907
69	0xbd4cfbae	-0.050044708
70	0x3d19b9f5	0.037530858
71	0xbcfbf35b	-0.03075569
72	0xbcd6c79a	-0.026218224
73	0x3d3eaefc	0.046553597
74	0x3c6fce40	0.014636576
75	0xbccee87a	-0.025257338
76	0x3c3fe73e	0.011712847
77	0x3d090979	0.0334563
78	0xbd1279f5	-0.03576084
79	0x3d379ca8	0.044827133
80	0xbb903f1e	-0.0044020554
81	0xbd12a582	-0.03580237
82	0xbce56c39	-0.028005706
83	0xbc9938b4	-0.018703796
84	0x3d00a813	0.031410288
85	0xbbb642d4	-0.0055621658
86	0xbd9202e9	-0.07129461
87	0xbbf66357	-0.0075191665
88	0x3d85a15e	0.06524919
89	0xbc89bdc2	-0.016814116
90	0x3d996852	0.07490601
91	0x3d21592e	0.03939169
92	0x3d75198f	0.059838828
93	0xbc36eb73	-0.011164534
94	0xbd49d42c	-0.04927461
95	0xbdac9c91	-0.084283
96	0xba7b2d62	-0.00095816527
97	0xbcf4fe4b	-0.029906413
98	0xbbd9ec21	-0.006650463
99	0x3d20be15	0.039243776
100	0x3d5d0919	0.053963754
101	0xbdc2da7b	-0.09514328
102	0xbd0efc7f	-0.034908768
103	0xbc5943cb	-0.013260792
104	0xbc576023	-0.013145479
105	0x3d72603b	0.059173804
106	0xbcc74f0a	-0.024329681
107	0x3d0b58cc	0.03402023
108	0xbcc14468	-0.023592189
109	0xbbd5ba44	-0.0065224487
110	0xbc80cabe	-0.015721675
111	0xbc944cdb	-0.018103054
112	0xbd071c31	-0.03298587
113	0xbd905520	-0.07047486
114	0xbc289d5c	-0.010291424
115	0xbc6da761	-0.014505238
116	0xbd3ef931	-0.046624366
117	0xbc3759b2	-0.011190819
118	0xbd799aa0	-0.060938478
119	0xbd0f87a1	-0.035041455
120	0xbd8c794d	-0.06859074
121	0x3d977460	0.07395244
122	0xbb9190e3	-0.0044423207
123	0x3d1470be	0.03624033
124	0xbd8dd23d	-0.069248654
125	0x3b918bfc	0.0044417363
126	0xbda7dc22	-0.08196284
127	0x3ced93e1	0.029001178
128	0x3d4b45b8	0.049627036
129	0xbda3952a	-0.07987435
130	0x3d6cb967	0.057794
131	0xbb756767	-0.0037445666
132	0xbd6de367	-0.058078196
133	0x3c22c233	0.009933996
134	0x3d2c173e	0.042014353
135	0xbd4a0527	-0.04932132
136	0x3d24b60f	0.040212687
137	0x3cce7bce	0.025205519
138	0x3d0aff1d	0.0339347
139	0xbc19a281	-0.009377123
140	0x3ccca305	0.024980078
141	0x3c3362c5	0.010948841
142	0x3d92a769	0.07160837
143	0xbd8605d1	-0.06544078
144	0xb7a19eb9	-1.9266607e-05
145	0x3c740fc0	0.014896333
146	0xbd27f85e	-0.041008346
147	0xbc9a7b95	-0.018857757
148	0x3d285385	0.041095275
149	0x3ced8a51	0.028996618
150	0x3b0db33f	0.0021621732
151	0xbafc901f	-0.0019269026
152	0xbd7b16da	-0.06130109
153	0x3d31ae3f	0.043379065
154	0xbcf6a8b9	-0.03010975
155	0xbdc0ed5c	-0.09420273
156	0x3cbbc65a	0.02292173
157	0xbcb0efc5	-0.021598706
158	0x3cd0d8ed	0.025494063
159	0x3d83875f	0.06422304
160	0x3d6a69eb	0.057229917
161	0x3d049695	0.03237017
162	0xbd2d08c1	-0.042244677
163	0xbba77152	-0.0051099444
164	0x3d0f4b48	0.034983903
165	0xbd370178	-0.044679135
166	0x3d3f645f	0.04672658
167	0x3d463296	0.048388086
168	0xbd80c50f	-0.06287586
169	0xbc877af9	-0.01653813
170	0xbd062acf	-0.03275567
171	0x3c85bf73	0.016326642
172	0x3d0aa5a4	0.033849373
173	0xbd2f2222	-0.04275716
174	0x3ca3ce8f	0.019995956
175	0xbc4c09f9	-0.01245355
176	0x3d3414cd	0.04396515
177	0x3d3752b4	0.044756606
178	0x3c38ebc6	0.0112866815
179	0xbd6ef8c3	-0.058342706
180	0x3d00d1e6	0.031450175
181	0xbd20ef53	-0.039290737
182	0x3d025f74	0.031829312
183	0xbc3f035e	-0.011658518
184	0x3d584209	0.05279735
185	0xbbc5b81f	-0.006033912
186	0x3b6cd1b0	0.0036135726
187	0xbd2b7758	-0.041861862
188	0x3ca21749	0.019786494
189	0xbc5a9305	-0.013340716
190	0x3c94a58e	0.018145349
191	0x3c676d3b	0.014125164
192	0xbd4acc71	-0.049511377
193	0xbd5236aa	-0.051321663
194	0x3d10349c	0.035206422
195	0xbd304944	-0.04303862
196	0xbd6dfbc7	-0.05810144
197	0x3d7888ab	0.06067721
198	0xbd0b2c40	-0.033977747
199	0xbce31aa9	-0.027722673
200	0xbd8f17b2	-0.069869414
201	0x3ce3b878	0.027797922
202	0xbc029dfe	-0.007972239
203	0x3c2b4601	0.010453702
204	0x3be3e049	0.006954227
205	0xbbaa0421	-0.0051884805
206	0xbba6cce1	-0.0050903414
207	0x3d6afdb4	0.057370856
208	0x3c80eeba	0.015738834
209	0x3c9d104d	0.019172812
210	0xbda88bf1	-0.08229817
211	0xbd3fb8fb	-0.04680727
212	0x3c297024	0.010341678
213	0x3bfb6dd3	0.007673004
214	0x3ac68dbd	0.0015148442
215	0xbc8de502	-0.017321113
216	0x3c6f0a8c	0.014589917
217	0x3d56113b	0.052262526
218	0xbcafa579	-0.021441208
219	0x3c018c6f	0.007907017
220	0xbcae57ab	-0.021282038
221	0x3d944c04	0.07241061
222	0xbc2eebf1	-0.01067637
223	0xbc0fbd04	-0.008773092
224	0x3d86921b	0.06570836
225	0xbd28ee94	-0.04124315
226	0x3c60f28c	0.013729703
227	0xbd031179	-0.031999085
228	0xbd667b8a	-0.05627016
229	0x3d09f902	0.033684738
230	0xbbfb3ca4	-0.007667141
231	0xbdc4c254	-0.09607378
232	0xbd551789	-0.052024398
233	0xbc4b681e	-0.01241496
234	0x3d13115f	0.03590524
235	0x3c84804c	0.016174458
236	0xbb1da92e	-0.0024057138
237	0x3d10b430	0.03532809
238	0xbd8fe85c	-0.07026741
239	0x3d0d0df8	0.03443715
240	0x3a90fa65	0.0011060952
241	0x3a8ef1fc	0.0010905857
242	0x3c8f1559	0.017466234
243	0x3c16a090	0.0091935545
244	0xbb863193	-0.004095265
245	0x3cfb4187	0.030670894
246	0x3d7b3108	0.061326057
247	0x3d8c3aa6	0.06847124
248	0xbc2a537a	-0.010395879
249	0x3cc9ff61	0.024657907
250	0x3cfcc9b8	0.030857906
251	0xbce374a8	-0.027765587
252	0x3d615004	0.05500795
253	0x3c864cc2	0.016394023
254	0x3d68b254	0.056810692
255	0xbc4a16dc	-0.012334552

a2c_network.actor_mlp.2.bias f4 [128]
0	0xbc8bcbeb	-0.01706501
1	0x3d0c9678	0.034323186
2	0xbb896395	-0.0041927793
3	0x3c8acad6	0.016942423
4	0xbcf39f87	-0.029739155
5	0xbc927cac	-0.017881714
6	0xbc8135c0	-0.0157727
7	0x3d108a2d	0.035288025
8	0xbd0591aa	-0.03260962
9	0x3c14b14d	0.009075475
10	0x3c12609b	0.008934165
11	0x3d00473a	0.031317927
12	0x3cf83178	0.030297026
13	0xbce08b2c	-0.027410112
14	0x3c8d2ce8	0.017233327
15	0x3ccc17b6	0.02491365
16	0xbd0343d0	-0.032047093
17	0xbbf9cf93	-0.0076236217
18	0x3cccef23	0.025016373
19	0xbcec7c43	-0.028867846
20	0xbcbe2d9c	-0.023215108
21	0x3cd0db9a	0.02549534
22	0x3d19123f	0.037370916
23	0x3c8630c7	0.01638068
24	0x3d0da497	0.034580793
25	0x3c7e6d2e	0.01552896
26	0xbcc90ce3	-0.024542278
27	0xbc9ccb3f	-0.019139884
28	0x3c608bf3	0.0137052415
29	0xbcda993b	-0.026684394
30	0xbb81b9eb	-0.0039589307
31	0xbcd69808	-0.026195541
32	0x3d0be8cc	0.03415756
33	0xbcded743	-0.027202254
34	0xbcf75383	-0.030191189
35	0x3d1c7225	0.038194794
36	0xbae26225	-0.0017271681
37	0xbad48e0d	-0.0016216651
38	0x3bdca9c5	0.0067341053
39	0xbcc83a85	-0.024441967
40	0xbcecefd4	-0.028922953
41	0xbcbc4923	-0.022984093
42	0xbcbdd7ac	-0.02317413
43	0xbc887ebd	-0.016661996
44	0x3d21d635	0.039510924
45	0xbcd9413d	-0.026520366
46	0xbcdbf3e1	-0.026849689
47	0x3ceb8f68	0.028754905
48	0x3c88fb29	0.016721325
49	0xbd09dc98	-0.03365764
50	0xbcd48a4f	-0.025944857
51	0x3cd7c62f	0.026339618
52	0x3cc8e821	0.02452475
53	0xbce0e80e	-0.027454402
54	0xbcc974f1	-0.024591895
55	0x3bc0fa42	0.005889208
56	0x3d34207e	0.0439763
57	0xbc41e65e	-0.011834709
58	0xbc94e5e9	-0.018176036
59	0x3c88350e	0.016626861
60	0x3cd95253	0.026528513
61	0x3cf2b3cb	0.029626748
62	0x3c273917	0.010206482
63	0x3cdf358c	0.027247213
64	0x3d2b3953	0.041802716
65	0x3cf099d6	0.02937023
66	0x3d265c98	0.040615648
67	0x3d03e57a	0.032201268
68	0x3a0e4d0c	0.0005428351
69	0x3cf7b91c	0.030239634
70	0x3d2d1ffc	0.04226683
71	0x3c0f9df8	0.00876569
72	0xbced07ae	-0.028934326
73	0xbc0f0a5d	-0.008730498
74	0xbc8266bd	-0.01591813
75	0x3d0ca70d	0.034339
76	0x3c593225	0.013256584
77	0x3cdaaef0	0.026694745
78	0x3d040ce9	0.032238875
79	0xbcbb5220	-0.022866309
80	0x3d2450f5	0.04011627
81	0xbcea9c1f	-0.028638897
82	0xbc7a07b9	-0.01526063
83	0x3d1efe7f	0.038816925
84	0xbcda07a2	-0.026614968
85	0x3ce8bf67	0.02841158
86	0xbd021ec5	-0.031767625
87	0xbceedd72	-0.029158328
88	0x3d10c3b8	0.035342902
89	0x3c2997f3	0.010351169
90	0x3c3ea7af	0.011636659
91	0xbcd775d9	-0.026301311
92	0x3ceb7c8f	0.028745918
93	0x3d1a9ae2	0.037745364
94	0x3d12c707	0.03583434
95	0xbce45ace	-0.02787533
96	0x3cfd46ac	0.030917488
97	0xbcf9d821	-0.030498566
98	0x3cc80d48	0.024420395
99	0xbc5384c6	-0.012910074
100	0xbcc4f66b	-0.024043282
101	0x3caa59c2	0.020794753
102	0x3d040b39	0.032237265
103	0x3c8e48ce	0.0173687
104	0x3c896bd9	0.016775059
105	0x3d0a0b0f	0.033701953
106	0x3d0c9b8c	0.03432803
107	0xbcfd22bd	-0.030900354
108	0xbbcb90eb	-0.006212344
109	0xbce92701	-0.028460981
110	0x3d1e7ae4	0.038691416
111	0xbbebd4c5	-0.007196995
112	0xbcf33732	-0.029689405
113	0x3c2d6027	0.010582007
114	0x3c752d9d	0.014964488
115	0x3cfb853c	0.03070318
116	0x3d095455	0.03352769
117	0x3c05bea4	0.008163128
118	0xba999b40	-0.0011719242
119	0xbcce3533	-0.025171852
120	0xbcd5f854	-0.026119389
121	0xbcf997f1	-0.03046796
122	0x3cc1de5f	0.023665605
123	0xbcb19bc2	-0.021680716
124	0xbc46cd48	-0.012133904
125	0xbd0dc35a	-0.03461013
126	0x3d17a483	0.037022125
127	0x3c1315b0	0.008977339

a2c_network.actor_mlp.4.weight f4 [64, 128]
0	0x3cdec11a	0.027191687
1	0x3be1263d	0.0068710134
2	0x3b7a5d46	0.0038202568
3	0x3db3301a	0.08749409
4	0x3cacb513	0.021082437
5	0xbbf0c6d0	-0.007347919
6	0xbd15bb49	-0.036555562
7	0x3c7b9ed0	0.015357688
8	0xbdb5d06c	-0.08877644
9	0x3db87b11	0.09007848
10	0xbd882d28	-0.06649238
11	0x3da6bc46	0.08141379
12	0x3dcfb439	0.101417966
13	0x3cb635ef	0.022242514
14	0x3dc2b5c6	0.09507327
15	0xbd19a6a6	-0.037512444
16	0xbb946450	-0.0045285597
17	0x3d3d7863	0.046257388
18	0xbd5447d3	-0.05182631
19	0xbdcdeeb0	-0.10055292
20	0x3c648cf4	0.0139496215
21	0x3dc4664e	0.095898256
22	0x3d8a709b	0.06759759
23	0x3d22417d	0.039613236
24	0x3d4ee838	0.05051443
25	0x3d7949c6	0.06086137
26	0xbdb3d6a3	-0.08781173
27	0xbdab9b9e	-0.08379291
28	0x3da5c1db	0.080936156
29	0xbd772f79	-0.060348008
30	0x3b07723e	0.002066746
31	0xbd5ff40f	-0.05467611
32	0x3d240f64	0.04005374
33	0x3ace8926	0.0015757426
34	0x3d7e174c	0.062033936
35	0x3bc9cf57	0.00615875
36	0x3c94bc80	0.01815629
37	0xbcff9eea	-0.031203706
38	0x3d763f43	0.060118925
39	0xbb329b14	-0.0027253078
40	0x3d872416	0.0659868
41	0xbdaf5217	-0.08560579
42	0xbd25eb65	-0.040507693
43	0x3d4cc2ab	0.049990337
44	0xbd7187de	-0.058967464
45	0xbd3ca710	-0.04605776
46	0x3c93b249	0.018029349
47	0xbc8ec294	-0.017426766
48	0xbd524cf4	-0.05134292
49	0xbcd12755	-0.02553145
50	0x3d591be3	0.05300511
51	0x3cf450fb	0.02982377
52	0xb8912cde	-6.922496e-05
53	0xbdb5f45d	-0.08884499
54	0xbd0d9a00	-0.034570694
55	0x3cfc51a0	0.03080064
56	0xbd8ef360	-0.06980014
57	0x3db70578	0.0893659
58	0x3ad97315	0.0016590083
59	0x3d9bf2dc	0.07614681
60	0x3ccc5795	0.024944106
61	0xbd7c1c36	-0.06155034
62	0x3d01db15	0.031703074
63	0xbd46a97e	-0.048501484
64	0x3d06ca1b	0.032907587
65	0x3c588c38	0.0132170245
66	0xbd69d642	-0.057089098
67	0x3d17eeaa	0.037092842
68	0xbd53a365	-0.051669497
69	0x3d8ec0ee	0.06970392
70	0xbc294c83	-0.010333183
71	0xbd5add05	-0.053433437
72	0xbdc704be	-0.097177014
73	0xbd61cb25	-0.055125374
74	0x3d77ec83	0.06052829
75	0x3ddc9362	0.107702985
76	0x3d43be54	0.047788933
77	0xbd7e3e3f	-0.06207108
78	0x3d07d528	0.033162266
79	0xbd7ba8fb	-0.06144045
80	0x3d7f0e23	0.06226934
81	0x3d7fbc51	0.062435452
82	0x3d11706f	0.035507616
83	0x3cae2508	0.021257892
84	0xbd07cc77	-0.033153977
85	0xbc964140	-0.01834166
86	0xbd839913	-0.06425681
87	0xbd93ab73	-0.07210436
88	0x3d35cb43	0.0443833
89	0x3d9b486e	0.07582174
90	0xbc8210dd	-0.015877182
91	0x3da4f4f4	0.080545336
92	0x3d478ccf	0.04871827
93	0xbcba788f	-0.022762565
94	0x3d8db9fa	0.06920238
95	0xbdb6bfde	-0.089233145
96	0x3d044e0f	0.032301005
97	0xbd8dc85d	-0.06922982
98	0x3d54f926	0.05199542
99	0x3c06ac82	0.00821984
100	0xbc0ecedb	-0.00871631
101	0xbb1a201e	-0.0023517678
102	0xbd39d99e	-0.04537355
103	0xbc6833d0	-0.014172509
104	0x3d4085d7	0.04700264
105	0xbc6dbafc	-0.014509913
106	0xbc91a77d	-0.01778006
107	0x3d529fb6	0.051421843
108	0x3c237db9	0.009978705
109	0x3cdc28c0	0.0268749
110	0x3d77b572	0.060475774
111	0xbd345d35	-0.0440342
112	0xbcb706fa	-0.022342194
113	0xbdb55827	-0.08854704
114	0x3d45b20e	0.04826551
115	0x3da708e3	0.08155992
116	0xbd546b86	-0.051860355
117	0x3d5751e8	0.052568346
118	0xbcfb57f3	-0.030681586
119	0x3cc6bf90	0.024261266
120	0x3bc33616	0.0059573753
121	0x3b749cae	0.0037324834
122	0x3d56adb8	0.052411765
123	0x3c5f449b	0.013627197
124	0xbd6b82c1	-0.057497744
125	0xbd92a7bd	-0.071609
126	0x3db2831d	0.08716414
127	0x3d04cca1	0.03242171
128	0x3a6b7f1e	0.00089834805
129	0x3ccb4ca0	0.024816811
130	0xbc90f641	-0.017695548
131	0xbdd23b42	-0.10265209
132	0x3d600e0e	0.054700904
133	0xbd1f5ea8	-0.03890863
134	0xbc2e8781	-0.010652424
135	0xbd159fa4	-0.0365292
136	0x3d9c8cc3	0.07644036
137	0xbd448319	-0.047976587
138	0x3cbc3189	0.022972839
139	0x3c4eaf29	0.012615004
140	0x3d97b6ef	0.07407939
141	0x3dab7aaa	0.08373006
142	0x3cae2eee	0.021262612
143	0xbce44339	-0.027864086
144	0x3d3fda58	0.04683909
145	0x3cb31ed4	0.021865286
146	0xbd7e0af7	-0.062022176
147	0xbbdeb4af	-0.0067964415
148	0x3d4735cd	0.048635293
149	0xbd87d522	-0.06632449
150	0xbd165865	-0.036705393
151	0xbd6c7788	-0.05773118
152	0x3d99fbc9	0.07518727
153	0xbdb2c147	-0.08728271
154	0xbbe8a67f	-0.007099926
155	0xbd5a9d77	-0.053372826
156	0x3d5a51c2	0.053300627
157	0xbd7b0fb2	-0.061294265
158	0x3d3d59a1	0.046228055
159	0xbd59ec14	-0.053203657
160	0xbcad4f62	-0.021156017
161	0xbbf1bc94	-0.0073772166
162	0xbc177715	-0.0092447
163	0xbd4d79a6	-0.05016484
164	0xbd8224b4	-0.06354657
165	0xbd6310ff	-0.05543613
166	0xbd5df144	-0.054185167
167	0x3d398ec6	0.045302175
168	0x3cb4ca48	0.022069111
169	0xbd74c2ed	-0.05975621
170	0xbd67a7fd	-0.05655669
171	0x3daca126	0.08429174
172	0xbd93da25	-0.07219342
173	0x3d53ae5e	0.05167996
174	0xbbaca596	-0.005268763
175	0xbd8ce616	-0.06879823
176	0x3d0566eb	0.032568853
177	0x3d76308b	0.060104888
178	0x3d08e0cc	0.033417508
179	0xbc9dd978	-0.019268736
180	0xbcdec9af	-0.02719578
181	0xbc30d6fb	-0.010793443
182	0xbda02c3f	-0.07820939
183	0x3cc65b7a	0.024213541
184	0xbd297ef0	-0.041380823
185	0x3c5baa7f	0.013407349
186	0xbbf0e574	-0.0073515717
187	0x3d381b5f	0.044947978
188	0xbdab9cfe	-0.08379553
189	0xbd3b2fb3	-0.045699786
190	0x3d1546de	0.036444537
191	0xbcde90d5	-0.02716867
192	0x3d8f328b	0.06992062
193	0xbd747c53	-0.059688877
194	0x3cdde18c	0.027085088
195	0x3d013697	0.0315462
196	0x3dd8bfba	0.10583444
197	0x3d7f59ce	0.062341504
198	0x3d1bcf31	0.03803939
199	0xba6e77d2	-0.0009096834
200	0x3caf8696	0.02142648
201	0x3d90f6d3	0.07078328
202	0xbd85855d	-0.06519578
203	0xbda51811	-0.08061231
204	0xbbdefce3	-0.006805049
205	0xbd82ea90	-0.063923955
206	0x3c9b3f2b	0.01895102
207	0xb9703782	-0.00022908862
208	0x3d823159	0.063570686
209	0x3d7065c9	0.05869082
210	0xbd8db889	-0.06919963
211	0x3dd0eab5	0.10201017
212	0xbd8f8bd2	-0.070090905
213	0xbd9f60a5	-0.07782105
214	0xbcfb1bbb	-0.030652871
215	0x3c4c580c	0.012472164
216	0x3a62a241	0.00086453935
217	0xbcdabf52	-0.026702557
218	0xbb2ba1a7	-0.0026188882
219	0xbd0c5de1	-0.034269217
220	0xbccead64	-0.025229163
221	0x3d314177	0.043275323
222	0x3d50cfa2	0.050979264
223	0xbcbcb77e	-0.023036715
224	0x3d219f43	0.039458524
225	0x3d50ec49	0.05100659
226	0x39fa13c9	0.00047698457
227	0xbcaa7f41	-0.020812633
228	0x3d7a307c	0.061081395
229	0xbb33eac2	-0.002745316
230	0x3d8ec1e5	0.06970576
231	0x3d8716a1	0.06596113
232	0xbdd047ef	-0.1016997
233	0xbc7a9f6c	-0.015296798
234	0xbd590bf2	-0.052989908
235	0x3c3f04c2	0.011658849
236	0x3d8899cd	0.0666996
237	0x3d0059a1	0.031335477
238	0xbc8c4c41	-0.017126204
239	0x3d1a36c1	0.037649874
240	0x3d5236c7	0.05132177
241	0xbd4a0c6d	-0.049328256
242	0x3d58973a	0.052878596
243	0x3bfac6ed	0.0076531083
244	0x3cd8de90	0.026473314
245	0xbc92a280	-0.017899752
246	0x3d7b1a44	0.061304346
247	0x3d120637	0.03565046
248	0xbc48db00	-0.012259245
249	0x3a190d99	0.0005838513
250	0xbd9623dd	-0.07331059
251	0xbddb4995	-0.10707394
252	0xbc4dadf7	-0.0125536835
253	0xbd84a067	-0.06475907
254	0xbb7941b9	-0.0038033559
255	0x3d8923c8	0.06696278

a2c_network.actor_mlp.4.bias f4 [64]
0	0x3ccb6e57	0.024832888
1	0xbc7a8a81	-0.015291811
2	0xbca1cf8f	-0.019752292
3	0xbcc2621e	-0.023728427
4	0x3c73f1f1	0.014889226
5	0xbcc57a5b	-0.024106195
6	0xbc725f3f	-0.014793216
7	0x3c985bd4	0.018598475
8	0xbcd51765	-0.026012132
9	0xbc70a65e	-0.0146881025
10	0xbbf722d3	-0.007541993
11	0x3cca2a76	0.02467845
12	0xbcd4236c	-0.025895797
13	0xbca5ff15	-0.020263234
14	0xbcb69d10	-0.02229169
15	0x3c88d4b5	0.01670299
16	0xbcc75c5f	-0.024336038
17	0x3cd7ee80	0.026358843
18	0x3d0de13d	0.034638632
19	0xbcae528d	-0.021279598
20	0x3c89b7dd	0.016811306
21	0xbc949423	-0.018137043
22	0xbc0ec375	-0.008713593
23	0xbccddd09	-0.025129812
24	0x3c14d1e0	0.009083241
25	0xbcd5700c	-0.026054405
26	0xbcd28698	-0.025698945
27	0x3c872202	0.016495708
28	0xbc1780f8	-0.009247057
29	0xbccc4e45	-0.024939666
30	0x3ca7fc18	0.02050595
31	0xbcc6dedd	-0.024276191
32	0x3c80bbd1	0.015714558
33	0xbca813a2	-0.020517174
34	0xbc93a536	-0.018023115
35	0xbcdc2c69	-0.026876645
36	0xbcd30892	-0.025760923
37	0xbccaf2ce	-0.024773981
38	0x3d18e50a	0.037327804
39	0xbccf85d0	-0.025332361
40	0x3cc0b1c7	0.02352227
41	0xbccc24ec	-0.02491995
42	0x3d00cc2c	0.031444713
43	0xbc806742	-0.015674237
44	0x3d08c579	0.03339145
45	0x3cffde3d	0.031233901
46	0x3ce775f9	0.028254496
47	0x3cc74f8c	0.024329923
48	0x3d22464f	0.039617833
49	0xbc6ad512	-0.0143330265
50	0x3c97e197	0.018540187
51	0xbccfc737	-0.025363548
52	0xbcd15d61	-0.025557222
53	0x3ceb56f6	0.02872799
54	0x3c6a8b99	0.014315509
55	0x3c0e2157	0.008674941
56	0x3d0b91f8	0.034074754
57	0x3cd0830c	0.025453113
58	0xbcd422d6	-0.025895517
59	0x3d0d5aab	0.034510296
60	0xbccd4c11	-0.025060685
61	0xbc86a4a0	-0.016435921
62	0xbcd696cd	-0.026194954
63	0x3b872dd0	0.0041253343

a2c_network.value.weight f4 [1, 64]
0	0xbd877c8f	-0.066155545
1	0x3d99a8d1	0.07502902
2	0x3dca0895	0.09864918
3	0x3cd1c692	0.025607381
4	0x3c034cfc	0.00801396
5	0x3d9d50f5	0.07681457
6	0x3d8ce377	0.06879323
7	0x3c2e856e	0.010651929
8	0x3d0b369a	0.03398762
9	0x3dcc688e	0.0998088
10	0x3dd75da7	0.1051591
11	0xbd61fde2	-0.055173762
12	0x3c8c7c80	0.01714921
13	0x3df38c59	0.118920036
14	0x3d9b0971	0.0757016
15	0xbdaf9f0b	-0.08575257
16	0x3df4f8fb	0.11961552
17	0xbddb86fe	-0.10719107
18	0xbd52f5ac	-0.051503822
19	0x3cedc51d	0.029024655
20	0xbd6ab6d6	-0.057303272
21	0x3d86b20a	0.06576927
22	0x3c396a3d	0.011316833
23	0x3e0715ee	0.1319196
24	0xbd1fa744	-0.038977876
25	0x3dd7951c	0.10526487
26	0x3c7aba2f	0.015303179
27	0xbe0034ec	-0.12520188
28	0x3dc1b94d	0.094591714
29	0x3dd02244	0.10162786
30	0xbe019c30	-0.12657237
31	0x3cd61e77	0.026137574
32	0xbd5c5ce2	-0.053799517
33	0x3dbafa16	0.09129731
34	0x3d98dfa5	0.07464532
35	0x3d39c71d	0.045355905
36	0x3df7f449	0.121071406
37	0x3e011ab9	0.1260785
38	0xbd9f0ee8	-0.07766515
39	0x3dd34aab	0.10316976
40	0xbcd324e3	-0.025774425
41	0x3e052bf7	0.13005053
42	0xbdd9d9bd	-0.106372334
43	0xbce37e92	-0.027770314
44	0xbd97b69e	-0.07407878
45	0xbdfd94d3	-0.123819016
46	0xbe06e1df	-0.131721
47	0xbdbb4b99	-0.091452785
48	0xbcdd77e9	-0.027034717
49	0x3dce3977	0.10069554
50	0xbe13d7d8	-0.14437807
51	0x3d93d7e0	0.07218909
52	0x3db16245	0.086613216
53	0xbd5a7c12	-0.05334098
54	0x3b31d05a	0.0027132244
55	0xbd86a6a2	-0.065747514
56	0xbd109e0c	-0.035306975
57	0xbd86131a	-0.06546612
58	0x3db6ddbf	0.089290135
59	0xbd983936	-0.07432787
60	0x3dbc53d3	0.09195676
61	0x3d7804af	0.06055134
62	0x3df2f120	0.11862397
63	0x3cfb335b	0.030664137

a2c_network.mu.weight f4 [24, 64]
0	0xbdcf62b9	-0.10126252
1	0xbc56b65b	-0.013105
2	0xbc91da3e	-0.017804261
3	0xbd6c50f1	-0.05769438
4	0xbdc5391d	-0.09630034
5	0x3dfa956c	0.12235531
6	0x3c0e557f	0.008687376
7	0x3d70f76a	0.058829702
8	0x3d082285	0.033236045
9	0x3d8bc03d	0.06823776
10	0xbdd5a17b	-0.104311906
11	0xbc7bf011	-0.0153770605
12	0x3d9f8ee3	0.07790925
13	0x3be5e95f	0.0070163454
14	0xbd28ab9d	-0.04117929
15	0x3b3c1015	0.002869611
16	0xbdbbad0c	-0.091638654
17	0x3d1eb5f9	0.03874776
18	0x3c1f68b7	0.009729556
19	0xbdba840d	-0.09107218
20	0x3d7321f7	0.059358563
21	0xbdd84826	-0.10560636
22	0x3d9b2d01	0.07576943
23	0xbd9a139d	-0.07523272
24	0xbde64673	-0.11243906
25	0x3cfada7f	0.030621765
26	0xbb1e42cd	-0.0024148703
27	0x3dcdfc4d	0.10057888
28	0xbd7d739c	-0.06187783
29	0x3e05defe	0.13073346
30	0x3cba73fa	0.02276038
31	0x3ce3d29a	0.027810384
32	0x3cbdaf64	0.023154922
33	0x3d1b0974	0.037850812
34	0x3d81bda4	0.06334999
35	0x3ced3622	0.028956477
36	0x3df34b21	0.11879564
37	0xbdc83fee	-0.097778186
38	0xbd83b35f	-0.06430697
39	0xbd0dc482	-0.034611233
40	0xbdc45e9a	-0.09588356
41	0xbda7fd8d	-0.08202658
42	0xbdb0e881	-0.086380966
43	0x3d1baa01	0.038003925
44	0xbd75ce18	-0.060011
45	0xbdeb14a8	-0.11478549
46	0x3d484dc2	0.04890228
47	0x3dd11455	0.10208956
48	0x3d00e14e	0.031464867
49	0xbdb55828	-0.08854705
50	0x3dff4bd2	0.124656335
51	0x3c8e8562	0.017397586
52	0x3b20e5f7	0.0024551132
53	0x3af08bca	0.0018352207
54	0x3dc64319	0.096807666
55	0xbd7ad4d0	-0.06123811
56	0xbdbe4b0b	-0.09291657
57	0x3d194685	0.03742077
58	0xbdb5da09	-0.088794775
59	0xbd748bf2	-0.059703775
60	0xba3c4e27	-0.00071832765
61	0x3dd73e45	0.10509924
62	0xbd0c986c	-0.03432505
63	0xbc7aafbc	-0.015300687
64	0xbde4966a	-0.11161502
65	0x3d9e6293	0.07733645
66	0xbdc3d726	-0.09562521
67	0x3c33146e	0.010930164
68	0x3d0ab103	0.033860218
69	0xbd0204e1	-0.031742934
70	0x3d11e5b9	0.03561947
71	0x3c32bce0	0.010909289
72	0xbd93e1fe	-0.07220839
73	0xbdc62771	-0.096754916
74	0x3dd87317	0.10568827
75	0xbde6f34c	-0.11276874
76	0xbd424578	-0.04742953
77	0x3d8c59af	0.06853043
78	0xbc878837	-0.016544444
79	0xbcdabb95	-0.026700774
80	0x3cab8ca9	0.020941095
81	0xbcc78c08	-0.024358764
82	0x3d4ecea6	0.050490044
83	0xbd413648	-0.047170907
84	0x3cdd9400	0.027048111
85	0xbde39924	-0.11113194
86	0xbc5fb202	-0.01365328
87	0x3dcdb794	0.100447804
88	0x3d61c7a9	0.05512205
89	0x3ba33430	0.0049805865
90	0x3ce383af	0.027772753
91	0x3de7f309	0.11325652
92	0xbc9f7b80	-0.01946807
93	0x3d992879	0.07478423
94	0x3dc8e6c6	0.098096415
95	0xbce0aa17	-0.027424855
96	0x3da3f039	0.08004803
97	0x3d42e2cd	0.047579575
98	0xbd2dd966	-0.042443655
99	0xbdb71cec	-0.08941063
100	0xbc96dc94	-0.018415727
101	0x3dde579a	0.108565524
102	0x3d6ab32f	0.05729979
103	0x3dcf86e3	0.101331495
104	0xbd98fbe8	-0.07469922
105	0xbde204cb	-0.110360704
106	0xbd11def2	-0.035613008
107	0xbe085bb2	-0.13316229
108	0x3da03e50	0.07824385
109	0xbcffb2cc	-0.031213187
110	0xbda65fc1	-0.08123732
111	0xbc295f61	-0.0103376815
112	0xbd12ba1a	-0.03582201
113	0xbb73548a	-0.0037129247
114	0x3d895afc	0.06706807
115	0xbd9718c6	-0.07377772
116	0x3d54215e	0.051789634
117	0xbb17c57f	-0.0023158488
118	0x3d8ae577	0.06782048
119	0x3c70e8ba	0.014703924
120	0x3d641fc6	0.055694364
121	0xbde201ac	-0.11035475
122	0x3d96cdd9	0.07363481
123	0x3da39f97	0.07989424
124	0x3de1efd2	0.1103207
125	0x3ca9794f	0.020687727
126	0x3c1942ad	0.009354276
127	0x3dd0c486	0.10193734
128	0xbdace4d9	-0.08442087
129	0xbcd3c5bb	-0.025851121
130	0x3c63979e	0.013891129
131	0xbdaa4eb3	-0.08315792
132	0x3dc8406f	0.09777915
133	0x3d91aaad	0.07112632
134	0x3dad13f2	0.0845107
135	0x3d982dd7	0.07430618
136	0x3cd20fda	0.025642324
137	0x3cc7c5a6	0.024386238
138	0x3d91a30e	0.07111178
139	0x3cffbc04	0.031217583
140	0xbca53d5c	-0.02017086
141	0xbc7234bb	-0.01478308
142	0xbbf78f3b	-0.007554916
143	0xbdc26616	-0.094921276
144	0x3d3eb8ce	0.046562962
145	0x3dfc9386	0.12332825
146	0x3d2ebf90	0.042663157
147	0x38d33727	0.00010071537
148	0xba53de42	-0.000808213
149	0xbde7b180	-0.11313152
150	0xbe05321a	-0.13007393
151	0xbde157ed	-0.11003099
152	0xbd8d285d	-0.06892464
153	0xbe004788	-0.12527287
154	0x3c921b55	0.017835299
155	0x3e0625df	0.13100384
156	0xbd18b1e9	-0.037279043
157	0x3d944d4a	0.07241304
158	0x3da3c30f	0.07996189
159	0x3d98d69b	0.07462808
160	0x3d5f92c5	0.05458333
161	0x3da933cf	0.08261835
162	0x3dae4638	0.08509487
163	0xbd9d3c92	-0.076775685
164	0x3c7ddf0c	0.015495073
165	0x3d7ae1be	0.06125044
166	0xbda64311	-0.08118261
167	0xbdbc78a5	-0.092026986
168	0x3dafa611	0.085765965
169	0xbd98c87e	-0.07460116
170	0xbd721bc1	-0.0591085
171	0xbc67071c	-0.014100816
172	0x3ca58712	0.020206008
173	0xbd0dc115	-0.034607965
174	0xbd8ab5f3	-0.06772985
175	0xbda26dfc	-0.07931134
176	0xbd687ba0	-0.056758523
177	0x3de6ce67	0.11269837
178	0x3d19814f	0.037476834
179	0xbdbeb7a4	-0.093123704
180	0x3dcc6277	0.09979718
181	0x3db70d4f	0.08938085
182	0x3be8885b	0.007096333
183	0xbb052004	-0.0020313272
184	0xbd8d8db1	-0.06911791
185	0xbcddb159	-0.027062105
186	0x3daf8e78	0.08572096
187	0xbd6510f7	-0.055924382
188	0xbb3b98f7	-0.002862511
189	0x3d9628d4	0.07332006
190	0xbdca2c90	-0.09871781
191	0x3c58b2ce	0.013226224
192	0x3d0bd2e3	0.034136664
193	0x3df62e98	0.12020606
194	0xbd892b59	-0.06697721
195	0xbd4b2ef7	-0.049605336
196	0x3c93090f	0.017948655
197	0x3d42f30d	0.047595073
198	0x3da7065e	0.08155511
199	0x3d31a2b1	0.043368045
200	0x3dd8d742	0.10587932
201	0x3dd58ac8	0.10426861
202	0xbd6ca592	-0.057775088
203	0x3d65af08	0.056075126
204	0x3db86636	0.0900387
205	0xbd5e0b35	-0.054209907
206	0xbd21add3	-0.039472412
207	0x3d643874	0.0557179
208	0x3d9d51f9	0.07681651
209	0x3c770a06	0.015078073
210	0xbdc1db55	-0.094656624
211	0xbdc4fba5	-0.0961831
212	0x3d1ef791	0.038810316
213	0xbdbbd5dc	-0.0917165
214	0x3d390b69	0.045176897
215	0x3c2e8caf	0.010653659
216	0x3e07aaae	0.13248703
217	0x3dcbbec6	0.099484965
218	0x3e06197d	0.1309566
219	0x3dd98049	0.106201716
220	0xbde9c5b3	-0.11414661
221	0x3dcff3a7	0.10153895
222	0x3dd6c9a1	0.104876764
223	0x3db07abd	0.086171605
224	0x3c99b943	0.018765097
225	0xbdaa9be5	-0.08330516
226	0xbe01df77	-0.12682901
227	0x3e00643e	0.1253824
228	0x3d1a0383	0.037601005
229	0xbdc9b113	-0.09848227
230	0x3d8eadca	0.069667414
231	0x3ded32c3	0.11581948
232	0x3bc9900f	0.0061512063
233	0x3da460f1	0.080263026
234	0xbe0211d7	-0.12702118
235	0xbd261be3	-0.04055394
236	0xbe060971	-0.13089539
237	0xbe012ad3	-0.12613992
238	0xba1fc2ae	-0.0006094378
239	0xbcbe436e	-0.023225512
240	0xbd4aa0d6	-0.04946979
241	0xbcea4fc5	-0.02860249
242	0x3db21716	0.086958095
243	0x3dd50e72	0.10403146
244	0xbd5d0edb	-0.053969245
245	0x3d84f12b	0.06491312
246	0xbd6cb92e	-0.05779379
247	0x3dbe1d84	0.092829734
248	0xbd9e7571	-0.07737244
249	0xbdca0374	-0.0986394
250	0x3cb79ea7	0.022414519
251	0xbd07b6de	-0.03313338
252	0x3c8fcdce	0.01755419
253	0xbd053128	-0.032517582
254	0xbcd1fe83	-0.025634056
255	0xbdf3d76c	-0.11906323

a2c_network.mu.bias f4 [24]
0	0x3a38e84d	0.00070536585
1	0xbbc055c6	-0.0058696
2	0x3c60b1dd	0.013714281
3	0x3b84cf90	0.0040530637
4	0x3d072366	0.032992743
5	0xbbb3ff7a	-0.0054931017
6	0x3cef86fe	0.029239174
7	0x3cf3d9fa	0.029767025
8	0x3b355419	0.0027668534
9	0x3c91a093	0.017776763
10	0xbcd876f1	-0.026423903
11	0xbcd71dc4	-0.02625931
12	0xbbbff1be	-0.0058576753
13	0xbc9ba249	-0.018998282
14	0x3c6b773b	0.0143716885
15	0x3a80a5ea	0.0009815071
16	0xbc1dc5f2	-0.009629713
17	0x3b8e9d27	0.00435223
18	0x3c1b0277	0.009461037
19	0x3b421ea9	0.0029620326
20	0x3cf056db	0.02933829
21	0x3c9bfbdc	0.019040994
22	0x3b310073	0.0027008324
23	0x3c059af8	0.008154623

exp_avg f4 [24]
0	0xbbe2c6b4	-0.00692066
1	0x3a4a41cc	0.0007715493
2	0xba41bb7d	-0.00073903037
3	0x3bcda776	0.0062760664
4	0xba1fbcbe	-0.00060934934
5	0x3b3166c5	0.0027069312
6	0x3bd39717	0.0064572203
7	0xbb948cae	-0.004533372
8	0x394a7dee	0.00019311134
9	0x3bb66212	0.00556589
10	0xbbcb5e25	-0.0062062913
11	0x3bf4d514	0.00747169
12	0x3b953c23	0.004554288
13	0x3970de53	0.00022971006
14	0x3b3227cc	0.0027184365
15	0x3b1fade1	0.0024365115
16	0x3b9854bc	0.004648773
17	0xbb2a95e9	-0.0026029295
18	0x3bee1d97	0.007266711
19	0x3bbad646	0.005701813
20	0x3ba177a9	0.0049275947
21	0xbb94c273	-0.0045397817
22	0x3c2b454e	0.010453535
23	0x3b78b6d8	0.003795078

exp_avg_sq f4 [24]
0	0x39a3e986	0.0003126377
1	0x39bf365f	0.00036470869
2	0x39dc2455	0.0004198874
3	0x39c07bb8	0.0003671327
4	0x39c7645b	0.00038031008
5	0x39b2ea92	0.00034125574
6	0x39c12273	0.00036837495
7	0x39e10175	0.0004291643
8	0x39a48de9	0.0003138625
9	0x3996bc05	0.00028750315
10	0x39de658a	0.00042418792
11	0x39c40111	0.00037384828
12	0x39c76e85	0.0003803858
13	0x399e0739	0.0003014149
14	0x39bea9e8	0.00036366214
15	0x3993ddea	0.00028203364
16	0x39bcd150	0.00036014104
17	0x39d49f9a	0.00040554703
18	0x39b3eb57	0.00034316882
19	0x39c52edc	0.0003760968
20	0x39f914d2	0.00047508493
21	0x39bb7d2f	0.00035760688
22	0x39c815d6	0.00038163242
23	0x39b6f116	0.00034893368
