runs/lift_30-15-14-24/nn/lift.pth (torch, 651493 bytes, 36 tensors)

value_mean_std.running_mean f8 [1]
0	0xc007c8c4fc299e81	-2.9730319690896185

value_mean_std.running_var f8 [1]
0	0x401a23c9c683c75f	6.534949399750842

value_mean_std.count f8 []
0	0x40e9002000000000	51201.0

running_mean_std.running_mean f8 [39]
0	0x0000000000000000	0.0
1	0x3ff7ffc28ff970b1	1.4999414085387281
2	0x3ff4cc97210c782f	1.2999488154378118
3	0x3fdfffae154c9647	0.4999804695129097
4	0x3fd999579771af80	0.3999842623659262
5	0x400732f83c3cd66e	2.899887533766381
6	0x3fdfffae154c9647	0.4999804695129097
7	0x3faa067d4acf24a5	0.05083076036641757
8	0x3fd727426fd5658d	0.3617712108731091
9	0x3fdfffae154c9647	0.4999804695129097
10	0x3fc9a793a8dc5f14	0.20042653794438847
11	0x3fea9238443feae2	0.8303490956307906
12	0x0000000000000000	0.0
13	0x3fefffae154c9647	0.9999609390258194
14	0x0000000000000000	0.0
15	0x0000000000000000	0.0
16	0x0000000000000000	0.0
17	0x0000000000000000	0.0
18	0x0000000000000000	0.0
19	0x0000000000000000	0.0
20	0x3fe131bcdb225e62	0.537321498867595
21	0x3ff29921d321ba8a	1.162385773404511
22	0x40239e85e6574bf0	9.80961532416947
23	0x0000000000000000	0.0
24	0x0000000000000000	0.0
25	0x0000000000000000	0.0
26	0x0000000000000000	0.0
27	0x0000000000000000	0.0
28	0x0000000000000000	0.0
29	0x0000000000000000	0.0
30	0x0000000000000000	0.0
31	0x0000000000000000	0.0
32	0x0000000000000000	0.0
33	0x0000000000000000	0.0
34	0x0000000000000000	0.0
35	0x0000000000000000	0.0
36	0x0000000000000000	0.0
37	0x0000000000000000	0.0
38	0x3fbfffae154c9647	0.12499511737822742

running_mean_std.running_var f8 [39]
0	0x3f047aacda6e74a7	3.906097418069606e-05
1	0x3f20a38ef45172bb	0.00012694473312792838
2	0x3f1b8b38ebede4e3	0.0001050714008509371
3	0x3f09994af5dbb725	4.882583628594413e-05
4	0x3f07c17851fa3a5c	4.5310482389306e-05
5	0x3f38167c0930cf32	0.00036755111904372966
6	0x3f09994af5dbb725	4.882583628594413e-05
7	0x3f7c36a3f14c389e	0.006888046646748828
8	0x3fc460d69699411f	0.15920526841592506
9	0x3f09994af5dbb725	4.882583628594413e-05
10	0x3fb293e9a98dd077	0.07256946935177831
11	0x3fdc1ae357581de6	0.43914111642558706
12	0x3f047aacda6e74a7	3.906097418069606e-05
13	0x3f147a92a411bf4f	7.812042260168832e-05
14	0x3f047aacda6e74a7	3.906097418069606e-05
15	0x3f047aacda6e74a7	3.906097418069606e-05
16	0x3f047aacda6e74a7	3.906097418069606e-05
17	0x3f047aacda6e74a7	3.906097418069606e-05
18	0x3f047aacda6e74a7	3.906097418069606e-05
19	0x3f047aacda6e74a7	3.906097418069606e-05
20	0x3fd4e672fa9f23b0	0.326565499065107
21	0x3fd8cc1846ebfd4d	0.3874569599720033
22	0x3f6f1cf5b87a8a25	0.0037979888182502358
23	0x3f047aacda6e74a7	3.906097418069606e-05
24	0x3f047aacda6e74a7	3.906097418069606e-05
25	0x3f047aacda6e74a7	3.906097418069606e-05
26	0x3f047aacda6e74a7	3.906097418069606e-05
27	0x3f047aacda6e74a7	3.906097418069606e-05
28	0x3f047aacda6e74a7	3.906097418069606e-05
29	0x3f047aacda6e74a7	3.906097418069606e-05
30	0x3f047aacda6e74a7	3.906097418069606e-05
31	0x3f047aacda6e74a7	3.906097418069606e-05
32	0x3f047aacda6e74a7	3.906097418069606e-05
33	0x3f047aacda6e74a7	3.906097418069606e-05
34	0x3f047aacda6e74a7	3.906097418069606e-05
35	0x3f047aacda6e74a7	3.906097418069606e-05
36	0x3f047aacda6e74a7	3.906097418069606e-05
37	0x3f047aacda6e74a7	3.906097418069606e-05
38	0x3f04cc96bc2548d8	3.967127806227413e-05

running_mean_std.count f8 []
0	0x40d9004000000000	25601.0

a2c_network.sigma f4 [24]
0	0x3bfa8a96	0.0076459153
1	0xbc870e7e	-0.016486403
2	0xbc38acca	-0.011271665
3	0xbcc50991	-0.024052413
4	0x3c97eabd	0.01854455
5	0xbc98aef4	-0.018638112
6	0xbbad35b2	-0.005285942
7	0xbc434d49	-0.011920282
8	0x3c2f4687	0.010697967
9	0x3c34b7d2	0.011030154
10	0x3bc69685	0.006060424
11	0xbca80244	-0.020508893
12	0xbbf63a87	-0.007514301
13	0xbd08b766	-0.033378027
14	0x3c03ff4c	0.008056473
15	0xbc095239	-0.00838142
16	0xbc5f8714	-0.013643045
17	0xbc99559a	-0.018717576
18	0x3c2b3aac	0.010451
19	0x3c559a82	0.013037326
20	0xbb2bcd13	-0.0026214763
21	0xbbebf0eb	-0.0072003505
22	0x3c569b82	0.013098599
23	0xbc007221	-0.00783971

a2c_network.actor_mlp.0.weight f4 [256, 39]
0	0xbd4ed938	-0.050500125
1	0x3d809d0e	0.06279956
2	0xbcc1b6ed	-0.023646796
3	0x3db28990	0.08717644
4	0x3e26a871	0.16275193
5	0x3de6101d	0.11233542
6	0xbd4db187	-0.05021813
7	0x3d9088d3	0.07057347
8	0x3ce95260	0.028481662
9	0x3dcf0f9b	0.101103984
10	0xbdfbb0cf	-0.12289583
11	0xbe15e65b	-0.14638655
12	0xbd7d6875	-0.061867196
13	0xbdd307ca	-0.1030422
14	0x3e068b76	0.13139138
15	0x3d3cea58	0.046121925
16	0x3d87d694	0.066327244
17	0x3d4f6e51	0.050642315
18	0xbb368e5c	-0.002785585
19	0x3e005343	0.12531762
20	0xbdfcd9f3	-0.12346258
21	0x3c5057c1	0.012716235
22	0xbdb75929	-0.08952553
23	0x3d4a3e50	0.049375832
24	0xbd61e009	-0.055145297
25	0x3d48f94b	0.04906587
26	0xbd08a5e5	-0.033361334
27	0x3e07ff14	0.13280898
28	0xbdc25f43	-0.09490826
29	0xbdc3958f	-0.095500104
30	0xbdc39895	-0.09550587
31	0x3e137b94	0.1440261
32	0x3d5a930a	0.053362884
33	0x3e1dc80b	0.15408342
34	0xbe075251	-0.13214995
35	0xbe22a39f	-0.15882729
36	0xbe0048ff	-0.12527846
37	0xbddc9a72	-0.107716456
38	0x3dad5ac8	0.08464581
39	0x3d6adb46	0.05733802
40	0x3dde9c4b	0.10869654
41	0xbddb3dfa	-0.107051805
42	0xbe08a58a	-0.13344398
43	0x3d788776	0.06067606
44	0xbdb67d24	-0.089105874
45	0x3d954df5	0.0729026
46	0xbd236f21	-0.039900903
47	0x3d834207	0.06409078
48	0xbe184413	-0.14869718
49	0xbda37d18	-0.07982844
50	0x3ca9d24c	0.02073016
51	0x3d0aa8b5	0.033852298
52	0xbd856f44	-0.06515363
53	0x3dc379fa	0.095447496
54	0x3ddef034	0.10885659
55	0xbdedd0ac	-0.116120666
56	0xbdaf13fa	-0.08548732
57	0x3e162468	0.14662325
58	0xbd5d511f	-0.05403244
59	0xbd869eca	-0.06573255
60	0xbe271e01	-0.1632004
61	0xbdedcd37	-0.11611407
62	0x3d23d7ab	0.0400006
63	0xbcad2508	-0.021135822
64	0xbdee0c80	-0.11623478
65	0x3b762883	0.0037560768
66	0xbde002ec	-0.10938057
67	0xbe0b1cd6	-0.13585219
68	0xbdb495ed	-0.088176586
69	0xbe0f8275	-0.14014609
70	0xbdd0d03d	-0.10195968
71	0x3e23e837	0.16006552
72	0x3cf7c2ae	0.030244198
73	0x3d4a1e07	0.049345043
74	0xbe18eef2	-0.149349
75	0xbdd7624e	-0.10516797
76	0xbd5a50ab	-0.053299587
77	0x3a4db70f	0.0007847407
78	0xbe104822	-0.14090016
79	0xbdb93c71	-0.090447314
80	0xbdf043af	-0.117316596
81	0xbcabfc6e	-0.020994391
82	0xbda5ef49	-0.08102281
83	0xbd05560a	-0.032552756
84	0xbe051089	-0.12994589
85	0xbde94c19	-0.113914676
86	0xbde14d50	-0.11001074
87	0xbd9c28c0	-0.0762496
88	0xbdf9e2a5	-0.12201432
89	0x3deac5be	0.114634976
90	0xbd022b68	-0.031779677
91	0x3dee3cef	0.11632716
92	0x3d4c5cab	0.049893063
93	0xbe0ad9b0	-0.13559604
94	0x3de2f29d	0.11081431
95	0xbd34769d	-0.04405843
96	0xbd7b6af3	-0.06138129
97	0xbe081b90	-0.13291764
98	0xbe23980f	-0.15975975
99	0x3d261b9d	0.040553678
100	0xbd672fd8	-0.05644211
101	0x3d7f59e5	0.06234159
102	0xbe0690b0	-0.13141131
103	0x3df3795a	0.1188838
104	0xbdf0ba35	-0.11754266
105	0xbce281f7	-0.027649863
106	0x3d08fe96	0.033445917
107	0x3da94d06	0.08266644
108	0x3e04602b	0.1292731
109	0x3e155f00	0.14587021
110	0xbe020434	-0.12696916
111	0x3d251094	0.040299013
112	0xbd8d0e7a	-0.06887527
113	0xbc8fc003	-0.017547613
114	0xbdf57630	-0.11985433
115	0x3e155ac7	0.1458541
116	0xbe0e4b04	-0.13895804
117	0x3daf44ed	0.085580684
118	0x3d9e5382	0.077307716
119	0x3d95a410	0.07306683
120	0xbd8656f3	-0.06559553
121	0x3e2a85fd	0.16652675
122	0x3d665a19	0.056238268
123	0x3d2a4b8d	0.041575957
124	0xbe0b64b9	-0.13612641
125	0x3db3e5cd	0.087840654
126	0xbb4795ff	-0.0030454395
127	0xbd8ff99a	-0.070300296
128	0x3e2385ac	0.1596896
129	0x3d123a8f	0.035700377
130	0xbd8a69f4	-0.0675849
131	0xbda5fc04	-0.08104709
132	0xbbfa93fa	-0.0076470347
133	0x3db71c41	0.08940936
134	0xbd2799cc	-0.040918157
135	0xbdbb1da0	-0.0913651
136	0xbd609a65	-0.054834742
137	0xbdde1cf6	-0.108453676
138	0x3d7ed076	0.062210523
139	0x3e147fdf	0.14501904
140	0xbe1a5e7f	-0.1507511
141	0x3d185468	0.03718987
142	0x3da96991	0.08272088
143	0x3ceddcc5	0.029035935
144	0xbd6993a7	-0.057025578
145	0x3dab2abf	0.083577625
146	0x3dac568c	0.08414945
147	0x3d7540d3	0.059876274
148	0xbce6818b	-0.028137943
149	0xbd2daddd	-0.042402137
150	0x3c8c5597	0.017130656
151	0xbce7bac1	-0.028287293
152	0xbd437453	-0.047718357
153	0x3dd19f81	0.10235501
154	0x3e0ceab3	0.13761406
155	0x3ba735f1	0.005102866
156	0xbd12d9bf	-0.03585219
157	0xbc69cc54	-0.014269907
158	0xbcd65cc1	-0.026167275
159	0x3cb3b756	0.021938007
160	0x3ce7f360	0.028314292
161	0xbe25f2dc	-0.16205925
162	0xbd9aef4d	-0.07565174
163	0x3e0801cd	0.13281937
164	0x3d2bdf37	0.04196092
165	0xbcc8e471	-0.024522992
166	0xbdcd506b	-0.10025104
167	0xbdf05dd3	-0.117366455
168	0xbe12e147	-0.14343749
169	0xbd8cde33	-0.06878319
170	0x3d5d7ebd	0.054075945
171	0x3dd11a6b	0.10210117
172	0x3d976900	0.07393074
173	0xbe10f0ff	-0.14154433
174	0xbdc53658	-0.09629506
175	0xbccf04e4	-0.025270887
176	0x3e152f9f	0.14568947
177	0x3c8ebfe7	0.01742549
178	0xbd6e04d3	-0.05811007
179	0x3d87acbf	0.066247456
180	0xbd79d080	-0.060989857
181	0xbdd4433a	-0.10364385
182	0x3def5c6b	0.11687549
183	0xbd951db3	-0.07281055
184	0xbd037bad	-0.03210037
185	0xbe231e89	-0.15929617
186	0x3ddb7b75	0.10716907
187	0x3df875e7	0.12131863
188	0x3d6f093b	0.058358412
189	0xbde4aa72	-0.11165322
190	0xbe21d46a	-0.15803686
191	0xbe052c8a	-0.13005272
192	0x3df48bf8	0.119407594
193	0x3d9d7272	0.07687844
194	0x3df21996	0.118212864
195	0x3dabcc96	0.08388631
196	0x3cde9f9a	0.027175713
197	0xbc747014	-0.0149193
198	0xbe0a51ef	-0.13507818
199	0xbe1a1b11	-0.15049388
200	0xbe270f24	-0.1631437
201	0x3d5604e2	0.05225075
202	0xbdb4277a	-0.08796592
203	0xbd53dd3c	-0.051724657
204	0xbdd7f869	-0.10545427
205	0xbd2137fa	-0.039360024
206	0xbe031388	-0.1280042
207	0xbdd64861	-0.10463024
208	0x3d22f65e	0.039785735
209	0xbd42ed37	-0.047589507
210	0x3dca73fa	0.09885402
211	0xbd5269e3	-0.051370513
212	0xbdf0915d	-0.11746476
213	0xbce7727f	-0.028252838
214	0xbd9ef821	-0.077621706
215	0xbd7f078b	-0.062263053
216	0xbe1ec636	-0.15505299
217	0x3d9c0ec8	0.07620007
218	0xbde450a5	-0.11148194
219	0x3da4d466	0.08048324
220	0x3d94d0ab	0.07266363
221	0x3dea4af6	0.11440079
222	0xbdfb8c86	-0.12282662
223	0x3debdaeb	0.11516365
224	0xbd9b090b	-0.07570084
225	0x3d7360f1	0.059418622
226	0x3e19fcdf	0.15037869
227	0xbcb90057	-0.02258317
228	0xbaa24ff9	-0.0012383453
229	0xbd170137	-0.036866393
230	0xbe08e9d7	-0.13370453
231	0x3d9d616a	0.07684596
232	0xbe22c6f4	-0.15896207
233	0x3db063e3	0.08612802
234	0x3df55ff1	0.1198119
235	0x3e22a082	0.15881541
236	0xbcf8f43e	-0.030389901
237	0xbdfe504f	-0.124176614
238	0x3d31bca1	0.04339278
239	0x3dc445ed	0.0958365
240	0xbe1ba206	-0.15198526
241	0xbd5a526c	-0.05330126
242	0xbdd6bf6e	-0.10485731
243	0xbbd8b9b9	-0.0066139367
244	0xbdc2380b	-0.094833456
245	0xbd852d18	-0.065027416
246	0xbd50376b	-0.0508341
247	0xbe144297	-0.14478527
248	0x3e068a25	0.13138635
249	0x3e097652	0.13424042
250	0xbccdc6ad	-0.02511915
251	0xbc956316	-0.018235724
252	0xbd85d700	-0.065351486
253	0xbe141389	-0.14460577
254	0xbe2316bb	-0.1592664
255	0x3d647dc0	0.055783987

a2c_network.actor_mlp.0.bias f4 [256]
0	0x3ca08f13	0.019599473
1	0xbcf7d17b	-0.030251255
2	0xbcb8f67a	-0.022578467
3	0x3cc4fdd2	0.024046812
4	0xbc9e47fe	-0.019321438
5	0xbc89c039	-0.016815292
6	0x3be36ebe	0.0069406917
7	0x3cae73b0	0.021295398
8	0xbb29fc49	-0.0025937727
9	0x3cf266be	0.029590007
10	0xbc0af4dc	-0.008481231
11	0xbc3fcb12	-0.011706131
12	0xbc891ed3	-0.016738331
13	0x3c93ef24	0.018058367
14	0xbcebaa72	-0.028767798
15	0xbcc31511	-0.023813756
16	0x3c59a469	0.013283827
17	0xbc8cadc5	-0.017172704
18	0x3c4aa8b7	0.012369326
19	0xbc8d5681	-0.017253162
20	0xbc566ef4	-0.013087977
21	0xbae2f88e	-0.0017316507
22	0x39a3a9d2	0.0003121631
23	0xbbe5ffce	-0.0070190197
24	0xbb3c3640	-0.002871886
25	0xbc23e3cd	-0.010003042
26	0x3c885adc	0.016644888
27	0xbbbc7720	-0.0057515055
28	0x3cfdff1d	0.031005437
29	0x3ba85184	0.0051366705
30	0x3c80e9a8	0.015736416
31	0x3c743ccf	0.014907076
32	0x3ce4d562	0.02793378
33	0x3c9313e5	0.017953822
34	0x3c9110b6	0.017708164
35	0xbcb58c4b	-0.022161623
36	0xbcad640d	-0.021165872
37	0xbcdcbba9	-0.026944952
38	0x3c99cf63	0.018775648
39	0xbc59758c	-0.013272654
40	0xbcc34786	-0.023837816
41	0xbbf7241d	-0.007542147
42	0xbce69dd1	-0.028151425
43	0xbb7f3a6f	-0.0038944741
44	0xbcbc3014	-0.022972144
45	0xbc3328f3	-0.010935056
46	0xbc2d3fdd	-0.010574308
47	0xbc2dc8fe	-0.010607002
48	0xbcd9e956	-0.026600521
49	0xbcc11c26	-0.023572993
50	0xbca498c4	-0.020092376
51	0x3cbb372e	0.02285346
52	0xbb43580a	-0.0029807114
53	0x3c9f9bce	0.019483473
54	0xbcbec382	-0.023286585
55	0x39cf6081	0.00039554018
56	0xbbf0c708	-0.007347945
57	0xbc7b6767	-0.015344477
58	0xbc6f0161	-0.014587731
59	0xbcece0ac	-0.028915726
60	0xbcb7ca2c	-0.02243527
61	0xbc090641	-0.008363307
62	0xba8415af	-0.0010077263
63	0x3cbbaa4d	0.022908354
64	0xbcaeb9ea	-0.021328885
65	0x3cd544f4	0.026033856
66	0xbcc0f0b8	-0.023552284
67	0xbcb75b2d	-0.022382343
68	0xbca2f74d	-0.019893313
69	0xbc110fee	-0.008853896
70	0x3b3d4660	0.0028881058
71	0xbce8b51b	-0.02840667
72	0x3c89ea20	0.016835272
73	0xbbb4cc38	-0.005517509
74	0x3b3f63d3	0.0029203787
75	0xbc7b9cb6	-0.015357187
76	0x3cdb5d4e	0.02677789
77	0x3cf1304f	0.02944198
78	0xbccfd78a	-0.025371332
79	0xbcc8c72f	-0.02450904
80	0xbcdcaf54	-0.026939072
81	0x3c9b9b1f	0.018994866
82	0x3b8c26e6	0.004277098
83	0x3cd51552	0.026011143
84	0x3a1f8fe4	0.000608681
85	0xbc8c24a9	-0.017107325
86	0xbb32f2f0	-0.0027305447
87	0xbc9bee7f	-0.019034622
88	0xbc85f33a	-0.016351331
89	0x3c49801d	0.012298611
90	0xbccb892e	-0.024845686
91	0xbc97c276	-0.018525343
92	0x3cd9d4cc	0.026590727
93	0x3c99e38d	0.018785262
94	0x3cd0ec63	0.025503343
95	0xbc5e53af	-0.013569756
96	0xbcac2ee3	-0.021018451
97	0xbbc3ad30	-0.0059715733
98	0xbc3a3599	-0.011365318
99	0xbc6dd9fc	-0.014517304
100	0x3ccd18c8	0.02503623
101	0x3c3b48d3	0.011430937
102	0x3c74bb2a	0.0149372015
103	0x3c712e06	0.0147204455
104	0x3c9a25ec	0.01881691
105	0xbc4b2c39	-0.01240068
106	0x3cbd468c	0.023104928
107	0xbc9dc15e	-0.019257244
108	0xbc140e82	-0.009036662
109	0xbc15b121	-0.009136469
110	0xbcbe0f24	-0.023200579
111	0xbcc5b768	-0.024135306
112	0x3b4d05e6	0.0031284033
113	0x3cd56b2d	0.026052082
114	0xbce3e500	-0.027819157
115	0x3c845416	0.016153377
116	0x3ceff164	0.029289909
117	0xbc99ade8	-0.018759683
118	0xbad9963c	-0.001660056
119	0xbbca410f	-0.0061723064
120	0x3c690da4	0.014224444
121	0xbcb928d4	-0.022602476
122	0xbcd2ce61	-0.025733175
123	0xbc87ed5a	-0.01659267
124	0xbb196965	-0.0023408767
125	0xbcb607b4	-0.02222047
126	0x3c64d860	0.013967603
127	0x3cdd71fa	0.027031887
128	0x3cb3fae3	0.021970218
129	0x3c63345f	0.013867467
130	0xbcb1db25	-0.021710942
131	0x3c8dccb9	0.017309533
132	0xbbe5b3d6	-0.0070099635
133	0xbc43d9de	-0.011953799
134	0xbbea0c91	-0.0071426113
135	0x3cd56dfc	0.026053421
136	0xbc3b17f2	-0.011419283
137	0xbca8a93a	-0.020588506
138	0xbc9db139	-0.019249545
139	0x3ce3c690	0.027804643
140	0xbbc1582d	-0.005900404
141	0x3ce9fc7b	0.028562775
142	0x3cefc3f4	0.029268242
143	0x3cca0313	0.024659669
144	0x3c099cd7	0.00839921
145	0x3b078db0	0.0020683818
146	0xba824efc	-0.0009941752
147	0x3c4b2ebd	0.01240128
148	0x3c8d0151	0.017212542
149	0x39906c67	0.00027546586
150	0x3c79a21e	0.015236406
151	0x3cac466f	0.02102968
152	0xbbc342dc	-0.005958898
153	0xbcd07e66	-0.025450896
154	0x3b7e2c41	0.0038783702
155	0x3c5569a9	0.01302568
156	0xbcc9f7c0	-0.02465427
157	0xbb4c7b26	-0.0031201332
158	0xbc9d4966	-0.019200038
159	0xbcadad21	-0.021200718
160	0xbcc8ba53	-0.024502909
161	0xbc2d1c38	-0.01056581
162	0xbcc5acf9	-0.024130331
163	0xb96dbe5a	-0.00022672993
164	0xbc9eb221	-0.019372048
165	0x3d0938a5	0.033501286
166	0xbbe599d8	-0.007006865
167	0xbcb51383	-0.02210403
168	0x3c99fa96	0.018796246
169	0x391d4cc2	0.00015001281
170	0x3cd2cd3e	0.025732633
171	0x3c5ee1ed	0.01360367
172	0xbc814867	-0.015781594
173	0x3c9ffd92	0.019530091
174	0x3add71f8	0.0016894927
175	0xbcc790da	-0.024361063
176	0x3cdb4375	0.026765564
177	0xbc317de1	-0.0108332345
178	0xbc99893e	-0.0187422
179	0xbcd77723	-0.026301926
180	0xbcb4660a	-0.022021312
181	0x3cd959e7	0.026532127
182	0x3a4c9cc8	0.00078053446
183	0x3cf4cc98	0.029882714
184	0x3c4c1434	0.012455989
185	0x3ce8bde2	0.028410856
186	0xbc90eac8	-0.017690077
187	0xbcbe0cd1	-0.02319947
188	0xbc2de993	-0.01061477
189	0x3c03723b	0.00802284
190	0x3cdc866a	0.026919562
191	0xbc761dba	-0.015021736
192	0x3cf95239	0.030434715
193	0xbb76d596	-0.0037663928
194	0x3c6d6eb2	0.014491724
195	0x3c246bd1	0.010035471
196	0x3cc25014	0.023719825
197	0xbcb478e2	-0.022030298
198	0xbc2c8b9d	-0.010531333
199	0xbcc79714	-0.024364032
200	0x3c997f6d	0.01873752
201	0xba8d8c35	-0.0010799231
202	0x3cca3d9e	0.024687584
203	0x3c88dfd3	0.01670829
204	0xbb0b9151	-0.0021296332
205	0xbc531ca8	-0.01288525
206	0xbc86658a	-0.01640584
207	0x3c87c3dc	0.016572885
208	0xbb16d78b	-0.0023016657
209	0x3996bc5e	0.00028750574
210	0x3c8b5da2	0.017012421
211	0xbcaab567	-0.020838453
212	0xbc841aed	-0.01612612
213	0xbb180c1d	-0.002320058
214	0x3ca71404	0.020395286
215	0x3cb23d08	0.021757618
216	0xbccc5db1	-0.02494702
217	0xbca9465c	-0.020663433
218	0x3cfc4f14	0.030799426
219	0x3ca7d907	0.020489229
220	0x3c452b09	0.012034186
221	0xbbdfe6d7	-0.006832938
222	0x3c9052f3	0.017617678
223	0x3ae35b2e	0.0017345899
224	0x3ba45ef9	0.0050162044
225	0x3bff1c2c	0.007785341
226	0xbc17b1db	-0.009258713
227	0xbae5495c	-0.0017493176
228	0xba7049c7	-0.0009166267
229	0xba8062e2	-0.0009795094
230	0x3b905a09	0.0044052643
231	0x3c11b15d	0.008892384
232	0xbcccf382	-0.025018457
233	0x3c0c485f	0.0085621765
234	0xbc6b9dbd	-0.014380869
235	0x3c8558bd	0.016277665
236	0x3c887e2e	0.01666173
237	0xbb0a4b68	-0.0021102075
238	0x3c92a633	0.017901516
239	0xbce3055f	-0.027712522
240	0x3c82e38a	0.01597764
241	0xbc607883	-0.013700607
242	0x3c3e0ef5	0.011600246
243	0x3cd6e03a	0.026229966
244	0x3c8512d4	0.01624433
245	0x3cd190e3	0.025581783
246	0x3cdf99f6	0.027295094
247	0x3aaacee9	0.0013031635
248	0xbcdcc0c0	-0.02694738
249	0x3ce60e09	0.028082864
250	0xbad37304	-0.00161323
251	0x3ca515c6	0.020151984
252	0x3a11305c	0.0005538517
253	0x3cc5e9c7	0.024159325
254	0x3c247753	0.010038215
255	0xbccd85ce	-0.025088217

a2c_network.actor_mlp.2.weight f4 [128, 256]
0	0x3c8fcd58	0.01755397
1	0xbc1c2a78	-0.00953161
2	0x3ccb0a3d	0.024785155
3	0xbd17f7f3	-0.037101697
4	0xbd2c0b56	-0.042003
5	0x3d51885c	0.051155433
6	0xbd5ae869	-0.0534443
7	0xbd8c956e	-0.06864439
8	0xbd507e6c	-0.050901815
9	0xbd793b0f	-0.06084734
10	0xbd4a4256	-0.04937967
11	0xbd08a5c3	-0.033361208
12	0x3cdaef3f	0.02672541
13	0xbdaad373	-0.08341112
14	0xbd8c8e81	-0.06863118
15	0xbd0fe1fe	-0.035127632
16	0xbd92ea40	-0.07173586
17	0x3c9022f2	0.017594788
18	0xbcd79e6e	-0.026320662
19	0x3d20f862	0.039299376
20	0x3da50333	0.08057251
21	0xbd38247f	-0.04495668
22	0xbc44c328	-0.0120094195
23	0xbc5c44f2	-0.013444172
24	0x3cea622d	0.028611267
25	0x3d0ad560	0.033894897
26	0xbce5f076	-0.028068762
27	0x3c3fe857	0.011713109
28	0xbd889e58	-0.06670827
29	0xbd2d8d33	-0.042370986
30	0xbd48c82d	-0.049019028
31	0xbdb309a0	-0.0874207
32	0xbd60a4dc	-0.054844722
33	0xbd2463a1	-0.040134076
34	0xbc473afa	-0.012160057
35	0x3cec8915	0.02887396
36	0x3bb4a5b7	0.005512919
37	0xbc23fe24	-0.010009322
38	0xbc4f88e3	-0.012666914
39	0x3d81b411	0.06333173
40	0xbd165b1c	-0.036707982
41	0x3d3b0952	0.045663185
42	0x3d0a6a33	0.033792686
43	0xbd076baa	-0.03306166
44	0x3d4fa498	0.05069408
45	0x3cefa8e0	0.02925533
46	0xbd5e3076	-0.054245435
47	0x3d97afac	0.074065536
48	0x3c6add78	0.014335029
49	0x3d97f945	0.07420591
50	0x3a91763c	0.0011097859
51	0xbcd21023	-0.02564246
52	0x3d9ff2a4	0.07809952
53	0xbbefc946	-0.007317695
54	0x3d2c297e	0.042031758
55	0xbc4cbacb	-0.012495707
56	0x3d28d808	0.04122165
57	0xbc8551ec	-0.016274415
58	0x3d0ddcea	0.03463451
59	0x3cf52941	0.029926898
60	0xbc59a8c0	-0.013284862
61	0x3d7dc93f	0.0619595
62	0x3cd99917	0.026562257
63	0x3c29fa28	0.010374583
64	0x3cd7ce0d	0.02634337
65	0x3b3766c7	0.0027984844
66	0xbbddb5e5	-0.0067660683
67	0x3d30ce68	0.043165594
68	0xbd85a1e4	-0.06525019
69	0xbd57fb32	-0.052729793
70	0x3d222948	0.03959015
71	0xbd09dd90	-0.033658564
72	0xbcbb80d3	-0.022888577
73	0x3d3ef349	0.046618734
74	0x3c619343	0.01376802
75	0xbcb790d1	-0.022407921
76	0x3c288255	0.01028498
77	0x3d0a6aa9	0.033793125
78	0xbd13ebcf	-0.036113556
79	0x3d3ca7fd	0.046058644
80	0xbb08815d	-0.002082906
81	0xbd211697	-0.039328184
82	0xbcffd45d	-0.031229192
83	0xbca36af0	-0.019948453
84	0x3d0ed8e4	0.03487481
85	0xbb8d0e07	-0.0043046507
86	0xbd8d17ee	-0.0688933
87	0xbbcae6b1	-0.0061920513
88	0x3d8a7169	0.067599125
89	0xbc69e6b4	-0.014276195
90	0x3d9950e7	0.07486134
91	0x3d2bf664	0.041983023
92	0x3d6c81cc	0.05774097
93	0xbc3b0d3e	-0.011416731
94	0xbd53e36e	-0.051730566
95	0xbda6083c	-0.08107039
96	0x3b1fe737	0.002439929
97	0xbd067e83	-0.032835495
98	0xbb81da27	-0.0039627734
99	0x3d1c9eef	0.03823751
100	0x3d582081	0.052765373
101	0xbdbea258	-0.09308308
102	0xbd09748e	-0.03355842
103	0xbc88f25b	-0.016717127
104	0xbc245080	-0.010028958
105	0x3d7c964e	0.06166678
106	0xbcd7c785	-0.026340256
107	0x3d0292e9	0.031878386
108	0xbcc95a4d	-0.024579192
109	0xbba32417	-0.0049786675
110	0xbc6faac3	-0.014628115
111	0xbc67234b	-0.014107536
112	0xbcfdf239	-0.03099929
113	0xbd8bbebb	-0.06823488
114	0xbc073594	-0.00825252
115	0xbc8ee1c0	-0.01744163
116	0xbd3f5bf0	-0.046718538
117	0xbc40e4a7	-0.011773265
118	0xbd812292	-0.06305422
119	0xbd0d3377	-0.03447291
120	0xbd86e348	-0.06586319
121	0x3d9d1fa9	0.07672054
122	0xbbec8306	-0.0072177676
123	0x3d166bb8	0.036723822
124	0xbd88599b	-0.06657716
125	0x3bdf1c4b	0.0068087927
126	0xbdae9dde	-0.085262045
127	0x3ce0cca0	0.027441323
128	0x3d50dcf2	0.05099196
129	0xbdaa4546	-0.08313994
130	0x3d62942b	0.055317085
131	0xbbe5e24f	-0.0070155035
132	0xbd69a024	-0.057037488
133	0x3bf2fb7c	0.007415233
134	0x3d3801c7	0.04492357
135	0xbd3e0488	-0.04639104
136	0x3d29b22e	0.04142969
137	0x3cba8b46	0.022771489
138	0x3d1760c7	0.03695753
139	0xbc167363	-0.009182784
140	0x3ce23088	0.027611032
141	0x3c10c6ed	0.00883649
142	0x3d8ea50c	0.06965074
143	0xbd869566	-0.06571464
144	0xba155072	-0.0005695886
145	0x3c3e5cbf	0.011618792
146	0xbd2e694f	-0.0425809
147	0xbc84b469	-0.016199308
148	0x3d218f71	0.039443437
149	0x3d003718	0.03130254
150	0x3a2252b4	0.00061921333
151	0xba9f42b8	-0.0012150621
152	0xbd7110cb	-0.058853906
153	0x3d365470	0.04451412
154	0xbd0370f6	-0.03209015
155	0xbdbc4efe	-0.09194754
156	0x3cc9a483	0.024614578
157	0xbc9ce60b	-0.019152662
158	0x3cec3660	0.028834522
159	0x3d8294de	0.063760504
160	0x3d6fdac6	0.058558248
161	0x3d0ca81f	0.03434002
162	0xbd32fd41	-0.043698553
163	0xbbc535a8	-0.006018359
164	0x3d10d71d	0.035361398
165	0xbd3d05fa	-0.046148278
166	0x3d382e5a	0.04496608
167	0x3d54d1e2	0.051957972
168	0xbd7de0f8	-0.061982125
169	0xbc8ed781	-0.017436745
170	0xbd1415ee	-0.036153726
171	0x3c5d2e0e	0.01349975
172	0x3d14189d	0.036156286
173	0xbd217dc8	-0.039426595
174	0x3cb7b346	0.022424351
175	0xbc307256	-0.010769447
176	0x3d2b97bf	0.041892763
177	0x3d384e8e	0.04499679
178	0x3c0b7fb6	0.008514335
179	0xbd63b1f4	-0.05558963
180	0x3d0ec8ce	0.03485947
181	0xbd284070	-0.041077077
182	0x3cfc92b3	0.03083167
183	0xbc156a34	-0.009119559
184	0x3d64f1d4	0.055894688
185	0xbbcf7db3	-0.006332123
186	0x3b07d8d6	0.002072861
187	0xbd28014b	-0.041016858
188	0x3c9c7c6b	0.019102296
189	0xbc89555f	-0.01676434
190	0x3c7f4725	0.015580927
191	0x3c8c011f	0.017090378
192	0xbd50628d	-0.050875235
193	0xbd4c1aa0	-0.04983008
194	0x3d005575	0.0313315
195	0xbd3f3f34	-0.046691135
196	0xbd669eda	-0.056303836
197	0x3d6efcf7	0.058346715
198	0xbd192b37	-0.03739473
199	0xbcd21ac4	-0.025647528
200	0xbd94d489	-0.072671
201	0x3cce9db9	0.025221692
202	0xbbcdfb23	-0.0062860413
203	0x3be87b00	0.007094741
204	0x3c17416b	0.009231905
205	0xbb7673b2	-0.003760558
206	0xbb654587	-0.0034984068
207	0x3d62928f	0.05531555
208	0x3c53b683	0.012921932
209	0x3c9c938e	0.019113328
210	0xbdaa0c80	-0.083031654
211	0xbd33ece3	-0.043927085
212	0x3bf3bf35	0.007438565
213	0x3bb9d4ab	0.005671104
214	0x3b2b13b2	0.0026104269
215	0xbcaaf8b1	-0.020870538
216	0x3c80628b	0.015671989
217	0x3d5f8da3	0.054578435
218	0xbcab1442	-0.020883683
219	0x3b8c80aa	0.004287799
220	0xbc953bff	-0.018217085
221	0x3d9369f1	0.07197941
222	0xbc03f9ef	-0.008055194
223	0xbbc0bc51	-0.005881824
224	0x3d7fc2e6	0.06244173
225	0xbd1eeb9e	-0.03879892
226	0x3c2ec36c	0.010666709
227	0xbcee36c6	-0.029078852
228	0xbd608aba	-0.0548198
229	0x3d170029	0.036865387
230	0xbc32021d	-0.010864762
231	0xbdc096d9	-0.09403772
232	0xbd4a5951	-0.049401585
233	0xbc223055	-0.009899219
234	0x3d0a78fa	0.03380678
235	0x3c52df18	0.0128705725
236	0xba06fdf1	-0.00051495346
237	0x3d0d3658	0.034475654
238	0xbd9276d6	-0.071515724
239	0x3d08e536	0.033421718
240	0x3a6e1035	0.00090813945
241	0xb9d4b187	-0.0004056806
242	0x3c72caf4	0.014818896
243	0x3be5c06b	0.0070114634
244	0xbbf8d484	-0.007593693
245	0x3cf65383	0.030069118
246	0x3d73fbbc	0.059566244
247	0x3d931f9a	0.07183762
248	0xbc0bd7ce	-0.008535339
249	0x3cd5ed56	0.026114147
250	0x3cf1bbea	0.02950855
251	0xbcfc848a	-0.030824918
252	0x3d50856d	0.050908495
253	0x3c6cc50c	0.0144512765
254	0x3d64c8d2	0.05585558
255	0xbc76e2e9	-0.015068748

a2c_network.actor_mlp.2.bias f4 [128]
0	0xbc919bad	-0.017774427
1	0x3cefee60	0.02928847
2	0xbc0f5b13	-0.008749741
3	0x3c88ee26	0.01671512
4	0xbce2a0c5	-0.027664552
5	0xbc9d1237	-0.019173725
6	0xbc91922f	-0.017769901
7	0x3cffa02e	0.03120431
8	0xbce6b8ad	-0.028164232
9	0x3bf9e1f6	0.0076258136
10	0x3c42e804	0.011896137
11	0x3ce12e5d	0.027487928
12	0x3cd24a36	0.025670152
13	0xbccfafdb	-0.02535241
14	0x3c940c19	0.018072175
15	0x3cbaebee	0.022817578
16	0xbce609c8	-0.028080836
17	0xbc1e8d53	-0.009677249
18	0x3cb91572	0.022593234
19	0xbcd9ab83	-0.026571041
20	0xbcac1be7	-0.021009399
21	0x3cb5d73f	0.022197364
22	0x3d0644f5	0.032780606
23	0x3c901fe7	0.017593337
24	0x3cf34e59	0.029700445
25	0x3c8aa895	0.01692609
26	0xbcbcc43c	-0.02304279
27	0xbc9d48b6	-0.01919971
28	0x3c7f8f93	0.015598196
29	0xbcc82e8d	-0.02443626
30	0xbbdb05cd	-0.006684041
31	0xbcc02654	-0.023455776
32	0x3ced4da6	0.02896769
33	0xbccffb8a	-0.025388498
34	0xbcdd5178	-0.027016386
35	0x3d0a5ccf	0.033779915
36	0xbba713f4	-0.005098814
37	0x391137d3	0.00013849074
38	0x3c1e51fe	0.009663103
39	0xbcb9356b	-0.02260848
40	0xbcdf49d6	-0.027256887
41	0xbcb39754	-0.021922745
42	0xbcad55ce	-0.021159079
43	0xbc8fe744	-0.01756633
44	0x3d0e7441	0.034778837
45	0xbcc74564	-0.02432508
46	0xbcc18803	-0.023624426
47	0x3cd26e6d	0.02568742
48	0x3c976ccf	0.018484501
49	0xbcf0f3c8	-0.029413119
50	0xbcc720ee	-0.024307694
51	0x3cbcd7c2	0.0230521
52	0x3ca9dbe1	0.02073473
53	0xbccdcc80	-0.025121927
54	0xbcc1be55	-0.023650328
55	0x3c1ae0f3	0.009453046
56	0x3d214e5b	0.039381366
57	0xbc7006bb	-0.014650042
58	0xbca0ff2d	-0.019652927
59	0x3c89d184	0.016823538
60	0x3cad766b	0.02117463
61	0x3cd49b27	0.025952889
62	0x3c53b24b	0.012920926
63	0x3cb91571	0.022593232
64	0x3d16cfd5	0.036819298
65	0x3cd026e3	0.025409168
66	0x3d120fb9	0.035659526
67	0x3ce6a4da	0.02815478
68	0xbb3ab2c7	-0.0028487907
69	0x3cd454eb	0.025919398
70	0x3d1b6c90	0.03794533
71	0x3bc91b51	0.0061372896
72	0xbcd30df2	-0.025763486
73	0xbc44a9f8	-0.012003414
74	0xbc56c049	-0.013107368
75	0x3cf3d520	0.029764712
76	0x3c666cc0	0.014064014
77	0x3cb9702f	0.022636501
78	0x3ce10326	0.027467322
79	0xbcacff40	-0.021117806
80	0x3d11b34f	0.035571393
81	0xbcd6f374	-0.026239134
82	0xbc8679b1	-0.016415449
83	0x3d0ec0f0	0.03485197
84	0xbcc66283	-0.024216896
85	0x3cce35a2	0.025172058
86	0xbcef7e35	-0.029234985
87	0xbcda26dc	-0.026629858
88	0x3d016cf2	0.03159804
89	0x3c39916d	0.011326176
90	0x3c68550c	0.014180433
91	0xbcc88770	-0.024478644
92	0x3ccc9f23	0.024978226
93	0x3d086b2f	0.033305343
94	0x3cfead70	0.03108856
95	0xbcd2acc7	-0.025717152
96	0x3ce27349	0.027642863
97	0xbce25455	-0.027628103
98	0x3cb59cec	0.022169553
99	0xbc4e1266	-0.012577629
100	0xbcaca989	-0.021076934
101	0x3c9d5cdc	0.019209318
102	0x3ceaf05e	0.02867907
103	0x3c973aa2	0.018460575
104	0x3c8d6353	0.017259276
105	0x3cec3871	0.028835507
106	0x3cf2d9ca	0.029644866
107	0xbce6978b	-0.028148433
108	0xbc248f7d	-0.010043976
109	0xbcd6f2f4	-0.026238896
110	0x3d0a4642	0.03375841
111	0xbc22bcae	-0.00993268
112	0xbcda460f	-0.026644735
113	0x3c4abe21	0.012374432
114	0x3c68e400	0.014214516
115	0x3cd639f8	0.026150689
116	0x3cf4593b	0.029827705
117	0x3c3c8026	0.011505162
118	0xbb907c7c	-0.004409371
119	0xbcbf5f39	-0.023360835
120	0xbcc80497	-0.024416251
121	0xbce66262	-0.028123084
122	0x3cae2359	0.02125709
123	0xbca304b8	-0.019899711
124	0xbc5356cf	-0.012899115
125	0xbcf38f92	-0.029731546
126	0x3d057489	0.03258184
127	0x3c2e5a3f	0.0106416335

a2c_network.actor_mlp.4.weight f4 [64, 128]
0	0x3cc18c13	0.023626363
1	0x3b0b4c6b	0.0021255265
2	0xbb316c23	-0.002707251
3	0x3dbb75cc	0.09153327
4	0x3cc872bc	0.024468772
5	0xbc3c12e4	-0.011479113
6	0xbd294c22	-0.04133237
7	0x3c43b369	0.01194463
8	0xbdb06dce	-0.086146936
9	0x3dbd9a4d	0.09257946
10	0xbd81e810	-0.063430905
11	0x3d9d042f	0.076668136
12	0x3dc56c5d	0.09639809
13	0x3cd89e1b	0.026442578
14	0x3dccf538	0.10007709
15	0xbd2257fd	-0.039634693
16	0xbaf33566	-0.0018555343
17	0x3d378cc2	0.04481197
18	0xbd69d2b1	-0.057085697
19	0xbdc69aa6	-0.096974656
20	0x3c8642cf	0.016389279
21	0x3dbadc40	0.091240406
22	0x3d8404a9	0.06446201
23	0x3d31ef46	0.04344108
24	0x3d3e85f7	0.046514478
25	0x3d86de62	0.06585385
26	0xbda99112	-0.08279623
27	0xbdb25ec4	-0.08709481
28	0x3dadd4ce	0.08487855
29	0xbd666319	-0.05624685
30	0xbabd1988	-0.0014427165
31	0xbd50c730	-0.05097121
32	0x3d115621	0.03548253
33	0x3ba17c11	0.00492812
34	0x3d86030a	0.065435484
35	0x3b09f65f	0.002105139
36	0x3c78c08c	0.0151826255
37	0xbce4b7ac	-0.027919613
38	0x3d802e32	0.06258811
39	0xbb010a37	-0.0019689926
40	0x3d8ef257	0.069798164
41	0xbda30713	-0.07960334
42	0xbd18bcdc	-0.037289485
43	0x3d3b69db	0.04575525
44	0xbd81d6e7	-0.063398175
45	0xbd2c14ac	-0.0420119
46	0x3cb2b6a6	0.02181561
47	0xbca6fd70	-0.02038452
48	0xbd4196fb	-0.047263127
49	0xbcbb2f54	-0.022849716
50	0x3d67c296	0.056582056
51	0x3cc69372	0.02424023
52	0xbbbb1c42	-0.0057101557
53	0xbdaf04cf	-0.08545839
54	0xbcf7dc85	-0.03025652
55	0x3d07fc64	0.033199683
56	0xbd94610b	-0.07245072
57	0x3dac92c4	0.08426431
58	0xbb625812	-0.0034537357
59	0x3da17366	0.07883339
60	0x3cabedf7	0.020987494
61	0xbd880971	-0.06642426
62	0x3d12afa3	0.03581203
63	0xbd5e0531	-0.05420417
64	0x3cefab4a	0.029256482
65	0x3c02bb47	0.007979221
66	0xbd7979a1	-0.06090701
67	0x3d07d6de	0.033163898
68	0xbd61f973	-0.055169534
69	0x3d842ed5	0.06454245
70	0xbc4383ec	-0.011933308
71	0xbd6ac19f	-0.057313558
72	0xbdbb2134	-0.09137192
73	0xbd76892c	-0.06018941
74	0x3d824ff8	0.06362909
75	0x3dd4404c	0.10363826
76	0x3d5617d9	0.052268837
77	0xbd8910d1	-0.066926606
78	0x3ce7b34b	0.028283736
79	0xbd6aa80a	-0.05728916
80	0x3d72d048	0.059280664
81	0x3d877f54	0.06616083
82	0x3d029868	0.031883627
83	0x3c972903	0.018452173
84	0xbceaae1d	-0.028647477
85	0xbcc8a5b3	-0.024493074
86	0xbd761576	-0.06007906
87	0xbd89fcfa	-0.067377046
88	0x3d27bebc	0.040953383
89	0x3da52985	0.0806456
90	0xbc51cfae	-0.012805862
91	0x3dab3996	0.08360593
92	0x3d33148c	0.043720767
93	0xbcc47d7e	-0.02398562
94	0x3d86becc	0.0657936
95	0xbdaebe84	-0.08532432
96	0x3cebd607	0.02878858
97	0xbd862f40	-0.06551981
98	0x3d3962fe	0.045260422
99	0x3c4f2277	0.012642494
100	0xbbb50428	-0.005524177
101	0xbc13b074	-0.009014238
102	0xbd482320	-0.048861623
103	0xbc218539	-0.009858423
104	0x3d4effff	0.050537106
105	0xbc98aaaf	-0.018636076
106	0xbcb41282	-0.021981481
107	0x3d60895c	0.054818496
108	0x3bbb78f5	0.0057212063
109	0x3cfc58d9	0.030804085
110	0x3d6515e9	0.0559291
111	0xbd3d4298	-0.046206087
112	0xbca8944e	-0.02057853
113	0xbdaf37a0	-0.085555315
114	0x3d35ec50	0.04441482
115	0x3d9dc50e	0.07703601
116	0xbd62c448	-0.05536297
117	0x3d60d274	0.054888204
118	0xbd098425	-0.03357329
119	0x3cdfaf5a	0.027305294
120	0x3c22accf	0.009928896
121	0x3be381aa	0.0069429474
122	0x3d418d2c	0.047253773
123	0x3c92b173	0.01790688
124	0xbd796df2	-0.060895868
125	0xbd8debd5	-0.06929747
126	0x3dab90b0	0.08377206
127	0x3d1471c4	0.036241308
128	0x3a3f0f35	0.0007288338
129	0x3cc91266	0.024544906
130	0xbc99d889	-0.01878001
131	0xbdd0c3b4	-0.101935774
132	0x3d60e9e5	0.05491056
133	0xbd21e7cd	-0.039527703
134	0xbc3c5418	-0.011494659
135	0xbd16a5bf	-0.03677916
136	0x3d9cbbf2	0.07653035
137	0xbd4160b1	-0.047211353
138	0x3cbf6adc	0.023366384
139	0x3c450974	0.01202618
140	0x3d9689ac	0.073504776
141	0x3dabd07c	0.083893746
142	0x3cb207b7	0.021732194
143	0xbcd9003f	-0.026489375
144	0x3d40b2bb	0.04704545
145	0x3cae2add	0.021260673
146	0xbd7f8825	-0.062385697
147	0xbbd704f5	-0.00656187
148	0x3d4672c7	0.048449304
149	0xbd88a13e	-0.066713795
150	0xbd184849	-0.03717831
151	0xbd6a8664	-0.05725707
152	0x3d98e243	0.07465031
153	0xbdb14a8a	-0.08656795
154	0xbbe3a5c4	-0.006947251
155	0xbd5e9f11	-0.054350916
156	0x3d5c2873	0.053749513
157	0xbd79ea9f	-0.061014768
158	0x3d3b0f7f	0.045669075
159	0xbd58c6a3	-0.05292381
160	0xbcb29dd6	-0.021803778
161	0xbbebf8ac	-0.007201275
162	0xbc125f86	-0.008933907
163	0xbd4f45f5	-0.050603826
164	0xbd83102f	-0.06399571
165	0xbd61b0f7	-0.055100407
166	0xbd5c8eed	-0.053847242
167	0x3d3937ae	0.045219116
168	0x3cb68eca	0.022284884
169	0xbd743e5f	-0.059629794
170	0xbd67707b	-0.056503754
171	0x3daaca16	0.08339326
172	0xbd94ff4c	-0.072752565
173	0x3d5586b6	0.052130423
174	0xbba78d13	-0.005113253
175	0xbd8cb880	-0.06871128
176	0x3d068a27	0.032846596
177	0x3d76bd66	0.06023922
178	0x3d0a032f	0.033694442
179	0xbca41bb5	-0.020032743
180	0xbce3d632	-0.027812097
181	0xbc2d2b01	-0.010569335
182	0xbd9f473f	-0.07777261
183	0x3cc84a13	0.024449384
184	0xbd2afffe	-0.04174804
185	0x3c4d6304	0.012535814
186	0xbc0a9b13	-0.008459824
187	0x3d3c2fce	0.045944028
188	0xbdacb69e	-0.08433269
189	0xbd3d2419	-0.046177004
190	0x3d17bfe8	0.03704825
191	0xbce4efc5	-0.027946362
192	0x3d8e9425	0.0696185
193	0xbd766110	-0.06015116
194	0x3cdc3bbd	0.026883954
195	0x3cfee063	0.031112855
196	0x3dd7b46a	0.10532458
197	0x3d7d9004	0.061904922
198	0x3d1a5c87	0.037685897
199	0xbac42b64	-0.0014966545
200	0x3cb3c931	0.021946521
201	0x3d8eeb93	0.06978526
202	0xbd853653	-0.06504502
203	0xbda5cb39	-0.08095402
204	0xbbc69dbc	-0.006061284
205	0xbd83ffac	-0.0644525
206	0x3c9644e1	0.01834339
207	0x395924e1	0.00020708471
208	0x3d817705	0.06321529
209	0x3d71f018	0.059066862
210	0xbd8f021b	-0.069828235
211	0x3dd02834	0.10163918
212	0xbd8edda2	-0.06975867
213	0xbd9f2527	-0.07770758
214	0xbcf8456f	-0.030306546
215	0x3c50de58	0.012748323
216	0x39943dd3	0.00028274822
217	0xbcd66e64	-0.026175685
218	0xbb0b1d43	-0.0021227158
219	0xbd0c2bf7	-0.034221616
220	0xbcd3ee37	-0.025870426
221	0x3d2fbb08	0.042902976
222	0x3d4e9da0	0.05044329
223	0xbcbb6b38	-0.022878274
224	0x3d212781	0.039344314
225	0x3d51cc84	0.051220432
226	0xb9c25fb4	-0.00037073868
227	0xbcb5cc03	-0.022192007
228	0x3d7ae5e6	0.061254404
229	0xbb0c8107	-0.002143921
230	0x3d8e0f09	0.069364615
231	0x3d884e86	0.06655602
232	0xbdcf0ef5	-0.10110275
233	0xbc809736	-0.015697103
234	0xbd5bca99	-0.05366001
235	0x3c4168ab	0.01180474
236	0x3d874ba4	0.06606224
237	0x3d01b7a6	0.03166928
238	0xbc8ff9c3	-0.01757515
239	0x3d174d69	0.03693906
240	0x3d51fbce	0.05126553
241	0xbd48639f	-0.04892313
242	0x3d5704e5	0.052494902
243	0x3be27782	0.006911219
244	0x3cd6107b	0.026130905
245	0xbc902853	-0.017597353
246	0x3d78e7e5	0.060768027
247	0x3d115993	0.035485815
248	0xbc46ff4f	-0.012145831
249	0x3a45cd9c	0.0007545592
250	0xbd948e9d	-0.07253764
251	0xbdda4293	-0.10657229
252	0xbc56df46	-0.013114756
253	0xbd843600	-0.06455612
254	0xbb8791ac	-0.0041372385
255	0x3d89fa4c	0.067371935

a2c_network.actor_mlp.4.bias f4 [64]
0	0x3cb92b22	0.022603575
1	0xbc79f89a	-0.015257025
2	0xbc9fbb1d	-0.019498402
3	0xbcbde803	-0.02318192
4	0x3c8407bd	0.016116971
5	0xbcc14fb9	-0.023597585
6	0xbc812d62	-0.01576871
7	0x3c73dcf9	0.014884227
8	0xbccc692f	-0.0249525
9	0xbc82213b	-0.015884986
10	0xbc1fe883	-0.009760025
11	0x3cbbf71f	0.022944985
12	0xbccf28d8	-0.02528803
13	0xbca4e37f	-0.02012801
14	0xbcafa76c	-0.021442138
15	0x3c8a5449	0.016885893
16	0xbcc40bc2	-0.023931388
17	0x3cc3af70	0.023887366
18	0x3d0108b6	0.031502448
19	0xbca7bb69	-0.020475106
20	0x3c837a63	0.01604957
21	0xbc99b96a	-0.01876517
22	0xbc049012	-0.00809099
23	0xbccb5277	-0.024819596
24	0x3c1db94c	0.009626698
25	0xbcd1db53	-0.025617277
26	0xbcce061f	-0.025149403
27	0x3c889154	0.01667086
28	0xbc309f33	-0.010780144
29	0xbcc65bbe	-0.024213668
30	0x3ca4eb11	0.02013162
31	0xbcc14f48	-0.023597375
32	0x3c8305cc	0.015993975
33	0xbca362a8	-0.019944504
34	0xbc962c80	-0.018331766
35	0xbcd9e551	-0.026598604
36	0xbccef1b5	-0.02526174
37	0xbcc9ac2f	-0.024618236
38	0x3d0a7f58	0.03381285
39	0xbccb2302	-0.024796966
40	0x3cb2d2f2	0.021829102
41	0xbcc89f84	-0.024490125
42	0x3cedd2ac	0.02903112
43	0xbc75cdf1	-0.015002714
44	0x3cf934eb	0.030420741
45	0x3ce92c85	0.028463611
46	0x3cd11d6e	0.025526728
47	0x3cb51dbe	0.022108909
48	0x3d134d4b	0.035962384
49	0xbc776580	-0.015099883
50	0x3c97d72d	0.018535221
51	0xbcc9bc92	-0.02462605
52	0xbccccc04	-0.024999626
53	0x3cd84a38	0.026402578
54	0x3c34813a	0.011017138
55	0x3c1645aa	0.009171883
56	0x3cf73f1a	0.030181456
57	0x3cb8b863	0.02254886
58	0xbcce23d8	-0.025163576
59	0x3d0061f9	0.031343434
60	0xbcca1e86	-0.024672758
61	0xbc8ddaa4	-0.01731617
62	0xbcd44321	-0.025910916
63	0x3ab1591b	0.0013530584

a2c_network.value.weight f4 [1, 64]
0	0xbd832667	-0.06403809
1	0x3d99bac3	0.07506325
2	0x3dc5991b	0.09648343
3	0x3cc14aa8	0.02359517
4	0x3bc9c000	0.0061569214
5	0x3d9916e3	0.074750684
6	0x3d8f13f9	0.06986231
7	0x3c491f30	0.012275502
8	0x3d033c08	0.032039672
9	0x3dce9ec7	0.10088878
10	0x3dda5378	0.10660452
11	0xbd59dc14	-0.0531884
12	0x3c776832	0.015100526
13	0x3df1ef2b	0.11813196
14	0x3d96a08a	0.07354839
15	0xbdb2f109	-0.0873738
16	0x3df0adfe	0.117519364
17	0xbdd6de82	-0.10491659
18	0xbd4ba933	-0.049721908
19	0x3cdddc44	0.02708257
20	0xbd5c8623	-0.05383886
21	0x3d8856e0	0.06657195
22	0x3c190af7	0.009340993
23	0x3e05009d	0.12988515
24	0xbd26e323	-0.04074396
25	0x3dd366e6	0.10322361
26	0x3c59e962	0.013300272
27	0xbe01e7eb	-0.12686126
28	0x3dc404a5	0.095711984
29	0x3dcba43b	0.09943434
30	0xbe00ce39	-0.12578668
31	0x3cc56c09	0.024099367
32	0xbd643ba7	-0.05572095
33	0x3dbb30a9	0.091401406
34	0x3d9a6d38	0.07540363
35	0x3d318385	0.043338317
36	0x3df3ae25	0.1189845
37	0x3dfe0895	0.12403981
38	0xbd9b833b	-0.075933896
39	0x3dce4272	0.10071267
40	0xbcc53dd1	-0.024077328
41	0x3e030e6e	0.12798473
42	0xbdd470d2	-0.10373081
43	0xbcef4a73	-0.029210305
44	0xbd93a2c0	-0.072087765
45	0xbdf96528	-0.12177497
46	0xbe04cf83	-0.12969784
47	0xbdb73917	-0.08946436
48	0xbccf68c7	-0.025318516
49	0x3dd11a36	0.102100775
50	0xbe157498	-0.14595258
51	0x3d8efe25	0.06982068
52	0x3dad1416	0.08451097
53	0xbd529282	-0.051409252
54	0x3b8d799f	0.004317477
55	0xbd8a7cb8	-0.067620695
56	0xbd09cdf3	-0.033643674
57	0xbd81fb44	-0.06346753
58	0x3db266b4	0.08710995
59	0xbd9469bf	-0.07246732
60	0x3db8145a	0.08988257
61	0x3d7d559f	0.061849233
62	0x3deebfb0	0.11657655
63	0x3d039af1	0.032130186

a2c_network.mu.weight f4 [24, 64]
0	0xbdcb56f6	-0.09928696
1	0xbc44a2f8	-0.012001745
2	0xbc953d33	-0.018217659
3	0xbd70ec96	-0.058819376
4	0xbdc8de5d	-0.098080374
5	0x3df850ba	0.12124772
6	0x3c2b0d53	0.010440188
7	0x3d76d529	0.06026188
8	0x3d024aad	0.031809498
9	0x3d8f951b	0.070108615
10	0xbdd28d2f	-0.10280835
11	0xbc628ba4	-0.013827238
12	0x3d9d216a	0.07672389
13	0x3bf899ca	0.0075866925
14	0xbd2b089c	-0.041756257
15	0x3ac63921	0.0015123227
16	0xbdbdf785	-0.09275726
17	0x3d2421ea	0.040071405
18	0x3c38531b	0.011250283
19	0xbdbd7940	-0.09251642
20	0x3d729ac3	0.059229624
21	0xbdd512bc	-0.10403964
22	0x3d989bec	0.07451615
23	0xbd9c243d	-0.076240994
24	0xbde8e692	-0.11372103
25	0x3cf16f85	0.029472122
26	0xbb64ffe2	-0.0034942557
27	0x3dcbc277	0.099492006
28	0xbd7689d3	-0.060190033
29	0x3e04c25b	0.12964766
30	0x3cb2691d	0.021778638
31	0x3cda62ff	0.026658533
32	0x3cb4dfdb	0.022079399
33	0x3d2146e7	0.03937426
34	0x3d859bff	0.065238945
35	0x3ce456cf	0.027873425
36	0x3df1273e	0.11775063
37	0xbdca54ff	-0.09879493
38	0xbd80b4aa	-0.06284459
39	0xbd10fc26	-0.035396717
40	0xbdc05a93	-0.09392276
41	0xbdaa1298	-0.08304328
42	0xbdae610c	-0.08514604
43	0x3d1431d9	0.03618035
44	0xbd6f8d7c	-0.05848454
45	0xbde84903	-0.11342051
46	0x3d4e7370	0.05040306
47	0x3dd4e2d6	0.10394828
48	0x3d0753d0	0.033038914
49	0xbdb201df	-0.08691763
50	0x3dfcc58b	0.12342366
51	0x3c871d31	0.016493412
52	0x3aa289f1	0.0012400729
53	0x3b53d6db	0.0032324109
54	0x3dc95687	0.09830957
55	0xbd7f863e	-0.062383883
56	0xbdbadc84	-0.09124091
57	0x3d1f4286	0.0388818
58	0xbdb86951	-0.090044625
59	0xbd6e7a95	-0.058222372
60	0xbaf657ba	-0.0018794455
61	0x3ddb3ecf	0.10705339
62	0xbd1107ea	-0.035407938
63	0xbc5fc574	-0.013657916
64	0xbde72c39	-0.11287732
65	0x3d9e2480	0.077218056
66	0xbdc2d52f	-0.09513318
67	0x3c3d3b5a	0.011549795
68	0x3d0e5ebd	0.03475832
69	0xbcfee656	-0.031115692
70	0x3d0ed65c	0.034872398
71	0x3c26e9d0	0.010187581
72	0xbd924c99	-0.07143516
73	0xbdc7cb71	-0.097556
74	0x3dd6fc6a	0.10497363
75	0xbde8bffb	-0.11364742
76	0xbd3f9421	-0.046772126
77	0x3d8ce47b	0.06879517
78	0xbc833b3e	-0.01601946
79	0xbcd58537	-0.026064498
80	0x3cb0bdf5	0.021574954
81	0xbcce6644	-0.025195248
82	0x3d4b7615	0.04967316
83	0xbd3e0e3c	-0.046400294
84	0x3cd99342	0.026559476
85	0xbde4c2d4	-0.11169973
86	0xbc549547	-0.012975044
87	0x3dcee337	0.101019315
88	0x3d645c89	0.05575231
89	0x3bb81376	0.0056175543
90	0x3ce86475	0.028368214
91	0x3de903fc	0.11377713
92	0xbca564de	-0.020189699
93	0x3d9a7b5b	0.075430594
94	0x3dc8eb1d	0.09810469
95	0xbcdb78bd	-0.026790971
96	0x3da51f99	0.080626674
97	0x3d421fe4	0.047393695
98	0xbd3047a2	-0.043037064
99	0xbdb5e246	-0.08881049
100	0xbc91f39e	-0.017816361
101	0x3ddf83cc	0.1091381
102	0x3d6789ff	0.056528088
103	0x3dd0d105	0.10196117
104	0xbd9b289c	-0.07576105
105	0xbde0d196	-0.10977475
106	0xbd15634b	-0.036471646
107	0xbe0772da	-0.13227406
108	0x3d9e76a4	0.07737473
109	0xbd031568	-0.032002836
110	0xbda82b62	-0.082113996
111	0xbc3b4bc9	-0.011431643
112	0xbd161c22	-0.036647923
113	0xbb91edb6	-0.004453386
114	0x3d8a7a79	0.06761641
115	0xbd95d137	-0.07315295
116	0x3d56e6b4	0.05246611
117	0xbb4ab215	-0.00309289
118	0x3d895510	0.067056775
119	0x3c7ac892	0.015306609
120	0x3d6086d8	0.054816097
121	0xbde3adde	-0.11117147
122	0x3d98476d	0.074354984
123	0x3da1fb6e	0.079092845
124	0x3de344df	0.110971205
125	0x3ca36f93	0.019950664
126	0x3c232b73	0.00995909
127	0x3dcf20ca	0.10113676
128	0xbdb0dd01	-0.08635903
129	0xbcdafa00	-0.026730537
130	0x3c6b1314	0.01434781
131	0xbda819e7	-0.082080655
132	0x3dcba305	0.09943203
133	0x3d93d47f	0.07218265
134	0x3da9d5fb	0.08292767
135	0x3d956fa8	0.07296687
136	0x3cdd063b	0.02698051
137	0x3cba117c	0.022713415
138	0x3d8ecc1e	0.06972526
139	0x3cf3a579	0.02974199
140	0xbc9bff6a	-0.01904269
141	0xbc77082a	-0.01507763
142	0xbbe40af6	-0.0069593145
143	0xbdbfd4fe	-0.09366797
144	0x3d43120e	0.04762464
145	0x3df9f7bb	0.12205454
146	0x3d28e32d	0.041232277
147	0x3abc9be9	0.0014389727
148	0xba414f56	-0.00073741877
149	0xbdea80c2	-0.1145034
150	0xbe03f939	-0.1288804
151	0xbddf6aab	-0.10909017
152	0xbd8ab372	-0.06772508
153	0xbdfe4f9a	-0.124175265
154	0x3c9a8926	0.018864226
155	0x3e0730ba	0.13202181
156	0xbd1ee57c	-0.038793072
157	0x3d966970	0.07344329
158	0x3da527ae	0.08064209
159	0x3d9b179b	0.07572862
160	0x3d63bd22	0.055600293
161	0x3da6f3cc	0.08151969
162	0x3dab19c7	0.08354526
163	0xbd9b2548	-0.0757547
164	0x3c86f4b6	0.01647411
165	0x3d7ec47c	0.0621991
166	0xbda9156f	-0.08256041
167	0xbdbad873	-0.09123316
168	0x3dabdb4e	0.083914384
169	0xbd96d301	-0.073644646
170	0xbd76f7ea	-0.060295023
171	0xbc4bee79	-0.012446993
172	0x3c99abd0	0.018758684
173	0xbd1313f3	-0.035907697
174	0xbd8da5b5	-0.06916372
175	0xbda60a73	-0.08107462
176	0xbd6e7f62	-0.05822695
177	0x3de3ccb3	0.11123028
178	0x3d1e168e	0.03859573
179	0xbdbcf74e	-0.09226857
180	0x3dceba40	0.10094118
181	0x3db456f6	0.08805649
182	0x3bba7162	0.005689786
183	0xba74ed1c	-0.00093431934
184	0xbd90c153	-0.07068124
185	0xbce8f6bd	-0.028437966
186	0x3db1f78c	0.08689794
187	0xbd6ac5f4	-0.05731769
188	0xbae817db	-0.0017707305
189	0x3d92cc34	0.07167855
190	0xbdc81452	-0.09769501
191	0x3c3fe7e8	0.011713006
192	0x3d1b8078	0.037964314
193	0x3dfa0b8f	0.12209236
194	0xbd8abe02	-0.06774522
195	0xbd53ddd7	-0.051725235
196	0x3c6fb555	0.014630635
197	0x3d3a6835	0.045509536
198	0x3dade70c	0.08491334
199	0x3d3d0542	0.046147592
200	0x3dd32f62	0.10311772
201	0x3ddcd61a	0.10783024
202	0xbd60b3b4	-0.05485888
203	0x3d71fde4	0.05908002
204	0x3db3c7cc	0.087783426
205	0xbd5aab20	-0.053385854
206	0xbd261d87	-0.040555503
207	0x3d5979eb	0.053094786
208	0x3d9906c8	0.074719965
209	0x3c905179	0.017616974
210	0xbdbbcdf1	-0.091701396
211	0xbdca93e9	-0.09891493
212	0x3d1dc34c	0.038516328
213	0xbdb5c369	-0.08875162
214	0x3d2f4297	0.042788114
215	0x3c1062a3	0.008812579
216	0x3e05216c	0.1300103
217	0x3dc74e74	0.097317606
218	0x3e0406ae	0.12893173
219	0x3dd544d5	0.10413519
220	0xbde322fe	-0.110906586
221	0x3dcbcd18	0.09951228
222	0x3dd386d6	0.10328452
223	0x3dac0352	0.08399071
224	0x3c89460b	0.016757032
225	0xbda57343	-0.08078625
226	0xbdfcc19f	-0.12341618
227	0x3dfca826	0.12336759
228	0x3d122071	0.03567547
229	0xbdcd7d3b	-0.100336514
230	0x3d948203	0.0725136
231	0x3dea1b15	0.11430947
232	0x3c22e796	0.00994291
233	0x3da0899b	0.07838746
234	0xbdff49d2	-0.12465252
235	0xbd3478b2	-0.044060417
236	0xbe0305fa	-0.12795249
237	0xbdfceda9	-0.123500176
238	0x3b1672c4	0.002295659
239	0xbca11d5c	-0.01966732
240	0xbd3e1d4e	-0.046414666
241	0xbcd0beab	-0.025481543
242	0x3dad521b	0.08462926
243	0x3dd1a8c5	0.10237268
244	0xbd66596e	-0.05623763
245	0x3d8a792b	0.06761392
246	0xbd60b7bc	-0.054862723
247	0x3db99e25	0.09063367
248	0xbd97c8b7	-0.0741133
249	0xbdc444eb	-0.095834576
250	0x3ca4686f	0.020069329
251	0xbcf80398	-0.030275151
252	0x3c7c26ca	0.015390107
253	0xbceeb71d	-0.02914005
254	0xbce27338	-0.027642831
255	0xbded5406	-0.11588292

a2c_network.mu.bias f4 [24]
0	0x3ac3169f	0.0014884061
1	0xbbce5f17	-0.0062979567
2	0x3c554e27	0.013019121
3	0x3bb1f8e5	0.005431282
4	0x3cf989d2	0.030461226
5	0xbbb901f2	-0.005645984
6	0x3ce511f5	0.027962664
7	0x3cdec90c	0.027195476
8	0x3aed1a58	0.0018089516
9	0x3c87a55e	0.016558345
10	0xbcc3583d	-0.023845786
11	0xbccbe2de	-0.024888452
12	0xbbccda3f	-0.006251603
13	0xbc91134c	-0.017709397
14	0x3c6018d3	0.013677794
15	0x3b33f11a	0.002745694
16	0xbc2673c8	-0.01015944
17	0x3b2c832d	0.0026323304
18	0x3c14d6d5	0.009084423
19	0x3a056108	0.0005088006
20	0x3cdbbe1b	0.026824048
21	0x3c90fbdc	0.01769822
22	0x3a8d37da	0.0010774091
23	0x3be41220	0.0069601685

exp_avg f4 [24]
0	0xbc5c5d76	-0.013450017
1	0xbae75015	-0.0017647768
2	0x3a668655	0.0008793821
3	0xbb43b464	-0.002986216
4	0xbbac7abe	-0.0052636554
5	0x3bb5ef56	0.0055522127
6	0x39d94263	0.00041438927
7	0xbb4d0202	-0.0031281714
8	0xbbad2e8d	-0.0052850903
9	0x3b209d37	0.002450777
10	0xb89768b7	-7.219746e-05
11	0xbbad5d57	-0.005290668
12	0x3b620e3f	0.0034493355
13	0xbb7fa5ea	-0.0039008805
14	0xbb74a85d	-0.0037331798
15	0xbbab287f	-0.0052233334
16	0xbc0bb485	-0.008526926
17	0xbca81183	-0.020516163
18	0x3c3b03a4	0.011414442
19	0x3b6cc07c	0.0036125472
20	0xbb26daf6	-0.00254601
21	0xba63998e	-0.0008682244
22	0x3bfe73d0	0.007765271
23	0xbb606c5b	-0.0034244272

exp_avg_sq f4 [24]
0	0x39ea71fa	0.00044716877
1	0x3a0e6649	0.0005432112
2	0x3a1edc2f	0.00060600316
3	0x3a06af79	0.0005137842
4	0x3a0b9fd2	0.0005326244
5	0x39f8d1f8	0.00047458685
6	0x3a0c1dc6	0.0005345013
7	0x3a21befb	0.0006170121
8	0x39e69296	0.00043978234
9	0x39bf950b	0.00036541405
10	0x3a2022f6	0.0006108725
11	0x3a0ce838	0.00053751795
12	0x3a0ed637	0.00054487906
13	0x39d7e949	0.00041181807
14	0x3a07fc8e	0.0005187475
15	0x39cde067	0.0003926784
16	0x3a0501e8	0.00050738314
17	0x3a1831b0	0.0005805744
18	0x39fc26af	0.00048094007
19	0x3a0fc3ba	0.00054841826
20	0x3a348aab	0.0006887118
21	0x3a006b4e	0.0004898802
22	0x3a12ffa0	0.0005607549
23	0x3a080957	0.000518938
